checkpoints/tuning_multi/trial_20/best_model.pt (torch, 520320 bytes, 104 tensors)

encoder.feature_encoder.atom_embedding_list.0.weight f4 [119, 64]
00000000: 3b6d 103e 7c39 3a3c 04a8 3b3b b47f 963e
00000010: 1e42 7abe 9644 2bbe 1590 68be 3acd 393e
00000020: b7bd 6c3e 4c62 98bd dfff efbd 24b7 24be
00000030: 561d 773d 3058 95bd fd95 0a3e 0f1d 83bd
00000040: cda0 293e 470e df3d c43a 933d 7c27 3d3b
00000050: fdc3 7abe ac85 cb3c c83b ddbd ec71 d4bd
00000060: 324a f1ba f24c 14be 26d9 e93d 2a83 0e3e
00000070: 57d4 afbd b231 26be 353d 34be 0866 7e3d
00000080: b2be ef3d eb13 253e c39c db3d d9ae e13d
00000090: b5dc 2e3d bd85 67bd a812 dcbc 37ac 943d
000000a0: c6a0 a8bd 03aa 993e a15e 4b3d 32e4 c33d
000000b0: e557 483c 30ac 2bbc 68c6 ea3d 5e76 5f3e
000000c0: 9ed2 633b b385 3bbe 6369 5c3d ac6f 91bd
000000d0: 1b1d 543c 5146 0b3d c36c 513d f4d7 9dbd
000000e0: 9620 b6bd a407 9cbd 8fab 3cbd 4e4e 323d
000000f0: fd9e e63c 0b6b 383e 1d30 4ebe dfb4 2c3d
00000100: fdd3 1abe 190d 2ebe 2e98 4ebd 7949 143e
00000110: a65b bb3d e553 ee3d a7c7 2cbd 28c8 233e
00000120: 6215 a9bd 9fa9 4fbc 6342 2abe 9b76 153c
00000130: 7608 2a3d c8f4 31be 64de 1b3e 1788 0b3d
00000140: 6fd2 303e 2da2 9fbd 4356 0a3c fb05 6ebd
00000150: e4c3 1c3e e24b cfbd 0f6d d53d c632 02be
00000160: 3a54 0b3e 11a2 2cbe 3659 b8bd 8d5c a7bd
00000170: 46de fbbc 3928 13bb 03ac 6f3d b145 263e
00000180: b573 da3d 98ce b2bd 9438 2e3e 9f6d dabc
00000190: 33c8 cebd 139c 8a3d b43d 01bd 79f2 303e
000001a0: 6577 a53c 8e6e f53d 40f6 3e3d 6c57 f2bd
000001b0: 2817 1c3d 3c98 d6bd f798 46bd e1e9 6ebd
000001c0: d9e8 12be 4782 8f3d b332 033e dab6 36be
000001d0: 88d9 c93d 4664 12be 6b74 35be d0c4 7f3d
000001e0: 8988 83bb 5b55 e3bd c502 263e aa11 723c
000001f0: b097 e8bd 521c aa3d 5ef8 513c cd6a edbc
00000200: b9fd 03be 7e3a 013e 7e69 d23d a411 4cbe
00000210: 8ab4 4a3e 4fe1 8cbe 898f 17be 1b71 10be
00000220: 582e c1be 0488 843d 55ee 9ebc cbb2 db3c
00000230: ffcb de3c 7487 1d3b a67f 043d a06b 18be
00000240: 910c 343d 0834 3a3e 229e b1bd 6b4f fcbd
00000250: fe1a ac3d 1f2f 05be 9c45 c3bc b127 04be
00000260: 2381 8b3e 8e67 fa3c ee4b 13be 2929 4a3e
00000270: 2f04 003e 4daf e93d ff56 763d 5146 28be
00000280: b98a 1bbe 47a4 8cbe 77aa a03d 2586 1b3d
00000290: bafb ff3d 48e5 72bd 93b7 81be 4f78 31be
000002a0: 0308 e1bc 5b3f 1e3e 835e 893d 4651 ff3d
000002b0: e0b2 afbd 670c 543e 2d3a 3b3d d43d 0cbd
000002c0: 6bae 163e 0d72 033e 1080 8b3b 0600 22be
000002d0: 0687 88bd 0628 8cbc 37ed c4bd bafd 9a3d
000002e0: e633 9e3d 25a9 ea3d 0a87 b3be 12ce 2a3e
000002f0: 866d 35be 1a19 0cbe b5a8 393d 3ca0 28be
00000300: 5985 0dbe a13c 0a3e 95c3 173e c0c8 00be
00000310: d9d6 203d 1e01 bfbd e47f 2d3e 3a63 e23d
00000320: de70 933d 822a 17be 6665 b6bd 0edd 1bbd
00000330: 9cc4 25be 8ab7 d8bd 4d43 433d 00f0 16be
00000340: 3654 453d 4196 87bb 954c 74bc 42a3 58bd
00000350: 9b4a c7bd 5059 2dbe b157 fcbd c006 0c3e
00000360: 2ae4 5bbc 438b 343e 6165 1c3c f5d5 aebc
00000370: c661 de3d fc8e 2ebe 26d8 e5bd 7cb8 d43d
00000380: ff6b 41bd 5ab0 123e 8b71 87bc 8f39 043e
00000390: 6213 103c f509 9a3c 8f9a 1cbe 5526 80bd
000003a0: 01be 143c 446e a93d 9de6 0f3d c405 21bd
000003b0: 6c3a a03a 4962 1f3e 3b5d f73d b710 7d3d
000003c0: b29e 05be 915f 79bd 01c0 ec3d fbe6 263e
000003d0: 6a4e afbd 3d90 9d3d 8fa9 2dbd cb3c eb3d
000003e0: ece0 debc 3062 13be 6287 37be 424d debb
000003f0: 59a4 5a3d 5099 dabd 1ee0 113e 52e4 af3d
0.14104168 0.011366244 0.002863408 0.29394305 -0.24439284 -0.16725382 -0.22711213 0.18144694
0.23119245 -0.07440624 -0.117187254 -0.16085488 0.06033071 -0.07292211 0.13533778 -0.06402027
0.16565247 0.10891395 0.07188943 0.0028862646 -0.24488826 0.024844013 -0.10802418 -0.103732914
-0.0018408953 -0.14482477 0.11418371 0.13917223 -0.085854225 -0.16229895 -0.17601474 0.062109023
0.11706294 0.1612088 0.10723259 0.11019678 0.04269095 -0.056524027 -0.026864365 0.0725941
-0.0823379 0.3001252 0.049650792 0.09565009 0.012227987 -0.010478064 0.11463624 0.21822497
0.0034762989 -0.18312721 0.053811442 -0.07101378 0.012946392 0.034002606 0.051129114 -0.077072054
-0.08892934 -0.07618645 -0.04606205 0.04353171 0.028151983 0.18009584 -0.20135541 0.04216468
-0.1511993 -0.16997184 -0.0504381 0.14481153 0.0914834 0.11637095 -0.04218259 0.15994322
-0.082560316 -0.012674718 -0.16626887 0.009122516 0.041511975 -0.17378533 0.15221554 0.034065332
0.17267774 -0.077946045 0.008443418 -0.058111172 0.15309101 -0.101218954 0.10421192 -0.12714681
0.13606349 -0.16858698 -0.09001391 -0.081719495 -0.030745637 -0.0022454394 0.058513653 0.16237523
0.106666006 -0.08730811 0.1701377 -0.0266636 -0.10096779 0.0676805 -0.031552985 0.17279996
0.020198533 0.11983977 0.04662156 -0.11833081 0.03810802 -0.10478255 -0.048485722 -0.058328513
-0.14346637 0.0700727 0.12812309 -0.1784319 0.09855944 -0.14296064 -0.17720191 0.062443554
-0.004014079 -0.11100265 0.16211994 0.014774719 -0.11357057 0.08306183 0.012815563 -0.02898159
-0.12889756 0.12619969 0.10274027 -0.19928604 0.19795433 -0.27515647 -0.14800848 -0.14105646
-0.3773067 0.064712554 -0.019400755 0.026818654 0.027196882 0.0024037035 0.032348298 -0.14884806
0.043957297 0.18183911 -0.086727396 -0.12319835 0.08403586 -0.13006257 -0.023836903 -0.12905766
0.2724696 0.030566957 -0.14384434 0.19742264 0.12501596 0.11410389 0.06014156 -0.16433074
-0.15189637 -0.27469084 0.078450136 0.037969727 0.12499185 -0.05930069 -0.2533537 -0.1733105
-0.02746964 0.15453856 0.0670748 0.124666736 -0.085790396 0.20707856 0.045709778 -0.03423865
0.14714973 0.12836476 0.0042572096 -0.15820321 -0.06666379 -0.017108928 -0.09615558 0.07567926
0.077247426 0.11458043 -0.35063964 0.16680172 -0.17717561 -0.1368145 0.045326907 -0.16467375
-0.138204 0.1349969 0.14820702 -0.1257658 0.039267395 -0.09326385 0.16943318 0.11054082
0.07199262 -0.14762309 -0.08906059 -0.03805261 -0.16188282 -0.10581882 0.047671605 -0.1473999
0.048176013 -0.0041377847 -0.014910837 -0.05289007 -0.09731027 -0.16928601 -0.12321413 0.1367445
-0.013421098 0.17631249 0.009545655 -0.021342257 0.108584926 -0.17046732 -0.11222868 0.1038675
-0.047222134 0.14325085 -0.016533634 0.12912582 0.008793684 0.018803576 -0.15293334 -0.06257311
0.009078504 0.082729846 0.03513204 -0.03931214 0.0012224442 0.15564837 0.12078329 0.06178352
-0.13048819 -0.060882155 0.11560059 0.1629905 -0.08559878 0.07693527 -0.04239803 0.11486205
-0.02720686 -0.14392924 -0.17922738 -0.006784112 0.05337939 -0.10673773 0.1424565 0.085884705

encoder.feature_encoder.atom_embedding_list.1.weight f4 [5, 64]
00000000: bb2a dbbd d5a3 edbd 7c42 db3d fdd2 473e
00000010: 7d59 3b3e fc38 783e 66ad 723d 0095 103e
00000020: 6410 3abd e35d 833e 90da 3a3e 4cb0 f03d
00000030: c750 57be 82e1 f8bd 72e2 1abe 07fb 30be
00000040: 2c21 803e 8d90 2bbe 466f 62be f6ab e4bd
00000050: 21e0 993c d010 6fbe 3099 68bd 08a5 5abe
00000060: 8660 08be 7251 c13d b211 b83d 10bf 11be
00000070: 1588 64bc 22b2 04bd 8005 91be d4c1 01be
00000080: 15f1 d03d 7413 00bd 9d52 933e 7a80 37be
00000090: 6c3c 97be 55a2 81be b26b 69be 50de 1e3e
000000a0: 0767 163e ca00 8dbe 713c b3be 8c7a 03be
000000b0: 4bb3 403e 8887 cc3d 3c96 c13a faea 513e
000000c0: f6ca 4c3d cba8 3a3e d260 7ebd d229 83be
000000d0: fc48 13bd 2848 af3d 65c7 303d 6ee7 bb3c
000000e0: ace7 10bd 6b8d 833c b72d 12bd c37e 393c
000000f0: c13a 86bd 8a2a a9bd 843e 2e3e b8c9 c23b
00000100: d1f6 283e 7119 49be 2bbf b1bd b952 1cbe
00000110: 78e4 6abe 23f0 f7bd 9384 9abc 20f7 b0bc
00000120: 1843 95bc 91bb 3ebe 92e2 a3bc b121 a03d
00000130: 61dd 583e feac 363e bc58 7cbe ed5d 40be
00000140: 892e 6e3e 80f8 4c3e 859c 273e 9fbb 1bbe
00000150: 70a4 7e3e 1bad 92be e922 70be df32 d83c
00000160: 6e6e 0c3e 8c4d 8ebe 00cb 313d 5668 91bb
00000170: 81fc 1ebd c481 6cbe 2cc0 10be 54ca 623c
00000180: 5a6e 903d d861 3d3e b1f1 d5bd 50e7 8e3e
00000190: 8f63 e33d 6626 4dbe 344e 96be 9503 4b3e
000001a0: d18f b63c 6f71 f2bc 75ec c7bd 98f5 0d3e
000001b0: e54f d9bd 19ea 5cbe 8eb2 513e 6575 01be
000001c0: 4bdc 2d3e e7a5 4fbe a7ce 72bd 1576 25be
000001d0: 3aa3 4d3c 1ed7 0ebd 0d2b b43d ce35 6abe
000001e0: 6028 85be ab24 703e 0633 67be 68a2 cb3d
000001f0: 3b1e 83be c75d 6b3d 4196 cdbb 9b7b 14be
00000200: 71f8 c6bb eb49 143d c031 073c fa6f 643e
00000210: c3f4 2cbe c6ba 083e 4a0c 8b3e 43e2 58be
00000220: 6681 6cbe f51a cc3d 4d62 d6bd 1aea d9bb
00000230: 20d5 8cbe f870 383e 307c 9fbc 8982 943c
00000240: 61ec d1bd 2ca4 d13d 3174 9ebb 55ae f0bd
00000250: 8603 963d 5f3b e0bd 611f e03d 9999 90be
00000260: 8fab e9bd d0e3 4ebe a976 003e 2409 54be
00000270: bff4 693e da0a 933d 230f 393e d9f7 44be
00000280: 9549 75be 1f34 46bd dee8 25be 9d8d ccbd
00000290: 0835 783e 0f63 213e 976d b2bd 325b 373e
000002a0: a140 4abe e175 2fbe c7be 053e 0f5c 023e
000002b0: 9a9c aebd 5a0e 4ebe 02c8 3c3d 75a4 913e
000002c0: 2097 943e 0fb9 773e a96f 62be dc28 483e
000002d0: 9b2f 5d3d aa15 75be 1125 9b3c 96cc 91be
000002e0: 3aa4 813d c008 26be 0e2a 4bbe e714 6b3c
000002f0: 63a8 4b3e 1b7b 293e f0db 3abe 18c0 2b3e
00000300: d2b2 e03d d092 49be 31c4 9bbd 68b7 90bd
00000310: 376c 75be d5c2 89be 8a0b 4dbe 823f 893e
00000320: 4675 a0bd e7e0 e73c 87bd 7abe 56c1 4fbd
00000330: 2629 e43d 65ce c3bb 51d4 bdbc 85b4 80bb
00000340: 1107 4b3e 0fb7 54be 0c94 87be 2c6b 91be
00000350: 508f f53d fe32 28be dc0f 04be 74c0 1fbd
00000360: 8604 313e 48f5 273b 6a6a 6c3d 01a2 a9bd
00000370: 2055 243e b0a2 16be e3c0 683e b28c 783e
00000380: 27cf 87be 1838 bfbd 498a 11bd bd97 22be
00000390: 86b3 813c 6836 c6bd 27fb 793e b61b bfbc
000003a0: b0c9 28be ceef 15be 3d19 8dbe 9994 39be
000003b0: ba7f 6a3d 4a6b b63d 6723 02be 2c9f 443b
000003c0: 1f81 173e c3a6 1f3d d410 083d 9315 46be
000003d0: 19f1 8d3e 6e49 b2bd ce46 c73c 5dbd 14bd
000003e0: 042e 033e 841b 7abe 996e 893d b660 6abe
000003f0: 0156 6e3e ca0a eebd 9a90 763d 82db 9f3c
-0.107015096 -0.11603514 0.1070604 0.1951408 0.18295856 0.24240488 0.059247397 0.14119339
-0.045425788 0.25657567 0.18247437 0.11752376 -0.21026908 -0.12152387 -0.15125445 -0.1728326
0.25025308 -0.1675436 -0.2211276 -0.111656114 0.01878363 -0.23346257 -0.056786716 -0.21352017
-0.13318071 0.094393626 0.0898775 -0.14233041 -0.01394846 -0.032396443 -0.2832451 -0.12671596
0.10202233 -0.031268552 0.28773966 -0.17920104 -0.29538286 -0.25319162 -0.22794989 0.15514493
0.1468774 -0.27539665 -0.3500705 -0.12839717 0.18818395 0.09986788 0.0014769505 0.20499793
0.049998246 0.18228452 -0.062104054 -0.25617844 -0.035958275 0.085586846 0.043158907 0.022937503
-0.03537719 0.016058644 -0.03568813 0.011321726 -0.06554175 -0.08260067 0.17016035 0.005944457
0.16500403 -0.19638611 -0.086790405 -0.15265931 -0.22938716 -0.12106349 -0.018862044 -0.021602213
-0.01822047 -0.18626238 -0.020005498 0.07818926 0.211782 0.17839429 -0.24643224 -0.1878583
0.23259939 0.2001667 0.16368301 -0.1520829 0.24867415 -0.28647694 -0.23450817 0.026391445
0.13714 -0.2779354 0.043406487 -0.0044374866 -0.038815025 -0.23096377 -0.14135808 0.013842184
0.07052298 0.18494356 -0.104464896 0.27910852 0.11102974 -0.20034179 -0.2935654 0.19825585
0.022285374 -0.029595105 -0.097618975 0.13863218 -0.10610942 -0.21573676 0.2047827 -0.12642439
0.16978566 -0.2027813 -0.05927911 -0.16158326 0.012551123 -0.03487312 0.08797274 -0.22872087
-0.26007366 0.23451488 -0.22578058 0.09943086 -0.25609002 0.05746248 -0.006274015 -0.14500277
-0.006072097 0.036203306 0.008251607 0.2230834 -0.16890244 0.13352498 0.27157813 -0.21180062
-0.23096237 0.09966079 -0.10467968 -0.0066502215 -0.2750635 0.18011844 -0.019468397 0.01812865
-0.10250164 0.102363914 -0.0048356284 -0.11752001 0.07324891 -0.10948824 0.10943485 -0.28242186
-0.11409675 -0.20204091 0.12545265 -0.20706612 0.2284727 0.07179804 0.1807218 -0.19235171
-0.2395385 -0.04838955 -0.16202113 -0.09987948 0.2423898 0.15760444 -0.08712309 0.17905882
-0.19751216 -0.17134811 0.13061057 0.1273043 -0.08525963 -0.20122662 0.04608918 0.28445783
0.2902155 0.24191688 -0.22112907 0.19546837 0.05400048 -0.23934045 0.018938573 -0.284764
0.06330152 -0.16214275 -0.19840261 0.014348245 0.19888453 0.16550867 -0.18247962 0.16772497
0.10971607 -0.19684911 -0.0760578 -0.07066232 -0.23967062 -0.26906458 -0.20023933 0.26806265
-0.07834868 0.028305484 -0.24486361 -0.05072149 0.11140661 -0.005975532 -0.02317253 -0.0039277696
0.19826914 -0.20772956 -0.26480138 -0.28402078 0.11990225 -0.16425702 -0.12896675 -0.039001897
0.17286882 0.0025628377 0.05771867 -0.08282853 0.16048098 -0.14710498 0.2272983 0.24272421
-0.26525232 -0.09336871 -0.03553227 -0.15878196 0.015832674 -0.09678346 0.24412213 -0.023328643
-0.16483188 -0.1464226 -0.27558318 -0.18123092 0.057250716 0.089071825 -0.12708817 0.00300021
0.1479535 0.038977396 0.033219174 -0.19344167 0.27723005 -0.08705412 0.024325754 -0.036313403
0.12810522 -0.24424559 0.06710548 -0.22888455 0.23274995 -0.116231516 0.060196497 0.01951385

encoder.feature_encoder.atom_embedding_list.2.weight f4 [12, 64]
00000000: ac56 d03e 547c cebe 9f5c 93be 07f1 6dbd
00000010: b209 79be 16a2 abbd ba57 e1bd bac7 bcbe
00000020: 0d8b ce3e 292b 973e 1691 5cbe a022 2cbe
00000030: 12e3 dabe 0aa1 a1bd a2b4 77be 35a6 a9be
00000040: ebdc 13be 4d89 97bd 961b 4e3e 0a2c 083d
00000050: 0c53 b0be ea92 b4bd 6516 893d 7475 803d
00000060: 2c5d 26be 90ae 9abe 5f84 aabc bef2 8b3e
00000070: 7e28 86bc aef6 44bd af9c 7fbd e4da 413e
00000080: 6db0 703d 3e42 acbd 570b 3cbe 227c 3e3e
00000090: d31b 1dbe 85ae d2bc 4695 583e ecd5 63bd
000000a0: faac cabd 3054 403e 43da 993e 85f2 893e
000000b0: 5dba 87be 4c0a 203d bd78 90bd 5f8a 9c3d
000000c0: 1802 f6bd 1c7d d2be 7aee a53d 47a3 ecbc
000000d0: f766 b53d 06ca 5fbe 1f83 5ebd 4768 1cbe
000000e0: 4677 34be 2b23 d7be a75a c9be ee3e 88be
000000f0: b6cd 3c3e 8d95 ebbd 4619 82be 7718 b13d
00000100: 471b 91be 4acd c6bc ebda 163c e611 8abe
00000110: 18ea d83d 0584 aabd 6cb9 d7bd 6fca 81be
00000120: 8c16 9ebd 8f22 9abe dfd9 c63d b112 9dbd
00000130: 4393 7cbe bdd7 93be 8460 7a3d 28f3 473e
00000140: 81a2 81be 2020 843e 7526 423e fc68 aebe
00000150: c6e6 823e efdc 8b3c 7688 7bbe ce7e eabc
00000160: aa8e 51be eaf9 9d3d 9e2e 963d 6c87 a33e
00000170: 2491 09be 626b 883e 118d 29be b57c 403e
00000180: 252c 6ebe 2d26 013f c6af 503e 6e66 e4bd
00000190: c956 82be 2da5 9c3e c28b 313e 4d6b f6bc
000001a0: ff4e 053d 62cc 8ebc f6b1 afbd 7915 e33d
000001b0: 6640 8c3d d8d3 a7bd 8b76 a1bd 6a73 8dbe
000001c0: f637 473e 2caa 85be e5c1 b1be 5e99 a6be
000001d0: 20a5 c5bd d697 b1be aa66 65bd 72b9 23be
000001e0: 7de2 a33d 74a6 603e 1f64 d83d 46b6 07be
000001f0: 4932 2c3e a296 60be d4f2 68be 93a2 ffbd
00000200: f7b4 62be 56c0 0d3e 4fec f33d 7fc9 373e
00000210: e6dc a03d 31c9 f83e 8814 4d3d 7310 eabc
00000220: b217 a8be 2bbd 903d 67d9 bdbe 45c0 603e
00000230: 2624 9cbe 88c1 0fbe 6994 cc3e b26d 3abe
00000240: 91b7 613d 8aa2 b4be 3d14 27be 3d4f 913e
00000250: 973f 1ebd 4a76 2e3e 0d0c 41be 6b99 883e
00000260: 7234 b73e c003 9dbb 53c2 29be 52e0 283d
00000270: cf11 9f3e ac24 3abe ff07 4d3e 6516 933e
00000280: 9ea8 cf3e 20dd 73be 4c03 013e 2e64 c63b
00000290: 5f80 7a3d 542d 9ebd 4a5e 463e 8fc8 cabd
000002a0: cd1a 77bd 22cd 17be 9d9a 553d 1f38 2c3e
000002b0: f8b8 c83e a698 4ebd bdd8 30bc 3f83 adbe
000002c0: 0474 183e ab5f 1ebe 5c56 cabc 485c 813e
000002d0: c576 0b3e 58b5 bbbe 87a2 82be a40e 2cbe
000002e0: 5472 8fbc 4e4b 8e3e a314 a53e 5674 a93e
000002f0: e02f bbbe d54d dc3d 1b67 4dbe c0d0 8ebd
00000300: 7ac3 763d 941f 883d c3bf 83be b2f5 a6bc
00000310: 3b9b 463e cfbb 103e 21a2 09bf bedb f43d
00000320: 141a 29bd 5882 90be 7c31 893e 1ca0 1ebe
00000330: 8b9c 3f3a cda3 03be b6b3 013e 9fb5 3bbe
00000340: 40f4 cdbb eda2 063e 2b5f 3cbe 3895 ff3d
00000350: f77b ca3e 7d59 40bd 9331 9e3a 705b d0bc
00000360: 5175 c5bd 42fb acbe 3590 1fbe 573c 093e
00000370: dde4 e23d 91ca 693e 2226 03bd 6119 003e
00000380: c334 f8bd 492c 5cbe b459 8d3d c672 c0be
00000390: d926 30be 8858 bc3d 77a0 98be 9477 b5bd
000003a0: 119e 13be 0068 1abe 7811 00bd 716b eebd
000003b0: 2614 e3be 2e83 20be f874 e13e 53c4 debd
000003c0: ecd9 69be 890b 2dbe 133b 763e 884a 223d
000003d0: 8454 21bd 42b0 d23e 4907 86bb 2328 8b3d
000003e0: c111 af3e e39c 27bd f569 13be 5d20 383e
000003f0: 1983 6e3e 0f7e 77be e5dc 943e ca0b 52be
0.40691125 -0.4032923 -0.28781602 -0.05809119 -0.24320105 -0.08380525 -0.11003061 -0.3687113
0.40340462 0.29525116 -0.21539721 -0.16810083 -0.42751366 -0.07892044 -0.2419 -0.33134618
-0.14439742 -0.07399235 0.2012771 0.033245124 -0.3443836 -0.08817084 0.066937245 0.062724024
-0.1624648 -0.30211306 -0.020815073 0.27333635 -0.01637673 -0.048086815 -0.062405284 0.18931156
0.058762003 -0.08411072 -0.18363701 0.1860204 -0.15342645 -0.025717983 0.21150693 -0.055623934
-0.09896274 0.18782115 0.30049333 0.2694284 -0.2650937 0.03907232 -0.07054279 0.0764358
-0.12012118 -0.41111076 0.081021264 -0.02888645 0.088575296 -0.2185441 -0.054324266 -0.15274154
-0.17623624 -0.4201902 -0.39326975 -0.26610512 0.18437847 -0.11503134 -0.25409907 0.086472444
-0.28341123 -0.024267811 0.009207468 -0.2696678 0.10591525 -0.08325962 -0.10533413 -0.25349757
-0.07719144 -0.3010449 0.09709524 -0.07669581 -0.24665551 -0.28875533 0.0611272 0.1952635
-0.25319293 0.2580576 0.18959983 -0.34064472 0.2556669 0.017073123 -0.24563774 -0.028624918
-0.20464578 0.07713683 0.0733311 0.31939256 -0.13434273 0.26644427 -0.16557719 0.18797572
-0.23259027 0.50448877 0.20379552 -0.111523494 -0.25456837 0.3059477 0.1733847 -0.030080462
0.03254604 -0.017431442 -0.08578865 0.1108808 0.068482205 -0.08194703 -0.078839384 -0.27627116
0.19454941 -0.26106393 -0.34718242 -0.32538885 -0.09650636 -0.34686154 -0.05600611 -0.1598871
0.080021836 0.21938497 0.105659716 -0.13253126 0.16816057 -0.21932462 -0.22748882 -0.124821804
-0.22139345 0.13842902 0.11910307 0.17947958 0.07854633 0.48590997 0.05006841 -0.028572297
-0.32830578 0.07067331 -0.37079927 0.21948345 -0.3049633 -0.1403867 0.39956978 -0.18205908
0.055106703 -0.35280257 -0.16316314 0.28380767 -0.038634863 0.17037311 -0.18852253 0.2667955
0.357822 -0.004791707 -0.16578035 0.041229554 0.31068274 -0.18178052 0.20022582 0.28728023
0.40558332 -0.23814821 0.12598914 0.006054423 0.06115758 -0.077234894 0.19371906 -0.09901535
-0.060328294 -0.14824346 0.052149404 0.16818283 0.3920362 -0.050438546 -0.010793862 -0.33889195
0.14888006 -0.15466182 -0.024699382 0.25265718 0.13619526 -0.36661792 -0.25514624 -0.1680246
-0.01751057 0.27791828 0.32242307 0.3309657 -0.36559963 0.10757033 -0.20058863 -0.0697341
0.060245015 0.06646648 -0.2573224 -0.020380829 0.19395153 0.14134143 -0.53763014 0.11955975
-0.041284636 -0.28224444 0.26795566 -0.15490764 0.00073093985 -0.12855454 0.1266621 -0.18331002
-0.0062852204 0.13148089 -0.18395679 0.12479633 0.39547703 -0.046960343 0.0012069218 -0.025434226
-0.09641517 -0.33785444 -0.15582354 0.13401924 0.110788085 0.22831179 -0.03201879 0.12509681
-0.121194385 -0.21501268 0.06901875 -0.37587565 -0.17202319 0.091965735 -0.29809925 -0.08860698
-0.14415766 -0.15078735 -0.03126666 -0.116415866 -0.4435131 -0.15675041 0.44034553 -0.108772896
-0.22837037 -0.16898932 0.24045973 0.03962186 -0.03938724 0.411501 -0.004090224 0.06794765
0.34193233 -0.040921103 -0.14395888 0.17981096 0.23292197 -0.24169181 0.2907478 -0.2051231

encoder.feature_encoder.atom_embedding_list.3.weight f4 [12, 64]
00000000: 6178 d93d 8516 b43d b1b0 f43d b8ef 033c
00000010: d3f0 213e dfe1 5e3e d5a0 1bbe a547 67be
00000020: 0cf2 7a3e cb05 6f3d 4a5c a23d bc5a 563d
00000030: 3803 41be 598e c93d 3596 0abe 0276 5abd
00000040: 7291 973e 20b3 cdbd decc 71be c14a b3bc
00000050: e449 e13d e6c9 85be b022 373e da31 4d3c
00000060: 43b0 093d c5e0 813e 53fd 053d 418d 82bc
00000070: c85c 91be 3943 6a3e b64b babd bccf 1fbe
00000080: 6d25 883d bc5f 413e 0a00 2f3c f090 71be
00000090: 584d bfbe 4982 fa3d aa73 2c3e 0b79 453d
000000a0: c2ad a63e c5b8 1cbe b8bc b23d b3e2 963e
000000b0: 73d2 71bd e9bf 0dbe 91b2 24be 67a0 05be
000000c0: 8600 ddbd a2cd 1abe 85f2 b0be 1976 ed3d
000000d0: c101 26bd 9e6c 6f3c 0f8a e73d 01f6 8ebe
000000e0: 8992 cdbd 66b2 7d3e cc4e 46bd c08f 193e
000000f0: 539b a0be dbd1 f63d 0b90 253e 227d 74be
00000100: 8836 b6bd a17e a23e 421e 8b3d f184 f8bd
00000110: f725 723d ccd9 39be 9782 26be f1cd c13e
00000120: c35e 173e 33ff 11bd 18d2 39be 9d27 91be
00000130: 1f70 1fbd a2f4 0a3e fd50 aa3e f641 25be
00000140: 0527 353e 1eb5 8dbc b6d5 aabd a977 b03e
00000150: 430a 1e3e 7e38 8d3e a51c 8dbe 8761 17bd
00000160: 0000 ddbd 1d17 123e bc89 243e 7ab7 aebc
00000170: 6469 173e d081 a93d 19df 96bd fe04 123e
00000180: c598 efbd 1d5a 8a3d 54cc f4bc 3226 65be
00000190: ec3b 08be 0cf0 54be 5992 83be af2c 90bc
000001a0: 42db db3d 43d7 353e 9ec4 373e 7002 ccbb
000001b0: 9002 22bd c95d 45be 2a5d e63e d0f4 fbbc
000001c0: 4ddc 6e3e abfa 9bbe e476 553c 4c2d 0ebd
000001d0: 5212 6e3e 32e8 91be 5623 37be f044 5abe
000001e0: a692 9b3e cf71 8cbd 36ec 1cbe 70b5 af3d
000001f0: e5a6 20be fc4b 44be be76 de3d e3c0 48be
00000200: bb8d 90bd bab1 6abe ee60 5e3e d521 a7be
00000210: 760d 71be 144b 9bbc 78bb dbbd 36a3 913e
00000220: 6060 703e 4f4e 1e3e 92f5 793e ecaf eebd
00000230: 3989 743e 551d c2bc c06f 633e 4954 c1ba
00000240: b83b ab3d a049 1e3e db6c dabd eab7 19bd
00000250: 6712 2e3e 2210 8bbd 3d55 aabd 4d49 7fbe
00000260: 60d3 543d 24b4 e3bd c695 9abe 30e3 8c3e
00000270: 5182 afbd 3e73 ab3e 69ae 70be 1d12 22be
00000280: de0f 23be 3ddd 313e 83cc b3be fa35 a6be
00000290: 33af 3ebe d4a2 68be 6868 f03d 9282 dbbc
000002a0: 3833 42be 34f7 cdbd 3e6f 29bc 1a0e 34be
000002b0: 4f61 89be 7a3c 443e fd44 18be a234 623e
000002c0: 65dd 3cbe 8ed6 43be ac49 84be c2d3 03be
000002d0: 7868 43be a2a2 06be ef03 c0bd 1d7e 17be
000002e0: 078e 693e 78b7 d0be bdd9 fcbd 3f1f 613d
000002f0: 4b25 b4be e44d 69bd 7727 1abe ddcc 9ebe
00000300: d808 9d3d 2bd1 443d 1f55 97bc fae2 4c3e
00000310: 399c 9abe 78be 58be 9bbb d8be 2216 733d
00000320: 3d80 6cbe f7a8 0f3e 1458 d6bd ef79 603e
00000330: e3b8 803d 7026 05be a181 8ebe b91d 963e
00000340: 2853 4cbd be6c 893d ae6b dfbd 45fc fbbd
00000350: 24cd 2fbe d94a 0b3e 7990 5b3e 8103 33be
00000360: 2888 56be f300 b93d 5454 ef3d c7c3 38be
00000370: 7067 4c3e cd80 12be 090c 7bbe 5c27 213e
00000380: ba72 e0bc ef53 82bc 3f00 26bd 0454 10be
00000390: 4252 f7bd 7166 80be 94ac 853e 5bec 69bd
000003a0: baff 053e fddd 063e 800d ee3c f390 a7bc
000003b0: 0a01 8cbe e613 9ebd cb2b b7bd 7a74 0cbe
000003c0: 3c2a ea3d 304c 23be 40cc 34be 3123 133e
000003d0: 18ea 093e 6cd5 abbe 46f2 73be 1d35 3a3e
000003e0: 9cf8 45bd b5a5 893e 6d9f b0be 16ea 253e
000003f0: 939e 3bbe 4788 fe3d 6dec 0cbe 0dd6 b0bd
0.106186636 0.08793358 0.11947764 0.008052759 0.15814523 0.2176585 -0.15198071 -0.22585924
0.24506396 0.058355134 0.07927759 0.052332625 -0.18848884 0.09841604 -0.13533862 -0.053335197
0.29603153 -0.10043931 -0.23613307 -0.021886231 0.11000422 -0.261306 0.17884326 0.012524093
0.033615362 0.25366798 0.032712292 -0.015936496 -0.283911 0.22877206 -0.09096472 -0.15606588
0.066477634 0.18884176 0.010681162 -0.23590446 -0.37363696 0.12231881 0.16840997 0.04821114
0.32554442 -0.15304859 0.087274015 0.29469833 -0.05903859 -0.13842739 -0.16083743 -0.1304947
-0.107911155 -0.15117505 -0.34560028 0.11594791 -0.040529016 0.014613299 0.113056295 -0.2792206
-0.10037715 0.24775085 -0.04841499 0.14996243 -0.31368503 0.120517455 0.1616823 -0.2387586
-0.0889712 0.31737235 0.067928806 -0.121347316 0.059118237 -0.18149489 -0.16260754 0.37852433
0.14782242 -0.035643768 -0.1814655 -0.28350535 -0.038925286 0.13569883 0.33264914 -0.16138443
0.17690666 -0.017298277 -0.083415434 0.34466293 0.15433602 0.27582163 -0.27560917 -0.036958244
-0.107910156 0.1426663 0.16068166 -0.021327723 0.14786297 0.08276713 -0.07366771 0.14259717
-0.1169906 0.06755469 -0.029882587 -0.22377852 -0.13304108 -0.20794696 -0.25697592 -0.017599432
0.107351795 0.17757897 0.17946097 -0.0062258765 -0.039553225 -0.19274057 0.44992954 -0.030756384
0.23326226 -0.30464682 0.013028834 -0.034711167 0.23249176 -0.28497463 -0.17884573 -0.2131536
0.3038532 -0.06857645 -0.15324482 0.08579528 -0.15688665 -0.1916961 0.10862492 -0.1960483
-0.07058283 -0.2291936 0.21716663 -0.32643 -0.23540291 -0.018956698 -0.10729116 0.28444833
0.23474264 0.1545956 0.24410084 -0.11654648 0.23880471 -0.023695627 0.22210598 -0.001474985
0.08361 0.15457773 -0.10665294 -0.03752891 0.16999207 -0.067901865 -0.08317039 -0.24930306
0.051959395 -0.111183435 -0.30192393 0.2751708 -0.08569778 0.3348636 -0.23504032 -0.15827222
-0.15924022 0.17369552 -0.35116968 -0.32463056 -0.1862152 -0.22718364 0.11738664 -0.02679566
-0.18964851 -0.10056916 -0.010341464 -0.17583504 -0.26832053 0.19163695 -0.14870067 0.2209039
-0.1844383 -0.19124815 -0.25837457 -0.12873748 -0.1908282 -0.13147977 -0.0937575 -0.14794202
0.22808085 -0.40764976 -0.12346218 0.05496144 -0.35184702 -0.056959048 -0.15054117 -0.31015673
0.076677024 0.04805104 -0.018473206 0.2000846 -0.30197313 -0.21166408 -0.42330632 0.05934728
-0.23095794 0.14029299 -0.10466018 0.21921514 0.06285264 -0.13002944 -0.27833274 0.29319552
-0.04988399 0.06710194 -0.1090921 -0.12303976 -0.17168099 0.13602771 0.2144183 -0.17481805
-0.20950377 0.09033384 0.11686006 -0.18043433 0.19961333 -0.14306946 -0.2451631 0.1573767
-0.027398456 -0.015909163 -0.04052758 -0.1409455 -0.12076236 -0.25078157 0.2610823 -0.05711017
0.13085833 0.1317062 0.029059172 -0.02045486 -0.27344543 -0.07718639 -0.089439 -0.13716307
0.11433837 -0.15947032 -0.1765604 0.14368893 0.13468206 -0.33561265 -0.23822889 0.18184324
-0.048332796 0.26884237 -0.34496632 0.16202578 -0.1832221 0.124283366 -0.13762064 -0.08634577

encoder.feature_encoder.atom_embedding_list.4.weight f4 [10, 64]
00000000: 9904 ad3e 3507 083e 03ef e23d cf7f 373e
00000010: 6b20 d63d 0b11 8fbe 3231 133e 8695 3cbe
00000020: 5bf9 ad3e 1cc8 15be a246 79be 6f07 113e
00000030: a85f 86be 61ea 9a3d 4467 3cbe 51f0 c7bc
00000040: c941 9b3e 20aa 973e b261 01be ab74 373e
00000050: dd81 e53d b54c 3fbe f741 a2be d92c 25be
00000060: 2a16 51be 5a85 553e 19d1 41be 784e 69be
00000070: ea5f a6be e8c1 863e d166 8fbe 0727 afbe
00000080: f181 a43d eab0 30be d5a6 0abe 70fa b4bd
00000090: 1299 5b3e 3ead a73c 7515 94be 9278 303d
000000a0: 7663 8cbd fa19 35be 95a1 313e 715f 77be
000000b0: 8550 84be 13d9 8d3e 51ee ed3d ccd9 933d
000000c0: 9f9b 0a3e 1fff b33d 5e9a 433e 42a8 8ebd
000000d0: f646 23be 6ebb 093e 3c12 40be e0cc 97be
000000e0: f6fa c43e 0d35 3a3e 6c87 40be 70da 6f3e
000000f0: 890e 073e 246d 3d3e a9a2 353e 3a40 8dbd
00000100: 1842 f1bd 7369 b43e c730 943e 3dd5 593e
00000110: 2f54 583e 3585 0c3e 2b18 403e 4d81 f03e
00000120: 4fcd 6dbe df1f 67be af13 64be 86a6 b1be
00000130: 1c4d f03e 07ba 023e 277c 28be 199b adbd
00000140: bdba 453c 4b20 23be bd47 0a3e b4e5 88bd
00000150: 396e d1bd d46a 063e 7155 2d3e c6c5 933e
00000160: 46f1 d93e 5217 94be eae1 633d 84af d63d
00000170: b3e5 aa3e 9e14 9cbe ad99 1ebb 3231 3cbe
00000180: 5b16 d93d c0e5 86bd 6793 e43e 3fc5 d23e
00000190: 050b bbbd 8af8 863d ee3b 253e d4ec 4abe
000001a0: e7df 353d 2f8d 33bd 83e6 6ebe c634 953d
000001b0: 62d3 d6be 58e4 533d f10b acbe b009 9f3c
000001c0: f17a 86be 379e 803e 1784 de3e 52ed 6abe
000001d0: 8217 9fbd bff9 3fbe f864 98be 3b0e 08be
000001e0: 7f9b bfbe d84d 57be 23c2 de3e 9eaa 9b3d
000001f0: 5114 b43d c38b d7be e1b2 07be dd2e a8bb
00000200: 2341 00bf eda2 7e3d 20bb 37be 5d76 a3be
00000210: 6818 24be b2bf 0bbe 0119 c63d a597 15be
00000220: 91fd 29be 5fb5 ae3e 04f2 893e c52e b1bd
00000230: 58a8 c33c a179 d0bd e854 b0be 4f5a d2bc
00000240: d570 67bd 4a3d c7bc c6f8 f8bd d134 5c3e
00000250: ca9d 1ebd 84fb 953e 0dc3 033d 30c4 f93c
00000260: 58ae 8abe 1fff 663d 6a52 a03d c712 473e
00000270: 79bc 29be 8078 babd 9af5 29bd e08c 27be
00000280: b365 79bc e1d9 0cbe 9ffe 8b3e 1e66 a73d
00000290: be93 b3bd a690 473e c136 113c a641 9ebe
000002a0: 5c10 143e 57ad 60bd 4754 efbd a0dc dabd
000002b0: c688 563e c38e e5be 2cf4 93be acae 97be
000002c0: eaab 15be 8f57 38be cd18 ed3c b6bd 98be
000002d0: 93a4 013d 195a da3c 7c98 2c3d 7939 df3d
000002e0: c1af d1bd fec5 873e 65d6 8bbe 3ecb e13d
000002f0: 5be2 453d f758 ed3c 190b f43d c7df 7abd
00000300: 4de1 c6bd e6f9 9cbe 1fc0 4d3e e5db a0bd
00000310: 5f0e 84be d2e2 b3be f6df 66be 90a2 8c3d
00000320: 68f2 a53e 2d56 13be 6848 c7be 0935 543e
00000330: 3461 2c3e b291 00be 6fbe 47bd 7ee1 84be
00000340: e365 99bd 2125 873e c408 88be b417 583c
00000350: 5bb5 6c3d 7298 033e 51c2 bebd f5b0 29be
00000360: 6e27 1e3e 762c 95be 0b72 cabd 913c 1bbe
00000370: 37aa fdbe a088 a9be 1f7a 503e b48e 7dbe
00000380: 05ff b53d deec 123e 8086 11bf d17c d03d
00000390: ba95 7dbe 4a29 89be 4aed 85be 8010 67be
000003a0: 4e14 52be e312 b6bd 9731 283e 839e 0d3e
000003b0: f320 90be 89db 823c a669 8abd b013 923e
000003c0: 8db4 693d 3bae bcbe ee55 97be 66a6 353d
000003d0: b283 413d 6c60 d4bd 1708 13be 2d03 f6bd
000003e0: 3dbc 19be dc86 2dbd bcaf b4be 9a62 dd3d
000003f0: dea7 613e 9b2b 1cbb 0f51 27be 8a6e 833e
0.3379257 0.13284 0.11080744 0.17919849 0.10455402 -0.2794269 0.14374235 -0.18416414
0.33979306 -0.14627117 -0.2434335 0.14162992 -0.26244855 0.075642355 -0.18398768 -0.024406584
0.30323628 0.29621983 -0.12634924 0.17915599 0.1120641 -0.18681605 -0.31690952 -0.1613039
-0.20418611 0.20851651 -0.1892742 -0.2278384 -0.32495052 0.26319814 -0.2800813 -0.34209463
0.08032597 -0.17254987 -0.13540204 -0.0883683 0.2144511 0.02046835 -0.2892262 0.043083735
-0.06854908 -0.1768569 0.17346795 -0.24157502 -0.25842682 0.27704677 0.11617721 0.07219276
0.13535927 0.08788895 0.19101855 -0.069656864 -0.15945038 0.13450405 -0.18756956 -0.29648495
0.38472718 0.181843 -0.1880166 0.23423171 0.13189138 0.18498665 0.17737831 -0.06897016
-0.117801845 0.352367 0.28943464 0.2127275 0.21125863 0.1372269 0.1875922 0.4697365
-0.2322285 -0.22570752 -0.22273134 -0.3469736 0.4693383 0.12766276 -0.1645361 -0.08476848
0.012068448 -0.15930288 0.13503928 -0.066844374 -0.102261014 0.13126689 0.16927125 0.28861827
0.4256689 -0.28924042 0.05563537 0.10482696 0.33378372 -0.3048448 -0.0024200485 -0.18378142
0.10599967 -0.0658679 0.4464371 0.41166112 -0.09132961 0.06590374 0.16136143 -0.19816905
0.044402983 -0.043835815 -0.2333012 0.07285456 -0.41958147 0.051731437 -0.3360286 0.019413799
-0.26265672 0.25120708 0.43460152 -0.22942093 -0.07768156 -0.18747614 -0.29764533 -0.13286678
-0.37423322 -0.21025789 0.4350749 0.07600902 0.087929375 -0.42098817 -0.1325183 -0.0051325397
-0.5009939 0.062167097 -0.17942476 -0.31926242 -0.16024935 -0.13647345 0.09672738 -0.14608629
-0.16600634 0.3412275 0.26942456 -0.08651499 0.023883983 -0.10179449 -0.34439778 -0.025677828
-0.05650409 -0.024321217 -0.12156825 0.21504523 -0.038724698 0.29293454 0.032168437 0.030489057
-0.2708614 0.056395646 0.07828219 0.19440757 -0.16575803 -0.09105015 -0.04149399 -0.16362333
-0.015222001 -0.13754989 0.27342698 0.08173774 -0.08768414 0.19488773 0.008863152 -0.3090946
0.14459366 -0.05485281 -0.116859965 -0.10686612 0.20950612 -0.4483548 -0.28897226 -0.29625452
-0.14616361 -0.18002151 0.02894249 -0.29832238 0.03165109 0.02665429 0.042137608 0.10899634
-0.102386005 0.26518244 -0.27312008 0.110250935 0.048311573 0.028973086 0.11916179 -0.061248567
-0.097109415 -0.30659407 0.2009282 -0.078544416 -0.25792214 -0.35133988 -0.22546372 0.06866944
0.32411504 -0.14388342 -0.3892243 0.20723356 0.16833955 -0.12555578 -0.048765596 -0.25953287
-0.074901365 0.26395515 -0.26569188 0.013189245 0.05779014 0.12851122 -0.09314407 -0.1657141
0.15444729 -0.29135484 -0.09885033 -0.15159823 -0.49543926 -0.3311205 0.20359086 -0.24761468
0.08886532 0.1434817 -0.56845856 0.10180057 -0.24764147 -0.26789314 -0.261576 -0.22564888
-0.20515558 -0.08890321 0.16425167 0.13829999 -0.28150138 0.015973823 -0.06758432 0.28530645
0.057056952 -0.36851677 -0.29557747 0.044348143 0.047244735 -0.103699535 -0.14358555 -0.120123245
-0.15013213 -0.04236494 -0.35290325 0.108098224 0.22036693 -0.0023829702 -0.16339515 0.25670272

encoder.feature_encoder.atom_embedding_list.5.weight f4 [6, 64]
00000000: 422a 2fbe 2bde 743c 0469 22bd db21 513e
00000010: 9a73 0e3d 016f 5a3e 9dbe 08be 78ac 72be
00000020: 4207 cfbd e564 25be f2dc 54be 656e 133e
00000030: 41b6 9e3e 86cd 8fbe 4266 afbe e219 23bd
00000040: 44d2 52be 8796 66bd 7a5a 5d3d 37f2 e53d
00000050: 9079 283d 1007 723d de0c 8fbe 416c 6cbd
00000060: 11b0 9fbd b044 bfbe 5fa9 8fbe 1ab2 3abc
00000070: 1622 443d f255 19be 43e9 033e ad30 62be
00000080: 0dc1 64bd efc5 583e f665 4b3e 1224 ad3e
00000090: 0497 9fbb ddfd 50be 7a65 10be 2de8 173c
000000a0: 3795 88be c719 13be 8f7c ccbe 360f 21be
000000b0: a8b0 8ebe 6dda 6b3e a406 9f3d 6e20 5c3e
000000c0: eddd e03d 70d1 443e b69a 19be 0c17 59be
000000d0: 8528 27be 254f 8dbe 115f b7bd 766a 893d
000000e0: 7c6b f83d 181d c3bd 5e2d fe3d bdbb 813d
000000f0: 2441 3a3e 90da 5b3d 44d7 ccbd c5c5 993d
00000100: 5989 91be de8c 0d3d 0792 1e3e b9d3 3b3e
00000110: ba20 043e ce31 36bd bcaa 553e 4d1c 8ebe
00000120: 38e9 7abd 4461 e0bd 7eec 363e f3be 833e
00000130: 1c8f 9ebd 5b51 713d a150 2dbd 1c98 aabd
00000140: 07d5 ef3d 4e12 8d3d 5d29 10be 06dd 823d
00000150: 5863 873e baa6 51be 1e45 3fbd 8b0e 85be
00000160: 4456 97bd e9c5 8d3e 34fb 423e e562 8dbe
00000170: 5b3a 86be 1fbf 403c 2e26 09bd f6d3 613e
00000180: 174f a5bd 635d 633e 074c 31be 157d 5abd
00000190: 3d86 cdbb 254d 1abe 298b 4b3c 3b31 81bd
000001a0: 793d 0ebe 63ef 6bbe 3dce f7b9 c17e 8b3e
000001b0: 0abb e83d 8a4a 65be 7b6e 17be dce8 443e
000001c0: 6b7d dfbd 1f3c debc 67f5 0cbe 65ef 0e3e
000001d0: 57bf 4abe e912 8ebe 4049 5cbe 3857 81be
000001e0: a398 e63c 01ea 393d 95c7 bdbd c082 f83d
000001f0: 9ff7 e03c 6fe1 903d 8a59 1c3e ba7e 723d
00000200: 6230 9f3e 4038 1d3e 5498 29be 758b 473e
00000210: a166 ac3c 8d92 a4bb 25ee d13d 741c 6cbe
00000220: f803 8b3e 7dd3 793e e64f e73e ae01 183e
00000230: 5ba9 a3bd 6c7c 1e3d 09cd 0bbe 7c8b 87be
00000240: b0cc cb3d 750f a53d bff0 b8bd 43c8 2ebe
00000250: 5f8b 08be 84c8 a53d 9e48 793e db60 db3d
00000260: 0cec 463e f844 7b3e c070 13be 28a7 c7bb
00000270: e8f6 7bbe d713 efbd 4911 e83d af09 023e
00000280: 05af b93d b4c3 a73e 31a3 833d dbe0 12be
00000290: 07aa c3bd fd03 053e 0b4e da3d 5f3d 1abe
000002a0: a0b3 fabd 5d80 e53d c800 ca3d 1321 8e3e
000002b0: 103d 773e f61d 95be 41d1 513e fabd 23be
000002c0: c64c efbd e390 43be 66e5 b3bc b38e 923e
000002d0: 3a8a 6abe 6dbc 983e 4120 513e aa11 11be
000002e0: 9761 383e f00e 92bd 29e1 723e 40b5 12bc
000002f0: ad62 2f3e 1f4a 1cbe 2abd 7b3e 9b90 40bd
00000300: c54c 8f3e ce2c 5fbe 1805 b3bd 71c2 413e
00000310: 0c68 c73d bdcb 17be f97b 75be 5655 62be
00000320: b47f 7abe feab 25be 38a5 35be f70a adbd
00000330: e5df 813e 7524 9fbd d34b 39be 4890 123e
00000340: d271 30be 8f09 16be ff27 46bd 7099 13bd
00000350: 45df 38be 6c6b 6ebe 9250 92be 204e febd
00000360: 05e4 173e 1e66 c03c f0f9 6e3e edfa 4f3d
00000370: 9ae7 60be 5bee e13c 679f 99bd 55bf 293e
00000380: 9121 a33d 1c62 943e 1f64 86be 9eae 0ebe
00000390: 7375 7ebe 9865 d53c b518 3fbe 9af7 f8bd
000003a0: 7215 8f3e c7e1 c8bd 227f 133e 43be 403e
000003b0: a96b 593e 973b 753e 6ced 383e 40aa ed3c
000003c0: 51f2 7c3e 990e 913e 57cc 4ebe c86a 7a3d
000003d0: b744 4e3e 01ad 4abe 9e4f eb3d ad2d 3b3e
000003e0: 09aa 153c 0055 adbd 3b58 c6bc 4363 823e
000003f0: 1a5e 6dbe e3e0 ed3d 2746 22be 664f 4a3e
-0.17105964 0.014945547 -0.039650932 0.20423071 0.034778215 0.21331407 -0.13353963 -0.23698604
-0.10108806 -0.1615177 -0.20787409 0.14397581 0.30998424 -0.2808649 -0.34257704 -0.039819606
-0.20588022 -0.056295898 0.054041363 0.112278394 0.041131556 0.059088767 -0.27939504 -0.057720426
-0.07797254 -0.37357092 -0.28058907 -0.011395002 0.04788407 -0.14974192 0.12881951 -0.22088881
-0.05584817 0.21169256 0.19863114 0.33816582 -0.0048702974 -0.20409341 -0.1410121 0.009271664
-0.26676342 -0.14365302 -0.3993878 -0.15728459 -0.27869153 0.23032542 0.077649385 0.21496746
0.10979829 0.19220519 -0.15000424 -0.21200198 -0.1632405 -0.27599445 -0.08953679 0.06709759
0.12129876 -0.095270336 0.12410997 0.06334636 0.18188912 0.053675234 -0.10001996 0.07508425
-0.284251 0.03455817 0.15485393 0.18342485 0.12903109 -0.04448109 0.20865911 -0.27755967
-0.06125757 -0.10956052 0.17863652 0.2573162 -0.0774214 0.058915477 -0.04231322 -0.08329794
0.117105536 0.06888257 -0.14078279 0.06389813 0.2644298 -0.20473757 -0.046696775 -0.25987658
-0.07389501 0.27690056 0.19041139 -0.27614513 -0.26216397 0.011764317 -0.033483677 0.22053513
-0.08071726 0.22203593 -0.17314158 -0.053341944 -0.006272106 -0.15068491 0.012423315 -0.06308218
-0.13890637 -0.23040538 -0.0004726517 0.27245143 0.113638 -0.22391716 -0.14788239 0.19229454
-0.109125935 -0.027128277 -0.13765489 0.1395851 -0.19799553 -0.27748802 -0.21512318 -0.25261855
0.028148955 0.04538918 -0.09266583 0.121343136 0.027461825 0.07074248 0.15268531 0.059202887
0.310916 0.15353489 -0.16562015 0.19486792 0.021045031 -0.005022353 0.102505006 -0.23057729
0.27151465 0.24397083 0.45178145 0.14844391 -0.07991286 0.038692877 -0.13652433 -0.26473606
0.099511504 0.08059589 -0.09030294 -0.17068581 -0.13334416 0.08094886 0.24344108 0.10711833
0.19425982 0.24538028 -0.1439848 -0.0060929246 -0.24605906 -0.11673706 0.11331422 0.12699006
0.090665855 0.32766497 0.06427611 -0.14343588 -0.095539145 0.12989803 0.10659417 -0.15062474
-0.12241292 0.11206124 0.0986343 0.2775961 0.24144387 -0.2912442 0.2048998 -0.15990439
-0.11684565 -0.19098239 -0.021959972 0.28624496 -0.22904292 0.29831257 0.2042246 -0.14166895
0.18005978 -0.07131755 0.23718704 -0.008954346 0.17127486 -0.1526265 0.24583879 -0.047012907
0.27988258 -0.21794435 -0.08741206 0.1892183 0.09736642 -0.14823814 -0.23973073 -0.22102866
-0.24462777 -0.16178891 -0.17738807 -0.08449357 0.2536613 -0.077706255 -0.18095331 0.14312851
-0.17230919 -0.14652084 -0.048377987 -0.036035 -0.1805392 -0.23283166 -0.28577095 -0.12417245
0.14833076 0.023486193 0.23337531 0.05077641 -0.21963349 0.027579477 -0.07501107 0.16576894
0.07965387 0.28981102 -0.2624826 -0.13933799 -0.24849491 0.02604942 -0.18661769 -0.12156601
0.2794605 -0.098086886 0.14403966 0.18822579 0.21232475 0.23948513 0.1805932 0.029011846
0.24701811 0.2833145 -0.20195137 0.06113699 0.201434 -0.19792558 0.11489795 0.18279143
0.009134778 -0.08463478 -0.024211993 0.25466356 -0.23180428 0.11615159 -0.15847073 0.1975685

encoder.feature_encoder.atom_embedding_list.6.weight f4 [6, 64]
00000000: 71e5 85be e011 a83e 868f 99be 7d74 a93e
00000010: b5ea 68bd 3970 fc3e 6e1a 183c c8e6 6d3e
00000020: 291e a0bd 31e1 13bd 1bc8 383e 4cda 893e
00000030: 7754 7b3e 42b5 743e 4eca 04be f874 cdbd
00000040: 1e35 b13d 3c8c e4be 44da bfbd 32f1 ab3e
00000050: f3dc 4bbe 81fa 58be e3fa 673e 5940 1f3d
00000060: 8152 4a3e 8c27 b53e 22fe e1b8 2a34 c53d
00000070: c5a1 10be ca4a 94be 120c c53b 293f 153d
00000080: 26a4 8a3e d6e5 dfbe a3cf 6d3e d3a3 76be
00000090: 3d36 843c 8e9b 85bd ecd5 473d c81e a6bd
000000a0: 05fd ab3d 7d9d 89be 1443 113e 97e6 333e
000000b0: cbbb ccbd ce26 1abf ad96 4cbe 2b2b da3e
000000c0: e0e7 09bc c2a0 fabc bee1 74be fc1b 763e
000000d0: 2403 8b3e 4f70 8fbe 3220 893d d4f9 67bd
000000e0: 63fc 913e 5368 95be d612 22bd 3dd2 21be
000000f0: 770c ac3e fe01 9e3e 3a7f fdbe c769 32be
00000100: 2c7d 9a3e 9cd1 e6bd 09f0 67be 22ed aebd
00000110: 5f72 f5bd a2a4 8bbe ed14 a8be d4eb 79bd
00000120: d5d3 b33d f15f 943e 35fa ccbe eaf6 64be
00000130: cdd7 38bd 3afa 5cbe 30d7 10be de96 6cbe
00000140: baa5 8dbd 3921 95bd cecc eabd 691a e8bb
00000150: da15 0c3c 8837 3bbe 2a01 3fbe 8651 4ebc
00000160: e775 a9bd 2f10 81be cf35 05be 85bc 81bd
00000170: d81b 81be 2f27 663d 9d1d 713d bd4e 3e3b
00000180: 40af ab3d 405f 643d d760 c6bd 32e0 74be
00000190: 1ad8 553d f9f3 c03e b951 533e 640c c43e
000001a0: 8041 c4bd 08ed f4bd f749 173e 7282 88bd
000001b0: b075 e33d 9c76 e63d 54ee 713e cd74 4dbe
000001c0: 1ac3 143e 78e4 88be 6c51 36bd 0d6a a63d
000001d0: ccd4 acbc f876 ad3e 8dd9 55be 4ac2 193e
000001e0: e97a 2cbd 380d d13e 582f 2f3e 03bf 1d3e
000001f0: 6b2f a4be 37a7 913e da2d 3fbe 90da 59be
00000200: e40a b93d 7937 c5bd e43d 703e 7498 423e
00000210: 5ab3 ba3d 7e94 053e dee9 ea3d f7f5 9d3e
00000220: 9eee b03c 9871 83bd ec43 11be 4ee7 263e
00000230: 7500 543e 6c30 03bd 56c5 d53e 792b 1e3d
00000240: 8fe9 31be 3e46 3abe f50e f3bd 950f 19be
00000250: 5c1f 05be 7030 37be 5f4d 8cbe 9264 0b3e
00000260: d60c 713e 91c6 98ba 6056 e6bd 90ff 26be
00000270: 8b7b fc3d b1e5 c1be a21d 83bd 0d5e ca3d
00000280: 84de 82bd 0de4 03be 6c07 a33e 4771 9b3e
00000290: 4ef2 3b3e 96ff 723d 501f 553e 5bab c0bd
000002a0: 5eee b5be 9646 8b3d 54c7 1f3e 0a08 373c
000002b0: 4a59 1f3e 34e9 9fbe f25b 0e3d c6fe 873e
000002c0: 0680 c0be 8d28 14bd 9780 493d 62c6 b3be
000002d0: 4a0d e9bd 05ee 6cbe e9e0 183e 0638 98bd
000002e0: 6828 bf3c 2eab b33d dcf2 463e 7558 37bd
000002f0: 167c a53e 5ace 21be e0d3 a43e fe06 1bbe
00000300: 3755 ec3e 7be8 b3be dced 983d 9e47 eb3d
00000310: 32af d3be 77ec 9cbe 08c6 febe ec6c 86bd
00000320: a23c cdbd 5384 c33e f635 40be b5d1 38be
00000330: 7bb4 25be ff99 933e 6798 babc 242c 79bd
00000340: 3c99 693e 453b 97be 50d9 c5bc f752 5e3e
00000350: c4ec 8fbe 368a 26be 1ac9 37be 002c 803d
00000360: 1cd2 85be 136b 08bd edd4 24be 3726 453e
00000370: e41a a8bd ce56 453d 0899 3f3e d6c1 81be
00000380: f4ca 7f3e a720 babe 7b36 79be 9247 36bc
00000390: 4ce1 29be 8d8a fe3b 65d7 3a3c 7e7b 4b3e
000003a0: 1def 12bd c7d9 70be af74 123e 6a52 a6bd
000003b0: 53c0 9dbc acc5 e3bd a398 62be bbbd b1be
000003c0: b2e7 153e 7d4b e0be 578f 80be 03e5 de3d
000003d0: ce82 993e 94e1 0cbe d754 7d3e 338b 1fbe
000003e0: 6148 4ebe 61f3 4a3b ac85 5abd 0d02 a0be
000003f0: 5e33 123f 01a0 c83e 9a74 16be f22b b0bd
-0.26151612 0.32826138 -0.29992312 0.33096686 -0.05686446 0.4930437 0.009283645 0.23232567
-0.078182526 -0.03610343 0.18045084 0.2692436 0.2454394 0.2389727 -0.12967798 -0.10032076
0.086527094 -0.4463824 -0.09367803 0.33582455 -0.19908504 -0.2118931 0.226543 0.038879726
0.19758035 0.35381734 -0.00010776172 0.0962909 -0.1412421 -0.2896331 0.006013402 0.036437187
0.2707836 -0.43730038 0.23223738 -0.24085931 0.016139144 -0.0652381 0.048787996 -0.0811134
0.08397869 -0.26877967 0.14185745 0.17568432 -0.09996756 -0.6021546 -0.19979353 0.4261106
-0.0084171 -0.030594233 -0.23914239 0.24034113 0.27150834 -0.28015372 0.06695594 -0.05663474
0.28512868 -0.29181156 -0.039568745 -0.15802856 0.3360326 0.30860895 -0.4951113 -0.17423163
0.30173624 -0.112704486 -0.2265016 -0.08541323 -0.11984705 -0.27274042 -0.32828465 -0.06101592
0.08780638 0.28979447 -0.40034643 -0.22359815 -0.04512768 -0.21579829 -0.14144588 -0.23104426
-0.069163755 -0.07281727 -0.11464845 -0.0070832265 0.008550132 -0.18282902 -0.18652788 -0.012592679
-0.08274441 -0.2520766 -0.13008808 -0.06334785 -0.25216556 0.056189712 0.058866132 0.002903863
0.08383036 0.0557549 -0.096864395 -0.23913649 0.052208044 0.37686136 0.20636643 0.38290703
-0.09582806 -0.119592726 0.14774309 -0.066655055 0.111064315 0.11253092 0.23626071 -0.20064087
0.1452755 -0.26736808 -0.044511244 0.08125696 -0.021097563 0.33879828 -0.2088377 0.15015522
-0.042109404 0.40830398 0.17107904 0.15404896 -0.32067427 0.28447887 -0.18669835 -0.21274781
0.0903528 -0.09629721 0.2346111 0.19003469 0.0911624 0.13044927 0.11470388 0.3085172
0.021598157 -0.06418151 -0.14186066 0.16299173 0.207033 -0.0320286 0.41752118 0.038615678
-0.17374252 -0.18190858 -0.11868087 -0.1494735 -0.13000244 -0.17889571 -0.2740278 0.13612583
0.23540053 -0.0011655857 -0.112469435 -0.16308427 0.123282515 -0.37870553 -0.064021364 0.0988122
-0.06390098 -0.12879963 0.318416 0.3035986 0.1835415 0.059325777 0.20812726 -0.094076835
-0.35533422 0.068005726 0.15603381 0.01117135 0.15561405 -0.31232607 0.034755655 0.26561564
-0.37597674 -0.036171485 0.0491949 -0.35112292 -0.11379488 -0.23137672 0.14929546 -0.074325606
0.023334697 0.08772884 0.19428581 -0.044762094 0.32321233 -0.15801373 0.32192898 -0.15139386
0.46158764 -0.35138306 0.07467243 0.11488269 -0.413446 -0.30649158 -0.4976046 -0.06563744
-0.100213304 0.38186893 -0.18770584 -0.18048747 -0.16182129 0.28828427 -0.02277775 -0.06083311
0.2281236 -0.29537407 -0.024151474 0.21711336 -0.28110325 -0.16263661 -0.17947808 0.06258392
-0.26136863 -0.03330524 -0.1609685 0.19252859 -0.08208254 0.048178487 0.1871072 -0.25343198
0.24979764 -0.36353037 -0.24337189 -0.011125462 -0.1658985 0.0077679814 0.011403893 0.19871327
-0.035872567 -0.23520575 0.14302324 -0.08121188 -0.019256746 -0.11121687 -0.22128539 -0.34715065
0.14639166 -0.43807593 -0.2510936 0.10883524 0.2998261 -0.13757926 0.24739395 -0.15580444
-0.20144798 0.003096782 -0.053350136 -0.31251565 0.5710963 0.39184573 -0.14692917 -0.08602132

encoder.feature_encoder.atom_embedding_list.7.weight f4 [2, 64]
00000000: fe50 813e 6d91 8d3e 1348 81be 7ee9 1ebe
00000010: 64a5 973e 17cc c0be 1431 343e 8a6c bf3e
00000020: 7f9e 963e 0b40 d4bd 1f52 9f3e 57ca 8dbd
00000030: aaed e33e 9af2 283d b942 1bbd 0b34 c9be
00000040: cf83 acbe 1767 bf3e 26e8 513d dd09 30be
00000050: 559d c23e 4609 debe 6f4c b73d af65 ab3e
00000060: 76fb e2bc 103c 3a3c a470 813d 80e4 ddbd
00000070: 4a8d 91bc 7c15 283e 3b06 24be c55d 6dbe
00000080: 41b2 373d d5ac bfbe 41e5 94be bf39 b53d
00000090: 1893 98be 4f81 2b3d 599f 9c3c 091b 2abe
000000a0: 42ab 64be 257d 843e 91a5 39bd 3dab 77bd
000000b0: 78bd c9bd 54c9 183e 010b 283e a86d 003e
000000c0: ca1f cdbd c960 2b3e 4750 573e 2636 733e
000000d0: b0bc 82be 507c 093e c1ca 38be 4b80 a5be
000000e0: 8897 37be a83b 0c3d 4e5a 82be be09 8abe
000000f0: ce34 ce3d c992 363e 9656 523e 5693 d83d
00000100: dfbc cdbe 23ee 83be c97a c93d 036e 09be
00000110: 6e8c 02be 0b56 92bd 341e 5b3d e47d 6cbd
00000120: 355b 67be 1346 03be 6251 11bd e41c 0b3e
00000130: 0291 043e 6d3d be3d fd3f abbc aed9 b5bd
00000140: 3c08 953e 7c1b 28bd cfe4 153e cf43 af3e
00000150: f180 5f3c 34ff 28bc 47cb 96be e9dd 0dbe
00000160: 467c d1bc cf87 5f3e d53e dc3d 7217 5fbe
00000170: 4270 18be f7ad 653e fcab e9bd 543b 9dbd
00000180: 49e3 c6bd 16b9 463e 1228 953e 612f 4a3d
00000190: 3e58 ab3e a3d8 b73e cbab a0be 9a26 73bd
000001a0: 715b 3dbe 5474 1c3e abcb 013e a2f0 283d
000001b0: de10 593e 36a5 c2be 965d 41bd 8be2 20bd
000001c0: 58df b1bd 98ce 053e dcef 43be fca3 473e
000001d0: 1b24 0cbe aa80 c33b ce3d 523d ec84 a33e
000001e0: bedf f2bd f52e 8ebc a1c9 793e 435f c23e
000001f0: 2b7f f9bd a09b 593b a581 7abd 7a9f 91be
0.25257105 0.27650014 -0.252503 -0.15518758 0.2961837 -0.37655708 0.17596847 0.37387496
0.29417798 -0.10363778 0.3111734 -0.06923359 0.4451726 0.041246988 -0.03790543 -0.39297518
-0.33694312 0.3738334 0.051246785 -0.17191263 0.3801066 -0.4336645 0.089501254 0.33476016
-0.027707797 0.011366859 0.063203126 -0.108345985 -0.017767567 0.16414446 -0.16018002 -0.23180301
0.04484773 -0.37436548 -0.29081157 0.08848905 -0.29799724 0.041871365 0.019118952 -0.16611876
-0.22330955 0.25876728 -0.045323912 -0.06046604 -0.098505914 0.1492055 0.16410448 0.1254183
-0.10015829 0.1673614 0.21026717 0.23751125 -0.25534582 0.13426328 -0.18046094 -0.32324442
-0.17928898 0.03423658 -0.25459522 -0.26960558 0.100686654 0.17829432 0.20540842 0.10574977
-0.4018316 -0.2576762 0.098378725 -0.13420872 -0.12748882 -0.07145318 0.0534956 -0.057737246
-0.22593386 -0.128197 -0.035478003 0.1358524 0.12945941 0.0928906 -0.020904535 -0.0887941
0.29107845 -0.041041836 0.14638065 0.3423142 0.013641582 -0.010314751 -0.29451963 -0.13854183
-0.025571954 0.2182915 0.10754172 -0.21786287 -0.14886573 0.22429644 -0.114097565 -0.076773316
-0.0971132 0.19406542 0.29132134 0.04936159 0.3346576 0.35907468 -0.31381068 -0.059362985
-0.18491913 0.1527875 0.1267535 0.04124511 0.2119784 -0.3801667 -0.04720839 -0.03927855
-0.086851776 0.1306709 -0.19134468 0.19496149 -0.13685648 0.0059662657 0.051328473 0.3193735
-0.11859082 -0.017356375 0.24393322 0.37963304 -0.121824585 0.0033204332 -0.061158795 -0.28441983

encoder.feature_encoder.atom_embedding_list.8.weight f4 [2, 64]
00000000: 824f cbbe f4ea 0a3e c0ff 523d ded0 073e
00000010: fb48 b33e 6d80 533d 1d6b 823e 1903 673d
00000020: 1234 14bd 5da8 8abd 6ca0 45be 0d8b afbd
00000030: 9684 a33d c531 53bd bcd5 073e 3c69 003b
00000040: d68b e9be 6b3e c73e 0793 86bd 5646 02be
00000050: 3190 823e 84ae f1bd bac0 4bbe e2a2 803d
00000060: adb8 b83e 6a14 993d 7943 10be 53d7 4bbd
00000070: b827 ab3c 8c1b b53e 29d7 14be b2d4 523e
00000080: 9f42 33be a86f 533e 447a 463d ee33 56be
00000090: 498d 0b3e 4999 5e3e 7aa4 b6bd 48ef 16bf
000000a0: e12f 48be bb3d 9abd 077e 92be 94b8 88be
000000b0: 6d86 9ebd 4350 21be 6fcd 823d e4e8 b2bd
000000c0: 38d4 1abe cb4f 1b3e 804d 2f3d e52c 173e
000000d0: 8a35 2abe 121c 18bd 700f 2fbe 3278 9fbe
000000e0: 1288 933e 66be 8ebd b668 a73e f41b 5c3e
000000f0: bafc 61bd c9d5 49be 135d 753e 4440 adbe
00000100: d631 d03e a188 88bd cfe2 073e 97b0 383e
00000110: 05ed b7be 1aed 1fbe b07b 7bbe 362c 9dbe
00000120: ffd2 353e c961 443e 7fd7 393e 3eac 4f3e
00000130: 60a0 16be ea6e 22bd f3f7 243d b27a 25be
00000140: 6e10 583e f946 713e 3f0a b8be f9f3 4ebd
00000150: 6ec0 653d 0fd4 27be 7548 ddbd 02a4 493e
00000160: 05fe e0bd 4ea4 67be 273c 0cbe 8ddd 6bbd
00000170: e02f af3e 46b7 adbe fe2d 92bd 8125 80bd
00000180: bbfe 983e db9c 2a3e e4dd 5abd 2236 3bbd
00000190: 64b3 c43e b233 ffb9 773f 7abd ea6e b13e
000001a0: 615c 4f3d f1bc c83c 0f0c 153e eea3 2ebe
000001b0: 75a0 993e f1cb 473e 356a 49be 7e48 0d3e
000001c0: 4950 883d 17c8 9bbe c4fa 493e ea11 9fbe
000001d0: 1f5b c53a faba a13d 6fba b63d f097 6cbe
000001e0: 8458 183e 3e4b 833e 5f7f 393e 743a 7d3d
000001f0: f994 0bbe d965 933e b0f0 63bd e2bc ccbd
-0.39709097 0.1356619 0.051513433 0.1326327 0.35016617 0.05163615 0.25472346 0.05639944
-0.03618247 -0.06770394 -0.19299477 -0.08571444 0.07984273 -0.051561136 0.13265127 0.0019593975
-0.456145 0.3891481 -0.06571012 -0.12722144 0.25500634 -0.11800864 -0.19897738 0.062810674
0.36078396 0.07474597 -0.14088239 -0.049765896 0.020892963 0.3537258 -0.14535202 0.2058895
-0.17505883 0.20648062 0.048456445 -0.20918247 0.13628115 0.21738161 -0.0891809 -0.58958864
-0.19549514 -0.075313054 -0.28611776 -0.26703322 -0.077404834 -0.15753274 0.063868396 -0.087358266
-0.15120018 0.15167157 0.04279852 0.1476322 -0.16621986 -0.037136145 -0.17095733 -0.3114639
0.2881475 -0.06969909 0.32697076 0.21495038 -0.05517266 -0.19710459 0.23961286 -0.33838093
0.40663022 -0.06666685 0.13270114 0.18036114 -0.3592302 -0.15617791 -0.24558902 -0.30697793
0.1775627 0.19177927 0.18148611 0.20280549 -0.14709616 -0.039656557 0.040275525 -0.16160086
0.21100017 0.2356223 -0.35945317 -0.05052564 0.05609172 -0.16389488 -0.10804836 0.1969147
-0.109859504 -0.22621271 -0.13694821 -0.057584334 0.34216213 -0.3392889 -0.071376786 -0.06257153
0.29881844 0.16661398 -0.053434268 -0.045705922 0.38418114 -0.00048675906 -0.06109568 0.34654933
0.05062521 0.024504157 0.14555381 -0.17054722 0.30005231 0.19511391 -0.19669421 0.13797185
0.06655938 -0.30426094 0.19724566 -0.31068355 0.0015057063 0.07896991 0.08922278 -0.23104835
0.14877516 0.25643343 0.18114994 0.061823323 -0.13631047 0.2878864 -0.05564946 -0.09996964
