checkpoints/tuning_multi/trial_55/final_model.pt (torch, 520443 bytes, 104 tensors)

encoder.feature_encoder.atom_embedding_list.0.weight f4 [119, 64]
0	0x3e9e3386	0.30898684
1	0x3ebb5310	0.3658681
2	0xbe86ad84	-0.26304257
3	0x3df756e6	0.120771214
4	0xbe23d3b4	-0.15998727
5	0xbe601522	-0.21883062
6	0x3e50ece9	0.20402874
7	0x3db5ab33	0.08870544
8	0x3e169262	0.14704278
9	0xbd3f1f40	-0.04666066
10	0xbe1b8595	-0.15187676
11	0xbe118f89	-0.1421491
12	0x3e14aae3	0.14518313
13	0x3e2b461c	0.16725963
14	0xbc30558f	-0.010762586
15	0x3e00776b	0.12545554
16	0xbdf5ae50	-0.11996138
17	0x3ed44365	0.41457668
18	0x3c40aeb9	0.011760407
19	0xbe2d049d	-0.16896291
20	0x3e3aa6c5	0.1822768
21	0xbda8cb1c	-0.08241865
22	0xbe0ed03c	-0.13946623
23	0xbdac3cf1	-0.08410061
24	0x3d846cb2	0.064660445
25	0xbda767b3	-0.08174076
26	0x3e66b2e1	0.22529174
27	0x3e3f0a59	0.18656291
28	0xbe4d2991	-0.20035388
29	0x3d48ce80	0.04902506
30	0xbe50d599	-0.20393981
31	0x3ea1d065	0.31604305
32	0x3d9e7a33	0.077381514
33	0xbcdb3734	-0.026759721
34	0xbdfc6928	-0.123247445
35	0x3d938609	0.072032996
36	0xbe99fbc1	-0.30074885
37	0x3e2f633b	0.17127697
38	0xbc66f6e6	-0.014096951
39	0x3ca7355f	0.020411192
40	0xbe51e328	-0.2049681
41	0xbdc9ede1	-0.09859825
42	0xbe62b3fc	-0.22138971
43	0x3eb07ec9	0.3447173
44	0xbd566fd9	-0.05235276
45	0x3d7c6744	0.06162192
46	0x3f3eb137	0.7448916
47	0xbdf88cab	-0.12136205
48	0x3ebdaf6b	0.37047896
49	0xbe9fb911	-0.31195882
50	0x3d4f6bb9	0.05063984
51	0xbe094fed	-0.13409396
52	0x3c6051fd	0.0136914225
53	0xbdee3e14	-0.11632934
54	0x3cb50d6d	0.022101128
55	0xbe1e5434	-0.15461808
56	0x3e3dc3b6	0.18531689
57	0xbd3d4b9b	-0.04621468
58	0xbe49c976	-0.19705757
59	0x3c921b42	0.017835263
60	0x3d84b59a	0.0647995
61	0x3f056f89	0.52123314
62	0x3caf770d	0.021419073
63	0xbe1b20bd	-0.15149207
64	0xbe9ecb12	-0.31014305
65	0xbe570c5b	-0.21000807
66	0xbe1bad24	-0.15202767
67	0x3e281944	0.16415888
68	0x3e0b2eda	0.13592091
69	0x3ef60e54	0.48057806
70	0xbe841700	-0.25798798
71	0x3ef5d92e	0.48017257
72	0xbd1f5e92	-0.03890855
73	0x3d5cdfac	0.053924248
74	0xbeeb880d	-0.46002236
75	0xbdfc9b04	-0.123342544
76	0x3d239cd2	0.039944477
77	0xbeb4a665	-0.352832
78	0x3d5c6ca8	0.05381456
79	0x3c4d832e	0.012543483
80	0x3ef2848e	0.47366756
81	0xbe4887e8	-0.19583094
82	0xbdc23356	-0.09482448
83	0x3e9f626c	0.31129777
84	0xbcffafdf	-0.031211792
85	0xbe0e1b5a	-0.13877621
86	0xbd154e91	-0.03645188
87	0xbeb078a9	-0.34467056
88	0xbdac41d9	-0.08410997
89	0xbec39ff6	-0.38207978
90	0xbdbf074f	-0.09327566
91	0xbdef52cc	-0.11685714
92	0x3c9c255f	0.019060789
93	0xbe0ae396	-0.1356338
94	0xbb9ba6cb	-0.004750108
95	0x3d986f8d	0.074431516
96	0x3e90916a	0.28235942
97	0x3d5a13ec	0.053241655
98	0x3e4cffe4	0.2001949
99	0xbd5207dd	-0.05127703
100	0x3e1207da	0.14260808
101	0x3e6c3c5c	0.230699
102	0xbe686092	-0.22693089
103	0x3e16d6f7	0.1473044
104	0x3d6e6d0d	0.058209468
105	0x3dc32231	0.09528006
106	0xbc15d38e	-0.009144677
107	0x3de0e8c3	0.10981896
108	0x3e5499f6	0.20761856
109	0xbdcacfad	-0.09902892
110	0xbe0d90d8	-0.13824785
111	0x3e055436	0.13020405
112	0xbe0e4900	-0.13895035
113	0xbdf544ec	-0.119760364
114	0xbd269f5b	-0.040679317
115	0xbe22ed59	-0.15910853
116	0xba5e3816	-0.00084769854
117	0xbdf34a7b	-0.118794404
118	0xbe6fb726	-0.2340971
119	0x3e3a8f75	0.18218787
120	0x3d815356	0.06314723
121	0xbe6a68b4	-0.22891504
122	0x3ebb0b6d	0.36532155
123	0x3d2dfc07	0.04247668
124	0xbeb0fa44	-0.34565938
125	0x3d21e602	0.039525993
126	0x3c51fcf3	0.012816655
127	0xbe1b51e6	-0.1516796
128	0xbe03fa32	-0.1288841
129	0x3ee3dbc8	0.44503617
130	0x3d4aad88	0.0494819
131	0xbdc11f56	-0.09429805
132	0x3e0cb38a	0.13740364
133	0xbec69655	-0.3878657
134	0xbcae85e9	-0.021304088
135	0xbd333b47	-0.043757703
136	0x3e0e93dd	0.13923593
137	0xbe53f839	-0.20700158
138	0x3b0e7620	0.0021737888
139	0x3dd69a95	0.10478703
140	0x3e394c26	0.18095455
141	0x3d44ce01	0.048048023
142	0xbdc5ad4b	-0.09652194
143	0xbe92534e	-0.2857918
144	0x3d34090a	0.043953933
145	0x3ee389ee	0.4444117
146	0x3e398a46	0.18119153
147	0xbd309cee	-0.04311841
148	0x3ec5d2f1	0.38637498
149	0xbe052b98	-0.13004911
150	0xbcc34215	-0.023835221
151	0xbe04242a	-0.1290442
152	0x3dd6af9f	0.10482716
153	0xbe06c49e	-0.13160941
154	0x3db53c21	0.08849359
155	0x3e451f01	0.19250108
156	0x3e4e2a20	0.20133257
157	0xbd4943b4	-0.049136832
158	0x3d765378	0.060138196
159	0xbe3d57ed	-0.18490572
160	0x3e440fcc	0.19146651
161	0xbe33b839	-0.17550744
162	0xbdbf8628	-0.0935176
163	0xbd7e8ab7	-0.062144008
164	0xbe072592	-0.13197926
165	0x3ca8b5ea	0.020594556
166	0xbe21e1dd	-0.15808816
167	0xbe3174c8	-0.17329705
168	0xbb4d40fd	-0.0031319254
169	0x3e30c13c	0.17261213
170	0x3d895afc	0.06706807
171	0x3de01e72	0.10943307
172	0xbdafaf59	-0.08578367
173	0x3cd966f9	0.026538359
174	0x3e9b18ab	0.30292258
175	0x3eca9365	0.39565578
176	0x3ead1940	0.33808327
177	0x3d32c2bf	0.043642756
178	0x3e880cee	0.26572365
179	0xbe21fc7f	-0.15818976
180	0xbd88837f	-0.06665706
181	0xbc8c247f	-0.017107246
182	0xbdc4e9b0	-0.09614885
183	0xbdabeec3	-0.083951496
184	0x3da613ab	0.0810922
185	0xbc5b37cd	-0.013380003
186	0xbe723e07	-0.23656474
187	0x3c50c7b9	0.01274293
188	0x3e4f77da	0.20260563
189	0xbe0c1593	-0.13680105
190	0x3df7d22f	0.12100636
191	0x3e9e0b69	0.3086808
192	0xbe0d81d2	-0.13819054
193	0x3e0a391a	0.13498345
194	0x3e17c00e	0.14819357
195	0xbe00c539	-0.12575234
196	0x3d20d352	0.03926403
197	0xbdbefd97	-0.09325712
198	0x3e2d7c5d	0.16941972
199	0x3de25fb3	0.110534094
200	0x3d936d57	0.07198589
201	0xbe1726fb	-0.14760964
202	0xbdb661df	-0.08905386
203	0xbd1bd987	-0.038049247
204	0xbe25c115	-0.16186936
205	0xbdd8b403	-0.105812095
206	0x3d433fc6	0.04766824
207	0xbe16ec79	-0.14738645
208	0x3d4550af	0.04817265
209	0xbb8792ba	-0.004137364
210	0xbc74490e	-0.014909996
211	0xbd589fbb	-0.052886706
212	0xbdc74714	-0.09730354
213	0xbe2d55c9	-0.16927256
214	0xbdfc542a	-0.123207405
215	0x3e0c0339	0.13673104
216	0xbc5be0a3	-0.013420257
217	0x3e3487bc	0.17629904
218	0x3c1c61da	0.009544814
219	0xbcaed26e	-0.021340575
220	0x3dde5e3f	0.1085782
221	0xbe2e8b75	-0.17045386
222	0xbde5d49f	-0.11222195
223	0x3dd4b4f5	0.10386077
224	0xbd416878	-0.04721877
225	0x3e12acd3	0.1432374
226	0xbc876e04	-0.016531952
227	0x3e043608	0.12911236
228	0x3c100fdb	0.008792843
229	0x3c9a066e	0.018801894
230	0xbe1c9708	-0.15291989
231	0xbd8022ce	-0.062566385
232	0x3c14ba7a	0.009077663
233	0x3da96abd	0.08272312
234	0x3d0fe316	0.035128675
235	0xbd21023d	-0.039308775
236	0x3aa036e5	0.0012223391
237	0x3e1f5ec2	0.15563491
238	0x3df759b4	0.120776564
239	0x3d7d0d30	0.061780155
240	0xbe059b2b	-0.13047473
241	0xbd795c0a	-0.06087879
242	0x3decbc7a	0.115593866
243	0x3e26e374	0.16297704
244	0xbdaf4ae3	-0.085592054
245	0x3d9d8cb6	0.07692854
246	0xbd2da608	-0.042394668
247	0x3deb3944	0.11485532
248	0xbcdedd65	-0.027205179
249	0xbe135ea9	-0.14391579
250	0xbe3783db	-0.17921393
251	0xbbde49bb	-0.0067836917
252	0x3d5aa0d2	0.053376026
253	0xbdda95c9	-0.106731005
254	0x3e11dc97	0.14244305
255	0x3dafe0cb	0.08587798

encoder.feature_encoder.atom_embedding_list.1.weight f4 [5, 64]
0	0xbdcb1653	-0.099163674
1	0xbe0d6666	-0.13808593
2	0xbb266d73	-0.0025394827
3	0x3dda2c53	0.106529854
4	0x3d762b8d	0.060100127
5	0x3e3797b3	0.17928962
6	0x3e07584d	0.13217278
7	0x3cc90412	0.024538074
8	0xbd0eb9e0	-0.034845233
9	0x3e8ce041	0.27514842
10	0x3d97d49a	0.074135974
11	0x3c57e0c1	0.013176144
12	0xbe5f402a	-0.2180182
13	0xbdf311f8	-0.11868662
14	0xbe3614c7	-0.17781363
15	0xbbea02be	-0.00714144
16	0x3e8c6d88	0.27427316
17	0xbe67c44a	-0.22633472
18	0xbe2a6fe0	-0.1664424
19	0xbdd0922f	-0.10184132
20	0xbdd04d33	-0.101709746
21	0xbe96c754	-0.2944895
22	0xbdea3715	-0.11436287
23	0xbe6ccf5d	-0.23125978
24	0xbd9a1cb3	-0.07525005
25	0x3e000763	0.12502818
26	0x3e8639cd	0.26215973
27	0xbcdb7972	-0.026791308
28	0x3b921c13	0.004458913
29	0xbe1570c2	-0.14593795
30	0xbe6e82b1	-0.23292042
31	0xbd377114	-0.044785574
32	0x3e1f8e0a	0.15581527
33	0x3d0ee005	0.03488161
34	0x3e5e1777	0.21688639
35	0xbe48832e	-0.19581291
36	0xbe894115	-0.26807466
37	0xbe449375	-0.19196875
38	0xbe9039a1	-0.28168967
39	0x3dde2beb	0.108482204
40	0x3e995898	0.29950404
41	0xbe5c24f1	-0.21498467
42	0xbe2447c8	-0.16043007
43	0x3d1bd0ff	0.03804111
44	0x3e6c9fed	0.23107882
45	0x3d3009de	0.04297816
46	0xbe092789	-0.13393988
47	0x3e072c09	0.13200392
48	0x3cf84ad2	0.030309115
49	0x3e37ea65	0.17960508
50	0xbdaf49ba	-0.08558984
51	0xbe8a2464	-0.2698089
52	0xbe80d203	-0.25160226
53	0xbd22ab2b	-0.03971402
54	0x3b9a20ae	0.0047036028
55	0x3c27f938	0.0102522895
56	0xbe290a6b	-0.1650788
57	0xbd8c3413	-0.0684587
58	0xbc81a966	-0.015827846
59	0xbdbf33a1	-0.09336019
60	0xbe07805c	-0.13232559
61	0xbdd1da7e	-0.10246752
62	0x3df37179	0.118868776
63	0x3d09b402	0.033618934
64	0x3e32ab2d	0.17448111
65	0x3dc8667e	0.09785174
66	0xbe602166	-0.2188774
67	0xbdc27918	-0.09495753
68	0xbe65135f	-0.2237067
69	0x3e3538fc	0.17697519
70	0x3d34d5c6	0.044149183
71	0xbcd9ba80	-0.026578188
72	0xbc421d83	-0.011847856
73	0xbe478c3a	-0.19487086
74	0xbe195f8a	-0.14977852
75	0x3e4a396d	0.19748469
76	0x3e19f4c8	0.15034783
77	0x3eb9bfd4	0.36279166
78	0xbeb6e30c	-0.35720098
79	0xbd6dc83e	-0.058052294
80	0x3e38ed68	0.18059313
81	0x3ecb5ab8	0.3971765
82	0x3dd086a3	0.1018193
83	0xbe878632	-0.2646957
84	0x3e106fc3	0.14105134
85	0xbea77b1b	-0.3271111
86	0xbe96aff7	-0.29431126
87	0xbe3113eb	-0.17292754
88	0xbe04979d	-0.12948461
89	0xbe17dd00	-0.14830399
90	0xbe4c9430	-0.19978404
91	0xbdfd3842	-0.12364246
92	0xbe50a3b7	-0.20374952
93	0x3dcbd669	0.09953005
94	0xbe6a197c	-0.22861284
95	0x3e366480	0.17811775
96	0x3d195190	0.0374313
97	0xbd373f6c	-0.04473822
98	0xbe5e4720	-0.2170682
99	0x3ea13c0c	0.31491125
100	0x3de4b286	0.11166863
101	0xbe49a7a7	-0.1969286
102	0xbe7bea3c	-0.24601072
103	0x3d607607	0.05480006
104	0xbe32db89	-0.17466559
105	0xbd6c16c7	-0.05763891
106	0xbeba6e4f	-0.36412284
107	0x3ecb974b	0.39763865
108	0xbe4bba41	-0.19895269
109	0xbe3f0411	-0.18653895
110	0x3ef10967	0.47077486
111	0xbe12bac3	-0.14329056
112	0x3eeea13d	0.4660739
113	0xbe6d5b13	-0.23179273
114	0xbe0d61ea	-0.13806883
115	0xbe12477c	-0.14285082
116	0x3dcdfcf1	0.1005801
117	0xbda1e531	-0.07905043
118	0x3e6ae762	0.22939828
119	0xbee2c133	-0.44288024
120	0xbcf6126f	-0.030038087
121	0x3d827394	0.06369701
122	0xbebacc89	-0.36484173
123	0xbd9b290b	-0.07576188
124	0xbe8b27e8	-0.27178884
125	0x3e1b244d	0.15150566
126	0x3e0946af	0.1340587
127	0x3c04b8d8	0.008100711
128	0xbbc6f4ea	-0.0060716765
129	0x3d144664	0.036199942
130	0x3c072e39	0.008250766
131	0x3e646c73	0.22306995
132	0xbe2cf13c	-0.16888899
133	0x3e08b73f	0.13351153
134	0x3e8b08c3	0.27155122
135	0xbe58debc	-0.21178716
136	0xbe6c7ddf	-0.23094891
137	0x3dcc176e	0.09965406
138	0xbdd65ec6	-0.10467295
139	0xbbd9e693	-0.006649801
140	0xbe8cd199	-0.2750366
141	0x3e386d71	0.18010499
142	0xbc9f78a9	-0.019466715
143	0x3c947f02	0.018126968
144	0xbdd1e8da	-0.10249491
145	0x3dd1a0a5	0.10235719
146	0xbb9e70aa	-0.004835208
147	0xbdf0aace	-0.117513284
148	0x3d95ffff	0.07324218
149	0xbde037d8	-0.10948151
150	0x3de01bda	0.10942812
151	0xbe909612	-0.28239495
152	0xbde9a808	-0.114090025
153	0xbe4ee049	-0.20202745
154	0x3e007322	0.1254392
155	0xbe54059d	-0.20705266
156	0x3e69f138	0.22845924
157	0x3d930753	0.07179131
158	0x3e390b9c	0.18070835
159	0xbe44f452	-0.19233826
160	0xbe75460e	-0.23952505
161	0xbd463098	-0.048386186
162	0xbe25e557	-0.16200767
163	0xbdcc8a16	-0.09987275
164	0x3e783181	0.24237634
165	0x3e215f88	0.15759099
166	0xbdb26a10	-0.08711636
167	0x3e3757ab	0.17904536
168	0xbe4a3d1a	-0.19749871
169	0xbe2f725a	-0.17133465
170	0x3e05bb40	0.13059711
171	0x3e025888	0.12729084
172	0xbdae9913	-0.0852529
173	0xbe4e0ad3	-0.20121317
174	0x3d3cc47b	0.046085816
175	0x3e91a0ee	0.28443092
176	0x3e949399	0.29018858
177	0x3e77b588	0.24190342
178	0xbe626c22	-0.22111562
179	0x3e482555	0.19545491
180	0x3d5d2c14	0.053997114
181	0xbe751223	-0.239327
182	0x3c9b218a	0.018936891
183	0xbe91c90f	-0.28473708
184	0x3d81a0b3	0.06329479
185	0xbe260539	-0.1621293
186	0xbe4b2687	-0.19838916
187	0x3c6b1160	0.014347404
188	0x3e4ba4dc	0.19887108
189	0x3e297794	0.16549522
190	0xbe3ad869	-0.18246616
191	0x3e2bbc91	0.16771151
192	0x3de0af4b	0.109709345
193	0xbe498f49	-0.19683565
194	0xbd9bc0aa	-0.07605107
195	0xbd90b3e1	-0.07065559
196	0xbe7568b0	-0.23965716
197	0xbe89bf4e	-0.26903766
198	0xbe4d0803	-0.20022587
199	0x3e893bfb	0.26803574
200	0xbda071bf	-0.07834195
201	0x3ce7dd60	0.028303802
202	0xbe7aba00	-0.24485016
203	0xbd4fbdcf	-0.050718125
204	0x3de4259f	0.11139988
205	0xbbc3cade	-0.0059751114
206	0xbcbdd0ca	-0.023170847
207	0xbb80b0fe	-0.003927349
208	0x3e4b038a	0.19825569
209	0xbe54b388	-0.2077161
210	0xbe879085	-0.26477447
211	0xbe9167a5	-0.28399387
212	0x3df58bc9	0.119895525
213	0xbe282f77	-0.16424356
214	0xbe040c55	-0.1289533
215	0xbd1fbced	-0.038998533
216	0x3e3100ff	0.17285536
217	0x3b27f1c1	0.0025626274
218	0x3d6c66e3	0.057715308
219	0xbda99e7a	-0.0828218
220	0x3e245199	0.16046752
221	0xbe169f29	-0.14709152
222	0x3e68bd5c	0.22728485
223	0x3e78892b	0.24271075
224	0xbe87cba0	-0.2652254
225	0xbdbf3491	-0.09336198
226	0xbd1186c2	-0.035528906
227	0xbe229436	-0.1587685
228	0x3c81afff	0.015830992
229	0xbdc632e1	-0.09677673
230	0x3e79f7a0	0.24410868
231	0xbcbf182f	-0.023326961
232	0xbe28c629	-0.16481842
233	0xbe15ec47	-0.14640914
234	0xbe8d15b6	-0.27555627
235	0xbe399112	-0.18121746
236	0x3d6a7c33	0.05724735
237	0x3db667c3	0.0890651
238	0xbe021fe0	-0.12707472
239	0x3b449ba5	0.0029999998
240	0x3e177d98	0.14794004
241	0x3d1fa33c	0.03897403
242	0x3d080d4d	0.03321581
243	0xbe46120c	-0.19342822
244	0x3e8ded92	0.27720314
245	0xbdb245e7	-0.08704739
246	0x3cc74347	0.024324073
247	0xbd14b9d6	-0.03631004
248	0x3e032a7d	0.12809177
249	0xbe7a17fd	-0.24423213
250	0x3d896b12	0.06709875
251	0xbe6a5d2f	-0.22887109
252	0x3e6e527a	0.2327365
253	0xbdee0743	-0.11622479
254	0x3d768d13	0.060193133
255	0x3c9fd7fb	0.019512167

encoder.feature_encoder.atom_embedding_list.2.weight f4 [12, 64]
0	0xbe338a82	-0.17533305
1	0xbcb7f65a	-0.022456337
2	0xbe927d88	-0.28611398
3	0xbe6b7995	-0.22995599
4	0x3e5e63bd	0.21717735
5	0x3cbee84f	0.023304133
6	0x3f004664	0.5010741
7	0xbeb8a43f	-0.3606281
8	0xbcbc5e8a	-0.022994298
9	0x3f0c5b57	0.54826874
10	0xbe9d7a26	-0.30757254
11	0xbe82a051	-0.25512937
12	0xbe26e7f4	-0.1629942
13	0xbe30b7d4	-0.17257625
14	0xbe9abd24	-0.30222428
15	0xbeae0fba	-0.33996373
16	0x3e112de4	0.14177662
17	0xbd8b91ff	-0.06814956
18	0xbd729f8d	-0.05923419
19	0xbd9007b7	-0.070327215
20	0x3d3e0d33	0.046399307
21	0xbd8bd3c9	-0.06827504
22	0xbde5d9da	-0.112231925
23	0x3da2a4b3	0.0794157
24	0x3d835444	0.06412557
25	0xbe869b4c	-0.26290357
26	0x3e1a5a53	0.15073518
27	0x3e97006a	0.29492503
28	0xbe816466	-0.2527191
29	0x3ebbfc54	0.3671595
30	0xbdea815a	-0.11450453
31	0x3ed1b1f7	0.4095609
32	0x3e194da3	0.14971022
33	0xbe0911e1	-0.13385727
34	0x3d797063	0.060898196
35	0x3df0b8cb	0.117539965
36	0x3c21c45b	0.009873475
37	0x3e4160ba	0.18884555
38	0x3ea73948	0.3266089
39	0xbdcb0a54	-0.09914079
40	0xbe890168	-0.26758885
41	0x3ea2e306	0.3181383
42	0x3dcb88a4	0.099381715
43	0x3f1f4270	0.6221075
44	0xbed88424	-0.42288315
45	0x3d81bfb1	0.0633539
46	0x3e5db7fa	0.21652213
47	0xbec205fc	-0.3789519
48	0x3ebf0e89	0.37315777
49	0xbed74dce	-0.42051548
50	0xbdbbbf35	-0.09167329
51	0xbdba422f	-0.09094655
52	0xbe56caec	-0.20975846
53	0xbe633508	-0.22188199
54	0xbe321f3f	-0.17394732
55	0xbded0e7b	-0.115750276
56	0x3eb582f3	0.3545147
57	0xbd0daa5b	-0.03458629
58	0x3d9c593a	0.07634206
59	0x3d221dd6	0.039579235
60	0xbdd23c2e	-0.102653846
61	0x3e28030e	0.16407415
62	0x3e76a3f6	0.24085984
63	0xbe211828	-0.15731871
64	0xbcf0f5f2	-0.02941415
65	0x3d4a422b	0.04937951
66	0xbe07ea53	-0.13272981
67	0xbe5ee688	-0.21767628
68	0xbcb582dd	-0.022157127
69	0x3d9645fd	0.07337568
70	0xbeaf1f22	-0.3420344
71	0x3cc30c36	0.023809534
72	0xbd705e30	-0.058683574
73	0xbd8bea1e	-0.06831764
74	0x3e18c575	0.14919074
75	0xbd9ab604	-0.07554248
76	0xbe20a619	-0.15688361
77	0xbe30b7ba	-0.17257586
78	0xbe44f6ea	-0.19234815
79	0x3e989d9a	0.2980774
80	0xbef259a0	-0.47334003
81	0x3e8b4211	0.27198842
82	0x3eaa2ec7	0.33238813
83	0x3e767557	0.24068199
84	0x3e62b631	0.22139813
85	0xbd66b6bd	-0.056326617
86	0xbe992d74	-0.2991749
87	0xbe5ca58b	-0.21547525
88	0xbeacc08c	-0.33740652
89	0xbe57deab	-0.21081035
90	0xbd463cea	-0.048397936
91	0x3e0ad79e	0.13558814
92	0xbd1eab83	-0.038737785
93	0xbd8c3fc6	-0.06848101
94	0xbe4bf393	-0.19917135
95	0x3dc186b1	0.094495185
96	0x3d33c0d8	0.043885082
97	0x3ea1389d	0.31488505
98	0xbd49cf29	-0.04926983
99	0xbeb687cb	-0.35650477
100	0xbe9630e3	-0.29334173
101	0x3e6c2bad	0.23063536
102	0x3e3fe921	0.18741275
103	0xbd951b2d	-0.07280574
104	0x3d4ab099	0.049484823
105	0xbb3d3a50	-0.0028873868
106	0xbe824135	-0.25440374
107	0x3e561214	0.20905334
108	0x3bf9f0e2	0.0076275924
109	0xbe3df586	-0.18550691
110	0x3e16f4bc	0.14741796
111	0x3cfffec9	0.03124942
112	0x3dfc4185	0.12317184
113	0xbf245cfb	-0.64204377
114	0xbdd3c457	-0.10340183
115	0xbf01f2ea	-0.5076128
116	0x3d99e4c5	0.075143375
117	0xbec50328	-0.3847897
118	0x3d8fe30d	0.070257284
119	0x3dd9e8ab	0.10640081
120	0x3db9c30d	0.09070406
121	0xbd468cc3	-0.048474085
122	0x3dec1c03	0.1152878
123	0xbe3a54f9	-0.18196477
124	0x3dced119	0.10098476
125	0xbe25b605	-0.16182716
126	0xbe66a3bb	-0.22523396
127	0xbdeeb17e	-0.11654948
128	0xbedaa402	-0.42703253
129	0xbcde9613	-0.02717117
130	0x3e99ec66	0.3006317
131	0xbcc38a71	-0.023869725
132	0xbe2cba5f	-0.1686797
133	0x3e50017d	0.20313068
134	0xbd9b1f3f	-0.07574319
135	0x3d4f80cd	0.050659943
136	0xbd07867c	-0.03308724
137	0x3d109ec6	0.03530767
138	0xbe08a550	-0.13344312
139	0x3ed84039	0.42236498
140	0xbee09f74	-0.43871653
141	0xbeb9fd23	-0.3632594
142	0x3f0430da	0.5163704
143	0xbec32047	-0.38110563
144	0x3dbfbe42	0.09362461
145	0xbe21acd7	-0.1578859
146	0xbebc0c8e	-0.36728328
147	0x3e8dd5b9	0.2770212
148	0xbe0b2139	-0.13586892
149	0x3c4309d4	0.011904199
150	0xbe0f6d6b	-0.14006583
151	0x3e86c7e2	0.26324373
152	0x3eb0968c	0.34489858
153	0x3da1e883	0.07905676
154	0x3b992627	0.0046737376
155	0x3dcda9f8	0.100421846
156	0x3ed2e1c7	0.4118788
157	0xbe93bb09	-0.28853634
158	0x3e932ead	0.28746548
159	0x3e40f926	0.18845043
160	0x3eb2d0e5	0.34925
161	0xbdcfe22d	-0.101505615
162	0x3e37af03	0.17937855
163	0x3e5a68f4	0.21329099
164	0x3c56f5d9	0.013120138
165	0x3c83c8be	0.016086932
166	0x3ec53a56	0.3852107
167	0xbdb4d8ab	-0.08830389
168	0x3e957330	0.29189444
169	0xbf12552e	-0.57161224
170	0xbdbe28ff	-0.09285163
171	0x3ded30c1	0.11581565
172	0x3f162669	0.5865236
173	0x3d335f2e	0.043791942
174	0xbde0b1b3	-0.109713934
175	0xbf42760f	-0.75961393
176	0xbe433f0a	-0.19067016
177	0xbdf7cbab	-0.120993935
178	0xbe435f72	-0.19079378
179	0x3eb4c069	0.35303047
180	0x3d9d7965	0.0768917
181	0xbe856046	-0.26050013
182	0xbe9a7a16	-0.3017127
183	0xbee7184d	-0.45135728
184	0xbe20709e	-0.1566796
185	0x3de9b694	0.11411777
186	0x3e06a7e9	0.1314999
187	0x3e7b4f67	0.24542008
188	0xbe6d1705	-0.23153313
189	0x3e8ad2d1	0.27113965
190	0xbee04171	-0.43799928
191	0xbefe9ea1	-0.497304
192	0x3b1743d2	0.0023081196
193	0x3e063d91	0.13109423
194	0xbec68f7d	-0.38781348
195	0x3e24b1b4	0.16083413
196	0x3e86763f	0.2626209
197	0x3e06ac88	0.13151753
198	0xbd1bc261	-0.03802717
199	0x3e1569d8	0.14591157
200	0xbe161dfa	-0.14659873
201	0xbea9ef3a	-0.33190328
202	0x3e34d098	0.17657697
203	0xbe47adf3	-0.1949995
204	0xbdd527d9	-0.10407991
205	0xbe199496	-0.14998087
206	0xbe366356	-0.17811331
207	0xbc89f9b6	-0.016842704
208	0xbe19cf6f	-0.15020536
209	0x3d0e9ea5	0.034819264
210	0xbeb5ad53	-0.35483798
211	0xbcedb212	-0.029015575
212	0x3ea121b5	0.3147103
213	0x3da17ba2	0.07884909
214	0xbd9a3cb4	-0.075311095
215	0xbe249811	-0.16073634
216	0xbf15a7c2	-0.58459103
217	0xbd89b71d	-0.06724379
218	0xbe39375a	-0.18087521
219	0x3d766b7a	0.06016109
220	0x3e7b34a9	0.24531807
221	0x3e6ea72c	0.23305959
222	0x3acf1eb9	0.0015802003
223	0x3ebe1ceb	0.37131438
224	0xbdc0fc2d	-0.09423099
225	0xbe887b17	-0.2665641
226	0x3e0489b3	0.12943153
227	0xbe92f891	-0.28705266
228	0xbdeaff6c	-0.11474499
229	0x3d852a86	0.06502251
230	0xbf0bb88d	-0.5457848
231	0xbe96f543	-0.29483995
232	0xbe4fc6c4	-0.20290667
233	0x3d5c6507	0.053807285
234	0x3e74f88e	0.23922941
235	0xbe96f142	-0.2948094
236	0xbede030a	-0.43361694
237	0xbe646e8d	-0.22307797
238	0x3e98a663	0.29814443
239	0xbc83158e	-0.016001489
240	0xbe0be0b5	-0.13659938
241	0x3cfc5644	0.030802853
242	0x3eb336af	0.35002658
243	0x3b99388b	0.00467593
244	0xbc8e050c	-0.01733639
245	0x3e468c9a	0.19389573
246	0xbe5850f8	-0.21124637
247	0x3d011719	0.03151617
248	0x3ec03010	0.3753667
249	0xbe859b15	-0.2609488
250	0xbdd5b380	-0.104346275
251	0x3d603450	0.05473739
252	0x3ebbad4d	0.36655656
253	0xbec47715	-0.38372102
254	0x3ec27bef	0.3798518
255	0x3d1b509d	0.037918676

encoder.feature_encoder.atom_embedding_list.3.weight f4 [12, 64]
0	0xbe28b3d6	-0.16474852
1	0x3e60ee32	0.21965864
2	0x3d726472	0.059177823
3	0x3c762214	0.015022773
4	0x3e7cdd59	0.24693812
5	0x3f0280e2	0.5097791
6	0xbe0e9b8c	-0.13926524
7	0xbd6219b9	-0.055200312
8	0xbb8141aa	-0.0039445953
9	0x3ee2ad77	0.44272968
10	0x3cbcfa0d	0.023068452
11	0x3e3eb977	0.18625437
12	0xbd433f3c	-0.047667727
13	0x3e98efad	0.29870358
14	0xbe0a92ae	-0.13532516
15	0x3e8fd83b	0.28094658
16	0x3ee5cb11	0.4488149
17	0xbe2c490e	-0.16824743
18	0xbeb3847b	-0.35062012
19	0x3e16df02	0.14733508
20	0x3e5274fd	0.2055244
21	0xbe85c65f	-0.26127908
22	0x3ca56cc1	0.02019346
23	0xbda4bd0c	-0.0804387
24	0xbd950cdc	-0.07277843
25	0x3ddc6c1d	0.107628085
26	0x3e6d984b	0.23202626
27	0x3d94dd4d	0.07268772
28	0xbed2a8af	-0.4114432
29	0x3ed1257a	0.40848905
30	0xbe01f16c	-0.12689751
31	0x3d8c6b17	0.06856363
32	0xbc4343ab	-0.011917989
33	0x3e5143a8	0.20435965
34	0x3de71129	0.1128257
35	0xbde2cc11	-0.11074079
36	0xbe211774	-0.15731603
37	0x3eb5fae3	0.35542974
38	0x3d24e5a7	0.040258076
39	0x3d2e96f5	0.042624433
40	0x3e36d5a4	0.17854935
41	0xbe8fc90c	-0.28083074
42	0x3d49a93a	0.049233653
43	0x3f1428ec	0.5787494
44	0x3b323c85	0.0027196717
45	0xbe98b0c2	-0.29822356
46	0xbdc0145c	-0.09378883
47	0x3c348a08	0.011019237
48	0x3e10eb70	0.14152312
49	0xbecfedb6	-0.40611047
50	0xbe947445	-0.28994957
51	0x3e0c77ee	0.13717625
52	0xbe28ad83	-0.1647244
53	0x3dd97505	0.10618023
54	0xbea2cf91	-0.31798986
55	0xbe85b0cd	-0.2611145
56	0xbcebfbad	-0.028806532
57	0x3ea0629b	0.3132523
58	0xbd32b866	-0.043632887
59	0x3e9b5baf	0.30343387
60	0xbea62764	-0.32451928
61	0x3ec93876	0.3930089
62	0x3e76f558	0.24117029
63	0xbee9671f	-0.45586488
64	0x3e8740c5	0.26416603
65	0x3e564213	0.20923643
66	0xbdef837d	-0.11695001
67	0x3e3f3b28	0.1867491
68	0xbe83c633	-0.25737152
69	0xbdaa4745	-0.08314375
70	0xbe02f142	-0.12787345
71	0x3ed7ed02	0.4217301
72	0x3e8f41de	0.2797994
73	0x3e05dc23	0.13072257
74	0xbe9cafe2	-0.30602938
75	0xbef753fd	-0.48306265
76	0xbde78b2f	-0.11305844
77	0x3d4edbc1	0.050502542
78	0x3e4bcd65	0.1990257
79	0xbe570ac9	-0.21000208
80	0xbc5bb2ce	-0.01340933
81	0x3da6dc5d	0.081475
82	0xbe55eb23	-0.20890479
83	0x3e95d0ae	0.29260772
84	0x3ce8e6c9	0.02843036
85	0x3e32399a	0.17404786
86	0xbe9fdd63	-0.31223592
87	0xbd9c5b03	-0.076345466
88	0xbe93745b	-0.2879971
89	0x3d9fe61e	0.07807563
90	0x3e045fce	0.12927172
91	0x3dda9b6a	0.10674174
92	0x3d76389f	0.06011259
93	0xbeaeb62f	-0.3412337
94	0xbdf095b6	-0.11747305
95	0x3dbb422a	0.09143479
96	0x3b25c25c	0.002529285
97	0x3bcfca78	0.006341275
98	0xbdbaa2b9	-0.09113068
99	0xbeba2440	-0.36355782
100	0xbe369cba	-0.17833224
101	0xbe2e151d	-0.17000242
102	0xbec193b7	-0.3780801
103	0xbdbfe9ce	-0.093707666
104	0x3de30ce6	0.110864446
105	0xba02f5a9	-0.00049957127
106	0xbd9eb503	-0.07749369
107	0x3e5e5ae4	0.2171436
108	0xbe88cad5	-0.2671725
109	0xbe6a191b	-0.2286114
110	0x3ef0a632	0.47001797
111	0xbc80c60c	-0.015719436
112	0x3e917d6a	0.28415996
113	0xbef16e3f	-0.47154424
114	0xbe93b71d	-0.28850642
115	0xbd878ae0	-0.06618285
116	0x3e350d63	0.17680888
117	0xbeb655f7	-0.3561246
118	0x3e1e9a57	0.15488563
119	0xbd8db78e	-0.06919776
120	0x3ebfdad0	0.37471628
121	0xbda13d09	-0.0787297
122	0xbe2139fc	-0.15744776
123	0x3d06bb2a	0.032893337
124	0xbce2623b	-0.02763473
125	0x3e4d2670	0.20034194
126	0xbe241770	-0.16024566
127	0xbe5cc0ec	-0.21557969
128	0xbd54c549	-0.05194596
129	0xbe3f7aad	-0.18699141
130	0x3ead42e1	0.33840087
131	0xbeacfc54	-0.3378626
132	0x3c807fde	0.015685972
133	0x3e445f06	0.19176874
134	0xbd8b7c29	-0.06810791
135	0x3ea3fb2c	0.32027566
136	0x3ddefb04	0.10887721
137	0x3e2bee3d	0.167901
138	0x3e1145be	0.14186761
139	0xbdf60506	-0.12012677
140	0x3e78392d	0.24240561
141	0xbdf695bb	-0.120402776
142	0x3ea128d9	0.31476477
143	0x3dae0c81	0.08498479
144	0x3e03f439	0.12886132
145	0x3e1ece8a	0.15508476
146	0xbe807f52	-0.25097138
147	0x3e5b3ad5	0.21409161
148	0x3e721617	0.23641239
149	0xbd8b0c9b	-0.06789514
150	0xbdaa51b6	-0.083163664
151	0xbe7f45c6	-0.2492896
152	0x3e0d3f81	0.13793756
153	0xbe5ec634	-0.21755296
154	0xbeaa39be	-0.3324718
155	0x3e8af9bb	0.27143654
156	0x3e12dc18	0.14341772
157	0x3ea6fc69	0.3261445
158	0xbe70aae2	-0.23502687
159	0xbe220e96	-0.15825877
160	0xbe36e96a	-0.17862478
161	0x3e0612f2	0.13093165
162	0xbe5a692c	-0.21329182
163	0xbea09988	-0.31367135
164	0xbe373fe9	-0.17895474
165	0xbe855462	-0.2604094
166	0x3e239869	0.15976109
167	0x3e12c17c	0.14331621
168	0xbe240875	-0.16018851
169	0xbdb8c7ce	-0.09022485
170	0xbc4eb0ab	-0.012615363
171	0xbe272af1	-0.16324975
172	0xbe5783e4	-0.21046406
173	0x3eac6bbd	0.33675948
174	0x3e061b62	0.13096383
175	0x3dd7b124	0.10531834
176	0xbe948798	-0.290097
177	0xbd70d5e0	-0.058797717
178	0xbe7d23e3	-0.24720721
179	0xbeb3fc02	-0.35153204
180	0xbe4364f1	-0.19081475
181	0xbe702f50	-0.23455548
182	0x3d1a869a	0.037726022
183	0xbe177a96	-0.14792857
184	0x3e09406e	0.13403484
185	0xbec6f0ed	-0.38855687
186	0xbe47d0e7	-0.19513284
187	0x3deaf3cc	0.11472282
188	0xbe073e03	-0.1320725
189	0xbe6097d7	-0.21932922
190	0xbe9c309d	-0.3050584
191	0xbf090e0b	-0.5353705
192	0xbd01ae8b	-0.031660598
193	0xbe1b6e9f	-0.15178917
194	0xbe0d120d	-0.13776417
195	0x3e44f86e	0.19235393
196	0x3da00b20	0.07814622
197	0xbee992af	-0.45619723
198	0xbec1681d	-0.37774745
199	0x3ddaa839	0.10676617
200	0xbed09e44	-0.40745747
201	0x3e8a3cd7	0.26999542
202	0xbe5bdf7a	-0.21471968
203	0x3e0f5787	0.13998233
204	0x3da6b811	0.08140577
205	0xbe9fb8e4	-0.31195748
206	0xbedee436	-0.43533486
207	0x3f16d363	0.589163
208	0xbe989b2b	-0.29805884
209	0xbd3da250	-0.04629737
210	0xbe780376	-0.2422007
211	0xbe7daa0d	-0.247719
212	0xbe28533f	-0.16438006
213	0x3e0b4752	0.13601425
214	0x3e5b8cf2	0.21440485
215	0xbe8152af	-0.25258395
216	0xbe6313b9	-0.22175492
217	0x3dd2ec5e	0.1029899
218	0x3e446ef6	0.19182953
219	0xbe6cbd9c	-0.23119205
220	0x3e13c5d2	0.14430931
221	0xbe009a52	-0.12558869
222	0xbe7b0882	-0.24514964
223	0x3d7a8af1	0.06116766
224	0xbe94d025	-0.29065052
225	0xbde830e6	-0.11337452
226	0x3d0c59ec	0.034265444
227	0xbd77d2be	-0.060503714
228	0x3b821c46	0.0039706556
229	0xbe8062ea	-0.25075465
230	0x3e7010b9	0.23443879
231	0xbe572ee2	-0.21013978
232	0x3e12ab85	0.14323242
233	0xbc699087	-0.014255649
234	0xbd809419	-0.062782474
235	0xbe78e3ea	-0.24305692
236	0xbcb9100a	-0.022590656
237	0x3e198e13	0.14995603
238	0x3d3eb2e5	0.046557326
239	0xbe8bc6d8	-0.27300143
240	0x3d945d5f	0.072443716
241	0xbeaae758	-0.33379626
242	0xbe946e73	-0.28990516
243	0x3c54e353	0.012993651
244	0x3d6a5c2e	0.057216816
245	0xbebcdc0f	-0.3688664
246	0xbe1048ed	-0.14090319
247	0x3df5115c	0.11966202
248	0xbdaf5027	-0.0856021
249	0x3d9f60fb	0.077821694
250	0xbef25db3	-0.47337112
251	0x3c000e13	0.007815856
252	0xbe9ba841	-0.30401805
253	0xbe4822c5	-0.19544514
254	0xbe88d751	-0.26726773
255	0xbd61b536	-0.055104457

encoder.feature_encoder.atom_embedding_list.4.weight f4 [10, 64]
0	0x3eb5ef9f	0.3553438
1	0x3ea2a9a3	0.31770048
2	0x3ce677a1	0.028133215
3	0x3e6fe4d1	0.2342713
4	0xbcb9a8ce	-0.0226635
5	0x3db94cb7	0.09047835
6	0x3d3273fe	0.04356765
7	0xbe176af6	-0.14786896
8	0x3e9f5d7e	0.31126016
9	0xbe78aa7c	-0.24283785
10	0xbe3a3ec2	-0.18188003
11	0x3e1e1d3d	0.15440841
12	0xbee47d8b	-0.44627032
13	0x3d91520d	0.07095728
14	0xbe321060	-0.17389059
15	0x3e38f3b1	0.18061711
16	0x3ec9e82c	0.39434946
17	0x3dba7553	0.09104409
18	0xbec22eb2	-0.3792625
19	0x3e214e7e	0.15752599
20	0x3c2110cd	0.009830666
21	0xbdf6b5b8	-0.12046379
22	0xbea008d7	-0.31256744
23	0xbe3e3778	-0.18575847
24	0xbde56341	-0.11200572
25	0x3e1f43cb	0.15553205
26	0xbe45be4c	-0.19310874
27	0xbeaab092	-0.33337837
28	0xbe71b536	-0.23604283
29	0x3e6622e2	0.22474244
30	0xbeb76e1b	-0.3582619
31	0xbe19e72c	-0.15029591
32	0xbd01de51	-0.031706158
33	0xbe1f1035	-0.15533526
34	0x3e2bc065	0.16772611
35	0xbe349102	-0.17633441
36	0x3eac7396	0.33681935
37	0xbe9a868e	-0.30180782
38	0xbe879d14	-0.2648703
39	0xbeaee0f9	-0.34156016
40	0x3d83b4cb	0.06430968
41	0xbe084349	-0.13306917
42	0x3eb232ea	0.3480447
43	0x3ca1614d	0.019699717
44	0xbe311d7b	-0.17296402
45	0xbd56700f	-0.05235296
46	0xbdf19c7a	-0.11797424
47	0x3e448940	0.19192982
48	0x3e9f9f56	0.3117625
49	0x3d319b5d	0.043361057
50	0x3eb2f635	0.34953466
51	0xbdbc3e31	-0.091915496
52	0xbda0c9ab	-0.07850965
53	0xbd2e1b21	-0.04250634
54	0x3dc790e2	0.09744431
55	0xbd814168	-0.063113034
56	0x3eb6afea	0.35681087
57	0x3d9c9b2f	0.076467864
58	0xbe50dee4	-0.20397526
59	0x3d5a816d	0.053346086
60	0x3e1b8ad0	0.15189672
61	0x3e310ed2	0.1729081
62	0x3e4d397c	0.2004146
63	0x3dd54b50	0.10414755
64	0xbde75966	-0.11296348
65	0x3e4bc6ca	0.19900051
66	0xbc6b7397	-0.0143708205
67	0x3e85e933	0.2615448
68	0x3e803925	0.25043598
69	0xbece4ba3	-0.4029208
70	0xbe1cb9cf	-0.15305255
71	0x3eae2f2a	0.34020358
72	0xbbeb5a45	-0.007182392
73	0xbf15738f	-0.58379453
74	0xbea494e2	-0.3214484
75	0xbeee028c	-0.46486318
76	0x3e802ffa	0.25036603
77	0x3eb3f99d	0.35151377
78	0xbebe845e	-0.37210363
79	0xbe4df720	-0.20113802
80	0xbe0ca816	-0.13735995
81	0x3cfcab0b	0.030843278
82	0x3ebe8324	0.37209427
83	0xbd4918a8	-0.04909578
84	0xbdb1c335	-0.08679811
85	0x3d811afb	0.06303974
86	0x3bb06e00	0.005384207
87	0xbb7d2c84	-0.003863127
88	0x3ec184b5	0.3779656
89	0xbd5084f0	-0.05090803
90	0x3e64c70c	0.22341555
91	0x3e49d127	0.19708692
92	0x3eba6171	0.36402467
93	0xbe9b54dd	-0.30338183
94	0x3dc2fe49	0.09521157
95	0xbe76a141	-0.24084951
96	0x3ed37d61	0.41306594
97	0xbe5807ef	-0.21096776
98	0x3c86fcc7	0.016477956
99	0x3eae0dd5	0.33994928
100	0xbedd4c2c	-0.43222177
101	0x3ee932c3	0.4554654
102	0x3dfe0036	0.12402384
103	0xbdd65d4a	-0.10467012
104	0xbdcb2bf6	-0.09920494
105	0xbee22844	-0.44171345
106	0xbf0342c6	-0.51273763
107	0x3eb279a5	0.34858432
108	0xbeb143ef	-0.34622142
109	0x3ebfa652	0.3743158
110	0xbddfba5e	-0.109242186
111	0xbe53d342	-0.20686057
112	0xbeabdd54	-0.33567297
113	0x3e641bd9	0.22276248
114	0x3e265f15	0.16247208
115	0xbe901aaf	-0.28145358
116	0xbe83ffbc	-0.25781047
117	0xbec8067a	-0.3906744
118	0xbef54f03	-0.47911844
119	0xbf07c4ec	-0.53034854
120	0xbecfc319	-0.40578535
121	0xbed0ddda	-0.4079426
122	0x3eb7336e	0.35781425
123	0x3b944569	0.004524876
124	0x3e835cd4	0.2565676
125	0xbea4eb4b	-0.32210764
126	0xbe6ef7f3	-0.23336773
127	0xbe7f8044	-0.24951273
128	0xbf088641	-0.53329855
129	0xbe945f33	-0.2897888
130	0x3d01e0cf	0.031708535
131	0xbee4221d	-0.44557276
132	0xbee11ac7	-0.43965742
133	0x3d07af75	0.033126313
134	0x3ed64cb7	0.41855404
135	0xbe38cd99	-0.1804718
136	0xbeb6faaa	-0.35738117
137	0x3f2fa612	0.6861278
138	0xbdccdf83	-0.10003569
139	0xbd74c844	-0.0597613
140	0x3ec35b48	0.3815558
141	0xbeb2e339	-0.34938982
142	0x3e3030be	0.17206094
143	0xbe3b4125	-0.1828657
144	0xbe7feb10	-0.24992013
145	0xbda4fe02	-0.08056261
146	0xbe94db98	-0.29073787
147	0x3e678cb4	0.22612268
148	0xbe9abb83	-0.30221185
149	0x3e0ad86a	0.13559118
150	0x3d03bf86	0.032165073
151	0x3e1d2059	0.15344371
152	0xbeb09b21	-0.34493354
153	0x3d44dafe	0.04806041
154	0xbcd8b890	-0.026455194
155	0x3d8bb00f	0.0682069
156	0xbedd1311	-0.4317861
157	0xbe46b739	-0.19405831
158	0xbe52c6cf	-0.20583652
159	0xbe0cff4e	-0.13769266
160	0xbe9efeea	-0.3105386
161	0x3ce10e7f	0.027472733
162	0x3dba170a	0.090864256
163	0x3e46c3ce	0.19410631
164	0xbdd7498a	-0.10512073
165	0x3e0c47b4	0.13699228
166	0xbd9fd4da	-0.0780427
167	0xbe821b2d	-0.25411358
168	0x3d987ba7	0.0744546
169	0xbd945d2d	-0.07244334
170	0xbe183e57	-0.14867531
171	0xbe555c48	-0.20835984
172	0xbe098dd2	-0.13433006
173	0xbf12f134	-0.57399297
174	0xbec57349	-0.38564518
175	0xbed224bd	-0.41043654
176	0xbe840d01	-0.2579117
177	0x3c5b3cc3	0.013381186
178	0xbcf75985	-0.030194053
179	0xbe08522b	-0.13312595
180	0x3d01a10c	0.031647727
181	0x3e939015	0.28820863
182	0xbe0762f4	-0.13221341
183	0xbe738f42	-0.23785117
184	0xbedf7e1c	-0.436509
185	0x3ea4b5ec	0.32170045
186	0xbe0c7d47	-0.13719665
187	0x3dcac475	0.099007525
188	0x3e9980a2	0.29980952
189	0xbd454945	-0.04816558
190	0x3db807a2	0.08985831
191	0xbe82b608	-0.25529504
192	0xbe4ce28c	-0.20008296
193	0x3e1228b0	0.14273334
194	0x3e40aef2	0.18816736
195	0xbebacd5e	-0.36484808
196	0x3ce6094d	0.028080607
197	0xbe5e29d7	-0.21695648
198	0x3eb4705c	0.35241973
199	0xbd2c790d	-0.04210763
200	0x3d631cb1	0.055447284
201	0xbde6e0f8	-0.11273378
202	0xbe063918	-0.13107717
203	0x3c67fca1	0.0141593525
204	0x3e2d888f	0.16946624
205	0x3b4e3569	0.003146494
206	0x3d056ef2	0.03257651
207	0xbe40cdd5	-0.18828519
208	0x3e5d9cac	0.21641797
209	0x3eb05076	0.34436387
210	0xbe3fc5b2	-0.18727759
211	0xbe526478	-0.20546138
212	0x3d6c2e72	0.05766148
213	0x3e0394eb	0.12849776
214	0x3e04b54f	0.12959789
215	0xbe527651	-0.20552947
216	0xbdad2ec5	-0.08456186
217	0xbe3daa83	-0.18522076
218	0xbdcbdea2	-0.09954573
219	0xbe00551b	-0.12532465
220	0xbf059117	-0.52174515
221	0xbe06425f	-0.13111256
222	0x3e335831	0.17514111
223	0xbe65ff83	-0.22460751
224	0x3e83504f	0.25647208
225	0x3e51beed	0.20482989
226	0xbe6e48f4	-0.23270017
227	0x3da941c4	0.08264497
228	0xbe60c7e0	-0.21951246
229	0xbe783f1e	-0.24242827
230	0xbe924442	-0.28567702
231	0xbd49f4fe	-0.04930591
232	0x3dd799a0	0.105273485
233	0x3e9fd5fd	0.31217948
234	0x3e9deb46	0.30843562
235	0x3e2741f6	0.16333756
236	0xbe901d6c	-0.28147447
237	0xbe03f27a	-0.12885466
238	0xbe2f34a9	-0.17109932
239	0x3dc80a37	0.09767573
240	0x3e642c63	0.22282557
241	0xbf0e8b5f	-0.55681413
242	0xbe85941c	-0.2608956
243	0x3d46c0d4	0.04852374
244	0x3d41802b	0.04724137
245	0xbe663a9a	-0.22483292
246	0xbd7de31f	-0.061984178
247	0xbd839dee	-0.06426607
248	0xbe2b3e5b	-0.16723005
249	0x3e146ab8	0.14493835
250	0xbe25a4e1	-0.16176178
251	0x3e5554d4	0.2083314
252	0xbddeccea	-0.10878928
253	0xbe45cfe0	-0.1931758
254	0x3df9f99c	0.12205812
255	0x3f2310e1	0.6369763

encoder.feature_encoder.atom_embedding_list.5.weight f4 [6, 64]
0	0xbdd82234	-0.10553399
1	0x3e21355b	0.1574301
2	0xbdff13b5	-0.12454931
3	0x3e64b51c	0.22334713
4	0xbe20b936	-0.15695652
5	0x3dcd142a	0.100136116
6	0xbd98b890	-0.074570775
7	0xbec99952	-0.39374787
8	0xbc361235	-0.011112739
9	0xbdde714c	-0.108614534
10	0xbe99f88f	-0.30072448
11	0x3dde8ab9	0.10866303
12	0x3e1f4511	0.1555369
13	0xbe75ebc2	-0.24015716
14	0xbeb4d937	-0.35321972
15	0x3e1a06ca	0.15041652
16	0xbec376ad	-0.3817648
17	0xbcfe58a3	-0.031048125
18	0x3dd00765	0.101576604
19	0x3dc8fdc8	0.0981403
20	0xbe02193f	-0.12704943
21	0x3c403703	0.011731866
22	0xbe646f9f	-0.22308205
23	0xbe1e449e	-0.15455863
24	0xbdfdb2cf	-0.12387621
25	0xbe9c7b92	-0.30563027
26	0xbe6e87a5	-0.23293932
27	0xbcb160bb	-0.02165257
28	0xbbd057b2	-0.0063581103
29	0xbe516e4c	-0.20452231
30	0x3e23eb4c	0.16007727
31	0xbe712a88	-0.2355138
32	0xbe015d81	-0.12633325
33	0x3e396d62	0.18108132
34	0x3db423e7	0.0879591
35	0x3e74b12b	0.23895709
36	0x3cc85273	0.024453377
37	0xbe428a4d	-0.1899807
38	0xbe4a51cf	-0.1975777
39	0xbe2b93ea	-0.16755643
40	0xbe70cd41	-0.23515798
41	0xbd83e354	-0.06439844
42	0xbe7dfa5c	-0.24802536
43	0xbe644624	-0.22292382
44	0xbe73495f	-0.23758458
45	0x3e541394	0.20710593
46	0x3d20582e	0.039146595
47	0x3e6da850	0.23208737
48	0x3e5c8d9a	0.21538392
49	0x3e47bb94	0.19505149
50	0xbe1e0f29	-0.1543547
51	0xbe52fb0a	-0.20603576
52	0xbe92a3e5	-0.28640667
53	0xbed0abb4	-0.40756
54	0xbcc54f6a	-0.02408572
55	0x3d812c98	0.06307334
56	0x3ddc3ac2	0.10753395
57	0xbe572a00	-0.21012115
58	0x3e06e5e6	0.13173637
59	0xbd967907	-0.07347303
60	0x3dd24eb5	0.102689184
61	0x3d5ed56e	0.05440276
62	0xbdcd5e03	-0.10027697
63	0x3e03cf1a	0.12871972
64	0xbed57568	-0.41691136
65	0xbcfd487b	-0.03091835
66	0xbce6c0d7	-0.028168125
67	0x3cacfd8b	0.021116992
68	0x3e987353	0.29775485
69	0x3ed9aed3	0.42516193
70	0x3ea5d1ee	0.32386726
71	0xbdecdd00	-0.1156559
72	0xbe81bb5b	-0.25338253
73	0xbe5c425c	-0.21509689
74	0x3d747c00	0.059688568
75	0x3d4b682d	0.049659897
76	0x3df5a740	0.11994791
77	0x3e332740	0.17495441
78	0xbe50c1b4	-0.20386392
79	0xbda43ec0	-0.08019781
80	0x3e6cdc0c	0.23130816
81	0x3d98111a	0.07425137
82	0xbe6ad68b	-0.22933404
83	0x3d08ec0f	0.033428248
84	0x3e8db3d3	0.27676257
85	0xbe8ada26	-0.2711956
86	0xbe1a902e	-0.15094063
87	0xbec5e14d	-0.38648453
88	0x3c7dadfe	0.0154833775
89	0x3e79f2dd	0.24409051
90	0x3e67514a	0.22589603
91	0xbe582aeb	-0.21110122
92	0xbdec2b36	-0.11531679
93	0x3e13da67	0.14438783
94	0xbd6a9123	-0.05726732
95	0x3f00bbc2	0.50286496
96	0x3e0b2db2	0.1359165
97	0x3e386b27	0.18009625
98	0xbe442be9	-0.19157375
99	0x3e5a068f	0.21291564
100	0xbdab5e51	-0.08367599
101	0xbd329c2c	-0.04360597
102	0x3da2b3c8	0.07944447
103	0xbe2caee5	-0.16863592
104	0xbe24d15e	-0.16095492
105	0xbf006970	-0.50160885
106	0xbe15f334	-0.14643556
107	0x3f5c123f	0.8596534
108	0x3ddbe199	0.10736389
109	0xbf035d57	-0.513143
110	0xbde3896a	-0.11110194
111	0xbc93c26f	-0.01803705
112	0xbdfd26df	-0.1236093
113	0xbd606130	-0.054780185
114	0xbec8a3ff	-0.3918762
115	0x3dc5c8ab	0.09657415
116	0xbe293855	-0.16525395
117	0xbeb0a517	-0.34500954
118	0xbe93b645	-0.28849998
119	0xbecbb202	-0.39784247
120	0xbdba1cef	-0.0908755
121	0xbbf8bcb3	-0.007590854
122	0xbe8ac84b	-0.27105936
123	0x3c439fa3	0.011939916
124	0x3d2b0c6e	0.0417599
125	0x3e057a10	0.13034844
126	0x3e1be20e	0.15222952
127	0xbdfcb5f1	-0.1233939
128	0x3ee32d17	0.44370338
129	0x3eb01083	0.34387597
130	0xbe037e95	-0.12841256
131	0x3e9507a4	0.29107392
132	0xbe159206	-0.14606485
133	0x3a34cc91	0.0006896938
134	0xbe1f2970	-0.15543151
135	0xbe1e9bff	-0.15489195
136	0x3eb13dc9	0.3461745
137	0x3d69b1d5	0.05705436
138	0x3ea6be73	0.32567176
139	0x3d8d258c	0.06891927
140	0xbda3a5d4	-0.079906136
141	0xbd947973	-0.07249727
142	0xbc1a232a	-0.009407798
143	0xbe55e8ba	-0.2088956
144	0x3dd9d85c	0.106369704
145	0x3e0e2ad3	0.13883524
146	0xbdb8ed38	-0.09029621
147	0xbe2ec4bc	-0.17067236
148	0x3d2e12de	0.042498462
149	0x3da5c4fd	0.08094213
150	0x3e4b604d	0.19860955
151	0x3df47f8e	0.119383916
152	0xbd03ccf7	-0.03217789
153	0x3e01ba3a	0.12668696
154	0xbe28c13d	-0.16479965
155	0xbdc3c44a	-0.095589235
156	0xbe511935	-0.20419772
157	0xbe2e3878	-0.17013729
158	0x3de80dc2	0.11330749
159	0xbd8a39e2	-0.067493215
160	0x3ead36cd	0.33830872
161	0x3dd3162d	0.10306964
162	0x3cf0d7c6	0.029399764
163	0xbe12dd54	-0.14342242
164	0x3beb2b12	0.0071767652
165	0x3d93a340	0.07208872
166	0xbd871fd2	-0.06597866
167	0xbe1a39d8	-0.15061128
168	0xbe2ce804	-0.16885382
169	0x3e3c7011	0.18402125
170	0x3dc9fd41	0.098627575
171	0x3e9df22d	0.30848828
172	0x3e181335	0.14851077
173	0xbdedce42	-0.11611606
174	0x3dbba394	0.091620594
175	0xbe24037b	-0.16016953
176	0x3e6e2c41	0.23259069
177	0xbd0ab690	-0.03386551
178	0x3e8edefe	0.27904505
179	0x3e847246	0.25868434
180	0xbe6a86b3	-0.22902946
181	0x3f014aa0	0.50504494
182	0x3e511cba	0.20421115
183	0xbe45e1bf	-0.19324397
184	0xbba66e2f	-0.005079053
185	0xbda8824f	-0.082279794
186	0x3e0325c9	0.12807383
187	0xbdf3a079	-0.11895842
188	0x3e29c924	0.16580635
189	0x3d4d0746	0.050055765
190	0x3ecaa0f6	0.39575928
191	0xbe4a92fb	-0.19782631
192	0x3e8f493e	0.27985567
193	0xbe5f2947	-0.2179309
194	0xbdb30191	-0.08740533
195	0x3e41beea	0.18920484
196	0x3dc76485	0.097359695
197	0xbe17c836	-0.14822468
198	0xbe757872	-0.23971727
199	0xbe6251cf	-0.2210152
200	0xbe7a7c2d	-0.24461432
201	0xbe25a877	-0.16177545
202	0xbe35a1b1	-0.17737462
203	0xbdad0770	-0.08448684
204	0x3e81dc5e	0.2536344
205	0xbd9f20ee	-0.07769953
206	0xbe39484c	-0.18093985
207	0x3e128cc1	0.14311506
208	0xbe306e4b	-0.17229573
209	0xbe160608	-0.14650738
210	0xbd462478	-0.048374623
211	0xbd1395e9	-0.036031637
212	0xbe38dbbe	-0.18052575
213	0xbe6e67e5	-0.2328182
214	0xbe924d0b	-0.28574404
215	0xbdfe4a99	-0.12416572
216	0x3e17e07e	0.1483173
217	0x3cc06297	0.023484511
218	0x3e6ef669	0.23336186
219	0x3d4ff766	0.050773047
220	0xbe60e413	-0.21962003
221	0x3ce1ead4	0.027577795
222	0xbd999be0	-0.07500434
223	0x3e29bbce	0.16575548
224	0x3da31e0a	0.07964714
225	0x3e945e95	0.2897841
226	0xbe866098	-0.2624557
227	0xbe0eab17	-0.13932453
228	0xbe7e71ec	-0.24848145
229	0x3cd56211	0.026047738
230	0xbe3f152e	-0.18660423
231	0xbdf8f413	-0.121559285
232	0x3e8f11eb	0.27943358
233	0xbdc8de40	-0.09808016
234	0x3e137b9b	0.1440262
235	0x3e40babc	0.18821234
236	0x3e596822	0.2123113
237	0x3e753810	0.23947167
238	0x3e38e9e5	0.18057974
239	0x3ceda6b9	0.029010164
240	0x3e7ceeca	0.24700466
241	0x3e910b12	0.28328758
242	0xbe4ec8d0	-0.20193791
243	0x3d7a6741	0.061133627
244	0x3e4e4130	0.20142055
245	0xbe4aa97a	-0.19791213
246	0x3deb4c17	0.11489122
247	0x3e3b2a26	0.18277797
248	0x3c15a682	0.009133937
249	0xbdad5179	-0.08462805
250	0xbcc654b4	-0.024210311
251	0x3e825fbc	0.25463665
252	0xbe6d5a93	-0.23179083
253	0x3deddd5c	0.116144866
254	0xbe2242a0	-0.15845728
255	0x3e4a4bdf	0.19755505

encoder.feature_encoder.atom_embedding_list.6.weight f4 [6, 64]
0	0xbde8edff	-0.11373519
1	0x3ed0183b	0.40643486
2	0xbdb4b56f	-0.08823668
3	0x3e977e31	0.29588464
4	0xbe5fbcfc	-0.21849436
5	0x3eb5bbb6	0.35494775
6	0x3d44ae81	0.048017982
7	0x3eaa48a9	0.3325856
8	0xbd4c3755	-0.049857456
9	0x3e6698f4	0.22519284
10	0xbd311870	-0.043236196
11	0x3d385e79	0.04501197
12	0x3ee93d13	0.45554408
13	0x3e8c5f2d	0.27416363
14	0x3e58e36c	0.21180505
15	0x3b5ec3d2	0.003399123
16	0x3e35107f	0.17682074
17	0x3ccb871d	0.0248447
18	0xbbfeb30d	-0.0077728094
19	0x3ce5be1c	0.028044753
20	0xbdd5921e	-0.1042826
21	0xbe8da9de	-0.2766866
22	0x3d41d5ea	0.047323145
23	0xbea175b4	-0.31535113
24	0xbda84d0b	-0.0821782
25	0x3e17d551	0.14827468
26	0xbd8a06d1	-0.067395814
27	0x3e205a04	0.15659338
28	0xbe7cdc06	-0.24693307
29	0xbcb62c2c	-0.02223786
30	0xbe0e446d	-0.1389329
31	0x3e381d25	0.17979868
32	0x3eb4d78f	0.35320708
33	0xbe4f4771	-0.20242096
34	0x3c53438c	0.012894522
35	0xbe0d6bc1	-0.13810636
36	0x3e334f36	0.17510685
37	0x3e4b96a1	0.19881679
38	0x3e0b97eb	0.13632171
39	0xbe3885d4	-0.18019801
40	0x3df3272c	0.11872706
41	0xbea6903d	-0.3253192
42	0x3ca53fcc	0.020172022
43	0x3f05ebf1	0.52313143
44	0xbc509a8a	-0.0127321575
45	0xbe8dd25f	-0.27699563
46	0x3e251ae8	0.16123545
47	0x3e0cb321	0.13740207
48	0xbcc17599	-0.023615645
49	0xbdb55744	-0.08854535
50	0xbee25d5a	-0.44211847
51	0x3e90bb15	0.28267732
52	0x3e4f0e5d	0.20220323
53	0xbe8b9182	-0.2725945
54	0xbd85689d	-0.06514094
55	0x3ef5429f	0.4790239
56	0x3ee6aeb8	0.45055175
57	0xbe0df95b	-0.13864653
58	0xbe5d9367	-0.21638261
59	0xbec75348	-0.38930726
60	0x3e92ac02	0.28646857
61	0x3edfa5a9	0.43681076
62	0xbe7d4349	-0.24732699
63	0xbe63e366	-0.22254714
64	0x3e731842	0.23739722
65	0xbe0bcecb	-0.13653104
66	0xbe253ae6	-0.16135749
67	0xbe23f986	-0.16013154
68	0xbd738296	-0.05945071
69	0xbe480532	-0.19533232
70	0xbdb0948b	-0.08622082
71	0xb9e86779	-0.0004432758
72	0x3d6e49ef	0.058175977
73	0x3e292a11	0.16519953
74	0xbeb403f2	-0.3515926
75	0xbd34ab08	-0.04410842
76	0xbe34c8a3	-0.17654662
77	0xbe9bb2df	-0.30409905
78	0xbe352ab1	-0.17692067
79	0xbe47f8f1	-0.19528557
80	0xbe3e47f9	-0.18582143
81	0xbe668dfb	-0.22515099
82	0xbec394cd	-0.38199463
83	0xbc3b3bf1	-0.011427865
84	0xbe5af8b0	-0.21383929
85	0xbe3a7940	-0.18210316
86	0xbe7346bf	-0.23757456
87	0xbdb09aa2	-0.08623244
88	0xbe65ed1a	-0.22453728
89	0xbdaec8ba	-0.08534379
90	0xbd564c6b	-0.05231897
91	0xbd762625	-0.06009497
92	0xbdfec021	-0.124389894
93	0xbe0c920b	-0.13727586
94	0x3e023e20	0.12719011
95	0x3d3f8a5e	0.046762817
96	0x3d0ae354	0.033908203
97	0x3dfe39ca	0.12413366
98	0xbd6a9909	-0.057274852
99	0xbeb1189e	-0.34589094
100	0xbce8ebd8	-0.028432772
101	0x3ea37d0d	0.31931344
102	0x3e5b40a6	0.2141138
103	0x3e09bab9	0.13450135
104	0xbd903f35	-0.07043306
105	0xbe206127	-0.1566206
106	0x3e939d06	0.28830737
107	0x3cb4d173	0.02207253
108	0x3dfbb185	0.122897185
109	0xbe1a3ebd	-0.15062995
110	0x3e21ce76	0.15801415
111	0xbdfcf8b1	-0.123521216
112	0x3dd4fa03	0.103992485
113	0xbe94a20e	-0.29029888
114	0x3c9bb352	0.019006405
115	0x3d860c2d	0.06545291
116	0xbd76157f	-0.060079094
117	0x3dbb1526	0.09134893
118	0xbe4eb0e4	-0.20184666
119	0x3ddea5e9	0.108714886
120	0xbe0d2cc8	-0.13786614
121	0x3de1cb0e	0.11025058
122	0x3e77caf1	0.2419851
123	0x3d9401b4	0.07226887
124	0xbe73982f	-0.23788522
125	0x3e6ece95	0.23320992
126	0xbdc78245	-0.09741644
127	0xbe20771e	-0.1567044
128	0x3e87330a	0.26406127
129	0x3bb0d5f7	0.0053966003
130	0xbc93f423	-0.01806075
131	0x3e75b490	0.2399466
132	0xbdec4ca9	-0.11538059
133	0x3d39a544	0.045323625
134	0x3d891426	0.06693296
135	0x3d4caf00	0.04997158
136	0x3dbd1a08	0.09233481
137	0x3dc57bc1	0.09642745
138	0xbeb014f7	-0.34390995
139	0xbe02fddf	-0.12792157
140	0x3e1f4d65	0.15556867
141	0x3e34bbe8	0.17649806
142	0x3e805186	0.25062197
143	0x3e571df4	0.2100752
144	0xbdf1fa12	-0.11815275
145	0xbdbde2d3	-0.09271779
146	0x3e0c34d6	0.1369203
147	0xbe9ea27b	-0.30983338
148	0xbe305860	-0.17221212
149	0xbd94b19f	-0.07260441
150	0xbe7c7f5a	-0.24657956
151	0x3df3cf5a	0.119047835
152	0x3ec37f4d	0.3818306
153	0xbb6e9d5c	-0.0036409711
154	0xbdffd8fc	-0.12492558
155	0xbe8fac4f	-0.2806115
156	0xbd7fe7d1	-0.062476937
157	0xbe54a563	-0.20766215
158	0x3c07ae5b	0.008281316
159	0x3d84ac4c	0.064781755
160	0x398660a7	0.00025630483
161	0xbe05a486	-0.13051042
162	0x3eb0d223	0.34535322
163	0x3e994f36	0.29943246
164	0x3dfaebda	0.12252016
165	0x3e8f63c8	0.28005815
166	0x3e04106b	0.12896888
167	0x3bb84044	0.0056228954
168	0xbeb820b4	-0.3596245
169	0x3e5b1a37	0.21396719
170	0xbd2525ca	-0.04031924
171	0x3d96046e	0.07325064
172	0xbd2adf52	-0.04171688
173	0xbdfdc108	-0.123903334
174	0xbd708f4b	-0.058730405
175	0x3e17def1	0.14831139
176	0xbe4f090f	-0.202183
177	0x3cc5dbea	0.024152715
178	0x3abceca6	0.0014413788
179	0xbee5008e	-0.44726986
180	0x3c68b929	0.014204302
181	0xbd502aa4	-0.050821915
182	0x3daf0e3f	0.08547639
183	0xbf32b428	-0.69806147
184	0xbe4659c3	-0.19370179
185	0x3e869758	0.2628734
186	0xbd6ae779	-0.057349656
187	0xbcf94d7c	-0.030432455
188	0x3ea390a1	0.3194628
189	0xbea84b1b	-0.328698
190	0x3e83b55d	0.25724307
191	0xbd0e6731	-0.03476638
192	0x3e5bf8b3	0.2148159
193	0xbe8cf41f	-0.2753
194	0x3eab9981	0.33515552
195	0xbd9b4fcc	-0.075835794
196	0xbe5728ad	-0.2101161
197	0xbe14d01f	-0.14532517
198	0x3dfa0bb1	0.12209261
199	0x3e168fe1	0.14703323
200	0xbe9d0b5f	-0.30672738
201	0x3f034b3b	0.5128667
202	0xbe53ce37	-0.20684133
203	0xbe4e4015	-0.20141633
204	0x3ea40071	0.32031587
205	0x3ed3bc69	0.41354683
206	0x3ce26f94	0.027641095
207	0xbe58d2d8	-0.2117418
208	0xbdd35b18	-0.10320109
209	0xbed3a194	-0.41334212
210	0xbe0e26cf	-0.13881992
211	0x3edc6cf9	0.4305189
212	0xbe1a4d55	-0.15068562
213	0xbe2686af	-0.16262315
214	0xbe0d3fac	-0.1379382
215	0x3db5424d	0.088505365
216	0xbe59c717	-0.21267353
217	0xbdafeea5	-0.0859044
218	0xbeed96b9	-0.46404055
219	0x3c28a53a	0.010293299
220	0xbe83c557	-0.25736496
221	0xbdff0505	-0.12452129
222	0x3e053ab1	0.1301067
223	0xbf0f2bb2	-0.5592605
224	0x3e446715	0.19179948
225	0xbe8b8b22	-0.27254587
226	0xbd8d9af8	-0.069143236
227	0x3daa305a	0.083100036
228	0xbebe560a	-0.37175018
229	0x3cfe1e93	0.031020438
230	0xbe53bf4e	-0.20678446
231	0xbd9a6196	-0.07538144
232	0x3e906c5e	0.28207678
233	0x3de2f7c0	0.11082411
234	0xbdec9b6b	-0.11553081
235	0xbe490277	-0.19629847
236	0x3e1310da	0.14361897
237	0xbc92fe32	-0.017943475
238	0xbeaf2f15	-0.34215608
239	0xbe82a51f	-0.25516602
240	0xbe1d0c09	-0.15336622
241	0xbe00aebc	-0.12566656
242	0xbda745bc	-0.08167598
243	0x3edf5564	0.43619835
244	0x3ebf1c4e	0.37326282
245	0xbe0d6203	-0.1380692
246	0x3d8f1f30	0.069883704
247	0x3dccf5aa	0.10007794
248	0xbe1ce9dc	-0.15323585
249	0xbe381903	-0.17978291
250	0xbe63dcf4	-0.22252256
251	0xbe9cb8a0	-0.30609608
252	0x3dd9fc4c	0.10643825
253	0x3e069df0	0.13146186
254	0x3cf00dcc	0.029303454
255	0xbdda1ab7	-0.10649627
