checkpoints/tuning_multi/trial_26/final_model.pt (torch, 520443 bytes, 104 tensors)

encoder.feature_encoder.atom_embedding_list.0.weight f4 [119, 64]
0.08996528 -0.052598815 -0.0154112 0.16436638 -0.21744876 -0.17982015 -0.0712176 0.24810682
0.14832523 0.04391072 -0.1037143 -0.15408546 0.005127561 0.0033893203 0.19366111 -0.16155991
0.2564885 0.19072679 0.136888 0.058686968 -0.1557252 -0.0069924253 -0.085546024 -0.07731339
0.069958255 -0.07254986 0.16346633 0.02226671 -0.08914378 -0.061483905 -0.13817152 0.058728196
-0.023289947 0.10678235 0.12502402 -0.027000215 -0.0757344 0.08844052 0.06674429 0.0059806556
-0.08911509 0.018976977 0.00072461367 0.12923884 0.040024623 0.037345294 0.17897463 0.018420653
0.15890379 -0.18544355 0.045359775 -0.2573914 -0.020966131 0.04146894 0.0606555 -0.07707494
0.14424255 0.015279337 -0.09569039 0.017185712 -0.25218356 0.112191305 -0.017014254 -0.049533367
-0.076280296 -0.13712864 -0.089313366 0.10689788 0.032801054 0.091791 -0.07215352 0.21059862
-0.050792888 0.035285346 -0.24406469 0.042477306 -0.027289022 -0.10570256 0.20741469 -0.037302874
0.11816888 -0.007050502 -0.05833317 -0.1307294 0.1385586 -0.17008366 0.056518387 -0.11042469
0.22343908 -0.093867466 -0.09685554 -0.03936203 -0.031521186 0.016539311 0.04503747 0.27175555
0.14718452 -0.20155795 0.2082347 0.009935909 -0.15170619 0.08289218 -0.028619412 0.2454912
-0.035637468 0.099030465 0.106455125 -0.11372419 -0.01662636 -0.1523736 0.027098143 -0.052126758
-0.18075714 0.020510899 0.1005596 -0.1919378 0.10931005 -0.27713692 -0.1352256 0.053764675
0.06075675 -0.047292896 0.27276182 -0.03587611 -0.13686408 0.11242055 0.13851294 -0.038142286
-0.12890333 0.06171629 0.12659149 -0.0621445 0.08406954 -0.17794655 -0.11409859 -0.0038425121
-0.057627168 0.09038792 -0.18635176 0.11690858 0.053923562 0.06560387 -0.12305117 -0.12598161
0.04395874 0.20759417 0.026410641 -0.123201236 -0.08733796 -0.12591861 -0.023837624 -0.12906343
0.15534267 0.15440652 -0.006860904 0.14490804 -0.040986974 -0.11577494 0.060143 -0.1319266
-0.11530734 -0.119142346 -0.19887431 -0.039194323 0.11563419 0.04489135 -0.043464143 -0.17331627
-0.027470361 0.12493504 0.06707768 0.13728102 -0.08579328 0.03826378 -0.1934401 0.055368938
-0.053603545 0.0014333271 -0.060920183 -0.15820898 -0.06666667 -0.01710965 -0.09615846 0.07568214
-0.0130692795 0.029124033 -0.2467081 0.023504075 -0.11224513 -0.13682027 0.046308666 -0.18196556
-0.13820976 0.13500267 0.14821279 -0.12577157 0.039268836 -0.09326673 0.16943894 0.110543706
0.071995504 -0.14762886 -0.08906347 -0.038054053 -0.16188858 -0.10582171 0.047673047 -0.14740567
0.048177455 -0.004137965 -0.014911197 -0.05289151 -0.09731315 -0.16929178 -0.12321702 0.13675027
-0.013421458 0.17631826 0.009546015 -0.021342978 0.10858781 -0.17047308 -0.11223156 0.103870384
-0.047223575 0.14325662 -0.016534355 0.12913159 0.008794044 0.018804297 -0.15293911 -0.062575996
0.009078864 0.08273273 0.03513348 -0.03931358 0.0012224893 0.15565413 0.120786175 0.06178496
-0.13049395 -0.060883597 0.11560348 0.16299626 -0.085601665 0.07693815 -0.042399473 0.11486493
-0.027207581 -0.14393501 -0.17923315 -0.0067842924 0.053380832 -0.106740616 0.14246227 0.08588759
00000000: b73f b83d db71 57bd 427f 7cbc a94f 283e
00000010: e3aa 5ebe c622 38be 88da 91bd b70f 7e3e
00000020: 92e2 173e badb 333d 2a68 d4bd 94c8 1dbe
00000030: 1905 a83b 5c1f 5e3b 194f 463e f66f 25be
00000040: 7652 833e e24d 433e 5e2c 0c3e bf61 703d
00000050: 6d76 1fbe b720 e5bb c132 afbd 7c56 9ebd
00000060: 4646 8f3d 0595 94bd b863 273e ad68 b63c
00000070: 0491 b6bd 8cd6 7bbd d67c 0dbe fa8c 703d
00000080: 8fca bebc b4b0 da3d 4c06 003e 8e2f ddbc
00000090: a31a 9bbd 4e20 b53d 3bb1 883d 60f9 c33b
000000a0: f981 b6bd 9b75 9b3c 00f4 3d3a 3057 043e
000000b0: dcf0 233d 61f7 183d 2045 373e e9e6 963c
000000c0: adb7 223e eae4 3dbe 2ccb 393d cec8 83be
000000d0: 2ac1 abbc 56db 293d e771 783d 77d9 9dbd
000000e0: 52b4 133e 2f56 7a3c 53f9 c3bd 0dc9 8c3c
000000f0: 341e 81be 8ec4 e53d 7a61 8bbc 80e3 4abd
00000100: d838 9cbd 736b 0cbe ede9 b6bd 47ed da3d
00000110: 665a 063d ebfc bb3d 3ac5 93bd 2aa7 573e
00000120: 340c 50bd 5e87 103d 18ec 79be affc 2d3d
00000130: 3a8d dfbc 957a d8bd 8464 543e e6ca 18bd
00000140: 8702 f23d e607 e7bb c3ee 6ebd eedd 05be
00000150: 4ee2 0d3e 692a 2ebe d37f 673d 5726 e2bd
00000160: 37cd 643e 963d c0bd 335c c6bd 143a 21bd
00000170: 5c1c 01bd 737d 873c 3679 383d 8b23 8b3e
00000180: 8ab7 163e 3565 4ebe 7a3b 553e 39ca 223c
00000190: de58 1bbe 60c3 a93d 4273 eabc 0c62 7b3e
000001a0: 98f8 11bd 7cd0 ca3d 2505 da3d 3ae8 e8bd
000001b0: 0134 88bc d307 1cbe edfc dd3c de82 55bd
000001c0: 6618 39be 7906 a83c 31f2 cd3d 588b 44be
000001d0: f3dd df3d e4e4 8dbe 9478 0abe 5938 5c3d
000001e0: 12dc 783d 32b6 41bd 70a7 8b3e d4f2 12bd
000001f0: 1926 0cbe bf3c e63d 56d6 0d3e 163b 1cbd
00000200: 3cff 03be 38ca 7c3d 33a1 013e 3b8b 7ebd
00000210: a72c ac3d 9f37 36be 86ac e9bd a8d2 7bbb
00000220: 770a 6cbd 4d1d b93d ffd2 3ebe c46d ef3d
00000230: f4de 5c3d 525b 863d 4002 fcbd 5301 01be
00000240: 140e 343d 9193 543e 215b d83c ee50 fcbd
00000250: 3fde b2bd cff0 00be 1f47 c3bc 3429 04be
00000260: 2612 1f3e be1c 1e3e 6fd1 e0bb c662 143e
00000270: f5e1 27bd 691b edbd 8258 763d c417 07be
00000280: 4126 ecbd e700 f4bd b5a5 4bbe 3a8a 20bd
00000290: 9ed1 ec3d fedf 373d 7507 32bd d279 31be
000002a0: 8609 e1bc f1dd ff3d 0660 893d 6593 0c3e
000002b0: 63b4 afbd 7bba 1c3d 2915 46be 8aca 623d
000002c0: 648f 5bbd 7ade bb3a 7187 79bd 8901 22be
000002d0: 8988 88bd 8929 8cbc baee c4bd 3dff 9a3d
000002e0: 8820 56bc 8695 ee3c 0ca1 7cbe 9e8b c03c
000002f0: c6e0 e5bd 9d1a 0cbe 28ae 3d3d 2e55 3abe
00000300: dc86 0dbe 243e 0a3e 18c5 173e 43ca 00be
00000310: 5cd8 203d a102 bfbd 6781 2d3e bd64 e23d
00000320: 6172 933d 052c 17be e966 b6bd 91de 1bbd
00000330: 1fc6 25be 0db9 d8bd d044 433d 83f1 16be
00000340: b955 453d c497 87bb 184e 74bc c5a4 58bd
00000350: 1e4c c7bd d35a 2dbe 3459 fcbd 4308 0c3e
00000360: ade5 5bbc c68c 343e e466 1c3c 78d7 aebc
00000370: 4963 de3d 7f90 2ebe a9d9 e5bd ffb9 d43d
00000380: 826d 41bd ddb1 123e 0e73 87bc 123b 043e
00000390: e514 103c 780b 9a3c 129c 1cbe d827 80bd
000003a0: 84bf 143c c76f a93d 20e8 0f3d 4707 21bd
000003b0: ef3b a03a cc63 1f3e be5e f73d 3a12 7d3d
000003c0: 35a0 05be 1461 79bd 84c1 ec3d 7ee8 263e
000003d0: ed4f afbd c091 9d3d 12ab 2dbd 4e3e eb3d
000003e0: 6fe2 debc b363 13be e588 37be c54e debb
000003f0: dca5 5a3d d39a dabd a1e1 113e d5e5 af3d

encoder.feature_encoder.atom_embedding_list.1.weight f4 [5, 64]
-0.06731242 -0.06427022 0.08127817 0.16373803 0.10085646 0.23981874 0.14498869 0.15052791
0.026699603 0.2361688 0.18201868 0.106827594 -0.26046652 -0.0030616813 -0.08904122 -0.022658348
0.20806015 -0.19948599 -0.04943209 -0.1675838 -0.01255519 -0.13742524 0.08961188 -0.2649559
-0.08557842 0.17090303 0.22743174 -0.17558736 -0.059806596 -0.0076464447 -0.21083315 -0.0051277135
0.13357306 -0.037495922 0.2409221 -0.1905589 -0.2642753 -0.23136926 -0.15038164 0.035726927
0.15036397 -0.28456894 -0.23402797 -0.04520681 0.23326226 0.13426998 -0.01297914 0.18039231
0.0490862 0.2148401 -0.04032049 -0.19394773 0.07390431 0.074971795 0.15804061 0.014847711
-0.067538604 0.07088637 -0.079365134 0.017314147 -0.12074599 -0.069560036 0.21435791 0.12014083
0.13846594 -0.2914542 -0.12530032 -0.16989826 -0.284301 -0.054183453 -0.07079306 0.031661242
-0.06255367 -0.08957996 -0.038074046 0.13277113 0.08227561 0.22343425 -0.25097167 -0.19604182
0.24066536 0.3069222 0.14363502 -0.15885411 0.22009148 -0.28148967 -0.23642284 0.0045705778
0.1167177 -0.2367214 -0.0034623498 0.10131198 0.019528894 -0.23431152 -0.14391316 0.050541975
0.09574248 0.085914925 -0.08706635 0.21561766 0.15041159 -0.2215835 -0.2779857 0.21822332
0.015171826 -0.07623421 -0.058617808 0.10811834 -0.19436942 -0.2854097 0.23727877 -0.12593116
0.14187485 -0.25827372 -0.10036406 -0.24133208 0.011097398 -0.06230382 0.13503641 -0.22872664
-0.163507 0.24991329 -0.14347528 -0.0135756675 -0.23787409 0.13964553 -0.018590478 -0.17858458
-0.006072277 0.036204748 0.008251968 0.22308917 -0.16890821 0.13353075 0.27158967 -0.21180639
-0.23096813 0.099663675 -0.104682565 -0.0066504017 -0.27507505 0.18012421 -0.019469118 0.018129371
-0.10250452 0.1023668 -0.0048358086 -0.117522895 0.07325179 -0.109491125 0.109437734 -0.2824334
-0.11409964 -0.20204668 0.12545842 -0.20707189 0.22847846 0.071800925 0.18072757 -0.19235748
-0.23954427 -0.048390992 -0.1620269 -0.099882364 0.24239556 0.15761021 -0.08712597 0.17906459
-0.19751793 -0.17135388 0.13061634 0.12731007 -0.085262515 -0.20123239 0.04609062 0.28446937
0.29022703 0.24192265 -0.22113484 0.19547413 0.05400192 -0.23934622 0.018939294 -0.28477553
0.0633044 -0.16214852 -0.19840838 0.014348606 0.1988903 0.16551444 -0.18248539 0.16773073
0.109718956 -0.19685487 -0.07606068 -0.0706652 -0.23967639 -0.2690761 -0.2002451 0.26807418
-0.078351565 0.028306205 -0.24486938 -0.05072293 0.11140949 -0.005975712 -0.02317325 -0.00392795
0.19827491 -0.20773533 -0.26481292 -0.28403232 0.11990514 -0.16426279 -0.12897252 -0.03900334
0.17287458 0.0025629278 0.057720114 -0.08283141 0.16048674 -0.14711075 0.22730407 0.24272998
-0.26526386 -0.09337159 -0.03553371 -0.15878773 0.015833395 -0.09678634 0.2441279 -0.023329364
-0.16483764 -0.14642836 -0.2755947 -0.18123668 0.057252157 0.08907471 -0.12709394 0.0030003001
0.14795926 0.038978837 0.033220615 -0.19344744 0.2772416 -0.087057 0.024326475 -0.036314845
0.12811099 -0.24425136 0.06710836 -0.22889031 0.23275572 -0.1162344 0.06019794 0.01951457
00000000: 18db 89bd 1ba0 83bd 2b75 a63d f1aa 273e
00000010: d58d ce3d 0b93 753e ea77 143e fd23 1a3e
00000020: 20b9 da3c 3cd6 713e 1b63 3a3e 6dc8 da3d
00000030: de5b 85be 7da6 48bb 3e5b b6bd 009e b9bc
00000040: b80d 553e 0e46 4cbe 4e79 4abd 169b 2bbe
00000050: 49b4 4dbc 34b9 0cbe 6f86 b73d 4da8 87be
00000060: bd43 afbd 3401 2f3e dee3 683e 2ccd 33be
00000070: c3f7 74bd 078f fabb a5e4 57be 6106 a8bb
00000080: 60c7 083e 5395 19bd 48b4 763e df21 43be
00000090: 184f 87be 10ec 6cbe a5fd 19be 6656 123d
000000a0: 03f9 193e 05b3 91be 07a5 6fbe c72a 39bd
000000b0: 4ddc 6e3e 127e 093e 75a6 54bc c3b8 383e
000000c0: 9c0e 493d 0bff 5b3e 1927 25bd 3c9a 46be
000000d0: 255b 973d d08a 993d 66d5 213e d043 733c
000000e0: ae51 8abd e02c 913d 308a a2bd 66d6 8d3c
000000f0: ac49 f7bd 7e75 8ebd a480 5b3e 650c f63d
00000100: 04ca 0d3e 7c39 95be ba4e 00be cff9 2dbe
00000110: e78f 91be 78ef 5dbd f4fb 90bd 38af 013d
00000120: 231c 80bd b375 b7bd 88f3 1bbd 28f5 073e
00000130: 1d80 a83d f3cb 643e 5c7f 80be 30bf 48be
00000140: fb70 763e e824 9d3e 0f15 133e a7aa 22be
00000150: a95f 613e 6a1f 90be d418 72be c9c4 953b
00000160: b109 ef3d 1867 72be 97e8 62bb a87c cf3d
00000170: 0ffb 9f3c 5cef 6fbe f95d 13be 1a05 4f3d
00000180: a214 c43d 2af4 af3d d84f b2bd e0ca 5c3e
00000190: 7f05 1a3e c9e6 62be 2454 8ebe ef75 5f3e
000001a0: 4093 783c ae20 9cbd 3a19 70bd 266d dd3d
000001b0: c708 47be 3821 92be 35f9 723e 19f4 00be
000001c0: a447 113e 743c 84be ac8b cdbd c21f 77be
000001d0: dcd1 353c 4a32 7fbd fc46 0a3e 5137 6abe
000001e0: 616e 27be 45e9 7f3e 2feb 12be 7a6c 5ebc
000001f0: 4495 73be 3dff 0e3e 0f4b 98bc e0de 36be
00000200: f4f9 c6bb 6e4b 143d 4333 073c 7d71 643e
00000210: 46f6 2cbe 49bc 083e cd0d 8b3e c6e3 58be
00000220: e982 6cbe 781c cc3d d063 d6bd 9deb d9bb
00000230: a3d6 8cbe 7b72 383e b37d 9fbc 0c84 943c
00000240: e4ed d1bd afa5 d13d b475 9ebb d8af f0bd
00000250: 0905 963d e23c e0bd e420 e03d 1c9b 90be
00000260: 12ad e9bd 53e5 4ebe 2c78 003e a70a 54be
00000270: 42f6 693e 5d0c 933d a610 393e 5cf9 44be
00000280: 184b 75be a235 46bd 61ea 25be 208f ccbd
00000290: 8b36 783e 9264 213e 1a6f b2bd b55c 373e
000002a0: 2442 4abe 6477 2fbe 4ac0 053e 925d 023e
000002b0: 1d9e aebd dd0f 4ebe 85c9 3c3d f8a5 913e
000002c0: a398 943e 92ba 773e 2c71 62be 5f2a 483e
000002d0: 1e31 5d3d 2d17 75be 9426 9b3c 19ce 91be
000002e0: bda5 813d 430a 26be 912b 4bbe 6a16 6b3c
000002f0: e6a9 4b3e 9e7c 293e 73dd 3abe 9bc1 2b3e
00000300: 55b4 e03d 5394 49be b4c5 9bbd ebb8 90bd
00000310: ba6d 75be 58c4 89be 0d0d 4dbe 0541 893e
00000320: c976 a0bd 6ae2 e73c 0abf 7abe d9c2 4fbd
00000330: a92a e43d e8cf c3bb d4d5 bdbc 08b6 80bb
00000340: 9408 4b3e 92b8 54be 8f95 87be af6c 91be
00000350: d390 f53d 8134 28be 5f11 04be f7c1 1fbd
00000360: 0906 313e cbf6 273b ed6b 6c3d 84a3 a9bd
00000370: a356 243e 33a4 16be 66c2 683e 358e 783e
00000380: aad0 87be 9b39 bfbd cc8b 11bd 4099 22be
00000390: 09b5 813c eb37 c6bd aafc 793e 391d bfbc
000003a0: 33cb 28be 51f1 15be c01a 8dbe 1c96 39be
000003b0: 3d81 6a3d cd6c b63d ea24 02be afa0 443b
000003c0: a282 173e 46a8 1f3d 5712 083d 1617 46be
000003d0: 9cf2 8d3e f14a b2bd 5148 c73c e0be 14bd
000003e0: 872f 033e 071d 7abe 1c70 893d 3962 6abe
000003f0: 8457 6e3e 4d0c eebd 1d92 763d 05dd 9f3c

encoder.feature_encoder.atom_embedding_list.2.weight f4 [12, 64]
-0.08058638 -0.19150625 -0.26454717 -0.17909703 0.058995277 -0.20322771 0.18233049 -0.12462088
0.07097529 0.33409622 -0.10648202 -0.115683556 -0.22149386 -0.104735196 -0.04417551 -0.30254453
-0.14795278 -0.033044294 0.2288015 -0.050055653 0.02350342 -0.13427633 0.06151564 0.18898545
0.065268844 -0.09429596 0.0016631037 0.28680673 -0.21145287 0.29768607 -0.093854725 0.2705147
0.27183327 -0.007818524 0.042735122 0.16806106 -0.09445035 0.019722167 0.36833596 -0.06133538
-0.12236257 0.18478605 0.25144255 0.2947552 -0.28915453 0.05119026 0.24635771 -0.057125837
0.17289533 -0.17571826 0.119828194 -0.023034407 0.064481795 -0.20915796 0.052007735 -0.13401803
0.28682843 -0.17035834 -0.00095722947 0.09675253 -0.037435703 -0.016094502 0.15130547 -0.048122764
-0.15363638 -0.05845754 0.015279604 -0.16618861 -0.036725674 -0.15112834 -0.06298325 -0.19268484
-0.1865013 0.046946414 0.21932594 -0.038490877 -0.22330697 -0.114683546 0.10539637 0.13129315
-0.21571559 0.23890172 0.25855106 -0.013546969 0.17683418 -0.012322386 -0.3513334 -0.25181314
-0.05255958 -0.0808227 0.05804305 0.107601404 0.022210063 0.09779516 -0.12788606 0.25532797
-0.16910978 0.07597143 0.3267145 -0.2844811 -0.28550616 0.26721746 0.2268004 -0.015894368
-0.014916802 -0.004568718 -0.09267828 0.15810183 0.10053686 -0.24906051 -0.06834671 -0.26600337
0.10054255 -0.35909325 -0.23106281 -0.33784255 0.024814708 -0.23636685 -0.07865894 -0.08347086
0.22678211 0.27401695 0.15006794 -0.15553302 0.06693584 -0.21045773 -0.031089285 -0.11952185
-0.2270917 0.22272304 0.12953037 0.050099798 0.12526675 0.27760366 -0.22085783 0.030535944
-0.14786625 -0.05174352 -0.2805185 0.044744264 -0.27993682 -0.11126709 0.31066588 -0.17134918
-0.11144917 -0.15163492 -0.42010087 0.045251094 0.083741106 -0.028307462 -0.16923176 0.25237072
0.34498656 0.0048070345 -0.2919994 -0.033815768 0.07918181 0.015386431 0.28681907 0.32373562
0.06848943 -0.19364539 -0.06599157 -0.0054533426 -0.17188297 0.07372015 0.22032252 -0.15568286
-0.14737108 -0.21372771 0.031237839 0.21700484 0.3341505 -0.02706622 0.114814654 -0.38568527
-0.03842034 -0.06346698 -0.20865585 0.2501863 0.36416894 -0.21714854 -0.32569334 -0.29944068
0.029419567 0.11878472 0.10109522 0.18073033 -0.17815848 0.00958438 -0.1511702 -0.16289657
0.10059231 -0.05100102 -0.23926401 -0.021819457 0.16711117 0.29157573 0.010997646 0.17969818
-0.09563752 -0.23761201 0.21026973 -0.06362566 -0.047668517 -0.07295508 0.08295375 -0.03073122
-0.059962317 -0.009797705 -0.10009949 0.15587285 0.20899181 0.1753096 -0.009931256 -0.12710467
-0.29441625 -0.25930905 -0.14015909 0.11431704 0.23570222 0.06352514 -0.04326378 0.2162167
-0.08038844 -0.20287634 0.112736985 -0.120999664 -0.1771501 -0.06311927 -0.18709257 -0.21903504
-0.16167332 -0.014621941 0.1035291 -0.11641875 -0.34995824 -0.054697085 0.24913335 -0.041179437
-0.26503068 -0.1453529 0.20928082 0.061028037 -0.23823091 0.256301 0.16910371 0.09506422
0.20941517 -0.03153608 -0.09606412 0.1742993 0.19683643 -0.20830823 0.19362842 -0.028138127
00000000: 790a a5bd 371a 44be ba72 87be 3665 37be
00000010: 08a5 713d ed1a 50be d8b4 3a3e 3b39 ffbd
00000020: 7e5b 913d a90e ab3e 3f13 dabd 80eb ecbd
00000030: 49cf 62be 687f d6bd 61f1 34bd 1ee7 9abe
00000040: ef80 17be 7459 07bd f14a 6a3e 2807 4dbd
00000050: 3f8a c03c bc7f 09be d3f7 7b3d 6785 413e
00000060: acab 853d 3e1e c1bd 80fc d93a 55d8 923e
00000070: 1a87 58be 4f6a 983e e836 c0bd e780 8a3e
00000080: bb2d 8b3e 4419 00bc 060b 2f3d 3318 2c3e
00000090: 2f6f c1bd 6290 a13c 8896 bc3e cf3a 7bbd
000000a0: 3a99 fabd 8e38 3d3e 14bd 803e 27ea 963e
000000b0: 100c 94be e1ac 513d 3245 7c3e c8fc 69bd
000000c0: 790b 313e 7def 33be 7c68 f53d a7b2 bcbc
000000d0: 080f 843d 812d 56be 1006 553d 063c 09be
000000e0: 2ddb 923e 6b72 2ebe 95ee 7aba 3126 c63d
000000f0: 2e56 19bd 9ed8 83bc d2ef 1a3e 601c 45bd
00000100: db52 1dbe 2c71 6fbd 4e57 7a3c 592d 2abe
00000110: a96d 16bd 63c1 1abe 5dfd 80bd 2d4f 45be
00000120: 32fa 3ebe e24a 403d fb96 603e 9ca8 1dbd
00000130: 95aa 64be 35df eabd 0dda d73d b671 063e
00000140: 8ce4 5cbe a7a2 743e ce60 843e 1bf4 5dbc
00000150: 0514 353e d5e3 49bc f9e1 b3be a7ed 80be
00000160: b748 57bd 5f86 a5bd 8dbe 6d3d 205e dc3d
00000170: e1f1 b53c d448 c83d 90f4 02be 59ba 823e
00000180: 1d2b 2dbe e996 9b3d 1f47 a73e 82a7 91be
00000190: dd2d 92be bad0 883e 5d3e 683e e834 82bc
000001a0: 9a65 74bc 2fb5 95bb 1cce bdbd 72e5 213e
000001b0: 45e6 cd3d b809 7fbe 5cf9 8bbd 9831 88be
000001c0: 41e9 cd3d 12db b7be bb9b 6cbe b3f9 acbe
000001d0: 3748 cb3c 270a 72be f017 a1bd c5f2 aabd
000001e0: 9239 683e f34b 8c3e 69ab 193e 0c44 1fbe
000001f0: a815 893d 3b82 57be f5ae febc dfc7 f4bd
00000200: ba8a 68be 8211 643e 9ca3 043e 7235 4d3d
00000210: ed45 003e 1122 8e3e 8e28 62be 8426 fa3c
00000220: 406a 17be 03f1 53bd 1fa0 8fbe c345 373d
00000230: e153 8fbe 00e0 e3bd 990f 9f3e 2976 2fbe
00000240: 763f e4bd 2f46 1bbe 7617 d7be 3659 393d
00000250: 7580 ab3d 0de5 e7bc 174b 2dbe bc36 813e
00000260: 14a2 b03e 5484 9d3b f280 95be 6782 0abd
00000270: 132a a23d 5e17 7c3c f3d9 923e adc0 a53e
00000280: 3044 8c3d fa4a 46be 9726 87bd f4b1 b2bb
00000290: 1702 30be 97fa 963d 3a9c 613e 546b 1fbe
000002a0: 72e8 16be 70db 5abe 7fe6 ff3c 8436 5e3e
000002b0: c615 ab3e fab9 ddbc f223 eb3d 8a78 c5be
000002c0: a55e 1dbd fafa 81bd e1a9 55be 6b18 803e
000002d0: 5a74 ba3e 305c 5ebe 47c1 a6be 4a50 99be
000002e0: 4e01 f13c 6745 f33d 030b cf3d 5f11 393e
000002f0: 2d6f 36be ce07 1d3c 5ccc 1abe 5cce 26be
00000300: 5703 ce3d 72e6 50bd a001 75be b8be b2bc
00000310: 311f 2b3e 6a49 953e 782f 343c cd02 383e
00000320: 9bdd c3bd 9050 73be f350 573e 2c4e 82bd
00000330: 1040 43bd 7969 95bd a8e3 a93d 0ac0 fbbc
00000340: 0c9b 75bd 8e86 20bc f600 cdbd 229d 1f3e
00000350: f301 563e 5c84 333e b5b6 22bc ba27 02be
00000360: babd 96be 28c4 84be dd85 0fbe 0d1f ea3d
00000370: ec5b 713e 7819 823d 5d35 31bd e967 5d3e
00000380: b2a2 a4bd d1be 4fbe a6e2 e63d acce f7bd
00000390: d666 35be ad44 81bd 3295 3fbe b94a 60be
000003a0: b18d 25be de90 6fbc 1107 d43d f46c eebd
000003b0: ba2d b3be 0d0a 60bd d01c 7f3e c5ab 28bd
000003c0: 1ab2 87be 64d7 14be b64d 563e 89f8 793d
000003d0: cef2 73be e239 833e 8629 2d3e 08b1 c23d
000003e0: ee70 563e fa2b 01bd 44bd c4bd 847b 323e
000003f0: 7d8f 493e c14e 55be 8746 463e ee81 e6bc

encoder.feature_encoder.atom_embedding_list.3.weight f4 [12, 64]
0.17718935 -0.0031362693 0.117401786 0.25565645 0.107303075 0.20918092 -0.15829843 -0.19283506
0.20747694 0.28975946 0.13213195 0.115041815 -0.1609271 0.15507612 -0.070747174 -0.120545186
0.20879585 -0.08598251 -0.32869834 -0.050038785 0.06993111 -0.30498847 0.16840176 0.010379623
0.031152017 0.2774493 0.1918431 -0.051998053 -0.24751194 0.24659821 -0.09790572 -0.09037903
0.10347656 0.102598086 0.05452584 -0.21923602 -0.27619845 0.09030778 0.114184536 0.09078051
0.27341938 -0.1625585 0.11516736 0.35136634 0.0013517818 -0.17052154 -0.18603522 -0.02307593
-0.1348499 -0.25057155 -0.20987868 0.07733358 -0.08544722 0.08318232 0.1933937 -0.25197524
-0.08107863 0.29087242 -0.027271165 0.10138234 -0.23696569 0.318824 0.20134726 -0.25021031
0.06727312 0.18021351 0.09076135 0.060694817 -0.20518307 -0.1420379 -0.23174608 0.371573
0.023097824 0.16674732 -0.24730872 -0.20578973 -0.09114665 0.21778883 0.29481807 -0.14754221
0.207356 0.0138811655 -0.043896392 0.2720453 0.13538001 0.2048864 -0.3076592 -0.01669734
-0.006295753 0.23058613 0.139917 0.14345 0.16620138 -0.17041852 -0.069532804 0.2045041
-0.0950497 -0.017837085 0.13050218 -0.24562766 -0.15562373 -0.15512776 -0.17561954 -0.02764697
0.04339825 0.047983415 0.105238065 -0.0011488379 -0.25961035 -0.3428914 0.3322982 0.052792005
0.14822122 -0.2844579 -0.18274125 -0.01858398 0.2782958 -0.25713727 -0.1287899 -0.22538488
0.22417499 0.05589102 -0.07164117 0.15142556 -0.16290557 0.0532875 -0.007699502 -0.13664435
0.029795514 0.07094834 0.28798425 -0.2124015 -0.1174788 -0.035728257 -0.18977004 0.26615483
0.22524129 0.24907619 0.18806724 -0.026246117 0.18982854 -0.15992275 0.1841958 0.01667862
-0.006804555 0.09028069 -0.12327455 0.2790772 0.20479085 -0.06790475 -0.083173275 -0.24930882
0.09664543 -0.16488412 -0.3305125 0.23120955 0.10087751 0.25756058 -0.23504609 -0.15827799
-0.065756395 0.17370129 -0.21331105 -0.24000232 -0.09756083 -0.13405444 0.25614265 0.1303989
-0.21533744 -0.104097225 -0.023233702 -0.17584081 -0.23432665 0.22894213 -0.18683209 0.174623
-0.1005508 -0.3027105 -0.095564015 -0.12714256 -0.19083397 -0.19236983 0.03098872 -0.14794779
0.19968873 -0.27966374 -0.08993907 0.20234133 -0.20280536 0.0030748295 -0.250534 -0.25366783
0.11181655 0.008225805 0.048090566 0.22937934 0.01001446 -0.21414179 -0.30452174 0.04408047
-0.16909876 0.29669935 -0.03716386 0.28279328 -0.06269054 -0.06793177 -0.31020734 0.24580997
-0.28600067 0.12877068 0.028853944 -0.21018873 -0.16118595 0.08968383 0.20946307 -0.29380837
-0.21910955 0.080255024 0.17951745 -0.1804401 0.15544142 -0.063243404 -0.24516886 0.08511581
-0.22341397 -0.015909884 -0.11650157 -0.2385236 -0.05162107 -0.2507931 0.24872144 -0.210159
0.16347349 0.023384584 -0.02848115 -0.02045558 -0.058463365 -0.09607949 0.19683917 -0.23614451
0.08856429 -0.20779046 -0.079391584 0.19559626 0.1059078 -0.29935402 -0.19705757 0.181849
-0.049307454 0.24683891 -0.2771224 0.06729431 -0.3573548 0.06421833 -0.19565965 -0.035003066
00000000: 2071 353e de89 4dbb 5970 f03d 67e5 823e
00000010: b7c1 db3d 8633 563e fc18 22be 8e76 45be
00000020: d674 543e 5a5b 943e 994d 073e 0b9b eb3d
00000030: 13ca 24be 46cc 1e3e e5e3 90bd 65e0 f6bd
00000040: 94ce 553e 9917 b0bd 264b a8be 78f5 4cbd
00000050: 0b38 8f3d 7327 9cbe 8371 2c3e 4b0f 2a3c
00000060: 8432 ff3c d60d 8e3e 8572 443e e9fb 54bd
00000070: c573 7dbe 3e84 7c3e cb82 c8bd a418 b9bd
00000080: 85eb d33d f21e d23d 7d56 5f3d 687f 60be
00000090: e269 8dbe 49f3 b83d 95d9 e93d 22eb b93d
000000a0: a0fd 8b3e bc75 26be dddc eb3d 4ae6 b33e
000000b0: 452e b13a 339d 2ebe 0480 3ebe bc09 bdbc
000000c0: 1816 0abe ea4a 80be 70ea 56be 1161 9e3d
000000d0: f4fe aebd 7e5b aa3d 0009 463e e602 81be
000000e0: 8e0c a6bd 3bed 943e c767 dfbc 8ba1 cf3d
000000f0: 22a7 72be e63c a33e fa2d 4e3e 911b 80be
00000100: 7dc6 893d e489 383e 16e1 b93d 219b 783d
00000110: 831b 52be 6272 11be d84e 6dbe d13e be3e
00000120: a637 bd3c cfbf 2a3e 7f3e 7dbe 8bba 52be
00000130: 18ab babd 0904 5f3e 65f2 963e 4e15 17be
00000140: 2255 543e d46d 633c b4cc 33bd 8649 8b3e
00000150: 0fa1 0a3e becd 513e 8285 9dbe dcc8 88bc
00000160: 9b4c cebb c51e 6c3e 6746 0f3e 8fe4 123e
00000170: b230 2a3e 3182 2ebe 3767 8ebd 8669 513e
00000180: 6ba9 c2bd 141f 92bc 5da2 053e d185 7bbe
00000190: d45b 1fbe d0d9 1ebe 9cd5 33be e67b e2bc
000001a0: 5dc2 313d 428a 443d 0e87 d73d 9a94 96ba
000001b0: a6eb 84be 768f afbe fd22 aa3e 6e3c 583d
000001c0: 4ec7 173e 77a4 91be 8620 3bbe 6e3d 98bc
000001d0: c97c 8e3e 7fa7 83be 80e1 03be 4bcb 66be
000001e0: 218e 653e fbed 643d 9bb8 92bd 4d0f 1b3e
000001f0: b8d0 26be fe43 5a3d 1b4c fcbb 7fec 0bbe
00000200: b915 f43c 5d4d 913d ac72 933e c77f 59be
00000210: ba98 f0bd cb57 12bd 1453 42be 7245 883e
00000220: a7a5 663e d40d 7f3e b394 403e 1902 d7bc
00000230: 6a62 423e cac2 23be d39d 3c3e 9aa1 883c
00000240: bff8 debb 15e5 b83d 5e77 fcbd 35e3 8e3e
00000250: b1b4 513e a511 8bbd c056 aabd d04a 7fbe
00000260: 0aee c53d 62d7 28be ef38 a9be 32c2 6c3e
00000270: de98 ce3d fbde 833e ecaf 70be a013 22be
00000280: 4aab 86bd c0de 313e 366e 5abe 2bc3 75be
00000290: f9cd c7bd 9145 09be 2125 833e 4a87 053e
000002a0: 6b81 5cbe ed30 d5bd 9b54 bebc 9d0f 34be
000002b0: 53f3 6fbe ce6f 6a3e e950 3fbe 5fd0 323e
000002c0: 94ed cdbd dffc 9abe 11b7 c3bd a931 02be
000002d0: fb69 43be 99fc 44be 0edc fd3c a07f 17be
000002e0: 347b 4c3e 1630 8fbe fa31 b8bd 9132 4f3e
000002f0: 35ac 4fbe 1483 493b fe45 80be c0e0 81be
00000300: 1300 e53d 87c5 063c 9dfa 443d 6be2 6a3e
00000310: b113 243c fc47 5bbe 46ea 9bbe b98d 343d
00000320: 3a28 2dbe fae8 973e 2239 18bd 48ca 903e
00000330: e663 80bd d01f 8bbd 7fd3 9ebe 9cb5 7b3e
00000340: ae6e 92be 76dc 033e 1b5f ec3c b73b 57be
00000350: ee0d 25be 28ac b73d 7d7d 563e 0d6e 96be
00000360: 415e 60be bf5c a43d 6cd3 373e 4ac5 38be
00000370: 092c 1f3e c285 81bd 8c0d 7bbe 3351 ae3d
00000380: a2c6 64be 7255 82bc 6098 eebd 883f 74be
00000390: 9d70 53bd f467 80be d5b0 7e3e ec33 57be
000003a0: 9865 273e 0791 bf3c 4d51 e9bc 7692 a7bc
000003b0: 4877 6fbd 53c5 c4bd 3590 493e decf 71be
000003c0: 3261 b53d 06c7 54be 0e98 a2bd 634a 483e
000003d0: 30e6 d83d ee44 99be 76c9 49be a036 3a3e
000003e0: 9df6 49bd 57c3 7c3e fde2 8dbe 99d1 893d
000003f0: 35f7 b6be e684 833d 015b 48be 605f 0fbd

encoder.feature_encoder.atom_embedding_list.4.weight f4 [10, 64]
0.26530814 0.111828096 0.08865138 0.28314805 0.049925823 -0.13030137 0.08864429 -0.123785
0.20352845 -0.20625308 -0.17072783 0.19931567 -0.2549105 0.16402291 -0.15728074 0.13509582
0.31685838 0.090679966 -0.24248165 0.15411688 -0.05134581 -0.10740777 -0.26430342 -0.2388085
-0.07077224 0.17301142 -0.22083819 -0.25470132 -0.27424467 0.15697652 -0.27503327 -0.19175588
-0.05780356 -0.31701496 0.042764932 -0.11563723 0.26107147 -0.1510658 -0.2606111 -0.13206612
-0.05718513 -0.13068934 0.29746252 -0.29179528 -0.22176974 0.049470555 -0.031167688 0.22946048
0.012816423 0.079089746 0.13435224 -0.05260801 2.3556673e-05 -0.06084086 -0.066995054 -0.19016819
0.27490863 0.12761006 -0.115436465 0.21448977 0.18551348 0.10878233 0.23759618 0.09689505
-0.08130416 0.23054974 0.067058735 0.12608612 0.18064 -0.17404601 -0.08064601 0.39718643
0.00016701384 -0.0979835 -0.22610475 -0.3704046 0.17636219 0.24326216 -0.15702975 -0.26042452
-0.012472134 0.15892075 0.26006925 -0.080508284 -0.028768519 0.2824497 0.22934808 0.1414771
0.29509082 -0.22300662 0.11440867 0.16853134 0.20216471 -0.17280413 0.06486565 -0.1953054
0.2591346 -0.04819929 0.20195666 0.16170508 -0.19838655 0.2151994 0.27534202 -0.14289819
0.0047491062 -0.22844249 -0.23085013 0.19551538 -0.26819077 0.22104378 -0.21285892 -0.17436627
-0.119046904 0.10260319 0.26044697 -0.3150665 -0.21161126 -0.14210376 -0.3351526 -0.30975977
-0.19562294 0.03878847 0.3245937 -0.016813358 0.2646065 -0.25919503 -0.1382349 0.03504044
-0.29447466 0.0650386 0.09181184 -0.37822413 -0.3198351 -0.06697417 0.11317284 -0.073762156
-0.06768425 0.23285536 0.075705454 -0.07112995 0.21608403 -0.17782827 -0.18774493 -0.098932825
-0.05650553 -0.12781082 -0.040302575 0.101140425 0.028163511 0.035422556 -0.0011286429 0.20079093
-0.23848206 0.18577611 0.15918776 0.100313574 -0.23858735 -0.11424984 -0.16306445 -0.18373485
-0.06924036 -0.054989573 0.10482011 0.3234227 -0.045504138 0.24744694 0.039897114 -0.25415203
0.2414638 -0.23724747 -0.14866306 -0.106869005 -0.10131674 -0.43847784 -0.462846 -0.24531381
-0.13121033 -0.0044670426 0.21631503 -0.24476361 0.03577915 0.26149565 0.17932905 0.034144543
-0.2595225 0.053950097 -0.20309272 0.11143883 -0.12763901 0.04717302 0.24884896 -0.2863996
-0.23382214 -0.055000927 0.07802377 -0.2326029 -0.075494304 -0.10509512 0.1774072 -0.024532408
0.15099859 -0.119800985 -0.23997198 -0.017868446 0.06351751 -0.22382082 0.10909084 -0.26338667
0.21070808 0.10271962 -0.2625585 -0.09501493 0.028130785 0.07801188 0.07855154 -0.20554869
0.16692835 -0.26176268 -0.04314705 -0.151604 -0.22377245 0.017113943 0.24231137 -0.31609127
0.22765467 0.27024698 -0.22528088 0.08819289 -0.1539694 -0.26790467 -0.2808558 -0.049310714
-0.20516135 -0.036367927 0.23396692 0.10530303 -0.28151292 0.16862437 0.035599805 0.09690795
0.08760457 -0.3466859 -0.14927866 0.20362194 0.01875149 -0.0940475 -0.101412736 0.009333654
-0.08773817 0.10689152 -0.1684366 0.29105547 -0.08762457 -0.027206596 -0.43507454 0.33690116
00000000: 78d6 873e 2106 e53d db8e b53d c8f8 903e
00000010: 057f 4c3d b96d 05be 238b b53d fd82 fdbd
00000020: c369 503e 0234 53be 47d3 2ebe 6819 4c3e
00000030: a183 82be 9ff5 273e 340e 21be 8f56 0a3e
00000040: 433b a23e 6bb6 b93d 1c4d 78be d1d0 1d3e
00000050: fc4f 52bd 9bf8 dbbd c752 87be 378a 74be
00000060: 09f1 90bd e829 313e 6823 62be 3668 82be
00000070: cc69 8cbe 74be 203e 29d1 8cbe a75b 44be
00000080: 6dc3 6cbd c94f a2be 482a 2f3d 36d3 ecbd
00000090: 29ab 853e feb0 1abe d16e 85be 573c 07be
000000a0: f43a 6abd 6dd3 05be 024d 983e 3166 95be
000000b0: 9b17 63be a3a1 4a3d 6153 ffbc b0f7 6a3e
000000c0: f9fb 513c cef9 a13d a293 093e 7f7b 57bd
000000d0: 929b c537 4434 79bd b434 89bd 73bb 42be
000000e0: d3c0 8c3e 36ac 023e f469 ecbd 35a3 5b3e
000000f0: 3ff7 3d3e 45c9 de3d 6a4c 733e e970 c63d
00000100: cc82 a6bd 3b15 6c3e 1756 893d b81c 013e
00000110: b1f9 383e 1e39 32be bc29 a5bd 055c cb3e
00000120: 7020 2f39 93ab c8bd 0188 67be aca5 bdbe
00000130: 4a98 343e b719 793e 68cc 20be 5d56 85be
00000140: ec57 4cbc 1fbc 223e cc27 853e 87e1 a4bd
00000150: f5ab ebbc 3f9d 903e 39da 6a3e 5fdf 103e
00000160: 2516 973e d95b 64be 184f ea3d 7b93 2c3e
00000170: 4404 4f3e 91f3 30be 48d8 843d 24fe 47be
00000180: 4aad 843e 9e6c 45bd bacd 4e3e 0496 253e
00000190: d825 4bbe 3b5d 5c3e a1f9 8c3e e753 12be
000001a0: 649e 9b3b d4ec 69be fa63 6cbe 2f35 483e
000001b0: 4d50 89be 4d59 623e b0f7 59be 128d 32be
000001c0: ddce f3bd 9f21 d23d 4e59 853e 6550 a1be
000001d0: 9fb0 58be a683 11be 1f99 abbe d598 9ebe
000001e0: 6151 48be a9e0 1e3d 2531 a63e 2bbc 89bc
000001f0: 817a 873e 36b5 84be 738d 0dbe 9086 0f3d
00000200: 62c5 96be f532 853d d907 bc3d 98a6 c1be
00000210: 6dc1 a3be c129 89bd 29c7 e73d 9d10 97bd
00000220: 0a9e 8abd a371 6e3e 760b 9b3d 94ac 91bd
00000230: 2245 5d3e 9d18 36be 3540 40be 4b9d cabd
00000240: 5872 67bd d7e0 02be 5014 25bd b622 cf3d
00000250: 2ab7 e63c 3e17 113d f9ee 93ba 239c 4d3e
00000260: a434 74be 183c 3e3e 1e02 233e 3471 cd3d
00000270: 3e50 74be d2fb e9bd 5efa 26be fd24 3cbe
00000280: e4cd 8dbd bf3c 61bd edab d63d a997 a53e
00000290: 8c62 3abd bb62 7d3e 286b 233d 3720 82be
000002a0: 4942 773e 00f1 72be 213b 18be 23de dabd
000002b0: 277f cfbd 2b80 e0be 27fa ecbe 8b33 7bbe
000002c0: 005c 06be 4560 92bb b081 5d3e 50a3 7abe
000002d0: 288d 123d c2e2 853e 09a2 373e 26db 0b3d
000002e0: 22e0 84be c7fa 5c3d 8af7 4fbe 0b3a e43d
000002f0: cdb3 02be 7f38 413d 43d2 7e3e f8a2 92be
00000300: 126f 6fbe a748 61bd edca 9f3d 742f 6ebe
00000310: c29c 9abd 1c3c d7bd 3caa 353e 30f8 c8bc
00000320: 609f 1a3e 385a f5bd 37bb 75be d960 92bc
00000330: 7815 823d 4931 65be 056b df3d 9eda 86be
00000340: dcc3 573e aa5e d23d 116e 86be 3097 c2bd
00000350: 8872 e63c b1c4 9f3d a1df a03d 5b7b 52be
00000360: 44ef 2a3e c205 86be f6ba 30bd 143e 1bbe
00000370: 9b24 65be 8a32 8c3c 7920 783e b7d6 a1be
00000380: 4e1e 693e d05d 8a3e 08b0 66be 799e b43d
00000390: 28aa 1dbe cd2a 89be 55cc 8fbe 08fa 49bd
000003a0: d115 52be 89f6 14bd 0695 6f3e 1da9 d73d
000003b0: 7622 90be deab 2c3e 1ad1 113d ad77 c63d
000003c0: 066a b33d d080 b1be 81dc 18be 4582 503e
000003d0: ba9c 993c fa9b c0bd 7bb1 cfbd 2fec 183c
000003e0: 12b0 b3bd f1e9 da3d a57a 2cbe 3905 953e
000003f0: 8374 b3bd 5ee0 debc 17c2 debe 4f7e ac3e

encoder.feature_encoder.atom_embedding_list.5.weight f4 [6, 64]
-0.1568013 0.026994426 -0.054649428 0.19081454 -0.030645229 0.2266269 -0.06471621 -0.2744172
-0.04881119 -0.17837794 -0.21005616 0.13493228 0.2268107 -0.19268388 -0.32376137 0.11012361
-0.24265574 -0.057988375 0.16549577 0.09811897 -0.005962683 0.16233094 -0.12985016 -0.11913259
-0.07629346 -0.26535136 -0.14823201 0.06557919 0.015074034 -0.115542255 0.1947881 -0.13938434
-0.056746047 0.18727006 0.13957015 0.31577355 0.040141813 -0.21485217 -0.09642363 -0.042677645
-0.23011409 -0.14182165 -0.2988476 -0.0709885 -0.22455569 0.2640249 0.03735202 0.17472579
0.12827985 0.2162161 -0.117691964 -0.1565079 -0.026698627 -0.27833566 0.03668281 0.05900938
0.084909014 -0.08420306 0.059543986 0.06351861 0.12802044 0.09883658 -0.08610928 0.19262807
-0.27042317 0.042144872 0.12597537 0.121802256 0.013394408 -0.06251328 0.19351688 -0.17913468
-0.05211059 -0.025329774 0.16671744 0.30236974 -0.17472082 0.17210495 0.06998449 -0.098893076
0.1008217 0.09457861 -0.060837105 -0.023993092 0.2870892 -0.25524348 -0.056359477 -0.2730633
0.014648558 0.2883563 0.1426262 -0.27395475 -0.2845607 0.015196467 -0.10711735 0.3186054
-0.029442903 0.14810987 -0.13318478 -0.059772547 -0.0066445754 -0.12939556 0.104501694 -0.10590796
-0.18326765 -0.30593738 0.07173684 0.24960263 0.051938742 -0.2690856 -0.038868748 0.20307194
-0.16749704 -0.0039581084 -0.24737176 0.095378466 -0.27952495 -0.33310014 -0.17969808 -0.25263008
0.14356504 0.19045371 0.013878745 0.025937865 0.036619868 0.09468961 0.25373596 -0.0014861742
0.38594767 0.16767627 -0.115496 0.1789114 -0.012711909 0.009242658 0.050962362 -0.2606174
0.19716705 0.24262321 0.25825652 0.027739381 -0.07991575 -0.092856765 -0.0657617 -0.3021154
0.09951439 -0.0022092736 -0.108200125 -0.17069158 -0.08928088 0.08095174 0.24621446 0.11939353
0.25811422 0.24719371 -0.16037324 -0.006093105 -0.12951365 -0.1679965 0.1133171 0.08570548
0.22523023 0.26990858 0.09233549 -0.14344165 -0.102463506 0.018828614 0.08212121 -0.1506305
-0.1224158 0.11823471 0.098637186 0.3008727 0.23562463 -0.15424392 0.09620591 -0.21803279
-0.040246557 -0.041962113 0.063517794 0.2833061 -0.22904868 0.2638068 0.21984181 -0.14167471
-0.10614544 -0.033956904 0.20319723 -0.019575173 0.10293223 -0.089959525 0.21262625 -0.10683686
0.2798941 -0.21795012 -0.08741494 0.18922406 0.097369306 -0.1482439 -0.2397365 -0.22103442
-0.24463354 -0.16179468 -0.17739384 -0.08449645 0.25367284 -0.07770914 -0.18095908 0.14313428
-0.17231496 -0.1465266 -0.04837943 -0.036036443 -0.18054497 -0.23283742 -0.2857825 -0.12417533
0.14833653 0.023486914 0.23338108 0.050777853 -0.21963926 0.027580198 -0.07501395 0.1657747
0.07965675 0.28982255 -0.26249415 -0.13934375 -0.24850067 0.026050141 -0.18662345 -0.121568896
0.27947202 -0.09808977 0.14404543 0.18823156 0.21233052 0.2394909 0.18059896 0.029012566
0.24702388 0.28332603 -0.20195714 0.061138432 0.20143977 -0.19793135 0.114900835 0.1827972
0.009135138 -0.084637664 -0.024212714 0.2546751 -0.23181005 0.11615448 -0.1584765 0.19757427
00000000: 8590 20be 6a23 dd3c 14d8 5fbd e364 433e
00000010: b40b fbbc e210 683e ef89 84bd 6980 8cbe
00000020: 3eee 47bd b5a8 36be f618 57be b02b 0a3e
00000030: 1041 683e ec4e 45be 0dc4 a5be 7d88 e13d
00000040: bf7a 78be 3885 6dbd b977 293e 99f2 c83d
00000050: 9c62 c3bb 153a 263e 71f7 04be cafb f3bd
00000060: bf3f 9cbd 22dc 87be 22ca 17be 624e 863d
00000070: 15f9 763c 6ba1 ecbd 8876 473e c5ba 0ebe
00000080: 8b6e 68bd b9c3 3f3e 7aeb 0e3e 12ad a13e
00000090: be6b 243d 3502 5cbe c179 c5bd c1ce 2ebd
000000a0: 07a3 6bbe b239 11be 8d02 99be 6b62 91bd
000000b0: edf1 65be 462e 873e 6ffe 183d 51eb 323e
000000c0: cb5b 033e c167 5d3e 7c08 f1bd 9b43 20be
000000d0: 14b7 dabc 0382 8ebe b740 163d d2b3 713d
000000e0: c7e4 ad3d a772 acbd 65e4 733d 0c16 823d
000000f0: ca17 033e d56a ca3d 105a b0bd 4b40 453e
00000100: e874 8abe 1aa0 2c3d b0ff 003e 7673 f93d
00000110: 3874 5b3c f606 80bd 4a29 463e 156f 37be
00000120: ea71 55bd 6380 cfbc fab7 2a3e 35d0 9a3e
00000130: 04ea 32be 483c 303e 0754 8f3d 7488 cabd
00000140: 9c7b ce3d 6eb2 c13d 5430 79bd 298d c4bc
00000150: 5bfd 923e 46af 82be 32d9 66bd f4ce 8bbe
00000160: 8100 703c 70a3 933e 9a0c 123e cc43 8cbe
00000170: f1b1 91be 9afa 783c 5760 dbbd 3f20 a33e
00000180: 3e32 f1bc 1daa 173e 9761 08be 0fd4 74bd
00000190: bdba d9bb 4580 04be fc04 d63d 46e6 d8bd
000001a0: 84aa 3bbe d3a3 9cbe c4ea 923d d597 7f3e
000001b0: b8bd 543d 96c5 89be d634 1fbd 17f2 4f3e
000001c0: 5884 2bbe 05b3 81bb 064f 7dbe c955 c33d
000001d0: e51d 8fbe 1a8c aabe c602 38be bb58 81be
000001e0: b702 133e 4c06 433e ad63 633c a57b d43c
000001f0: b7fe 153d a0ec c13d aee9 813e bbcb c2ba
00000200: ef9a c53e 54b3 2b3e 2b89 ecbd 8d34 373e
00000210: 9c45 50bc 846e 173c e9bd 503d a56f 85be
00000220: 29e6 493e 3872 783e 333a 843e b33d e33c
00000230: deaa a3bd b02b bebd 12ae 86bd dfae 9abe
00000240: 33ce cb3d 76c9 10bb 0798 ddbd c6c9 2ebe
00000250: e5d8 b6bd 07ca a53d a51f 7c3e 9884 f43d
00000260: 8c27 843e 5920 7d3e e238 24be aba8 c7bb
00000270: 3a9f 04be 4607 2cbe cc12 e83d 5b86 af3d
00000280: c1a2 663e 7531 8a3e 641a bd3d 5ee2 12be
00000290: 63d8 d1bd 773e 9a3c 2a2f a83d e23e 1abe
000002a0: 23b5 fabd 0a25 f23d 4b02 ca3d fd0b 9a3e
000002b0: 9547 713e 1ef2 1dbe 9b07 c53d fd43 5fbe
000002c0: 93d9 24bd 77e0 2bbd 9e15 823d 7f0d 913e
000002d0: bd8b 6abe af11 873e 361e 613e 2d13 11be
000002e0: c862 d9bd 6516 0bbd ef12 503e 1d5c a0bc
000002f0: 22ce d23d b33c b8bd b2ba 593e 49cd dabd
00000300: 484e 8f3e 512e 5fbe 9b06 b3bd f4c3 413e
00000310: 8f69 c73d 40cd 17be 7c7d 75be d956 62be
00000320: 3781 7abe 81ad 25be bba6 35be 7a0c adbd
00000330: 68e1 813e f825 9fbd 564d 39be cb91 123e
00000340: 5573 30be 120b 16be 8229 46bd f39a 13bd
00000350: c8e0 38be ef6c 6ebe 1552 92be a34f febd
00000360: 88e5 173e a167 c03c 73fb 6e3e 70fc 4f3d
00000370: 1de9 60be deef e13c eaa0 99bd d8c0 293e
00000380: 1423 a33d 9f63 943e a265 86be 21b0 0ebe
00000390: f676 7ebe 1b67 d53c 381a 3fbe 1df9 f8bd
000003a0: f516 8f3e 4ae3 c8bd a580 133e c6bf 403e
000003b0: 2c6d 593e 1a3d 753e efee 383e c3ab ed3c
000003c0: d4f3 7c3e 1c10 913e dacd 4ebe 4b6c 7a3d
000003d0: 3a46 4e3e 84ae 4abe 2151 eb3d 302f 3b3e
000003e0: 8cab 153c 8356 adbd be59 c6bc c664 823e
000003f0: 9d5f 6dbe 66e2 ed3d aa47 22be e950 4a3e

encoder.feature_encoder.atom_embedding_list.6.weight f4 [6, 64]
-0.064111635 0.20997865 -0.20098339 0.14473316 -0.040203664 0.17606209 0.043046955 0.24995565
-0.039506298 0.055967588 -0.076668225 0.09369771 0.15218204 0.24202038 0.0083133085 -0.26872265
0.21553916 -0.030273926 -0.07866977 0.0375295 -0.25674525 -0.19199334 0.24431273 -0.3489273
-0.04699788 0.2536744 -0.027534258 0.23602754 -0.1372779 -0.014092347 -0.056782994 0.19760667
0.09489646 -0.075116426 0.103608064 -0.1998599 -0.16049187 -0.04928245 0.22254327 -0.08863067
-0.05306007 -0.28691325 0.118008375 0.2248814 -0.26486498 -0.35391188 0.0712908 0.23364517
0.09046185 0.16609259 -0.34031287 0.18200898 0.17923762 -0.28014982 0.09533374 -0.041107822
0.28212184 -0.05354228 -0.086225934 -0.3225513 0.080215275 0.15785304 -0.17066985 -0.29202467
0.22493611 -0.13632992 -0.21307854 -0.15142635 -0.10854181 -0.16583116 -0.15149231 0.084298834
0.028402494 0.28651547 -0.2888404 -0.07450922 -0.090222254 -0.12688112 -0.011373139 -0.10709897
-0.1090663 -0.23405696 -0.116928056 -0.017116232 -0.17583606 -0.01678896 -0.20832947 0.058380622
0.023517968 -0.2159619 -0.15677306 -0.13051614 -0.17598887 -0.09119694 0.11564655 -0.09162745
0.084854394 -0.03466302 0.053883865 -0.20888144 0.0041977465 0.32843342 0.24796423 0.20195678
-0.1841966 -0.050106473 0.2641624 -0.0553407 0.15225548 0.050109796 0.1801794 -0.13109882
-0.029279297 -0.32614604 -0.12032079 0.134376 0.15787429 0.2608422 -0.21000224 0.1481034
0.048126347 0.28595257 0.16831495 0.24125184 -0.080152564 0.31743056 -0.15404367 -0.074528165
0.17146087 -0.047184967 0.18091357 0.22718415 -0.03722326 0.056934077 0.03280313 0.16208294
0.13718535 -0.07946513 -0.2500858 0.020340351 0.15605532 0.062533475 0.26143613 0.07914622
-0.19923389 -0.11565103 0.032638438 -0.34891874 -0.011956377 -0.07321451 -0.13862602 0.12141452
0.23501061 0.0881306 0.0026987267 -0.0598755 -0.07011052 -0.24839154 0.02482291 0.1699746
-0.031772073 0.022634659 0.1663844 0.2846405 0.2382151 0.21142393 0.2495576 -0.06503654
-0.22776362 0.014103892 0.12492956 0.010972931 0.0838151 -0.26535267 0.035472848 0.1678524
-0.22589831 -0.009394847 0.1512279 -0.30630854 -0.23186654 -0.11737852 0.2327675 -0.13676642
-0.0960901 0.218549 0.17132191 -0.19037795 0.19142194 -0.12330603 0.26407516 -0.09418096
0.08301962 -0.06874272 0.19538565 0.18990752 -0.09373745 -0.03426599 -0.08889302 0.15341787
-0.095687635 0.17315722 -0.25832057 -0.15657376 -0.049387638 0.19758645 0.18876982 0.014057922
0.104963675 -0.30073893 0.088515386 0.21021944 -0.104176745 -0.18582654 0.054529473 0.1780956
-0.14444567 0.09650466 -0.07725734 0.1610216 0.04752019 0.1379046 0.1581282 -0.26064366
0.33208138 -0.19612628 -0.14782232 0.0692672 -0.24947464 -0.057651732 -0.30699092 -0.075391054
0.03018124 -0.023944579 0.061483003 -0.08121476 0.05370042 0.037867587 -0.14862795 -0.3465905
0.07592866 -0.4016031 0.1506024 0.122041166 0.2911498 -0.26242045 0.13900554 -0.14294209
-0.23556785 -0.09913062 -0.21319231 -0.15455738 0.0680471 0.18224806 0.06231465 0.22673646
00000000: f64c 83bd a504 573e 97ce 4dbe ee34 143e
00000010: 99ac 24bd 9f49 343e 0152 303d 60f4 7f3e
00000020: 5bd1 21bd 453e 653d 3b04 9dbd 96e4 bf3d
00000030: 9cd5 1b3e 31d4 773e 8b34 083c 0496 89be
00000040: 4cb6 5c3e 0601 f8bc 9e1d a1bd 88b8 193d
00000050: 1d74 83be e799 44be 1e2d 7a3e 99a6 b2be
00000060: d980 40bd 9ce1 813e 868f e1bc 34b1 713e
00000070: 9492 0cbe 96e3 66bc 4995 68bd 6759 4a3e
00000080: 1359 c23d a4d6 99bd 7730 d43d 13a8 4cbe
00000090: fb57 24be 65dc 49bd 62e2 633e ff83 b5bd
000000a0: 8455 59bd 4be6 92be 60ae f13d 4f47 663e
000000b0: 629c 87be f033 b5be e900 923d ae40 6f3e
000000c0: 1044 b93d 2d14 2a3e 7d3d aebe 9060 3a3e
000000d0: 118a 373e cc6f 8fbe 563e c33d ad60 28bd
000000e0: 4672 903e 264f 5bbd 3997 b0bd 7225 a5be
000000f0: e847 a43d 3aa4 213e 14c4 2ebe 4284 95be
00000100: a755 663e 129a 0bbe 4331 5abe 820f 1bbe
00000110: 2b4b debd a5cf 29be cd20 1bbe dea4 ac3d
00000120: 59ac e83c 28b2 923e e4e2 93be 4a98 98bd
00000130: 72c6 b8bd 20ed 01be 6756 3abc b456 dbbd
00000140: 275e dfbd a1ac 6fbe fa77 efbd 5737 8cbc
00000150: 5e0e 34be 0089 89bc 5254 55be 8520 6f3d
00000160: c1a8 c03c 1e25 5dbe 1e89 20be 06a6 05be
00000170: 6d36 34be 76c5 babd 19d8 ec3d 2ca7 bbbd
00000180: 24c8 ad3d d0fa 0dbd 54b5 5c3d 04e5 55be
00000190: 408d 893b 6d28 a83e 56ea 7d3e c2cd 4e3e
000001a0: 099e 3cbe 723c 4dbd 4b40 873e eeac 62bd
000001b0: dce8 1b3e ee3f 4d3d f380 383e c53e 06be
000001c0: 23db efbc 9dfc a6be bf6a f6bd dd99 093e
000001d0: cca9 213e 1c8d 853e d40a 57be 6ba8 173e
000001e0: 2220 453d 6068 923e c15a 2c3e b90a 773e
000001f0: 0727 a4bd 4286 a23e a0bd 1dbe 39a2 98bd
00000200: 7093 2f3e 0645 41bd 6841 393e f6a2 683e
00000210: 6b77 18bd b533 693d 935c 063d 12f9 253e
00000220: 517a 0c3e 9dbe a2bd 3f0b 80be cfa0 a63c
00000230: f7cc 1f3e 8d11 803d f5da 853e 6a17 a23d
00000240: f803 4cbe 72da ecbd e2af 053d 7aa5 b2be
00000250: aee4 43bc 7df1 95bd fbf3 0dbe 2da8 f83d
00000260: 9fa6 703e d17d b43d 1fdd 303b 0340 75bd
00000270: 1b96 8fbd 5a5a 7ebe 6a59 cb3c d20d 2e3e
00000280: 6f23 02bd 526c b93c ac60 2a3e 66bc 913e
00000290: a9ee 733e 847f 583e 078c 7f3e e131 85bd
000002a0: de3a 69be 0314 673c 12db ff3d cfc7 333c
000002b0: 40a7 ab3d 4edc 87be fa4b 113d 80e1 2b3e
000002c0: e351 67be d8ec 19bc 7ddb 1a3e 79d4 9cbe
000002d0: 6c6e 6dbe 2664 f0bd 9b5a 6e3e 7f0c 0cbe
000002e0: e3ca c4bd 4fcb 5f3e 036f 2f3e 70f2 42be
000002f0: 1d04 443e df87 fcbd dc34 873e f2e1 c0bd
00000300: 3106 aa3d fcc8 8cbd 2d13 483e 1e77 423e
00000310: 6cf9 bfbd 7f5a 0cbd 8b0d b6bd 9319 1d3e
00000320: e1f7 c3bd 2050 313e 9842 84be df54 20be
00000330: b14a 4abd 1a54 4a3e e04c 413e 3353 663c
00000340: 32f7 d63d 74fa 99be 8e47 b53d c443 573e
00000350: 9e5a d5bd 5049 3ebe 4c5a 5f3d b15e 363e
00000360: 91e9 13be 3ca4 c53d 1939 9ebd d9e2 243e
00000370: 88a4 423d dd36 0d3e 5cec 213e 1673 85be
00000380: 9206 aa3e 54d5 48be bc5e 17be f6db 8d3d
00000390: 4876 7fbe 3924 6cbd ea2d 9dbe a066 9abd
000003a0: a63e f73c 6c27 c4bc 9ad5 7b3d ed53 a6bd
000003b0: f9f4 5b3d 0b1b 1b3d ed31 18be 4f74 b1be
000003c0: 7c80 9b3d ec9e cdbe 8437 1a3e b8f0 f93d
000003d0: 9611 953e f95b 86be 7857 0e3e 695f 12be
000003e0: b338 71be ff04 cbbd 164f 5abe 4a44 1ebe
000003f0: 475c 8b3d 3c9f 3a3e a53d 7f3d 9a2d 683e

encoder.feature_encoder.atom_embedding_list.7.weight f4 [2, 64]
0.30312377 0.27253902 -0.19329885 -0.11589499 0.17032991 -0.3435485 0.23221958 0.19073924
0.3042617 -0.030498499 0.26433992 0.021415 0.18738846 0.11891492 0.028671471 -0.33639294
-0.15912198 0.22130746 0.16644278 -0.054536775 0.25822604 -0.23261741 0.1880694 0.24472408
0.06748942 0.08105827 0.17847653 -0.09495322 0.06312471 0.14603409 -0.08107189 -0.10215728
0.023773454 -0.32985806 -0.3097355 0.04226088 -0.13770126 0.0729858 0.07922503 -0.3505902
-0.20491739 0.24450135 -0.056512643 -0.018482212 -0.07734538 0.10846811 0.12215919 0.006372509
-0.14444375 0.102047615 0.25690323 0.2912178 -0.2222058 0.2180379 -0.05140108 -0.13292265
-0.22904049 0.050429232 -0.16554062 -0.23313057 0.051565137 0.19117364 0.14483067 0.224256
-0.37763458 -0.22463565 -0.00045026027 -0.24733761 -0.11226051 -0.09350934 0.15297566 0.20475335
-0.184956 -0.16731735 -0.008380033 0.07152201 0.24188052 0.28718808 -0.11131399 0.036638286
0.14976306 0.22337805 0.20834535 0.21874124 0.08715824 0.009699599 -0.19880007 -0.07160832
-0.020763272 0.2936584 0.09940771 -0.13660578 -0.3189424 0.29151693 -0.12217142 -0.050469056
-0.027619792 0.13364708 0.27864453 0.11788293 0.13324112 0.24441306 -0.23765394 -0.048379716
-0.18368636 0.1182259 0.22900057 0.05100318 0.20529586 -0.3041804 -0.03297564 0.060588863
-0.06594623 0.19805394 -0.24384004 0.18754187 -0.055394135 -0.08324853 0.068678066 0.29659608
-0.06814808 0.032867603 0.16297358 0.25553185 -0.12970206 0.039335504 0.052492388 -0.25430045
00000000: 0a33 9b3e 3c8a 8b3e 22f0 45be 5a5a edbd
00000010: f76a 2e3e 97e5 afbe f8ca 6d3e 2651 433e
00000020: 31c8 9b3e fdd7 f9bc 9057 873e 836e af3c
00000030: c3e2 3f3e aa89 f33d 6fe0 ea3c b23b acbe
00000040: dff0 22be 6c9e 623e fa6f 2a3e f461 5fbd
00000050: 3436 843e 4233 6ebe 4495 403e f398 7a3e
00000060: e537 8a3d e101 a63d 8dc2 363e d576 c2bd
00000070: 8747 813d f689 153e 0509 a6bd d637 d1bd
00000080: 8cc0 c23c 28e3 a8be a795 9ebe bf19 2d3d
00000090: 8f01 0dbe 9479 953d bc40 a23d 8f80 b3be
000000a0: ddd5 51be 905e 7a3e cd79 67bd 0268 97bc
000000b0: 4167 9ebd 8724 de3d 992e fa3d 7bd0 d03b
000000c0: 10e9 13be 57fe d03d d288 833e 801a 953e
000000d0: eb89 63be 5445 5f3e f089 52bd e01c 08be
000000e0: 9789 6abe e28e 4e3d 7b83 29be c8b9 6ebe
000000f0: f735 533d 06c3 433e 7e4e 143e 5da3 653e
00000100: 5259 c1be e306 66be e910 ecb9 1246 7dbe
00000110: d7e8 e5bd d381 bfbd a7a5 1c3e ddaa 513e
00000120: 1b65 3dbe 3d55 2bbe 684c 09bc 227a 923d
00000130: 87af 773e 510a 933e 97f8 e3bd 0712 163d
00000140: 7d5b 193e 37bd 643e 7c58 553e b4fd 5f3e
00000150: 0580 b23d 11eb 1e3c 3f92 4bbe 62a7 92bd
00000160: bd17 aabc 655a 963e 4596 cb3d 63e2 0bbe
00000170: 6b4c a3be b541 953e 0235 fabd a4b8 4ebd
00000180: e742 e2bc c8da 083e 7faa 8e3e 9b6c f13d
00000190: 5c70 083e 6b47 7a3e 8e5b 73be cf29 46bd
000001a0: 4718 3cbe 6c20 f23d 207f 6a3e b6e8 503d
000001b0: 1439 523e 89bd 9bbe 7711 07bd 072c 783d
000001c0: d10e 87bd a7ce 4a3e 34b1 79be fa0a 403e
000001d0: f6e4 62bd 357e aabd 16a7 8c3d 71db 973e
000001e0: 3891 8bbd 2ea0 063d 8ce2 263e 12d5 823e
000001f0: 9ed0 04be 441e 213d 4202 573d ab33 82be

encoder.feature_encoder.atom_embedding_list.8.weight f4 [2, 64]
-0.20572855 0.14339334 0.15429138 4.012458e-05 0.18533894 0.040162154 0.3112982 -0.06515044
-0.0048070536 -0.116013736 -0.30533674 -0.17279795 0.012767006 -0.017534891 0.1842906 0.122570716
-0.30677634 0.24655604 0.02625109 -0.29555416 0.036970902 0.034654494 -0.06898871 0.013394855
0.32232818 0.05933889 -0.08002026 -0.047612272 0.01815051 0.2714573 -0.08009916 0.30472684
-0.13925302 0.13114348 0.0787411 -0.074238 0.2471889 0.19940212 -0.022076447 -0.30310994
-0.15819997 -0.021291373 -0.22307424 -0.22847776 -0.11501311 -0.031954393 0.03685411 -0.23624648
-0.21504201 0.038405325 0.01974927 0.19014701 -0.2081034 -0.17871352 -0.18875898 -0.17982416
0.17046787 0.016555406 0.33475244 0.13900065 -0.1187272 -0.04079745 0.10283696 -0.21096866
0.3549849 -0.057822686 0.026825504 0.23503107 -0.26444924 -0.1427601 -0.20949222 -0.17445116
0.15679869 0.22464176 0.20339735 0.25804463 -0.17153409 0.07590446 -0.009943529 -0.08835947
0.16926062 0.3380662 -0.30998304 -0.083212435 0.2023158 -0.16179304 -0.0610126 0.15861349
0.08075421 -0.11938754 -0.08581833 -0.00034189355 0.28327432 -0.16695812 -0.038880564 0.0032277945
0.2675504 0.19329786 -0.11474935 -0.14639916 0.25222147 -0.026111972 -0.06834266 0.23812298
0.040627148 -0.038256258 0.25937295 -0.11763317 0.2941957 0.09875263 -0.18296205 0.24940535
0.08257411 -0.24689886 0.21068557 -0.2796723 0.13429911 0.14927521 0.24638978 -0.25944227
0.23806469 0.21712822 0.15825647 0.040150132 -0.12306085 0.22362651 0.09999566 -0.008998171
00000000: 81aa 52be b4d5 123e 8ffe 1d3e 714b 2838
00000010: 7ec9 3d3e 1281 243d 7a62 9f3e 986d 85bd
00000020: 7d84 9dbb 9c98 edbd 1955 9cbe f2f1 30be
00000030: b42c 513c 55a5 8fbc adb6 3c3e 5b06 fb3d
00000040: ca11 9dbe 3079 7c3e 870c d73c e052 97be
00000050: cd6e 173d dff1 0d3d f449 8dbd 1876 5b3c
00000060: 3308 a53e 560d 733d a9e1 a3bd 1605 43bd
00000070: 61b0 943c 74fc 8a3e 070b a4bd 2805 9c3e
00000080: 5898 0ebe 7a4a 063e 0443 a13d 180a 98bd
00000090: 161f 7d3e 1230 4c3e aad9 b4bc 3a31 9bbe
000000a0: 2cff 21be 3f6b aebc 936d 64be 13f6 69be
000000b0: fe8b ebbd 9ce2 02bd 56f4 163d 99ea 71be
000000c0: f933 5cbe e74e 1d3d 39c9 a13c e6b5 423e
000000d0: 0f19 55be ad00 37be 094a 41be d323 38be
000000e0: 218f 2e3e 349f 873c ac64 ab3e 3056 0e3e
000000f0: 3f27 f3bd 3a1b 27bd 2f9c d23d 2b08 58be
00000100: 95c0 b53e 7bd7 6cbd 29c1 db3c fcab 703e
00000110: e465 87be b42f 12be 2185 56be 53a3 32be
00000120: d68f 203e 7d08 663e 6547 503e 6d1e 843e
00000130: a2a6 2fbe cc73 9b3d 2fea 22bc cff5 b4bd
00000140: a852 2d3e 0317 ad3e 19b6 9ebe 486b aabd
00000150: e02b 4f3e 13ad 25be 59e8 79bd 936b 223e
00000160: 7762 a53d 7481 f4bd 85c1 afbd 2d40 b3b9
00000170: 5509 913e 12f7 2abe 3a41 1fbd 6889 533b
00000180: 5efc 883e e0ef 453e b501 ebbd a9e9 15be
00000190: 2c23 813e c6e8 d5bc 3df7 8bbd 83d6 733e
000001a0: a768 263d 98b2 1cbd 88cc 843e a9e9 f0bd
000001b0: d2a0 963e d23e ca3d 675a 3bbe 1e64 7f3e
000001c0: 9d1c a93d 0ed3 7cbe f5bd 573e 3531 8fbe
000001d0: b585 093e 9adb 183e 9a4d 7c3e 9ed5 84be
000001e0: 3bc7 733e dc56 5e3e fc0d 223e 7774 243d
000001f0: 5407 fcbd 59fe 643e 86ca cc3d 116d 13bc
