checkpoints/tuning/trial_7/best_model.pt (torch, 520320 bytes, 104 tensors)

encoder.feature_encoder.atom_embedding_list.0.weight f4 [119, 64]
00000000: 3b6d 103e d677 ccbc 84dc 75bc 82da f93d
00000010: 84ea 7abd 9644 2bbe a9ca 70bd cee1 0a3e
00000020: d6c8 603e 4c62 98bd dfff efbd 0d68 ddbd
00000030: ad99 dd3d 3307 01be fd95 0a3e 0f1d 83bd
00000040: cda0 293e fd83 263e bb4d fc3d af47 0e3e
00000050: ae99 32be ac85 cb3c c83b ddbd bfe8 63bd
00000060: b1ae e53d bb32 e5bd 26d9 e93d 2713 033d
00000070: b566 7dbd 231e c0bd 353d 34be 0866 7e3d
00000080: f33f 1bbd eb13 253e 63a7 853d be40 9c3d
00000090: 2ca4 4b3c c66d 7d3d a812 dcbc 37ac 943d
000000a0: c6a0 a8bd 2ea8 e63d a15e 4b3d 32e4 c33d
000000b0: e557 483c 3209 db3d d3c8 333e 968b f83c
000000c0: fa98 a33d ce3c 4fbe 38c3 97bd 9776 3dbe
000000d0: 1b1d 543c 5146 0b3d c34d 563d f4d7 9dbd
000000e0: c162 053e a407 9cbd 9390 b4bd 5a1c 233e
000000f0: f808 00be eeda c93d ce85 1fbe a159 cd3c
00000100: fdd3 1abe 190d 2ebe 2e98 4ebd 7949 143e
00000110: a65b bb3d e553 ee3d a7c7 2cbd 28c8 233e
00000120: 6215 a9bd 9fa9 4fbc 6342 2abe 9b76 153c
00000130: 7608 2a3d c8f4 31be 64de 1b3e 1788 0b3d
00000140: 6fd2 303e 2da2 9fbd 4356 0a3c fb05 6ebd
00000150: e4c3 1c3e e24b cfbd 0f6d d53d c632 02be
00000160: 3a54 0b3e 11a2 2cbe 3659 b8bd 8d5c a7bd
00000170: 46de fbbc 3928 13bb 03ac 6f3d b145 263e
00000180: b573 da3d 98ce b2bd 9438 2e3e 9f6d dabc
00000190: 33c8 cebd 139c 8a3d b43d 01bd 79f2 303e
000001a0: 6577 a53c 8e6e f53d 40f6 3e3d 6c57 f2bd
000001b0: 2817 1c3d 3c98 d6bd f798 46bd e1e9 6ebd
000001c0: d9e8 12be 4782 8f3d b332 033e dab6 36be
000001d0: 88d9 c93d 4664 12be 6b74 35be d0c4 7f3d
000001e0: 8988 83bb 5b55 e3bd c502 263e aa11 723c
000001f0: b097 e8bd 521c aa3d 5ef8 513c cd6a edbc
00000200: b9fd 03be 369d fabc 8d88 523e 41ed b13b
00000210: f088 043e 67e9 17be 7cbc edbd c951 69bd
00000220: bcf9 f5bd 0488 843d ff75 25bd 1314 023e
00000230: 215c 57bd 7487 1d3b d2b0 c5bd 4a5c 46bd
00000240: 910c 343d 1b8a 343e dbab f5bd 6b4f fcbd
00000250: 3787 1ebe 1f2f 05be 9c45 c3bc b127 04be
00000260: 266f 063e 3cd2 143e afe4 15be 9b8c 413e
00000270: ab8a ca3d d554 49be ff56 763d 30ec 36be
00000280: d0c9 d8bd 047f 1bbe 56e2 9abd b788 20bd
00000290: 0308 883a 63a6 553d 556f 04bd 4f78 31be
000002a0: 0308 e1bc 8ac2 353e 835e 893d b580 253e
000002b0: e0b2 afbd 427c d93d d06b f9bd c74a 203d
000002c0: 8a64 7cbd 337f 95bc 53ae 2cbe 0600 22be
000002d0: 0687 88bd 0628 8cbc 37ed c4bd bafd 9a3d
000002e0: bb58 62bd 8b2c 883a 3513 27be 14fa 19bd
000002f0: 4528 9cbc 1a19 0cbe 1aa7 f7bc 3c26 71be
00000300: 5985 0dbe a13c 0a3e 95c3 173e c0c8 00be
00000310: d9d6 203d 1e01 bfbd e47f 2d3e 3a63 e23d
00000320: de70 933d 822a 17be 6665 b6bd 0edd 1bbd
00000330: 9cc4 25be 8ab7 d8bd 4d43 433d 00f0 16be
00000340: 3654 453d 4196 87bb 954c 74bc 42a3 58bd
00000350: 9b4a c7bd 5059 2dbe b157 fcbd c006 0c3e
00000360: 2ae4 5bbc 438b 343e 6165 1c3c f5d5 aebc
00000370: c661 de3d fc8e 2ebe 26d8 e5bd 7cb8 d43d
00000380: ff6b 41bd 5ab0 123e 8b71 87bc 8f39 043e
00000390: 6213 103c f509 9a3c 8f9a 1cbe 5526 80bd
000003a0: 01be 143c 446e a93d 9de6 0f3d c405 21bd
000003b0: 6c3a a03a 4962 1f3e 3b5d f73d b710 7d3d
000003c0: b29e 05be 915f 79bd 01c0 ec3d fbe6 263e
000003d0: 6a4e afbd 3d90 9d3d 8fa9 2dbd cb3c eb3d
000003e0: ece0 debc 3062 13be 6287 37be 424d debb
000003f0: 59a4 5a3d 5099 dabd 1ee0 113e 52e4 af3d
0.14104168 -0.024959486 -0.015006188 0.1219988 -0.061258808 -0.16725382 -0.05878702 0.135627
0.21951613 -0.07440624 -0.117187254 -0.10810862 0.10820327 -0.12600403 0.13533778 -0.06402027
0.16565247 0.16261287 0.123195134 0.13894533 -0.17441437 0.024844013 -0.10802418 -0.055641886
0.1121496 -0.11191317 0.11418371 0.032000687 -0.061865527 -0.09380748 -0.17601474 0.062109023
-0.037902784 0.1612088 0.06526067 0.07629536 0.012429278 0.061872266 -0.026864365 0.0725941
-0.0823379 0.112625465 0.049650792 0.09565009 0.012227987 0.10695113 0.17557077 0.030339997
0.07988162 -0.20238039 -0.07410282 -0.1850227 0.012946392 0.034002606 0.052320253 -0.077072054
0.13025953 -0.07618645 -0.08816638 0.15928784 -0.12503421 0.09856211 -0.15578386 0.025067152
-0.1511993 -0.16997184 -0.0504381 0.14481153 0.0914834 0.11637095 -0.04218259 0.15994322
-0.082560316 -0.012674718 -0.16626887 0.009122516 0.041511975 -0.17378533 0.15221554 0.034065332
0.17267774 -0.077946045 0.008443418 -0.058111172 0.15309101 -0.101218954 0.10421192 -0.12714681
0.13606349 -0.16858698 -0.09001391 -0.081719495 -0.030745637 -0.0022454394 0.058513653 0.16237523
0.106666006 -0.08730811 0.1701377 -0.0266636 -0.10096779 0.0676805 -0.031552985 0.17279996
0.020198533 0.11983977 0.04662156 -0.11833081 0.03810802 -0.10478255 -0.048485722 -0.058328513
-0.14346637 0.0700727 0.12812309 -0.1784319 0.09855944 -0.14296064 -0.17720191 0.062443554
-0.004014079 -0.11100265 0.16211994 0.014774719 -0.11357057 0.08306183 0.012815563 -0.02898159
-0.12889756 -0.030592542 0.20559902 0.005429894 0.12942863 -0.1483513 -0.11608216 -0.056962762
-0.12010524 0.064712554 -0.040395733 0.1270297 -0.052578095 0.0024037035 -0.096528664 -0.048427857
0.043957297 0.17630808 -0.119956695 -0.12319835 -0.15481268 -0.13006257 -0.023836903 -0.12905766
0.13128337 0.14533323 -0.14638017 0.18901293 0.0988973 -0.19661267 0.06014156 -0.17863536
-0.10585368 -0.15185171 -0.075627014 -0.03919288 0.0010378364 0.052160632 -0.032332737 -0.1733105
-0.02746964 0.17749992 0.0670748 0.16162379 -0.085790396 0.106194034 -0.12178767 0.039133813
-0.06161932 -0.01824913 -0.16863374 -0.15820321 -0.06666379 -0.017108928 -0.09615558 0.07567926
-0.0552604 0.0010389251 -0.1631592 -0.03759201 -0.01906217 -0.1368145 -0.030231047 -0.23549742
-0.138204 0.1349969 0.14820702 -0.1257658 0.039267395 -0.09326385 0.16943318 0.11054082
0.07199262 -0.14762309 -0.08906059 -0.03805261 -0.16188282 -0.10581882 0.047671605 -0.1473999
0.048176013 -0.0041377847 -0.014910837 -0.05289007 -0.09731027 -0.16928601 -0.12321413 0.1367445
-0.013421098 0.17631249 0.009545655 -0.021342257 0.108584926 -0.17046732 -0.11222868 0.1038675
-0.047222134 0.14325085 -0.016533634 0.12912582 0.008793684 0.018803576 -0.15293334 -0.06257311
0.009078504 0.082729846 0.03513204 -0.03931214 0.0012224442 0.15564837 0.12078329 0.06178352
-0.13048819 -0.060882155 0.11560059 0.1629905 -0.08559878 0.07693527 -0.04239803 0.11486205
-0.02720686 -0.14392924 -0.17922738 -0.006784112 0.05337939 -0.10673773 0.1424565 0.085884705

encoder.feature_encoder.atom_embedding_list.1.weight f4 [5, 64]
00000000: 13a8 babd 7d1c b9bd 544d 623d a168 433e
00000010: f6dc 033e 2cac 8f3e 7cac bb3d a195 bb3d
00000020: 9839 d63c 6961 5c3e 7d68 833e 1187 fb3d
00000030: d472 8bbe 47b9 69bd 797c 83bd 7c8c c0bc
00000040: 5a34 653e 9cfd 46be 2fc8 d1bd d603 f8bd
00000050: 1adb 6f38 e98b 37be bf9b ed3c 89b9 42be
00000060: b27c 47be c044 443e f3e7 6f3e 1c24 bfbd
00000070: 9d56 36bd 8a72 48bc 1ff1 74be 805b 2cbd
00000080: 0d61 0f3e 1fb3 9a3c c2ee 763e 001d 4bbe
00000090: a303 6dbe 0bfc 70be b2ac 2bbe 75e3 e63d
000000a0: fd19 543e c52a 62be 7665 51be 7fd1 d9bd
000000b0: ac11 4c3e 1f72 1b3e ca2b 7e3c 25e6 513e
000000c0: 7da8 6f3d 615b 6a3e 0e52 f5bc 01c9 23be
000000d0: bce7 d73d e3b9 ed3d b8f1 e03d 02ea 25bd
000000e0: 2348 5cbd 1061 523d 4db2 35bd ef5c b33c
000000f0: 0660 10be c48d 81bd a42d 293e e795 e03d
00000100: d1f6 283e 7119 49be 2bbf b1bd b952 1cbe
00000110: 78e4 6abe 23f0 f7bd 9384 9abc 20f7 b0bc
00000120: 1843 95bc 91bb 3ebe 92e2 a3bc b121 a03d
00000130: 61dd 583e feac 363e bc58 7cbe ed5d 40be
00000140: 892e 6e3e 80f8 4c3e 859c 273e 9fbb 1bbe
00000150: 70a4 7e3e 1bad 92be e922 70be df32 d83c
00000160: 6e6e 0c3e 8c4d 8ebe 00cb 313d 5668 91bb
00000170: 81fc 1ebd c481 6cbe 2cc0 10be 54ca 623c
00000180: 5a6e 903d d861 3d3e b1f1 d5bd 50e7 8e3e
00000190: 8f63 e33d 6626 4dbe 344e 96be 9503 4b3e
000001a0: d18f b63c 6f71 f2bc 75ec c7bd 98f5 0d3e
000001b0: e54f d9bd 19ea 5cbe 8eb2 513e 6575 01be
000001c0: 4bdc 2d3e e7a5 4fbe a7ce 72bd 1576 25be
000001d0: 3aa3 4d3c 1ed7 0ebd 0d2b b43d ce35 6abe
000001e0: 6028 85be ab24 703e 0633 67be 68a2 cb3d
000001f0: 3b1e 83be c75d 6b3d 4196 cdbb 9b7b 14be
00000200: 71f8 c6bb eb49 143d c031 073c fa6f 643e
00000210: c3f4 2cbe c6ba 083e 4a0c 8b3e 43e2 58be
00000220: 6681 6cbe f51a cc3d 4d62 d6bd 1aea d9bb
00000230: 20d5 8cbe f870 383e 307c 9fbc 8982 943c
00000240: 61ec d1bd 2ca4 d13d 3174 9ebb 55ae f0bd
00000250: 8603 963d 5f3b e0bd 611f e03d 9999 90be
00000260: 8fab e9bd d0e3 4ebe a976 003e 2409 54be
00000270: bff4 693e da0a 933d 230f 393e d9f7 44be
00000280: 9549 75be 1f34 46bd dee8 25be 9d8d ccbd
00000290: 0835 783e 0f63 213e 976d b2bd 325b 373e
000002a0: a140 4abe e175 2fbe c7be 053e 0f5c 023e
000002b0: 9a9c aebd 5a0e 4ebe 02c8 3c3d 75a4 913e
000002c0: 2097 943e 0fb9 773e a96f 62be dc28 483e
000002d0: 9b2f 5d3d aa15 75be 1125 9b3c 96cc 91be
000002e0: 3aa4 813d c008 26be 0e2a 4bbe e714 6b3c
000002f0: 63a8 4b3e 1b7b 293e f0db 3abe 18c0 2b3e
00000300: d2b2 e03d d092 49be 31c4 9bbd 68b7 90bd
00000310: 376c 75be d5c2 89be 8a0b 4dbe 823f 893e
00000320: 4675 a0bd e7e0 e73c 87bd 7abe 56c1 4fbd
00000330: 2629 e43d 65ce c3bb 51d4 bdbc 85b4 80bb
00000340: 1107 4b3e 0fb7 54be 0c94 87be 2c6b 91be
00000350: 508f f53d fe32 28be dc0f 04be 74c0 1fbd
00000360: 8604 313e 48f5 273b 6a6a 6c3d 01a2 a9bd
00000370: 2055 243e b0a2 16be e3c0 683e b28c 783e
00000380: 27cf 87be 1838 bfbd 498a 11bd bd97 22be
00000390: 86b3 813c 6836 c6bd 27fb 793e b61b bfbc
000003a0: b0c9 28be ceef 15be 3d19 8dbe 9994 39be
000003b0: ba7f 6a3d 4a6b b63d 6723 02be 2c9f 443b
000003c0: 1f81 173e c3a6 1f3d d410 083d 9315 46be
000003d0: 19f1 8d3e 6e49 b2bd ce46 c73c 5dbd 14bd
000003e0: 042e 033e 841b 7abe 996e 893d b660 6abe
000003f0: 0156 6e3e ca0a eebd 9a90 763d 82db 9f3c
-0.09114089 -0.09038637 0.055249527 0.19082882 0.12877259 0.28061044 0.09163758 0.09159399
0.02615051 0.21521534 0.25665656 0.12281621 -0.27236044 -0.05706146 -0.06420226 -0.023504488
0.22383252 -0.19432682 -0.1024326 -0.12110107 5.7186095e-05 -0.17924465 0.02900493 -0.19016089
-0.19481161 0.19166851 0.23428325 -0.09333059 -0.044516195 -0.0122343395 -0.23920105 -0.04207945
0.14001866 0.01888424 0.24114516 -0.19835281 -0.23145919 -0.23533647 -0.16765097 0.11273853
0.20713039 -0.22086628 -0.2044886 -0.10635661 0.19928616 0.15180252 0.01551337 0.2049795
0.058510292 0.22886421 -0.029946353 -0.15994646 0.10542247 0.11607721 0.10983604 -0.04050637
-0.053779732 0.051362097 -0.044359494 0.0218949 -0.1409913 -0.06325868 0.16521317 0.109660916
0.16500403 -0.19638611 -0.086790405 -0.15265931 -0.22938716 -0.12106349 -0.018862044 -0.021602213
-0.01822047 -0.18626238 -0.020005498 0.07818926 0.211782 0.17839429 -0.24643224 -0.1878583
0.23259939 0.2001667 0.16368301 -0.1520829 0.24867415 -0.28647694 -0.23450817 0.026391445
0.13714 -0.2779354 0.043406487 -0.0044374866 -0.038815025 -0.23096377 -0.14135808 0.013842184
0.07052298 0.18494356 -0.104464896 0.27910852 0.11102974 -0.20034179 -0.2935654 0.19825585
0.022285374 -0.029595105 -0.097618975 0.13863218 -0.10610942 -0.21573676 0.2047827 -0.12642439
0.16978566 -0.2027813 -0.05927911 -0.16158326 0.012551123 -0.03487312 0.08797274 -0.22872087
-0.26007366 0.23451488 -0.22578058 0.09943086 -0.25609002 0.05746248 -0.006274015 -0.14500277
-0.006072097 0.036203306 0.008251607 0.2230834 -0.16890244 0.13352498 0.27157813 -0.21180062
-0.23096237 0.09966079 -0.10467968 -0.0066502215 -0.2750635 0.18011844 -0.019468397 0.01812865
-0.10250164 0.102363914 -0.0048356284 -0.11752001 0.07324891 -0.10948824 0.10943485 -0.28242186
-0.11409675 -0.20204091 0.12545265 -0.20706612 0.2284727 0.07179804 0.1807218 -0.19235171
-0.2395385 -0.04838955 -0.16202113 -0.09987948 0.2423898 0.15760444 -0.08712309 0.17905882
-0.19751216 -0.17134811 0.13061057 0.1273043 -0.08525963 -0.20122662 0.04608918 0.28445783
0.2902155 0.24191688 -0.22112907 0.19546837 0.05400048 -0.23934045 0.018938573 -0.284764
0.06330152 -0.16214275 -0.19840261 0.014348245 0.19888453 0.16550867 -0.18247962 0.16772497
0.10971607 -0.19684911 -0.0760578 -0.07066232 -0.23967062 -0.26906458 -0.20023933 0.26806265
-0.07834868 0.028305484 -0.24486361 -0.05072149 0.11140661 -0.005975532 -0.02317253 -0.0039277696
0.19826914 -0.20772956 -0.26480138 -0.28402078 0.11990225 -0.16425702 -0.12896675 -0.039001897
0.17286882 0.0025628377 0.05771867 -0.08282853 0.16048098 -0.14710498 0.2272983 0.24272421
-0.26525232 -0.09336871 -0.03553227 -0.15878196 0.015832674 -0.09678346 0.24412213 -0.023328643
-0.16483188 -0.1464226 -0.27558318 -0.18123092 0.057250716 0.089071825 -0.12708817 0.00300021
0.1479535 0.038977396 0.033219174 -0.19344167 0.27723005 -0.08705412 0.024325754 -0.036313403
0.12810522 -0.24424559 0.06710548 -0.22888455 0.23274995 -0.116231516 0.060196497 0.01951385

encoder.feature_encoder.atom_embedding_list.2.weight f4 [12, 64]
00000000: 9d88 b8bc b746 23be 66e7 3abe ccbb e1bd
00000010: 529f 713e b68f 96be 3951 593e 477f 62be
00000020: 1a1e 603d fd04 8b3e e877 35be 3b45 5fbe
00000030: 5735 21be be8f 7fbd 06ad 30be 970b 4ebe
00000040: ebdc 13be abb7 31bc 8396 853e c7d7 71bc
00000050: 4a59 79bc ea92 b4bd ee19 0b3e 0442 653e
00000060: 3216 493d 166f 953d 1c35 9e3c ebb8 ba3e
00000070: 9b0b 1bbe 2743 923e d3d3 02be fe0c 493e
00000080: a3c0 363e 83a2 573d f223 27bd 75fd 6d3e
00000090: 40f3 c8bc 7768 b63d e272 703e ecd5 63bd
000000a0: faac cabd 4d9a c73d c3c6 3f3e 3bba 973e
000000b0: 5dba 87be e7fc 783d 4539 843e 2c0b 91bd
000000c0: f75c 543e 48a4 18be a59e dc3d ee9f 6f3d
000000d0: 28c8 2c3e 0e68 00be 9cf1 583b 4768 1cbe
000000e0: 2bff 0b3e b4d4 4dbe 2707 723c 738b cf3d
000000f0: 4dc0 2a3d acdc 65bd eb04 683d 991c 4dbd
00000100: 500c 15be 2c6c fcbb 510a c3bd 1948 0bbd
00000110: b394 6c3c 69b1 22bd 016e 40be 0986 23be
00000120: 55cd 38be 2729 ccbd 2940 273e b187 8fbb
00000130: 3345 53be cbcd 26be a956 013e 486e 623e
00000140: 81a2 81be caa1 8c3e f1fa 323e 0dce 7e3d
00000150: f22d 693d 7c6b 173d 7688 7bbe db74 3abe
00000160: 86a9 b3bd 2f68 4dbd 3fc1 f7bc 11ac 5dbd
00000170: 8262 a43c 546d 393e aa0c 5ebe eff4 b33e
00000180: 89fa d1bd 2499 1c3e 02e8 513e 7e8c 36be
00000190: 822a 9bbe 5284 513e 647f a13e 4d6b f6bc
000001a0: 472f 063d 4e04 c33d f6b1 afbd be62 173e
000001b0: f88c d63d d90a 7ebe dc56 bcbc 1160 25be
000001c0: ec19 c03d 209a a5be 8763 83be 725b abbe
000001d0: 1da7 3b3d 3632 81be 8ca2 adbd 72b9 23be
000001e0: 498b da3d 1e37 ab3e a758 fd3d a781 94bd
000001f0: f30d 2a3e d408 aabe cbe6 33be 3282 9a3d
00000200: 5d4d 88be 0908 9d3e 8279 da3d a80e 8e3e
00000210: bcb9 0f3d 3c9c 4b3e 58d7 2ebe 6279 cdbc
00000220: 4f57 33be 3124 a53d 81cb 85be 5f14 7d3d
00000230: 7938 b0be b213 1dbe 6451 533e b273 0ebe
00000240: 8b13 b4bd da33 5ebe d61f a1be 4f57 3a3e
00000250: 0dff 933d 5b0d 433c f270 0fbe 4b04 8d3e
00000260: 4ef9 663e c9b3 c73d 6b33 8bbd ddab 613e
00000270: 234d 1b3e d391 8dbb 9c2b c33e 239f 583e
00000280: 278a 033e 4a86 64be c715 43bd 8be5 ac3d
00000290: 116d ccbd 2280 273e c5ab 603e cfa8 76be
000002a0: c31d 7fbd 7801 5ebe 3606 0d39 1f38 2c3e
000002b0: 3185 a73e 45fb fcbd 0d09 213e fec8 30be
000002c0: bdb4 f6bb 9b58 0fbe ca54 40be 050b b63e
000002d0: cf3a c43e ed3e 83be 370f a0be df55 18be
000002e0: 7686 0cbc 7d24 783e c162 783e c929 3e3e
000002f0: b070 99be 6b48 bb3d 9bd2 34be 635a 45be
00000300: ef4e 863d 3382 15be e36e 67be 1378 babd
00000310: 0f1b 233e d8a3 6f3e faa5 c13c 0a61 363e
00000320: ec67 063b 0181 9dbe cb70 973e 99a8 89bd
00000330: 9c4b edbd d42d 96bd b53b 9a3e fef0 22be
00000340: 8b8a d9bc 30e7 1a3d 95dd cabd fb49 033e
00000350: 6a9e 943e 9a46 b13d e752 6bbd 72c7 48bc
00000360: 1025 83be 6ca2 83be d21e cdbd 2d87 543e
00000370: 2927 6a3e b941 693d d983 debd 19af bc3e
00000380: 6061 b9bd 99f9 04be e6c3 213e 6b68 74be
00000390: 13d2 6fbe b25e 86bc 6af4 8fbe 6ae0 1ebe
000003a0: 428e 29be 974c 113d 3f2f 0b3e 716b eebd
000003b0: 38a6 c0be 2456 5fbd b806 993e a142 a7bd
000003c0: 0d0a 67be 1fee 94bd 23f7 773e fef6 eb3c
000003d0: 86f0 52be 1319 9d3e 5843 a63d 81c8 4c3b
000003e0: e5a0 823e 7663 ecbd 46ec b4bd 6344 323e
000003f0: 6413 863e 2a76 6fbe c3ac 613e db29 03be
-0.02252608 -0.15944944 -0.18252334 -0.110221475 0.23595932 -0.29406518 0.2122239 -0.22118865
0.054716207 0.27152243 -0.17721522 -0.21803753 -0.15743004 -0.062392943 -0.17253503 -0.20121609
-0.14439742 -0.0108470125 0.26091394 -0.014760918 -0.015219042 -0.08817084 0.1358411 0.22388464
0.049093433 0.072965786 0.019312434 0.36469206 -0.15141146 0.28566858 -0.12776117 0.19633862
0.17846923 0.052645218 -0.040805764 0.23241217 -0.024530053 0.08906644 0.23481324 -0.055623934
-0.09896274 0.097462274 0.18728165 0.2963427 -0.2650937 0.06078806 0.25824943 -0.07082209
0.20738588 -0.14906418 0.107724465 0.05850213 0.16873229 -0.12539694 0.0033102995 -0.15274154
0.13671558 -0.20100671 0.014772213 0.1013402 0.0416873 -0.056118652 0.056645315 -0.0500761
-0.14555478 -0.007703325 -0.09523452 -0.034004305 0.0144397495 -0.039719973 -0.18791963 -0.15969099
-0.18047078 -0.09968787 0.16333069 -0.0043801893 -0.20631866 -0.16289441 0.12630714 0.22112381
-0.25319293 0.27467185 0.17478539 0.062208224 0.056928582 0.03696774 -0.24563774 -0.1820864
-0.087725684 -0.050148185 -0.030243514 -0.054119173 0.020066503 0.18108112 -0.21684518 0.35147807
-0.10252864 0.15292794 0.2049866 -0.17827031 -0.30305868 0.20460632 0.31542504 -0.030080462
0.03275993 0.095223054 -0.08578865 0.14783761 0.104761064 -0.24808826 -0.022990637 -0.16149928
0.09379944 -0.3234415 -0.2566187 -0.33468205 0.04581367 -0.2523362 -0.08478269 -0.1598871
0.10671098 0.3344049 0.12370425 -0.07251292 0.16606884 -0.3320986 -0.1756851 0.07544364
-0.26621523 0.30670193 0.10667707 0.27745557 0.03508924 0.19883817 -0.17074335 -0.025082294
-0.17513774 0.080635436 -0.26131824 0.061787006 -0.34418085 -0.15339544 0.20636517 -0.13911322
-0.0879279 -0.21699467 -0.314696 0.18197368 0.072263815 0.01190504 -0.14007929 0.27542338
0.2255604 0.09751088 -0.067969166 0.22038217 0.15166144 -0.004320362 0.3811921 0.21154456
0.1284567 -0.22316852 -0.04762819 0.08442219 -0.0998174 0.16357473 0.21940525 -0.24087833
-0.062284242 -0.21680248 0.00013449122 0.16818283 0.32718804 -0.12352613 0.15726109 -0.17264172
-0.00752887 -0.13998644 -0.18782344 0.35555282 0.38326117 -0.25633946 -0.31261608 -0.14876507
-0.00857698 0.24232669 0.24256422 0.18570627 -0.29968786 0.09144672 -0.17658465 -0.19272761
0.06558024 -0.14600448 -0.22600894 -0.091049336 0.15928291 0.23402345 0.023638714 0.17810455
0.002050872 -0.30762485 0.29578242 -0.067216106 -0.11586687 -0.0733296 0.30123678 -0.15912244
-0.02655532 0.037818134 -0.09905545 0.1282119 0.2902711 0.08656044 -0.05745211 -0.012254583
-0.25614214 -0.25709856 -0.10015644 0.2075469 0.22866501 0.056947444 -0.10864992 0.3685234
-0.09051776 -0.12985839 0.15797386 -0.23867957 -0.2341998 -0.016402576 -0.2811616 -0.15515295
-0.16558173 0.035473432 0.13592242 -0.116415866 -0.37626815 -0.05452551 0.29887938 -0.08167005
-0.22562428 -0.072719805 0.24215369 0.028804298 -0.20599565 0.30683193 0.081183136 0.003124744
0.25513378 -0.11542408 -0.08834128 0.174089 0.2618667 -0.2338492 0.2203856 -0.12808935

encoder.feature_encoder.atom_embedding_list.3.weight f4 [12, 64]
00000000: 46c5 723e 31ab ad3d 2af0 b13d e171 a83e
00000010: 44da 393e dfe1 5e3e 132c 46be 073a 54be
00000020: 6326 493e 0ea3 8f3e 2a01 443e 3d8e d53d
00000030: 4922 85bd 23c8 383e 3596 0abe a9fa a33c
00000040: d6fa 883e aa07 28be decc 71be c14a b3bc
00000050: 470f 0d3e e6c9 85be b022 373e da31 4d3c
00000060: 43b0 093d 84f9 8b3e 3e4b 2d3e 6c6e e03c
00000070: 946c 7fbe 71a3 6f3e b64b babd bccf 1fbe
00000080: ce6d 113d bc5f 413e 7382 853c 0f58 45be
00000090: 5e9f 91be 4982 fa3d 476c c93d c9cd 273e
000000a0: 23e9 ac3e c5b8 1cbe 5c1a 5d3d e6c1 843e
000000b0: 3d00 25bc cf29 30be 6bdf 88be ef75 76bc
000000c0: 895a 3fbe ab39 5dbe bcf6 5abe c91d cf3d
000000d0: c101 26bd b9fc 4b3e 1e3a 123e 01f6 8ebe
000000e0: b624 b3bd 8774 373e cc4e 46bd 6efb 783e
000000f0: 1ea2 7abe 1500 933e 4dc2 b43c 630d 2cbe
00000100: 796c 273e f0dd 303e 882b 3d3e e2f1 c73c
00000110: c2d0 0ebe 8f1f b4bd 2022 51be ac76 9f3e
00000120: bb1f 7b3d c3dc 16bc baa5 f5bd 5571 32be
00000130: 75c3 c5bb e496 853e cadb 053e b1e3 fcbd
00000140: 628e 1e3e 1f22 acbc b6d5 aabd f50d aa3e
00000150: e726 b03d 7e38 8d3e a51c 8dbe fd3a 94bc
00000160: 1d09 c5bd 8a6a 983e 351a 193e 52f0 82bc
00000170: 91ec 513e 47a8 73be 19df 96bd 6338 b53d
00000180: 4c8a f2bd 1d5a 8a3d 2c07 843d d7f2 6cbe
00000190: 5083 34be 0cf0 54be 5992 83be 3986 fcbc
000001a0: 13d2 ab3d d2eb de3d bca1 223e 2141 103d
000001b0: e98e 37be 77b0 88be eb47 bd3e 87cc 2b3d
000001c0: 4163 803e a4f7 7ebe 0218 d6bd 9a32 493c
000001d0: 2cd9 383e 3ce6 6abd 09e9 0cbe f044 5abe
000001e0: 32d1 463e b494 a1bc 2364 13be 21c4 7f3e
000001f0: 2df3 9bbd 4635 9abc 1eb0 89bc 428b 75bc
00000200: c72a bf3d 855d 953c fd82 a83e f1fc 15be
00000210: 3b0b 08be d0f2 e8bb 8e81 06be f00d 6d3e
00000220: c989 8a3e f458 953e 6df8 c73e 26cb 4dbb
00000230: 89c5 4e3e c124 d9bd 8a65 753e b2fc 193c
00000240: 9fab 8f3d 562d 1a3e db6c dabd 1e43 6b3e
00000250: ab6d 973e 2210 8bbd 3d55 aabd 4d49 7fbe
00000260: cf5b 173e 1f2d 45be 6229 4fbe 9f06 ba3e
00000270: ee8d bd3d 7b0b 223e 69ae 70be 1d12 22be
00000280: e8b6 98bd 3ddd 313e b36c 5abe 0acb 80be
00000290: c46a a4bd 8816 31be 11c6 883e ad50 fe3d
000002a0: a361 66be 0ea5 a4bd c9e6 813d 1a0e 34be
000002b0: b34a 1fbe 71c4 7c3e 86bc 0ebe 2119 403e
000002c0: 7fa9 90bd f2ff 0abe 6c33 8dbd 9fff 38be
000002d0: 7868 43be 1543 27be 8bc3 d33d 1d7e 17be
000002e0: a41d 853e 580f 80be e67d 07be 2d9d 653e
000002f0: 8887 26bd ad03 10be 6e86 2fbe 4e50 49be
00000300: f5fb 073e aaaa 74bd 13bb 2b3d fcae 183e
00000310: 9423 20bd 5df1 53be 403d 52be 88b4 be3c
00000320: f8c8 92be 8847 4c3e 6227 a8bd 7c8a 523e
00000330: c8b8 66bd 1111 0cbe a181 8ebe 235e 4a3e
00000340: 55d5 7bbe 8883 da3d ae6b dfbd 59ad 77be
00000350: 0266 6cbd d94a 0b3e 7990 5b3e c87c 80be
00000360: 2888 56be 386b f23d cdd4 0a3e d617 15be
00000370: 4cae 373e 5687 07be 090c 7bbe bb5c a03d
00000380: 92d5 83be ef53 82bc 3c8e acbd 013d fabd
00000390: 66bd 52bd 7166 80be a42e a23e 6932 57be
000003a0: 0c0f 3e3e e687 573d 3f1e 51bd f390 a7bc
000003b0: af71 41be e27c 99bd 4e8e 013e 5f37 87be
000003c0: 4736 053e 422f 8bbe 1147 f9bd 6040 2d3e
000003d0: b56e e73d df99 94be b723 2fbe 1d35 3a3e
000003e0: 2789 83bb 2ca3 3e3e 711c 75be fba5 283d
000003f0: f04a 95be 9822 c73d 819a 18be de46 e6bd
0.23708066 0.08479918 0.08688386 0.32899383 0.18149668 0.2176585 -0.1935275 -0.2072526
0.1964355 0.28054088 0.19141069 0.104275204 -0.0650068 0.18045096 -0.13533862 0.020016985
0.26753873 -0.16409174 -0.23613307 -0.021886231 0.13775359 -0.261306 0.17884326 0.012524093
0.033615362 0.27338803 0.16923234 0.027396403 -0.24943763 0.23402192 -0.09096472 -0.15606588
0.03550511 0.18884176 0.016297555 -0.19271873 -0.284419 0.12231881 0.098351054 0.16387095
0.3377162 -0.15304859 0.053980216 0.25929183 -0.010070858 -0.17203449 -0.26732954 -0.015042766
-0.1868688 -0.2160403 -0.21383184 0.10113103 -0.040529016 0.19920625 0.14279982 -0.2792206
-0.087472364 0.17915545 -0.04841499 0.24314663 -0.24475905 0.28711 0.022065306 -0.16801982
0.16349973 0.17272162 0.18473637 0.02440733 -0.13946822 -0.08795082 -0.20423174 0.31145227
0.061309557 -0.009207907 -0.119945005 -0.17426045 -0.006035263 0.26091683 0.13072124 -0.12348116
0.15484002 -0.021012364 -0.083415434 0.33213773 0.0860117 0.27582163 -0.27560917 -0.018094534
-0.09620879 0.29768783 0.14951403 -0.015983734 0.20500399 -0.23794661 -0.07366771 0.088486455
-0.11842784 0.06755469 0.064466804 -0.23139511 -0.17628217 -0.20794696 -0.25697592 -0.030825721
0.08389678 0.10884823 0.1588201 0.03521836 -0.1792561 -0.26697132 0.36968932 0.0419431
0.25075725 -0.24899155 -0.10453798 0.012280131 0.18051594 -0.057348475 -0.13760771 -0.2131536
0.19415739 -0.019724227 -0.14393668 0.24977161 -0.076147415 -0.01882423 -0.016807612 -0.014986815
0.09334331 0.01823307 0.32912436 -0.1464727 -0.13285534 -0.0071090236 -0.13135359 0.23149848
0.27058247 0.29169428 0.3905672 -0.0031401603 0.20192541 -0.106027134 0.23964515 0.009398626
0.07015156 0.15056357 -0.10665294 0.22974822 0.29575858 -0.067901865 -0.08317039 -0.24930306
0.14781116 -0.19255494 -0.2023063 0.36333176 0.092555866 0.15824692 -0.23504032 -0.15827222
-0.074567616 0.17369552 -0.21330528 -0.25154907 -0.080281764 -0.17293751 0.26713613 0.124177314
-0.22498183 -0.08039294 0.06342847 -0.17583504 -0.15555839 0.24684311 -0.13939103 0.18759586
-0.07063579 -0.13574198 -0.068945736 -0.18066262 -0.1908282 -0.16334184 0.10340031 -0.14794202
0.25999177 -0.25011706 -0.1323162 0.22423239 -0.040656596 -0.14063902 -0.17141125 -0.1965954
0.13279708 -0.05973307 0.041926455 0.14910501 -0.03909643 -0.20697542 -0.20531178 0.023279443
-0.28668952 0.19949162 -0.08210637 0.2056064 -0.056328565 -0.13678385 -0.27833274 0.19762473
-0.24593098 0.10669619 -0.1090921 -0.2418722 -0.05771447 0.13602771 0.2144183 -0.250952
-0.20950377 0.118368566 0.1355774 -0.14559874 0.17937583 -0.1323522 -0.2451631 0.07830187
-0.2574888 -0.015909163 -0.084255666 -0.12218667 -0.051450156 -0.25078157 0.3167621 -0.21015324
0.18560427 0.052619837 -0.051054236 -0.02045486 -0.18891023 -0.07494523 0.12651941 -0.26409432
0.13008986 -0.27184492 -0.12171758 0.16919088 0.113004126 -0.29023644 -0.17103468 0.18184324
-0.0040141526 0.18616933 -0.23936631 0.041173916 -0.29158735 0.09723395 -0.14902689 -0.112439856

encoder.feature_encoder.atom_embedding_list.4.weight f4 [10, 64]
00000000: e91f 513e 42e1 193e d06e 163e 82b3 a23e
00000010: d6b2 193d 2b2c fabd ec07 c63d e4b0 0ebe
00000020: 5a22 b13e 4951 4bbe e4e8 46bd 1e10 623e
00000030: 6e05 96be 8c00 143e 2935 13be 6886 9f3d
00000040: ecdd 9e3e 4a51 803e 044f 90be 1dfc ef3d
00000050: 8387 213d b2cd 70bd 468e 97be a7de 82be
00000060: 3723 e3bd 4081 163e 4dc2 09be 3ce0 7ebe
00000070: 6c24 5ebe 6a17 d03d 36ce 70be b28f 57be
00000080: 0193 08bc 7229 5fbe 21cb 0e3d deb9 8d3c
00000090: 7008 443e bb61 0dbe 02e7 3ebe 3bfb adbd
000000a0: 9c71 16bd 6ef1 7bbd 0747 aa3e 2ad7 60be
000000b0: a482 7fbe 5a89 183e f01a 0c3d 5271 463e
000000c0: ce9c d63b 731d bb3d 8aa3 a23d 305c 3e3c
000000d0: 6d9d 5dbd dca9 26bc cb25 63bd 71ca 90be
000000e0: 528d 843e f284 1c3e b977 b4bd e56d 703e
000000f0: 8d2a 703e 9e41 223e 2451 eb3d db72 8a3c
00000100: d212 763c a8fd 823e 409e 3abc c59f 173e
00000110: 9d50 4d3e c9d0 39be 75c3 c6bd 7593 973e
00000120: dc0f 5fbd a50a 30be 861d 89be 8bcb eebe
00000130: 9a73 9a3e 2f6a 163e 33f9 16be 5e34 92be
00000140: 956c 3d3c c5ce 0fbe b669 c33e 9042 6a3d
00000150: f49c efbd 93fe 243e 83eb 3a3e 8bcb 9b3e
00000160: 68aa 1e3e d12a 53be 8820 5c3e cbe4 4d3e
00000170: 4422 0b3e dc44 0dbd 91f8 9d3d c6a9 f3bd
00000180: 0fd1 083e bbfe 83bb a3ab 623e b26e 2b3e
00000190: c682 6fbd adf6 853e 7469 0d3e e7f6 49be
000001a0: adee f13c f217 a6be 5965 5dbe 33e6 e03d
000001b0: f5be c4be c2f1 d03d d4c7 85be 4ee9 07bd
000001c0: a34b 82bd 469f 443e 159d b73e 0b81 8cbe
000001d0: 9fdb 3d3d 5387 05be 094b 1abe 6bc9 94be
000001e0: 18e5 7ebe 248d b03b a0be b43e e086 b03c
000001f0: 0ba4 553e 73cd c8be 1df1 e9bd 769f 143e
00000200: 81e9 1bbe 7483 733c 2869 6e3c 0489 c3be
00000210: 6503 a9be 831b b33c 1f39 f53d c4a2 a5bd
00000220: 8de3 5cbe 3ce1 293e feba 873d be54 8abd
00000230: e157 bd3d 8db9 f2bd 4831 10be ed62 edba
00000240: d570 67bd 2f61 54bd 1254 23be 409a 1a3e
00000250: 1bf9 8fbd 7a26 053e 0dc3 033d 649b b73c
00000260: c2e4 04be 6218 813e 47b2 13bd 4272 e93d
00000270: dd5c 68be 397b 78bd 4e7d 30be 31b4 56be
00000280: ddc4 4b3d 5cd1 30bd 9555 be3d e4b4 2b3e
00000290: a65b 09be 3319 fb3d 4a82 6f3d b41e 82be
000002a0: fb70 873e 652f 33be c8bc 2dbe a0dc dabd
000002b0: 1114 153e ca73 acbe 025d afbe 7903 93be
000002c0: 9377 0abe 10ce f9bd 0070 293e bbb7 5cbe
000002d0: eb53 643b 0282 603e b7da 993d 58f1 a63d
000002e0: 5a1f 91be 4735 833d 0a51 2bbe 9a88 eb3d
000002f0: 00fa 19be a0bb 693b 45bc 1d3e 60d8 b2be
00000300: 11aa aabe ca5c 02be 799b 443e da2b 91be
00000310: a25c b43d 9e80 02be e075 273e 99c2 053c
00000320: c35c 353e 623e 7dbc 8fee 79be aad3 103e
00000330: d9bf 403e b291 00be df31 113d 6a06 9dbe
00000340: 00c7 fc3d e653 4d3e a5d6 dabe 2d28 06be
00000350: 9f1e 543e 7298 033e 8f5b f93d f1fa 99be
00000360: 52c8 723e db4b 19be b511 3e3d 7f62 00be
00000370: 9764 63be 148a 8abe 041b 663e b24a 5bbe
00000380: bc62 8a3e a205 403e 27d3 38be c79d 263e
00000390: 1c51 25be 4a29 89be c648 80be 6a43 87bc
000003a0: 4e14 52be 73d6 9a3d 04d3 f63d 839e 0d3e
000003b0: f320 90be e27f b63d 4503 3c3d fbb7 783d
000003c0: 1e60 90ba 80e8 97be 165c 02be b982 433e
000003d0: bc7c a3bb 1f4b 46bd 1708 13be afb4 b63d
000003e0: cc29 a2bd 9a31 8e3b a9d2 b3be c62d 973e
000003f0: 39fe d8bc 5b23 953d 96f0 d7bd 979d d53e
0.20422329 0.15027335 0.14690709 0.3177758 0.037524067 -0.122154556 0.0966948 -0.13934666
0.3459652 -0.19855227 -0.048561946 0.2207646 -0.29301018 0.14453334 -0.14375748 0.07789308
0.31028688 0.2506202 -0.28185284 0.11718009 0.039435875 -0.058789916 -0.29600734 -0.25560495
-0.11090701 0.14697742 -0.13453026 -0.24890226 -0.21693581 0.10160716 -0.23516163 -0.21050909
-0.00833583 -0.21793154 0.034861688 0.017300542 0.19143844 -0.13806812 -0.1864281 -0.08495184
-0.03672944 -0.061509542 0.33257315 -0.21957079 -0.24952179 0.14896145 0.034205377 0.19379166
0.0065494543 0.09136476 0.07941349 0.011618659 -0.05410521 -0.010172334 -0.055455964 -0.2827945
0.2588907 0.1528509 -0.08811898 0.23479421 0.23453732 0.15845343 0.11490086 0.01690047
0.015019136 0.2558415 -0.011390269 0.14807041 0.20050283 -0.18146051 -0.09705249 0.29604688
-0.054458484 -0.1719156 -0.26780337 -0.46639666 0.30166322 0.14688943 -0.147435 -0.28555578
0.0115615325 -0.1404372 0.3816659 0.057192385 -0.11699858 0.16112737 0.18253903 0.30428728
0.15494692 -0.20621802 0.21496785 0.20106809 0.1358729 -0.034489498 0.07713426 -0.11897616
0.13361 -0.004028169 0.22135787 0.16741446 -0.058474325 0.2616476 0.13809758 -0.19723092
0.029532755 -0.32440144 -0.21620692 0.10981407 -0.3842694 0.10202362 -0.2612902 -0.03318148
-0.06362083 0.19201383 0.35862032 -0.27442202 0.046352025 -0.13039903 -0.15067686 -0.2905992
-0.2489208 0.005387919 0.35301685 0.021548688 0.20863359 -0.39219245 -0.11422942 0.14513955
-0.15225793 0.014862884 0.014551438 -0.38190472 -0.33010402 0.021863705 0.119737856 -0.08087686
-0.21571179 0.16589826 0.06627463 -0.067544445 0.09245277 -0.11851797 -0.140813 -0.0018111147
-0.05650409 -0.051850494 -0.15950039 0.15097904 -0.07029935 0.13002959 0.032168437 0.022412963
-0.12977889 0.25213915 -0.03605869 0.11398746 -0.22691675 -0.06066439 -0.172353 -0.20967175
0.04974829 -0.04316841 0.09293667 0.16768223 -0.13413867 0.12260666 0.058473863 -0.2541405
0.26453385 -0.17498548 -0.16966546 -0.10686612 0.14558436 -0.3368209 -0.34250647 -0.28713587
-0.13522176 -0.121975064 0.16546631 -0.21554463 0.0034840058 0.21924594 0.0751242 0.081515014
-0.28344232 0.06406646 -0.16730133 0.11500664 -0.15036774 0.0035664812 0.1540385 -0.34930706
-0.33332875 -0.12730709 0.19199933 -0.2835377 0.08806731 -0.12744376 0.1635356 0.0081640715
0.17711167 -0.015456768 -0.24407409 0.14143243 0.18823184 -0.12555578 0.03544795 -0.30668956
0.12342644 0.20051536 -0.42741886 -0.13101263 0.20714806 0.12851122 0.121756665 -0.30074266
0.23709229 -0.14970343 0.046403605 -0.12537573 -0.2220634 -0.2705847 0.22471243 -0.21415213
0.27028453 0.18752149 -0.18049298 0.16271125 -0.16144222 -0.26789314 -0.25055522 -0.016511638
-0.20515558 0.07560434 0.12051967 0.13829999 -0.28150138 0.089111105 0.045901556 0.060722332
-0.0011014973 -0.2966957 -0.1273044 0.19092835 -0.0049892347 -0.048411485 -0.14358555 0.089211814
-0.07918128 0.004339409 -0.35121658 0.2952711 -0.02648841 0.07282134 -0.10543935 0.41721794

encoder.feature_encoder.atom_embedding_list.5.weight f4 [6, 64]
00000000: d3de 1ebe 4401 263d 2251 bbbd 71b7 4c3e
00000010: 34a9 9ebc f8c9 803e fc11 cfbd 99ba 92be
00000020: a593 f1bc 55ae 4fbe ffe1 08be 97d3 183e
00000030: ddd7 7d3e ff97 5dbe 66d9 82be e445 e03d
00000040: 10e0 6dbe 011e aabd 21e1 303e d39a d23d
00000050: 26e8 b73c b80c e83d 617b 46be f7c1 0cbd
00000060: 8ef4 0ebe 0577 8dbe 7f74 0bbe 0505 1a3d
00000070: 91d6 8d3c 42ab 04be a004 313e 097d 0bbe
00000080: fa1a 93bc f411 863e bda7 1b3e ca55 a33e
00000090: 529c 713d 2fac 3ebe 3f7f a5bd e0b9 07bd
000000a0: 7a78 53be c78b b6bd 2df2 81be e751 21be
000000b0: 8401 89be 9082 903e 30bf bb3d 661b 5c3e
000000c0: f43d f23d 6781 743e fb58 f1bd a4f9 ecbd
000000d0: 2614 b3bc 3957 7bbe d845 bbbc cd74 6f3b
000000e0: 04c4 d23d 7da7 75bd 5188 ec3d 3c75 973d
000000f0: 9b00 da3d 526a 953d 0f01 d7bd a417 373e
00000100: 5989 91be de8c 0d3d 0792 1e3e b9d3 3b3e
00000110: ba20 043e ce31 36bd bcaa 553e 4d1c 8ebe
00000120: 38e9 7abd 4461 e0bd 7eec 363e f3be 833e
00000130: 1c8f 9ebd 5b51 713d a150 2dbd 1c98 aabd
00000140: 07d5 ef3d 4e12 8d3d 5d29 10be 06dd 823d
00000150: 5863 873e baa6 51be 1e45 3fbd 8b0e 85be
00000160: 4456 97bd e9c5 8d3e 34fb 423e e562 8dbe
00000170: 5b3a 86be 1fbf 403c 2e26 09bd f6d3 613e
00000180: 174f a5bd 635d 633e 074c 31be 157d 5abd
00000190: 3d86 cdbb 254d 1abe 298b 4b3c 3b31 81bd
000001a0: 793d 0ebe 63ef 6bbe 3dce f7b9 c17e 8b3e
000001b0: 0abb e83d 8a4a 65be 7b6e 17be dce8 443e
000001c0: 6b7d dfbd 1f3c debc 67f5 0cbe 65ef 0e3e
000001d0: 57bf 4abe e912 8ebe 4049 5cbe 3857 81be
000001e0: a398 e63c 01ea 393d 95c7 bdbd c082 f83d
000001f0: 9ff7 e03c 6fe1 903d 8a59 1c3e ba7e 723d
00000200: adc6 963e 9bb8 793e 76c9 f7bd 0064 613e
00000210: 714a 36bc aa0c 1dbd 1a63 8b3d ad27 83be
00000220: 50ad 5f3e 1ca6 273e d766 a33e cd39 d03d
00000230: 5ba9 a3bd b3be 6abb a24d 0abe 7c8b 87be
00000240: b0cc cb3d e067 b2bb bff0 b8bd 43c8 2ebe
00000250: 6cca c2bd 84c8 a53d 7beb 9f3e e906 283e
00000260: d9ff 613e bf09 853e ccb3 eabd 05c2 923d
00000270: fed7 68be 3d63 1cbe 4911 e83d e71d ce3d
00000280: dcf2 8e3d a4f8 433e c74f 183e dbe0 12be
00000290: e040 8ebd 89e6 303d 9269 233e 5f3d 1abe
000002a0: a0b3 fabd 4d1c 563e c800 ca3d c9e8 9b3e
000002b0: 103d 773e 41b4 64be 91c8 073e 3d82 1abe
000002c0: 977e 063c 1a02 64bd b2ac 113d 951b 693e
000002d0: 3a8a 6abe 272a 823e 4120 513e aa11 11be
000002e0: 3922 e3bd 5e82 8bbd 2753 683e bab9 fabd
000002f0: 69e6 2c3e 3d68 bcbd 61b3 5a3e 9438 093c
00000300: c54c 8f3e ce2c 5fbe 1805 b3bd 71c2 413e
00000310: 0c68 c73d bdcb 17be f97b 75be 5655 62be
00000320: b47f 7abe feab 25be 38a5 35be f70a adbd
00000330: e5df 813e 7524 9fbd d34b 39be 4890 123e
00000340: d271 30be 8f09 16be ff27 46bd 7099 13bd
00000350: 45df 38be 6c6b 6ebe 9250 92be 204e febd
00000360: 05e4 173e 1e66 c03c f0f9 6e3e edfa 4f3d
00000370: 9ae7 60be 5bee e13c 679f 99bd 55bf 293e
00000380: 9121 a33d 1c62 943e 1f64 86be 9eae 0ebe
00000390: 7375 7ebe 9865 d53c b518 3fbe 9af7 f8bd
000003a0: 7215 8f3e c7e1 c8bd 227f 133e 43be 403e
000003b0: a96b 593e 973b 753e 6ced 383e 40aa ed3c
000003c0: 51f2 7c3e 990e 913e 57cc 4ebe c86a 7a3d
000003d0: b744 4e3e 01ad 4abe 9e4f eb3d ad2d 3b3e
000003e0: 09aa 153c 0055 adbd 3b58 c6bc 4363 823e
000003f0: 1a5e 6dbe e3e0 ed3d 2746 22be 664f 4a3e
-0.15514688 0.04052855 -0.09146334 0.19991852 -0.019367792 0.2515409 -0.10110852 -0.28657988
-0.029489348 -0.20281346 -0.1336746 0.14924465 0.24789377 -0.21640013 -0.25556487 0.109508306
-0.23230004 -0.08306504 0.1727338 0.102834366 0.022449564 0.11330551 -0.19383003 -0.034364667
-0.13960478 -0.27629867 -0.13618658 0.037602443 0.017314227 -0.12955955 0.1728692 -0.13621916
-0.0179572 0.26185572 0.15200706 0.3190139 0.05898697 -0.1862037 -0.08080911 -0.03313625
-0.20651427 -0.08913379 -0.25380078 -0.157539 -0.2675897 0.2822461 0.091673255 0.21494827
0.11828223 0.23877488 -0.1178455 -0.11571053 -0.021860193 -0.24544992 -0.022860453 0.0036538125
0.10291293 -0.059974182 0.11549438 0.073954076 0.10644647 0.072956696 -0.10498249 0.17880112
-0.284251 0.03455817 0.15485393 0.18342485 0.12903109 -0.04448109 0.20865911 -0.27755967
-0.06125757 -0.10956052 0.17863652 0.2573162 -0.0774214 0.058915477 -0.04231322 -0.08329794
0.117105536 0.06888257 -0.14078279 0.06389813 0.2644298 -0.20473757 -0.046696775 -0.25987658
-0.07389501 0.27690056 0.19041139 -0.27614513 -0.26216397 0.011764317 -0.033483677 0.22053513
-0.08071726 0.22203593 -0.17314158 -0.053341944 -0.006272106 -0.15068491 0.012423315 -0.06308218
-0.13890637 -0.23040538 -0.0004726517 0.27245143 0.113638 -0.22391716 -0.14788239 0.19229454
-0.109125935 -0.027128277 -0.13765489 0.1395851 -0.19799553 -0.27748802 -0.21512318 -0.25261855
0.028148955 0.04538918 -0.09266583 0.121343136 0.027461825 0.07074248 0.15268531 0.059202887
0.29448453 0.24386828 -0.120989725 0.22010803 -0.011126147 -0.038342156 0.068060115 -0.25616208
0.21843457 0.1637196 0.31914398 0.101672746 -0.07991286 -0.0035819232 -0.13506177 -0.26473606
0.099511504 -0.005444512 -0.09030294 -0.17068581 -0.09511265 0.08094886 0.31234345 0.16408886
0.22070254 0.25983998 -0.11460075 0.071659125 -0.22738644 -0.15272231 0.11331422 0.10064297
0.069799155 0.19137818 0.14874183 -0.14343588 -0.06945968 0.043188605 0.1595824 -0.15062474
-0.12241292 0.20909233 0.0986343 0.30451038 0.24144387 -0.22334386 0.13260104 -0.15088744
0.008208892 -0.055666067 0.035565086 0.22764428 -0.22904292 0.25422785 0.2042246 -0.14166895
-0.11090512 -0.06811975 0.2268797 -0.12242456 0.1688477 -0.091995694 0.2135749 0.008375306
0.27988258 -0.21794435 -0.08741206 0.1892183 0.09736642 -0.14823814 -0.23973073 -0.22102866
-0.24462777 -0.16178891 -0.17738807 -0.08449357 0.2536613 -0.077706255 -0.18095331 0.14312851
-0.17230919 -0.14652084 -0.048377987 -0.036035 -0.1805392 -0.23283166 -0.28577095 -0.12417245
0.14833076 0.023486193 0.23337531 0.05077641 -0.21963349 0.027579477 -0.07501107 0.16576894
0.07965387 0.28981102 -0.2624826 -0.13933799 -0.24849491 0.02604942 -0.18661769 -0.12156601
0.2794605 -0.098086886 0.14403966 0.18822579 0.21232475 0.23948513 0.1805932 0.029011846
0.24701811 0.2833145 -0.20195137 0.06113699 0.201434 -0.19792558 0.11489795 0.18279143
0.009134778 -0.08463478 -0.024211993 0.25466356 -0.23180428 0.11615159 -0.15847073 0.1975685

encoder.feature_encoder.atom_embedding_list.6.weight f4 [6, 64]
00000000: 45f8 93bd c966 9e3e 2314 24be 03de 843e
00000010: af2c 383c b2b8 b83d 02f5 a23d 70a4 2a3e
00000020: 996c 80bd 8d97 c6bc 402a 0b3d 1d25 ca3d
00000030: 80a9 7b3e ba58 8b3e 3483 6cbe 452e 79be
00000040: 8fc9 363e 8007 bcbd e6ef 76be 0bbd 633d
00000050: 5dd8 7fbe 81fa 58be 979e a73e fa2d ccbe
00000060: 4266 4ebe 28cf 933e 8202 803d 41eb af3e
00000070: 827c 11be b181 eb3d 6b97 7d3e c1e1 bb3d
00000080: 8db7 4b3e ae2f c23b ddb3 383d 138b 3ebe
00000090: f700 0dbe ad00 8a3d 8c04 423d df32 d1bd
000000a0: b02e 8b3b 1ffe 4dbe b0e7 003e 0276 4f3e
000000b0: b99e 83be 3b8e 74be a6bf bfbb c1bd ab3e
000000c0: d07f 513d e3f4 0f3e 0b69 60be 9e9e 8e3e
000000d0: 74e3 343e 497f 3fbe 8b16 cf3d d4f9 67bd
000000e0: df5f 353e 4585 18be 252d 88be 8b65 80be
000000f0: aaec 1f3e ed06 8d3e 38f6 72be f4b1 febd
00000100: ec06 293e d072 12be 44b5 5abe 8a0e 2ebe
00000110: 9f04 04be 5cdb 5fbe 6879 a4bd be16 1a3d
00000120: 244a b43d eab9 773e 4213 85be b3f3 dabd
00000130: aae2 d9bd 0ccf 2fbe 5dea 303e 6216 33be
00000140: 0736 adbd 18f5 4abe c99d b63b 635d 743c
00000150: 07f0 11be 2951 8ebd c81f 2abe 7ad6 4d3d
00000160: bf39 be3d 0382 22be 987d 9abd 4855 3dbd
00000170: b768 43be 4cf9 26be 7788 a13d 2e01 8c3b
00000180: a66f e83d ec59 213d 9037 cd3a 932f 8abe
00000190: 8521 2c3c 9bde 893e 758b 623e 51ec 843e
000001a0: 6cee aabd 426e 113d 56a0 923e 7282 88bd
000001b0: 0564 013e b342 b43c aff0 763e 4410 16be
000001c0: 929a 8b3c 4b55 92be aee6 aabd bfa5 213e
000001d0: c7ab 163e ed9f 8f3e cfc1 3bbe fda9 b73d
000001e0: 0867 cbbd 1315 883e c6a1 4b3e 1b3f 573e
000001f0: a02c 43be aaf8 923e 0a1d 35be 16f0 f8bd
00000200: 676e 5f3e 15ea 3dbd 8cbd fc3d 7aef 833e
00000210: f13f dd3c 3d4e 1a3e 7522 21bd b001 0b3e
00000220: f289 cb3d 7dfc 94bd ecd6 66be 5762 6c3d
00000230: c451 2c3e 7986 b33a 5f5a b33d 6795 163e
00000240: bab2 5bbe 8983 21be 0dd1 f0bc 6737 90be
00000250: 5de0 86bd 177f f3bd e182 7cbe 01f6 153e
00000260: 0cdf ad3c 851a e43d 362a babc 13d6 8fbd
00000270: 9649 95bd 137f 3fbe 3466 a2bd 60c7 283e
00000280: db3b 0abd 81e5 02bd a150 7a3e 645c 983e
00000290: 8835 813e 6c58 943e 1b9d a43e 204c b2bd
000002a0: 2b68 b4be c9b4 bf3d df26 2d3e 0a08 373c
000002b0: c271 093e 7aa7 68be f8aa 2bbc 353d 813e
000002c0: 4ea3 8abe 752f 84bd b11f b03d 818b 8fbe
000002d0: 4a38 3cbd 2f38 dfbd 82e2 373e 5511 3bbd
000002e0: 714e 2c3d ca71 813e 81db 4c3e 7b16 a5bd
000002f0: 65c0 653e 1308 12be d259 833e 9627 c2bd
00000300: 7e01 233e 3ff1 82be 42f0 283e bb88 453e
00000310: afd8 5fbd d6ef efbc 0899 0ebe 4c46 1c3e
00000320: c950 b5bd 1e14 783e 2125 38be 06b7 babd
00000330: e071 35bd 066d 843e bbbd fc3d 7119 28bd
00000340: 44c5 2a3e d41f 81be 1481 e4bd 88db 653e
00000350: 3b44 a63b 368a 26be b783 21be d830 0e3e
00000360: 4414 8f3c afa3 ab3d 19f2 14be cf2a b83e
00000370: 8acf 323d 9b42 5d3e 522a 213e 5bb6 91be
00000380: 8eeb 813e 10c4 9abe f4df 05be 94c5 a33d
00000390: 2c36 96be 3d20 eebc 0699 84be 9800 03be
000003a0: 5e75 163c 9554 a8bd b262 f83d 6a52 a6bd
000003b0: ba75 d43d 3cd5 cf3c 050b 55be 0680 9dbe
000003c0: f2d3 143e 99da 96be ac19 fa3d cd5f 9f3e
000003d0: 97cf 333e 314b 4dbe 5603 7f3e 338b 1fbe
000003e0: c7b7 18be 5eaa ee3c dfa4 48be 57c8 73be
000003f0: 2561 013d e769 2e3e b0a8 6a3e 9145 653e
-0.07225088 0.30937794 -0.16023307 0.25950631 0.011241122 0.09019603 0.07956888 0.1666429
-0.06270713 -0.024242187 0.03397584 0.0987036 0.24576378 0.2721613 -0.23096925 -0.24334057
0.17850326 -0.09181118 -0.24114951 0.055600207 -0.2498488 -0.2118931 0.32738182 -0.39878827
-0.20156196 0.28868985 0.06250478 0.34359172 -0.14207652 0.11499346 0.24764793 0.091739185
0.19894238 0.005926094 0.045093406 -0.1860774 -0.137699 0.0673841 0.047367617 -0.10214781
0.004247509 -0.20116471 0.12588382 0.2025986 -0.25707033 -0.23882382 -0.0058517037 0.33543208
0.051147282 0.1405826 -0.2191507 0.2785539 0.17664891 -0.18700899 0.101117216 -0.05663474
0.17712353 -0.14894588 -0.26596943 -0.2507747 0.15617624 0.27544346 -0.23726737 -0.124362856
0.16506547 -0.1430161 -0.2135821 -0.16997734 -0.12892388 -0.21861023 -0.08030969 0.037619345
0.08803204 0.24192014 -0.25991255 -0.10691013 -0.10638936 -0.17168826 0.17276902 -0.17489007
-0.084575705 -0.19820058 0.0055730087 0.014914843 -0.1425172 -0.06949074 -0.16613686 0.05025337
0.09288358 -0.15869908 -0.07543486 -0.04622391 -0.19082914 -0.16306037 0.07887357 0.0042726016
0.1134942 0.039392397 0.0015656818 -0.2698942 0.010506039 0.26927647 0.22123511 0.25961545
-0.083462566 0.03550554 0.28637952 -0.066655055 0.1263581 0.02200446 0.24115251 -0.14654642
0.017041478 -0.28580698 -0.0834478 0.15785883 0.14713965 0.280517 -0.18335651 0.089679696
-0.09931761 0.26578578 0.1988593 0.21020167 -0.19059992 0.2870534 -0.17686859 -0.12155168
0.21819459 -0.046365816 0.12340841 0.25768644 0.027008029 0.15068908 -0.0393395 0.13574862
0.0993842 -0.07274721 -0.22542924 0.05771097 0.16828066 0.0013696692 0.08757471 0.1470543
-0.21454898 -0.15772833 -0.029396558 -0.2816727 -0.06585763 -0.11889475 -0.24659301 0.14644624
0.021224521 0.11137871 -0.022725206 -0.07023253 -0.07289426 -0.18700819 -0.0792965 0.16482306
-0.03374849 -0.031957153 0.2444482 0.29757988 0.25236154 0.2897371 0.32151112 -0.08705926
-0.35235724 0.09360654 0.1690936 0.01117135 0.13422301 -0.22720137 -0.010477774 0.2524201
-0.27077717 -0.06454364 0.08599795 -0.2803612 -0.04595212 -0.10899388 0.179575 -0.045670826
0.042066995 0.25282127 0.20005609 -0.080609284 0.22436674 -0.14260893 0.25654465 -0.09480207
0.15918538 -0.2557468 0.16497901 0.1929044 -0.054650005 -0.029289167 -0.13925564 0.15261191
-0.08853299 0.24226424 -0.17982914 -0.0911694 -0.044298053 0.25864428 0.12340876 -0.041039888
0.16676813 -0.25219595 -0.11157432 0.22447026 0.0050740517 -0.16263661 -0.15772901 0.1388582
0.017465718 0.083808295 -0.14545478 0.3597016 0.043654956 0.21607439 0.157388 -0.2845944
0.25375026 -0.3022771 -0.13073713 0.079966694 -0.29338205 -0.029068107 -0.25897998 -0.12793195
0.009183256 -0.08219258 0.121282 -0.08121188 0.10374017 0.025370233 -0.20804985 -0.30761737
0.14533976 -0.29463652 0.12211928 0.31127778 0.17559658 -0.20048214 0.24903616 -0.15580444
-0.14913855 0.029133972 -0.19594143 -0.23806892 0.031586785 0.17032586 0.22915912 0.22389819

encoder.feature_encoder.atom_embedding_list.7.weight f4 [2, 64]
00000000: 9c67 b73e 6667 7a3e 60f4 78be 568f 33bd
00000010: f83e 973e 8d99 8fbe f915 6a3e 84fc 253e
00000020: 75df 763e 016a 31be 6b9f 983e 51f0 893d
00000030: c126 643e 89bb d53d 6677 24bd e07a 87be
00000040: da1b 91be 31c0 8c3e 080d 273e 0959 bcbd
00000050: 6e56 803e 9b4a 67be d87f 333e afce a93e
00000060: 4f7c 19be 8500 fa3d a0d5 7b3e b149 52bd
00000070: ad5a 473c b8c4 163e 8202 b4bd 54ad 2abe
00000080: 055f ac3d 3c10 a6be 0455 adbe 4085 653d
00000090: 1ce3 59be 8484 b43d 685a c03d 5099 e2be
000000a0: 2802 25be 63e5 b33e 1df3 28be c761 1dbd
000000b0: c570 eabd 42f7 1b3e d157 223e d4cf aa3d
000000c0: 413d 5abe 2a5f 643d cbe5 663e 241d 943e
000000d0: 158a a9be 6c36 393e 59bc e7bd fb20 89bd
000000e0: 681d 5dbe 1427 c23d 342e 16be 38dd 4dbe
000000f0: c320 123d f1c3 143e 51cc 5a3e 5e03 693e
00000100: ffaf d1be eb03 a2bd 0260 393d 0d02 8cbe
00000110: 8220 81be 36bf 03be ef9d 103e dd9f 293e
00000120: 3a05 babd 6ca1 0ebe 6570 bb3c ab81 e03c
00000130: 6c39 803e 13ca 643e fd6f 203d af3e 43bd
00000140: 379f 483e 5095 3a3d b875 433e 0139 8f3e
00000150: 814d f03d b6aa 22bd 47cb 96be 1d18 cbbd
00000160: 046d e83d cc5e 883e 9f6c 983d 8e7a a1be
00000170: 43cf 83be 9c15 973e adc3 04be 458f 47bd
00000180: b111 aebd f48a 6f3e c63c a23e d1bc 253d
00000190: 24ff 843e 719c 913e f3df e5be 1486 97bc
000001a0: 3b05 2cbe b3cb 8c3d 2f15 9c3e a2f0 283d
000001b0: f715 683e 0f01 a4be dbd4 07bd ec22 0a3d
000001c0: 2109 1d3c 0ba3 8b3e 2c56 3ebe 60c7 823e
000001d0: 2400 8a3c 46c2 d4bc a393 95bd dddb 5b3e
000001e0: b7a0 17be 1cf9 9abc 7687 233e e0ae 843e
000001f0: 4f54 f7bd c144 b03c 6b28 c8bd 950e b2be
0.35821235 0.24453506 -0.24311972 -0.043837868 0.2954023 -0.28046837 0.22859944 0.16209608
0.2410868 -0.17325594 0.29809126 0.0673529 0.22280408 0.1043616 -0.04015293 -0.26460934
-0.28341562 0.2749038 0.16313565 -0.091966696 0.2506594 -0.22587053 0.17529237 0.331655
-0.14988826 0.1220713 0.2459321 -0.05133981 0.012167615 0.1472348 -0.08789541 -0.16667682
0.08416561 -0.3243426 -0.33853924 0.05603528 -0.21278042 0.08814338 0.093922436 -0.44257593
-0.16114104 0.35135946 -0.1649899 -0.038423326 -0.1144729 0.1523104 0.15853812 0.08340421
-0.21312429 0.055754818 0.22548597 0.28928483 -0.3311316 0.18087167 -0.11315221 -0.06695744
-0.21593249 0.0948011 -0.14666063 -0.2010392 0.035675775 0.1452787 0.21367003 0.2275519
-0.40954587 -0.079109035 0.045257576 -0.27345315 -0.25220114 -0.1286591 0.14122747 0.16564889
-0.09083028 -0.13928765 0.022880742 0.02740558 0.2504381 0.2234271 0.0391693 -0.0476672
0.19591986 0.04555255 0.19087875 0.27973178 0.11733533 -0.039713584 -0.29451963 -0.099167086
0.11348918 0.26634824 0.07442593 -0.31538814 -0.25744066 0.29508674 -0.1296527 -0.048720617
-0.08499468 0.2339285 0.3168699 0.040463272 0.25975907 0.28439668 -0.44897422 -0.01849655
-0.1679887 0.0687479 0.30484912 0.04124511 0.22664629 -0.32032058 -0.03316198 0.03372471
0.009584696 0.2727283 -0.1858756 0.25542736 0.01684577 -0.025971543 -0.0730355 0.2147059
-0.14807402 -0.018917613 0.15969643 0.2591467 -0.120766275 0.02151716 -0.09773334 -0.3477675

encoder.feature_encoder.atom_embedding_list.8.weight f4 [2, 64]
00000000: 4c9b 46be 9e24 ca3b ae3e f83d 5a7c 82bc
00000010: e914 4a3e 90c9 653d cf41 9a3e 144c 77bd
00000020: 51cd 7dbc d516 8cbe dc39 2ebe c85d ecbd
00000030: c6b8 c53c 9aee 233c 6f49 d93d 103b 163e
00000040: b76e a3be 7473 953e 3100 86bd a768 42be
00000050: a8a1 2c3e 10cd 983d 5eee 2dbe 2454 c13c
00000060: 4632 583e 4fc4 f03d 7a9d abbd a2b9 963c
00000070: f998 953d 8909 993e 819c c0bd 036f 9a3e
00000080: ea9d 64bd b76f 7f3e a665 8ebb 7764 14be
00000090: 9683 7b3e a05f 5a3e c73a 4abc 8ffc 92be
000000a0: 7174 64be e303 083d 0f0e 9abe 790a 50be
000000b0: 2e1a 24be 390c 04bd 667a a73d 8b10 45be
000000c0: ea8e 39be 28eb ae3d 6240 723c af34 463e
000000d0: ee6b 46be 3932 19be 25f5 43bd 713d 4fbe
000000e0: 7d07 853e 5d49 2abd 3663 a63e 66ed 3c3e
000000f0: ee12 65bd 86f9 e6bd a293 553e 13f5 56be
00000100: c43c 9e3e aba3 aa3d 4fa3 283d 5d53 883e
00000110: 1e33 78be 39c4 14be 50e4 21be fa19 7bbe
00000120: 273d 363e dcac 5c3e e481 553e eddf 5e3e
00000130: de97 13be d3b7 9ebc 0646 233e dc7e 1cbe
00000140: 8242 3c3e 68ef 823e f043 68be 8425 8fbd
00000150: 437f db3d 9cec 6ebe 22c5 a9bd fccf 8d3e
00000160: 651d 8a3d cc09 27be c0ab 14bd 6e61 94bd
00000170: 7969 853e d789 59be b644 51bd 79ae 50bc
00000180: 87db 613e 2fd9 613e a945 36bd af21 a8bd
00000190: 72c7 933e de95 393c d6a0 08be aa4f 943e
000001a0: 7ee2 e63d 5b20 0f3d 13a1 963e acf0 2ebe
000001b0: 67c6 a03e a93f d03d 385e 36be 6419 863e
000001c0: 793a a83d dd47 80be 866d 653e d914 35be
000001d0: 2d32 1b3e 36ea 283e 7cd4 193e 3898 9bbe
000001e0: 7933 0a3e d570 853e f42d 3c3e bac1 f63c
000001f0: 5f92 84be 932b 823e 2516 4cbd d353 e0bc
-0.19395179 0.006168916 0.1212133 -0.015928436 0.19734539 0.056100428 0.30128333 -0.060375288
-0.015490846 -0.2736117 -0.17014259 -0.11541325 0.024135958 0.0100056175 0.106097095 0.14670968
-0.31920406 0.29189646 -0.06543005 -0.18985234 0.16858542 0.074609876 -0.16985461 0.023599692
0.21112928 0.11756193 -0.08379646 0.018399063 0.07304568 0.29890087 -0.09404851 0.3016282
-0.05581466 0.2494496 -0.0043456135 -0.1449145 0.24561915 0.2132554 -0.012343115 -0.28708312
-0.22310044 0.03320683 -0.3008885 -0.20316495 -0.16025612 -0.03223822 0.081776425 -0.19244592
-0.18120924 0.08540946 0.014785858 0.19356035 -0.1937711 -0.14960565 -0.04784121 -0.20238282
0.25982276 -0.04157387 0.32497567 0.18449935 -0.055926256 -0.112780616 0.20857099 -0.20991926
0.30905735 0.083319984 0.04117137 0.266261 -0.2423825 -0.14527978 -0.1580975 -0.24521628
0.17796765 0.21550316 0.2085033 0.21765108 -0.14413401 -0.019374764 0.1594468 -0.15282768
0.18384746 0.25573277 -0.22682166 -0.069895774 0.107176326 -0.23332447 -0.08289553 0.27697742
0.06743888 -0.16312331 -0.036296606 -0.07245146 0.26057032 -0.21243988 -0.05109092 -0.01273691
0.220564 0.22055505 -0.044500027 -0.0820955 0.28863102 0.011327235 -0.13342604 0.2896703
0.11273669 0.034942966 0.29419765 -0.17083997 0.3140137 0.10168392 -0.17809379 0.26191247
0.08214278 -0.25054827 0.22405061 -0.17683734 0.1515586 0.16495594 0.15022463 -0.3038957
0.13496198 0.26062647 0.18376905 0.030121673 -0.25892922 0.2542387 -0.049825806 -0.02738372
