checkpoints/tuning_multi/trial_46/final_model.pt (torch, 520443 bytes, 104 tensors)

encoder.feature_encoder.atom_embedding_list.0.weight f4 [119, 64]
0.19418164 0.03766275 -0.023429988 0.13045283 -0.12766215 -0.19284722 -0.10798187 0.1276093
0.19619648 -0.05871753 -0.09721663 -0.19247924 0.07073167 -0.007365288 0.17067061 -0.08752938
0.16412294 0.11619964 0.114353 0.082766466 -0.09774273 0.0014197172 -0.12669802 -0.014524608
0.10648741 -0.1116027 0.12181621 0.050259378 -0.040767565 -0.06577975 -0.1760205 0.03345089
0.010596266 0.14200121 0.09171972 0.02214795 -0.0139949275 0.07410962 -0.026957927 0.0665069
-0.06932153 0.13107167 0.044987217 0.106153674 -0.003744969 0.08351937 0.21336176 0.022258054
0.16410531 -0.15440604 -0.017571984 -0.19953904 0.008788755 0.049512897 0.01324677 -0.07707494
0.14826214 -0.05669377 -0.06068446 0.17417675 -0.19665799 0.030044623 -0.14233656 0.019198189
-0.14590104 -0.12980863 -0.09154566 0.17327622 0.13078165 0.027894452 -0.027812708 0.13348176
-0.08602399 0.045038447 -0.13015154 0.012813935 0.10535312 -0.17587195 0.1767203 0.027152201
0.15818661 -0.08498519 0.10543228 -0.09506289 0.16497608 -0.1450177 0.10710053 -0.096424125
0.16313735 -0.14665596 -0.05651262 -0.029536739 -0.05205548 -0.0024582949 0.05447689 0.11087627
0.12782107 -0.06917621 0.13018093 0.04361515 -0.09027772 0.05625664 -0.020642439 0.18927984
0.037311524 0.14464773 0.014300827 -0.11973754 0.052194864 -0.09826718 -0.08278397 -0.037522458
-0.14914969 0.054881275 0.124371044 -0.18696825 0.092874475 -0.121689916 -0.19216785 0.062444996
0.031699687 -0.07859004 0.120404206 -0.017149039 -0.13215536 0.10127969 0.029768923 -0.023825351
-0.12890333 -0.00023054935 0.11300346 -0.09226043 0.14532416 -0.17794655 -0.062237903 -0.009031945
-0.12303765 0.06471544 -0.109848335 0.21619228 0.016648939 -0.0030346876 -0.09653155 -0.012957739
0.04395874 0.18037327 -0.18555593 -0.123201236 -0.018553825 -0.13006833 -0.023837624 -0.12906343
0.13128914 0.1560659 -0.06534362 0.10740804 -0.043652806 -0.08052527 0.060143 -0.14438652
0.02300242 -0.108246416 -0.12734461 -0.039194323 0.11008458 -0.011261265 -0.1106878 -0.17331627
-0.027470361 0.12437849 0.06707768 0.18411247 -0.08579328 0.13497753 -0.15763816 0.12962526
0.05765616 0.0476441 -0.034339014 -0.15820898 -0.06666667 -0.01710965 -0.09615846 0.07568214
0.011468074 0.083476335 -0.1814102 0.03508773 -0.020448014 -0.13682027 0.00055367243 -0.14556277
-0.13820976 0.13500267 0.14821279 -0.12577157 0.039268836 -0.09326673 0.16943894 0.110543706
0.071995504 -0.14762886 -0.08906347 -0.038054053 -0.16188858 -0.10582171 0.047673047 -0.14740567
0.048177455 -0.004137965 -0.014911197 -0.05289151 -0.09731315 -0.16929178 -0.12321702 0.13675027
-0.013421458 0.17631826 0.009546015 -0.021342978 0.10858781 -0.17047308 -0.11223156 0.103870384
-0.047223575 0.14325662 -0.016534355 0.12913159 0.008794044 0.018804297 -0.15293911 -0.062575996
0.009078864 0.08273273 0.03513348 -0.03931358 0.0012224893 0.15565413 0.120786175 0.06178496
-0.13049395 -0.060883597 0.11560348 0.16299626 -0.085601665 0.07693815 -0.042399473 0.11486493
-0.027207581 -0.14393501 -0.17923315 -0.0067842924 0.053380832 -0.106740616 0.14246227 0.08588759
00000000: 8dd7 463e 4144 1a3d 3ff0 bfbc 6d95 053e
00000010: deb9 02be be79 45be 9925 ddbd 03ac 023e
00000020: bbe7 483e cb81 70bd 8319 c7bd 4719 45be
00000030: c4db 903d 8458 f1bb 47c4 2e3e 9b42 b3bd
00000040: d80f 283e 14fa ed3d e831 ea3d 7781 a93d
00000050: 572d c8bd ce15 ba3a 20bd 01be 9ff8 6dbc
00000060: 1216 da3d f58f e4bd c77a f93d c7dc 4d3d
00000070: e4fb 26bd 89b7 86bd b83e 34be cd03 093d
00000080: f69b 2d3c c468 113e 8cd7 bb3d 9e6f b53c
00000090: fb4a 65bc c9c6 973d dfd6 dcbc c534 883d
000000a0: 72f8 8dbd a737 063e 8444 383d 1967 d93d
000000b0: 276e 75bb 340c ab3d 817b 5a3e 8656 b63c
000000c0: 390b 283e 9e1c 1ebe 1ff3 8fbc f653 4cbe
000000d0: b6fe 0f3c 09ce 4a3d fb08 593c 77d9 9dbd
000000e0: 08d2 173e ba37 68bd 4590 78bd 645b 323e
000000f0: b660 49be 2420 f63c adc0 11be 8545 9d3c
00000100: 1567 15be 8eec 04be 4a7c bbbd 526f 313e
00000110: a0eb 053e e882 e43c 7ad7 e3bc 71af 083e
00000120: 582d b0bd 3c7a 383d 7246 05be 8af1 513c
00000130: 60c3 d73d c717 34be 2bf6 343e 4b6e de3c
00000140: acfb 213e b70c aebd e1ec d73d 55b0 c2bd
00000150: 7def 283e 857f 14be 8657 db3d 037a c5bd
00000160: 7a0d 273e fb2c 16be c779 67bd 08f7 f1bc
00000170: 2138 55bd 581b 21bb 2923 5f3d 1913 e33d
00000180: 87e3 023e 42ac 8dbd 264e 053e cda5 323d
00000190: 86e3 b8bd 5d6d 663d 551a a9bc 93d2 413e
000001a0: f8d3 183d 891e 143e 044e 6a3c f538 f5bd
000001b0: 48ca 553d 4e40 c9bd a48a a9bd 26b1 19bd
000001c0: b2ba 18be 30cb 603d 3fb6 fe3d 9b74 3fbe
000001d0: f934 be3d 9038 f9bd a6c7 44be 53c6 7f3d
000001e0: 88d7 013d d1f3 a0bd 7b96 f63d 247c 8cbc
000001f0: bc53 07be ba6b cf3d f5dd f33c 622d c3bc
00000200: 3cff 03be 9fbf 71b9 5c6e e73d 09f3 bcbd
00000210: dbcf 143e 9f37 36be 2ced 7ebd b9fa 13bc
00000220: 2afb fbbd 8789 843d 2af8 e0bd 8261 5d3e
00000230: 5b63 883c 9ce1 46bb 55b2 c5bd b24c 54bc
00000240: 140e 343d c5b3 383e 6002 3ebe ee50 fcbd
00000250: 31fe 97bc a230 05be 1f47 c3bc 3429 04be
00000260: a970 063e bdcf 1f3e e0d2 85bd bff8 db3d
00000270: 49cd 32bd 6fea a4bd 8258 763d 0fda 13be
00000280: 926f bc3c 4cb0 ddbd a066 02be 3a8a 20bd
00000290: 0674 e13d 2b81 38bc 49b0 e2bd d279 31be
000002a0: 8609 e1bc 26ba fe3d 0660 893d fb87 3c3e
000002b0: 63b4 afbd 8d37 0a3e e66b 21be 7cbc 043e
000002c0: de28 6c3d 7626 433d 11a7 0cbd 8901 22be
000002d0: 8988 88bd 8929 8cbc baee c4bd 3dff 9a3d
000002e0: 97e4 3b3c a4f5 aa3d 98c3 39be 27b8 0f3d
000002f0: 9882 a7bc 9d1a 0cbe 5424 113a 680e 15be
00000300: dc86 0dbe 243e 0a3e 18c5 173e 43ca 00be
00000310: 5cd8 203d a102 bfbd 6781 2d3e bd64 e23d
00000320: 6172 933d 052c 17be e966 b6bd 91de 1bbd
00000330: 1fc6 25be 0db9 d8bd d044 433d 83f1 16be
00000340: b955 453d c497 87bb 184e 74bc c5a4 58bd
00000350: 1e4c c7bd d35a 2dbe 3459 fcbd 4308 0c3e
00000360: ade5 5bbc c68c 343e e466 1c3c 78d7 aebc
00000370: 4963 de3d 7f90 2ebe a9d9 e5bd ffb9 d43d
00000380: 826d 41bd ddb1 123e 0e73 87bc 123b 043e
00000390: e514 103c 780b 9a3c 129c 1cbe d827 80bd
000003a0: 84bf 143c c76f a93d 20e8 0f3d 4707 21bd
000003b0: ef3b a03a cc63 1f3e be5e f73d 3a12 7d3d
000003c0: 35a0 05be 1461 79bd 84c1 ec3d 7ee8 263e
000003d0: ed4f afbd c091 9d3d 12ab 2dbd 4e3e eb3d
000003e0: 6fe2 debc b363 13be e588 37be c54e debb
000003f0: dca5 5a3d d39a dabd a1e1 113e d5e5 af3d

encoder.feature_encoder.atom_embedding_list.1.weight f4 [5, 64]
-0.12862732 -0.10595153 0.05767618 0.13280512 0.09003494 0.21883245 0.07806954 0.13474113
-0.005270889 0.25059828 0.22314872 0.10673452 -0.26949733 -0.015331 -0.09382495 -0.06923056
0.17992467 -0.18344733 -0.12032398 -0.15315713 -0.053166572 -0.19785252 0.051459946 -0.24285375
-0.13300397 0.15451276 0.1927537 -0.08379768 -0.039489828 -0.001650419 -0.19622572 -0.055037323
0.10666526 -0.031786315 0.20804232 -0.22994632 -0.2588028 -0.22039 -0.17851178 0.10369868
0.21935143 -0.20286836 -0.23353311 -0.107644975 0.1945077 0.09963029 -0.03298627 0.22209795
0.102920935 0.1911531 -0.035394102 -0.18952541 0.016721068 0.07771431 0.13968542 0.023348562
-0.011440091 0.046546802 -0.060742345 0.0017914594 -0.13568714 -0.056592174 0.16407382 0.092025705
0.19242097 -0.17380056 -0.090762846 -0.15344444 -0.16142343 -0.12916422 0.0076978095 -0.054426115
-0.059918337 -0.11274153 -0.011520858 0.07800617 0.20908177 0.20254666 -0.2645678 -0.18530293
0.28319356 0.15643182 0.21099608 -0.18836033 0.27553195 -0.32599935 -0.24086158 0.060163997
0.16658823 -0.29718754 0.03353903 0.04470365 -0.076826364 -0.19087765 -0.14523792 -0.067001544
0.086429946 0.18911691 -0.09574816 0.3116548 0.111078225 -0.22364844 -0.28252354 0.17624101
0.030297022 -0.049936976 -0.14102407 0.13921364 -0.08012503 -0.20616381 0.20095298 -0.17611863
0.12949374 -0.21027851 -0.04733988 -0.17533445 -0.020172536 -0.00876391 0.050565355 -0.22872664
-0.23802052 0.23762345 -0.22905256 0.09854211 -0.24277012 0.021183576 0.017956879 -0.14372502
-0.006072277 0.036204748 0.008251968 0.22308917 -0.16890821 0.13353075 0.27158967 -0.21180639
-0.23096813 0.099663675 -0.104682565 -0.0066504017 -0.27507505 0.18012421 -0.019469118 0.018129371
-0.10250452 0.1023668 -0.0048358086 -0.117522895 0.07325179 -0.109491125 0.109437734 -0.2824334
-0.11409964 -0.20204668 0.12545842 -0.20707189 0.22847846 0.071800925 0.18072757 -0.19235748
-0.23954427 -0.048390992 -0.1620269 -0.099882364 0.24239556 0.15761021 -0.08712597 0.17906459
-0.19751793 -0.17135388 0.13061634 0.12731007 -0.085262515 -0.20123239 0.04609062 0.28446937
0.29022703 0.24192265 -0.22113484 0.19547413 0.05400192 -0.23934622 0.018939294 -0.28477553
0.0633044 -0.16214852 -0.19840838 0.014348606 0.1988903 0.16551444 -0.18248539 0.16773073
0.109718956 -0.19685487 -0.07606068 -0.0706652 -0.23967639 -0.2690761 -0.2002451 0.26807418
-0.078351565 0.028306205 -0.24486938 -0.05072293 0.11140949 -0.005975712 -0.02317325 -0.00392795
0.19827491 -0.20773533 -0.26481292 -0.28403232 0.11990514 -0.16426279 -0.12897252 -0.03900334
0.17287458 0.0025629278 0.057720114 -0.08283141 0.16048674 -0.14711075 0.22730407 0.24272998
-0.26526386 -0.09337159 -0.03553371 -0.15878773 0.015833395 -0.09678634 0.2441279 -0.023329364
-0.16483764 -0.14642836 -0.2755947 -0.18123668 0.057252157 0.08907471 -0.12709394 0.0030003001
0.14795926 0.038978837 0.033220615 -0.19344744 0.2772416 -0.087057 0.024326475 -0.036314845
0.12811099 -0.24425136 0.06710836 -0.22889031 0.23275572 -0.1162344 0.06019794 0.01951457
00000000: e1b6 03be 1efd d8bd dc3d 6c3d 11fe 073e
00000010: 3d64 b83d 9d15 603e ece2 9f3d 94f9 093e
00000020: 6cb7 acbb 6b4e 803e 1981 643e a197 da3d
00000030: 8efb 89be e02e 7bbc 4c27 c0bd c0c8 8dbd
00000040: 2c3e 383e 9ed9 3bbe 6b6c f6bd 39d5 1cbe
00000050: 31c5 59bd da99 4abe aac7 523d a7ae 78be
00000060: 3132 08be 9838 1e3e 3a61 453e 1e9e abbd
00000070: 16c0 21bd df52 d8ba 65ef 48be d16e 61bd
00000080: 5173 da3d 5e32 02bd 0c09 553e 0c77 6bbe
00000090: cd81 84be ebad 61be cbcb 36be f95f d43d
000000a0: a99d 603e b9bc 4fbe 4e23 6fbe f874 dcbd
000000b0: 072d 473e f70a cc3d 9c1c 07bd a56d 633e
000000c0: 36c8 d23d a3bd 433e 68f9 10bd f312 42be
000000d0: 9ffa 883c ae28 9f3d b209 0f3e 7c45 bf3c
000000e0: 386f 3bbc dca7 3e3d f7cc 78bd 67cf ea3a
000000f0: 92f1 0abe 32cd 67bd f802 283e f977 bc3d
00000100: 010a 453e c6f8 31be dfe1 b9bd 8a20 1dbe
00000110: 2f4c 25be a043 04be e83d fc3b ebed 5ebd
00000120: ee6c 75bd 08e5 e6bd fbc1 3cbc b3c1 9f3d
00000130: 8819 563e 6468 4f3e 6e75 87be 0dc0 3dbe
00000140: bffe 903e aa2f 203e 5b0f 583e 88e1 40be
00000150: 8612 8d3e 63e9 a6be 6ba4 76be 866e 763d
00000160: 1b96 2a3e f728 98be 3960 093d 2d1b 373d
00000170: 2457 9dbd 6e75 43be 40b9 14be 1b38 89bd
00000180: 2f02 b13d dda7 413e 9c17 c4bd 3891 9f3e
00000190: fb7c e33d 1904 65be eda6 90be 8678 343e
000001a0: 7631 f83c b78a 4cbd 9d68 10be 058e 0e3e
000001b0: 9718 a4bd 9b1c 53be 9ec6 4d3e 7158 34be
000001c0: 029a 043e 4053 57be 76e7 41bd e08a 33be
000001d0: e040 a5bc 8196 0fbc 9e1d 4f3d 5137 6abe
000001e0: a7bb 73be 9053 733e c18c 6abe 72d0 c93d
000001f0: bb98 78be 2e89 ad3c 4e1a 933c a72c 13be
00000200: f4f9 c6bb 6e4b 143d 4333 073c 7d71 643e
00000210: 46f6 2cbe 49bc 083e cd0d 8b3e c6e3 58be
00000220: e982 6cbe 781c cc3d d063 d6bd 9deb d9bb
00000230: a3d6 8cbe 7b72 383e b37d 9fbc 0c84 943c
00000240: e4ed d1bd afa5 d13d b475 9ebb d8af f0bd
00000250: 0905 963d e23c e0bd e420 e03d 1c9b 90be
00000260: 12ad e9bd 53e5 4ebe 2c78 003e a70a 54be
00000270: 42f6 693e 5d0c 933d a610 393e 5cf9 44be
00000280: 184b 75be a235 46bd 61ea 25be 208f ccbd
00000290: 8b36 783e 9264 213e 1a6f b2bd b55c 373e
000002a0: 2442 4abe 6477 2fbe 4ac0 053e 925d 023e
000002b0: 1d9e aebd dd0f 4ebe 85c9 3c3d f8a5 913e
000002c0: a398 943e 92ba 773e 2c71 62be 5f2a 483e
000002d0: 1e31 5d3d 2d17 75be 9426 9b3c 19ce 91be
000002e0: bda5 813d 430a 26be 912b 4bbe 6a16 6b3c
000002f0: e6a9 4b3e 9e7c 293e 73dd 3abe 9bc1 2b3e
00000300: 55b4 e03d 5394 49be b4c5 9bbd ebb8 90bd
00000310: ba6d 75be 58c4 89be 0d0d 4dbe 0541 893e
00000320: c976 a0bd 6ae2 e73c 0abf 7abe d9c2 4fbd
00000330: a92a e43d e8cf c3bb d4d5 bdbc 08b6 80bb
00000340: 9408 4b3e 92b8 54be 8f95 87be af6c 91be
00000350: d390 f53d 8134 28be 5f11 04be f7c1 1fbd
00000360: 0906 313e cbf6 273b ed6b 6c3d 84a3 a9bd
00000370: a356 243e 33a4 16be 66c2 683e 358e 783e
00000380: aad0 87be 9b39 bfbd cc8b 11bd 4099 22be
00000390: 09b5 813c eb37 c6bd aafc 793e 391d bfbc
000003a0: 33cb 28be 51f1 15be c01a 8dbe 1c96 39be
000003b0: 3d81 6a3d cd6c b63d ea24 02be afa0 443b
000003c0: a282 173e 46a8 1f3d 5712 083d 1617 46be
000003d0: 9cf2 8d3e f14a b2bd 5148 c73c e0be 14bd
000003e0: 872f 033e 071d 7abe 1c70 893d 3962 6abe
000003f0: 8457 6e3e 4d0c eebd 1d92 763d 05dd 9f3c

encoder.feature_encoder.atom_embedding_list.2.weight f4 [12, 64]
0.008307066 -0.12589292 -0.21302654 -0.058053456 0.1360931 -0.25144458 0.28223735 -0.1936778
-0.0015655366 0.29859364 -0.15367047 -0.26549286 -0.12502858 -0.10381898 -0.16724722 -0.26890454
-0.16554175 -0.04789612 0.34109488 -0.04197045 0.0121429525 -0.115266316 0.022621136 0.17681721
0.05981655 -0.062257927 0.057322368 0.32193375 -0.20667577 0.25896445 -0.063416995 0.1630804
0.21257417 -0.0077423635 -0.006261586 0.21757852 -0.044747528 0.098810084 0.25344738 -0.07188942
-0.13241723 0.25659952 0.22097886 0.30429828 -0.267479 0.1277859 0.12876298 -0.17648128
0.216108 -0.18524057 0.10709874 -0.037195083 0.08120549 -0.13153113 -0.051365852 -0.1527473
0.15788406 -0.23989436 0.008122544 0.12566823 -0.0034005598 -0.08757208 0.05563556 -0.0027081803
-0.14433977 -0.08549193 -0.08570789 -0.20224428 -0.008935719 -0.04125872 -0.121347345 -0.20547593
-0.16097091 -0.010848655 0.30581263 -0.0017814371 -0.13489072 -0.19520736 0.030816484 0.22568358
-0.23912565 0.23761538 0.2280831 0.0026557 0.17761855 0.045873705 -0.22469528 -0.059449393
-0.11476027 -0.13725649 -0.016130375 0.098463684 0.020934133 0.2188241 -0.16558295 0.2330369
-0.091991484 0.29473755 0.21240395 -0.26610285 -0.269273 0.21173604 0.24596746 -0.003304001
0.097815394 0.08679203 -0.124354035 0.115808465 0.06918658 -0.21635598 -0.050486416 -0.08708835
0.13457832 -0.25895837 -0.2706897 -0.24582514 -0.103758395 -0.26031065 -0.108234294 -0.21341631
0.22758992 0.26859275 0.09328155 -0.071597725 0.10283671 -0.22194193 -0.104822285 -0.056488324
-0.30996203 0.24705218 0.18721357 0.07920476 0.09803276 0.29815394 -0.121988446 0.09532345
-0.146934 -0.06963386 -0.23380725 0.1842437 -0.20458785 -0.18673718 0.32335046 -0.21457879
0.096159905 -0.28364354 -0.24069363 0.28565624 0.08434928 0.0119054 -0.16108218 0.20910832
0.29352456 0.052745953 -0.26184008 -0.03430152 0.14042416 0.01439658 0.20172338 0.21327361
0.1343611 -0.31094703 -0.0065232324 0.17774022 -0.0633333 0.0099415695 0.16811419 -0.051074915
-0.046399083 -0.13834344 0.037670996 0.1681886 0.29511973 0.0073149926 0.08459922 -0.3987392
-0.08354563 -0.06658136 -0.08861366 0.25477365 0.17034373 -0.2722372 -0.31800175 -0.10819117
0.071911134 0.13290499 0.16874518 0.14023094 -0.17070933 0.03430242 -0.22520193 -0.16290422
-0.029311677 -0.056241244 -0.26306152 -0.02923769 0.13521896 0.21200164 -0.09370307 0.16263036
-0.06181906 -0.17270154 0.20118861 -0.11573067 -0.03860244 0.0147013925 0.19396731 -0.12234267
-0.093175136 0.01688764 -0.07588821 0.071539626 0.24182212 0.0963516 -0.058889546 -0.05936059
-0.39915967 -0.22070144 -0.09586475 0.14018193 0.23033616 0.042373087 -0.04686827 0.254902
-0.13619834 -0.23028079 0.12930559 -0.18725862 -0.2507403 0.051368207 -0.17847523 -0.20639546
-0.19913036 -0.026084844 0.06828376 -0.11641875 -0.2237555 -0.13369018 0.3064788 -0.08713651
-0.22383171 -0.12882175 0.22031449 0.047928773 -0.039388683 0.28206146 -0.048171327 0.070261076
0.21330526 -0.049416352 -0.084582485 0.1630506 0.16798238 -0.23335086 0.23886567 -0.08492953
00000000: 5c1a 083c 13ea 00be a123 5abe 76c9 6dbd
00000010: fd5b 0b3e 58bd 80be 6a81 903e 7953 46be
00000020: b132 cdba 44e1 983e cb5b 1dbe aeee 87be
00000030: 7e07 00be 0c9f d4bd db42 2bbe dbad 89be
00000040: c783 29be b92e 44bd fda3 ae3e 35e9 2bbd
00000050: 3cf3 463c bf10 ecbd f64f b93c 920f 353e
00000060: 3302 753d 2b02 7fbd dcca 6a3d 80d4 a43e
00000070: d0a2 53be fd96 843e c5e0 81bd 8cfe 263e
00000080: 0bad 593e a7b3 fdbb fe2d cdbb e7cc 5e3e
00000090: 2f49 37bd f15c ca3d dbc3 813e c33a 93bd
000000a0: 6298 07be 0361 833e 4848 623e fccc 9b3e
000000b0: 02f3 88be 4fda 023e 71da 033e 82b7 34be
000000c0: 6a4b 5d3e b4af 3dbe 9656 db3d df59 18bd
000000d0: 104f a63d 19b0 06be 0065 52bd ca69 1cbe
000000e0: 5cac 213e dea6 75be 6b14 053c 2caf 003e
000000f0: eddb 5ebb fe58 b3bd 1de2 633d ba7b 31bb
00000100: cecd 13be 6516 afbd 9e87 afbd 2019 4fbe
00000110: 1f67 12bc e7fe 28bd f584 f8bd 4868 52be
00000120: 8fd5 24be 8fbe 31bc 7993 9c3e 1c7f e9ba
00000130: cb20 0abe 70e4 47be da72 fc3c 9919 673e
00000140: 5bdd 74be 7251 733e 9e8e 693e 410b 2e3b
00000150: a3e1 353e 11e6 3b3d 8516 66be 3581 73bd
00000160: 6f07 ebbd f78c 0cbe d923 84bc 54a7 c93d
00000170: 0f7e ab3c 6d13 603e 948e 29be 3aa1 6e3e
00000180: 0866 bcbd d7e7 963e 6c80 593e a23e 88be
00000190: 27de 89be 55d1 583e e5de 7b3e f087 58bb
000001a0: 7053 c83d 05c0 b13d 54ad febd fd2c ed3d
000001b0: b2b1 8d3d 6c8c 5dbe d8ca 4ebd 605b b2bd
000001c0: e6ce 093e 3196 84be d797 8abe 96b9 7bbe
000001d0: 487f d4bd 7047 85be f1a9 ddbd ce89 5abe
000001e0: 550d 693e fd84 893e 660a bf3d d4a1 92bd
000001f0: 0e9c d23d bf44 63be 11ad d6bd 4d60 67bd
00000200: 58b3 9ebe 3ffb 7c3e eab4 3f3e 1b36 a23d
00000210: 66c5 c83d a2a7 983e 14d5 f9bd f138 c33d
00000220: de75 16be 329c 8ebd 2b6b 6fbe 61aa 3c3e
00000230: 7a7f 51be 0838 3fbe 318e a53e 8bba 5bbe
00000240: 7cef c43d ba39 91be 6478 76be 8941 923e
00000250: 51bf ac3d de0e 433c baf2 24be 7e20 563e
00000260: da48 963e 240c 583d e70f 86be c07f 0cbd
00000270: 5acb 0f3e a2df 6b3c 9390 4e3e 6664 5a3e
00000280: f595 093e 7334 9fbe d7c0 d5bb 8801 363e
00000290: e4b4 81bd f7e1 223c 2026 2c3e ee33 51bd
000002a0: f70c 3ebd e7a9 0dbe e74c 1a3d a239 2c3e
000002b0: ef19 973e 9bb2 ef3b 5b42 ad3d 8b27 ccbe
000002c0: f919 abbd cf5b 88bd 147b b5bd b171 823e
000002d0: 966e 2e3e ad62 8bbe 20d1 a2be 5593 ddbd
000002e0: 2546 933d 3f18 083e 89cb 2c3e b398 0f3e
000002f0: 6dce 2ebe b280 0c3d 569b 66be 5dd0 26be
00000300: 0b1f f0bc 385d 66bd 00b0 86be e183 efbc
00000310: d776 0a3e f516 593e 65e7 bfbd 9388 263e
00000320: fc35 7dbd acd8 30be 6304 4e3e 3404 edbd
00000330: 981d 1ebd 1cde 703c 5e9f 463e cb8e fabd
00000340: 9bd2 bebd f357 8a3c 476b 9bbd 5e83 923d
00000350: 38a0 773e fd53 c53d 2a36 71bd 1724 73bd
00000360: a85e ccbe 8fff 61be bd54 c4bd da8b 0f3e
00000370: 3edd 6b3e 678f 2d3d f1f8 3fbd 8482 823e
00000380: 9477 0bbe bace 6bbe af68 043e b9c0 3fbe
00000390: 0861 80be 7867 523d 36c2 36be 5559 53be
000003a0: d4e8 4bbe e2af d5bc 5bd8 8b3d f46c eebd
000003b0: 2920 65be 14e6 08be caea 9c3e a074 b2bd
000003c0: 2434 65be d9e9 03be 1f9a 613e f650 443d
000003d0: 0756 21bd 5c6a 903e 4c4f 45bd 0ae5 8f3d
000003e0: b26c 5a3e cd68 4abd 9539 adbd bdf6 263e
000003f0: 9303 2c3e 87f3 6ebe 3499 743e 89ef adbd

encoder.feature_encoder.atom_embedding_list.3.weight f4 [12, 64]
0.20754687 0.024103774 0.10099862 0.2323865 0.20774266 0.14562471 -0.19536048 -0.22230619
0.19837941 0.27799517 0.17267792 0.08485893 -0.02702268 0.13684243 -0.09325035 -0.04850822
0.26868019 -0.19932196 -0.16343595 -0.045465868 0.16966781 -0.26131752 0.1609442 0.055076927
0.03640846 0.16776426 0.15167172 0.008265731 -0.24495974 0.26001877 -0.08679146 -0.18323344
0.06720216 0.21122797 0.048234615 -0.14429553 -0.2143388 0.11954202 0.101943016 0.17617938
0.29119074 -0.14336963 0.056703635 0.27611905 -0.009287349 -0.1332395 -0.18563087 0.03091921
-0.1403109 -0.19836733 -0.30554354 0.05667042 -0.00877315 0.1371075 0.09359058 -0.27923214
-0.08610647 0.27818137 -0.02387022 0.22106142 -0.25167003 0.24758935 0.1445733 -0.22458771
0.121366985 0.22068162 0.117108986 0.10814476 -0.084458746 -0.15876712 -0.21141167 0.23851752
0.068535686 0.09567331 -0.12622757 -0.21111111 -0.030180492 0.17648442 0.24744402 -0.022380978
0.103532 -0.044632867 -0.05115955 0.2526817 0.08780887 0.23126441 -0.2613874 0.04863893
-0.07807549 0.20416921 0.18998799 0.1122768 0.16798824 -0.20267169 -0.08232545 0.0882241
-0.11305078 0.042355843 0.037473854 -0.21343975 -0.18844317 -0.22967888 -0.24498853 -0.086773485
0.091268815 0.12451307 0.14843307 0.047898784 -0.18172999 -0.23753382 0.21312165 0.027245328
0.24279724 -0.2753321 -0.13390866 0.019960275 0.20938118 -0.14715862 -0.12138225 -0.21315937
0.18932134 0.0363658 -0.17840442 0.18456024 -0.26601246 0.016732195 -0.14818142 -0.072610416
0.04179054 0.019522548 0.27408057 -0.273705 -0.09679456 -0.02140315 -0.14191705 0.21715792
0.12291068 0.21024454 0.23047888 -0.009662143 0.16104504 -0.061269045 0.19301079 0.05049334
0.0628949 0.12864433 -0.10665582 0.25415057 0.19066687 -0.06790475 -0.083173275 -0.24930882
0.1651126 -0.19274467 -0.3354038 0.23120955 0.10721856 0.25503585 -0.23504609 -0.15827799
-0.040907364 0.17370129 -0.21331105 -0.25781846 -0.11719677 -0.14577052 0.30363977 0.16170348
-0.18965428 -0.10389294 -0.028758947 -0.17584081 -0.18052498 0.27222872 -0.21969631 0.1444069
-0.10305355 -0.24479741 -0.100184694 -0.14526655 -0.19083397 -0.15458152 0.09338996 -0.14794779
0.16092975 -0.34072 0.0017160027 0.16598068 -0.18548504 -0.11196985 -0.27413625 -0.24489269
0.09723073 0.04831516 0.01122161 0.19826686 -0.012108949 -0.22233559 -0.29986498 0.08806221
-0.16811556 0.2228811 -0.048229855 0.26449063 -0.08768873 -0.11328707 -0.27834427 0.21728018
-0.22023621 0.15514567 -0.109094985 -0.21640694 -0.11343042 0.13603348 0.24361464 -0.24819714
-0.20950954 0.08772442 0.12624346 -0.1804401 0.12094588 -0.035229106 -0.24516886 0.16293597
-0.2170143 -0.015909884 -0.018575627 -0.040055722 -0.045648985 -0.2507931 0.24872144 -0.210159
0.1817887 -0.040332954 -0.03887174 -0.02045558 -0.12827712 -0.056687802 0.22072884 -0.11223286
0.10962749 -0.26483512 -0.13119657 0.17841794 0.115531236 -0.25046688 -0.1754347 0.181849
-0.05673998 0.23966068 -0.22918095 0.06481187 -0.31312427 0.075206034 -0.08901632 -0.042070698
00000000: 2b87 543e 4775 c53c 5dd8 ce3d baf6 6d3e
00000010: 7eba 543e a51e 153e 940c 48be 3ca4 63be
00000020: f923 4b3e 6255 8e3e 7bd2 303e 85ca ad3d
00000030: ab5e ddbc 6c20 0c3e 0afa bebd 8eb0 46bd
00000040: 7390 893e 0e1b 4cbe c15b 27be 6b3a 3abd
00000050: 66bd 2d3e 69cb 85be 8ece 243e 5898 613d
00000060: 0a21 153d 65ca 2b3e d54f 1b3e fd6c 073c
00000070: bad6 7abe 2e21 853e b9bf b1bd 8ca1 3bbe
00000080: 49a1 893d 254c 583e a991 453d 35c2 13be
00000090: a17b 5bbe 72d2 f43d 80c7 d03d 5e68 343e
000000a0: f416 953e 7dcf 12be 1242 683d 7a5f 8d3e
000000b0: f729 18bc ef6f 08be 0516 3ebe 484a fd3c
000000c0: a9ad 0fbe ce20 4bbe 3470 9cbe 3e1f 683d
000000d0: 42bd 0fbc e965 0c3e 6bac bf3d 84f7 8ebe
000000e0: 9758 b0bd ca6d 8e3e 7b8b c3bc ed5d 623e
000000f0: e5da 80be 1088 7d3e 060b 143e 52fa 65be
00000100: 418f f83d 5dfa 613e d6d6 ef3d 007b dd3d
00000110: b5f8 acbd d993 22be 4d7c 58be f03d 743e
00000120: 705c 8c3d 5ef0 c33d cd41 01be 832d 58be
00000130: 143d f7bc 55b8 343e f761 7d3e 5058 b7bc
00000140: 9608 d43d f4d0 36bd ad8c 51bd 7f5f 813e
00000150: 23d5 b33d 94d0 6c3e 92d4 85be 9d39 473d
00000160: 0be6 9fbd bc11 513e 368c 423e 61f1 e53d
00000170: 1c05 2c3e 2b89 4fbe 3f9a a8bd d6ae b43d
00000180: 2b87 e7bd 527d 2d3d 2f7e 193d f38f 5abe
00000190: 3ff7 40be f130 6bbe 46de 7abe 4cb6 b1bd
000001a0: 25eb ba3d b500 ff3d d7fe 173e 8431 443d
000001b0: 6d17 3abe 113c 73be 903c 5a3e 9831 df3c
000001c0: d79f 783e 54f8 8cbe 5a1f 09be bb83 a33c
000001d0: 0568 563e c0b0 16be 4297 f8bd 7346 5abe
000001e0: 74dd 413e 4ef4 143d a6af 36be 5cfd 3c3e
000001f0: c932 88be f511 893c dfbc 17be c5b4 94bd
00000200: 8f2c 2b3d c0ed 9f3c 4a54 8c3e 1023 8cbe
00000210: 3a3c c6bd a955 afbc b452 11be a55e 5e3e
00000220: 98b8 fb3d 584a 573e a802 6c3e f74d 1ebc
00000230: fee8 243e 40f5 7abd 9fa4 453e 1bd2 4e3d
00000240: 0bcf 803d 57bb 033e 5e6e dabd 0620 823e
00000250: 2d3e 433e a511 8bbd c056 aabd d04a 7fbe
00000260: 4713 293e dc5e 45be 0cba abbe 32c2 6c3e
00000270: 6895 db3d 0f94 823e ecaf 70be a013 22be
00000280: 7b8e 27bd c0de 313e 366e 5abe c800 84be
00000290: dc04 f0bd de44 15be ac76 9b3e 9995 253e
000002a0: bb34 42be d2c5 d4bd e297 ebbc 9d0f 34be
000002b0: 8adb 38be 9061 8b3e 12f8 60be 67df 133e
000002c0: bd0d d3bd 2cac 7abe a22d cdbd c1c0 14be
000002d0: fb69 43be 9e4a 1ebe 3c43 bf3d a07f 17be
000002e0: c5ca 243e da72 aebe 7feb e03a d7f6 293e
000002f0: caef 3dbe 7350 e5bd 965b 8cbe 26c5 7abe
00000300: e820 c73d 1ee6 453d d8da 373c 7806 4b3e
00000310: 9d64 46bc f1ab 63be e787 99be f659 b43d
00000320: 7c26 2cbe f13a 643e ab8c 45bd 516b 873e
00000330: 2696 b3bd 0d03 e8bd 2483 8ebe b27e 5e3e
00000340: 9a85 61be 82de 1e3e 316d dfbd c899 5dbe
00000350: 354e e8bd 5c4c 0b3e 1e76 793e 6427 7ebe
00000360: ab89 56be dca8 b33d f745 013e 4ac5 38be
00000370: 79b2 f73d 654c 10bd 8c0d 7bbe b0d8 263e
00000380: ff38 5ebe 7255 82bc ea2b 98bc 7811 24bd
00000390: 6efa 3abd f467 80be d5b0 7e3e ec33 57be
000003a0: d126 3a3e 2b34 25bd f937 1fbd 7692 a7bc
000003b0: 145b 03be 7831 68bd be06 623e 57da e5bd
000003c0: 6184 e03d 7898 87be 6558 06be 31b3 363e
000003d0: a49b ec3d 323d 80be 27a5 33be a036 3a3e
000003e0: 2e68 68bd 9c69 753e 69ae 6abe 16bc 843d
000003f0: d351 a0be 9f05 9a3d 304e b6bd 5352 2cbd

encoder.feature_encoder.atom_embedding_list.4.weight f4 [10, 64]
0.16457893 0.09691129 0.07259007 0.238025 0.028205844 -0.15189973 0.07625159 -0.09428009
0.23966397 -0.17316209 -0.16986682 0.16451004 -0.28465122 0.1733616 -0.15145792 0.065860294
0.30044305 0.14421433 -0.20231195 0.10938402 0.008261922 -0.051949453 -0.22482833 -0.23893282
-0.12693575 0.21271586 -0.24729924 -0.22896318 -0.2618534 0.12008797 -0.30026144 -0.30678365
0.010568271 -0.28394178 0.044632994 -0.056255154 0.24200924 -0.11889885 -0.3152823 -0.12369958
-0.003002082 -0.07845627 0.26309898 -0.26641235 -0.25594705 0.13108905 -0.051826797 0.14161825
0.013777056 0.10125164 0.16911781 -0.021832773 -0.13648945 -0.055277333 -0.09637095 -0.23649268
0.20351227 0.11349705 -0.13915056 0.1897076 0.16830444 0.10426864 0.17365858 0.08023201
0.024384899 0.19019713 0.11096029 0.15014076 0.18527979 -0.13832048 0.0017031897 0.26191425
-0.056908052 -0.12766144 -0.13041988 -0.27729633 0.21570227 0.18815842 -0.18165025 -0.332589
-0.014317281 -0.0473419 0.26177323 -0.009670875 -0.056399867 0.11448589 0.15095037 0.20990787
0.28629467 -0.28606373 0.13074388 0.18703489 0.19004038 -0.12621382 -0.020052897 -0.24464576
0.13926879 -0.0005301465 0.18590236 0.15833835 -0.16259241 0.18423927 0.23025218 -0.18058355
0.046312105 -0.18939139 -0.231412 0.15415743 -0.2639074 0.09465911 -0.24279574 -0.017227693
-0.13352561 0.06224218 0.26878563 -0.27805176 -0.07835199 -0.10807678 -0.32347202 -0.23404266
-0.084294215 -0.053831447 0.30428222 0.0628532 0.25496438 -0.21999905 -0.14836027 0.026491703
-0.25881824 0.14429776 -0.013744733 -0.3263993 -0.24413837 -0.015120627 0.08797627 -0.04321049
-0.11863938 0.18012667 0.01350071 -0.1566463 0.2654675 -0.1417058 -0.19386244 -0.0386043
-0.05650553 -0.009426247 -0.051865973 0.23027767 -0.057385627 0.16258149 -0.0082447855 0.15038592
-0.2328063 0.08733981 0.11442997 0.054473076 -0.16606481 0.040278755 -0.24250014 -0.09277131
-0.056917172 -0.09759736 0.079544015 0.27806315 -0.078194365 0.3237249 0.17903274 -0.25415203
0.20801547 -0.2309419 -0.08018913 -0.106869005 0.038701076 -0.33667132 -0.29350087 -0.25739712
-0.11403084 -0.02702251 0.2042676 -0.21351391 0.031652533 0.19040664 0.14194247 0.07815879
-0.31574348 0.14404859 -0.0966629 -0.015071727 -0.11437079 -0.045373052 0.15247406 -0.2125775
-0.22952648 -0.0026276503 0.148138 -0.18282661 -0.038897276 -0.22790244 0.03855622 0.07402043
0.18319969 -0.14746247 -0.17110628 0.046224687 0.113765515 -0.11782481 0.11875907 -0.2595444
0.09754704 0.15718873 -0.2657034 -0.054895893 0.06861868 0.12851699 0.08031684 -0.20397861
0.22360662 -0.18376207 -0.004409654 -0.151604 -0.21553358 -0.056160226 0.40775985 -0.11411735
0.25002933 0.3429211 -0.20009062 0.016423369 -0.111721374 -0.28873375 -0.26765704 0.014137183
-0.20516135 0.08885996 0.17339271 0.13830575 -0.28151292 0.092331484 -0.047648437 0.08682863
0.27708247 -0.24633388 -0.19135782 0.14817843 0.047246177 0.00906036 -0.14359131 -0.019157697
-0.093256466 0.1038509 -0.1564262 0.26712778 0.051093273 -0.088992074 -0.2203153 0.25846952
00000000: 6187 283e 6d79 c63d 1aaa 943d d3bc 733e
00000010: f10f e73c 9a8b 1bbe cb29 9c3d eb15 c1bd
00000020: 796a 753e 6751 31be 91f1 2dbe 5275 283e
00000030: cebd 91be b485 313e c917 1bbe c3e1 863d
00000040: acd3 993e ecac 133e dd2a 4fbe bb04 e03d
00000050: 035d 073c f3c8 54bd 6639 66be ceaa 74be
00000060: 72fb 01be 30d2 593e 033c 7dbe 5375 6abe
00000070: a611 86be aef0 f53d debb 99be bf12 9dbe
00000080: 8b26 2d3c d160 91be 16d1 363d ce6b 66bd
00000090: 45d1 773e 3e81 f3bd ae6c a1be 3556 fdbd
000000a0: 94be 44bb aead a0bd e9b4 863e 3367 88be
000000b0: 7e0b 83be 353c 063e 5648 54bd 6004 113e
000000c0: 29b9 613c 055d cf3d 382d 2d3e a5da b2bc
000000d0: e4c3 0bbe 7c6a 62bd 225e c5bd 232b 72be
000000e0: 8565 503e 2471 e83d 7c7d 0ebe b642 423e
000000f0: 0058 2c3e cc8a d53d 8ed3 313e ae50 a43d
00000100: d7c2 c73c 09c3 423e 263f e33d 80be 193e
00000110: fcb9 3d3e e2a3 0dbe 903d df3a a019 863e
00000120: 6b18 69bd aeb9 02be ca8c 05be c9f9 8dbe
00000130: 0ee1 5c3e 9aac 403e 8602 3abe 1b49 aabe
00000140: 0793 6abc 95e9 41bd 2407 863e 9772 1ebc
00000150: 8c03 67bd 9477 ea3d bc92 1a3e 17f2 563e
00000160: 3795 923e f276 92be b9e1 053e 1386 3f3e
00000170: f299 423e 323e 01be f945 a4bc 6b84 7abe
00000180: 7a9c 0e3e 88f9 0aba 305d 3e3e 7323 223e
00000190: a07e 26be 38a9 3c3e 3ac7 6b3e e5ea 38be
000001a0: c3b1 3d3d d1ef 41be 44f7 6cbe 72db 1d3e
000001b0: df1e 87be a3dc c13d 729f 78be 1721 8dbc
000001c0: f0ba 08be a8f1 7e3d 459e 893e cd5c 8ebe
000001d0: 0277 a0bd 5c57 ddbd 209e a5be e1a8 6fbe
000001e0: 72a2 acbd 5d7e 5cbd e1ca 9b3e 2eb9 803d
000001f0: b18a 823e 6e47 61be c1eb 17be 2105 d93c
00000200: d383 84be cbc2 133e 9731 61bc cf1d a7be
00000210: 69ff 79be 82bc 77bc e72c b43d 7cfd 30bd
00000220: 34f9 f2bd 2073 383e 1532 5d3c e367 20be
00000230: 5beb 873e 531b 11be e083 46be 8b1f 1ebd
00000240: 5872 67bd 8c70 1abc 6a71 54bd e9cd 6b3e
00000250: 310d 6bbd c37b 263e 2315 07bc c4fe 193e
00000260: c664 6ebe 37df b23d 435a ea3d 291f 5f3d
00000270: e50c 2abe 56fb 243d f551 78be e2fe bdbd
00000280: fb21 69bd 20e1 c7bd f9e7 a23d 4b5e 8e3e
00000290: 5e24 a0bd 45bf a53e 5c54 373e 3720 82be
000002a0: 0202 553e 097c 6cbe 333a a4bd 23de dabd
000002b0: 0585 1e3d 2f60 acbe bf45 96be 8ec9 83be
000002c0: 0089 e9bd 505e ddbc 872b 513e 64a3 5abe
000002d0: 16a6 013d f5f9 423e 5e59 113e b711 a03d
000002e0: 21a9 a1be 7981 133e 33f7 c5bd 68ef 76bc
000002f0: 3c3b eabd 18d9 39bd 2922 1c3e ebad 59be
00000300: fd08 6bbe a834 2cbb 7db1 173e e636 3bbe
00000310: c052 1fbd 425f 69be 20ed 1d3d 0698 973d
00000320: b398 3b3e 6700 17be 7c36 2fbe 1956 3d3d
00000330: e5fd e83d 224e f1bd f537 f33d 01e3 84be
00000340: bec6 c73d 15f6 203e 470a 88be 84da 60bd
00000350: f387 8c3d f599 033e 287d a43d c5df 50be
00000360: 22f9 643e 202c 3cbe dc7e 90bb 143e 1bbe
00000370: d6b4 5cbe 4408 66bd e6c5 d03e 5bb6 e9bd
00000380: d803 803e 5b93 af3e 8ee4 4cbe 4d8a 863c
00000390: 2dce e4bd e9d4 93be 580a 89be a59f 673c
000003a0: d115 52be 36fc b53d dc8d 313e 06a0 0d3e
000003b0: 7622 90be 4a18 bd3d 022b 43bd 35d3 b13d
000003c0: c1dd 8d3e f33e 7cbe 4ef3 43be 16bc 173e
000003d0: 3585 413d e771 143c 9a09 13be 9af0 9cbc
000003e0: 3ffd bebd c8af d43d 312e 20be f9c4 883e
000003f0: 2e47 513d 7a41 b6bd 569a 61be 1e56 843e

encoder.feature_encoder.atom_embedding_list.5.weight f4 [6, 64]
-0.19946659 0.044656925 -0.0811575 0.1528464 -0.031346932 0.19161634 -0.088839345 -0.25849864
-0.074185796 -0.16510487 -0.18311268 0.13476145 0.25388557 -0.17115417 -0.29947752 0.06517219
-0.23717695 -0.076047406 0.150519 0.07261853 -0.015948236 0.084731594 -0.17094813 -0.07750264
-0.06647 -0.31229758 -0.18663767 0.06933674 0.020158347 -0.10521895 0.21459182 -0.14930882
-0.051541615 0.21769671 0.12384652 0.2849623 0.032893706 -0.16961507 -0.083777085 -0.051370524
-0.20259191 -0.09198464 -0.28807905 -0.107325345 -0.27072895 0.23437372 0.04576169 0.2099716
0.1403689 0.2014364 -0.11804564 -0.13789344 -0.1239504 -0.28539968 0.0011643942 0.06751015
0.11956019 -0.07946276 0.1072923 0.043883905 0.11302201 0.066034496 -0.10969658 0.1688675
-0.2673714 0.020392315 0.11429578 0.16635606 0.13310061 -0.08789937 0.19416273 -0.2818284
-0.07080604 -0.052292537 0.21915954 0.24498643 -0.0668283 0.07332819 -0.014110171 -0.08435248
0.07807336 0.04249898 -0.09622806 -0.0047258944 0.25604895 -0.24038357 -0.04586514 -0.24142045
-0.064221784 0.25758448 0.21706018 -0.2595937 -0.2575781 -0.0037958736 -0.03348512 0.16478908
-0.063459896 0.20606822 -0.18826658 -0.015166803 -0.0015305647 -0.16491775 -0.0068314513 -0.076319285
-0.11756316 -0.18982093 -0.042087037 0.25380036 0.14168634 -0.24594127 -0.16917023 0.2088946
-0.100411355 -0.034158085 -0.14482614 0.09582648 -0.21930659 -0.23836231 -0.26596513 -0.25263008
0.08127337 0.07280827 -0.12913007 0.13132568 0.00097595894 0.06093014 0.18067232 0.016075544
0.3016732 0.1935108 -0.16562591 0.24116302 -0.06179056 -0.03411286 0.056609023 -0.2561736
0.15724215 0.22434172 0.3006387 0.081866436 -0.07991575 -0.027668051 -0.098625906 -0.2647476
0.09951439 0.06603637 -0.07989581 -0.17069158 -0.07735307 0.08095174 0.22669335 0.11117073
0.22070831 0.26185864 -0.100614235 -0.039411347 -0.24606483 -0.16877401 0.1133171 0.1396231
0.17794624 0.2327914 0.1439354 -0.14344165 -0.06287116 0.027899446 0.1678312 -0.1506305
-0.1224158 0.10015201 0.098637186 0.30123445 0.24144964 -0.15383226 0.074282855 -0.16967067
0.008915958 -0.03562758 0.061906654 0.2339577 -0.22904868 0.2186234 0.20423037 -0.14167471
-0.044695254 -0.032164425 0.2053494 -0.12922938 0.06272832 -0.12048769 0.24260004 -0.052589122
0.2798941 -0.21795012 -0.08741494 0.18922406 0.097369306 -0.1482439 -0.2397365 -0.22103442
-0.24463354 -0.16179468 -0.17739384 -0.08449645 0.25367284 -0.07770914 -0.18095908 0.14313428
-0.17231496 -0.1465266 -0.04837943 -0.036036443 -0.18054497 -0.23283742 -0.2857825 -0.12417533
0.14833653 0.023486914 0.23338108 0.050777853 -0.21963926 0.027580198 -0.07501395 0.1657747
0.07965675 0.28982255 -0.26249415 -0.13934375 -0.24850067 0.026050141 -0.18662345 -0.121568896
0.27947202 -0.09808977 0.14404543 0.18823156 0.21233052 0.2394909 0.18059896 0.029012566
0.24702388 0.28332603 -0.20195714 0.061138432 0.20143977 -0.19793135 0.114900835 0.1827972
0.009135138 -0.084637664 -0.024212714 0.2546751 -0.23181005 0.11615448 -0.1584765 0.19757427
00000000: f840 4cbe 2eea 363d e735 a6bd c483 1c3e
00000010: a465 00bd 1337 443e 67f1 b5bd ef59 84be
00000020: b9ee 97bd 4011 29be e481 3bbe e8fe 093e
00000030: 4afd 813e 0a43 2fbe 1e55 99be ff78 853d
00000040: 84de 72be bebe 9bbd a721 1a3e 06b9 943d
00000050: e0a5 82bc c287 ad3d 070d 2fbe b4b9 9ebd
00000060: 6c21 88bd 78e5 9fbe f21d 3fbe 6c00 8e3d
00000070: 1e23 a53c 087d d7bd f5bd 5b3e 69e4 18be
00000080: 4d1d 53bd e3eb 5e3e 3fa3 fd3d 94e6 913e
00000090: 8dbb 063d 93af 2dbe 5293 abbd e669 52bd
000000a0: 4174 4fbe 7162 bcbd 197f 93be 64cd dbbd
000000b0: fc9c 8abe aaff 6f3e 9c70 3b3d cc02 573e
000000c0: ddbc 0f3e 5845 4e3e eac1 f1bd f033 0dbe
000000d0: b5d9 fdbd e81f 92be 969e 983a c342 8a3d
000000e0: f9db f43d 5fbd a2bd 11bc db3d 9cbf 333d
000000f0: 1578 e73d 183d 873d 9aa8 e0bd 9aeb 2c3e
00000100: e7e4 88be c90d a73c e813 ea3d 3e59 2a3e
00000110: 874b 083e 9604 b4bd 98d2 463e d04b 90be
00000120: c202 91bd b330 56bd 5c6b 603e b9dd 7a3e
00000130: 47dd 88bd 172d 963d 592e 67bc fec0 acbd
00000140: ede4 9f3d 6913 2e3d 3813 c5bd addb 9abb
00000150: d918 833e 1c27 76be 16dd 3bbd ec36 77be
00000160: b686 83bd 1de2 833e 0645 5e3e 77e9 84be
00000170: 47e1 83be 31c4 78bb b127 09bd 78be 283e
00000180: 43f7 81bd 8c03 533e f4c8 40be 2f7e 78bc
00000190: 3b9d c8ba 33e0 28be 5eda dfbb 494d 9cbd
000001a0: f4c4 f0bd 6b60 42be 7563 2cbd 1ff2 813e
000001b0: 3916 113e 07d8 7bbe f63a 2dbe 77e8 553e
000001c0: 78a4 cdbd 59e9 0bbd 4e4d 14be ac40 c43d
000001d0: e891 60be 4015 74be 952c 88be bb58 81be
000001e0: a772 a63d 811c 953d ac3a 04be 3d7a 063e
000001f0: 7fd7 7f3a e291 793d 2a02 393e dcb0 833c
00000200: e974 9a3e b227 463e d799 29be 70f3 763e
00000210: 1918 7dbd edb9 0bbd ddde 673d 3029 83be
00000220: 1604 213e d6b9 653e 51ed 993e 97a9 a73d
00000230: deaa a3bd 1ca8 e2bc 61fc c9bd ff8c 87be
00000240: 33ce cb3d 143e 873d 6aa0 a3bd c6c9 2ebe
00000250: 496b 9ebd 07ca a53d 4d22 683e 7bad e33d
00000260: 5c01 623e 5612 863e d60e cebd cb6d 21bd
00000270: 6bf8 7bbe 18d3 2cbe cc12 e83d 5cf9 0e3e
00000280: 8a37 363e de60 6e3e cd63 133e 5ee2 12be
00000290: 98c2 80bd 618d e43c f1db 2b3e e23e 1abe
000002a0: 23b5 fabd 7f1c cd3d 4b02 ca3d 673b 9a3e
000002b0: 933e 773e 3486 1dbe 9c21 983d 26be 2dbe
000002c0: 3d14 123c 3aee 11bd d591 7d3d 9b92 6f3e
000002d0: bd8b 6abe d0de 5f3e c421 513e 2d13 11be
000002e0: 5f12 37bd d8be 03bd 1d47 523e b554 04be
000002f0: b577 803d 40c2 f6bd 256c 783e b167 57bd
00000300: 484e 8f3e 512e 5fbe 9b06 b3bd f4c3 413e
00000310: 8f69 c73d 40cd 17be 7c7d 75be d956 62be
00000320: 3781 7abe 81ad 25be bba6 35be 7a0c adbd
00000330: 68e1 813e f825 9fbd 564d 39be cb91 123e
00000340: 5573 30be 120b 16be 8229 46bd f39a 13bd
00000350: c8e0 38be ef6c 6ebe 1552 92be a34f febd
00000360: 88e5 173e a167 c03c 73fb 6e3e 70fc 4f3d
00000370: 1de9 60be deef e13c eaa0 99bd d8c0 293e
00000380: 1423 a33d 9f63 943e a265 86be 21b0 0ebe
00000390: f676 7ebe 1b67 d53c 381a 3fbe 1df9 f8bd
000003a0: f516 8f3e 4ae3 c8bd a580 133e c6bf 403e
000003b0: 2c6d 593e 1a3d 753e efee 383e c3ab ed3c
000003c0: d4f3 7c3e 1c10 913e dacd 4ebe 4b6c 7a3d
000003d0: 3a46 4e3e 84ae 4abe 2151 eb3d 302f 3b3e
000003e0: 8cab 153c 8356 adbd be59 c6bc c664 823e
000003f0: 9d5f 6dbe 66e2 ed3d aa47 22be e950 4a3e

encoder.feature_encoder.atom_embedding_list.6.weight f4 [6, 64]
0.00015044375 0.25809145 -0.12757853 0.24119267 0.11784151 0.103355534 0.025391145 0.1370008
-0.018764988 0.047023702 -0.063965544 0.05344463 0.254535 0.24081537 -0.118966 -0.11640025
0.09960467 -0.13182887 -0.023076784 0.028521752 -0.17064834 -0.22083698 0.23074642 -0.27147397
-0.030801442 0.08433207 -0.023561625 0.18098675 -0.07801468 0.018012948 -0.009517052 0.03344956
0.086178035 -0.021995902 0.18510394 -0.17165095 -0.07913686 0.029442526 0.11558475 -0.076934
0.04232156 -0.2515413 0.12504935 0.18222976 -0.2240835 -0.2897817 -0.03536255 0.21017694
0.08316042 0.21520816 -0.25933397 0.20077904 0.27150327 -0.25600076 0.017253602 -0.008075604
0.3017094 -0.13229588 -0.22118606 -0.23998778 0.16813882 0.12689258 -0.2892197 -0.23042281
0.13071494 -0.13904732 -0.22721922 -0.14647865 -0.13917437 -0.1907608 -0.14088045 0.03486205
0.07031122 0.27032217 -0.29460558 -0.105993174 -0.038317278 -0.12863083 0.08490223 -0.18878563
-0.09349765 -0.23437439 -0.039792307 -0.020204926 -0.13970172 -0.105455205 -0.19227065 0.040070727
0.04771386 -0.23031887 -0.12746234 -0.031676818 -0.16690446 -0.089847796 0.057107985 -0.09601862
0.06785365 -0.01821509 -0.031657916 -0.17201956 -0.0058098976 0.28874373 0.25568685 0.2184857
-0.07984615 0.019332595 0.23882692 -0.06975037 0.08185684 0.014772975 0.22018252 -0.1478423
0.033448577 -0.2889604 -0.089280985 0.13210393 0.012123349 0.28863022 -0.2009978 0.15519902
-0.04754255 0.2729038 0.20336522 0.19768265 -0.1667913 0.27908123 -0.14151153 -0.08502876
0.19623525 -0.03826841 0.14478175 0.2092937 -0.025408383 0.072351106 0.0068507586 0.18357144
0.08840943 -0.02420999 -0.2050173 0.082533725 0.13750526 0.038879335 0.1462142 0.1002051
-0.17046073 -0.1343923 -0.061466947 -0.24562861 -0.073999375 -0.07804466 -0.25192836 0.094540335
0.11045581 0.1333558 -0.016432256 -0.09760115 -0.08112965 -0.26381698 0.056256793 0.18083376
-0.017654352 0.021648869 0.22635269 0.24001653 0.24064906 0.2632065 0.22371505 -0.06593119
-0.16292088 0.06344957 0.23449552 0.011171711 0.17647038 -0.23855227 -0.047293242 0.25115958
-0.24788548 -0.09054737 0.122193545 -0.2894643 -0.11379776 -0.18976735 0.23627624 -0.025093962
0.041866116 0.20631261 0.13062921 -0.13510147 0.19239105 -0.103193656 0.21515091 -0.114159614
0.38521305 -0.13838266 0.040578574 0.26442266 -0.08928751 -0.24002501 -0.28805497 0.13956809
-0.05724642 0.2605383 -0.14521508 -0.08810039 -0.091521256 0.2137254 0.10526652 -0.06822272
0.11178364 -0.2507978 -0.11994981 0.2912145 -0.10291343 -0.16264237 -0.025010277 0.12749183
-0.12411262 0.15829585 -0.14980385 0.15683246 -0.021413606 0.23637502 0.19871362 -0.2534435
0.39985988 -0.18380699 -0.09743198 -0.073234454 -0.2803447 -0.038321596 -0.27251342 -0.075391054
0.027352318 -0.027709804 0.07612892 -0.08121476 -0.05467606 0.07432393 -0.09130241 -0.23877566
0.17262404 -0.29822654 0.00497401 0.25211734 0.28068042 -0.19010249 0.2612922 -0.1730182
-0.09227975 0.08118935 -0.20249338 -0.14312698 0.034090504 0.21386223 0.22527878 0.11128415
00000000: 70c0 1d39 9024 843e f2a3 02be 36fb 763e
00000010: e456 f13d 11ac d33d 1701 d03c f049 0c3e
00000020: 08b9 99bc ed9b 403d 5e00 83bd c2e8 5a3d
00000030: 6952 823e 4e98 763e 72a4 f3bd 4163 eebd
00000040: 89fd cb3d 26fe 06be 860b bdbc 73a6 e93c
00000050: 70be 2ebe 1723 62be ca48 6c3e a3fe 8abe
00000060: 4e53 fcbc 4bb6 ac3d 4f04 c1bc 9754 393e
00000070: 29c6 9fbd e48f 933c 69ed 1bbc 6802 093d
00000080: 1c7e b03d c030 b4bc e38b 3d3e 44c5 2fbe
00000090: 8212 a2bd 7431 f13c b3b7 ec3d 938f 9dbd
000000a0: 5f59 2d3d 05ca 80be f00c 003e 709a 3a3e
000000b0: 2576 65be 445e 94be 52d8 10bd a038 573e
000000c0: 0350 aa3d 875f 5c3e 6cc7 84be 0599 4d3e
000000d0: 7a02 8b3e 8812 83be 6d57 8d3c 8a4f 04bc
000000e0: a879 9a3e 9278 07be 997e 62be 5bbf 75be
000000f0: 952c 2c3e 21f0 013e 9b14 94be f5f3 6bbe
00000100: 23da 053e 6c62 0ebe 28ac 68be 80fe 15be
00000110: ba83 0ebe cd56 43be f742 10be 82cb 0e3d
00000120: 54ff 8f3d ab67 8a3e 8bd6 96be f312 d9bd
00000130: 94f2 1cbd cdb7 03be 38e1 ad3d 0551 41be
00000140: b27b bfbd d7ff 6fbe 42fd 22bd cd84 a5bc
00000150: f80d 0fbe e6f8 d7bd 99e2 44be 3421 243d
00000160: 9c6f 433d b6d8 6bbe 7d85 02be 8dbf 01bd
00000170: 01e9 2abe 1f02 b8bd 10ea 693d 69a5 c4bd
00000180: dbf6 8a3d d037 95bc bbab 01bd e525 30be
00000190: f460 bebb 38d6 933e 63e9 823e b7ba 5f3e
000001a0: 6186 a3bd 645f 9e3c 0b8f 743e 48d9 8ebd
000001b0: 8fa4 a73d 590a 723c 8777 613e f963 17be
000001c0: 6001 093d 9ef2 93be f3d8 b6bd 4146 073e
000001d0: 03a1 463c 57c7 933e 5ed2 4dbe 7eec 1e3e
000001e0: fabb 42bd 0cba 8b3e f93e 503e 526d 4a3e
000001f0: 57cb 2abe bce3 8e3e 66e8 10be 8f23 aebd
00000200: e5f1 483e 56bf 1cbd ab41 143e 1651 563e
00000210: 3e25 d0bc d12c 943d 547c e03b 27fa 3b3e
00000220: 0110 b53d 0754 c6bc 0ef0 51be 7107 a93d
00000230: 2ece 0c3e f03f 1f3d 2db9 153e 5538 cd3d
00000240: 428d 2ebe 239e 09be c4c4 7bbd 1186 7bbe
00000250: fc8c 97bd e1d5 9fbd c1fc 80be 5d9e c13d
00000260: a836 e23d 6c8e 083e f09c 86bc 1de3 c7bd
00000270: 4d27 a6bd 0513 87be 866d 663d 7c2c 393e
00000280: dc9f 90bc f858 b13c 00c9 673e e5c6 753e
00000290: b56c 763e 01c3 863e 8f15 653e ef06 87bd
000002a0: bbd4 26be d9f1 813d 981f 703e 8d09 373c
000002b0: a7b4 343e 0c47 74be 8fb6 41bd fd97 803e
000002c0: b1d5 7dbe e670 b9bd 9c40 fa3d aa34 94be
000002d0: cd0e e9bd 5f52 42be 66f2 713e da91 cdbc
000002e0: ce7b 2b3d 9d43 533e aac3 053e 0a58 0abe
000002f0: 2902 453e 3257 d3bd 8550 5c3e 84cc e9bd
00000300: a53a c53e 2fb4 0dbe b835 263d 6862 873e
00000310: 5fdc b6bd 1ec9 75be f17b 93be f0ea 0e3e
00000320: 397b 6abd 4765 853e 43b3 14be fa6d b4bd
00000330: 7f6f bbbd d5da 5a3e f995 d73d 5ab8 8bbd
00000340: d2ee e43d 9268 80be 3fa8 f5bd 111a 953e
00000350: 47c4 d2bd b98b 26be 5ae2 ccbc 388d 023e
00000360: c22e febd 4f18 223e 2e66 19be b098 203e
00000370: 966b afbc 4b0c 723e 957b 4b3e 59c3 81be
00000380: 6fba cc3e e637 3cbe 6b8a c7bd f2fb 95bd
00000390: 5789 8fbe 1bf7 1cbd e186 8bbe a066 9abd
000003a0: f811 e03c acff e2bc 7be9 9b3d ed53 a6bd
000003b0: 01f4 5fbd 2537 983d c2fc babd 9b81 74be
000003c0: 5bc4 303e 26b1 98be 05fd a23b 8615 813e
000003d0: 58b5 8f3e 3aaa 42be 17c8 853e af2b 31be
000003e0: 2afd bcbd 9a46 a63d 6d5a 4fbe e18f 12be
000003f0: 7ca2 0b3d b3fe 5a3e 7baf 663e f2e8 e33d

encoder.feature_encoder.atom_embedding_list.7.weight f4 [2, 64]
0.2368839 0.26449743 -0.23142879 -0.10519963 0.21863809 -0.28073633 0.2218606 0.20167693
0.22654188 -0.13435587 0.27163267 0.08623636 0.23943825 0.15896893 0.009891567 -0.2918662
-0.17683831 0.24600703 0.14982891 -0.12300553 0.2691376 -0.2351882 0.21282996 0.31849197
-0.056976303 0.092171416 0.19919357 -0.025603043 0.022672517 0.12790677 -0.068594754 -0.1785824
0.07373319 -0.25214228 -0.31665373 0.0034344972 -0.17875953 0.13314107 0.065930136 -0.31281304
-0.1642585 0.32380345 -0.049881585 -0.019232001 -0.07290223 0.09124722 0.103312604 0.12068513
-0.107772134 0.0945818 0.17156509 0.3103962 -0.30690536 0.1677763 -0.08855898 -0.065489605
-0.20300685 0.03660884 -0.23237368 -0.1711528 0.03444188 0.14126027 0.09278945 0.19291024
-0.2816224 -0.16582635 0.0012748939 -0.25169238 -0.16056162 -0.1667983 0.118903115 0.1316655
-0.12610291 -0.091168284 0.025356445 0.011643641 0.2593572 0.23777466 -0.07841333 -0.060657773
0.15123759 0.07549023 0.19129628 0.24862513 0.08320175 -0.0701601 -0.3276182 -0.1432566
0.11402027 0.21087866 0.06631046 -0.2210869 -0.25165063 0.33391905 -0.12765928 -0.09286707
-0.10429585 0.13201982 0.26766208 0.15851076 0.18839163 0.23439048 -0.27078214 -0.069489084
-0.10011943 0.15139927 0.20924975 0.020945206 0.18243 -0.30115774 -0.050281484 -0.022449408
-0.054189965 0.22644877 -0.12738544 0.20079207 -0.081206515 -0.040355068 0.0362333 0.27494302
-0.08696133 0.01689725 0.20670344 0.22748597 -0.0745663 0.051608082 0.054978307 -0.23759346
00000000: b191 723e 356c 873e abfb 6cbe e772 d7bd
00000010: aae2 5f3e acbc 8fbe 6d2f 633e 6684 4e3e
00000020: 98fa 673e 9694 09be 7013 8b3e b09c b03d
00000030: 4d2f 753e c0c8 223e 3d10 223c 7d6f 95be
00000040: 1a15 35be 44e9 7b3e c06c 193e 53ea fbbd
00000050: 67cc 893e 2dd5 70be 19f0 593e 6111 a33e
00000060: fc5f 69bd 5ec4 bc3d 66f9 4b3e 79bd d1bc
00000070: b7bb b93c fef9 023e 687b 8cbd 4ede 36be
00000080: 6d01 973d cb18 81be 7020 a2be 4d15 613b
00000090: bd0c 37be 2256 083e 6106 873d 0829 a0be
000000a0: 6133 28be 91c9 a53e a250 4cbd 6e8c 9dbc
000000b0: c44d 95bd d3df ba3d 8f95 d33d c429 f73d
000000c0: a3b7 dcbd 1ab4 c13d c2ae 2f3e 40ec 9e3e
000000d0: b322 9dbe 8dcd 2b3e 695e b5bd 6a1f 86bd
000000e0: 07e1 4fbe 27f3 153d 5ef3 6dbe ae42 2fbe
000000f0: ee12 0d3d 88a6 103e 6508 be3d 438a 453e
00000100: d030 90be 62ce 29be 571a a73a d3dd 80be
00000110: 446a 24be 2ccd 2abe 7a83 f33d 52d3 063e
00000120: 1f21 01be 70b6 babd 52b8 cf3c f8c4 3e3c
00000130: 78ca 843e 337b 733e 2b97 a0bd 4974 78bd
00000140: 07de 1a3e 9f9a 9a3d 2ce3 433e 9697 7e3e
00000150: ae65 aa3d 19b0 8fbd 93bd a7be dcb1 12be
00000160: 7683 e93d 93f0 573e c7cd 873d 9b64 62be
00000170: 5ad8 80be 70f7 aa3e 1db9 02be 1731 bebd
00000180: 1099 d5bd 3430 073e 010b 893e a550 223e
00000190: bce9 403e 0f04 703e f5a3 8abe 4b50 8ebd
000001a0: 6a0b cdbd 6908 1b3e 9145 563e 4895 ab3c
000001b0: eece 3a3e 5931 9abe f5f3 4dbd d2e7 b7bc
000001c0: 4cf6 5dbd 30e2 673e 5471 02be 709c 4d3e
000001d0: 9a4f a6bd 5b4b 25bd 5e69 143d 55c5 8c3e
000001e0: c818 b2bd 1a6c 8a3c 11aa 533e 15f2 683e
000001f0: 37b6 98bd ff62 533d ef30 613d b34b 73be

encoder.feature_encoder.atom_embedding_list.8.weight f4 [2, 64]
-0.11463141 0.05710337 0.10024761 -9.7511904e-05 0.22064717 0.060391184 0.26845744 -0.09709246
0.027995266 -0.14941591 -0.26055142 -0.09493962 0.087465845 0.019043097 0.106702514 0.09382174
-0.2984271 0.2340637 0.01811971 -0.26272994 0.11533985 0.030775838 -0.18707906 0.055893682
0.3079027 0.07484808 -0.09029692 0.014674245 0.01717749 0.2813745 0.0028932753 0.25402236
-0.15288591 0.23522604 0.0073467786 -0.11303619 0.21295197 0.2778434 -0.040347915 -0.24913494
-0.17489578 0.046850972 -0.2824523 -0.2014376 -0.06780677 -0.05640833 0.006419048 -0.11631407
-0.15181005 0.09503445 0.0056222803 0.20162666 -0.17039007 -0.07121568 -0.264633 -0.20826606
0.17044818 -0.051694293 0.28014883 0.20496924 -0.13856722 -0.058312763 0.13264929 -0.18932098
0.2471303 0.04200439 0.048513338 0.2469925 -0.27662355 -0.16813454 -0.13892221 -0.20440029
0.11936699 0.23904812 0.22986741 0.20838746 -0.17488027 0.040812295 0.11008598 -0.12421652
0.16452055 0.3084711 -0.31435814 -0.09961979 0.144928 -0.22703366 -0.04520772 0.15377742
0.05018451 -0.18093333 -0.08673765 -0.026205307 0.29922673 -0.16921027 -0.109204285 -0.06178875
0.26740646 0.18245628 -0.078378685 -0.13612452 0.28612843 -0.07304056 -0.103947885 0.2496318
0.12318915 0.010632621 0.25546747 -0.17542347 0.28724644 0.096925035 -0.19173533 0.19071852
0.08237418 -0.27674773 0.23842281 -0.25969058 0.026416516 0.087785475 0.20064516 -0.2347379
0.24514659 0.25402522 0.19868232 0.013649327 -0.10757416 0.21101561 0.028523527 -0.060338363
00000000: dfc3 eabd 39e5 693d 9e4e cd3d 4e7f ccb8
00000010: 55f1 613e bf5c 773d 4173 893e 69d8 c6bd
00000020: 5456 e53c 7c00 19be ff66 85be b46f c2bd
00000030: 4b21 b33d 4500 9c3c d986 da3d 9d25 c03d
00000040: 70cb 98be 65ae 6f3e c96f 943c 8a84 86be
00000050: 4d37 ec3d 9c1d fc3c a791 3fbe c6f0 643d
00000060: 6ca5 9d3e f349 993d 97ed b8bd 3f6c 703c
00000070: cfb7 8c3c 5210 903e 1b9d 3d3b 380f 823e
00000080: 208e 1cbe 18df 703e 3fbd f03b 857f e7bd
00000090: 1510 5a3e 7d41 8e3e db43 25bd 3b1d 7fbe
000000a0: e117 33be cee6 3f3d 969d 90be a945 4ebe
000000b0: 47de 8abd 6c0c 67bd e156 d23b 1236 eebd
000000c0: 1874 1bbe 6ca1 c23d 1b3b b83b 3877 4e3e
000000d0: bc7a 2ebe 87d9 91bd fa7d 87be b343 55be
000000e0: f889 2e3e 65bd 53bd ab6f 8f3e 75e3 513e
000000f0: 91e4 0dbe 5dd9 6ebd 37d5 073e 5cdd 41be
00000100: ba0f 7d3e cc0c 2c3d ecb5 463d 9aeb 7c3e
00000110: 9aa1 8dbe 762b 2cbe a041 0ebe 4f4e 51be
00000120: ae76 f43d 08c9 743e 5d62 6b3e 8663 553e
00000130: d013 33be cb2a 273d c274 e13d 3b65 febd
00000140: 1378 283e edef 9d3e 8df3 a0be 7605 ccbd
00000150: 0168 143e 837b 68be bb2b 39bd d477 1d3e
00000160: 468e 4d3d 9646 39be 82a3 b1bd 83ac d6bc
00000170: 3f34 993e 7545 2dbe 7fa6 dfbd 3316 7dbd
00000180: 80e9 883e d2d5 3a3e 0185 a0bd 3a64 0bbe
00000190: 6d7f 923e 4a96 95bd a1e2 d4bd 7b9f 7f3e
000001a0: 984a fc3d 7234 2e3c a2cc 823e 36a2 33be
000001b0: f711 933e a280 c63d 4456 44be b74b 433e
000001c0: cbb3 a83d e1b1 8dbe 1c25 743e 2af6 84be
000001d0: 7367 d83c dfc8 b33d ed75 4d3e 225f 70be
000001e0: b507 7b3e 980f 823e 6173 4b3e 6da1 5f3c
000001f0: d74f dcbd 7a14 583e 2caa e93c 5c25 77bd
