checkpoints/tuning_multi/trial_52/best_model.pt (torch, 520320 bytes, 104 tensors)

encoder.feature_encoder.atom_embedding_list.0.weight f4 [119, 64]
000000 94 23 e3 3d b0 c1 ad 3d 87 1b 19 3d e0 6e 22 3e
       0.1109077 0.084842086 0.037379768 0.15862608
000010 65 dc ae bd 96 44 2b be d7 da 19 be ce e1 0a 3e
       -0.08538131 -0.16725382 -0.15024887 0.135627
000020 2f 14 56 3e 80 c3 e7 bd df ff ef bd 33 bc 4d be
       0.20906137 -0.113165855 -0.117187254 -0.20091324
000030 dd 25 64 3d 4a 86 8e bd fd 95 0a 3e f0 53 96 3a
       0.05570017 -0.06959207 0.13533778 0.0011469107
000040 cd a0 29 3e 10 ad fd 3d 05 d5 4c 3e 74 3e 04 3e
       0.16565247 0.12386525 0.20003136 0.12914449
000050 f9 4e 32 be ac 85 cb 3c c8 3b dd bd 62 bc d7 bd
       -0.17412938 0.024844013 -0.10802418 -0.10533978
000060 b1 ae e5 3d b5 06 de bd e2 1d 1b 3e 8c b8 23 3d
       0.1121496 -0.10841123 0.15148118 0.03997092
000070 57 d4 af bd d9 0d c9 3c 35 3d 34 be 08 66 7e 3d
       -0.085854225 0.024542736 -0.17601474 0.062109023
000080 29 1f 63 bc eb 13 25 3e 63 a7 85 3d 6d f5 ce 3c
       -0.01386241 0.1612088 0.06526067 0.025263513
000090 0a c7 17 bd 77 9c 35 3e b3 33 46 3d 37 ac 94 3d
       -0.037055053 0.17735468 0.048389148 0.0725941
0000a0 c6 a0 a8 bd 84 1a ee bc a1 5e 4b 3d 32 e4 c3 3d
       -0.0823379 -0.029065378 0.049650792 0.09565009
0000b0 e5 57 48 3c 51 50 a1 3d a4 6b 77 3e cb 70 a4 3c
       0.012227987 0.07876647 0.24162155 0.020073315
0000c0 f1 b0 e9 3d c1 5b 44 be e9 11 29 bd f2 8f 0e be
       0.11410702 -0.19175626 -0.041276846 -0.13922098
0000d0 1b 1d 54 3c 51 46 0b 3d d3 6b 04 3e f4 d7 9d bd
       0.012946392 0.034002606 0.12931757 -0.077072054
0000e0 21 0c 78 3d a4 07 9c bd a1 d2 2d 3c dc fc 63 3e
       0.060558442 -0.07618645 0.0106093 0.22264427
0000f0 81 21 4c be fc 07 34 3d 19 1f 32 be 71 0d 13 3e
       -0.19934656 0.043952927 -0.17394675 0.14360596
000100 fd d3 1a be 19 0d 2e be 2e 98 4e bd 79 49 14 3e
       -0.1511993 -0.16997184 -0.0504381 0.14481153
000110 a6 5b bb 3d e5 53 ee 3d a7 c7 2c bd 28 c8 23 3e
       0.0914834 0.11637095 -0.04218259 0.15994322
000120 62 15 a9 bd 9f a9 4f bc 63 42 2a be 9b 76 15 3c
       -0.082560316 -0.012674718 -0.16626887 0.009122516
000130 76 08 2a 3d c8 f4 31 be 64 de 1b 3e 17 88 0b 3d
       0.041511975 -0.17378533 0.15221554 0.034065332
000140 6f d2 30 3e 2d a2 9f bd 43 56 0a 3c fb 05 6e bd
       0.17267774 -0.077946045 0.008443418 -0.058111172
000150 e4 c3 1c 3e e2 4b cf bd 0f 6d d5 3d c6 32 02 be
       0.15309101 -0.101218954 0.10421192 -0.12714681
000160 3a 54 0b 3e 11 a2 2c be 36 59 b8 bd 8d 5c a7 bd
       0.13606349 -0.16858698 -0.09001391 -0.081719495
000170 46 de fb bc 39 28 13 bb 03 ac 6f 3d b1 45 26 3e
       -0.030745637 -0.0022454394 0.058513653 0.16237523
000180 b5 73 da 3d 98 ce b2 bd 94 38 2e 3e 9f 6d da bc
       0.106666006 -0.08730811 0.1701377 -0.0266636
000190 33 c8 ce bd 13 9c 8a 3d b4 3d 01 bd 79 f2 30 3e
       -0.10096779 0.0676805 -0.031552985 0.17279996
0001a0 65 77 a5 3c 8e 6e f5 3d 40 f6 3e 3d 6c 57 f2 bd
       0.020198533 0.11983977 0.04662156 -0.11833081
0001b0 28 17 1c 3d 3c 98 d6 bd f7 98 46 bd e1 e9 6e bd
       0.03810802 -0.10478255 -0.048485722 -0.058328513
0001c0 d9 e8 12 be 47 82 8f 3d b3 32 03 3e da b6 36 be
       -0.14346637 0.0700727 0.12812309 -0.1784319
0001d0 88 d9 c9 3d 46 64 12 be 6b 74 35 be d0 c4 7f 3d
       0.09855944 -0.14296064 -0.17720191 0.062443554
0001e0 89 88 83 bb 5b 55 e3 bd c5 02 26 3e aa 11 72 3c
       -0.004014079 -0.11100265 0.16211994 0.014774719
0001f0 b0 97 e8 bd 52 1c aa 3d 5e f8 51 3c cd 6a ed bc
       -0.11357057 0.08306183 0.012815563 -0.02898159
000200 b9 fd 03 be ed 51 4c bd 4d 9e 0e 3e 97 05 67 bd
       -0.12889756 -0.049882818 0.13927574 -0.056401815
000210 b8 47 54 3b 1c 36 36 be f1 a0 5e be 60 86 a6 3c
       0.003239138 -0.17794079 -0.21741082 0.020327747
000220 7a c5 5b be 04 88 84 3d 6b ff 34 be 22 86 36 3d
       -0.2146205 0.064712554 -0.17675559 0.044561513
000230 37 7a 8d 3d 9c e6 f7 bd 4a 84 d5 bd 89 9f a2 3d
       0.06908076 -0.12104532 -0.10425623 0.07940585
000240 91 0c 34 3d 82 ac 53 3d f0 16 5e be 6b 4f fc bd
       0.043957297 0.05167819 -0.21688437 -0.12319835
000250 0d 6d 1b bd 1f 2f 05 be 9c 45 c3 bc b6 05 a8 bd
       -0.037945796 -0.13006257 -0.023836903 -0.08204214
000260 26 6f 06 3e da d6 88 3d 06 8c 59 bd d2 db 78 3e
       0.13128337 0.06681605 -0.053112052 0.24302605
000270 c4 c6 1d 3e e2 92 69 be ff 56 76 3d b8 f8 a5 bd
       0.15407854 -0.22809938 0.06014156 -0.0810408
000280 b6 58 45 3a 6d 6d 2f be a2 75 f5 bb b7 88 20 bd
       0.00075281726 -0.17131586 -0.0074908296 -0.03919288
000290 71 0f 34 3e e5 e4 a6 3a 4d c2 4d be 4f 78 31 be
       0.17584015 0.0012733011 -0.20093651 -0.1733105
0002a0 03 08 e1 bc 69 e7 0a 3e 83 5e 89 3d 44 c9 37 3e
       -0.02746964 0.13564838 0.0670748 0.1794787
0002b0 e0 b2 af bd b5 bd 4e 3d de b9 8e be 75 5f 77 3e
       -0.085790396 0.050473887 -0.2787618 0.24157508
0002c0 42 87 9b 3d 10 0b 22 3d 52 0b 42 be 03 27 91 be
       0.07594158 0.03956133 -0.18949631 -0.28350076
0002d0 06 87 88 bd 06 28 8c bc 1f 4e 46 3b ba fd 9a 3d
       -0.06666379 -0.017108928 0.0030258966 0.07567926
0002e0 d5 ac a5 bd c5 01 f5 3d b6 93 90 bd b2 94 b4 3d
       -0.08089606 0.11963228 -0.070594236 0.08817424
0002f0 8e c7 22 be 1a 19 0c be 32 f3 ed bd f4 83 31 be
       -0.15896437 -0.1368145 -0.116186514 -0.17335492
000300 59 85 0d be a1 3c 0a 3e 95 c3 17 3e c0 c8 00 be
       -0.138204 0.1349969 0.14820702 -0.1257658
000310 d9 d6 20 3d 1e 01 bf bd e4 7f 2d 3e 3a 63 e2 3d
       0.039267395 -0.09326385 0.16943318 0.11054082
000320 de 70 93 3d 82 2a 17 be 66 65 b6 bd 0e dd 1b bd
       0.07199262 -0.14762309 -0.08906059 -0.03805261
000330 9c c4 25 be 8a b7 d8 bd 4d 43 43 3d 00 f0 16 be
       -0.16188282 -0.10581882 0.047671605 -0.1473999
000340 36 54 45 3d 41 96 87 bb 95 4c 74 bc 42 a3 58 bd
       0.048176013 -0.0041377847 -0.014910837 -0.05289007
000350 9b 4a c7 bd 50 59 2d be b1 57 fc bd c0 06 0c 3e
       -0.09731027 -0.16928601 -0.12321413 0.1367445
000360 2a e4 5b bc 43 8b 34 3e 61 65 1c 3c f5 d5 ae bc
       -0.013421098 0.17631249 0.009545655 -0.021342257
000370 c6 61 de 3d fc 8e 2e be 26 d8 e5 bd 7c b8 d4 3d
       0.108584926 -0.17046732 -0.11222868 0.1038675
000380 ff 6b 41 bd 5a b0 12 3e 8b 71 87 bc 8f 39 04 3e
       -0.047222134 0.14325085 -0.016533634 0.12912582
000390 62 13 10 3c f5 09 9a 3c 8f 9a 1c be 55 26 80 bd
       0.008793684 0.018803576 -0.15293334 -0.06257311
0003a0 01 be 14 3c 44 6e a9 3d 9d e6 0f 3d c4 05 21 bd
       0.009078504 0.082729846 0.03513204 -0.03931214
0003b0 6c 3a a0 3a 49 62 1f 3e 3b 5d f7 3d b7 10 7d 3d
       0.0012224442 0.15564837 0.12078329 0.06178352
0003c0 b2 9e 05 be 91 5f 79 bd 01 c0 ec 3d fb e6 26 3e
       -0.13048819 -0.060882155 0.11560059 0.1629905
0003d0 6a 4e af bd 3d 90 9d 3d 8f a9 2d bd cb 3c eb 3d
       -0.08559878 0.07693527 -0.04239803 0.11486205
0003e0 ec e0 de bc 30 62 13 be 62 87 37 be 42 4d de bb
       -0.02720686 -0.14392924 -0.17922738 -0.006784112
0003f0 59 a4 5a 3d 50 99 da bd 1e e0 11 3e 52 e4 af 3d
       0.05337939 -0.10673773 0.1424565 0.085884705

encoder.feature_encoder.atom_embedding_list.1.weight f4 [5, 64]
000000 95 b2 ec bd 5f 20 96 bd d4 0c 52 3d 69 75 ea 3d
       -0.11557499 -0.07330393 0.051281765 0.114481755
000010 58 0f fe 3d 8d a4 74 3e c4 ef 45 3c 95 9d 0d 3e
       0.1240527 0.23890896 0.01208109 0.13829644
000020 49 46 a4 bb 2a 67 8f 3e ce f1 80 3e 1d fd 88 3d
       -0.0050132615 0.28008395 0.25184482 0.066889025
000030 45 ea 75 be 94 06 2d bd 55 67 a0 bd 5d 7e 45 bd
       -0.24015148 -0.0422426 -0.07832209 -0.048216213
000040 a6 78 14 3e 3f f9 f5 bd 4e 1d 14 be 61 8e 4b be
       0.14499149 -0.120104305 -0.14464304 -0.19878532
000050 a6 9d 10 bc 83 d6 4e be 40 56 dd bb aa 5d 55 be
       -0.008826649 -0.20199017 -0.0067546666 -0.20836511
000060 36 e3 45 be 26 dd 3b 3e c5 05 34 3e c4 95 cc bd
       -0.19324955 0.1834608 0.17580326 -0.09989503
000070 b4 f6 c3 bd 20 1d d7 bc 40 6e 82 be 52 39 e7 bd
       -0.09568539 -0.026259005 -0.2547474 -0.1129023
000080 d5 6b 24 3e 2c d2 54 bd 53 1d 7c 3e a8 8f 69 be
       0.1605676 -0.051958248 0.24620561 -0.22808707
000090 9d 30 51 be 52 66 d3 bd f1 bb 90 be c8 15 19 3d
       -0.20428701 -0.103222504 -0.28268388 0.037374288
0000a0 f5 17 22 3e 93 bd 7b be a9 eb 82 be 3a 86 00 be
       0.15829451 -0.24584036 -0.2557042 -0.12551203
0000b0 ce ab 8f 3e 20 ff bb 3d b9 cf 1e bd d1 ae 92 3e
       0.28060764 0.091795206 -0.03877232 0.28649
0000c0 54 30 6e 3d 1a b1 55 3e e8 12 2d bd ff 0a 00 be
       0.058151558 0.2086834 -0.04225436 -0.12504195
0000d0 b1 65 e6 bc 48 65 8c 3d e0 6a 34 3e f9 ec 46 bd
       -0.028124662 0.06855255 0.17618895 -0.04856584
0000e0 e1 85 d3 bc f8 93 51 3b 81 6e b2 bd 51 fa 4e bd
       -0.025820674 0.0031979065 -0.08712483 -0.05053169
0000f0 59 89 27 be ef a2 9a bd 0c e6 19 3e e1 68 0f 3e
       -0.16360988 -0.07550608 0.15029162 0.14004852
000100 d1 f6 28 3e 71 19 49 be 2b bf b1 bd b9 52 1c be
       0.16500403 -0.19638611 -0.086790405 -0.15265931
000110 78 e4 6a be 23 f0 f7 bd 93 84 9a bc 20 f7 b0 bc
       -0.22938716 -0.12106349 -0.018862044 -0.021602213
000120 18 43 95 bc 91 bb 3e be 92 e2 a3 bc b1 21 a0 3d
       -0.01822047 -0.18626238 -0.020005498 0.07818926
000130 61 dd 58 3e fe ac 36 3e bc 58 7c be ed 5d 40 be
       0.211782 0.17839429 -0.24643224 -0.1878583
000140 89 2e 6e 3e 80 f8 4c 3e 85 9c 27 3e 9f bb 1b be
       0.23259939 0.2001667 0.16368301 -0.1520829
000150 70 a4 7e 3e 1b ad 92 be e9 22 70 be df 32 d8 3c
       0.24867415 -0.28647694 -0.23450817 0.026391445
000160 6e 6e 0c 3e 8c 4d 8e be 00 cb 31 3d 56 68 91 bb
       0.13714 -0.2779354 0.043406487 -0.0044374866
000170 81 fc 1e bd c4 81 6c be 2c c0 10 be 54 ca 62 3c
       -0.038815025 -0.23096377 -0.14135808 0.013842184
000180 5a 6e 90 3d d8 61 3d 3e b1 f1 d5 bd 50 e7 8e 3e
       0.07052298 0.18494356 -0.104464896 0.27910852
000190 8f 63 e3 3d 66 26 4d be 34 4e 96 be 95 03 4b 3e
       0.11102974 -0.20034179 -0.2935654 0.19825585
0001a0 d1 8f b6 3c 6f 71 f2 bc 75 ec c7 bd 98 f5 0d 3e
       0.022285374 -0.029595105 -0.097618975 0.13863218
0001b0 e5 4f d9 bd 19 ea 5c be 8e b2 51 3e 65 75 01 be
       -0.10610942 -0.21573676 0.2047827 -0.12642439
0001c0 4b dc 2d 3e e7 a5 4f be a7 ce 72 bd 15 76 25 be
       0.16978566 -0.2027813 -0.05927911 -0.16158326
0001d0 3a a3 4d 3c 1e d7 0e bd 0d 2b b4 3d ce 35 6a be
       0.012551123 -0.03487312 0.08797274 -0.22872087
0001e0 60 28 85 be ab 24 70 3e 06 33 67 be 68 a2 cb 3d
       -0.26007366 0.23451488 -0.22578058 0.09943086
0001f0 3b 1e 83 be c7 5d 6b 3d 41 96 cd bb 9b 7b 14 be
       -0.25609002 0.05746248 -0.006274015 -0.14500277
000200 71 f8 c6 bb eb 49 14 3d c0 31 07 3c fa 6f 64 3e
       -0.006072097 0.036203306 0.008251607 0.2230834
000210 c3 f4 2c be c6 ba 08 3e 4a 0c 8b 3e 43 e2 58 be
       -0.16890244 0.13352498 0.27157813 -0.21180062
000220 66 81 6c be f5 1a cc 3d 4d 62 d6 bd 1a ea d9 bb
       -0.23096237 0.09966079 -0.10467968 -0.0066502215
000230 20 d5 8c be f8 70 38 3e 30 7c 9f bc 89 82 94 3c
       -0.2750635 0.18011844 -0.019468397 0.01812865
000240 61 ec d1 bd 2c a4 d1 3d 31 74 9e bb 55 ae f0 bd
       -0.10250164 0.102363914 -0.0048356284 -0.11752001
000250 86 03 96 3d 5f 3b e0 bd 61 1f e0 3d 99 99 90 be
       0.07324891 -0.10948824 0.10943485 -0.28242186
000260 8f ab e9 bd d0 e3 4e be a9 76 00 3e 24 09 54 be
       -0.11409675 -0.20204091 0.12545265 -0.20706612
000270 bf f4 69 3e da 0a 93 3d 23 0f 39 3e d9 f7 44 be
       0.2284727 0.07179804 0.1807218 -0.19235171
000280 95 49 75 be 1f 34 46 bd de e8 25 be 9d 8d cc bd
       -0.2395385 -0.04838955 -0.16202113 -0.09987948
000290 08 35 78 3e 0f 63 21 3e 97 6d b2 bd 32 5b 37 3e
       0.2423898 0.15760444 -0.08712309 0.17905882
0002a0 a1 40 4a be e1 75 2f be c7 be 05 3e 0f 5c 02 3e
       -0.19751216 -0.17134811 0.13061057 0.1273043
0002b0 9a 9c ae bd 5a 0e 4e be 02 c8 3c 3d 75 a4 91 3e
       -0.08525963 -0.20122662 0.04608918 0.28445783
0002c0 20 97 94 3e 0f b9 77 3e a9 6f 62 be dc 28 48 3e
       0.2902155 0.24191688 -0.22112907 0.19546837
0002d0 9b 2f 5d 3d aa 15 75 be 11 25 9b 3c 96 cc 91 be
       0.05400048 -0.23934045 0.018938573 -0.284764
0002e0 3a a4 81 3d c0 08 26 be 0e 2a 4b be e7 14 6b 3c
       0.06330152 -0.16214275 -0.19840261 0.014348245
0002f0 63 a8 4b 3e 1b 7b 29 3e f0 db 3a be 18 c0 2b 3e
       0.19888453 0.16550867 -0.18247962 0.16772497
000300 d2 b2 e0 3d d0 92 49 be 31 c4 9b bd 68 b7 90 bd
       0.10971607 -0.19684911 -0.0760578 -0.07066232
000310 37 6c 75 be d5 c2 89 be 8a 0b 4d be 82 3f 89 3e
       -0.23967062 -0.26906458 -0.20023933 0.26806265
000320 46 75 a0 bd e7 e0 e7 3c 87 bd 7a be 56 c1 4f bd
       -0.07834868 0.028305484 -0.24486361 -0.05072149
000330 26 29 e4 3d 65 ce c3 bb 51 d4 bd bc 85 b4 80 bb
       0.11140661 -0.005975532 -0.02317253 -0.0039277696
000340 11 07 4b 3e 0f b7 54 be 0c 94 87 be 2c 6b 91 be
       0.19826914 -0.20772956 -0.26480138 -0.28402078
000350 50 8f f5 3d fe 32 28 be dc 0f 04 be 74 c0 1f bd
       0.11990225 -0.16425702 -0.12896675 -0.039001897
000360 86 04 31 3e 48 f5 27 3b 6a 6a 6c 3d 01 a2 a9 bd
       0.17286882 0.0025628377 0.05771867 -0.08282853
000370 20 55 24 3e b0 a2 16 be e3 c0 68 3e b2 8c 78 3e
       0.16048098 -0.14710498 0.2272983 0.24272421
000380 27 cf 87 be 18 38 bf bd 49 8a 11 bd bd 97 22 be
       -0.26525232 -0.09336871 -0.03553227 -0.15878196
000390 86 b3 81 3c 68 36 c6 bd 27 fb 79 3e b6 1b bf bc
       0.015832674 -0.09678346 0.24412213 -0.023328643
0003a0 b0 c9 28 be ce ef 15 be 3d 19 8d be 99 94 39 be
       -0.16483188 -0.1464226 -0.27558318 -0.18123092
0003b0 ba 7f 6a 3d 4a 6b b6 3d 67 23 02 be 2c 9f 44 3b
       0.057250716 0.089071825 -0.12708817 0.00300021
0003c0 1f 81 17 3e c3 a6 1f 3d d4 10 08 3d 93 15 46 be
       0.1479535 0.038977396 0.033219174 -0.19344167
0003d0 19 f1 8d 3e 6e 49 b2 bd ce 46 c7 3c 5d bd 14 bd
       0.27723005 -0.08705412 0.024325754 -0.036313403
0003e0 04 2e 03 3e 84 1b 7a be 99 6e 89 3d b6 60 6a be
       0.12810522 -0.24424559 0.06710548 -0.22888455
0003f0 01 56 6e 3e ca 0a ee bd 9a 90 76 3d 82 db 9f 3c
       0.23274995 -0.116231516 0.060196497 0.01951385

encoder.feature_encoder.atom_embedding_list.2.weight f4 [12, 64]
000000 7c 45 61 3e 0c 56 c3 bd 18 76 f1 bd b9 01 31 bd
       0.21999162 -0.095378965 -0.11790103 -0.043214533
000010 08 0d af 3e 12 43 83 be c4 02 03 3f 1b 4f 88 be
       0.3418963 -0.25637108 0.51176095 -0.26622853
000020 97 0c ef 3d 17 e0 ba 3e b9 a6 f4 bd 11 0d 8f be
       0.11672323 0.36499092 -0.11945862 -0.27939656
000030 27 ec 1c be 5e 45 e3 bd 82 01 78 be b9 a3 8b be
       -0.1532446 -0.11097215 -0.24219325 -0.27273348
000040 eb dc 13 be db dd 32 3d d1 37 7c 3e da be be bb
       -0.14439742 0.04366861 0.24630667 -0.005821091
000050 68 0a 0f be ea 92 b4 bd 15 e7 1e bb 29 e3 9d 3e
       -0.13968813 -0.08817084 -0.0024246622 0.30837372
000060 32 16 49 3d c2 45 97 bd e5 fb 05 3d d3 25 7e 3e
       0.049093433 -0.07386352 0.03271093 0.24819116
000070 ff 16 81 be 50 7c cd 3e af 9c 7f bd bb 7e 9e 3d
       -0.25212857 0.40133905 -0.062405284 0.07739016
000080 98 4c 9d 3d 11 e0 35 bd 47 92 bf bd 9a 4f 31 3e
       0.07680625 -0.04440314 -0.09354072 0.17315522
000090 ac 24 33 be 87 6c 51 3e 5a bd cb 3e ec d5 63 bd
       -0.17494458 0.20451556 0.397929 -0.055623934
0000a0 fa ac ca bd 90 dd ea 3d 24 63 86 3e c6 77 a2 3e
       -0.09896274 0.11468041 0.26247513 0.31732005
0000b0 51 c6 cf bd a8 f1 da 3e 79 a2 af 3e 04 f6 c9 be
       -0.10145248 0.42762494 0.34303644 -0.39445508
0000c0 8e 8f f2 3d c5 8f a4 be 25 e4 50 3e 19 0b 32 3e
       0.11843787 -0.32140937 0.2039953 0.17387046
0000d0 f7 66 b5 3d 60 13 b3 bd 99 2f 59 be 47 68 1c be
       0.088575296 -0.0874393 -0.21209563 -0.15274154
0000e0 8d d3 3f 3e f4 f9 b4 be 52 9f 41 3e 5c 04 41 3e
       0.18733044 -0.3534695 0.18908432 0.18849319
0000f0 af c6 49 bd ca b4 f5 3c e6 11 cc bd 27 ed 23 3e
       -0.049261745 0.029993434 -0.09964351 0.16008435
000100 cc c3 8b bd f4 ff 8f bd 5e ea df bd 5a 99 27 bd
       -0.06824455 -0.07031241 -0.10933374 -0.04091773
000110 9b f3 a7 3c ad 99 28 bd 93 c6 53 be dd d5 b4 be
       0.020501902 -0.04116218 -0.20681219 -0.35319415
000120 a6 c5 72 be 7f f8 c4 bd 74 ec 80 3e 0e a2 9e 3d
       -0.2370821 -0.09617709 0.251804 0.07745753
000130 54 9f 28 bd ee 3c 07 be ea e5 3e 3e 84 cb 35 3e
       -0.041167572 -0.13206837 0.18642393 0.17753416
000140 81 a2 81 be 72 eb a1 3e 62 fe f3 3d a3 a1 2b bc
       -0.25319293 0.31624943 0.11913754 -0.010475549
000150 09 56 46 3e f5 42 ee 3d 76 88 7b be 22 b9 86 be
       0.19368757 0.11633865 -0.24563774 -0.2631312
000160 6d 7b cf bd 19 af 2a be 90 2c 64 3e 7f c5 2c 3e
       -0.101309635 -0.16668357 0.22282624 0.16872214
000170 f4 99 74 bd 02 0d 10 3e 11 8d 29 be 2b 03 ae 3e
       -0.059717134 0.14067462 -0.16557719 0.33986792
000180 27 43 82 be b3 af 32 3e dc 57 dd 3d 55 6c b8 bd
       -0.25441858 0.17449836 0.108077735 -0.09005038
000190 fb 3f fe be 57 96 86 3e 87 1b 04 3e 4d 6b f6 bc
       -0.49658188 0.26286575 0.12901126 -0.030080462
0001a0 7e 43 e2 3c 54 bd 6d 3e f6 b1 af bd bb 41 07 3e
       0.027620073 0.23216754 -0.08578865 0.13208668
0001b0 49 4a b1 3d 06 87 ba be 67 2d 3e bb a5 f2 af be
       0.08656747 -0.3643114 -0.002901876 -0.3436481
0001c0 96 e2 20 3e 2a 2d ae be b3 ea 3c be 8b a4 b0 be
       0.15711436 -0.34018832 -0.18448906 -0.34500536
0001d0 20 a5 c5 bd 18 41 0f bf c1 74 5c 3e 72 b9 23 be
       -0.09650636 -0.559587 0.21528913 -0.1598871
0001e0 c0 80 41 3e 36 d0 a6 3e cb 32 dc bd 0d 0e 26 be
       0.1889677 0.32580727 -0.107518755 -0.16216297
0001f0 4a 3d 1a 3e dc 65 43 be 5c 6c 06 be 72 bd b3 bd
       0.15062442 -0.19081825 -0.13127273 -0.08776368
000200 89 0a 9a be 58 40 31 3e e6 54 4d 3e 58 19 12 3c
       -0.30086163 0.17309701 0.20051917 0.008917175
000210 c6 69 e6 3d a2 0d 5b 3e 48 df a3 be 92 e6 25 3d
       0.112506434 0.2139192 -0.32006288 0.040503092
000220 51 5b 49 be 92 78 95 bc 03 b6 4f be ec c3 19 bd
       -0.1966374 -0.018245969 -0.20284276 -0.03754036
000230 40 28 de be de 90 aa be 1f 46 90 3e cc ec eb bd
       -0.43390083 -0.3331365 0.28178498 -0.11519775
000240 54 c7 80 3d 23 90 ab be fd 32 0c be a4 ea d3 3e
       0.06288019 -0.33508405 -0.13691325 0.41389954
000250 f3 95 64 3d 5b 0d 43 3c f2 70 0f be b0 1f 8c 3e
       0.055807065 0.01190504 -0.14007929 0.27367926
000260 8c 50 67 3e fe da 41 bc 54 f3 f2 bd 30 db 7c bd
       0.2258932 -0.011831997 -0.118628174 -0.06173247
000270 0a f0 27 bd 86 e0 ac bd af 08 77 3e a4 c9 23 3c
       -0.041000403 -0.08441262 0.24124406 0.009996805
000280 23 61 02 3e f4 09 12 be 2f c0 69 3d 1c d9 60 3d
       0.12732367 -0.1426161 0.057068046 0.05489455
000290 84 23 b6 bd d8 b1 55 3e 1a 60 3b 3e b6 d9 62 be
       -0.08893493 0.20868623 0.18298379 -0.22153363
0002a0 97 65 01 be 77 f0 98 bd a6 90 8b 3d ca 8c 04 3e
       -0.1263641 -0.0746774 0.06814699 0.12944332
0002b0 ef b3 b6 3e f8 84 4b 3d c4 00 bf bc e7 b2 4e be
       0.35684153 0.049687356 -0.023315795 -0.20185433
0002c0 a6 29 93 bd bf 7b a1 bd 08 f1 87 be 48 d0 80 3e
       -0.07185678 -0.07884931 -0.2655108 0.25158906
0002d0 70 7c 13 3e 2d 69 cb be 49 3a d3 be b5 b2 26 be
       0.14402938 -0.3972868 -0.41255406 -0.16279109
0002e0 f8 6a 89 3d 95 1a d3 3d 89 ec 79 3e b6 90 11 3e
       0.06709856 0.103078045 0.24406637 0.14215359
0002f0 69 38 e0 be d0 9e 18 be da d5 a3 be 68 db 7d be
       -0.43793038 -0.14904332 -0.31999093 -0.24790728
000300 69 da 18 3d 43 cf c5 3d ac 0d 84 be 77 ef c8 bc
       0.037317667 0.09658673 -0.2579168 -0.024528248
000310 26 64 09 3e 98 0b a5 3e f0 be 74 3d 3c 04 11 3e
       0.1341711 0.32235408 0.059752405 0.14161772
000320 e6 f4 d3 bc d0 c8 35 be c0 ff 9a 3e b5 26 8c bc
       -0.025873613 -0.17752385 0.30273247 -0.0171083
000330 22 0a c6 bc 17 93 f2 3d b6 46 99 3e f0 1b 37 be
       -0.024174754 0.118444614 0.2993676 -0.17881751
000340 cc 7f 13 be 6b 84 e1 3d 1b 42 8c be d7 e6 30 bd
       -0.1440422 0.11011585 -0.27394184 -0.043188896
000350 fc ec 6b 3e 44 91 82 3d 4f 8e c1 bd c1 9c 48 be
       0.23039621 0.063753635 -0.09450971 -0.19591047
000360 a2 db bd be f8 ae f0 bd 0c 8d a1 bd 2c f9 23 3e
       -0.3708163 -0.11752123 -0.07888231 0.1601302
000370 c7 37 75 3e 1a ff fa 3d ed f6 8c bd 27 b1 c8 3e
       0.23947059 0.12255688 -0.06883035 0.39197657
000380 cd 1a 80 bd 7a 07 65 be 4e 16 ce 3d ed db b6 3d
       -0.06255112 -0.22366133 0.10062848 0.08928666
000390 d5 3e 4f be e7 cf 30 3c 39 8c 23 be 87 61 76 be
       -0.20238812 0.010791755 -0.1597146 -0.24060641
0003a0 77 97 1e be 5f dc 32 bc b0 35 7f 3d 71 6b ee bd
       -0.15487467 -0.010916798 0.06230706 -0.116415866
0003b0 b7 f4 2d be 0c c6 9d bd 8e 79 c5 3e 77 50 52 bd
       -0.16987883 -0.0770379 0.385693 -0.05134627
0003c0 5e b4 7a be 0b 11 4a be 4c e4 11 3e 38 69 23 3e
       -0.24482867 -0.19733064 0.14247245 0.15958107
0003d0 84 54 21 bd bd 49 96 3e 60 70 2e 3e 64 15 a1 ba
       -0.03938724 0.29353133 0.17035055 -0.00122897
0003e0 0d a1 93 3e d4 a0 da bd 97 7c 66 bd 13 ba 3a 3e
       0.2883381 -0.10675207 -0.056271162 0.18235044
0003f0 95 32 98 3e f0 69 f2 bd 36 2e 77 3e 3f 7c 0a bd
       0.2972609 -0.11836612 0.24138722 -0.033809897

encoder.feature_encoder.atom_embedding_list.3.weight f4 [12, 64]
000000 21 91 70 3e 6b 0b b3 3d b1 b0 f4 3d 78 45 a7 3e
       0.23492862 0.08742412 0.11947764 0.32670188
000010 cd e5 2a 3e df e1 5e 3e 8e 97 45 be 07 3a 54 be
       0.16689225 0.2176585 -0.19296095 -0.2072526
000020 44 36 9a 3e 45 a2 5d 3e 57 e5 cc 3d 57 dc c2 3d
       0.30119526 0.21643932 0.100046806 0.09514683
000030 1b ed 2d bc 59 8e c9 3d 35 96 0a be 1d 86 55 be
       -0.010615612 0.09841604 -0.13533862 -0.20851941
000040 72 95 94 3e 66 67 59 be de cc 71 be c1 4a b3 bc
       0.29020268 -0.2123085 -0.23613307 -0.021886231
000050 bf 52 1b 3e e6 c9 85 be b0 22 37 3e da 31 4d 3c
       0.15168284 -0.261306 0.17884326 0.012524093
000060 43 b0 09 3d 94 db 9d 3d a7 db 30 3e 41 8d 82 bc
       0.033615362 0.07707897 0.1727129 -0.015936496
000070 6f ca 98 be 6b 48 30 3e b6 4b ba bd bc cf 1f be
       -0.29841945 0.17215125 -0.09096472 -0.15606588
000080 3b 34 a4 3d bc 5f 41 3e 92 df 23 3d c0 b5 23 be
       0.08017775 0.18884176 0.040008135 -0.15987301
000090 42 a7 38 be 9c 90 64 3d 47 6c c9 3d 03 bc 47 3e
       -0.18032554 0.055801973 0.098351054 0.19505315
0000a0 ad da 7b 3e c5 b8 1c be b8 bc b2 3d 37 71 63 3e
       0.24595137 -0.15304859 0.087274015 0.22211157
0000b0 86 60 31 3c 95 c0 89 bd 8e 98 60 be c4 f2 6c bd
       0.010826236 -0.06726185 -0.21933195 -0.057848707
0000c0 af 0c 0b be f5 4f 1f be 93 58 02 be 55 78 18 3e
       -0.13579057 -0.15557845 -0.12729101 0.14889653
0000d0 c1 01 26 bd af 63 3c 3d d3 34 03 3e 01 f6 8e be
       -0.040529016 0.045993503 0.1281312 -0.2792206
0000e0 1f 22 04 be 23 fa 67 3e 82 f1 5d be a1 39 65 3e
       -0.12903641 0.22654013 -0.21674159 0.22385265
0000f0 1c 4f 1e be 96 33 95 3e d4 0e 13 3e 96 5c 19 bd
       -0.15459865 0.2914092 0.14361125 -0.037441812
000100 c9 b1 f7 bd a5 8a 18 3e 42 1d 9e 3d 30 08 5f 3d
       -0.12094457 0.14896639 0.07720424 0.054451168
000110 88 64 e6 3c 8f 1f b4 bd 9c 61 94 be 02 86 cf 3e
       0.028124109 -0.08795082 -0.2898072 0.40531927
000120 09 5b 29 bd f0 53 89 bc c9 1c 41 be 44 2d 82 be
       -0.041346584 -0.016763657 -0.18858637 -0.2542516
000130 3f 1d c2 3d d0 1d d2 3c eb d4 bf 3e 2e c4 13 be
       0.094782345 0.025648981 0.3746713 -0.14430305
000140 c5 9f 2f 3e df 40 c7 bd b6 d5 aa bd ed c5 f1 3d
       0.17150791 -0.0972917 -0.083415434 0.118053295
000150 25 53 05 3e 7e 38 8d 3e a5 1c 8d be 9a f1 bf bd
       0.13019998 0.27582163 -0.27560917 -0.09372254
000160 1d 09 c5 bd b9 b4 99 3e de 72 8f 3e 1d 21 8b bc
       -0.09620879 0.30020693 0.28017324 -0.016983563
000170 9c b8 54 3e b6 21 ff bc 19 df 96 bd fe 04 12 3e
       0.20773548 -0.031144004 -0.07366771 0.14259717
000180 3e d3 d9 bd 1d 5a 8a 3d bc b7 ec 3c 0d 33 6f be
       -0.106359944 0.06755469 0.028896205 -0.23359318
000190 9e ac 8c bd 59 48 af be 59 92 83 be bb a5 18 be
       -0.068688616 -0.34234884 -0.25697592 -0.14906971
0001a0 2d 91 bb 3d 95 f8 be 3d 15 24 bf 3d 21 41 10 3d
       0.091585495 0.09324757 0.09333054 0.03521836
0001b0 6a 35 04 be 06 0a b7 be dd f2 50 3e 24 da 72 3d
       -0.12911001 -0.35749835 0.20405145 0.059290066
0001c0 00 ee 3f 3e a6 28 86 be f1 7d 8a be 9b 25 b5 bd
       0.18743134 -0.26202887 -0.2704921 -0.08845063
0001d0 52 12 6e 3e 02 79 64 be ba 36 47 3c f0 44 5a be
       0.23249176 -0.22311786 0.012159044 -0.2131536
0001e0 88 c5 08 3c fb e2 dd 3d b8 c6 02 be ad dd 07 3e
       0.008347876 0.10834309 -0.12771118 0.13268156
0001f0 2a fc 75 be f5 d6 ef bd 1e 37 44 be ee 15 1d be
       -0.24021974 -0.11710922 -0.1916165 -0.15340397
000200 b1 7b dd bb c7 4d 04 bd ad ef 9f 3e c6 8e 59 be
       -0.00675913 -0.032300737 0.31237546 -0.2124587
000210 64 38 d3 bd 26 54 af bc 3d 71 14 be 31 bc 69 3e
       -0.1031349 -0.02140243 -0.14496322 0.22825696
000220 c5 d3 9f 3e e2 f4 0f 3e 1c 9d 23 3e ad 50 cb 3d
       0.31216255 0.14058259 0.15977901 0.09927497
000230 76 22 8f 3e 82 28 a9 bd 3d 6c 1d 3e 44 6e 76 3c
       0.2795598 -0.082596794 0.15373321 0.015040938
000240 a2 51 cb 3d 8e 41 8d 3e db 6c da bd f2 41 94 3e
       0.099276796 0.27589077 -0.10665294 0.28956562
000250 7f c9 e0 3e 22 10 8b bd 3d 55 aa bd 4d 49 7f be
       0.4390373 -0.067901865 -0.08317039 -0.24930306
000260 cf 5b 17 3e a7 e8 9a be 31 2c 9f be 00 05 87 3e
       0.14781116 -0.30255625 -0.31088403 0.26371002
000270 58 87 84 3d c0 c2 8d 3e 69 ae 70 be 1d 12 22 be
       0.06471127 0.27687645 -0.23504032 -0.15827222
000280 5d 1c d1 bd cd eb bb 3d b3 6c 5a be f3 7f 92 be
       -0.10210488 0.09175835 -0.21330528 -0.28613243
000290 b2 a3 0b bd f2 c4 58 be af a4 7d 3e 6c a9 3a 3d
       -0.03409166 -0.21168879 0.24769853 0.04557173
0002a0 38 33 42 be 50 8a 29 3c 88 84 b6 3c 1a 0e 34 be
       -0.18964851 0.010347918 0.022279993 -0.17583504
0002b0 70 9e a9 be 1d c4 93 3e 80 a7 39 be 7f a8 6d 3e
       -0.3312869 0.2886056 -0.18130302 0.23208807
0002c0 f3 44 0e be ec 2b ff bd be 21 87 3d ca 33 53 3d
       -0.1389349 -0.12459549 0.06598233 0.05156306
0002d0 78 68 43 be f9 c1 ab be 8f e6 40 bd 1d 7e 17 be
       -0.1908282 -0.33546427 -0.047094878 -0.14794202
0002e0 23 c7 fc 3d 71 e4 b2 be fa de da bd c9 9b ef 3d
       0.1234267 -0.34939912 -0.10687061 0.116996355
0002f0 60 66 79 be 66 62 16 be 44 e3 9a bd ff e1 41 be
       -0.24355459 -0.14685974 -0.07562879 -0.18933867
000300 2f 18 d5 3d 1b ea 50 3c fb d2 66 3d ad 88 78 3e
       0.10405003 0.012751128 0.05635355 0.24270888
000310 9b f6 8c 3c fb c9 82 be 2f 8f b2 be 2b 1f 60 3d
       0.017207434 -0.25544724 -0.34874865 0.054717224
000320 6b 6a 60 be 86 93 88 3e bc c6 a7 bd e4 d2 4b 3e
       -0.21915595 0.2667505 -0.081922024 0.19904667
000330 61 6b b3 bd 7f 27 5f be 1d 91 6d be e0 de 90 3e
       -0.08760715 -0.2179241 -0.23199888 0.2829504
000340 d5 8c 4c be a6 66 23 3e 60 79 0e be 91 c4 19 be
       -0.19975598 0.15957126 -0.13913488 -0.1501639
000350 b6 06 5e be d9 4a 0b 3e 79 90 5b 3e ad 27 10 be
       -0.21682248 0.13602771 0.2144183 -0.14077635
000360 28 88 56 be 0d 5e 9b bb 30 34 4b 3e c7 c3 38 be
       -0.20950377 -0.0047414363 0.19844127 -0.18043433
000370 bf 4e fd 3d 41 32 fd bc 09 0c 7b be 5c 27 21 3e
       0.12368535 -0.030907752 -0.2451631 0.1573767
000380 d7 52 26 be ef 53 82 bc a8 c0 88 bd ad 8d 8e be
       -0.16242538 -0.015909163 -0.06677371 -0.27842465
000390 6f cd 34 bd b6 44 79 be 52 af 7e 3e 69 32 57 be
       -0.04414123 -0.24342617 0.24871567 -0.21015324
0003a0 18 28 43 3e 9b b7 53 3c a0 84 e4 bd f3 90 a7 bc
       0.19058263 0.012922193 -0.11158109 -0.02045486
0003b0 a7 2d 93 be 1c 8d 0a bd 02 85 73 3e 10 dd 2b be
       -0.28745767 -0.03382598 0.23781207 -0.16783547
0003c0 83 c0 24 3e f4 24 4c be 7f ea 6f be eb 8f c9 3d
       0.16089062 -0.19935971 -0.23429297 0.09841903
0003d0 f7 cf 92 3d 00 32 ad be 3c f9 b1 be 1d 35 3a 3e
       0.071685724 -0.3382721 -0.34760463 0.18184324
0003e0 ec 42 f0 bb cd e2 73 3e 8d a2 d0 bd e3 66 bf 3d
       -0.0073321965 0.23816986 -0.10187254 0.09345796
0003f0 f3 5f bc be 00 94 a6 3d 64 b4 51 be ba 5c 8e bd
       -0.36791953 0.081336975 -0.2047897 -0.0695128

encoder.feature_encoder.atom_embedding_list.4.weight f4 [10, 64]
000000 92 29 83 3e fd 98 4f 3e d8 65 19 3e 53 30 4f 3e
       0.25617653 0.20273204 0.14980257 0.20233278
000010 fa 5e 73 3d 65 2c 7d 3a 80 6c 10 3e 93 82 4d bd
       0.05941675 0.00096577994 0.1410389 -0.050173353
000020 8c fe 8a 3e b5 58 51 be 95 8b 14 be f5 ef 4e 3e
       0.2714733 -0.20443995 -0.14506371 0.20208724
000030 3b 02 29 be 6f 29 a9 3e d4 2e 32 be 78 0b 1a 3e
       -0.16504757 0.33039424 -0.17400676 0.15043437
000040 36 2b 39 3e 82 8a 65 3e 9a 62 89 be d3 a1 74 3d
       0.1808289 0.22416118 -0.2683304 0.05972464
000050 af 0a 8f bc b2 cd 70 bd d2 3a a0 be 36 bf 86 be
       -0.017461149 -0.058789916 -0.31294876 -0.26317757
000060 88 b7 ba bd 86 0d 86 3e 2a d1 9c be bf e9 c4 be
       -0.09117037 0.26182193 -0.3062833 -0.38459584
000070 81 7b e0 be f3 2e 33 3e 00 5a 9d be 98 01 80 be
       -0.43844226 0.17498378 -0.30732727 -0.25001216
000080 d8 d0 2f 3c aa c0 61 be e3 e3 8d bc 09 a1 c5 bd
       0.010730945 -0.22046152 -0.017320579 -0.09649856
000090 88 7a a1 3e ad d6 47 3c 4d 8e f7 be 5e 2f 2e be
       0.31538796 0.012197179 -0.48350754 -0.17010257
0000a0 99 1c 57 bd 82 24 0d be c2 cb 87 3e 07 f7 73 be
       -0.052517507 -0.13783458 0.26522642 -0.23824702
0000b0 67 de 46 be b1 df 12 3e 22 9f 86 bd fb f5 6a 3e
       -0.19420777 0.14343144 -0.06573321 0.22945397
0000c0 6f 01 24 3d c6 c0 a1 3c f3 ce be 3d 30 32 7e 3d
       0.04004043 0.019745242 0.09316816 0.06205958
0000d0 49 41 1b be 97 d3 3e bd f7 1e 93 bd b3 66 8e be
       -0.15161623 -0.046588507 -0.071836405 -0.27812728
0000e0 36 29 9c 3e 43 b9 88 3d 1f ce 04 be 39 f5 14 3e
       0.3050019 0.06675961 -0.12969254 0.1454667
0000f0 a9 0b 25 3e 21 0b 27 3e 73 91 03 3e d9 59 bc 3b
       0.16117729 0.16312839 0.12848453 0.0057480154
000100 69 87 18 be dc c0 28 3e 5f 86 bd 3d 4b 80 13 3e
       -0.14895405 0.1647982 0.09254145 0.14404409
000110 c0 6c 33 3e d8 14 0b be 1f fa 0d be c2 94 b9 3e
       0.17521954 -0.1358217 -0.13864945 0.36246306
000120 32 b1 ea 3b a2 c3 c7 bd 9f 93 84 be 59 fe c8 be
       0.0071622366 -0.09754111 -0.25893876 -0.39256552
000130 4b f4 65 3e a7 bd cc bb 40 ba 27 bc 4a b6 84 be
       0.22456472 -0.0062481943 -0.010237277 -0.25920326
000140 80 f1 e5 3c a2 e2 66 bd 74 7d 8b 3e 22 b5 9d bd
       0.028069258 -0.056368478 0.2724415 -0.07700564
000150 63 90 53 bb d6 fb 0a 3e e8 96 22 3e 8c 2b 91 3e
       -0.0032282106 0.1357263 0.15877879 0.28353536
000160 b6 53 13 3e ba e8 b2 be 98 28 29 3e b2 df 21 3e
       0.14387402 -0.3494318 0.16519392 0.15807989
000170 73 84 a5 3e 0b 5c 0f be 56 41 05 3d 95 97 af be
       0.32327613 -0.13999955 0.032533012 -0.34295335
000180 19 e6 97 3e 2f 3e 13 bd 1d 2d c5 3e 45 b9 ce 3d
       0.29667738 -0.035947975 0.3851098 0.10093931
000190 d4 af e6 bd b9 ad 94 3e f2 59 9b 3e 8d 38 39 be
       -0.11264005 0.2903879 0.3034206 -0.18087979
0001a0 c7 de f1 bb 27 ca 9b be 85 1b 79 be 2a a4 c0 3d
       -0.0073812935 -0.30427667 -0.24326904 0.09406312
0001b0 27 46 ae be ce 1a fa 3d f6 17 11 be 0d 7a 46 bc
       -0.34037897 0.12212144 -0.14169297 -0.01211406
0001c0 59 02 d2 bd ca f7 ab 3e 8b 88 71 3e 5a d9 c0 be
       -0.10254354 0.33587486 0.23587243 -0.37665826
0001d0 82 17 9f bd 83 bf 3e be 2b 03 8e be e6 cc 9e be
       -0.07768156 -0.18627743 -0.27736792 -0.310157
0001e0 c1 00 59 be f8 d3 92 bd 5a 09 9f 3e 9a 8e 48 3d
       -0.21191694 -0.07169336 0.31061822 0.04896412
0001f0 18 e5 21 3e b1 b6 de be 53 3f 7a be d7 d3 2d 3e
       0.15810049 -0.43498757 -0.24438219 0.16975342
000200 aa 03 85 bd bc 0b 09 3e c8 ce 09 be c6 b0 80 be
       -0.064948395 0.13383383 -0.13457787 -0.25134867
000210 65 7b bb be a6 c1 58 be 68 4d 59 3c f2 c0 4b be
       -0.3661758 -0.21167621 0.013263084 -0.19897822
000220 cf fc 27 be 0b cd 57 3e 4c b7 45 3e a4 0d 88 bd
       -0.16405033 0.21074311 0.19308203 -0.06643227
000230 75 2d 31 3e e0 f1 39 bc 39 63 6b be 2c 3f 18 be
       0.17302497 -0.011349171 -0.22987069 -0.14867848
000240 d5 70 67 bd f2 bd a6 3d 2a 91 8b be 55 44 aa 3e
       -0.05650409 0.08141698 -0.2725919 0.33255258
000250 6f 58 df bb 8f a4 56 3e 0d c3 03 3d aa 02 d8 bd
       -0.006815962 0.20961212 0.032168437 -0.10547383
000260 f6 5d 87 be f0 85 d8 3d 9c 17 b7 3d 3a 03 97 3e
       -0.26438874 0.105724216 0.0894005 0.2949465
000270 90 75 41 be d6 f4 73 bd 9d 44 18 be a2 b6 a1 bd
       -0.18892503 -0.059559666 -0.14869924 -0.078961626
000280 18 7e e6 bc 39 fd da bc 37 42 04 be b1 7d 89 3e
       -0.028136298 -0.026732074 -0.12915884 0.26853707
000290 6a f8 ac bd 81 21 04 3e 06 a9 80 3b b4 1e 82 be
       -0.08445819 0.12903406 0.003926399 -0.2541405
0002a0 78 93 2b 3e a4 22 2c be 94 cf 06 be a0 dc da bd
       0.16755474 -0.1681009 -0.13165122 -0.10686612
0002b0 aa 01 43 3e 3e 98 b8 be 9c dd 97 be 5a 97 93 be
       0.19043604 -0.36053652 -0.29661262 -0.2882641
0002c0 51 ae e1 bd e1 ae e1 bd 1c 50 95 3e e8 80 3e bd
       -0.11019576 -0.11019684 0.2916268 -0.046509653
0002d0 93 a4 01 3d 23 eb 8d 3e 94 16 5f 3e 99 2e bf bc
       0.03165109 0.27718458 0.21785957 -0.02333765
0002e0 e9 51 a3 be ae 8f 34 3e 65 78 0f be 84 ed 90 3d
       -0.3189843 0.17632934 -0.1401077 0.070765525
0002f0 45 2a ec 3d 9d 33 2d 3e 4e 23 90 3e 04 ac 5c be
       0.115315 0.1691422 0.28151935 -0.21549994
000300 26 4e f3 bd af c5 3e bd 61 af 64 3e 7b 84 84 be
       -0.1188014 -0.046575245 0.22332527 -0.25882325
000310 0e 06 0a 3e 01 e3 01 be fe e8 9d 3d f8 a7 e5 3d
       0.13478872 -0.12684251 0.07710455 0.11213678
000320 a3 a9 9e 3d a0 bb 92 bd 81 6a 79 be 49 bd a7 3b
       0.077471994 -0.07164693 -0.24357034 0.005119
000330 3e 63 d0 3d d7 74 14 be a8 c5 ec bc ea c2 be be
       0.10175179 -0.14497696 -0.028902844 -0.37258083
000340 da df e3 3d 9b 2a 34 3d c4 08 88 be 0d 2b 07 be
       0.11126681 0.043985944 -0.26569188 -0.13200016
000350 04 4e a2 3d 72 98 03 3e 8e ac 61 3e 76 08 c5 bd
       0.079250365 0.12851122 0.2203848 -0.096207544
000360 52 c8 72 3e 06 b8 18 be 8e ac 89 bd 91 3c 1b be
       0.23709229 -0.1491395 -0.06722365 -0.15159823
000370 23 3a 54 be c4 33 eb bd 0a ff 6a 3e 89 ff a0 be
       -0.20725302 -0.11484483 0.22948852 -0.31444958
000380 76 ca 87 bd f8 3f 1d 3e 1b da 86 be d1 e1 6a 3e
       -0.06630413 0.15356433 -0.26338276 0.22937705
000390 bd 0a 6f be d9 71 89 be 86 9d 7f be 85 f8 49 bd
       -0.2334394 -0.2684467 -0.24962434 -0.049309272
0003a0 4e 14 52 be ae fe c1 3e 7b da fc 3d 83 9e 0d 3e
       -0.20515558 0.37889618 0.12346359 0.13829999
0003b0 f3 20 90 be 44 32 d5 3d 4d f9 bc bd 60 4b 5b 3d
       -0.28150138 0.10409978 -0.09227238 0.05353868
0003c0 2f a8 4b 3d 8c 4a a3 be 32 6f 2f be 15 0b 55 3e
       0.04972094 -0.31892812 -0.17132261 0.20805009
0003d0 b2 83 41 3d b5 75 2e 3e 32 dc 36 be dd 60 94 3d
       0.047244735 0.17037089 -0.17857435 0.07245038
0003e0 c3 95 cd bd ef a3 93 3d af 66 3b be fe 67 7d 3e
       -0.100383304 0.07209002 -0.1830089 0.24746701
0003f0 43 e7 39 3e 71 d3 49 3c 7b 79 06 be b7 a7 b5 3e
       0.18154626 0.012318478 -0.13132279 0.3547952

encoder.feature_encoder.atom_embedding_list.5.weight f4 [6, 64]
000000 56 ed 37 be bb e7 6b 3d 9f 70 c3 bd 5f 05 fd 3d
       -0.1796163 0.057594042 -0.09542965 0.1235454
000010 41 a8 c5 bc ad db 56 3e 2d 05 39 be f1 a0 75 be
       -0.024128081 0.20982237 -0.1806838 -0.23987176
000020 58 6c 78 bd 5e 34 0d be 05 d1 0d be b2 4d bf 3d
       -0.0606502 -0.13789508 -0.13849266 0.09340991
000030 7b 69 8f 3e 87 72 4e be c3 18 8a be 56 99 ad 3d
       0.28010163 -0.20160876 -0.26972017 0.08476512
000040 7a 4d 9f be b1 40 11 bc e8 a7 05 3e ca 06 ce 3c
       -0.31113797 -0.008865521 0.13052332 0.025149722
000050 f2 7e 5d 3c da 77 b9 3d b4 2b 6a be 7c 55 57 bd
       0.013519036 0.09056063 -0.22868234 -0.05257176
000060 0c 5b 0d be 82 a6 91 be f4 53 47 be 1d 4b fe 3c
       -0.13804263 -0.28447348 -0.1946562 0.031041676
000070 46 a9 0a bd 2f f8 12 be 06 18 21 3e 82 06 54 be
       -0.033852838 -0.14352487 0.1573182 -0.20705608
000080 15 0f 2b 3b 34 a4 43 3e fd dd 20 3e 70 1c 94 3e
       0.002610152 0.19105607 0.15709682 0.28927946
000090 8b 64 b0 3d 05 86 5d bd c6 9d 48 be 4e 35 de bd
       0.08612927 -0.05408289 -0.19591436 -0.10850011
0000a0 cd bc 82 be d3 bc e9 bd 11 2b 9c be 68 d5 1f be
       -0.2553467 -0.114129685 -0.30501607 -0.15608752
0000b0 e9 bf 3e be 12 8e 63 3e 45 08 19 3d 76 cb 97 3e
       -0.18627895 0.22222164 0.037361402 0.29647416
0000c0 79 ad f1 3d 43 ca 5f 3e 9b 55 05 be a7 94 a5 bd
       0.118006654 0.218545 -0.13020937 -0.08084994
0000d0 d9 22 1f be be 04 96 be 5e 26 32 3d 54 5b 90 bb
       -0.15540637 -0.29300493 0.04349362 -0.0044054184
0000e0 2b 05 06 3e e0 77 dd bd f6 e5 94 3d d7 1e c8 3a
       0.13087909 -0.1081388 0.07270424 0.001526798
0000f0 b7 b0 ab 3d 00 cf 78 3d 66 88 f5 bd 61 29 56 3e
       0.08383315 0.060744286 -0.119889066 0.20914222
000100 59 89 91 be de 8c 0d 3d 07 92 1e 3e b9 d3 3b 3e
       -0.284251 0.03455817 0.15485393 0.18342485
000110 ba 20 04 3e ce 31 36 bd bc aa 55 3e 4d 1c 8e be
       0.12903109 -0.04448109 0.20865911 -0.27755967
000120 38 e9 7a bd 44 61 e0 bd 7e ec 36 3e f3 be 83 3e
       -0.06125757 -0.10956052 0.17863652 0.2573162
000130 1c 8f 9e bd 5b 51 71 3d a1 50 2d bd 1c 98 aa bd
       -0.0774214 0.058915477 -0.04231322 -0.08329794
000140 07 d5 ef 3d 4e 12 8d 3d 5d 29 10 be 06 dd 82 3d
       0.117105536 0.06888257 -0.14078279 0.06389813
000150 58 63 87 3e ba a6 51 be 1e 45 3f bd 8b 0e 85 be
       0.2644298 -0.20473757 -0.046696775 -0.25987658
000160 44 56 97 bd e9 c5 8d 3e 34 fb 42 3e e5 62 8d be
       -0.07389501 0.27690056 0.19041139 -0.27614513
000170 5b 3a 86 be 1f bf 40 3c 2e 26 09 bd f6 d3 61 3e
       -0.26216397 0.011764317 -0.033483677 0.22053513
000180 17 4f a5 bd 63 5d 63 3e 07 4c 31 be 15 7d 5a bd
       -0.08071726 0.22203593 -0.17314158 -0.053341944
000190 3d 86 cd bb 25 4d 1a be 29 8b 4b 3c 3b 31 81 bd
       -0.006272106 -0.15068491 0.012423315 -0.06308218
0001a0 79 3d 0e be 63 ef 6b be 3d ce f7 b9 c1 7e 8b 3e
       -0.13890637 -0.23040538 -0.0004726517 0.27245143
0001b0 0a bb e8 3d 8a 4a 65 be 7b 6e 17 be dc e8 44 3e
       0.113638 -0.22391716 -0.14788239 0.19229454
0001c0 6b 7d df bd 1f 3c de bc 67 f5 0c be 65 ef 0e 3e
       -0.109125935 -0.027128277 -0.13765489 0.1395851
0001d0 57 bf 4a be e9 12 8e be 40 49 5c be 38 57 81 be
       -0.19799553 -0.27748802 -0.21512318 -0.25261855
0001e0 a3 98 e6 3c 01 ea 39 3d 95 c7 bd bd c0 82 f8 3d
       0.028148955 0.04538918 -0.09266583 0.121343136
0001f0 9f f7 e0 3c 6f e1 90 3d 8a 59 1c 3e ba 7e 72 3d
       0.027461825 0.07074248 0.15268531 0.059202887
000200 1e b8 9f 3e 93 a3 8e 3e 54 98 29 be 1a cc 8f 3e
       0.31195158 0.27859172 -0.16562015 0.28085405
000210 f4 8c 79 3c 9a 28 9a 3d 8e 18 85 3d 08 50 9a be
       0.01523136 0.075272754 0.06498824 -0.30139184
000220 10 1b 29 3e 39 82 19 3e ea 3f c2 3e e7 4c 8d 3a
       0.1651423 0.14991082 0.37939388 0.0010780365
000230 5b a9 a3 bd 04 33 c3 3c 91 f8 4a bd 89 50 7e be
       -0.07991286 0.023828037 -0.049553458 -0.24835409
000240 b0 cc cb 3d 2f 9f 9d 3d bf f0 b8 bd 43 c8 2e be
       0.099511504 0.076963775 -0.09030294 -0.17068581
000250 94 66 45 be 84 c8 a5 3d 94 41 32 3e 54 34 2d 3e
       -0.19277412 0.08094886 0.17407829 0.16914493
000260 d9 ff 61 3e 53 bd 6c 3e 70 03 60 be 4b c0 5b 3c
       0.22070254 0.23119096 -0.21876311 0.013412545
000270 e8 f6 7b be 59 75 39 be 49 11 e8 3d 3d 45 fc 3d
       -0.24605906 -0.18111171 0.11331422 0.12317894
000280 71 7f ce 3d 9e b6 70 3e 32 2d 13 3d db e0 12 be
       0.10082901 0.23507163 0.035931773 -0.14343588
000290 90 92 f6 bc 65 89 cb bd 2c 31 4b 3e 5f 3d 1a be
       -0.030099183 -0.09938315 0.19842976 -0.15062474
0002a0 a0 b3 fa bd 20 16 3d 3e c8 00 ca 3d 54 a6 a6 3e
       -0.12241292 0.18465471 0.0986343 0.32548773
0002b0 82 79 cc 3e 3a a1 a3 bd 52 37 1f 3e eb 7b 6c be
       0.39936453 -0.07989736 0.15548447 -0.23094146
0002c0 a8 28 38 bd 22 0f b9 3b 27 04 ed 3d c2 1e b7 3e
       -0.044960648 0.005647556 0.115730576 0.35765654
0002d0 3a 8a 6a be 76 d8 9b 3e 41 20 51 3e aa 11 11 be
       -0.22904292 0.30438584 0.2042246 -0.14166895
0002e0 f5 38 ee bd b8 76 9c bc 83 3e 51 3e 73 eb 99 bd
       -0.116319574 -0.019099578 0.20434003 -0.075156115
0002f0 06 ba 76 3d 85 74 f7 bd 42 7d 58 3e 45 85 3d bc
       0.060236 -0.12082771 0.21141532 -0.011567418
000300 c5 4c 8f 3e ce 2c 5f be 18 05 b3 bd 71 c2 41 3e
       0.27988258 -0.21794435 -0.08741206 0.1892183
000310 0c 68 c7 3d bd cb 17 be f9 7b 75 be 56 55 62 be
       0.09736642 -0.14823814 -0.23973073 -0.22102866
000320 b4 7f 7a be fe ab 25 be 38 a5 35 be f7 0a ad bd
       -0.24462777 -0.16178891 -0.17738807 -0.08449357
000330 e5 df 81 3e 75 24 9f bd d3 4b 39 be 48 90 12 3e
       0.2536613 -0.077706255 -0.18095331 0.14312851
000340 d2 71 30 be 8f 09 16 be ff 27 46 bd 70 99 13 bd
       -0.17230919 -0.14652084 -0.048377987 -0.036035
000350 45 df 38 be 6c 6b 6e be 92 50 92 be 20 4e fe bd
       -0.1805392 -0.23283166 -0.28577095 -0.12417245
000360 05 e4 17 3e 1e 66 c0 3c f0 f9 6e 3e ed fa 4f 3d
       0.14833076 0.023486193 0.23337531 0.05077641
000370 9a e7 60 be 5b ee e1 3c 67 9f 99 bd 55 bf 29 3e
       -0.21963349 0.027579477 -0.07501107 0.16576894
000380 91 21 a3 3d 1c 62 94 3e 1f 64 86 be 9e ae 0e be
       0.07965387 0.28981102 -0.2624826 -0.13933799
000390 73 75 7e be 98 65 d5 3c b5 18 3f be 9a f7 f8 bd
       -0.24849491 0.02604942 -0.18661769 -0.12156601
0003a0 72 15 8f 3e c7 e1 c8 bd 22 7f 13 3e 43 be 40 3e
       0.2794605 -0.098086886 0.14403966 0.18822579
0003b0 a9 6b 59 3e 97 3b 75 3e 6c ed 38 3e 40 aa ed 3c
       0.21232475 0.23948513 0.1805932 0.029011846
0003c0 51 f2 7c 3e 99 0e 91 3e 57 cc 4e be c8 6a 7a 3d
       0.24701811 0.2833145 -0.20195137 0.06113699
0003d0 b7 44 4e 3e 01 ad 4a be 9e 4f eb 3d ad 2d 3b 3e
       0.201434 -0.19792558 0.11489795 0.18279143
0003e0 09 aa 15 3c 00 55 ad bd 3b 58 c6 bc 43 63 82 3e
       0.009134778 -0.08463478 -0.024211993 0.25466356
0003f0 1a 5e 6d be e3 e0 ed 3d 27 46 22 be 66 4f 4a 3e
       -0.23180428 0.11615159 -0.15847073 0.1975685

encoder.feature_encoder.atom_embedding_list.6.weight f4 [6, 64]
000000 ba 13 be bd e9 5d 99 3e f6 2f a9 bd c4 51 04 3e
       -0.09281106 0.2995446 -0.08261101 0.12921816
000010 a4 9b 89 3d e9 20 4b 3d bc c3 b0 bd f5 18 04 bd
       0.06719139 0.049591932 -0.08631083 -0.032250363
000020 92 a6 d2 3d 6c fc 51 bd 51 76 2c 3e 03 5d 1c 3e
       0.10285677 -0.05126612 0.16842009 0.15269856
000030 e0 a4 ec 3d 25 02 c7 3e 2b 98 46 be 31 ba b5 be
       0.11554885 0.38868824 -0.19393985 -0.35493615
000040 85 1d 48 3e 94 07 16 bd 65 f2 25 be 6b fe 5b 3e
       0.19542511 -0.03662832 -0.16205747 0.21483772
000050 a5 8b 58 be 81 fa 58 be 23 a8 41 3e d1 58 32 be
       -0.2114702 -0.2118931 0.18911795 -0.17416693
000060 f9 7d 59 be b5 fc a4 3c 25 ea b6 be 63 88 83 3e
       -0.21239461 0.020140031 -0.35725513 0.25689992
000070 f7 ff 0d be 43 99 be 3d aa 14 98 bd b9 76 4e 3e
       -0.13867174 0.09306576 -0.07425816 0.20162477
000080 11 d0 02 bc a3 4b a8 be 02 a6 5c bd 2e 12 b0 be
       -0.007984177 -0.32870206 -0.053869255 -0.3438887
000090 84 05 8c be b1 15 e3 3d fb 9f 53 bd df 32 d1 bd
       -0.27347958 0.11088122 -0.05166624 -0.10214781
0000a0 6e 15 9d bc a5 19 0c be 14 43 11 3e 05 f1 64 3e
       -0.019175258 -0.13681658 0.14185745 0.22357567
0000b0 de e6 b4 3d c3 00 d3 bd 8d 6d e8 3d b8 7c 94 3e
       0.08833097 -0.1030288 0.1134902 0.29001403
0000c0 d1 ca 92 3d d2 5b a1 3d 16 08 4b be 94 18 d3 3e
       0.071675904 0.078788415 -0.19827303 0.4122969
0000d0 24 03 8b 3e fc a7 7f be cc 1c 21 bc d4 f9 67 bd
       0.27150834 -0.24966425 -0.009833526 -0.05663474
0000e0 e7 69 02 3f 76 e0 9e bd 59 c5 31 be 9f 07 4a be
       0.50942844 -0.07757656 -0.17360438 -0.1972947
0000f0 64 82 52 3e 9e 66 8d 3e 15 c0 85 be df 2c 1e be
       0.20557553 0.27617353 -0.2612311 -0.15446804
000100 ec 23 69 3e c8 4e 9f bd aa 6b 70 be 00 f4 08 be
       0.2276761 -0.07778698 -0.2347857 -0.13374329
000110 67 cb 07 be 96 ab 45 be e8 d6 7c bd 9c a7 55 bb
       -0.13261186 -0.19303736 -0.061728388 -0.0032601124
000120 cb d3 f1 3c 29 26 99 3e 4a 28 83 be 1a 17 d0 bd
       0.029519936 0.29911926 -0.25616676 -0.10160656
000130 2a 6f 70 bd 80 e8 06 be c6 0d ec 3d 5a c6 8a be
       -0.058699764 -0.13174629 0.115260646 -0.27104455
000140 36 32 2f be af 97 0e be 5f 5e 32 be 05 a8 a6 bd
       -0.17108998 -0.1392505 -0.17418812 -0.08137516
000150 80 24 24 be fa bd c0 bd 81 ba 4c be 0c 6b 08 be
       -0.16029549 -0.09411235 -0.1999302 -0.13322085
000160 a5 d1 8a 3d 80 c1 a2 bd 4e c2 73 bc 22 a6 71 bd
       0.06778268 -0.079470634 -0.014877869 -0.058996327
000170 54 f7 52 be e2 ef 05 be 9f 7a c1 3d 8a c8 4e be
       -0.2060216 -0.1307979 0.09447216 -0.20193687
000180 0e b7 a1 3d d9 fc 2c 3c cc 05 06 bd e3 f8 a7 be
       0.07896243 0.01055833 -0.032720372 -0.32807073
000190 33 16 2b bc d4 22 bc 3e 87 6c 3a 3e 4a d3 39 3e
       -0.010442304 0.36745322 0.18205462 0.18147007
0001a0 c1 db fd bd e4 36 b2 bd 3a 73 6e 3e 72 82 88 bd
       -0.1239543 -0.08701876 0.23286143 -0.066655055
0001b0 39 9a 13 3e 10 70 4b 3d b6 f0 0c 3e 66 1c 2d be
       0.144143 0.049667418 0.13763699 -0.16905364
0001c0 10 69 72 bc 8b 33 ad be c5 9e 26 be 3b 15 2c 3e
       -0.014795557 -0.33828387 -0.16271503 0.16804974
0001d0 2b 81 6d 3c f9 2b 7b 3e 77 3f 49 be 99 58 aa 3d
       0.014496128 0.24528493 -0.19653116 0.0831768
0001e0 54 f3 9b bd af 2b 1e 3e fb da 17 3e b8 9a 0b 3e
       -0.076147705 0.15446351 0.14829628 0.1363324
0001f0 6c be 2f bd f0 ba 8d 3e 23 2c 2c be 54 8c 89 bd
       -0.04290621 0.27681684 -0.16813712 -0.067162186
000200 35 c8 94 3d 0a d3 92 bd 25 51 f7 3d f9 c7 39 3e
       0.07264749 -0.07169159 0.12076024 0.1814269
000210 bb 46 14 3d f9 49 de 3d af e9 c2 bd 77 16 9b 3e
       0.036200266 0.10853953 -0.09517228 0.30290577
000220 71 c7 0b 3e 0b 99 77 3b 9f 6b 65 be 82 ee 99 3a
       0.136503 0.003778043 -0.22404335 0.0011744055
000230 45 6c 5a 3e b2 e7 e0 bc 45 4b 2a 3e bb 0c 89 3e
       0.21330364 -0.027454231 0.16630276 0.26767525
000240 17 bd 13 be ff 9d 5b be 23 d1 1b bd f9 96 f2 bd
       -0.14427601 -0.2144699 -0.038041245 -0.11845202
000250 ba 09 1a bd 40 a2 22 bd 36 a0 94 be f3 de 83 3e
       -0.037606932 -0.039705515 -0.2902848 0.25756034
000260 1a c6 77 3c 20 31 88 3d f1 f1 2f bd d6 2f b3 bd
       0.015122915 0.06649995 -0.042955343 -0.08749358
000270 fd 74 a4 bd e3 91 81 be 35 2d 10 bd cc 2b 54 3e
       -0.08030126 -0.25306615 -0.035199363 0.20719832
000280 31 ba 87 3d cc f2 7c bd a2 27 9a 3e 5a eb 8a 3e
       0.0662731 -0.061754987 0.30108362 0.27132684
000290 ee b8 a9 3e 88 8f aa 3e 2c df 38 3e cc a2 9f bc
       0.33148903 0.3331263 0.18053883 -0.019486807
0002a0 7e ba a3 be b9 32 e2 3d 20 56 39 3e 0a 08 37 3c
       -0.3197822 0.11044831 0.1809926 0.01117135
0002b0 bd 47 07 3e 08 f3 89 be 2f 2b aa 3d 00 92 bc 3e
       0.1321096 -0.2694323 0.08309018 0.3683014
0002c0 c3 b7 86 be df 96 83 3c 87 66 42 3e 40 93 8b be
       -0.26312074 0.016063152 0.18984424 -0.2726078
0002d0 4a 0d e9 bd 8d 5b 04 be 0b 79 8d 3e 55 11 3b bd
       -0.11379488 -0.12925549 0.2763141 -0.045670826
0002e0 de 84 87 3d d4 63 98 3e cc 7d 42 3e 18 fa 6b bd
       0.06617139 0.29763663 0.189933 -0.057611555
0002f0 e1 35 e5 3d aa 37 08 be a9 d2 82 3e 94 3d 01 be
       0.11191917 -0.13302484 0.25551346 -0.12621146
000300 ec 1f 8d 3e 6b cd e4 bd 6e a1 87 3d 4d e4 88 3e
       0.27563417 -0.11171993 0.06622587 0.2673668
000310 3d 24 55 be 1d 39 ab be 83 a1 6b be f5 7e c2 3d
       -0.20814605 -0.3344201 -0.2301083 0.094968714
000320 aa 6f c4 bd e3 a7 5a 3e d0 99 3b be f0 6b 60 bd
       -0.09591611 0.21353106 -0.18320394 -0.054790437
000330 9b 62 6c ba e1 f1 f9 3d da 9c 95 3d b7 82 f8 bd
       -0.0009017379 0.12204338 0.07305308 -0.12134307
000340 ce 73 3d 3e e3 8d 7a be 46 67 01 be 71 36 97 3e
       0.18501207 -0.24468188 -0.12637052 0.29533723
000350 a2 26 3b bd 36 8a 26 be 33 43 0d be 7e 91 3c 3c
       -0.04569114 -0.16263661 -0.13795166 0.011509297
000360 96 a2 22 3d 62 c3 1b bd 19 d3 92 be 9c 75 26 3f
       0.039705835 -0.03802813 -0.2867668 0.6502321
000370 93 84 f4 3b ef b9 0a bd 08 99 3f 3e d6 c1 81 be
       0.007462093 -0.033868726 0.1871072 -0.25343198
000380 3a 01 7a 3e fa f8 4b be c5 1a 2f be 29 c0 c7 3d
       0.2441453 -0.19919196 -0.17100056 0.097534485
000390 df 3d ee bd 79 aa 38 bc 18 ac 9a be 1d 65 9a bd
       -0.11632895 -0.011271113 -0.30209422 -0.07538817
0003a0 ea df 31 bd f5 ca e1 3e d4 8f cc 3c 6a 52 a6 bd
       -0.04342643 0.44100156 0.024970926 -0.08121188
0003b0 76 d8 32 3d 70 12 53 bd b9 e3 9b be 18 ff f3 be
       0.043663464 -0.051531255 -0.30447176 -0.4765556
0003c0 49 6c 20 3e b5 51 8a be 3d 41 52 3e 3f f8 99 3d
       0.15666308 -0.27015463 0.20532699 0.07518052
0003d0 37 84 72 3e e6 62 4e be fb 4a 63 3e 33 8b 1f be
       0.23683248 -0.20154914 0.22196572 -0.15580444
0003e0 fa 95 61 be 22 f1 ca 3c ae 57 b0 be 24 dd 1c be
       -0.22029868 0.024773184 -0.34441894 -0.15318733
0003f0 3d 93 b1 3d ca 3f 88 3e 04 fa 2a 3e dd 41 ad 3d
       0.086706616 0.26611167 0.16696936 0.08459828
