checkpoints/tuning/trial_8/best_model.pt (torch, 520320 bytes, 104 tensors)

encoder.feature_encoder.atom_embedding_list.0.weight f4 [119, 64]
0.14104745 0.042271115 0.0028634982 0.17215376 -0.1293098 -0.16725959 -0.095039904 0.13563277
0.17434213 -0.07440912 -0.11719014 -0.16402212 0.085741766 -0.07743959 0.13534355 -0.05976151
0.16565824 0.114136495 0.117178015 0.09440187 -0.14449579 0.024844734 -0.10802706 -0.055643328
0.11215249 -0.09182341 0.112265505 0.0050100507 -0.08297895 -0.09047257 -0.1760205 0.062110465
0.0065509835 0.16121456 0.06596583 0.057849873 -0.009892386 0.0846227 -0.026865086 0.07259698
-0.082340784 0.11155577 0.049652234 0.095652975 0.012228347 0.08197213 0.16381639 0.02935957
0.12720649 -0.16590948 -0.019138241 -0.15547797 0.012946753 0.034004048 0.051130556 -0.07707494
0.0849203 -0.07618933 -0.044344764 0.127576 -0.16269614 0.031463567 -0.15913439 0.07768502
-0.15120506 -0.1699776 -0.05043954 0.1448173 0.09148628 0.11637384 -0.042184032 0.15994899
-0.0825632 -0.012675079 -0.16627464 0.009122876 0.041513417 -0.1737911 0.1522213 0.034066774
0.1726835 -0.07794893 0.008443778 -0.058112614 0.15309678 -0.10122184 0.1042148 -0.12715258
0.13606925 -0.16859275 -0.09001679 -0.08172238 -0.030746358 -0.0022455296 0.058515094 0.162381
0.10666889 -0.08731099 0.17014347 -0.02666432 -0.10097067 0.067683384 -0.031554427 0.17280573
0.020199254 0.119842656 0.046623003 -0.11833369 0.038109463 -0.104785435 -0.048487164 -0.058329955
-0.14347214 0.07007559 0.12812886 -0.17843767 0.09856232 -0.1429664 -0.17720768 0.062444996
-0.004014259 -0.11100553 0.1621257 0.01477508 -0.113573454 0.08306471 0.012815923 -0.028982311
-0.12890333 -0.01920708 0.103978515 -0.098473415 0.07816181 -0.17794655 -0.0696687 -0.048660062
-0.15882099 0.06471544 -0.13675684 0.10695071 0.0360305 0.0024037936 -0.09653155 -0.06852862
0.04395874 0.17473903 -0.092259265 -0.123201236 -0.08340294 -0.13006833 -0.023837624 -0.12906343
0.13128914 0.11923143 -0.11221637 0.15943614 0.029888228 -0.12387175 0.060143 -0.17300646
-0.09760399 -0.13750435 -0.10062443 -0.039194323 0.04044718 0.03455264 -0.16608039 -0.17331627
-0.027470361 0.15274024 0.06707768 0.16162956 -0.08579328 0.05853237 -0.15763816 0.10830389
-0.01269611 -0.010062775 -0.09478655 -0.15820898 -0.06666667 -0.01710965 -0.09615846 0.07568214
-0.021252686 0.027790105 -0.16731806 0.059419945 -0.08066791 -0.13682027 -0.059041288 -0.16665834
-0.13820976 0.13500267 0.14821279 -0.12577157 0.039268836 -0.09326673 0.16943894 0.110543706
0.071995504 -0.14762886 -0.08906347 -0.038054053 -0.16188858 -0.10582171 0.047673047 -0.14740567
0.048177455 -0.004137965 -0.014911197 -0.05289151 -0.09731315 -0.16929178 -0.12321702 0.13675027
-0.013421458 0.17631826 0.009546015 -0.021342978 0.10858781 -0.17047308 -0.11223156 0.103870384
-0.047223575 0.14325662 -0.016534355 0.12913159 0.008794044 0.018804297 -0.15293911 -0.062575996
0.009078864 0.08273273 0.03513348 -0.03931358 0.0012224893 0.15565413 0.120786175 0.06178496
-0.13049395 -0.060883597 0.11560348 0.16299626 -0.085601665 0.07693815 -0.042399473 0.11486493
-0.027207581 -0.14393501 -0.17923315 -0.0067842924 0.053380832 -0.106740616 0.14246227 0.08588759
00000000: be6e 103e 7a24 2d3d 87a9 3b3b 1349 303e
00000010: ca69 04be 1946 2bbe 48a4 c2bd 51e3 0a3e
00000020: be86 323e cf63 98bd 6201 f0bd 6af5 27be
00000030: 6199 af3d a698 9ebd 8097 0a3e 7cc8 74bd
00000040: 50a2 293e 65c0 e93d 07fb ef3d c555 c13d
00000050: b4f6 13be 2f87 cb3c 4b3d ddbd 42ea 63bd
00000060: 34b0 e53d e90d bcbd 75eb e53d 5a2b a43b
00000070: def0 a9bd af49 b9bd b83e 34be 8b67 7e3d
00000080: a2a9 d63b 6e15 253e 1819 873d fdf3 6c3d
00000090: ad13 22bc ab4e ad3d 2b14 dcbc baad 943d
000000a0: 49a2 a8bd 5a77 e43d 2460 4b3d b5e5 c33d
000000b0: 6859 483c 01e1 a73d 7cbf 273e 7b83 f03c
000000c0: 6b42 023e 2de4 29be cdc7 9cbc 9e35 1fbe
000000d0: 9e1e 543c d447 0b3d 466e 513d 77d9 9dbd
000000e0: b2ea ad3d 2709 9cbd dba2 35bd 48a3 023e
000000f0: d199 26be f1df 003d 20f4 22be 5319 9f3d
00000100: 80d5 1abe 9c0e 2ebe b199 4ebd fc4a 143e
00000110: 295d bb3d 6855 ee3d 2ac9 2cbd abc9 233e
00000120: e516 a9bd 22ab 4fbc e643 2abe 1e78 153c
00000130: f909 2a3d 4bf6 31be e7df 1b3e 9a89 0b3d
00000140: f2d3 303e b0a3 9fbd c657 0a3c 7e07 6ebd
00000150: 67c5 1c3e 654d cfbd 926e d53d 4934 02be
00000160: bd55 0b3e 94a3 2cbe b95a b8bd 105e a7bd
00000170: c9df fbbc bc29 13bb 86ad 6f3d 3447 263e
00000180: 3875 da3d 1bd0 b2bd 173a 2e3e 226f dabc
00000190: b6c9 cebd 969d 8a3d 373f 01bd fcf3 303e
000001a0: e878 a53c 1170 f53d c3f7 3e3d ef58 f2bd
000001b0: ab18 1c3d bf99 d6bd 7a9a 46bd 64eb 6ebd
000001c0: 5cea 12be ca83 8f3d 3634 033e 5db8 36be
000001d0: 0bdb c93d c965 12be ee75 35be 53c6 7f3d
000001e0: 0c8a 83bb de56 e3bd 4804 263e 2d13 723c
000001f0: 3399 e8bd d51d aa3d e1f9 513c 506c edbc
00000200: 3cff 03be 2b58 9dbc b0f2 d43d 6eac c9bd
00000210: 4d13 a03d 9f37 36be 77ae 8ebd c64f 47bd
00000220: f8a1 22be 8789 843d fc09 0cbe f908 db3d
00000230: b894 133d f788 1d3b 55b2 c5bd bc58 8cbd
00000240: 140e 343d caee 323e 6df2 bcbd ee50 fcbd
00000250: 29cf aabd a230 05be 1f47 c3bc 3429 04be
00000260: a970 063e 9c2f f43d b2d1 e5bd 3a43 233e
00000270: 28d8 f43c 79b0 fdbd 8258 763d 9b28 31be
00000280: 9ae4 c7bd f1cd 0cbe 2e14 cebd 3a8a 20bd
00000290: f1ab 253d 1287 0d3d fa10 2abe d279 31be
000002a0: 8609 e1bc f067 1c3e 0660 893d 3882 253e
000002b0: 63b4 afbd a3bf 6f3d e66b 21be 6ece dd3d
000002c0: 5803 50bc 56de 24bc 731f c2bd 8901 22be
000002d0: 8988 88bd 8929 8cbc baee c4bd 3dff 9a3d
000002e0: 1d1a aebc 13a8 e33c 6d55 2bbe 5462 733d
000002f0: 3835 a5bd 9d1a 0cbe 47d5 71bd 7ca8 2abe
00000300: dc86 0dbe 243e 0a3e 18c5 173e 43ca 00be
00000310: 5cd8 203d a102 bfbd 6781 2d3e bd64 e23d
00000320: 6172 933d 052c 17be e966 b6bd 91de 1bbd
00000330: 1fc6 25be 0db9 d8bd d044 433d 83f1 16be
00000340: b955 453d c497 87bb 184e 74bc c5a4 58bd
00000350: 1e4c c7bd d35a 2dbe 3459 fcbd 4308 0c3e
00000360: ade5 5bbc c68c 343e e466 1c3c 78d7 aebc
00000370: 4963 de3d 7f90 2ebe a9d9 e5bd ffb9 d43d
00000380: 826d 41bd ddb1 123e 0e73 87bc 123b 043e
00000390: e514 103c 780b 9a3c 129c 1cbe d827 80bd
000003a0: 84bf 143c c76f a93d 20e8 0f3d 4707 21bd
000003b0: ef3b a03a cc63 1f3e be5e f73d 3a12 7d3d
000003c0: 35a0 05be 1461 79bd 84c1 ec3d 7ee8 263e
000003d0: ed4f afbd c091 9d3d 12ab 2dbd 4e3e eb3d
000003e0: 6fe2 debc b363 13be e588 37be c54e debb
000003f0: dca5 5a3d d39a dabd a1e1 113e d5e5 af3d

encoder.feature_encoder.atom_embedding_list.1.weight f4 [5, 64]
-0.1152987 -0.05318337 0.077071026 0.20815203 0.11666047 0.26584822 0.096214466 0.1422908
0.060452912 0.24984746 0.2327869 0.17330873 -0.25664854 -0.03159487 -0.104950905 -0.012665691
0.21276781 -0.19823222 -0.1604774 -0.12580776 0.0118626 -0.16736917 0.058522604 -0.24710307
-0.1452227 0.16624846 0.1952137 -0.08991994 0.0012515147 -0.012581906 -0.18924116 -0.055726234
0.14402667 -0.0016802114 0.26572672 -0.23981868 -0.23088506 -0.24695957 -0.17491443 0.07415057
0.19353741 -0.24745977 -0.226828 -0.116573885 0.1975413 0.15697512 -0.020036971 0.26464745
0.09984273 0.25774026 -0.0023100865 -0.18608814 -0.002161801 0.09279682 0.12365612 0.0050261426
0.00020686266 0.06320923 -0.0641252 0.06009223 -0.15993619 -0.066525176 0.15794475 0.09212126
0.1650098 -0.19639188 -0.08679329 -0.15266508 -0.22939293 -0.12106638 -0.018862765 -0.021602934
-0.01822119 -0.18626815 -0.020006219 0.078192145 0.21178776 0.17840005 -0.24643801 -0.18786407
0.23260516 0.20017247 0.16368878 -0.15208867 0.24867992 -0.28648847 -0.23451394 0.026392166
0.13714577 -0.27794692 0.04340793 -0.004437667 -0.038816467 -0.23096953 -0.14136384 0.0138425445
0.07052586 0.18494932 -0.10446778 0.27912006 0.11103262 -0.20034756 -0.29357693 0.19826162
0.022286095 -0.029595826 -0.09762186 0.13863795 -0.1061123 -0.21574253 0.20478846 -0.12643015
0.16979143 -0.20278707 -0.059280552 -0.16158903 0.012551484 -0.034874562 0.08797562 -0.22872664
-0.2600852 0.23452064 -0.22578634 0.09943374 -0.25610155 0.05746392 -0.0062741954 -0.14500853
-0.006072277 0.036204748 0.008251968 0.22308917 -0.16890821 0.13353075 0.27158967 -0.21180639
-0.23096813 0.099663675 -0.104682565 -0.0066504017 -0.27507505 0.18012421 -0.019469118 0.018129371
-0.10250452 0.1023668 -0.0048358086 -0.117522895 0.07325179 -0.109491125 0.109437734 -0.2824334
-0.11409964 -0.20204668 0.12545842 -0.20707189 0.22847846 0.071800925 0.18072757 -0.19235748
-0.23954427 -0.048390992 -0.1620269 -0.099882364 0.24239556 0.15761021 -0.08712597 0.17906459
-0.19751793 -0.17135388 0.13061634 0.12731007 -0.085262515 -0.20123239 0.04609062 0.28446937
0.29022703 0.24192265 -0.22113484 0.19547413 0.05400192 -0.23934622 0.018939294 -0.28477553
0.0633044 -0.16214852 -0.19840838 0.014348606 0.1988903 0.16551444 -0.18248539 0.16773073
0.109718956 -0.19685487 -0.07606068 -0.0706652 -0.23967639 -0.2690761 -0.2002451 0.26807418
-0.078351565 0.028306205 -0.24486938 -0.05072293 0.11140949 -0.005975712 -0.02317325 -0.00392795
0.19827491 -0.20773533 -0.26481292 -0.28403232 0.11990514 -0.16426279 -0.12897252 -0.03900334
0.17287458 0.0025629278 0.057720114 -0.08283141 0.16048674 -0.14711075 0.22730407 0.24272998
-0.26526386 -0.09337159 -0.03553371 -0.15878773 0.015833395 -0.09678634 0.2441279 -0.023329364
-0.16483764 -0.14642836 -0.2755947 -0.18123668 0.057252157 0.08907471 -0.12709394 0.0030003001
0.14795926 0.038978837 0.033220615 -0.19344744 0.2772416 -0.087057 0.024326475 -0.036314845
0.12811099 -0.24425136 0.06710836 -0.22889031 0.23275572 -0.1162344 0.06019794 0.01951457
00000000: ba21 ecbd ced6 59bd 6ad7 9d3d ce25 553e
00000010: afeb ee3d 421d 883e 170c c53d aeb4 113e
00000020: 799d 773d 03d8 7f3e b05f 6e3e d877 313e
00000030: 7067 83be 9f69 01bd 80f0 d6bd c283 4fbc
00000040: cedf 593e 63fd 4abe 3054 24be c0d3 00be
00000050: 5a5b 423c d362 2bbe 66b5 6f3d 9608 7dbe
00000060: 42b5 14be 093d 2a3e 1ae6 473e f227 b8bd
00000070: dd09 a43a 5724 4ebc 6fc8 41be 3141 64bd
00000080: ba7b 133e 8a3a dcba 550d 883e 0793 75be
00000090: 226d 6cbe f8e2 7cbe c51c 33be 41dc 973d
000000a0: ac2e 463e 1866 7dbe 9945 68be 4abe eebd
000000b0: 4448 4a3e 16be 203e 9324 a4bc df7f 873e
000000c0: 587a cc3d 88f6 833e d264 17bb e48d 3ebe
000000d0: 01ad 0dbb 420c be3d 6b3f fd3d 57b2 a43b
000000e0: 46e9 5839 d773 813d 1354 83bd 4523 763d
000000f0: 50c6 23be 5a3e 88bd 45bc 213e 12aa bc3d
00000100: 54f8 283e f41a 49be aec0 b1bd 3c54 1cbe
00000110: fbe5 6abe a6f1 f7bd 1686 9abc a3f8 b0bc
00000120: 9b44 95bc 14bd 3ebe 15e4 a3bc 3423 a03d
00000130: e4de 583e 81ae 363e 3f5a 7cbe 705f 40be
00000140: 0c30 6e3e 03fa 4c3e 089e 273e 22bd 1bbe
00000150: f3a5 7e3e 9eae 92be 6c24 70be 6234 d83c
00000160: f16f 0c3e 0f4f 8ebe 83cc 313d d969 91bb
00000170: 04fe 1ebd 4783 6cbe afc1 10be d7cb 623c
00000180: dd6f 903d 5b63 3d3e 34f3 d5bd d3e8 8e3e
00000190: 1265 e33d e927 4dbe b74f 96be 1805 4b3e
000001a0: 5491 b63c f272 f2bc f8ed c7bd 1bf7 0d3e
000001b0: 6851 d9bd 9ceb 5cbe 11b4 513e e876 01be
000001c0: cedd 2d3e 6aa7 4fbe 2ad0 72bd 9877 25be
000001d0: bda4 4d3c a1d8 0ebd 902c b43d 5137 6abe
000001e0: e329 85be 2e26 703e 8934 67be eba3 cb3d
000001f0: be1f 83be 4a5f 6b3d c497 cdbb 1e7d 14be
00000200: f4f9 c6bb 6e4b 143d 4333 073c 7d71 643e
00000210: 46f6 2cbe 49bc 083e cd0d 8b3e c6e3 58be
00000220: e982 6cbe 781c cc3d d063 d6bd 9deb d9bb
00000230: a3d6 8cbe 7b72 383e b37d 9fbc 0c84 943c
00000240: e4ed d1bd afa5 d13d b475 9ebb d8af f0bd
00000250: 0905 963d e23c e0bd e420 e03d 1c9b 90be
00000260: 12ad e9bd 53e5 4ebe 2c78 003e a70a 54be
00000270: 42f6 693e 5d0c 933d a610 393e 5cf9 44be
00000280: 184b 75be a235 46bd 61ea 25be 208f ccbd
00000290: 8b36 783e 9264 213e 1a6f b2bd b55c 373e
000002a0: 2442 4abe 6477 2fbe 4ac0 053e 925d 023e
000002b0: 1d9e aebd dd0f 4ebe 85c9 3c3d f8a5 913e
000002c0: a398 943e 92ba 773e 2c71 62be 5f2a 483e
000002d0: 1e31 5d3d 2d17 75be 9426 9b3c 19ce 91be
000002e0: bda5 813d 430a 26be 912b 4bbe 6a16 6b3c
000002f0: e6a9 4b3e 9e7c 293e 73dd 3abe 9bc1 2b3e
00000300: 55b4 e03d 5394 49be b4c5 9bbd ebb8 90bd
00000310: ba6d 75be 58c4 89be 0d0d 4dbe 0541 893e
00000320: c976 a0bd 6ae2 e73c 0abf 7abe d9c2 4fbd
00000330: a92a e43d e8cf c3bb d4d5 bdbc 08b6 80bb
00000340: 9408 4b3e 92b8 54be 8f95 87be af6c 91be
00000350: d390 f53d 8134 28be 5f11 04be f7c1 1fbd
00000360: 0906 313e cbf6 273b ed6b 6c3d 84a3 a9bd
00000370: a356 243e 33a4 16be 66c2 683e 358e 783e
00000380: aad0 87be 9b39 bfbd cc8b 11bd 4099 22be
00000390: 09b5 813c eb37 c6bd aafc 793e 391d bfbc
000003a0: 33cb 28be 51f1 15be c01a 8dbe 1c96 39be
000003b0: 3d81 6a3d cd6c b63d ea24 02be afa0 443b
000003c0: a282 173e 46a8 1f3d 5712 083d 1617 46be
000003d0: 9cf2 8d3e f14a b2bd 5148 c73c e0be 14bd
000003e0: 872f 033e 071d 7abe 1c70 893d 3962 6abe
000003f0: 8457 6e3e 4d0c eebd 1d92 763d 05dd 9f3c

encoder.feature_encoder.atom_embedding_list.2.weight f4 [12, 64]
-0.0055413 -0.13764139 -0.14547896 -0.10523542 0.13471033 -0.19426475 0.24338363 -0.18099381
0.05639322 0.27940813 -0.11088111 -0.19468728 -0.15103312 -0.1304913 -0.1725408 -0.24950029
-0.14440319 -0.095975235 0.24381457 -0.046891928 0.018035544 -0.088173725 0.05654698 0.14184035
0.049094874 -0.04882876 0.021332767 0.2566422 -0.18314384 0.27094024 -0.05730258 0.21150361
0.22492762 0.009788111 0.015716556 0.17896622 -0.04213909 0.07818547 0.27218428 -0.055625375
-0.09896562 0.21128061 0.24629802 0.26335278 -0.26510525 0.17116056 0.1511706 -0.17325506
0.19534504 -0.16603851 0.14636683 0.01796802 0.08857818 -0.17274143 -0.054325707 -0.1527473
0.147999 -0.21600182 0.033488248 0.104703926 0.0033639704 -0.08808859 0.07107701 0.012058225
-0.15249659 -0.08460353 -0.038910314 -0.15915035 -0.0012254962 -0.09272429 -0.15781485 -0.20310034
-0.17301688 -0.05501569 0.25089058 -0.03008339 -0.14902401 -0.22371589 0.040869523 0.23894222
-0.25320446 0.2366129 0.23186684 0.061260175 0.12653297 0.076967455 -0.24564351 -0.14170294
-0.092318065 -0.16542873 -0.016573913 0.057999127 0.009702034 0.15900189 -0.16558295 0.23704998
-0.12882479 0.2265209 0.2473299 -0.22499268 -0.26566565 0.21230705 0.21283615 -0.030081183
0.0708861 0.039617807 -0.085791536 0.14784338 0.0852636 -0.28237826 -0.08019229 -0.15253074
0.11036991 -0.2854903 -0.25697502 -0.25629818 -0.09650924 -0.21605833 -0.056007553 -0.15989287
0.17064694 0.22782405 0.106401555 -0.11200119 0.13362463 -0.23884845 -0.13398898 -0.07711393
-0.2668867 0.25932398 0.17393933 0.13874754 0.13301563 0.28797197 -0.13564281 0.066495545
-0.11154134 -0.035813812 -0.21777427 0.17267554 -0.21137759 -0.12030612 0.26140052 -0.13754977
0.035058726 -0.2689253 -0.16254364 0.25105423 0.15358649 0.0119054 -0.13953419 0.22220236
0.27094552 0.063213564 -0.19813678 0.020541972 0.13009684 0.07267937 0.2583149 0.25423756
0.146364 -0.20162642 -0.011362575 0.08342519 -0.10006013 0.07940842 0.19623582 -0.16201352
-0.08799806 -0.21372771 0.046533976 0.1681886 0.27515084 0.017928623 0.19161814 -0.27011833
-0.0118129505 -0.05554532 -0.11947639 0.26213816 0.16999874 -0.23404472 -0.24790692 -0.12636313
0.10958125 0.1368776 0.14501682 0.21460667 -0.1791081 0.023880182 -0.14145668 -0.13581789
-0.005953595 -0.026428243 -0.24299419 -0.023192562 0.1386719 0.25282973 -0.05244914 0.17767356
-0.058427993 -0.20578536 0.24420923 -0.06693675 -0.06615 -0.047326937 0.23585373 -0.103084825
-0.07219226 0.008259418 -0.18225653 0.10540062 0.24972582 0.09842635 -0.07059488 -0.06588459
-0.28452438 -0.23344941 -0.083696134 0.15721399 0.25969124 -0.023263134 -0.012075438 0.2317058
-0.078481875 -0.19671541 0.15793741 -0.13424864 -0.21052071 0.01584369 -0.17915933 -0.20635515
-0.15606888 -0.022519816 0.08874235 -0.11641875 -0.26164168 -0.09530813 0.2699482 -0.0737281
-0.2163136 -0.1142122 0.24940276 0.036710504 -0.039388683 0.27473176 0.030941105 0.048497908
0.2775087 -0.015648229 -0.050654277 0.21930712 0.11364045 -0.20676894 0.1907533 -0.11013535
00000000: cb93 b5bb ddf1 0cbe 70f8 14be ab85 d7bd
00000010: 81f1 093e 57ed 46be 8f39 793e 7156 39be
00000020: 94fc 663d 950e 8f3e a315 e3bd 1a5c 47be
00000030: 6da8 1abe 839f 05be 89ae 30be 017d 7fbe
00000040: 6ede 13be aa8e c4bd 87aa 793e c011 40bd
00000050: 47bf 933c 6d94 b4bd ce9d 673d 993e 113e
00000060: b517 493d aa00 48bd 0ec2 ae3c 9b66 833e
00000070: 0f8a 3bbe aeb8 8a3e 1cb6 6abd 6794 583e
00000080: 6d53 663e 505e 203c 02c0 803c ec42 373e
00000090: 0a9a 2cbd b41f a03d bd5b 8b3e 6fd7 63bd
000000a0: 7dae cabd f259 583e 8c35 7c3e 2dd6 863e
000000b0: e0bb 87be b744 2f3e 77cc 1a3e c669 31be
000000c0: 8808 483e 0006 2abe 30e1 153e ab31 933c
000000d0: 7a68 b53d 21e3 30be a284 5ebd ca69 1cbe
000000e0: 0d8d 173e 952f 5dbe f92a 093d 036f d63d
000000f0: 0f76 5c3b ca67 b4bd d390 913d dd8f 453c
00000100: 1128 1cbe 9e44 adbd 6c60 1fbd 4ff8 22be
00000110: d4a0 a0ba 3ce6 bdbd 379a 21be 89f9 4fbe
00000120: 562b 31be 2258 61bd bb74 803e 7171 f6bc
00000130: c099 18be c715 65be cd66 273d 45ad 743e
00000140: 04a4 81be a74a 723e 806e 6d3e f3eb 7a3d
00000150: dc91 013e 1da1 9d3d f989 7bbe 931a 11be
00000160: 4111 bdbd 2666 29be 04c6 87bc 7e90 6d3d
00000170: 48f5 1e3c 64d1 223e 948e 29be 3bbd 723e
00000180: a5ea 03be 18f5 673e 0d44 7d3e 7b64 66be
00000190: 5405 88be 0567 593e b8f1 593e d06c f6bc
000001a0: bb2c 913d 4846 223d 79b3 afbd 4164 173e
000001b0: af9e ae3d e293 90be db3b a4bd 0531 1cbe
000001c0: 9f09 e23d c92b 92be 3b92 83be 8439 83be
000001d0: a3a6 c5bd 653e 5dbe 2d68 65bd f5ba 23be
000001e0: 12be 2e3e b54a 693e 0fe9 d93d e160 e5bd
000001f0: e5d4 083e b094 74be 6834 09be e8ed 9dbd
00000200: 60a5 88be 1dc6 843e 271d 323e d613 0e3e
00000210: 4035 083e 1071 933e f3e5 0abe d12e 883d
00000220: c96f e4bd 81b1 12bd 3800 5fbe dbd1 303e
00000230: 5e73 58be 0e63 f6bd 4ad6 853e d9d9 0cbe
00000240: bd99 0f3d 94b0 89be d771 26be 2e8a 803e
00000250: c745 1d3e de0e 433c 0de2 0ebe 0489 633e
00000260: 5fb9 8a3e 1d76 813d 5ee4 4abe a347 a83c
00000270: 1b38 053e ecd8 943d da41 843e 6d2b 823e
00000280: 72e0 153e 2877 4ebe 182a 3abc d3da aa3d
00000290: 53ec ccbd e2a0 a23d 0bf2 483e dfe6 25be
000002a0: 5438 b4bd 70db 5abe 699a 3e3d a239 2c3e
000002b0: 92e0 8c3e 0cdf 923c 8c37 443e f34c 8abe
000002c0: 1b8b 41bc 7d83 63bd 0ab0 f4bd f936 863e
000002d0: 2614 2e3e 6ba9 6fbe 50db 7dbe 5665 01be
000002e0: 226c e03d a429 0c3e 4a7f 143e dac1 5b3e
000002f0: 1d68 37be 5fa0 c33c 05da 10be d813 0bbe
00000300: 6016 c3bb 0b80 d8bc 78d3 78be 54fe bdbc
00000310: 0200 0e3e e672 813e e9d4 56bd 0ff0 353e
00000320: 3152 6fbd 66b9 52be fc11 7a3e 2316 89bd
00000330: a779 87bd e4d9 41bd a483 713e 231e d3bd
00000340: 89d9 93bd 8352 073c 75a1 3abe 48dc d73d
00000350: 20b8 7f3e c193 c93d 0c94 90bd 80ee 86bd
00000360: 2ead 91be 5d0d 6fbe e168 abbd b4fc 203e
00000370: 40f6 843e 5492 bebc 0fd8 45bc 4944 6d3e
00000380: 1bbb a0bd c46f 49be 58ba 213e 7a78 09be
00000390: be92 57be a0ca 813c 8b75 37be c44e 53be
000003a0: 85d0 1fbe 7a7b b8bc 8dbe b53d f46c eebd
000003b0: e6f5 85be e930 c3bd a736 8a3e c2fe 96bd
000003c0: 5081 5dbe 16e8 e9bd 7063 7f3e c15d 163d
000003d0: 0756 21bd a4a9 8c3e 3378 fd3c bea5 463d
000003e0: 9f15 8e3e b730 80bc dc7a 4fbd 0c92 603e
000003f0: 53bc e83d 3dbb 53be d554 433e a48e e1bd

encoder.feature_encoder.atom_embedding_list.3.weight f4 [12, 64]
0.188614 0.052860238 0.11948052 0.2765307 0.19109042 0.21766427 -0.18153018 -0.20725837
0.22155 0.2577685 0.14709575 0.110534005 -0.06500968 0.09841892 -0.13534439 -0.010893035
0.2652148 -0.17869517 -0.23613884 -0.021886952 0.14750788 -0.26131752 0.17884903 0.012524453
0.033616804 0.17892148 0.14922434 -0.015937217 -0.26093218 0.2431458 -0.0909676 -0.15607165
0.094962165 0.18884753 0.040009577 -0.15987878 -0.25626212 0.122321695 0.09835394 0.16752316
0.28402662 -0.15305436 0.0872769 0.27166268 -0.013938468 -0.10825733 -0.21933772 0.008270985
-0.13346033 -0.20069245 -0.26004452 0.11961647 -0.040530458 0.11577557 0.15305854 -0.27923214
-0.10208056 0.23870096 -0.048416432 0.19001175 -0.24291669 0.25376624 0.11755894 -0.19623424
0.07299995 0.17498626 0.15145561 0.039310336 -0.12340945 -0.0879537 -0.19453022 0.28034806
0.061835937 0.05461219 -0.15644176 -0.22383922 -0.02666876 0.15264386 0.20846781 -0.014316656
0.1181025 -0.047229473 -0.08341832 0.26990598 0.070864245 0.27583316 -0.2756207 0.019783275
-0.09621167 0.21555302 0.13110985 0.046873894 0.18804535 -0.16095829 -0.073670596 0.14260294
-0.16882968 0.06755757 0.09075469 -0.23359895 -0.16493605 -0.20795272 -0.25698745 -0.09969457
0.08050286 0.099786 0.16400409 0.035219803 -0.1747753 -0.25656176 0.24537079 0.05637806
0.22926396 -0.26500103 -0.1567325 -0.008519733 0.23249753 -0.23101892 -0.15425852 -0.21315937
0.14483134 0.0211121 -0.11125492 0.1768595 -0.21075292 -0.04265808 -0.1279269 -0.05752542
0.003925508 -0.005795014 0.2790077 -0.25217476 -0.11872454 -0.009452677 -0.11994474 0.27239168
0.14550367 0.21411392 0.20799306 -0.012407869 0.18394955 -0.027625548 0.19475599 0.05080254
0.1175956 0.11434806 -0.10665582 0.24193309 0.2335298 -0.06790475 -0.083173275 -0.24930882
0.14781693 -0.22016299 -0.26033854 0.23120955 0.05751247 0.24432342 -0.23504609 -0.15827799
-0.07233792 0.17370129 -0.21331105 -0.24073657 -0.0788195 -0.14577052 0.26434937 0.13564119
-0.18965428 -0.11682391 -0.012867081 -0.17584081 -0.19724853 0.2518501 -0.181682 0.15904075
-0.074830286 -0.20742966 -0.12706815 -0.12874325 -0.19083397 -0.17236382 -0.021894729 -0.14794779
0.23285075 -0.27002028 -0.05262693 0.1863654 -0.18544966 -0.062237058 -0.22144686 -0.27381307
0.13775414 0.067650236 0.031448092 0.22410205 -0.007644736 -0.23619427 -0.265333 0.039276768
-0.17475 0.25740656 -0.028360654 0.23968685 -0.049052633 -0.13820843 -0.27834427 0.27884936
-0.24616437 0.19695133 -0.109094985 -0.21183081 -0.09814828 0.13603348 0.21442407 -0.23598948
-0.20950954 0.09758285 0.14529404 -0.1804401 0.11598523 -0.04635739 -0.24516886 0.15866114
-0.23456436 -0.015909884 -0.06529798 -0.13140903 -0.032798864 -0.2507931 0.24872144 -0.210159
0.17543857 0.011594607 -0.011137278 -0.02045558 -0.1110527 -0.0527093 0.19573528 -0.13267957
0.13783483 -0.22658055 -0.14123479 0.1969678 0.10371542 -0.25516558 -0.19520305 0.181849
-0.022660881 0.25103116 -0.2771224 0.07418684 -0.27787924 0.11800556 -0.09655089 -0.03515319
00000000: 0724 413e fa83 583d 34b2 f43d 6f95 8d3e
00000010: 35ad 433e 62e3 5e3e 0ce3 39be 8a3b 54be
00000020: 01de 623e 3cfa 833e 45a0 163e a75f e23d
00000030: cc23 85bd dc8f c93d b897 0abe b378 32bc
00000040: 3cca 873e defb 36be 61ce 71be 444c b3bc
00000050: 4e0c 173e 69cb 85be 3324 373e 5d33 4d3c
00000060: c6b1 093d 3137 373e 44ce 183e c48e 82bc
00000070: e798 85be 36fb 783e 394d babd 3fd1 1fbe
00000080: 867b c23d 3f61 413e 15e1 233d 43b7 23be
00000090: ca34 83be cc83 fa3d ca6d c93d 318b 2b3e
000000a0: f06b 913e 48ba 1cbe 3bbe b23d 5f17 8b3e
000000b0: 2c5e 64bc 05b6 ddbd 119a 60be 0783 073c
000000c0: d3a9 08be 5282 4dbe 8e24 85be 7bf9 f43d
000000d0: 4403 26bd be1b ed3d 61bb 1c3e 84f7 8ebe
000000e0: 9d0f d1bd 066e 743e 4f50 46bd 7192 423e
000000f0: 27bf 78be a6ed 813e bec2 f03d a1f1 48be
00000100: ff80 953d 992f 333e 2e17 1b3e e003 213d
00000110: 18be fcbd 1221 b4bd ee32 47be c889 8f3e
00000120: ae47 7d3d 08b1 5f3d 4532 20be 1c36 65be
00000130: 7278 dabc ac4e 1c3e 9678 553e 6890 6abc
00000140: b9df f13d b173 41bd 39d7 aabd 1e31 8a3e
00000150: 4621 913d 013a 8d3e 281e 8dbe 8910 a23c
00000160: a00a c5bd eeb9 5c3e a941 063e d7fe 3f3d
00000170: f68e 403e 40d2 24be 9ce0 96bd 8106 123e
00000180: b0e1 2cbe a05b 8a3d 98dd b93d 9034 6fbe
00000190: ffe4 28be 8ff1 54be dc93 83be ab2c ccbd
000001a0: afde a43d 9a5c cc3d b0f0 273e a442 103d
000001b0: 4cf8 32be 105c 83be 7b42 7b3e aeec 663d
000001c0: 2cc4 6a3e 37ae 87be 7c7e 20be 5a96 0bbc
000001d0: d513 6e3e 3990 6cbe f2f5 1dbe 7346 5abe
000001e0: ab4e 143e 48f3 ac3c 9fd9 e3bd a81a 353e
000001f0: 9dcf 57be 3dba 2ebd 45ff 02be c69f 6bbd
00000200: 8ca1 803b 1ae4 bdbb 19da 8e3e 0d1d 81be
00000210: da25 f3bd 67df 1abc 96a5 f5bd ec76 8b3e
00000220: eafe 143e ae40 5b3e 22fc 543e 604a 4bbc
00000230: 455d 3c3e f94e e2bc 1d6e 473e 5316 503d
00000240: f6d5 f03d 512f ea3d 5e6e dabd 4fbd 773e
00000250: 7022 6f3e a511 8bbd c056 aabd d04a 7fbe
00000260: 525d 173e 6872 61be 184b 85be 32c2 6c3e
00000270: 3292 6b3d eb2f 7a3e ecaf 70be a013 22be
00000280: e725 94bd c0de 313e 366e 5abe a683 76be
00000290: 1e6c a1bd de44 15be cd58 873e 86e5 0a3e
000002a0: bb34 42be 6041 efbd 73d0 52bc 9d0f 34be
000002b0: 85fb 49be 7ff2 803e d90a 3abe 94db 223e
000002c0: 9f40 99bd 7168 54be 271e 02be 45d5 03be
000002d0: fb69 43be 2480 30be 935c b3bc a07f 17be
000002e0: 6d70 6e3e 1940 8abe 568f 57bd 92d6 3e3e
000002f0: 84e6 3dbe 49ec 7ebd f7c2 62be 3a31 8cbe
00000300: 6c0f 0d3e 358c 8a3d b7cf 003d 027b 653e
00000310: b280 fabb e9dc 71be bad9 87be ade0 203d
00000320: aaf1 32be cbca 833e 9a54 e8bc 7870 753e
00000330: 6aeb 48bd 8386 0dbe 2483 8ebe 58c5 8e3e
00000340: 8312 7cbe 9cad 493e 316d dfbd 2dea 58be
00000350: f701 c9bd 5c4c 0b3e fc91 5b3e 3aa7 71be
00000360: ab89 56be 84d9 c73d f6c7 143e 4ac5 38be
00000370: aa89 ed3d 3fe1 3dbd 8c0d 7bbe 1178 223e
00000380: a431 70be 7255 82bc f3ba 85bd 1790 06be
00000390: 1a58 06bd f467 80be d5b0 7e3e ec33 57be
000003a0: 2ba6 333e 4ef7 3d3c 2179 36bc 7692 a7bc
000003b0: 996f e3bd b5e5 57bd d46e 483e 27dd 07be
000003c0: 9324 0d3e bb04 68be da9f 10be edb1 493e
000003d0: c068 d43d 10a5 82be 4fe3 47be a036 3a3e
000003e0: 50a3 b9bc 2887 803e fde2 8dbe 45ef 973d
000003f0: 3046 8ebe e6ac f13d 79bc c5bd cbfc 0fbd

encoder.feature_encoder.atom_embedding_list.4.weight f4 [10, 64]
0.18733197 0.14651258 0.11549689 0.25165957 0.04210972 -0.12085571 0.111008145 -0.03721966
0.28516147 -0.22094882 -0.15542805 0.18668073 -0.20392735 0.15148777 -0.19404994 0.11779742
0.25223884 0.116544835 -0.18514669 0.11546112 0.0052546277 -0.057876665 -0.28411692 -0.18176642
-0.113513626 0.20233892 -0.20010698 -0.27345273 -0.21668367 0.08985658 -0.24628063 -0.27916422
-0.01715766 -0.27081007 0.06336555 -0.02959861 0.2616909 -0.10414742 -0.2632367 -0.15402521
-0.016767543 -0.12646478 0.2853028 -0.22979054 -0.24882397 0.12076443 -0.062027223 0.17828584
0.05073229 0.08534562 0.18525004 -0.041693904 -0.12565827 -0.09721626 -0.074774474 -0.23504026
0.24527214 0.13470897 -0.0992368 0.21445292 0.13577121 0.11180253 0.17247234 0.036715757
-0.025626162 0.21054025 0.09025583 0.17629173 0.17255096 -0.18117772 -0.041400466 0.22445032
-0.054659527 -0.11729542 -0.14045534 -0.23898576 0.17402503 0.16937256 -0.15023047 -0.29206315
0.060020503 -0.0018506658 0.19452205 0.044560056 -0.050423425 0.1683328 0.1862432 0.14437638
0.22057408 -0.28147256 0.115309164 0.16306311 0.17605491 -0.13156538 0.08158865 -0.22589436
0.22416706 0.0148288105 0.19278692 0.09303181 -0.14860293 0.1540557 0.19728601 -0.14511232
0.021707524 -0.1429786 -0.21295965 0.10981695 -0.26397753 0.12346059 -0.20376894 -0.014589378
-0.122101784 0.13742337 0.28652427 -0.2235224 -0.07768444 -0.05413722 -0.2510264 -0.2636698
-0.14096425 -0.059307635 0.25289252 0.09662464 0.26488066 -0.24504529 -0.17017455 0.03799515
-0.23694406 0.12778041 -0.010890832 -0.27925366 -0.2879654 0.015787354 0.08796163 -0.010200328
-0.09159354 0.20677479 0.03409009 -0.13294011 0.2316731 -0.082117505 -0.10230246 -0.023650423
-0.05650553 -0.01481476 -0.12157113 0.1734683 0.0063960287 0.16341582 0.032720715 0.18828805
-0.20253396 0.15870886 0.11394778 0.109556295 -0.15085642 0.035915054 -0.092915446 -0.09382096
-0.029669782 -0.047045216 0.113861196 0.27199802 -0.080139376 0.29952788 0.16410284 -0.25415203
0.2222753 -0.22636142 -0.096024826 -0.106869005 -0.019891147 -0.29654706 -0.280118 -0.24347733
-0.12983456 -0.008971488 0.18743423 -0.22837824 0.031652533 0.2213568 0.09660929 0.06824151
-0.27007923 0.17610979 -0.0875463 0.07099763 -0.17696625 -0.030596416 0.17667712 -0.17856115
-0.22227041 -0.037462834 0.16817254 -0.19943523 0.033087224 -0.14241368 0.05047876 0.03672131
0.19407377 -0.14388919 -0.2473212 0.028138362 0.16130036 -0.13516308 0.09229791 -0.2519033
0.1443021 0.15602425 -0.2657034 -0.06926359 0.10982093 0.12851699 0.086261936 -0.20554869
0.24575259 -0.2515346 -0.026319781 -0.151604 -0.24773191 -0.113159984 0.26739824 -0.2367577
0.17965826 0.2502444 -0.17031373 0.0840886 -0.10304361 -0.26790467 -0.24912278 -0.049310714
-0.20516135 -0.040342145 0.15828454 0.13830575 -0.28151292 0.11307541 5.0309627e-05 0.110796526
0.18465555 -0.23355237 -0.16293705 0.13699463 0.047246177 -0.08412029 -0.14359131 0.044759445
-0.093039826 0.0762747 -0.1295133 0.27054626 0.037853394 -0.07973349 -0.23701005 0.28474662
00000000: f4d3 3f3e 6507 163e a289 ec3d 86d9 803e
00000010: 3e7b 2c3d 3383 f7bd 3d58 e33d a473 18bd
00000020: af00 923e 6840 62be 8828 1fbe 3c29 3f3e
00000030: 55d2 50be 9c1f 1b3e 07b5 46be c63f f13d
00000040: 7325 813e 0faf ee3d 1897 3dbe e176 ec3d
00000050: 032f ac3b 1510 6dbd c677 91be fa20 3abe
00000060: d579 e8bd ef31 4f3e d8e8 4cbe ff01 8cbe
00000070: 53e2 5dbe ba06 b83d fd30 7cbe 9dee 8ebe
00000080: 398e 8cbc 9ea7 8abe ccc5 813d c978 f2bc
00000090: 5afc 853e 3e4b d5bd f6c6 86be c9b8 1dbe
000000a0: 165c 89bc fc7f 01be 3513 923e 364e 6bbe
000000b0: b6cb 7ebe 5753 f73d 4210 7ebd 9090 363e
000000c0: a9cc 4f3d afc9 ae3d 30b2 3d3e 3ac7 2abd
000000d0: 90ac 00be 5219 c7bd 5c23 99bd 65ae 70be
000000e0: 9f28 7b3e 26f1 093e aa3c cbbd 8c99 5b3e
000000f0: 9c07 0b3e baf8 e43d 979c 303e 4363 163d
00000100: f5ed d1bc dd97 573e 0cd8 b83d d285 343e
00000110: 33b1 303e a786 39be 8993 29bd 4ed6 653e
00000120: abe2 5fbd 9538 f0bd 86d3 0fbe afb8 74be
00000130: 9e33 323e 0070 2d3e 04d6 19be 4d89 95be
00000140: 0fd8 753d 0a92 f2ba ca30 473e 9b84 363d
00000150: cb88 4ebd 6f5f 2c3e 8ab6 3e3e 67d7 133e
00000160: 2cde 613e 2c1d 90be 3627 ec3d 04fa 263e
00000170: bd47 343e 13b9 06be f317 a73d da50 67be
00000180: 0d8c 653e 8af4 723c ef69 453e 7687 be3d
00000190: 5e2b 18be c7c0 1d3e 5805 4a3e 5398 14be
000001a0: fad3 b13c fb68 12be 1812 5abe b6e7 e03d
000001b0: 1028 87be e8d8 fc3d cea8 50be 4908 6fbc
000001c0: 8010 fabd b6b8 0c3e 4fb3 923e 0ee3 64be
000001d0: 0519 9fbd fdbe 5dbd 8886 80be baff 86be
000001e0: ef58 10be 90ec 72bd 217b 813e 24e3 c53d
000001f0: 709e 873e 27ed 7abe 3d42 2ebe cda0 1b3d
00000200: 77a1 72be ded8 023e 766f 32bc 56fa 8ebe
00000210: 3370 93be 7b54 813c 3a25 b43d 471f 27bc
00000220: 6595 bbbd c5bc 533e 0da2 0b3d 7421 08be
00000230: b73b 6d3e 392d a8bd f483 d1bd 88be c1bc
00000240: 5872 67bd 9bb9 72bc 49fa f8bd ada1 313e
00000250: c795 d13b 7a56 273e 2806 063d 95ce 403e
00000260: 1065 4fbe 9384 223e 745d e93d 0d5f e03d
00000270: 1b7a 1abe aa1b 133d 744a bebd 3425 c0bd
00000280: 0b0e f3bc 7cb2 40bd 0f30 e93d 5343 8b3e
00000290: 1d20 a4bd b85b 993e 930a 283e 3720 82be
000002a0: 239c 633e 4acb 67be aaa8 c4bd 23de dabd
000002b0: c2f2 a2bc 04d5 97be a06b 8fbe 1f52 79be
000002c0: 5af3 04be 26fd 12bc c2ee 3f3e fcdb 69be
000002d0: 16a6 013d 5bab 623e 17db c53d 34c2 8b3d
000002e0: d347 8abe 2056 343e 794b b3bd 3567 913d
000002f0: a436 35be 56a5 fabc d9ea 343e bcd8 36be
00000300: db9a 63be a172 19bd 6c35 2c3e c038 4cbe
00000310: 7886 073d e4d4 11be d1c2 4e3d 1669 163d
00000320: 46bb 463e b057 13be c541 7dbe 6c82 e63c
00000330: ec2b 253e 3168 0abe b006 bd3d 78f9 80be
00000340: eec3 133e d2c4 1f3e 470a 88be 12da 8dbd
00000350: cce9 e03d f599 033e 19aa b03d 5b7b 52be
00000360: 91a6 7b3e 25c9 80be 959c d7bc 143e 1bbe
00000370: 6fad 7dbe 6cc0 e7bd 6ce8 883e 9c70 72be
00000380: 56f8 373e 0920 803e b966 2ebe a536 ac3d
00000390: 8708 d3bd cd2a 89be 0b1a 7fbe 08fa 49bd
000003a0: d115 52be ce3d 25bd 5815 223e 06a0 0d3e
000003b0: 7622 90be 1594 e73d 8d03 5338 4ae9 e23d
000003c0: 5816 3d3e 5a28 6fbe f8d8 26be 5248 0c3e
000003d0: 3585 413d 4247 acbd 9a09 13be ae55 373d
000003e0: aa8b bebd e935 9c3d 229f 04be 0a85 8a3e
000003f0: 290c 1b3d 504b a3bd c3b2 72be 4fca 913e

encoder.feature_encoder.atom_embedding_list.5.weight f4 [6, 64]
-0.17930417 0.07777407 -0.069644965 0.21722725 -0.031476688 0.23676156 -0.096526936 -0.2358975
0.004816346 -0.1682614 -0.15756023 0.19976316 0.2636235 -0.19093092 -0.29632235 0.12035225
-0.24337901 -0.086972535 0.11469901 0.09813484 0.03419989 0.12519032 -0.16412294 -0.09130048
-0.09001591 -0.3017058 -0.17526901 0.041020714 0.063086115 -0.12985751 0.22284064 -0.14989388
-0.013961723 0.24129543 0.17659181 0.27756575 0.059570484 -0.19782537 -0.088050365 -0.071728304
-0.22011878 -0.11571271 -0.27614516 -0.14518555 -0.26935062 0.2874243 0.056146197 0.2746158
0.15962544 0.2676449 -0.0902429 -0.14188449 -0.12944852 -0.26875868 -0.009043963 0.049187895
0.15690121 -0.048125185 0.095738895 0.11215406 0.08751381 0.06972015 -0.11227268 0.16126378
-0.28426254 0.03455961 0.15485969 0.18343061 0.12903686 -0.044482533 0.20866488 -0.2775712
-0.061259013 -0.1095634 0.17864229 0.25732774 -0.07742428 0.05891692 -0.042314664 -0.08330082
0.11710842 0.06888545 -0.14078856 0.063901015 0.26444134 -0.20474334 -0.046698216 -0.2598881
-0.07389789 0.2769121 0.19041716 -0.27615666 -0.2621755 0.011764677 -0.03348512 0.2205409
-0.08072014 0.2220417 -0.17314735 -0.053343385 -0.006272286 -0.15069067 0.0124236755 -0.063085064
-0.13891214 -0.23041114 -0.00047266297 0.27246296 0.11364088 -0.22392292 -0.14788815 0.1923003
-0.10912882 -0.027128998 -0.13766065 0.13959086 -0.1980013 -0.27749956 -0.21512894 -0.25263008
0.028149676 0.04539062 -0.09266871 0.12134602 0.027462546 0.070745364 0.15269108 0.05920433
0.28909126 0.21461056 -0.16562591 0.22352324 -0.032123815 -0.016308935 0.02249372 -0.2561736
0.1865961 0.20163952 0.29878116 0.058027655 -0.07991575 -0.049601022 -0.09427362 -0.26572976
0.09951439 0.03737759 -0.09030582 -0.17069158 -0.06726497 0.08095174 0.23305553 0.11939353
0.22070831 0.22800481 -0.13441026 -0.006093105 -0.24606483 -0.15762627 0.1133171 0.107215896
0.13138257 0.25051206 0.11132519 -0.14344165 -0.06513527 0.018746244 0.15585491 -0.1506305
-0.1224158 0.11206412 0.098637186 0.27152047 0.24144964 -0.13927525 0.102186374 -0.17963675
-0.010933195 -0.022875419 0.072401695 0.25745893 -0.22904868 0.270068 0.20423037 -0.14167471
-0.06868909 -0.069646455 0.17652175 -0.08488577 0.108735114 -0.11597184 0.24153377 -0.04701435
0.2798941 -0.21795012 -0.08741494 0.18922406 0.097369306 -0.1482439 -0.2397365 -0.22103442
-0.24463354 -0.16179468 -0.17739384 -0.08449645 0.25367284 -0.07770914 -0.18095908 0.14313428
-0.17231496 -0.1465266 -0.04837943 -0.036036443 -0.18054497 -0.23283742 -0.2857825 -0.12417533
0.14833653 0.023486914 0.23338108 0.050777853 -0.21963926 0.027580198 -0.07501395 0.1657747
0.07965675 0.28982255 -0.26249415 -0.13934375 -0.24850067 0.026050141 -0.18662345 -0.121568896
0.27947202 -0.09808977 0.14404543 0.18823156 0.21233052 0.2394909 0.18059896 0.029012566
0.24702388 0.28332603 -0.20195714 0.061138432 0.20143977 -0.19793135 0.114900835 0.1827972
0.009135138 -0.084637664 -0.024212714 0.2546751 -0.23181005 0.11615448 -0.1584765 0.19757427
00000000: 839b 37be 0348 9f3d 05a2 8ebd d270 5e3e
00000010: b3ed 00bd 9f71 723e eaaf c5bd 1d8f 71be
00000020: 70d2 9d3b b74c 2cbe 7857 21be b78e 4c3e
00000030: a9f9 863e 6583 43be 90b7 97be 3e7b f63d
00000040: 5938 79be a81e b2bd 51e7 ea3d ebfa c83d
00000050: 2f15 0c3d e431 003e d80f 28be bffb babd
00000060: 435a b8bd 2f79 9abe b879 33be 5605 283d
00000070: 4b33 813d 5ef9 04be 5630 643e c87d 19be
00000080: b6bf 64bc 2616 773e 7cd4 343e 191d 8e3e
00000090: 2e00 743d bc92 4abe c053 b4bd 4ae6 92bd
000000a0: d166 61be c9fa ecbd e662 8dbe 85ab 14be
000000b0: 53e8 89be 4729 933e 8ef9 653d 719a 8c3e
000000c0: da74 233e c108 893e 45d1 b8bd 2b4a 11be
000000d0: 278e 04be bd9a 89be 212d 14bc 3f79 493d
000000e0: b6aa 203e ea1e 45bd c112 c43d 07b1 e53d
000000f0: 713a b33d 70c9 8e3d 38ef e5bd 5522 253e
00000100: dc8a 91be 618e 0d3d 8a93 1e3e 3cd5 3b3e
00000110: 3d22 043e 5133 36bd 3fac 553e d01d 8ebe
00000120: bbea 7abd c762 e0bd 01ee 363e 76c0 833e
00000130: 9f90 9ebd de52 713d 2452 2dbd 9f99 aabd
00000140: 8ad6 ef3d d113 8d3d e02a 10be 89de 823d
00000150: db64 873e 3da8 51be a146 3fbd 0e10 85be
00000160: c757 97bd 6cc7 8d3e b7fc 423e 6864 8dbe
00000170: de3b 86be a2c0 403c b127 09bd 79d5 613e
00000180: 9a50 a5bd e65e 633e 8a4d 31be 987e 5abd
00000190: c087 cdbb a84e 1abe ac8c 4b3c be32 81bd
000001a0: fc3e 0ebe e6f0 6bbe c0cf f7b9 4480 8b3e
000001b0: 8dbc e83d 0d4c 65be fe6f 17be 5fea 443e
000001c0: ee7e dfbd a23d debc eaf6 0cbe e8f0 0e3e
000001d0: dac0 4abe 6c14 8ebe c34a 5cbe bb58 81be
000001e0: 269a e63c 84eb 393d 18c9 bdbd 4384 f83d
000001f0: 22f9 e03c f2e2 903d 0d5b 1c3e 3d80 723d
00000200: c503 943e dfc2 5b3e d799 29be 47e3 643e
00000210: 4394 03bd 519a 85bc c044 b83c 3029 83be
00000220: 0c13 3f3e 977a 4e3e d8f9 983e 68ae 6d3d
00000230: deaa a3bd 712a 4bbd 8712 c1bd bb0d 88be
00000240: 33ce cb3d 3e19 193d 42f2 b8bd c6c9 2ebe
00000250: 37c2 89bd 07ca a53d 1ca6 6e3e 9884 f43d
00000260: 5c01 623e 187a 693e d8a2 09be aba8 c7bb
00000270: 6bf8 7bbe c868 21be cc12 e83d 0294 db3d
00000280: 2789 063e 1e43 803e 76fe e33d 5ee2 12be
00000290: a465 85bd b991 993c 6e98 1f3e e23e 1abe
000002a0: 23b5 fabd e081 e53d 4b02 ca3d bb04 8b3e
000002b0: 933e 773e 2c9e 0ebe 1747 d13d b2f2 37be
000002c0: 2521 33bc 3b65 bbbc 5747 943d a8d1 833e
000002d0: bd8b 6abe 5a46 8a3e c421 513e 2d13 11be
000002e0: deac 8cbd cda2 8ebd 1ec2 343e 97d8 adbd
000002f0: 84b0 de3d a582 edbd a154 773e 1e92 40bd
00000300: 484e 8f3e 512e 5fbe 9b06 b3bd f4c3 413e
00000310: 8f69 c73d 40cd 17be 7c7d 75be d956 62be
00000320: 3781 7abe 81ad 25be bba6 35be 7a0c adbd
00000330: 68e1 813e f825 9fbd 564d 39be cb91 123e
00000340: 5573 30be 120b 16be 8229 46bd f39a 13bd
00000350: c8e0 38be ef6c 6ebe 1552 92be a34f febd
00000360: 88e5 173e a167 c03c 73fb 6e3e 70fc 4f3d
00000370: 1de9 60be deef e13c eaa0 99bd d8c0 293e
00000380: 1423 a33d 9f63 943e a265 86be 21b0 0ebe
00000390: f676 7ebe 1b67 d53c 381a 3fbe 1df9 f8bd
000003a0: f516 8f3e 4ae3 c8bd a580 133e c6bf 403e
000003b0: 2c6d 593e 1a3d 753e efee 383e c3ab ed3c
000003c0: d4f3 7c3e 1c10 913e dacd 4ebe 4b6c 7a3d
000003d0: 3a46 4e3e 84ae 4abe 2151 eb3d 302f 3b3e
000003e0: 8cab 153c 8356 adbd be59 c6bc c664 823e
000003f0: 9d5f 6dbe 66e2 ed3d aa47 22be e950 4a3e

encoder.feature_encoder.atom_embedding_list.6.weight f4 [6, 64]
-0.024265703 0.2724131 -0.11718376 0.24083312 0.10692835 0.21715258 0.01721804 0.19204505
-0.0032813689 0.011050272 -0.030221134 0.08819545 0.27110508 0.21848918 -0.16093995 -0.105890945
0.15287766 -0.110053085 -0.091888644 0.05055159 -0.18463843 -0.21189886 0.24483877 -0.264876
-0.19272588 0.12970898 -0.022672815 0.14595361 -0.04783089 -0.013562314 -0.023963558 0.10403736
0.08029866 -0.017429978 0.19818534 -0.18759961 -0.05559573 0.012859465 0.15286233 -0.10215069
0.024089307 -0.2687912 0.14170644 0.16960317 -0.24314994 -0.2557679 0.008836092 0.27308753
0.093835734 0.19147621 -0.248765 0.20887779 0.27151987 -0.23435348 0.06695882 -0.05663618
0.28483832 -0.15990654 -0.31108478 -0.23874949 0.21121699 0.09939434 -0.288744 -0.22583297
0.14937755 -0.14539833 -0.21222809 -0.13221267 -0.10997039 -0.17680728 -0.12151178 0.025940856
0.06333362 0.254304 -0.27856904 -0.069744386 -0.08708005 -0.16129935 0.08005152 -0.12591425
-0.101561114 -0.23433775 -0.11638007 0.010267954 -0.14975917 -0.06090214 -0.17550202 0.037388004
0.084607236 -0.19951895 -0.123765804 -0.040856868 -0.15712836 -0.1291024 0.1539061 -0.033842012
0.09265381 -0.0014164664 0.007846694 -0.20624988 0.0069368216 0.2842921 0.27521294 0.21732289
-0.0950414 0.0010606598 0.25933424 -0.06665794 0.09745652 0.027190484 0.1943901 -0.14995643
0.045156 -0.26557142 -0.070172705 0.1300096 0.018425431 0.27091113 -0.204852 0.13660733
-0.013841999 0.28458503 0.24791588 0.25392646 -0.1828212 0.28120506 -0.18024558 -0.13420138
0.17623521 -0.006654888 0.14394791 0.2436929 -0.042478874 0.07225306 0.00043402615 0.2033078
0.1464587 0.011114367 -0.21411112 0.082632296 0.17529537 0.02618476 0.15384595 0.09545964
-0.13875867 -0.1503764 -0.057772852 -0.25645983 -0.021851445 -0.07259731 -0.24659878 0.05981508
0.083935365 0.120052874 -0.019263174 -0.10019384 -0.05435177 -0.22827096 0.012903052 0.16199882
0.0071012145 0.023342613 0.24028036 0.23902829 0.260419 0.23453873 0.17750183 -0.011396841
-0.27766976 0.028558781 0.17753 0.011171711 0.15280707 -0.22290844 0.0032285107 0.29191086
-0.2596782 -0.046502557 0.12687024 -0.28005564 -0.11379776 -0.12314019 0.20434378 -0.045672268
-0.00045494537 0.23128977 0.078585036 -0.10779827 0.17253989 -0.11218551 0.24790236 -0.08714255
0.26199535 -0.094150685 0.16074444 0.26663548 -0.105155386 -0.025831655 -0.1535295 0.1480761
-0.10075434 0.21824373 -0.17966026 -0.09748651 -0.069106504 0.2355214 0.15167156 -0.026396472
0.14234622 -0.26105025 -0.026812278 0.25732946 -0.066843905 -0.16264237 -0.13212256 0.23215362
0.046749678 0.07448466 -0.13482496 0.14866218 -0.0030990515 0.2917511 0.18731417 -0.2534435
0.24309427 -0.19171645 -0.10359068 0.04219617 -0.2376786 -0.014455886 -0.1499873 -0.075391054
-0.0025789065 -0.057381604 0.097046725 -0.08121476 0.05155641 -0.0026277052 -0.098981835 -0.2672535
0.14992282 -0.2495273 0.034811966 0.1822991 0.2688661 -0.15343167 0.25144342 -0.15490036
-0.17506137 0.030326992 -0.12533304 -0.18939789 0.081347354 0.23885612 0.17416324 0.09978688
00000000: dec8 c6bc bb79 8b3e 0afe efbd f59c 763e
00000010: 40fd da3d 3f5d 5e3e d90c 8d3c 75a7 443e
00000020: 3c0c 57bb 330c 353c 5092 f7bc d19f b43d
00000030: 49ce 8a3e a1bb 5f3e 71cd 24be 5add d8bd
00000040: f68b 1c3e 8363 e1bd 1d30 bcbd 2f0f 4f3d
00000050: db11 3dbe 04fc 58be 04b7 7a3e d49d 87be
00000060: ef59 45be 6ed2 043e 57bc b9bc dd74 153e
00000070: 53ea 43bd 7834 5ebc 394f c4bc 8a11 d53d
00000080: a073 a43d 50c9 8ebc 19f1 4a3e 1d1a 40be
00000090: 59b8 63bd 81b0 523c f187 1c3e 6234 d1bd
000000a0: f056 c53c 009f 89be 7e1b 113e 74ac 2d3e
000000b0: 4cfc 78be 03f4 82be 42c5 103c 21d2 8b3e
000000c0: f32c c03d 5712 443e 41bc 7ebe 0fe4 553e
000000d0: a704 8b3e 5cfa 6fbe b521 893d 57fb 67bd
000000e0: 54d6 913e 8abe 23be 8146 9fbe bf7a 74be
000000f0: 4449 583e 428f cb3d 41d6 93be c240 67be
00000100: 6ef6 183e 4de3 14be 5252 59be c262 07be
00000110: 2838 e1bd f80c 35be 2bdb f8bd eb81 d43c
00000120: 0fb5 813d 2234 823e 9aa0 8ebe 25d6 8ebd
00000130: 0657 b2bd a82b 25be 0df2 a33d aaef 00be
00000140: 46ff cfbd 3cf6 6fbe ad58 eebd ec3a 283c
00000150: 785a 19be 8674 79bd cdb6 33be 2a24 193d
00000160: 8f46 ad3d b24e 4cbe ed78 fdbd 8859 27bd
00000170: 42e6 20be 6b33 04be 9099 1d3e ec9d 0abd
00000180: 48c1 bd3d baa8 b9ba 6c8f 003c 2b33 53be
00000190: 474e e33b bc8e 913e b6e8 8c3e e489 5e3e
000001a0: 11a5 c2bd d605 8b3a 75c7 843e f583 88bd
000001b0: 4997 c73d 94be de3c 330e 473e 2e8e 19be
000001c0: 7ff5 383d faf8 87be b5b6 8fbd 3d21 053e
000001d0: eef0 963c ddb4 8a3e b9c4 51be cbe2 0b3e
000001e0: 8dc9 62bc 21b5 913e a9dd 7d3e a602 823e
000001f0: 7b35 3bbe 1cfa 8f3e 4c92 38be 166c 09be
00000200: 0177 343e 3f11 dabb 1567 133e a28a 793e
00000210: 54fe 2dbd 6af9 933d 018e e339 ec2f 503e
00000220: 45f9 153e 0919 363c f23f 5bbe 1f3b a93d
00000230: a180 333e 6c81 d63c cb89 1d3e 5880 c33d
00000240: c116 0ebe 45fc 19be 3aa3 6cbd b44e 83be
00000250: cd01 b3bc e6ad 94bd 6484 7cbe a800 753d
00000260: 4ee6 ab3d 48de f53d cecd 9dbc 6e32 cdbd
00000270: f69f 5ebd ddbf 69be 5367 533c 05e3 253e
00000280: 4eb1 e83b 0239 bf3c 0e0c 763e d5c3 743e
00000290: a455 853e ec2a 703e 0ac3 353e d1b9 3abc
000002a0: bb2a 8ebe 1bf4 e93c 6dca 353e 8d09 373c
000002b0: 7579 1c3e 1c42 64be 6c95 533b 5775 953e
000002c0: 8bf4 84be 7779 3ebd 46ea 013e 7463 8fbe
000002d0: cd0e e9bd ed30 fcbd 7f3f 513e d812 3bbd
000002e0: bc85 eeb9 3ad7 6c3e 31f1 a03d 57c5 dcbd
000002f0: 4cae 303e 84c1 e5bd 1eda 7d3e cb77 b2bd
00000300: 4124 863e 13d2 c0bd 319a 243e 7284 883e
00000310: b55b d7bd e89c d3bc d636 1dbe 43a1 173e
00000320: 4b58 cebd 497b 5f3e dcf8 37be 02a7 c7bd
00000330: b687 8dbd 862c 713e ca4f 1b3e 6a3d d8bc
00000340: 35c3 113e 61a8 85be 6ca5 dbbc b0c0 833e
00000350: 75e5 88bd b98b 26be 234b 07be aeb9 6d3e
00000360: 977c 3f3d 6a8b 983d 8e0f 0abe e63a 183e
00000370: 7519 4bbb 6660 953e 49cf 3f3e 59c3 81be
00000380: b4ed 783e 5151 44be 5a27 d4bd e4d5 2c3d
00000390: 0562 73be 61d8 6cbc 4596 19be a066 9abd
000003a0: df02 29bb f908 6bbd 6fc0 c63d ed53 a6bd
000003b0: d02c 533d 9435 2cbb fdb6 cabd 73d5 88be
000003c0: 5e85 193e 1684 7fbe fe96 0e3d 9eac 3a3e
000003d0: d1a8 893e 311d 1dbe 31bd 803e 339e 1ebe
000003e0: 4a43 33be 5070 f83c 4e57 00be 85f1 41be
000003f0: 7199 a63d b396 743e d957 323e 105d cc3d

encoder.feature_encoder.atom_embedding_list.7.weight f4 [2, 64]
0.24518606 0.30135104 -0.2291523 -0.072901905 0.22539607 -0.29693726 0.21289876 0.23823528
0.28048277 -0.10039197 0.2578607 0.07065873 0.24219893 0.12427586 0.005813558 -0.26655355
-0.17768659 0.24611825 0.111904435 -0.09930606 0.28442836 -0.22496581 0.2048153 0.29804802
-0.096766986 0.076200224 0.1845951 -0.06688772 0.06706813 0.14167401 -0.07544159 -0.16081439
0.066024825 -0.27360758 -0.27209428 0.005764554 -0.15595934 0.091456614 0.07196916 -0.25052077
-0.177005 0.28672194 -0.018432938 -0.04863886 -0.12493247 0.110137865 0.11882752 0.12237178
-0.10701843 0.13717619 0.19383366 0.28692695 -0.2863285 0.11822961 -0.09998862 -0.0866395
-0.23052607 0.071458526 -0.24149124 -0.1866553 0.014653013 0.12358514 0.116826914 0.19192941
-0.289947 -0.16114683 0.04098971 -0.22423929 -0.1701119 -0.11784402 0.15064271 0.13067918
-0.1168496 -0.15356667 0.0552298 0.08426925 0.26645982 0.20444585 -0.08636536 -0.0133618
0.16500583 0.062421627 0.14638641 0.277628 0.10500831 -0.020508833 -0.29453117 -0.13919207
0.12576252 0.27410483 0.092982866 -0.21665964 -0.2540005 0.3033179 -0.07744373 -0.0767762
-0.054015446 0.17266995 0.2686969 0.10532809 0.18898484 0.26010656 -0.2808674 -0.107456505
-0.16196717 0.15279327 0.21233833 0.041246552 0.2234132 -0.28111795 -0.04951845 0.024822174
-0.03570864 0.23440933 -0.12290108 0.23587663 -0.09733846 0.010250226 0.05635507 0.2608291
-0.05664179 0.00038430045 0.2166936 0.2947377 -0.1817165 0.067038864 0.0158352 -0.28443137
00000000: 0e12 7b3e af4a 9a3e e7a6 6abe 984d 95bd
00000010: 3ace 663e 2908 98be 2202 5a3e f3f3 733e
00000020: 709b 8f3e 4e9a cdbd 5106 843e 86b5 903d
00000030: ff02 783e 5884 fe3d a97f be3b b579 88be
00000040: 79f3 35be 6c06 7c3e 272e e53d fa60 cbbd
00000050: 98a0 913e 705d 66be 1abb 513e c099 983e
00000060: c52d c6bd dd0e 9c3d 7f06 3d3e 6efc 88bd
00000070: 045b 893d fe12 113e 1f81 9abd 87ac 24be
00000080: 0638 873d 4b16 8cbe f14f 8bbe 95e4 bc3b
00000090: ceb3 1fbe 9b4d bb3d 9164 933d 4244 80be
000000a0: cc40 35be 38cd 923e ac00 97bc 8b39 47bd
000000b0: 98dc ffbd f68f e13d d85b f33d 0e9e fa3d
000000c0: 7b2c dbbd ea77 0c3e 557c 463e 17e8 923e
000000d0: a699 92be 5e22 f23d d5c6 ccbd 0d70 b1bd
000000e0: 070f 6cbe d958 923d 7b49 77be 9122 3fbe
000000f0: 3113 703c 351a fd3d f342 ef3d 2589 443e
00000100: ef73 94be ad03 25be d3e4 273d fc9e 65be
00000110: d031 2ebe 3558 f1bd 1542 1a3e c3d0 053e
00000120: d84e efbd 9540 1dbe a538 623d 5b95 ac3d
00000130: 6c6d 883e 415a 513e 52e0 b0bd 74eb 5abc
00000140: 4af7 283e d2ad 7f3d 52e6 153e 4225 8e3e
00000150: 990e d73d 2402 a8bc cacc 96be 5e88 0ebe
00000160: e4c7 003e 7857 8c3e cd6d be3d 06dc 5dbe
00000170: 5b0c 82be 7c4c 9b3e d19a 9ebd d73c 9dbd
00000180: 4d3f 5dbd 64d0 303e a492 893e 41b6 d73d
00000190: 3e85 413e b02c 853e dacd 8fbe 2812 dcbd
000001a0: b9da 25be d775 1c3e 386f 593e 25f2 283d
000001b0: 6ec6 643e b1ee 8fbe dcd3 4abd df57 cb3c
000001c0: 3943 12bd 0009 703e 90b3 fbbd a589 713e
000001d0: 6359 c7bd 90f0 273c 93d4 663d 648b 853e
000001e0: 3901 68bd ef7b c939 ede4 5d3e dce7 963e
000001f0: e413 3abe ac4b 893d d2b8 813c fda0 91be

encoder.feature_encoder.atom_embedding_list.8.weight f4 [2, 64]
-0.13407701 0.09928432 0.103558086 0.035342287 0.218469 0.030647434 0.27857977 -0.066328995
0.019659799 -0.13480301 -0.22220296 -0.1321689 0.069600925 0.016442668 0.11362045 0.12505786
-0.29753914 0.25026292 -0.06783666 -0.22273877 0.123048075 0.0755232 -0.1602966 0.012298634
0.27125326 0.06563895 -0.08844627 -0.06704618 0.08414398 0.28107083 -0.07115306 0.27688974
-0.14594436 0.20083272 0.036538057 -0.12819837 0.24892749 0.22447371 -0.044120874 -0.28709465
-0.14213829 -0.025022617 -0.22999103 -0.23617192 -0.022758078 -0.071087524 0.020850245 -0.14857718
-0.16397327 0.099809706 0.017529212 0.19877966 -0.16622563 -0.12012334 -0.15455543 -0.19998488
0.15974016 -0.050612774 0.30043295 0.17616136 -0.123566486 -0.08033935 0.13985902 -0.19545537
0.25981066 0.043036744 0.072085656 0.26108006 -0.27020437 -0.11479727 -0.13000254 -0.20052618
0.17960775 0.19959675 0.2212693 0.28625175 -0.15349539 0.008407311 0.084446795 -0.08235181
0.17270824 0.29092592 -0.32054907 -0.07116172 0.16799764 -0.21412414 -0.054162942 0.18665391
0.057023812 -0.15478335 -0.08099397 -0.0025081222 0.28910884 -0.18448217 -0.0077180876 -0.06257442
0.3042437 0.22705068 -0.05893754 -0.13369296 0.28474578 -0.033194065 -0.085953265 0.25109088
0.08422713 0.034858823 0.2663778 -0.15848652 0.26038525 0.14727074 -0.1907153 0.26827687
0.10897311 -0.23248298 0.25276616 -0.2523757 0.03530362 0.13267215 0.17004223 -0.25928652
0.25878787 0.27213982 0.17919196 0.09046642 -0.18199074 0.22798097 0.012055043 -0.05621266
00000000: 7c4b 09be 9455 cb3d 4316 d43d 13c3 103d
00000010: 56b6 5f3e 5410 fb3c 02a2 8e3e 7fd7 87bd
00000020: 960d a13c cd09 0abe 2c89 63be 4957 07be
00000030: ee8a 8e3d c6b2 863c d7b1 e83d 2b0f 003e
00000040: 0d57 98be 7622 803e f2ed 8abd a215 64be
00000050: a100 fc3d e8ab 9a3d cb24 24be 3680 493c
00000060: b5e1 8a3e b76d 863d 5123 b5bd 824f 89bd
00000070: ae53 ac3d 84e8 8f3e b2b8 91bd 7ec4 8d3e
00000080: 7072 15be 18a7 4d3e eea8 153d 6f46 03be
00000090: d9e6 7e3e 70dc 653e 17b8 34bd 12fe 92be
000000a0: b38c 11be 3bfc ccbc c582 6bbe 0dd7 71be
000000b0: 266f babc 5696 91bd 22ce aa3c 9e24 18be
000000c0: 9ce8 27be 0869 cc3d 6c99 8f3c e58c 4b3e
000000d0: 0d37 2abe 3a03 f6bd c743 1ebe d6c8 4cbe
000000e0: ed92 233e 574f 4fbd 59d2 993e a563 343e
000000f0: 6d10 fdbd f588 a4bd 3437 0f3e 7425 48be
00000100: e705 853e 4c47 303d a5a1 933d 49ac 853e
00000110: 3a58 8abe d51a ebbd 631f 05be bc56 4dbe
00000120: 18eb 373e 1763 4c3e 6b94 623e 978f 923e
00000130: e52d 1dbe d1be 093c 71f2 ac3d 11a8 a8bd
00000140: 6eda 303e 3ef4 943e 021f a4be 3cbd 91bd
00000150: 9307 2c3e 5c43 5bbe f6d9 5dbd 3422 3f3e
00000160: cd91 693d 877f 1ebe 2be0 a5bd 4f5f 24bb
00000170: 1306 943e e5e8 3cbe 03e8 fcbb 0427 80bd
00000180: d5c5 9b3e f97f 683e 7d68 71bd cfe6 08be
00000190: 33ca 913e 80f6 07bd 4408 b0bd fc8e 803e
000001a0: 467f ac3d 20c8 0e3d ac62 883e 4a4a 22be
000001b0: 3751 853e 24ce 163e df4a 43be 965b 893e
000001c0: 4b2d df3d 0510 6ebe 916a 813e 6337 81be
000001d0: 879a 103d 35db 073e 8d1f 2e3e 34c1 84be
000001e0: d87f 843e e955 8b3e 197e 373e 7546 b93d
000001f0: c85b 3abe d873 693e 8482 453c 3f3f 66bd
