checkpoints/molhiv/best_model.pt (torch, 475129 bytes, 97 tensors)

encoder.input_proj.weight f4 [64, 9]
0	0x3eedaac8	0.46419358
1	0x3e8d8772	0.276424
2	0xbefae4aa	-0.49002582
3	0x3d733bee	0.059383325
4	0xbed8c2ff	-0.4233627
5	0x3c748aed	0.014925701
6	0xbecf3a42	-0.40474135
7	0x3f86493f	1.0491103
8	0x3eebcd91	0.46055272
9	0xbda37e39	-0.079830594
10	0x3e94379b	0.28948674
11	0xbe08b1ee	-0.13349125
12	0xbd6bf5ff	-0.057607647
13	0xbef10ad8	-0.47078586
14	0xbed1c026	-0.4096691
15	0xbe631dae	-0.2217929
16	0x3f5c165a	0.85971606
17	0x3ec9e3aa	0.39431506
18	0xbe1f38f0	-0.15549064
19	0x3dade28e	0.084904775
20	0xbe1d23a0	-0.15345621
21	0xbd1ffdae	-0.039060287
22	0xbe0a8280	-0.13526344
23	0x3e624e16	0.221001
24	0xbe8697f4	-0.26287806
25	0xbe1d3b8b	-0.15354745
26	0xbdc0a468	-0.09406358
27	0xbe9df7d4	-0.3085314
28	0x3d00bd23	0.031430375
29	0xbebed755	-0.3727366
30	0x3e7dceae	0.24785873
31	0xbce0850f	-0.027407197
32	0x3e83a23c	0.25709713
33	0x3e3ae111	0.18249919
34	0xbddd8a13	-0.10817351
35	0x3d00a93e	0.031411402
36	0xbe278ca3	-0.16362242
37	0x3e89c44e	0.2690758
38	0x3d44b276	0.048021756
39	0xbe7aa6a7	-0.24477635
40	0x3ed81e9d	0.42210856
41	0xbdb8ffe3	-0.090331815
42	0x3e0c6ed8	0.13714159
43	0x3cd92a76	0.026509505
44	0xbe272c6c	-0.1632554
45	0xbe417d09	-0.18895353
46	0x3e44ea00	0.19229889
47	0x3ca43202	0.020043377
48	0x3e00d9ee	0.12583134
49	0xbe4feb36	-0.2030457
50	0xbea8d19b	-0.32972416
51	0xbe1691d5	-0.14704068
52	0xbe82c796	-0.25542897
53	0x3e6b972e	0.23006889
54	0xbc835594	-0.016032018
55	0x3e0d4260	0.13794851
56	0x3c85eb1f	0.016347466
57	0xbdec6e33	-0.11544456
58	0x3e83eb85	0.25765625
59	0xbe2b4048	-0.1672374
60	0xbda84b5a	-0.08217497
61	0xbe4b121f	-0.19831131
62	0x3e0fe572	0.1405237
63	0xbe2f404e	-0.17114374
64	0x3dd10df8	0.102077425
65	0xbe626703	-0.22109608
66	0x3e42bb67	0.19016801
67	0xbea3a2b6	-0.31960076
68	0xbe4b71e6	-0.19867668
69	0xbea49a41	-0.32148936
70	0x3ec94e5b	0.39317593
71	0xbcebca74	-0.02878306
72	0x3f2b8d6f	0.67012686
73	0xbe8cb8b7	-0.27484676
74	0xbeee7e09	-0.46580532
75	0xbec1fd62	-0.37888628
76	0xbde0789e	-0.10960506
77	0xbe57f280	-0.210886
78	0xbda9884e	-0.08277951
79	0x3f401760	0.7503567
80	0xbf101948	-0.56288576
81	0xbea5ab14	-0.32357085
82	0x3e34fa78	0.17673671
83	0xbe6af591	-0.22945239
84	0x3e21579c	0.15756077
85	0xbda1df23	-0.07903888
86	0x3e4321fb	0.19055931
87	0xbe4b8182	-0.19873622
88	0xbe2c20d0	-0.16809392
89	0x3dd000de	0.101564154
90	0xbd4c91e0	-0.049943805
91	0xbdaded1e	-0.08492492
92	0x3b8c1545	0.0042749965
93	0x3d86cb17	0.06581705
94	0xbef3b63b	-0.47599968
95	0xbe08df4d	-0.13366432
96	0x3d9d7472	0.07688226
97	0xbdc87a57	-0.097889595
98	0xbe9adc89	-0.3024638
99	0xbea502b3	-0.32228622
100	0xbe435888	-0.1907674
101	0x3daa6833	0.08320656
102	0xbd3416ce	-0.04396706
103	0xbe77a4bb	-0.24183933
104	0x3bfffaae	0.007811866
105	0xbe69086b	-0.22757117
106	0xbe90aadc	-0.28255355
107	0xbe3bd57b	-0.18343155
108	0xbe9c10b7	-0.30481502
109	0xbe5936de	-0.21212336
110	0x3ea9afe7	0.33142015
111	0x3d5628f9	0.05228517
112	0x3deb5ecc	0.114926904
113	0xbe9f0d72	-0.31064945
114	0xbe54e878	-0.20791805
115	0xbdbf41c8	-0.09338719
116	0x3d6af01b	0.05735789
117	0xbe960c32	-0.2930618
118	0xbe12f21b	-0.14350168
119	0xbe4c384e	-0.19943354
120	0x3a7207d8	0.0009232736
121	0xbdfde598	-0.12397307
122	0xbcbd1918	-0.023083255
123	0xbe672c08	-0.2257539
124	0xbe6a29f8	-0.22867572
125	0xbe470246	-0.19434461
126	0xbe24d898	-0.16098249
127	0xbe86940e	-0.26284832
128	0x3e7957ec	0.24349946
129	0xbde47d0b	-0.111566626
130	0x3e7b4228	0.24536955
131	0x3dd494c3	0.103799365
132	0xbe9b9136	-0.30384225
133	0x3e176b7d	0.14787097
134	0xbe0793d1	-0.13239981
135	0xbe02b763	-0.12765269
136	0xbe8d8a2e	-0.27644485
137	0xbea98b63	-0.33114156
138	0x3dc3314e	0.095308885
139	0xbd94ffae	-0.072753295
140	0x3e04c36b	0.12965171
141	0xbe8bef2e	-0.27330917
142	0x3e7d4a4b	0.24735372
143	0xbe7a6e70	-0.24456191
144	0x3d4c3459	0.04985461
145	0x3d8e7678	0.0695619
146	0xbee2acb9	-0.44272402
147	0x3cd1d70b	0.025615236
148	0xbe8aed3e	-0.27134126
149	0xbef5c94d	-0.48005143
150	0xbf0746bb	-0.528423
151	0x3e95b210	0.29237413
152	0xbd0ee904	-0.03489019
153	0xbe7f5be8	-0.24937403
154	0x3e9b53de	0.30337423
155	0xbe7a656b	-0.2445275
156	0x3dcf3429	0.10117371
157	0x3defca5e	0.1170852
158	0x3dddb603	0.108257316
159	0xbe81f6be	-0.25383562
160	0x3e9b008b	0.30273852
161	0x3d95e403	0.073188804
162	0xbd2a0a89	-0.041513953
163	0xbe964674	-0.29350626
164	0x3d7026ed	0.058630873
165	0xbde0bb43	-0.10973217
166	0xbe3b977d	-0.18319507
167	0x3e9277cb	0.2860702
168	0x3c3f0429	0.011658707
169	0xbe9c309a	-0.3050583
170	0xbe76019d	-0.24024053
171	0xbc824783	-0.01590324
172	0x3e3e7633	0.18599777
173	0xbdae519e	-0.08511661
174	0xbe42a170	-0.19006896
175	0xbde9a613	-0.11408629
176	0xbe7ee03e	-0.24890229
177	0x3df355e3	0.11881616
178	0x3e83fa2e	0.2577681
179	0xbea08c00	-0.31356812
180	0xbc12e2c0	-0.008965194
181	0x3e303453	0.1720746
182	0x3ba77ac3	0.00511107
183	0xbe4321cd	-0.19055863
184	0x3e7e5cd1	0.24840094
185	0x3ec7e36f	0.39040706
186	0x3dba4468	0.09095079
187	0xbe48fcc0	-0.19627666
188	0xbe114787	-0.14187442
189	0xbeb26b1a	-0.34847337
190	0xbd7110ee	-0.058854036
191	0xbe608803	-0.21926884
192	0xbd9464fa	-0.07245822
193	0x3ef0e28c	0.47047842
194	0x3cac06c4	0.02099932
195	0xbd6500fa	-0.055909134
196	0xbe380172	-0.17969301
197	0xbdcb1240	-0.0991559
198	0x3c3d81e3	0.011566612
199	0x3dbf2e38	0.093349874
200	0xbeb099c2	-0.34492308
201	0xbe311f0b	-0.17296998
202	0x3ea2573b	0.31707177
203	0x3cbd6b3f	0.023122428
204	0xbdbca585	-0.09211258
205	0xbe4daa8e	-0.20084593
206	0xbe46767a	-0.19381133
207	0xbea667e4	-0.32501137
208	0xbdde65e8	-0.10859281
209	0x3da48930	0.08033979
210	0x3e3d9057	0.18512093
211	0x3de8a871	0.11360253
212	0xbe96bbf3	-0.2944027
213	0xbe74133c	-0.23835462
214	0xbd619d55	-0.055081684
215	0x3e9ff665	0.31242672
216	0xbb32795b	-0.0027232978
217	0xbdb0aa43	-0.08626225
218	0x3d8074f1	0.06272305
219	0xbe2eb1db	-0.17060034
220	0xbe4335a2	-0.19063428
221	0x3e79025e	0.2431731
222	0xbe55d791	-0.20883013
223	0xbd88b9f3	-0.06676092
224	0xbeb6eefb	-0.35729203
225	0x3f08b661	0.5340329
226	0x3e812d68	0.25229955
227	0x3dbf5c13	0.09343734
228	0xbe852922	-0.26007944
229	0xbeedc0df	-0.4643621
230	0xbe0523e8	-0.13001978
231	0x3e82209e	0.2541551
232	0x3f83b64d	1.0290009
233	0x3f363a79	0.7118297
234	0x3f1a1397	0.6018614
235	0x3daca6e8	0.08430272
236	0xbee7a210	-0.4524083
237	0xbf10e8fb	-0.566055
238	0x3d882bf3	0.06649008
239	0xbf406a45	-0.75162154
240	0xbd84c636	-0.06483118
241	0x3e744b70	0.23856902
242	0xbeaa2caf	-0.33237216
243	0xbe445043	-0.19171242
244	0xbd78ab98	-0.06071052
245	0xbe701de0	-0.23448896
246	0xbe5ee82e	-0.21768257
247	0x3de25283	0.11050894
248	0xbdcac2ae	-0.099004135
249	0x3e52981e	0.2056584
250	0xbddae13e	-0.10687493
251	0xbe7a43ee	-0.24439976
252	0xbd70c5b8	-0.05878231
253	0xbe2555b8	-0.1614598
254	0xbdd0bb03	-0.1019192
255	0xbea2592b	-0.31708655

encoder.input_proj.bias f4 [64]
0	0xbeaf961e	-0.34294218
1	0xbde85433	-0.11344185
2	0xbe284740	-0.1643343
3	0xbe3bf4d8	-0.18355119
4	0x3d7fc9c4	0.062448278
5	0xbeaac1c7	-0.33350965
6	0xbd843cf2	-0.06456937
7	0x3e571e83	0.21007733
8	0xbd8892ee	-0.066686496
9	0x3d053bda	0.032527782
10	0xbeb95dc5	-0.36204353
11	0xbb9691d8	-0.0045950226
12	0x3bfe43db	0.007759554
13	0x3da76c98	0.081750095
14	0x3da98e9f	0.08279156
15	0x3e942be2	0.2893973
16	0xbefc3f4a	-0.49267036
17	0xbce3e122	-0.027817313
18	0xbe60e3a0	-0.21961832
19	0xbe86e1f4	-0.26344264
20	0xbdc78697	-0.09742468
21	0xbf149a7e	-0.58048236
22	0x3e3445c6	0.17604741
23	0x3c39f447	0.011349744
24	0xbe6b00f2	-0.2294958
25	0x3e192718	0.1495632
26	0xbf24abb9	-0.6432453
27	0xbe03e6e0	-0.1288104
28	0xbd84dee3	-0.06487825
29	0xbebc2008	-0.36743188
30	0xbeefecd9	-0.46860388
31	0xbd5eb8e3	-0.05437554
32	0x3cfe312e	0.03102931
33	0x3e4d49f0	0.20047736
34	0x3e518bd0	0.2046349
35	0xbed3cf7f	-0.41369244
36	0xbe5f2e90	-0.21795106
37	0x3e94d064	0.2906524
38	0x3df15873	0.117844485
39	0xbd437fed	-0.04772942
40	0xbc334e70	-0.010943994
41	0xbe99ac2f	-0.30014178
42	0xbe459049	-0.19293322
43	0x3eb04dbe	0.34434313
44	0xbda83df3	-0.08214941
45	0xbc88db18	-0.016706035
46	0xbf1f277c	-0.62169623
47	0xbeea9c6e	-0.4582247
48	0xbc3dbb3e	-0.011580287
49	0xbf2c10b7	-0.67213005
50	0xbd293058	-0.04130587
51	0x3d9812eb	0.07425483
52	0xbf275ff3	-0.6538078
53	0x3d85d21e	0.06534217
54	0xbe684543	-0.22682671
55	0xbe57aeaf	-0.2106273
56	0xbcc2e1e4	-0.023789354
57	0x3e62634a	0.22108188
58	0xbdeff3e0	-0.11716437
59	0xbe60b3c6	-0.21943578
60	0xbe95dc12	-0.29269463
61	0xbe2fe2b3	-0.17176323
62	0xbedaa12d	-0.42701092
63	0xbd9c1dde	-0.07622884

encoder.convs.0.nn.0.weight f4 [64, 64]
0	0x3decd00a	0.11563118
1	0xbc81f616	-0.015864413
2	0x3d87c248	0.06628853
3	0x3dae1c08	0.0850144
4	0x3da5af15	0.08090035
5	0x3d943b30	0.072378516
6	0x3e181a53	0.14853792
7	0x3d84bb2a	0.06481011
8	0x3e8c0143	0.27344713
9	0x3d141265	0.036150355
10	0xbdf909d2	-0.12160076
11	0x3dadca34	0.08485833
12	0xbce17872	-0.027523253
13	0xbdacbc74	-0.08434382
14	0x3dd0ab2d	0.10188899
15	0xbdcf36cc	-0.101178735
16	0x3ea0146b	0.31265578
17	0xbde0561e	-0.109539255
18	0xbd09aa0b	-0.03360943
19	0xbdf00d24	-0.117212564
20	0x3d39425d	0.045229305
21	0xbd12d423	-0.03584684
22	0x3e223da5	0.15843828
23	0x3da737c1	0.08164931
24	0xbd2f1dc7	-0.042753007
25	0x3e8ccbe0	0.27499294
26	0x3f1dfc65	0.6171325
27	0xbdc5cbb0	-0.09657991
28	0xbdaaa726	-0.08332662
29	0x3d5d968e	0.05409866
30	0x3dacffdf	0.08447241
31	0xbcb9e678	-0.022692904
32	0x3e6674cb	0.2250549
33	0x3e7a6339	0.24451913
34	0xbdcfaa93	-0.10139956
35	0x3cce3cb0	0.025175422
36	0x3dcd50a0	0.100251436
37	0xbc1cf088	-0.0095788315
38	0xbd577608	-0.052602798
39	0x3dbf57fd	0.09342954
40	0xbd97ee6a	-0.07418521
41	0x3d97d1b1	0.07413042
42	0x3e884607	0.26615927
43	0x3ac53055	0.0015044311
44	0x3d8ccc08	0.068748534
45	0x3d33a0bc	0.04385446
46	0x3c82817e	0.015930887
47	0x3dd6d13a	0.104891255
48	0xbe028b16	-0.1274837
49	0x3cb9d439	0.022684203
50	0xbdc24de8	-0.09487516
51	0xbdb7e16c	-0.08978543
52	0xbbde0d15	-0.006776462
53	0xbd322b01	-0.043498043
54	0x3e3b75a7	0.183066
55	0x3dc2b4ba	0.09507127
56	0x3d8e130f	0.06937229
57	0x3e6ef821	0.23336841
58	0xbdc2589a	-0.09489556
59	0x3e37877b	0.17922775
60	0x3d421b89	0.04738954
61	0x3dcf9ec0	0.10137701
62	0x3e2df705	0.16988762
63	0x3cba06d8	0.022708341
64	0xbd06987e	-0.03286027
65	0x3eee21b9	0.46510103
66	0xbda67eb6	-0.08129637
67	0x3d85635c	0.06513092
68	0xbd8f0d5d	-0.06984971
69	0xbc21f772	-0.009885656
70	0xbda7718f	-0.081759565
71	0xbdc57e4a	-0.09643228
72	0xbe053431	-0.1300819
73	0x3dc6698c	0.096881
74	0xbce2be83	-0.027678734
75	0xbd00bfd8	-0.031432956
76	0xbdaa13ab	-0.083045326
77	0x3c18e958	0.009332977
78	0xbc85134a	-0.01624455
79	0x3cc75d58	0.024336502
80	0x3db21183	0.08694746
81	0xbda7999b	-0.08183595
82	0x3d8868e6	0.06660633
83	0x3c54bde8	0.01298473
84	0xbd4b0716	-0.049567305
85	0x3b87f791	0.0041493853
86	0x3dd4f3b9	0.10398049
87	0xbd2218f3	-0.039574575
88	0xbc8fd06e	-0.017555442
89	0x3dba6416	0.09101121
90	0xbe92686d	-0.28595296
91	0x3ca6c098	0.020355508
92	0x3ded83f6	0.11597435
93	0xbda1af6c	-0.07894787
94	0x3cc7f941	0.024410846
95	0xbbf276d8	-0.007399421
96	0xbe04f5ff	-0.12984465
97	0xbe1f2c98	-0.15544355
98	0xbd600e6c	-0.054701254
99	0xbe9c8580	-0.30570602
100	0x3d9fb71a	0.07798596
101	0xbcf5a560	-0.029986084
102	0x3db49dae	0.088191375
103	0xbe0204f9	-0.1269721
104	0xbda3bf16	-0.07995431
105	0x3cf6d7bb	0.030132165
106	0xbeeb6bf9	-0.45980814
107	0xbdd0030d	-0.10156832
108	0xbdc560e0	-0.09637618
109	0xbdd89f80	-0.10577297
110	0x3e4218d6	0.18954787
111	0xbe940aac	-0.28914392
112	0xbd944ff7	-0.072418146
113	0x3d0b5138	0.034013003
114	0x3c4355c8	0.011922307
115	0x3db0b488	0.086281836
116	0x3e18634f	0.14881633
117	0x3d84d2d0	0.06485522
118	0xbed17bd1	-0.40914777
119	0xbdc6e0d3	-0.097108506
120	0x3dff29fe	0.12459181
121	0x3bdd75fe	0.0067584505
122	0x3d6b14cc	0.05739288
123	0xbe4b15dd	-0.19832559
124	0xbd1076c3	-0.03526951
125	0xbd901db6	-0.07036917
126	0xbb66cb8c	-0.0035216538
127	0x3d758934	0.0599453
128	0xbe4d9fe9	-0.20080532
129	0xbedb57b0	-0.42840338
130	0x3dacca68	0.084370434
131	0x3e001ee4	0.12511784
132	0x3d36fe78	0.044676274
133	0xbd9cea9b	-0.07661935
134	0xbe322ec4	-0.17400652
135	0xbe3a69f5	-0.18204482
136	0xbe7497d1	-0.23886038
137	0xbdfa8726	-0.12232809
138	0xbc40f2fd	-0.011776683
139	0xbdb5aea6	-0.08871202
140	0xbdb96be0	-0.09053779
141	0xbdcf0638	-0.10108608
142	0xbde7652a	-0.112985924
143	0xbd9d9ebc	-0.07696292
144	0xbec5d3ba	-0.38638097
145	0x3bc2b89a	0.0059424164
146	0x3de6e273	0.112736605
147	0x3dfdc860	0.12391734
148	0xbde8a999	-0.11360473
149	0x3dfb0226	0.12256269
150	0xbccf299b	-0.025288394
151	0x3d49729c	0.049181566
152	0x3d700916	0.058602415
153	0xbdd85da5	-0.10564736
154	0xbe493d1e	-0.1965222
155	0x3dd4fc90	0.10399735
156	0x3bd12158	0.0063821487
157	0x3df68f27	0.12039023
158	0xbe8170bd	-0.25281325
159	0xbcd6ec78	-0.026235804
160	0xbe28458c	-0.1643278
161	0xbe4a48ee	-0.19754383
162	0x3bde1bf1	0.006778233
163	0xbf001c61	-0.500433
164	0xbd90f7ca	-0.07078512
165	0xbc3fdbb8	-0.0117101
166	0x3ccdcf50	0.025123268
167	0xbe9716ba	-0.29509526
168	0xbcf60b07	-0.030034555
169	0x3d7f4501	0.062321667
170	0xbec59702	-0.38591772
171	0xbe91eabe	-0.28499407
172	0x3cae0378	0.021241888
173	0xbd860dc4	-0.06545594
174	0xbe522486	-0.20521745
175	0xbea8b8c6	-0.3295347
176	0xbc81fbf1	-0.015867205
177	0xbe1a348b	-0.15059106
178	0x3ddd5ef0	0.108091235
179	0x3cbc25c3	0.022967225
180	0xbd62d8b1	-0.055382434
181	0xbdc815b7	-0.09769767
182	0xbe5ae706	-0.21377191
183	0xbdd04368	-0.10169107
184	0xbdc140ec	-0.09436211
185	0x3d9c3277	0.07626813
186	0xbdad57e0	-0.084640265
187	0xbe2a6a8f	-0.16642211
188	0x3d4ba686	0.049719356
189	0xbdbede4c	-0.093197435
190	0x3e2cdee5	0.16881903
191	0xbd9811ee	-0.07425295
192	0x3dc46cb5	0.09591047
193	0x3ad28eb2	0.0016064255
194	0x3d38ec30	0.04514712
195	0x3e434a2d	0.19071265
196	0x3de96387	0.113959365
197	0x3dd9d2ba	0.10635896
198	0xbdf19d21	-0.11797548
199	0x3e1a3146	0.15057859
200	0x3ee6eddd	0.4510335
201	0x3dafcbff	0.08583831
202	0x3d7d5651	0.061849896
203	0x3d6bdf3c	0.05758594
204	0xbe570151	-0.20996596
205	0x3dc77160	0.097384214
206	0xbe08f672	-0.13375261
207	0x3d806594	0.062693745
208	0xbdb0340b	-0.086036764
209	0x3dab2a08	0.08357626
210	0xbd1d6d18	-0.038434118
211	0xbdc719b2	-0.09721698
212	0xbd2d2913	-0.0422755
213	0xbb9b14c1	-0.0047326987
214	0x3c2b5cbd	0.010459122
215	0x3da20d60	0.07912707
216	0x3db50411	0.08838666
217	0x3e8b3bf3	0.27194175
218	0x3f0f0e22	0.5588094
219	0x3ceb93a0	0.028756917
220	0xbd91890c	-0.07106218
221	0x3e2f9c7e	0.17149541
222	0x3d8d50f1	0.06900204
223	0x3dc4bac4	0.09605935
224	0x3ddc59bf	0.10759305
225	0x3eddf625	0.43351856
226	0x3dd56fb6	0.10421698
227	0x3ee870b7	0.45398495
228	0xbc8c4d50	-0.01712671
229	0x3dc4dc6c	0.09612355
230	0xbda5c8ee	-0.08094965
231	0x3eace33a	0.3376711
232	0x3dd6ba9d	0.104848124
233	0x3d5481b6	0.051881514
234	0x3edf0dc5	0.43565193
235	0x3d3ea5ad	0.04654472
236	0x3d86ae4c	0.06576213
237	0x3d7a4ec4	0.061110273
238	0xbd127f5f	-0.035766
239	0x3f304d0b	0.6886756
240	0x3e1e67eb	0.15469329
241	0x3ea09a89	0.313679
242	0x3c40e8c8	0.011774249
243	0x3d86c51b	0.06580564
244	0x3e8926b3	0.26787338
245	0xbe0229f9	-0.12711324
246	0x3e847aaa	0.25874835
247	0x3d2732dd	0.04081999
248	0x3d3bf94b	0.04589204
249	0x3e72a92b	0.23697345
250	0x3d6cf5eb	0.057851713
251	0xbbebbd1f	-0.007194176
252	0x3d848261	0.0647018
253	0x3d18c40c	0.03729634
254	0xbdc70bd7	-0.09719055
255	0xbcff3148	-0.031151429

encoder.convs.0.nn.0.bias f4 [64]
0	0x3c09ba3e	0.00840622
1	0xbdf747b2	-0.12074222
2	0xbc88321c	-0.016625457
3	0x3d737891	0.059441153
4	0x3dedd056	0.116120026
5	0x3c3b8f77	0.011447779
6	0x3da07d33	0.0783638
7	0x3c9c0b4b	0.019048354
8	0xbdc1b464	-0.09458235
9	0xbc256543	-0.010094943
10	0xbd1fe929	-0.03904072
11	0xbc90089d	-0.017582232
12	0xbd3af95e	-0.04564797
13	0x3dbdd86e	0.09269796
14	0xbdd59d42	-0.10430385
15	0xbd9cfdf3	-0.076656245
16	0xbd1b399e	-0.037896745
17	0x3dddc6ea	0.108289555
18	0xbcce2be0	-0.025167406
19	0x3d551316	0.052020155
20	0x3d7560f2	0.059906907
21	0x3de2f8bc	0.110825986
22	0xbce2e294	-0.027695931
23	0x3cab21d6	0.020890158
24	0xbd8715bb	-0.06595942
25	0xbc2e2b35	-0.010630419
26	0xbde36524	-0.111032754
27	0xbdcb5a05	-0.09929279
28	0x3d0cd790	0.034385264
29	0xbdc2971e	-0.095014796
30	0x3d82598f	0.06364738
31	0x3dcb1762	0.09916569
32	0x3d332e97	0.043745603
33	0x3d3fbd9c	0.046811685
34	0xbde0e335	-0.10980836
35	0xbd6c2654	-0.05765374
36	0xbdc624f8	-0.0967502
37	0xbdf09478	-0.11747068
38	0x3d65e00d	0.056121875
39	0x3d040944	0.0322354
40	0x3df7c78f	0.1209861
41	0xbd035c93	-0.032070708
42	0xbda5ad13	-0.08089652
43	0xbdd875fc	-0.10569379
44	0x3c2858a0	0.010275036
45	0xbd877858	-0.066147506
46	0x3cabcbe8	0.020971254
47	0x3da85445	0.08219198
48	0x3dce6994	0.10078731
49	0xbc969a2e	-0.018384065
50	0xbdab2ec9	-0.08358533
51	0xbd93069e	-0.071789965
52	0x3d9c8013	0.07641616
53	0x3cfa3ac4	0.0305456
54	0x3c00b6d9	0.007856094
55	0xbdf84e92	-0.12124361
56	0x3d922313	0.07135596
57	0x3d9bcd04	0.07607463
58	0x3c7408d0	0.014894679
59	0xbc98d8e2	-0.018658105
60	0xbd65d7a7	-0.056113865
61	0x3b6b02db	0.0035859856
62	0x3b03ee97	0.0020131224
63	0x3d1f8fc8	0.03895548

encoder.convs.0.nn.1.weight f4 [64]
0	0x3eaee196	0.34156483
1	0x3f68b524	0.909014
2	0x3f9d51e1	1.2290612
3	0x3f9b7c99	1.2147399
4	0x3f6da092	0.92823136
5	0x3fa3bb85	1.2791601
6	0x3f80a395	1.0049921
7	0x3f3d9260	0.74051476
8	0x3f7db7ed	0.99108773
9	0x3f96ca19	1.1780425
10	0x3f558abd	0.8341482
11	0x3f547b84	0.8300097
12	0x3f62f387	0.88652843
13	0x3fb5b065	1.4194456
14	0x3fa7eb07	1.31186
15	0x3f902ee5	1.1264311
16	0x3fbd9ba3	1.4813122
17	0x3f415bd1	0.75530726
18	0x3f67eb51	0.9059344
19	0x3f946626	1.1593673
20	0x3f53a62a	0.8267542
21	0x3f601187	0.87526745
22	0x3f327ec9	0.6972471
23	0x3f61b9d3	0.8817417
24	0x3f923777	1.1423177
25	0x3fad26f8	1.3527517
26	0x3f6c1cfa	0.92231715
27	0x3f9a7503	1.2066959
28	0x3f0657e2	0.5247785
29	0x3f8e582c	1.1120658
30	0x3fae8664	1.3634763
31	0x3f554c7b	0.83319825
32	0x3f8c0643	1.0939411
33	0x3f743b72	0.95403206
34	0x3f72ccc5	0.94843704
35	0x3f938eb8	1.1527929
36	0x3f87bb2d	1.0603997
37	0x3f587c39	0.8456455
38	0x3ee4f00a	0.44714385
39	0x3fa937a6	1.3220108
40	0x3f333e15	0.70016605
41	0x3f8062e8	1.0030184
42	0x3eef6979	0.46760157
43	0x3f646d5b	0.89229363
44	0x3fb3e2d0	1.4053593
45	0x3f7dd71a	0.99156344
46	0x3fb37354	1.401957
47	0x3f1afc4f	0.6054124
48	0x3f937655	1.1520487
49	0x3f92e278	1.1475363
50	0x3fbcc681	1.4748079
51	0x3f551f0c	0.832505
52	0x3f8874dc	1.0660663
53	0x3f952e19	1.1654693
54	0x3f732e0c	0.94992137
55	0x3fa25042	1.2680743
56	0x3f62c924	0.88588166
57	0x3f91fb02	1.1404727
58	0x3f23b045	0.6394084
59	0x3fb605df	1.4220542
60	0x3f64ad6e	0.8932713
61	0x3f4bc590	0.7959833
62	0x3f9ee8d1	1.24148
63	0x3f907567	1.1285828

encoder.convs.0.nn.1.bias f4 [64]
0	0xbf312fde	-0.69213665
1	0xbe80ce70	-0.251575
2	0x3dd9b973	0.10631075
3	0x3e746e58	0.23870218
4	0x3ea9f0b3	0.3319145
5	0xbea5f039	-0.32409838
6	0x3ee38fad	0.44445553
7	0xbe339617	-0.17537723
8	0x3e71bf50	0.23608136
9	0xbc9525f5	-0.018206576
10	0xbe864e2b	-0.26231512
11	0x3eeb3b55	0.45943704
12	0x3e825393	0.25454387
13	0xbd10bb24	-0.03533472
14	0x3eca4df9	0.39512613
15	0xbe2cc521	-0.16872074
16	0x3e1ab645	0.15108593
17	0xbe518733	-0.2046173
18	0x3ec44243	0.38331804
19	0xbf026fb5	-0.509517
20	0xbdde21d3	-0.10846295
21	0xbcccc00c	-0.024993919
22	0xbf25c404	-0.6475222
23	0x3eb36b86	0.3504297
24	0x3e830405	0.25589004
25	0x3e4f2e61	0.20232536
26	0xbbc1fbf7	-0.005919929
27	0x3f1d180f	0.61364836
28	0x3eea9b27	0.45821497
29	0xbea16925	-0.3152553
30	0x3e58ec4b	0.21183889
31	0x3db45c96	0.08806722
32	0x3e920e3b	0.28526482
33	0x3e8ed616	0.2789771
34	0x3f42788f	0.7596521
35	0x3ef02b58	0.4690807
36	0xbe5ec89e	-0.21756217
37	0xbe08390d	-0.13303013
38	0xbd86392c	-0.065538734
39	0x3ec16505	0.37772384
40	0xbe874dce	-0.26426548
41	0xbe541da0	-0.20714426
42	0xbeb77701	-0.3583298
43	0xbc2cbc25	-0.010542904
44	0x3e1ed2a6	0.15510044
45	0xbee88d9b	-0.45420536
46	0x3ec48108	0.38379693
47	0xbebf49e7	-0.3736107
48	0x3e9cdf2a	0.3063901
49	0x3e1138c5	0.14181812
50	0x3ef307fb	0.47467026
51	0x3ed35e9a	0.41283113
52	0x3d1d5df6	0.038419686
53	0xbe5e93ff	-0.21736144
54	0x3df0d420	0.1175921
55	0x3e21309c	0.157412
56	0xbeddd75f	-0.43328378
57	0x3e2e0d88	0.1699735
58	0xbedbab82	-0.42904288
59	0x3e6d41c3	0.23169617
60	0xbecd7b38	-0.4013307
61	0xbec77bf2	-0.3896175
62	0x3ed5d894	0.41766798
63	0x3e05ebfb	0.130783

encoder.convs.0.nn.1.running_mean f4 [64]
0	0x411e5a78	9.897087
1	0xc12cefbc	-10.808529
2	0xc16171ff	-14.090331
3	0x41930986	18.37965
4	0xc087cfb9	-4.244107
5	0x4080da1c	4.0266247
6	0xc1329a7c	-11.162716
7	0xc1279072	-10.472765
8	0x4140d154	12.0511055
9	0xc0ae880a	-5.4541063
10	0xc0cc9592	-6.393258
11	0xc16ed86c	-14.927837
12	0xc10033cf	-8.012649
13	0x4102398f	8.139052
14	0xc05cfa7d	-3.4527886
15	0x4090a61d	4.5202775
16	0x4192f37c	18.368889
17	0xc0621592	-3.5325665
18	0xc0ec3135	-7.3810067
19	0xbf9cf707	-1.2262887
20	0x403dfd39	2.9685805
21	0xc00b96ca	-2.1810784
22	0x400699d2	2.1031384
23	0xc12d7235	-10.840383
24	0x413ff036	11.996145
25	0x4158a4af	13.540206
26	0xc11ca116	-9.789328
27	0xc0e55465	-7.166552
28	0xc112bb8d	-9.170789
29	0x3fc72863	1.55592
30	0x4180bc8a	16.09206
31	0xc11c19e5	-9.756322
32	0x415e0832	13.877001
33	0x415caae4	13.791721
34	0xc0cb77cb	-6.358373
35	0xc1207685	-10.028935
36	0xc0b767c0	-5.731415
37	0xc1614868	-14.080177
38	0x412c067d	10.751584
39	0x418004a8	16.002274
40	0x40d479d2	6.6398706
41	0x40c60af2	6.188836
42	0x3f479184	0.77956414
43	0xc07bd1a0	-3.9346695
44	0x3fea40f7	1.8301076
45	0xc17ceb1e	-15.807402
46	0x40d2be77	6.58575
47	0x3f884c05	1.0648199
48	0x414e434e	12.891432
49	0x415272d8	13.153038
50	0xc119fc50	-9.6241
51	0xc0b2c2d0	-5.586281
52	0xc0c1ef17	-6.060436
53	0x40268ea4	2.602456
54	0xc03ac64b	-2.9183528
55	0xc0d7feb6	-6.7498426
56	0x40a3e51c	5.1217175
57	0x410803ac	8.500896
58	0xc12797dd	-10.474576
59	0x404ccb0a	3.1998925
60	0xc1043d24	-8.264927
61	0x4119ba30	9.607956
62	0x4164fd65	14.311864
63	0xc10a606c	-8.6485405

encoder.convs.0.nn.1.running_var f4 [64]
0	0x424e44a0	51.567017
1	0x4253f5c1	52.989994
2	0x42cc9a30	102.30115
3	0x433bbb84	187.73248
4	0x425d3f7f	55.312008
5	0x42915411	72.66419
6	0x429d5c6f	78.680534
7	0x425aa687	54.662624
8	0x43005587	128.33409
9	0x41dc4395	27.532999
10	0x42234a7c	40.82274
11	0x42c78a95	99.77067
12	0x42abde43	85.934105
13	0x42ce58d4	103.17349
14	0x4267b07e	57.922356
15	0x42851ec2	66.560074
16	0x431a89d6	154.53842
17	0x41bbb2a0	23.46222
18	0x426ffb07	59.995144
19	0x421619f3	37.52534
20	0x420055db	32.083843
21	0x4213fc08	36.996124
22	0x422ee61c	43.724716
23	0x42887640	68.23096
24	0x42e83207	116.09771
25	0x42e0faea	112.49007
26	0x425102ad	52.252613
27	0x42ab8479	85.758736
28	0x4293a4fd	73.82224
29	0x4247d2fb	49.956036
30	0x43137ead	147.49483
31	0x4223cc68	40.949615
32	0x42e9e58d	116.94834
33	0x42d8788f	108.235466
34	0x428787fa	67.76558
35	0x42d3041a	105.50801
36	0x4251e388	52.4722
37	0x42cbcccd	101.9
38	0x420efe27	35.748196
39	0x430ce648	140.89954
40	0x422963ee	42.347588
41	0x42acf870	86.48523
42	0x41d4ef3c	26.616814
43	0x41e357c9	28.417864
44	0x426be373	58.97212
45	0x429e2333	79.06875
46	0x42c59204	98.78519
47	0x41f9da4c	31.23159
48	0x42ea2ae1	117.08375
49	0x42bf028a	95.50496
50	0x42a6d265	83.41093
51	0x427a9350	62.64386
52	0x4289f26c	68.97348
53	0x420e6e97	35.607998
54	0x4257be21	53.935673
55	0x4268972b	58.147625
56	0x423d9fbb	47.405987
57	0x4261d29a	56.455666
58	0x4257f37c	53.987778
59	0x427d44c0	63.31714
60	0x422fde87	43.96731
61	0x4247520c	49.830124
62	0x42f5ea5a	122.95772
63	0x42572ed0	53.795715

encoder.convs.0.nn.3.weight f4 [64, 64]
0	0x3af1f800	0.001846075
1	0xbc6435d9	-0.013928854
2	0x3cfb8212	0.03070167
3	0xbcc50664	-0.024050899
4	0xbdee088a	-0.116227224
5	0xbe753396	-0.2394546
6	0x3da1cd92	0.079005376
7	0xbde53784	-0.111922294
8	0xbd9b3384	-0.07578185
9	0x3e47ca3a	0.19510737
10	0xbe12ed38	-0.14348304
11	0x3dd67d20	0.104730844
12	0x3c15b170	0.009136543
13	0xbcfb1d54	-0.030653633
14	0xbd6d3404	-0.057910934
15	0x3ddfece6	0.10933857
16	0x3da91ecf	0.082578294
17	0xbc30dd4d	-0.01079495
18	0xbdd7829c	-0.10522959
19	0xbd176af7	-0.036967244
20	0x3d94a778	0.07258505
21	0x3d77e5c6	0.060521863
22	0xbdbf9df7	-0.09356301
23	0x3d6244e2	0.055241473
24	0xbe305fa9	-0.17223991
25	0xbe002761	-0.12515022
26	0x3c22a3bb	0.009926732
27	0xbe6399bd	-0.22226615
28	0x3da17982	0.07884504
29	0xbd2960a5	-0.041351933
30	0x3d9e1a99	0.07719917
31	0xbdda5ccf	-0.10662233
32	0xbcc636bd	-0.024196023
33	0xbe11f1f2	-0.14252451
34	0xbd34cd83	-0.044141304
35	0xbdb74dd9	-0.08950395
36	0x3ca4a3a1	0.020097556
37	0x3e7efae7	0.24900399
38	0x3c06892a	0.008211413
39	0x3ce999ac	0.02851566
40	0xbdfa0f04	-0.12209895
41	0x3c45b55f	0.012067168
42	0xbe73c5a2	-0.2380586
43	0x3d5f9a81	0.054590706
44	0xbe01154a	-0.12605777
45	0xbda25149	-0.0792566
46	0xbe054b71	-0.1301706
47	0xbe298153	-0.1655324
48	0xbdd061d8	-0.10174912
49	0xbde23d9e	-0.11046909
50	0xbe48003d	-0.19531341
51	0x3e91b021	0.28454688
52	0x3e2b45f9	0.16725911
53	0xbe187cd2	-0.14891365
54	0x3dd7d15b	0.10537978
55	0xbdafa553	-0.08576455
56	0x3c9c6648	0.01909174
57	0x3e177847	0.14791976
58	0xbd87e8c3	-0.06636193
59	0xbd1e16e6	-0.038596056
60	0xbcfc66fb	-0.030810824
61	0xbe4daa18	-0.20084417
62	0xbdb79f44	-0.089659244
63	0x3d0e9680	0.034811497
64	0xbe11a039	-0.14221276
65	0x3e219367	0.15778886
66	0xbcd187ff	-0.025577543
67	0x3d70bbff	0.058773037
68	0xbc2d02de	-0.010559766
69	0x3f0b85f8	0.54501295
70	0x3e02182c	0.12704533
71	0x3ea01074	0.31262553
72	0x3d528a2a	0.051401295
73	0x3ea4057b	0.3203543
74	0x3db0c4a2	0.08631255
75	0x3e6aa82a	0.22915712
76	0x3e8900a3	0.26758298
77	0x3f3a5685	0.7278827
78	0x3db85040	0.089996815
79	0x3e77b693	0.2419074
80	0x3de9e2e9	0.11420233
81	0x3e0a82b0	0.13526416
82	0x3dda23f4	0.10651389
83	0x3eed3031	0.4632583
84	0x3d9c7713	0.07639899
85	0xbc8ec36c	-0.017427169
86	0x3ec12c81	0.37729266
87	0xbe5e5ee6	-0.21715888
88	0x3eaf1a4f	0.3419976
89	0x3edc9ee8	0.43089986
90	0x3e558a99	0.20853652
91	0xbd0c4756	-0.03424772
92	0x3eb8dee2	0.36107546
93	0x3eb3765f	0.35051247
94	0x3d6a5444	0.05720927
95	0xbe880bf6	-0.26571625
96	0x3e1fd7e4	0.156097
97	0xbc212c01	-0.0098371515
98	0x3ed24bfd	0.410736
99	0x3e49ad43	0.19695
100	0x3e134b15	0.1438411
101	0x3da3eeb6	0.08004515
102	0x3d0b0875	0.033943612
103	0x3e46a4be	0.19398782
104	0x3e3d4532	0.18483427
105	0x3dc5ef47	0.09664779
106	0x3d91358d	0.07090292
107	0x3e4af2ed	0.19819231
108	0x3c9c279f	0.019061862
109	0x3e2582a0	0.1616311
110	0x3ebba368	0.36648107
111	0x3df20872	0.11818017
112	0x3c5fecb8	0.013667278
113	0x3d89c2e9	0.06726629
114	0x3e002518	0.1251415
115	0x3dfb0fac	0.122588485
116	0x3e103dfa	0.14086142
117	0xbd62ebe1	-0.055400733
118	0x3d433e7c	0.04766701
119	0xbd424f76	-0.04743906
120	0x3e3dd022	0.18536428
121	0xbd47122f	-0.048601326
122	0x3e5b04a7	0.21388493
123	0x3e807530	0.25089407
124	0x3e92ee03	0.28697214
125	0xbc3128fe	-0.010812996
126	0x3e2493bc	0.16071981
127	0x3cda17b8	0.026622638
128	0xbb9cddee	-0.0047871983
129	0x3bfffb6b	0.007811954
130	0x3e7463de	0.23866221
131	0xbe4e2412	-0.20130947
132	0x3ddcbd22	0.10778262
133	0xbde171d9	-0.11008043
134	0x3e2b3dc3	0.16722779
135	0x3e770ff8	0.24127185
136	0xbe0b44f4	-0.13600522
137	0xbdf562e9	-0.11981756
138	0xbe1bad3c	-0.15202802
139	0x3e85dff4	0.26147425
140	0x3e67e33d	0.22645278
141	0xbe1160fd	-0.14197154
142	0xba8b15c0	-0.001061134
143	0xbb5a4fcd	-0.0033311725
144	0xbe172f09	-0.14764036
145	0xbd67f230	-0.056627452
146	0x3d8fb577	0.070170335
147	0xbdfa53f1	-0.12223042
148	0x3e0aa8d8	0.13540971
149	0x3e6e306d	0.2326066
150	0x3c645f06	0.013938671
151	0x3e4753ad	0.19465514
152	0xbc00b007	-0.007854468
153	0xbe9ed2ba	-0.31020147
154	0x3e237264	0.15961605
155	0x3d681d21	0.056668404
156	0x3e2988df	0.16556118
157	0xbe0f6962	-0.14005044
158	0xbe2c2210	-0.16809869
159	0x3dc40708	0.095716536
160	0xbc956375	-0.018235901
161	0xbe0ee958	-0.13956201
162	0xbd3a58f2	-0.04549498
163	0x3c980939	0.018559085
164	0x3e0f4533	0.13991241
165	0x3e3084de	0.17238185
166	0xbe084ecc	-0.13311309
167	0xbd92c235	-0.07165948
168	0x3c80065e	0.015628036
169	0xbcb94458	-0.022615597
170	0xbe6cc7e5	-0.23123129
171	0xbd201f20	-0.039092183
172	0xbdc7a117	-0.09747522
173	0x3ca7ee6a	0.020499427
174	0x3c6ea11c	0.014564779
175	0xbd465956	-0.04842504
176	0x3da4ed52	0.08053078
177	0xbd0b3168	-0.033982664
178	0x3e8cbc1a	0.2748726
179	0xbcc2abac	-0.0237635
180	0x3d49da93	0.049280714
181	0x3dee4ddb	0.116359435
182	0xbda0aae3	-0.07845094
183	0xbd5b1df2	-0.053495355
184	0xbdd50202	-0.104007736
185	0x3e0108c2	0.12600997
186	0x3db4c651	0.08826888
187	0x3e0539af	0.13010286
188	0xbd815608	-0.06315237
189	0x3de772fa	0.11301227
190	0x3dfad00b	0.12246712
191	0xbd9d930c	-0.076940626
192	0x3bce5df1	0.00629782
193	0xbe954236	-0.29152077
194	0xbe709ff0	-0.23498511
195	0x3e2665aa	0.1624972
196	0xbe4b9454	-0.19880801
197	0x3d8f4f48	0.069975436
198	0x3d304af6	0.04304024
199	0xbe0a6009	-0.13513197
200	0x3e54ff1c	0.20800442
201	0x3e76630a	0.24061218
202	0xbeaec517	-0.34134743
203	0x3e06dfef	0.13171361
204	0x3d322a9e	0.043497674
205	0x3d46868d	0.04846816
206	0xbd38bd92	-0.045102663
207	0x3e84dacc	0.2594818
208	0x3e91790f	0.28412673
209	0xbe1e4ad3	-0.1545823
210	0x3ccffca6	0.025389027
211	0xbd021a2d	-0.031763244
212	0x3e77114f	0.24127696
213	0xbd87edc0	-0.06637144
214	0x3dae2e47	0.085049205
215	0xbdbe2d91	-0.09286035
216	0x3e9b2ecc	0.3030914
217	0xbe300389	-0.17188849
218	0xbdfba2d2	-0.12286915
219	0xbe0137a6	-0.12618884
220	0x3d398a3f	0.045297857
221	0xbd04da6c	-0.032434866
222	0x3e2b5b8b	0.1673414
223	0xbd24acba	-0.040203787
224	0x3d93917e	0.07205485
225	0x3e18f698	0.14937818
226	0xbe0318dc	-0.12802452
227	0x3dde29f6	0.10847847
228	0xbcd0011c	-0.025391154
229	0xbcc4342e	-0.023950662
230	0x3da31a6c	0.07964024
231	0x3e6aedbf	0.22942255
232	0xbd8bfd1c	-0.06835386
233	0x3eb77c2c	0.35836923
234	0x3cbedd51	0.023298891
235	0xbba97767	-0.0051717046
236	0xbdd9ae39	-0.106289335
237	0xbec64a95	-0.38728777
238	0x3e3f20bf	0.18664835
239	0x3d91acda	0.07113047
240	0x3e7bd260	0.2459197
241	0x3e6527d1	0.2237847
242	0x3d5aecfe	0.05344867
243	0x3b435426	0.0029804795
244	0x3dba91c0	0.09109831
245	0x3e4c033e	0.19923112
246	0xbdb55a3f	-0.08855104
247	0xbdaa7761	-0.08323551
248	0x3e52962e	0.20565102
249	0xbd409314	-0.047015265
250	0xbe100ebd	-0.14068122
251	0x3e199fe0	0.15002394
252	0x3d9863b0	0.07440889
253	0xbe17f69f	-0.14840172
254	0x3ccf38f7	0.025295718
255	0xbe211f03	-0.15734486

encoder.convs.0.nn.3.bias f4 [64]
0	0x3ded48bb	0.11586138
1	0x3d1bbac6	0.038019918
2	0x3cbeb7ba	0.023280967
3	0x3d1a8a9b	0.03772984
4	0xbddd545b	-0.10807105
5	0xbd2ce4f2	-0.042210527
6	0xbda80c5e	-0.08205484
7	0xbc7ebf2a	-0.015548507
8	0xbd876e84	-0.06612876
9	0xbd16fff0	-0.036865175
10	0xbd97181a	-0.07377644
11	0xbdaee9c5	-0.08540682
12	0x3d2b7b10	0.04186541
13	0x3dff36de	0.12461637
14	0xbd4740d4	-0.04864581
15	0xbda8f096	-0.08249013
16	0xbd4594cf	-0.048237618
17	0xbd50d391	-0.050983015
18	0xbdefc9e7	-0.11708432
19	0x3df0a63e	0.11750458
20	0x3db22af1	0.08699597
21	0x3dc7cfd8	0.0975644
22	0xbd980dc1	-0.07424498
23	0xbdc1dc62	-0.09465863
24	0x3df38e0b	0.11892327
25	0xbd9f021f	-0.077640764
26	0xbddfd46f	-0.1092919
27	0xbde777af	-0.11302125
28	0x3d0cab8b	0.034343284
29	0xbcb5a5d5	-0.022173801
30	0xbd9dd249	-0.07706124
31	0x3dd68d64	0.10476187
32	0xbd83d034	-0.06436196
33	0x3c4ad69a	0.012380267
34	0x3d6b74e2	0.057484515
35	0x3d85e794	0.06538311
36	0x3dcd36ef	0.100202434
37	0xbc004ec4	-0.007831279
38	0x3d9bc9e6	0.076068684
39	0xbcaf67ab	-0.021411737
40	0x3c940867	0.018070413
41	0xbda61dd7	-0.0811116
42	0x3da91f3e	0.08257912
43	0x3cc74fee	0.024330106
44	0x3ca073ba	0.019586433
45	0xbc1e01e9	-0.00964401
46	0x3d42dcbe	0.047573797
47	0xbdf57ac1	-0.11986304
48	0x3dcc3b2e	0.09972225
49	0x3dae4bf5	0.085105814
50	0x3d8d1a58	0.0688979
51	0xbc2551bc	-0.010090288
52	0xbde8563a	-0.113445714
53	0xbd11da3a	-0.035608508
54	0xbdbc86cd	-0.09205399
55	0xbd80475f	-0.06263613
56	0x3dd4cf0d	0.10391054
57	0xbc20d318	-0.009815954
58	0x3e0a4a39	0.13504876
59	0xbd89f384	-0.067359
60	0xbd73ebb6	-0.059550963
61	0xbdcdf10b	-0.10055741
62	0x3d437254	0.047716454
63	0x3d445459	0.047932003

encoder.convs.0.nn.4.weight f4 [64]
0	0x3e1b29e7	0.15152703
1	0x3f735751	0.9505511
2	0x3de873ac	0.11350188
3	0x3f9985c5	1.1993948
4	0x3e8896cf	0.26677558
5	0x3faef12e	1.3667352
6	0x3f772ed0	0.96555805
7	0x3fc0bc15	1.5057398
8	0x3ef652c0	0.48110008
9	0x3fa5ca67	1.2952393
10	0x3f47fb7f	0.7811813
11	0x3e82ac9e	0.2552232
12	0x3f9ebb50	1.2400913
13	0x3f33bd77	0.70210975
14	0x3f8647cc	1.0490661
15	0x3f39a11f	0.72511476
16	0x3f922ac1	1.1419297
17	0x3f50db34	0.8158448
18	0x3fcce475	1.600722
19	0x3f97b875	1.1853167
20	0x3fa7fc80	1.3123932
21	0x3fcea2e3	1.6143459
22	0x3fbea92c	1.4895377
23	0x3f33624d	0.7007187
24	0x3fae8f2d	1.3637444
25	0x3f8ab709	1.0837108
26	0x3f82e323	1.0225567
27	0x3fb2506d	1.3930794
28	0x3f56fe23	0.8398153
29	0x3f6ac703	0.9170992
30	0x3f0a606b	0.5405337
31	0x3f28278d	0.6568535
32	0x3f7dfda8	0.99215174
33	0x3fa4aa1a	1.2864411
34	0x3fbcdce8	1.4754915
35	0x3f8d3e29	1.1034595
36	0x3f97ae2c	1.1850028
37	0x3f298a42	0.6622659
38	0x3f4229c2	0.7584497
39	0x3f8dd1c9	1.1079646
40	0x3f9d7794	1.2302117
41	0x3f878047	1.0586022
42	0x3f667830	0.9002714
43	0x3fa54c74	1.2913957
44	0x3fa2e012	1.2724631
45	0x3f9bafb9	1.2163001
46	0x3f9ad903	1.2097477
47	0x3f605e1c	0.876436
48	0x3f0cf5c4	0.5506251
49	0x3fa00adc	1.2503314
50	0x3f28c892	0.65931046
51	0x3f56d2c1	0.83915335
52	0x3eec8b90	0.46200228
53	0x3fab788b	1.3396162
54	0x3f9d9a5c	1.2312732
55	0x3f90780c	1.1286635
56	0x3f24f569	0.64436966
57	0x3fcff2df	1.6245993
58	0x3f6901b4	0.91018224
59	0x3ef988e2	0.48737246
60	0x3fd1d967	1.6394471
61	0x3fa61f9a	1.2978394
62	0x3f766e3b	0.9626195
63	0x3f88e1ea	1.0693944

encoder.convs.0.nn.4.bias f4 [64]
0	0xbf2647e0	-0.6495342
1	0xbef7aa92	-0.48372322
2	0xbf1f6a70	-0.62271786
3	0xbe54dc57	-0.20787178
4	0x3f0846f4	0.53233266
5	0x3d49e27c	0.049288258
6	0x3ec60c57	0.3868129
7	0xbd5937e9	-0.053031836
8	0xbf1652b5	-0.5871995
9	0xbe851cfc	-0.25998676
10	0x3ea0e4be	0.31424516
11	0x3f0d22a7	0.55131
12	0xbdc5766e	-0.09641729
13	0xbf1b144d	-0.6057785
14	0x3ee648e0	0.44977474
15	0x3ed911e4	0.42396462
16	0x39f8c379	0.00047447885
17	0x3eaf9c89	0.34299114
18	0xbc6110fa	-0.013736958
19	0x3e6877cd	0.2270195
20	0xbe63f861	-0.22262718
21	0x3e8ba23b	0.2727221
22	0x3e237731	0.15963437
23	0x3ee28f9f	0.442502
24	0xbe19394f	-0.14963268
25	0x3d7cde68	0.06173554
26	0xbeb5c909	-0.3550494
27	0xbe0638e8	-0.13107646
28	0x3f0d4fb0	0.5519972
29	0xbe984bef	-0.29745433
30	0x3eb0a2c5	0.34499183
31	0xbee1cbe5	-0.44100872
32	0xbe884093	-0.26611766
33	0x3e83c6b6	0.25737542
34	0xbe332bef	-0.17497228
35	0x3e3d5c04	0.18492132
36	0xbc84e87b	-0.016224137
37	0x3f002617	0.5005812
38	0xbe5bd44d	-0.21467705
39	0x3e1340d4	0.14380199
40	0x3ec109bf	0.37702748
41	0xbecd3428	-0.40078855
42	0xbe90310a	-0.28162414
43	0xbe38bcb5	-0.18040736
44	0x3e1a2f3f	0.15057085
45	0x3d978533	0.073984526
46	0xbdb6bf52	-0.0892321
47	0x3eec344d	0.46133652
48	0x3ef7d775	0.48406568
49	0x3e8635be	0.26212877
50	0x3edaa15d	0.42701235
51	0x3ec7a616	0.389939
52	0xbedd4be3	-0.4322196
53	0xbd8d56c9	-0.069013186
54	0xbca0176a	-0.019542415
55	0xbd2aa54a	-0.04166154
56	0x3eec9c19	0.46212843
57	0xbd5e075e	-0.054206245
58	0xbdd3ea60	-0.10347438
59	0x3f1cba02	0.61221325
60	0x3ddd434f	0.10803854
61	0xbdc86057	-0.09784
62	0x3e982115	0.2971274
63	0x3e8e976c	0.278499

encoder.convs.0.nn.4.running_mean f4 [64]
0	0xbf0ff7a9	-0.56237274
1	0x406f59ab	3.739848
2	0x3f110046	0.5664104
3	0x3f690d9e	0.91036403
4	0xbd64cbf3	-0.055858564
5	0x3eaa8ae1	0.3330908
6	0xbf9000dc	-1.1250262
7	0x3dfa18dc	0.12211773
8	0x402c2b59	2.6901457
9	0x3e4f241d	0.2022862
10	0xbe1eaa83	-0.15494733
11	0x3f08129a	0.53153384
12	0x3ffb9a42	1.9656451
13	0x403d280b	2.955569
14	0xbf62c7e9	-0.8858629
15	0xbcd2aa7d	-0.02571606
16	0xc0696697	-3.6468866
17	0xbfe8854d	-1.816568
18	0x3fbd3740	1.4782486
19	0xbf12b250	-0.57303333
20	0x3faea5cf	1.3644351
21	0xbf8e977d	-1.113998
22	0xc05852c3	-3.3800514
23	0xbe3971c9	-0.18109812
24	0x3ff1f3d0	1.8902531
25	0x3fcdd425	1.6080366
26	0x4024f7f1	2.5776331
27	0x400a4cff	2.1609495
28	0xc043209d	-3.0488656
29	0x3fb41038	1.406745
30	0x3f2e92e1	0.6819287
31	0x4061d761	3.5287707
32	0x3f8d599e	1.1042974
33	0xbebdb78e	-0.37054104
34	0xc00860d9	-2.130911
35	0xbd184b8f	-0.037181433
36	0xbf9bfe72	-1.2187026
37	0xbdcebebd	-0.10094974
38	0x3f9629bc	1.1731486
39	0x3f1f2c6b	0.6217715
40	0xbeab4311	-0.33449605
41	0xc006b875	-2.1050084
42	0x3f4ffa1c	0.8124101
43	0x3fa3e6a7	1.2804765
44	0x3f75d0f5	0.9602197
45	0x3f8d87eb	1.1057104
46	0x40021690	2.032627
47	0x3f3993ad	0.7249096
48	0x3e9a81c1	0.3017712
49	0xbff0b423	-1.8804973
50	0x3f636daf	0.8883924
51	0xbd743a7b	-0.059626084
52	0x3fddecab	1.733785
53	0x3e7db91c	0.24777645
54	0x3f969cd1	1.1766607
55	0x3fc5ff8e	1.5468614
56	0xc0336a1a	-2.803351
57	0x4003c92a	2.059153
58	0x3f7afe54	0.98044324
59	0xbf1cc60a	-0.61239684
60	0xbfe0cfa1	-1.7563363
61	0xbfa67cf9	-1.3006889
62	0xbfd0c0a5	-1.630879
63	0x3e9a7a80	0.30171585

encoder.convs.0.nn.4.running_var f4 [64]
0	0x3fd1a751	1.6379186
1	0x41a8de9c	21.108696
2	0x405ed6b6	3.481855
3	0x413e8d36	11.909475
4	0x409b039c	4.8441906
5	0x416d90fa	14.847895
6	0x41d2ffbd	26.374872
7	0x4125e5ef	10.368636
8	0x419dc440	19.720825
9	0x41e22d0e	28.272
10	0x41c62b1c	24.77105
11	0x4219caf7	38.448208
12	0x410da530	8.852829
13	0x41439e11	12.22609
14	0x422e99d7	43.650234
15	0x41a11645	20.135874
16	0x412d8c5e	10.846769
17	0x426333b6	56.8005
18	0x414da392	12.852434
19	0x4166f20c	14.434093
20	0x41741041	15.253968
21	0x4260d228	56.20523
22	0x42724ae3	60.57313
23	0x41992b57	19.146162
24	0x4113c668	9.235939
25	0x4119314c	9.574535
26	0x40bb02d6	5.844096
27	0x4196057e	18.752682
28	0x41a8822f	21.063566
29	0x41b2d8cc	22.355858
30	0x41652eda	14.323938
31	0x4154ee13	13.308124
32	0x40bc7f23	5.8905196
33	0x41f6b92b	30.840414
34	0x40d70c13	6.720224
35	0x4112ec7f	9.182738
36	0x40d8cc8e	6.77497
37	0x41e09642	28.073368
38	0x415727bb	13.4472
39	0x4193cf6c	18.47628
40	0x41d2c404	26.34571
41	0x420ac030	34.687683
42	0x40486dee	3.1317096
43	0x41353a67	11.326758
44	0x4132dc2a	11.178751
45	0x40e02bf8	7.0053673
46	0x4147cc2d	12.487348
47	0x4241341e	48.300896
48	0x41d10824	26.128975
49	0x40bfb60c	5.9909725
50	0x41a8e46d	21.111536
51	0x418ef993	17.871862
52	0x419c2fa1	19.523256
53	0x4167912c	14.472942
54	0x41a17165	20.180368
55	0x41c051f3	24.040014
56	0x4135cc22	11.362337
57	0x418c6764	17.550484
58	0x412ec33e	10.922667
59	0x41691e7a	14.569941
60	0x411ed984	9.928104
61	0x41e89b5d	29.075861
62	0x420c558d	35.083546
63	0x420cbfec	35.187424

encoder.convs.1.nn.0.weight f4 [64, 64]
0	0xbe05c3f4	-0.13063031
1	0xbcb5e79f	-0.022205172
2	0x3db2fbf3	0.08739462
3	0xbdd8c8fe	-0.10585211
4	0xbe49e8d1	-0.19717719
5	0x3d5db60a	0.054128684
6	0x3e259e8a	0.16173759
7	0x3e9f4971	0.3111072
8	0x3d090b65	0.033458132
9	0x3ee23d66	0.44187468
10	0xbf18a61a	-0.5962845
11	0x3eb35afd	0.35030356
12	0x3da50689	0.08057887
13	0x3d9f0d8a	0.07766254
14	0x3edf5853	0.43622074
15	0x3eee1000	0.46496582
16	0xbd5bf4e1	-0.05370033
17	0xbf0a1003	-0.5393068
18	0xbdd1a429	-0.10236389
19	0xbddc0995	-0.10744015
20	0xbe02b458	-0.12764108
21	0x3e437ee8	0.1909138
22	0xbb7c90d2	-0.0038538468
23	0x3dfd6757	0.12373226
24	0x3ecd7561	0.40128615
25	0x3d4aa925	0.049477715
26	0xbe1fe3c8	-0.15614235
27	0x3def4ae9	0.1168421
28	0x3d3fba1f	0.04680836
29	0x3d2f6ea9	0.042830143
30	0x3e1fddd5	0.15611966
31	0xbde8db52	-0.11369957
32	0x3e67ff25	0.22655924
33	0xbe9a7263	-0.30165395
34	0x3e531ccb	0.20616452
35	0xbe8cd984	-0.275097
36	0xbb53dc8b	-0.0032327499
37	0xbe83f9ff	-0.2577667
38	0x3dd290fc	0.1028156
39	0x3e92a363	0.2864028
40	0x3e8d4fb5	0.27599874
41	0x3e0136d2	0.12618569
42	0xbd828125	-0.063722886
43	0x3e05a6a7	0.13051854
44	0x3dd6ad44	0.104822665
45	0xbd69f696	-0.05711993
46	0xbddcd136	-0.10782091
47	0x3ea48a86	0.32136935
48	0x3e6883f7	0.2270659
49	0x3e6eb6ea	0.23311964
50	0xbc171112	-0.0092203785
51	0x3eb175cb	0.3466018
52	0xbd8e0b81	-0.06935788
53	0xbd841f82	-0.06451322
54	0x3dab08d9	0.08351297
55	0xbe01fa65	-0.12693174
56	0xbc7ed5df	-0.0155539205
57	0xbd969b35	-0.07353822
58	0x3ebb823b	0.36622795
59	0x3c509842	0.012731614
60	0x3d43b747	0.04778221
61	0x3e67d429	0.22639526
62	0x3e815b35	0.25264898
63	0x3e8e73f0	0.27822828
64	0x3e03ca69	0.12870182
65	0xbe16fccf	-0.14744876
66	0x3e4e3410	0.20137048
67	0x3e26ab35	0.16276248
68	0x3c9f3f1c	0.019439273
69	0x3d8370bb	0.06417986
70	0x3cca5a37	0.02470122
71	0xbe26ae7e	-0.16277501
72	0x3e3c3943	0.18381219
73	0xbf065505	-0.5247348
74	0x3eb145b7	0.346235
75	0xbcac3227	-0.021020008
76	0xbdac7761	-0.08421207
77	0xbc8a9489	-0.01691653
78	0x3e3c71b9	0.18402757
79	0xbdcf5467	-0.1012352
80	0xbe272619	-0.16323127
81	0x3eadbfdc	0.3393544
82	0x3e4358ca	0.19076839
83	0xbd3be376	-0.04587122
84	0x3e5f4f97	0.21807705
85	0xbe497406	-0.19673166
86	0xbe8ace90	-0.2711072
87	0xbe98df48	-0.2985785
88	0xbe701938	-0.2344712
89	0x3eca8c61	0.39560226
90	0x3f1f1c10	0.62152195
91	0xbe3418d5	-0.17587598
92	0xbed3ec33	-0.41391143
93	0xbd1013c3	-0.035175096
94	0xbe08e32a	-0.13367906
95	0x3ee5eefb	0.4490889
96	0x3da5aeff	0.080900185
97	0x3e4dcde0	0.20098066
98	0xbe838f3c	-0.25695217
99	0x3e06d170	0.13165832
100	0x3de4bc47	0.111687236
101	0x3f00d800	0.5032959
102	0x3d9ca4ce	0.076486215
103	0x3e897f93	0.26855144
104	0x3e0d7a2b	0.13816135
105	0xbe5f7d8a	-0.21825233
106	0x3ba6815a	0.005081338
107	0x3e177b46	0.14793119
108	0x3e6fb2df	0.23408078
109	0x3e75b123	0.23993354
110	0xbde14d3c	-0.110010594
111	0x3b5d1d30	0.003373932
112	0xbd961000	-0.073272705
113	0xbe85b5e7	-0.26115343
114	0x3e5a4a54	0.21317416
115	0xbe8ed4c1	-0.27896693
116	0x3ebaf210	0.36512804
117	0x3df4396d	0.119250156
118	0x3e0899aa	0.13339868
119	0x3f21525d	0.630163
120	0xbebe064f	-0.37114188
121	0x3e889373	0.26674995
122	0xbce089d2	-0.027409468
123	0x3e88f423	0.26748762
124	0xbeaf8588	-0.34281564
125	0x3f1d289c	0.6139009
126	0x3e698c32	0.22807387
127	0x3db51d60	0.088434935
128	0x3d8824cf	0.06647646
129	0xbe885bb4	-0.26632464
130	0x3d49d323	0.04927362
131	0xbe9fe8a5	-0.3123218
132	0xbea3b9b9	-0.31977633
133	0xbc07d6bd	-0.008290944
134	0x3d5d36c6	0.054007314
135	0xbef1372f	-0.47112414
136	0x3e36a37e	0.17835805
137	0xbec31548	-0.38102174
138	0xbef4da68	-0.4782288
139	0xbd35fb0f	-0.04442888
140	0xbd0216cd	-0.031760026
141	0x3d9c78a1	0.07640196
142	0x3d51f990	0.051263392
143	0x3ac86685	0.0015289342
144	0xbe4c8ef3	-0.19976406
145	0xbd113ca7	-0.035458233
146	0xbeaeb04c	-0.3411888
147	0xbe916d66	-0.28403777
148	0x3e123123	0.14276557
149	0x3e2c69a7	0.16837178
150	0x3dadc361	0.08484531
151	0x3e066d40	0.13127613
152	0x3d500717	0.05078801
153	0xbef35c95	-0.47531572
154	0xbc1a6a4d	-0.009424758
155	0xbe1bdfd9	-0.1522211
156	0xbd75b315	-0.05998524
157	0xbe13b67f	-0.14425085
158	0xbd95fc80	-0.07323551
159	0xbe7292c6	-0.23688802
160	0xba175b39	-0.0005773786
161	0xbdd63acf	-0.104604356
162	0x3dc92e4e	0.09823285
163	0xbdf82744	-0.12116864
164	0xbe9a5b97	-0.30148003
165	0xbefaeee7	-0.49010393
166	0x3e2f176b	0.17098777
167	0x3da50f37	0.080595426
168	0xbe7358dc	-0.23764366
169	0xbe38e2de	-0.18055293
170	0xbde60ca3	-0.11232879
171	0xbe1026ba	-0.14077273
172	0x3e0b779f	0.1361985
173	0xbd53291a	-0.05155287
174	0xbdd3e9e6	-0.10347347
175	0xbe03f19e	-0.12885138
176	0xbda5d1a6	-0.08096628
177	0xbe28accf	-0.16472171
178	0xbb0d89bb	-0.0021596986
179	0xbe110dc6	-0.1416541
180	0xbdd99a30	-0.10625112
181	0xbd811823	-0.06303432
182	0xbe11d0da	-0.14239827
183	0xbea16c80	-0.3152809
184	0xbb1835af	-0.0023225357
185	0xbe9fe41d	-0.31228724
186	0xbecdac12	-0.40170342
187	0x3cef484b	0.029209277
188	0xbe0f7813	-0.14010648
189	0x3ed336a7	0.41252634
190	0xbe0ec00b	-0.13940446
191	0xbe6bebc6	-0.23039159
192	0xbc7aa024	-0.01529697
193	0x3e27fe2b	0.16405551
194	0x3cf56dd4	0.029959597
195	0xbe6cccd3	-0.23125009
196	0xbf0585ee	-0.52157485
197	0xbe12e10f	-0.14343666
198	0x3e12b075	0.14325126
199	0x3e47ac9c	0.19499439
200	0x3e1f595d	0.15561433
201	0x3e58a7ba	0.21157733
202	0xbf24a724	-0.64317536
203	0x3d43def4	0.047820047
204	0x3e541a9e	0.20713279
205	0x3de087e8	0.10963422
206	0x3d2825fe	0.041051857
207	0xbe6a9ea1	-0.22912075
208	0xbde23a37	-0.1104626
209	0xbeb47fbe	-0.3525371
210	0x3cb798f5	0.022411803
211	0x3e1c203a	0.15246668
212	0xbe1f54fa	-0.1555976
213	0x3ed716d1	0.42009595
214	0xbef5c9f4	-0.4800564
215	0x3e8661a1	0.2624636
216	0xbdf12e11	-0.117763646
217	0xbc2dcb65	-0.010607575
218	0x3cce5272	0.025185797
219	0x3c981958	0.018566772
220	0x3d34ce8e	0.0441423
221	0x390584b0	0.00012733298
222	0x3dd3f745	0.10349897
223	0xbe796e72	-0.24358538
224	0xbd354cb1	-0.04426259
225	0x3c85136d	0.016244614
226	0x3dce5b8b	0.10076054
227	0x3d42a959	0.047524784
228	0x3f037076	0.51343477
229	0xbead7954	-0.3388163
230	0x3eb9c7f5	0.36285368
231	0x3de017a8	0.10942012
232	0x3c90dcb6	0.017683368
233	0x3ec51141	0.38489726
234	0x3e3ae7f5	0.18252547
235	0xbe5bd9a4	-0.21469742
236	0xbe1f3740	-0.1554842
237	0xbeccea5d	-0.40022555
238	0xbe06e8dc	-0.13174766
239	0x3ea7e7b1	0.32793954
240	0x3ea6e0f2	0.32593495
241	0xbe7db23c	-0.24775022
242	0x3e31e970	0.17374206
243	0xbb2eb095	-0.0026655544
244	0x3dfff709	0.1249829
245	0xbcb7e249	-0.022446768
246	0x3e9ce848	0.30645967
247	0xbe220ca1	-0.1582513
248	0xbe43bfec	-0.19116181
249	0x3decff0c	0.11572084
250	0x3e079602	0.13240817
251	0xbd978004	-0.07397464
252	0x3e3bfea7	0.18358861
253	0xbf03fb1c	-0.5155504
254	0xbdce188d	-0.100632764
255	0xbea2b67d	-0.31779853

encoder.convs.1.nn.0.bias f4 [64]
0	0xbdf2c311	-0.11853612
1	0x3df59089	0.119904585
2	0xbd81acbd	-0.06331775
3	0xbd93f9c4	-0.072253734
4	0x3dcb5ba2	0.09929587
5	0x3ddbd437	0.10733836
6	0x3dae2e93	0.08504977
7	0xbdfb29d1	-0.12263835
8	0x3da01b7f	0.078177445
9	0x3dbe995a	0.09306593
10	0xbd94fd83	-0.07274916
11	0x3bdaafc7	0.0066737863
12	0x3dc8de81	0.09808064
13	0x3c7e96e9	0.0155389095
14	0x3d024931	0.031808082
15	0xbd3ece7a	-0.04658363
16	0xbde9a1a2	-0.11407782
17	0x3d1375aa	0.036000885
18	0x3de9b19c	0.114108294
19	0x3db199a9	0.086718865
20	0x3bb3714e	0.0054761535
21	0x3d91676a	0.07099803
22	0x3d14b1e8	0.036302477
23	0xb76fff93	-1.4305016e-05
24	0x3db38859	0.087662406
25	0x3df3d9ed	0.119068004
26	0xbd3581a4	-0.044313088
27	0xbc7961b1	-0.015221045
28	0x3c54d640	0.012990534
29	0x3d3cbacd	0.046076585
30	0x3d472073	0.04861493
31	0xbdae325b	-0.08505698
32	0xbce5e51b	-0.028063348
33	0x3cacc9b8	0.02109228
34	0x3deba996	0.11506955
35	0xbc7eaea0	-0.0155445635
36	0xbe000ccb	-0.1250488
37	0x3d5ebfa1	0.05438197
38	0xbdb054a3	-0.08609893
39	0x3dd5cb26	0.10439138
40	0x3d878c5b	0.066185676
41	0xbcaae869	-0.020862775
42	0x3a96bde9	0.001150069
43	0x3d25f55c	0.040517196
44	0x3d6a2a93	0.05716951
45	0x3d8dae28	0.06917983
46	0xbd019e8a	-0.031645335
47	0xbdcdfc96	-0.100579426
48	0xbcf888fa	-0.030338753
49	0xbd6af344	-0.057360902
50	0xbdeea58b	-0.116526686
51	0xbd7b03a5	-0.061282773
52	0xbd9ef360	-0.07761264
53	0xbdefafa1	-0.117034204
54	0xbcce7bcb	-0.025205513
55	0x3c24693e	0.010034857
56	0x3da05627	0.07828932
57	0x3d8ef406	0.069801375
58	0xbd24518a	-0.040116824
59	0x3d227833	0.039665412
60	0x3d3026ee	0.043005876
61	0x3c28bd59	0.01029905
62	0x3d7dd444	0.06197001
63	0x3d2fe389	0.042941604

encoder.convs.1.nn.1.weight f4 [64]
0	0x3f58d219	0.84695584
1	0x3fbd7b6c	1.480329
2	0x3f3fab87	0.74871105
3	0x3f904e8e	1.1273973
4	0x3fac47a9	1.3459369
5	0x3f496f34	0.7868531
6	0x3f9f6236	1.2451847
7	0x3fa67f73	1.3007644
8	0x3f5ca13e	0.86183536
9	0x3f6b9db7	0.9203753
10	0x3f64bc8d	0.89350206
11	0x3fa3ec9a	1.280658
12	0x3f1e6853	0.61877936
13	0x3f9f26ee	1.2433755
14	0x3f3a4eba	0.7277638
15	0x3f65b5f2	0.8973075
16	0x3fb4473d	1.408424
17	0x3f7bae95	0.98313266
18	0x3f51e6e4	0.81992936
19	0x3f72b9af	0.9481458
20	0x3f21b260	0.63162804
21	0x3f7cc9bb	0.98745316
22	0x3f7280d2	0.94727814
23	0x3f825e98	1.0185118
24	0x3f9bd01b	1.2172884
25	0x3fcd2030	1.6025448
26	0x3f078e28	0.5295129
27	0x3f8d2432	1.1026671
28	0x3f43c9e5	0.7647994
29	0x3fa117d2	1.2585394
30	0x3f949147	1.1606835
31	0x3fae1624	1.3600507
32	0x3fb1bddc	1.3886065
33	0x3f63be55	0.889623
34	0x3f85484b	1.0412687
35	0x3efb0b9c	0.49032295
36	0x3f1ee9a2	0.62075245
37	0x3f8486e8	1.035367
38	0x3f83fa66	1.031079
39	0x3f50db33	0.8158447
40	0x3f709641	0.9397927
41	0x3fb7fa44	1.437325
42	0x3f8542ad	1.0410973
43	0x3fa91e90	1.3212452
44	0x3f9cce93	1.2250541
45	0x3ef64580	0.480999
46	0x3fada9c8	1.3567438
47	0x3f411c9e	0.7543429
48	0x3f7a7c25	0.9784568
49	0x3fa92bdf	1.3216513
50	0x3f74ba8d	0.95597154
51	0x3f2fe665	0.6871093
52	0x3f1ea063	0.6196348
53	0x3f4d7cf1	0.8026877
54	0x3f5ece55	0.8703359
55	0x3f8f4a81	1.1194612
56	0x3f8ff701	1.1247255
57	0x3f4a3d50	0.78999805
58	0x3f43108e	0.76197135
59	0x3f5e514a	0.8684279
60	0x3f8ec8d2	1.1155035
61	0x3f47f56e	0.7810887
62	0x3f252da0	0.64522743
63	0x3f897358	1.0738325

encoder.convs.1.nn.1.bias f4 [64]
0	0x3f0f2a46	0.5592388
1	0x3f1e49d7	0.6183142
2	0xbe04905a	-0.12945691
3	0x3dfd8f37	0.12380832
4	0x3edbff34	0.42968142
5	0x3eb66890	0.3562665
6	0x3f2073f7	0.6267695
7	0x3eea576c	0.45769823
8	0xbd6279e5	-0.05529203
9	0x3e50e02c	0.20398015
10	0xbd42440f	-0.047428187
11	0x3eaf54ae	0.34244293
12	0xbef3925f	-0.4757261
13	0x3df1300e	0.11776744
14	0x3f14696c	0.5797336
15	0x3d46d3b9	0.04854176
16	0x3eafda0b	0.3434604
17	0x3e84ac5c	0.2591275
18	0x3ebec7f6	0.37261933
19	0x3d7db17c	0.06193684
20	0xbecbbef7	-0.39794132
21	0xbc9750fd	-0.018471235
22	0x3e8fd778	0.28094077
23	0x3ebd4582	0.36967093
24	0x3e79d299	0.24396743
25	0x3e5e3f8b	0.21703927
26	0xbe3cec10	-0.18449426
27	0x3e772a24	0.24137169
28	0x3dfc10e0	0.12307906
29	0x3e7568c4	0.23965746
30	0x3f0d685a	0.5523735
31	0x3ee3182b	0.44354376
32	0x3ed7631c	0.42067802
33	0x3e4bdc49	0.19908251
34	0xbe18a8cb	-0.1490814
35	0xbe75d99c	-0.24008793
36	0xbeb02f32	-0.34411007
37	0x3e74314e	0.23846933
38	0x3e3085a9	0.17238487
39	0x3ee74333	0.45168456
40	0x3b793631	0.0038026685
41	0x3e996ab3	0.29964218
42	0x3d42bd44	0.04754378
43	0x3eb1ba3a	0.34712392
44	0x3e31b0d6	0.17352614
45	0xbeda924e	-0.42689747
46	0x3e175ec7	0.14782248
47	0xbefa10fe	-0.4884109
48	0x3d8f59f6	0.069995806
49	0x3ec90324	0.3926021
50	0x3e4d21aa	0.20032373
51	0xbe4a3aa4	-0.19748932
52	0xbe56882f	-0.20950387
53	0xbdea4931	-0.114397414
54	0x3f591619	0.84799343
55	0xbe6a78b2	-0.22897604
56	0x3db58db3	0.088649176
57	0xbe29fe86	-0.16600999
58	0xbea2ef75	-0.31823316
59	0x3e9555b2	0.29166943
60	0xbe0182df	-0.1264758
61	0x3d454ba9	0.04816786
62	0xbea01ade	-0.31270498
63	0x3ead2533	0.33817443
