checkpoints/tuning/trial_9/best_model.pt (torch, 520320 bytes, 104 tensors)

encoder.feature_encoder.atom_embedding_list.0.weight f4 [119, 64]
00000000: be6e 103e 099f 863d 87a9 3b3b 8d8b 473e
00000010: 6c9d 06be 1946 2bbe 8568 c6bd 51e3 0a3e
00000020: 16ce 533e cf63 98bd 6201 f0bd 1505 0bbe
00000030: 9900 e13d 69ad afbd 8097 0a3e 921e 83bd
00000040: 50a2 293e a829 053e 2145 b83d 343f c53d
00000050: a5f5 0ebe 2f87 cb3c 4b3d ddbd 42ea 63bd
00000060: 34b0 e53d 9223 d7bd 838a c23d ff57 053d
00000070: 62a6 fbbd ec7c 06be b83e 34be 8b67 7e3d
00000080: 84ba e1bc 6e15 253e 2cc9 8f3d dc24 b43d
00000090: d488 a83a 2393 b13d 2b14 dcbc baad 943d
000000a0: 49a2 a8bd 85f6 c83d 2460 4b3d b5e5 c33d
000000b0: 6859 483c f001 483d 95d3 273e 8fbf 0e3d
000000c0: 72cd 013e 75f6 4dbe ca63 84bc 6d4f 25be
000000d0: 9e1e 543c d447 0b3d 466e 513d 77d9 9dbd
000000e0: 4a24 8e3d 691b b7bd 95d3 58bd 25bf c23d
000000f0: 61a3 2abe de62 2b3d 9c58 1bbe 9134 ea3d
00000100: 80d5 1abe 9c0e 2ebe b199 4ebd fc4a 143e
00000110: 295d bb3d 6855 ee3d 2ac9 2cbd abc9 233e
00000120: e516 a9bd 22ab 4fbc e643 2abe 1e78 153c
00000130: f909 2a3d 4bf6 31be e7df 1b3e 9a89 0b3d
00000140: f2d3 303e b0a3 9fbd c657 0a3c 7e07 6ebd
00000150: 67c5 1c3e 654d cfbd 926e d53d 4934 02be
00000160: bd55 0b3e 94a3 2cbe b95a b8bd 105e a7bd
00000170: c9df fbbc bc29 13bb 86ad 6f3d 3447 263e
00000180: 3875 da3d 1bd0 b2bd 173a 2e3e 226f dabc
00000190: b6c9 cebd 969d 8a3d 373f 01bd fcf3 303e
000001a0: e878 a53c 1170 f53d c3f7 3e3d ef58 f2bd
000001b0: ab18 1c3d bf99 d6bd 7a9a 46bd 64eb 6ebd
000001c0: 5cea 12be ca83 8f3d 3634 033e 5db8 36be
000001d0: 0bdb c93d c965 12be ee75 35be 53c6 7f3d
000001e0: 0c8a 83bb de56 e3bd 4804 263e 2d13 723c
000001f0: 3399 e8bd d51d aa3d e1f9 513c 506c edbc
00000200: 3cff 03be 134a a3bd c21d 9b3d 60ec bbbd
00000210: c4c5 9e3d 9f37 36be 550e 00be 9c2c 88bd
00000220: 9278 09be 8789 843d 2dca f7bc 20ac 853d
00000230: 4edf 663d 2383 a9bc 55b2 c5bd ee6b 82bd
00000240: 140e 343d 4ffd 243e 8a5b 7dbd ee50 fcbd
00000250: 1c55 aabd a230 05be 1f47 c3bc 3429 04be
00000260: a970 063e f517 8c3d 7d5d 05be 2ba6 da3d
00000270: 0df7 ff3c a4d6 d2bd 8258 763d cebb 26be
00000280: 1dd8 a9bd 85a9 3cbe 5a75 babd 3a8a 20bd
00000290: 0f8e 833d 365a 4dbd 582e 2dbe d279 31be
000002a0: 8609 e1bc de40 1e3e 0660 893d 3882 253e
000002b0: 63b4 afbd 1224 813c e66b 21be 8148 d53d
000002c0: d908 b4bb 6fc9 2bbc 1fda b7bc 8901 22be
000002d0: 8988 88bd 8929 8cbc baee c4bd 3dff 9a3d
000002e0: 01ea 2cbd 1fd5 d5ba c283 4dbe 4b5c cf3d
000002f0: 724d b5bd 9d1a 0cbe 8b1b 093c 5407 22be
00000300: dc86 0dbe 243e 0a3e 18c5 173e 43ca 00be
00000310: 5cd8 203d a102 bfbd 6781 2d3e bd64 e23d
00000320: 6172 933d 052c 17be e966 b6bd 91de 1bbd
00000330: 1fc6 25be 0db9 d8bd d044 433d 83f1 16be
00000340: b955 453d c497 87bb 184e 74bc c5a4 58bd
00000350: 1e4c c7bd d35a 2dbe 3459 fcbd 4308 0c3e
00000360: ade5 5bbc c68c 343e e466 1c3c 78d7 aebc
00000370: 4963 de3d 7f90 2ebe a9d9 e5bd ffb9 d43d
00000380: 826d 41bd ddb1 123e 0e73 87bc 123b 043e
00000390: e514 103c 780b 9a3c 129c 1cbe d827 80bd
000003a0: 84bf 143c c76f a93d 20e8 0f3d 4707 21bd
000003b0: ef3b a03a cc63 1f3e be5e f73d 3a12 7d3d
000003c0: 35a0 05be 1461 79bd 84c1 ec3d 7ee8 263e
000003d0: ed4f afbd c091 9d3d 12ab 2dbd 4e3e eb3d
000003e0: 6fe2 debc b363 13be e588 37be c54e debb
000003f0: dca5 5a3d d39a dabd a1e1 113e d5e5 af3d
0.14104745 0.06573302 0.0028634982 0.19486828 -0.13145989 -0.16725959 -0.09687904 0.13563277
0.20684084 -0.07440912 -0.11719014 -0.13576157 0.10986442 -0.08577997 0.13534355 -0.06402315
0.16565824 0.13004172 0.0899756 0.09631196 -0.13960893 0.024844734 -0.10802706 -0.055643328
0.11215249 -0.105048314 0.09499075 0.032554623 -0.122875944 -0.13133591 -0.1760205 0.062110465
-0.027554758 0.16121456 0.07020792 0.08796093 0.0012858161 0.08670642 -0.026865086 0.07259698
-0.082340784 0.09812645 0.049652234 0.095652975 0.012228347 0.048829973 0.16389306 0.034850653
0.12676027 -0.20113547 -0.016160864 -0.1614358 0.012946753 0.034004048 0.051130556 -0.07707494
0.06940515 -0.08940775 -0.052936155 0.09509114 -0.16663887 0.041842334 -0.1517052 0.114358075
-0.15120506 -0.1699776 -0.05043954 0.1448173 0.09148628 0.11637384 -0.042184032 0.15994899
-0.0825632 -0.012675079 -0.16627464 0.009122876 0.041513417 -0.1737911 0.1522213 0.034066774
0.1726835 -0.07794893 0.008443778 -0.058112614 0.15309678 -0.10122184 0.1042148 -0.12715258
0.13606925 -0.16859275 -0.09001679 -0.08172238 -0.030746358 -0.0022455296 0.058515094 0.162381
0.10666889 -0.08731099 0.17014347 -0.02666432 -0.10097067 0.067683384 -0.031554427 0.17280573
0.020199254 0.119842656 0.046623003 -0.11833369 0.038109463 -0.104785435 -0.048487164 -0.058329955
-0.14347214 0.07007559 0.12812886 -0.17843767 0.09856232 -0.1429664 -0.17720768 0.062444996
-0.004014259 -0.11100553 0.1621257 0.01477508 -0.113573454 0.08306471 0.012815923 -0.028982311
-0.12890333 -0.07973113 0.07574035 -0.09175944 0.077525645 -0.17794655 -0.12505467 -0.066491336
-0.134249 0.06471544 -0.030247772 0.06526971 0.056365304 -0.020692414 -0.09653155 -0.06368242
0.04395874 0.16112255 -0.061854877 -0.123201236 -0.083170146 -0.13006833 -0.023837624 -0.12906343
0.13128914 0.06840507 -0.13023944 0.10676225 0.031245733 -0.10294846 0.060143 -0.1628258
-0.082931735 -0.18424042 -0.09104414 -0.039194323 0.0642358 -0.05013486 -0.1691221 -0.17331627
-0.027470361 0.15454432 0.06707768 0.16162956 -0.08579328 0.01576427 -0.15763816 0.1041422
-0.005494219 -0.010485037 -0.022442875 -0.15820898 -0.06666667 -0.01710965 -0.09615846 0.07568214
-0.04221535 -0.0016314125 -0.20069793 0.10125025 -0.08852662 -0.13682027 0.008368383 -0.15823108
-0.13820976 0.13500267 0.14821279 -0.12577157 0.039268836 -0.09326673 0.16943894 0.110543706
0.071995504 -0.14762886 -0.08906347 -0.038054053 -0.16188858 -0.10582171 0.047673047 -0.14740567
0.048177455 -0.004137965 -0.014911197 -0.05289151 -0.09731315 -0.16929178 -0.12321702 0.13675027
-0.013421458 0.17631826 0.009546015 -0.021342978 0.10858781 -0.17047308 -0.11223156 0.103870384
-0.047223575 0.14325662 -0.016534355 0.12913159 0.008794044 0.018804297 -0.15293911 -0.062575996
0.009078864 0.08273273 0.03513348 -0.03931358 0.0012224893 0.15565413 0.120786175 0.06178496
-0.13049395 -0.060883597 0.11560348 0.16299626 -0.085601665 0.07693815 -0.042399473 0.11486493
-0.027207581 -0.14393501 -0.17923315 -0.0067842924 0.053380832 -0.106740616 0.14246227 0.08588759

encoder.feature_encoder.atom_embedding_list.1.weight f4 [5, 64]
00000000: b700 12be ed54 67bd 5753 613d 0e7f 543e
00000010: 577f be3d 778c 8c3e 3bd3 793d 38d4 473e
00000020: 5180 223d 510f 593e 7ad2 863e b059 343e
00000030: 9cb5 8ebe d7ce 3ebc 784a dbbd 1d99 39bd
00000040: d24c 4c3e 6549 2fbe 2eba eebd d484 32be
00000050: 713d 563d 1be7 36be bf53 6f3d 7782 69be
00000060: 90f4 0ebe 0905 2f3e a3bd 703e 74be a8bd
00000070: 513d ee3c c93c 6bbc 93e1 5abe 2509 88bd
00000080: a11b 1d3e 3868 8b3c 91f8 8c3e 4116 72be
00000090: d4dc 5dbe c4f5 6fbe 2ec7 3cbe 8c3f bc3d
000000a0: 5d40 3c3e 31ba 7dbe f997 7ebe f2b8 f4bd
000000b0: 753c 183e ab75 113e 48a5 f5bc 3014 7f3e
000000c0: 532e e83d d72b 973e de47 6a3c 82f6 46be
000000d0: 2618 12bc 0143 6d3d 317a 103e 51af f138
000000e0: 01a8 d43b c2bc ad3d 4334 9cbd fb22 6f3d
000000f0: b0cf 40be 3374 5dbd 7fc2 4d3e 39a8 9a3d
00000100: 54f8 283e f41a 49be aec0 b1bd 3c54 1cbe
00000110: fbe5 6abe a6f1 f7bd 1686 9abc a3f8 b0bc
00000120: 9b44 95bc 14bd 3ebe 15e4 a3bc 3423 a03d
00000130: e4de 583e 81ae 363e 3f5a 7cbe 705f 40be
00000140: 0c30 6e3e 03fa 4c3e 089e 273e 22bd 1bbe
00000150: f3a5 7e3e 9eae 92be 6c24 70be 6234 d83c
00000160: f16f 0c3e 0f4f 8ebe 83cc 313d d969 91bb
00000170: 04fe 1ebd 4783 6cbe afc1 10be d7cb 623c
00000180: dd6f 903d 5b63 3d3e 34f3 d5bd d3e8 8e3e
00000190: 1265 e33d e927 4dbe b74f 96be 1805 4b3e
000001a0: 5491 b63c f272 f2bc f8ed c7bd 1bf7 0d3e
000001b0: 6851 d9bd 9ceb 5cbe 11b4 513e e876 01be
000001c0: cedd 2d3e 6aa7 4fbe 2ad0 72bd 9877 25be
000001d0: bda4 4d3c a1d8 0ebd 902c b43d 5137 6abe
000001e0: e329 85be 2e26 703e 8934 67be eba3 cb3d
000001f0: be1f 83be 4a5f 6b3d c497 cdbb 1e7d 14be
00000200: f4f9 c6bb 6e4b 143d 4333 073c 7d71 643e
00000210: 46f6 2cbe 49bc 083e cd0d 8b3e c6e3 58be
00000220: e982 6cbe 781c cc3d d063 d6bd 9deb d9bb
00000230: a3d6 8cbe 7b72 383e b37d 9fbc 0c84 943c
00000240: e4ed d1bd afa5 d13d b475 9ebb d8af f0bd
00000250: 0905 963d e23c e0bd e420 e03d 1c9b 90be
00000260: 12ad e9bd 53e5 4ebe 2c78 003e a70a 54be
00000270: 42f6 693e 5d0c 933d a610 393e 5cf9 44be
00000280: 184b 75be a235 46bd 61ea 25be 208f ccbd
00000290: 8b36 783e 9264 213e 1a6f b2bd b55c 373e
000002a0: 2442 4abe 6477 2fbe 4ac0 053e 925d 023e
000002b0: 1d9e aebd dd0f 4ebe 85c9 3c3d f8a5 913e
000002c0: a398 943e 92ba 773e 2c71 62be 5f2a 483e
000002d0: 1e31 5d3d 2d17 75be 9426 9b3c 19ce 91be
000002e0: bda5 813d 430a 26be 912b 4bbe 6a16 6b3c
000002f0: e6a9 4b3e 9e7c 293e 73dd 3abe 9bc1 2b3e
00000300: 55b4 e03d 5394 49be b4c5 9bbd ebb8 90bd
00000310: ba6d 75be 58c4 89be 0d0d 4dbe 0541 893e
00000320: c976 a0bd 6ae2 e73c 0abf 7abe d9c2 4fbd
00000330: a92a e43d e8cf c3bb d4d5 bdbc 08b6 80bb
00000340: 9408 4b3e 92b8 54be 8f95 87be af6c 91be
00000350: d390 f53d 8134 28be 5f11 04be f7c1 1fbd
00000360: 0906 313e cbf6 273b ed6b 6c3d 84a3 a9bd
00000370: a356 243e 33a4 16be 66c2 683e 358e 783e
00000380: aad0 87be 9b39 bfbd cc8b 11bd 4099 22be
00000390: 09b5 813c eb37 c6bd aafc 793e 391d bfbc
000003a0: 33cb 28be 51f1 15be c01a 8dbe 1c96 39be
000003b0: 3d81 6a3d cd6c b63d ea24 02be afa0 443b
000003c0: a282 173e 46a8 1f3d 5712 083d 1617 46be
000003d0: 9cf2 8d3e f14a b2bd 5148 c73c e0be 14bd
000003e0: 872f 033e 071d 7abe 1c70 893d 3962 6abe
000003f0: 8457 6e3e 4d0c eebd 1d92 763d 05dd 9f3c
-0.14258085 -0.056477476 0.05501112 0.20751593 0.09301632 0.27450916 0.06099246 0.19514549
0.039673153 0.21197249 0.26332456 0.17612338 -0.27872932 -0.011645994 -0.10707563 -0.045312036
0.1995118 -0.17117842 -0.11656605 -0.17433482 0.05230469 -0.17861597 0.058429476 -0.22803675
-0.1396048 0.17091765 0.2350984 -0.08239451 0.029081972 -0.014357754 -0.21375112 -0.06642369
0.15342571 0.017017469 0.2753339 -0.23641302 -0.2166627 -0.23433596 -0.18435356 0.09191808
0.18383928 -0.24778058 -0.2486266 -0.11949338 0.14866813 0.14205043 -0.029986039 0.24910045
0.11336961 0.29525635 0.014299361 -0.19429973 -0.00891689 0.057925228 0.14109112 0.00011524431
0.006489754 0.08483268 -0.07627156 0.05838297 -0.18829226 -0.054065894 0.20093726 0.07551617
0.1650098 -0.19639188 -0.08679329 -0.15266508 -0.22939293 -0.12106638 -0.018862765 -0.021602934
-0.01822119 -0.18626815 -0.020006219 0.078192145 0.21178776 0.17840005 -0.24643801 -0.18786407
0.23260516 0.20017247 0.16368878 -0.15208867 0.24867992 -0.28648847 -0.23451394 0.026392166
0.13714577 -0.27794692 0.04340793 -0.004437667 -0.038816467 -0.23096953 -0.14136384 0.0138425445
0.07052586 0.18494932 -0.10446778 0.27912006 0.11103262 -0.20034756 -0.29357693 0.19826162
0.022286095 -0.029595826 -0.09762186 0.13863795 -0.1061123 -0.21574253 0.20478846 -0.12643015
0.16979143 -0.20278707 -0.059280552 -0.16158903 0.012551484 -0.034874562 0.08797562 -0.22872664
-0.2600852 0.23452064 -0.22578634 0.09943374 -0.25610155 0.05746392 -0.0062741954 -0.14500853
-0.006072277 0.036204748 0.008251968 0.22308917 -0.16890821 0.13353075 0.27158967 -0.21180639
-0.23096813 0.099663675 -0.104682565 -0.0066504017 -0.27507505 0.18012421 -0.019469118 0.018129371
-0.10250452 0.1023668 -0.0048358086 -0.117522895 0.07325179 -0.109491125 0.109437734 -0.2824334
-0.11409964 -0.20204668 0.12545842 -0.20707189 0.22847846 0.071800925 0.18072757 -0.19235748
-0.23954427 -0.048390992 -0.1620269 -0.099882364 0.24239556 0.15761021 -0.08712597 0.17906459
-0.19751793 -0.17135388 0.13061634 0.12731007 -0.085262515 -0.20123239 0.04609062 0.28446937
0.29022703 0.24192265 -0.22113484 0.19547413 0.05400192 -0.23934622 0.018939294 -0.28477553
0.0633044 -0.16214852 -0.19840838 0.014348606 0.1988903 0.16551444 -0.18248539 0.16773073
0.109718956 -0.19685487 -0.07606068 -0.0706652 -0.23967639 -0.2690761 -0.2002451 0.26807418
-0.078351565 0.028306205 -0.24486938 -0.05072293 0.11140949 -0.005975712 -0.02317325 -0.00392795
0.19827491 -0.20773533 -0.26481292 -0.28403232 0.11990514 -0.16426279 -0.12897252 -0.03900334
0.17287458 0.0025629278 0.057720114 -0.08283141 0.16048674 -0.14711075 0.22730407 0.24272998
-0.26526386 -0.09337159 -0.03553371 -0.15878773 0.015833395 -0.09678634 0.2441279 -0.023329364
-0.16483764 -0.14642836 -0.2755947 -0.18123668 0.057252157 0.08907471 -0.12709394 0.0030003001
0.14795926 0.038978837 0.033220615 -0.19344744 0.2772416 -0.087057 0.024326475 -0.036314845
0.12811099 -0.24425136 0.06710836 -0.22889031 0.23275572 -0.1162344 0.06019794 0.01951457

encoder.feature_encoder.atom_embedding_list.2.weight f4 [12, 64]
00000000: 11b4 4cbd 3fd5 75be add8 febd e4b2 7fbd
00000010: c8e1 9f3d cff0 21be c51a a33e 0517 a1be
00000020: ee1c c93c 9144 893e dd51 37be 82a1 eebd
00000030: 097d 06be edae 56be 89ae 30be 5fb6 91be
00000040: 96c9 ddbd d423 47bd 0a61 1c3e 8e67 44bd
00000050: 6a5d c8bc 6d94 b4bd 7869 a73d 2a91 683e
00000060: 9eaf de3d 13d0 d4bc 09ff a8bc 9042 443e
00000070: 423a 43be 312f 883e 4112 1ebd a2c3 ac3e
00000080: 49ec a53e 2ff0 a6bb 4241 693d 0f14 343e
00000090: 7680 853c 09a8 a43d c006 973e 6fd7 63bd
000000a0: 7dae cabd fb90 8b3e d577 793e c4b0 803e
000000b0: e0bb 87be fbe6 073e a4f4 863e 3090 00be
000000c0: f201 243e 70bd 29be b1cd 003e 3c0d b33b
000000d0: 7a68 b53d 21e3 30be 3939 8dbd ca69 1cbe
000000e0: 474c 8a3e 6627 cabd 5ac3 873d ea63 853e
000000f0: 06df e2bc acb4 013a df15 f03d ebdc 4dbd
00000100: b3bc 21be d933 83bd 7639 d9bb 766d 1abe
00000110: 749d 75bc 9ce6 b9bd 4c8f 23be 4b16 4ebe
00000120: 002a 5ebe ed63 91bd f6ff 993e 93ea 8abc
00000130: 11d2 46be db4b 25be 1ef8 5c3d 553f 823e
00000140: 04a4 81be a8ce 6a3e 9c58 853e 7b30 823d
00000150: 161a d13d d0fb c43d f989 7bbe 83bf b03c
00000160: 8ccd bcbd 11db 24be a0b2 12bd dbd8 2c3e
00000170: 1579 1c3d 0159 133e 948e 29be c0a5 843e
00000180: 2b0c 26be dd8a 663e c5f1 5e3e c688 67be
00000190: 6d0a 9dbe 3c91 533e 8ba8 3a3e d06c f6bc
000001a0: 62a8 6e3d 55f2 13bd 79b3 afbd 4164 173e
000001b0: 02f8 fc3d a65b c1be 5131 f9bd 58e3 f8bd
000001c0: 0040 143e 52cc a3be 624c 70be ffe3 53be
000001d0: a3a6 c5bd 2772 73be 3fc1 11bc f5ba 23be
000001e0: 448e 023e 5e77 5f3e 31e8 c13d e708 c5bd
000001f0: 2462 293d 78ff 63be 8405 46be 96e5 a3bd
00000200: 10e4 9bbe ef50 813e 6310 493e 7e0a a03d
00000210: 89be e73d c9d1 9c3e d39a e6bd 2210 ee3d
00000220: c51a d0bd fb9e 8bbd 7ace 63be 83a2 1f3e
00000230: c754 52be e4bd ffbd 48fe 913e f0fd 47be
00000240: 1a61 96bb c4c5 96be 03bd 74be adc6 493e
00000250: de6b 273e de0e 433c fccd 0abe c950 8c3e
00000260: 819d 953e a52a eb3d 4327 0abe 2119 89bd
00000270: f3e1 1e3e 258c a63d ada6 9f3e 78cc 723e
00000280: 377c 313e 98f5 3bbe 6cb3 d43c 5a36 233e
00000290: 0d4d a0bd e201 ae3d 777a 853e 8d15 9dbd
000002a0: 298c bebd 70db 5abe ca3a 633d a239 2c3e
000002b0: 16f8 643e c756 163d ecc3 3f3e 0e05 8ebe
000002c0: ea39 a5ba 8903 07bd 1d8b e4bd fb2d 513e
000002d0: 3b57 393e ce6e 7cbe c741 73be 5f8d 10be
000002e0: 00d2 ae3d 252c 053e af12 483e 9b49 3e3e
000002f0: e19a 2bbd f868 06bd 1903 eebd 3708 3cbe
00000300: 74c1 d2bc 2868 08bd 4a5f 74be 6560 893c
00000310: ca90 183e 57fb 813e 1ee6 b2bd 1ef4 443e
00000320: f23d 19bd 4c8f 61be c45a 7e3e e7c5 26bd
00000330: d229 c7bd d4a3 30bd e642 553e 153c ebbd
00000340: c8ca 8ebd 5a94 543d ed04 2abe cc0f 8e3d
00000350: c68e 8a3e 3693 8a3d 3e71 74bd fcab ffbd
00000360: 6b65 9cbe 0b6f 7bbe ac06 9ebd 88da 2c3e
00000370: e707 843e e031 8cbc 73ef c7bb e6ae 103e
00000380: edf3 8abd 66a8 64be 32ee 173e 4c2f 3ebe
00000390: b0f6 3fbe 8f67 4d3d 8fe6 75be ecff 3fbe
000003a0: fa98 1ebe 9f9d 2c3d 2a15 613d f46c eebd
000003b0: ba38 63be 7be5 c9bd 8e5a 8b3e 968b 7abd
000003c0: 13d3 63be 7ae5 b9bd 139b 813e d6df 593d
000003d0: 352c 99bd 8d5b 853e 01f4 553d d209 313d
000003e0: 10d3 973e a625 b53b 7f49 6fbd 4ed2 6f3e
000003f0: db12 843d da47 58be 4d55 703e 1508 f7bd
-0.049976412 -0.24007128 -0.124436714 -0.062426463 0.07806736 -0.15814517 0.3185636 -0.31462875
0.024549928 0.26810125 -0.17902322 -0.11651899 -0.13133635 -0.20965166 -0.1725408 -0.2845945
-0.10829465 -0.048618153 0.15271392 -0.04795032 -0.024458606 -0.088173725 0.081744134 0.22711626
0.1087334 -0.025978124 -0.020629423 0.19166017 -0.19065192 0.26598504 -0.038591627 0.33743006
0.32406834 -0.00509455 0.056947 0.17585777 0.016296607 0.08039863 0.29497337 -0.055625375
-0.09896562 0.2725905 0.24362119 0.2513486 -0.26510525 0.13271706 0.2635852 -0.12555003
0.16016367 -0.16576171 0.12578465 0.005464224 0.08857818 -0.17274143 -0.0689568 -0.1527473
0.2701132 -0.09870796 0.06629057 0.2605279 -0.027694236 0.00049478817 0.117229216 -0.050259512
-0.1579464 -0.064063735 -0.0066291643 -0.15080819 -0.014991153 -0.090771884 -0.15972632 -0.20125692
-0.21695709 -0.070991375 0.30078095 -0.016957557 -0.19416071 -0.16142218 0.05394756 0.25438944
-0.25320446 0.22930396 0.26044166 0.06356903 0.102100536 0.09618342 -0.24564351 0.021575695
-0.092188925 -0.16099192 -0.03581488 0.16879599 0.03820141 0.14389421 -0.16558295 0.25907707
-0.16215579 0.2251391 0.21771915 -0.22610769 -0.30672017 0.20660871 0.18228357 -0.030081183
0.05826605 -0.036119778 -0.085791536 0.14784338 0.12351991 -0.37765235 -0.121676095 -0.121527374
0.14477539 -0.31991822 -0.23466638 -0.20692442 -0.09650924 -0.23774014 -0.008896171 -0.15989287
0.12749583 0.21822879 0.09468115 -0.096208386 0.04135336 -0.22265422 -0.19338042 -0.080027744
-0.30447435 0.2525706 0.19635157 0.07814501 0.113156386 0.30628803 -0.11259999 0.11624171
-0.10161356 -0.068174325 -0.22246733 0.15589337 -0.20540152 -0.12487391 0.28514314 -0.19530463
-0.004589212 -0.29447758 -0.23900227 0.19704695 0.16349742 0.0119054 -0.1355514 0.27405384
0.29221728 0.11482743 -0.1349154 -0.06694246 0.1551588 0.08132199 0.3118185 0.23710811
0.1733254 -0.18355405 0.025964461 0.15938702 -0.07827196 0.08496453 0.26069996 -0.07670126
-0.09304077 -0.21372771 0.055475987 0.1681886 0.22360262 0.03670385 0.18727082 -0.2773823
-0.0012605761 -0.032962356 -0.11159346 0.20427696 0.18099682 -0.24651644 -0.23755561 -0.14116429
0.08536148 0.13005121 0.19538377 0.18582766 -0.04189575 -0.03281495 -0.116216846 -0.18362509
-0.025727011 -0.033302456 -0.23864475 0.016769597 0.14898983 0.2538707 -0.087352976 0.19233748
-0.03741259 -0.2202732 0.24839312 -0.040716078 -0.097247735 -0.04312499 0.20826301 -0.11486069
-0.06972271 0.05189929 -0.16603442 0.06936607 0.27062052 0.067663595 -0.05967831 -0.12483975
-0.30546126 -0.24554078 -0.07716116 0.16880238 0.2578728 -0.017113626 -0.0061015426 0.14129218
-0.067848064 -0.22329864 0.14836958 -0.1857273 -0.18746448 0.05014759 -0.24013732 -0.1874997
-0.15488043 0.042142507 0.054951824 -0.11641875 -0.22189608 -0.09858223 0.27217525 -0.061168276
-0.22248487 -0.09076972 0.25313625 0.053191982 -0.07479135 0.2604641 0.052234653 0.043222256
0.29653215 0.0055281697 -0.0584197 0.23420069 0.06448909 -0.21121159 0.2347004 -0.120620884

encoder.feature_encoder.atom_embedding_list.3.weight f4 [12, 64]
00000000: fdb7 563e 2fe1 c83c 34b2 f43d 187e 8c3e
00000010: 7e5d 383e 62e3 5e3e 2f5e 58be 2c26 8dbe
00000020: 0442 653e 4d8d 9c3e 7b45 3c3e 371b 103e
00000030: cc23 85bd dc8f c93d b897 0abe d5a4 bc3c
00000040: dd3d 8e3e 6b0c 3fbe 61ce 71be 444c b3bc
00000050: 2011 b73d 69cb 85be 3324 373e 5d33 4d3c
00000060: c6b1 093d d41e 3a3e 3f45 e13d c48e 82bc
00000070: bf58 97be a27d 7b3e 394d babd 3fd1 1fbe
00000080: 0bf0 6a3d 3f61 413e af6f 263c 43b7 23be
00000090: e0a2 87be cc83 fa3d ca6d c93d 5696 063e
000000a0: d92f 8a3e 48ba 1cbe 3bbe b23d 908e 893e
000000b0: 7eb9 0fbc a9e1 e7bd 119a 60be 6042 503b
000000c0: 8740 10be cf8c 54be 7b6b 91be e974 dd3d
000000d0: 4403 26bd 0283 b13d b245 573e 84f7 8ebe
000000e0: cf03 14be b7f4 613e 4f50 46bd c5bb 123e
000000f0: 27bf 78be fae2 843e 9fbe 753d 0e23 39be
00000100: 94f4 023d 46ac 293e 3d7f 723e a42f 8f3d
00000110: 3924 1abe 1221 b4bd 6f0e 85be 9027 923e
00000120: 2505 0c3e 8552 503d e559 04be 376a 2abe
00000130: 3fc8 11bd b1e1 f53d 59be 863e da32 433d
00000140: 1cae 313e 6ca3 40bc d590 89bd dd94 7f3e
00000150: e906 823c 013a 8d3e 281e 8dbe 93ef 3c3d
00000160: a00a c5bd 3919 3f3e 77f3 1c3e 0840 a83b
00000170: 4379 3f3e 94ee 22be 9ce0 96bd 8106 123e
00000180: 661a 33be a05b 8a3d 4754 023e 9034 6fbe
00000190: 2ec6 d5bd 8ff1 54be dc93 83be 0687 c3bd
000001a0: 1c01 8d3d e76f cc3d 3292 133e a442 103d
000001b0: e228 38be fa2e 80be e233 6c3e a641 1a3e
000001c0: 0bb3 4c3e ba51 abbe 3520 d0bd 8886 e1bc
000001d0: d513 6e3e eefb 60be 31dd f3bd 7346 5abe
000001e0: 7e06 363e 47ea 1a3d f029 0cbe d54f 213e
000001f0: 20b7 6cbe 4baa 51bc 4004 11be 540f 41bd
00000200: 2a28 4239 81aa 583b 52fe 8c3e e885 85be
00000210: 3445 4cbe ca6a 30bd 72a8 0cbe 5272 843e
00000220: 2ae2 013e 1ed7 653e a6fd 6c3e e2bb 3abd
00000230: 2682 363e be24 87bb c130 2b3e 9bf5 173d
00000240: b15c 663d a745 d53d ee79 09be 4c31 513e
00000250: 09e1 843e a511 8bbd c056 aabd d04a 7fbe
00000260: 3541 da3d 0870 62be a52f 8cbe 7f1c 503e
00000270: 5915 be3d cf21 5d3e ecaf 70be a013 22be
00000280: 3058 4fbd c0de 313e d9b4 89be cee8 77be
00000290: 64b6 afbd de44 15be 75e2 923e efe4 073e
000002a0: bb34 42be 23ad 05be 34ab f7bc 9d0f 34be
000002b0: 5067 5abe c9d6 673e 6e77 69be e53c 503e
000002c0: 66b2 edbc 6557 7dbe 1522 b8bd e45d 01be
000002d0: fb69 43be fa3e 30be bb7e 283c a07f 17be
000002e0: 95b2 503e 947c 87be 888f 4dbd 6113 2e3e
000002f0: 84e6 3dbe fb0f b0bd 54c6 49be d98c 90be
00000300: 2647 a43d fe39 34bc 214e 4f3d d55c 0e3e
00000310: a238 9bba 3e8b 81be 3314 8cbe 2f12 973d
00000320: fa02 0fbe fc12 833e 5e62 9dbc 4026 663e
00000330: 872c 21bd 8c48 e0bd 2483 8ebe 196d ae3e
00000340: 39f3 7cbe 8c96 1a3e f3c6 15be ad60 63be
00000350: ac80 0ebe 5c4c 0b3e cc6a 493e a738 69be
00000360: ab89 56be d3f6 153e 2527 fa3d 4ac5 38be
00000370: 2e0c 7d3d 2c66 2ebd 8c0d 7bbe e3ce 203e
00000380: 627b 42be 7255 82bc ce25 3abd 72c5 1bbe
00000390: a9e1 c53b f467 80be d5b0 7e3e ec33 57be
000003a0: 9433 273e 630a 05bd 4037 a0bc 7692 a7bc
000003b0: 5416 05be 31a9 85bd 4a0c 253e 60e2 edbd
000003c0: fac6 b53d 9149 4fbe 6962 1fbe dabc 2d3e
000003d0: 3c88 c43d 10a5 82be 144e 02be a036 3a3e
000003e0: 17a5 bebd ab32 7f3e fde2 8dbe a5ae 963c
000003f0: 3046 8ebe 9ac0 723d 6929 a1bd b38e dcbd
0.20968623 0.024521438 0.11948052 0.27439952 0.18004414 0.21766427 -0.21129678 -0.27568185
0.22388464 0.30576554 0.1838588 0.14072882 -0.06500968 0.09841892 -0.13534439 0.023027817
0.27781573 -0.18657081 -0.23613884 -0.021886952 0.08938813 -0.26131752 0.17884903 0.012524453
0.033616804 0.18175822 0.10999536 -0.015937217 -0.29559895 0.24559644 -0.0909676 -0.15607165
0.05735783 0.18884753 0.010158463 -0.15987878 -0.2649145 0.122321695 0.09835394 0.13143286
0.2698963 -0.15305436 0.0872769 0.2686658 -0.008772252 -0.11322338 -0.21933772 0.0031777844
-0.14087115 -0.20756839 -0.28402314 0.108133145 -0.040530458 0.08667566 0.2102268 -0.27923214
-0.14454578 0.22066008 -0.048416432 0.14329441 -0.24291669 0.2595442 0.059996244 -0.18079779
0.03197153 0.16569623 0.2368135 0.069915086 -0.1505288 -0.0879537 -0.25987574 0.2854581
0.13673837 0.050859947 -0.12924917 -0.1664208 -0.03559136 0.12005938 0.263171 0.047655918
0.17351574 -0.011757713 -0.06717078 0.2495913 0.015872436 0.27583316 -0.2756207 0.046126913
-0.09621167 0.18661965 0.1532725 0.0051345862 0.18698601 -0.15911323 -0.073670596 0.14260294
-0.17490539 0.06755757 0.12727462 -0.23359895 -0.104381904 -0.20795272 -0.25698745 -0.09547238
0.06884977 0.09982281 0.14411238 0.035219803 -0.17984346 -0.2503584 0.23066667 0.15064105
0.19990174 -0.3346079 -0.10162393 -0.02752997 0.23249753 -0.21971104 -0.11907423 -0.21315937
0.17775914 0.03782108 -0.13687873 0.1575311 -0.23116732 -0.012796949 -0.14161777 -0.04713376
0.00018516244 0.0033060613 0.2753778 -0.26078725 -0.19948274 -0.043070592 -0.13736132 0.2586847
0.12683931 0.22445342 0.23143634 -0.045589335 0.17823085 -0.004124253 0.16717817 0.037099462
0.05624074 0.10413676 -0.13425419 0.20428962 0.25952938 -0.06790475 -0.083173275 -0.24930882
0.106569685 -0.22113049 -0.273801 0.2032337 0.092814155 0.21594928 -0.23504609 -0.15827799
-0.05062121 0.17370129 -0.26895788 -0.24209902 -0.0857971 -0.14577052 0.28688398 0.13270925
-0.18965428 -0.13054328 -0.030233003 -0.17584081 -0.21328473 0.22640528 -0.22799465 0.2033573
-0.029015731 -0.2474037 -0.08990876 -0.12633473 -0.19083397 -0.17211524 0.010284121 -0.14794779
0.20380624 -0.26462233 -0.05018571 0.1699958 -0.18544966 -0.08596798 -0.19704562 -0.28232458
0.08021383 -0.011000155 0.05061162 0.139026 -0.0011842439 -0.25301546 -0.2735916 0.07376515
-0.13965979 0.2560042 -0.019211944 0.22475529 -0.039349105 -0.10951337 -0.27834427 0.3406761
-0.24702157 0.15096492 -0.14626674 -0.22204848 -0.13916272 0.13603348 0.19669646 -0.22775517
-0.20950954 0.14644937 0.122144975 -0.1804401 0.061779194 -0.042577907 -0.24516886 0.15703921
-0.1899238 -0.015909884 -0.04544621 -0.15212038 0.0060388637 -0.2507931 0.24872144 -0.210159
0.16328269 -0.03248061 -0.019557595 -0.02045558 -0.12996799 -0.06526411 0.16117969 -0.11615443
0.088758424 -0.20242907 -0.15564884 0.16966572 0.09596297 -0.25516558 -0.12725097 0.181849
-0.09308832 0.24921672 -0.2771224 0.018393824 -0.27787924 0.05926571 -0.078692265 -0.10769405

encoder.feature_encoder.atom_embedding_list.4.weight f4 [10, 64]
00000000: 5d03 2c3e 3c1a 013e 3cba 0b3e 2c30 8c3e
00000010: 9f97 293d 9a42 bebd c79e b43d cf21 12bd
00000020: 92c6 883e 9f43 7bbe 94a5 26be 3375 593e
00000030: 0c09 6dbe 9fe0 0c3e 2696 36be 25dd cb3d
00000040: 92df 763e dc67 193e e42b 66be d39d af3d
00000050: b141 913c f89d adbd ab4c 8dbe 57c2 33be
00000060: 8a48 14be 09af 553e 10e7 80be f511 3cbe
00000070: b90f 4abe 720c d43d ac68 44be 5ed2 a7be
00000080: 6990 93bc a6a3 a1be 995c dd3d f0a9 42bd
00000090: da69 8b3e ae9b 02be ba5b 9abe 941b febd
000000a0: f500 ecbc 249b a5bd 4c02 843e 8b4b 6ebe
000000b0: 00d8 98be 74c9 df3d 8baf 7fbd 115c 323e
000000c0: 4585 363c bc63 083e 8164 313e b779 67bc
000000d0: 6397 07be ff26 f5bd cc8d b6bd daca 51be
000000e0: f2a3 6f3e c88d 253e fa22 82bd 439a 6e3e
000000f0: cf1b ef3d c1ef d93d e73d 443e f17a c4bc
00000100: 17e8 82bd a081 813e 2170 4c3d 18f0 243e
00000110: 4b93 243e c596 37be 35cf c4bd b747 9d3e
00000120: 2f15 1dbd a316 13be 532f 2cbe 46cc 85be
00000130: bd8e 573e 1e77 4e3e 6ad4 2fbe ea38 a7be
00000140: 15b1 723d 71c7 c1bc 062e 803e f742 02bc
00000150: 5480 313b ea2f 213e c0a0 2e3e 06f0 3d3e
00000160: a59d 8a3e cd4c afbe 01b5 4e3e d855 333e
00000170: 66f8 223e 141b 3bbe e056 6f3d a79f 6cbe
00000180: 2aaa 783e 815a f93c 777e 243e 0eb4 143e
00000190: 3771 1dbe adc0 203e bac8 813e 8e58 1bbe
000001a0: 4366 1f3d 5b51 67be 29cb 7ebe b6e7 e03d
000001b0: 41e7 5abe 5758 033e 0b5a 41be 9a81 99bc
000001c0: 5102 a6bd 277e 2c3e b39d a43e ee09 8fbe
000001d0: 0519 9fbd e68d 87bd d21e 4abe a5ea 96be
000001e0: 4219 acbd 8320 a5bd 2a3d 483e 2ab5 b93d
000001f0: 2608 6e3e 39e2 64be bf76 a0bd 6724 223d
00000200: 7c98 69be 8988 bb3d 410b 9bbc b6f3 88be
00000210: 698b 99be 115a f63c 1821 c53d 9ee9 3ebd
00000220: 9923 e8bd 83b1 353e 1d52 fe3d 64c1 18be
00000230: c90e 5f3e 06c3 7ebd 1a5e cdbd 1b64 85bd
00000240: 5872 67bd 3572 d73a a806 fabd 3379 2f3e
00000250: 1b97 58bb 477f 4b3e fa55 483d 020d 243e
00000260: 3511 53be 70b3 283e 1cf0 ac3d 8fce 0fbc
00000270: d475 e7bd cd3c 5f3d a531 7a3b f449 6abd
00000280: c958 12bd fcf7 81bd d7d1 103e 732a 763e
00000290: 1912 afbd ac67 f93e 871e c83c 3720 82be
000002a0: f16b 4e3e 3123 c2bd 9c2b 30be 23de dabd
000002b0: a5a2 e6bc e43d 99be ddcb d7be 7131 7dbe
000002c0: 8ca3 fcbd 4f2b 11bd 695c 533e d525 1ebe
000002d0: 16a6 013d f7c2 4a3e 0285 0d3e 28de cf3c
000002e0: d58c a1be 03b0 363e 8e71 1bbe b65c 7ebd
000002f0: abf1 4ebe 75a7 17bc cc43 2e3e b1de 3bbe
00000300: 11f3 1abe c299 11bc f001 1a3e 357e 5dbe
00000310: d773 5a3c ac1d 47be 46f5 e83c 0768 06bd
00000320: 3cb9 4f3e b057 13be af4e 59be 8c51 933d
00000330: dab6 063e 8b35 06be 468c 163e 01e3 84be
00000340: 6747 9f3d 330f 2c3e a74a 4fbe 23ee 84bd
00000350: fe26 a43b f599 033e d84d af3d 5b7b 52be
00000360: 8ee9 a53e 7067 4dbe 18b5 833c 143e 1bbe
00000370: 07f3 9bbe ac00 5ebd e77d 783e e744 7bbe
00000380: 161e 4b3e b4bf c13e 440b 6abe 697c 973d
00000390: e97b cdbd cd2a 89be 099f 7fbe abf4 a2bd
000003a0: d115 52be 7741 9bbd 0d59 8a3d 06a0 0d3e
000003b0: 7622 90be 7cae ec3d e23b 513d 59f9 e33d
000003c0: 49c2 723e 2a4d a4be a038 34be 6aba d33d
000003d0: 3585 413d c3f5 9cbd 9a09 13be cf09 1c3c
000003e0: 4523 0abe ace1 cf3d 582e 34be bbcf 8f3e
000003f0: fd5b 123d 606f 95bd 2beb afbe 4ebf bc3e
0.16798158 0.12607664 0.13645262 0.27380502 0.041404363 -0.09290047 0.08819347 -0.035676774
0.26713997 -0.24537514 -0.162741 0.21236114 -0.23147982 0.13757561 -0.17830715 0.09954289
0.24108723 0.14981025 -0.2247768 0.085750245 0.01773152 -0.08477396 -0.27597556 -0.17554604
-0.14480796 0.20867552 -0.25176287 -0.18366225 -0.1973256 0.10353936 -0.19180554 -0.32777685
-0.018013196 -0.31570166 0.10808677 -0.047525346 0.27229196 -0.127547 -0.30148107 -0.12407604
-0.02880905 -0.08086231 0.25783002 -0.23271005 -0.29852295 0.10927096 -0.06242327 0.17417933
0.011140172 0.13319296 0.17323495 -0.01412814 -0.13241343 -0.119703285 -0.08913764 -0.20487538
0.23402384 0.16167367 -0.063543275 0.23301034 0.11675226 0.106414326 0.19164239 -0.023984404
-0.06391924 0.2529421 0.049911622 0.16107213 0.16071813 -0.17928608 -0.09609834 0.30718777
-0.03835028 -0.14364104 -0.16814928 -0.2613241 0.21050544 0.20162627 -0.17170873 -0.3266061
0.05925091 -0.023654671 0.25035113 -0.007950536 0.0027084546 0.15740934 0.17053509 0.18548593
0.27073398 -0.34238282 0.20186235 0.17513216 0.15915069 -0.18272048 0.05843246 -0.23107778
0.24283662 0.030438663 0.16063868 0.1452181 -0.1537522 0.156985 0.25348455 -0.151705
0.038915884 -0.22589628 -0.24882187 0.10981695 -0.21377279 0.12826668 -0.18882005 -0.018738557
-0.081059106 0.16844998 0.32151565 -0.27937263 -0.07768444 -0.06618862 -0.1973832 -0.29475895
-0.08403255 -0.08062842 0.19554582 0.090677574 0.23245296 -0.22351922 -0.07835149 0.039585497
-0.22812074 0.091569014 -0.018926265 -0.26748437 -0.29989174 0.030072244 0.09625453 -0.046609513
-0.11334915 0.17743497 0.124180056 -0.14917523 0.21782984 -0.062197708 -0.10027714 -0.06513234
-0.05650553 0.0016437235 -0.12208301 0.17136078 -0.003304905 0.19872771 0.04891012 0.16020587
-0.20612033 0.164747 0.08444235 -0.008777275 -0.11301771 0.054501344 0.0038176563 -0.057199433
-0.035729203 -0.063461274 0.14142548 0.2403963 -0.08548374 0.48711908 0.02442862 -0.25415203
0.20158364 -0.094793685 -0.17204136 -0.106869005 -0.028153727 -0.2993003 -0.42147723 -0.24725892
-0.123358816 -0.035441693 0.2064072 -0.1544412 0.031652533 0.19800936 0.1382027 0.025374487
-0.3155276 0.1784058 -0.15180036 -0.062100135 -0.20209377 -0.009256233 0.1701805 -0.18346669
-0.15131785 -0.008886756 0.15039802 -0.21630175 0.013333282 -0.19444913 0.028437268 -0.032814052
0.20285505 -0.14388919 -0.21221422 0.07193288 0.1315569 -0.13106363 0.14701948 -0.2595444
0.07777291 0.16802673 -0.20243321 -0.064907335 0.005009531 0.12851699 0.085597694 -0.20554869
0.3240475 -0.2005899 0.016077563 -0.151604 -0.30458853 -0.05419986 0.24266778 -0.24538003
0.19835696 0.3784157 -0.2285586 0.07396776 -0.100333996 -0.26790467 -0.24963011 -0.07956823
-0.20516135 -0.07580846 0.06755266 0.13830575 -0.28151292 0.11556718 0.0510825 0.11131544
0.23706926 -0.32090122 -0.17599726 0.1033829 0.047246177 -0.07664063 -0.14359131 0.009523823
-0.13490017 0.10150465 -0.17595804 0.28088173 0.035732258 -0.07296634 -0.34359106 0.36864704

encoder.feature_encoder.atom_embedding_list.5.weight f4 [6, 64]
00000000: 4e89 53be 1e96 983d bfcf bbbd 56d6 5d3e
00000010: 1287 61bd b54d 7b3e 94f0 06be 936f 3bbe
00000020: 4c72 82bc e414 53be 1012 02be 606a 4f3e
00000030: ef56 773e 480c 2fbe 15cd 98be d79e b33d
00000040: c065 83be 5e72 75bd a66a 223e 6631 4b3d
00000050: 18fd 983d 3a5b e93d fb5b 28be de0b 94bd
00000060: d0d8 acbd 4117 98be 2b9f 0abe 5efc 463d
00000070: 5629 ba3d 59c3 06be 3217 4b3e bc75 24be
00000080: 528a 97bb 811f 853e 1e9f 3e3e 7fdb 8f3e
00000090: ac0c 973d cea5 3dbe 9ac2 c7bd 0e06 5dbd
000000a0: 2055 6bbe b71e edbd 1b8c 98be 1fbd 17be
000000b0: 33ee a2be 1488 8b3e 393f 3d3d c8a1 843e
000000c0: d24e 313e 0647 9c3e ebd4 96bd c7ac 19be
000000d0: f378 0bbe c874 9bbe b97a 093c c35b 353d
000000e0: 6814 273e 820d d9bc 3f25 ab3d eb37 e23d
000000f0: 4150 723d 7549 a83d 3ede 8dbd e822 143e
00000100: dc8a 91be 618e 0d3d 8a93 1e3e 3cd5 3b3e
00000110: 3d22 043e 5133 36bd 3fac 553e d01d 8ebe
00000120: bbea 7abd c762 e0bd 01ee 363e 76c0 833e
00000130: 9f90 9ebd de52 713d 2452 2dbd 9f99 aabd
00000140: 8ad6 ef3d d113 8d3d e02a 10be 89de 823d
00000150: db64 873e 3da8 51be a146 3fbd 0e10 85be
00000160: c757 97bd 6cc7 8d3e b7fc 423e 6864 8dbe
00000170: de3b 86be a2c0 403c b127 09bd 79d5 613e
00000180: 9a50 a5bd e65e 633e 8a4d 31be 987e 5abd
00000190: c087 cdbb a84e 1abe ac8c 4b3c be32 81bd
000001a0: fc3e 0ebe e6f0 6bbe c0cf f7b9 4480 8b3e
000001b0: 8dbc e83d 0d4c 65be fe6f 17be 5fea 443e
000001c0: ee7e dfbd a23d debc eaf6 0cbe e8f0 0e3e
000001d0: dac0 4abe 6c14 8ebe c34a 5cbe bb58 81be
000001e0: 269a e63c 84eb 393d 18c9 bdbd 4384 f83d
000001f0: 22f9 e03c f2e2 903d 0d5b 1c3e 3d80 723d
00000200: de50 833e 0795 053e d799 29be 4755 263e
00000210: bd83 b2bd f5d5 13ba c347 823d 3029 83be
00000220: fbb2 1a3e bcef 3a3e 1f8a 8f3e b626 c73d
00000230: deaa a3bd 715b b4bd 5aee d0bd ff8c 87be
00000240: bee0 0a3e 2254 a33d 42f2 b8bd c6c9 2ebe
00000250: 1cc3 eabd 07ca a53d 1051 853e 93c2 3a3e
00000260: 5c01 623e 412b 883e 1e09 39be 0f6a 18bd
00000270: 97b2 47be 0145 53be cc12 e83d d91f 0b3e
00000280: 261b 233e 97d0 523e fdce 2d3e 5ee2 12be
00000290: ed34 733b ab1c c63c baa1 763e e23e 1abe
000002a0: 23b5 fabd 4a65 a53d 4b02 ca3d 52df 843e
000002b0: 933e 773e d5a3 5fbe bc0d e33d 409d 14be
000002c0: d536 f2bc 2271 9fbd d526 933d 0cb6 463e
000002d0: bd8b 6abe ef58 7e3e c421 513e 2d13 11be
000002e0: c312 36bd a532 9abd b097 7e3e 8fcb ccbd
000002f0: 22ce d23d a87e 7ebd 7ea2 7d3e 032d a0bd
00000300: 484e 8f3e 512e 5fbe 9b06 b3bd f4c3 413e
00000310: 8f69 c73d 40cd 17be 7c7d 75be d956 62be
00000320: 3781 7abe 81ad 25be bba6 35be 7a0c adbd
00000330: 68e1 813e f825 9fbd 564d 39be cb91 123e
00000340: 5573 30be 120b 16be 8229 46bd f39a 13bd
00000350: c8e0 38be ef6c 6ebe 1552 92be a34f febd
00000360: 88e5 173e a167 c03c 73fb 6e3e 70fc 4f3d
00000370: 1de9 60be deef e13c eaa0 99bd d8c0 293e
00000380: 1423 a33d 9f63 943e a265 86be 21b0 0ebe
00000390: f676 7ebe 1b67 d53c 381a 3fbe 1df9 f8bd
000003a0: f516 8f3e 4ae3 c8bd a580 133e c6bf 403e
000003b0: 2c6d 593e 1a3d 753e efee 383e c3ab ed3c
000003c0: d4f3 7c3e 1c10 913e dacd 4ebe 4b6c 7a3d
000003d0: 3a46 4e3e 84ae 4abe 2151 eb3d 302f 3b3e
000003e0: 8cab 153c 8356 adbd be59 c6bc c664 823e
000003f0: 9d5f 6dbe 66e2 ed3d aa47 22be e950 4a3e
-0.20657846 0.074505076 -0.09170484 0.21663794 -0.055060454 0.24541362 -0.13177711 -0.18304281
-0.015923642 -0.20613438 -0.12702203 0.20255423 0.24154256 -0.17094529 -0.29843965 0.08770531
-0.25663567 -0.059923522 0.15860996 0.049607657 0.07470149 0.11394353 -0.16441338 -0.07228826
-0.08439791 -0.2970524 -0.1353728 0.04858052 0.090899155 -0.13160457 0.19833067 -0.16060537
-0.0046246434 0.26000598 0.18615386 0.2809715 0.07375464 -0.1852028 -0.09753914 -0.053960852
-0.22981691 -0.11578124 -0.29794392 -0.14818238 -0.31822357 0.27252257 0.046202872 0.2590468
0.17315224 0.30522937 -0.0736483 -0.15007316 -0.13620357 -0.30362535 0.008391076 0.044276964
0.16316378 -0.026495699 0.083567135 0.11045822 0.059158567 0.08217136 -0.06927155 0.1446644
-0.28426254 0.03455961 0.15485969 0.18343061 0.12903686 -0.044482533 0.20866488 -0.2775712
-0.061259013 -0.1095634 0.17864229 0.25732774 -0.07742428 0.05891692 -0.042314664 -0.08330082
0.11710842 0.06888545 -0.14078856 0.063901015 0.26444134 -0.20474334 -0.046698216 -0.2598881
-0.07389789 0.2769121 0.19041716 -0.27615666 -0.2621755 0.011764677 -0.03348512 0.2205409
-0.08072014 0.2220417 -0.17314735 -0.053343385 -0.006272286 -0.15069067 0.0124236755 -0.063085064
-0.13891214 -0.23041114 -0.00047266297 0.27246296 0.11364088 -0.22392292 -0.14788815 0.1923003
-0.10912882 -0.027128998 -0.13766065 0.13959086 -0.1980013 -0.27749956 -0.21512894 -0.25263008
0.028149676 0.04539062 -0.09266871 0.12134602 0.027462546 0.070745364 0.15269108 0.05920433
0.25647634 0.1304513 -0.16562591 0.16243468 -0.08716533 -0.0005639487 0.06361344 -0.2561736
0.15107338 0.18255514 0.28035066 0.097241804 -0.07991575 -0.088065036 -0.10201712 -0.2647476
0.13562295 0.079750314 -0.09030582 -0.17069158 -0.114629954 0.08095174 0.26038408 0.18238287
0.22070831 0.265955 -0.18069884 -0.03721052 -0.1950172 -0.20631792 0.1133171 0.13586368
0.15928325 0.20587383 0.16973491 -0.14344165 0.0037110404 0.024183592 0.24085131 -0.1506305
-0.1224158 0.0807596 0.098637186 0.2595163 0.24144964 -0.2183984 0.11086604 -0.14513111
-0.029567162 -0.0778525 0.07185141 0.19405383 -0.22904868 0.24838613 0.20423037 -0.14167471
-0.044451486 -0.07529191 0.24862552 -0.09999763 0.10293223 -0.062132508 0.24769017 -0.07821085
0.2798941 -0.21795012 -0.08741494 0.18922406 0.097369306 -0.1482439 -0.2397365 -0.22103442
-0.24463354 -0.16179468 -0.17739384 -0.08449645 0.25367284 -0.07770914 -0.18095908 0.14313428
-0.17231496 -0.1465266 -0.04837943 -0.036036443 -0.18054497 -0.23283742 -0.2857825 -0.12417533
0.14833653 0.023486914 0.23338108 0.050777853 -0.21963926 0.027580198 -0.07501395 0.1657747
0.07965675 0.28982255 -0.26249415 -0.13934375 -0.24850067 0.026050141 -0.18662345 -0.121568896
0.27947202 -0.09808977 0.14404543 0.18823156 0.21233052 0.2394909 0.18059896 0.029012566
0.24702388 0.28332603 -0.20195714 0.061138432 0.20143977 -0.19793135 0.114900835 0.1827972
0.009135138 -0.084637664 -0.024212714 0.2546751 -0.23181005 0.11615448 -0.1584765 0.19757427

encoder.feature_encoder.atom_embedding_list.6.weight f4 [6, 64]
00000000: 09e2 09bd 8fea aa3e 5008 94bd a073 7d3e
00000010: 28ec b73d ea27 693e 556a 093d 74eb 3a3e
00000020: 9bcb 7d3d 4570 903b a36f c23c c3ed da3d
00000030: e36c 843e 644e 883e 71cd 24be 29be 423d
00000040: f76c 673e 4454 d7bd 0a88 45be 8e42 693d
00000050: 18b4 3cbe 04fc 58be 2cf7 6d3e 761e 91be
00000060: 3171 33be 8753 0c3e d738 88bd 2c28 cf3d
00000070: bb83 acbd 5cc6 0a3d 993e ca3d c7f2 c53c
00000080: 404f 8f3d d5d8 9b3d 8f24 263e d2ee 05be
00000090: e1f5 28bd 1fad 17bc 0aca 003e 6234 d1bd
000000a0: a1e9 3b3c 009f 89be 9744 113e 8461 213e
000000b0: 4cfc 78be 99f0 81be 4bcd 7cbd e873 8f3e
000000c0: a538 393e fd36 793e a23e 47be 056a 893e
000000d0: a704 8b3e 5cfa 6fbe 6469 293d 57fb 67bd
000000e0: c3e9 6c3e 2f69 3bbe 8763 b6be 5df2 97be
000000f0: d80d a13e eb95 893d 7e3f a1be 2bbd 67be
00000100: c0be 0b3e de0a 07be 4178 3ebe 9c6d efbd
00000110: 07bb f2bd d850 33be bf71 07be 971f a63d
00000120: fa86 753d dc43 5a3e f090 90be b56b f9bc
00000130: b9e0 c1bd 1c9b eebd 5a67 513d 7d9a 2bbe
00000140: d060 e1bd 12dd 3abe 94fa 94bd 2da1 1dbd
00000150: 8b7b f0bd 1ca7 52bd 68d0 2abe 0ef4 013d
00000160: 4336 b13d 27e3 40be af82 b8bd bec0 f5bc
00000170: ff2b 05be fb7a 29be 8ea8 003e df50 913c
00000180: 7a32 d43d 2676 97bc 2006 29bb e541 72be
00000190: 8a94 1d3d c1e2 a53e ea76 743e ebe9 703e
000001a0: 8c67 d2bd c5c5 f73c 46e8 703e f583 88bd
000001b0: 3bcf 5f3d a633 113c c94c 513e 5116 fcbd
000001c0: b7ee 063d c917 82be 9252 44bd 86f8 003e
000001d0: a521 133d a76b 843e cf82 62be f8dd 023e
000001e0: 6820 4a3c b012 a43e 1003 883e 0b9c 8e3e
000001f0: 9262 58be 56b7 893e d1cb 0bbe 1fed e8bd
00000200: 8d0b 173e 812a d9bc 0ffe ba3d c786 6c3e
00000210: 45ae 60bd 9848 9e3d f16f f8bc f4e2 363e
00000220: 15c1 023e 3ee1 843c 1df0 3fbe 5f45 473d
00000230: 1f5e 243e 9982 92bb 31dc 353e dd5e a23d
00000240: ef06 21be 1bf2 1cbe 6df9 bdba f103 83be
00000250: d825 0bbd d630 bebd 194e 77be e05a c33d
00000260: f3b3 ce3d fa72 eb3d 4243 08bb 264a eebd
00000270: aef3 6cbd a509 4fbe 6e5c e6bc 5eee 1c3e
00000280: 93bd 1d3b b47e 503d 754a 883e 9932 7a3e
00000290: 2647 663e 3d95 4b3e a11b 703e 3e69 fcbd
000002a0: de21 92be 4080 0a3c a834 3b3e 8d09 373c
000002b0: f552 093e b33f 55be c82c b6bc a237 773e
000002c0: aa16 74be ac5a 1dbd f53f e33d f631 9bbe
000002d0: cd0e e9bd fdee 2dbe 2419 603e 049e 81bd
000002e0: 716c 39bc 9468 613e e634 593d df12 08be
000002f0: 39bf 6c3d 51b7 a9bd 309d 723e 4b5a e9bd
00000300: 4a84 663e 6351 0ebe cc47 1d3e b7c5 813e
00000310: bccf b9bd 1925 89bd 3692 15be bdfc a73d
00000320: 8800 b2bd 6dd9 5a3e db20 51be c3e0 13be
00000330: ff31 e0bd 29ad 953e 6442 413e 65c7 573b
00000340: 9c4c bd3d 76c4 89be 0b5a 75bd 8904 903e
00000350: 8718 debd b98b 26be dac4 23be 959a 1f3e
00000360: 5b5f 9b3c 01eb e23d 942a dbbd 0c73 f93d
00000370: dbc2 5ebd 8831 863e b5ef 653e 59c3 81be
00000380: 8dee 793e 9674 eebd 6193 1bbe 5f46 d6bc
00000390: d720 61be 7f95 c73c 68ad 3bbe a74c d6bd
000003a0: 5991 1d3d 9da2 a1bc 6634 ba3d ed53 a6bd
000003b0: 0fa7 353d 9876 8abd 63f6 f7bd 73fc 85be
000003c0: 6fb3 313e 2c52 98be 6927 3f3d 71e2 343e
000003d0: 97b0 853e f570 34be b6f3 873e b68c 1fbe
000003e0: 98c7 4abe 3e56 093d 2dd0 42be c551 74be
000003f0: 5015 863d cbde 4c3e 0801 bb3d fa4f c33d
-0.03366283 0.3338208 -0.07228148 0.24751139 0.0898059 0.22769132 0.03354867 0.1825388
0.06196175 0.004407915 0.023734873 0.10689881 0.25864324 0.26622307 -0.16093995 0.047544632
0.2260016 -0.10514119 -0.19290176 0.056948237 -0.18428075 -0.21189886 0.2323882 -0.28343552
-0.17523648 0.13703738 -0.06651466 0.10115084 -0.08423563 0.033880576 0.09875221 0.024163617
0.069975376 0.07609717 0.16224883 -0.13079384 -0.041250113 -0.009257584 0.12577072 -0.10215069
0.011469276 -0.2687912 0.14186321 0.15759856 -0.24314994 -0.25378874 -0.06171922 0.28018117
0.18088014 0.24337383 -0.19457486 0.268387 0.27151987 -0.23435348 0.041360274 -0.05663618
0.23136048 -0.18301843 -0.35622808 -0.29677096 0.31455874 0.06718048 -0.31493753 -0.22630756
0.13646984 -0.13187739 -0.1860056 -0.11690828 -0.11852079 -0.17511308 -0.13226984 0.08111494
0.059943177 0.21314949 -0.2823558 -0.030446867 -0.094666906 -0.116506785 0.051123954 -0.16758151
-0.11004794 -0.18248394 -0.072743565 -0.038483787 -0.11742314 -0.0514289 -0.16681063 0.03172689
0.08652928 -0.18836652 -0.09009301 -0.029999133 -0.13005064 -0.1655082 0.12564299 0.017738758
0.1036119 -0.018488955 -0.0025791004 -0.2365795 0.038471736 0.32399562 0.23873487 0.23526733
-0.10273656 0.030245671 0.23526105 -0.06665794 0.05464099 0.008862412 0.20439447 -0.12308944
0.0329425 -0.25408772 -0.047930308 0.12594804 0.035920758 0.25863382 -0.22120212 0.12779987
0.012336828 0.32045507 0.26564837 0.27853426 -0.21131352 0.26897687 -0.13651969 -0.11373352
0.147505 -0.026509525 0.09130489 0.23098288 -0.054853696 0.0772869 -0.030326815 0.17860013
0.12768967 0.016220685 -0.1874394 0.04865014 0.1605153 -0.004471135 0.17759778 0.0792825
-0.15725301 -0.15326731 -0.001449389 -0.25588945 -0.033971637 -0.092866585 -0.24150886 0.095388174
0.10092916 0.114965394 -0.0020792042 -0.116352364 -0.05784958 -0.20218523 -0.028120246 0.15325305
0.0024069294 0.050902084 0.26619306 0.24433364 0.22488078 0.19881149 0.2344804 -0.12324761
-0.28541464 0.008453429 0.18281806 0.011171711 0.13410552 -0.2082508 -0.02223815 0.24142316
-0.2383677 -0.03841655 0.11096183 -0.30311555 -0.11379776 -0.16985698 0.2188459 -0.06328967
-0.011317358 0.2201255 0.053028964 -0.13288449 0.05779955 -0.08286918 0.23692775 -0.11394175
0.22511402 -0.13898234 0.1535942 0.25346157 -0.09072825 -0.06696529 -0.14606556 0.08202503
-0.086915076 0.21372004 -0.2042269 -0.14441209 -0.10947036 0.29233673 0.18872982 0.0032925245
0.09243128 -0.269077 -0.059900325 0.2812846 -0.10844522 -0.16264237 -0.15993062 0.15586312
0.018966367 0.1107998 -0.107014805 0.121801466 -0.054385047 0.26209664 0.22454722 -0.2534435
0.24407406 -0.11643331 -0.1519294 -0.026156602 -0.21985184 0.024363277 -0.18327868 -0.10463839
0.038468692 -0.01973086 0.090920255 -0.08121476 0.044348773 -0.06760901 -0.121075414 -0.26169166
0.17353605 -0.29750192 0.046668444 0.17664506 0.2611129 -0.17621215 0.26553124 -0.1558102
-0.19802701 0.033529513 -0.19024725 -0.23859318 0.06547034 0.20006864 0.09131056 0.09536739

encoder.feature_encoder.atom_embedding_list.7.weight f4 [2, 64]
00000000: 6fd2 5f3e 9b65 8b3e f53f 89be 3aa3 8ebd
00000010: 008b 473e 19ff 8bbe e9f0 353e d178 683e
00000020: 223a 7d3e 1fc2 f7bd d6a3 8e3e 75db 7c3d
00000030: b738 6e3e 9f6a 2a3e 7f72 023b 28f1 9fbe
00000040: 7682 49be 2522 793e cf17 313e 5ccb 01be
00000050: 8768 973e b8e1 71be aca2 513e 47f7 a13e
00000060: 05a2 cbbd 3517 c93d fcaf 6f3e 3237 37bd
00000070: a569 cd3d f206 0b3e 2303 c6bd c2a0 2fbe
00000080: eb95 863d b853 6cbe 17b1 79be a005 173c
00000090: c11b 24be 28e3 013e a712 803d 7166 4cbe
000000a0: d81a 3fbe 0208 983e c42a 36bd dc2e 53bd
000000b0: a33d 17be fcb9 a43d 56b8 d23d 9508 ee3d
000000c0: 4c09 7cbd 4946 1d3e eedc 4a3e d231 963e
000000d0: c835 93be 6db6 6d3d 6c71 a6bd f3c3 00be
000000e0: e1b8 5fbe 9dc3 af3d dbdd 6cbe f9a1 2cbe
000000f0: 09c1 60bc 7a56 0d3e 92b4 043e 2e88 333e
00000100: 0483 a6be 3c32 04be 393e 6b3d 2973 63be
00000110: fc7f 01be ca86 09be 1542 1a3e 1570 2c3e
00000120: 62b4 c5bd 2de1 38be a129 663d 1181 c23d
00000130: 222b 7f3e d89e 3f3e 7320 80bd 4485 05bc
00000140: f273 1f3e 8727 f13d 284a 043e 9456 693e
00000150: acbb ff3d 2402 a8bc cacc 96be 88ad c5bd
00000160: 3944 073e 73ae 7d3e 2e67 d63d 5f06 62be
00000170: de7f 8ebe a1e9 a53e fbc5 afbd d73c 9dbd
00000180: ba0c 45bd 7750 1a3e e7a9 7b3e dd88 913c
00000190: 2517 563e 93aa 843e bfd6 94be c6c8 ccbd
000001a0: c77e 2cbe f78c 053e c60e 543e 25f2 283d
000001b0: bc53 3e3e 4b88 83be 28fb 0bbd 65e7 943c
000001c0: eaea 87bd 1b5e 713e c87d e5bd 05ae 553e
000001d0: 8043 aabd fab6 c23c 5b5b 293d 2d7d 843e
000001e0: 81f6 77bd 0956 563b 12c6 423e 7c1a 8f3e
000001f0: a8f3 2bbe 9a04 7d3d 25f3 163d fda0 91be
0.21857618 0.27225956 -0.26806608 -0.06964727 0.19486618 -0.27343062 0.17767681 0.22702338
0.24729207 -0.120975725 0.27859372 0.061732728 0.23263822 0.16642235 0.001990467 -0.31238675
-0.19678673 0.24329431 0.17294239 -0.12675232 0.29571936 -0.23621261 0.2047221 0.3163397
-0.09943012 0.098188795 0.23406976 -0.044730373 0.10029916 0.13576868 -0.09668567 -0.17151168
0.06571563 -0.23078811 -0.2438396 0.00921765 -0.16026212 0.1268431 0.06253558 -0.19960953
-0.18662584 0.2969361 -0.04447438 -0.05155836 -0.14769606 0.08043286 0.102890655 0.11622731
-0.061532304 0.15358843 0.1981084 0.29334885 -0.2875197 0.058035303 -0.08127102 -0.12574749
-0.2184787 0.08582232 -0.23131506 -0.16858663 -0.013717898 0.1380252 0.12959507 0.17532417
-0.32521832 -0.12909788 0.057432387 -0.22211899 -0.12646478 -0.13430324 0.15064271 0.16839631
-0.09653546 -0.18054648 0.056192044 0.09497274 0.24918798 0.18712938 -0.06256189 -0.008149449
0.15571573 0.11775117 0.12918913 0.22786933 0.124869674 -0.020508833 -0.29453117 -0.09652239
0.13209619 0.24773578 0.10468899 -0.22072743 -0.2783193 0.32404807 -0.08582684 -0.0767762
-0.04810784 0.15069757 0.24576531 0.017765457 0.20907266 0.25911388 -0.29070088 -0.09999232
-0.16845237 0.13042055 0.2070876 0.041246552 0.1858663 -0.2568992 -0.03417507 0.018176744
-0.06636603 0.23571055 -0.112056315 0.20867164 -0.08313656 0.02376889 0.04134689 0.25876752
-0.06053782 0.003270509 0.1902087 0.27949893 -0.16792166 0.061771967 0.036852974 -0.28443137

encoder.feature_encoder.atom_embedding_list.8.weight f4 [2, 64]
00000000: ae95 12be 8cd2 c13d 4907 c83d f2fb 5b3d
00000010: 3097 603e 4e80 503c 7239 803e 663d 98bd
00000020: 38d1 6c3b b10d 27be d54e 61be 6ac0 0abe
00000030: ec95 463d aa88 123d 3739 cd3d 3cd8 ae3d
00000040: b15f 80be 08a2 943e f0dc 22bd f639 74be
00000050: 6375 1b3e 434d 8b3d 63ff 1bbe f3f2 893d
00000060: a24e 8f3e 633e 6b3d a512 34bd c85c 17bc
00000070: b519 e83d 5bd6 913e 0d1c aabd 0d4c 883e
00000080: abb6 09be ce75 7e3e 8766 b33c 5ffa c5bd
00000090: 7ca7 8c3e 8288 823e e755 00bd 12fe 92be
000000a0: fe78 1ebe e5b1 49bc 02bb 91be fd21 7ebe
000000b0: 546d ae3c 05dc 92bd 123c 883c b393 15be
000000c0: dff6 f2bd a8c2 073e 9178 fa3c 7193 3f3e
000000d0: 0d37 2abe 35f5 edbd c5ab ebbd 9f6a 98be
000000e0: 07c9 0d3e d13a 03bd 92db a33e 79a5 563e
000000f0: 4e19 09be 8232 86bd 2c0e 143e 100e 2abe
00000100: 9083 703e 49ef 483d cf40 593d d665 7f3e
00000110: f93a 98be aef4 b3bd 574e 6cbe 6590 2abe
00000120: a667 3d3e c1be 2a3e 3323 7a3e c8c0 983e
00000130: f624 1ebe 1925 773c 286d d43d 05f3 abbd
00000140: aab9 233e b936 903e dd46 97be 82aa f6bd
00000150: 8a90 2f3e 56c6 77be b5ff 4bbd ce44 153e
00000160: 8ad9 223d 575c 18be 30ed b0bd 69e6 cdbc
00000170: 2f37 8d3e e61e 44be 1a1a 9ebc 7dc7 b3bd
00000180: 1726 9b3e 3b2c 4d3e 0ae5 0ebd 6f3a 25be
00000190: 5bea 893e 9b0d 90bc adda 14be c5a7 893e
000001a0: c2d3 9b3d 4cea 0f3d 9532 7e3e e45b 25be
000001b0: ca47 5a3e cd83 113e a529 46be e7af 823e
000001c0: e73f 9a3d 57ca 7dbe 80d1 833e 95f1 81be
000001d0: acde e93c c676 b63d f767 3b3e 61c8 83be
000001e0: f7d2 903e 850e 8b3e 4666 113e 34ea 633d
000001f0: 5cea 63be f45d 6c3e 65ab 243d 3f58 b7bd
-0.14314911 0.09463987 0.097670145 0.05370707 0.21932673 0.012725903 0.25043827 -0.07433586
0.0036135446 -0.16313817 -0.22002728 -0.13549963 0.04848282 0.035774864 0.100206785 0.08537337
-0.25073007 0.2902987 -0.039761484 -0.23850235 0.15181498 0.06801846 -0.15234141 0.06735792
0.2798968 0.057432543 -0.043963093 -0.009238429 0.11333028 0.28483853 -0.083061315 0.26620522
-0.13448589 0.24849626 0.021899475 -0.09666895 0.2747153 0.25494772 -0.031331923 -0.28709465
-0.15475842 -0.01231048 -0.28462988 -0.24817653 0.021292366 -0.07170872 0.016630206 -0.14607124
-0.11863493 0.13257849 0.030575069 0.18708588 -0.16622563 -0.11619035 -0.11507372 -0.29768845
0.13846217 -0.032038514 0.32003456 0.2096156 -0.13388559 -0.06552602 0.14458531 -0.16606927
0.23487687 0.049056325 0.053040322 0.24941191 -0.29732493 -0.08786903 -0.2307676 -0.16656645
0.1849657 0.1667433 0.2442749 0.2983458 -0.15443787 0.015084528 0.103723824 -0.08395962
0.15988794 0.2816675 -0.29546252 -0.120442405 0.17144981 -0.24196753 -0.049804408 0.14577028
0.039758243 -0.14878975 -0.0863899 -0.025134282 0.27581164 -0.19152412 -0.019299556 -0.08778284
0.30302498 0.20036404 -0.034886397 -0.16135572 0.26936612 -0.017584613 -0.14536543 0.2688581
0.07608749 0.035135552 0.24823983 -0.16148335 0.21316448 0.14210434 -0.19351824 0.25524828
0.0753172 -0.24784218 0.25745773 -0.25379625 0.028548561 0.08909373 0.18301378 -0.25738814
0.28285953 0.27159515 0.1419917 0.055643275 -0.2225737 0.23082715 0.040202517 -0.089523785
