checkpoints/tuning_multi/trial_28/final_model.pt (torch, 520443 bytes, 104 tensors)

encoder.feature_encoder.atom_embedding_list.0.weight f4 [119, 64]
00000000: f971 083f 8c1d e8bd 0626 cebd f658 7c3e
00000010: 44b4 6e3e d670 96be 9f14 34bd f353 dcbd
00000020: aa77 bd3e ad9f 843d 30cd 063f f725 8ebe
00000030: 7aad 7a3e 5fd8 b9be c458 d8be 4fde 053f
00000040: a86b 753e 0f49 013f 6445 bd3d 178a 403e
00000050: 233e 24bd c7b4 8cbd d544 91be 5a17 9e3e
00000060: 1e3f 22be 1efd 38be b84e 7ebe d8f1 9b3d
00000070: b2cb eabe 119b dabd 2334 34be 9150 a03d
00000080: 90c9 81be bac2 22bd ec3e 7a3e d82e f33d
00000090: 7f91 09be d468 9a3e b8f7 02bf e409 523c
000000a0: 37cd cabd ea95 1e3e a178 43be 50d4 293e
000000b0: 1d98 0ebe 6315 29bd 9db3 4cbb 1d13 5d3e
000000c0: f8c7 0e3f e773 a1be b360 3c3e 8984 bebd
000000d0: 4b27 09be b385 e5be f0a1 debb b708 bbbe
000000e0: 224d f83e e802 d43e 0e78 81be 618a 863e
000000f0: cc98 2abe 4901 183d 426a 9b3e d63d 013f
00000100: 1a36 9fbe 7607 b23b fe97 febd 5cb6 8cbb
00000110: 2c60 283d 2bde 2c3e 3e28 f3bd 3098 573e
00000120: dea5 dabe be64 323e 8eff 32bf 6ae9 d0bc
00000130: 8c70 15be ef0b adbe 4151 373f c635 d3bd
00000140: 03c4 313e f239 82be 705c c6be ff05 5b3e
00000150: 0f4b 263e 1d4d b5bd ff61 dd3e 5ec4 4ebe
00000160: ccfc e6bd 4760 adbe dbff f53e 021f 263f
00000170: ab48 2ebd f942 14bd f1a2 6f3d fa7e 493d
00000180: 4fd6 0f3d 88c9 ec3c 7bb2 1c3f fb56 8cbe
00000190: e483 69bd 8511 0c3f d95d d63d 2cc0 073e
000001a0: aede 88bd a81c 15bd 292c 1d3f 8cd0 74bd
000001b0: e3c3 293e 2e1d 6dbe 81b1 1abe 4152 f13d
000001c0: a60e f9be ad27 323f 6c72 c93d f53c 8abe
000001d0: 4620 e936 c238 f5be b607 87be 38f0 04be
000001e0: b75c 37be 97f6 0fbe 2c11 053f ca19 4a3e
000001f0: 9e8e e8bd 76cd 85be 326a fe3d d7db 483e
00000200: 8f1e a73d 9080 86be 9ad5 cc3d a8f0 dbbd
00000210: c30f bb3e 2090 ebbc 47fb 8ebe e105 dabb
00000220: 720e 03be 16fe 2c3e be49 093e 70c5 d63d
00000230: 35d9 f4bd ce91 ca3d 1934 24be 5257 10bd
00000240: 7f03 343d c4ca 1c3e 0f21 71bd fd33 833e
00000250: 9472 b7be 0d26 05be f9f2 b1bd 9f1e 04be
00000260: b2b7 9ebb 7856 59bd 581b 87be 99a8 053d
00000270: 1863 0bbe e82c 193e ed4d 763d e02e 86be
00000280: fa85 03be 087c 0abe eaa5 59be e30d 55be
00000290: 2d0c 8cbc 1162 e8bd 95bf 02bf 3d6f 31be
000002a0: f1fe e0bc 4936 1e3e 7155 893d 1c77 803e
000002b0: cea9 afbd 90c5 883d 117a 34bd 6afa 84bc
000002c0: 356c ad3d 9f2c dbbd 857f 9abe f4f6 21be
000002d0: f47d 88bd f41e 8cbc 25e4 c4bd a8f4 9a3d
000002e0: 1734 ebba 0103 923c 75b7 72be 96b7 d03d
000002f0: dd42 b5bd 0810 0cbe de2f 9dbd 6cd9 a8be
00000300: 477c 0dbe 8f33 0a3e 83ba 173e aebf 00be
00000310: c7cd 203d 0cf8 bebd d276 2d3e 285a e23d
00000320: cc67 933d 7021 17be 545c b6bd fcd3 1bbd
00000330: 8abb 25be 78ae d8bd 3b3a 433d eee6 16be
00000340: 244b 453d 2f8d 87bb 8343 74bc 309a 58bd
00000350: 8941 c7bd 3e50 2dbe 9f4e fcbd aefd 0b3e
00000360: 18db 5bbc 3182 343e 4f5c 1c3c e3cc aebc
00000370: b458 de3d ea85 2ebe 14cf e5bd 6aaf d43d
00000380: ed62 41bd 48a7 123e 7968 87bc 7d30 043e
00000390: 500a 103c e300 9a3c 7d91 1cbe 431d 80bd
000003a0: efb4 143c 3265 a93d 8bdd 0f3d b2fc 20bd
000003b0: 5a31 a03a 3759 1f3e 2954 f73d a507 7d3d
000003c0: a095 05be 7f56 79bd efb6 ec3d e9dd 263e
000003d0: 5845 afbd 2b87 9d3d 7da0 2dbd b933 eb3d
000003e0: dad7 debc 1e59 13be 507e 37be 3044 debb
000003f0: 479b 5a3d 3e90 dabd 0cd7 113e 40db af3d
0.5329891 -0.113337606 -0.10065846 0.24643311 0.23310953 -0.29382962 -0.04396498 -0.107581995
0.3700536 0.06475768 0.5265684 -0.2776334 0.24480239 -0.3629789 -0.42255223 0.5229234
0.23966849 0.50502104 0.09241751 0.18802677 -0.04009832 -0.06870418 -0.28372827 0.3087719
-0.1584439 -0.18065307 -0.24834716 0.076144874 -0.45858532 -0.10674108 -0.17598014 0.07827867
-0.25349092 -0.039736487 0.24438065 0.11874169 -0.13434409 0.30158103 -0.5115924 0.012819741
-0.09902423 0.15486875 -0.19088985 0.16584897 -0.13925214 -0.04128016 -0.0031234988 0.21589322
0.5577388 -0.3153374 0.18396263 -0.09302623 -0.13393895 -0.44828567 -0.006794207 -0.36530086
0.48496348 0.41408467 -0.25286907 0.2627745 -0.1665985 0.0371106 0.30354506 0.5048498
-0.31095964 0.0054330183 -0.12431334 -0.0042942 0.04110734 0.16881625 -0.1187291 0.21054149
-0.42704672 0.17421243 -0.69921196 -0.025501925 -0.14593714 -0.33798167 0.7160836 -0.10312991
0.17359929 -0.25434834 -0.387424 0.21389006 0.1623957 -0.08852599 0.43238828 -0.20192096
-0.11278686 -0.33862516 0.48046765 0.64891064 -0.04254977 -0.036196683 0.058505002 0.04919336
0.03511649 0.028904691 0.6120984 -0.2741011 -0.057010546 0.5471423 0.10467119 0.13256902
-0.06683098 -0.03640428 0.6139551 -0.0597692 0.16578631 -0.23155662 -0.15106775 0.11783267
-0.48643988 0.6959179 0.09836277 -0.26999632 6.9476982e-06 -0.47894865 -0.2637307 -0.12982261
-0.17906462 -0.1405891 0.5197933 0.197364 -0.11355327 -0.26133317 0.12422599 0.19615112
0.081601255 -0.2626996 0.10001679 -0.10739261 0.36535463 -0.028755248 -0.27926084 -0.006653533
-0.12798479 0.16893801 0.13407037 0.10486877 -0.119554915 0.09891091 -0.16035499 -0.035239525
0.043948647 0.15311724 -0.058869418 0.256256 -0.35829604 -0.13002796 -0.086889215 -0.12902306
-0.0048436755 -0.05306098 -0.2638805 0.03263149 -0.1361202 0.14958537 0.06013291 -0.26207638
-0.12844077 -0.13523877 -0.21254697 -0.20806079 -0.01709565 -0.1134683 -0.5107358 -0.1732759
-0.027465316 0.15450396 0.0670575 0.25090873 -0.085773095 0.06678307 -0.044061724 -0.016232688
0.084679045 -0.1070187 -0.30175415 -0.15816861 -0.06664649 -0.017104603 -0.096138276 0.07566196
-0.0017944601 0.017823698 -0.23702796 0.10191266 -0.08850644 -0.1367799 -0.076751456 -0.3297838
-0.1381694 0.1349623 0.14817242 -0.1257312 0.039258745 -0.09324655 0.16939858 0.11052352
0.07197532 -0.14758849 -0.08904329 -0.03804396 -0.16184822 -0.10580152 0.047662955 -0.1473653
0.048167363 -0.0041367034 -0.014908674 -0.05288142 -0.09729297 -0.16925141 -0.12319683 0.1367099
-0.013418935 0.17627789 0.009543492 -0.021337932 0.108567625 -0.17043272 -0.11221138 0.1038502
-0.047213484 0.14321625 -0.016529309 0.12909122 0.008791521 0.018799251 -0.15289874 -0.06255581
0.009076341 0.082712546 0.03512339 -0.03930349 0.0012221739 0.15561377 0.12076599 0.06177487
-0.13045359 -0.060873505 0.11558329 0.1629559 -0.08558148 0.07691797 -0.04238938 0.11484475
-0.027202535 -0.14389464 -0.17919278 -0.006783031 0.05337074 -0.10672043 0.1424219 0.085867405

encoder.feature_encoder.atom_embedding_list.1.weight f4 [5, 64]
00000000: 3154 39be 2b9b 6cbd 8a2d fd3c d0e0 ab3c
00000010: 5d55 39bd 6722 863e 5d21 ce3e 83cb 0c3e
00000020: e78a 35bd 93f1 133f c77b 573e 60b0 60bc
00000030: e2a4 aabd 3001 c9bc 52a3 07be a9e4 0d3d
00000040: 4faf 513e 0614 75be 0d05 d4bd ed85 8bbe
00000050: a355 8bbd 6cab 9abe a0a1 953e 5aac 0dbf
00000060: bc87 e7bd 3efd a63c 344c 553e 04b6 963e
00000070: 7132 ca3a d61e 1abe ca0a 89be 90ec 53be
00000080: e628 833d 3e59 4ebc d445 783e 910e dbbb
00000090: a173 82be f44f 4abe 313a acbd f53f 5a3a
000000a0: 5e69 7a3d 3aeb b0be c3a6 35be 77db 95be
000000b0: ee90 dd3d 0080 053e 7b9b dabc 9870 803e
000000c0: c63b 013d d2c5 103f 292a 10be c0af 87be
000000d0: 23b1 18be 5944 063e 34b4 633d 61b9 b63c
000000e0: c4d9 9bbd 546f 65bd 4f0b 3bbc 4d58 853c
000000f0: f965 75be 591c 6ebd 1b90 833d 9b57 733e
00000100: ec02 603e 9539 a3be 0fe9 4cbe 41c4 49be
00000110: ff61 a1bb 8429 ddbe 783f c9be 7f7e f8bd
00000120: 5e08 15be 9a6d c3be db18 bdbc 4f09 b9bd
00000130: 7d82 1abd 27cd 063d 10ae 86be 99e0 323e
00000140: 75bc ba3e 0e97 c53e 1382 033e febb 9b3e
00000150: 5c25 763d 9484 9bbe 2ad9 b3be 4908 cf3e
00000160: 3285 d0bd 3434 d5be a5ba e7bb 519d 06bd
00000170: 1cdb 59bd 8fdd 64be 1ab7 10be 1d36 07be
00000180: eb73 2fbe f4d9 0dbe 5b53 d23e e6f4 453e
00000190: 4d53 ae3d 4fb4 bebd f1c0 f9be 8dfb af3d
000001a0: 543a ccbc 7427 dfbd b3b3 7dbb 81e9 c83e
000001b0: bb7d e63d f3b1 a3be 6d46 ec3d 7d70 dbbd
000001c0: 7884 c03e 9bb5 22bf f3cb 873e adc9 e0be
000001d0: 103a a7bd 75c7 17be b26e 833c d649 e8be
000001e0: e76d 87bd 9af3 f53e 2aba b5bc 28d6 683e
000001f0: 2915 83be 1d2d ddbd 8b5b 183f 2d29 d4be
00000200: 5fef c6bb d940 143d ae28 073c e866 643e
00000210: b1eb 2cbe b4b1 083e 3803 8b3e 31d9 58be
00000220: 5478 6cbe e311 cc3d 3b59 d6bd 08e1 d9bb
00000230: 0ecc 8cbe e667 383e 1e73 9fbc 7779 943c
00000240: 4fe3 d1bd 1a9b d13d 1f6b 9ebb 43a5 f0bd
00000250: 74fa 953d 4d32 e0bd 4f16 e03d 8790 90be
00000260: 7da2 e9bd beda 4ebe 976d 003e 1200 54be
00000270: adeb 693e c801 933d 1106 393e c7ee 44be
00000280: 8340 75be 0d2b 46bd ccdf 25be 8b84 ccbd
00000290: f62b 783e fd59 213e 8564 b2bd 2052 373e
000002a0: 8f37 4abe cf6c 2fbe b5b5 053e fd52 023e
000002b0: 8893 aebd 4805 4ebe f0be 3c3d 639b 913e
000002c0: 0e8e 943e fdaf 773e 9766 62be ca1f 483e
000002d0: 8926 5d3d 980c 75be ff1b 9b3c 84c3 91be
000002e0: 289b 813d aeff 25be fc20 4bbe d50b 6b3c
000002f0: 519f 4b3e 0972 293e ded2 3abe 06b7 2b3e
00000300: c0a9 e03d be89 49be 1fbb 9bbd 56ae 90bd
00000310: 2563 75be c3b9 89be 7802 4dbe 7036 893e
00000320: 346c a0bd d5d7 e73c 75b4 7abe 44b8 4fbd
00000330: 1420 e43d 53c5 c3bb 3fcb bdbc 73ab 80bb
00000340: fffd 4a3e fdad 54be fa8a 87be 1a62 91be
00000350: 3e86 f53d ec29 28be ca06 04be 62b7 1fbd
00000360: 74fb 303e 36ec 273b 5861 6c3d ef98 a9bd
00000370: 0e4c 243e 9e99 16be d1b7 683e a083 783e
00000380: 15c6 87be 062f bfbd 3781 11bd ab8e 22be
00000390: 74aa 813c 562d c6bd 15f2 793e a412 bfbc
000003a0: 9ec0 28be bce6 15be 2b10 8dbe 878b 39be
000003b0: a876 6a3d 3862 b63d 551a 02be 1a96 443b
000003c0: 0d78 173e b19d 1f3d c207 083d 810c 46be
000003d0: 07e8 8d3e 5c40 b2bd bc3d c73c 4bb4 14bd
000003e0: f224 033e 7212 7abe 8765 893d a457 6abe
000003f0: ef4c 6e3e b801 eebd 8887 763d 70d2 9f3c
-0.18098523 -0.057765167 0.030905504 0.020981222 -0.045247424 0.26198122 0.4025983 0.13749509
-0.04432192 0.5779049 0.21043311 -0.013713926 -0.0833223 -0.024536699 -0.13245896 0.034641895
0.20477031 -0.2393342 -0.10352526 -0.27250615 -0.06803443 -0.3020891 0.29224873 -0.5534111
-0.11305186 0.020384427 0.2082985 0.29435742 0.001542641 -0.15050825 -0.26766044 -0.2069571
0.06404285 -0.012594519 0.24245387 -0.006685086 -0.25478843 -0.19757062 -0.08409537 0.00083255704
0.061135642 -0.34554464 -0.17739396 -0.29269 0.10818659 0.1303711 -0.026685467 0.25085902
0.031551145 0.5655185 -0.14078583 -0.26501274 -0.14911322 0.1311201 0.055591777 0.022305192
-0.07609895 -0.056014374 -0.01141627 0.016277457 -0.2396468 -0.058132503 0.0642397 0.23763888
0.21876115 -0.3187987 -0.2001078 -0.19703771 -0.004925012 -0.43195736 -0.39306235 -0.12133502
-0.14553973 -0.38169557 -0.023083141 -0.090349786 -0.0377221 0.032910492 -0.26304674 0.1746849
0.36471906 0.38591808 0.12842588 0.30416864 0.060094222 -0.30374587 -0.3512662 0.4043601
-0.10181655 -0.4164139 -0.0070718103 -0.032864872 -0.053187475 -0.22350143 -0.14132348 -0.13204236
-0.17134063 -0.13852674 0.4107922 0.19331703 0.08511982 -0.09311735 -0.48780015 0.085929014
-0.024930157 -0.10896197 -0.0038711845 0.3924065 0.1125445 -0.31971702 0.1153687 -0.10714815
0.37601066 -0.6355836 0.26522788 -0.43903866 -0.081653714 -0.1482218 0.016043995 -0.45368832
-0.06612759 0.48037416 -0.022183497 0.22737944 -0.2560208 -0.1079962 0.59514683 -0.41437665
-0.0060710157 0.036194656 0.008249445 0.2230488 -0.16886784 0.13349038 0.27150893 -0.21176602
-0.23092777 0.09964349 -0.10466238 -0.0066491403 -0.2749943 0.18008384 -0.019464072 0.018124325
-0.10248434 0.102346614 -0.004834547 -0.11750271 0.07323161 -0.10947094 0.10941755 -0.28235266
-0.11407945 -0.20200631 0.12541805 -0.20703152 0.2284381 0.07178074 0.1806872 -0.19231711
-0.2395039 -0.0483809 -0.16198653 -0.09986218 0.2423552 0.15756984 -0.08710579 0.17902422
-0.19747756 -0.17131351 0.13057597 0.1272697 -0.08524233 -0.20119202 0.04608053 0.28438863
0.2901463 0.24188228 -0.22109447 0.19543377 0.053991828 -0.23930585 0.018934248 -0.2846948
0.06328422 -0.16210815 -0.19836801 0.014346083 0.19884993 0.16547407 -0.18244502 0.16769037
0.10969877 -0.1968145 -0.0760405 -0.07064502 -0.23963602 -0.26899537 -0.20020473 0.26799345
-0.07833138 0.028301159 -0.24482901 -0.05071284 0.11138931 -0.0059744506 -0.023168204 -0.0039266883
0.19823454 -0.20769496 -0.26473218 -0.28395158 0.11988495 -0.16422242 -0.12893215 -0.038993247
0.17283422 0.002562297 0.05771002 -0.08281123 0.16044638 -0.14707038 0.2272637 0.24268961
-0.26518312 -0.09335141 -0.03552362 -0.15874736 0.015828349 -0.09676616 0.24408753 -0.023324318
-0.16479728 -0.146388 -0.27551398 -0.18119632 0.057242066 0.089054525 -0.12705357 0.0029996694
0.1479189 0.038968746 0.033210523 -0.19340707 0.27716085 -0.08703682 0.02432143 -0.036304753
0.12807062 -0.24421099 0.06708818 -0.22884995 0.23271535 -0.116214216 0.060187846 0.019509524

encoder.feature_encoder.atom_embedding_list.2.weight f4 [12, 64]
00000000: ffc9 903e b4cd 65be d797 c7be f08e 3e3d
00000010: 50ee 333e e710 e6bd 2256 9a3e 1c25 f1be
00000020: 2552 253e b73e 173f 5d56 f3be 4ea9 99be
00000030: c56c c5be e581 b7be 0ab4 19bd d1d5 993d
00000040: 9bf4 dfbb 04f2 63bc fbf6 92be ede1 5bbe
00000050: 2fa8 78bd 8fa7 2ebe 1389 4d3c 5088 743e
00000060: db3b e1bd 0840 c8be 7b30 47bc 6a93 0a3f
00000070: aff5 adbe 0bdf 663d 9d93 7fbd d68c 243e
00000080: a0fb b5bc 8e2e e4bd 4995 af3e 50c1 063e
00000090: 78eb 97bd 2bc5 903e 0682 f13d a721 8fbe
000000a0: 0b23 86bd a1a1 213e bdc1 f83e dec5 273d
000000b0: d22c bd3d 8a9f a1be c54f a0bd b484 40be
000000c0: c85d d13e ff55 fa3d 87ad 5c3e 7659 c9bc
000000d0: 59ed 84bd 3d54 21bf ce57 edbd f95b c9be
000000e0: a649 b13e c4e5 423e 326b 713e 7f83 193e
000000f0: 55d8 41bd 7175 c6bd ae4c 6b3e 60f3 f4bc
00000100: 7e31 45be e351 85bd 5735 a7bd ec50 c3bd
00000110: 59db c33e a2ec b2be 8b8c 99be deb1 15be
00000120: 48a6 08bf 0540 90be 94ac 0d3f 0b5e 21be
00000130: 1880 2f3e d567 9bbe daf4 3a3f a72d 8c3e
00000140: 1f80 a9be 8d57 da3e 3098 ae3e 5185 233f
00000150: 8ae0 2b3f b5bc 6f3d 5439 8fbd 3e70 453e
00000160: ba1b 86be 766e a0be a6c8 583e fd2e e83e
00000170: b5c3 29be 681f a83d ff83 29be d002 eabc
00000180: 3279 14be 8e07 aa3e b1e1 e33e b58e 85be
00000190: 33ae 08bf e861 303f dd34 553e e80d d1bb
000001a0: 1d07 53bd dd7f 383c 6cab 033e 4cf6 0c3f
000001b0: 9b84 c2be 20dc e0bd f5a4 3e3d 6e9d 37be
000001c0: 3870 55be c159 403c 95c8 78bc 3fd9 cdbe
000001d0: 681e cebd 7b4a 1ebf 7fe3 28be eb78 38be
000001e0: c03e a23e f7e2 673e 5425 893c 6b8b c53d
000001f0: e2f3 9f3d ae59 f8be 20f8 8d3e f951 273f
00000200: 23ae 6fbf f89c 373e 2e83 7f3d c8f7 993e
00000210: 95f1 57be 28e6 363f b0b5 05bf 5fd5 88be
00000220: a44b 94be 0364 c63e d4fa 13bf 70c4 9cbc
00000230: 9e81 eb3d 8768 963e 6151 fc3d aa57 c9bd
00000240: 6a3d 1fbe 01c8 2ebf 1e85 92be 5379 93be
00000250: 4956 903d 4904 433c f5ec 43be 7896 32be
00000260: 1b6f 083f 871f e23d 15c5 c8be 7045 f23d
00000270: 5e05 a4be 949d 62be c5a8 793e e958 943e
00000280: f3e7 35bd d81d 7abc ff23 493d f2e0 85bd
00000290: 296d dfbd 257e 2bbd bbf5 b93e 5f25 38be
000002a0: bae0 cabd dbd0 5abe 712a 2fbd 1000 3e3e
000002b0: 1832 453f 2a15 f3be 9e12 f2be 45a0 e9be
000002c0: 0f9f 733e dc8a ed3d 92f3 2bbf 3379 123e
000002d0: 78d9 033e ffc7 26bf c427 babe be87 6dbe
000002e0: 1b19 4bbc 17f1 a9bc 2cd6 2abe 2222 d9bd
000002f0: 1b66 51be 77d6 da3e 3d56 1abf dbe8 fbbe
00000300: b242 883e afa6 9d3b 7b29 08be 68ec abbe
00000310: 0196 993e e7df 1d3e e409 503e d458 b23e
00000320: 551f 9fbd f565 f4be bb2e 203f 799a 17be
00000330: a0be 7ebe b417 b5be 7190 05be 4fed 4c3e
00000340: 6b0e 3e3d adf9 963e 07bb a83b d9df ca3d
00000350: 86bf bc3c 06a6 903d 8252 5abe 15b2 1dbe
00000360: 7900 12bf 4890 76be 1ecc a4be b718 f3be
00000370: 0895 233f 4467 933d 181d 1cbe abe0 a93e
00000380: a84c 143e f4a4 ecbe a362 90bd 812e 1cbf
00000390: 305d 0bbe b39f 03bf 20ce 4bbe e5e2 80be
000003a0: 5221 41be 6810 67bd 0839 b1bd 0d81 88be
000003b0: 6c46 fcbe 2059 3b3e 92fc 023f 0442 0cbe
000003c0: 5664 85be d481 0abe 35e0 843e 07fa a63d
000003d0: 724b 21bd 0ce6 e13e 369d 033e 2929 d43d
000003e0: 1502 9f3e e510 3dbe 1a71 883e 38a8 b03e
000003f0: e8f0 21bc c46d d2be efb1 fa3e da40 5fbd
0.2827911 -0.22441751 -0.38983032 0.046523035 0.17571378 -0.112336926 0.3014384 -0.47098625
0.16144617 0.5908007 -0.47526827 -0.30011982 -0.38559547 -0.3584129 -0.037525214 0.07511485
-0.006834579 -0.0139126815 -0.28704056 -0.21472903 -0.060707267 -0.17056106 0.012544888 0.23880124
-0.10997745 -0.39111352 -0.012157555 0.54131186 -0.33976504 0.056365054 -0.062396634 0.1606935
-0.02221471 -0.11141692 0.34293583 0.1315968 -0.07417959 0.28275427 0.11792378 -0.27955362
-0.06549653 0.15784313 0.4858531 0.040960185 0.092370644 -0.3156703 -0.07827715 -0.18800622
0.40891862 0.12223434 0.2155057 -0.024578791 -0.06490583 -0.6301916 -0.11589013 -0.39327982
0.34626502 0.19032961 0.23576048 0.14991568 -0.04732545 -0.09690369 0.2297847 -0.029901206
-0.19257161 -0.06509759 -0.08164471 -0.09536919 0.38253286 -0.34946162 -0.29990038 -0.14618632
-0.53378725 -0.28173843 0.5534146 -0.15758531 0.17138708 -0.30352655 0.73029864 0.2737858
-0.3310556 0.4264492 0.34100485 0.638753 0.67139494 0.058529574 -0.06993356 0.19281098
-0.2619303 -0.31334275 0.21170291 0.4534835 -0.16578563 0.08209115 -0.16554259 -0.028565794
-0.14499357 0.3320889 0.44508126 -0.2608544 -0.53390807 0.68899393 0.20820947 -0.0063798316
-0.051520456 0.011260954 0.12858361 0.5506332 -0.37991795 -0.109794855 0.046544034 -0.17931148
-0.2084359 0.011740149 -0.015184541 -0.40204808 -0.10064393 -0.618324 -0.16493033 -0.18014877
0.316885 0.22645174 0.016741432 0.096457325 0.07810189 -0.4850592 0.27728367 0.65359455
-0.93625087 0.17930973 0.062380962 0.30071855 -0.2108825 0.7144494 -0.5223036 -0.2672529
-0.2896396 0.38748178 -0.5780461 -0.019136637 0.11499332 0.29376623 0.12320209 -0.09831174
-0.15550771 -0.6827393 -0.28617185 -0.288035 0.070477076 0.011902877 -0.1913336 -0.17440212
0.53294533 0.110411696 -0.39212862 0.118296504 -0.32035345 -0.22130424 0.24380787 0.28974083
-0.044410657 -0.015265904 0.049106594 -0.065370455 -0.109094925 -0.041868348 0.3632029 -0.17983006
-0.099061444 -0.21368735 -0.042765085 0.18554711 0.7702956 -0.47477084 -0.4727983 -0.45630088
0.23791145 0.11598751 -0.67168534 0.14304046 0.12875926 -0.6514892 -0.36358464 -0.23196313
-0.012396122 -0.020744843 -0.16683263 -0.106022134 -0.20449106 0.4274175 -0.6028784 -0.49201092
0.26613384 0.00481113 -0.13297074 -0.335788 0.29997256 0.15417443 0.20316273 0.34833395
-0.07769648 -0.47734037 0.62571305 -0.1480502 -0.24877405 -0.35369647 -0.13043381 0.20012401
0.04640047 0.29487363 0.0051492485 0.09905977 0.023040544 0.070629165 -0.21320537 -0.15399964
-0.5703197 -0.24078476 -0.3218698 -0.47479793 0.6389928 0.07197431 -0.15245473 0.3317922
0.14482367 -0.462196 -0.070500635 -0.6100846 -0.13609767 -0.51415557 -0.19902849 -0.25173107
-0.18860367 -0.05641213 -0.08653456 -0.26660958 -0.49272478 0.18295717 0.5116664 -0.13697058
-0.26053113 -0.13526088 0.25952306 0.08153158 -0.03937859 0.44120824 0.1285294 0.10359413
0.31056276 -0.18463476 0.2664879 0.3450334 -0.009884097 -0.4109937 0.48963878 -0.054505207

encoder.feature_encoder.atom_embedding_list.3.weight f4 [12, 64]
00000000: 2656 ac3d d25f 153f 7020 a93d e6dc 3a3e
00000010: 0534 0e3f a5ed baba ea78 c8bd eb04 dcbe
00000020: 37af 3d3e 26fa ddbd 45f9 d63e 9aa4 0dbe
00000030: b3fb 783e f8ef f4bb 53ae 433e 1ff8 b13e
00000040: 306c 77bd 264b 1d3e c958 fbbe 76ba 0ebe
00000050: 7890 a73e d4c0 85be 69d9 bf3e 9fe1 643e
00000060: 0861 84be 1fb8 15be c703 e53e fa3a 0e3f
00000070: 5772 e6be 8d88 a63e a442 babd 4c85 94be
00000080: 5e6e fabd df99 85bd 8f2b 283f 9a93 46be
00000090: 83de 98be 58d0 353f 154a ef3d 1a3f 9b3d
000000a0: 6004 1d3e 5842 26be 219e 363e 13af ee3e
000000b0: 902b 84be ffc2 32be 522c 46bc 05f0 2d3e
000000c0: 5286 66bd 6560 e4bd c91f bfbd e75c 9a3e
000000d0: 6037 babd 9ed0 d4be 351e 5f39 7471 e5be
000000e0: fa16 183e 80cb 8b3e ae5b e6ba a3ee 243e
000000f0: 92b4 78be cc8c 323d 8e49 c23e c64d 963d
00000100: f91f cc3e 042e b43d b8ed 843d 0733 303d
00000110: adf6 21be 7bd1 9e3d 941e 94be a449 dc3d
00000120: b45f 223e d22a 193f 6d37 b6be ce5d 8bbe
00000130: ac27 84be 5f42 12be 2405 293e fe4b f8bd
00000140: ac61 f53e 7d06 1fbe 450d 06be ab40 233f
00000150: 55f6 d43c b7a9 423e 509a aebe 5f3a 203e
00000160: cf93 acbe 22cd ba3b c7f8 d3bc d46e 7c3e
00000170: b98d 8bbd eb62 d1be 07d6 96bd 024a 20bd
00000180: 6a2f a9be a6d1 653e 8ddb dd3d 1963 9abe
00000190: 95de a3be 9ca1 05bd d936 23bf 1473 49be
000001a0: 8982 9c3d a788 493d b092 e73e 02ac 5ebd
000001b0: e31d a73c 1a30 ebbe 398c e43d 90d6 323e
000001c0: 4551 b63d 6cec 623e 2569 b8bd 1bc8 0bbe
000001d0: 50b7 053e 283e 0bbf babf 70bd bbdf b9be
000001e0: b882 173e 4f85 f43e 73c8 08be 642f cd3e
000001f0: 8f8f 76be d222 16be 68af 923d 2d6b 583e
00000200: dee5 893c 9276 6cbd d2c2 9e3e 8292 d0bd
00000210: 65f3 ff3d 0d8f 6e3d 3250 8f3e 7f6c 313e
00000220: 4b75 f63e 8741 50be 7939 f5bd 6048 203c
00000230: c5a7 053e 709d 19bf 061f e33d 283d c23d
00000240: dce5 a0be 1acf 5a3e aefd ef3e 00a6 f93d
00000250: 9da7 1d3e 1007 8bbd 2b4c aabd 18cc cfbe
00000260: ba29 973e a6c9 d2be 8e51 01bf 854c e83e
00000270: 8bb6 b23d 555e f43d 57a5 70be f245 2cbe
00000280: bd45 f23d 9766 b63c 9885 c9be d775 663e
00000290: 6a01 1cbe 1aa1 76be 8d2f 0e3e f1bb 123e
000002a0: 262a 42be d377 2fbe ca97 3abc 0805 34be
000002b0: 4b26 e1be 9b22 093f da1c a0bd 3114 c73e
000002c0: da28 013e 59ab fc3c b56d 253e 1c41 5dbe
000002d0: 665f 43be 53a2 35be 8fb9 0c3d 0b75 17be
000002e0: 9ce1 9b3e 1008 d3be 6eb5 b4be e3e8 4f3e
000002f0: efdb 3dbe 5df8 b03d 24e6 97bd 670d 29be
00000300: d6a8 643c 7d04 bc3c ee86 233d ff48 003e
00000310: c05d bcbe f736 1ebe 2bc0 e2be 6e48 343e
00000320: ca70 a4be 3087 2c3f 9c3e 8fbe 0ea8 ec3d
00000330: 099a c3be e1a7 24bd 7c17 36bf 6abd 82be
00000340: f070 97bd b8b2 0fbe 97d5 b83e 6bd6 f3bd
00000350: ece8 313e c741 0b3e a72a 023e fb24 fabe
00000360: c9b7 f5be 12ca 323e 6d0f bf3e 7671 dabc
00000370: 5e07 7fbd 4a88 8abe f702 7bbe 0354 af3d
00000380: ce4f f3bd e0da b03e 30c3 d43d 2628 c1be
00000390: dde6 373e 24e0 fcbe 6a2a 0bbe 5729 57be
000003a0: da6d 143e 540b 67bc 6209 88be 7124 193e
000003b0: af25 99bd 84bf 58be fe86 b7be 3dd4 c0bd
000003c0: 6faf d83d 0696 19be acd6 e7be dc44 323e
000003d0: 8080 d23d 043f 6fbe 15bb 45be 0b2c 3a3e
000003e0: 42a2 12bf 0124 6cbe 3242 40bf 81f7 33bd
000003f0: 9b3b 8ebe 0944 b3bd 2bda 33be 8a3a f9bd
0.08414869 0.58349335 0.0825814 0.18248329 0.55548126 -0.0014261497 -0.097886875 -0.42972502
0.1852387 -0.10838728 0.41987053 -0.13832322 0.24314766 -0.0074748956 0.19109468 0.34759614
-0.06040591 0.15360698 -0.49091175 -0.13938317 0.32727408 -0.2612368 0.37470558 0.22351693
-0.2585528 -0.14621018 0.44729444 0.5555874 -0.4500911 0.32526055 -0.09094742 -0.29007947
-0.12228082 -0.06523489 0.65691465 -0.19392243 -0.29857263 0.7102103 0.11684052 0.07580395
0.153337 -0.16236246 0.17833759 0.46617946 -0.25814486 -0.17457198 -0.012095528 0.16986091
-0.05628044 -0.11151198 -0.093322344 0.30149004 -0.09092593 -0.41565412 0.0002127819 -0.4481312
0.14852515 0.27303696 -0.001757493 0.16106658 -0.24287632 0.043591306 0.37946743 0.07339053
0.39868143 0.08797839 0.06490654 0.043017413 -0.15816756 0.07754799 -0.2892958 0.10756233
0.1585682 0.59830964 -0.35589162 -0.27220005 -0.25811517 -0.14283131 0.16505867 -0.12123869
0.4792608 -0.15529819 -0.13091 0.6377055 0.025996367 0.19010054 -0.34102106 0.15647267
-0.3370652 0.0057007233 -0.025875462 0.24651653 -0.06814141 -0.4089578 -0.07365041 -0.03913308
-0.33043987 0.22443256 0.108328916 -0.3015373 -0.32005754 -0.032624826 -0.63755566 -0.19672805
0.07642085 0.049202587 0.452291 -0.05436326 0.020399993 -0.45935136 0.11159558 0.17464662
0.0890222 0.221605 -0.0900443 -0.13650553 0.1305821 -0.5439172 -0.058776595 -0.36303505
0.14795959 0.47757956 -0.13357715 0.4007522 -0.24078201 -0.1466172 0.07162362 0.21134634
0.016833242 -0.057730265 0.3100801 -0.10184194 0.12497596 0.058241893 0.27990872 0.17326544
0.48136362 -0.20337497 -0.11973853 0.009782881 0.1305228 -0.60005856 0.110899016 0.09484321
-0.3142537 0.21368065 0.4687323 0.12189865 0.1539597 -0.067884564 -0.08315309 -0.405854
0.29524022 -0.4116947 -0.5051507 0.4537088 0.087262236 0.11932055 -0.23500572 -0.16823557
0.11829708 0.022265716 -0.39359736 0.2250589 -0.15234914 -0.24084893 0.13885327 0.14329506
-0.18961391 -0.17135553 -0.011388728 -0.17580044 -0.43974528 0.5356843 -0.07818003 0.38882592
0.1261324 0.030843424 0.16155131 -0.21606869 -0.1907936 -0.17737703 0.03435665 -0.14790742
0.30445564 -0.4121709 -0.3529467 0.20303683 -0.1854093 0.086411215 -0.07416943 -0.16509019
0.013956269 0.022951359 0.0399236 0.12527846 -0.36790276 -0.15450655 -0.44287238 0.17605755
-0.321173 0.6739378 -0.27977455 0.115554914 -0.38203457 -0.040199164 -0.71129584 -0.25535136
-0.07394588 -0.1403302 0.36100456 -0.11906131 0.17374009 0.13599311 0.12711583 -0.4885634
-0.4799178 0.17459896 0.37316456 -0.02666543 -0.062262885 -0.27057105 -0.2451285 0.08560946
-0.11880456 0.34541988 0.103887916 -0.37725943 0.17959161 -0.49389756 -0.13590398 -0.21011864
0.1449503 -0.014101822 -0.2656966 0.14955308 -0.07477891 -0.21166807 -0.35845178 -0.09415481
0.10580336 -0.14998636 -0.4528097 0.1740908 0.10278416 -0.23363882 -0.19309647 0.18180864
-0.57278836 -0.2306061 -0.75101006 -0.04393721 -0.2777985 -0.08753211 -0.17563693 -0.121693686

encoder.feature_encoder.atom_embedding_list.4.weight f4 [10, 64]
00000000: e541 903e 5e84 263d 90b2 3dbe 549c ec3c
00000010: 37cc 973e 0a29 a9be 63ea 8d3d af40 8abe
00000020: c331 243e d82d 93be 6bce 00be d1ce 243d
00000030: 9752 c7be 15b0 f53d c0e0 aabd 7522 093f
00000040: 34eb bc3e 2133 f33e b578 f9be 0bd1 bd3e
00000050: 3461 f13a bfc3 b6bc b716 a7be dfa8 31be
00000060: 9f5c 02be ed15 963d 6e89 3ebe f555 603d
00000070: a856 60be e8cf 14bd 96a8 86be 0e4b 98be
00000080: 8c03 b9be b06b e2be a040 56bd 2fc2 aebe
00000090: 072f ce3e eb32 2abe 0f93 f6be 672f c8be
000000a0: cee7 2abe 42e1 93be 2e01 153f 21e0 e8be
000000b0: d217 fbbd 3268 44be 7b31 563e a93e 1b3e
000000c0: 7883 173e 96b5 263e 5796 813d bba4 1abe
000000d0: 5de2 15be 3e69 82be e04c cabd 50f4 44be
000000e0: 42de 2a3f b7f4 bcbd ee34 26bd cea5 1a3e
000000f0: 1e60 933d f8d5 2e3d bf74 f53e e243 2f3e
00000100: 43bb e2bc b04e 403e d340 8d3e 9af3 983e
00000110: 1c2c d23c d72f b83c 1df8 833e 3456 083f
00000120: bc3f 2ebe 11b8 8f3e 954e 72bc 6a80 ecbe
00000130: b37c 0e3f ea70 593e ce0f 59be 5468 b0be
00000140: fcfd 1abe 5ff0 1cbe 6902 163f 8364 67be
00000150: b8ed 69bd f9d4 d83d 4c95 893e bf20 813e
00000160: aa25 b53e 3c5b 87be dc79 9c3e d32a 6e3e
00000170: 5cef 923e cd64 52be ef8e a63b 4391 97be
00000180: 28e7 bc3e e565 08bd 9d68 113f 46fe 253e
00000190: 6ec4 c1be 2092 103f 790a 073f 7368 f8bd
000001a0: 4c31 bebc c9a6 00be 9ba5 24bf 47ac b23e
000001b0: 351a 01bf 0e87 473f e467 27bf e8fb d3bd
000001c0: 42c3 80be df3f 843e ff95 0c3f 797f 5cbe
000001d0: 7bb6 54be d2ea 9a3e 370e b5be 313b c0be
000001e0: 4d3c 26bf 0209 c63d db1c db3e 1ead 713e
000001f0: f5e1 2f3e 54dd 30bf acca 6abe 7a9f 4e3e
00000200: be89 55bf 2735 a23e c915 943d 747b e5be
00000210: 7073 1fbf a341 50bd 7c76 1cbd d1fd 6bbd
00000220: 2a10 893b 6169 b73e 9a85 8cbe 0b44 0c3c
00000230: 55c1 b43d 1475 33bf c22c 9dbe ead9 c3be
00000240: 909f 1b3e 7731 b8be 0dbb 28bd 0db4 493e
00000250: c1c4 bdbe 3d45 a23d f5a4 bc3d 83db adbd
00000260: c01d 60be 2454 f63d 595e febd ec06 103d
00000270: 888a a3be ec95 c5bc f5f1 2cbe a38e 01be
00000280: 1a7f b6bd 981c 223d 999c d4bc f88b 303f
00000290: 4752 7fbe bc91 e8be 2530 afbe a215 82be
000002a0: bb9c cd3e 84cd 97be 8b24 5abe 67a0 46be
000002b0: 09e9 2bbd 6ea3 eebe 5aab 25bf 12dc 8cbe
000002c0: 1106 4cbe e6fa bfbe 66cf ab3d 4d1f 88be
000002d0: 819b 013d 7e75 76bc 0274 853d 47ea bd3e
000002e0: 51a7 08be c260 813e 28c6 e2be c8ed 94be
000002f0: 5d5b 41be 2c67 fb3e 46cb 0ebe ecd3 3bbf
00000300: 2f93 e7be ea4f 8dbd 1fb9 813c ebdc aebe
00000310: ac42 b03c b320 88be 6079 a83e a74b 97bd
00000320: 76f8 cd3e 34ee d9be 9e3a 663e 11c6 87bc
00000330: 0faf bfbd 5f6d b8bc b316 de3d 1828 14bf
00000340: 37af 843e 3d16 923e 0e6b babe 7816 b0bd
00000350: 6323 683e 608f 033e 8c24 3dbd c670 52be
00000360: 384e 20be 3a45 a0be 84b3 c3bd 5844 b1be
00000370: 85ab c4be 0a01 393e 3fd6 6a3e 7f5f d5be
00000380: 6e03 3e3e 75a2 723e 7d64 573d cb09 ab3e
00000390: 3f70 8abe 2e30 54be e91a 08bf 73ef 49bd
000003a0: 3c0b 52be 066b 8fbd 4bcd cfbc 1218 bcba
000003b0: e117 90be ab28 59be c36d ac3e af76 aa3e
000003c0: 27f1 cf3e 3384 a2bd c874 e2be 05bc e63c
000003d0: a07a 413d 3a1e 69be 05ff 12be bdc7 4f3e
000003e0: 6f47 9fbe 9b0d d93c 92ef d6bd 05cb 453e
000003f0: 6851 123d a7bd b63e 3489 59bd 782d 6e3e
0.28175274 0.04065358 -0.18525147 0.028883137 0.2964799 -0.33039123 0.06929471 -0.27002475
0.16034608 -0.28745914 -0.12578742 0.040236298 -0.389302 0.119964756 -0.08343649 0.535682
0.36898196 0.47499946 -0.48724905 0.3707355 0.001841581 -0.022310136 -0.32634518 -0.17349575
-0.12730645 0.07328401 -0.18607113 0.054769475 -0.21908057 -0.036331087 -0.26300496 -0.29744762
-0.3613552 -0.44222784 -0.052307725 -0.34132525 0.40270254 -0.16620986 -0.48159072 -0.39098665
-0.16689989 -0.28882796 0.58204925 -0.45483497 -0.12260403 -0.19180372 0.20917313 0.15160622
0.14796245 0.16280207 0.06327503 -0.15101902 -0.14637132 -0.25470918 -0.09877944 -0.19233823
0.6674539 -0.09226363 -0.04057782 0.15102312 0.07196067 0.042684525 0.47940633 0.17115739
-0.027677184 0.18780017 0.2758852 0.29873353 0.025655799 0.02248375 0.25775233 0.53256536
-0.170165 0.2807012 -0.014789243 -0.46191722 0.55659026 0.2123448 -0.21197435 -0.34454596
-0.1513595 -0.1532607 0.5859743 -0.22596936 -0.057111472 0.10587496 0.26871717 0.25220296
0.35380298 -0.26436794 0.3056172 0.23258524 0.28698242 -0.20546265 0.005082957 -0.29603013
0.36895108 -0.0333003 0.5680025 0.16210279 -0.37845176 0.5647297 0.52750355 -0.12129297
-0.023216866 -0.12563623 -0.64315194 0.34897062 -0.50430614 0.7794045 -0.653929 -0.10350782
-0.2514897 0.2582998 0.54916376 -0.21533002 -0.20772736 0.3025728 -0.35362408 -0.3754516
-0.6493576 0.09669687 0.42795452 0.23601195 0.1717604 -0.6908772 -0.22928876 0.20178023
-0.834133 0.31681177 0.07230718 -0.4482075 -0.6228552 -0.050843846 -0.038198933 -0.057615105
0.004182835 0.35822585 -0.2744568 0.008561145 0.08825938 -0.7010052 -0.3069821 -0.38252193
0.15197587 -0.3597524 -0.04119401 0.1969759 -0.37064174 0.079233624 0.092111506 -0.08489134
-0.21886349 0.12027767 -0.12420339 0.03516285 -0.31941628 -0.02411934 -0.16889174 -0.12652068
-0.089109614 0.03957805 -0.025953578 0.68963575 -0.2493373 -0.45423687 -0.3421642 -0.2540713
0.40158638 -0.29648983 -0.21303003 -0.19397126 -0.041970287 -0.46609062 -0.64714587 -0.2751165
-0.19924189 -0.37496108 0.083891675 -0.2658638 0.03164244 -0.015042661 0.06516267 0.37092802
-0.13345076 0.25269133 -0.44291806 -0.29087663 -0.18882509 0.4910215 -0.1394473 -0.7337024
-0.4522948 -0.06900008 0.015835343 -0.34152922 0.021516167 -0.26587448 0.32905102 -0.073874764
0.40228623 -0.42564547 0.22483298 -0.016573938 -0.09359562 -0.02251309 0.10844173 -0.5787368
0.25914928 0.2853259 -0.364098 -0.085980356 0.22669749 0.12847662 -0.046177432 -0.20550832
-0.15654838 -0.31302816 -0.09555724 -0.34622455 -0.3841211 0.18066803 0.22933291 -0.4167442
0.18555996 0.23694785 0.052586067 0.3340591 -0.27038762 -0.20721504 -0.5316606 -0.049300622
-0.20512098 -0.07002835 -0.025366446 -0.0014350435 -0.28143218 -0.2120692 0.33677492 0.33293673
0.40613672 -0.07935371 -0.44229722 0.028165827 0.047236085 -0.22765437 -0.14355095 0.20291038
-0.31109187 0.026495745 -0.10494913 0.19315727 0.035722166 0.35691568 -0.053109363 0.23259532

encoder.feature_encoder.atom_embedding_list.5.weight f4 [6, 64]
00000000: c4d9 13be 88ae 9bbd a147 07be 7759 013d
00000010: 05a5 553d 3022 843e 0e02 8abd c661 9cbe
00000020: ab5f 3cbe 2f56 c4bd 2ff6 8cbe 3b78 7abc
00000030: a26a 0a3e 00cd 26be ca73 85be 9ab0 2c3e
00000040: a34a 3cbe b467 4c3e 7605 0e3e e77b 993e
00000050: 6e8d c4bd c2d6 853a 793b c9be 7fbe 263e
00000060: 14cb 8ebd 3499 c6be 8743 d8be 0736 46be
00000070: 6a76 813d 6acd 87be a1c6 133e cad9 9cbe
00000080: d7f6 43bd 2632 e03d 9df6 1e3e bc84 d63e
00000090: 7d41 513d 40a7 80be f6af 90bb b300 30be
000000a0: d86f d6be 1476 6fbe 09fd 3dbf f379 8dbe
000000b0: d6f0 adbe 56fe 773e d99e da3d 4bd2 1c3e
000000c0: 6d6c f13d fc14 19be 0343 20be f809 93be
000000d0: d23d 96be 7b93 61be e3d0 95bd 7b49 823d
000000e0: 40ff 083e f3b8 0bbd ff83 813e a641 e73d
000000f0: 6754 fe3b 3a05 7c3d b936 bbbc 1939 e43d
00000100: a6bc a0be a369 563e 50bc b4bc 6d8d 3f3e
00000110: 512e 3abd a90a c83c 4d1f 133f 81e7 9dbe
00000120: 7d85 033d db40 2a3e 1b7b 023f 953a 6a3e
00000130: 7701 8f3e c9b3 f7bd 7c11 7d3d bc92 8e3e
00000140: 3197 183d 99e8 c6be 3ee4 56bd c0b9 84be
00000150: af72 c83e 6f8a a3be 5796 9b3e 7746 eebe
00000160: 6d24 b0be d723 6fbb 994c 033f 69ae f53e
00000170: 5cf5 30bf 3270 97bd 1c1d 09bd f617 cf3d
00000180: e3a7 dabe 828e 2b3e 6e06 5f3e 6daf b5bd
00000190: 24d6 20be 3ccc 513e e420 56be b297 16be
000001a0: a3be 2dbe a8f8 a2be d9d0 2c3f 29c7 003f
000001b0: ce30 773e a008 41be 77ef 0bbf 1fea f43e
000001c0: 221c 15bd b4ff 593f 70cd d63d 0f5e ff3d
000001d0: ea93 70be 7f38 edbe a9be a6be 28a4 8abe
000001e0: 58e0 1c3d eb8d 37bd 96dc 0bbe 1b09 da3d
000001f0: 8dee e03c 96bf cbbc a9ca 9c3e 85fd 993e
00000200: 8dfb 9e3e b621 903d 829b bdbd d350 c63e
00000210: 0c8c 9abe 9b98 d5bd ba54 a83e 09a8 e1bd
00000220: 2e55 0b3e 718e 4cbe 0b1a d63e aa22 443e
00000230: a6bf 60bd c449 373e 968b f6be dcc5 aebd
00000240: 9ec3 cb3d b8a6 ba3e 29a3 293e 1e8d 94be
00000250: d7b5 afbd 72bf a53d fb94 573e eb1a 943e
00000260: 7fb5 c53d ffd3 843e cdab debc 976e 183e
00000270: d6ed 7bbe 9023 41be 3708 e83d bdfd c23d
00000280: d3f3 f93d 9e53 f93e 77a2 92bd c9d7 12be
00000290: f65b 02be d19e ea3d fbc3 c83b 4d34 1abe
000002a0: 8eaa fabd 4b77 e53d 0a85 1c3d efa5 e83e
000002b0: ec1b 1d3e c6c1 4ebe 9b0e 2fbc f06b 09be
000002c0: f232 f43e 64eb 88be ee82 ba3e a91c 563e
000002d0: 2881 6abe e301 593e 2f17 513e 9808 11be
000002e0: ee82 74be 56e1 02be 83f6 ff3d 2856 72bd
000002f0: 8dc3 d23d 18fe 043c 12a4 513e 5a8f 413e
00000300: b343 8f3e bc23 5fbe 06fc b2bd 5fb9 413e
00000310: fa5e c73d abc2 17be e772 75be 444c 62be
00000320: a276 7abe eca2 25be 269c 35be e501 adbd
00000330: d3d6 813e 631b 9fbd c142 39be 3687 123e
00000340: c068 30be 7d00 16be ed1e 46bd 5e90 13bd
00000350: 33d6 38be 5a62 6ebe 8047 92be 0e45 febd
00000360: f3da 173e 0c5d c03c def0 6e3e dbf1 4f3d
00000370: 88de 60be 49e5 e13c 5596 99bd 43b6 293e
00000380: 7f18 a33d 0a59 943e 0d5b 86be 8ca5 0ebe
00000390: 616c 7ebe 865c d53c a30f 3fbe 88ee f8bd
000003a0: 600c 8f3e b5d8 c8bd 1076 133e 31b5 403e
000003b0: 9762 593e 8532 753e 5ae4 383e 2ea1 ed3c
000003c0: 3fe9 7c3e 8705 913e 45c3 4ebe b661 7a3d
000003d0: a53b 4e3e efa3 4abe 8c46 eb3d 9b24 3b3e
000003e0: f7a0 153c ee4b adbd 294f c6bc 315a 823e
000003f0: 0855 6dbe d1d7 ed3d 153d 22be 5446 4a3e
-0.1443854 -0.076016486 -0.13210918 0.03157946 0.052159328 0.25807333 -0.06738673 -0.30543345
-0.1839587 -0.09586751 -0.27531573 -0.015287454 0.1351724 -0.16289139 -0.26064903 0.16864243
-0.18387847 0.19961435 0.1386927 0.29977342 -0.09597288 0.0010211098 -0.39303187 0.16283606
-0.06972328 -0.3878876 -0.4223902 -0.19356547 0.06321414 -0.26523906 0.1443124 -0.3063491
-0.047842827 0.10947065 0.15523763 0.41898143 0.051087845 -0.25127602 -0.0044155074 -0.17187767
-0.41882205 -0.23384887 -0.74214226 -0.27632102 -0.33972806 0.24218115 0.10674829 0.15314595
0.11788259 -0.14949411 -0.15650563 -0.28718543 -0.2934404 -0.22028916 -0.073152326 0.063616715
0.1337862 -0.03411193 0.25296018 0.11291818 0.0077615264 0.061528422 -0.022853242 0.11143703
-0.31393927 0.20938735 -0.02206245 0.18706293 -0.045454327 0.024419146 0.57469636 -0.30840686
0.032109726 0.16626303 0.50969094 0.2287391 0.27930805 -0.12094838 0.061784253 0.27846324
0.037253562 -0.38849333 -0.052463762 -0.25922966 0.39149997 -0.31941554 0.30388138 -0.46538135
-0.3440279 -0.0036489868 0.51288754 0.47984627 -0.6912439 -0.073944464 -0.033475026 0.10111992
-0.42706212 0.16753581 0.21779796 -0.088713504 -0.15706688 0.20488065 -0.20910984 -0.14706305
-0.16967253 -0.31830335 0.67506176 0.50303894 0.24139711 -0.18850946 -0.5466227 0.4783487
-0.036403783 0.85155797 0.10488403 0.12469112 -0.23493925 -0.46332166 -0.32567337 -0.27078366
0.03829989 -0.044813078 -0.13658366 0.10646268 0.0274575 -0.024871629 0.30623367 0.30076233
0.31051293 0.0703768 -0.092581764 0.3873354 -0.30184972 -0.10429498 0.3287714 -0.11018378
0.13606712 -0.19976212 0.41816744 0.19153848 -0.05487027 0.17899233 -0.4815337 -0.085338324
0.099494204 0.3645532 0.16566147 -0.29013914 -0.08579605 0.08093156 0.21052925 0.28926787
0.09653758 0.2594299 -0.02718153 0.14885937 -0.24602446 -0.18861222 0.11329692 0.09521053
0.12204709 0.48696607 -0.07159894 -0.14340128 -0.12730393 0.11456073 0.0061268783 -0.15059014
-0.12239562 0.11204394 0.038212813 0.45439097 0.15342683 -0.20191106 -0.010684635 -0.13420081
0.47695118 -0.2674209 0.36428016 0.2090937 -0.22900832 0.21192126 0.20419 -0.14163435
-0.2387807 -0.12781271 0.1249819 -0.059164196 0.102912046 0.008117221 0.20472744 0.1890234
0.27981338 -0.21790975 -0.08739476 0.1891837 0.09734912 -0.14820354 -0.23969613 -0.22099406
-0.24459317 -0.16175431 -0.17735347 -0.08447627 0.2535921 -0.077688955 -0.18091871 0.14309391
-0.17227459 -0.14648624 -0.048369337 -0.03602635 -0.1805046 -0.23279706 -0.28570175 -0.12415515
0.14829616 0.023481868 0.23334071 0.05076776 -0.21959889 0.027575152 -0.07499377 0.16573434
0.07963657 0.2897418 -0.2624134 -0.13930339 -0.24846031 0.026045095 -0.18658309 -0.12154871
0.2793913 -0.098069586 0.14400506 0.18819119 0.21229015 0.23945053 0.18055859 0.02900752
0.24698351 0.2832453 -0.20191677 0.06112834 0.2013994 -0.19789098 0.11488065 0.18275683
0.009132615 -0.08461748 -0.024207668 0.25459436 -0.23176968 0.11613429 -0.15843613 0.1975339

encoder.feature_encoder.atom_embedding_list.6.weight f4 [6, 64]
00000000: 5077 783e 4566 3a3d a663 89be 2ca5 583e
00000010: 588e debd 30b5 8c3e 0f9f d13e 40ca 093d
00000020: bdfa 513c e413 b03e 1456 1b3b c7e0 ebbd
00000030: b08b 8b3e 58ad e93c 1195 d2be a088 8cbe
00000040: b6a4 f53d 2c11 fe3d da55 93be f8e3 053e
00000050: 1393 93be 9617 62bd 48f8 ff3e 3529 b8be
00000060: a20c 9abe 68c4 8a3d 1ec1 e63c 6215 6d3f
00000070: 2da5 12be 839d 423c 7602 c0bc 8d99 183c
00000080: ff32 bebd 5cb0 89be d364 993d 53d0 76be
00000090: 95c7 76be 8b00 a43d 116b 363c 35fa 50be
000000a0: 92db b4bd 6e7e c5be 139d 193f 0618 5c3e
000000b0: 9840 bbbe 3225 c0be b1dc 54be b58b 373f
000000c0: 7113 4f3e 1c8b d53d 40c8 ebbd ddf4 e13e
000000d0: 4e7f 203e c7ef 6fbe 5950 9ebd 7bcd 91bd
000000e0: 3071 d73e d956 603d 8015 823e 5498 2ebe
000000f0: 6684 2a3e 7333 af3e 8a28 223e b0b1 2f3e
00000100: ae12 903e ecdd 863d 6d3c 20be e6a1 b7be
00000110: 68c3 103e 9a44 81be 2329 06be c23d f03d
00000120: b19c bebc 33a3 e93d fdf5 b0bd f3d0 35be
00000130: dcda 37be b3db babe 1b3a 863e 71b9 413e
00000140: 542d 383d 0309 f7bc 1174 61be edb6 833d
00000150: a694 8cbe 551c 86be 5834 b9be f7bd 733e
00000160: c463 28be 0b3d 85be 5ef6 71be 48f5 87be
00000170: f0d0 193c dcbc 3ebe 53fa 273d fb0a a3bd
00000180: e27a 793d 22e3 283c aec8 9e3d eaf6 47bf
00000190: 8362 6abc 2682 f23e 8567 643e 2cb6 de3d
000001a0: 06dd 0fbe e76b b2bd 0eca 15bd b6fb 133d
000001b0: 3af0 493e b6b2 1ebd d639 1b3e 901e 9dbe
000001c0: a1b4 543d 838a 0c3d fab9 31be 18cf 7f3c
000001d0: dd6a 10bd 444f ba3e 9fb3 b0be 9024 2a3e
000001e0: b91f 503d d846 8b3e 6957 9e3e 182b 443e
000001f0: e24c 81be e0e9 8c3e bf10 a7bc f69c bfbd
00000200: bb3b 54be ec99 ebbd 15ed 48bd 8a51 bf3e
00000210: d66c 7bbe 4a6b 8d3b ef97 2e3e 0c2b c33c
00000220: 1a08 673e e8f2 9a3e 1311 9bbe eece 523d
00000230: 6a18 9a3e bb39 b13e 1f9d 753e bd21 b4be
00000240: fb64 41be 7f79 b7be 4c10 433e 3739 78be
00000250: 4d04 553b 270a f2bd 78e6 babe d7d9 adbe
00000260: 6c8d b63e 0b1b 05bd 315f b3bd 77b1 27be
00000270: 2a8d b3be f4c8 9dbe 6c85 2abd 5dda d23d
00000280: 8792 f7bd f3fd eb3c 950c b33e 2840 223f
00000290: 02bb 623e a841 b33e 8dfd c73e 5f88 05bc
000002a0: 7038 9bbe db57 02bb c949 a33e 7307 b6be
000002b0: 3756 9abc 6081 81bd 5962 323e f2ec a33e
000002c0: 7ff3 39be 5f27 0fbe 178a 983e 9957 13bf
000002d0: 3804 e9bd a9cf b2be 3401 0d3e 5949 b6be
000002e0: 485d 2dbe a170 013d 02ad e73d 345e 08bd
000002f0: b153 c63d 53e4 8fbd 5847 de3d 6373 91be
00000300: 4f89 7f3e 8bb7 59be 1448 ba3e 0731 08be
00000310: f985 f8bd 68e1 e9bd beab 62be 0c35 903e
00000320: db3a a7bc cedd b53d 2a39 033e 386c 8cbe
00000330: ef74 a8be 39a4 e6bd ffa7 4abe 3d55 8cbd
00000340: 1008 de3d 5ba3 1cbf 01be d13e ed79 87bd
00000350: d6be 4fbe 2481 26be bed6 30be 3944 913e
00000360: a432 93be d497 8c3d c33f 38be a438 6abd
00000370: 2bf9 1f3e 22c9 4c3e f68f 3f3e 9ee0 bbbe
00000380: ebe9 aa3e 8aa2 a2be 6277 2cbe 1823 413e
00000390: a430 98be ed81 58bd 4420 f6be 0b5c 9abd
000003a0: 4019 c9bc 540f fabd 3a95 68bc f72c bbbe
000003b0: 8369 083f e5bc c23e 93b3 2dbd 4fe3 07bf
000003c0: 79cc 7c3e 74db 48bf faf2 633d 04f3 ba3d
000003d0: b726 893e e6f8 6dbe b48d 8e3e 0ece 27be
000003e0: 65bb 1ebf c956 9dbe 5fd5 953d 41fd f5bd
000003f0: bc3f a63d 62e2 2a3e 0386 f7bd 6a7c 2fbc
0.24264264 0.045507688 -0.26833838 0.21156758 -0.10866994 0.27481985 0.40941665 0.033640146
0.012816128 0.34390175 0.002370243 -0.11517482 0.2725501 0.02852504 -0.41129354 -0.27447987
0.11994307 0.12405619 -0.28776437 0.13075244 -0.28823146 -0.055198275 0.4999411 -0.35968938
-0.30087763 0.06775743 0.028168257 0.9261075 -0.14320822 0.011878374 -0.023438673 0.009313953
-0.092870705 -0.26892364 0.07489934 -0.24102907 -0.24099572 0.08007916 0.011133925 -0.20407946
-0.08830942 -0.3857302 0.600053 0.21493539 -0.3657272 -0.37528378 -0.20787312 0.7169755
0.2022226 0.10426924 -0.11512804 0.44132128 0.15673563 -0.23431312 -0.07730169 -0.071192704
0.42078543 0.054770324 0.25407028 -0.17050296 0.16652068 0.3421894 0.15835777 0.17157626
0.2813925 0.06585297 -0.1564805 -0.35865706 0.14137042 -0.2524765 -0.1310163 0.11730529
-0.023268076 0.11408081 -0.086406685 -0.17755489 -0.17954582 -0.36495742 0.26216206 0.18918397
0.044965103 -0.030155664 -0.22016932 0.06431375 -0.2745716 -0.2619349 -0.36172748 0.23802935
-0.16444308 -0.26023135 -0.23629138 -0.26554322 0.0093881935 -0.18626732 0.041010212 -0.07961079
0.060908206 0.010308059 0.0775312 -0.78111136 -0.014305714 0.4736492 0.22305115 0.1087459
-0.14049158 -0.08711987 -0.036569647 0.036128722 0.19720545 -0.03874465 0.15158781 -0.3068738
0.051930074 0.034311783 -0.173561 0.01561334 -0.035258163 0.363886 -0.3451204 0.1661551
0.050811503 0.27202487 0.30926064 0.19157064 -0.2525397 0.27522182 -0.020393727 -0.0935611
-0.2072591 -0.11503968 -0.049054224 0.37366897 -0.24553236 0.0043157684 0.17050146 0.023824237
0.22561684 0.30263448 -0.30286464 0.051466875 0.3009675 0.34614357 0.23985718 -0.3518199
-0.18886177 -0.35834882 0.19049186 -0.24240576 0.0032503784 -0.11818343 -0.3650396 -0.3395526
0.3565477 -0.032496493 -0.08758391 -0.16376291 -0.35068637 -0.30817378 -0.041631147 0.10295556
-0.12088495 0.028807616 0.34970537 0.63379145 0.2214165 0.3501103 0.3906063 -0.008150189
-0.30316496 -0.0019888792 0.3189223 -0.35552558 -0.018839939 -0.063235044 0.17420329 0.32016712
-0.18159293 -0.13979863 0.29792854 -0.5755554 -0.11377758 -0.34924057 0.1376999 -0.35602835
-0.16930115 0.031601552 0.113122955 -0.033292964 0.096839316 -0.07025971 0.108534515 -0.28408346
0.24954723 -0.21261422 0.36383116 -0.13299952 -0.12134928 -0.11419946 -0.22135827 0.28165472
-0.020413807 0.088801965 0.12814775 -0.27426314 -0.32901713 -0.11261792 -0.19790648 -0.068521954
0.108413815 -0.6118676 0.40965274 -0.06615052 -0.20287642 -0.162602 -0.17269418 0.28372362
-0.28749573 0.068648964 -0.17993073 -0.057182923 0.15622394 0.19998601 0.1870726 -0.36694807
0.3338159 -0.31764632 -0.16842416 0.18861043 -0.2972461 -0.052858282 -0.48071492 -0.07537087
-0.024548173 -0.12209955 -0.014195735 -0.36557743 0.53286 0.3803474 -0.042407583 -0.5308122
0.24687375 -0.7845986 0.055651642 0.09128383 0.2678735 -0.23239478 0.27842486 -0.16387197
-0.6200469 -0.30730274 0.07316088 -0.12011195 0.08117625 0.1668792 -0.120861076 -0.010710815

encoder.feature_encoder.atom_embedding_list.7.weight f4 [2, 64]
00000000: da74 0a3f 96c6 efbd f707 01bf 5422 2fbe
00000010: 6d82 e73e 81dd 09bf abae 0c3f 0ceb 21be
00000020: b66a d43e 8c18 ccbe be4e 373f 1f66 5bbd
00000030: 8db1 803e 5384 423e 9875 b3bc b948 96be
00000040: bd3e 26bf f90e fa3e 35d4 833e c59e 08be
00000050: a2dd a23e adc0 d4be 3c1e 1b3e 770d 873e
00000060: b9b9 eebc 8a30 d0bc 9567 d53d 1b97 4b3d
00000070: 98b7 b5bd df15 0a3e afd8 17be 1317 3fbe
00000080: aebb 54be 9fff 9cbe fe6b d1be 0706 333e
00000090: 68fd e4be 540f 723e d3ba 02be 982a 81be
000000a0: c5c8 aabe 7940 203e 6c2f d63d b298 f63d
000000b0: e081 ccbe fe06 943e 396d 803e 1932 5c3e
000000c0: ddf8 aa3c 2b22 29be 3e18 1e3f 789e ac3e
000000d0: 8512 a1be 20e0 4fbe c97a 29be f8b8 25bf
000000e0: 7671 59be 630d b83d c29a ddbe 8d95 60be
000000f0: af4f 85bd dda0 623e ac7f c53e 1dac 103f
00000100: 9538 0ebf d712 823e f842 ee3d 2a69 b4be
00000110: 9fbd 0fbf 002c 893d 4e7b b93c dfec e93e
00000120: 9c2a dabe 21f3 de3e 7520 e3be 6949 dfbc
00000130: 2cfb 5f3e 5416 03be 6260 f23d cb0a 1b3e
00000140: ea15 1a3f 8c66 a2bd 8e9a 263e c1b0 b93e
00000150: 1b2b f3bd e54a 76bd f580 36be 83a3 293d
00000160: 0641 9abd 6e60 103e 8c03 423e 59e2 f23d
00000170: 238a 0fbe e280 e83d aef1 02be 966d a1be
00000180: 0836 143d d31b b43d a59f 213f 6728 f4bd
00000190: c235 c93e b9f2 323e 6a17 c4bc 8f69 85be
000001a0: 7ed2 56be 5ee7 9a3d 16b3 b13d 03ad d6bd
000001b0: 45e9 df3e 08bf 07bf c840 37be fcdd f4bd
000001c0: 1d2c 16be 81f6 393f e150 2fbf 2cdc 31bc
000001d0: 2d11 86be 0a6f 433e 8767 12be f499 143f
000001e0: 1ac3 98bd 209a 08bd 5c53 123f 9d4e a53e
000001f0: 13e9 2bbe 07af 4cbd 14b2 15bd 3f3a 33bf
0.5408455 -0.11707799 -0.5040278 -0.17102939 0.45216694 -0.53853613 0.5495402 -0.1581232
0.41487664 -0.39862478 0.71604526 -0.053564187 0.2513546 0.1899579 -0.021906659 -0.29352358
-0.6493948 0.48839548 0.2574784 -0.13341816 0.31809717 -0.4155325 0.15148252 0.2637746
-0.029141294 -0.02541377 0.10420147 0.049704652 -0.08872908 0.13484906 -0.14828752 -0.18661146
-0.20774719 -0.30663773 -0.40902704 0.17482768 -0.44724584 0.2363866 -0.1276658 -0.2522781
-0.333563 0.15649594 0.10458264 0.12040843 -0.39942837 0.28911585 0.2508333 0.21503486
0.02087062 -0.1651694 0.6175574 0.33714652 -0.31459442 -0.2030034 -0.16550745 -0.64735365
-0.21234688 0.08986928 -0.43282133 -0.21932049 -0.06509339 0.22131677 0.38573968 0.56512624
-0.5555509 0.25405 0.11633867 -0.35236484 -0.56148714 0.066978455 0.022641804 0.4568853
-0.42610633 0.43544868 -0.443607 -0.027256684 0.21873158 -0.12801486 0.1183479 0.15140836
0.6018969 -0.079297155 0.16269895 0.36267665 -0.11873456 -0.06013002 -0.1782263 0.041415703
-0.075319335 0.14099285 0.18946666 0.11859579 -0.14017539 0.113527074 -0.12787506 -0.3152892
0.03618434 0.087943695 0.63134223 -0.11921769 0.39298826 0.17475404 -0.023936946 -0.26057097
-0.20978734 0.07563661 0.08676736 -0.10482218 0.43732658 -0.53025866 -0.17895806 -0.11956403
-0.14665265 0.7264176 -0.68482786 -0.010855716 -0.2618498 0.19085327 -0.14297305 0.58047414
-0.07459088 -0.03335011 0.57158446 0.3228654 -0.1678813 -0.049971607 -0.03654678 -0.7001075

encoder.feature_encoder.atom_embedding_list.8.weight f4 [2, 64]
00000000: 0f2f fabd f84e d13d 8a09 963d 6437 13bd
00000010: 2246 963e 16c7 35bd 268b 5c3e e0a0 8fbe
00000020: 032c f6bd 790a 763e 3777 7ebe be35 68be
00000030: 6811 38bc 87fa 553d ca45 c63e ed9e 8c3e
00000040: 91a4 08bf 4721 573e 805f c7bd 20d6 1bbf
00000050: 66ac 753e 17db 3c3b 18e9 1cbe e8eb 85be
00000060: 94db bc3e 17b8 593d aedb de3b 590a 523e
00000070: 3e71 7bbd c47d 223e f281 17be db80 8d3e
00000080: 7499 9bbe eb8c 323e aff0 343e d4a9 4fbd
00000090: e8b0 b53d 5547 4f3e 5aa3 84bd 9d60 a4be
000000a0: 0752 07bf 2590 7cbd 68e5 d23d b12a 23be
000000b0: b6e7 30be 42c4 c2be 3593 433e 5826 bcbe
000000c0: c282 e5be 5d87 383e 4297 2abe 6271 493e
000000d0: 3a27 a2be 70b9 b2bd 8cc0 30be 83e2 a7be
000000e0: b566 003f bb41 83be b9ba eb3e bbbf d13e
000000f0: 806a 44be 8ac6 e8bd 007e 15bb a2fc 92be
00000100: e44c 813e 3335 fe3b c09e 64bd 2cba 013e
00000110: e835 98be 826e c1bd 4ecc 863b 742a d2bd
00000120: 485f 463e c834 f03d 5921 9c3e 2e32 f33d
00000130: 53bf a9bd 047d aabd 9950 38be 3df6 adbd
00000140: 9447 643e e875 cb3e 5324 1dbe f2aa db3d
00000150: ec73 e2bd 0444 b8be 6542 81bc ecd4 ef3e
00000160: c62b 2ebe b5ef 96be 561c 57be fdb0 8b3d
00000170: 27ec ad3e 292a 73be 1bf6 76bd f7e9 b1be
00000180: cc61 6f3e f429 073e dc53 70bd 2e63 04bd
00000190: acd8 d33e 6c38 1e3e ebcc 8ebc fbee eb3d
000001a0: a8ea 4fbd c673 e2bd e9af 3e3d a2d3 1dbe
000001b0: 94cc 933e 6e78 a53e 3019 bebe e0d4 c43e
000001c0: 1624 973e 7841 19be 9daf e73e a16d d6be
000001d0: f0a4 98bd 99f1 203e eba0 ee3d 3fb6 48be
000001e0: edca b73d 9c01 c93e 0fb6 0d3e 8bc6 c5bd
000001f0: d0d6 89be 1c15 843e 15a3 963e fa5d df3d
-0.12216007 0.1022014 0.07326038 -0.035941496 0.29350382 -0.044379316 0.21537456 -0.28052425
-0.12020113 0.24027433 -0.24850164 -0.22676751 -0.011234619 0.052240875 0.3872512 0.27465
-0.5337611 0.21008788 -0.09735012 -0.60873604 0.23991546 0.002881711 -0.15323293 -0.26156545
0.36886275 0.053154077 0.00680109 0.2051176 -0.061387293 0.15868288 -0.14795664 0.2763737
-0.30390513 0.17436568 0.17669939 -0.05069907 0.08871633 0.20242055 -0.06476469 -0.3210496
-0.5285954 -0.061660904 0.10297662 -0.15934254 -0.1727589 -0.38040358 0.19099124 -0.36748004
-0.44826323 0.18020387 -0.16659263 0.19672158 -0.31670552 -0.08726776 -0.17260951 -0.32790002
0.5015672 -0.25636086 0.46040896 0.4096659 -0.19181252 -0.11365993 -0.0022810698 -0.2870837
0.25253975 0.0077578067 -0.05581546 0.12668675 -0.29728627 -0.09444906 0.0041137105 -0.102620035
0.19372284 0.11728817 0.30494192 0.118748054 -0.08288445 -0.08324626 -0.17999496 -0.08494232
0.2229293 0.39738393 -0.15345888 0.107259646 -0.110572666 -0.35989392 -0.01577873 0.46842134
-0.17008886 -0.29479757 -0.21006903 0.06820867 0.33969232 -0.23746552 -0.0602933 -0.34748814
0.2337715 0.13199598 -0.058673725 -0.032321148 0.41376245 0.1545121 -0.017431697 0.11520191
-0.050760895 -0.11057238 0.04655448 -0.15412763 0.28867018 0.32318443 -0.37128592 0.3844366
0.2951972 -0.1496638 0.4525117 -0.41880515 -0.07453334 0.15717162 0.116517864 -0.19600771
0.08974252 0.3925904 0.13838981 -0.0965701 -0.269217 0.25797355 0.29421297 0.109065965
