checkpoints/tuning_multi/trial_36/final_model.pt (torch, 520443 bytes, 104 tensors)

encoder.feature_encoder.atom_embedding_list.0.weight f4 [119, 64]
000000 b4 15 16 3e ab 42 01 3d 3e 4b 24 3d 2d 00 0b 3e
       0.14656717 0.03155772 0.04011082 0.13574286
000010 0e fd d5 bd e3 a1 4b be 8f 98 d1 3d e6 7b 16 3e
       -0.10448657 -0.19885974 0.10234176 0.14695701
000020 a6 b0 38 3e d5 4d 33 be 41 24 95 bd 14 03 65 bd
       0.18036136 -0.1751016 -0.072823055 -0.05591114
000030 4f 57 46 3d 50 72 05 be f2 4d 08 3e 9f 3b 20 be
       0.048423108 -0.13031888 0.13310984 -0.15647744
000040 c4 d2 66 3e 67 24 12 3e 19 ee 27 3e fc 57 4b 3e
       0.22541338 0.14271699 0.16399421 0.19857782
000050 ff 59 43 be fc d6 e3 3c 01 95 24 be bc e8 1f be
       -0.190773 0.027812473 -0.16072465 -0.15616125
000060 70 c6 6c 3b c7 8e 39 be 02 22 52 bc 7f 42 57 3c
       0.003612902 -0.18120871 -0.012825491 0.0131384125
000070 b5 74 4b bd c9 60 e1 3c 07 1b 27 be 6a df 97 3d
       -0.049671847 0.027511971 -0.16318904 0.0741566
000080 e6 63 5f bd 2c 94 94 3e 04 9f 85 3e 1c cd 34 bd
       -0.05453863 0.29019296 0.26097882 -0.04414092
000090 59 72 32 be 2b 24 0c 3e 58 af 9e bd 04 e1 b7 3d
       -0.17426433 0.13685672 -0.07748288 0.08978465
0000a0 90 9b f8 bd 37 4d fb bb 15 61 23 3d ac 3e d6 3d
       -0.12139046 -0.007669117 0.039887507 0.104611725
0000b0 e3 40 54 3d dc 24 36 3d f4 c9 68 3e 26 16 4d 3e
       0.051819693 0.044468746 0.22733289 0.2002798
0000c0 20 4a 3d 3e d0 cf 54 be 92 5d a9 3d 42 5b 78 be
       0.18485308 -0.20782399 0.082698 -0.24253562
0000d0 63 3c 66 3c 9c 5d 2c bd 54 41 2a 3c b5 f8 93 bd
       0.014052483 -0.04208146 0.010391552 -0.072251715
0000e0 99 3a b0 3d 85 68 d3 bd 96 c0 8d 3d 24 6e 84 3e
       0.086049266 -0.1032267 0.069214985 0.2586528
0000f0 a9 92 1f be 77 5b 14 3d 06 9e 29 be 88 b3 ff bb
       -0.1558329 0.03622004 -0.16564187 -0.007803384
000100 73 f3 53 be 91 d4 44 be f5 39 ad bd 26 75 e2 3d
       -0.20698337 -0.19221713 -0.0845832 0.110575005
000110 b8 13 e5 3d 12 42 71 3d a4 7c b3 bc 66 dd b0 3d
       0.11185402 0.0589009 -0.02191002 0.086359784
000120 d2 10 18 bd 69 94 0b be 17 0a d0 bd 7b a9 6b bd
       -0.037125416 -0.13630833 -0.101581745 -0.057534676
000130 e6 96 36 3d 10 70 50 be 80 a9 9b 3d 8f 0d 25 3d
       0.0445775 -0.20355248 0.07600689 0.040296134
000140 54 73 1d 3d 18 2b 3d bd 93 b3 f0 3d 96 a5 59 3d
       0.038440064 -0.046183676 0.11753001 0.05313643
000150 7b 4c 23 3e 5b 86 13 be e1 cf 88 3e a5 de 4f be
       0.15947144 -0.14406721 0.267211 -0.20299776
000160 4d 2f 14 3e fc 05 8a be 80 10 ea bc 7b a5 df 3a
       0.14471169 -0.2695769 -0.028572321 0.0017062867
000170 e2 90 14 bd 97 c1 05 3d 5d 1e 1c 3e ee 21 03 3e
       -0.036270984 0.032655325 0.15245958 0.12805912
000180 ee dd 49 3e e1 93 8f bd 08 b0 68 3e ad ac 58 bc
       0.19713566 -0.070106275 0.227234 -0.013224763
000190 56 61 4e 3d 00 60 e4 bc 70 68 00 be d9 eb 53 3e
       0.050385796 -0.027877808 -0.1253984 0.20695437
0001a0 23 7e e9 bb f1 df 87 3d ba 91 a3 3d fc 4d f4 bd
       -0.0071256324 0.0663451 0.079867795 -0.11928937
0001b0 34 ac 1b bc 3c f5 17 be e7 4f df bd 92 78 c0 bd
       -0.009501506 -0.14839643 -0.10903912 -0.09397997
0001c0 52 f8 25 be 01 d5 b9 bb 4b 63 33 3e 00 17 00 be
       -0.16208008 -0.005671144 0.17518346 -0.12508774
0001d0 44 d3 e7 3c c9 65 12 be 3d 99 d9 bd 58 62 de 3b
       0.028298981 -0.1429664 -0.10624931 0.006786626
0001e0 fc 25 0e 3d 10 e8 85 bd c3 e6 1c 3e 63 a7 07 bc
       0.034704193 -0.06538403 0.15322404 -0.008279654
0001f0 30 5a 1c be e1 ad c8 3d 68 59 13 3c 24 d9 05 bd
       -0.15268779 0.0979879 0.008993484 -0.032677785
000200 3c ff 03 be 53 5d fd bd 1e 9b 9c bd df a6 d4 bd
       -0.12890333 -0.12371316 -0.07646774 -0.10383391
000210 9c 5a a4 3d 6d eb 58 be 13 17 3e be ad a8 5e bd
       0.08025095 -0.21183558 -0.1856349 -0.05436008
000220 24 22 91 be 21 21 1c 3d b2 5f 0e be a5 b3 d8 3d
       -0.2834636 0.03811753 -0.13903692 0.105811395
000230 09 3b 18 3b ce f1 10 3d 55 b2 c5 bd 47 58 84 bd
       0.0023228547 0.035386853 -0.09653155 -0.0646215
000240 14 0e 34 3d ca d8 65 3e 6f fe 4a be e9 ec 25 3d
       0.04395874 0.2244598 -0.19823621 0.04050914
000250 70 f9 fc bd f8 20 f7 bd 09 57 be 3c 34 29 04 be
       -0.12352264 -0.12066835 0.023234861 -0.12906343
000260 a9 70 06 3e 79 89 bc bc ad 43 ea bd 21 1a f1 3d
       0.13128914 -0.02301477 -0.114386894 0.11772562
000270 ea 5c 16 bd 20 83 22 be 94 f9 7c 3c c0 b6 5f bd
       -0.036709704 -0.15870333 0.015440363 -0.054617643
000280 e5 09 ef bd 72 ab 26 bd e9 b6 ec bd 8b 66 d5 3c
       -0.11671809 -0.040690847 -0.11558325 0.026049873
000290 05 13 d7 3b a6 1e 94 3c 4d 59 31 bd d2 79 31 be
       0.0065635466 0.01808102 -0.043298054 -0.17331627
0002a0 86 09 e1 bc 1b 33 e2 3d 06 60 89 3d 56 5a 4b 3e
       -0.027470361 0.11044904 0.06707768 0.19858679
0002b0 63 b4 af bd 3f 7c 5d 3c 8e 30 56 be 20 ec 8a 3d
       -0.08579328 0.013518392 -0.2091696 0.067833185
0002c0 31 94 bd 3d 1c 43 18 be ce db 0f be 89 01 22 be
       0.09256781 -0.1486935 -0.14048693 -0.15820898
0002d0 89 88 88 bd 89 29 8c bc 38 b2 f9 bd 48 af 43 3e
       -0.06666667 -0.01710965 -0.12192196 0.19109833
0002e0 73 1d 46 bd db 9b ce 3d d6 ba 55 be 48 23 23 3e
       -0.04836793 0.10088321 -0.20872054 0.15931427
0002f0 72 4d b5 bd 9d 1a 0c be b1 76 8f bd 81 53 95 be
       -0.08852662 -0.13682027 -0.070050605 -0.2916527
000300 dc 86 0d be 24 3e 0a 3e 18 c5 17 3e 43 ca 00 be
       -0.13820976 0.13500267 0.14821279 -0.12577157
000310 5c d8 20 3d a1 02 bf bd 67 81 2d 3e bd 64 e2 3d
       0.039268836 -0.09326673 0.16943894 0.110543706
000320 61 72 93 3d 05 2c 17 be e9 66 b6 bd 91 de 1b bd
       0.071995504 -0.14762886 -0.08906347 -0.038054053
000330 1f c6 25 be 0d b9 d8 bd d0 44 43 3d 83 f1 16 be
       -0.16188858 -0.10582171 0.047673047 -0.14740567
000340 b9 55 45 3d c4 97 87 bb 18 4e 74 bc c5 a4 58 bd
       0.048177455 -0.004137965 -0.014911197 -0.05289151
000350 1e 4c c7 bd d3 5a 2d be 34 59 fc bd 43 08 0c 3e
       -0.09731315 -0.16929178 -0.12321702 0.13675027
000360 ad e5 5b bc c6 8c 34 3e e4 66 1c 3c 78 d7 ae bc
       -0.013421458 0.17631826 0.009546015 -0.021342978
000370 49 63 de 3d 7f 90 2e be a9 d9 e5 bd ff b9 d4 3d
       0.10858781 -0.17047308 -0.11223156 0.103870384
000380 82 6d 41 bd dd b1 12 3e 0e 73 87 bc 12 3b 04 3e
       -0.047223575 0.14325662 -0.016534355 0.12913159
000390 e5 14 10 3c 78 0b 9a 3c 12 9c 1c be d8 27 80 bd
       0.008794044 0.018804297 -0.15293911 -0.062575996
0003a0 84 bf 14 3c c7 6f a9 3d 20 e8 0f 3d 47 07 21 bd
       0.009078864 0.08273273 0.03513348 -0.03931358
0003b0 ef 3b a0 3a cc 63 1f 3e be 5e f7 3d 3a 12 7d 3d
       0.0012224893 0.15565413 0.120786175 0.06178496
0003c0 35 a0 05 be 14 61 79 bd 84 c1 ec 3d 7e e8 26 3e
       -0.13049395 -0.060883597 0.11560348 0.16299626
0003d0 ed 4f af bd c0 91 9d 3d 12 ab 2d bd 4e 3e eb 3d
       -0.085601665 0.07693815 -0.042399473 0.11486493
0003e0 6f e2 de bc b3 63 13 be e5 88 37 be c5 4e de bb
       -0.027207581 -0.14393501 -0.17923315 -0.0067842924
0003f0 dc a5 5a 3d d3 9a da bd a1 e1 11 3e d5 e5 af 3d
       0.053380832 -0.106740616 0.14246227 0.08588759

encoder.feature_encoder.atom_embedding_list.1.weight f4 [5, 64]
000000 b4 ae 2a be 9a fe c0 bd fb 87 00 3e a8 f3 29 3e
       -0.16668206 -0.094235614 0.12551872 0.16596854
000010 ae 5c 7c 3d 9d 3a 54 3e b0 50 0c 3e 9d 17 f5 3d
       0.061611824 0.20725484 0.13702655 0.119673945
000020 1b 18 b6 3b e2 bd 55 3e f5 0b 63 3e 8d 52 b2 3d
       0.005557073 0.20873216 0.2217253 0.087071516
000030 85 22 58 be 9c ef b4 3c 39 87 b8 bd 38 b2 20 bc
       -0.21106918 0.02208691 -0.09010167 -0.009808116
000040 c7 f5 53 3e af 8e 21 be e9 5a 0e be c5 08 a9 bd
       0.20699225 -0.15777086 -0.13901867 -0.08253626
000050 2b a5 a7 bd 10 ee 94 bd e4 ca e6 3d 73 c8 40 be
       -0.081858 -0.07271969 0.11269167 -0.18826465
000060 21 9c 0b be f1 00 24 3e b0 99 42 3e c7 04 a4 3c
       -0.13633777 0.16015984 0.1900394 0.02002181
000070 cb c8 62 3c dc f2 e9 3c 25 c7 15 be ab 77 c0 bd
       0.013841818 0.028558187 -0.14626749 -0.09397825
000080 24 35 4d 3e 02 f1 07 bc f6 1f 65 3e 18 20 40 be
       0.20039803 -0.008297207 0.22375473 -0.18762243
000090 62 1d 7d be 8d 22 7f be 2b 24 33 be 79 b9 e5 3d
       -0.2471824 -0.24915524 -0.17494266 0.11217017
0000a0 82 d2 17 3e 7e dd 43 be c5 60 6c be 73 2f ff bc
       0.14826396 -0.19127461 -0.2308379 -0.031150555
0000b0 78 74 48 3e 39 29 16 3e 83 09 a3 bb a0 d5 36 3e
       0.1957568 0.14664163 -0.004975499 0.17854929
0000c0 27 c6 08 3e b6 c3 64 3e 39 e4 47 bd 00 a3 3e be
       0.13356839 0.22340283 -0.048801634 -0.18616867
0000d0 07 ac ba bd d7 dc 62 3d 4a 54 ff 3d 3c 99 6e bc
       -0.09114843 0.05538639 0.12467249 -0.014562901
0000e0 90 41 42 bd 03 91 7c 3d ac 7d 74 bd b0 90 9f 3d
       -0.047425807 0.06166173 -0.059690163 0.07791269
0000f0 99 63 7d be 7a d4 ae bd 3d ed f2 3d 7b a3 19 3e
       -0.24745025 -0.085366204 0.11861656 0.15003769
000100 09 b8 89 3e 17 85 3f be 32 d4 b7 bd 9c 7b cf bd
       0.2689822 -0.18703113 -0.0897602 -0.101309985
000110 fa 63 60 be e4 1c 1a be e2 16 86 3d 94 18 76 3c
       -0.21913138 -0.15050083 0.06547333 0.015020508
000120 78 cc c8 3c 1a 8e 26 be bb 66 a0 3d c4 40 21 3e
       0.02451156 -0.16265145 0.07832094 0.15747362
000130 f0 07 37 3e c5 ce 85 3d cf 07 9c be 39 f0 cb be
       0.17874122 0.06533579 -0.30474707 -0.39831713
000140 1a 4a 4a 3e 2e 59 23 3e 4b 25 91 3e f1 01 3f be
       0.1975483 0.15951988 0.28348765 -0.18653084
000150 66 29 95 3e 2b 9f db be ff d9 23 be 2a f1 f3 bd
       0.29133147 -0.42894873 -0.16001128 -0.11911233
000160 fa 6c 23 3d 0a 4e 65 be be 30 68 3c 76 3a 54 bd
       0.03989885 -0.22393051 0.014171777 -0.051813565
000170 b2 f6 9b bd 2a 7c 84 be e3 9e 76 bd 9e 34 cb 3d
       -0.07615413 -0.2587598 -0.06021012 0.09922145
000180 47 4d 62 3d 11 97 3a 3e 25 86 79 bc 5b 53 55 3e
       0.05524948 0.1822169 -0.015229736 0.20832579
000190 89 d3 e8 3d 71 8d 55 be dc 9d b4 be d6 6e 0b 3e
       0.11368472 -0.20854737 -0.35276687 0.136165
0001a0 ff c0 92 b8 a9 43 ad bd de cb 0b be c5 42 e3 3d
       -6.997771e-05 -0.08460171 -0.13651988 0.1109672
0001b0 61 d0 1c 3d 15 bd 8e be b5 f2 86 3e af 7c 80 3d
       0.038284663 -0.27878633 0.26357046 0.062737815
0001c0 d4 23 e8 3d 47 f2 6f be 85 00 9d 3d 5d 48 3c be
       0.11334959 -0.23432265 0.07666115 -0.1838698
0001d0 4e a7 21 3d 80 7b 81 bd 22 09 38 3e 51 37 6a be
       0.039466195 -0.06322384 0.17972234 -0.22872664
0001e0 a6 23 80 be d7 41 55 3e 05 eb 6c be 5a d1 88 3d
       -0.25027198 0.20825897 -0.23136528 0.06680556
0001f0 be 1f 83 be 6c 45 35 3e 2f 85 43 3e 4a 7d 02 be
       -0.25610155 0.17702264 0.19093774 -0.12743106
000200 f4 f9 c6 bb 6e 4b 14 3d 43 33 07 3c 7d 71 64 3e
       -0.006072277 0.036204748 0.008251968 0.22308917
000210 46 f6 2c be 49 bc 08 3e cd 0d 8b 3e c6 e3 58 be
       -0.16890821 0.13353075 0.27158967 -0.21180639
000220 e9 82 6c be 78 1c cc 3d d0 63 d6 bd 9d eb d9 bb
       -0.23096813 0.099663675 -0.104682565 -0.0066504017
000230 a3 d6 8c be 7b 72 38 3e b3 7d 9f bc 0c 84 94 3c
       -0.27507505 0.18012421 -0.019469118 0.018129371
000240 e4 ed d1 bd af a5 d1 3d b4 75 9e bb d8 af f0 bd
       -0.10250452 0.1023668 -0.0048358086 -0.117522895
000250 09 05 96 3d e2 3c e0 bd e4 20 e0 3d 1c 9b 90 be
       0.07325179 -0.109491125 0.109437734 -0.2824334
000260 12 ad e9 bd 53 e5 4e be 2c 78 00 3e a7 0a 54 be
       -0.11409964 -0.20204668 0.12545842 -0.20707189
000270 42 f6 69 3e 5d 0c 93 3d a6 10 39 3e 5c f9 44 be
       0.22847846 0.071800925 0.18072757 -0.19235748
000280 18 4b 75 be a2 35 46 bd 61 ea 25 be 20 8f cc bd
       -0.23954427 -0.048390992 -0.1620269 -0.099882364
000290 8b 36 78 3e 92 64 21 3e 1a 6f b2 bd b5 5c 37 3e
       0.24239556 0.15761021 -0.08712597 0.17906459
0002a0 24 42 4a be 64 77 2f be 4a c0 05 3e 92 5d 02 3e
       -0.19751793 -0.17135388 0.13061634 0.12731007
0002b0 1d 9e ae bd dd 0f 4e be 85 c9 3c 3d f8 a5 91 3e
       -0.085262515 -0.20123239 0.04609062 0.28446937
0002c0 a3 98 94 3e 92 ba 77 3e 2c 71 62 be 5f 2a 48 3e
       0.29022703 0.24192265 -0.22113484 0.19547413
0002d0 1e 31 5d 3d 2d 17 75 be 94 26 9b 3c 19 ce 91 be
       0.05400192 -0.23934622 0.018939294 -0.28477553
0002e0 bd a5 81 3d 43 0a 26 be 91 2b 4b be 6a 16 6b 3c
       0.0633044 -0.16214852 -0.19840838 0.014348606
0002f0 e6 a9 4b 3e 9e 7c 29 3e 73 dd 3a be 9b c1 2b 3e
       0.1988903 0.16551444 -0.18248539 0.16773073
000300 55 b4 e0 3d 53 94 49 be b4 c5 9b bd eb b8 90 bd
       0.109718956 -0.19685487 -0.07606068 -0.0706652
000310 ba 6d 75 be 58 c4 89 be 0d 0d 4d be 05 41 89 3e
       -0.23967639 -0.2690761 -0.2002451 0.26807418
000320 c9 76 a0 bd 6a e2 e7 3c 0a bf 7a be d9 c2 4f bd
       -0.078351565 0.028306205 -0.24486938 -0.05072293
000330 a9 2a e4 3d e8 cf c3 bb d4 d5 bd bc 08 b6 80 bb
       0.11140949 -0.005975712 -0.02317325 -0.00392795
000340 94 08 4b 3e 92 b8 54 be 8f 95 87 be af 6c 91 be
       0.19827491 -0.20773533 -0.26481292 -0.28403232
000350 d3 90 f5 3d 81 34 28 be 5f 11 04 be f7 c1 1f bd
       0.11990514 -0.16426279 -0.12897252 -0.03900334
000360 09 06 31 3e cb f6 27 3b ed 6b 6c 3d 84 a3 a9 bd
       0.17287458 0.0025629278 0.057720114 -0.08283141
000370 a3 56 24 3e 33 a4 16 be 66 c2 68 3e 35 8e 78 3e
       0.16048674 -0.14711075 0.22730407 0.24272998
000380 aa d0 87 be 9b 39 bf bd cc 8b 11 bd 40 99 22 be
       -0.26526386 -0.09337159 -0.03553371 -0.15878773
000390 09 b5 81 3c eb 37 c6 bd aa fc 79 3e 39 1d bf bc
       0.015833395 -0.09678634 0.2441279 -0.023329364
0003a0 33 cb 28 be 51 f1 15 be c0 1a 8d be 1c 96 39 be
       -0.16483764 -0.14642836 -0.2755947 -0.18123668
0003b0 3d 81 6a 3d cd 6c b6 3d ea 24 02 be af a0 44 3b
       0.057252157 0.08907471 -0.12709394 0.0030003001
0003c0 a2 82 17 3e 46 a8 1f 3d 57 12 08 3d 16 17 46 be
       0.14795926 0.038978837 0.033220615 -0.19344744
0003d0 9c f2 8d 3e f1 4a b2 bd 51 48 c7 3c e0 be 14 bd
       0.2772416 -0.087057 0.024326475 -0.036314845
0003e0 87 2f 03 3e 07 1d 7a be 1c 70 89 3d 39 62 6a be
       0.12811099 -0.24425136 0.06710836 -0.22889031
0003f0 84 57 6e 3e 4d 0c ee bd 1d 92 76 3d 05 dd 9f 3c
       0.23275572 -0.1162344 0.06019794 0.01951457

encoder.feature_encoder.atom_embedding_list.2.weight f4 [12, 64]
000000 5b 2e 0a bd 4c 7b 1f be 4e 01 1f be 68 aa 26 be
       -0.033735614 -0.15574378 -0.15527841 -0.16275942
000010 c4 a6 fb 3d 50 ff 79 be ac 18 b2 3e 99 6b 5e be
       0.122876674 -0.244138 0.34784448 -0.21720733
000020 e8 3f 96 3d ba 0f 30 3e 41 84 53 bd 76 25 00 be
       0.07336408 0.17193499 -0.0516398 -0.1251429
000030 c3 45 44 be 23 7e 60 be dc 19 00 be 62 5f 15 be
       -0.19167237 -0.21923117 -0.12509865 -0.14587167
000040 d1 12 67 be 51 64 7b bd 90 6a 91 3e 0f b0 9b 39
       -0.22565772 -0.061374966 0.28401613 0.00029695078
000050 10 04 11 3e 8b 94 61 3d e7 e5 d9 3d 68 d1 7e 3c
       0.14161706 0.055073302 0.106395535 0.015552856
000060 93 4f 42 bd 85 c4 0f be d7 07 2a bd dc c8 57 3e
       -0.04743917 -0.1403981 -0.041511383 0.21072716
000070 c4 82 62 be 41 66 cd 3e e0 af 5e bc 6c 24 19 3e
       -0.22120196 0.40117076 -0.013591737 0.149553
000080 85 45 92 3e f4 ee 47 3e dd 95 4f 3e 52 0c 3f 3e
       0.28568664 0.19524747 0.20272012 0.18657044
000090 2b 3b 26 bd ef 13 4e bc f7 3a 56 3e 6c 7a b8 3c
       -0.04058377 -0.012577995 0.20920931 0.022519313
0000a0 5c 81 ac bd 47 f7 63 3e 86 7d 72 3e 67 6a 99 3e
       -0.08423111 0.22262298 0.23680696 0.2996399
0000b0 68 8e 9b be 3d ef 97 3d 3b cf 01 3e fe 7f cf bd
       -0.30382085 0.07418678 0.12676708 -0.101318344
0000c0 7d e9 23 3e bc d5 3e be ce 3e 3f 3e f6 04 2d 3d
       0.16007037 -0.1863622 0.18676302 0.04224106
0000d0 42 be 95 3d b9 16 59 be b4 0c 3c bd f5 9b 29 be
       0.073116794 -0.21200074 -0.045910552 -0.16563399
0000e0 29 aa 4c 3e cb bf 54 be 56 cd 3e 3d 71 eb 8e 3e
       0.19986786 -0.20776288 0.046582542 0.27914003
0000f0 48 6a 2a bd 54 ea 8c bd e6 2a 04 3e 6f 99 c4 3b
       -0.041605264 -0.06880632 0.1290699 0.005999736
000100 e2 d7 49 be 62 e7 97 bd ae e9 05 bd c9 9b 7f be
       -0.19711259 -0.0741718 -0.032693557 -0.24961771
000110 84 71 70 3d 86 49 c7 bd 8c 4e 1a bd 42 e2 76 be
       0.058702007 -0.0973082 -0.037672564 -0.24109748
000120 56 b9 68 be cd c0 1e be 0c ee 76 3e 4a 64 74 bd
       -0.2272695 -0.15503235 0.24114245 -0.059665956
000130 43 64 d5 bd e7 61 54 be 7e 9e c0 bd 84 71 16 3e
       -0.10419514 -0.20740472 -0.0940523 0.1469174
000140 b6 92 72 be 15 ad d7 3d 15 52 ba 3e fa e4 75 3e
       -0.23688778 0.1053106 0.3639075 0.24013129
000150 a9 75 d9 3d a5 52 ce 3c ba c2 c6 bd 65 0f 49 be
       0.10618145 0.025185892 -0.0970511 -0.19634779
000160 d3 c0 00 be 89 46 07 be 9d db c3 3b ea 2f 5e 3e
       -0.12573557 -0.13210501 0.0059771077 0.21697965
000170 e8 99 83 3c 35 73 00 3e fb ce 11 be 79 ec a2 3e
       0.0160646 0.12543948 -0.14239113 0.3182104
000180 96 92 04 be 37 1a 53 3e 5f 29 99 3e 02 b0 a8 be
       -0.12946543 0.20615469 0.29914376 -0.32946783
000190 03 ab 9f be c5 2a 6d 3e 11 ad 8b 3e 99 8e 1e bd
       -0.3118516 0.23160847 0.27280477 -0.03871021
0001a0 f9 a3 89 bb f3 ae 98 3d e6 78 a8 bd 7b ea 10 3e
       -0.0042004553 0.07455244 -0.082261845 0.14151947
0001b0 2f cb 9f 3d 37 5e 7a be cb 09 67 bd 6c 69 e7 bd
       0.07802426 -0.24450003 -0.056405824 -0.112994045
0001c0 d7 56 2f 3e 8a 26 99 be af e2 cf bd 19 b3 a4 be
       0.1712297 -0.29912215 -0.10150658 -0.3216789
0001d0 76 56 28 be 67 e8 87 be 67 c4 bf 3d 00 f9 fc bd
       -0.16439232 -0.26544496 0.09363633 -0.123521805
0001e0 c2 46 30 3e 7c f0 6c 3e 1b d9 f8 3d 56 69 d5 bd
       0.17214492 0.23138613 0.121507846 -0.10420482
0001f0 22 5d 09 3d 8f 0c 89 be 18 5f 52 be 36 7c 5b bd
       0.033536084 -0.26767394 -0.20544088 -0.053585254
000200 b0 94 5f be a9 21 29 3e b1 01 91 3e c2 89 3c 3e
       -0.21834064 0.16516747 0.28321603 0.18411925
000210 61 0b a8 3c 91 dc 86 3e ee fd 6f be ba c3 05 be
       0.020513238 0.26340154 -0.2343671 -0.13062945
000220 c7 f8 10 be 23 e5 8a 3b 7f ba 6c be f2 ae 64 3d
       -0.14157401 0.004238741 -0.23118018 0.055830903
000230 8f a3 01 be 23 c4 e3 bd b0 3d b0 3e f5 84 0d be
       -0.12660049 -0.111213945 0.34422064 -0.1382025
000240 b9 cd 3f bc e5 d3 80 bd b9 b5 9b be 2f 15 20 bd
       -0.011706763 -0.06290416 -0.3041208 -0.039082702
000250 65 5c 3c 3e f2 82 b6 3c f0 a9 7b be ba 37 c0 3e
       0.1839462 0.022279236 -0.24576545 0.37542516
000260 e8 1a b1 3e b4 41 01 3e 80 50 99 be b7 e7 80 bd
       0.3459084 0.1262272 -0.2994423 -0.06294196
000270 12 8e 80 3e ce f0 a3 bd 35 2d 9b 3e 8a 58 52 3e
       0.2510839 -0.08004914 0.30307928 0.20541587
000280 cd 94 37 3e 90 02 5f be a7 97 30 bd 1b 51 40 3e
       0.17927857 -0.21778321 -0.043113377 0.1878094
000290 d2 fa ba bd 1e b7 2e 3e da 10 88 3e 9e e8 1f be
       -0.091298714 0.17062041 0.26575357 -0.1561608
0002a0 dd aa bd bd e7 0f 44 be bf f2 b8 bd 52 e2 18 3e
       -0.09261105 -0.19146691 -0.09030675 0.14930084
0002b0 4a 38 ce 3e 16 99 2f bd 84 9e 4d 3d f8 ed a2 be
       0.4027732 -0.042870604 0.0502 -0.3182218
0002c0 7f 14 13 3d 78 96 00 be d4 7d 03 be 23 01 57 3e
       0.03590822 -0.125574 -0.12840968 0.20996527
0002d0 4d 2c 0d 3e a4 43 a2 be 65 51 7a be 9f 0e 89 be
       0.1378643 -0.3169223 -0.24445112 -0.26768968
0002e0 38 76 6d 3c 86 3a 97 39 79 4f a6 3d cc 26 7f 3e
       0.014493518 0.00028844568 0.08120627 0.24917144
0002f0 13 6a 5a be 60 ba 33 3d a1 bb 7e be c3 e8 36 be
       -0.21329527 0.043878913 -0.24876262 -0.17862229
000300 2e c6 ba 3d 62 1e 4c 3b 21 bd 7a be 6a 46 5c bb
       0.09119831 0.003114604 -0.2448621 -0.0033611306
000310 f8 f4 f3 3d 94 ae 3a 3e 8e 87 fa bd 72 39 5d 3e
       0.119119585 0.18230659 -0.12232886 0.21603945
000320 89 10 b0 bd fd 17 27 be f8 dc 48 3e cc 09 7d bd
       -0.08596904 -0.16317745 0.19615543 -0.06177692
000330 f8 67 3e bd 10 55 79 bc 33 c5 12 3e 52 1f 76 bd
       -0.04648587 -0.015218034 0.14333038 -0.060088463
000340 c3 e5 09 bd 64 38 a8 bd 2d df f2 bb a9 a9 e0 3d
       -0.033666383 -0.08213881 -0.0074118585 0.1096986
000350 4c 5c 16 3e dc cd de 3d 45 5e 05 bc 75 0a 8d bd
       0.14683646 0.10879108 -0.008140151 -0.0688676
000360 ff b4 bb be d9 30 93 be a3 ac fa bc 86 0b 54 3e
       -0.36661527 -0.28748205 -0.030599898 0.20707521
000370 a0 29 57 3e 03 59 8b 3d 3a d9 2f 3d 57 27 c8 3e
       0.21011972 0.06804087 0.042931773 0.39092514
000380 5b 52 4f bd c3 d7 50 be 7d 99 8b 3d 29 2d 11 be
       -0.05061565 -0.20394807 0.06816385 -0.14177383
000390 c1 c8 3a be 74 d3 23 bc 2b 3f 81 be 66 df 8c be
       -0.18240644 -0.009999145 -0.25243506 -0.2751419
0003a0 58 59 2b be 5d f1 b0 3d c9 9a 08 3e 8c e6 4d be
       -0.167333 0.086397864 0.13340296 -0.20107478
0003b0 0b b5 d4 be 69 98 8a bd 86 90 af 3e 53 d8 9a bd
       -0.41544375 -0.06767351 0.3428995 -0.07560792
0003c0 0e cc 8b be 69 6e a2 bd f7 64 60 3e 25 35 c2 3d
       -0.2730412 -0.07931215 0.21913515 0.09482793
0003d0 06 4d 93 bd e2 3c 64 3e 74 e0 f1 3a 24 63 9b 3d
       -0.071924254 0.2228885 0.0018453733 0.07587269
0003e0 e0 05 84 3e 13 e7 9b 3d 08 ce 1d bd b8 ee 19 3e
       0.25785732 0.07612433 -0.038526565 0.1503247
0003f0 d1 b4 04 3e e4 79 47 be bb f8 8e 3e 94 aa aa bd
       0.12959601 -0.19480091 0.2792414 -0.083333164

encoder.feature_encoder.atom_embedding_list.3.weight f4 [12, 64]
000000 20 1b 12 3e 3a fe 87 3c ae d1 24 3d 31 10 66 3e
       0.1426816 0.016600717 0.04023903 0.22467114
000010 9d 7d 2a 3e 4e c9 3a 3e 6b 6b da bd a6 6b 84 be
       0.1664948 0.18240854 -0.106650196 -0.2586338
000020 e1 72 99 3e 1f d0 04 3e 2d 3a a3 3e be b9 f1 3d
       0.29970458 0.12970017 0.31880322 0.11803006
000030 78 e1 ca bd 36 81 02 3e b8 97 0a be f2 21 eb bd
       -0.09906286 0.12744603 -0.13534439 -0.11481084
000040 52 07 93 3e ff fc 50 be 83 43 4d bd fc 3f e8 bb
       0.28716522 -0.2040901 -0.050113212 -0.0070877057
000050 31 d1 10 3e 6c aa 84 be b3 b5 4a 3e 1f 74 85 bc
       0.141423 -0.25911272 0.19795875 -0.016290722
000060 e7 3c 9f bc ea 27 55 3d d7 78 0d 3e dc 49 79 bd
       -0.01943822 0.05204002 0.13815628 -0.060861453
000070 48 98 56 be 63 32 86 3e 7c 7b ad bd 39 82 99 bd
       -0.20956528 0.26210317 -0.084708184 -0.07495541
000080 aa cd 8f 3d d6 f4 7c 3e 16 a3 78 3c 6a 93 54 be
       0.07021649 0.24702772 0.0151756015 -0.20759359
000090 76 e5 85 be 90 16 59 bd c2 d7 8a 3c 8c bd 44 3e
       -0.26151627 -0.053000033 0.016948584 0.19212931
0000a0 3b 1e 57 3e 30 7a 7e be 2e 93 db 3d 22 fd a6 3e
       0.21007626 -0.24851298 0.10721432 0.32615
0000b0 44 e1 cd bc 99 14 15 be 07 cf 47 be a7 24 27 3d
       -0.02513183 -0.14558639 -0.19512568 0.04080644
0000c0 3b 96 06 be f0 c4 a9 be 6b be 22 be 08 15 09 3e
       -0.13143246 -0.33158064 -0.15892951 0.13386929
0000d0 73 86 17 be b8 3d 57 bc 56 08 f3 3d 9e 63 af be
       -0.14797382 -0.0131372735 0.11866824 -0.3425569
0000e0 9e 54 56 bd c9 78 94 3e 13 0c ec bd 9c 58 78 3e
       -0.05232679 0.28998402 -0.115257405 0.24252552
0000f0 f4 42 a5 be 95 0c ac 3e 77 6e 39 3e fc 43 a5 be
       -0.32277644 0.3360335 0.18108545 -0.3227843
000100 83 d5 bc 3d 94 66 6f 3e 40 88 94 3e 92 b7 c9 3b
       0.09220412 0.23378974 0.290102 0.0061559165
000110 31 12 23 bd 16 10 2c be e4 b4 94 bd fe ca 80 3e
       -0.03981227 -0.16803011 -0.07261065 0.2515487
000120 f4 a0 e4 3c 12 e2 05 3c c9 d3 6d be 28 9c 66 be
       0.02790878 0.008171575 -0.23225321 -0.22520506
000130 cb 47 0c bd a6 a7 13 3e 6f 62 43 3e bb 10 7f bd
       -0.034248155 0.14419422 0.19080518 -0.062271815
000140 f5 ea f2 3c c7 44 2b bd 4c 81 9a bd 5d 3c d5 3e
       0.029653052 -0.041813638 -0.07544193 0.41647616
000150 a8 ca 09 3d 60 97 85 3e dc d6 eb bd 44 3b c2 bd
       0.033640534 0.26092052 -0.115155905 -0.0948396
000160 49 ea 11 be 31 70 0e 3e ae e0 96 3d f8 8a 12 3e
       -0.14249529 0.13909985 0.07367073 0.14310825
000170 5f a8 2d 3e 0b 0e 14 3d 60 4d 37 3c 8c 6d 5c 3d
       0.1695876 0.036146205 0.011187881 0.05381541
000180 11 c4 03 be c6 86 26 3e 1e 25 cb 3e f9 58 84 be
       -0.12867762 0.1626235 0.39676756 -0.2584913
000190 1a 02 4f be c9 59 aa bc fe ca a1 be 1b af b7 bd
       -0.20215645 -0.020794766 -0.31600183 -0.089689456
0001a0 3e da 28 3e 7b 0f 1b 3d 05 44 11 3e d5 f7 2d bc
       0.16489503 0.03785656 0.14186104 -0.01061817
0001b0 f0 62 c5 bd cf c9 8b be 42 a4 81 3e aa 86 c0 3d
       -0.096380115 -0.27302405 0.2532063 0.09400685
0001c0 53 68 87 3e cd 3f 7d be 91 a4 21 be 76 6e 87 36
       0.2644678 -0.2473137 -0.15785433 4.036173e-06
0001d0 1a 86 5c 3e 91 a0 8a be c4 a3 e1 bd 27 84 71 be
       0.2153553 -0.27075627 -0.11017564 -0.23585568
0001e0 5c 1d 34 3e 7c b2 1b bc 08 27 8f 3d 84 ca 60 3e
       0.17589325 -0.009503003 0.069898665 0.21952254
0001f0 3f cd 8b be 16 fb aa bd 6f b4 62 be 14 88 ff 3b
       -0.27305028 -0.08348672 -0.22139142 0.007798204
000200 5c d7 24 3d 53 2e 86 3d 6c 97 9a 3e 66 8e 8b be
       0.040244445 0.065518044 0.3019365 -0.2725708
000210 d8 69 59 bd ba 76 4d bd d9 ad b5 bd 90 ee 54 3e
       -0.053079456 -0.050162055 -0.088710494 0.2079413
000220 37 bd 35 3e 19 05 33 3e 9c 56 48 3e 4f 20 db bd
       0.17747961 0.17482413 0.19564289 -0.10699522
000230 2d 8a 85 3e 7c bb ab bd 94 81 24 3e 02 80 a3 3d
       0.26081982 -0.08385369 0.16065055 0.079834
000240 d4 6f 0f 3e 36 97 2b 3e 5e 6e da bd 25 9f 46 3e
       0.14007503 0.16756901 -0.10665582 0.19396646
000250 57 1f 74 3e 0c 18 c8 bd c0 56 aa bd d0 4a 7f be
       0.2384008 -0.097702116 -0.083173275 -0.24930882
000260 56 2b fa 3d d9 93 1b be 23 84 a0 be 17 dd 0f 3e
       0.12215297 -0.15193118 -0.31350812 0.14049183
000270 e6 4e bb 3d bf 4c bc 3d a9 4e 4d be a0 13 22 be
       0.09145908 0.09194326 -0.20049538 -0.15827799
000280 54 1f 25 be d9 94 d9 3d a5 45 66 be 02 71 6c be
       -0.16125232 0.106240936 -0.22487505 -0.23089984
000290 26 30 f0 bd de 44 15 be 0c b9 74 3e e7 30 b2 3d
       -0.117279336 -0.14577052 0.23898715 0.08700734
0002a0 bb 34 42 be 53 44 13 be 47 f1 ea bc 9d 0f 34 be
       -0.18965428 -0.14381532 -0.028679503 -0.17584081
0002b0 30 16 7b be 37 81 82 3e 46 38 37 be 92 12 d8 3d
       -0.24520183 0.25489208 -0.1789256 0.10550417
0002c0 24 ec 6b bd 14 52 45 be 63 9d 5b be 8d 4b 37 be
       -0.057598248 -0.19269592 -0.21446757 -0.17899914
0002d0 fb 69 43 be dd 0b 20 be 16 8f 9e 3c a0 7f 17 be
       -0.19083397 -0.15629525 0.019355338 -0.14794779
0002e0 d3 af 2c 3e 8b 49 96 be a2 94 6f bd 15 ae 36 3e
       0.16863947 -0.29352984 -0.058491357 0.17839845
0002f0 84 e6 3d be 64 df 41 be 71 b6 66 be db c9 30 be
       -0.18544966 -0.18932873 -0.22530533 -0.17264502
000300 e2 05 20 3e f7 52 b1 3d ea 92 d8 3c cf f7 77 3e
       0.15627244 0.086584024 0.026437242 0.24215625
000310 8a 51 6b 3d bd 57 6b be 7c 92 73 be 32 0e 5f 3d
       0.05745081 -0.22982688 -0.23786348 0.054456897
000320 94 97 0a be 1f 1c 84 3e 1c 6f a5 3d c1 2f 45 3e
       -0.13534385 0.25802705 0.08077833 0.19256498
000330 5c 8a 5f bc c8 fe 20 be 41 f7 a2 be 85 81 59 3e
       -0.013643827 -0.15722191 -0.31829265 0.21240814
000340 84 e3 1f be 8b 18 6a 3e 54 30 0c be fa 0f 23 be
       -0.15614134 0.22860925 -0.1369031 -0.15924063
000350 29 7f 9a 3d 43 73 7f 3d 27 73 8d 3e 46 96 75 be
       0.07543785 0.06236578 0.27626917 -0.23983106
000360 05 74 31 be be 84 fe 3d f6 5a 58 3e 4a c5 38 be
       -0.17329414 0.12427662 0.21128449 -0.1804401
000370 fc 65 ab 3d 60 94 bb bc ce 81 48 be 9a 4d 8e 3e
       0.08369061 -0.0228979 -0.19580767 0.2779358
000380 af 5a 40 be 46 bd cc bc 99 be e8 bd 38 5a cb 3a
       -0.18784593 -0.024992596 -0.113644786 0.0015514558
000390 bc b4 8f bd f4 67 80 be 16 c9 77 3e f2 25 30 be
       -0.07016894 -0.2507931 0.24197802 -0.17201975
0003a0 68 9e 1c 3e 46 af 58 3d 48 5f c6 3a 76 92 a7 bc
       0.15294802 0.05290153 0.0015134597 -0.02045558
0003b0 6b 96 8b bd c3 1c 2a bc ea 53 24 3e 12 ce 4d be
       -0.06815799 -0.010382834 0.16047636 -0.20098141
0003c0 22 dd 22 3a ff 3e 94 be 57 68 d2 bd 0d 73 19 3e
       0.0006212761 -0.28954312 -0.102738075 0.14985295
0003d0 75 62 a7 3d 10 a5 82 be c9 c5 3a be c9 5c 0c 3e
       0.08173076 -0.25516558 -0.18239512 0.1370727
0003e0 2e 54 12 3c 93 fd 8e 3e fd e2 8d be 8a 30 b7 3d
       0.008931203 0.27927837 -0.2771224 0.08944805
0003f0 30 46 8e be 70 43 2f 3e e1 31 8a bd 34 44 73 bd
       -0.27787924 0.17115569 -0.06747795 -0.059391215

encoder.feature_encoder.atom_embedding_list.4.weight f4 [10, 64]
000000 aa ae 2b 3e 43 e1 32 3e 7e ad e6 3d e0 3a 68 3e
       0.16765848 0.17468743 0.1126356 0.22678709
000010 c0 2a a2 3d 53 59 20 be cd c7 c6 3d 10 d6 c8 bd
       0.0791831 -0.15659074 0.09706078 -0.09806454
000020 52 d0 74 3e 7a a3 50 be 79 46 03 be 45 70 28 3e
       0.23907593 -0.20374861 -0.12819852 0.16449077
000030 65 5c b7 bd 25 3d 01 3e 6b 03 0b be ea c2 19 3e
       -0.0895317 0.12620981 -0.13575523 0.1501576
000040 10 fa 95 3e 0c 45 a0 3d a3 d3 d1 bc 45 77 fb 3d
       0.29292345 0.0782567 -0.025613612 0.12278608
000050 6f 12 bf bd 77 e5 35 be 50 03 83 be 83 6e 34 be
       -0.09329688 -0.17763315 -0.25588465 -0.17620282
000060 37 ef 39 be c0 22 f3 3d 12 e3 96 be 11 2d b3 be
       -0.1815766 0.118718624 -0.29470116 -0.3499532
000070 80 24 95 be 35 68 4a 3d 30 1e a6 be b2 b8 82 be
       -0.2912941 0.049415786 -0.32444906 -0.25531536
000080 29 b5 a3 3d 5f 57 1d be 71 03 50 3d 7d 07 4b 3c
       0.07993538 -0.1536536 0.050784532 0.012391922
000090 7d 5d 89 3e 21 ec d1 bd f8 f3 57 be f3 fe 49 be
       0.26829138 -0.10250116 -0.2108916 -0.19726162
0000a0 bf e2 18 bd 8e ab d0 bc 2f 89 9e 3e b3 b3 30 be
       -0.037325617 -0.025472429 0.30964038 -0.1725605
0000b0 88 01 3c be 5f a2 53 3e a6 30 9e bc 01 76 7d 3e
       -0.18359959 0.20667408 -0.019310307 0.24752046
0000c0 de 67 87 bc c3 76 d8 3c 4e 50 e6 3d 7e b7 20 bd
       -0.01652902 0.026423818 0.11245786 -0.03923749
0000d0 aa 15 c5 bd 02 b4 a3 bd ba c9 32 be c6 18 2f be
       -0.09623273 -0.07993318 -0.17459765 -0.17099294
0000e0 e9 ef 70 3e 50 8b 2e 3e f5 45 3a 3c 69 b6 7c 3e
       0.23529018 0.17045331 0.011369218 0.24678959
0000f0 28 cb d4 3d 69 fb 05 3e 1d cd 41 3e ba 42 f8 3d
       0.103903115 0.13084187 0.18925901 0.12122102
000100 5f b6 6b 3d 25 aa 4a 3e ba 04 74 3e a8 57 2e 3e
       0.05754697 0.19791467 0.23829928 0.17025626
000110 30 64 d6 3d f5 73 47 be 7a ea 98 3c 47 29 99 3e
       0.10468328 -0.19477828 0.018666495 0.29914305
000120 1b 11 ef bc d8 a8 96 be 8d 84 4b be 42 7b bd be
       -0.029182961 -0.29425693 -0.19874783 -0.370081
000130 7e dc 5d 3e fa 1c 5b 3e 0f 45 4d be a4 9b 5e be
       0.21666142 0.21397772 -0.20045875 -0.2173906
000140 d5 db 26 bd c5 f7 ea 3d da 35 5d 3e b1 8f e1 3c
       -0.040736992 0.114730395 0.21602574 0.027534338
000150 9d dd 83 3b 95 28 60 3e 7e 8f 8b 3e 5d e5 45 3e
       0.004024221 0.21890481 0.27257913 0.19325776
000160 b7 25 75 3e 96 1b 5f be 1c 4a 56 3e 18 e2 98 3e
       0.23940168 -0.21787867 0.20926708 0.29859996
000170 50 8f a3 3e 87 fa 89 3a 22 3d 78 3e 5f 9a 42 be
       0.31945276 0.0010526933 0.2424207 -0.190042
000180 c4 4a 45 3e 43 fd f6 bd 09 de 94 3e a0 15 80 3e
       0.19266802 -0.120600246 0.2907565 0.250165
000190 b4 f8 87 bd 8a bd 40 3e d7 35 20 3e fc e4 d3 bd
       -0.06639233 0.18822303 0.15645538 -0.1034641
0001a0 2b 80 b1 bc ea 95 78 be fa d6 8c be 53 bc 24 3e
       -0.02166756 -0.24275938 -0.27507764 0.16087465
0001b0 5e 4c a2 be 69 da 75 bc ae 5d 47 be 16 0f 01 be
       -0.3169889 -0.015005686 -0.1946933 -0.12603411
0001c0 e4 39 16 3d 7c 01 61 3e ce 76 b9 3e e4 d3 8e be
       0.036676303 0.21973222 0.36223453 -0.27896035
0001d0 ed d9 49 be c9 0c 34 be 08 5a 4e be 87 14 b7 be
       -0.19712038 -0.17583002 -0.20151532 -0.3575785
0001e0 06 1a 5d be 98 f2 8b bd 65 ee fd 3d cd 7f 67 3d
       -0.21591958 -0.068333805 0.12398986 0.056518365
0001f0 af e6 34 3e 37 f4 ac be 4f db 5a be d5 9c 17 3d
       0.17666124 -0.3378007 -0.21372722 0.0370148
000200 1f 65 82 be 99 64 9d 3d 2f bc d1 bd 6e 71 8d be
       -0.25467774 0.07685203 -0.10240971 -0.27625602
000210 60 ac b6 be fb c8 35 bc 51 fe 3a 3e 47 7e 68 bc
       -0.35678387 -0.011095281 0.18261077 -0.014190263
000220 ce 18 c2 bd 1b 90 9f 3e bf 99 fc 3d cf 42 80 bc
       -0.09477387 0.3116463 0.12334012 -0.015656857
000230 6a b6 18 3e 28 bf 4d bd e3 0a 12 be a6 14 42 be
       0.14913335 -0.05023113 -0.14261965 -0.18953189
000240 58 72 67 bd 79 5b 30 bd 5a 4e 26 be 30 c7 16 3e
       -0.05650553 -0.043055985 -0.16240826 0.14724422
000250 17 6f 1e bd 71 f5 32 3e 52 ee 97 bd b9 44 11 3e
       -0.038680162 0.17476441 -0.07418503 0.14186372
000260 f0 61 74 be b9 b0 9b 3e a8 f0 7d 3d 94 d0 93 3d
       -0.23865485 0.30408266 0.061997086 0.072175175
000270 72 fe 42 be 83 22 1e 3b 24 56 0b be 84 ad e3 bd
       -0.19042376 0.0024129457 -0.13607079 -0.1111708
000280 07 a0 bc bd 4e 43 8d bd 21 c3 93 bc 87 f7 2c 3e
       -0.0921021 -0.06897603 -0.01803738 0.16891299
000290 98 a5 13 be dc 2d 19 3e 89 e9 06 3d 64 45 94 be
       -0.14418638 0.149589 0.03293756 -0.2895919
0002a0 29 71 58 3e 4d 5a ff bd a2 d9 8e be 32 e1 be bd
       0.21136917 -0.124683954 -0.27900416 -0.09320296
0002b0 e8 fb b0 bd 71 2c a0 be de a5 c7 be 9f c6 8b be
       -0.08641797 -0.31283906 -0.38993734 -0.27299973
0002c0 8e 2d 6a be e2 24 bc bd a2 7f 3b 3e 04 43 4f be
       -0.2286894 -0.09186722 0.18310407 -0.20240408
0002d0 16 a6 01 3d 2f d1 9c 3e 3b 44 39 3e b5 27 39 bd
       0.031652533 0.30628344 0.18092434 -0.045203883
0002e0 ec 5f 88 be 8f d2 ea 3d 39 31 4d be 26 b9 00 3e
       -0.26635683 0.11465942 -0.20038308 0.12570629
0002f0 cc ca 71 be 0a 5e 2b 3e 7f b6 62 3e b7 02 5a be
       -0.23612517 0.16735092 0.22139929 -0.21290098
000300 bd b1 8a be 6a 08 1a be 3f 1c 90 3d 1f a9 59 be
       -0.2708873 -0.15042272 0.070366375 -0.21255921
000310 d2 08 bb bc 96 ce 59 be 33 16 58 3e 69 84 be 3c
       -0.022831354 -0.21270213 0.21102218 0.023256497
000320 ae b2 83 3d 82 ce 59 be 08 1c 95 be 8b ba de 3b
       0.06430565 -0.21270183 -0.2912295 0.00679714
000330 f0 5f 8b 3d d3 bb 36 be bf d7 fc 3b f9 48 bd be
       0.06805408 -0.17845087 0.0077161486 -0.36969736
000340 46 4c bd 3d 5e 6f f2 3c 42 20 5f be 59 3b 61 3d
       0.09243064 0.02959412 -0.21789649 0.05498824
000350 b8 a4 62 3d aa 4c 4d 3e c5 4c 85 3d d8 01 c9 bd
       0.05533287 0.20048776 0.06508783 -0.09814805
000360 a6 65 6b 3e 4a 81 46 be 92 5f 78 bd e6 69 cc bc
       0.22987995 -0.19385257 -0.060638018 -0.02495284
000370 4f c7 a1 be 20 c9 36 be 26 29 75 3e 64 65 78 be
       -0.31597373 -0.1785016 0.23941478 -0.24257427
000380 c6 50 89 3e 85 d0 2a 3e 9e 05 85 be 72 ab 45 bb
       0.26819438 0.16681106 -0.25980848 -0.0030162004
000390 0c 2e 78 be cd 2a 89 be 58 6c 78 be 73 d4 ae bd
       -0.24236315 -0.26790467 -0.2426008 -0.08536615
0003a0 d1 15 52 be 59 cf f9 bc a0 37 28 3e 90 d5 af 3d
       -0.20516135 -0.030494379 0.16427469 0.08585656
0003b0 76 22 90 be 03 82 1d 3e 65 a5 91 3b 0d cd 81 3d
       -0.28151292 0.15381627 0.0044447654 0.063379385
0003c0 c3 d6 1b 3e 4d 81 99 be c1 5d 02 be 2a 16 98 3e
       0.15218644 -0.2998146 -0.12731077 0.2970441
0003d0 94 a8 b0 3c bc f7 11 bc 21 67 df bd 05 58 86 bc
       0.02156476 -0.008909162 -0.10908342 -0.016399393
0003e0 ce 85 d9 bd 3c 25 83 3c cd 78 c4 bd b0 f8 b5 3e
       -0.10621224 0.016008966 -0.095933534 0.35541296
0003f0 94 ee cf 3d 44 64 49 bc 3e aa 62 be f3 0a a2 3e
       0.10152927 -0.012291972 -0.22135255 0.3164898

encoder.feature_encoder.atom_embedding_list.5.weight f4 [6, 64]
000000 2b 0c 17 be 6b e1 12 3d 73 a5 1b bd a6 e0 2a 3e
       -0.14750735 0.035859507 -0.03799958 0.16687259
000010 5e 48 ce bd a0 9d 38 3e 4f be 94 bd 87 b4 67 be
       -0.10072397 0.18028879 -0.07262861 -0.2262746
000020 f2 5a 25 bd c4 c8 19 be f2 76 4f be 2f 42 f0 3d
       -0.040369935 -0.15017992 -0.20260218 0.117313735
000030 29 6c 94 3e ef d1 1c be 5c b5 8e be b6 e4 e4 3d
       0.2898877 -0.15314458 -0.2787274 0.11176436
000040 db ed 85 be fa 18 c5 bd 39 9b fa 3d 92 e2 f4 3d
       -0.26158032 -0.096239045 0.122366376 0.11957277
000050 e4 7c 7f bd bd 61 3f 3e 3b 1d 1c be 4f 74 98 bd
       -0.062374964 0.18689628 -0.15245526 -0.07444059
000060 04 46 f6 bc ce 2c 86 be 73 aa 3f be f2 00 ef 3d
       -0.030062683 -0.26206058 -0.18717365 0.11670102
000070 81 ea 8d 3d 93 69 f7 bd d3 c4 90 3e c8 b7 14 be
       0.06929494 -0.120806836 0.28275165 -0.14523232
000080 aa c3 84 3c 6d b5 56 3e 6e 38 1b 3e d4 1f 99 3e
       0.016206581 0.20967646 0.15158245 0.29907095
000090 6f a4 58 3d ba 35 3b be 9c b0 a1 bd 54 2e ac bd
       0.05289119 -0.18282214 -0.07895014 -0.08407274
0000a0 7f be 92 be 07 4b 9a bd cf c5 96 be b1 67 dd bd
       -0.28660962 -0.075338416 -0.2944779 -0.10810793
0000b0 79 23 84 be 41 55 86 3e c1 a0 93 3d 87 1e 56 3e
       -0.25808313 0.2623692 0.07208396 0.20910083
0000c0 f6 e8 48 3e be 1f 6a 3e 89 4d 39 be 9f d7 03 be
       0.19620118 0.22863671 -0.18095984 -0.12875222
0000d0 a4 b9 43 be ae 43 9c be b1 fa 15 3d 0f 79 f2 3c
       -0.19113785 -0.30520386 0.03661603 0.02959874
0000e0 9a ac c3 3d b2 a6 67 bd 3c e7 ba 3d 85 d1 05 3e
       0.095544055 -0.056555457 0.09126136 0.13068207
0000f0 c8 aa 81 34 76 2e be 3d 85 27 27 be 09 c3 63 3e
       2.4152382e-07 0.092862055 -0.16323669 0.22242369
000100 6b fd a0 be da 57 6c 3d d4 53 26 3e 12 08 63 3e
       -0.31443343 0.05770097 0.16242915 0.22171047
000110 f4 ca 34 3e b2 2f fb bd 19 c6 bc 3e 5e 72 bd be
       0.17655545 -0.122649565 0.36869887 -0.37001318
000120 8f 97 ea bc a8 37 8f be c7 9d 91 3e 03 08 88 3e
       -0.028636722 -0.2797215 0.28440687 0.26568612
000130 e7 33 3b bd 29 cf 07 bd 4a 91 cc bd d4 75 99 bd
       -0.045703795 -0.033156548 -0.09988649 -0.07493177
000140 77 a7 ac 3d 92 ec e6 3d c4 a0 cb 3c a1 c2 3a 3d
       0.08430379 0.11275591 0.024856932 0.04559577
000150 64 b4 9c 3e f7 d8 9c be 94 34 8d 3d 80 27 85 be
       0.30606377 -0.3063428 0.06894794 -0.260067
000160 35 fa 68 be 8e 4e 1f 3e f8 c9 2f 3e 74 9e 94 be
       -0.22751696 0.1555731 0.17166889 -0.2902714
000170 f2 ef 72 be 82 2f cb 3d 79 4c 89 bd 34 60 7c 3e
       -0.23724344 0.09921171 -0.06704039 0.24646074
000180 28 54 4b bc 36 54 9a 3e b0 3d 68 bd 69 50 12 bd
       -0.012410201 0.30142373 -0.056699455 -0.035721216
000190 0c 3a 8d bd 1c 68 3e be 27 bf 8b bd 82 24 16 bd
       -0.06895837 -0.18594402 -0.06823569 -0.03665591
0001a0 df 98 19 be fd b8 81 be 7f 96 47 3d c6 28 94 3e
       -0.14999722 -0.25336447 0.04872751 0.28937358
0001b0 cd d0 0f 3e aa 17 48 be c1 b5 cc bd bc 1f 8b 3e
       0.14044495 -0.19540277 -0.09995604 0.2717265
0001c0 a9 e8 21 be 87 a4 1e bc e3 29 c3 3d b2 62 c7 3d
       -0.15811409 -0.009682781 0.09529474 0.097356215
0001d0 da a9 29 be e7 fa 98 be cd 2d 89 be bb 58 81 be
       -0.165687 -0.29878923 -0.26792756 -0.25263008
0001e0 15 a3 96 3d 05 13 1f 3d c8 d6 98 bd a0 97 d2 3d
       0.07355324 0.038836498 -0.07462841 0.102828264
0001f0 22 f9 e0 3c b0 fd 61 3d e1 39 7e 3e ce 50 05 3d
       0.027462546 0.055173576 0.24826767 0.032547764
000200 67 77 ab 3e d8 2d 95 3e 67 01 36 be 88 16 76 3e
       0.33489534 0.29136539 -0.17773972 0.24032032
000210 ac 82 68 bd d5 2b cb bb 3d 5f 84 3d 30 29 83 be
       -0.056765243 -0.0062002935 0.06463478 -0.2561736
000220 21 9a 54 3e f1 86 4e 3e 8d 75 8d 3e 88 b4 95 3d
       0.2076192 0.20168664 0.27628747 0.07309824
000230 6f 60 d0 bd 53 98 82 bd 21 8e c4 bd b2 ab 77 be
       -0.10174643 -0.0637671 -0.095974214 -0.2418659
000240 33 ce cb 3d 51 ce 2f 3c de a8 ad bd c6 c9 2e be
       0.09951439 0.010730342 -0.084794745 -0.17069158
000250 df 2d e6 bc 07 ca a5 3d a7 78 98 3e fc 92 bc 3d
       -0.028098045 0.08095174 0.2977955 0.092077225
000260 5c 01 62 3e 66 41 6a 3e 59 23 ad bd fd b3 53 bd
       0.22070831 0.2287651 -0.08454008 -0.051685322
000270 0a 12 82 be c2 75 70 be cc 12 e8 3d 6e 1f 03 3e
       -0.25404388 -0.23482421 0.1133171 0.12804958
000280 fa 87 69 3e 96 f1 23 3e 1e 78 7c 3d 5e e2 12 be
       0.22805777 0.16010126 0.06163799 -0.14344165
000290 43 a4 92 bd bf 96 2e bd c9 4c 82 3d e2 3e 1a be
       -0.07160237 -0.04262423 0.06362302 -0.1506305
0002a0 23 b5 fa bd a2 89 3d 3e 4b 02 ca 3d f2 1f 8e 3e
       -0.1224158 0.18509534 0.098637186 0.27758747
0002b0 3d 1c 99 3e 7f 3f 21 be 26 4c f0 3c f7 18 2d be
       0.29904357 -0.15746878 0.029333185 -0.16904055
0002c0 87 54 cc bd 72 ef 81 bd 8d f2 12 3e a2 a0 8d 3e
       -0.0997706 -0.06344499 0.14350338 0.27661616
0002d0 bd 8b 6a be eb be 96 3e 24 64 65 3e 2d 13 11 be
       -0.22904868 0.29442534 0.22401482 -0.14167471
0002e0 88 cf 32 be 85 2d 88 bd 30 64 ed 3d 48 65 ac bd
       -0.1746198 -0.06649307 0.11591375 -0.08417755
0002f0 22 ce d2 3d 9a 25 10 bd 96 da 9d 3e 23 8d 50 bd
       0.10293223 -0.03519211 0.3083083 -0.05091585
000300 48 4e 8f 3e 51 2e 5f be 9b 06 b3 bd f4 c3 41 3e
       0.2798941 -0.21795012 -0.08741494 0.18922406
000310 8f 69 c7 3d 40 cd 17 be 7c 7d 75 be d9 56 62 be
       0.097369306 -0.1482439 -0.2397365 -0.22103442
000320 37 81 7a be 81 ad 25 be bb a6 35 be 7a 0c ad bd
       -0.24463354 -0.16179468 -0.17739384 -0.08449645
000330 68 e1 81 3e f8 25 9f bd 56 4d 39 be cb 91 12 3e
       0.25367284 -0.07770914 -0.18095908 0.14313428
000340 55 73 30 be 12 0b 16 be 82 29 46 bd f3 9a 13 bd
       -0.17231496 -0.1465266 -0.04837943 -0.036036443
000350 c8 e0 38 be ef 6c 6e be 15 52 92 be a3 4f fe bd
       -0.18054497 -0.23283742 -0.2857825 -0.12417533
000360 88 e5 17 3e a1 67 c0 3c 73 fb 6e 3e 70 fc 4f 3d
       0.14833653 0.023486914 0.23338108 0.050777853
000370 1d e9 60 be de ef e1 3c ea a0 99 bd d8 c0 29 3e
       -0.21963926 0.027580198 -0.07501395 0.1657747
000380 14 23 a3 3d 9f 63 94 3e a2 65 86 be 21 b0 0e be
       0.07965675 0.28982255 -0.26249415 -0.13934375
000390 f6 76 7e be 1b 67 d5 3c 38 1a 3f be 1d f9 f8 bd
       -0.24850067 0.026050141 -0.18662345 -0.121568896
0003a0 f5 16 8f 3e 4a e3 c8 bd a5 80 13 3e c6 bf 40 3e
       0.27947202 -0.09808977 0.14404543 0.18823156
0003b0 2c 6d 59 3e 1a 3d 75 3e ef ee 38 3e c3 ab ed 3c
       0.21233052 0.2394909 0.18059896 0.029012566
0003c0 d4 f3 7c 3e 1c 10 91 3e da cd 4e be 4b 6c 7a 3d
       0.24702388 0.28332603 -0.20195714 0.061138432
0003d0 3a 46 4e 3e 84 ae 4a be 21 51 eb 3d 30 2f 3b 3e
       0.20143977 -0.19793135 0.114900835 0.1827972
0003e0 8c ab 15 3c 83 56 ad bd be 59 c6 bc c6 64 82 3e
       0.009135138 -0.084637664 -0.024212714 0.2546751
0003f0 9d 5f 6d be 66 e2 ed 3d aa 47 22 be e9 50 4a 3e
       -0.23181005 0.11615448 -0.1584765 0.19757427

encoder.feature_encoder.atom_embedding_list.6.weight f4 [6, 64]
000000 c6 73 4b 3d 68 4c 85 3e 76 fb 0b be 27 e5 50 3e
       0.049670957 0.26034856 -0.13670143 0.20399915
000010 fb e9 16 3e 0c 93 66 3d 9f ff 17 3e 87 d5 a4 3d
       0.14737694 0.05629258 0.14843605 0.080485396
000020 41 0e 3e bc fa 58 ba bd 17 b5 7d 3d e4 fa 27 3e
       -0.011600078 -0.09099002 0.06194028 0.16404301
000030 cd 02 82 3e c7 6e 81 3e 39 ec 18 be 1e 15 a4 be
       0.25392762 0.2527983 -0.14933862 -0.3204736
000040 24 2c 19 3e c1 88 66 bd 46 37 56 3d 5c a2 63 3e
       0.14958245 -0.056282762 0.052298807 0.22229904
000050 14 44 ed bd de b5 62 be 58 dd c4 3e a3 67 b0 be
       -0.115852505 -0.2213969 0.38450122 -0.3445407
000060 4f 57 85 be 88 d7 8b 3d 37 6c 9f bd c2 a0 21 3e
       -0.26043174 0.06828219 -0.07784312 0.1578398
000070 33 a4 03 3b 54 11 02 3e 30 99 d9 3d 05 a6 04 3e
       0.0020086884 0.12701923 0.10624921 0.12953956
000080 12 d4 21 3d 48 8b 56 b9 95 99 8f 3e 22 9c 66 be
       0.039508887 -0.00020460517 0.2804686 -0.22520497
000090 69 9f 02 be 6b 14 df bd 26 49 55 3d b8 a4 f9 bd
       -0.12756123 -0.10892566 0.052071713 -0.12189621
0000a0 aa ec f0 bc 70 72 c8 be 96 11 46 3d 96 6f 66 3e
       -0.029409725 -0.3914981 0.048356615 0.22503504
0000b0 73 91 9f be 15 ca 81 be 3e 2d 2d 3e b5 51 b4 3e
       -0.31165656 -0.2534949 0.1691179 0.35218588
0000c0 59 f8 83 3d 36 06 6a 3d 13 42 83 be 2d 54 41 3e
       0.06443853 0.05713483 -0.25636348 0.18879767
0000d0 d6 b7 0d 3e 5c fa 6f be b0 95 d0 3d 66 52 8f bd
       0.13839659 -0.23435348 0.101848006 -0.06998138
0000e0 85 7a a1 3e 00 ef 09 be 0c 9f 5e be c8 1d 84 bd
       0.31538787 -0.13470078 -0.21740359 -0.06450993
0000f0 b1 6a 52 3e 5f ad 03 3e 1e fa 3e be b8 25 40 be
       0.20548512 0.12859105 -0.186501 -0.18764389
000100 d1 dd 05 3e ec 90 24 be 2f 53 2e be db 64 f1 bd
       0.13072897 -0.16070908 -0.1702392 -0.11786815
000110 ce 2d 4f be c9 c2 87 be c0 63 02 be 24 5c 64 3d
       -0.20232317 -0.26515797 -0.12733364 0.055751935
000120 54 56 95 bb 25 9f 61 3e b2 dd a4 be 1b 75 01 be
       -0.0045574103 0.22033365 -0.3220039 -0.12642328
000130 36 95 25 bd c3 a9 08 be 09 4e f8 bc 8b c2 f4 bd
       -0.0404255 -0.13346009 -0.030310648 -0.119511686
000140 14 21 09 be 32 75 c0 be 55 7a 04 bd d4 d1 7b bd
       -0.13391525 -0.37589413 -0.032343227 -0.061479405
000150 57 5c 66 be 0b 56 56 bd c9 37 51 be 03 d3 53 3c
       -0.22496162 -0.05232815 -0.20431437 0.012928727
000160 44 da 6d bc 13 c8 3f be 52 56 a3 bd e6 d8 29 3d
       -0.014517371 -0.18728666 -0.07975449 0.041466616
000170 e3 01 59 be 84 6a d6 bd ac 27 75 3e 41 73 0d bc
       -0.21192126 -0.10469535 0.23940915 -0.008633436
000180 58 39 1d 3e e6 cb e6 3c d1 ac 8e bc 34 22 58 be
       0.15353906 0.028173398 -0.01741639 -0.21106797
000190 de f6 95 bc 72 bd 8c 3e 2a 21 7f 3e 16 cb 45 3e
       -0.018306192 0.27488285 0.24914995 0.19315752
0001a0 95 c6 17 be cb 1e 27 bd cf 99 8f 3e 2b fd 39 bc
       -0.14821847 -0.04080085 0.28047034 -0.011351864
0001b0 65 02 40 3e a6 3c f6 3c 8a 53 24 3e 4a c7 38 be
       0.18750913 0.030058216 0.16047493 -0.18044773
0001c0 bd 0c 9e 3c ad 90 87 be f5 a5 50 bd c7 e2 f7 3d
       0.019293183 -0.26477566 -0.05093952 0.12103801
0001d0 b1 b3 f8 3d 68 31 57 3e b0 67 8d be 1f 45 01 3e
       0.121436484 0.2101494 -0.2761817 0.12624024
0001e0 ff 86 49 bd 27 d5 97 3e 52 f3 55 3e a4 3c 37 3e
       -0.049201008 0.2965481 0.208936 0.17894226
0001f0 31 4a 82 be 7a d0 88 3e ef f6 02 be 00 77 2c be
       -0.2544723 0.26721555 -0.1278951 -0.1684227
000200 67 16 7a 3e 23 ee 0d bd 3a 88 ea 3d dd 0e 3b 3e
       0.24422608 -0.034650933 0.114517644 0.18267389
000210 b9 13 80 3b 1c fb 1b 3e 0d 87 82 3d 17 66 36 3e
       0.003908601 0.1523251 0.06373415 0.17812382
000220 0d 9b 28 3e db 90 f2 3d ac 12 22 be 71 fa 11 3d
       0.16465397 0.11844035 -0.15827435 0.03563923
000230 23 12 2d 3e 71 7b 91 bb 91 d5 95 3e 62 1b ef 3d
       0.1690145 -0.004439764 0.292645 0.11675145
000240 86 e0 61 be 2c 95 0c bd d3 2d e4 bd 48 5b 73 be
       -0.22058305 -0.03432195 -0.11141553 -0.2376529
000250 2a 5c 90 bd 09 32 52 3d 7a 79 99 be 79 91 0c 3e
       -0.07048829 0.05131725 -0.29975492 0.13727368
000260 f5 e9 9a 3e 59 00 02 3e f0 e6 0c bd ef 6d 60 bd
       0.3025662 0.12695445 -0.034399927 -0.05479234
000270 0e 9a 23 3b e8 27 8c be 90 be 27 3c 2e 89 1d 3e
       0.002496365 -0.27374196 0.010238305 0.15384361
000280 cb e1 d2 3c a6 cb 7d bd 2e 3c 35 3e d0 0e 96 3e
       0.025742432 -0.061961792 0.17698738 0.29308176
000290 ed 31 92 3e 59 17 be 3e 67 b5 8b 3e 8e eb b9 3b
       0.28553715 0.37127188 0.27286837 0.0056738323
0002a0 bf bd a1 be 12 f4 06 3e d8 3a 23 3e ed 25 a4 bd
       -0.31590077 0.13179043 0.15940416 -0.08015046
0002b0 d6 da 4e 3d 33 54 74 be 6c 1e a1 3d 80 7f 8a 3e
       0.050501667 -0.23860244 0.07867131 0.270504
0002c0 66 0b 58 be 13 34 96 bd 9d 9a 36 3e d6 dd 83 be
       -0.21098098 -0.07334151 0.17832418 -0.25755185
0002d0 cd 0e e9 bd ea 3d 64 bd a2 c9 86 3e 13 c3 47 be
       -0.11379776 -0.05572311 0.2632571 -0.19508009
0002e0 0c 28 09 bd 18 8d 52 3e 8b 6e 0a 3e a5 dd cd bc
       -0.033485457 0.20561635 0.13518731 -0.025130102
0002f0 63 03 01 3e 69 44 95 bd ed eb 43 3e 23 3c 40 3c
       0.12598948 -0.07288439 0.19132967 0.011733088
000300 cf 33 8a 3e 74 80 05 be 20 43 37 3e 01 86 dd 3d
       0.26992652 -0.13037282 0.178967 0.10816575
000310 37 63 18 be de 96 09 be d6 27 a7 3d a3 16 6a 3e
       -0.14881597 -0.13436458 0.08161895 0.22860198
000320 4d 39 8d bd 0d 0c 74 3e 1a f8 81 be 26 67 2e be
       -0.06895695 0.23832722 -0.253846 -0.17031536
000330 a9 7b ce bd 63 aa 4d 3e 16 76 2f 3e 4d c7 00 be
       -0.1008218 0.20084529 0.1713489 -0.12576027
000340 52 96 27 3e a1 9e 99 be b7 e7 f5 bd 53 2e 75 3e
       0.16365936 -0.30003837 -0.12007087 0.23943453
000350 7c cd 11 bd 8b b5 36 be 17 1d a1 be f8 d7 f5 3d
       -0.035596356 -0.1784269 -0.31467506 0.120040834
000360 76 e7 de bd a3 a1 8a 3e ed b9 8c bd ec eb ba 3c
       -0.108839914 0.27076444 -0.068714 0.022817574
000370 dd a1 38 3d 9f 84 7b 3e f9 b4 81 3e 59 c3 81 be
       0.04507624 0.2456231 0.25333384 -0.2534435
000380 03 cf 40 3e 77 4b 34 be 03 23 31 be 1c 0f 81 3d
       0.18828969 -0.17606913 -0.17298512 0.0630171
000390 00 ff 33 be 86 60 07 bc f6 6e 8f be b5 68 9c bd
       -0.17577744 -0.008262759 -0.28014344 -0.07637159
0003a0 1f 35 4f 3d 77 fe a3 bd 5d 11 b6 3d dd 9c e1 bd
       0.05058777 -0.0800752 0.088900305 -0.110162474
0003b0 06 6d 0e 3e 28 92 df bd e3 9a 95 be 84 73 9b be
       0.13908777 -0.10916549 -0.29219732 -0.3036157
0003c0 a9 f4 2c 3e 3d a5 8d be 57 c5 1c 3e 15 63 03 3e
       0.16890205 -0.2766513 0.15309654 0.12830766
0003d0 b7 b2 a3 3e 32 67 61 be a3 35 b6 3e ae d6 3f be
       0.31972286 -0.22012022 0.35587797 -0.18734238
0003e0 5e 8e 49 be d5 5b 59 bb aa e1 6c be 6c 8e 12 be
       -0.19683215 -0.0033166308 -0.23132959 -0.14312142
0003f0 31 3b 17 3d 71 03 55 3e 7a 63 e4 3d e8 20 19 3e
       0.036921684 0.20802094 0.11151786 0.14953959
