checkpoints/tuning/trial_2/best_model.pt (torch, 520320 bytes, 104 tensors)

encoder.feature_encoder.atom_embedding_list.0.weight f4 [119, 64]
000000 be 6e 10 3e 85 09 20 3d 87 a9 3b 3b 15 89 2c 3e
       0.14104745 0.03907158 0.0028634982 0.16849168
000010 35 c8 01 be 19 46 2b be 79 32 c4 bd 51 e3 0a 3e
       -0.12674029 -0.16725959 -0.095799394 0.13563277
000020 90 2c 30 3e cf 63 98 bd 62 01 f0 bd cf 1f 28 be
       0.17204499 -0.07440912 -0.11719014 -0.16418384
000030 57 f9 ac 3d 75 25 97 bd 80 97 0a 3e 92 1e 83 bd
       0.08445995 -0.07380191 0.13534355 -0.06402315
000040 50 a2 29 3e 52 97 f0 3d 31 9e ec 3d 1b 5a c3 3d
       0.16565824 0.11747612 0.1155361 0.09538671
000050 84 52 12 be 2f 87 cb 3c 4b 3d dd bd 42 ea 63 bd
       -0.1428929 0.024844734 -0.10802706 -0.055643328
000060 34 b0 e5 3d df 17 bb bd eb e2 e5 3d 6f 76 21 3c
       0.11215249 -0.091354124 0.11224922 0.009854897
000070 60 8c af bd 67 5b af bd b8 3e 34 be 8b 67 7e 3d
       -0.08571696 -0.085623555 -0.1760205 0.062110465
000080 62 46 00 3c 6e 15 25 3e 6a 78 84 3d 85 ab 63 3d
       0.007829281 0.16121456 0.0646828 0.055583496
000090 da 6b 09 bc ab 4e ad 3d 2b 14 dc bc ba ad 94 3d
       -0.00838753 0.0846227 -0.026865086 0.07259698
0000a0 49 a2 a8 bd 83 d2 e4 3d 24 60 4b 3d b5 e5 c3 3d
       -0.082340784 0.111729644 0.049652234 0.095652975
0000b0 68 59 48 3c d8 e8 ac 3d 7d 5d 25 3e 04 bd ec 3c
       0.012228347 0.08442849 0.16148944 0.028898723
0000c0 90 cc 02 3e 2d 0b 29 be 24 4e 90 bc ec 7d 1e be
       0.12773347 -0.1650817 -0.017615385 -0.15477723
0000d0 9e 1e 54 3c d4 47 0b 3d 46 6e 51 3d 77 d9 9d bd
       0.012946753 0.034004048 0.051130556 -0.07707494
0000e0 09 c0 ac 3d 27 09 9c bd 90 f8 45 bd 4c 37 0d 3e
       0.08435065 -0.07618933 -0.04833275 0.13790625
0000f0 e2 74 2c be 27 58 24 3d 04 b4 1e be 3b 94 9f 3d
       -0.16841462 0.04012313 -0.15498358 0.077919446
000100 80 d5 1a be 9c 0e 2e be b1 99 4e bd fc 4a 14 3e
       -0.15120506 -0.1699776 -0.05043954 0.1448173
000110 29 5d bb 3d 68 55 ee 3d 2a c9 2c bd ab c9 23 3e
       0.09148628 0.11637384 -0.042184032 0.15994899
000120 e5 16 a9 bd 22 ab 4f bc e6 43 2a be 1e 78 15 3c
       -0.0825632 -0.012675079 -0.16627464 0.009122876
000130 f9 09 2a 3d 4b f6 31 be e7 df 1b 3e 9a 89 0b 3d
       0.041513417 -0.1737911 0.1522213 0.034066774
000140 f2 d3 30 3e b0 a3 9f bd c6 57 0a 3c 7e 07 6e bd
       0.1726835 -0.07794893 0.008443778 -0.058112614
000150 67 c5 1c 3e 65 4d cf bd 92 6e d5 3d 49 34 02 be
       0.15309678 -0.10122184 0.1042148 -0.12715258
000160 bd 55 0b 3e 94 a3 2c be b9 5a b8 bd 10 5e a7 bd
       0.13606925 -0.16859275 -0.09001679 -0.08172238
000170 c9 df fb bc bc 29 13 bb 86 ad 6f 3d 34 47 26 3e
       -0.030746358 -0.0022455296 0.058515094 0.162381
000180 38 75 da 3d 1b d0 b2 bd 17 3a 2e 3e 22 6f da bc
       0.10666889 -0.08731099 0.17014347 -0.02666432
000190 b6 c9 ce bd 96 9d 8a 3d 37 3f 01 bd fc f3 30 3e
       -0.10097067 0.067683384 -0.031554427 0.17280573
0001a0 e8 78 a5 3c 11 70 f5 3d c3 f7 3e 3d ef 58 f2 bd
       0.020199254 0.119842656 0.046623003 -0.11833369
0001b0 ab 18 1c 3d bf 99 d6 bd 7a 9a 46 bd 64 eb 6e bd
       0.038109463 -0.104785435 -0.048487164 -0.058329955
0001c0 5c ea 12 be ca 83 8f 3d 36 34 03 3e 5d b8 36 be
       -0.14347214 0.07007559 0.12812886 -0.17843767
0001d0 0b db c9 3d c9 65 12 be ee 75 35 be 53 c6 7f 3d
       0.09856232 -0.1429664 -0.17720768 0.062444996
0001e0 0c 8a 83 bb de 56 e3 bd 48 04 26 3e 2d 13 72 3c
       -0.004014259 -0.11100553 0.1621257 0.01477508
0001f0 33 99 e8 bd d5 1d aa 3d e1 f9 51 3c 50 6c ed bc
       -0.113573454 0.08306471 0.012815923 -0.028982311
000200 3c ff 03 be 1e ec 94 bc fa 24 d0 3d 2f 34 b6 bd
       -0.12890333 -0.018178996 0.10163303 -0.08896672
000210 7b fd b2 3d 9f 37 36 be d9 17 8f bd 02 44 6f bd
       0.08739754 -0.17794655 -0.069869705 -0.058414467
000220 6e de 1f be 87 89 84 3d 8a 7f 0f be 10 3b d2 3d
       -0.15612194 0.06471544 -0.14013496 0.102651715
000230 50 46 1f 3d f7 88 1d 3b 55 b2 c5 bd ca b4 86 bd
       0.038885415 0.0024037936 -0.09653155 -0.065774515
000240 14 0e 34 3d 51 f5 2e 3e ce 2f ad bd ee 50 fc bd
       0.04395874 0.17085768 -0.08456384 -0.123201236
000250 c9 0a ac bd a2 30 05 be 1f 47 c3 bc 34 29 04 be
       -0.084004946 -0.13006833 -0.023837624 -0.12906343
000260 a9 70 06 3e ed d8 ff 3d 16 93 ec bd c4 f5 22 3e
       0.13128914 0.12492547 -0.11551492 0.15914065
000270 8d 55 13 3d f5 33 ed bd 82 58 76 3d 19 31 26 be
       0.03597026 -0.11582176 0.060143 -0.16229667
000280 29 06 c8 bd 05 ef 0a be be 5d d9 bd 3a 8a 20 bd
       -0.097668 -0.13567741 -0.10613583 -0.039194323
000290 ce 29 27 3d 12 87 0d 3d 1b 71 34 be d2 79 31 be
       0.040811352 0.03455264 -0.17621271 -0.17331627
0002a0 86 09 e1 bc f8 5d 1c 3e 06 60 89 3d 38 82 25 3e
       -0.027470361 0.15270221 0.06707768 0.16162956
0002b0 63 b4 af bd 27 9f 51 3d e6 6b 21 be b3 1f c1 3d
       -0.08579328 0.05117717 -0.15763816 0.09429874
0002c0 63 b0 f1 bb 2f be 92 bc db 95 c1 bd 89 01 22 be
       -0.0073757633 -0.017912952 -0.09452411 -0.15820898
0002d0 89 88 88 bd 89 29 8c bc ba ee c4 bd 3d ff 9a 3d
       -0.06666667 -0.01710965 -0.09615846 0.07568214
0002e0 4c f7 03 bd db b1 98 3c b4 9b 27 be 63 25 59 3d
       -0.032218263 0.018639496 -0.1636799 0.05301417
0002f0 72 4d b5 bd 9d 1a 0c be a4 53 99 bd 13 ea 2a be
       -0.08852662 -0.13682027 -0.07486656 -0.16690855
000300 dc 86 0d be 24 3e 0a 3e 18 c5 17 3e 43 ca 00 be
       -0.13820976 0.13500267 0.14821279 -0.12577157
000310 5c d8 20 3d a1 02 bf bd 67 81 2d 3e bd 64 e2 3d
       0.039268836 -0.09326673 0.16943894 0.110543706
000320 61 72 93 3d 05 2c 17 be e9 66 b6 bd 91 de 1b bd
       0.071995504 -0.14762886 -0.08906347 -0.038054053
000330 1f c6 25 be 0d b9 d8 bd d0 44 43 3d 83 f1 16 be
       -0.16188858 -0.10582171 0.047673047 -0.14740567
000340 b9 55 45 3d c4 97 87 bb 18 4e 74 bc c5 a4 58 bd
       0.048177455 -0.004137965 -0.014911197 -0.05289151
000350 1e 4c c7 bd d3 5a 2d be 34 59 fc bd 43 08 0c 3e
       -0.09731315 -0.16929178 -0.12321702 0.13675027
000360 ad e5 5b bc c6 8c 34 3e e4 66 1c 3c 78 d7 ae bc
       -0.013421458 0.17631826 0.009546015 -0.021342978
000370 49 63 de 3d 7f 90 2e be a9 d9 e5 bd ff b9 d4 3d
       0.10858781 -0.17047308 -0.11223156 0.103870384
000380 82 6d 41 bd dd b1 12 3e 0e 73 87 bc 12 3b 04 3e
       -0.047223575 0.14325662 -0.016534355 0.12913159
000390 e5 14 10 3c 78 0b 9a 3c 12 9c 1c be d8 27 80 bd
       0.008794044 0.018804297 -0.15293911 -0.062575996
0003a0 84 bf 14 3c c7 6f a9 3d 20 e8 0f 3d 47 07 21 bd
       0.009078864 0.08273273 0.03513348 -0.03931358
0003b0 ef 3b a0 3a cc 63 1f 3e be 5e f7 3d 3a 12 7d 3d
       0.0012224893 0.15565413 0.120786175 0.06178496
0003c0 35 a0 05 be 14 61 79 bd 84 c1 ec 3d 7e e8 26 3e
       -0.13049395 -0.060883597 0.11560348 0.16299626
0003d0 ed 4f af bd c0 91 9d 3d 12 ab 2d bd 4e 3e eb 3d
       -0.085601665 0.07693815 -0.042399473 0.11486493
0003e0 6f e2 de bc b3 63 13 be e5 88 37 be c5 4e de bb
       -0.027207581 -0.14393501 -0.17923315 -0.0067842924
0003f0 dc a5 5a 3d d3 9a da bd a1 e1 11 3e d5 e5 af 3d
       0.053380832 -0.106740616 0.14246227 0.08588759

encoder.feature_encoder.atom_embedding_list.1.weight f4 [5, 64]
000000 11 66 ee bd 7c 4e 4c bd 9d 44 b9 3d c2 49 6a 3e
       -0.11640561 -0.049879536 0.0904629 0.22879699
000010 52 97 f0 3d 99 55 87 3e 5a 92 d1 3d 1a b8 18 3e
       0.11747612 0.26432493 0.102329925 0.14913979
000020 9e 56 5d 3d b1 19 77 3e e5 e2 6f 3e cc 12 30 3e
       0.054037683 0.24130894 0.23426397 0.1719467
000030 74 76 80 be 2f 92 fb bc 82 70 ca bd e1 ce 29 bd
       -0.25090373 -0.030709354 -0.098847404 -0.04145706
000040 19 00 58 3e ff 05 45 be 69 93 22 be cb b6 04 be
       0.21093787 -0.19240569 -0.15876545 -0.12960355
000050 02 3a 6e 3c 31 c3 2a be 49 f1 70 3d 1d 98 79 be
       0.014540197 -0.16676022 0.058823857 -0.24374433
000060 e8 06 16 be 6f cb 31 3e e0 96 4b 3e b5 05 b7 bd
       -0.14651072 0.1736276 0.19881773 -0.089366354
000070 43 27 39 3c 3b 76 35 bc 06 5f 4e be bc e5 6f bd
       0.011300865 -0.011075552 -0.20153436 -0.0585687
000080 d6 0c 27 3e cc 11 a0 3b 62 0b 8e 3e 2a 8c 75 be
       0.1631349 0.004884934 0.2774306 -0.2397925
000090 15 1e 59 be 43 4c 84 be 74 38 36 be 9a db 7b 3d
       -0.21202882 -0.25839433 -0.17794973 0.061488725
0000a0 d2 bc 4a 3e e2 c5 77 be 80 13 6a be 7b 41 e6 bd
       0.19798592 -0.2419658 -0.22859001 -0.11242958
0000b0 d2 ff 39 3e 1b 00 1c 3e 81 5b cf bc 64 77 88 3e
       0.18163994 0.15234415 -0.025312187 0.26653588
0000c0 98 a1 da 3d 63 23 8a 3e 98 aa cd 39 85 fd 3d be
       0.10675353 0.26980123 0.0003922775 -0.18553741
0000d0 66 af ab 3a 6a 63 cb 3d fa d1 04 3e bd 49 ff 3b
       0.0013098537 0.09931071 0.12970725 0.0077907727
0000e0 58 ec 49 3a a3 ec 67 3d 1e 94 7a bd 11 76 91 3d
       0.00077027595 0.05662216 -0.06117641 0.071025975
0000f0 ec 33 2e be 02 48 82 bd cc 66 23 3e f0 25 c9 3d
       -0.17011994 -0.06361391 0.15957183 0.09821689
000100 54 f8 28 3e f4 1a 49 be ae c0 b1 bd 3c 54 1c be
       0.1650098 -0.19639188 -0.08679329 -0.15266508
000110 fb e5 6a be a6 f1 f7 bd 16 86 9a bc a3 f8 b0 bc
       -0.22939293 -0.12106638 -0.018862765 -0.021602934
000120 9b 44 95 bc 14 bd 3e be 15 e4 a3 bc 34 23 a0 3d
       -0.01822119 -0.18626815 -0.020006219 0.078192145
000130 e4 de 58 3e 81 ae 36 3e 3f 5a 7c be 70 5f 40 be
       0.21178776 0.17840005 -0.24643801 -0.18786407
000140 0c 30 6e 3e 03 fa 4c 3e 08 9e 27 3e 22 bd 1b be
       0.23260516 0.20017247 0.16368878 -0.15208867
000150 f3 a5 7e 3e 9e ae 92 be 6c 24 70 be 62 34 d8 3c
       0.24867992 -0.28648847 -0.23451394 0.026392166
000160 f1 6f 0c 3e 0f 4f 8e be 83 cc 31 3d d9 69 91 bb
       0.13714577 -0.27794692 0.04340793 -0.004437667
000170 04 fe 1e bd 47 83 6c be af c1 10 be d7 cb 62 3c
       -0.038816467 -0.23096953 -0.14136384 0.0138425445
000180 dd 6f 90 3d 5b 63 3d 3e 34 f3 d5 bd d3 e8 8e 3e
       0.07052586 0.18494932 -0.10446778 0.27912006
000190 12 65 e3 3d e9 27 4d be b7 4f 96 be 18 05 4b 3e
       0.11103262 -0.20034756 -0.29357693 0.19826162
0001a0 54 91 b6 3c f2 72 f2 bc f8 ed c7 bd 1b f7 0d 3e
       0.022286095 -0.029595826 -0.09762186 0.13863795
0001b0 68 51 d9 bd 9c eb 5c be 11 b4 51 3e e8 76 01 be
       -0.1061123 -0.21574253 0.20478846 -0.12643015
0001c0 ce dd 2d 3e 6a a7 4f be 2a d0 72 bd 98 77 25 be
       0.16979143 -0.20278707 -0.059280552 -0.16158903
0001d0 bd a4 4d 3c a1 d8 0e bd 90 2c b4 3d 51 37 6a be
       0.012551484 -0.034874562 0.08797562 -0.22872664
0001e0 e3 29 85 be 2e 26 70 3e 89 34 67 be eb a3 cb 3d
       -0.2600852 0.23452064 -0.22578634 0.09943374
0001f0 be 1f 83 be 4a 5f 6b 3d c4 97 cd bb 1e 7d 14 be
       -0.25610155 0.05746392 -0.0062741954 -0.14500853
000200 f4 f9 c6 bb 6e 4b 14 3d 43 33 07 3c 7d 71 64 3e
       -0.006072277 0.036204748 0.008251968 0.22308917
000210 46 f6 2c be 49 bc 08 3e cd 0d 8b 3e c6 e3 58 be
       -0.16890821 0.13353075 0.27158967 -0.21180639
000220 e9 82 6c be 78 1c cc 3d d0 63 d6 bd 9d eb d9 bb
       -0.23096813 0.099663675 -0.104682565 -0.0066504017
000230 a3 d6 8c be 7b 72 38 3e b3 7d 9f bc 0c 84 94 3c
       -0.27507505 0.18012421 -0.019469118 0.018129371
000240 e4 ed d1 bd af a5 d1 3d b4 75 9e bb d8 af f0 bd
       -0.10250452 0.1023668 -0.0048358086 -0.117522895
000250 09 05 96 3d e2 3c e0 bd e4 20 e0 3d 1c 9b 90 be
       0.07325179 -0.109491125 0.109437734 -0.2824334
000260 12 ad e9 bd 53 e5 4e be 2c 78 00 3e a7 0a 54 be
       -0.11409964 -0.20204668 0.12545842 -0.20707189
000270 42 f6 69 3e 5d 0c 93 3d a6 10 39 3e 5c f9 44 be
       0.22847846 0.071800925 0.18072757 -0.19235748
000280 18 4b 75 be a2 35 46 bd 61 ea 25 be 20 8f cc bd
       -0.23954427 -0.048390992 -0.1620269 -0.099882364
000290 8b 36 78 3e 92 64 21 3e 1a 6f b2 bd b5 5c 37 3e
       0.24239556 0.15761021 -0.08712597 0.17906459
0002a0 24 42 4a be 64 77 2f be 4a c0 05 3e 92 5d 02 3e
       -0.19751793 -0.17135388 0.13061634 0.12731007
0002b0 1d 9e ae bd dd 0f 4e be 85 c9 3c 3d f8 a5 91 3e
       -0.085262515 -0.20123239 0.04609062 0.28446937
0002c0 a3 98 94 3e 92 ba 77 3e 2c 71 62 be 5f 2a 48 3e
       0.29022703 0.24192265 -0.22113484 0.19547413
0002d0 1e 31 5d 3d 2d 17 75 be 94 26 9b 3c 19 ce 91 be
       0.05400192 -0.23934622 0.018939294 -0.28477553
0002e0 bd a5 81 3d 43 0a 26 be 91 2b 4b be 6a 16 6b 3c
       0.0633044 -0.16214852 -0.19840838 0.014348606
0002f0 e6 a9 4b 3e 9e 7c 29 3e 73 dd 3a be 9b c1 2b 3e
       0.1988903 0.16551444 -0.18248539 0.16773073
000300 55 b4 e0 3d 53 94 49 be b4 c5 9b bd eb b8 90 bd
       0.109718956 -0.19685487 -0.07606068 -0.0706652
000310 ba 6d 75 be 58 c4 89 be 0d 0d 4d be 05 41 89 3e
       -0.23967639 -0.2690761 -0.2002451 0.26807418
000320 c9 76 a0 bd 6a e2 e7 3c 0a bf 7a be d9 c2 4f bd
       -0.078351565 0.028306205 -0.24486938 -0.05072293
000330 a9 2a e4 3d e8 cf c3 bb d4 d5 bd bc 08 b6 80 bb
       0.11140949 -0.005975712 -0.02317325 -0.00392795
000340 94 08 4b 3e 92 b8 54 be 8f 95 87 be af 6c 91 be
       0.19827491 -0.20773533 -0.26481292 -0.28403232
000350 d3 90 f5 3d 81 34 28 be 5f 11 04 be f7 c1 1f bd
       0.11990514 -0.16426279 -0.12897252 -0.03900334
000360 09 06 31 3e cb f6 27 3b ed 6b 6c 3d 84 a3 a9 bd
       0.17287458 0.0025629278 0.057720114 -0.08283141
000370 a3 56 24 3e 33 a4 16 be 66 c2 68 3e 35 8e 78 3e
       0.16048674 -0.14711075 0.22730407 0.24272998
000380 aa d0 87 be 9b 39 bf bd cc 8b 11 bd 40 99 22 be
       -0.26526386 -0.09337159 -0.03553371 -0.15878773
000390 09 b5 81 3c eb 37 c6 bd aa fc 79 3e 39 1d bf bc
       0.015833395 -0.09678634 0.2441279 -0.023329364
0003a0 33 cb 28 be 51 f1 15 be c0 1a 8d be 1c 96 39 be
       -0.16483764 -0.14642836 -0.2755947 -0.18123668
0003b0 3d 81 6a 3d cd 6c b6 3d ea 24 02 be af a0 44 3b
       0.057252157 0.08907471 -0.12709394 0.0030003001
0003c0 a2 82 17 3e 46 a8 1f 3d 57 12 08 3d 16 17 46 be
       0.14795926 0.038978837 0.033220615 -0.19344744
0003d0 9c f2 8d 3e f1 4a b2 bd 51 48 c7 3c e0 be 14 bd
       0.2772416 -0.087057 0.024326475 -0.036314845
0003e0 87 2f 03 3e 07 1d 7a be 1c 70 89 3d 39 62 6a be
       0.12811099 -0.24425136 0.06710836 -0.22889031
0003f0 84 57 6e 3e 4d 0c ee bd 1d 92 76 3d 05 dd 9f 3c
       0.23275572 -0.1162344 0.06019794 0.01951457

encoder.feature_encoder.atom_embedding_list.2.weight f4 [12, 64]
000000 ba 5a 0d 3c 5a ac 09 be 8c 78 19 be 2e 85 d0 bd
       0.008627588 -0.13444653 -0.14987391 -0.10181652
000010 bb ec 13 3e a2 73 45 be 0b d4 84 3e 9a c9 30 be
       0.14445774 -0.19282392 0.25943026 -0.17264405
000020 06 c2 a8 3d f6 b2 91 3e cb e0 f2 bd 45 71 3d be
       0.08240132 0.2845685 -0.11859282 -0.1850024
000030 5a 67 10 be 62 f3 f5 bd 89 ae 30 be d3 04 8c be
       -0.14101925 -0.12009312 -0.1725408 -0.2734743
000040 6e de 13 be c0 27 c4 bd b1 b1 7a 3e 97 1f 55 bd
       -0.14440319 -0.09577894 0.24481846 -0.05203208
000050 d2 ad e8 3c 6d 94 b4 bd 4a 10 44 3d bc c2 04 3e
       0.028403196 -0.088173725 0.047867097 0.1296491
000060 b5 17 49 3d 0d d7 1b bd 0e 1e a7 3c ec 9c 83 3e
       0.049094874 -0.038046885 0.020400073 0.2570566
000070 33 5e 40 be 67 48 8d 3e 87 9d 74 bd 73 7d 51 3e
       -0.18785934 0.275943 -0.059720542 0.20458011
000080 0e f5 5b 3e 13 9a 86 3c 60 ab eb 3b 58 27 47 3e
       0.214802 0.01643089 0.0071920604 0.19448602
000090 b8 a9 39 bd 21 7f a4 3d 2e 06 8a 3e 6f d7 63 bd
       -0.045327872 0.080320604 0.2695784 -0.055625375
0000a0 7d ae ca bd 00 3c 61 3e e5 18 81 3e a9 25 8a 3e
       -0.09896562 0.21995544 0.25214306 0.26981857
0000b0 e0 bb 87 be 0b 9d 42 3e f9 e3 10 3e e1 fd 35 be
       -0.26510525 0.1900522 0.14149465 -0.17772628
0000c0 eb 9c 39 3e a0 6b 1d be de f2 16 3e a9 d3 da 3c
       0.18126266 -0.15373087 0.14741084 0.026712256
0000d0 7a 68 b5 3d 21 e3 30 be a2 84 5e bd ca 69 1c be
       0.08857818 -0.17274143 -0.054325707 -0.1527473
0000e0 f8 45 1b 3e 78 b9 64 be 92 3d e4 3c 3e bb e3 3d
       0.1516341 -0.22336376 0.02786139 0.11119698
0000f0 34 50 2c bc fe 87 bb bd c2 9b 7c 3d 01 6e bd 3c
       -0.010517169 -0.09156798 0.06167198 0.023123743
000100 ab e4 23 be 4f d0 8d bd d2 96 39 bd 6e c5 20 be
       -0.16005199 -0.06924497 -0.04530985 -0.15700313
000110 e2 68 82 3c c4 30 d1 bd 38 56 1f be 0b f8 64 be
       0.015919153 -0.102143794 -0.15560234 -0.22360246
000120 e3 26 37 be 86 db 81 bd d5 78 6d 3e ce c8 2a bd
       -0.17885928 -0.06340699 0.23190625 -0.04169541
000130 3c 41 19 be d6 a6 51 be 37 9d 57 3d 6f f4 6e 3e
       -0.14966291 -0.20473799 0.052640166 0.23335432
000140 04 a4 81 be 46 a8 67 3e 65 fb 81 3e 98 2b 88 3d
       -0.25320446 0.22622785 0.2538711 0.0664894
000150 80 87 10 3e 8c 00 b3 3d f9 89 7b be 74 17 e5 bd
       0.14114189 0.08740339 -0.24564351 -0.11186114
000160 e8 98 8f bd 00 07 35 be 84 9b b2 bc a4 54 80 3d
       -0.070115864 -0.17678452 -0.021802671 0.06266144
000170 f6 af 08 3c 67 ad 1c 3e 94 8e 29 be 9a 7d 74 3e
       0.008342734 0.15300523 -0.16558295 0.23876038
000180 bc 38 00 be a6 99 62 3e 6a 80 87 3e b4 ee 69 be
       -0.12521642 0.22128925 0.2646516 -0.22844964
000190 f8 7c 8b be 65 3a 4e 3e 8c b6 5f 3e d0 6c f6 bc
       -0.2724378 0.20139463 0.2184698 -0.030081183
0001a0 7c 8f 6f 3d 46 1e 22 3d 79 b3 af bd 41 64 17 3e
       0.058486447 0.039579652 -0.085791536 0.14784338
0001b0 b7 58 c0 3d 12 c8 8a be 89 f9 90 bd 90 ba 2e be
       0.09391921 -0.27105767 -0.07078845 -0.17063355
0001c0 23 85 e7 3d d4 88 8c be c9 59 7c be 05 b8 82 be
       0.11304691 -0.27448142 -0.24643625 -0.2553102
0001d0 a3 a6 c5 bd c9 1c 61 be 2d 68 65 bd f5 ba 23 be
       -0.09650924 -0.21983637 -0.056007553 -0.15989287
0001e0 e7 e0 3c 3e 17 8c 7c 3e ce 2e e8 3d 18 ae c2 bd
       0.18445168 0.24662815 0.11337052 -0.09505862
0001f0 3e 05 fd 3d 0b 0b 84 be 2d 1d 0a be 72 b9 76 bd
       0.123545155 -0.25789675 -0.13487692 -0.06023545
000200 ce 05 8a be b5 84 86 3e 7c 34 38 3e c2 1c 03 3e
       -0.26957554 0.26273122 0.17988771 0.12803939
000210 70 2b 05 3e f3 3d 93 3e 61 36 de bd be c8 8b 3d
       0.13004851 0.287582 -0.10850216 0.06825398
000220 a7 e7 d5 bd a6 ef 3a bd a9 1c 5d be 9f 1f 2d 3e
       -0.10444575 -0.045638703 -0.21592964 0.16906594
000230 19 59 4f be e3 0d 05 be 38 c3 84 3e 25 02 21 be
       -0.20248832 -0.12993579 0.2593019 -0.15723474
000240 52 13 fd 3c 62 f8 86 be dd f5 26 be 6f d9 7c 3e
       0.030893002 -0.26361376 -0.16304727 0.2469232
000250 26 e9 1f 3e de 0e 43 3c 1f b0 0e be 29 32 67 3e
       0.15616283 0.0119054 -0.13934372 0.22577728
000260 49 f4 89 3e 5b 3f 87 3d 19 c3 34 be 1c a3 06 3c
       0.26944187 0.06603881 -0.17652549 0.008217599
000270 6b b0 0f 3e a3 ab a0 3d 0d bf 80 3e 5e 0f 7d 3e
       0.14032142 0.07845237 0.2514576 0.24712893
000280 89 e6 0e 3e 28 e5 46 be e0 bc 37 bc b2 98 83 3d
       0.1395513 -0.19423354 -0.011214465 0.06425609
000290 9e bd ad bd 01 33 a1 3d 84 3d 43 3e 83 01 20 be
       -0.08483432 0.07871056 0.19066435 -0.15625577
0002a0 d1 60 b2 bd 70 db 5a be 6e cb 17 3d a2 39 2c 3e
       -0.087098725 -0.21372771 0.03705924 0.1681886
0002b0 a4 52 85 3e 37 7e b0 3c c3 aa 40 3e c0 85 8c be
       0.26039612 0.021544559 0.1881514 -0.27445793
0002c0 ac f0 09 bc 32 bc 65 bd 35 48 03 be d0 83 83 3e
       -0.008419197 -0.05608768 -0.12820514 0.25686502
0002d0 3c a2 31 3e 44 17 65 be b7 c1 81 be 1b a2 01 be
       0.17347044 -0.22372156 -0.25343105 -0.12659495
0002e0 db 38 d3 3d ab 39 0c 3e c1 ae 16 3e 1d 45 62 3e
       0.10313579 0.13693874 0.14715101 0.22096677
0002f0 a4 5d 34 be 11 17 21 3d a2 74 06 be 6c 0f 09 be
       -0.17613846 0.03932864 -0.1313043 -0.13384789
000300 73 67 e0 b9 3b 2d fa bc 3c 87 6c be 93 9a e6 bb
       -0.00042801685 -0.030539146 -0.23098463 -0.0070374697
000310 26 4e 09 3e 76 25 7c 3e cb eb 7a bd 8e 4f 3d 3e
       0.13408718 0.24623665 -0.061260026 0.18487379
000320 70 3d 80 bd 9c 33 59 be 7a d7 75 3e c9 8c 92 bd
       -0.06261718 -0.21211094 0.24007979 -0.07155759
000330 03 79 83 bd 7d 63 14 bd 0f a1 7c 3e 7a 53 ed bd
       -0.064195655 -0.036227692 0.24670814 -0.115881875
000340 20 55 94 bd 83 65 8b 3c a9 fe 3f be f5 0b d2 3d
       -0.07242799 0.017016178 -0.18749489 0.10256187
000350 92 db 70 3e bb f3 c9 3d 4a 4f 8c bd 36 78 72 bd
       0.2352126 0.09860941 -0.06851061 -0.059196673
000360 70 ea 8e be 34 1d 6b be 5c 43 aa bd d2 78 22 3e
       -0.27913237 -0.22960359 -0.08313629 0.15866402
000370 e3 08 86 3e 06 4f b8 bc 87 91 b5 bc 5d ee 5a 3e
       0.26178655 -0.022498619 -0.02216412 0.21379991
000380 08 57 8a bd c3 3e 47 be b7 02 1e 3e 9a 37 fa bd
       -0.06754881 -0.19457535 0.15430723 -0.122176364
000390 65 e2 51 be 0b de 91 3b 95 cb 3a be ea 8c 60 be
       -0.20496519 0.0044515184 -0.18241723 -0.21928754
0003a0 fa 98 1e be 81 ec 9c bc e6 77 bb 3d f4 6c ee bd
       -0.15488043 -0.019155743 0.09153728 -0.11641875
0003b0 3d ce 88 be e4 54 ca bd 5d cd 85 3e 70 ab 87 bd
       -0.26719847 -0.09879473 0.26133242 -0.06624496
0003c0 7b d3 54 be 70 a0 d5 bd fa 69 7f 3e 38 a7 2f 3d
       -0.20783798 -0.10430992 0.2494277 0.04288408
0003d0 07 56 21 bd b3 e3 8e 3e a3 7f 00 3d 3f 10 52 3d
       -0.039388683 0.27908096 0.031371724 0.051285025
0003e0 fb 48 8b 3e 81 44 de bc 24 ea 3a bd 8e 14 62 3e
       0.27204117 -0.027132275 -0.04563345 0.22078153
0003f0 dc 71 d8 3d ed df 4c be 31 b1 3d 3e 54 21 e0 bd
       0.10568592 -0.20007296 0.18524624 -0.10943857

encoder.feature_encoder.atom_embedding_list.3.weight f4 [12, 64]
000000 f0 78 3b 3e ff 9e 64 3d 34 b2 f4 3d 72 1b 90 3e
       0.18307853 0.055815693 0.11948052 0.2814594
000010 69 1d 47 3e 62 e3 5e 3e b0 58 36 be 8a 3b 54 be
       0.19444813 0.21766427 -0.17807269 -0.20725837
000020 08 d9 65 3e c8 b1 83 3e 55 7f 12 3e ad 46 e4 3d
       0.22446072 0.25721574 0.14306386 0.11146293
000030 cc 23 85 bd dc 8f c9 3d b8 97 0a be 57 7e 81 bc
       -0.06500968 0.09841892 -0.13534439 -0.015807314
000040 75 ec 85 3e 4f 41 35 be 61 ce 71 be 44 4c b3 bc
       0.26156965 -0.17700695 -0.23613884 -0.021886952
000050 5e f3 1a 3e 69 cb 85 be 33 24 37 3e 5d 33 4d 3c
       0.151319 -0.26131752 0.17884903 0.012524453
000060 c6 b1 09 3d 39 ee 32 3e 9d e2 10 3e c4 8e 82 bc
       0.033616804 0.17473687 0.14148946 -0.015937217
000070 40 11 87 be f9 fc 77 3e 39 4d ba bd 3f d1 1f be
       -0.26380348 0.24217595 -0.0909676 -0.15607165
000080 e7 a5 c0 3d 3f 61 41 3e 15 e1 23 3d 43 b7 23 be
       0.09406643 0.18884753 0.040009577 -0.15987878
000090 ea 39 83 be cc 83 fa 3d ca 6d c9 3d 63 6f 2c 3e
       -0.25630122 0.122321695 0.09835394 0.16839366
0000a0 df 54 8f 3e 48 ba 1c be 3b be b2 3d 75 0f 8d 3e
       0.2799444 -0.15305436 0.0872769 0.27550855
0000b0 7e b9 0f bc d2 d7 d4 bd 11 9a 60 be ae 9e a1 3b
       -0.008772252 -0.10392727 -0.21933772 0.004932246
0000c0 97 74 0f be a4 d1 44 be f5 3b 89 be 86 b3 e9 3d
       -0.14009319 -0.19220597 -0.26803556 0.114111945
0000d0 44 03 26 bd 53 36 f8 3d c6 1c 1b 3e 84 f7 8e be
       -0.040530458 0.121197365 0.15147695 -0.27923214
0000e0 da 21 d0 bd 42 07 80 3e 4f 50 46 bd c5 66 43 3e
       -0.10162707 0.25005537 -0.048416432 0.19082172
0000f0 27 bf 78 be fc 46 84 3e 92 c5 fb 3d 6d 8e 47 be
       -0.24291669 0.25835407 0.12293543 -0.19487925
000100 09 7d 82 3d 37 4e 37 3e a0 0d 1a 3e 73 19 4e 3d
       0.06371505 0.1790093 0.1504426 0.05031724
000110 51 c7 e0 bd 12 21 b4 bd 67 4e 54 be 59 a3 8e 3e
       -0.109755166 -0.0879537 -0.20733033 0.27859
000120 07 fd 70 3d 43 1d 84 3d e9 a4 22 be d1 aa 64 be
       0.058835056 0.06450894 -0.1588322 -0.22330786
000130 68 cc fb bc be 3c 18 3e 07 61 53 3e 34 22 fe bc
       -0.030737117 0.14866921 0.20642482 -0.031022169
000140 b3 38 e0 3d 66 c7 57 bd 39 d7 aa bd fe 5b 8e 3e
       0.109483145 -0.052680396 -0.08341832 0.2780456
000150 14 83 87 3d 01 3a 8d 3e 28 1e 8d be 3f 1c c0 3c
       0.06616798 0.27583316 -0.2756207 0.023450969
000160 a0 0a c5 bd 75 e0 5e 3e 26 ae 10 3e d7 fe 3f 3d
       -0.09621167 0.21765311 0.14128932 0.046873894
000170 83 d7 33 3e 8f 2f 28 be 9c e0 96 bd 81 06 12 3e
       0.1756268 -0.16424392 -0.073670596 0.14260294
000180 1e 11 27 be a0 5b 8a 3d 00 cb ae 3d 90 34 6f be
       -0.16315123 0.06755757 0.08534813 -0.23359895
000190 b4 1a 2b be 8f f1 54 be dc 93 83 be ab 2c cc bd
       -0.16709405 -0.20795272 -0.25698745 -0.09969457
0001a0 ea 2a b7 3d 17 f5 d8 3d d3 2e 20 3e a4 42 10 3d
       0.08943732 0.10593622 0.15642862 0.035219803
0001b0 e2 28 38 be f3 0c 89 be d5 e5 7b 3e f3 5c 6a 3d
       -0.17984346 -0.26767692 0.24599393 0.05721755
0001c0 b8 7c 5f 3e 89 fd 87 be 69 e8 1b be 59 c1 23 bb
       0.2182492 -0.2656062 -0.15225376 -0.002498707
0001d0 d5 13 6e 3e 62 86 71 be 71 aa 16 be 73 46 5a be
       0.23249753 -0.23586419 -0.14713456 -0.21315937
0001e0 58 0d 12 3e ee 2f bc 3c 61 17 e5 bd e1 23 3c 3e
       0.14262903 0.022972073 -0.111861 0.18373062
0001f0 4c 14 55 be b6 64 ca bc 9e dd 05 be c8 d1 85 bd
       -0.20808524 -0.024706226 -0.13072821 -0.06534153
000200 83 68 6e 3b 66 e9 e4 bb b1 c2 8e 3e d3 8f 7b be
       0.0036378212 -0.006985831 0.27882913 -0.24566583
000210 f4 20 f0 bd a9 55 af bc 4f 89 eb bd df cb 85 3e
       -0.11725035 -0.02140315 -0.11500799 0.26132104
000220 08 a4 13 3e f0 9d 5a 3e 18 a8 53 3e a7 fc 4f bc
       0.14418042 0.21349311 0.20669591 -0.012694514
000230 f0 32 3d 3e 86 f4 bc bc ea bf 4d 3e ec f3 17 3d
       0.18476462 -0.023065817 0.2009274 0.037097856
000240 4b 32 e5 3d 21 57 eb 3d 5e 6e da bd 48 78 75 3e
       0.11191233 0.11491228 -0.10665582 0.23971665
000250 59 7b 6b 3e a5 11 8b bd c0 56 aa bd d0 4a 7f be
       0.22996272 -0.06790475 -0.083173275 -0.24930882
000260 52 5d 17 3e e0 25 5c be 9d 9d 85 be 32 c2 6c 3e
       0.14781693 -0.21498823 -0.26096812 0.23120955
000270 c1 c1 7d 3d 1c 5d 7e 3e ec af 70 be a0 13 22 be
       0.061952356 0.24840206 -0.23504609 -0.15827799
000280 e8 93 99 bd c0 de 31 3e 36 6e 5a be ed cc 79 be
       -0.07498914 0.17370129 -0.21331105 -0.24394579
000290 29 f3 a3 bd de 44 15 be 35 0b 89 3e a6 43 13 3e
       -0.080053635 -0.14577052 0.26766363 0.14381275
0002a0 bb 34 42 be 48 8e f9 bd 8b 22 5a bc 9d 0f 34 be
       -0.18965428 -0.12185341 -0.0133139 -0.17584081
0002b0 a9 44 5a be f1 50 80 3e 46 82 3c be 8f c5 28 3e
       -0.21315254 0.25061753 -0.1840907 0.16481613
0002c0 b0 1b ab bd 3b ea 5a be 5b cc 06 be 45 d5 03 be
       -0.0835489 -0.21378414 -0.13163893 -0.12874325
0002d0 fb 69 43 be 3a ce 2f be 2d 95 24 bc a0 7f 17 be
       -0.19083397 -0.17168513 -0.010045332 -0.14794779
0002e0 f8 13 6b 3e 78 95 8a be 74 ba 4a bd ed 85 3e 3e
       0.22956836 -0.2706716 -0.04949422 0.18605776
0002f0 84 e6 3d be 98 22 77 bd 08 1b 6d be e8 bb 8b be
       -0.18544966 -0.060335726 -0.23154843 -0.272918
000300 65 ea 09 3e d9 02 91 3d 2e 90 d7 3c 1a 8b 63 3e
       0.1346832 0.07080621 0.026313867 0.22221032
000310 c7 0f 0b bc 57 97 6d be 10 e0 89 be 07 59 1a 3d
       -0.008487648 -0.23202263 -0.2692876 0.03768256
000320 ff c2 2a be 46 01 84 3e e2 e1 24 bd 2f b7 78 3e
       -0.16675948 0.25782222 -0.04025448 0.24288629
000330 41 e2 3d bd 8b 1e 04 be 24 83 8e be ac 95 8a 3e
       -0.04635835 -0.12902276 -0.27834427 0.27067316
000340 b4 13 7b be b5 a8 4c 3e 31 6d df bd 4a 9e 5b be
       -0.24519235 0.19986232 -0.109094985 -0.21447101
000350 b0 d5 c6 bd 5c 4c 0b 3e fc 91 5b 3e 05 e2 6c be
       -0.097087264 0.13603348 0.21442407 -0.23133095
000360 ab 89 56 be 8d 6f cb 3d 3f 44 10 3e 4a c5 38 be
       -0.20950954 0.09933386 0.14088534 -0.1804401
000370 37 32 f1 3d 38 14 20 bd 8c 0d 7b be b1 92 24 3e
       0.11777156 -0.039081782 -0.24516886 0.16071583
000380 1a a7 70 be 72 55 82 bc 09 96 7c bd c4 6e 04 be
       -0.23501244 -0.015909884 -0.061666522 -0.12932879
000390 c1 26 26 bd f4 67 80 be d5 b0 7e 3e ec 33 57 be
       -0.040564302 -0.2507931 0.24872144 -0.210159
0003a0 18 ed 34 3e a0 26 62 3c 5b 08 38 bc 76 92 a7 bc
       0.17668569 0.013803154 -0.011232461 -0.02045558
0003b0 c9 58 f0 bd fe 2c 4b bd 40 eb 4f 3e 60 f8 0b be
       -0.117356844 -0.049603455 0.20304585 -0.13668966
0003c0 0e a7 03 3e d5 f2 63 be 8a 84 0d be 49 a8 48 3e
       0.12856695 -0.22260602 -0.13820091 0.19595446
0003d0 29 b8 d2 3d 10 a5 82 be 0f 4c 48 be a0 36 3a 3e
       0.10289032 -0.25516558 -0.19560264 0.181849
0003e0 7a 05 b0 bc 00 25 84 3e fd e2 8d be a5 53 96 3d
       -0.021486986 0.2580948 -0.2771224 0.07340173
0003f0 30 46 8e be d6 42 fc 3d c3 c3 c8 bd 87 6f da bc
       -0.27787924 0.123174354 -0.098029636 -0.026664509

encoder.feature_encoder.atom_embedding_list.4.weight f4 [10, 64]
000000 31 d0 3c 3e 79 34 1d 3e cb d2 f8 3d f6 4a 82 3e
       0.18438794 0.15352048 0.121495806 0.25447816
000010 54 19 59 3d 8b 30 09 be 1a 3d 09 3e b0 1a 11 bd
       0.05300267 -0.13397424 0.13402215 -0.03542584
000020 e4 50 8c 3e 51 22 64 be 9c 59 2a be df af 3a 3e
       0.27405465 -0.22278716 -0.16635746 0.18231152
000030 64 90 3d be 5b 22 26 3e 0d c4 3e be 6d 7a bb 3d
       -0.18512112 0.16224043 -0.18629475 0.0915421
000040 c1 53 7d 3e 5e 5e f2 3d e6 e3 34 be b8 db e9 3d
       0.24738981 0.11834405 -0.17665061 0.11418861
000050 06 0e 9b b9 a2 19 78 bd 7f 43 8e be 56 a5 42 be
       -0.00029574352 -0.06057132 -0.2778587 -0.19008383
000060 1d 3b d5 bd 37 67 53 3e 9f 86 50 be f7 6c 89 be
       -0.104116656 0.20644842 -0.20363854 -0.26840946
000070 d2 17 58 be ec a3 b6 3d d5 6a 80 be ad 11 90 be
       -0.21102837 0.08917984 -0.25081506 -0.28138486
000080 ca b2 99 bb 55 11 89 be 8d bf 7d 3d 2e 05 c6 bc
       -0.004690503 -0.26771036 0.061950255 -0.024172392
000090 a5 47 87 3e 3c d3 e5 bd 19 98 82 be 52 ae 2a be
       0.26421848 -0.112219304 -0.25506666 -0.1666806
0000a0 b0 2c 67 bc 7c d7 e6 bd ca 0e 8d 3e ca 0f 67 be
       -0.014109775 -0.11271569 0.27550346 -0.22564617
0000b0 d6 b9 88 be ee d0 03 3e 8d 81 85 bd 48 13 32 3e
       -0.26704282 0.12872669 -0.065188505 0.17390168
0000c0 8a 30 36 3d 0a 2d cb 3d e0 e5 49 3e 79 44 20 bd
       0.044479884 0.099207 0.19716597 -0.0391278
0000d0 01 3d fa bd cd d0 c0 bd 44 5a 8e bd 57 ec 7a be
       -0.12218667 -0.094148256 -0.069508106 -0.24504219
0000e0 ac f1 77 3e c3 1f 05 3e b0 b2 bf bd d7 10 6a 3e
       0.24213284 0.13000397 -0.09360254 0.22857986
0000f0 6b 03 05 3e 9d ee eb 3d 93 44 29 3e 7f eb 5c 3d
       0.12989585 0.11520121 0.16530065 0.053935524
000100 1b 67 b9 bc 78 23 52 3e 55 95 ca 3d a9 3b 44 3e
       -0.022632172 0.20521343 0.09891764 0.19163384
000110 05 09 1e 3e ad 19 39 be c1 a2 73 bd 0b 14 67 3e
       0.15433128 -0.18076201 -0.059481386 0.2256624
000120 83 30 49 bd 17 88 ff bd f6 ff f5 bd 6d 6a 74 be
       -0.04911853 -0.12477129 -0.12011711 -0.23868723
000130 33 e6 27 3e 8e 43 24 3e af e7 1e be a1 3e 93 be
       0.16396408 0.16041395 -0.15518068 -0.2875872
000140 56 78 86 3d 4a 62 64 3c 50 8d 48 3e 78 51 33 3d
       0.06565921 0.01393945 0.19585156 0.043778867
000150 8a 38 49 bd a3 b7 2f 3e f8 93 3e 3e 3b 1e 1b 3e
       -0.049126185 0.17159896 0.18611133 0.15148251
000160 d9 bf 56 3e c0 a8 86 be df 58 e9 3d 4c 39 25 3e
       0.20971622 -0.2630062 0.11393904 0.16135138
000170 f7 51 33 3e 6d 6e f4 bd 75 b0 94 3d 57 36 71 be
       0.17511736 -0.119351245 0.07260219 -0.23555885
000180 17 9d 64 3e 7c d8 78 3c e3 ec 49 3e 30 49 a6 3d
       0.2232555 0.015188333 0.19719271 0.08119428
000190 a7 a1 0a be 84 3f 1b 3e f1 eb 40 3e d2 ad 1a be
       -0.13538228 0.15160948 0.18840005 -0.1510537
0001a0 3b 2d e2 3c ac 6a 17 be 9c 25 51 be b6 e7 e0 3d
       0.027609458 -0.14786786 -0.20424503 0.10981695
0001b0 2d 64 71 be 0e 1d da 3d b7 82 59 be 7e d9 6e bc
       -0.2357337 0.10650073 -0.2124127 -0.014578221
0001c0 42 f2 c6 bd 20 a7 09 3e 1f 0b 8a 3e 10 9e 61 be
       -0.09714176 0.1344266 0.2696161 -0.22032952
0001d0 05 19 9f bd 2f ff 51 bd d9 30 79 be 16 01 81 be
       -0.07768444 -0.051268753 -0.2433504 -0.2519614
0001e0 3b 71 16 be cb 76 7c bd f3 57 7b 3e cd 99 b0 3d
       -0.14691631 -0.061636727 0.24545269 0.08623085
0001f0 8e a0 82 3e f7 88 70 be 59 7b 1d be 6f a6 09 3d
       0.25513119 -0.23489748 -0.15379085 0.03360599
000200 2a 7c 63 be a2 f6 03 3e 23 a7 2d 3a f1 f6 8f be
       -0.22215334 0.12887052 0.00066243316 -0.2811809
000210 4e 78 93 be 6e 84 b8 3c a2 85 ba 3d 50 f4 c2 bb
       -0.28802723 0.022524085 0.0910752 -0.0059495345
000220 b0 6a b2 bd 42 78 3e 3e 0c 05 af 3c 1b f7 05 be
       -0.08711755 0.18600562 0.021364711 -0.13082545
000230 af 51 76 3e d5 19 92 bd 7b 90 ca bd 8c 6a f2 bc
       0.24054597 -0.07133833 -0.09890839 -0.029591821
000240 58 72 67 bd 0f 58 93 bc 49 fa f8 bd f5 8c 28 3e
       -0.05650553 -0.017986326 -0.12157113 0.16460021
000250 5e 27 62 3c 3d c8 21 3e ef cd 06 3d 3b 30 40 3e
       0.013803331 0.15799041 0.032911237 0.18768398
000260 8c 9d 4a be 52 a7 1e 3e aa 0e ee 3d f7 9f 01 3e
       -0.19786662 0.15493515 0.11623891 0.12658678
000270 e6 6a 1d be 45 aa fd 3c b0 49 d5 bd d6 94 c0 bd
       -0.1537281 0.03096498 -0.104144454 -0.09403388
000280 5d a0 08 bd 7b 85 32 bd b4 92 ee 3d 6f 20 8e 3e
       -0.03335606 -0.04358433 0.11649075 0.2775912
000290 16 ff 9e bd 86 14 8d 3e bf 6e 1d 3e 37 20 82 be
       -0.077634975 0.2755472 0.15374278 -0.25415203
0002a0 30 b4 63 3e 37 85 65 be de d6 ed bd 23 de da bd
       0.22236705 -0.22414099 -0.11613248 -0.106869005
0002b0 83 f6 66 bb 6a 2a 95 be ec 83 87 be 2f f5 6c be
       -0.0035242147 -0.29133922 -0.26467836 -0.23140405
0002c0 31 73 11 be 33 23 26 bc 11 af 42 3e 4f 1e 7f be
       -0.14204098 -0.010140228 0.19012095 -0.24913906
0002d0 16 a6 01 3d da 09 65 3e a4 64 ce 3d 73 1f 82 3d
       0.031652533 0.2236704 0.100777894 0.06353655
0002e0 e6 e0 86 be e3 c4 34 3e 82 29 87 bd 14 d3 d8 3d
       -0.2634346 0.17653231 -0.06599714 0.10587135
0002f0 85 37 3c be ef de 11 bd e6 8a 30 3e 86 e2 3d be
       -0.18380554 -0.035612997 0.17240486 -0.18543443
000300 68 2c 5e be 63 41 18 bd 96 79 21 3e 56 54 48 be
       -0.21696627 -0.037171733 0.15769038 -0.19563422
000310 12 cd 16 3d 6a 85 02 be 45 4f 2b 3d e1 b3 28 3d
       0.036816664 -0.12746206 0.041823644 0.04118717
000320 13 0c 42 3e b0 57 13 be 59 aa 7e be b2 ed 0d 3d
       0.18949918 -0.14388919 -0.2486967 0.034650512
000330 78 4b 1e 3e 35 93 00 be 64 56 ab 3d 01 e3 84 be
       0.15458477 -0.12556155 0.08366087 -0.2595444
000340 2d 48 0c 3e 46 06 19 3e 47 0a 88 be 56 eb 85 bd
       0.13699408 0.149438 -0.2657034 -0.065390274
000350 9c cd f5 3d f5 99 03 3e 2f f0 ad 3d 5b 7b 52 be
       0.120021075 0.12851699 0.08493077 -0.20554869
000360 a2 49 75 3e 25 fc 80 be 7a 7b 48 bc 14 3e 1b be
       0.2395387 -0.2519237 -0.01223647 -0.151604
000370 73 6a 76 be 25 98 e9 bd 5d 7d 84 3e c4 2d 80 be
       -0.24064045 -0.114059724 0.25876895 -0.25034916
000380 7f ec 42 3e 4c 9c 81 3e b2 98 2d be d0 fc b2 3d
       0.19035529 0.25314558 -0.1695278 0.087396264
000390 79 dd e2 bd cd 2a 89 be 09 9f 7f be 08 fa 49 bd
       -0.11077399 -0.26790467 -0.24963011 -0.049310714
0003a0 d1 15 52 be de 47 25 bd 79 b8 28 3e 06 a0 0d 3e
       -0.20516135 -0.04035174 0.1647662 0.13830575
0003b0 76 22 90 be 65 24 ea 3d 56 38 7f bb 9c 42 d5 3d
       -0.28151292 0.11432723 -0.003894349 0.10413095
0003c0 6e cb 39 3e c9 0b 6f be cf 69 13 be 1b cf 04 3e
       0.18144009 -0.2334434 -0.14395832 0.1296963
0003d0 35 85 41 3d 3d 21 9c bd 9a 09 13 be 3b 86 26 3d
       0.047246177 -0.07623527 -0.14359131 0.040655356
0003e0 aa 7c a8 bd 11 0d 99 3d 1a 20 02 be 3f 57 89 3e
       -0.08226903 0.07473195 -0.12707558 0.26824376
0003f0 fd 5b 12 3d 31 84 a1 bd 83 82 70 be e6 0a 90 3e
       0.035732258 -0.07886542 -0.23487286 0.28133315

encoder.feature_encoder.atom_embedding_list.5.weight f4 [6, 64]
000000 1e be 38 be d8 0c a6 3d ac 69 66 bd dc 99 73 3e
       -0.18041274 0.081079185 -0.05625312 0.23789161
000010 25 2a fb bc d9 e1 70 3e b5 29 b9 bd b1 8b 6a be
       -0.030659745 0.23523654 -0.09041158 -0.2290485
000020 44 78 d2 ba 07 0c 35 be df d3 1f be 42 2a 4b 3e
       -0.001605757 -0.1768037 -0.15608166 0.19840339
000030 a4 ea 89 3e 3a 9c 42 be 57 97 94 be 05 84 bb 3d
       0.2693683 -0.19004908 -0.29021713 0.0915604
000040 0e 18 7b be 0b 30 a6 bd d4 68 ee 3d ee 34 c1 3d
       -0.24520895 -0.08114632 0.11641088 0.09433924
000050 d5 0f 17 3d 85 d1 00 3e 54 c8 27 be d2 1a b4 bd
       0.036880333 0.12579925 -0.16385013 -0.08794178
000060 74 fd ba bd 38 b2 96 be bd c8 2f be da 49 2a 3d
       -0.091303736 -0.29432845 -0.1716642 0.041574337
000070 11 c8 95 3d 3e 6c 03 be bf 99 57 3e f1 68 1c be
       0.0731355 -0.1283426 0.21054743 -0.15274407
000080 7a c1 a8 3b b5 ce 7d 3e b9 cf 40 3e 7d 20 8e 3e
       0.0051500173 0.24785884 0.1882924 0.27759162
000090 ad 9d a0 3d 75 48 56 be e1 8b ba bd b4 d4 ac bd
       0.07842574 -0.20926078 -0.09108711 -0.084390074
0000a0 ab d8 5c be 60 ba e1 bd e3 49 8e be 5b bb 10 be
       -0.21567027 -0.11021876 -0.27790746 -0.1413397
0000b0 81 0c 92 be a6 c9 90 3e f1 5a 50 3d 1d 92 8d 3e
       -0.28525165 0.28278846 0.05086798 0.27650538
0000c0 8f 89 2a 3e 0e 36 8f 3e a3 4b b3 bd d1 b9 10 be
       0.16654037 0.27970928 -0.08754661 -0.14133383
0000d0 13 00 01 be a6 44 86 be 55 23 44 bb 1d cc 54 3d
       -0.12597685 -0.2622425 -0.0029928286 0.05195247
0000e0 d6 3e 21 3e 08 19 60 bd 26 1a ca 3d ca 15 fc 3d
       0.15746626 -0.05471137 0.09868269 0.123088434
0000f0 90 5f 9e 3d c8 bf 94 3d 03 98 e2 bd 51 60 2b 3e
       0.07733071 0.07263142 -0.1106415 0.1673596
000100 dc 8a 91 be 61 8e 0d 3d 8a 93 1e 3e 3c d5 3b 3e
       -0.28426254 0.03455961 0.15485969 0.18343061
000110 3d 22 04 3e 51 33 36 bd 3f ac 55 3e d0 1d 8e be
       0.12903686 -0.044482533 0.20866488 -0.2775712
000120 bb ea 7a bd c7 62 e0 bd 01 ee 36 3e 76 c0 83 3e
       -0.061259013 -0.1095634 0.17864229 0.25732774
000130 9f 90 9e bd de 52 71 3d 24 52 2d bd 9f 99 aa bd
       -0.07742428 0.05891692 -0.042314664 -0.08330082
000140 8a d6 ef 3d d1 13 8d 3d e0 2a 10 be 89 de 82 3d
       0.11710842 0.06888545 -0.14078856 0.063901015
000150 db 64 87 3e 3d a8 51 be a1 46 3f bd 0e 10 85 be
       0.26444134 -0.20474334 -0.046698216 -0.2598881
000160 c7 57 97 bd 6c c7 8d 3e b7 fc 42 3e 68 64 8d be
       -0.07389789 0.2769121 0.19041716 -0.27615666
000170 de 3b 86 be a2 c0 40 3c b1 27 09 bd 79 d5 61 3e
       -0.2621755 0.011764677 -0.03348512 0.2205409
000180 9a 50 a5 bd e6 5e 63 3e 8a 4d 31 be 98 7e 5a bd
       -0.08072014 0.2220417 -0.17314735 -0.053343385
000190 c0 87 cd bb a8 4e 1a be ac 8c 4b 3c be 32 81 bd
       -0.006272286 -0.15069067 0.0124236755 -0.063085064
0001a0 fc 3e 0e be e6 f0 6b be c0 cf f7 b9 44 80 8b 3e
       -0.13891214 -0.23041114 -0.00047266297 0.27246296
0001b0 8d bc e8 3d 0d 4c 65 be fe 6f 17 be 5f ea 44 3e
       0.11364088 -0.22392292 -0.14788815 0.1923003
0001c0 ee 7e df bd a2 3d de bc ea f6 0c be e8 f0 0e 3e
       -0.10912882 -0.027128998 -0.13766065 0.13959086
0001d0 da c0 4a be 6c 14 8e be c3 4a 5c be bb 58 81 be
       -0.1980013 -0.27749956 -0.21512894 -0.25263008
0001e0 26 9a e6 3c 84 eb 39 3d 18 c9 bd bd 43 84 f8 3d
       0.028149676 0.04539062 -0.09266871 0.12134602
0001f0 22 f9 e0 3c f2 e2 90 3d 0d 5b 1c 3e 3d 80 72 3d
       0.027462546 0.070745364 0.15269108 0.05920433
000200 ba 99 95 3e 54 be 58 3e d7 99 29 be 2b 0e 5d 3e
       0.29218847 0.21166354 -0.16562591 0.21587436
000210 51 a9 f7 bc c9 99 4a bc d1 c9 d7 3c 30 29 83 be
       -0.030232104 -0.012365767 0.02634135 -0.2561736
000220 fb b6 45 3e de e3 48 3e 11 60 95 3e e1 49 66 3d
       0.19308083 0.19618174 0.29174855 0.0562228
000230 de aa a3 bd bb 05 3c bd c9 73 c9 bd ff 8c 87 be
       -0.07991575 -0.045903903 -0.098365374 -0.2647476
000240 33 ce cb 3d 7e 18 24 3d 42 f2 b8 bd c6 c9 2e be
       0.09951439 0.04006242 -0.09030582 -0.17069158
000250 fd 43 8b bd 07 ca a5 3d be c2 65 3e 98 84 f4 3d
       -0.06800077 0.08095174 0.2243757 0.11939353
000260 5c 01 62 3e ae 82 70 3e e4 20 11 be ab a8 c7 bb
       0.22070831 0.2348735 -0.14172703 -0.006093105
000270 6b f8 7b be b5 0e 31 be cc 12 e8 3d db 27 e7 3d
       -0.24606483 -0.17290767 0.1133171 0.11286899
000280 31 96 02 3e 30 a0 7d 3e 01 cc f0 3d 5e e2 12 be
       0.12752606 0.24768138 0.11757661 -0.14344165
000290 b8 c4 78 bd e5 ea 98 3c 7f 63 1e 3e e2 3e 1a be
       -0.06073448 0.018666694 0.15467642 -0.1506305
0002a0 23 b5 fa bd e0 81 e5 3d 4b 02 ca 3d 37 54 8e 3e
       -0.1224158 0.11206412 0.098637186 0.27798626
0002b0 93 3e 77 3e 8d b7 06 be f4 64 d4 3d 70 10 3a be
       0.24144964 -0.13155957 0.10370818 -0.18170333
0002c0 60 73 92 bc af 0f fa bc e8 70 8f 3d 95 b5 82 3e
       -0.01787728 -0.030525057 0.07003957 0.2552916
0002d0 bd 8b 6a be 1c 57 88 3e c4 21 51 3e 2d 13 11 be
       -0.22904868 0.2662896 0.20423037 -0.14167471
0002e0 4d 5c 99 bd d2 fc 86 bd 2e 29 3d 3e 51 3f 9e bd
       -0.07488308 -0.065911904 0.1847274 -0.077269204
0002f0 22 ce d2 3d a5 82 ed bd e2 6a 72 3e 1e 92 40 bd
       0.10293223 -0.11597184 0.23673585 -0.04701435
000300 48 4e 8f 3e 51 2e 5f be 9b 06 b3 bd f4 c3 41 3e
       0.2798941 -0.21795012 -0.08741494 0.18922406
000310 8f 69 c7 3d 40 cd 17 be 7c 7d 75 be d9 56 62 be
       0.097369306 -0.1482439 -0.2397365 -0.22103442
000320 37 81 7a be 81 ad 25 be bb a6 35 be 7a 0c ad bd
       -0.24463354 -0.16179468 -0.17739384 -0.08449645
000330 68 e1 81 3e f8 25 9f bd 56 4d 39 be cb 91 12 3e
       0.25367284 -0.07770914 -0.18095908 0.14313428
000340 55 73 30 be 12 0b 16 be 82 29 46 bd f3 9a 13 bd
       -0.17231496 -0.1465266 -0.04837943 -0.036036443
000350 c8 e0 38 be ef 6c 6e be 15 52 92 be a3 4f fe bd
       -0.18054497 -0.23283742 -0.2857825 -0.12417533
000360 88 e5 17 3e a1 67 c0 3c 73 fb 6e 3e 70 fc 4f 3d
       0.14833653 0.023486914 0.23338108 0.050777853
000370 1d e9 60 be de ef e1 3c ea a0 99 bd d8 c0 29 3e
       -0.21963926 0.027580198 -0.07501395 0.1657747
000380 14 23 a3 3d 9f 63 94 3e a2 65 86 be 21 b0 0e be
       0.07965675 0.28982255 -0.26249415 -0.13934375
000390 f6 76 7e be 1b 67 d5 3c 38 1a 3f be 1d f9 f8 bd
       -0.24850067 0.026050141 -0.18662345 -0.121568896
0003a0 f5 16 8f 3e 4a e3 c8 bd a5 80 13 3e c6 bf 40 3e
       0.27947202 -0.09808977 0.14404543 0.18823156
0003b0 2c 6d 59 3e 1a 3d 75 3e ef ee 38 3e c3 ab ed 3c
       0.21233052 0.2394909 0.18059896 0.029012566
0003c0 d4 f3 7c 3e 1c 10 91 3e da cd 4e be 4b 6c 7a 3d
       0.24702388 0.28332603 -0.20195714 0.061138432
0003d0 3a 46 4e 3e 84 ae 4a be 21 51 eb 3d 30 2f 3b 3e
       0.20143977 -0.19793135 0.114900835 0.1827972
0003e0 8c ab 15 3c 83 56 ad bd be 59 c6 bc c6 64 82 3e
       0.009135138 -0.084637664 -0.024212714 0.2546751
0003f0 9d 5f 6d be 66 e2 ed 3d aa 47 22 be e9 50 4a 3e
       -0.23181005 0.11615448 -0.1584765 0.19757427

encoder.feature_encoder.atom_embedding_list.6.weight f4 [6, 64]
000000 fc cc 94 bc ff 6a 92 3e 78 b5 f4 bd a2 60 7d 3e
       -0.01816415 0.28597257 -0.11948675 0.24743894
000010 00 f2 f0 3d 05 d4 64 3e a4 2d 06 3b 4b 23 47 3e
       0.11764908 0.22346504 0.0020473981 0.19447057
000020 bb e9 04 3c f8 05 16 3c d3 3d 3c bd f9 2b a7 3d
       0.008112366 0.0091566965 -0.045957398 0.08162684
000030 77 1f 91 3e 3d 55 71 3e 71 cd 24 be f4 72 ec bd
       0.28344318 0.23567672 -0.16093995 -0.11545363
000040 53 2c 27 3e e0 6a ee bd b8 e0 bc bd cb 57 66 3d
       0.16325502 -0.116414785 -0.09222549 0.05623607
000050 43 31 2d be 04 fc 58 be ac 55 75 3e d4 9d 87 be
       -0.16913323 -0.21189886 0.23958462 -0.264876
000060 96 e0 31 be 18 f6 01 3e 75 05 05 bd a6 ed 1a 3e
       -0.17370829 0.12691534 -0.032475907 0.15129718
000070 8a 9e 1e bd 92 f6 c4 bb e9 9d 4f bd e3 7e a6 3d
       -0.038725413 -0.006010839 -0.050687704 0.081296705
000080 7c c8 8a 3d c5 4b 0a bd fc 9c 49 3e d9 df 35 be
       0.067765206 -0.033763666 0.19688791 -0.17761172
000090 27 1a 93 bd a6 a1 b6 3c b0 5e 0f 3e 62 34 d1 bd
       -0.071827225 0.022293877 0.14000964 -0.10215069
0000a0 1c 86 3f 3c 00 9f 89 be 59 79 0b 3e 61 4b 34 3e
       0.011689689 -0.2687912 0.13620509 0.1760688
0000b0 4c fc 78 be b7 71 72 be 6a 3f 79 3c 23 ec 83 3e
       -0.24314994 -0.23676191 0.015212873 0.25766096
0000c0 9f b6 d8 3d f3 03 62 3e 69 b9 77 be 3f b4 57 3e
       0.10581707 0.22071819 -0.24191822 0.21064852
0000d0 a7 04 8b 3e 5c fa 6f be b5 21 89 3d 57 fb 67 bd
       0.27151987 -0.23435348 0.06695882 -0.05663618
0000e0 7b 36 91 3e 08 ed 1b be 93 89 8f be fa e4 6e be
       0.28361878 -0.15227139 -0.28034648 -0.23329535
0000f0 6f 58 56 3e 14 93 b9 3d a4 0c 8f be a1 86 6a be
       0.20932172 0.09061256 -0.27939332 -0.2290292
000100 54 ff 19 3e ae e2 18 be ac e0 50 be 8d 8b fd bd
       0.15038806 -0.14930221 -0.20398206 -0.12380133
000110 d5 7c e2 bd df 5b 3c be 48 26 ed bd da 2c 10 3d
       -0.11058966 -0.18394421 -0.11579567 0.035199024
000120 a1 18 69 3d 10 f1 7a 3e c8 02 91 be 65 c8 9b bd
       0.056908254 0.2450602 -0.28322434 -0.076065816
000130 83 1b b1 bd e0 3b 1f be 12 92 c7 3d d3 78 0e be
       -0.086478256 -0.15550184 0.097446576 -0.13913278
000140 1a fb d2 bd 8f 68 66 be 9a 5c f3 bd be dc b7 3b
       -0.103018 -0.22500823 -0.11882897 0.0056110313
000150 b9 d6 25 be 29 00 70 bd ff 8f 31 be c6 d4 55 3d
       -0.16195191 -0.058593903 -0.17340086 0.05220487
000160 0e 83 c8 3d 31 3f 36 be f0 11 01 be d2 83 25 bd
       0.09790622 -0.17797543 -0.12604499 -0.040408917
000170 a9 d6 1e be 5c ee 05 be 43 af 14 3e 7e ba 28 bd
       -0.15511574 -0.13079208 0.14519982 -0.041193478
000180 7b b2 d9 3d bf e7 5b 3a 0a 82 44 3c ba fd 59 be
       0.106297456 0.000838872 0.011993894 -0.21288195
000190 fb 77 98 3c c4 f1 8a 3e 20 81 90 3e c9 3f 51 3e
       0.018611899 0.27137578 0.28223515 0.20434488
0001a0 10 d3 be bd da f3 ae 3a 8f a4 85 3e f5 83 88 bd
       -0.09317601 0.001334782 0.2610211 -0.06665794
0001b0 24 8c a2 3d f5 bd c9 3c 85 a9 43 3e 63 d0 15 be
       0.07936886 0.024626711 0.19107635 -0.14630274
0001c0 ad 7a 49 3d 8f cc 84 be 60 93 94 bd 7d 95 03 3e
       0.04918926 -0.25937316 -0.07254672 0.12849994
0001d0 e0 16 df 3c 53 d6 8c 3e a0 3c 52 be cb ee 0e 3e
       0.027232587 0.27507266 -0.20530939 0.1395828
0001e0 f9 dc 4e bc 05 78 8e 3e e9 29 84 3e 0d 1f 85 3e
       -0.012625926 0.27825943 0.25813225 0.26000252
0001f0 7d c1 35 be f7 c2 93 3e 63 c7 37 be bb f9 05 be
       -0.17749591 0.28859684 -0.17947154 -0.13083546
000200 a1 06 30 3e ec e3 6f bb 9f 31 18 3e 57 05 7b 3e
       0.17190029 -0.0036604358 0.14862679 0.24513756
000210 d6 f9 2f bd 40 76 9c 3d dc aa 97 3b 3d e5 4c 3e
       -0.04296287 0.07639742 0.0046285223 0.20009322
000220 00 4a 15 3e 3e e1 84 3c a6 3c 50 be 2c fe b4 3d
       0.1457901 0.016220685 -0.20335636 0.08837542
000230 50 60 36 3e 7b 71 b4 3c 07 88 0f 3e fa 87 99 3d
       0.17810178 0.022026768 0.14016734 0.074966386
000240 44 57 17 be 06 9a 19 be 09 8f 67 bd 64 97 82 be
       -0.14779383 -0.15000162 -0.056532893 -0.25506127
000250 e1 68 26 bc 19 64 9e bd 64 84 7c be 59 4c 4d 3d
       -0.010156841 -0.07733936 -0.24659878 0.05012164
000260 b9 6e 8a 3d 5a 91 e9 3d 90 7c 76 bc b5 4a d6 bd
       0.067594 0.11404677 -0.015044346 -0.10463468
000270 ff a1 55 bd b5 8c 69 be 98 f9 27 3c 6e 74 27 3e
       -0.052156445 -0.22807582 0.010252379 0.16353008
000280 92 f9 bf 3b be 66 ee 3c 0f 65 78 3e 7b 04 75 3e
       0.0058586085 0.029101726 0.24257301 0.2392749
000290 31 b3 86 3e 9d 58 6f 3e 5a d1 23 3e f4 63 30 bc
       0.26308587 0.23373647 0.1599783 -0.010766018
0002a0 b7 1e 8e be e6 cc 03 3d ea 34 2b 3e 8d 09 37 3c
       -0.2775781 0.03217783 0.16719404 0.011171711
0002b0 43 40 1d 3e da 45 66 be 33 b4 87 bb ed fc 93 3e
       0.15356545 -0.22487584 -0.0041413545 0.28903905
0002c0 81 3f 84 be d5 e2 48 bd fa 62 07 3e 3a 56 8f be
       -0.258297 -0.04904445 0.1322135 -0.27995473
0002d0 cd 0e e9 bd 9b 96 fb bd af 3e 55 3e d8 12 3b bd
       -0.11379776 -0.12284585 0.20824693 -0.045672268
0002e0 17 42 d6 ba 2b 97 6c 3e 68 43 87 3d 25 9e d7 bd
       -0.0016346601 0.23104541 0.066046536 -0.105282106
0002f0 d4 b1 1f 3e 07 66 f3 bd c3 19 80 3e 81 62 a8 bd
       0.1559518 -0.118846945 0.25019655 -0.08221913
000300 2c b2 82 3e 12 f9 c6 bd 22 7a 24 3e ab 8b 84 3e
       0.2552656 -0.09715475 0.16062215 0.25887808
000310 af d1 d9 bd b0 c7 c9 bc d1 ba 11 be 01 fc 15 3e
       -0.10635697 -0.024631351 -0.14231421 0.14646913
000320 b0 8a d4 bd a2 5e 5e 3e cf a4 41 be be f3 c8 bd
       -0.10378015 0.21715787 -0.18910526 -0.09812115
000330 36 87 92 bd 49 e7 77 3e c6 9b 1d 3e b4 21 6b bc
       -0.07154696 0.24209322 0.15391454 -0.014351297
000340 06 7f 15 3e 29 41 85 be 3f 1c b1 bc 56 f0 84 3e
       0.14599237 -0.26026276 -0.021619914 0.25964612
000350 28 ec 88 bd b9 8b 26 be 91 42 08 be 82 56 6f 3e
       -0.06685668 -0.16264237 -0.13306643 0.23372844
000360 66 7d 29 3d 0e 19 95 3d fa b3 0a be a5 2a 14 3e
       0.041379355 0.072801694 -0.13545218 0.14469393
000370 9b 73 c3 bb 9f a0 94 3e 31 94 3c 3e 59 c3 81 be
       -0.005964709 0.29028794 0.18415906 -0.2534435
000380 5a 81 79 3e a7 9e 43 be 08 ed d3 bd a4 79 3c 3d
       0.2436575 -0.1910349 -0.103479445 0.046014443
000390 21 40 70 be 61 d8 6c bc b0 db 1f be a0 66 9a bd
       -0.23461963 -0.014455886 -0.15611148 -0.075391054
0003a0 9f 9b e0 ba 7a a1 41 bd e9 ee d4 3d ed 53 a6 bd
       -0.0017136222 -0.047273137 0.10397131 -0.08121476
0003b0 21 04 1c 3d 78 07 be bb 7a 58 c5 bd 34 3b 88 be
       0.038089875 -0.00579923 -0.09636016 -0.26607668
0003c0 ee 35 17 3e db c4 7c be 6d f4 11 3d ad f5 3c 3e
       0.14766666 -0.2468447 0.035633493 0.18453093
0003d0 90 3c 89 3e db 3d 1e be 17 f9 7f 3e 26 36 22 be
       0.26804018 -0.15453283 0.24997364 -0.15840968
0003e0 de 92 33 be 1a b6 27 3d a8 69 f6 bd f4 86 41 be
       -0.17536494 0.04094515 -0.12031871 -0.18899137
0003f0 16 10 a9 3d c0 bd 75 3e 42 83 30 3e 5d 27 d1 3d
       0.08255021 0.23998165 0.17237571 0.10212586
