checkpoints/tuning_multi/trial_18/best_model.pt (torch, 520320 bytes, 104 tensors)

encoder.feature_encoder.atom_embedding_list.0.weight f4 [119, 64]
000000 be 6e 10 3e 1b 0c 26 3d 87 a9 3b 3b 04 18 2e 3e
       0.14104745 0.04053889 0.0028634982 0.17001349
000010 ff 2b ff bd 19 46 2b be 2c da ca bd 51 e3 0a 3e
       -0.124595635 -0.16725959 -0.09904894 0.13563277
000020 14 70 33 3e cf 63 98 bd 62 01 f0 bd be 2e 25 be
       0.17523223 -0.07440912 -0.11719014 -0.16131112
000030 8e 79 a8 3d 2f ba 95 bd 80 97 0a 3e 92 1e 83 bd
       0.0822631 -0.07310902 0.13534355 -0.06402315
000040 50 a2 29 3e 21 e4 f4 3d af fb e7 3d 36 45 bf 3d
       0.16565824 0.11957575 0.11327302 0.09339373
000050 8f c9 0f be 2f 87 cb 3c 4b 3d dd bd 42 ea 63 bd
       -0.14041732 0.024844734 -0.10802706 -0.055643328
000060 34 b0 e5 3d 0d 20 c0 bd f8 a0 e7 3d aa 16 09 3c
       0.11215249 -0.09381113 0.11309999 0.00836722
000070 2e 8b ab bd d2 1b b3 bd b8 3e 34 be 8b 67 7e 3d
       -0.08376156 -0.08745541 -0.1760205 0.062110465
000080 92 88 4f 3c 6e 15 25 3e 9e d1 82 3d 18 ad 55 3d
       0.012666838 0.16121456 0.063876376 0.05216703
000090 14 99 82 bc ab 4e ad 3d 2b 14 dc bc ba ad 94 3d
       -0.015942134 0.0846227 -0.026865086 0.07259698
0000a0 49 a2 a8 bd 40 29 ea 3d 24 60 4b 3d b5 e5 c3 3d
       -0.082340784 0.11433649 0.049652234 0.095652975
0000b0 68 59 48 3c cb d2 ad 3d 52 cb 25 3e da 5f cd 3c
       0.012228347 0.08487471 0.16190842 0.02507012
0000c0 dd a0 03 3e 22 c2 2e be 6f 24 69 bc ef 74 1e be
       0.12854333 -0.17066243 -0.014229878 -0.15474294
0000d0 9e 1e 54 3c d4 47 0b 3d 46 6e 51 3d 77 d9 9d bd
       0.012946753 0.034004048 0.051130556 -0.07707494
0000e0 1c cd b0 3d 27 09 9c bd 1c 8e 42 bd 1c c7 08 3e
       0.086328715 -0.07618933 -0.047498807 0.13357204
0000f0 61 a3 2a be fb 85 23 3d d9 b8 1e be 2f 42 9d 3d
       -0.16663887 0.039922696 -0.15500201 0.07678639
000100 80 d5 1a be 9c 0e 2e be b1 99 4e bd fc 4a 14 3e
       -0.15120506 -0.1699776 -0.05043954 0.1448173
000110 29 5d bb 3d 68 55 ee 3d 2a c9 2c bd ab c9 23 3e
       0.09148628 0.11637384 -0.042184032 0.15994899
000120 e5 16 a9 bd 22 ab 4f bc e6 43 2a be 1e 78 15 3c
       -0.0825632 -0.012675079 -0.16627464 0.009122876
000130 f9 09 2a 3d 4b f6 31 be e7 df 1b 3e 9a 89 0b 3d
       0.041513417 -0.1737911 0.1522213 0.034066774
000140 f2 d3 30 3e b0 a3 9f bd c6 57 0a 3c 7e 07 6e bd
       0.1726835 -0.07794893 0.008443778 -0.058112614
000150 67 c5 1c 3e 65 4d cf bd 92 6e d5 3d 49 34 02 be
       0.15309678 -0.10122184 0.1042148 -0.12715258
000160 bd 55 0b 3e 94 a3 2c be b9 5a b8 bd 10 5e a7 bd
       0.13606925 -0.16859275 -0.09001679 -0.08172238
000170 c9 df fb bc bc 29 13 bb 86 ad 6f 3d 34 47 26 3e
       -0.030746358 -0.0022455296 0.058515094 0.162381
000180 38 75 da 3d 1b d0 b2 bd 17 3a 2e 3e 22 6f da bc
       0.10666889 -0.08731099 0.17014347 -0.02666432
000190 b6 c9 ce bd 96 9d 8a 3d 37 3f 01 bd fc f3 30 3e
       -0.10097067 0.067683384 -0.031554427 0.17280573
0001a0 e8 78 a5 3c 11 70 f5 3d c3 f7 3e 3d ef 58 f2 bd
       0.020199254 0.119842656 0.046623003 -0.11833369
0001b0 ab 18 1c 3d bf 99 d6 bd 7a 9a 46 bd 64 eb 6e bd
       0.038109463 -0.104785435 -0.048487164 -0.058329955
0001c0 5c ea 12 be ca 83 8f 3d 36 34 03 3e 5d b8 36 be
       -0.14347214 0.07007559 0.12812886 -0.17843767
0001d0 0b db c9 3d c9 65 12 be ee 75 35 be 53 c6 7f 3d
       0.09856232 -0.1429664 -0.17720768 0.062444996
0001e0 0c 8a 83 bb de 56 e3 bd 48 04 26 3e 2d 13 72 3c
       -0.004014259 -0.11100553 0.1621257 0.01477508
0001f0 33 99 e8 bd d5 1d aa 3d e1 f9 51 3c 50 6c ed bc
       -0.113573454 0.08306471 0.012815923 -0.028982311
000200 3c ff 03 be ce 90 85 bc 07 61 cc 3d 5d 89 b5 bd
       -0.12890333 -0.0163044 0.09979444 -0.088640906
000210 ff 7d ac 3d 9f 37 36 be f0 b7 81 bd 34 f0 81 bd
       0.08422469 -0.17794655 -0.063339114 -0.06344643
000220 f1 58 22 be 87 89 84 3d 1b 40 0b be f0 53 d3 3d
       -0.15854241 0.06471544 -0.13598673 0.10318744
000230 bc 37 1f 3d f7 88 1d 3b 55 b2 c5 bd 03 39 91 bd
       0.03887151 0.0024037936 -0.09653155 -0.07090952
000240 14 0e 34 3d b2 d7 35 3e bb 0d b6 bd ee 50 fc bd
       0.04395874 0.17758062 -0.08889338 -0.123201236
000250 4e 9c a8 bd a2 30 05 be 1f 47 c3 bc 34 29 04 be
       -0.08232938 -0.13006833 -0.023837624 -0.12906343
000260 a9 70 06 3e b5 eb fe 3d 27 04 df bd 87 43 20 3e
       0.13128914 0.12447301 -0.10889464 0.1565076
000270 36 48 1f 3d e5 32 f4 bd 82 58 76 3d d5 32 2c be
       0.038887225 -0.1192377 0.060143 -0.16816266
000280 42 9c c0 bd 83 29 0b be bd 62 ce bd 3a 8a 20 bd
       -0.09404804 -0.13590054 -0.100774266 -0.039194323
000290 9f db 3c 3d 12 87 0d 3d e4 19 30 be d2 79 31 be
       0.046107884 0.03455264 -0.17197376 -0.17331627
0002a0 86 09 e1 bc 73 ae 1e 3e 06 60 89 3d 38 82 25 3e
       -0.027470361 0.15496235 0.06707768 0.16162956
0002b0 63 b4 af bd f4 8a 6b 3d e6 6b 21 be 01 98 ca 3d
       -0.08579328 0.057505563 -0.15763816 0.09892274
0002c0 ec 7b 82 bb b0 19 83 bc 86 55 bf bd 89 01 22 be
       -0.003982058 -0.01600346 -0.09342484 -0.15820898
0002d0 89 88 88 bd 89 29 8c bc ba ee c4 bd 3d ff 9a 3d
       -0.06666667 -0.01710965 -0.09615846 0.07568214
0002e0 85 a8 0d bd 54 2e 6c 3c 29 c6 2b be 7e 0b 5a 3d
       -0.03458454 0.014415342 -0.16774811 0.053233616
0002f0 72 4d b5 bd 9d 1a 0c be 77 73 8f bd 1f 61 2c be
       -0.08852662 -0.13682027 -0.07004445 -0.16833924
000300 dc 86 0d be 24 3e 0a 3e 18 c5 17 3e 43 ca 00 be
       -0.13820976 0.13500267 0.14821279 -0.12577157
000310 5c d8 20 3d a1 02 bf bd 67 81 2d 3e bd 64 e2 3d
       0.039268836 -0.09326673 0.16943894 0.110543706
000320 61 72 93 3d 05 2c 17 be e9 66 b6 bd 91 de 1b bd
       0.071995504 -0.14762886 -0.08906347 -0.038054053
000330 1f c6 25 be 0d b9 d8 bd d0 44 43 3d 83 f1 16 be
       -0.16188858 -0.10582171 0.047673047 -0.14740567
000340 b9 55 45 3d c4 97 87 bb 18 4e 74 bc c5 a4 58 bd
       0.048177455 -0.004137965 -0.014911197 -0.05289151
000350 1e 4c c7 bd d3 5a 2d be 34 59 fc bd 43 08 0c 3e
       -0.09731315 -0.16929178 -0.12321702 0.13675027
000360 ad e5 5b bc c6 8c 34 3e e4 66 1c 3c 78 d7 ae bc
       -0.013421458 0.17631826 0.009546015 -0.021342978
000370 49 63 de 3d 7f 90 2e be a9 d9 e5 bd ff b9 d4 3d
       0.10858781 -0.17047308 -0.11223156 0.103870384
000380 82 6d 41 bd dd b1 12 3e 0e 73 87 bc 12 3b 04 3e
       -0.047223575 0.14325662 -0.016534355 0.12913159
000390 e5 14 10 3c 78 0b 9a 3c 12 9c 1c be d8 27 80 bd
       0.008794044 0.018804297 -0.15293911 -0.062575996
0003a0 84 bf 14 3c c7 6f a9 3d 20 e8 0f 3d 47 07 21 bd
       0.009078864 0.08273273 0.03513348 -0.03931358
0003b0 ef 3b a0 3a cc 63 1f 3e be 5e f7 3d 3a 12 7d 3d
       0.0012224893 0.15565413 0.120786175 0.06178496
0003c0 35 a0 05 be 14 61 79 bd 84 c1 ec 3d 7e e8 26 3e
       -0.13049395 -0.060883597 0.11560348 0.16299626
0003d0 ed 4f af bd c0 91 9d 3d 12 ab 2d bd 4e 3e eb 3d
       -0.085601665 0.07693815 -0.042399473 0.11486493
0003e0 6f e2 de bc b3 63 13 be e5 88 37 be c5 4e de bb
       -0.027207581 -0.14393501 -0.17923315 -0.0067842924
0003f0 dc a5 5a 3d d3 9a da bd a1 e1 11 3e d5 e5 af 3d
       0.053380832 -0.106740616 0.14246227 0.08588759

encoder.feature_encoder.atom_embedding_list.1.weight f4 [5, 64]
000000 77 0d f4 bd b2 04 5f bd 4a 0d c1 3d 73 1c 64 3e
       -0.11916631 -0.054447837 0.09426363 0.22276478
000010 f3 28 f2 3d 36 20 86 3e f9 89 e0 3d 4b af 1d 3e
       0.11824217 0.2619645 0.10963816 0.153989
000020 26 12 6e 3d b0 48 83 3e 30 9d 72 3e 31 47 2d 3e
       0.058122776 0.25641394 0.23692775 0.16921689
000030 26 cc 85 be 64 27 f1 bc c3 08 c0 bd e2 fb 10 bd
       -0.26132315 -0.029437728 -0.09376671 -0.035396464
000040 6f 8c 58 3e 9a ec 46 be 14 f4 24 be 1a 42 05 be
       0.21147321 -0.19426194 -0.16108733 -0.13013497
000050 2c 96 a6 3c 60 18 27 be 6f b0 7f 3d c4 f4 7e be
       0.02033528 -0.16317892 0.06242412 -0.24898058
000060 18 f6 13 be 2a ae 2c 3e cc 65 4a 3e b7 1a b7 bd
       -0.14449346 0.16863313 0.19765395 -0.08940642
000070 2b bf 34 3c 57 24 a2 bb 7e 57 41 be ad 57 6f bd
       0.011031906 -0.0049481797 -0.18881032 -0.058433224
000080 7d 6b 1e 3e 25 cd dc 3a 37 30 89 3e 49 1a 76 be
       0.15470691 0.0016845806 0.26794598 -0.24033464
000090 cf 86 5a be 59 13 83 be 74 b7 31 be f0 4f 81 3d
       -0.21340488 -0.256007 -0.17355138 0.06314075
0000a0 35 e5 4b 3e d4 e5 79 be a2 6a 68 be 74 68 ec bd
       0.19911654 -0.24404079 -0.22696927 -0.1154336
0000b0 e6 6a 41 3e cf 93 18 3e 23 17 f0 bc 73 c4 85 3e
       0.18888435 0.14900135 -0.029307907 0.2612644
0000c0 16 48 d1 3d 91 68 86 3e 87 1b bc ba 3e f9 3d be
       0.102188274 0.26251653 -0.0014351466 -0.1855211
0000d0 7a 4d 9a 3a 32 ad d4 3d f8 10 09 3e 31 ae 8c 3b
       0.0011772357 0.10384597 0.1338538 0.004293226
0000e0 e3 7a af ba 3c 88 69 3d 74 94 7f bd f8 15 86 3d
       -0.0013388064 0.05701469 -0.062397435 0.06547159
0000f0 6f db 39 be 52 a3 81 bd fa cd 25 3e 62 ef c5 3d
       -0.18150114 -0.06329979 0.16191855 0.09664799
000100 54 f8 28 3e f4 1a 49 be ae c0 b1 bd 3c 54 1c be
       0.1650098 -0.19639188 -0.08679329 -0.15266508
000110 fb e5 6a be a6 f1 f7 bd 16 86 9a bc a3 f8 b0 bc
       -0.22939293 -0.12106638 -0.018862765 -0.021602934
000120 9b 44 95 bc 14 bd 3e be 15 e4 a3 bc 34 23 a0 3d
       -0.01822119 -0.18626815 -0.020006219 0.078192145
000130 e4 de 58 3e 81 ae 36 3e 3f 5a 7c be 70 5f 40 be
       0.21178776 0.17840005 -0.24643801 -0.18786407
000140 0c 30 6e 3e 03 fa 4c 3e 08 9e 27 3e 22 bd 1b be
       0.23260516 0.20017247 0.16368878 -0.15208867
000150 f3 a5 7e 3e 9e ae 92 be 6c 24 70 be 62 34 d8 3c
       0.24867992 -0.28648847 -0.23451394 0.026392166
000160 f1 6f 0c 3e 0f 4f 8e be 83 cc 31 3d d9 69 91 bb
       0.13714577 -0.27794692 0.04340793 -0.004437667
000170 04 fe 1e bd 47 83 6c be af c1 10 be d7 cb 62 3c
       -0.038816467 -0.23096953 -0.14136384 0.0138425445
000180 dd 6f 90 3d 5b 63 3d 3e 34 f3 d5 bd d3 e8 8e 3e
       0.07052586 0.18494932 -0.10446778 0.27912006
000190 12 65 e3 3d e9 27 4d be b7 4f 96 be 18 05 4b 3e
       0.11103262 -0.20034756 -0.29357693 0.19826162
0001a0 54 91 b6 3c f2 72 f2 bc f8 ed c7 bd 1b f7 0d 3e
       0.022286095 -0.029595826 -0.09762186 0.13863795
0001b0 68 51 d9 bd 9c eb 5c be 11 b4 51 3e e8 76 01 be
       -0.1061123 -0.21574253 0.20478846 -0.12643015
0001c0 ce dd 2d 3e 6a a7 4f be 2a d0 72 bd 98 77 25 be
       0.16979143 -0.20278707 -0.059280552 -0.16158903
0001d0 bd a4 4d 3c a1 d8 0e bd 90 2c b4 3d 51 37 6a be
       0.012551484 -0.034874562 0.08797562 -0.22872664
0001e0 e3 29 85 be 2e 26 70 3e 89 34 67 be eb a3 cb 3d
       -0.2600852 0.23452064 -0.22578634 0.09943374
0001f0 be 1f 83 be 4a 5f 6b 3d c4 97 cd bb 1e 7d 14 be
       -0.25610155 0.05746392 -0.0062741954 -0.14500853
000200 f4 f9 c6 bb 6e 4b 14 3d 43 33 07 3c 7d 71 64 3e
       -0.006072277 0.036204748 0.008251968 0.22308917
000210 46 f6 2c be 49 bc 08 3e cd 0d 8b 3e c6 e3 58 be
       -0.16890821 0.13353075 0.27158967 -0.21180639
000220 e9 82 6c be 78 1c cc 3d d0 63 d6 bd 9d eb d9 bb
       -0.23096813 0.099663675 -0.104682565 -0.0066504017
000230 a3 d6 8c be 7b 72 38 3e b3 7d 9f bc 0c 84 94 3c
       -0.27507505 0.18012421 -0.019469118 0.018129371
000240 e4 ed d1 bd af a5 d1 3d b4 75 9e bb d8 af f0 bd
       -0.10250452 0.1023668 -0.0048358086 -0.117522895
000250 09 05 96 3d e2 3c e0 bd e4 20 e0 3d 1c 9b 90 be
       0.07325179 -0.109491125 0.109437734 -0.2824334
000260 12 ad e9 bd 53 e5 4e be 2c 78 00 3e a7 0a 54 be
       -0.11409964 -0.20204668 0.12545842 -0.20707189
000270 42 f6 69 3e 5d 0c 93 3d a6 10 39 3e 5c f9 44 be
       0.22847846 0.071800925 0.18072757 -0.19235748
000280 18 4b 75 be a2 35 46 bd 61 ea 25 be 20 8f cc bd
       -0.23954427 -0.048390992 -0.1620269 -0.099882364
000290 8b 36 78 3e 92 64 21 3e 1a 6f b2 bd b5 5c 37 3e
       0.24239556 0.15761021 -0.08712597 0.17906459
0002a0 24 42 4a be 64 77 2f be 4a c0 05 3e 92 5d 02 3e
       -0.19751793 -0.17135388 0.13061634 0.12731007
0002b0 1d 9e ae bd dd 0f 4e be 85 c9 3c 3d f8 a5 91 3e
       -0.085262515 -0.20123239 0.04609062 0.28446937
0002c0 a3 98 94 3e 92 ba 77 3e 2c 71 62 be 5f 2a 48 3e
       0.29022703 0.24192265 -0.22113484 0.19547413
0002d0 1e 31 5d 3d 2d 17 75 be 94 26 9b 3c 19 ce 91 be
       0.05400192 -0.23934622 0.018939294 -0.28477553
0002e0 bd a5 81 3d 43 0a 26 be 91 2b 4b be 6a 16 6b 3c
       0.0633044 -0.16214852 -0.19840838 0.014348606
0002f0 e6 a9 4b 3e 9e 7c 29 3e 73 dd 3a be 9b c1 2b 3e
       0.1988903 0.16551444 -0.18248539 0.16773073
000300 55 b4 e0 3d 53 94 49 be b4 c5 9b bd eb b8 90 bd
       0.109718956 -0.19685487 -0.07606068 -0.0706652
000310 ba 6d 75 be 58 c4 89 be 0d 0d 4d be 05 41 89 3e
       -0.23967639 -0.2690761 -0.2002451 0.26807418
000320 c9 76 a0 bd 6a e2 e7 3c 0a bf 7a be d9 c2 4f bd
       -0.078351565 0.028306205 -0.24486938 -0.05072293
000330 a9 2a e4 3d e8 cf c3 bb d4 d5 bd bc 08 b6 80 bb
       0.11140949 -0.005975712 -0.02317325 -0.00392795
000340 94 08 4b 3e 92 b8 54 be 8f 95 87 be af 6c 91 be
       0.19827491 -0.20773533 -0.26481292 -0.28403232
000350 d3 90 f5 3d 81 34 28 be 5f 11 04 be f7 c1 1f bd
       0.11990514 -0.16426279 -0.12897252 -0.03900334
000360 09 06 31 3e cb f6 27 3b ed 6b 6c 3d 84 a3 a9 bd
       0.17287458 0.0025629278 0.057720114 -0.08283141
000370 a3 56 24 3e 33 a4 16 be 66 c2 68 3e 35 8e 78 3e
       0.16048674 -0.14711075 0.22730407 0.24272998
000380 aa d0 87 be 9b 39 bf bd cc 8b 11 bd 40 99 22 be
       -0.26526386 -0.09337159 -0.03553371 -0.15878773
000390 09 b5 81 3c eb 37 c6 bd aa fc 79 3e 39 1d bf bc
       0.015833395 -0.09678634 0.2441279 -0.023329364
0003a0 33 cb 28 be 51 f1 15 be c0 1a 8d be 1c 96 39 be
       -0.16483764 -0.14642836 -0.2755947 -0.18123668
0003b0 3d 81 6a 3d cd 6c b6 3d ea 24 02 be af a0 44 3b
       0.057252157 0.08907471 -0.12709394 0.0030003001
0003c0 a2 82 17 3e 46 a8 1f 3d 57 12 08 3d 16 17 46 be
       0.14795926 0.038978837 0.033220615 -0.19344744
0003d0 9c f2 8d 3e f1 4a b2 bd 51 48 c7 3c e0 be 14 bd
       0.2772416 -0.087057 0.024326475 -0.036314845
0003e0 87 2f 03 3e 07 1d 7a be 1c 70 89 3d 39 62 6a be
       0.12811099 -0.24425136 0.06710836 -0.22889031
0003f0 84 57 6e 3e 4d 0c ee bd 1d 92 76 3d 05 dd 9f 3c
       0.23275572 -0.1162344 0.06019794 0.01951457

encoder.feature_encoder.atom_embedding_list.2.weight f4 [12, 64]
000000 9a 17 c1 3b e7 a4 0b be 10 4e 1e be e1 bb e3 bd
       0.005892706 -0.13637124 -0.15459466 -0.111198194
000010 dd 6d 1a 3e dd 28 4f be b1 be 83 3e 77 99 33 be
       0.15080972 -0.20230432 0.25731423 -0.17539011
000020 5b cb a4 3d ed 9c 90 3e 0b 24 f4 bd b1 b5 42 be
       0.080465995 0.28244725 -0.11920937 -0.19014622
000030 3e 0a 0b be 30 3a f9 bd 89 ae 30 be b0 f9 8d be
       -0.13578126 -0.121693015 -0.1725408 -0.2772956
000040 6e de 13 be d4 89 c7 bd ed c8 7d 3e cb c5 54 bd
       -0.14440319 -0.097430855 0.24783678 -0.051946443
000050 9e 52 08 3d 6d 94 b4 bd 85 88 4d 3d 44 b9 fc 3d
       0.033281915 -0.088173725 0.050179023 0.12340024
000060 b5 17 49 3d 27 1e 33 bd c1 bf 84 3c dd b6 84 3e
       0.049094874 -0.043729927 0.016204717 0.25920764
000070 30 c3 3d be b8 ec 8a 3e 73 db 6f bd 1d 76 48 3e
       -0.1853149 0.27133727 -0.058558892 0.19576307
000080 c8 93 58 3e 23 b9 3c 3c e7 6c 47 3c 52 e7 47 3e
       0.21150124 0.011518749 0.01217196 0.19521835
000090 ee 81 40 bd b0 0d aa 3d 42 c9 8c 3e 6f d7 63 bd
       -0.04699891 0.08303392 0.27497298 -0.055625375
0000a0 7d ae ca bd b6 08 63 3e 93 65 85 3e 0f 07 88 3e
       -0.09896562 0.22171292 0.26054057 0.26567885
0000b0 e0 bb 87 be 59 76 42 3e 6c 1f 13 3e 2e 3d 34 be
       -0.26510525 0.18990459 0.14367455 -0.17601463
0000c0 73 64 38 3e 1e 76 1c be 35 b0 18 3e e9 b3 a2 3c
       0.18007068 -0.15279433 0.14910968 0.019861178
0000d0 7a 68 b5 3d 21 e3 30 be a2 84 5e bd ca 69 1c be
       0.08857818 -0.17274143 -0.054325707 -0.1527473
0000e0 58 02 19 3e 08 56 61 be c9 b2 0f 3d 7f 90 f1 3d
       0.149423 -0.22005475 0.035082612 0.117951386
0000f0 5e 7a 0b bc af 35 b2 bd ee ff 89 3d 41 31 b9 3c
       -0.008513061 -0.087016456 0.06738268 0.022606494
000100 01 06 23 be 2c d2 87 bd a7 16 41 bd 2f 1e 20 be
       -0.15920259 -0.06631884 -0.047140744 -0.15636514
000110 06 ac 89 3b b1 3a dd bd 70 aa 1c be 99 ca 64 be
       0.004201415 -0.1080221 -0.15299392 -0.2234291
000120 2a 4e 34 be 5c 84 86 bd 98 e9 6a 3e 83 6e 1f bd
       -0.17607942 -0.06568214 0.22940671 -0.03892375
000130 a5 a3 13 be fa 8d 58 be 7f 16 92 3d 36 fe 71 3e
       -0.14417894 -0.2114791 0.07133197 0.2363213
000140 04 a4 81 be 12 1e 6e 3e a8 6e 83 3e b9 17 87 3d
       -0.25320446 0.23253658 0.25670362 0.065963216
000150 db 9e 0f 3e dc 3e a7 3d f9 89 7b be 54 9b ea bd
       0.14025442 0.08166286 -0.24564351 -0.11455408
000160 11 51 a3 bd 9c d8 34 be eb 37 c9 bc 69 a1 59 3d
       -0.079744466 -0.17660755 -0.024562797 0.05313245
000170 63 3e b6 3b 5c 85 22 3e 94 8e 29 be e2 47 77 3e
       0.0055616363 0.15871185 -0.16558295 0.24148515
000180 cc 30 0a be 42 a4 66 3e 51 f5 86 3e 46 f1 69 be
       -0.13495177 0.22523597 0.26359037 -0.22845945
000190 30 30 8a be 0d ef 52 3e 26 7e 63 3e d0 6c f6 bc
       -0.2698989 0.20599003 0.2221609 -0.030081183
0001a0 ae e8 6e 3d 63 60 2b 3d 79 b3 af bd 41 64 17 3e
       0.05832737 0.04183997 -0.085791536 0.14784338
0001b0 4c a0 c6 3d 0f 35 88 be 4d c6 a9 bd ac cd 29 be
       0.09698543 -0.2660298 -0.08289776 -0.16582364
0001c0 99 d7 f6 3d 52 39 8b be af ab 7b be 8d 82 81 be
       0.12052841 -0.2719217 -0.24577211 -0.25294915
0001d0 a3 a6 c5 bd 28 d8 61 be 2d 68 65 bd f5 ba 23 be
       -0.09650924 -0.22055113 -0.056007553 -0.15989287
0001e0 c9 88 40 3e 85 3d 76 3e ba f7 ea 3d 0d 80 c4 bd
       0.1880218 0.24046905 0.11473031 -0.09594736
0001f0 fa fd ee 3d b3 73 87 be 04 93 09 be d5 1b 8c bd
       0.11669536 -0.2645546 -0.13434988 -0.06841246
000200 1a 10 8d be 14 af 82 3e d2 c0 39 3e 0f 93 f8 3d
       -0.27551347 0.255242 0.18139961 0.12137424
000210 fd c1 fc 3d c8 ba 94 3e 3f 3d e6 bd 8b 09 8b 3d
       0.12341688 0.29048753 -0.112421505 0.067889296
000220 b9 37 ca bd d4 04 c7 bc c8 d7 58 be 88 33 2f 3e
       -0.098739095 -0.024294294 -0.21176064 0.17109501
000230 c7 46 56 be f5 bd fe bd e5 16 87 3e 90 bd 1e be
       -0.20925437 -0.12438575 0.26384655 -0.15502
000240 4f 1b e9 3c 07 8a 89 be c0 ee 27 be 17 62 76 3e
       0.028455405 -0.2686312 -0.1639967 0.24060856
000250 c4 23 23 3e de 0e 43 3c 7e 2d 0b be fe 6f 66 3e
       0.15931612 0.0119054 -0.13591573 0.22503659
000260 40 8c 8a 3e c2 fe 88 3d 83 e5 39 be fd 95 0a 3c
       0.27060127 0.06689216 -0.18153958 0.008458612
000270 ea cd 10 3e e6 72 a8 3d 2d 05 7e 3e 24 1b 73 3e
       0.1414105 0.0822504 0.24806662 0.23740822
000280 9f 9c 0a 3e 7c dc 4b be 9e 58 98 bb 64 93 84 3d
       0.13536309 -0.19908327 -0.004649236 0.06473425
000290 40 b1 b7 bd 1b 22 a2 3d 63 9b 3f 3e 26 ab 23 be
       -0.08969355 0.07916661 0.18711619 -0.15983257
0002a0 bd 78 ae bd 70 db 5a be 36 42 08 3d a2 39 2c 3e
       -0.08519123 -0.21372771 0.03326627 0.1681886
0002b0 f5 8e 88 3e 6d bc f3 3c c3 04 3e 3e 38 49 91 be
       0.26671568 0.029752934 0.18556504 -0.28376174
0002c0 80 35 e9 bb 13 00 6f bd 4c 12 09 be c4 34 82 3e
       -0.0071169734 -0.05834968 -0.13385886 0.25430882
0002d0 4e 85 30 3e 62 48 67 be dd c1 84 be bc 9a fd bd
       0.17238352 -0.22586206 -0.25929156 -0.12383029
0002e0 0c 54 ca 3d 32 32 10 3e 56 e7 12 3e 52 ef 59 3e
       0.09879312 0.14081648 0.1434606 0.212827
0002f0 a3 35 3c be bd b0 31 3d 1a 26 15 be 32 f9 07 be
       -0.18379836 0.04338144 -0.14565316 -0.13278654
000300 82 7b ac ba 35 c3 e2 bc e0 0b 67 be 86 e0 0f bc
       -0.0013159367 -0.027680973 -0.22563124 -0.008781558
000310 b2 60 0c 3e 18 9c 7e 3e 99 5f 5f bd 3b f7 3e 3e
       0.13708761 0.24864233 -0.05453453 0.18648998
000320 84 1c 88 bd 02 0e 55 be 0a 7e 77 3e c2 af 93 bd
       -0.06646064 -0.20806125 0.24169174 -0.072112575
000330 29 c6 84 bd 96 7e 28 bd 87 62 77 3e 1e 12 e4 bd
       -0.064831086 -0.041136347 0.24158679 -0.11136268
000340 86 63 92 bd 9b f4 ac 3c 44 5a 3e be e0 df d3 3d
       -0.07147889 0.02111273 -0.18589121 0.10345435
000350 1c 8d 78 3e b9 a0 d1 3d 9d 1c 86 bd 1b 4d 83 bd
       0.24272579 0.102357335 -0.06548426 -0.06411191
000360 56 e7 8c be 9a 6f 6e be f9 65 aa bd 29 bb 22 3e
       -0.27520245 -0.2328476 -0.08320231 0.15891708
000370 e8 c5 85 3e 6d 7c ca bc 63 78 9c bc ca 90 70 3e
       0.26127553 -0.024717534 -0.019100374 0.23492733
000380 77 8e 8c bd 29 b6 46 be 1c 0e 1c 3e 67 c4 f9 bd
       -0.068631105 -0.19405426 0.15239757 -0.12195664
000390 c9 f5 4f be d7 c7 30 3b 90 3e 32 be fa 74 5e be
       -0.20308603 0.0026974583 -0.17406678 -0.2172431
0003a0 81 06 1d be b5 c7 a4 bc c4 c3 be 3d f4 6c ee bd
       -0.15334512 -0.020114759 0.09314683 -0.11641875
0003b0 60 37 85 be 45 ac da bd b9 cc 87 3e 81 b9 8b bd
       -0.2601881 -0.10677389 0.26523378 -0.068224914
0003c0 6a 71 57 be ba 20 de bd 6f ba 81 3e a9 9c 27 3d
       -0.21039358 -0.10846086 0.2533755 0.040920887
0003d0 07 56 21 bd 7d ac 91 3e 62 b8 fc 3c 89 6b 42 3d
       -0.039388683 0.2845191 0.03084964 0.047465835
0003e0 e7 13 8c 3e fd 88 e8 bc fe 9b 47 bd 65 07 61 3e
       0.27358934 -0.028385634 -0.04873275 0.21975477
0003f0 48 f0 c9 3d 71 33 4e be 44 4f 4c 3e fc e9 d8 bd
       0.09860283 -0.20136811 0.19952112 -0.10591504

encoder.feature_encoder.atom_embedding_list.3.weight f4 [12, 64]
000000 69 f2 3b 3e 0e 12 42 3d 34 b2 f4 3d 18 cf 8c 3e
       0.18354191 0.0473805 0.11948052 0.2750175
000010 dc c4 43 3e 62 e3 5e 3e 7b f2 2c be 8a 3b 54 be
       0.19118065 0.21766427 -0.16889374 -0.20725837
000020 57 0e 67 3e 95 69 84 3e d7 7b 13 3e 82 4e e0 3d
       0.22564064 0.25861803 0.1440271 0.10952474
000030 cc 23 85 bd dc 8f c9 3d b8 97 0a be a0 92 8e bc
       -0.06500968 0.09841892 -0.13534439 -0.0174039
000040 11 d2 86 3e d1 41 36 be 61 ce 71 be 44 4c b3 bc
       0.26332143 -0.17798544 -0.23613884 -0.021886952
000050 f8 f7 17 3e 69 cb 85 be 33 24 37 3e 5d 33 4d 3c
       0.14840686 -0.26131752 0.17884903 0.012524453
000060 c6 b1 09 3d 58 ae 32 3e 60 b0 0c 3e c4 8e 82 bc
       0.033616804 0.1744932 0.13739157 -0.015937217
000070 45 c2 88 be 17 ca 74 3e 39 4d ba bd 3f d1 1f be
       -0.26710716 0.23905216 -0.0909676 -0.15607165
000080 2a b0 bf 3d 3f 61 41 3e 15 e1 23 3d 43 b7 23 be
       0.093597725 0.18884753 0.040009577 -0.15987878
000090 e8 e7 84 be cc 83 fa 3d ca 6d c9 3d 41 16 2b 3e
       -0.2595818 0.122321695 0.09835394 0.16707708
0000a0 44 0e 8f 3e 48 ba 1c be 3b be b2 3d 51 c6 8b 3e
       0.2794057 -0.15305436 0.0872769 0.2729974
0000b0 7e b9 0f bc 17 0c dc bd 11 9a 60 be 8c ed 94 3b
       -0.008772252 -0.107444935 -0.21933772 0.0045449194
0000c0 b7 b6 0c be 34 36 46 be ae 5c 8b be 38 d4 ea 3d
       -0.13741575 -0.19356614 -0.27219146 0.11466259
0000d0 44 03 26 bd d7 d6 ed 3d 2d ef 19 3e 84 f7 8e be
       -0.040530458 0.11613243 0.15032645 -0.27923214
0000e0 a7 1b db bd ce 6f 7e 3e 4f 50 46 bd d9 d4 40 3e
       -0.10698634 0.24847338 -0.048416432 0.18831195
0000f0 27 bf 78 be 82 02 83 3e ed 79 ee 3d 3e 60 49 be
       -0.24291669 0.2558785 0.11644349 -0.1966562
000100 e4 c3 84 3d de 6a 30 3e 4f 4b 16 3e b8 93 40 3d
       0.06482676 0.17228267 0.14677165 0.047015876
000110 c9 a5 e5 bd 12 21 b4 bd 02 ad 4f be ec 59 8b 3e
       -0.11213262 -0.0879537 -0.20280841 0.27217042
000120 7e c7 67 3d b8 8d 85 3d 43 ee 1e be b7 49 5f be
       0.056586735 0.06521171 -0.15520577 -0.21805464
000130 5a 1b b2 bc 5b 61 1a 3e 4f ae 57 3e 49 1a 04 bd
       -0.021741558 0.150762 0.21062587 -0.03225163
000140 35 b8 dc 3d 36 e8 43 bd 39 d7 aa bd a0 64 8e 3e
       0.10777322 -0.047828875 -0.08341832 0.27811146
000150 f1 9c 83 3d 01 3a 8d 3e 28 1e 8d be fb 64 a0 3c
       0.064264186 0.27583316 -0.2756207 0.019579401
000160 a0 0a c5 bd 05 83 5e 3e 96 e3 0c 3e d7 fe 3f 3d
       -0.09621167 0.21729667 0.13758692 0.046873894
000170 11 f4 2e 3e 45 66 29 be 9c e0 96 bd 81 06 12 3e
       0.17085291 -0.16542919 -0.073670596 0.14260294
000180 54 be 28 be a0 5b 8a 3d 5c 02 a9 3d 90 34 6f be
       -0.16478854 0.06755757 0.08252403 -0.23359895
000190 01 e8 2e be 8f f1 54 be dc 93 83 be ab 2c cc bd
       -0.1708069 -0.20795272 -0.25698745 -0.09969457
0001a0 6f 7c b9 3d 43 a3 ce 3d 5c 2c 21 3e a4 42 10 3d
       0.09056937 0.100897335 0.15739578 0.035219803
0001b0 55 bc 34 be 6e d2 89 be f8 10 7a 3e 3d 6f 6f 3d
       -0.17649968 -0.26918358 0.24420536 0.058455694
0001c0 08 2d 62 3e b6 4d 87 be 31 84 20 be bc a6 ce bb
       0.2208749 -0.26426476 -0.15675427 -0.0063064974
0001d0 d5 13 6e 3e 89 52 70 be 09 94 16 be 73 46 5a be
       0.23249753 -0.23468985 -0.14704908 -0.21315937
0001e0 9e e7 0e 3e e9 09 ac 3c 50 db dd bd 3f f1 36 3e
       0.13955542 0.02100082 -0.10832846 0.17865466
0001f0 6b e3 55 be 92 19 c3 bc 57 94 08 be dc e2 76 bd
       -0.20887534 -0.023815904 -0.13337837 -0.060274944
000200 70 cf b1 3a 0b bd a6 bb 4e ec 8e 3e ec c6 7a be
       0.001356585 -0.0050884536 0.2791466 -0.24489945
000210 54 09 e8 bd a9 55 af bc a1 e6 e8 bd 4a 67 89 3e
       -0.11329904 -0.02140315 -0.11372114 0.26836616
000220 de 68 10 3e 67 4b 5d 3e c5 ec 4f 3e 7c ba 45 bc
       0.14102504 0.21610795 0.20305164 -0.012068387
000230 9b 51 3b 3e 4f 65 bd bc 24 f6 51 3e 51 55 1d 3d
       0.18292849 -0.023119597 0.20504051 0.038411442
000240 87 8e e5 3d ec 68 f2 3d 5e 6e da bd 79 9f 7d 3e
       0.112088256 0.118364185 -0.10665582 0.24767865
000250 19 5a 67 3e a5 11 8b bd c0 56 aa bd d0 4a 7f be
       0.22592963 -0.06790475 -0.083173275 -0.24930882
000260 52 5d 17 3e f3 e3 61 be d9 34 86 be 32 c2 6c 3e
       0.14781693 -0.22059612 -0.26212195 0.23120955
000270 b0 fb 6e 3d 4c 82 7f 3e ec af 70 be a0 13 22 be
       0.058345497 0.24952048 -0.23504609 -0.15827799
000280 4f 6d a0 bd c0 de 31 3e 36 6e 5a be 27 0e 7b be
       -0.07833349 0.17370129 -0.21331105 -0.24517117
000290 4d 3c 9c bd de 44 15 be 66 ad 86 3e 87 71 17 3e
       -0.07628689 -0.14577052 0.26304168 0.14789401
0002a0 bb 34 42 be 00 a0 ea bd c2 81 3e bc 9d 0f 34 be
       -0.18965428 -0.11456299 -0.011627616 -0.17584081
0002b0 f7 be 5f be fb dc 7e 3e ce e4 34 be 15 99 2a 3e
       -0.21850191 0.24888985 -0.17665407 0.16659959
0002c0 26 3f a7 bd 20 5d 5a be 5c 29 08 be 45 d5 03 be
       -0.081663415 -0.21324587 -0.13297027 -0.12874325
0002d0 fb 69 43 be 36 0a 30 be ad 76 50 bc a0 7f 17 be
       -0.19083397 -0.17191395 -0.012723607 -0.14794779
0002e0 da a4 69 3e ff b8 88 be a3 52 50 bd 47 42 3c 3e
       0.22816792 -0.2670364 -0.05086006 0.18384658
0002f0 84 e6 3d be ce a5 70 bd b3 d8 6c be dd 1d 8c be
       -0.18544966 -0.058751874 -0.23129539 -0.27366534
000300 6c 55 0a 3e 66 53 95 3d d2 6d a6 3c 57 b8 61 3e
       0.13509148 0.072912976 0.020316038 0.22042976
000310 26 f0 28 bc 1c 7d 6d be 4b fd 89 be a7 67 0d 3d
       -0.010311162 -0.23192257 -0.2695106 0.03452268
000320 cd f2 28 be 7e c9 83 3e 53 da 0f bd c7 2c 7a 3e
       -0.16498871 0.25739664 -0.03512032 0.24431144
000330 f4 ee 35 bd 0f df 04 be 24 83 8e be 56 06 89 3e
       -0.044417337 -0.12975715 -0.27834427 0.26762646
000340 33 1a 7a be 3f 33 49 3e 31 6d df bd 9d 14 59 be
       -0.24424057 0.19648455 -0.109094985 -0.2119927
000350 24 da b9 bd 5c 4c 0b 3e fc 91 5b 3e 90 e5 68 be
       -0.0907481 0.13603348 0.21442407 -0.22743821
000360 ab 89 56 be cd 32 c9 3d 0d 76 0c 3e 4a c5 38 be
       -0.20950954 0.098241426 0.13716908 -0.1804401
000370 cc 2d f6 3d 3c a7 20 bd 8c 0d 7b be 49 84 21 3e
       0.12020454 -0.039221987 -0.24516886 0.15773119
000380 c4 00 70 be 72 55 82 bc 66 91 7f bd 8d 28 05 be
       -0.23437792 -0.015909884 -0.062394522 -0.1300375
000390 cc 6e 38 bd f4 67 80 be d5 b0 7e 3e ec 33 57 be
       -0.04502754 -0.2507931 0.24872144 -0.210159
0003a0 a8 67 32 3e 7d 38 3b 3c 98 11 19 bc 76 92 a7 bc
       0.17422354 0.011427042 -0.009342574 -0.02045558
0003b0 8b c2 ec bd 3a 50 55 bd 2f f8 4c 3e 29 d3 07 be
       -0.115605436 -0.052078463 0.2001655 -0.13264145
0003c0 ed 30 08 3e 67 f9 66 be 7f 13 0a be b7 77 4f 3e
       0.13299914 -0.22556077 -0.13484 0.20260511
0003d0 14 41 d8 3d 10 a5 82 be de e5 4a be a0 36 3a 3e
       0.10559288 -0.25516558 -0.1981425 0.181849
0003e0 7a 6e b3 bc 23 33 81 3e fd e2 8d be 06 90 8c 3d
       -0.021903265 0.25234327 -0.2771224 0.06863408
0003f0 30 46 8e be 5f 14 04 3e 6b e6 be bd 14 d5 bd bc
       -0.27787924 0.12898396 -0.093212925 -0.023172893

encoder.feature_encoder.atom_embedding_list.4.weight f4 [10, 64]
000000 fc 63 39 3e 4c fb 14 3e f8 76 00 3e 51 ff 7e 3e
       0.18104547 0.14548987 0.12545383 0.24902083
000010 7c 9a 46 3d 28 2f 04 be 41 5b 0e 3e 11 bb 02 bd
       0.04848717 -0.12908614 0.13901998 -0.03191668
000020 f1 bd 90 3e 11 46 52 be 69 68 28 be 98 19 3d 3e
       0.28269914 -0.2053454 -0.1644608 0.18466794
000030 80 4b 46 be ed 72 21 3e 2f 33 37 be 41 a1 c7 3d
       -0.19364738 0.15766497 -0.17890619 0.097475536
000040 50 36 80 3e 4c f3 f7 3d d9 85 2e be f2 99 ed 3d
       0.25041437 0.12106952 -0.17043246 0.11601628
000050 1f b8 77 3b d6 85 76 bd ff 63 8e be 13 ac 42 be
       0.0037798954 -0.06018623 -0.27810666 -0.19010954
000060 51 43 e9 bd f3 fc 51 3e ae 12 51 be bb 56 8a be
       -0.11389793 0.20506649 -0.20417282 -0.27019295
000070 a6 e0 5a be 38 e8 bc 3d 8a 4e 83 be 1c 9a 91 be
       -0.21374759 0.0922398 -0.25645858 -0.2843789
000080 1a 07 54 bc e5 eb 87 be be 85 8f 3d 07 23 ec bc
       -0.012941146 -0.2654716 0.07007931 -0.028825296
000090 e6 15 88 3e a9 65 df bd 24 7a 83 be 2d a3 28 be
       0.26579207 -0.10908062 -0.25679123 -0.16468497
0000a0 48 ae 34 bc 17 8b ee bd 57 65 8f 3e 3b 23 6a be
       -0.01102788 -0.11647623 0.28007004 -0.22865002
0000b0 ee 2d 85 be 09 f6 07 3e da ff 94 bd 0d 6a 29 3e
       -0.26011604 0.13277449 -0.07275362 0.16544361
0000c0 a2 1b 37 3d 83 8b c1 3d eb fc 40 3e c3 71 28 bd
       0.044704087 0.09450438 0.1884648 -0.041124117
0000d0 7b 82 fa bd d4 81 b3 bd 5f 26 8a bd 4a 4e 76 be
       -0.122319184 -0.08764997 -0.067456 -0.24053302
0000e0 3a 7e 7a 3e 90 78 05 3e 90 63 be bd 6f 81 62 3e
       0.24462214 0.13034272 -0.09296334 0.22119687
0000f0 df b8 e9 3d 20 d1 e4 3d 3b bf 28 3e ae 3d 65 3d
       0.114122145 0.111727 0.16479199 0.055967025
000100 28 25 b4 bc 36 e6 59 3e e6 25 c7 3d fc 04 46 3e
       -0.021990374 0.21279225 0.097240254 0.19337839
000110 c6 f6 22 3e 0e bf 41 be 98 65 5d bd 79 15 67 3e
       0.15914449 -0.18920538 -0.054051965 0.22566785
000120 25 4b 5c bd 26 ad 04 be c7 71 fa bd 7c 4d 76 be
       -0.0537826 -0.12956676 -0.122287326 -0.24052995
000130 0f f1 26 3e 9f 30 2b 3e c5 b0 1b be 45 a1 93 be
       0.16302894 0.16717766 -0.15204151 -0.28833976
000140 32 f2 7f 3d bb 60 25 3c 08 b7 45 3e 58 0a 25 3d
       0.062486835 0.010093863 0.19308102 0.040293068
000150 db e3 39 bd 25 0a 34 3e 8b c4 41 3e 5e fa 14 3e
       -0.045383316 0.17581995 0.18922631 0.14548633
000160 79 59 5f 3e 45 50 86 be 93 1e e3 3d e9 10 24 3e
       0.21811475 -0.26233116 0.11089816 0.16022076
000170 89 9b 3a 3e 71 d6 e8 bd a4 be ab 3d 0e 44 75 be
       0.18223394 -0.113690265 0.08385971 -0.23951742
000180 83 64 6b 3e e9 be 73 3c 3b f0 40 3e 37 3a a9 3d
       0.22987561 0.0148770595 0.1884164 0.08263057
000190 09 74 0d be 62 54 1c 3e 7a 2d 4a 3e de 35 1d be
       -0.13813795 0.15266564 0.1974391 -0.1535258
0001a0 89 2e dd 3c ab a9 18 be d1 04 56 be b6 e7 e0 3d
       0.026999729 -0.14908473 -0.20900275 0.10981695
0001b0 37 54 6e be e5 3f d9 3d 92 89 52 be 47 79 12 bc
       -0.23274313 0.1060789 -0.20560291 -0.008940048
0001c0 8a 6d d4 bd 4c 05 09 3e 82 8b 8f 3e 61 5b 62 be
       -0.103724554 0.13380927 0.28036124 -0.22105171
0001d0 05 19 9f bd 8a 8d 52 bd 42 da 7a be d6 cf 85 be
       -0.07768444 -0.051404513 -0.24497321 -0.2613513
0001e0 b4 15 19 be 22 c0 67 bd 4f 46 78 3e 91 e9 b3 3d
       -0.14949685 -0.056579717 0.2424557 0.08784784
0001f0 34 1e 86 3e 7e 51 71 be d8 6c 18 be 09 36 fb 3c
       0.26194918 -0.23566243 -0.1488527 0.030665414
000200 99 89 5f be 10 8b fe 3d e5 0b ca ba fe 6d 90 be
       -0.21829833 0.12428868 -0.0015414922 -0.28208917
000210 df 25 92 be a6 42 a8 3c d2 03 b3 3d fd ba 96 bb
       -0.28544518 0.020539593 0.08740963 -0.0045999275
000220 ae 8f b3 bd 0c e9 47 3e 55 5a e2 3c a7 c4 07 be
       -0.08767639 0.19522494 0.027630964 -0.1325861
000230 2a a5 71 3e 3c 5e 94 bd 2f 66 f1 bd 1c 83 fc bc
       0.23598161 -0.07244536 -0.11787068 -0.030824237
000240 58 72 67 bd 3b 3f a1 bc 49 fa f8 bd 5e b9 28 3e
       -0.05650553 -0.019683471 -0.12157113 0.16476962
000250 27 e3 85 3c 13 79 1d 3e 70 d8 14 3d 30 4f 46 3e
       0.016343666 0.15378217 0.036339223 0.19366145
000260 7c 2b 50 be f5 58 18 3e aa e7 f2 3d f9 18 06 3e
       -0.20329088 0.14877684 0.11860593 0.13095464
000270 9c 3e 20 be 06 aa 11 3d 83 7c d4 bd 40 81 bb bd
       -0.15648884 0.035562538 -0.10375311 -0.09155512
000280 4f 52 10 bd 60 75 47 bd ae c9 dd 3d aa 6c 8c 3e
       -0.035234746 -0.048695922 0.10829483 0.27426654
000290 93 2e a7 bd 1a 02 8b 3e 39 cc 1a 3e 37 20 82 be
       -0.0816318 0.2715004 0.15116967 -0.25415203
0002a0 39 f7 6a 3e cc 35 63 be bc 46 e5 bd 23 de da bd
       0.2294587 -0.2218849 -0.11195132 -0.106869005
0002b0 6e 9b 04 bb b3 f8 99 be 02 ea 85 be 6e 60 73 be
       -0.0020234245 -0.30072555 -0.26155096 -0.23767254
0002c0 cd 1d 10 be 91 5b 57 bc 86 46 40 3e 1b 4e 81 be
       -0.14073868 -0.01314439 0.18776903 -0.25254902
0002d0 16 a6 01 3d 30 e6 60 3e b7 29 d5 3d 79 b4 6a 3d
       0.031652533 0.2196281 0.10408347 0.05730102
0002e0 05 cb 88 be df 33 32 3e 26 9b 8d bd 62 bc c9 3d
       -0.26717392 0.174026 -0.06914358 0.09850384
0002f0 b7 cb 37 be 37 ea e1 bc dc ab 35 3e 6f 1b 45 be
       -0.17948805 -0.027577503 0.1774134 -0.19248746
000300 33 9d 5c be bc ae 22 bd bb 53 28 3e ce 2f 4e be
       -0.21544342 -0.03971742 0.1643819 -0.20135424
000310 5b 5a 1c 3d 5b c5 fb bd f9 f2 43 3d e9 dd 31 3d
       0.038172107 -0.12293502 0.04783914 0.04342452
000320 52 a7 3f 3e 06 fb 16 be f3 7d 7f be 3d 14 05 3d
       0.18716171 -0.14744195 -0.2495039 0.032490004
000330 13 f4 1a 3e bb 36 04 be 3d c2 a2 3d 01 e3 84 be
       0.1513217 -0.12911503 0.07947204 -0.2595444
000340 e7 73 0c 3e 2b 65 14 3e 47 0a 88 be 75 e9 81 bd
       0.13716088 0.14491718 -0.2657034 -0.063433565
000350 a2 6c db 3d f5 99 03 3e b1 29 b4 3d 5b 7b 52 be
       0.107140794 0.12851699 0.087970145 -0.20554869
000360 ef da 78 3e 99 d6 80 be 07 74 43 bc 14 3e 1b be
       0.24302267 -0.25163725 -0.011929519 -0.151604
000370 45 8c 7c be 3a 2b ff bd 11 f6 88 3e 12 45 7d be
       -0.24662884 -0.12459417 0.26750234 -0.2473338
000380 97 34 42 3e ec 21 83 3e fb b1 35 be 68 95 c3 3d
       0.18965374 0.25611818 -0.17743675 0.09549981
000390 4e dc d8 bd cd 2a 89 be 09 9f 7f be 08 fa 49 bd
       -0.10588895 -0.26790467 -0.24963011 -0.049310714
0003a0 d1 15 52 be 65 8e 26 bd 85 37 2a 3e 06 a0 0d 3e
       -0.20516135 -0.04066314 0.16622742 0.13830575
0003b0 76 22 90 be c3 a9 e9 3d e2 f7 aa bb 68 c4 e4 3d
       -0.28151292 0.114093326 -0.005217538 0.11170274
0003c0 3e 8f 3b 3e d1 07 72 be 48 de 13 be 0b fa 0a 3e
       0.18316361 -0.23635794 -0.14440262 0.13571946
0003d0 35 85 41 3d 24 f8 9d bd 9a 09 13 be 1d 4d 32 3d
       0.047246177 -0.07713345 -0.14359131 0.043530572
0003e0 da 74 b3 bd 65 96 96 3d 78 3a fb bd 37 db 88 3e
       -0.08762522 0.07352904 -0.122670114 0.26729748
0003f0 fd 5b 12 3d c1 c7 a5 bd 0c cf 75 be 10 09 93 3e
       0.035732258 -0.08094741 -0.24004763 0.28717852

encoder.feature_encoder.atom_embedding_list.5.weight f4 [6, 64]
000000 50 92 3b be 0c b2 9c 3d 22 d8 56 bd 71 6c 6d 3e
       -0.18317533 0.07651147 -0.052452214 0.23185898
000010 88 e7 f4 bc 1e 77 6e 3e 94 31 aa bd 80 94 65 be
       -0.029895559 0.23287627 -0.083102375 -0.2241993
000020 a7 90 22 3b 12 93 25 be 9c 19 1d be b4 5e 48 3e
       0.0024805458 -0.16169384 -0.153418 0.19567376
000030 f2 94 84 3e 68 4e 41 be 34 fd 91 be 66 ed c7 3d
       0.25894886 -0.18877566 -0.2851349 0.09762077
000040 b8 8b 7a be 61 fc a9 bd 8b a7 e9 3d 51 1e c0 3d
       -0.24467361 -0.083000906 0.114089094 0.093807824
000050 f4 c5 2e 3d 56 7c 04 3e 02 25 24 be 2b d4 be bd
       0.04266925 0.12938055 -0.16029742 -0.093178116
000060 e0 db b6 bd 8f 40 99 be 23 f9 30 be de 1f 2a 3d
       -0.089286566 -0.29932067 -0.17282538 0.041534297
000070 02 3b 95 3d c4 4c fa bd 47 a1 64 3e a0 44 1c be
       0.072866455 -0.12221673 0.22327147 -0.15260553
000080 59 cc 56 bb ca 88 7a 3e 19 19 37 3e 6f d9 8d 3e
       -0.003277561 0.24466243 0.17880668 0.2770495
000090 a5 cb 9d 3d f4 d6 53 be 26 8b b1 bd 9a 72 a9 bd
       0.07704858 -0.20687467 -0.086691186 -0.08273812
0000a0 48 b0 5b be 64 fa e5 bd 6d 75 8d be 9a 4d 13 be
       -0.21453965 -0.11229399 -0.2762865 -0.14385071
0000b0 17 57 8e be d0 13 8f 3e 4b ff 3f 3d 4e df 8a 3e
       -0.2780082 0.27944803 0.046874326 0.27123493
0000c0 4e dc 25 3e 1f 7b 8b 3e fa 07 b7 bd 9c b5 10 be
       0.16197321 0.2724237 -0.08937068 -0.14131778
0000d0 cd 22 01 be 22 f2 83 be 12 3a 97 3a a9 78 46 3d
       -0.12610932 -0.2577067 0.0011537692 0.048454914
0000e0 44 15 1f 3e 09 7f 5e bd d7 99 c7 3d fb b4 f0 3d
       0.15535456 -0.05432037 0.097461395 0.11753269
0000f0 82 10 87 3d 78 64 95 3d a6 ca dd bd fb c4 29 3e
       0.065949455 0.072945535 -0.10829668 0.16579048
000100 dc 8a 91 be 61 8e 0d 3d 8a 93 1e 3e 3c d5 3b 3e
       -0.28426254 0.03455961 0.15485969 0.18343061
000110 3d 22 04 3e 51 33 36 bd 3f ac 55 3e d0 1d 8e be
       0.12903686 -0.044482533 0.20866488 -0.2775712
000120 bb ea 7a bd c7 62 e0 bd 01 ee 36 3e 76 c0 83 3e
       -0.061259013 -0.1095634 0.17864229 0.25732774
000130 9f 90 9e bd de 52 71 3d 24 52 2d bd 9f 99 aa bd
       -0.07742428 0.05891692 -0.042314664 -0.08330082
000140 8a d6 ef 3d d1 13 8d 3d e0 2a 10 be 89 de 82 3d
       0.11710842 0.06888545 -0.14078856 0.063901015
000150 db 64 87 3e 3d a8 51 be a1 46 3f bd 0e 10 85 be
       0.26444134 -0.20474334 -0.046698216 -0.2598881
000160 c7 57 97 bd 6c c7 8d 3e b7 fc 42 3e 68 64 8d be
       -0.07389789 0.2769121 0.19041716 -0.27615666
000170 de 3b 86 be a2 c0 40 3c b1 27 09 bd 79 d5 61 3e
       -0.2621755 0.011764677 -0.03348512 0.2205409
000180 9a 50 a5 bd e6 5e 63 3e 8a 4d 31 be 98 7e 5a bd
       -0.08072014 0.2220417 -0.17314735 -0.053343385
000190 c0 87 cd bb a8 4e 1a be ac 8c 4b 3c be 32 81 bd
       -0.006272286 -0.15069067 0.0124236755 -0.063085064
0001a0 fc 3e 0e be e6 f0 6b be c0 cf f7 b9 44 80 8b 3e
       -0.13891214 -0.23041114 -0.00047266297 0.27246296
0001b0 8d bc e8 3d 0d 4c 65 be fe 6f 17 be 5f ea 44 3e
       0.11364088 -0.22392292 -0.14788815 0.1923003
0001c0 ee 7e df bd a2 3d de bc ea f6 0c be e8 f0 0e 3e
       -0.10912882 -0.027128998 -0.13766065 0.13959086
0001d0 da c0 4a be 6c 14 8e be c3 4a 5c be bb 58 81 be
       -0.1980013 -0.27749956 -0.21512894 -0.25263008
0001e0 26 9a e6 3c 84 eb 39 3d 18 c9 bd bd 43 84 f8 3d
       0.028149676 0.04539062 -0.09266871 0.12134602
0001f0 22 f9 e0 3c f2 e2 90 3d 0d 5b 1c 3e 3d 80 72 3d
       0.027462546 0.070745364 0.15269108 0.05920433
000200 b8 6c 96 3e 94 4b 56 3e d7 99 29 be d2 6d 5a 3e
       0.2937982 0.20927268 -0.16562591 0.21330956
000210 06 2e cf bc b1 54 27 bc 0f de aa 3c 30 29 83 be
       -0.0252905 -0.010213063 0.020857839 -0.2561736
000220 c0 02 46 3e e8 ac 45 3e 17 a5 92 3e 02 68 5e 3d
       0.19336987 0.1930424 0.2864158 0.05429841
000230 de aa a3 bd 50 ed 42 bd 48 57 d0 bd ff 8c 87 be
       -0.07991575 -0.0475896 -0.101728976 -0.2647476
000240 33 ce cb 3d 97 a4 15 3d 42 f2 b8 bd c6 c9 2e be
       0.09951439 0.03653392 -0.09030582 -0.17069158
000250 e8 80 63 bd 07 ca a5 3d c7 20 68 3e 98 84 f4 3d
       -0.055542856 0.08095174 0.22668754 0.11939353
000260 5c 01 62 3e 61 e4 6c 3e 06 24 1e be ab a8 c7 bb
       0.22070831 0.23133995 -0.1544343 -0.006093105
000270 6b f8 7b be bb 31 2e be cc 12 e8 3d 36 37 e9 3d
       -0.24606483 -0.17011158 0.1133171 0.11387484
000280 8d f1 01 3e b7 9b 7c 3e b0 e1 f2 3d 5e e2 12 be
       0.126898 0.24668775 0.11859453 -0.14344165
000290 b0 60 76 bd 8f 16 bc 3c 60 12 21 3e e2 3e 1a be
       -0.060150802 0.022959976 0.15729666 -0.1506305
0002a0 23 b5 fa bd e0 81 e5 3d 4b 02 ca 3d 9d 35 8c 3e
       -0.1224158 0.11206412 0.098637186 0.27384654
0002b0 93 3e 77 3e 18 11 10 be 26 0e d1 3d a7 ab 3b be
       0.24144964 -0.14069021 0.10207777 -0.18327199
0002c0 5e a2 5a bc 30 7a 02 bd ee ba 8f 3d f8 55 82 3e
       -0.013344375 -0.03185481 0.07018076 0.25456214
0002d0 bd 8b 6a be 73 f9 87 3e c4 21 51 3e 2d 13 11 be
       -0.22904868 0.26557502 0.20423037 -0.14167471
0002e0 f7 61 92 bd a9 c4 85 bd e5 9e 3e 3e 9d 29 a1 bd
       -0.071475916 -0.065316506 0.18615301 -0.07869265
0002f0 22 ce d2 3d a5 82 ed bd 08 17 76 3e 1e 92 40 bd
       0.10293223 -0.11597184 0.24032223 -0.04701435
000300 48 4e 8f 3e 51 2e 5f be 9b 06 b3 bd f4 c3 41 3e
       0.2798941 -0.21795012 -0.08741494 0.18922406
000310 8f 69 c7 3d 40 cd 17 be 7c 7d 75 be d9 56 62 be
       0.097369306 -0.1482439 -0.2397365 -0.22103442
000320 37 81 7a be 81 ad 25 be bb a6 35 be 7a 0c ad bd
       -0.24463354 -0.16179468 -0.17739384 -0.08449645
000330 68 e1 81 3e f8 25 9f bd 56 4d 39 be cb 91 12 3e
       0.25367284 -0.07770914 -0.18095908 0.14313428
000340 55 73 30 be 12 0b 16 be 82 29 46 bd f3 9a 13 bd
       -0.17231496 -0.1465266 -0.04837943 -0.036036443
000350 c8 e0 38 be ef 6c 6e be 15 52 92 be a3 4f fe bd
       -0.18054497 -0.23283742 -0.2857825 -0.12417533
000360 88 e5 17 3e a1 67 c0 3c 73 fb 6e 3e 70 fc 4f 3d
       0.14833653 0.023486914 0.23338108 0.050777853
000370 1d e9 60 be de ef e1 3c ea a0 99 bd d8 c0 29 3e
       -0.21963926 0.027580198 -0.07501395 0.1657747
000380 14 23 a3 3d 9f 63 94 3e a2 65 86 be 21 b0 0e be
       0.07965675 0.28982255 -0.26249415 -0.13934375
000390 f6 76 7e be 1b 67 d5 3c 38 1a 3f be 1d f9 f8 bd
       -0.24850067 0.026050141 -0.18662345 -0.121568896
0003a0 f5 16 8f 3e 4a e3 c8 bd a5 80 13 3e c6 bf 40 3e
       0.27947202 -0.09808977 0.14404543 0.18823156
0003b0 2c 6d 59 3e 1a 3d 75 3e ef ee 38 3e c3 ab ed 3c
       0.21233052 0.2394909 0.18059896 0.029012566
0003c0 d4 f3 7c 3e 1c 10 91 3e da cd 4e be 4b 6c 7a 3d
       0.24702388 0.28332603 -0.20195714 0.061138432
0003d0 3a 46 4e 3e 84 ae 4a be 21 51 eb 3d 30 2f 3b 3e
       0.20143977 -0.19793135 0.114900835 0.1827972
0003e0 8c ab 15 3c 83 56 ad bd be 59 c6 bc c6 64 82 3e
       0.009135138 -0.084637664 -0.024212714 0.2546751
0003f0 9d 5f 6d be 66 e2 ed 3d aa 47 22 be e9 50 4a 3e
       -0.23181005 0.11615448 -0.1584765 0.19757427

encoder.feature_encoder.atom_embedding_list.6.weight f4 [6, 64]
000000 e7 62 94 bc e9 11 8c 3e 46 a5 e8 bd ed c0 7c 3e
       -0.018113567 0.27357414 -0.113596484 0.2468297
000010 a3 65 dc 3d 97 e7 5f 3e d8 15 05 3c 94 3c 3f 3e
       0.10761573 0.21865688 0.008122884 0.18675452
000020 b7 97 1c 3c 64 99 eb 3b 83 17 3d bd e8 5e ae 3d
       0.009557656 0.0071899164 -0.046165 0.08514196
000030 28 4f 91 3e 67 7a 67 3e 60 cf 2b be 68 7f f9 bd
       0.28380704 0.22605287 -0.16778326 -0.12182504
000040 53 08 29 3e 08 6d e7 bd e4 27 b5 bd 37 17 4c 3d
       0.16507082 -0.11300093 -0.08845499 0.049826827
000050 7e 27 2f be 04 fc 58 be 7a 2d 78 3e d4 9d 87 be
       -0.17104909 -0.21189886 0.24236098 -0.264876
000060 c5 dc 30 be 3a 3a 02 3e fa 89 ec bc 91 44 15 3e
       -0.17271717 0.12717524 -0.028874386 0.14576937
000070 74 14 18 bd f2 9b d2 bb 18 fa 38 bd 62 86 b3 3d
       -0.03712888 -0.0064272815 -0.045160383 0.08765866
000080 24 95 88 3d 50 24 df bc 1b e0 42 3e b2 77 37 be
       0.06669071 -0.027238995 0.19030802 -0.17916754
000090 14 f2 94 bd c3 3a d4 3c a3 7e 0c 3e 62 34 d1 bd
       -0.07272735 0.025906926 0.13720183 -0.10215069
0000a0 c1 ea 3c 3c 00 9f 89 be 06 7d fc 3d 1e 0e 30 3e
       0.011530579 -0.2687912 0.12328534 0.17192885
0000b0 4c fc 78 be 4a 2d 67 be 1b 3d d8 39 e7 68 7f 3e
       -0.24314994 -0.2257587 0.00041244258 0.24942361
0000c0 83 ec e7 3d a5 e0 64 3e 88 91 78 be 92 46 51 3e
       0.11324408 0.2235132 -0.24274266 0.20437077
0000d0 a7 04 8b 3e 5c fa 6f be b5 21 89 3d 57 fb 67 bd
       0.27151987 -0.23435348 0.06695882 -0.05663618
0000e0 d0 e9 8b 3e 15 91 1f be 04 38 8e be c8 83 71 be
       0.27326822 -0.15582688 -0.27777112 -0.23585427
0000f0 7e ca 4a 3e af af c6 3d 75 b4 96 be 22 ae 60 be
       0.19803807 0.09701478 -0.29434553 -0.21941426
000100 73 65 17 3e d6 b2 14 be 82 0d 49 be dd 5a 02 be
       0.14784794 -0.14521345 -0.19634059 -0.12729974
000110 4a ca ea bd 5c ca 37 be 3b 7f e4 bd 38 39 27 3d
       -0.11464365 -0.17948288 -0.1115708 0.040826052
000120 40 2a 65 3d b4 b9 84 3e 17 61 91 be 6d 5c 98 bd
       0.055948496 0.2592293 -0.28394386 -0.07439504
000130 86 b4 b7 bd ac 1c 1e be f8 35 d0 3d f7 1b 09 be
       -0.08969979 -0.15440625 0.10166544 -0.13389574
000140 27 d6 d1 bd 99 5e 63 be 24 6a e6 bd 72 f5 b2 3b
       -0.102459244 -0.22204055 -0.112507135 0.0054613883
000150 4e b7 1f be 30 bf 63 bd cc a1 2e be e1 01 30 3d
       -0.15597269 -0.055602252 -0.17053908 0.042970542
000160 33 5d bb 3d 23 08 37 be 5b d7 00 be 5d 2d 24 bd
       0.09148636 -0.17874198 -0.12582152 -0.040082324
000170 0e 79 20 be 27 8e 04 be f2 66 17 3e 2c 24 23 bd
       -0.15671179 -0.12944852 0.14785364 -0.039829418
000180 e0 57 d5 3d ee 9e 15 3b 3d dc 6f 3c 3c 36 5f be
       0.104171515 0.0022830325 0.014639911 -0.21798033
000190 da 05 a0 3c 9d 6d 8a 3e 44 e4 92 3e 1d fc 52 3e
       0.01953404 0.27036753 0.28689778 0.20603986
0001a0 a1 ad bf bd 7e 58 8b 3b 4e 98 85 3e f5 83 88 bd
       -0.09359289 0.0042524925 0.26092762 -0.06665794
0001b0 25 b6 b7 3d 65 61 af 3c 30 47 44 3e a7 27 17 be
       0.08970288 0.021408746 0.19167781 -0.1476122
0001c0 4b f1 43 3d aa 49 87 be 4e be 8c bd be 1d 05 3e
       0.047837537 -0.2642339 -0.06872235 0.12999627
0001d0 d9 ab d4 3c 23 eb 8e 3e 58 b0 54 be 09 4f 0b 3e
       0.02596085 0.2791377 -0.20770395 0.13604368
0001e0 14 77 3a bc 20 a0 8e 3e d3 eb 81 3e 20 2b 82 3e
       -0.0113809295 0.2785654 0.25375232 0.25423527
0001f0 ce 14 41 be 07 24 92 3e 99 ca 31 be e1 e8 02 be
       -0.18855593 0.28543112 -0.17362441 -0.12784149
000200 e4 bb 2e 3e a9 ed 1e bc 03 0e 13 3e d5 18 79 3e
       0.17063862 -0.009700217 0.14360814 0.24325879
000210 76 d7 16 bd 1f 2f 92 3d 50 19 ff 3b 4a 17 4d 3e
       -0.036826573 0.07137894 0.007785 0.20028415
000220 9b b6 19 3e c7 65 b3 3c 1e ff 4c be 8b e9 ab 3d
       0.15011065 0.021899117 -0.20019194 0.08394154
000230 d6 b8 2e 3e fe 6b c9 3c f0 2b 13 3e 47 2b a0 3d
       0.17062697 0.024587628 0.1437223 0.078207545
000240 7b 38 1b be 9a 4d 1e be c1 17 71 bd 7a 83 81 be
       -0.15158264 -0.1545929 -0.058860544 -0.2529562
000250 45 de 3f bc 07 7b 93 bd 64 84 7c be ed 40 5e 3d
       -0.011710708 -0.072012 -0.24659878 0.054261137
000260 66 d4 9f 3d 99 49 e1 3d c7 47 7f bc bc 6a d7 bd
       0.07804184 0.11000366 -0.015581078 -0.10518405
000270 ab c7 4f bd b0 f1 61 be 28 e9 af 3c 4b e2 25 3e
       -0.050727528 -0.22064853 0.021473482 0.16199605
000280 1a 0c 1a 3b 92 a3 c9 3c ca 27 71 3e 44 2b 74 3e
       0.0023505748 0.02461413 0.23550335 0.2384463
000290 33 c0 85 3e 65 70 75 3e b3 ea 24 3e 1a 2a b4 bb
       0.261232 0.23968656 0.16105156 -0.005498183
0002a0 3e 7d 8a be 3d 59 f4 3c 0a b9 2f 3e 8d 09 37 3c
       -0.27048677 0.029827708 0.1716043 0.011171711
0002b0 7d 42 1b 3e 51 0f 66 be 12 3a 3c bc dd 5a 93 3e
       0.15162082 -0.2246678 -0.011488454 0.2878026
0002c0 06 5b 86 be 0b 81 4e bd de b3 01 3e d3 9c 90 be
       -0.2624132 -0.050416034 0.1266627 -0.28244647
0002d0 cd 0e e9 bd 3e 76 fb bd ee 75 5a 3e d8 12 3b bd
       -0.11379776 -0.12278412 0.21334049 -0.045672268
0002e0 e9 68 a3 bb 65 12 6d 3e 31 46 8f 3d 4d 59 d2 bd
       -0.0049868715 0.23151548 0.0699581 -0.10270939
0002f0 69 47 20 3e e2 b8 ec bd f1 90 7e 3e 09 3f b2 bd
       0.15652241 -0.11558701 0.24859978 -0.08703429
000300 f4 8a 83 3e 3a b1 d3 bd 5c 2a 24 3e 81 ad 83 3e
       0.2569195 -0.10336538 0.16031784 0.2571831
000310 d0 92 d9 bd 79 52 b3 bc a5 22 0e be f8 0d 19 3e
       -0.106237054 -0.021889912 -0.13880403 0.14946735
000320 17 ab d0 bd 6c 3b 5d 3e 8f 57 3a be 96 b1 c0 bd
       -0.10188883 0.21604699 -0.18197463 -0.09408872
000330 fe c6 94 bd c2 ba 77 3e 63 85 1c 3e 3e 59 2f bc
       -0.07264517 0.24192336 0.15285258 -0.010702429
000340 de 00 12 3e 1e c5 87 be 2c 7d cc bc a8 cc 84 3e
       0.14258143 -0.26517576 -0.02496203 0.2593739
000350 db af 8c bd b9 8b 26 be 4f 98 08 be 64 50 72 3e
       -0.06869479 -0.16264237 -0.13339351 0.23663479
000360 c5 cc 27 3d 29 18 9a 3d 7d a6 0a be 3b b9 12 3e
       0.040966768 0.075241394 -0.13540073 0.14328472
000370 e5 58 c7 bb 0e 6f 91 3e 21 17 39 3e 59 c3 81 be
       -0.006083595 0.2840504 0.18075229 -0.2534435
000380 46 f0 7d 3e 79 2c 43 be 38 f8 d5 bd 27 a1 30 3d
       0.24798688 -0.19059934 -0.104477346 0.043122437
000390 be 65 6f be 61 d8 6c bc e5 94 21 be a0 66 9a bd
       -0.23378655 -0.014455886 -0.15779455 -0.075391054
0003a0 33 86 26 bc 0e 5e 5b bd 95 04 d9 3d ed 53 a6 bd
       -0.0101638315 -0.053556494 0.10596577 -0.08121476
0003b0 73 d9 24 3d 51 d2 4a bc e3 35 d4 bd 4b 3d 88 be
       0.04024644 -0.012379245 -0.103618406 -0.26609263
0003c0 a6 0a 11 3e d1 91 87 be 84 6a 08 3d 9b b7 41 3e
       0.14164218 -0.26478437 0.033304706 0.18917696
0003d0 c8 2e 8c 3e 8e 9c 1f be 53 38 7f 3e a7 31 21 be
       0.2737944 -0.15587065 0.2492383 -0.15741597
0003e0 58 db 35 be d5 7f 36 3d 34 f5 f6 bd 4e 74 42 be
       -0.17759454 0.044555504 -0.120584875 -0.18989679
0003f0 aa 95 aa 3d 9a 22 7a 3e de ef 2f 3e 2b 0d cd 3d
       0.083293274 0.24427262 0.17181346 0.10012277
