checkpoints/tuning_multi/trial_18/final_model.pt (torch, 520443 bytes, 104 tensors)

encoder.feature_encoder.atom_embedding_list.0.weight f4 [119, 64]
00000000: 4ca4 1b3e 45e6 013d d359 10bd 9d3b 1f3e
00000010: 319a e2bd 4707 3cbe 44fe cdbd 1682 f03d
00000020: 7376 3f3e e892 83bd 7bd3 09be f8ac 54be
00000030: 1379 bc3d 570b 3cbd 7130 203e 8cab 9bbd
00000040: 0aa4 2e3e 2325 e33d 3868 e23d 3fa3 9b3d
00000050: 2055 00be ced8 403c d18f e5bd 9f04 81bd
00000060: 9404 fe3d 3de4 b2bd ca4d e73d 18f6 243c
00000070: 2905 d4bd c70e bfbd 431b 3ebe b2db 9b3d
00000080: baa6 0d3c 91fa 273e f523 a63d 5e95 803d
00000090: 8978 4cbd de25 a23d ea06 06bc 9d71 d53d
000000a0: 1528 89bd 2e3e 0d3e 3f95 033d 2b0e ed3d
000000b0: 7a8c 5a3b 57b2 b23d b61b 383e e457 dabb
000000c0: 7ee0 113e cc82 1dbe ad05 1ebd 1025 2abe
000000d0: f79d ad3c 1f38 fb3b 0a73 3a3d 77d9 9dbd
000000e0: b43b 043e 5213 8abd 6ce2 31bd dbcc 023e
000000f0: 61a3 2abe 6a69 2d3d e63d 22be af75 533d
00000100: c497 0dbe 45a0 2abe a984 8abd 4081 093e
00000110: b90d a63d 53be ea3d 2945 56bd 021f 083e
00000120: 52cd 9abd e5c6 553b ed0f 21be bd7c bbbc
00000130: a24d 183d 0af4 1bbe 7330 373e f47f d03c
00000140: 0398 2f3e 701d bcbd b720 fb3c ec77 acbd
00000150: e566 1f3e 26fd ccbd 903c d43d 08ce 00be
00000160: 1658 ff3d b0f9 26be e8b5 58bd 002a 7cbd
00000170: 3d73 57bd d665 0639 a06a 493d 0c77 293e
00000180: 075f e13d 0ff0 63bd 5900 3f3e 8d90 f5bc
00000190: 3918 06be d8fd 843d 8b7b 89bc 5d8d 403e
000001a0: 9706 6e3c f0fb f53d 59ce d43c fa45 cdbd
000001b0: 7061 6a3d 7544 c6bd 07bc c7bc 8a48 a4bd
000001c0: a149 eebd fd16 823d e442 da3d 67ae 36be
000001d0: 01e7 f53d 319c 0ebe ee7a 2fbe 53c6 7f3d
000001e0: 4dc0 103d b43a ecbd b2cd 173e e688 ce3c
000001f0: 8d5a eebd b4e1 a93d 8eb7 8f3c 6a38 3dbd
00000200: 3cff 03be cd70 313c c8f6 013e 1bb2 b2bd
00000210: 4a5b d03d 9f37 36be e681 82bd a0c1 94bd
00000220: db68 15be 8789 843d 38ef 14be 5cb8 a73d
00000230: e6eb 473d 5e17 cdbc 55b2 c5bd b713 36bd
00000240: 140e 343d c6b0 363e 0946 bebd ee50 fcbd
00000250: 05d9 80bd a230 05be 1f47 c3bc 3429 04be
00000260: a970 063e 9afb e43d 6fa4 04be b8f3 1e3e
00000270: f60e e33c 014e c1bd 8258 763d 3574 29be
00000280: 1a59 e6bd 881d 0cbe 5d0b f3bd 3a8a 20bd
00000290: d1f2 713d 1287 0d3d 35dc 22be d279 31be
000002a0: 8609 e1bc 320f 013e 0660 893d 0141 393e
000002b0: 63b4 afbd ab07 a43d e66b 21be f80a ca3d
000002c0: 4845 96bb a4a4 0b3b 0a04 e6bd 8901 22be
000002d0: 8988 88bd 8929 8cbc baee c4bd 3dff 9a3d
000002e0: 9cf5 67bd de5f d43b 6e36 2fbe 54d1 f43c
000002f0: 724d b5bd 9d1a 0cbe 2f6f 86bd 42bb 14be
00000300: dc86 0dbe 243e 0a3e 18c5 173e 43ca 00be
00000310: 5cd8 203d a102 bfbd 6781 2d3e bd64 e23d
00000320: 6172 933d 052c 17be e966 b6bd 91de 1bbd
00000330: 1fc6 25be 0db9 d8bd d044 433d 83f1 16be
00000340: b955 453d c497 87bb 184e 74bc c5a4 58bd
00000350: 1e4c c7bd d35a 2dbe 3459 fcbd 4308 0c3e
00000360: ade5 5bbc c68c 343e e466 1c3c 78d7 aebc
00000370: 4963 de3d 7f90 2ebe a9d9 e5bd ffb9 d43d
00000380: 826d 41bd ddb1 123e 0e73 87bc 123b 043e
00000390: e514 103c 780b 9a3c 129c 1cbe d827 80bd
000003a0: 84bf 143c c76f a93d 20e8 0f3d 4707 21bd
000003b0: ef3b a03a cc63 1f3e be5e f73d 3a12 7d3d
000003c0: 35a0 05be 1461 79bd 84c1 ec3d 7ee8 263e
000003d0: ed4f afbd c091 9d3d 12ab 2dbd 4e3e eb3d
000003e0: 6fe2 debc b363 13be e588 37be c54e debb
000003f0: dca5 5a3d d39a dabd a1e1 113e d5e5 af3d
0.15199393 0.031713743 -0.035241913 0.15550084 -0.11064566 -0.18362151 -0.10058263 0.11743562
0.18697529 -0.064245045 -0.1345958 -0.20769107 0.092027806 -0.045909252 0.15643479 -0.07601079
0.17054763 0.11091068 0.110550344 0.07599496 -0.12532473 0.01177044 -0.112090714 -0.062997095
0.12403217 -0.08734939 0.11294134 0.010068439 -0.10352547 -0.093289904 -0.18565087 0.07610263
0.008645708 0.16404177 0.08112327 0.062784895 -0.04991964 0.07917379 -0.008180359 0.10422061
-0.06697098 0.13793251 0.032124754 0.11574968 0.003334789 0.08725422 0.17979321 -0.0066633094
0.14245793 -0.15381926 -0.03857963 -0.166157 0.021193488 0.0076666023 0.045519866 -0.07707494
0.129134 -0.06741966 -0.043428823 0.12773459 -0.16663887 0.04233686 -0.15843925 0.051625904
-0.13827425 -0.166627 -0.06763584 0.13428211 0.08108086 0.11462083 -0.05231205 0.13293079
-0.07558693 0.003261977 -0.15728731 -0.022886628 0.03718341 -0.15229812 0.17889576 0.025451638
0.17147832 -0.09185302 0.030655248 -0.08421311 0.15566595 -0.10009222 0.10363114 -0.12578595
0.12467973 -0.16306186 -0.052907854 -0.06156349 -0.052600134 0.00012817173 0.04917395 0.16549319
0.11004453 -0.05564886 0.18652476 -0.029976154 -0.13095178 0.06493729 -0.016782543 0.18803926
0.014527938 0.12010944 0.0259773 -0.100231126 0.05722183 -0.09681026 -0.02438165 -0.08021648
-0.11635137 0.06352041 0.106572896 -0.17839967 0.12006951 -0.1392677 -0.17136738 0.062444996
0.035339642 -0.11534634 0.1482456 0.025211763 -0.11638365 0.082950026 0.01754358 -0.04619638
-0.12890333 0.010830116 0.12691796 -0.08725377 0.10173662 -0.17794655 -0.063724324 -0.072634935
-0.1459078 0.06471544 -0.1454438 0.08189461 0.048808955 -0.025035556 -0.09653155 -0.044452395
0.04395874 0.17840871 -0.09290702 -0.123201236 -0.06291393 -0.13006833 -0.023837624 -0.12906343
0.13128914 0.11180802 -0.12953351 0.15522659 0.027717095 -0.09438706 0.060143 -0.16548236
-0.112474635 -0.1368314 -0.11867402 -0.039194323 0.05906946 0.03455264 -0.15904315 -0.17331627
-0.027470361 0.12603453 0.06707768 0.18091203 -0.08579328 0.08009275 -0.15763816 0.098653734
-0.0045858957 0.002130785 -0.11231239 -0.15820898 -0.06666667 -0.01710965 -0.09615846 0.07568214
-0.056630716 0.006481155 -0.17110607 0.029884972 -0.08852662 -0.13682027 -0.06564175 -0.14524558
-0.13820976 0.13500267 0.14821279 -0.12577157 0.039268836 -0.09326673 0.16943894 0.110543706
0.071995504 -0.14762886 -0.08906347 -0.038054053 -0.16188858 -0.10582171 0.047673047 -0.14740567
0.048177455 -0.004137965 -0.014911197 -0.05289151 -0.09731315 -0.16929178 -0.12321702 0.13675027
-0.013421458 0.17631826 0.009546015 -0.021342978 0.10858781 -0.17047308 -0.11223156 0.103870384
-0.047223575 0.14325662 -0.016534355 0.12913159 0.008794044 0.018804297 -0.15293911 -0.062575996
0.009078864 0.08273273 0.03513348 -0.03931358 0.0012224893 0.15565413 0.120786175 0.06178496
-0.13049395 -0.060883597 0.11560348 0.16299626 -0.085601665 0.07693815 -0.042399473 0.11486493
-0.027207581 -0.14393501 -0.17923315 -0.0067842924 0.053380832 -0.106740616 0.14246227 0.08588759

encoder.feature_encoder.atom_embedding_list.1.weight f4 [5, 64]
00000000: 8525 06be bc44 7fbd 0534 bb3d e58c 303e
00000010: 916b ed3d 1e40 7a3e 45e1 013e 0e62 073e
00000020: 8cd1 d23c 9eff 823e 1c96 6b3e 7bd8 123e
00000030: 733a 84be 73f5 cebc d01a b2bd 809c dbbc
00000040: abee 523e 31fc 42be 195f 24be 9616 0bbe
00000050: 9056 f73b 260a 2abe 5fa8 833d 59c7 7fbe
00000060: a1d1 08be 23b0 2e3e dce7 3c3e 835b 9fbd
00000070: 8e2a b0bc 8807 a73b 36cc 2ebe c851 59bd
00000080: 0346 093e f85d a1bc 3ec6 6b3e 8df3 6ebe
00000090: 4ef0 79be 533d 86be 864f 34be 247a bd3d
000000a0: 9ad2 563e c7b6 7dbe 8820 63be 2888 afbd
000000b0: 86bf 3c3e deaf ff3d b654 d4bc 1365 6b3e
000000c0: 63a1 9c3d 507c 683e 8650 cfbc dba0 3cbe
000000d0: 5014 763c 4a7b ea3d 6edf 173e 2120 353c
000000e0: ccef b3bc 90ea 623d 642c 38bd 221e 313d
000000f0: 9a60 38be dcae 7abd 28b0 243e 9f08 d53d
00000100: 5d30 373e c08b 42be 9963 d0bd fbd6 1ebe
00000110: 3b92 65be 8082 cebd 88f6 f2bc f785 05bd
00000120: 9e1e 27bc 4b7e 2ebe 2945 e4bc 1e81 403d
00000130: 921e 5d3e c429 4f3e 6ef7 67be 74d7 46be
00000140: 184f 6d3e 2750 383e f858 2c3e f2fb 31be
00000150: 8b0c 813e bb19 98be 3e54 7cbe 7259 813c
00000160: 2c39 053e cccc 84be cca9 873d 2fd2 c03a
00000170: df8f 83bd 92c7 6dbe cd4e 1abe 240d aa3c
00000180: c013 903d d835 533e 88a7 b8bd f707 913e
00000190: f786 973d b52d 4ebe 595c 92be abac 5c3e
000001a0: ea34 a93c 257e 86bc a028 03be a99d 193e
000001b0: 4ebf acbd a63e 56be 61ec 663e 1be4 19be
000001c0: a913 413e 47c3 4cbe b216 94bd 2014 2abe
000001d0: cecc fe3c 3a81 47bd 9897 b13d 5137 6abe
000001e0: 81e7 5fbe 4533 6d3e de7c 6ebe 3892 cc3d
000001f0: be1f 83be 87ab 5e3d 7487 2ebc 0006 1ebe
00000200: f4f9 c6bb 6e4b 143d 4333 073c 7d71 643e
00000210: 46f6 2cbe 49bc 083e cd0d 8b3e c6e3 58be
00000220: e982 6cbe 781c cc3d d063 d6bd 9deb d9bb
00000230: a3d6 8cbe 7b72 383e b37d 9fbc 0c84 943c
00000240: e4ed d1bd afa5 d13d b475 9ebb d8af f0bd
00000250: 0905 963d e23c e0bd e420 e03d 1c9b 90be
00000260: 12ad e9bd 53e5 4ebe 2c78 003e a70a 54be
00000270: 42f6 693e 5d0c 933d a610 393e 5cf9 44be
00000280: 184b 75be a235 46bd 61ea 25be 208f ccbd
00000290: 8b36 783e 9264 213e 1a6f b2bd b55c 373e
000002a0: 2442 4abe 6477 2fbe 4ac0 053e 925d 023e
000002b0: 1d9e aebd dd0f 4ebe 85c9 3c3d f8a5 913e
000002c0: a398 943e 92ba 773e 2c71 62be 5f2a 483e
000002d0: 1e31 5d3d 2d17 75be 9426 9b3c 19ce 91be
000002e0: bda5 813d 430a 26be 912b 4bbe 6a16 6b3c
000002f0: e6a9 4b3e 9e7c 293e 73dd 3abe 9bc1 2b3e
00000300: 55b4 e03d 5394 49be b4c5 9bbd ebb8 90bd
00000310: ba6d 75be 58c4 89be 0d0d 4dbe 0541 893e
00000320: c976 a0bd 6ae2 e73c 0abf 7abe d9c2 4fbd
00000330: a92a e43d e8cf c3bb d4d5 bdbc 08b6 80bb
00000340: 9408 4b3e 92b8 54be 8f95 87be af6c 91be
00000350: d390 f53d 8134 28be 5f11 04be f7c1 1fbd
00000360: 0906 313e cbf6 273b ed6b 6c3d 84a3 a9bd
00000370: a356 243e 33a4 16be 66c2 683e 358e 783e
00000380: aad0 87be 9b39 bfbd cc8b 11bd 4099 22be
00000390: 09b5 813c eb37 c6bd aafc 793e 391d bfbc
000003a0: 33cb 28be 51f1 15be c01a 8dbe 1c96 39be
000003b0: 3d81 6a3d cd6c b63d ea24 02be afa0 443b
000003c0: a282 173e 46a8 1f3d 5712 083d 1617 46be
000003d0: 9cf2 8d3e f14a b2bd 5148 c73c e0be 14bd
000003e0: 872f 033e 071d 7abe 1c70 893d 3962 6abe
000003f0: 8457 6e3e 4d0c eebd 1d92 763d 05dd 9f3c
-0.1310025 -0.06232141 0.09140781 0.17241247 0.11592782 0.24438521 0.1268359 0.13220999
0.025734685 0.25585645 0.23006481 0.14340393 -0.25825843 -0.025263524 -0.0869652 -0.026808023
0.20598857 -0.19041516 -0.16051902 -0.13582835 0.007548161 -0.16605434 0.064285986 -0.24978389
-0.13361217 0.17059378 0.18447822 -0.07781126 -0.021504667 0.0050973333 -0.17070088 -0.05305651
0.13405614 -0.019698128 0.23024842 -0.23335095 -0.24408075 -0.26218662 -0.17608461 0.09251812
0.20978776 -0.24776755 -0.22180378 -0.085708916 0.18432435 0.12484716 -0.0259193 0.22987776
0.076479696 0.22703671 -0.025306951 -0.18420736 0.015019491 0.11449297 0.14831325 0.011055023
-0.02196493 0.055399477 -0.04496421 0.043241628 -0.180056 -0.061201915 0.16082823 0.10402035
0.17889543 -0.18998623 -0.10175247 -0.15511696 -0.22419064 -0.10083485 -0.02965857 -0.032598462
-0.010200171 -0.17040364 -0.02786501 0.046998136 0.21593693 0.20230776 -0.2265298 -0.19418126
0.23174703 0.17999326 0.16830814 -0.17381266 0.25204882 -0.2970713 -0.24641511 0.015789721
0.1301009 -0.25937498 0.06624183 0.0014711077 -0.064239256 -0.23220661 -0.15069123 0.020758219
0.07035017 0.20626009 -0.09016329 0.2832639 0.073987894 -0.20134623 -0.2858608 0.21550243
0.020655114 -0.016417572 -0.12808466 0.15001549 -0.08434926 -0.20922336 0.22551109 -0.15028422
0.18855156 -0.19996367 -0.07230891 -0.1660924 0.031103518 -0.048707224 0.08671492 -0.22872664
-0.21865655 0.23164089 -0.2328982 0.099888265 -0.25610155 0.0543628 -0.010652412 -0.15431976
-0.006072277 0.036204748 0.008251968 0.22308917 -0.16890821 0.13353075 0.27158967 -0.21180639
-0.23096813 0.099663675 -0.104682565 -0.0066504017 -0.27507505 0.18012421 -0.019469118 0.018129371
-0.10250452 0.1023668 -0.0048358086 -0.117522895 0.07325179 -0.109491125 0.109437734 -0.2824334
-0.11409964 -0.20204668 0.12545842 -0.20707189 0.22847846 0.071800925 0.18072757 -0.19235748
-0.23954427 -0.048390992 -0.1620269 -0.099882364 0.24239556 0.15761021 -0.08712597 0.17906459
-0.19751793 -0.17135388 0.13061634 0.12731007 -0.085262515 -0.20123239 0.04609062 0.28446937
0.29022703 0.24192265 -0.22113484 0.19547413 0.05400192 -0.23934622 0.018939294 -0.28477553
0.0633044 -0.16214852 -0.19840838 0.014348606 0.1988903 0.16551444 -0.18248539 0.16773073
0.109718956 -0.19685487 -0.07606068 -0.0706652 -0.23967639 -0.2690761 -0.2002451 0.26807418
-0.078351565 0.028306205 -0.24486938 -0.05072293 0.11140949 -0.005975712 -0.02317325 -0.00392795
0.19827491 -0.20773533 -0.26481292 -0.28403232 0.11990514 -0.16426279 -0.12897252 -0.03900334
0.17287458 0.0025629278 0.057720114 -0.08283141 0.16048674 -0.14711075 0.22730407 0.24272998
-0.26526386 -0.09337159 -0.03553371 -0.15878773 0.015833395 -0.09678634 0.2441279 -0.023329364
-0.16483764 -0.14642836 -0.2755947 -0.18123668 0.057252157 0.08907471 -0.12709394 0.0030003001
0.14795926 0.038978837 0.033220615 -0.19344744 0.2772416 -0.087057 0.024326475 -0.036314845
0.12811099 -0.24425136 0.06710836 -0.22889031 0.23275572 -0.1162344 0.06019794 0.01951457

encoder.feature_encoder.atom_embedding_list.2.weight f4 [12, 64]
00000000: 0453 a83c 0c61 0ebe 683b 2dbe 8d2e f7bd
00000010: 8b38 1e3e 541a 52be 7b50 823e 0c04 4ebe
00000020: 8fa3 aa3d d559 953e aa64 e0bd 44ce 5fbe
00000030: 52f7 11be de1e bfbd 0c21 20be bc2e 8bbe
00000040: 2b6b 1fbe 1ba8 ecbd 7c9b 823e 88a9 adbd
00000050: 8c49 353d 311b d0bd 0537 543d 8203 f43d
00000060: 2c50 533d 06ad fbbc f7fd 183d 92c1 8a3e
00000070: 85b6 51be 49e8 833e acd9 8dbd dd87 4f3e
00000080: 3664 5b3e cc20 063d ef84 0b3d 0908 483e
00000090: 00a8 a0bd a1bc 9a3d 4e42 923e eb13 13bd
000000a0: 2d7d b7bd 5eda 723e 7966 723e e695 923e
000000b0: 2d03 84be aae7 433e 4c07 263e 3891 52be
000000c0: 774a 4c3e a1d6 17be 0b00 003e 7c20 653c
000000d0: a84d da3d 54bb 47be 1e57 50bd ca69 1cbe
000000e0: f4fe 463e 5d31 5dbe e69d ff3c d458 fb3d
000000f0: 3c39 0abc 2050 a3bd b618 883d 9b05 b4bb
00000100: 64cb 1ebe 0d61 8fbd 4844 8ebd 81ea 3bbe
00000110: 426f a5b9 4ca8 ecbd ec64 25be d4de 6dbe
00000120: ae2e 23be 187a 48bd 2246 5c3e 39d5 97bd
00000130: 20d2 06be 6863 40be b80b c83d 6124 6e3e
00000140: 8036 73be c9d7 6c3e 6149 893e fdda 573d
00000150: 762b 093e f004 a13d ab1d 83be c117 f0bd
00000160: cffb a8bd 05ab 34be 70eb 58bc f460 743d
00000170: 03b6 90bc ee1a 2b3e 180e 2cbe 0821 7d3e
00000180: c372 21be 0c94 713e 85fe 8c3e abf5 5cbe
00000190: 3e4a 99be 129b 533e 4e6b 813e 4ef7 2cbb
000001a0: 5858 723d 7798 3c3d d862 cdbd a28e 2a3e
000001b0: a1d4 d03d 44ab 8dbe 1166 73bd e7fd 44be
000001c0: ed00 093e 6fd7 86be 8f60 86be 172c 87be
000001d0: 1d72 acbd eeb4 6abe 835d 56bd f5ba 23be
000001e0: 87ff 593e ffba 733e 661a ea3d 6eb2 b2bd
000001f0: 6b29 053e bfed 88be afe8 04be 1ee4 b8bd
00000200: 4231 90be 0ec1 873e c1a3 403e b17b 0d3e
00000210: 2a51 d13d 2de8 8f3e 49ca f5bd afc1 b43d
00000220: 940c 01be 9184 c1bc e405 4abe a835 2e3e
00000230: 2cd9 72be 51a0 ddbd b0b7 933e d8a9 17be
00000240: 6745 a23c b6a1 93be 002b 23be 16fc 673e
00000250: 6527 163e de0e 433c 6c81 0bbe 33ea 633e
00000260: 863f 8d3e 26e3 ac3d 4282 28be de5d 903c
00000270: db36 2b3e a965 713d 02aa 713e 015c 5d3e
00000280: 5a0f 183e 1865 5abe 1af1 aebc 2646 933d
00000290: fa82 cabd 67e7 a23d 7087 1e3e 4ec8 29be
000002a0: a59e 8dbd 70db 5abe 5969 0f3d adf7 283e
000002b0: 948e 843e 29d7 503d 046b 143e df6e 9bbe
000002c0: 1578 e2bb a1ca c9bd 41fb e3bd a58d 7a3e
000002d0: 333a 343e 7029 5abe 71d2 90be cbd8 12be
000002e0: 557a ac3d 3c0f 0f3e 469b 063e 16fd 303e
000002f0: e562 49be 920f 033d 0b4e 48be 570f b6bd
00000300: 8c67 8abc f5bf f9bc 34f8 5ebe 4938 e7bc
00000310: c73f 0a3e e273 7c3e be24 12bd 528c 2d3e
00000320: 8db3 babd 903d 64be 2f97 623e 3e25 98bd
00000330: 9c7f 3cbd 1e08 85bd a459 623e 3be5 cfbd
00000340: b302 9dbd 2f20 eb3c 7502 49be 9c29 db3d
00000350: 70cd 813e 2eff d23d b274 82bd 374a 88bd
00000360: 8538 8cbe c1f9 6ebe 59c4 c4bd b16d 283e
00000370: e159 703e e1ac 5c3c 365d bfbb 9db0 7f3e
00000380: 1c9c 97bd 65c6 52be d33c 0a3e ae22 0cbe
00000390: 624e 55be 60cf babb 4d45 37be 59da 55be
000003a0: 6f60 16be fc4a edbc bf1d c63d f46c eebd
000003b0: bc02 73be c398 e7bd f45e 903e f06d 9bbd
000003c0: ceee 73be 392f d8bd 18c5 773e 02ca 513d
000003d0: 96ab 14bd 005d 983e 7763 813d 8d35 673d
000003e0: 1f54 813e f0e8 c1bc b072 12bd ec4a 5b3e
000003f0: 6fc2 b33d b9af 46be 7eb2 653e f3cc e6bd
0.020547397 -0.13904208 -0.16917193 -0.12069426 0.15451257 -0.20517856 0.25452027 -0.20118731
0.083319776 0.291701 -0.109567 -0.21856028 -0.14254501 -0.09332059 -0.15637606 -0.27184093
-0.15568225 -0.11555501 0.2550925 -0.08479601 0.044259593 -0.10161436 0.051810283 0.119147316
0.05159013 -0.030722152 0.037351575 0.27100807 -0.20479782 0.25763157 -0.06926283 0.20266671
0.21424946 0.03274612 0.034062322 0.19534315 -0.078445435 0.07555509 0.2856621 -0.035907667
-0.08959422 0.23716113 0.23671903 0.28629988 -0.25783673 0.19131342 0.16213721 -0.20563209
0.19950281 -0.14827968 0.12500016 0.013984796 0.10659343 -0.19505054 -0.05086433 -0.1527473
0.19433194 -0.21600862 0.031203222 0.12272802 -0.008436497 -0.07974267 0.06645338 -0.0054938323
-0.15507275 -0.07000933 -0.06946617 -0.18351175 -0.00031554146 -0.115555376 -0.1615178 -0.23229533
-0.15935776 -0.048944563 0.21511129 -0.07413716 -0.13166094 -0.1878792 0.0976786 0.23256065
-0.23751259 0.2312919 0.26813796 0.052699078 0.13395485 0.0786227 -0.25608572 -0.11723281
-0.08251154 -0.17643364 -0.013239726 0.059662774 -0.017664915 0.16709492 -0.16802251 0.24719632
-0.15766434 0.23591632 0.27537933 -0.2157809 -0.29939455 0.20664623 0.2527718 -0.0026392522
0.059166282 0.04604384 -0.100286186 0.16655973 0.10196806 -0.27669728 -0.05942351 -0.19237481
0.1337926 -0.26336238 -0.26245543 -0.26400825 -0.08420203 -0.22920582 -0.052335273 -0.15989287
0.21288882 0.23801802 0.11430816 -0.08725439 0.13004081 -0.26743886 -0.12979387 -0.09027885
-0.2816258 0.26514477 0.18812467 0.13816716 0.10220559 0.28106824 -0.120014735 0.08826005
-0.12602454 -0.023622783 -0.1972881 0.17012656 -0.23715657 -0.108215936 0.2885108 -0.14810884
0.019808484 -0.28834313 -0.15934372 0.22654757 0.14663465 0.0119054 -0.1362359 0.22257309
0.27587527 0.084417626 -0.1645594 0.017622884 0.16720144 0.05893484 0.23600009 0.21617128
0.14849606 -0.21327627 -0.0213552 0.07191114 -0.09888263 0.07954293 0.15481353 -0.16580316
-0.06915025 -0.21372771 0.035012577 0.16500731 0.25890028 0.050986443 0.14493948 -0.30358025
-0.0069112875 -0.098531015 -0.11131907 0.24468096 0.17600326 -0.2130487 -0.28285554 -0.14340512
0.084217705 0.13970655 0.1314517 0.17284045 -0.19666632 0.03199727 -0.19561021 -0.088896446
-0.016895078 -0.03048704 -0.2177437 -0.028225081 0.13500892 0.24653581 -0.03567957 0.16948059
-0.09116278 -0.22289109 0.22127984 -0.074289784 -0.046020135 -0.06495689 0.22104508 -0.10151144
-0.076665305 0.02870187 -0.19629844 0.10701296 0.2535205 0.10302578 -0.06369914 -0.0665478
-0.2738687 -0.23337461 -0.09607763 0.16448094 0.23471786 0.013468952 -0.005839969 0.24969716
-0.074028224 -0.20583494 0.13499765 -0.13685104 -0.20830682 -0.0057009906 -0.1789753 -0.20884074
-0.14685224 -0.02896642 0.09673642 -0.11641875 -0.23731512 -0.11308434 0.28197443 -0.07589328
-0.23821566 -0.10555882 0.24196279 0.05121804 -0.03629645 0.29758453 0.063177995 0.056447554
0.25259492 -0.023670644 -0.035753906 0.21415299 0.0877732 -0.1940297 0.2243137 -0.1126956

encoder.feature_encoder.atom_embedding_list.3.weight f4 [12, 64]
00000000: 08e6 4f3e 347c 2c3d d52a bc3d f181 853e
00000010: f268 4e3e 2d9a 5e3e d2a7 2dbe 7d16 69be
00000020: 476e 663e 78d2 8a3e cad5 083e 114e 8b3d
00000030: 0321 6dbd 44a2 f53d b078 f6bd 8a1c 20bd
00000040: a7f1 853e df2f 41be 703a 65be 48f9 36bd
00000050: 1efe 223e 69cb 85be 491f 3a3e b54c 243b
00000060: ce73 163d 21d7 343e 2705 1d3e 95c0 84bb
00000070: 3f35 8ebe 2196 6f3e a11b d4bd 5fb3 15be
00000080: 1fa1 ac3d 5973 503e eb9d 5b3d e2b9 20be
00000090: 9072 99be de46 f43d a336 d43d abe8 423e
000000a0: 0cf8 923e 08d3 0ebe 1a9e 8c3d ee61 983e
000000b0: 65e2 1cbc 2008 ecbd ecd9 4dbe cedd d1bc
000000c0: 3806 03be eb05 3cbe de59 95be 0e45 d63d
000000d0: fdbd d3bc 71bf bf3d e30f 193e 84f7 8ebe
000000e0: 8ad8 97bd 5c0b 803e 36d1 57bd 855b 463e
000000f0: 27bf 78be b624 813e fd4e ec3d ec9d 5abe
00000100: de2f 883d d363 2d3e ecb1 ed3d ede3 133d
00000110: 6ecf ffbd d9b6 d8bd cc7b 5bbe 464b 7d3e
00000120: a4f5 9e3d 8ecb 9f3d cfd5 1abe 4f8a 80be
00000130: fe84 a8bc 58ea 353e 2711 753e 3be6 f6bc
00000140: ea65 e93d c8f4 7abd 1a27 9abd 1050 833e
00000150: f3f6 8c3d ed9b 883e 7f09 94be 0ee7 ae3c
00000160: 9198 cebd 4fb1 693e ee0a 203e f787 623d
00000170: ff34 113e 6584 28be f06b 98bd c4a8 1b3e
00000180: bb9b 1fbe f8f0 b73d ba1f c93d 6fa8 6abe
00000190: d750 4dbe 0bc6 5bbe 641e 67be 40a8 9dbd
000001a0: 02c3 b23d 9c0d e23d 3b35 0e3e 88ec 4c3d
000001b0: 514d 26be ce24 82be 86f0 873e e01c 0a3d
000001c0: de0f 7e3e 0018 89be 379e 3cbe 5c90 2fbc
000001d0: 5121 7f3e 36e5 7dbe 15cb 1dbe 7346 5abe
000001e0: 6e81 3d3e e710 cb3c 3126 f0bd 4f90 333e
000001f0: 5d9e 4dbe d5aa 8bbc d662 05be 755c b3bd
00000200: df14 22bb 7afc 9bbb 027d 8a3e ccc7 78be
00000210: 1674 cbbd a955 afbc d297 fdbd 68ca 903e
00000220: 70dd 113e 0a65 633e 4835 5a3e 3289 a5bc
00000230: dfde 473e e16b 88bc 73a7 4b3e bfb7 423d
00000240: 71b3 cb3d d550 bb3d 5e6e dabd 0b01 693e
00000250: 2603 6c3e a511 8bbd c056 aabd d04a 7fbe
00000260: d1bb 123e 365c 50be 5808 83be 32c2 6c3e
00000270: 50c2 9e3d b566 7d3e ecaf 70be a013 22be
00000280: 3b3e 80bd c0de 313e 366e 5abe f3a7 72be
00000290: 3d28 adbd de44 15be 70ea 833e 89f9 1b3e
000002a0: bb34 42be 6f91 f1bd ea85 d3bc 9d0f 34be
000002b0: 4c34 5ebe f552 803e b64a 2bbe 79f4 363e
000002c0: c66f 97bd 9205 6bbe f949 07be 45d5 03be
000002d0: fb69 43be b0ac 31be 090f 8638 a07f 17be
000002e0: a94d 5b3e b977 87be d7d4 16bd beda 263e
000002f0: 84e6 3dbe f029 96bd 51d3 6ebe 94ec 88be
00000300: 92dc 053e 3719 9d3d 0ed6 6f3c a7c1 623e
00000310: 9512 87bb b441 72be 5a53 8dbe c364 5f3d
00000320: 6393 26be 232e 883e 19fe 28bd bcb1 793e
00000330: 091d 26bd 1268 02be 2483 8ebe bb47 893e
00000340: e14e 80be 5e3b 423e 316d dfbd 1789 6fbe
00000350: 46df bdbd 5c4c 0b3e fc91 5b3e 06d5 72be
00000360: ab89 56be 5982 cb3d b31d 0c3e 4ac5 38be
00000370: ca3d ff3d c8ae 28bd 8c0d 7bbe 79d0 223e
00000380: c852 72be 7255 82bc 2940 82bd d4bb e7bd
00000390: 391a 26bd f467 80be d5b0 7e3e ec33 57be
000003a0: 9f1d 373e 637a 0a3b 57f6 99bc 7692 a7bc
000003b0: 05cc ecbd d411 83bd 817a 4b3e eb25 07be
000003c0: 1f5e 023e 5c0b 6bbe 04d4 06be 593d 5a3e
000003d0: a510 de3d ed92 83be 9e52 43be a036 3a3e
000003e0: 3c5d 2dbd 6f94 6d3e fde2 8dbe 2b18 433d
000003f0: 3046 8ebe d22d 043e ade4 b3bd ff9d 4cbc
0.20302594 0.042110637 0.09187857 0.260757 0.20157221 0.21738501 -0.1695855 -0.22762485
0.22503005 0.271137 0.13362804 0.06801999 -0.05789281 0.1199384 -0.12034738 -0.039089717
0.2616093 -0.18865918 -0.22385573 -0.044671327 0.1591725 -0.26131752 0.18175997 0.0025070135
0.036731534 0.1766019 0.15333997 -0.004051278 -0.27775 0.23397113 -0.10356832 -0.14619206
0.08429169 0.20356502 0.0536174 -0.15695909 -0.29970217 0.11927579 0.103619836 0.19034068
0.2870487 -0.1394769 0.06866093 0.29762214 -0.009575461 -0.11524987 -0.20102662 -0.02561846
-0.12795341 -0.18361633 -0.29170126 0.1046239 -0.02584743 0.093626864 0.14947467 -0.27923214
-0.074143484 0.25008667 -0.052689753 0.1937085 -0.24291669 0.2522332 0.11538503 -0.21349305
0.06649755 0.16932611 0.116062015 0.03610604 -0.12490736 -0.105817504 -0.21433944 0.24735746
0.07761696 0.07802497 -0.15120624 -0.2510552 -0.020571228 0.17765176 0.23932324 -0.03013908
0.11396392 -0.061268598 -0.07526989 0.2564702 0.06883039 0.26681462 -0.28913495 0.02135041
-0.100876935 0.22821544 0.1562917 0.055305447 0.14180373 -0.16456755 -0.074424624 0.15201098
-0.1558675 0.08981508 0.098205045 -0.22915815 -0.20050369 -0.21462266 -0.22570187 -0.07698107
0.08728601 0.11037752 0.13887493 0.05003026 -0.16240431 -0.25418705 0.26550692 0.033718944
0.2481074 -0.26776123 -0.18419729 -0.01071557 0.24915053 -0.24794468 -0.15409501 -0.21315937
0.18506405 0.024788333 -0.117260344 0.17535518 -0.20079942 -0.017049232 -0.13025984 -0.08757869
-0.0024731678 -0.004760322 0.27048498 -0.24294966 -0.09934251 -0.02140315 -0.12382473 0.28279424
0.14244628 0.22206512 0.21309388 -0.020207021 0.19518612 -0.016653003 0.19888096 0.047538515
0.09946335 0.09146277 -0.10665582 0.22754304 0.23048076 -0.06790475 -0.083173275 -0.24930882
0.14329459 -0.20347676 -0.25592303 0.23120955 0.07751906 0.24746211 -0.23504609 -0.15827799
-0.062618695 0.17370129 -0.21331105 -0.2369688 -0.084549405 -0.14577052 0.257648 0.15231909
-0.18965428 -0.117953174 -0.025820691 -0.17584081 -0.21699637 0.2506329 -0.16727719 0.17866696
-0.07394366 -0.22951344 -0.13211812 -0.12874325 -0.19083397 -0.17351031 6.3924184e-05 -0.14794779
0.21416344 -0.2645853 -0.036824074 0.16294381 -0.18544966 -0.07332218 -0.23322798 -0.26742995
0.13072422 0.07670825 0.014638437 0.22144185 -0.004122088 -0.23657876 -0.27602655 0.054539453
-0.16267161 0.265977 -0.04125795 0.24384207 -0.040555034 -0.12735012 -0.27834427 0.26812539
-0.2506018 0.1896796 -0.109094985 -0.2339214 -0.09271102 0.13603348 0.21442407 -0.23714074
-0.20950954 0.09936971 0.13683204 -0.1804401 0.12462957 -0.04118231 -0.24516886 0.15899839
-0.23664391 -0.015909884 -0.06359894 -0.11315122 -0.04055235 -0.2507931 0.24872144 -0.210159
0.17882393 0.0021130077 -0.018794222 -0.02045558 -0.11562351 -0.06399885 0.1987095 -0.13198058
0.12731217 -0.22953552 -0.13166815 0.21312465 0.108430184 -0.25698033 -0.19074485 0.181849
-0.042325243 0.23201154 -0.2771224 0.04763047 -0.27787924 0.12908104 -0.08783851 -0.012488841

encoder.feature_encoder.atom_embedding_list.4.weight f4 [10, 64]
00000000: 7447 2e3e 980a 193e 63ce 033e 3755 683e
00000010: 27fd 243d 86f6 09be c9c9 1d3e 1996 39bd
00000020: 9739 893e bd9c 59be 3814 2ebe ba7c 323e
00000030: c838 56be 7346 2b3e 4ab0 2bbe a2ec df3d
00000040: 81b1 773e a86a f83d ed9e 26be c458 ff3d
00000050: 2905 67bb 0772 43bd 19e9 87be d8fe 45be
00000060: 2b75 edbd a11b 613e e3f7 65be 5b3b 88be
00000070: aa5f 75be df6b ba3d 3f1b 8abe bf68 96be
00000080: 972c 04bc c700 89be 1d96 913d 4d3b 94bc
00000090: 00fb 803e 05e7 dabd 6ca7 85be 6965 ffbd
000000a0: 5424 f03b c4f9 d5bd f0ab 933e da8b 50be
000000b0: cb43 83be f8be f73d e3d7 92bd 039e 143e
000000c0: 722c 093d 17c2 923d d1ac 373e 0b2c 4cbd
000000d0: 6ec4 bdbd 9195 83bd 0b78 85bd 04e3 63be
000000e0: bbeb 783e 7739 003e 3486 adbd da68 4c3e
000000f0: 7e97 e63d 09e9 e83d 5659 243e 91e4 783d
00000100: a9c5 5fbc 7f5a 593e cbbf c23d 5e71 3b3e
00000110: 180b 2c3e b995 48be 6505 44bd 5ef5 683e
00000120: 6b4d 91bd 6dee e5bd 4b28 10be b571 88be
00000130: 50d2 373e 8a0b 353e b9f0 1abe cdd0 91be
00000140: 0dab 7b3d 455a 06bc 4dea 443e 7cda 593c
00000150: 7f20 fcbc 5c9a 2a3e 1ce6 353e b690 0f3e
00000160: 65ea 693e e506 8dbe bdd1 eb3d dda7 313e
00000170: b37d 3f3e ea3f aebd 8519 f33d 1661 71be
00000180: f0ce 643e d7a5 d83b 4755 303e e8df b33d
00000190: 14ab 27be 9615 163e 1497 4e3e e65e 16be
000001a0: 72ef b43c 7c20 16be 5c3f 68be be93 003e
000001b0: 8cb2 73be afae fa3d f1bf 3dbe bb0f bdbc
000001c0: 67e7 fbbd 100c 073e 6ece 903e c973 56be
000001d0: d2a3 9bbd f878 8ebd 1e9a 81be 5e45 8abe
000001e0: 5969 1bbe a725 4abd 820f 803e a8b7 b23d
000001f0: 3468 8a3e 3450 82be 0474 1ebe 82ce 463d
00000200: 7c92 68be 367a d93d c703 d5bc 021f 9bbe
00000210: bd2c 91be 5ceb a33c 483d ba3d 24e1 fbbc
00000220: f5a3 a5bd 2036 563e c4f2 5e3d a349 f7bd
00000230: daaa 703e c4d5 9ebd 5e78 efbd 2bf4 29bd
00000240: 5872 67bd 0ddf 61bc 49fa f8bd 5c14 2d3e
00000250: 6117 08bb 9329 1f3e 1adf 213d 60cc 5f3e
00000260: 7d4d 5bbe 556a 213e 7f06 063e f001 fa3d
00000270: 0df9 37be 6b4a cb3c 6578 30be 39a0 87bd
00000280: 5a89 62bd b199 5ebd dab6 9c3d 6834 8b3e
00000290: d88c babd daca 833e 5349 0e3e 3720 82be
000002a0: b591 703e 4e7d 68be f696 dabd 23de dabd
000002b0: 9fda 33bc 2ffa abbe 3b52 8dbe 4c06 82be
000002c0: 1f25 fbbd 4b02 05bd 0aff 273e d994 87be
000002d0: 16a6 013d 909e 6a3e 764a 003e bda8 393d
000002e0: 1d84 8abe 0c52 333e 0bcc 78bd bb04 b83d
000002f0: eebc 30be c3dc 503c f0bd 3f3e cdf7 65be
00000300: 855a 5ebe 4563 0dbd 555f 353e 21fb 4ebe
00000310: 6913 183d 255b 05be 2d7a 143d ad91 423d
00000320: 23a5 373e 63eb 15be b611 7bbe dc3c 8b3c
00000330: ee45 193e e0fc 04be 1370 9d3d 01e3 84be
00000340: 2bbf 033e e65e 1b3e 470a 88be d973 8fbd
00000350: 0036 c03d f599 033e 8803 be3d 5b7b 52be
00000360: 1a00 7e3e 76a8 8ebe 5eb1 debc 143e 1bbe
00000370: d91d 7dbe e176 e4bd 7e82 943e 9d0e 7cbe
00000380: bd31 2f3e 02ed 803e 1845 30be bbf6 b93d
00000390: 4f1b e8bd cd2a 89be 2258 85be 08fa 49bd
000003a0: d115 52be ef37 29bd 63d0 233e 06a0 0d3e
000003b0: 7622 90be 8d0a ca3d 56b5 b238 defb ff3d
000003c0: e381 3a3e 9933 6ebe 1bad 29be 4ee1 1a3e
000003d0: 3585 413d 7fce 8dbd 9a09 13be c93f 083d
000003e0: 727f b7bd ae25 8a3d d866 03be 57de 883e
000003f0: fd5b 123d ff01 80bd bf7d 72be edae 993e
0.17019445 0.14945447 0.12871699 0.22688757 0.040280487 -0.13472947 0.15409006 -0.04530916
0.2680175 -0.21251197 -0.169999 0.17430392 -0.20920098 0.16726093 -0.16766468 0.10933806
0.24188806 0.12129718 -0.16271563 0.124681026 -0.0035250878 -0.047716167 -0.26545027 -0.19335496
-0.11594614 0.21983196 -0.22457843 -0.26607785 -0.23962274 0.09102606 -0.26973912 -0.2937679
-0.008067272 -0.26758406 0.0710871 -0.018094683 0.25191498 -0.10688595 -0.26104295 -0.12470514
0.0073285494 -0.1044803 0.28842115 -0.20365849 -0.2563766 0.12096971 -0.071700834 0.14513402
0.033489652 0.07165926 0.17937018 -0.04984669 -0.092659816 -0.06425012 -0.06517037 -0.22254568
0.24308674 0.12521921 -0.08472863 0.19961873 0.112593636 0.11372573 0.16049704 0.060764853
-0.013657966 0.21225928 0.09509238 0.18304965 0.16801107 -0.19588365 -0.047856707 0.2274985
-0.070948444 -0.11227117 -0.1407787 -0.26649252 0.17951322 0.17680183 -0.15130891 -0.28479615
0.061442424 -0.008200233 0.19230004 0.01329672 -0.030777214 0.16660446 0.17763561 0.14020047
0.2284332 -0.27544323 0.11514614 0.17349191 0.18700294 -0.085082844 0.11870102 -0.23572192
0.22344565 0.0066115665 0.1722003 0.08782941 -0.16373855 0.14656672 0.20174819 -0.14684638
0.022086833 -0.1466083 -0.2268042 0.12556359 -0.23798579 0.122403495 -0.18530251 -0.02307879
-0.12299996 0.13188195 0.28282493 -0.20942606 -0.075996056 -0.06956667 -0.25312895 -0.27006048
-0.15176906 -0.049352314 0.25011832 0.08726436 0.27032626 -0.25451815 -0.15473944 0.048536785
-0.2271213 0.10619013 -0.026002778 -0.30297095 -0.28354445 0.020009689 0.0909372 -0.030747004
-0.08087913 0.20919085 0.054430738 -0.12074592 0.23502675 -0.07755616 -0.1169288 -0.041492622
-0.05650553 -0.01378609 -0.12157113 0.16902298 -0.0020765888 0.15543203 0.039519407 0.21855307
-0.21416278 0.15763219 0.13088416 0.12207401 -0.17966099 0.024815759 -0.17233427 -0.06622357
-0.05530677 -0.05434579 0.07652064 0.2718842 -0.09108895 0.257407 0.13895158 -0.25415203
0.23493083 -0.2270405 -0.10673325 -0.106869005 -0.010977416 -0.33589312 -0.276018 -0.2539543
-0.1226294 -0.03247289 0.16405883 -0.2648075 0.031652533 0.2291205 0.12528405 0.045326937
-0.2705392 0.17511767 -0.060741466 0.08985277 -0.17259571 0.012747946 0.18724799 -0.2245781
-0.21714218 -0.0345185 0.17712148 -0.20212986 0.037127886 -0.1302305 0.03624933 0.04750221
0.17934088 -0.14640574 -0.24518475 0.016996793 0.14968082 -0.12987089 0.07687392 -0.2595444
0.12865894 0.1517292 -0.2657034 -0.07004518 0.093853 0.12851699 0.09278017 -0.20554869
0.24804726 -0.278629 -0.027184185 -0.151604 -0.24718417 -0.11155487 0.29005808 -0.2461495
0.17108817 0.25180823 -0.17213857 0.09080263 -0.11333334 -0.26790467 -0.26043802 -0.049310714
-0.20516135 -0.041313108 0.15997462 0.13830575 -0.28151292 0.09865294 8.521478e-05 0.12499212
0.1821361 -0.2326187 -0.16569941 0.1512501 0.047246177 -0.06924152 -0.14359131 0.033263955
-0.08959855 0.06745468 -0.128322 0.26732132 0.035732258 -0.06250381 -0.23680781 0.3001627

encoder.feature_encoder.atom_embedding_list.5.weight f4 [6, 64]
00000000: ee3d 46be 969a 8f3d 4e7d 47bd 2cbe 3b3e
00000010: 8b50 fdbc 1567 5f3e d1aa 7cbd 4cc4 78be
00000020: d3a2 dfbc 38ca 28be ec91 23be eae5 2e3e
00000030: fde4 863e 07fb 3cbe 18d7 90be a80a d53d
00000040: 86c3 7fbe 5825 a6bd 53e6 ef3d f1a1 b73d
00000050: 799c e63c 5404 fe3d 1511 25be 4158 c6bd
00000060: 49d7 a8bd 1ede 95be b46f 3dbe d734 533d
00000070: 7241 1f3d c437 ebbd 620b 763e dcf5 16be
00000080: 9fd3 c5bc b244 673e f855 113e f846 903e
00000090: e0fa 1e3d 53ea 59be b882 b3bd 9280 63bd
000000a0: 8353 4cbe 1a89 e0bd 31b3 8cbe aaa5 d2bd
000000b0: 1035 8fbe 6856 833e 6b9d 573d 683d 783e
000000c0: b3ab 0a3e a708 703e 22a8 e3bd 16f1 0dbe
000000d0: ee21 d9bd 9044 7cbe 4340 863c e82a 623d
000000e0: 5739 0a3e 6fc0 71bd cacf e53d 7f64 c23d
000000f0: 6706 8a3d 21e2 963d 12f2 e1bd 5d05 333e
00000100: 520e 8cbe 1b91 0f3d c341 033e c6b2 323e
00000110: 67f7 033e cbfb 45bd 4fa6 413e 5ecb 98be
00000120: a035 74bd c60d b9bd 0acb 2a3e a4b9 663e
00000130: 7a6d abbd 84a3 a13d a1ed d7bb 4551 9abd
00000140: 3862 e83d 6c38 513d 5945 0bbe 548f 083d
00000150: 0f7d 893e 1ff5 57be 3e04 4fbd 8f74 87be
00000160: 91ac 98bd f31a 8c3e 0c40 543e d6b1 86be
00000170: f2f6 95be 9e6a 823c b127 09bd bfdc 6b3e
00000180: 522e 99bd faec 6f3e 0bd1 20be d378 44bd
00000190: e704 c5bc 7e6d 1cbe dbcf 723c 7f38 29bd
000001a0: de08 0fbe c1f5 5ebe 4748 70bc cc4a 8d3e
000001b0: 5da0 f63d 9184 65be 5a79 0abe 34c3 2d3e
000001c0: dd76 adbd 9bf4 d7bc 32bd 24be 9cd3 063e
000001d0: a5f7 40be 3c3f 96be 616b 69be bb58 81be
000001e0: 9e63 913d 8a05 683d 7c6b c5bd 6bf3 f03d
000001f0: 22f9 e03c b921 983d ba4c 1a3e 6515 2a3d
00000200: b745 933e 265f 593e c249 2fbe a6dd 573e
00000210: 0578 09bd 07b2 fbbb 386a 313c 3029 83be
00000220: 70b7 473e 1103 533e ca1a 8d3e 26d9 5e3d
00000230: deaa a3bd 164d 42bd e126 babd bc0c 85be
00000240: 33ce cb3d 618c 153d 42f2 b8bd c6c9 2ebe
00000250: 6ec7 81bd 07ca a53d 449f 693e 9884 f43d
00000260: 5c01 623e da82 6d3e e3ac 1fbe aba8 c7bb
00000270: 6bf8 7bbe b735 2abe cc12 e83d e1cf de3d
00000280: eecc 0d3e 5ce2 843e a993 083e 5ee2 12be
00000290: b388 63bd bf99 b83c 56c2 133e e23e 1abe
000002a0: 23b5 fabd 0570 f73d 4b02 ca3d c91c 8e3e
000002b0: 933e 773e e1ee 09be 421c ba3d a932 41be
000002c0: 0669 48bc 0daa fbbc f46f 973d cf37 7c3e
000002d0: bd8b 6abe cb31 823e c421 513e 2d13 11be
000002e0: 4d9a 97bd 3bd6 89bd 8595 393e e06d b0bd
000002f0: 22ce d23d a582 edbd 9bb6 783e 7646 45bd
00000300: 484e 8f3e 512e 5fbe 9b06 b3bd f4c3 413e
00000310: 8f69 c73d 40cd 17be 7c7d 75be d956 62be
00000320: 3781 7abe 81ad 25be bba6 35be 7a0c adbd
00000330: 68e1 813e f825 9fbd 564d 39be cb91 123e
00000340: 5573 30be 120b 16be 8229 46bd f39a 13bd
00000350: c8e0 38be ef6c 6ebe 1552 92be a34f febd
00000360: 88e5 173e a167 c03c 73fb 6e3e 70fc 4f3d
00000370: 1de9 60be deef e13c eaa0 99bd d8c0 293e
00000380: 1423 a33d 9f63 943e a265 86be 21b0 0ebe
00000390: f676 7ebe 1b67 d53c 381a 3fbe 1df9 f8bd
000003a0: f516 8f3e 4ae3 c8bd a580 133e c6bf 403e
000003b0: 2c6d 593e 1a3d 753e efee 383e c3ab ed3c
000003c0: d4f3 7c3e 1c10 913e dacd 4ebe 4b6c 7a3d
000003d0: 3a46 4e3e 84ae 4abe 2151 eb3d 302f 3b3e
000003e0: 8cab 153c 8356 adbd be59 c6bc c664 823e
000003f0: 9d5f 6dbe 66e2 ed3d aa47 22be e950 4a3e
-0.19359562 0.07011907 -0.048703484 0.18334264 -0.030922195 0.21816666 -0.06168634 -0.24293631
-0.02729932 -0.1648339 -0.15973634 0.17079893 0.2634658 -0.18455134 -0.28289104 0.10402423
-0.2497693 -0.081125915 0.11713853 0.08966435 0.028150784 0.12403169 -0.16119798 -0.09684802
-0.082441874 -0.29271024 -0.18499643 0.051564064 0.038880773 -0.11485246 0.2402778 -0.14742225
-0.02414876 0.22584799 0.1419295 0.28179145 0.03881347 -0.21280794 -0.08765167 -0.055542536
-0.19953732 -0.1096365 -0.27480462 -0.10285504 -0.2797017 0.2565186 0.05264036 0.24242175
0.1354206 0.234408 -0.11116053 -0.13861498 -0.10602175 -0.2463553 0.016388064 0.0552167
0.13498436 -0.05902141 0.11221273 0.09491824 0.067395024 0.073673494 -0.110324994 0.17482515
-0.27354676 0.035050493 0.12818055 0.17451009 0.12887345 -0.04833583 0.18911098 -0.29842657
-0.059621453 -0.0903583 0.16679016 0.22531754 -0.0837049 0.07892516 -0.006589607 -0.07535032
0.11346859 0.0510792 -0.13600673 0.033339813 0.26853225 -0.210896 -0.050541155 -0.26456115
-0.074547894 0.2736431 0.20727557 -0.26307553 -0.29289967 0.01591998 -0.03348512 0.23033427
-0.07479538 0.23430243 -0.15704744 -0.04796679 -0.02405019 -0.15276143 0.014820064 -0.041313644
-0.13968226 -0.21773435 -0.01466567 0.27596128 0.120423056 -0.22413851 -0.13522854 0.16968995
-0.08469937 -0.026361754 -0.16087797 0.1316666 -0.18844469 -0.2934512 -0.22794868 -0.25263008
0.070990786 0.056645907 -0.09639642 0.11765178 0.027462546 0.07428307 0.15068331 0.04152431
0.28764126 0.21227702 -0.1711798 0.21080646 -0.033561725 -0.0076811346 0.010828547 -0.2561736
0.1950357 0.20606638 0.275595 0.054406308 -0.07991575 -0.047436796 -0.09089447 -0.25986278
0.09951439 0.03651083 -0.09030582 -0.17069158 -0.06336866 0.08095174 0.22814661 0.11939353
0.22070831 0.23194447 -0.15593295 -0.006093105 -0.24606483 -0.16622053 0.1133171 0.108794935
0.13847706 0.25953948 0.13337578 -0.14344165 -0.05555029 0.02253425 0.14429602 -0.1506305
-0.1224158 0.12081913 0.098637186 0.27756336 0.24144964 -0.13470031 0.09087421 -0.18866982
-0.012232071 -0.030720735 0.073944 0.24630664 -0.22904868 0.25428614 0.20423037 -0.14167471
-0.074024774 -0.06730314 0.18123443 -0.08614707 0.10293223 -0.11597184 0.24288408 -0.0481629
0.2798941 -0.21795012 -0.08741494 0.18922406 0.097369306 -0.1482439 -0.2397365 -0.22103442
-0.24463354 -0.16179468 -0.17739384 -0.08449645 0.25367284 -0.07770914 -0.18095908 0.14313428
-0.17231496 -0.1465266 -0.04837943 -0.036036443 -0.18054497 -0.23283742 -0.2857825 -0.12417533
0.14833653 0.023486914 0.23338108 0.050777853 -0.21963926 0.027580198 -0.07501395 0.1657747
0.07965675 0.28982255 -0.26249415 -0.13934375 -0.24850067 0.026050141 -0.18662345 -0.121568896
0.27947202 -0.09808977 0.14404543 0.18823156 0.21233052 0.2394909 0.18059896 0.029012566
0.24702388 0.28332603 -0.20195714 0.061138432 0.20143977 -0.19793135 0.114900835 0.1827972
0.009135138 -0.084637664 -0.024212714 0.2546751 -0.23181005 0.11615448 -0.1584765 0.19757427

encoder.feature_encoder.atom_embedding_list.6.weight f4 [6, 64]
00000000: 748b 28bc d0fa 813e 0bf9 11be 233e 643e
00000010: 69d3 bc3d ab9f 493e 0817 09bc a9bc 203e
00000020: a05e 193b 2ef0 df3c 1af4 52bd abe4 6c3d
00000030: 576d 8b3e 8fac 723e 4d5b 1dbe 6310 0ebe
00000040: ed5c 243e 650a 07be 5267 96bd 1db1 223d
00000050: a6af 32be 4fb6 55be f148 753e 40ba 87be
00000060: 61c7 20be 6c39 0c3e 0518 bfbb de10 153e
00000070: 1d8f 93bd 70de adbb ad36 72bd e4a8 dc3d
00000080: cb58 903d 47dc 8bbb eb85 543e 6e42 2fbe
00000090: 012e bebd 0210 4d3c 4bcd 1d3e 8ef0 9fbd
000000a0: 982f 7f3c cdff 81be e30a f13d 2c3d 413e
000000b0: e582 7abe 63fe 6fbe 5225 8d3c 64c6 563e
000000c0: 4818 0a3e 639f 633e ad03 84be a43d 373e
000000d0: 48af 8f3e 5cfa 6fbe 4610 6e3d 57fb 67bd
000000e0: 337d a43e 60a3 1ebe 5d61 8ebe 3f78 6ebe
000000f0: 8a03 423e 0bcb fd3d b15f 98be 9112 6cbe
00000100: 41d6 113e 82ca 05be ca13 43be 539d 19be
00000110: d314 e9bd 21e1 34be a010 c0bd d5e3 063d
00000120: 2ed0 1c3d a9d7 843e b140 9cbe 546d babd
00000130: 2565 84bd 4168 0abe 8517 d03d 6feb f7bd
00000140: 1c5f ddbd e0ba 64be 40ab e3bd 656d e3ba
00000150: d3b3 18be fdc4 80bd 19de 32be 6e02 f63c
00000160: 0cee a93d 4439 2ebe eb52 00be 4a61 dcbc
00000170: 2cce 3cbe 7ad4 e4bd b3a6 213e 586f 37bd
00000180: 88da b23d 7335 22bc dd32 05bb 87bf 61be
00000190: b64c 84bb 00a9 883e fbd3 903e 6400 6a3e
000001a0: 5907 b7bd 1ce5 663c f75e 833e 94d1 31bd
000001b0: 4c5e cb3d cd5f 683c b902 533e 4004 26be
000001c0: 716c ec3c 4a61 8abe 31fc a3bd 3970 113e
000001d0: 4d5f 5d3d e7f2 933e bec8 41be 3704 123e
000001e0: deca debc ca33 903e 721e 843e 2d1a 6e3e
000001f0: 7142 4ebe b9e4 8d3e 5739 23be 5c5a 02be
00000200: 81a5 253e 8454 b7bc 144f 0f3e 6332 713e
00000210: 2e93 06bd 0893 7c3d f135 753c 6ab3 483e
00000220: 1004 133e 52d6 10bb 99dc 32be 4e0f a73d
00000230: decb 243e 6303 a53c e736 253e 0800 993d
00000240: d2df 29be d5c2 18be d078 89bd 1191 81be
00000250: b8fd cdbc cf02 88bd 7178 79be 7e25 873d
00000260: 95fa af3d f0d2 d63d 621f efbc 94af c2bd
00000270: febf 35bd 92b7 6ebe 22e4 0c3d 4f4e 2a3e
00000280: 86c8 313b 3572 863c cf99 5f3e 75e5 7a3e
00000290: de20 803e 21bb 803e 7dd1 1e3e 19bd 3e3c
000002a0: 1c92 87be 7080 863c 4524 3b3e 8d09 373c
000002b0: a9f6 003e 6d93 70be 94ac 13bd da91 913e
000002c0: 605f 8bbe 1678 9bbd 6528 f33d 4db6 95be
000002d0: cd0e e9bd cb2e f2bd 4c8b 6e3e d812 3bbd
000002e0: 972f fabb 2748 663e 7784 ab3d f0a4 d2bd
000002f0: 8caf 2d3e 875b e6bd 67c6 6d3e f0eb a0bd
00000300: f0ae 8a3e ac48 c4bd e911 293e 4ac3 833e
00000310: b105 afbd a7d8 ffbc 5868 16be c602 283e
00000320: 4a91 b1bd a876 603e 9720 40be fbdb bdbd
00000330: 1b72 88bd 9d5e 803e b2a7 123e 6a2e 66bc
00000340: 8b5f 0f3e ccaf 8ebe 58e2 01bd 71ec 823e
00000350: bc94 63bd b98b 26be dcc9 0dbe c6e3 6e3e
00000360: af99 c63c 713b 943d 140c 0bbe b8be 133e
00000370: a9e9 7bbb 3617 8f3e dc9d 2e3e 59c3 81be
00000380: 3851 7d3e f98f 43be 1536 d3bd 4c17 1b3d
00000390: 9f06 78be 61d8 6cbc 50cf 2bbe a066 9abd
000003a0: ab46 4dbc 8157 65bd e753 d43d ed53 a6bd
000003b0: 996c 333d 46ca 3ebb 93c6 d3bd 2709 8abe
000003c0: f50a 003e 1b41 8bbe 50a7 173d 1367 4b3e
000003d0: 7f7b 8c3e ad04 30be ba09 7e3e a731 21be
000003e0: 8750 32be ddaa 213d 9ccd 05be b033 48be
000003f0: 0d68 ae3d 1456 803e 9fc6 323e f385 fb3d
-0.0102871545 0.25386667 -0.14255159 0.22289328 0.09220011 0.19689815 -0.0083673075 0.15696968
0.0023402348 0.027336206 -0.051502325 0.057835262 0.27231857 0.23698638 -0.1536686 -0.13873439
0.16051073 -0.13187559 -0.073439255 0.03971969 -0.17449817 -0.20870326 0.23953606 -0.26509285
-0.15701057 0.1369378 -0.005831721 0.14557216 -0.07205031 -0.0053060576 -0.059134174 0.10774401
0.07048186 -0.0042682025 0.2075421 -0.17115185 -0.09286118 0.012516024 0.15410344 -0.07809554
0.015575312 -0.25390473 0.117696546 0.18870991 -0.24463995 -0.23436885 0.01722971 0.20974118
0.13485825 0.2222877 -0.25784054 0.17894608 0.28063416 -0.23435348 0.05812099 -0.05663618
0.3212677 -0.1549201 -0.27808657 -0.23288058 0.18946663 0.12392243 -0.29760507 -0.23053958
0.14241888 -0.13065532 -0.19050518 -0.1500142 -0.11380925 -0.17664005 -0.09378171 0.03293212
0.038284473 0.25945786 -0.30518106 -0.09102884 -0.06464604 -0.13516332 0.10160736 -0.12105452
-0.10809156 -0.22336912 -0.11116648 -0.0017351328 -0.14912347 -0.062875725 -0.17467536 0.030030455
0.08297357 -0.17014033 -0.1253163 -0.02690186 -0.18438023 -0.11173339 0.15786247 -0.04478392
0.08733088 -0.009900439 -0.0020324506 -0.22045718 -0.004037465 0.26691437 0.28286728 0.22851712
-0.08936948 0.01409271 0.2565839 -0.04341276 0.09930095 0.014182997 0.20606507 -0.16212559
0.028860303 -0.2702735 -0.08007086 0.14202966 0.054045964 0.28896257 -0.18924233 0.1425942
-0.027196344 0.28164512 0.25804478 0.23252173 -0.20142533 0.27713564 -0.15939842 -0.12729782
0.16176416 -0.022379167 0.1399501 0.23554377 -0.032855205 0.061663657 0.014966474 0.19599691
0.14357018 -0.00221004 -0.17466964 0.08157216 0.16093394 0.020143216 0.16134225 0.07470709
-0.16589287 -0.14918073 -0.06712496 -0.2530599 -0.025145397 -0.06641161 -0.24362351 0.06598948
0.085927166 0.10489452 -0.02918977 -0.09506145 -0.04437255 -0.23312214 0.034397252 0.16631435
0.0027127578 0.01641188 0.21836017 0.24501593 0.25025076 0.25142768 0.15509601 0.011641764
-0.2647866 0.016418666 0.18275554 0.011171711 0.12594093 -0.23493738 -0.036053255 0.28431588
-0.27221203 -0.07591264 0.11872939 -0.29240647 -0.11379776 -0.11825331 0.23295325 -0.045672268
-0.0076350677 0.22488461 0.08374875 -0.102853656 0.16961497 -0.11247926 0.23220216 -0.078575015
0.27086592 -0.095841736 0.16510738 0.2573493 -0.085460074 -0.031231238 -0.14688241 0.16407308
-0.0867029 0.21920264 -0.18762432 -0.092704736 -0.06662389 0.25072184 0.14321783 -0.014049152
0.1400129 -0.27868497 -0.03171 0.25571015 -0.055561766 -0.16264237 -0.13846534 0.23329076
0.024243204 0.072379 -0.13578826 0.14428222 -0.0038438833 0.27947396 0.17052406 -0.2534435
0.24738014 -0.1909789 -0.1031305 0.037864015 -0.24221276 -0.014455886 -0.16778302 -0.075391054
-0.012529056 -0.055991653 0.103675656 -0.08121476 0.04380474 -0.0029112264 -0.103406094 -0.26960108
0.1250418 -0.2719811 0.037024796 0.19863538 0.2743797 -0.17189284 0.24808398 -0.15741597
-0.17413531 0.03946959 -0.13066715 -0.19550967 0.0851594 0.25065672 0.1745858 0.12281408

encoder.feature_encoder.atom_embedding_list.7.weight f4 [2, 64]
00000000: b835 6f3e f9df 963e 975c 6dbe 925a ccbd
00000010: dc08 5c3e b3a4 97be 9514 743e 1d62 773e
00000020: f87d 8f3e 2b9d e1bd 8d80 8d3e b96a 573d
00000030: a9d5 6f3e 3277 123e 53a2 b13c 728f 91be
00000040: 54dd 38be 231e 7e3e 581a f63d b779 f5bd
00000050: 3f15 963e dd35 62be f239 453e 51a2 953e
00000060: 0d2f 93bd 93fd 8f3d c98e 363e 8cda 67bd
00000070: 2869 4b3d 499a 203e db12 8dbd ecc8 20be
00000080: 117f 803d ce78 8dbe c3ea 93be 9a1e 233c
00000090: 2cb2 30be 73c2 a63d c630 903d c010 67be
000000a0: c24b 2abe 45ba 973e 5626 d6bc 21af 55bc
000000b0: 6dd9 2abe 55a9 a73d e332 e63d 3bdf ca3d
000000c0: f0c7 d7bd 64a9 e93d 180f 2b3e 02dc 903e
000000d0: 10e0 8ebe ba59 073e fb6b 96bd 1667 d4bd
000000e0: be12 5abe 2126 983d 7cff 66be 793d 46be
000000f0: fab5 b1bb c4a7 f53d f273 fa3d d73b 503e
00000100: 87d5 95be cf66 26be 58d1 603d 8060 6abe
00000110: d9fa 08be 24f3 08be 0630 2d3e 924d e73d
00000120: 571d 14be c987 05be 225f fe3c 92fb 8d3d
00000130: daf5 8d3e 0a81 5c3e 77df 8abd 52ee 6dbc
00000140: 3fd3 1f3e 7717 663d 836f 0d3e 3304 8a3e
00000150: acd3 c33d 9d4e f5bc 1df1 87be 5102 17be
00000160: 0d8f df3d e8d8 943e aba5 cc3d 1781 4ebe
00000170: 437a 86be e3fc 993e 0851 81bd 1076 82bd
00000180: 4e33 77bd 01f9 2b3e 4c9c 863e 05a2 e83d
00000190: a06f 383e 8bcb 763e 6875 92be d769 b5bd
000001a0: 6c1a 1fbe c46c 243e df8b 593e 7d44 433d
000001b0: 4a7d 773e 9918 8cbe c1c9 34bd 02f8 2e3c
000001c0: 86bf 5dbd 8d2f 6d3e 6202 edbd a9f2 793e
000001d0: 08e8 82bd 2cfa a93c 1c65 533d 1c20 893e
000001e0: 1f65 a4bd c94f 1dbc 1dfd 5d3e 4488 913e
000001f0: b95c 38be 03ad a53d c963 5b3c fda0 91be
0.23360336 0.29467753 -0.23179851 -0.099782124 0.21487755 -0.29617843 0.23835976 0.24158521
0.28025794 -0.110163055 0.2763714 0.052592013 0.23421349 0.14303282 0.021683848 -0.28429753
-0.1805318 0.24816184 0.120167434 -0.11986106 0.29313084 -0.2209086 0.19260386 0.292254
-0.071867086 0.07030787 0.17827906 -0.056604907 0.04966083 0.15683855 -0.06888362 -0.15701646
0.06274236 -0.2763123 -0.28890046 0.009956026 -0.17255467 0.08142557 0.07040553 -0.22564983
-0.16630462 0.296343 -0.026141327 -0.013042242 -0.16684504 0.081865944 0.112401746 0.09905859
-0.10536182 0.11409262 0.16704977 0.28292853 -0.2790532 0.13217822 -0.073448144 -0.103712246
-0.21296212 0.074291475 -0.22558397 -0.19359387 -0.0054233046 0.119948894 0.12229146 0.20335327
-0.2926447 -0.16250156 0.054887146 -0.22888374 -0.13376941 -0.13374001 0.1691285 0.11294092
-0.14464317 -0.13040079 0.031051222 0.06932749 0.27726632 0.215336 -0.06780904 -0.014522152
0.15607928 0.05617472 0.1381207 0.2695633 0.095618576 -0.029944712 -0.26551142 -0.14746977
0.10915957 0.29071736 0.09992536 -0.20166431 -0.26265153 0.3007575 -0.063142836 -0.06370175
-0.060351662 0.16794206 0.2629112 0.11359028 0.18011332 0.24101083 -0.286052 -0.08858078
-0.15537423 0.16057116 0.21244763 0.047672737 0.24168888 -0.27362517 -0.04413772 0.010679247
-0.05413773 0.2316267 -0.1157272 0.24408974 -0.06391913 0.020749174 0.051610097 0.2678231
-0.080271 -0.009601542 0.21678586 0.28424275 -0.18004121 0.0808964 0.01339049 -0.28443137

encoder.feature_encoder.atom_embedding_list.8.weight f4 [2, 64]
00000000: c924 01be 9233 d03d 9ce0 d43d 354d 2fbb
00000010: dfec 683e f882 663d a80f 9b3e de31 65bd
00000020: 981e 363c 772e 15be 7f57 88be efd5 33be
00000030: aeca 853d 93cd 283d a47e 193e b720 e73d
00000040: 0b20 9cbe b079 853e 5837 8dbd 3448 7dbe
00000050: 7605 023e cfc2 973d a1b0 1fbe 12cd a03c
00000060: 899a 8f3e cb35 333d 04f4 b0bd 7c65 53bd
00000070: 8cc9 2f3d 830a 993e a014 8dbd 86b8 8c3e
00000080: a9a6 37be a2c0 4d3e 6d65 f23c 33f8 fcbd
00000090: 1c6d 4b3e 2fa8 533e d03d 2ebd f0cb 99be
000000a0: c6a2 1dbe 68dc d9bb e454 7fbe b924 52be
000000b0: bf8c 8dbc 65fa 9dbd 3afd c33c 7d9f 2cbe
000000c0: 1bf6 18be fa80 e83d d0a2 a3bc 07ee 4c3e
000000d0: a726 25be a8b4 b5bd f078 29be 7298 61be
000000e0: ee9b 523e 2340 27bd 5f62 a53e a0df 433e
000000f0: b485 1dbe 0ba1 eabd 524a 173e 8594 40be
00000100: 8cd8 7a3e 18f7 133d 9797 a93d 2430 873e
00000110: 601b 8fbe 7e7e 1abe dc7e f1bd 773e 64be
00000120: cb1a 253e 6ac4 5b3e 189a 783e daa5 923e
00000130: 2201 19be bbec 003c fd00 7c3d ac8b b5bd
00000140: 6bde 2a3e a4fb 8e3e bbe7 9dbe f70e a1bd
00000150: 5248 263e 0ff6 60be c0d1 78bd ae70 343e
00000160: a51f 743d e159 02be 2bb0 acbd 7cf1 db3a
00000170: 2251 963e 9b02 47be 2aff d03b f27c 28bd
00000180: 88b7 a23e fed0 5f3e f5de 99bd fc85 04be
00000190: a706 9a3e d7dd 09bd 5caa b4bd 19da 8c3e
000001a0: 75e7 cc3d 81c9 063d 3a60 883e 8f95 16be
000001b0: 23e1 813e 5383 043e 02bf 44be 3052 7e3e
000001c0: bacd a13d b18b 8bbe fdfc 853e 862c 81be
000001d0: 6613 7c3d 940e 0d3e 2ddb 493e 161d 81be
000001e0: 9278 5e3e 385c 843e a1c2 323e 6cca 843d
000001f0: 64ab 1dbe eeb3 823e e1ac 853b c926 4cbd
-0.12611689 0.10166086 0.10394403 -0.00267489 0.22746609 0.056277245 0.30285382 -0.05595576
0.011115693 -0.14568506 -0.26629254 -0.17562078 0.06532799 0.041211676 0.14989716 0.11285537
-0.30493197 0.26069403 -0.068953216 -0.24734575 0.12697396 0.07410204 -0.15594722 0.019629035
0.28047588 0.043752473 -0.08640292 -0.051610455 0.04291682 0.29890832 -0.068886995 0.2748453
-0.1793467 0.20093015 0.02958938 -0.12352028 0.1986584 0.20669626 -0.042539418 -0.30038404
-0.15394124 -0.006648589 -0.24934727 -0.20521821 -0.017279027 -0.077137746 0.023924459 -0.16857715
-0.14937632 0.11352725 -0.019975096 0.20012675 -0.16128026 -0.08872348 -0.1655004 -0.2203081
0.20567295 -0.04083265 0.32301614 0.19128275 -0.15383035 -0.11456498 0.14774445 -0.18806656
0.24496669 0.03612432 0.082808666 0.26403916 -0.27950573 -0.15087315 -0.11791775 -0.22289453
0.16123502 0.21461645 0.24277532 0.2864216 -0.14941838 0.007868941 0.06152438 -0.08864531
0.16686408 0.27926362 -0.3084086 -0.078641824 0.16238526 -0.21968864 -0.06074691 0.17621109
0.05960049 -0.12729599 -0.08432039 0.0016780342 0.29358774 -0.19434588 0.006378074 -0.041134782
0.31780648 0.21857068 -0.07513229 -0.12941736 0.300832 -0.03365883 -0.08821556 0.27510145
0.100050844 0.032907013 0.26635915 -0.1470549 0.25367078 0.12940721 -0.19213489 0.2483604
0.07900567 -0.27255014 0.26169577 -0.2522928 0.061541937 0.13775092 0.19712515 -0.25217503
0.21725681 0.25851607 0.17457058 0.064839214 -0.15397412 0.255279 0.0040794467 -0.049841676
