checkpoints/spurious_motif/best_model.pt (torch, 475897 bytes, 98 tensors)

encoder.input_proj.weight f4 [64, 10]
0.26776966 0.2885242 -0.046498187 0.3159913 -0.04035575 0.09136822 -0.12472744 0.21457162
0.30630672 -0.201983 0.26024643 0.043864027 0.22067964 0.031020323 0.13793232 -0.05947661
0.22810213 0.034016594 -0.16202481 0.06547705 -0.14569771 -0.037084933 -0.12843855 0.20977631
-0.24962077 -0.14578427 -0.08929473 -0.19013904 0.029846564 -0.31233156 0.28844252 -0.2681572
0.24491039 0.0522157 -0.10150423 0.19554855 0.049948484 0.25795108 0.035062965 -0.10018295
0.102195516 -0.06913069 0.14828362 0.30219948 0.20163879 -0.122385226 0.20100708 0.0728001
0.17777212 -0.17517199 -0.31675768 -0.124467544 -0.24668892 0.25573608 0.08691351 0.12891307
0.09712087 -0.009412447 0.24434145 -0.22727878 0.019910878 -0.21583815 0.09750946 -0.10890324
0.096897334 -0.06588336 0.26227674 -0.1874288 -0.1885976 -0.18860899 0.30192566 0.12023468
0.32352135 -0.24256751 -0.29822752 -0.23471294 -0.19460234 0.14855534 0.12746161 0.27582574
-0.16330804 -0.2155762 0.16778354 -0.12782069 0.19192617 -0.07504105 0.1808968 -0.24569885
-0.15958427 0.09641039 0.066852935 -0.080625035 0.18849371 0.21497455 -0.22931994 -0.16882394
0.28955773 -0.106705524 -0.112107925 -0.3059803 -0.18109423 0.078994855 -0.041739907 -0.2295453
0.0074176574 -0.21600933 -0.2682866 -0.17413482 -0.27676636 -0.20135425 0.31610408 0.059727505
0.097448654 -0.29494068 -0.2076901 -0.10525825 0.04944889 -0.27825555 -0.13625401 -0.18931563
0.0008763488 -0.11766937 -0.021913245 -0.21428533 -0.21705721 -0.18448785 -0.10824395 -0.24959253
0.26514745 -0.06275984 0.27208135 0.0985309 -0.26778072 0.21884075 -0.08700843 -0.12121834
-0.26249135 -0.3143812 0.090476125 -0.06907801 0.124962516 -0.25677013 0.23727825 -0.232142
-0.05209589 0.07048698 0.15992466 0.25523248 0.2898931 -0.24780424 0.08780197 -0.1268266
-0.024567306 -0.22660552 0.29628512 -0.2231535 0.1757555 0.12156955 0.1127786 -0.15884659
0.29980373 0.080352604 0.05335008 -0.266098 0.14574397 -0.033796407 -0.13300936 0.28237128
0.083187155 -0.16229981 -0.16005518 -0.015101684 0.17656934 -0.08080689 -0.18043162 -0.10828994
-0.23624581 0.11277709 0.24477302 -0.29770958 0.0916961 0.1810419 0.07370137 -0.09508753
0.18537074 0.18483107 0.13633767 -0.03687917 -0.06349606 0.05332399 -0.056506578 -0.09522359
0.19822878 0.27185798 -0.029631354 -0.07041733 0.0023785247 -0.020346513 0.07564926 0.086155884
-0.287216 -0.11669998 0.26630473 0.1231881 -0.015728401 -0.19065554 -0.19346975 -0.28326634
-0.103078365 0.10679144 0.20096865 0.1482811 -0.27807888 -0.18790099 -0.044034507 0.30811983
0.047795784 -0.08030617 0.13348792 -0.11819887 -0.2046802 0.23081061 -0.14378932 -0.06339315
-0.31458473 0.21164195 0.2395851 0.115248635 -0.22049746 -0.3120978 -0.26858184 0.22519244
0.13902971 0.2505789 0.15261063 0.068377204 -0.019185346 -0.25162992 -0.2829837 -0.30978468
0.12945162 -0.1552577 -0.06364165 -0.18199074 -0.05762415 -0.22257213 -0.20662817 0.10489617
-0.09398175 0.19522105 -0.10144864 -0.23197433 -0.055794887 -0.15329058 -0.09674722 -0.30104744
00000000: 1b19 893e 72b9 933e e274 3ebd 9dc9 a13e
00000010: 124c 25bd 431f bb3d 1a71 ffbd aab8 5b3e
00000020: 3cd4 9c3e a2d4 4ebe 053f 853e c4aa 333d
00000030: d8f9 613e 551e fe3c 213e 0d3e bf9d 73bd
00000040: 9b93 693e fc54 0b3d d5e9 25be d518 863d
00000050: c831 15be 5fe6 17bd 6585 03be 9acf 563e
00000060: 969c 7fbe 7948 15be 28e0 b6bd cfb3 42be
00000070: c880 f43c ece9 9fbe bdae 933e e74b 89be
00000080: cac9 7a3e 21e0 553d 73e1 cfbd e13d 483e
00000090: c896 4c3d 2a12 843e 2f9e 0f3d b82c cdbd
000000a0: e24b d13d 6494 8dbd a9d7 173e e4b9 9a3e
000000b0: 667a 4e3e 1ba5 fabd cdd4 4d3e 3818 953d
000000c0: e509 363e 4960 33be 102e a2be d7e8 febd
000000d0: 059c 7cbe d7ef 823e b6ff b13d ca01 043e
000000e0: 4fe7 c63d aa36 1abc a534 7a3e c5bb 68be
000000f0: 231c a33c ad04 5dbe 0ab3 c73d a908 dfbd
00000100: 1c72 c63d dbed 86bd 2349 863e 56ed 3fbe
00000110: bb1f 41be b722 41be 0096 9a3e 9a3d f63d
00000120: 97a4 a53e 9e63 78be 47b1 98be 9758 70be
00000130: d645 47be e41e 183e 4c85 023e 0839 8d3e
00000140: 393a 27be 02c0 5cbe 73cf 2b3e 6de3 02be
00000150: 4b88 443e 1faf 99bd 033d 393e 7b98 7bbe
00000160: 0f6a 23be d072 c53d 31ea 883d bd1e a5bd
00000170: 7f04 413e 4a22 5c3e d9d2 6abe 2fe0 2cbe
00000180: e940 943e 6d88 dabd d798 e5bd 73a9 9cbe
00000190: c470 39be 0ec8 a13d 77f7 2abd ec0d 6bbe
000001a0: d20f f33b 8d31 5dbe dc5c 89be 6650 32be
000001b0: 52b4 8dbe cf2f 4ebe 65d8 a13e d4a4 743d
000001c0: 2993 c73d 7702 97be b7ac 54be a391 d7bd
000001d0: eb8a 4a3d 8377 8ebe 2c86 0bbe f5db 41be
000001e0: c6ba 653a a3fc f0bd 6883 b3bc 9d6d 5bbe
000001f0: 3f44 5ebe 62ea 3cbe 01af ddbd 2f95 7fbe
00000200: 68c1 873e 3b88 80bd 3f4e 8b3e 92ca c93d
00000210: 8e1a 89be ca17 603e 7a31 b2bd 5241 f8bd
00000220: 4465 86be 93f6 a0be 8c4b b93d c678 8dbd
00000230: 59ec ff3d 6077 83be 12f9 723e a2b6 6dbe
00000240: 8062 55bd 7a5b 903d 4ac3 233e d5ad 823e
00000250: de6c 943e 65c0 7dbe 85d1 b33d d5de 01be
00000260: 6041 c9bc 470b 68be afb2 973e 5a82 64be
00000270: 40f9 333e 75f9 f83d 77f8 e63d aea8 22be
00000280: e07f 993e e88f a43d 9d85 5a3d ff3d 88be
00000290: e83d 153e 1a6e 0abd 9b33 08be f892 903e
000002a0: 075e aa3d ec31 26be 81e5 23be 0e6d 77bc
000002b0: 98ce 343e 157e a5bd 11c3 38be 1ec7 ddbd
000002c0: 6cea 71be adf7 e63d c7a5 7a3e 646d 98be
000002d0: 2acb bb3d 0c63 393e bef0 963d 40bd c2bd
000002e0: d4d1 3d3e 5b44 3d3e 1a9c 0b3e 9d0e 17bd
000002f0: 390a 82bd 426a 5a3d 7173 67bd 9604 c3bd
00000300: 7cfc 4a3e f830 8b3e 74bd f2bc f636 90bd
00000310: 06e1 1b3b bbad a6bc 00ee 9a3d 7f72 b03d
00000320: fa0d 93be 6600 efbd 1859 883e 0b4a fc3d
00000330: d9d8 80bc 353b 43be ef1c 46be 4908 91be
00000340: c01a d3bd 78b5 da3d baca 4d3e 00d7 173e
00000350: 5b60 8ebe 1e69 40be 875d 34bd e2c1 9d3e
00000360: 83c5 433d 9077 a4bd 0fb1 083e 4012 f2bd
00000370: b097 51be 9e59 6c3e 823d 13be 45d4 81bd
00000380: 4011 a1be abb8 583e cc55 753e 7a07 ec3d
00000390: 16ca 61be 48cb 9fbe 8f83 89be d998 663e
000003a0: ce5d 0e3e e14b 803e f645 1c3e 5909 8c3d
000003b0: 962a 9dbc a3d5 80be 3de3 90be 199c 9ebe
000003c0: f78e 043e e0fb 1ebe 8e56 82bd c85b 3abe
000003d0: 4d07 6cbd f3e9 63be 5696 53be ced3 d63d
000003e0: 8179 c0bd 07e8 473e 4ec4 cfbd ae8a 6dbe
000003f0: 2e89 64bd 35f8 1cbe 6823 c6bd e422 9abe

encoder.input_proj.bias f4 [64]
0.09393218 -0.31019148 0.27610272 0.19995548 -0.2906938 -0.15412804 0.103139326 -0.047262188
-0.03446139 -0.1427818 0.25400034 -0.17677076 0.26224035 0.020403732 0.06538257 0.25730142
-0.039505307 -0.18004216 -0.029996632 0.25538936 -0.234637 0.07460166 -0.31078592 0.15294915
0.11683596 0.013405608 0.1404732 -0.020442944 0.17498553 -0.2503324 -0.046438836 0.12839817
0.31490493 0.15740862 -0.22995274 0.2273459 -0.07051824 -0.08086635 -0.2959257 -0.049778778
0.22367637 0.038833294 -0.18418811 0.12280839 -0.09359878 0.28563327 -0.27987617 -0.076214634
-0.3130278 -0.12235836 0.13457397 0.30440548 0.057320774 0.30128545 0.05254391 0.16981493
0.25350785 0.26434216 -0.1593766 0.30204165 0.19155985 -0.1444307 -0.15090495 -0.26523483
00000000: 845f c03d 6bd1 9ebe 565d 8d3e 21c1 4c3e
00000010: d1d5 94be bed3 1dbe b63a d33d ff95 41bd
00000020: 6327 0dbd 6435 12be 550c 823e 6503 35be
00000030: 5e44 863e ba25 a73c 4ce7 853d 03bd 833e
00000040: 51d0 21bd f95c 38be 7fbb f5bc 65c2 823e
00000050: af44 70be c1c8 983d 551f 9fbe b49e 1c3e
00000060: b147 ef3d 32a3 5b3c 35d8 0f3e f677 a7bc
00000070: 682f 333e 912b 80be a636 3ebd cf7a 033e
00000080: 383b a13e ba2f 213e bb78 6bbe 5dcd 683e
00000090: de6b 90bd 429d a5bd 9383 97be d5e4 4bbd
000000a0: 6b0b 653e a90f 1f3d cf9b 3cbe f782 fb3d
000000b0: b8b0 bfbd 863e 923e ee4b 8fbe 6b16 9cbd
000000c0: 2e45 a0be 0597 fabd c2cd 093e 09db 9b3e
000000d0: 30c9 6a3d 1642 9a3e 4838 573d f7e3 2d3e
000000e0: c8cb 813e db57 873e 9f33 23be 34a5 9a3e
000000f0: 4428 443e a4e5 13be d486 1abe dccc 87be

encoder.convs.0.nn.0.weight f4 [64, 64]
-0.015044492 0.11238346 -0.0813577 0.103510246 0.13839264 0.051301487 -0.053606093 -0.09243981
-0.006870568 0.10621694 0.005778268 -0.031463623 -0.06216474 0.009340644 0.079810016 0.034877013
0.021906357 -0.08650021 0.077622324 0.04316881 -0.12285864 0.12885903 0.079494014 0.011777494
-0.02469036 0.11227259 0.12612103 0.04061272 0.116035685 0.052843884 0.059654027 0.00783465
-0.009130478 0.080017276 -0.054750174 -0.06983099 0.07804729 -0.03782389 0.10313091 -0.020769492
-0.07615009 -0.0016607586 -0.0144114345 0.072524935 -0.080380455 -0.093967505 0.011864614 0.13066874
-0.07041568 -0.056643866 0.047133576 0.093610406 0.08079161 -0.025829108 0.01744644 -0.08615318
0.12208523 0.07594313 0.06275907 -0.12060835 0.070659444 -0.052244097 0.005202219 0.059975967
-0.02125635 -0.085668445 0.08443177 0.052361995 -0.006985593 -0.08431231 -0.06475547 -0.12974991
-0.06690204 -0.11165458 -0.011030078 -0.088773355 0.07118802 -0.10114741 -0.08329011 -0.11229479
-0.074437775 0.04891765 0.073336765 0.089411594 -0.029812008 0.0017837682 0.00880079 0.04754003
0.05874087 0.0734956 0.058185466 0.08782001 0.006385982 0.087505385 -0.0702375 -0.053754304
-0.034922466 -0.034255773 0.007157773 -0.12904929 -0.07084645 -0.01587379 0.010329725 0.08856484
-0.08582525 0.030018752 0.05768597 -0.0748027 0.014370001 -0.07688821 -0.008182171 -0.1167649
-0.04343933 -0.06001911 0.052453343 0.030169055 -0.13570887 -0.0015046479 0.042715043 -0.08772875
-0.07475172 -0.024543837 -0.12110909 -0.07324482 0.015354916 -0.10987962 -0.118726715 -0.07431428
-0.09572941 0.0028473798 0.045177788 0.08450049 0.12799443 0.052677963 -0.05643502 -0.012898301
-0.06419149 0.07512897 0.041674808 0.057616606 -0.08398172 0.09744555 -0.11011149 0.064463735
-0.11353812 0.095715016 -0.084999956 -0.096501015 0.06254165 0.09142683 -0.009091139 0.060137723
0.114366546 -0.10158312 0.05383553 0.028485717 -0.07112351 0.07422964 0.11134495 0.0878379
-0.08981983 0.10223408 0.10514344 0.049302362 -0.017142043 0.1022119 -0.07645073 -0.07594557
0.06874369 0.08490607 -0.012619704 0.12614255 0.055763412 0.07546421 0.095955074 0.12960675
0.093912266 0.09197912 0.04170417 0.09796713 0.06845832 -0.07150269 0.064872354 0.0184658
-0.043148637 0.093772575 0.03697355 0.10824036 0.026949733 0.043605372 0.07505679 -0.031166762
0.08292717 -0.058713134 -0.017707735 0.014501312 0.103699766 0.06764242 0.12060487 -0.06853046
-0.009886056 -0.010421917 0.10187112 0.1180065 0.031548604 -0.1010177 -0.10307368 0.03233435
-0.11249913 -0.043600768 -0.11300221 0.068021655 -0.017155677 -0.08297553 0.08167952 -0.093721755
-0.012219995 0.12035383 0.07579299 -0.10061329 0.01348722 -0.018608019 0.055662498 0.1156997
0.106540054 -0.0028005172 0.0575909 -0.09778565 0.098478675 0.067107186 -0.093428925 -0.036153123
-0.048596993 -0.061958235 0.051506415 -0.020417543 0.061223507 -0.043921724 0.09179875 -0.05606048
-0.012430335 -0.055179037 0.041183524 -0.046063483 -0.08512811 -0.12504223 0.06764371 0.04186728
-0.080352485 0.06476672 0.017676337 -0.023712426 -0.008190677 0.01770555 0.089558706 -0.11489603
00000000: 2c7d 76bc 4d29 e63d de9e a6bd 2efd d33d
00000010: cdb6 0d3e 8221 523d 1092 5bbd 1551 bdbd
00000020: 8022 e1bb 4488 d93d a057 bd3b 00e0 00bd
00000030: 74a0 7ebd 8009 193c 6f73 a33d 33db 0e3d
00000040: f674 b33c 0627 b1bd 74f8 9e3d c7d1 303d
00000050: 509d fbbd 9ff3 033e c2cd a23d 64f6 403c
00000060: 7043 cabc 2cef e53d df25 013e 8659 263d
00000070: 1ea4 ed3d d472 583d c857 743d e75c 003c
00000080: 0098 15bc 19e0 a33d b841 60bd 8d03 8fbd
00000090: 42d7 9f3d 39ed 1abd 4c36 d33d c824 aabc
000000a0: 94f4 9bbd d0ad d9ba f01d 6cbc f487 943d
000000b0: 829e a4bd 0972 c0bd cc63 423c 07ce 053e
000000c0: 1936 90bd 6603 68bd 230f 413d d0b6 bf3d
000000d0: 1276 a53d 9197 d3bc d6eb 8e3c 1471 b0bd
000000e0: d207 fa3d 1288 9b3d d487 803d 8301 f7bd
000000f0: e6b5 903d e8fd 55bd 6077 aa3b 5ca9 753d
00000100: cc21 aebc f072 afbd 90ea ac3d 8879 563d
00000110: 67e7 e4bb efab acbd 849e 84bd 29dd 04be
00000120: f003 89bd 28ab e4bd 80b7 34bc cece b5bd
00000130: 06cb 913d 6026 cfbd 0194 aabd d0fa e5bd
00000140: d572 98bd e05d 483d 9631 963d 6d1d b73d
00000150: 5038 f4bc 54cd e93a 3031 103c 56b9 423d
00000160: 449a 703d dc84 963d e253 6e3d fada b33d
00000170: 8041 d13b 0636 b33d aed8 8fbd 792d 5cbd
00000180: dc0a 0fbd c84f 0cbd c08b ea3b 7f25 04be
00000190: f217 91bd c009 82bc 023e 293c 7c61 b53d
000001a0: 26c5 afbd e3e9 f53c 2048 6c3d 2832 99bd
000001b0: 2770 6b3c 9177 9dbd 830e 06bc 7022 efbd
000001c0: 70ed 31bd 99d6 75bd 51d9 563d 1825 f73c
000001d0: 44f7 0abe 9b37 c5ba f8f5 2e3d 22ab b3bd
000001e0: 6e17 99bd 2810 c9bc 0b08 f8bd 6101 96bd
000001f0: 3093 7b3c 9108 e1bd fe26 f3bd 1632 98bd
00000200: c80d c4bd 1b9b 3a3b 580c 393d 980e ad3d
00000210: f910 033e d9c4 573d 6828 67bd 6553 53bc
00000220: d476 83bd 38dd 993d 34b3 2a3d 64ff 6b3d
00000230: 9cfe abbd 8891 c73d 2282 e1bd 9005 843d
00000240: ad86 e8bd 3c06 c43d 7514 aebd 53a2 c5bd
00000250: d615 803d fd3d bb3d 00f3 14bc f952 763d
00000260: 0239 ea3d d00a d0bd a582 5c3d e15a e93c
00000270: 34a9 91bd b605 983d d208 e43d 5be4 b33d
00000280: 76f3 b7bd 1a60 d13d 7255 d73d 46f1 493d
00000290: 786d 8cbc 7954 d13d 3392 9cbd 5a89 9bbd
000002a0: 7ec9 8c3d 3ce3 ad3d e0c2 4ebc 832b 013e
000002b0: 2d68 643d fb8c 9a3d 1884 c43d a2b7 043e
000002c0: 1355 c03d 8d5f bc3d fed1 2a3d fea2 c83d
000002d0: e033 8c3d 0170 92bd ccdb 843d 9745 973c
000002e0: a0bc 30bd d60b c03d 9471 173d 1fad dd3d
000002f0: b0c5 dc3c 8c9b 323d 60b7 993d 7051 ffbc
00000300: b8d5 a93d 2f7d 70bd d00f 91bc e996 6d3c
00000310: 8b60 d43d 1c88 8a3d b0ff f63d b359 8cbd
00000320: 20f9 21bc b0c0 2abc cea1 d03d 64ad f13d
00000330: 1c39 013d 5ee2 cebd 4b18 d3bd 0671 043d
00000340: f265 e6bd b896 32bd b46d e7bd f04e 8b3d
00000350: 108a 8cbc 13ef a9bd 9847 a73d 31f1 bfbd
00000360: 6036 48bc 127c f63d 5b39 9b3d 570e cebd
00000370: 80f9 5c3c d86f 98bc 5cfe 633d f7f3 ec3d
00000380: ac31 da3d e288 37bb 70e4 6b3d d843 c8bd
00000390: 30af c93d 7e6f 893d aa57 bfbd 4c15 14bd
000003a0: a40d 47bd ebc7 7dbd 64f8 523d b142 a7bc
000003b0: 80c5 7a3d 44e7 33bd fc00 bc3d ad9f 65bd
000003c0: 9ba8 4bbc 6a03 62bd 0eb0 283d 10ad 3cbd
000003d0: a657 aebd 120b 00be c988 8a3d 067d 2b3d
000003e0: d88f a4bd 6aa4 843d f7cd 903c 9040 c2bc
000003f0: 3032 06bc 3b0b 913c 8e6a b73d 9c4e ebbd

encoder.convs.0.nn.0.bias f4 [64]
-0.0055604097 0.1199713 0.077836916 0.027106764 -0.11098032 -0.05740296 0.052389476 -0.079352595
0.035611235 0.030467508 -0.080749266 0.023853816 -0.014858534 0.093173504 -0.02770962 0.107571065
0.10817494 -0.04425315 0.022862835 -0.03351999 0.09959959 0.06135541 -0.0031654732 0.07836203
-0.10462026 -0.030936154 0.0276436 -0.119034655 0.10751587 0.01109631 0.11516762 -0.036732506
0.008473178 -0.033540193 -0.051318068 -0.046942383 0.08584075 0.11091496 0.036175583 0.06990807
0.05550389 -0.0022445808 -0.09371852 0.032740723 -0.041878287 0.04997686 -0.0823653 -0.0078757545
-0.05366095 -0.11334634 -0.11439135 0.112272255 0.0013163604 -0.108248346 0.019699639 -0.007038002
0.10149002 0.118114986 -0.03216529 -0.07555938 -0.07525226 -0.034892052 -0.06803308 0.1123401
00000000: 1934 b6bb 83b3 f53d f668 9f3d 010f de3c
00000010: a649 e3bd 5e1f 6bbd 5996 563d 9d83 a2bd
00000020: 16dd 113d ff96 f93c df5f a5bd 1469 c33c
00000030: 3571 73bc c0d1 be3d 49ff e2bc 384e dc3d
00000040: d38a dd3d ca42 35bd d74a bb3c 424c 09bd
00000050: dffa cb3d cf4f 7b3d d473 4fbb 467c a03d
00000060: 2643 d6bd d16d fdbc d574 e23c 71c8 f3bd
00000070: 4831 dc3d 4ccd 353c 00dd eb3d d374 16bd
00000080: 16d3 0a3c 7161 09bd e532 52bd a846 40bd
00000090: 46cd af3d 6227 e33d d92c 143d f62b 8f3d
000000a0: 0c58 633d d119 13bb 7fef bfbd 231b 063d
000000b0: 9188 2bbd 89b4 4c3d 23af a8bd 4f09 01bc
000000c0: 96cb 5bbd 2022 e8bd 0346 eabd ffee e53d
000000d0: ba89 ac3a 4fb1 ddbd 2361 a13c 0a9f e6bb
000000e0: 00da cf3d 45e6 f13d c0bf 03bd e0be 9abd
000000f0: db1d 9abd f8ea 0ebd ed54 8bbd 9112 e63d

encoder.convs.0.nn.1.weight f4 [64]
1.0126616 1.0007539 0.9862684 0.9786506 0.9982877 1.0036739 0.98916215 1.0241919
0.99833 1.0018215 1.0216469 0.9877445 1.0329875 1.0103813 0.9943009 0.9801933
0.98415023 1.0160521 0.98106813 0.981226 0.994844 0.987092 0.97541064 0.9973341
1.0001874 1.0039493 0.9940753 1.000273 1.001339 0.9734575 1.0193912 1.0142871
0.99685556 0.9842817 0.99503136 0.99270356 1.0222487 0.99351263 0.9953829 1.005443
1.0148171 0.9877673 1.0027 0.9729655 0.98237205 0.9985749 1.0108821 0.99205893
0.9862107 1.0032312 1.0238951 1.0410465 0.9869882 1.0161167 1.0219586 1.0188801
1.0132655 1.0055491 1.0038025 0.9985379 1.0196601 0.99391073 0.9977965 0.9680979
00000000: e59e 813f b418 803f 167c 7c3f d988 7a3f
00000010: c88f 7f3f 6378 803f bb39 7d3f b818 833f
00000020: 8e92 7f3f b03b 803f 53c5 823f d3dc 7c3f
00000030: ef38 843f 2d54 813f 818a 7e3f f3ed 7a3f
00000040: 45f1 7b3f ff0d 823f 4827 7b3f a131 7b3f
00000050: 19ae 7e3f 10b2 7c3f 83b4 793f 4a51 7f3f
00000060: 2406 803f 6981 803f b87b 7e3f f208 803f
00000070: e02b 803f 8334 793f 697b 823f 29d4 813f
00000080: ed31 7f3f e3f9 7b3f 60ba 7e3f d221 7e3f
00000090: 0cd9 823f d856 7e3f 6ad1 7e3f 5bb2 803f
000000a0: 87e5 813f 51de 7c3f 7958 803f 4414 793f
000000b0: bc7c 7b3f 9ba2 7f3f 9664 813f 93f7 7d3f
000000c0: 4e78 7c3f e169 803f ff0e 833f 0341 853f
000000d0: 42ab 7c3f 1d10 823f 8acf 823f aa6a 823f
000000e0: afb2 813f d5b5 803f 9a7c 803f 2ea0 7f3f
000000f0: 3984 823f ef70 7e3f 976f 7f3f 44d5 773f

encoder.convs.0.nn.1.bias f4 [64]
0.009413672 0.01636453 -0.010750245 -0.020636369 -3.9417635e-05 0.01202351 0.0004476256 0.01755986
-0.013054682 0.0073393737 0.024001969 -0.0023773685 0.022062985 0.011711695 0.0022169629 -0.014414846
-0.029100692 0.032773957 -0.005003672 -0.028953984 -0.004779199 -0.004808484 0.0034586892 -0.0019700923
0.0030450302 0.006573695 0.015373422 0.0023984043 0.0036264397 -0.018787583 0.024490092 0.015720733
0.0024723783 -0.0066307085 0.012253967 0.0068483828 0.0049156826 0.0013698016 0.0008660457 0.011176589
0.0058322772 -0.022395104 0.0033409304 -0.011171631 -0.017866548 0.006120881 -0.008803486 -0.012419454
-0.016765274 0.013021086 -0.018893143 0.024903838 -0.015342236 0.018077636 0.025882732 0.008386307
0.0036429586 0.0059105675 -0.0012196145 0.017368136 -0.0015880499 -0.02720865 -0.0032882118 -0.00474982
00000000: cd3b 1a3c e80e 863c cc21 30bc 9a0d a9bc
00000010: 5d54 25b8 42fe 443c 4baf ea39 b2d9 8f3c
00000020: 4ee3 55bc 217f f03b c79f c43c a0cd 1bbb
00000030: 6fbd b43c 69e2 3f3c 774a 113b 3f2c 6cbc
00000040: 9364 eebc fc3d 063d d8f5 a3bb e830 edbc
00000050: d49a 9cbb 7d90 9dbb 2dab 623b aa1c 01bb
00000060: 218f 473b 2768 d73b cee0 7b3c 8c2e 1d3b
00000070: 90a9 6d3b 6be8 99bc 729f c83c c4c8 803c
00000080: a007 223b 6a46 d9bb ddc4 483c 6668 e03b
00000090: bc13 a13b ea8a b33a 5807 633a 031e 373c
000000a0: b01c bf3b f075 b7bc 83f3 5a3b 3709 37bc
000000b0: de5c 92bc ac91 c83b 7f3c 10bc f77a 4bbc
000000c0: 5457 89bc 6556 553c cbc5 9abc 2203 cc3c
000000d0: 005e 7bbc 8d17 943c 0608 d43c b966 093c
000000e0: b4be 6e3b 6fad c13b 79db 9fba 9f47 8e3c
000000f0: 1d26 d0ba ade4 debc 0a7f 57bb 61a4 9bbb

encoder.convs.0.nn.1.running_mean f4 [64]
1.5104479 -1.5784109 1.2852578 0.24988629 -1.0365014 0.89021623 -0.9572391 1.5478926
1.0169033 0.4752008 -2.3541894 -0.14495379 1.6847844 0.10579837 -0.30027747 -0.6700297
-0.41217905 -2.2911487 -0.5579 -2.20171 -1.0986234 -0.6749794 1.1519501 1.3422968
0.34327194 -0.3612757 1.0052392 -0.17404702 -0.83455205 -0.19305517 1.1132761 1.2011662
-1.8694369 0.007120792 -1.5308276 0.037613247 -0.2759684 1.2201539 -0.7967075 -0.09353528
0.3072398 -1.6722128 0.13105966 -1.0495093 -0.22388493 -1.5485241 1.3218757 -0.6042298
0.7105647 0.411408 -2.0422766 -2.341417 0.5522168 1.0196606 -2.0442958 -0.23433223
0.62138194 -1.7415469 1.0627302 -1.4133375 0.54945314 0.15681389 0.97551626 0.5867297
00000000: 5b56 c13f 5e09 cabf 5483 a43f 31e2 7f3e
00000010: 14ac 84bf 36e5 633f 9f0d 75bf 5821 c63f
00000020: e329 823f 854d f33e 0aab 16c0 c46e 14be
00000030: 04a7 d73f d1ac d83d f8bd 99be 1187 2bbf
00000040: 2209 d3be 2ea2 12c0 89d2 0ebf d1e8 0cc0
00000050: b19f 8cbf 73cb 2cbf 1a73 933f 62d0 ab3f
00000060: 57c1 af3e 21f9 b8be aeab 803f 6239 32be
00000070: 34a5 55bf 41b0 45be d57f 8e3f d0bf 993f
00000080: b549 efbf 8855 e93b 29f2 c3bf 5910 1a3d
00000090: bb4b 8dbe 012e 9c3f 06f5 4bbf 6d8f bfbd
000000a0: 894e 9d3e 120b d6bf 8134 063e 5256 86bf
000000b0: 1742 65be 0a36 c6bf 3933 a93f ceae 1abf
000000c0: 91e7 353f 12a4 d23e a9b4 02c0 c7d9 15c0
000000d0: 155e 0d3f 3d84 823f bed5 02c0 caf4 6fbe
000000e0: e312 1f3f 02eb debf 8b07 883f 3ee8 b4bf
000000f0: f6a8 0c3f d293 203e 6fbb 793f eb33 163f

encoder.convs.0.nn.1.running_var f4 [64]
0.5556087 0.6820438 0.49090067 0.24944037 0.42090458 0.24516265 0.34582123 0.64503276
0.34886086 0.18136737 1.1380352 0.14249058 0.69120044 0.13371506 0.15592486 0.27403906
0.27382842 1.1502646 0.17669433 0.9792856 0.4266586 0.34071168 0.40476504 0.4789295
0.2455296 0.18794267 0.31862867 0.13533854 0.29672313 0.22809374 0.30551022 0.46882176
0.82249767 0.17522249 0.61176866 0.11369698 0.20205757 0.36171445 0.28903458 0.23781201
0.1532424 0.6340334 0.21639964 0.43489012 0.24406348 0.5921663 0.45829317 0.25521162
0.31009603 0.17265926 0.76371676 1.156992 0.24574283 0.5105181 0.8660483 0.23176707
0.25425342 0.7801117 0.40129942 0.49508777 0.17219175 0.20562284 0.36794555 0.21013354
00000000: 5f3c 0e3f 6c9a 2e3f 5557 fb3e 4c6d 7f3e
00000010: ce80 d73e eb0b 7b3e 7b0f b13e de20 253f
00000020: e49d b23e 5eb8 393e 23ab 913f 0de9 113e
00000030: 83f2 303f 9aec 083e c4aa 1f3e d94e 8c3e
00000040: 3d33 8c3e df3b 933f 5cef 343e 76b2 7a3f
00000050: ff72 da3e c371 ae3e 5d3d cf3e 3f36 f53e
00000060: 1d6c 7b3e 0b74 403e 4c23 a33e 3096 0a3e
00000070: 18ec 973e 6891 693e d66b 9c3e 6809 f03e
00000080: 358f 523f 866d 333e df9c 1c3f f6d9 e83d
00000090: 2ee8 4e3e a332 b93e 57fc 933e fe84 733e
000000a0: 93eb 1c3e 0350 223f de97 5d3e eba9 de3e
000000b0: c7eb 793e 3698 173f 67a5 ea3e 19ab 823e
000000c0: e8c4 9e3e 97cd 303e f182 433f 5018 943f
000000d0: 02a4 7b3e 50b1 023f 57b5 5d3f 5954 6d3e
000000e0: 812d 823e 66b5 473f 1e77 cd3e 257c fd3e
000000f0: 0953 303e cb8e 523e 5c63 bc3e 3f2d 573e

encoder.convs.0.nn.3.weight f4 [64, 64]
-0.05036529 0.068012424 0.059182566 0.013137129 0.059475057 0.08711873 0.06092181 0.049188375
-0.11563487 -0.020047607 0.029783634 0.1164977 0.056536738 0.09614849 0.09263431 -0.05907804
0.022307567 0.114367716 0.024436558 0.07393854 0.058673155 -0.035753727 0.015357447 -0.09404012
0.10018518 0.017564552 0.0787052 -0.09266524 -0.090998136 0.006891417 -0.026950227 -0.06514123
0.0914532 -0.07974094 0.114852265 -0.12898363 0.029339235 -0.08026982 0.03865056 0.11263364
-0.022738962 0.050901216 -0.05475989 -0.058231235 -0.10260224 0.08202613 -0.0073520485 0.05220478
-0.105903774 -0.12854064 -0.0866662 -0.044591423 -0.023138717 -0.042879976 0.06814367 -0.06921347
0.13110678 -0.03009281 -0.11486544 0.11525786 -0.09982254 0.005775641 -0.0055713663 -0.036576115
-0.003742053 -0.12593587 0.12941118 -0.06492775 0.07747434 -0.07172324 -0.05023871 0.014041042
-0.055742472 -0.030638218 -0.12942657 -0.077091515 0.026419792 -0.018803746 -0.030038456 0.025979308
-0.023729865 -0.12567101 -0.035809696 0.02056233 0.051272687 0.040297136 0.032902792 0.09785071
-0.094436124 -0.13384497 -0.024665577 -0.010924013 0.079961345 -0.08770672 -0.066442065 0.015212657
0.018122043 -0.10482861 -0.061869457 -0.090630464 0.043251835 0.023139898 -0.11150843 -0.05812593
0.007905445 -0.04889239 -0.084499374 -0.04637403 -0.11646623 -0.0340018 -0.008889348 0.010631611
0.045169428 0.017433327 0.07623934 -0.058517084 0.064446405 0.03981874 -0.04250665 -0.11600351
-0.09081024 0.016301434 0.035262816 0.06529419 -0.052147806 0.11628743 0.116299465 -0.02849739
-0.041017685 -0.06665942 -0.0637833 0.0883936 0.035866484 0.054460667 0.07536546 -0.029478887
-0.012242168 0.14108208 -0.09437015 0.11938447 0.09777856 -0.039211083 -0.09006494 0.06350871
0.049897343 -0.066103905 0.050029084 0.014159632 0.114617206 0.037634995 0.020446995 -0.12777069
0.0896257 0.09878841 -0.04072334 -0.017794725 -0.030305218 -0.032801002 0.08848792 0.027516816
-0.12370602 0.040245354 -0.0893377 0.013353406 0.06745954 -0.05247279 0.07395619 0.023520151
-0.042272896 0.07784866 0.097880766 0.07935353 -0.067023344 -0.11459525 -0.110678 0.089149944
0.060985655 -0.049455088 0.040025026 0.003206193 -0.049061365 -0.00030092476 -0.10270876 -0.045974262
0.03925724 0.0015212611 -0.102789946 0.034027126 -0.041783113 -0.09951448 -0.09527033 -0.0039019817
-0.0976645 -0.060381442 0.041383408 0.02424346 -0.054979213 0.019035611 0.05412694 -0.041705437
-0.07049823 0.030972337 0.022326777 0.04268457 0.09927355 -0.011227344 0.03235209 -0.07675197
-0.004875198 0.099136606 -0.115227595 -0.07079842 -0.119405895 0.12100025 -0.0057427585 0.11776169
-0.08675516 -0.042501286 0.07879758 -0.11756658 -0.10851614 -0.09500688 0.0039735595 -0.117551185
0.022156512 0.09739788 -0.02064806 -0.032637548 -0.12672056 -0.027436566 0.012177851 0.024635663
-0.02529896 -0.05815638 -0.06426008 0.08785224 -0.07120833 0.01622527 -0.016824218 -0.059555527
-0.008120956 0.08576071 0.10109732 -0.02476611 -0.021462152 -0.087234594 -0.04943493 -0.033809606
0.105106175 0.026294604 -0.10540187 -0.022302488 -0.12135474 0.09765639 0.008268782 -0.013664249
00000000: d64b 4ebd 194a 8b3d 6b69 723d 1d3d 573c
00000010: 1e9c 733d 4e6b b23d 2689 793d c079 493d
00000020: fad1 ecbd e13a a4bc cffc f33c 5996 ee3d
00000030: 1193 673d 80e9 c43d 0fb7 bd3d d1fb 71bd
00000040: 5cbe b63c 9f39 ea3d 2d2f c83c 176d 973d
00000050: 4353 703d 8072 12bd cd9d 7b3c 1b98 c0bd
00000060: e32d cd3d 89e3 8f3c 3130 a13d 46c7 bdbd
00000070: 3b5d babd 65d1 e13b b9c6 dcbc c468 85bd
00000080: d14b bb3d 384f a3bd aa37 eb3d 4914 04be
00000090: d658 f03c 8164 a4bd 0d50 1e3d 77ac e63d
000000a0: 0f47 babc cb7d 503d e84b 60bd e083 6ebd
000000b0: 2021 d2bd 51fd a73d 74e9 f0bb aed4 553d
000000c0: 14e4 d8bd 28a0 03be 0c7e b1bd 7fa5 36bd
000000d0: 688d bdbc eaa2 2fbd e98e 8b3d cbbf 8dbd
000000e0: db40 063e 3285 f6bc 923e ebbd 500c ec3d
000000f0: c36f ccbd 9741 bd3b 0290 b6bb d6d0 15bd
00000100: 3b3d 75bb 55f5 00be 5d84 043e d7f8 84bd
00000110: deaa 9e3d a2e3 92bd 1bc7 4dbd 660c 663c
00000120: 3852 64bd 00fd fabc 6688 04be 28e2 9dbd
00000130: 526e d83c 500a 9abc 3513 f6bc 8fd2 d43c
00000140: 2265 c2bc e7af 00be 30ad 12bd 5572 a83c
00000150: 4f03 523d 9c0e 253d 14c5 063d f465 c83d
00000160: ba67 c1bd a80e 09be 770f cabc a2fa 32bc
00000170: c6c2 a33d 959f b3bd c712 88bd 823e 793c
00000180: ae74 943c 62b0 d6bd d46a 7dbd 779c b9bd
00000190: d628 313d e28f bd3c 885e e4bd 7515 6ebd
000001a0: d785 013c 6343 48bd 020e adbd b2f2 3dbd
000001b0: d985 eebd 7945 0bbd a1a4 11bc 3530 2e3c
000001c0: 9403 393d 56d0 8e3c 5f23 9c3d 9caf 6fbd
000001d0: 7afc 833d fa18 233d 741b 2ebd 4093 edbd
000001e0: b8fa b9bd 968a 853c be6f 103d f6b8 853d
000001f0: f098 55bd 1b28 ee3d 6a2e ee3d 5c73 e9bc
00000200: 2902 28bd bc84 88bd d2a0 82bd b407 b53d
00000210: bce8 123d 2612 5f3d 3559 9a3d b57d f1bc
00000220: 6093 48bc d277 103e 2345 c1bd d87f f43d
00000230: 2040 c83d cd9b 20bd f873 b8bd db10 823d
00000240: 2861 4c3d 7c61 87bd 4ceb 4c3d cdfd 673c
00000250: 6dbc ea3d 2727 1a3d 7580 a73c 52d6 02be
00000260: ae8d b73d 9451 ca3d 84cd 26bd 3ec6 91bc
00000270: a642 f8bc 585a 06bd 2839 b53d f26a e13c
00000280: 9559 fdbd 50d8 243d aff6 b6bd 3fc8 5a3c
00000290: 3a28 8a3d b5ed 56bd 5876 973d 55ad c03c
000002a0: 5826 2dbd 1e6f 9f3d b675 c83d 1b84 a23d
000002b0: 8943 89bd eab0 eabd 26ab e2bd 3f94 b63d
000002c0: 18cc 793d 6b91 4abd 48f1 233d fe1e 523b
000002d0: 92f4 48bd 70c5 9db9 f858 d2bd 824f 3cbd
000002e0: 33cc 203d 0d65 c73a 8983 d2bd 0760 0b3d
000002f0: c524 2bbd 3fce cbbd 171d c3bd 64b8 7fbb
00000300: 5304 c8bd 8852 77bd a681 293d 389a c63c
00000310: e231 61bd 92f0 9b3c 36b4 5d3d 52d3 2abd
00000320: 6061 90bd b3b9 fd3c a5e6 b63c 04d6 2e3d
00000330: ee4f cb3d e5f2 37bc a083 043d 2330 9dbd
00000340: 20c0 9fbb 2208 cb3d 72fc ebbd c3fe 90bd
00000350: 148b f4bd fbce f73d c02d bcbb 0a2d f13d
00000360: b0ac b1bd d415 2ebd a060 a13d bfc6 f0bd
00000370: b63d debd f892 c2bd a234 823b adbe f0bd
00000380: 9381 b53c 8a78 c73d 1f26 a9bc f3ae 05bd
00000390: 09c3 01be a6c2 e0bc 9c85 473c bbd0 c93c
000003a0: c43f cfbc 6235 6ebd ca9a 83bd e0eb b33d
000003b0: acd5 91bd dcea 843c f1d2 89bc 7ff0 73bd
000003c0: c20d 05bc 50a3 af3d 1d0c cf3d 4ce2 cabc
000003d0: 65d1 afbc 0da8 b2bd 487c 4abd f17b 0abd
000003e0: e841 d73d c867 d73c f0dc d7bd b5b3 b6bc
000003f0: d588 f8bd 1300 c83d c979 073c 04e0 5fbc

encoder.convs.0.nn.3.bias f4 [64]
0.06299639 0.10823333 0.07553657 -0.11743707 0.0039385124 0.107409716 0.08672592 0.0474015
-0.05835454 -0.10460284 0.12151613 -0.041072067 0.041279443 -0.033673216 -0.040692214 0.04610113
0.11385046 -0.02955398 0.05494887 0.04958097 -0.019315569 0.023199618 0.042204447 0.113870725
-0.048419993 0.095321 -0.008207153 0.04880399 -0.104873784 0.086197235 0.10574968 0.027532807
0.0030798232 0.03290463 -0.098150246 -0.10665304 0.09347735 -0.11499073 -0.02697446 -0.07495599
-0.11589554 -0.053216692 -0.0016249594 -0.099726565 -0.09406543 -0.10170765 -0.0043281047 -0.033769418
0.093941584 -0.11751483 -0.11026027 -0.039086465 0.1257691 0.10938646 -0.014014635 -0.037688363
0.017357312 0.0042098486 0.0112442495 -0.052356377 -0.0066298502 0.025249265 0.07464193 -0.07773014
00000000: 4004 813d 70a9 dd3d ebb2 9a3d d982 f0bd
00000010: a30e 813b a0f9 db3d 5c9d b13d 1328 423d
00000020: 2c05 6fbd 043a d6bd 73dd f83d 2f3b 28bd
00000030: a214 293d edec 09bd e1ac 26bd 8ad4 3c3d
00000040: 6e2a e93d 301b f2bc 1112 613d 6a15 4b3d
00000050: af3b 9ebc 200d be3c 92de 2c3d 0e35 e93d
00000060: 0b54 46bd a837 c33d 4b77 06bc b1e6 473d
00000070: 11c8 d6bd 2d88 b03d 4a93 d83d 7b8c e13c
00000080: dcd6 493b 01c7 063d ff02 c9bd e96c dabd
00000090: 0e71 bf3d 4380 ebbd 8bf9 dcbc 8782 99bd
000000a0: a45a edbd bff9 59bd 97fc d4ba 713d ccbd
000000b0: 60a5 c0bd 1a4c d0bd c6d2 8dbb cd51 0abd
000000c0: 7264 c03d 9dab f0bd 23d0 e1bd 2119 20bd
000000d0: 9dc9 003e 0206 e03d a49d 65bc 1d5f 1abd
000000e0: ec30 8e3c c5f2 893b cd39 383c a473 56bd
000000f0: 373f d9bb 8cd7 ce3c dedd 983d fb30 9fbd

encoder.convs.0.nn.4.weight f4 [64]
1.0241022 1.0023718 0.98543 1.0196637 0.97797376 1.0335352 0.9945832 0.9774352
1.0056807 0.99718434 0.9958984 0.99803174 1.0129328 1.0255024 0.9660138 1.010335
0.99729013 0.9998378 1.0115653 1.0035486 1.0325376 1.0146409 0.99671507 0.9926502
1.0047386 0.9833129 1.0148697 1.0052959 0.9946488 0.9704737 1.0268979 0.98341763
1.000925 0.9827954 1.0238407 1.0001452 0.9932175 0.96014297 1.0201577 1.0013413
1.0027498 0.998792 1.0211543 0.9877477 1.0055476 0.99311596 1.0293165 0.98337626
0.9933664 1.0019016 1.0078298 1.0116917 1.0096154 1.0057017 1.0016489 0.9965212
1.0082399 1.0046201 1.0040088 0.9929656 1.0096648 1.0082324 1.0098946 1.0181887
00000000: c815 833f b84d 803f 2445 7c3f 5784 823f
00000010: 7d5c 7a3f e24a 843f 019d 7e3f 3139 7a3f
00000020: 25ba 803f 7947 7f3f 33f3 7e3f 027f 7f3f
00000030: c8a7 813f aa43 833f ae4c 773f a852 813f
00000040: 684e 7f3f 5ff5 7f3f f97a 813f 4874 803f
00000050: 312a 843f c1df 813f b828 7f3f 531e 7e3f
00000060: 469b 803f 65ba 7b3f 40e7 813f 89ad 803f
00000070: 4ea1 7e3f f770 783f 6471 833f 42c1 7b3f
00000080: 4f1e 803f 7b98 7b3f 360d 833f c204 803f
00000090: 8143 7e3f eecb 753f 8794 823f f42b 803f
000000a0: 1b5a 803f d5b0 7f3f 2fb5 823f 09dd 7c3f
000000b0: c9b5 803f d93c 7e3f a5c0 833f 8cbe 7b3f
000000c0: 434d 7e3f 503e 803f 9100 813f 1d7f 813f
000000d0: 143b 813f d5ba 803f 0836 803f 031c 7f3f
000000e0: 010e 813f 6497 803f 5c83 803f fe32 7e3f
000000f0: b23c 813f c20d 813f 3a44 813f 0254 823f

encoder.convs.0.nn.4.bias f4 [64]
-0.0010440918 -0.006287974 0.021585166 0.0026005243 0.02759463 -0.0007731323 0.0141150765 0.033239763
-0.0043878844 -0.01336683 -0.006351471 -0.008370144 -0.0069909617 0.00256253 0.034264248 -0.0023159424
0.01732605 0.016974468 0.009709781 -0.014685838 0.0048314733 -0.0072471662 0.0110844495 0.010535988
0.009874917 -0.020328103 0.010177654 -0.0055316915 0.015367413 -0.031847402 0.004002354 -0.020199848
-0.014347342 0.021745767 0.005063357 0.012702521 -0.013039732 0.035517726 0.008072162 0.0072680404
-0.0060673044 -0.010403907 -0.0013202836 0.016690394 -0.003270819 -0.011790282 0.0038006774 -0.023805162
0.014087745 -0.012616734 -0.01179607 -0.0005400826 -0.0007525373 0.013097577 0.008990342 0.017248666
0.007994474 0.014604911 -0.011882223 0.01698453 0.008573827 -0.014903141 -0.012454923 0.0016673113
00000000: e8d9 88ba 590b cebb 60d3 b03c 8f6d 2a3b
00000010: 220e e23c 08ac 4aba ec42 673c 6b26 083d
00000020: 3ec8 8fbb 8c00 5bbc 0020 d0bb ee22 09bc
00000030: 7014 e5bb 1ff0 273b ab58 0c3d 11c7 17bb
00000040: 5cef 8d3c 0a0e 8b3c c615 1f3c de9c 70bc
00000050: 5651 9e3b a379 edbb 8d9b 353c 239f 2c3c
00000060: 67ca 213c 1f87 a6bc 2dc0 263c 3143 b5bb
00000070: 9ac7 7b3c 6c72 02bd 2e26 833b 277a a5bc
00000080: 1d11 6bbc 2e24 b23c 84ea a53b 3c1e 503c
00000090: 9aa4 55bc 097b 113d 1a41 043c be28 ee3b
000000a0: 3dd0 c6bb 2675 2abc 5e0d adba 4bba 883c
000000b0: 3d5b 56bb 072c 41bc c914 793b 0b03 c3bc
000000c0: 49d0 663c 6bb6 4ebc 4e44 41bc 5494 0dba
000000d0: ec45 45ba 3897 563c 3a4c 133c 134d 8d3c
000000e0: 41fb 023c 7049 6f3c a8ad 42bc 2423 8b3c
000000f0: 3d79 0c3c 4e2c 74bc bc0f 4cbc af89 da3a

encoder.convs.0.nn.4.running_mean f4 [64]
0.14864881 -0.3301 0.10425651 -0.4299496 0.17927116 -0.10424786 -0.13179131 -0.02134769
-0.025544465 -0.035314623 0.13150172 0.26329476 0.23620802 0.06829262 0.026590522 0.25222248
0.10648817 -0.120942906 0.14955528 0.23962477 -0.10482375 -0.41931576 -0.053722497 0.069226176
-0.2412175 -0.22436027 0.06723803 0.12023926 -0.039948296 0.13245784 0.095639154 -0.29799777
0.18425295 0.34483665 -0.18798538 -0.6827365 0.3866995 -0.14290696 -0.4743117 -0.272266
-0.42420673 -0.05960739 0.5302675 -0.1673954 0.17118952 0.14597997 0.18915258 0.05020787
-0.04755226 0.037048638 -0.03538745 -0.2738146 0.54522306 -0.2611442 -0.09727114 -0.38035876
0.07442385 -0.0042689927 -0.007602645 -0.14351787 0.14096272 0.4382945 0.03283096 -0.16763803
00000000: 6537 183e de02 a9be 7084 d53d 5b22 dcbe
00000010: dc92 373e e77f d5bd 4df4 06be 5ae1 aebc
00000020: a042 d1bc 11a6 10bd 63a8 063e 92ce 863e
00000030: 84e0 713e 00dd 8b3d 5ed4 d93c 4e23 813e
00000040: 7816 da3d eab0 f7bd 0525 193e 3260 753e
00000050: d6ad d6bd 8eb0 d6be 1f0c 5cbd 74c6 8d3d
00000060: b801 77be b3be 65be 18b4 893d 0040 f63d
00000070: d3a0 23bd 07a3 073e 76de c33d 2a93 98be
00000080: ceac 3c3e 6e8e b03e 3d7f 40be d2c7 2ebf
00000090: 7afd c53e 3456 12be fcd8 f2be 7366 8bbe
000000a0: a031 d9be e126 74bd 9cbf 073f b369 2bbe
000000b0: 4e4c 2f3e c67b 153e 37b1 413e c4a6 4d3d
000000c0: 29c6 42bd 50c0 173d 6ef2 10bd 6d31 8cbe
000000d0: bd93 0b3f b1b4 85be 1736 c7bd 62be c2be
000000e0: 886b 983d e8e2 8bbb 9c1f f9bb 59f6 12be
000000f0: 8858 103e 2368 e03e c279 063d 4ea9 2bbe

encoder.convs.0.nn.4.running_var f4 [64]
0.25921142 0.10017444 0.08689507 0.08265797 0.17635517 0.47393647 0.09849516 0.18041733
0.3772844 0.16780576 0.16929351 0.22505233 0.033703145 0.4574089 0.11357563 0.05370493
0.078716196 0.09086099 0.1814955 0.3171471 0.12140615 0.5994628 0.115880586 0.057029266
0.10277613 0.20809932 0.21004531 0.1715798 0.08895342 0.23364632 0.17090198 0.25498864
0.28973454 0.24488339 0.27148342 0.14419134 0.26000786 0.13355392 0.13429925 0.1359834
0.2021745 0.087637156 0.17196152 0.24622843 0.0793387 0.46902403 0.3032246 0.40941098
0.067441784 0.097933896 0.12900898 0.614249 0.12434761 0.25953475 0.09778295 0.21741712
0.097446166 0.14585567 0.094175175 0.12165053 0.08532697 0.30810544 0.24857287 0.16657317
00000000: 5cb7 843e 4228 cd3d 0bf6 b13d 9548 a93d
00000010: 7396 343e cda7 f23e d5b7 c93d 52bf 383e
00000020: 6c2b c13e 46d5 2b3e 475b 2d3e 1e74 663e
00000030: 4f0c 0a3d 8031 ea3e 579a e83d b3f9 5b3d
00000040: f535 a13d 5415 ba3d f5d9 393e 1b61 a23e
00000050: caa3 f83d 6576 193f cd52 ed3d 8597 693d
00000060: 4b7c d23d fd17 553e 1e16 573e 9db2 2f3e
00000070: 362d b63d fb40 6f3e ee00 2f3e df8d 823e
00000080: 1658 943e b6c2 7a3e e0ff 8a3e e5a6 133e
00000090: c01f 853e 5cc2 083e be85 093e 3b3f 0b3e
000000a0: d506 4f3e 1c7b b33d ae16 303e 4e23 7c3e
000000b0: 547c a23d eb23 f03e 4140 9b3e 519e d13e
000000c0: eb1e 8a3d 9191 c83d ee1a 043e 6c3f 1d3f
000000d0: f6a9 fe3d bde1 843e 6d42 c83d 98a2 5e3e
000000e0: db91 c73d 305b 153e eade c03d ea23 f93d
000000f0: e8bf ae3d ffbf 9d3e e389 7e3e 2892 2a3e

encoder.convs.1.nn.0.weight f4 [64, 64]
0.03914864 -0.07935658 0.08850366 0.0011751021 0.097901076 -0.0064530917 -0.087395065 -0.0042269435
-0.047864977 -0.07619302 0.007548442 0.044336572 -0.078549385 -0.041985337 -0.032369506 0.08810738
0.036676362 -0.03007027 -0.03240057 -0.02253382 -0.017627181 0.02955028 -0.06658025 -0.047582645
-0.08737627 0.12554735 -0.06142625 0.12049018 -0.00218118 0.009600282 -0.03071461 -0.0054079494
0.0007547675 0.028404916 -0.06676378 0.118358664 0.013400271 -0.015001753 -0.07259499 0.018599665
0.008142828 -0.028690316 -0.09519716 0.041113637 0.025619656 0.07953557 -0.06212813 0.11207314
0.09637396 0.040289015 0.101972565 -0.112413935 0.09869765 -0.0057121343 0.044545423 0.09513105
0.02750252 0.008540878 0.05769726 0.121227 -0.10467786 0.13071723 0.043810837 0.07291857
-0.009838354 -0.011275182 -0.015345351 -0.002873571 -0.122383766 0.09903566 0.06388712 -0.13657969
0.062457748 -0.08068734 -0.030773582 0.104543634 -0.00044110266 0.07982177 0.078255326 0.01507485
-0.107010104 0.09105533 -0.0677671 -0.08372558 -0.0346383 0.11665029 -0.03274893 0.046203967
0.044234704 -0.08172771 0.015612536 0.108340874 0.10101221 -0.008277235 0.018736288 0.078549944
-0.029112134 -0.033118017 0.0627808 0.0737004 0.02819027 -0.037293144 -0.09430313 -0.01011341
-0.057920523 -0.008852985 -0.017444262 0.03901167 0.10617634 0.008394219 0.023942793 -0.047968477
-0.076935515 -0.11048934 0.02448201 0.038879916 0.1288489 0.09138661 0.005249402 -0.037733912
0.1043715 -0.100166805 -0.00538303 0.03960199 -0.1121757 0.09171994 -0.030961609 0.12734725
-0.026530193 -0.06266793 0.051421914 -0.08228851 -0.09246979 -0.023567095 0.10374565 0.04475041
0.082972236 -0.0693753 -0.00074003835 -0.03291861 0.115834415 0.028933156 -0.13361178 0.0015441737
-0.066166475 0.029780664 0.053841293 -0.060630534 -0.11440252 -0.012166404 -0.10631901 0.11421661
-0.045206428 -0.027396115 0.07348022 -0.026068252 -0.012815185 -0.13042592 0.055319548 0.09604864
-0.14005797 0.09003105 0.09398533 0.06809306 0.0052939765 -0.009908634 0.10064002 0.058412887
-0.07772239 -0.064911656 0.08632783 -0.054411903 -0.049411234 -0.0783781 0.042671904 -0.044485
0.12043385 -0.057090685 0.03579657 -0.06309027 -0.10830657 -0.120459914 -0.006513885 -0.01689391
0.05624895 0.14320433 0.05777595 -7.881446e-05 0.08183544 -0.12993558 0.100913264 -0.09771711
0.07689024 -0.056419898 0.13274924 0.04806693 0.077193074 0.056253318 -0.050260503 0.001459117
0.05154566 0.070544995 0.020646032 0.11732222 -0.014849986 -0.07580365 0.052430864 0.107751206
0.094449565 -0.06763134 0.0077431006 0.07055279 -0.017490169 0.07423404 -0.10570244 0.062087197
-0.027896727 0.020329468 -0.0047912886 -0.06919881 0.052066922 0.03402552 -0.004841226 0.11823159
0.111955196 -0.052005675 -0.026384339 -0.031201571 -0.069517 -0.104340255 -0.055824395 -0.044554334
-0.018445533 -0.0047525736 0.11096064 0.008298853 0.06972388 -0.10918789 -0.009857532 0.010138806
0.051166836 0.08837131 0.08722215 0.027713126 0.07048137 0.078103706 0.108272925 0.052701645
-0.053942498 0.092044905 0.030411692 0.0684276 0.05032622 0.053748522 0.052782208 0.09868916
00000000: 535a 203d b485 a2bd 6841 b53d e205 9a3a
00000010: 5c80 c83d 7574 d3bb 2ffc b2bd 2c82 8abb
00000020: 110e 44bd 160b 9cbd ec58 f73b 449a 353d
00000030: 80de a0bd d1f8 2bbd e395 04bd a471 b43d
00000040: f439 163d ed55 f6bc 76b6 04bd d898 b8bc
00000050: e166 90bc 6e13 f23c 3a5b 88bd 05e6 42bd
00000060: 54f2 b2bd 7c8f 003e 179a 7bbd 8ec3 f63d
00000070: 21f2 0ebb 804a 1d3c 359d fbbc 2b35 b1bb
00000080: 97db 453a 6db1 e83c 73bb 88bd 0766 f23d
00000090: cf8c 5b3c eac9 75bc afac 94bd 535e 983c
000000a0: 7f69 053c f407 ebbc bbf6 c2bd c666 283d
000000b0: 50e0 d13c 8ce3 a23d 117a 7ebd 9a86 e53d
000000c0: b65f c53d 1806 253d fed6 d03d 4739 e6bd
000000d0: fe21 ca3d db2c bbbb 4375 363d 11d4 c23d
000000e0: f74c e13c 0aef 0b3c f653 6c3d dd45 f83d
000000f0: 5961 d6bd bdda 053e fe72 333d 5556 953d
00000100: 0c31 21bc 8abb 38bc 116b 7bbc 8552 3cbb
00000110: 57a4 fabd 35d3 ca3d 40d7 823d 8cdb 0bbe
00000120: b2d3 7f3d 673f a5bd e118 fcbc f91a d63d
00000130: cc43 e7b9 9979 a33d 5444 a03d 81fc 763c
00000140: 1d28 dbbd 387b ba3d 7ac9 8abd 5178 abbd
00000150: e4e0 0dbd 59e6 ee3d be23 06bd 5f40 3d3d
00000160: 732f 353d dc60 a7bd b9cb 7f3c d2e1 dd3d
00000170: 7ddf ce3d 3d9d 07bc d87c 993c cbde a03d
00000180: 927c eebc c2a6 07bd 3893 803d 3cf0 963d
00000190: 48ef e63c b2c0 18bd 0022 c1bd b7b2 25bc
000001a0: 123e 6dbd 1c0c 11bc 45e7 8ebc b3ca 1f3d
000001b0: fb72 d93d e887 093c ad23 c43c 987a 44bd
000001c0: 5e90 9dbd 3c48 e2bd 7f8e c83c 8c40 1f3d
000001d0: f7f0 033e e728 bb3d 2d03 ac3b e08e 1abd
000001e0: bac0 d53d 4124 cdbd 2164 b0bb b235 223d
000001f0: 60bc e5bd aad7 bb3d 33a3 fdbc 5167 023e
00000200: d955 d9bc 0b58 80bd c99f 523d e186 a8bd
00000210: cd60 bdbd c80f c1bc 9978 d43d 354c 373d
00000220: 59ed a93d a314 8ebd 22ff 41ba aad5 06bd
00000230: 983a ed3d 3a05 ed3c 87d1 08be df65 ca3a
00000240: 4a82 87bd 94f6 f33c b088 5c3d b957 78bd
00000250: de4b eabd 9955 47bc c8bd d9bd 66ea e93d
00000260: 602a 39bd d16d e0bc cc7c 963d 168d d5bc
00000270: c8f6 51bc 5f8e 05be c096 623d 26b5 c43d
00000280: 5b6b 0fbe 3362 b83d 617b c03d 6074 8b3d
00000290: 1879 ad3b d357 22bc 5b1c ce3d 5a42 6f3d
000002a0: eb2c 9fbd 67f0 84bd a5cc b03d 04df 5ebd
000002b0: 6f63 4abd b384 a0bd bcc8 2e3d e735 36bd
000002c0: 06a6 f63d ecd7 69bd 6d9f 123d 7935 81bd
000002d0: d6cf ddbd b0b3 f6bd 6e72 d5bb 1965 8abc
000002e0: 4d65 663d 28a4 123e 79a6 6c3d 3149 a5b8
000002f0: 5799 a73d d50d 05be 9dab ce3d e81f c8bd
00000300: a178 9d3d 8d18 67bd 6bef 073e d4e1 443d
00000310: 6717 9e3d e169 663d f5dd 4dbd d83f bf3a
00000320: 8b21 533d e579 903d de21 a93c a246 f03d
00000330: 5b4d 73bc f23e 9bbd bfc1 563d aaac dc3d
00000340: c66e c13d 4d82 8abd d6b9 fd3b fb7d 903d
00000350: 8b47 8fbc 0408 983d 857a d8bd 254f 7e3d
00000360: ad87 e4bc fc89 a63c 3e00 9dbb 1bb8 8dbd
00000370: 2044 553d 585e 0b3d 26a3 9ebb 6723 f23d
00000380: c448 e53d e703 55bd f823 d8bc 709a ffbc
00000390: ee5e 8ebd 58b0 d5bd 1fa8 64bd 9b7e 36bd
000003a0: 161b 97bc 7abb 9bbb 553f e33d eaf7 073c
000003b0: 65cb 8e3d e79d dfbd 7c81 21bc 3c1d 263c
000003c0: 5194 513d 04fc b43d 87a1 b23d a306 e33c
000003d0: 8958 903d d6f4 9f3d 32be dd3d aedd 573d
000003e0: cff2 5cbd 0a82 bc3d f121 f93c c523 8c3d
000003f0: de22 4e3d 6927 5c3d 2832 583d 8b1d ca3d

encoder.convs.1.nn.0.bias f4 [64]
0.030366398 -0.0974398 -0.057468567 -0.10612234 -0.05485026 0.091292955 -0.010851793 -0.12400964
-0.0046401727 -0.009943128 0.06625964 0.098693885 0.116389684 -0.029519312 -0.05364999 -0.029868253
-0.039442748 -0.09460694 0.039429687 0.104650356 -0.07081834 0.007583495 0.07052485 0.11536329
0.0679747 -0.042680047 -0.01657112 -0.047819752 -0.044694364 -0.08194717 0.015869845 0.07088821
0.017357215 -0.023053803 0.123325504 -0.10646464 0.11990083 -0.043439057 -0.04566534 -0.12466504
-0.09313387 0.050883796 -0.102408625 -0.10563643 0.0475554 0.04060431 0.0014347468 0.088935085
-0.08388462 -0.0024172945 -0.104020596 0.05819431 0.08721349 0.01580091 0.043949306 0.12433879
-0.035033826 -0.11140335 0.061400086 -0.033606324 0.10968156 -0.035626944 -0.065421306 -0.0064563286
00000000: f4c2 f83c 858e c7bd 2964 6bbd ab56 d9bd
00000010: abaa 60bd cdf7 ba3d b8cb 31bc c4f8 fdbd
00000020: 970c 98bb 80e8 22bc 22b3 873d 0520 ca3d
00000030: b75d ee3d 7cd2 f1bc 18c0 5bbd 44ae f4bc
00000040: b88e 21bd 49c1 c1bd 0681 213d ed52 d63d
00000050: 3509 91bd f87e f83b 556f 903d 9743 ec3d
00000060: 5236 8b3d 46d1 2ebd 28c0 87bc a5de 43bd
00000070: 7011 37bd ebd3 a7bd 7a01 823c d62d 913d
00000080: b830 8e3c 54db bcbc 1592 fc3d 220a dabd
00000090: 918e f53d 27ed 31bd 940b 3bbd 6250 ffbd
000000a0: f8bc bebd 876b 503d 9dbb d1bd ea57 d8bd
000000b0: 73c9 423d b450 263d 1d0e bc3a 9923 b63d
000000c0: b3cb abbd 796b 1ebb c008 d5bd 285d 6e3d
000000d0: fc9c b23d e970 813c 3004 343d 56a5 fe3d
000000e0: a17f 0fbd 7127 e4bd a87e 7b3d c9a6 09bd
000000f0: baa0 e03d 8fed 11bd 9bfb 85bd 9c8f d3bb

encoder.convs.1.nn.1.weight f4 [64]
0.9901377 1.0007732 0.9975025 1.025501 0.9751604 0.9909913 1.0040442 1.0003406
0.9902702 0.9902091 0.9782702 0.9990594 0.9867135 1.0127656 0.9617498 1.0042313
1.0022255 1.0098827 0.9891349 0.9829446 0.974319 0.9995163 1.0365343 1.0283455
0.9964184 1.0085075 1.0295203 0.9685407 1.005218 0.983083 1.0019094 1.0005263
1.00765 1.0014553 0.9824348 0.98761827 0.98863775 1.0120919 0.99253494 1.0108409
0.9887507 1.0094738 0.99981666 1.0016658 1.0345275 0.9816758 0.98101526 1.0123438
0.997992 0.9903852 1.0087483 1.0140543 0.99948126 1.016173 0.99197555 1.0139406
1.0130956 1.0023143 1.0107161 0.9902394 0.98792285 0.9980344 1.0060987 1.0313531
00000000: aa79 7d3f 5619 803f 535c 7f3f 9e43 833f
00000010: 1da4 793f 9bb1 7d3f 8584 803f 290b 803f
00000020: 5982 7d3f 587e 7d3f ea6f 7a3f 5bc2 7f3f
00000030: 4299 7c3f 4ea2 813f 3c35 763f a78a 803f
00000040: ed48 803f d643 813f f237 7d3f 42a2 7b3f
00000050: f86c 793f 4de0 7f3f 28ad 843f d3a0 833f
00000060: 4715 7f3f c616 813f 52c7 833f 49f2 773f
00000070: fcaa 803f 54ab 7b3f 913e 803f 3f11 803f
00000080: adfa 803f b02f 803f d980 7b3f 8dd4 7c3f
00000090: 5d17 7d3f 3a8c 813f c516 7e3f 3c63 813f
000000a0: c41e 7d3f 7036 813f fcf3 7f3f 9636 803f
000000b0: 666b 843f 1b4f 7b3f d123 7b3f 7b94 813f
000000c0: 677c 7f3f e289 7d3f aa1e 813f 88cc 813f
000000d0: 01de 7f3f f511 823f 1cf2 7d3f cec8 813f
000000e0: 1ead 813f d64b 803f 255f 813f 5480 7d3f
000000f0: 83e8 7c3f 2f7f 7f3f d8c7 803f 6103 843f

encoder.convs.1.nn.1.bias f4 [64]
-0.01574279 0.0133575415 -0.0033080215 -0.007168308 -0.03369268 -0.017425427 -0.0009479698 0.00054696994
-0.015798181 0.00042373608 -0.019165704 -0.0040695667 -0.02640973 0.0089239 -0.037297457 0.011468041
-0.0046137795 0.002033791 0.0016237949 0.0014703581 -0.024512418 0.006805042 -0.0022170898 0.023345098
0.013615525 0.018157344 -0.020757567 -0.026513357 0.027114164 0.0036797326 0.0061078304 0.0020268476
0.0153081035 0.015492723 -0.010158082 -0.012711679 -0.00034717695 0.01470093 -0.01943474 0.028346932
-0.015360607 0.01749515 0.0068660444 0.015074682 0.017264755 -0.014681814 -0.02221583 0.01767265
-0.0009274865 -0.015589035 0.019298453 0.019313974 0.013925228 0.017407922 -0.0026433968 0.010467827
0.0055185007 -0.0045104227 0.015204598 -0.017722176 -0.0075912517 -0.0016740736 0.0017151432 0.019212162
00000000: 06f7 80bc 97d9 5a3c 64cb 58bb 20e4 eabb
00000010: 5601 0abd c5bf 8ebc 2d81 78ba 8862 0f3a
00000020: 306b 81bc e528 de39 6501 9dbc 005a 85bb
00000030: 3859 d8bc 8d35 123c 38c5 18bd 73e4 3b3c
00000040: 302f 97bb 5a49 053b 84d5 d43a 08b9 c03a
00000050: 44ce c8bc d4fc de3b 984c 11bb 383e bf3c
00000060: a713 5f3c b6be 943c c60b aabc 8a32 d9bc
00000070: 861e de3c ab27 713b 3224 c83b dcd4 043b
00000080: d7ce 7a3c 31d5 7d3c 156e 26bc a544 50bc
00000090: 4d05 b6b9 2bdc 703c 9b35 9fbc d337 e83c
000000a0: 0eab 7bbc fd51 8f3c 8efc e03b cdfb 763c
000000b0: d16e 8d3c fe8b 70bc f9fd b5bc 3cc6 903c
000000c0: 9122 73ba 2769 7fbc ca17 9e3c 5738 9e3c
000000d0: a426 643c 0f9b 8e3c d73c 2dbb 4081 2b3c
000000e0: 8ad4 b43b 2bcc 93bb b51c 793c 192e 91bc
000000f0: 09c0 f8bb 976c dbba a8ce e03a d362 9d3c

encoder.convs.1.nn.1.running_mean f4 [64]
0.9863067 1.3732964 0.022222063 2.2726033 -1.6410193 -1.5974091 0.01614678 0.9718723
0.6085256 -0.03969979 1.2289432 -0.83497053 1.209865 0.6136739 -2.1283753 3.7881222
0.22079979 0.72887766 0.6716107 1.3715649 0.7634166 -1.0063558 2.1087627 2.6571722
0.9853521 1.2814531 1.7770084 -0.6983054 0.19289163 -1.1638825 -1.2726527 -0.33255935
0.50373733 -0.44415158 3.2763135 0.7996302 0.64572227 -0.66442823 -1.6945724 -1.6128478
-0.1330851 -1.9718468 -0.44219548 -2.3633978 3.0762198 -0.73844105 -0.975838 -0.933679
-1.4909879 0.29984322 -2.493962 -0.020665465 -0.5697272 1.7841712 0.4654914 0.41156074
-1.0428522 2.489522 1.9286847 -0.12056256 -1.3275479 -0.41816434 0.2718707 1.6294172
00000000: 997e 7c3f 2dc8 af3f 0b0b b63c 5572 1140
00000010: ec0c d2bf e777 ccbf 4146 843c a0cc 783f
00000020: 55c8 1b3f 3f9c 22bd 034e 9d3f a1c0 55bf
00000030: dbdc 9a3f bc19 1d3f 4d37 08c0 9870 7240
00000040: 5719 623e ba97 3a3f aeee 2b3f 708f af3f
00000050: 456f 433f 44d0 80bf f8f5 0640 1c0f 2a40
00000060: 0940 7c3f a806 a43f 0375 e33f 25c4 32bf
00000070: 6285 453e 1afa 94bf 49e6 a2bf 3845 aabe
00000080: eef4 003f d667 e3be 1faf 5140 91b4 4c3f
00000090: 0e4e 253f f817 2abf c0e7 d8bf cc71 cebf
000000a0: 7647 08be 7a65 fcbf 7267 e2be e941 17c0
000000b0: c9e0 4440 790a 3dbf 85d0 79bf 9605 6fbf
000000c0: b1d8 bebf 0d85 993e 139d 1fc0 9f4a a9bc
000000d0: a4d9 11bf b95f e43f e454 ee3e 17b8 d23e
000000e0: 2e7c 85bf 5454 1f40 24df f63f 81e9 f6bd
000000f0: 17ed a9bf a319 d6be a332 8b3e be90 d03f

encoder.convs.1.nn.1.running_var f4 [64]
2.938006 5.422441 4.856809 4.7614665 5.7694817 2.737162 3.790243 6.0044436
4.478205 3.810278 5.7558703 3.0399563 4.2357254 4.3531523 4.254584 7.7633643
3.238854 4.223784 3.4838083 3.01428 3.6311474 5.2671323 4.2213016 5.415787
3.0067225 4.986332 4.3233175 2.2070174 4.869608 4.3279533 3.3775182 4.2516456
3.791321 2.950434 7.312949 3.9852147 2.6882012 2.966333 4.9158278 4.742259
2.7331429 6.6163654 3.8255997 3.77594 5.5166078 3.6527386 3.1166081 3.178386
4.288544 4.720051 11.845898 4.977717 3.4654396 4.186198 3.7175648 3.3563323
3.0255075 6.815234 5.9412856 2.96058 5.355213 3.907771 3.3563726 3.3714623
00000000: 4a08 3c40 a384 ad40 fb6a 9b40 ef5d 9840
00000010: 989f b840 aa2d 2f40 5793 7240 6724 c040
00000020: 754d 8f40 98db 7340 1730 b840 a58e 4240
00000030: 108b 8740 064d 8b40 8d25 8840 7b6d f840
00000040: 6249 4f40 3d29 8740 b7f6 5e40 f7e9 4040
00000050: b864 6840 598c a840 e714 8740 214e ad40
00000060: 246e 4040 0890 9f40 9e58 8a40 c63f 0d40
00000070: d4d3 9b40 987e 8a40 4229 5840 7b0d 8840
00000080: 01a5 7240 e9d3 3c40 ae03 ea40 c20d 7f40
00000090: 7d0b 2c40 66d8 3d40 764e 9d40 96c0 9740
000000a0: d0eb 2e40 44b9 d340 a0d6 7440 00a9 7140
000000b0: 0d88 b040 78c6 6940 8276 4740 ad6a 4b40
000000c0: c13b 8940 a80a 9740 cc88 3d41 7549 9f40
000000d0: c3c9 5d40 56f5 8540 95ec 6d40 26ce 5640
000000e0: eaa1 4140 6616 da40 031f be40 257a 3d40
000000f0: e85d ab40 ec18 7a40 cfce 5640 0ac6 5740
