checkpoints/tuning/trial_15/final_model.pt (torch, 520443 bytes, 104 tensors)

encoder.feature_encoder.atom_embedding_list.0.weight f4 [119, 64]
000000 26 29 f0 3d f1 33 ee bd be 31 98 bc cd 79 b4 3e
       0.117265984 -0.11631001 -0.018578406 0.35249177
000010 69 d9 db 3d 9c 84 36 be 53 9b 99 be 30 57 8a 3d
       0.10734827 -0.17824024 -0.30001315 0.06754911
000020 5d d9 18 3e a3 0d 36 be 97 a5 82 bd 36 bd bc be
       0.14926668 -0.1777864 -0.0637924 -0.36863106
000030 19 a3 f0 3d 1a 13 40 be 55 bb 1f 3e d6 74 ac be
       0.117498584 -0.18757287 0.15598805 -0.3368289
000040 7c 96 46 3d a8 6e 4a 3e 2e 7f 0c 3e e0 56 6e 3e
       0.048483357 0.19768775 0.1372039 0.23275328
000050 25 eb d1 be d9 ba 57 bd b7 d6 17 be 88 ed db bd
       -0.40999714 -0.052668426 -0.14828001 -0.10738665
000060 ec 77 33 3d 0d 70 93 be 9a 5d 05 be ac 38 1f bd
       0.04381554 -0.28796425 -0.13023987 -0.038872406
000070 7f 47 22 bd 7e cd 28 3e 2d 39 34 be 6a a5 8c bd
       -0.039618965 0.16484639 -0.17599936 -0.06867488
000080 f8 3c e8 3d fc 3c 85 3d b9 dc 0d be 41 50 fc bd
       0.11339754 0.065057725 -0.1385373 -0.12319995
000090 47 af 08 3e a8 ca 99 3d e4 12 87 bd f3 51 13 3d
       0.13348113 0.07509357 -0.065954 0.035966825
0000a0 1d 1f f4 bd ad e1 b5 3c 56 2b 58 bd 0d 7f cb 3d
       -0.11919997 0.022202337 -0.052775703 0.099363424
0000b0 22 42 11 be 10 56 9f 3d 81 11 ae 3e 2c 14 53 bd
       -0.14185384 0.07780087 0.3399773 -0.05153291
0000c0 1b 1e da 3e 9a f8 c7 be ee e5 35 be 3f a0 51 3d
       0.42601094 -0.39056855 -0.17763492 0.051178213
0000d0 a1 4b b1 3e c5 93 6b bd 96 c3 7c 3e ec d3 9d bd
       0.34628013 -0.05751397 0.24683985 -0.077064365
0000e0 78 04 d0 3e 37 49 3a bd 35 36 4c bc 64 dd 4f 3d
       0.4062841 -0.04547998 -0.012464096 0.050748244
0000f0 76 b6 25 be e3 63 15 be e8 55 91 bd 42 59 cd bd
       -0.16182885 -0.14588885 -0.070964634 -0.1002679
000100 3a f8 49 be 24 a5 3c bd 64 b1 27 bd 70 c4 ba 3d
       -0.19723597 -0.046055928 -0.040940657 0.09119499
000110 a0 df e8 3e ca 3a f9 3d a9 41 fc 3d cf 25 f9 bd
       0.45483112 0.12169416 0.12317211 -0.121654145
000120 97 46 af be cb 82 bf 3d b0 e4 b6 be d3 cf cb 3d
       -0.34233543 0.09351119 -0.3572135 0.09951749
000130 3f 04 52 3d fa ea 0b be 1b 10 99 3e 3a 37 99 3d
       0.05127358 -0.13663855 0.298951 0.07481237
000140 a0 fc b5 3e ea fd c7 3d 81 05 7d bd 26 53 37 be
       0.355443 0.09765227 -0.061772827 -0.17902812
000150 61 a4 de 3e f2 45 f5 bd 76 76 d0 bc 90 35 42 be
       0.43484786 -0.11976232 -0.025447112 -0.18965745
000160 25 d4 75 3e 05 15 30 be c0 ba 79 3e 28 af ba bd
       0.24006708 -0.17195518 0.24387646 -0.0911544
000170 f2 f1 72 be 6c 24 15 bd 2b b1 42 bd 0d 84 07 3f
       -0.23725107 -0.036411688 -0.04753224 0.5293587
000180 c8 0d 69 3e ee 17 71 be b1 6d e8 3d 8e 30 2a be
       0.22759163 -0.23544285 0.11349047 -0.16620085
000190 99 85 47 3e d0 ac b6 3d c0 93 5a 3e 0e 13 ba 3d
       0.19484557 0.0891968 0.21345425 0.09085666
0001a0 0d 6c 88 bc f7 7f e8 3d 4f a8 20 be 22 42 7e be
       -0.016653085 0.11352532 -0.15689205 -0.24829915
0001b0 7e 87 ab 3c 47 f2 10 be 39 cb 0d 3e c0 56 61 be
       0.020938631 -0.14154921 0.13847055 -0.22005749
0001c0 30 9c 3b be e7 ee 55 3e 01 f9 42 3e 4b aa 82 3e
       -0.183213 0.20891915 0.190403 0.25520548
0001d0 96 a9 71 3e 3e 60 12 be 43 b0 52 bc c8 c0 7f 3d
       0.23599848 -0.14294526 -0.012859407 0.06243971
0001e0 73 93 df 3d 0b 1c ac bd 45 ec a5 3d cb bb 4a 3e
       0.109167956 -0.08403786 0.081017055 0.197982
0001f0 22 39 44 be a1 c3 78 3e 8a c0 94 3e fa b8 79 bd
       -0.1916242 0.24293377 0.29053146 -0.060967423
000200 b1 f9 03 be 78 9f 14 3e 47 8b 9b 3c 5e f3 44 be
       -0.12888218 0.14513958 0.018987311 -0.19233462
000210 df 86 e3 3d f8 e7 8d be 99 42 00 bd c3 ff 8f bd
       0.11109709 -0.2771604 -0.031313512 -0.070312046
000220 10 91 f9 bd fc 83 84 3d 0c 59 e3 bd 86 ec 1c 3e
       -0.121858716 0.064704865 -0.11100969 0.15324602
000230 83 ac a2 3d 67 5c 80 3d fe ac 04 be 63 99 a8 3d
       0.0794306 0.06267624 -0.12956616 0.08232381
000240 89 08 34 3d 3c a4 bf 3e cc 28 5c be 39 95 de bd
       0.043953452 0.37429988 -0.21499938 -0.10868306
000250 7f ec 45 be 17 2b 05 be a8 38 93 bc a9 23 04 be
       -0.19328497 -0.13004719 -0.017971352 -0.12904228
000260 06 b3 d9 bc a6 61 30 3e 8a 7d 5d be 14 2b 1d 3e
       -0.026574623 0.1722475 -0.2162992 0.15348464
000270 3d 8e 61 3d 74 bc f1 bd f7 52 76 3d 04 da d2 bd
       0.05506729 -0.11803523 0.060137715 -0.102954894
000280 fc d2 53 be dc d7 07 be 5b f4 36 bd af 84 20 bd
       -0.20685953 -0.13265938 -0.04466663 -0.039189037
000290 7e 8a 06 3c e0 f4 8e bd 72 1d 9a bc 47 74 31 be
       0.00821173 -0.069803 -0.018812869 -0.17329513
0002a0 fb 03 e1 bc 53 3b 1e 3e 7b 5a 89 3d ea e2 10 3e
       -0.027467718 0.15452318 0.06706711 0.14149061
0002b0 d8 ae af bd 95 78 04 3e 3f c9 4a be e0 ff 2c 3e
       -0.08578271 0.12936623 -0.19803332 0.16894484
0002c0 ff ec bb 3d ea ee ca bd 78 9a f4 bd 41 e9 14 be
       0.09176063 -0.099088505 -0.11943525 -0.14542104
0002d0 fe 82 88 bd fe 23 8c bc fe b3 56 be b2 f9 9a 3d
       -0.0666561 -0.017107006 -0.20967099 0.07567157
0002e0 54 8c 08 3e d7 a3 46 bb 7b 3d c2 bd 5a c3 dd 3d
       0.13334781 -0.0030310059 -0.09484383 0.10828276
0002f0 e6 e8 8e bd 12 15 0c be e9 53 d5 3c a8 08 33 be
       -0.069780156 -0.13679913 0.026040988 -0.17483771
000300 51 81 0d be 99 38 0a 3e 8d bf 17 3e b8 c4 00 be
       -0.13818862 0.13498153 0.14819165 -0.12575042
000310 d1 d2 20 3d 16 fd be bd dc 7b 2d 3e 32 5f e2 3d
       0.03926355 -0.09325616 0.1694178 0.11053313
000320 d6 6c 93 3d 7a 26 17 be 5e 61 b6 bd 06 d9 1b bd
       0.07198493 -0.14760771 -0.0890529 -0.038048767
000330 94 c0 25 be 82 b3 d8 bd 45 3f 43 3d f8 eb 16 be
       -0.16186744 -0.105811134 0.04766776 -0.14738452
000340 2e 50 45 3d 39 92 87 bb 8d 48 74 bc 3a 9f 58 bd
       0.04817217 -0.004137304 -0.014909876 -0.052886225
000350 93 46 c7 bd 48 55 2d be a9 53 fc bd b8 02 0c 3e
       -0.09730258 -0.16927063 -0.123206444 0.13672912
000360 22 e0 5b bc 3b 87 34 3e 59 61 1c 3c ed d1 ae bc
       -0.013420137 0.17629711 0.009544694 -0.021340335
000370 be 5d de 3d f4 8a 2e be 1e d4 e5 bd 74 b4 d4 3d
       0.10857724 -0.17045194 -0.11222099 0.10385981
000380 f7 67 41 bd 52 ac 12 3e 83 6d 87 bc 87 35 04 3e
       -0.04721829 0.14323547 -0.016531711 0.12911044
000390 5a 0f 10 3c ed 05 9a 3c 87 96 1c be 4d 22 80 bd
       0.008792723 0.018801654 -0.15291797 -0.06256542
0003a0 f9 b9 14 3c 3c 6a a9 3d 95 e2 0f 3d bc 01 21 bd
       0.009077542 0.08272216 0.035128195 -0.039308295
0003b0 64 36 a0 3a 41 5e 1f 3e 33 59 f7 3d af 0c 7d 3d
       0.0012223241 0.15563299 0.1207756 0.061779674
0003c0 aa 9a 05 be 89 5b 79 bd f9 bb ec 3d f3 e2 26 3e
       -0.13047281 -0.06087831 0.115592904 0.16297512
0003d0 62 4a af bd 35 8c 9d 3d 87 a5 2d bd c3 38 eb 3d
       -0.08559109 0.07692758 -0.042394187 0.11485436
0003e0 e4 dc de bc 28 5e 13 be 5a 83 37 be 3a 49 de bb
       -0.027204938 -0.14391387 -0.179212 -0.0067836316
0003f0 51 a0 5a 3d 48 95 da bd 16 dc 11 3e 4a e0 af 3d
       0.053375546 -0.106730044 0.14244112 0.085877016

encoder.feature_encoder.atom_embedding_list.1.weight f4 [5, 64]
000000 32 d9 82 be 41 f4 8c 3c cf dd bc 3d a6 4b 27 3e
       -0.25556332 0.017206313 0.09221994 0.16337451
000010 44 8e 98 3d 7a c2 56 3e 5b 95 5e 3e 52 d1 06 3e
       0.0744901 0.20972624 0.21736662 0.13165787
000020 7c c8 1a be 92 15 73 3e 5a 06 4a 3e 96 d6 ff 3d
       -0.15115541 0.23738697 0.19728985 0.12492101
000030 57 09 46 bd 44 8d 38 3d 9d b5 d0 bd 49 95 6f 3c
       -0.04834875 0.045056596 -0.1019089 0.014622995
000040 5e a3 36 3e 57 8d c9 bd 2d db 34 bd d6 99 65 be
       0.17835757 -0.098414116 -0.044154335 -0.22421965
000050 d8 bb d4 bd d9 1d 73 be c4 c4 30 bd 3f ee 9c be
       -0.10387391 -0.23741855 -0.0431564 -0.30650517
000060 fa 56 d8 bd ed 65 00 3e 23 c0 27 3e c1 29 6d be
       -0.105634645 0.12538882 0.16381888 -0.23160459
000070 1d ba 10 ba 8f a0 7f 3c 91 81 89 be 74 bc 61 bd
       -0.0005520897 0.015602245 -0.26856664 -0.055111364
000080 51 8c 31 3e e9 10 9c 3c a3 87 4f 3e 68 c7 48 be
       0.17338683 0.019051032 0.20266585 -0.19607317
000090 3e 3e af be a5 52 7c be c1 e8 06 be d8 f0 33 bd
       -0.34227175 -0.24640901 -0.13174726 -0.04393086
0000a0 85 6f 1f 3e 21 ae bf be 31 10 2c be ce ae 7e bd
       0.15569885 -0.37437537 -0.16803052 -0.062178425
0000b0 75 2c 53 3e 66 ac 10 3e 29 53 e1 bd eb 8d 73 3e
       0.20622428 0.14128265 -0.1100219 0.23784606
0000c0 f7 5c 80 3d 9a d9 51 3d 2c 43 2e bd 3b 7b 21 be
       0.06267732 0.05123291 -0.04254453 -0.15769665
0000d0 40 36 d2 3c f0 b1 3d bc 57 c9 2a 3e c6 97 02 bd
       0.025660634 -0.011578068 0.16678368 -0.031883024
0000e0 89 33 e0 bd dd bc c1 3d ce bd b6 bc 06 b4 22 3d
       -0.109473296 0.09459851 -0.022307303 0.039722465
0000f0 ae 4d 23 be 29 c4 93 bd c7 13 87 3e ce 41 bf 3d
       -0.15947601 -0.07215149 0.26382276 0.09338723
000100 ae 57 d8 3e 3a 8a ae be 99 fa 5a be e0 21 41 be
       0.42254394 -0.34089833 -0.21384658 -0.18860579
000110 9c 34 8a 3d 24 bb 43 bc 8e 73 2c be 19 1c 2e be
       0.06748316 -0.011946473 -0.16840956 -0.17002906
000120 07 3b 90 3d 55 02 69 be 7d a3 b3 bd 93 2b 06 3d
       0.070425086 -0.22754796 -0.08771417 0.0327564
000130 1e 68 3a 3e fd d0 8f bd 19 0e 6f be ea fc 0d bb
       0.1820378 -0.07022283 -0.23345222 -0.002166564
000140 f6 7f d9 3d 15 54 a9 3e b4 20 cc 3d 0d 43 72 be
       0.1062011 0.33071962 0.09967175 -0.2365839
000150 39 3b e2 3d bc 45 b3 be 09 68 a6 be d3 32 c4 bd
       0.11046452 -0.3501414 -0.32501248 -0.095800065
000160 d6 98 80 3e 8d 64 a5 be 82 d0 9d 3d 1c c8 b6 bd
       0.25116605 -0.32303277 0.07705785 -0.089248866
000170 63 5b 92 be e9 96 64 be f7 53 7d be 0e 06 46 3d
       -0.28585348 -0.22323193 -0.24739061 0.048345618
000180 aa 5f 3c 3e 16 9a 7f bb 2c 0a 25 be 23 06 84 3d
       0.18395868 -0.0039001754 -0.16117162 0.06446483
000190 84 be 20 3f c3 ee f0 bd b8 aa 2c be c2 ca 1b 3e
       0.62790704 -0.1176429 -0.16861999 0.15214065
0001a0 a0 ad 28 bd a7 ba aa bd 68 a6 c6 be f7 29 0b bd
       -0.041181207 -0.08336382 -0.38798833 -0.033975568
0001b0 49 91 c0 bd 26 fc bd be 92 2a 47 3e 8a c0 8a be
       -0.09402711 -0.37106436 0.19449833 -0.2710002
0001c0 f6 ff 63 3e 81 f9 6b be c2 de ed bd 1e bf 9c bd
       0.2226561 -0.23044397 -0.11614753 -0.0765364
0001d0 84 33 b0 3e b6 ba b3 bd 10 fc 80 3e c6 31 6a be
       0.34414303 -0.08775847 0.25192308 -0.2287055
0001e0 3c 8c 1f be ba 8e 1d 3e 71 18 a8 be 48 8d 19 3c
       -0.15580839 0.15386477 -0.32831147 0.009372063
0001f0 5f 5a a7 be 35 a0 9d 3d 82 0f 3c 3e 61 6b 4e be
       -0.32686135 0.07696573 0.18365291 -0.2015815
000200 69 f4 c6 bb e3 45 14 3d b8 2d 07 3c f2 6b 64 3e
       -0.0060716164 0.03619946 0.008250646 0.22306803
000210 bb f0 2c be be b6 08 3e 42 08 8b 3e 3b de 58 be
       -0.16888706 0.1335096 0.27154738 -0.21178524
000220 5e 7d 6c be ed 16 cc 3d 45 5e d6 bd 12 e6 d9 bb
       -0.23094699 0.0996531 -0.10467199 -0.006649741
000230 18 d1 8c be f0 6c 38 3e 28 78 9f bc 81 7e 94 3c
       -0.27503276 0.18010306 -0.019466475 0.018126728
000240 59 e8 d1 bd 24 a0 d1 3d 29 70 9e bb 4d aa f0 bd
       -0.10249395 0.102356225 -0.004835148 -0.11751232
000250 7e ff 95 3d 57 37 e0 bd 59 1b e0 3d 91 95 90 be
       0.07324122 -0.10948055 0.10942716 -0.2823911
000260 87 a7 e9 bd c8 df 4e be a1 72 00 3e 1c 05 54 be
       -0.114089064 -0.20202553 0.12543727 -0.20705074
000270 b7 f0 69 3e d2 06 93 3d 1b 0b 39 3e d1 f3 44 be
       0.22845732 0.07179035 0.18070643 -0.19233634
000280 8d 45 75 be 17 30 46 bd d6 e4 25 be 95 89 cc bd
       -0.23952313 -0.048385706 -0.16200575 -0.09987179
000290 00 31 78 3e 07 5f 21 3e 8f 69 b2 bd 2a 57 37 3e
       0.24237442 0.15758906 -0.0871154 0.17904344
0002a0 99 3c 4a be d9 71 2f be bf ba 05 3e 07 58 02 3e
       -0.19749679 -0.17133273 0.13059519 0.12728892
0002b0 92 98 ae bd 52 0a 4e be fa c3 3c 3d 6d a0 91 3e
       -0.08525194 -0.20121124 0.046085335 0.28442708
0002c0 18 93 94 3e 07 b5 77 3e a1 6b 62 be d4 24 48 3e
       0.29018474 0.2419015 -0.2211137 0.19545299
0002d0 93 2b 5d 3d a2 11 75 be 09 21 9b 3c 8e c8 91 be
       0.053996634 -0.23932508 0.01893665 -0.28473324
0002e0 32 a0 81 3d b8 04 26 be 06 26 4b be df 10 6b 3c
       0.06329383 -0.16212738 -0.19838724 0.014347284
0002f0 5b a4 4b 3e 13 77 29 3e e8 d7 3a be 10 bc 2b 3e
       0.19886915 0.1654933 -0.18246424 0.16770959
000300 ca ae e0 3d c8 8e 49 be 29 c0 9b bd 60 b3 90 bd
       0.10970838 -0.19683373 -0.07605011 -0.07065463
000310 2f 68 75 be cd be 89 be 82 07 4d be 7a 3b 89 3e
       -0.23965524 -0.26903382 -0.20022395 0.2680319
000320 3e 71 a0 bd df dc e7 3c 7f b9 7a be 4e bd 4f bd
       -0.07834099 0.028303562 -0.24484824 -0.050717644
000330 1e 25 e4 3d 5d ca c3 bb 49 d0 bd bc 7d b0 80 bb
       0.11139892 -0.0059750513 -0.023170607 -0.003927289
000340 09 03 4b 3e 07 b3 54 be 04 90 87 be 24 67 91 be
       0.19825377 -0.20771419 -0.26477063 -0.28399003
000350 48 8b f5 3d f6 2e 28 be d4 0b 04 be 6c bc 1f bd
       0.119894564 -0.16424164 -0.12895137 -0.038998052
000360 7e 00 31 3e 40 f1 27 3b 62 66 6c 3d f9 9d a9 bd
       0.17285344 0.0025625974 0.057714827 -0.08282084
000370 18 51 24 3e a8 9e 16 be db bc 68 3e aa 88 78 3e
       0.1604656 -0.1470896 0.22728293 0.24270883
000380 1f cb 87 be 10 34 bf bd 41 86 11 bd b5 93 22 be
       -0.26522157 -0.09336102 -0.035528425 -0.15876658
000390 7e af 81 3c 60 32 c6 bd 1f f7 79 3e ae 17 bf bc
       0.015830752 -0.09677577 0.24410675 -0.023326721
0003a0 a8 c5 28 be c6 eb 15 be 35 15 8d be 91 90 39 be
       -0.1648165 -0.14640722 -0.27555242 -0.18121554
0003b0 b2 7b 6a 3d 42 67 b6 3d 5f 1f 02 be 24 9b 44 3b
       0.05724687 0.089064136 -0.1270728 0.0029999698
0003c0 17 7d 17 3e bb a2 1f 3d cc 0c 08 3d 8b 11 46 be
       0.14793812 0.03897355 0.03321533 -0.1934263
0003d0 11 ed 8d 3e 66 45 b2 bd c6 42 c7 3c 55 b9 14 bd
       0.2771993 -0.08704643 0.024323832 -0.03630956
0003e0 fc 29 03 3e 7c 17 7a be 91 6a 89 3d ae 5c 6a be
       0.12808985 -0.24423021 0.06709779 -0.22886917
0003f0 f9 51 6e 3e c2 06 ee bd 92 8c 76 3d 7a d7 9f 3c
       0.23273458 -0.11622383 0.060192652 0.019511927

encoder.feature_encoder.atom_embedding_list.2.weight f4 [12, 64]
000000 9f ef 76 bd 7e e9 27 be 76 17 d4 be 8a f6 20 be
       -0.060287114 -0.16397664 -0.4142415 -0.15719047
000010 19 64 d1 3e 88 73 91 be f4 c2 21 3e fa ca b8 be
       0.4089668 -0.28408456 0.15797025 -0.3609236
000020 79 aa d1 bb 8d d9 89 3e 78 55 73 be 5c 03 91 be
       -0.0063984958 0.2692379 -0.23763072 -0.28322875
000030 ef 0b 60 3d 45 cc ac bd b9 e4 55 be 92 68 56 bf
       0.05469888 -0.08437399 -0.20888032 -0.8375331
000040 37 0c b5 be 18 64 0e be f7 ce 0a 3f ab f8 99 3d
       -0.35360882 -0.1390537 0.54222053 0.07518133
000050 6c 21 e6 bd f4 c8 15 be 9b cf 9c bd da 3b 1c 3d
       -0.112368435 -0.14627439 -0.07656785 0.038143016
000060 0e 12 36 3e 43 e5 22 bd 02 9e 89 3e 74 f0 7d 3e
       0.17780325 -0.039769422 0.26878363 0.24798757
000070 81 1a 48 be 61 1b 00 3f 19 bc 29 be cd 18 d7 3e
       -0.1954136 0.50041777 -0.1657566 0.4201111
000080 31 4e c7 3e 7a 2c 6c bd 8c 05 f6 bd ad 09 5f 3e
       0.38926843 -0.057659604 -0.12012777 0.21781035
000090 f8 7b 7b 3e 06 56 fe 3c 7b e1 04 3f 50 71 3a be
       0.24559009 0.031046879 0.51906556 -0.18207288
0000a0 fb 00 bf bd 8f 83 8d 3d 2b 86 ce 3d 5d ce 87 3d
       -0.09326359 0.069098584 0.10084184 0.066311575
0000b0 7c 49 59 be 32 6f 8e 3d 4f 40 96 3e 4b 3a ab be
       -0.21219438 0.069548026 0.2934594 -0.33442912
0000c0 bb f9 9f 3e c7 ae c2 bc 79 e6 43 3e 77 7d 44 3e
       0.31245217 -0.023764981 0.19130887 0.19188486
0000d0 5a ae 83 3e d9 3a 76 be 8c a2 93 3e 3f 64 1c be
       0.25718957 -0.24045886 0.2883495 -0.15272616
0000e0 83 98 14 3f 99 4c 95 bd 24 c0 d5 3d 45 6f a8 3e
       0.58045214 -0.072900005 0.104370385 0.32897392
0000f0 b8 cb 51 bc 67 22 01 be a4 cf 22 3e 52 16 ae be
       -0.012804918 -0.1261078 0.15899521 -0.34001404
000100 32 ea 97 be 35 f0 44 bd 09 d1 6f 3e a3 3e 3a 3d
       -0.29670864 -0.04808064 0.23419584 0.04546989
000110 2f 26 f6 3e 53 9c 9b bc ab 85 48 be 85 04 1c bf
       0.48076007 -0.01899544 -0.1958224 -0.60944396
000120 54 e5 83 be 49 67 47 3d 92 46 5f 3e dd 41 55 bd
       -0.257609 0.048682485 0.21804264 -0.052064765
000130 64 b7 95 be ed 18 c4 be c2 87 b9 3e 60 bd 25 3e
       -0.29241478 -0.38300267 0.36236387 0.16185522
000140 56 62 71 bc 9a 9b e2 3e ae c2 f4 bd 07 9f 84 3d
       -0.014732918 0.4425934 -0.11951195 0.064756446
000150 25 6b 4e 3e 53 9f b3 3d 10 fa 57 be 84 65 61 be
       0.2015806 0.08770623 -0.21091485 -0.22011381
000160 ec d0 8c bd 25 d3 a1 be 9f 53 02 be 5c 9b ac 3d
       -0.06875786 -0.31606403 -0.12727211 0.0842807
000170 a6 35 f8 bd a1 7a 4b 3e 09 89 29 be ca 3a bf 3e
       -0.121196076 0.19870998 -0.16556181 0.3734954
000180 43 ae 09 3e b9 62 b0 3c b4 10 fc 3d 87 c8 a3 be
       0.13445382 0.02153145 0.12307873 -0.31988928
000190 a4 34 19 be 4c fc 58 3e e0 70 92 3e 5a 48 84 bc
       -0.14961487 0.21189994 0.28601742 -0.016147781
0001a0 d3 b6 d7 bb 4b 8d aa bd af b0 b3 be d8 57 42 3e
       -0.0065830736 -0.08327731 -0.35095736 0.18978822
0001b0 9e 62 17 be 05 62 34 be d3 04 23 be 2a e0 51 be
       -0.14783713 -0.17615516 -0.15919809 -0.20495668
0001c0 28 30 95 3d fc da dd be e3 6a ab be 83 11 25 3c
       0.07284576 -0.43331134 -0.33479986 0.010074976
0001d0 c8 ba 47 3e 5d bd 49 be 3c 3a af 3d 6a b5 23 be
       0.19504845 -0.19701143 0.08556029 -0.15987173
0001e0 90 3d 92 3e 28 1f 73 3e 38 08 37 3d d9 d8 1f be
       0.28562593 0.23742354 0.044685572 -0.15610065
0001f0 9d 82 90 3e cf a2 a1 be 08 6b 6f 3e 48 cc 22 bb
       0.2822465 -0.31569526 0.23380673 -0.0024841
000200 c3 b8 7f be 81 88 fd bc bb ba 22 3e a7 d7 8b bd
       -0.24972825 -0.03094888 0.15891545 -0.06828242
000210 d7 ad c0 bd 0e ba 84 3e e2 9b d2 be a2 ec 0d bd
       -0.09408157 0.25923198 -0.41134554 -0.0346495
000220 2e 53 85 be 61 6e 0c 3d cb b3 3b be c8 fa 50 3d
       -0.26040024 0.034284953 -0.18330304 0.051020414
000230 0d d3 fc bd 4b 94 c4 bd 47 6d 22 3e 4a 6e e6 be
       -0.12344942 -0.09598597 0.15861998 -0.4500602
000240 f0 9c 94 ba 63 ef b4 be a9 52 2d bd dd 82 45 3d
       -0.0011338275 -0.35338888 -0.04231516 0.048220504
000250 fd 7f 4e 3d 53 09 43 3c 07 d7 e3 bd 39 b6 28 3e
       0.050415028 0.011904079 -0.111249976 0.16475762
000260 b5 01 88 3e 61 c7 53 bd 8e 18 24 bd a2 3b ce bc
       0.26563802 -0.051703814 -0.04006248 -0.02517492
000270 88 78 c6 3e 84 f8 0f be c8 e0 7f 3e c4 e9 eb 3c
       0.38763833 -0.14059645 0.24988091 0.028797992
000280 35 85 79 3e 79 a9 7c be a2 f6 22 3e 7f 93 48 bd
       0.2436722 -0.24674024 0.15914395 -0.04896879
000290 42 00 ba be fe 15 e5 3d 80 9c 1f 3e 34 72 30 be
       -0.36328322 0.11185835 0.15587044 -0.17231065
0002a0 94 65 af bd e5 d5 5a be c3 90 1f bc 17 34 2c 3e
       -0.08564296 -0.21370657 -0.009739104 0.16816746
0002b0 b2 63 09 3f d2 4c d0 3d 7c 1b 2e be b3 29 f3 be
       0.5366775 0.10170902 -0.17002672 -0.4749275
0002c0 35 e3 78 be e2 fb 5d be e4 37 95 be cf 35 b1 bd
       -0.24305423 -0.21678117 -0.29144204 -0.08652841
0002d0 f2 34 84 3e 00 31 62 be bb 79 bc bd db 1a 29 be
       0.25821644 -0.22089005 -0.09202906 -0.16514151
0002e0 0f 49 44 be ff 47 f3 3d 37 a8 5b 3e d1 cf aa 3e
       -0.19168495 0.118789665 0.21450888 0.33361676
0002f0 e1 70 24 bf 5f 4c fb 3a 9e 07 09 bf f7 d3 0b 3e
       -0.6423474 0.0019172541 -0.5352725 0.13655077
000300 02 5c 19 3e e7 e8 07 3e 59 a2 94 be 29 65 0b be
       0.14976504 0.13272439 -0.2903011 -0.13612808
000310 76 53 cd 3d 71 73 5b 3e 4a 46 6d 3e 4f 56 96 3e
       0.100256845 0.21430756 0.23171344 0.29362723
000320 1b 38 0c be 9b 8d 86 be 10 cb c4 3d 5a f0 12 be
       -0.13693278 -0.2627991 0.096090436 -0.143495
000330 ec 52 09 3e b3 43 cc bd 81 40 05 3e 8d 4f c2 3e
       0.13410538 -0.0997385 0.13012888 0.37951317
000340 2b cd 25 be 0e eb 45 3d fb fc dc bd fa b3 8f 3d
       -0.16191547 0.04831987 -0.1079044 0.0701675
000350 db 20 33 3e 43 10 1c 3d 32 d1 c5 bd d3 c9 9f bd
       0.17493002 0.038101446 -0.096590415 -0.07802167
000360 9a e6 fb be 3d 02 27 be 64 5b 55 be 0b f8 cf 3d
       -0.49199373 -0.16309448 -0.20835644 0.10154732
000370 15 2c 12 3e ef d9 9d 3d 23 24 0d be a4 e7 a4 3e
       0.14274628 0.07707583 -0.13783316 0.32207978
000380 b3 c8 91 be 22 95 43 be 02 5e f2 3d f0 e6 3f bd
       -0.28473434 -0.19099858 0.11834337 -0.0468511
000390 bf 79 f5 bd 0d bb bb bc cc e3 95 be 3d 08 78 be
       -0.11986112 -0.022916341 -0.29275358 -0.24221893
0003a0 6f 93 1e be 0f 13 7c bd 86 08 17 3e 69 67 ee bd
       -0.15485929 -0.061541613 0.14749345 -0.11640818
0003b0 f6 0d 0f bf e3 59 a6 be ea 94 b0 3e 80 8d f6 bd
       -0.5588068 -0.32490453 0.34488612 -0.12038708
0003c0 75 79 fe bd 83 f3 12 be 5f 1d 2a 3e 87 d9 91 3b
       -0.1242551 -0.14350705 0.16612767 0.00445098
0003d0 04 6d 09 be 98 9f 45 3e 6d fe 55 bd cf d2 5c 3c
       -0.13420492 0.19299161 -0.052244592 0.013477995
0003e0 27 ed 4f 3e fd f0 0a 3d c7 38 bc bc 64 8e 03 3d
       0.2030531 0.03392123 -0.022976292 0.032118216
0003f0 bf 6d 60 3e 73 d6 81 be 55 fe ae 3e c3 6f 3a be
       0.21916865 -0.25358924 0.34178415 -0.18206696

encoder.feature_encoder.atom_embedding_list.3.weight f4 [12, 64]
000000 7b b3 b9 3d 91 f0 a0 bd 3f 67 23 3e 54 83 a2 3e
       0.09067436 -0.078583844 0.15957354 0.3174082
000010 1b 3b 24 3f 02 ac be 3e 4f 31 82 be f9 a6 a7 be
       0.6415269 0.37240607 -0.25428244 -0.32744578
000020 11 b3 5d be 11 4c d6 3e d0 98 4c 3d 59 56 c8 bd
       -0.2165034 0.4185491 0.04995042 -0.097820945
000030 a9 3f 48 3d 7b 59 69 be 5f da 1a be 58 c1 b1 3c
       0.048888836 -0.2278804 -0.15122364 0.021698639
000040 9d b7 4f 3e 17 78 8c be f7 89 b2 be 2b 3c 12 3d
       0.20284887 -0.2743537 -0.34870884 0.035701912
000050 fd dc 96 3e de c5 85 be 94 92 ab 3d 5d 1c af bd
       0.29465476 -0.26127523 0.08377567 -0.08550332
000060 99 65 25 3e fe bf fb 3d 7f 38 db bc 0b 15 01 bd
       0.16152038 0.12292479 -0.026760338 -0.03151421
000070 7e 12 98 be 4e 84 ca 3e ae 47 ba bd 6a 81 58 bc
       -0.29701608 0.39554065 -0.09095703 -0.0132144485
000080 fe f5 e5 3e e5 46 32 3d cf 09 60 3d 81 55 a2 be
       0.4491424 0.04352464 0.054696854 -0.3170586
000090 65 18 59 be 76 d6 62 3d 09 48 e5 3d 64 0f dd 3d
       -0.21200712 0.055380307 0.1119538 0.10793951
0000a0 19 65 34 3e 76 7c b3 be 85 69 e5 bc 16 05 33 3e
       0.1761669 -0.35055894 -0.028004417 0.17482409
0000b0 ce 65 a6 bd 10 78 9e be 63 8f cd bd 61 57 e4 be
       -0.081248865 -0.30950975 -0.100371145 -0.44597915
0000c0 10 10 08 3d e0 b9 8e be ca 1f 06 bf 36 42 9a 3e
       0.033218443 -0.27876186 -0.52392256 0.3012864
0000d0 53 83 b7 3d 9c 99 4d 3d 26 32 da 3e f9 f1 8e be
       0.08960595 0.05019532 0.42616385 -0.27918985
0000e0 b4 a4 70 3e ee 7a 6b 3d 0c 0e 1b 3e 92 5b f3 3e
       0.2350033 0.05749028 0.15142077 0.475308
0000f0 f7 f6 97 be 4c 8a 3c 3e 27 ea 47 3e 59 9f 15 bf
       -0.29680607 0.18412131 0.19522916 -0.5844627
000100 ca 05 8e 3c ec df e3 3d 98 df 45 3e 08 95 07 3d
       0.017336745 0.11126694 0.19323575 0.03310111
000110 9e 6d d1 3d 80 cd e6 be 9a 11 39 be b2 e9 62 3d
       0.10225986 -0.4507866 -0.1807312 0.05539865
000120 c0 fc 77 3e 00 6b 37 be 8d 29 d2 bd ac f5 1a be
       0.2421751 -0.17911911 -0.102618314 -0.15132779
000130 9f 84 b0 bd 25 32 ff 3e b3 9d 9c 3e 55 81 d9 bd
       -0.086190455 0.49842945 0.30589065 -0.10620371
000140 28 d3 8b 3e d0 ff bf 3e 63 61 e4 bd af 5f a9 3e
       0.27309537 0.37499857 -0.111513875 0.33080813
000150 28 14 18 bd 20 56 53 3e f5 08 a1 be 9e 17 ee bc
       -0.037128597 0.20638323 -0.31452146 -0.029063996
000160 17 45 00 be 8d 8a f4 3d 5b f8 98 3e 33 27 60 bd
       -0.12526356 0.11940489 0.2987698 -0.054724883
000170 9e 7c 08 3e d5 da 97 bd d1 03 38 be 2f e1 98 3e
       0.13328788 -0.07414786 -0.17970206 0.298593
000180 d5 66 33 be 37 08 c5 bc 5f 52 31 be 99 a8 b7 be
       -0.17519696 -0.024051769 -0.17316578 -0.35870817
000190 0a 8f 55 3e 41 e5 95 bd a9 29 43 bd 08 2c 61 be
       0.20855346 -0.07319117 -0.047647152 -0.21989453
0001a0 a2 1e fc 3d b3 f4 00 3e 25 93 18 3e 30 9c 28 3c
       0.1231053 0.12593345 0.14899881 0.010291144
0001b0 ee 7e d3 be 52 2b d8 bd cf a9 ed 3e fc c7 8d 3e
       -0.41307777 -0.10555138 0.46418616 0.27691638
0001c0 02 17 be 3e 41 87 e9 bd c7 b2 11 be a6 09 e3 3e
       0.3712693 -0.11402751 -0.14228354 0.443433
0001d0 59 72 05 3f a8 a5 6e be 20 d2 a4 bc e8 40 5a be
       0.52127606 -0.2330538 -0.020119727 -0.21313822
0001e0 19 c7 91 3e 89 40 5e 3e c5 f2 a5 be 89 cb 28 bd
       0.28472212 0.21704306 -0.3241178 -0.04120973
0001f0 4e f0 93 be 2e a5 8d bd 5e 86 4f 3e 94 74 26 be
       -0.28894275 -0.06916271 0.20266101 -0.16255409
000200 04 e1 70 bd 7f 98 12 be d0 dd 83 3e 01 8a 9d be
       -0.05880834 -0.14315985 0.25755167 -0.3076935
000210 e6 98 c5 be 52 63 6a be 25 9a 85 be c0 06 65 3e
       -0.38593215 -0.2288945 -0.26094165 0.22365856
000220 1e fb 01 3e 5f cf 96 3d 91 bc 00 3e 57 1c 8f bd
       0.1269345 0.07363772 0.12571932 -0.06987827
000230 7e fa bb bd c3 9a 85 be b0 dc df 3d 83 c6 10 be
       -0.09178637 -0.26094636 0.10930765 -0.14138226
000240 c5 e9 b8 3d d1 b6 5b bc 27 61 e6 bd d6 b8 72 3e
       0.09028963 -0.013410286 -0.11248999 0.23703322
000250 68 fb 8d 3e 1a 0c 8b bd 35 51 aa bd 45 45 7f be
       0.2773087 -0.067894176 -0.0831627 -0.24928768
000260 69 74 4d 3e 4d 47 1a be 4a 9a df be a7 bc 6c 3e
       0.20063938 -0.15066262 -0.436724 0.2311884
000270 ea 50 14 3c 93 05 08 3e 99 e0 83 be 50 7f 6d be
       0.009052495 0.13283376 -0.25757292 -0.23193097
000280 1a 36 18 3d 0b f4 07 3e ab 68 5a be d9 ab 54 be
       0.03716097 0.13276689 -0.2132899 -0.2076868
000290 f8 b4 aa 3c 33 f5 54 be 3b ff b4 bd 3a fd b5 3d
       0.020838246 -0.20796661 -0.08837744 0.0888619
0002a0 30 2f 42 be b3 a5 30 be 9e b4 8e be 12 0a 34 be
       -0.18963313 -0.17250709 -0.27872175 -0.17581967
0002b0 08 08 2c be 82 60 e6 3d c7 4f 11 be 60 64 ce 3d
       -0.16799939 0.11248876 -0.14190589 0.10077739
0002c0 d3 89 8b be a0 69 9b be 1a f9 57 be a0 0e 83 be
       -0.2725359 -0.30354023 -0.21091118 -0.25597095
0002d0 3d 75 c9 bd 6f 39 30 be 02 cb 9e 3c 15 7a 17 be
       -0.098368146 -0.17209409 0.019383911 -0.14792664
0002e0 e4 de 55 3e 97 f5 9a be 2c d5 c2 be 81 0d 63 3d
       0.20885807 -0.30265495 -0.38053262 0.0554328
0002f0 80 2b 77 be df 74 9c bc c6 be 86 be ae 02 93 bc
       -0.24137688 -0.019098697 -0.26317424 -0.017945614
000300 f8 70 18 be c3 ac a2 bc 4d e6 3e 3e 16 ac 20 3e
       -0.14886844 -0.01985777 0.1864254 0.15690646
000310 90 81 1a be 9c 56 07 bf b5 6e b2 3c 36 eb 95 3d
       -0.15088487 -0.5286653 0.021781305 0.073202536
000320 ea d0 3d be 8d ee 64 3e 48 cb 1d be 6c 08 86 3e
       -0.18536726 0.22356625 -0.15409577 0.261783
000330 4a 16 0d bd 09 a1 1a be 63 46 a7 be f0 38 99 3d
       -0.034445085 -0.15100493 -0.32670888 0.07481563
000340 4e fc 96 be f9 31 34 3e d8 7c 10 be 36 4e 86 be
       -0.29489368 0.17597188 -0.14110124 -0.26231545
000350 4f 0b 8d be d1 46 0b 3e 9e 32 54 3e dc f3 82 be
       -0.2754769 0.13601233 0.20722434 -0.25576675
000360 df 27 37 3e 07 99 e4 3d 93 b5 46 3e bf bf 38 be
       0.17886303 0.11162 0.19405203 -0.18041895
000370 02 5a b4 bd 20 ff 3b be 01 08 7b be b1 69 eb 3e
       -0.0880623 -0.18359041 -0.24514772 0.45979074
000380 60 66 a4 be 61 11 57 bd 24 02 39 3e 15 f5 59 3e
       -0.32109356 -0.05250681 0.18067223 0.21284898
000390 25 1a 0e 3e 8f 3f 92 be e5 9e 2a 3f 61 2e 57 be
       0.13877161 -0.28564116 0.66648704 -0.21013786
0003a0 3d 45 1c 3e ae 4b 47 bd 14 8a d3 3d eb 8c a7 bc
       0.15260787 -0.04865616 0.10329071 -0.020452937
0003b0 cc 11 ca be 23 d8 e6 3b 26 db 0a 3e 19 23 01 be
       -0.39466703 0.0070448085 0.13560161 -0.12611045
0003c0 44 7d 23 3e 1b b1 4e be 04 14 e4 bd 81 b6 fb bc
       0.15965754 -0.20184748 -0.1113663 -0.030726673
0003d0 1e aa f1 bd 85 9f 82 be 32 c8 46 bd 15 31 3a 3e
       -0.118000254 -0.2551233 -0.048530765 0.18182786
0003e0 50 30 27 be f5 65 d8 3c 53 d8 1f 3d 42 d2 18 be
       -0.16327024 0.026415804 0.039024662 -0.14923957
0003f0 c1 74 99 be 03 de b4 bd 1e 57 d8 3c 4e 5d dc 3d
       -0.2997189 -0.08831408 0.026408728 0.10759984

encoder.feature_encoder.atom_embedding_list.4.weight f4 [10, 64]
000000 b5 46 24 3e 8f e4 33 3e a2 cf 90 bd 95 2c a8 3d
       0.16042598 0.17567657 -0.07070853 0.08211628
000010 cd 28 a6 3e 90 39 ca bd 5f 0b a0 3e 8a c2 43 be
       0.32453004 -0.098742604 0.31258675 -0.1911718
000020 94 e6 3f 3e 01 36 2e be 9d eb e2 bd 26 ad 3b 3d
       0.18740302 -0.17012788 -0.11080096 0.045819424
000030 e7 d0 27 3e 18 b5 de 3d 4c 01 94 bd f6 8f 59 3e
       0.16388284 0.10874385 -0.0722681 0.21246323
000040 40 33 4d 3e 4b c8 81 3e 80 11 31 be 03 ca 35 3e
       0.20039082 0.25348124 -0.17291832 0.17752843
000050 6b 9a f9 bd ae b5 83 bc c6 02 d5 be b7 07 4a be
       -0.12187656 -0.016077843 -0.41603678 -0.19729505
000060 95 fc 1a be 08 72 93 3d 30 1d bd be 37 98 ab be
       -0.15135415 0.07199484 -0.3693633 -0.33514568
000070 dd 39 01 bf 46 e7 16 3e 16 f3 89 be b2 d9 8e be
       -0.5047892 0.14736661 -0.26943272 -0.27900463
000080 92 62 69 3e aa 4c f5 be 9b 1e f3 bc c5 04 65 be
       0.22791508 -0.47910053 -0.02967768 -0.223651
000090 53 6a a6 3e 39 b1 9a bc 95 4b 24 be ee 4f 73 be
       0.32502994 -0.018883334 -0.16044457 -0.2376096
0000a0 38 07 b6 bd bc de 67 be 9a f9 bb 3e 46 df 10 be
       -0.088880956 -0.2264356 0.36713868 -0.14147672
0000b0 07 f6 70 be 4a 23 a4 3d 03 9e b2 bd 03 d1 62 3e
       -0.23531352 0.08014543 -0.087215446 0.22150044
0000c0 04 1a 34 3e 07 ed 87 3d c3 6f 3a bd f0 02 1b 3e
       0.17588049 0.06637006 -0.04551674 0.1513784
0000d0 47 51 0e be 3f 88 4e be 45 40 36 3d 92 c4 90 be
       -0.13898192 -0.20169161 0.044494886 -0.2827497
0000e0 3c 8a 21 3e 90 27 b3 3e 94 89 95 bd 2b b9 29 3e
       0.15775388 0.3499112 -0.073016316 0.16574542
0000f0 46 84 78 3e 93 c1 41 3d 36 65 a9 3e 76 1c 85 3d
       0.24269208 0.047303747 0.3308503 0.06499569
000100 46 30 d3 bd fa 16 8f 3e 10 89 98 3e f5 60 d5 3e
       -0.10311942 0.27947217 0.2979207 0.41675535
000110 e1 99 48 3d 56 ef d5 be f1 bc c7 be 7e b5 2f 3f
       0.048974875 -0.4178416 -0.39011338 0.6863631
000120 70 aa 1f be ce c0 80 be f2 d3 19 bf bb ba 06 bf
       -0.1559236 -0.25147098 -0.6008903 -0.5262868
000130 d6 9e 7e 3e 9c dd 8a 3e a8 3b 96 be d5 b7 33 be
       0.24865279 0.271222 -0.2934239 -0.17550595
000140 fd 2d 3b bc 44 9d c4 3c 51 17 f6 3e dc a4 3b be
       -0.011424539 0.024000771 0.48064664 -0.18324608
000150 b4 d2 a1 bd 95 b1 92 3d 75 c5 96 3d 6c 69 a5 ba
       -0.079015166 0.07162777 0.07361881 -0.0012619919
000160 21 fd 02 3f 6b 29 c3 be 2a 00 15 3f 4e 5e 60 3c
       0.51167494 -0.38117537 0.58203375 0.013694359
000170 d5 4d 0f 3f 81 55 ba bc e2 77 60 3c a8 38 0c be
       0.5597814 -0.02274585 0.013700457 -0.13693488
000180 89 2a b4 3d cc b1 f5 3c f9 48 c7 3e f8 28 67 3e
       0.087971754 0.029992007 0.3892286 0.22574222
000190 06 65 08 be b0 5b ed 3d 26 60 01 3f 36 f1 75 be
       -0.13319787 0.11589754 0.50537336 -0.24017796
0001a0 73 fa 9d bc e6 1f 0d be db 0a 21 bf 04 84 cf bd
       -0.019284463 -0.137817 -0.6290719 -0.10132602
0001b0 09 09 13 bf 7a fe 59 3e 72 46 81 be 1e 29 95 be
       -0.5743566 0.21288481 -0.25249058 -0.29132932
0001c0 35 29 c9 be e1 3e 86 3c 61 8a 99 3e 17 bc e5 be
       -0.3928925 0.016387405 0.29988387 -0.44870064
0001d0 59 01 90 3e 2c d6 12 bd 7d 90 b8 bd 9f 41 83 be
       0.28126028 -0.03584878 -0.09011934 -0.25636002
0001e0 cc 03 d7 bd 1b 9d 60 3c b1 cd 84 3e ca 65 c9 3d
       -0.10498771 0.013709332 0.2593818 0.09833868
0001f0 5f fd f1 3d a9 41 bd be ea 69 74 3c 07 ce 4d 3b
       0.11815905 -0.36964157 0.01491783 0.003140332
000200 6c 4c 9c be ed 8d b5 3d c7 59 1b be 74 44 0a bf
       -0.30527055 0.08864961 -0.15170966 -0.540107
000210 e2 c7 0a bf e5 3e 94 3e 31 55 9d 3e b9 2f 58 be
       -0.54211247 0.28954235 0.30729058 -0.21111955
000220 cc 19 af bd ae f8 57 3e 30 d8 e6 3e 3e 7d 98 3e
       -0.08549842 0.21090958 0.45086813 0.29783052
000230 6a dd 8d 3b 0a 00 a2 be 3a 34 c9 be e9 c7 a0 be
       0.004329373 -0.31640655 -0.39297658 -0.3140252
000240 cd 6c 67 bd 08 eb 1d be 17 bf 6f be 5b 91 22 3e
       -0.056500245 -0.15421689 -0.23412739 0.15875761
000250 c1 82 d3 bc a7 e8 e6 3d ec be c6 3d 9d 5e f5 3d
       -0.025819184 0.11274844 0.09704384 0.11980937
000260 5e a7 9d be 0c ed 9f 3e 53 6f c9 bd 00 ed 1c 3e
       -0.30791754 0.3123554 -0.098356865 0.15324783
000270 81 96 07 bf 8f 78 36 be cc 2a d6 bc 26 53 7c be
       -0.52964026 -0.17819427 -0.026143454 -0.24641094
000280 ba 5b 43 3a f8 db 85 3e db 23 5b be e7 28 d8 3e
       0.0007452328 0.26144385 -0.21400397 0.42218706
000290 a3 03 06 3e e1 ad 60 3e da 83 36 be ac 1a 82 be
       0.13087325 0.2194133 -0.17823735 -0.25410974
0002a0 8d a7 3b 3e 84 6c 42 be 20 bb 54 3e 98 d8 da bd
       0.18325634 -0.18986708 0.20774508 -0.10685843
0002b0 19 40 b4 3e 01 77 de be e7 be e3 be ec 63 7d be
       0.35205153 -0.43450168 -0.44481584 -0.24745148
0002c0 aa 53 17 bd cc b2 5e be 43 53 d6 3e aa 84 37 bf
       -0.036945023 -0.21747893 0.418604 -0.71686804
0002d0 91 e7 1f bc 17 4b 29 3e 6d fa 06 bd 35 f2 49 3d
       -0.0097598 0.16532551 -0.03295367 0.049303252
0002e0 4d 61 9f be b9 e0 50 be 73 1e 71 bd f4 74 b9 bd
       -0.31128922 -0.20398225 -0.05886693 -0.0905551
0002f0 28 14 a5 bd a2 d2 55 3e 2d 15 bd bc 37 88 f1 bd
       -0.08060485 0.20881131 -0.023081386 -0.11793559
000300 98 e6 41 be 85 d1 2d 3d 67 23 f7 3d 57 a0 e3 3c
       -0.18935621 0.04243614 0.12067299 0.027786417
000310 8b 4a a9 bd 97 1e e3 be b7 7c e5 3d 8a 74 99 be
       -0.08266171 -0.44359276 0.11205428 -0.29971725
000320 d4 04 9b 3d 58 48 b3 bd 17 0b b1 be 55 89 5b 3e
       0.0756928 -0.08754033 -0.34578773 0.21439107
000330 2f ad 70 3c ae d7 24 be e5 b4 8b 3e 9f c2 65 be
       0.014689728 -0.160979 0.2728645 -0.22437523
000340 c6 d2 97 3d 4b 4d db 3e 50 04 d6 be 00 41 a3 bd
       0.07413249 0.42832407 -0.41800165 -0.07971382
000350 42 c4 47 bd 6a 94 03 3e 08 49 0f be d0 75 52 be
       -0.04877115 0.12849584 -0.13992703 -0.20552754
000360 7a 42 49 3e cf fb 5c be c6 63 ae be 89 38 1b be
       0.19654265 -0.21580432 -0.34060496 -0.15158285
000370 cf 8d 86 be 60 8b d0 bd cc dc 77 3e 02 2c 15 bf
       -0.26280066 -0.10182834 0.24205321 -0.58270276
000380 3c 0c 3c bd ee 67 6e 3e 99 57 62 be f0 76 28 be
       -0.045910105 0.23281834 -0.22103728 -0.16451621
000390 0f b0 99 be ca 55 9d be 72 91 fb be 7d f4 49 bd
       -0.30017135 -0.30729514 -0.49134403 -0.049305428
0003a0 46 10 52 be 92 cb f4 bd 56 e1 d3 3d 7b 9a 0d 3e
       -0.2051402 -0.119528905 0.10345714 0.13828461
0003b0 6f e0 c2 bd 60 69 b8 3d d9 45 e7 3d 65 c3 c7 3e
       -0.095154636 0.09004474 0.11292619 0.39016262
0003c0 94 18 97 3e c2 c6 6d be a8 aa d1 be 18 45 1f 3f
       0.2951094 -0.23220351 -0.40950513 0.62214804
0003d0 30 de 37 3d 0a b0 d3 bd ef 0a 6f 3e 26 e3 9a 3c
       0.04488963 -0.10336311 0.23344015 0.018907141
0003e0 88 e4 9e bd e9 3e 60 3d 70 49 c1 be fb 19 91 3e
       -0.077584326 0.054747496 -0.3775134 0.28340134
0003f0 f4 ce 3f bd 75 81 1a be 6f 40 91 be 26 72 93 3e
       -0.046828225 -0.15088446 -0.2836947 0.28798026

encoder.feature_encoder.atom_embedding_list.5.weight f4 [6, 64]
000000 98 45 5a be 5e ed 7b 3c 7f 72 37 be 75 e0 c0 3d
       -0.2131561 0.015376417 -0.1791477 0.09417812
000010 12 83 fb bd 51 c7 4e 3e 69 d0 02 bd 43 38 6e be
       -0.12280859 0.2019322 -0.031937037 -0.2326365
000020 74 c3 44 be 61 5e 38 be 64 37 15 be 4f f8 2f 3e
       -0.19215184 -0.18004753 -0.14571911 0.17184566
000030 b5 72 c6 3e 58 ad 76 be cb 9c 8e be d1 b2 29 3e
       0.3875939 -0.24089563 -0.27854 0.1657212
000040 a3 ec b2 be b6 d7 70 bd 74 3f 09 3e 3b c7 23 bc
       -0.34946164 -0.058799468 0.13403112 -0.009996231
000050 72 86 24 be 55 8f 73 3c 22 20 67 be 44 09 75 be
       -0.16066912 0.014865716 -0.22570851 -0.23929316
000060 09 63 9a 3c 5a d7 a5 be 01 91 18 be 7f e6 1e be
       0.018846052 -0.32390863 -0.14899065 -0.15517615
000070 8f 6c c8 3c 1e d9 16 be 9d c7 12 3e 22 93 58 be
       0.024465827 -0.14731261 0.14333959 -0.21149877
000080 e7 ac bd 3d bf e8 73 3e 5b ee 07 3e 49 83 8b 3e
       0.09261494 0.23819254 0.13274519 0.272486
000090 9b e0 c0 3d b5 1c 55 be 3f 61 0f bd 95 b9 24 be
       0.0941784 -0.20811732 -0.03500485 -0.16086419
0000a0 2e e7 9f be 38 26 3c be a8 b9 80 be b2 f6 a7 be
       -0.31231064 -0.18373954 -0.25141644 -0.328054
0000b0 27 72 50 be 38 76 8b 3e 0d a3 db bd ed eb 5c 3e
       -0.20356046 0.2723863 -0.10724459 0.21574374
0000c0 80 cc 1c 3e 78 8e a7 3d 95 b6 01 be 79 e9 a0 be
       0.15312386 0.08181471 -0.12667306 -0.31428126
0000d0 89 28 ef bb bd bf be be 67 ae b3 3d d8 10 49 3c
       -0.0072985333 -0.3725566 0.08773499 0.012272082
0000e0 f7 c7 33 3c c8 83 af bd 1a 68 06 3e 92 6e 0b 3e
       0.010972968 -0.08570057 0.13125649 0.13616398
0000f0 ea ba b4 3d a9 64 a1 3d a7 49 a4 bd 68 14 32 3e
       0.088247135 0.078805275 -0.080218606 0.17390597
000100 eb 6c be be e8 e9 b5 3e 31 66 6f 3e 12 bb a6 3e
       -0.37192473 0.3553002 0.23378827 0.32564598
000110 c1 ac 0c 3f 5d 07 bf bd e6 7d 7b 3e d9 a1 fb be
       0.549511 -0.09327576 0.24559745 -0.49146917
000120 a6 eb 75 bd 21 87 08 be 1d 56 8b 3b 15 0f 55 3e
       -0.060039185 -0.13332798 0.004252209 0.20806535
000130 d4 cd 9c 3d cc 7d b3 3d 96 34 97 bc 7d c9 9c be
       0.07656446 0.08764228 -0.018457692 -0.30622473
000140 29 3e 88 3e 0d 48 df 3e 3b 92 8c bb 8f 45 6d bb
       0.26609924 0.43609658 -0.004289893 -0.003620479
000150 c1 aa b2 3e 69 0f 5a be 85 69 1f be bc 4b 8b be
       0.348959 -0.21294941 -0.15567596 -0.27206218
000160 85 f7 09 bd 0a 26 19 3e c9 e0 e8 3d 4d 7b 97 be
       -0.03368332 0.14955917 0.11370999 -0.2958626
000170 52 7c d4 be 54 c1 56 3e 26 22 09 bd 6f b7 c0 3e
       -0.415011 0.20972186 -0.033479832 0.3763995
000180 c0 d0 02 be 94 13 00 3e cc 9d b9 be 73 81 c3 bd
       -0.12774944 0.12507468 -0.36253202 -0.09546175
000190 53 8d 7e 3e d7 fd f0 bd c0 07 09 3e d1 5b 10 be
       0.24858598 -0.11767166 0.13381863 -0.14097525
0001a0 23 b2 37 be 22 f8 d8 be 4f 04 06 be 54 b4 a4 3e
       -0.17939048 -0.4237681 -0.13087581 0.3216883
0001b0 f7 76 5c 3d 2d 36 d2 be 08 1b 37 3e e8 5b 49 3e
       0.05382439 -0.41056958 0.17881405 0.19663966
0001c0 7b 87 01 3b b9 fc 02 3d 58 6f 2c be b0 05 50 3f
       0.001976459 0.031979296 -0.1683935 0.8125868
0001d0 84 27 d1 bc 01 e4 b3 be 8f 6b 32 be 30 53 81 be
       -0.025531538 -0.3513489 -0.17423843 -0.2525878
0001e0 8a 53 a4 3e 44 2e 90 3e 05 a1 5d be 79 0a 8e bd
       0.32094985 0.28160298 -0.21643455 -0.06935591
0001f0 10 ae 0b bd 45 ee 2a 3d 36 29 03 3f 1d 12 68 bd
       -0.034101546 0.041731138 0.5123476 -0.0566579
000200 6a 73 b0 3e 44 c3 62 3e 4c 94 29 be 0b 34 5c 3e
       0.34463054 0.221448 -0.16560477 0.21504228
000210 09 7b db 3d 5b b2 3c bd b5 b5 a6 3e a5 23 83 be
       0.107168265 -0.04606853 0.32560506 -0.25613132
000220 9e 7b 6b 3d b2 2d 08 3e a8 5d 58 3e df c5 0d bd
       0.057490937 0.13298681 0.21129477 -0.034612533
000230 6d 27 ea bc 51 41 12 bd b6 b3 4f bd 0b ca 7c be
       -0.028583253 -0.03570682 -0.050708495 -0.24686448
000240 a8 c8 cb 3d 01 ba 2f 3c 9d 34 3f be 3b c4 2e be
       0.099503815 0.010725499 -0.18672414 -0.17067043
000250 8d c0 8e bc 7c c4 a5 3d 7b b9 72 3e 0d 7f f4 3d
       -0.0174258 0.08094117 0.23703568 0.119382955
000260 34 a9 db bc 85 97 a9 3e 98 81 8b be 20 a3 c7 bb
       -0.02681408 0.33123413 -0.2724731 -0.006092444
000270 ee 30 98 be 1c de 30 bc 41 0d e8 3d f4 a8 66 3e
       -0.2972483 -0.0107951425 0.11330653 0.22525388
000280 30 2a 8e bd 0b 41 b3 3e fb b9 5e 3d d3 dc 12 be
       -0.069416404 0.3501056 0.054376584 -0.1434205
000290 f1 18 11 be 37 89 07 3e 87 12 fb 3d 57 39 1a be
       -0.1416967 0.13235937 0.12259393 -0.15060936
0002a0 98 af fa bd 55 7c e5 3d c5 e5 0a 3e 02 c0 7b 3e
       -0.12240523 0.11205355 0.13564213 0.24584964
0002b0 2d 89 f9 3d 7b 9b 40 be 7c 9c 4e bd 95 4f 8d be
       0.12184367 -0.18809311 -0.050442204 -0.2759978
0002c0 6d 5f 8f bd f1 82 aa bd 66 5a 63 3d 03 7d 97 3e
       -0.07000623 -0.08325756 0.055506133 0.29587564
0002d0 21 f8 49 be ce e4 d0 3e d0 90 8e 3e a2 0d 11 be
       -0.1972356 0.40799564 0.27844858 -0.14165357
0002e0 b7 b1 18 bd e0 ec 44 be e8 0f 48 bd 6b e7 99 bd
       -0.037278857 -0.19230986 -0.048843294 -0.075148426
0002f0 d5 85 0c 3d c9 be 84 bd a0 66 7c 3e 22 e2 15 3c
       0.03430732 -0.06481702 0.24648523 0.009148153
000300 bd 48 8f 3e c6 28 5f be 10 01 b3 bd 69 be 41 3e
       0.27985182 -0.21792898 -0.08740437 0.18920292
000310 04 64 c7 3d b5 c7 17 be f1 77 75 be 4e 51 62 be
       0.09735873 -0.14822276 -0.23971535 -0.22101328
000320 ac 7b 7a be f6 a7 25 be 30 a1 35 be ef 06 ad bd
       -0.2446124 -0.16177353 -0.1773727 -0.08448588
000330 dd db 81 3e 6d 20 9f bd cb 47 39 be 40 8c 12 3e
       0.25363055 -0.077698566 -0.18093793 0.14311314
000340 ca 6d 30 be 87 05 16 be f7 23 46 bd 68 95 13 bd
       -0.17229381 -0.14650546 -0.048374142 -0.036031157
000350 3d db 38 be 64 67 6e be 8a 4c 92 be 18 4a fe bd
       -0.18052383 -0.23281628 -0.2857402 -0.12416476
000360 fd df 17 3e 16 62 c0 3c e8 f5 6e 3e e5 f6 4f 3d
       0.14831538 0.023484271 0.23335993 0.050772566
000370 92 e3 60 be 53 ea e1 3c 5f 9b 99 bd 4d bb 29 3e
       -0.21961811 0.027577555 -0.07500338 0.16575356
000380 89 1d a3 3d 14 5e 94 3e 17 60 86 be 96 aa 0e be
       0.07964618 0.28978026 -0.26245186 -0.13932261
000390 6b 71 7e be 90 61 d5 3c ad 14 3f be 92 f3 f8 bd
       -0.24847953 0.026047498 -0.18660231 -0.12155832
0003a0 6a 11 8f 3e bf dd c8 bd 1a 7b 13 3e 3b ba 40 3e
       0.27942973 -0.0980792 0.14402428 0.18821041
0003b0 a1 67 59 3e 8f 37 75 3e 64 e9 38 3e 38 a6 ed 3c
       0.21230938 0.23946975 0.18057781 0.029009923
0003c0 49 ee 7c 3e 91 0a 91 3e 4f c8 4e be c0 66 7a 3d
       0.24700274 0.28328374 -0.20193599 0.061133146
0003d0 af 40 4e 3e f9 a8 4a be 96 4b eb 3d a5 29 3b 3e
       0.20141862 -0.1979102 0.11489026 0.18277605
0003e0 01 a6 15 3c f8 50 ad bd 33 54 c6 bc 3b 5f 82 3e
       0.009133817 -0.08462709 -0.024210071 0.2546328
0003f0 12 5a 6d be db dc ed 3d 1f 42 22 be 5e 4b 4a 3e
       -0.2317889 0.116143905 -0.15845536 0.19755313

encoder.feature_encoder.atom_embedding_list.6.weight f4 [6, 64]
000000 d2 2f 9b 3d 7f bd 0e 3e d8 c9 ed 3d dd 2c d4 3d
       0.075774804 0.13939475 0.11610764 0.103601195
000010 7d c3 54 3e a8 ea 9c 3c 29 20 a0 bd 45 de a6 bd
       0.20777698 0.019154862 -0.07818634 -0.08147863
000020 0f be c2 bd d5 9a f7 bd 0d fa 54 be 42 ab 49 3e
       -0.09508907 -0.12090079 -0.20798512 0.19694236
000030 3b 62 88 3e 9f 37 67 3e 41 88 7c be 34 83 be be
       0.26637444 0.22579812 -0.24661352 -0.37209475
000040 27 45 17 3c 77 5a 8b bd 18 5b 48 be dd 76 1f 3e
       0.009232796 -0.06804364 -0.19566 0.15572686
000050 fa d7 5e be f1 9b a6 be f2 67 1e 3e 01 ee b7 be
       -0.21762076 -0.3254085 0.1546934 -0.3592377
000060 ce f7 e9 3d 24 9d 75 3d c7 5e 13 bd fe 06 9c 3c
       0.11424218 0.059964314 -0.03597906 0.019046303
000070 18 b4 57 be 21 ea 7b 3d 56 6d 7e bd 18 5c d1 3e
       -0.21064794 0.06150258 -0.06211599 0.40890574
000080 6c 42 41 3d 3a d2 8a be cd c5 9b bc b0 31 c4 be
       0.047182485 -0.27113515 -0.019015217 -0.3831916
000090 92 d9 86 bd 7e 41 6d bb 07 f5 9d 3e a2 d6 97 bd
       -0.06584467 -0.0036202366 0.30851004 -0.07413985
0000a0 8c 4a 3b bd de 14 c9 be 1d 8a 1c bd a4 37 6b 3d
       -0.04572539 -0.39273733 -0.038217653 0.05742611
0000b0 b7 12 67 be 63 64 80 be b1 48 cc bd 90 43 bd 3d
       -0.22565733 -0.2507659 -0.09974802 0.09241402
0000c0 61 c8 b7 3e dd 1b ce 3e a1 86 24 be 07 5b a9 3e
       0.35895064 0.40255633 -0.16066982 0.3307726
0000d0 a6 6d d1 3e d1 f4 6f be 3f 53 cd 3d cc f5 67 bd
       0.40903968 -0.23433234 0.100256436 -0.056630895
0000e0 91 59 98 3e 0d 32 44 be d6 0b 75 be 63 fa 70 3d
       0.29755834 -0.19159718 -0.23930296 0.058832537
0000f0 17 2f ac bd ee 91 08 3e 17 49 fe 3d 63 2d 01 bd
       -0.08407419 0.13336918 0.124162845 -0.031537425
000100 0a bb 47 3e 14 64 0c bd 49 df b3 be 87 af 75 be
       0.19504943 -0.03427513 -0.3513129 -0.2399274
000110 ab e0 f4 bc 7d a0 1f be 74 d4 61 bc 39 29 c1 3d
       -0.029892286 -0.15588565 -0.013783563 0.09431691
000120 5f 32 b4 bd bd 8e 9b 3e b9 83 b8 be d8 95 7c be
       -0.0879867 0.30382338 -0.36037996 -0.24666536
000130 90 8a 47 3e de 10 80 be d6 aa b3 3d c7 7a 0c 3e
       0.19486451 -0.2501287 0.08772819 0.13718711
000140 d6 cf d4 bd 54 27 f5 bd 6c 62 02 be 84 4a f4 bd
       -0.10391204 -0.11970392 -0.12732857 -0.11928275
000150 ba 39 62 be bd 12 f9 bd f1 13 a2 be f6 b5 fe bc
       -0.22092333 -0.12161777 -0.3165584 -0.031092625
000160 9f 63 24 bd 44 bb 63 be 71 c5 66 be e0 79 f8 bd
       -0.04013407 -0.22239405 -0.22536255 -0.12132621
000170 aa 97 51 be 5f e4 33 bd 10 94 a8 3d 2b c8 cc bd
       -0.20468011 -0.043918964 0.08231366 -0.099991165
000180 91 9f 28 3e 88 05 23 bd e6 82 b9 37 58 2a 14 bf
       0.1646712 -0.039800197 2.2114673e-05 -0.5787711
000190 ed d1 10 3e ba 88 9a 3e e6 cf ca 3d c6 2c a6 3d
       0.1414258 0.3018244 0.09902935 0.081140086
0001a0 d2 c0 c8 bd 94 02 90 bd 88 2d 8a 3e 20 aa c0 bd
       -0.098024026 -0.07031742 0.26987863 -0.09407449
0001b0 72 c6 e3 3d 4e 10 1a be ed 3c 1e 3e bb 9c 81 be
       0.11121835 -0.15045282 0.15452929 -0.25314888
0001c0 50 78 94 bc 7a b6 e9 be ae d9 70 be f6 a4 e3 3c
       -0.018123776 -0.4564703 -0.23520538 0.02778862
0001d0 5f 90 4b 3e c3 9c 46 3e c2 6a ca 3a 51 66 c9 3d
       0.19879292 0.19395737 0.0015443193 0.098339684
0001e0 0e 5d ba bd 0d 47 b1 3e 24 ba 4d 3e 52 2a bf 3d
       -0.0909978 0.3462452 0.20090538 0.09334244
0001f0 bc 31 15 be 81 54 48 3e 35 3e 53 bd fc 00 29 be
       -0.14569753 0.19563486 -0.051572997 -0.16504282
000200 21 a3 a3 bb de 1f 90 3c 50 59 27 3e 3c 5e b2 3e
       -0.0049938117 0.01759332 0.16342664 0.3483752
000210 59 81 12 be 39 32 ad 3d f0 71 1d 3d b4 f6 02 3e
       -0.14307155 0.08456845 0.038438737 0.12789422
000220 47 90 16 3e d7 b9 50 bc 03 7f 8d bc ab ac 77 3e
       0.14703475 -0.01273962 -0.017272478 0.24186961
000230 99 d0 29 3e 6c f3 4b 3e 90 d3 8c 3e f3 5b 0b be
       0.1658348 0.19917077 0.2750516 -0.13609295
000240 e2 fa 49 be 91 d9 f3 bd 8c 65 de bd 45 6e b0 be
       -0.1972461 -0.11906732 -0.10859212 -0.3445913
000250 0a 71 ca bd b2 72 29 bd 72 32 72 be 8a 97 8d bc
       -0.09884842 -0.041369148 -0.23652056 -0.017284174
000260 c2 d3 df 3e b1 b0 b2 3d 5f 8b 91 3d 49 e7 2c bd
       0.43716246 0.087251075 0.07106661 -0.04221276
000270 a3 73 8d 3d 9b 58 7d be 96 80 14 bd c5 77 d2 bd
       0.069068216 -0.24740832 -0.03625544 -0.102767505
000280 87 69 eb 3c 53 8c d2 3d 7c c1 6e 3e e1 9e a3 3e
       0.028736843 0.10280671 0.23315996 0.31957152
000290 58 80 36 3e 9d 93 7d 3e 4b 2d ff 3e 69 8d 05 bc
       0.17822397 0.24763341 0.49839243 -0.008151391
0002a0 b5 1c a2 be 44 fb 32 bc cd b4 76 3e a3 e8 84 bd
       -0.31662527 -0.010924164 0.24092408 -0.064896844
0002b0 b1 3f 54 3e c8 6a fa bc ef 11 39 3d e2 bb ef 3e
       0.20727421 -0.030568495 0.04518312 0.4682303
0002c0 c2 f6 89 be cc 94 24 be 96 e4 84 3e 65 9d bf bd
       -0.26946074 -0.16072387 0.25955647 -0.093561925
0002d0 20 8d 13 3d c5 eb 39 be e2 d7 69 3e 4d 0d 3b bd
       0.03602326 -0.18156345 0.22836259 -0.04566698
0002e0 eb 95 a4 3c 18 51 56 3e 42 6b 62 3e 87 cb 83 bc
       0.020091018 0.20929372 0.22111228 -0.01608826
0002f0 a7 2c 91 3e 54 3b 8a bb 99 ec 1f 3d ad 62 1f bd
       0.2835438 -0.0042184982 0.039043996 -0.038912464
000300 c9 5b 24 3e 6d fd e4 be 27 fc 87 3d 21 c6 37 3d
       0.16050638 -0.447246 0.06639891 0.044866685
000310 19 1a e2 be ee ec 10 bc 34 b9 b0 be 1f 14 9f bd
       -0.44160536 -0.008845551 -0.345163 -0.0776751
000320 43 89 28 bc 64 1b 9f 3e 62 1b 9d be 82 c8 65 bd
       -0.010286632 0.31075585 -0.30684954 -0.056099422
000330 b3 b6 a6 be b9 13 92 3d 6d fd b3 bc fd 07 a6 be
       -0.32561263 0.07132668 -0.021971429 -0.3242797
000340 73 b0 a3 3c 32 00 d9 be 3c d1 28 be 21 30 11 3e
       0.019981598 -0.42382962 -0.16486067 0.14178516
000350 d2 79 83 3d 2e 86 26 be 04 ad 62 bd 1d 05 59 3e
       0.0641972 -0.16262123 -0.05534078 0.21193357
000360 1c 4b f4 bd 7e 99 78 3d f9 d7 ad be 52 b7 f7 3d
       -0.119283885 0.060693257 -0.33953837 0.120955124
000370 6b 3f b6 bd 6e 15 b9 bb 00 95 3f 3e f8 5e 85 be
       -0.08898815 -0.0056483066 0.18709183 -0.26049018
000380 65 98 9d 3e c9 0d 36 3d 0b 7d f7 be 97 76 19 3d
       0.3078033 0.04444674 -0.48337588 0.03746661
000390 35 21 91 be 46 4d 8c be 17 0e 96 be 15 61 9a bd
       -0.28345647 -0.27402705 -0.29307625 -0.07538048
0003a0 65 b9 dd ba 98 55 d5 bc 51 42 48 be 62 4e a6 bd
       -0.0016916214 -0.02604179 -0.19556548 -0.08120419
0003b0 b2 1b a7 3d a5 c1 93 bd b4 9a cb bd e9 c5 a2 bd
       0.08159579 -0.07214669 -0.09941617 -0.079479046
0003c0 ab cf 20 3e b9 79 ef be c8 9e 19 3e 6c fd 03 be
       0.15704219 -0.46772555 0.15001976 -0.12889642
0003d0 d4 7e e9 3d 96 e7 47 be c4 73 af 3d 2b 87 1f be
       0.11401144 -0.19521937 0.085670024 -0.15578906
0003e0 da 87 37 be f1 24 58 be eb 43 84 be 25 89 8d be
       -0.17922917 -0.21107842 -0.25833067 -0.27643695
0003f0 61 9c 01 bd 2b e4 c6 3e bb 35 ec 3d 4f 4b 6b 3e
       -0.031643275 0.38845953 0.11533686 0.22977947
