checkpoints/tuning/trial_1/final_model.pt (torch, 520443 bytes, 104 tensors)

encoder.feature_encoder.atom_embedding_list.0.weight f4 [119, 64]
00000000: 655d 433d df38 b13c 0bd3 6abb 9032 c83e
00000010: e461 2c3d 7519 97be b31f a6be 2e35 e63e
00000020: 2732 503d 7619 34be 32a5 f63d 335e 3c3d
00000030: 248b 253e af84 06be e647 0f3d e423 1e3e
00000040: ac7c 053f 9690 e83c defc 063f 3219 003e
00000050: 6121 66be e876 393b 87ae 04be c7f4 48be
00000060: 16d7 2cbd db74 b1be 9ef5 463b 6040 233f
00000070: 3c5f 603e 35b2 7d3e 2937 34be d819 24be
00000080: 71e9 cbbe b583 433f 2592 e23e f431 4e3d
00000090: eaa8 e1bd cd19 3dbe 1c74 7c3e ac97 043f
000000a0: fdc6 c73e 5813 163e 8a58 a63e f805 6c3d
000000b0: 13b0 e6bd af74 92bd 4a59 323e 83a9 f43d
000000c0: 9f9a 263e b79c ce3e 7b63 b73e 64e0 fcbe
000000d0: 7a0e 123e b7d0 c83e 397d 823e becf 1a3f
000000e0: bf58 79bd 2e4f 473c 8b20 143f 5539 0b3f
000000f0: 3743 9bbe 5b8b cdbe 817a 78be 927d 05be
00000100: 8519 06be 4b93 86be e19e 25be 93b1 87bd
00000110: 0187 683d a9b0 19be 0455 7f3e 85f3 473c
00000120: 35d6 b8bc 678b 583d fb3c 723c fc99 26be
00000130: f30f d9bd 8b29 12be 9813 343e 9f5b 85bd
00000140: 2a57 a83e fdb7 68bd 94df 103e 7211 0abd
00000150: c40b 9a3d 0b92 53be 348a 9abe afc0 5cbe
00000160: 8d62 583e 3288 2ebe 43bd 093c 5c8e b2bc
00000170: b149 d3be e5b0 443e f7a5 6f3d d2ba 863e
00000180: 2a2d eabd c584 62bd 8240 453e 5908 91bd
00000190: cba3 c9bd 1d6d 083e f9a0 06be ed05 c7bd
000001a0: b87c 46bd 5c4b 48be ffda 923d 5cf1 c9bc
000001b0: f6ba 0cbe c971 ffbe ee11 893e c643 99be
000001c0: 5b94 20bd b61d 1f3e 50ee 0bbd a5fd 8c3b
000001d0: 3bf7 013c 21ff e7be 32c1 3bbe a075 21be
000001e0: 62c9 dd3e 0645 d3bd a6cb 2dbd 8dec 2d3e
000001f0: 7d2f 76be 79e3 64bd eb60 e9bc 479a 8bbd
00000200: adf7 03be 7a7f 223e 4a3f 15bd f8e5 35be
00000210: cff6 5c3e 1030 36be 43c8 153c 8933 bfba
00000220: aef1 6abe f87a 12be 6293 17bf 8573 043e
00000230: 5ea5 9abd 05c7 55bd c6aa c5bd f099 54bd
00000240: a414 b93d b9a9 713d ff04 d5be f66f 6bbe
00000250: 67da c3be 1329 05be 34cb fc3d a521 04be
00000260: 1a69 063e 9168 833d aefa 08bf 9064 b8bd
00000270: 92c8 b13d 1083 6a3e f350 763d bb15 23be
00000280: db78 82be 599d a03d 3db8 35be 1eba d2bd
00000290: 2c6e 123d 837f 0d3d 3c43 9fbe 4372 31be
000002a0: 1ddc 2bbd e771 b73e 7758 893d fda6 97bb
000002b0: d4ac afbd da4f 9ebd 14e8 623e d41c c9bd
000002c0: 41e5 db3e fdc1 043f 9dcb e5be faf9 21be
000002d0: fa80 88bd fa21 8cbc a46c 633d 5556 34bd
000002e0: 995d 36be 8109 963d ee8d a2bd f48a e43c
000002f0: e345 b5bd 0e13 0cbe 014e 5cbd 7987 b6be
00000300: 4d7f 0dbe 9536 0a3e 89bd 173e b4c2 00be
00000310: cdd0 203d 12fb bebd d879 2d3e 2e5d e23d
00000320: d26a 933d 7624 17be 5a5f b6bd 02d7 1bbd
00000330: 90be 25be 7eb1 d8bd 413d 433d f4e9 16be
00000340: 2a4e 453d 3590 87bb 8946 74bc 369d 58bd
00000350: 8f44 c7bd 4453 2dbe a551 fcbd b400 0c3e
00000360: 1ede 5bbc 3785 343e 555f 1c3c e9cf aebc
00000370: ba5b de3d f088 2ebe 1ad2 e5bd 70b2 d43d
00000380: f365 41bd 4eaa 123e 7f6b 87bc 8333 043e
00000390: 560d 103c e903 9a3c 8394 1cbe 4920 80bd
000003a0: f5b7 143c 3868 a93d 91e0 0f3d b8ff 20bd
000003b0: 6034 a03a 3d5c 1f3e 2f57 f73d ab0a 7d3d
000003c0: a698 05be 8559 79bd f5b9 ec3d efe0 263e
000003d0: 5e48 afbd 318a 9d3d 83a3 2dbd bf36 eb3d
000003e0: e0da debc 245c 13be 5681 37be 3647 debb
000003f0: 4d9e 5a3d 4493 dabd 12da 113e 46de af3d
0.04769649 0.021633564 -0.0035831358 0.39101076 0.042085543 -0.2951161 -0.3244606 0.44962448
0.05082908 -0.17587838 0.12043227 0.045988273 0.16166359 -0.13136552 0.034980677 0.15443379
0.5214336 0.028389256 0.52729595 0.12509611 -0.2247367 0.0028299633 -0.12957202 -0.19624625
-0.04219731 -0.34659466 0.0030358802 0.63770103 0.21911329 0.24775012 -0.17599167 -0.16025484
-0.3982654 0.76372844 0.44252124 0.050340608 -0.11018546 -0.18466873 0.24653667 0.5179393
0.39019004 0.14655817 0.32489425 0.05762288 -0.11264052 -0.07151162 0.17416874 0.11946394
0.16269921 0.4035394 0.35818085 -0.49389946 0.14263335 0.39221737 0.25486162 0.6047324
-0.06087565 0.012164874 0.57862157 0.54384357 -0.30324718 -0.40145382 -0.24265482 -0.13036183
-0.13095672 -0.2628425 -0.16173889 -0.066256665 0.056769375 -0.15008797 0.24934775 0.012204056
-0.02256308 0.05286732 0.014785047 -0.16269678 -0.10598745 -0.1427366 0.175856 -0.06511616
0.32879 -0.05681609 0.14147788 -0.033708043 0.07521775 -0.2066118 -0.30183566 -0.21557878
0.21131344 -0.17044142 0.00840694 -0.021796398 -0.4126716 0.19208105 0.058507886 0.26314408
-0.114343956 -0.0553024 0.19262889 -0.0708167 -0.09845694 0.13322873 -0.13147344 -0.09717927
-0.048458785 -0.19559997 0.071706764 -0.024651222 -0.13743195 -0.498915 0.26771492 -0.2993452
-0.039203983 0.15538678 -0.03416282 0.0043026977 0.0079324795 -0.45311835 -0.18335417 -0.15767527
0.43317705 -0.103158996 -0.042430542 0.16984768 -0.24041553 -0.055880997 -0.028488597 -0.068165354
-0.1288745 0.15868941 -0.03643731 -0.17763507 0.21578525 -0.17791772 0.009141984 -0.0014587502
-0.22943756 -0.14304721 -0.59209263 0.12934692 -0.075510725 -0.052191753 -0.09651713 -0.05190462
0.0903714 0.05899975 -0.41605374 -0.22991928 -0.38252565 -0.1300395 0.123434454 -0.1290346
0.1312603 0.06416429 -0.53507507 -0.09003556 0.08680834 0.22901559 0.060135793 -0.15926258
-0.2548283 0.07842512 -0.17746063 -0.10289405 0.0357496 0.034545433 -0.31105983 -0.17328744
-0.041957963 0.35829088 0.067063265 -0.004628061 -0.08577886 -0.07730074 0.22158843 -0.09819952
0.42948344 0.518585 -0.44881907 -0.15818015 -0.06665225 -0.017106045 0.05552353 -0.044027645
-0.17809142 0.073260315 -0.07937227 0.02789829 -0.088512205 -0.13679144 -0.053785328 -0.35650232
-0.13818093 0.13497384 0.14818396 -0.12574273 0.039261628 -0.093252316 0.16941011 0.11052929
0.07198109 -0.14760002 -0.089049056 -0.038046844 -0.16185975 -0.10580729 0.04766584 -0.14737684
0.048170246 -0.004137064 -0.014909395 -0.052884303 -0.097298734 -0.16926295 -0.1232026 0.13672143
-0.013419656 0.17628942 0.009544213 -0.021339374 0.10857339 -0.17044425 -0.11221714 0.10385597
-0.047216367 0.14322779 -0.01653075 0.12910275 0.008792242 0.018800693 -0.15291028 -0.06256158
0.009077062 0.08271831 0.035126273 -0.039306372 0.001222264 0.1556253 0.12077176 0.061777752
-0.13046512 -0.060876388 0.11558906 0.16296743 -0.08558725 0.076923735 -0.042392265 0.11485051
-0.027203977 -0.14390618 -0.17920431 -0.0067833913 0.053373624 -0.1067262 0.14243343 0.08587317

encoder.feature_encoder.atom_embedding_list.1.weight f4 [5, 64]
00000000: 6e84 e9bd 568e d5bd bfd9 af3d 1108 973b
00000010: 4d74 c0bc 3fd7 103e 947f 8a3b d7a8 fe3d
00000020: 35a9 4ebd c83f 933e 16da 9c3e fccc 3b3e
00000030: b694 18be 11f2 3f3d aa8f 35be e2f3 3dbe
00000040: 365b 953e 598b 0cbe 4c10 0fbe 6d76 1fbe
00000050: 4001 5fbc ca05 73be 2f67 483e d805 78be
00000060: b775 7bbe 068f 1a3d 0a11 aa3e 5849 10be
00000070: 4716 6bbd 6b2e 4abd 3f9b 8ebe 4bf1 de3b
00000080: 5272 aebb 1c7c 41bd 032e 123e a74a 4cbe
00000090: 97f0 84be 2f50 bebe 073d b6be e3a5 ad3d
000000a0: 1909 b83e 8596 45be 8560 24be 72aa 94be
000000b0: 28a4 803d 6d3a 833e c966 0a3d eb07 5b3e
000000c0: 576c 773d 78f7 373e f200 f23c 220d b7be
000000d0: 5966 153e 3c64 053d 1ed0 f83c 1181 893c
000000e0: 17db cabd c237 bb3d 7a2e 35be e98d 1e3b
000000f0: 26bf 53be b1f8 bdbd af09 603d 176f 103e
00000100: 316f 4c3d 8146 15be 2df3 5cbe 54bb 8d3b
00000110: 427f 2a3e 17ea f7bd 0198 5e3e 4023 5b3e
00000120: f522 90be c845 4ebe de73 f23d 1c4a 74be
00000130: 6dfb 5e3d f5b5 74be b606 acbe f3d3 c4be
00000140: 9cfa 5f3e 1c20 eabc 183a df3e 861c 5dbe
00000150: 9a1f c83d 36d1 94be d73b 0abf 8f37 97bd
00000160: 86b2 a63d e061 17be 7578 cfbc 4234 053f
00000170: dce3 7e3c d6fb e2bd 20ba 10be bb1c 5dbe
00000180: 4a43 2ebe 4724 033f 8def d93d 405a 2e3e
00000190: 888a 1fbb 8abc b6be c87a 6e3d a78e 9a3e
000001a0: 620c 69bd 0f0b 1dbe 4488 31be eb93 523e
000001b0: f792 8fbe 2288 1fbf d2d7 b93d b9a0 60be
000001c0: 8d19 af3d e58d 393e e822 563e c263 d23d
000001d0: f827 e5bd 4e4f 813e e24a 8f3e b318 6fbe
000001e0: c4da e6bd d7c8 02bd 7886 483e d769 4f3e
000001f0: 14f0 bcbe 225a b8bd f8c2 6bbd 7004 6fbe
00000200: 65f2 c6bb df43 143d b42b 073c ee69 643e
00000210: b7ee 2cbe bab4 083e 3e06 8b3e 37dc 58be
00000220: 5a7b 6cbe e914 cc3d 415c d6bd 0ee4 d9bb
00000230: 14cf 8cbe ec6a 383e 2476 9fbc 7d7c 943c
00000240: 55e6 d1bd 209e d13d 256e 9ebb 49a8 f0bd
00000250: 7afd 953d 5335 e0bd 5519 e03d 8d93 90be
00000260: 83a5 e9bd c4dd 4ebe 9d70 003e 1803 54be
00000270: b3ee 693e ce04 933d 1709 393e cdf1 44be
00000280: 8943 75be 132e 46bd d2e2 25be 9187 ccbd
00000290: fc2e 783e 035d 213e 8b67 b2bd 2655 373e
000002a0: 953a 4abe d56f 2fbe bbb8 053e 0356 023e
000002b0: 8e96 aebd 4e08 4ebe f6c1 3c3d 699e 913e
000002c0: 1491 943e 03b3 773e 9d69 62be d022 483e
000002d0: 8f29 5d3d 9e0f 75be 051f 9b3c 8ac6 91be
000002e0: 2e9e 813d b402 26be 0224 4bbe db0e 6b3c
000002f0: 57a2 4b3e 0f75 293e e4d5 3abe 0cba 2b3e
00000300: c6ac e03d c48c 49be 25be 9bbd 5cb1 90bd
00000310: 2b66 75be c9bc 89be 7e05 4dbe 7639 893e
00000320: 3a6f a0bd dbda e73c 7bb7 7abe 4abb 4fbd
00000330: 1a23 e43d 59c8 c3bb 45ce bdbc 79ae 80bb
00000340: 0501 4b3e 03b1 54be 008e 87be 2065 91be
00000350: 4489 f53d f22c 28be d009 04be 68ba 1fbd
00000360: 7afe 303e 3cef 273b 5e64 6c3d f59b a9bd
00000370: 144f 243e a49c 16be d7ba 683e a686 783e
00000380: 1bc9 87be 0c32 bfbd 3d84 11bd b191 22be
00000390: 7aad 813c 5c30 c6bd 1bf5 793e aa15 bfbc
000003a0: a4c3 28be c2e9 15be 3113 8dbe 8d8e 39be
000003b0: ae79 6a3d 3e65 b63d 5b1d 02be 2099 443b
000003c0: 137b 173e b7a0 1f3d c80a 083d 870f 46be
000003d0: 0deb 8d3e 6243 b2bd c240 c73c 51b7 14bd
000003e0: f827 033e 7815 7abe 8d68 893d aa5a 6abe
000003f0: f54f 6e3e be04 eebd 8e8a 763d 76d5 9f3c
-0.11402212 -0.10427539 0.08586454 0.004609116 -0.023492957 0.1414461 0.0042266343 0.124345474
-0.050454337 0.287596 0.30635136 0.18339914 -0.14900479 0.046861712 -0.17730585 -0.18550065
0.2917115 -0.13725032 -0.1397106 -0.1557252 -0.013611138 -0.23732677 0.19570611 -0.24220979
-0.24556623 0.037734054 0.33216125 -0.14090478 -0.057394292 -0.049360674 -0.27852818 0.0068036667
-0.0053236866 -0.0472375 0.14275365 -0.19950353 -0.25964805 -0.3717055 -0.35593435 0.08478906
0.3594444 -0.192957 -0.16052444 -0.2903629 0.0628131 0.25630513 0.03378943 0.21389739
0.060406055 0.17965496 0.029541466 -0.35752207 0.14589824 0.032566294 0.030372676 0.016785176
-0.09905069 0.09141494 -0.1769351 0.0024193472 -0.20678386 -0.0927595 0.054696735 0.14104877
0.049910728 -0.14577676 -0.21577139 0.00432531 0.16650108 -0.12105196 0.21737672 0.21400166
-0.2815167 -0.20143807 0.11838506 -0.23856395 0.054438997 -0.23897536 -0.3359887 -0.38442954
0.21872944 -0.028579764 0.4359901 -0.21592912 0.097716525 -0.29065865 -0.5399756 -0.07383644
0.081395194 -0.1478343 -0.025325993 0.52032864 0.015557256 -0.1108319 -0.14133501 -0.21592991
-0.17017856 0.5122723 0.10641394 0.17026615 -0.0024344046 -0.3569072 0.058222562 0.3018696
-0.056896575 -0.1533625 -0.17337137 0.20564239 -0.28041813 -0.623171 0.090743676 -0.21936311
0.08549795 0.18120535 0.20911753 0.102729335 -0.11189264 0.25255817 0.2798682 -0.23349266
-0.11272195 -0.031929817 0.19582546 0.20255218 -0.36901915 -0.090015665 -0.057558984 -0.23341537
-0.006071376 0.03619754 0.008250166 0.22306034 -0.16887937 0.13350192 0.271532 -0.21177755
-0.2309393 0.09964926 -0.10466815 -0.0066495007 -0.27501738 0.18009537 -0.019465514 0.018125767
-0.102490105 0.10235238 -0.0048349076 -0.11750848 0.073237374 -0.10947671 0.10942332 -0.28237572
-0.11408522 -0.20201784 0.12542959 -0.20704305 0.22844963 0.07178651 0.18069874 -0.19232865
-0.23951544 -0.048383784 -0.16199806 -0.09986795 0.24236673 0.15758137 -0.087111555 0.17903575
-0.1974891 -0.17132504 0.1305875 0.12728123 -0.0852481 -0.20120355 0.046083413 0.2844117
0.29016936 0.24189381 -0.22110601 0.1954453 0.05399471 -0.23931739 0.01893569 -0.28471786
0.063289985 -0.16211969 -0.19837955 0.014346804 0.19886146 0.1654856 -0.18245655 0.1677019
0.10970454 -0.19682604 -0.076046266 -0.070650786 -0.23964755 -0.26901844 -0.20021626 0.26801652
-0.07833715 0.0283026 -0.24484055 -0.050715722 0.111395076 -0.005974811 -0.023169646 -0.0039270488
0.19824608 -0.2077065 -0.26475525 -0.28397465 0.11989072 -0.16423395 -0.12894368 -0.03899613
0.17284575 0.0025624773 0.057712905 -0.082816996 0.16045791 -0.14708191 0.22727524 0.24270114
-0.2652062 -0.093357176 -0.035526503 -0.1587589 0.01582979 -0.096771926 0.24409907 -0.02332576
-0.16480881 -0.14639953 -0.27553704 -0.18120785 0.05724495 0.08906029 -0.1270651 0.0029998496
0.14793043 0.03897163 0.033213407 -0.1934186 0.27718392 -0.087042585 0.024322871 -0.036307637
0.12808216 -0.24422252 0.067093946 -0.22886148 0.23272689 -0.11621998 0.06019073 0.019510966

encoder.feature_encoder.atom_embedding_list.2.weight f4 [12, 64]
00000000: f133 25bf 7edb b2be 330c 6dbe 5f26 1dbd
00000010: d2d3 cf3e 2796 c2be 2e06 823e 2a78 31bd
00000020: a206 84be dc86 47be e583 eb3d 40ac 1bbe
00000030: 2690 cd3d d80f 25bf faa6 30be ec84 ddbe
00000040: 3ea3 0d3f 4e4a a5be 19de 233f 58d3 aebe
00000050: 6eeb a7be da37 86bc 66b3 acbe 215f f43b
00000060: bebb e23d e490 8c3d 9350 0c3b 94af 353f
00000070: a918 27be 297e 013f a396 7fbd cf23 753e
00000080: a0d4 5cbc 85b2 c83e 0afd 103f 21e0 993d
00000090: 5a55 403e 479a 413d fc6a b73e 977a 05be
000000a0: 33f5 c8be acfb 63bb e5e5 f73e 9abf c3be
000000b0: d105 9bbe 83d4 04be b9cf 523d 88b4 c9be
000000c0: 946e 303e 68f6 b83e 6a11 8b3e 41ec 9fbe
000000d0: 8b3f 033e 8a3c 75be 99c5 c93e d7f4 b4be
000000e0: d28a 943e a49a e7bd ba0f d43e 1d12 103f
000000f0: edfc b23d 1683 ecbe 2173 66be 67ed 01bf
00000100: 6004 203c 4d3c e9be b437 3fbe 5c5f f5be
00000110: f764 b8be a00f 1bbf 5eab 10bf 4030 91be
00000120: 49be 9abe b032 9b3e 11c7 5b3e fb48 b9bd
00000130: f6ef 1bbf c19c 0bbe 4f5b 07bd 8815 203e
00000140: e424 bebd 96d3 913e fc22 e53e 5c6b fc3e
00000150: 3e51 5b3e 43b1 e3bd c4c1 1cbf 5410 a0be
00000160: 21d4 8dbe 0ef6 8cbe c2d9 1ebe d78b 7b3e
00000170: 9f2f c7bd bbd0 e43e 0587 29be bc55 d03d
00000180: 4327 24be c25b 803e 6071 933d ce6f f5be
00000190: 4748 09bf 9c56 fe3c 965b d43e 7621 853e
000001a0: 7625 b83e 85ed 85be 4f77 5cbd 6d3c 253f
000001b0: 4dce e53c 8661 d2be 033f 1b3e 6a9d c5be
000001c0: 4109 f53e 8f14 82be 846a aabe 5e71 a8be
000001d0: 6951 e9bd 4033 cebe 765c 57bd a165 cf3e
000001e0: 4915 ae3e 19e9 343e 385f 0fbe 7b30 b3be
000001f0: f541 043e 5c2d 8ebe 9c54 dfbe 33fa a6be
00000200: 78cb 10bf 0701 b03e 1aae f53e c058 8f3e
00000210: e848 803e 4589 293f bb7d 8cbd 29b6 3cbe
00000220: ecb4 5dbe 1f21 e8bd 91f7 45bf bec4 ca3e
00000230: b48c dbbe e6ef 643e 10c1 593e 5902 83be
00000240: 4d47 9f3d ecbb f6be 655c 8ebf ba5e a53c
00000250: e3e2 853d 4f07 433c 1f0b 85bd 4e3d 8e3e
00000260: 6499 ed3e 806b 723e 1aad c3bd 7841 b13e
00000270: 24ad 0f3f 6827 e1be 0f1e 413e 7908 173e
00000280: 27cd 4d3d 07d6 cfbd fc40 c23c ac76 9f3e
00000290: 68e2 2d3d 7fe6 d43c 1237 9b3e 5be8 b8be
000002a0: 7546 ecbe 7d5c 07bf 9e76 053c 3c69 49bd
000002b0: 9a19 bb3e 647a bcbd 9f73 b63d 9ff4 06bd
000002c0: 195a 01bf 46bc 8dbd 06a8 ed3d 4a8c a73d
000002d0: 8729 cabd df20 41be e71f a2be 71b1 04be
000002e0: e67b e5bd daeb 473e 5bc4 bb3e 7884 ba3e
000002f0: 0863 b3be 1beb 91bd df1e 61be e408 ffbc
00000300: dbd4 983e 5f04 86bc bec1 b4be 07e5 2dbe
00000310: 7641 463e 3dd0 debd b7d2 c93d f0ae 2d3e
00000320: dea2 8fbd dbe9 e8bc 5e38 8d3e 3e1d d6bd
00000330: 1aaa 043e efbc bebe a869 4b3e cc3c cbbd
00000340: 247e 74be 7519 0d3e 3075 8ebe 0455 a53d
00000350: f03c 943e 9112 a33d 1eb5 ee3d 443e c8bd
00000360: 97b8 debe 3575 1bbf d4c0 81bd 7c4e 9e3d
00000370: e743 c8bc c1c4 573e c7e1 1cbd 43bf f73d
00000380: ae1a 33be 9d81 93be 3187 163e b20f b2be
00000390: 409d b9be 707b 91bd 358c e8be 0da7 2ebe
000003a0: 102d fabe 88cf 6c3e 1a41 983c fed9 0fbd
000003b0: 307b b5be 92e1 d0bd 0d76 863e 3d23 a2bc
000003c0: 3e0d babd 65e2 63be a4a7 e73d 7861 803e
000003d0: d721 a5be cfec 903e 6ec3 9fbe 719e 81bd
000003e0: 5585 6a3e 12c1 08be 57aa 31be 3e56 bf3d
000003f0: a9f7 eebd bfe1 b8bd 1517 ef3e c2c0 dfbd
-0.6453238 -0.34933084 -0.23149185 -0.03836667 0.40591294 -0.38005182 0.2539534 -0.043327488
-0.2578631 -0.19485039 0.11499766 -0.15202427 0.1003726 -0.644773 -0.17251197 -0.43265474
0.5532721 -0.32283252 0.6401077 -0.34145617 -0.32796806 -0.016384054 -0.3373062 0.0074576293
0.11070965 0.06863573 0.002141033 0.70971036 -0.16318001 0.5058313 -0.062399518 0.23939441
-0.013478428 0.391987 0.56636107 0.07513452 0.18782559 0.04726627 0.3582381 -0.13035046
-0.39249572 -0.003478746 0.48417583 -0.38232118 -0.30277875 -0.12971692 0.05146763 -0.39395547
0.17229682 0.36125493 0.27161723 -0.31234935 0.12817208 -0.23948875 0.39408568 -0.35343048
0.29012161 -0.11308792 0.41418248 0.5627764 0.08739648 -0.4619376 -0.22504856 -0.5075287
0.009766668 -0.45553818 -0.18673593 -0.47924316 -0.3601453 -0.60570717 -0.56511486 -0.28357124
-0.302233 0.3031211 0.21462657 -0.09047123 -0.60913026 -0.13634016 -0.033046063 0.15633214
-0.0928438 0.2848174 0.44753253 0.4930066 0.2141771 -0.11117794 -0.6123316 -0.31262457
-0.27700904 -0.27531475 -0.15512756 0.24565063 -0.0972588 0.446905 -0.16555412 0.101726025
-0.16030602 0.25070006 0.07199359 -0.47936863 -0.5362591 0.031047158 0.41476125 0.2600209
0.3596608 -0.26157776 -0.05382472 0.6454533 0.028052473 -0.4109003 0.15160756 -0.3859666
0.47858623 -0.2540631 -0.3328439 -0.32898992 -0.11392481 -0.40273476 -0.052578412 0.40507224
0.34000614 0.17667045 -0.14001167 -0.34997925 0.12915786 -0.2776898 -0.4361924 -0.32612762
-0.5656047 0.34375784 0.4798439 0.27997398 0.25055623 0.6622508 -0.06859919 -0.18428864
-0.21651047 -0.11334442 -0.7733088 0.39603227 -0.42880785 0.22357139 0.21265054 -0.2558773
0.077772714 -0.48190248 -1.1121947 0.02018677 0.06537416 0.011903598 -0.06496262 0.27781147
0.4640609 0.2367382 -0.09554501 0.3462026 0.56123567 -0.43975377 0.18859123 0.14749326
0.050244477 -0.10148244 0.023712628 0.31145227 0.042452246 0.025988815 0.30315453 -0.36114773
-0.46147504 -0.528755 0.008145956 -0.049172625 0.3654297 -0.09203032 0.08908772 -0.032948133
-0.50528103 -0.06920676 0.116043136 0.08181055 -0.09871202 -0.18860196 -0.31664965 -0.12958314
-0.112052724 0.19523564 0.36673245 0.3642919 -0.35036492 -0.07124921 -0.21984433 -0.031132169
0.29849896 -0.016359506 -0.35304064 -0.16981898 0.19360909 -0.10879562 0.09854644 0.16961265
-0.07013486 -0.028431823 0.27582067 -0.10454796 0.12955514 -0.3725352 0.19864523 -0.099237055
-0.23876244 0.13779242 -0.27823782 0.08072856 0.28952742 0.07962526 0.11655639 -0.09777501
-0.43500206 -0.6072572 -0.06335607 0.077298135 -0.02444644 0.2107115 -0.038301256 0.12097027
-0.17490646 -0.28809825 0.14700009 -0.347776 -0.36252785 -0.07103622 -0.4541947 -0.17055912
-0.48862505 0.23126042 0.01858573 -0.035120003 -0.35445547 -0.10199274 0.2626194 -0.019792194
-0.09084557 -0.22254331 0.11311272 0.25074363 -0.3225238 0.2830567 -0.3120379 -0.063290484
0.22902425 -0.133549 -0.17350136 0.09342621 -0.11668331 -0.09027433 0.46697298 -0.109254375

encoder.feature_encoder.atom_embedding_list.3.weight f4 [12, 64]
00000000: e44f 403d 4bbc b53d f3ea 6e3e 287c b93e
00000010: d4da d23e 9f6f 49bd c683 3c3e b9aa 56be
00000020: 130b 993e 5006 ed3d d0bb cd3e d1ed b33d
00000030: 49d2 96be 72c8 7f3d 2990 0abe 01be a5bd
00000040: 90ec 153f 90b1 e0be 3af8 4b3e 320b b2be
00000050: 603b 0f3e dac3 85be 3715 103e a387 ebbd
00000060: e474 b7bc 8ef4 a13e 5797 28bd 0fe7 ec3e
00000070: 51c1 ef3d 5f65 c33e aa45 babd 740b 1cbe
00000080: 9208 96bd b998 213f 53c3 ae3e f79c 5dbd
00000090: e2a3 b6be f553 a53d addd ef3e 39d4 c83e
000000a0: 6d72 223f 6ebf 8bbe 305d 703e 924f 053e
000000b0: 7315 32be 721c cabe 60a0 73bd 37a7 62be
000000c0: 0392 97be 7e2a ab3e cd53 9ebe d697 103d
000000d0: 285b af3e e96e bc3e 00d9 b73e 6f0b 313c
000000e0: 0233 8fbe 4bcf f43d ac4c c13d 05ce b03e
000000f0: d94b e53c 53e9 45bd ba5b de3d fbb5 a0be
00000100: a11f f63d 7486 b2bd 3a36 05be 88cc d2bd
00000110: 2fb6 8abe b2ff a1bd 36b9 1ebf 49c1 d63e
00000120: 2a74 5ebd 289a ce3d c4ee e83d 6a00 7bbe
00000130: f04b 9c3d 87e4 053e 2ad0 2a3e 29b2 613d
00000140: bdb9 d83d 8feb 493e 3168 183e be15 103f
00000150: 2587 8ebc ce02 3d3e cd33 60bf 2fe4 89bd
00000160: ecda 34be c56d 7abe 4f6a bd3e bd97 393e
00000170: 6739 44be a087 1d3e 0dd9 96bd 6813 553d
00000180: 090c f2be 700b fe3d c99d 003e b39e 3bbf
00000190: abbd 98be c2bf b0be bcfc ddbe 28a8 d5be
000001a0: 2613 733e be30 edbd b035 9f3e 4988 353e
000001b0: 071c b1be 4ab5 a1be c733 cf3e ad86 fb3c
000001c0: 1bad f13e a55a 50be 2779 003e 87c2 63bc
000001d0: fcba 443a 76d1 ecbe 65f7 c7bd 6705 1ebd
000001e0: caf5 233f 2e5d d93e 5c92 373d 27ed d13e
000001f0: d317 293e c745 30be 0673 d1be 1ed6 39bd
00000200: f348 6abe b6ac a7be 0644 233e 0841 d6be
00000210: 6025 30be 737c 2abe 4d16 17bf 5796 fe3e
00000220: 1421 133e 0340 c93e 9da8 3b3e fb90 b63e
00000230: b91c 4ebe 21c7 88bd f769 673e 8338 a6bc
00000240: 5085 d0bd 9ff0 32bd 53b3 c0be a892 aebd
00000250: 4cf6 943e 160a 8bbd e608 bebe 4143 7fbe
00000260: c355 173e 67a7 cfbe 14bc 57be ca35 f13d
00000270: 6575 5a3d 1d69 ff3d 5da8 70be 110c 22be
00000280: a737 0a3d 2420 51be a766 5abe 2a2e 15be
00000290: 3a1c 98be 4f3d 15be fc57 fb3d c6bb 3c3d
000002a0: 56d8 96be a8c8 6dbe 23fb 313e 0e08 34be
000002b0: 91f1 46be a201 c83e 996f 0cbe eb4b a43e
000002c0: ac8d 66be 091c 13bf 98c4 02be 9de0 69be
000002d0: 6c62 43be a08a c2be 69b5 b2be 1178 17be
000002e0: 76f6 28bd 1df0 0abf 8773 23be 9827 0fbe
000002f0: b159 0e3e 58b7 923e 30de 9cbe 272a 71be
00000300: 32ed aeba 0828 333d 13b5 783d e559 543e
00000310: 7567 00be dc48 5f3d 6e56 59be ffa4 b9bd
00000320: 2425 b2be 413d 8a3e 7e53 62be 71be b13e
00000330: 85d8 96be 355f e9bd 957b 8ebe 425c a33e
00000340: 2bd5 8bbe 985e 1d3d 6b95 ccbe 76e4 5abe
00000350: 5f6f bcbe cd44 0b3e c177 cb3e 188c 76be
00000360: 841c b4be a3f7 063e d2a4 5cbe 72a1 96be
00000370: d63e 423e a801 6c3b fd05 7bbe ec07 0d3e
00000380: 337f 73bc 20b4 d33d cec4 63bd c7ec 2a3d
00000390: 6636 c3be 6560 80be 8f67 d6bc 4cad 88be
000003a0: 5861 093f b5a4 99bc b504 653d e78a a7bc
000003b0: 9bb8 55be 8aa8 1e3d ed1d dc3e 4655 14be
000003c0: b88e 9c3e ef29 74be 9c94 64be 88de 0a3e
000003d0: b578 8d3d 5337 b2be de25 83be 0b74 29bd
000003e0: c567 1cbe 1e34 8e3d 6d59 49be f268 053e
000003f0: 6cca 95be 3ae9 373e b024 3bbd d075 8dbd
0.04695119 0.08873805 0.23331814 0.36227536 0.41182578 -0.049178716 0.18409643 -0.20963563
0.2989126 0.1157347 0.40182352 0.08785594 -0.2945731 0.06244702 -0.13531555 -0.08092881
0.5856409 -0.4388547 0.1991891 -0.34774166 0.13987494 -0.26125985 0.14070593 -0.1150048
-0.022394605 0.31631893 -0.041159954 0.46270034 0.11706794 0.38163278 -0.090953186 -0.15238744
-0.073258534 0.6312366 0.34133396 -0.05410477 -0.35671908 0.08072654 0.46848813 0.39224413
0.6345585 -0.27294487 0.23473048 0.13018635 -0.17390995 -0.39474827 -0.059479117 -0.221341
-0.29603586 0.33430856 -0.3092331 0.035301052 0.34249234 0.36803368 0.35907745 0.010805949
-0.27968603 0.119536005 0.09438452 0.3453218 0.027990269 -0.04831822 0.10857339 -0.3138884
0.120177515 -0.08717051 -0.13008967 -0.102929175 -0.2709212 -0.07910098 -0.6200136 0.4194434
-0.05431 0.10087997 0.11373666 -0.24511877 0.076316714 0.13075458 0.16680971 0.055101547
0.10582302 0.19718765 0.14883496 0.56283176 -0.017398426 0.18458101 -0.8757904 -0.06732976
-0.17661637 -0.24455936 0.3699517 0.1812429 -0.19162522 0.15383768 -0.07365618 0.05202046
-0.47274807 0.12404525 0.1256019 -0.7328903 -0.29832205 -0.345213 -0.43356884 -0.41729856
0.23737773 -0.115815625 0.31095648 0.1772777 -0.34591696 -0.31583625 0.4046919 0.030703867
0.47202381 -0.20347078 0.12546216 -0.013901359 0.00075046695 -0.46253556 -0.09763984 -0.03857937
0.6404692 0.42453903 0.044817314 0.41001245 0.16512994 -0.17214118 -0.40908068 -0.045370214
-0.2287939 -0.32748955 0.15943918 -0.4184649 -0.17201757 -0.16649036 -0.59018403 0.49724075
0.14368087 0.3930665 0.1832604 0.35657486 -0.20128144 -0.06678606 0.22599016 -0.020290619
-0.10181677 -0.043686505 -0.37636814 -0.08524066 0.2909416 -0.06789033 -0.37116164 -0.24927999
0.14778809 -0.40557405 -0.2106784 0.117778376 0.053334612 0.12471221 -0.23501725 -0.15824915
0.03374448 -0.20422417 -0.21328221 -0.14568391 -0.29709035 -0.14574169 0.12272641 0.046077512
-0.29461926 -0.23221076 0.17380957 -0.17581198 -0.19428088 0.39063746 -0.13714446 0.3208917
-0.22514981 -0.57464653 -0.12770307 -0.2283959 -0.19080514 -0.37996387 -0.3490403 -0.14791895
-0.04125067 -0.54272634 -0.15962039 -0.13979948 0.13901402 0.28655505 -0.30638266 -0.23551236
-0.0013345836 0.04373935 0.06071956 0.20737417 -0.12539466 0.054512843 -0.21224377 -0.09064674
-0.3479396 0.26999858 -0.22102162 0.34715608 -0.29462066 -0.113951124 -0.2782866 0.31906325
-0.27311072 0.03842029 -0.39957747 -0.21376213 -0.3680372 0.13600464 0.39739802 -0.24076879
-0.35178006 0.13180403 -0.21547249 -0.29420048 0.18969283 0.003601173 -0.24514003 0.13772553
-0.01486187 0.103370905 -0.05560761 0.041729715 -0.3812744 -0.25073543 -0.026172427 -0.26694715
0.5366416 -0.018755296 0.055912692 -0.020451976 -0.20871203 0.03873495 0.42991582 -0.14485654
0.30577636 -0.23844121 -0.22322315 0.13561451 0.06907789 -0.34807834 -0.25614828 -0.041370433
-0.1527396 0.06943534 -0.1966302 0.13028315 -0.29255998 0.17960063 -0.045689285 -0.069072366

encoder.feature_encoder.atom_embedding_list.4.weight f4 [10, 64]
00000000: 7b86 133d 8315 5e3c 7bf2 453e e1d0 533e
00000010: ced0 35bd 0e16 64be a4ee 6ebd 17ca 03be
00000020: 3555 3e3e b7a3 3fbe 8b1a 8bbe 5cc5 933e
00000030: f019 a5be 869b 913e c9da 6abe 1869 90bd
00000040: eda9 ab3e 4c57 a13e aa21 29be 4252 af3e
00000050: 6886 7f3d 16d4 dfbd debd 21be eaf4 d4be
00000060: 297b 09be 0b80 fdbc 4366 aabe e481 a2be
00000070: 69fa e2be 2f9b cb3e aa20 96be c385 0cbf
00000080: c8c5 ccbe 7244 1bbe 91bb eabc 97f3 82be
00000090: cd51 823e e50d 14be 57c3 b8be 0ce8 11be
000000a0: 3d75 08be f0c1 79bd 5f95 bc3e 247b 03be
000000b0: 16eb bdbe b917 013e 497f f93d 1be6 aa3e
000000c0: 3b61 833e 07c0 98bd f3ab 263d c68b 6bbd
000000d0: 4488 a8bd d252 3f3e 8512 0a3e ffb7 6fbe
000000e0: 4e54 6e3e fa0f a23e de9b 81be aaaa 593e
000000f0: abbc 183e 4999 983c c5e5 913d 2d89 4b3d
00000100: c38d 5f3e 4313 ba3e 0773 fd3d 3cd8 4d3c
00000110: fae8 6bbd adc0 c6bb bcee b4bd 323d 033f
00000120: ffd8 9cbd a184 96be cf81 d53d 45bc 29bf
00000130: 83d0 503e 9364 73be edee 5dbe ac3e abbe
00000140: 4484 733c adb8 8abe 29c7 093f 4b8f a6be
00000150: 41e9 5dbe 4682 9d3d 5160 a13e c657 973e
00000160: 33dc 573d 2673 a5be 71b1 f23e 9e52 403f
00000170: 4a68 163f 9cd6 bcbe 0c29 54bc 377e 2ebe
00000180: 1511 e33e e2f5 f73d 51ae ef3e f935 033f
00000190: 9bea 983b c9bd cfbd c891 b33e 4f52 85bc
000001a0: 37b5 303e 21e4 73be 983f e3be b3da 6bbd
000001b0: 114c 8cbe 0426 253e cb7b c0be 263e 0dbe
000001c0: 39c2 02bf e35c c23e 58bf 533f bc6f ffbe
000001d0: 5b13 94bd 996b ffbe dcd0 ffbe 0edf 16be
000001e0: 1a51 82be 9df4 10bf e4ca 233f 70d8 9f3d
000001f0: 8ea2 85bc d579 18bf 10f2 9ebe 2946 373e
00000200: 9812 3ebf 1287 04bd ebff 90be 24b7 aabe
00000210: 92b4 a4bd abf9 46bc 0260 633e 5f88 753d
00000220: 296c 6bbe 78f1 f73e 9eb3 553e c150 e2bc
00000230: e4f3 9b3e 14d7 f5be 1593 02be d723 bbbd
00000240: d71a 143c c432 0cbe a3a4 1ebe 3261 133e
00000250: 83df a43d e8ec 383e a5be f4be 5cb5 6e3c
00000260: 26ed b5be a56a e93e 8a4a 283c 5b3f da3d
00000270: 6b0d 02bf 9214 03be 6ec6 00be 4003 25be
00000280: 5786 863d 4926 88be 4dd5 acbd 61bc 143e
00000290: eb8c b6be 6bf2 7e3e 89dd 33bd 12ea bcbe
000002a0: ae57 b63e 4cb0 d2be 2bad cbbe 59ae e9bc
000002b0: dbbd efbc d987 d4be 5638 2dbf fb0a 14bf
000002c0: 4d5e 5bbe e176 843d 2264 923d ad87 14be
000002d0: 4e18 6cbd 633c 103e bd81 c6bd 5f9f d2bd
000002e0: faa8 2ebe adaf b23e 0999 1bbe d1d3 3cbe
000002f0: f62a b23c 3f9e 983e aa96 ab3e 398e dfbe
00000300: 708a 94bd b6e7 57bc 9f97 9e3e 6876 0b3d
00000310: 595b 553e 00aa 8dbe dbde c93e 74df a8be
00000320: 84ec 1c3e 4b29 39be c6d0 debe 7a0f 5a3d
00000330: b610 1c3e 36f1 49be 6ecf 933d 72db 84be
00000340: d5da d73e bb17 9d3e 1c3a c7be b39f 503e
00000350: 4b99 813c 6692 033e a0bb ef3e cc73 52be
00000360: 2200 c43e 9416 c5be 1978 47be 21c5 febd
00000370: f232 debe 047f 8dbe 7f52 5b3e 6568 95be
00000380: 6f46 e1bd ba17 f73e 8558 a4be 457f 83bd
00000390: a4d9 afbd 3e23 89be 8555 e1be 17cf db3c
000003a0: 5f71 a6be 0bc6 dc3e 6f1e d13e 517b 133d
000003b0: e71a 90be 8969 a13e 39ea db3d 9682 533e
000003c0: 8a5c 243e 39b3 cabe 18a6 0cbf f184 603e
000003d0: 0d7d 5f3c 7dd0 453e 832f aabb a0c0 a7bd
000003e0: fc81 293d 4e69 0bbc 0d36 9abe 3b55 423f
000003f0: 6e54 123d 5a22 34be 8acf 97be e8c9 113f
0.036016922 0.0135549335 0.1933078 0.2068515 -0.044388585 -0.22274038 -0.058333054 -0.1287006
0.18587191 -0.18714796 -0.27168688 0.2886151 -0.3224635 0.28438967 -0.22935022 -0.07051295
0.3352808 0.31511915 -0.16516748 0.34242445 0.06238404 -0.10929124 -0.15795085 -0.41593105
-0.13425888 -0.030944845 -0.33281144 -0.31739724 -0.44331673 0.39766833 -0.29321796 -0.54891604
-0.39994645 -0.15162829 -0.028653892 -0.2557647 0.25453034 -0.14458425 -0.36086532 -0.14248675
-0.13325973 -0.06097597 0.3683271 -0.12839943 -0.3709342 0.12606706 0.12182481 0.33378682
0.25660118 -0.07458501 0.040691327 -0.057506345 -0.082291156 0.18683937 0.13483627 -0.23410033
0.23274347 0.31652814 -0.2531423 0.2125651 0.14915721 0.01862778 0.07123903 0.049691368
0.21831422 0.3634282 0.12375455 0.012563761 -0.05759523 -0.006065449 -0.088345975 0.5126525
-0.07658576 -0.29398063 0.1042515 -0.663029 0.20392041 -0.23768835 -0.21673174 -0.33446252
0.014863078 -0.2709402 0.5381952 -0.325312 -0.2167101 0.07690863 0.31518796 0.29559153
0.052700233 -0.32314414 0.47401002 0.75126064 0.5875288 -0.36882484 -0.012949239 -0.17040335
0.4434897 0.12107445 0.4681268 0.5125423 0.004666639 -0.101436205 0.3507216 -0.0162746
0.17256628 -0.23817493 -0.44384456 -0.057581615 -0.27401784 0.16127783 -0.37594447 -0.13793239
-0.5107761 0.37961492 0.8271384 -0.49889934 -0.07230254 -0.49886778 -0.49964035 -0.14733526
-0.254525 -0.5662325 0.6398146 0.07804954 -0.016312864 -0.595609 -0.31044054 0.17897858
-0.7424712 -0.032355376 -0.2832025 -0.3334285 -0.080422536 -0.012144486 0.22204593 0.059944507
-0.22990479 0.48426414 0.208693 -0.027626397 0.3045951 -0.48015654 -0.1275142 -0.09137695
0.009039602 -0.1369124 -0.15492491 0.14392546 0.08050444 0.18059123 -0.478017 0.014569607
-0.35532492 0.45589176 0.010271678 0.10656615 -0.50801724 -0.12800816 -0.12575695 -0.16114521
0.06568592 -0.2659171 -0.084391214 0.14524986 -0.35654387 0.24897163 -0.043912444 -0.3689733
0.3561377 -0.4115013 -0.39780554 -0.028525518 -0.029265335 -0.41509894 -0.67664087 -0.57829255
-0.21422692 0.06467987 0.07148005 -0.14504881 -0.057640366 0.14085536 -0.09692714 -0.10284304
-0.17056647 0.34899655 -0.15195097 -0.18440177 0.021749001 0.29808232 0.33513385 -0.43663195
-0.07252967 -0.013177803 0.30975053 0.034048468 0.20835628 -0.27668762 0.39427838 -0.3298298
0.15324599 -0.18082158 -0.43518656 0.053237416 0.1524075 -0.19720921 0.072172984 -0.25948673
0.42159143 0.30682167 -0.3891152 0.2037342 0.015820166 0.12848815 0.46822834 -0.20551986
0.3828135 -0.38493788 -0.19479407 -0.12439943 -0.43398243 -0.27635968 0.21418189 -0.2918121
-0.10999762 0.4826029 -0.32098785 -0.06420759 -0.085864335 -0.267847 -0.4401056 0.026832147
-0.3250837 0.43119845 0.4084353 0.036006276 -0.28145525 0.3152583 0.10738034 0.20655283
0.16050926 -0.3958986 -0.5494094 0.21925713 0.013640654 0.19317813 -0.005193652 -0.08191037
0.04138373 -0.008508993 -0.30119362 0.759113 0.03572505 -0.17591229 -0.29650527 0.5694871

encoder.feature_encoder.atom_embedding_list.5.weight f4 [6, 64]
00000000: 4657 a8be 225a 883d baa4 b4bd 9626 343e
00000010: 2a97 183d a268 e63d ccc6 04bd 2319 b5be
00000020: 253d 9ebe ec2e 1dbe b5f0 b3be c1a5 f43d
00000030: 166b ac3e 1502 0cbe ca24 babe 32cb 1fbd
00000040: 2261 47be fba5 ddbd 1079 593d 92a0 4c3e
00000050: 3686 1abe 4e27 ce3c 3158 1dbc 3063 00be
00000060: 38ec cabd b9d4 8ebe 98af c1bd 4926 d13d
00000070: f389 e93c 472c 69be 97ab 083e 3ec1 69be
00000080: e554 3ebe 1430 7b3e b600 763e 8df1 a23e
00000090: cdd7 e43c 30d3 b0be 2f69 d63c 7c80 423e
000000a0: a0db 09bf 6074 a7bd 21ae 8cbe 88d4 3e3e
000000b0: 874f bfbe 7747 a23e 067f 9fbc 40a1 623e
000000c0: fd7e 2cbc 8084 be3e 0f01 eebc c274 1abe
000000d0: 8888 e53d 136c 9abe 408c a53e d7b3 1e3e
000000e0: 5452 18bd 8b1e 02be c2ff 0f3e 9405 b73e
000000f0: 4213 8a3d 22c8 453d a8f0 3ebe 627c 683e
00000100: c61d ab3b a9e8 99bd eb4e 9b3c 8b72 09bd
00000110: 80cd c6bd 0705 4fbd bf6c a03a ca24 183e
00000120: fb17 723d 59b2 44bd c59a 2f3f 6155 683e
00000130: 4ecc a1be 0d72 25be 8942 d8bd 9299 c2be
00000140: d2ba 333e dc58 ad3d 7c34 9f3e a38b b9be
00000150: 4f31 cb3e 000d 17be e041 a6be ce50 6dbe
00000160: 81ee 92be 4c79 083e 4a83 393e 3821 a03d
00000170: 8126 b7be a0a5 953e 2220 09bd f0ab 2b3e
00000180: ec25 73be 6715 de3e ac9d c7be b2a0 84be
00000190: 7b12 20be 6396 23be ff84 02be 2c3d 1ebf
000001a0: 0d49 063f 3602 a2be 03d7 a53d c9b9 9ebd
000001b0: 8ff4 d3bd 00f8 a4be cbf1 92bc 4e71 933c
000001c0: 20db 713d eb90 e83b 9916 8e3b 2ba8 02be
000001d0: 3d26 debe 113e 11be aa7c 30bf 0dc7 22bf
000001e0: 8c0c b23e 42f1 833d 69d6 debc 8a81 79be
000001f0: 89bc 1bbd 53b0 ddbd f24f e3bc 5c20 32be
00000200: 5963 403e 20ed 1a3d becc f5bd 4e80 943e
00000210: 5dc6 e13d 822c 87bd 3cc8 cb3e 3b2f 5ebe
00000220: 889c ca3d 1327 3d3d 8cf7 183f 35a7 b43c
00000230: 463f 5bbd 2541 b4bd 9286 c4bd 7085 87be
00000240: 6740 b4bb b2f9 593e f4b5 a3be 37c2 2ebe
00000250: c721 87be 78c2 a53d 7f6d 263e 097d f43d
00000260: 2f72 c73d 0ff1 963e 6706 493e c8df 8d3c
00000270: 1f81 46be fb53 82bd 3d0b e83d d25a d53d
00000280: ddf9 8d3d 052e 853e 53c0 173e cfda 12be
00000290: 1017 d93c fbf1 333b 623c 7b3d 5337 1abe
000002a0: ea50 9e3d 08fb 903e 2a59 00be 3a06 723e
000002b0: 0437 773e 0d2a 4ebd d573 933d 5253 f6bd
000002c0: 9548 b1be 0c9b 22be 9349 5b3e 40ca 663e
000002d0: 2e84 6abe b62d 813e 5ac1 8d3e 8735 39bb
000002e0: 5f35 37be 11b4 23be fb4a b73d 1284 01bd
000002f0: 93c6 d23d 6453 59be 65cc d43e 285d 8bbd
00000300: b946 8f3e c226 5fbe 0cff b2bd 65bc 413e
00000310: 0062 c73d b1c5 17be ed75 75be 4a4f 62be
00000320: a879 7abe f2a5 25be 2c9f 35be eb04 adbd
00000330: d9d9 813e 691e 9fbd c745 39be 3c8a 123e
00000340: c66b 30be 8303 16be f321 46bd 6493 13bd
00000350: 39d9 38be 6065 6ebe 864a 92be 1448 febd
00000360: f9dd 173e 1260 c03c e4f3 6e3e e1f4 4f3d
00000370: 8ee1 60be 4fe8 e13c 5b99 99bd 49b9 293e
00000380: 851b a33d 105c 943e 135e 86be 92a8 0ebe
00000390: 676f 7ebe 8c5f d53c a912 3fbe 8ef1 f8bd
000003a0: 660f 8f3e bbdb c8bd 1679 133e 37b8 403e
000003b0: 9d65 593e 8b35 753e 60e7 383e 34a4 ed3c
000003c0: 45ec 7c3e 8d08 913e 4bc6 4ebe bc64 7a3d
000003d0: ab3e 4e3e f5a6 4abe 9249 eb3d a127 3b3e
000003e0: fda3 153c f44e adbd 2f52 c6bc 375d 823e
000003f0: 0e58 6dbe d7da ed3d 1b40 22be 5a49 4a3e
-0.32879084 0.066578165 -0.088204816 0.17592844 0.037253536 0.11250426 -0.03241615 -0.3537074
-0.30906025 -0.1534993 -0.35144582 0.119456775 0.3367545 -0.13672669 -0.36356193 -0.03901214
-0.19470647 -0.10822674 0.05309397 0.19983128 -0.1509026 0.025165226 -0.009603546 -0.12537837
-0.099083364 -0.2789667 -0.0945732 0.102123804 0.028508162 -0.22770797 0.13346706 -0.22827622
-0.18587072 0.24530059 0.24023709 0.31824914 0.027934933 -0.34536123 0.026173202 0.18994325
-0.53850746 -0.08176494 -0.274766 0.18635762 -0.37365362 0.31695148 -0.01946975 0.22131824
-0.010528323 0.37210464 -0.02905324 -0.15083602 0.11207682 -0.3016058 0.32333565 0.15498291
-0.03718789 -0.12706964 0.14062408 0.35746443 0.067419544 0.048286565 -0.1864649 0.22703698
0.005222055 -0.075150795 0.01895853 -0.033556502 -0.09707165 -0.050541904 0.001223944 0.14857784
0.0591049 -0.048021648 0.68595535 0.2268882 -0.31601185 -0.16156788 -0.105595656 -0.3800779
0.17551735 0.08464214 0.3109473 -0.36239347 0.39686057 -0.14751053 -0.32472134 -0.23175356
-0.2869759 0.13327521 0.18116489 0.07818836 -0.35771564 0.29227924 -0.03347791 0.16764808
-0.23744935 0.43375704 -0.38987482 -0.2590385 -0.1563205 -0.15975337 -0.12746046 -0.6181209
0.52455217 -0.31642312 0.08097651 -0.077502795 -0.1034938 -0.3222046 -0.017937561 0.017998364
0.059046865 0.0070973537 0.00433619 -0.12759463 -0.43388548 -0.14183833 -0.6894022 -0.6358498
0.34775198 0.06442501 -0.027201848 -0.24365821 -0.038021598 -0.10824647 -0.027748082 -0.17395157
0.18787898 0.037823796 -0.12001942 0.2900414 0.11024163 -0.06600286 0.39801204 -0.21697704
0.09893137 0.046179842 0.59752727 0.022052387 -0.05352714 -0.08801488 -0.0959598 -0.26468992
-0.0055008414 0.21286657 -0.31974757 -0.17066275 -0.26392958 0.080937326 0.16252707 0.11937911
0.09738576 0.29480788 0.19631349 0.017318621 -0.19385193 -0.06363674 0.113302685 0.10417713
0.06932423 0.26011673 0.1481946 -0.14341281 0.026500255 0.0027457464 0.061336882 -0.15060167
0.07730277 0.28316522 -0.12534013 0.23635188 0.2414208 -0.05033307 0.071998276 -0.12027611
-0.34625688 -0.15879458 0.21414785 0.2253809 -0.22901985 0.25230187 0.27686578 -0.0028260665
-0.17891453 -0.15986659 0.08949848 -0.031620093 0.10291781 -0.21223217 0.4156219 -0.068048775
0.27983645 -0.21792129 -0.087400526 0.18919523 0.09735489 -0.14821507 -0.23970766 -0.22100559
-0.2446047 -0.16176584 -0.177365 -0.08448204 0.25361517 -0.07769472 -0.18093024 0.14310545
-0.17228612 -0.14649777 -0.04837222 -0.036029235 -0.18051614 -0.23280859 -0.28572482 -0.124160916
0.1483077 0.02348331 0.23335224 0.050770644 -0.21961042 0.027576594 -0.07499953 0.16574587
0.07964233 0.28976488 -0.26243648 -0.13931492 -0.24847184 0.026046537 -0.18659462 -0.12155448
0.27941436 -0.09807535 0.1440166 0.18820272 0.21230169 0.23946206 0.18057013 0.029008962
0.24699505 0.28326836 -0.2019283 0.061131224 0.20141093 -0.19790252 0.11488642 0.18276836
0.009133336 -0.08462325 -0.02420911 0.25461742 -0.23178121 0.11614006 -0.15844767 0.19754544

encoder.feature_encoder.atom_embedding_list.6.weight f4 [6, 64]
00000000: 5ac1 663d 7d6d 30bd b674 30bc 71ce 773e
00000010: 454b 78be d58a ae3d e6d4 fabe cabf 1e3e
00000020: 9c82 8e3e 34a9 233e 4efb b53e d567 c83c
00000030: 7ae1 4b3e 218c ad3e e2c5 24be 805f 06be
00000040: e4da 193f a1c7 94be 003a 4a3e a476 4f3d
00000050: 0858 f8bd 201e 96be e21d 2e3e 73d2 cabe
00000060: 43cb d33e 7199 71bd c300 5ebe ee2b b83e
00000070: 8597 9abe fa51 e0be 1ff5 97bd 4621 573e
00000080: cdda 18bf b39f b03e a24e 393e 9594 4ebe
00000090: d965 5fbd b5e7 afbc 8983 e1bc 1cc0 c53d
000000a0: 03ef da3d ec7d 8dbe f45a 213e 6f7b 88bc
000000b0: 9f49 6bbe 8aae 0abf 73e1 01bf aa4d e23d
000000c0: c3a0 8fbe 12e7 133e cc4f 31bf cdf4 c53d
000000d0: 6373 7a3e f149 64be 991e aebe ea7e 453e
000000e0: 9b41 8dbd d20a 63be 2f7f ffbe b17c bcbe
000000f0: 90e5 7e3e 88c5 b13e f441 0ebf 830c 5fbe
00000100: f731 fb3d 029e 8abe 4652 d4be f1a6 b8be
00000110: 6708 88bd 45bc 5abf 95c0 c93d 3d60 c8bc
00000120: 3ef4 54be 8926 cb3e 4473 d2be 0631 18be
00000130: 8e3c b4bd 742e 17bf e051 df3c 81bb b3be
00000140: 6b91 823c 989b 06be ded6 a33d 31ee ca3d
00000150: c68a 5fbe 9535 01be a1ee b1be 8a96 61be
00000160: 635e 81be 95d8 13be 208b 0fbe 4312 cd3d
00000170: 2aad 90be 0338 363e 28a9 bc3d 3e55 80be
00000180: d319 2a3d 79bf 4c3e 34aa 043d 14fb cfbe
00000190: 0a0c 85be 3ea0 023e 401a d93e e985 493e
000001a0: 7a00 a1be ba61 153d 7f08 a33e 8825 6e3d
000001b0: 6aab 923d bde6 dbbd 8405 873e 0f10 a5be
000001c0: bd1d 843e 4432 efbd 02b1 10be b126 293e
000001d0: da6e 773c 1350 a73e 71a9 483e dbd4 443e
000001e0: 3a9a 2f3d e638 603e be56 413e 0502 643e
000001f0: e794 a4be 62ea 913e 50a0 1fbe 3278 52be
00000200: 3d95 b13d 3a33 f93d caea 983e 4f3f c03e
00000210: e7aa 5cbd 8060 ba3e 5be1 62bd 892b b23e
00000220: c8d4 3d3d e79d c0bc 1b05 ccbd d275 163e
00000230: 9b6a 7a3e 1f14 2b3e ddee c33d 2b7b 553d
00000240: f1bb 37be b691 4abe 9969 9ebc 717b f5be
00000250: afc9 a3bd dee5 d0bd 6d56 423d 9e55 903e
00000260: 5e1e 87be 8742 253e f168 5c3e d368 4ebf
00000270: 0999 243e c0a4 fcbe cb1e 57bd 0633 253d
00000280: 47d8 973d 4ad4 6cbe d3ce 473e a607 7f3e
00000290: abec fd3e 2fd9 5c3e 1c5d 3ebe 9990 ddbd
000002a0: c350 98be a8b0 5a3d c01b 7fbe 39ae db3c
000002b0: 8b9a 8dbd 41de 6d3c ac10 143e b791 e63e
000002c0: 86a1 05bf 10f2 46be 2df3 e03e 24b3 bcbe
000002d0: d342 8bbd 8d9d f2be 9271 34bd 105e 55be
000002e0: d72f 25bc 386c 803e 2651 af3e ba92 f83d
000002f0: 460f 09bd 10b2 6bbe 2097 403e f6ce 7c3d
00000300: a12b 54bd 8d56 c1be e03f 1d3e c35e 003f
00000310: 9cc0 8bbe e53d 9a3c 5932 e6be 9f1f a4bd
00000320: 4103 81be 3e64 ecbd 681e 2f3e 435d f1bd
00000330: 14f7 f43d 2fee 203e 2a77 203e 3177 8f3d
00000340: a963 d73e 3fb7 08bf 9e5e e43e c4d3 b83e
00000350: 51f1 23be 2a84 26be b964 fc3d 7c40 1d3e
00000360: 1734 0b3d 85e8 7fbd e742 1ebc 663b b93e
00000370: 3997 34bd f20d c8be fc92 3f3e cabb 81be
00000380: ed12 c03e 46eb cb3e d003 203d 9136 fcbd
00000390: 88fe 74bd d2d0 6cbc 2ec5 adbe 4245 8cbe
000003a0: 06b4 99bd 4e67 883e ea65 b63e 5e4c a6bd
000003b0: cd66 d43d 3e95 19be bd08 09be a33c 8cbe
000003c0: dabf d5bd b184 80be a86a 963d a08d 1f3e
000003d0: f3cf 583e e3d8 edbe 29c0 b43e 1699 42be
000003e0: bb33 36bf aa73 9dbe f60c 8cbe 55a5 61be
000003f0: 022d c7bd aa7e 82be 51c8 533e 6d4b 403e
0.05633674 -0.043073166 -0.010770014 0.24199845 -0.24247463 0.08522574 -0.48990554 0.15502849
0.27834022 0.15982515 0.35543293 0.024463573 0.19910231 0.33895972 -0.16091111 -0.13122368
0.60099626 -0.29058555 0.19748688 0.050650254 -0.12126166 -0.2931986 0.17003587 -0.39613685
0.41366014 -0.058984224 -0.21679978 0.35971016 -0.30193725 -0.43812543 -0.074198 0.21008787
-0.59708863 0.3449684 0.18096402 -0.20173867 -0.05454049 -0.021472791 -0.027528541 0.096557826
0.10690119 -0.27635133 0.15757352 -0.01666042 -0.22977303 -0.54172575 -0.50734633 0.110499695
-0.2805234 0.14443615 -0.69262385 0.09665833 0.24458079 -0.22293831 -0.3400772 0.19286695
-0.06897279 -0.22172096 -0.4990172 -0.36813882 0.24892259 0.34721017 -0.55569386 -0.21782117
0.122653894 -0.27073675 -0.4146902 -0.36064866 -0.066422276 -0.85443527 0.09851185 -0.024459952
-0.20796296 0.39677837 -0.41103566 -0.14862451 -0.088006124 -0.59055257 0.02726072 -0.35103992
0.015938481 -0.13145292 0.07999967 0.09908713 -0.21830282 -0.12618096 -0.34752372 -0.22030082
-0.25267324 -0.14438088 -0.14017916 0.10013249 -0.28257114 0.17794804 0.092119515 -0.25065035
0.041528534 0.19994916 0.03238888 -0.40621245 -0.25985748 0.1275644 0.4240284 0.19679989
-0.31445676 0.036470152 0.3184242 0.05814126 0.07161601 -0.10737369 0.26371396 -0.32238814
0.25803939 -0.11679509 -0.14130023 0.16518666 0.015102113 0.3267828 0.19595887 0.19221823
0.04287169 0.21896705 0.18880746 0.22266395 -0.32144853 0.28499132 -0.15588498 -0.20553663
0.08671043 0.12167974 0.2986663 0.375483 -0.053873923 0.3640175 -0.055390697 0.3479884
0.046345502 -0.023512794 -0.09961911 0.14693382 0.2445473 0.16706894 0.09567044 0.052119415
-0.17942788 -0.19782147 -0.019337462 -0.4794574 -0.079974525 -0.10200094 0.047445703 0.2819032
-0.26390356 0.1613866 0.21524407 -0.806287 0.16074003 -0.49344444 -0.0525196 0.040331863
0.074142985 -0.23127857 0.19512491 0.24905261 0.49594626 0.21567224 -0.18590206 -0.108185954
-0.29749116 0.05339113 -0.2491293 0.026816474 -0.06914242 0.0145183215 0.14459485 0.45033047
-0.5219959 -0.19428277 0.43935528 -0.36855423 -0.06799855 -0.47385827 -0.04405362 -0.20836663
-0.010082207 0.25082564 0.342416 0.12137361 -0.03346183 -0.23017144 0.1880765 0.06172081
-0.05179942 -0.37761346 0.15356398 0.50144595 -0.27295387 0.018828342 -0.44960287 -0.08013844
-0.25197795 -0.11542557 0.17101443 -0.117853664 0.11961189 0.1571586 0.15670457 0.07005156
0.42068222 -0.5340461 0.44603437 0.36099064 -0.16010024 -0.16261354 0.12323899 0.1535663
0.033985224 -0.062477607 -0.009659505 0.3617813 -0.04408953 -0.3907314 0.18708414 -0.25338584
0.3751444 0.39827937 0.039066136 -0.12315095 -0.059813052 -0.0144540835 -0.339395 -0.2739659
-0.0750504 0.26641315 0.3562463 -0.08120035 0.1037117 -0.14998338 -0.1338224 -0.27390012
-0.104369834 -0.25101236 0.07344562 0.1558137 0.21173076 -0.46454534 0.35302857 -0.1900371
-0.71172684 -0.30752307 -0.27353638 -0.22035725 -0.097253814 -0.25487262 0.20681883 0.18778773

encoder.feature_encoder.atom_embedding_list.7.weight f4 [2, 64]
00000000: 9fd8 943e defd 923e 758e 4bbe f878 aabd
00000010: 1357 8b3e 3c15 bcbe eb6b a43e bf04 5c3e
00000020: 13bc 0d3e f677 44bd 53a0 1f3f e041 f33c
00000030: 1428 993e fe2b 383c 36d3 97bd eac1 d1be
00000040: 7236 11bd 1f90 983e 8d8d a23e 7a16 e1be
00000050: b547 a33e 08ef 86be 7fce cd3e 5dfd 883e
00000060: c047 96bd 821b 643e 8144 8a3e 02b0 c93d
00000070: d6f2 acbd fd09 5f3e ded5 20be 3c78 90be
00000080: 14bc 453d 42ae 6ebd 8336 c1be e324 c43d
00000090: afdf 8abe 3bb9 f7bd 91f2 033e 9348 f3be
000000a0: 83e7 083e 9d50 a43e 89bb 67be 20af 34bf
000000b0: 97a4 ebbe 1e67 8b3e 5bd7 aa3c ab96 e53c
000000c0: 0a96 9dbd 0038 103e 0b93 123e a780 973e
000000d0: cad2 f3bd 6b85 0fbc bd54 74be 26e9 b3be
000000e0: 0f59 6fbe 1a86 67be 2788 55be cb86 8abe
000000f0: 4c79 ffbc 7f24 a63e ae38 583e 357f 923e
00000100: 9fd2 28bf f4ed 9dbe 39db 5dbd 2fca aabe
00000110: 5ab1 c4be b66f 2dbe bd92 6dbe 643e 5f3e
00000120: 9a7a 68be 13a9 33be 74f3 83be 39fb c13c
00000130: 7dce 443e a117 a83e f769 b7bb ca65 a1bd
00000140: b63b 973d 2657 43bd e97e 263b a901 073f
00000150: 2655 55bd 4311 88bd 74db f1be 0232 1fbe
00000160: c66f 55bd 75aa ad3d b552 c93d 8164 1c3d
00000170: 3c41 0fbe 3bf4 893e 6df1 9dbd 7f91 dbbd
00000180: d231 87be 6b99 183e 451e d83e c3fc c9be
00000190: 95ce 833e 15fd ad3e a934 b0be 1c60 283e
000001a0: da70 a3be 00f8 563c 2014 d13e b5a6 d53e
000001b0: d9a1 7c3e d687 c0be 5df4 073d 569e c13c
000001c0: 92a9 2cbe f6fa 9d3e 12d1 843d ea6c 52be
000001d0: 9995 1bbe 25ea b73d 4373 343d ea1d f03e
000001e0: 3951 bcbd bdf8 2d3e e31a 893e d235 cc3e
000001f0: 7bf5 a0be 7042 85be f495 d7be 30a1 1dbf
0.2907152 0.2870931 -0.19878562 -0.08323854 0.2721487 -0.3673495 0.32113585 0.21486185
0.13841276 -0.047965966 0.6235401 0.029694498 0.2991339 0.011240957 -0.07413332 -0.40968257
-0.035452314 0.29797456 0.3174862 -0.4396246 0.31890646 -0.2635424 0.40196607 0.267558
-0.07337904 0.22276118 0.2700539 0.09848024 -0.08444755 0.21781154 -0.15706584 -0.28216732
0.04827507 -0.058271654 -0.37736902 0.09577348 -0.27123782 -0.12095877 0.128855 -0.47516307
0.13369565 0.32092753 -0.22630133 -0.7057972 -0.4602401 0.2722711 0.020854643 0.028025946
-0.07694633 0.14083862 0.14313905 0.2959034 -0.11905439 -0.008759837 -0.2386045 -0.35138816
-0.23373817 -0.2260975 -0.20852719 -0.27055964 -0.031185769 0.3244972 0.21115372 0.28612676
-0.6594638 -0.30845606 -0.054164145 -0.3335738 -0.38416559 -0.16937146 -0.23200507 0.21801144
-0.22703019 -0.17544965 -0.25771677 0.023679363 0.19219394 0.32830527 -0.005597349 -0.07880743
0.07384436 -0.047690533 0.0025405234 0.5273691 -0.052083157 -0.066439174 -0.47237742 -0.1554642
-0.05210855 0.08479778 0.09830228 0.038181785 -0.13989729 0.26944146 -0.07712064 -0.107211106
-0.26405197 0.14902274 0.42210594 -0.39450654 0.25743547 0.3398215 -0.34415177 0.16442913
-0.31922036 0.013120651 0.40835667 0.4172875 0.24671115 -0.37603635 0.033192027 0.02363507
-0.16861561 0.3085553 0.064851895 -0.2054936 -0.15193786 0.089802064 0.044055235 0.46897823
-0.091951795 0.16989417 0.26778325 0.39884812 -0.31437287 -0.2602725 -0.42106593 -0.6157408

encoder.feature_encoder.atom_embedding_list.8.weight f4 [2, 64]
00000000: 3096 c6bd cca2 9d3e 750b b33d 9ade 9c3e
00000010: 4b5e f43e d844 4a3d 2bc5 0d3f cb00 e0bd
00000020: 2f05 d8bc 82d2 e4be d36f f3bd 9f99 babe
00000030: f89f ab3e 6689 99be 5e5e 473d 774f 4dbd
00000040: 4549 5c3c 2cbc 8f3e 6448 a5bd 6a4a 6ebe
00000050: 4d45 f53b a51c 573c 1bae 573e 2132 ee3d
00000060: 8558 3a3e 6d67 6a3e 6ebf fd3d dbbd 07bd
00000070: 7897 8dbd e9da f03e af6b 0cbe 5e93 0d3e
00000080: 5a9e 11be 98c4 dd3e dfbb 253d 8406 7bbb
00000090: 10ac 013e c648 b13d b29e 563c 8f2f dcbe
000000a0: cfdb 88be 6a9c e93d 3d2f 2dbe 40b5 c4be
000000b0: 088e 6fbd 3d92 29bd 42db 2d3e c112 89be
000000c0: 3cec 92bd 2e22 783e 4a8d 4d3e 448f 9d3e
000000d0: adf8 0fbf 0a3b c33d 5c1a 87be 3d0b c1be
000000e0: fb3b c03e da3f 6bbe e90a c13e b064 713e
000000f0: 259e 3ebe 11a2 2ebe dace 053e ba16 8cbe
00000100: 9d8b 883e 8ac9 77be 601f 2cbb 9cbe dfbd
00000110: adf8 24bf 113f a1be 5a2d 2fbf 0812 07be
00000120: 8ff2 e73c 516b cd3e 85b7 943e 4ad1 d43e
00000130: 84c0 dabe 2752 5f3e ed1c dc3d 4bf9 303b
00000140: 8738 1c3e 7a4c 6a3e a7b8 63bd 6a86 8fbd
00000150: 4110 363e d9bb cdbe 7d18 74be 7f9a 373c
00000160: 40a7 493c a852 dcbe 1483 72be 8ae1 a63e
00000170: 8ac7 c73e 6298 9cbe a746 9fbd b2cf bdbd
00000180: a2c8 ce3d 8aee 4e3e 7562 76bd 9187 87be
00000190: 1844 a03e 7bb7 05be 28a9 83bd e93c 8c3e
000001a0: 704a 713e c89e dfbd 3a2f 8e3e 91b1 a3bd
000001b0: 3e33 1f3e ba4a 1a3e 8d11 c4be a87b 9b3e
000001c0: fe1a 6bbd 37af 96be b448 283e 9d6a 2ebf
000001d0: 7a03 9d3e 70e2 5abc 3c37 873e c81b c9bd
000001e0: a166 f93c 22be 913e f062 553e 7ec1 993d
000001f0: 635f 03be 3944 7e3e d274 88bd da62 a93d
-0.09696615 0.30788267 0.0874242 0.30638582 0.4772819 0.04938206 0.5537898 -0.10937651
-0.02636966 -0.44691855 -0.11886563 -0.3644533 0.33520484 -0.2998764 0.04867398 -0.05012461
0.013445203 0.2807325 -0.08070448 -0.23270574 0.007485068 0.013129388 0.2106251 0.11630655
0.1819783 0.22891016 0.12390028 -0.033140045 -0.06913656 0.47042015 -0.13712953 0.13825747
-0.14220563 0.43314052 0.04046237 -0.0038303444 0.12663293 0.086564586 0.013099359 -0.43005034
-0.267302 0.11406787 -0.16912551 -0.38419533 -0.05848506 -0.04139923 0.16978171 -0.2677212
-0.071739644 0.24231789 0.20073429 0.30773365 -0.56238824 0.09532745 -0.26387298 -0.37703887
0.3754576 -0.22973576 0.37703636 0.23573565 -0.18615015 -0.17054011 0.13067189 -0.2736109
0.26669016 -0.24197975 -0.0026263818 -0.10925028 -0.6444195 -0.31493428 -0.68428576 -0.13190472
0.028313903 0.40120938 0.29046264 0.41565925 -0.42725003 0.21808682 0.10747705 0.002700406
0.15255938 0.22880736 -0.05559602 -0.07008059 0.17779638 -0.4018238 -0.23837467 0.011206268
0.012307942 -0.43031812 -0.23682815 0.32593948 0.39019424 -0.3058501 -0.07777148 -0.0926813
0.100968614 0.20208183 -0.06015249 -0.26470616 0.3130195 -0.13058273 -0.06428748 0.2739022
0.23563552 -0.10918957 0.27770406 -0.079928525 0.15546891 0.15067568 -0.3829464 0.3036778
-0.05739879 -0.29430553 0.16433984 -0.6813143 0.30666715 -0.013359651 0.26409328 -0.09819752
0.030444445 0.28465372 0.20838523 0.07507609 -0.12829356 0.24830712 -0.06662907 0.082708076
