checkpoints/molhiv_true_sanity/best_model.pt (torch, 520320 bytes, 104 tensors)

encoder.feature_encoder.atom_embedding_list.0.weight f4 [119, 64]
00000000: 354d 653e c8da 273d 6499 06be 68f1 a03e
00000010: df0d 44be c972 943a ed44 77be 767d f23c
00000020: ef8b b63d 8585 0abd 1a7d 29bc 4fe7 b5be
00000030: 1e2a 0b3e 7bff 68be cc37 02be 4f5f 91bc
00000040: 349f 703e cb25 473e 1fbc 98bb 417b f53d
00000050: 153c 58be 1be9 283e 5503 17bd 5b5a d8bd
00000060: 5e03 853d 1280 d4bd 9c8c 643e 8e8a 6e3e
00000070: 69ec ce3d 4f8b 31be b43c 34be c621 0a3e
00000080: 2efa 38ba 08ad 773e 6d9a e8bc bb0b c6bb
00000090: 5007 0fbe 6b95 b5bc 0a80 e0bd 1319 ae3d
000000a0: 2c15 e2bd 8625 1e3e 0d0a e9bc 8f2b 8a3d
000000b0: 34c9 a1ba a5a2 91bd 88d8 8dbc 4bf7 223c
000000c0: 6480 bb3d f691 53be 8f12 1fbd b016 81be
000000d0: 7aec fc3c 1071 bd3d 2b84 abbd 73d7 9dbd
000000e0: a266 8fbb ebc3 57be fdf8 62be 0e26 003e
000000f0: 6ca1 60bd 110e ac3d e2ae bebd d156 debc
00000100: bf19 6abd bbb6 50be ff6b 33bd bc70 083e
00000110: 4a80 82bc d013 4cbd 0faa 2abe 2005 9b3d
00000120: 0b21 69bd 6414 623d 3ce7 9b3c 3e59 9cbd
00000130: 7cbe 00bd 065b 93be 00f7 a2bd 1cf9 a0bd
00000140: f01b bc3d 21f1 a33d 607b 73bc a472 cdbc
00000150: 6f3e 7f3d 10d4 41be 4894 633e cf67 44be
00000160: 4fd3 873d 54ae 62bd f5f2 913e 7095 873e
00000170: e3c1 dfbd c2f5 7fbe d98d 4e3c 0c87 a83e
00000180: 5b51 893b 6781 e93d 9174 fc3d 212c 363d
00000190: d3db 33be 7889 153e 5413 44be 3ec4 4b3e
000001a0: 944b 6ebd f0d7 e43e 2d70 17bd 05c9 85be
000001b0: 418d dabd d6c1 22be 4394 4cbe c752 d6bd
000001c0: 2b1a 16be 6f09 25bd 8468 8a3d 5ebb a2be
000001d0: dc22 ce3d 5694 8fbe 042e a9be 4fc4 7f3d
000001e0: a96f e7bd 9b9f 5ebe 66f5 293d 97a8 023e
000001f0: 780b 3abd 2513 3b3e 4eae 953d d29c a5bd
00000200: 38fd 03be 7fba d03d 2743 503d 3ba7 0dbe
00000210: 6e19 523e 8196 e6bc a496 bd3d 4851 69bd
00000220: 527d 88be 8387 843d e4f6 f4bd fcca 5a3d
00000230: cb96 bb3c 74b8 15be ab01 79bc ad1f 70be
00000240: 100c 343d 29de 3fbd 02a1 7cbd 7a98 17be
00000250: 4058 4ebe 2f0b a3bd 9520 c13d 3027 04be
00000260: a56e 063e 7ce5 86bd b5f7 2fbe 1b22 023e
00000270: 5d1a 973d e6ab dfbd 7e56 763d dccf 13bd
00000280: 22ac ab3d c61c 2bbe ce5d ebbc 3688 20bd
00000290: 74e0 8f3d 183a 283e 262a a5be ce77 31be
000002a0: 8207 e1bc 0c40 eabd 025e 893d 3480 253e
000002b0: 5fb2 afbd fe4d 003e e269 21be f83a 113e
000002c0: 8029 67bd ba72 d13d 7320 69be 61b3 55be
000002d0: 8586 88bd 8527 8cbc b6ec c4bd 39fd 9a3d
000002e0: 8cbf a7bd 920b 923c 5010 8bbe 03af fa3d
000002f0: 63ce 09be 9918 0cbe 3aec febc ed50 b2be
00000300: d884 0dbe 203c 0a3e 14c3 173e 3fc8 00be
00000310: 58d6 203d 9d00 bfbd 637f 2d3e b962 e23d
00000320: 5d70 933d 012a 17be e564 b6bd 8ddc 1bbd
00000330: 1bc4 25be 09b7 d8bd cc42 433d 7fef 16be
00000340: b553 453d c095 87bb 144c 74bc c1a2 58bd
00000350: 1a4a c7bd cf58 2dbe 3057 fcbd 3f06 0c3e
00000360: a9e3 5bbc c28a 343e e064 1c3c 74d5 aebc
00000370: 4561 de3d 7b8e 2ebe a5d7 e5bd fbb7 d43d
00000380: 7e6b 41bd d9af 123e 0a71 87bc 0e39 043e
00000390: e112 103c 7409 9a3c 0e9a 1cbe d425 80bd
000003a0: 80bd 143c c36d a93d 1ce6 0f3d 4305 21bd
000003b0: eb39 a03a c861 1f3e ba5c f73d 3610 7d3d
000003c0: 319e 05be 105f 79bd 80bf ec3d 7ae6 263e
000003d0: e94d afbd bc8f 9d3d 0ea9 2dbd 4a3c eb3d
000003e0: 6be0 debc af61 13be e186 37be c14c debb
000003f0: d8a3 5a3d cf98 dabd 9ddf 113e d1e3 af3d
0.22392733 0.04098013 -0.13144451 0.31434178 -0.19145916 0.0011325713 -0.24147387 0.02960084
0.08913409 -0.03381874 -0.010344768 -0.35528037 0.13590285 -0.22753708 -0.12716597 -0.017745642
0.23498231 0.1944801 -0.0046610977 0.119863994 -0.2111667 0.16495173 -0.036868412 -0.10564109
0.06494783 -0.1037599 0.22319263 0.23295042 0.101036854 -0.17338298 -0.17601281 0.13489446
-0.00070563226 0.241871 -0.028393948 -0.006043879 -0.13967633 -0.022165975 -0.109619215 0.08500876
-0.110391945 0.15444002 -0.028447175 0.067465894 -0.0012343288 -0.071111 -0.017315164 0.009946655
0.09155348 -0.20661148 -0.03883606 -0.25212622 0.03087448 0.092500806 -0.083748184 -0.07707109
-0.0043762485 -0.2107083 -0.22165294 0.12514517 -0.054841444 0.084011205 -0.093107 -0.027141007
-0.05715346 -0.20382206 -0.043804165 0.13324255 -0.015930314 -0.049823582 -0.16666435 0.07569337
-0.056916278 0.055195227 0.01903116 -0.07634209 -0.03143166 -0.28780383 -0.07957268 -0.07860014
0.09185016 0.08004976 -0.014860958 -0.025079079 0.0623154 -0.18928552 0.22224534 -0.19180225
0.06632101 -0.055342034 0.28505674 0.264812 -0.10925653 -0.24996093 0.012607061 0.32915533
0.0041906065 0.11401635 0.12326921 0.04447568 -0.17564325 0.14603221 -0.19147998 0.19899079
-0.058177546 0.44695997 -0.036972214 -0.26129928 -0.10671473 -0.15894255 -0.19978432 -0.10465007
-0.1465842 -0.0402922 0.06758216 -0.31783575 0.10065243 -0.2804286 -0.3304292 0.062443074
-0.11300594 -0.21740572 0.041493796 0.12759624 -0.045421094 0.18269022 0.073086366 -0.08086552
-0.12889564 0.10191821 0.05084529 -0.13833325 0.20517513 -0.028147938 0.09257248 -0.05696228
-0.26658112 0.06471159 -0.11961153 0.053416237 0.022899052 -0.14621145 -0.015198152 -0.23449583
0.043956816 -0.046842728 -0.061676987 -0.14804259 -0.20150852 -0.079611175 0.09430043 -0.12905574
0.13128145 -0.065867394 -0.17184336 0.12708323 0.07378075 -0.10921459 0.06014108 -0.036086902
0.08382441 -0.16710195 -0.028731253 -0.0391924 0.07025233 0.16428411 -0.3225872 -0.17330858
-0.0274694 -0.11437997 0.06707384 0.16162187 -0.085789435 0.12529752 -0.15763047 0.14182651
-0.05643606 0.102269605 -0.22766285 -0.20869209 -0.066662826 -0.017108688 -0.096154615 0.0756783
-0.081908315 0.017827783 -0.27160883 0.12240412 -0.13457637 -0.13681258 -0.031118501 -0.34827366
-0.13820207 0.13499498 0.1482051 -0.12576388 0.039266914 -0.09326289 0.16943125 0.11053986
0.07199166 -0.14762117 -0.08905963 -0.03805213 -0.1618809 -0.10581786 0.047671124 -0.14739798
0.048175532 -0.0041377246 -0.014910717 -0.05288959 -0.097309306 -0.16928409 -0.12321317 0.13674258
-0.013420978 0.17631057 0.009545535 -0.021342017 0.108583964 -0.1704654 -0.112227716 0.10386654
-0.047221653 0.14324893 -0.016533393 0.1291239 0.008793564 0.018803336 -0.15293142 -0.06257215
0.009078383 0.082728885 0.03513156 -0.03931166 0.0012224292 0.15564644 0.12078233 0.061783038
-0.13048626 -0.060881674 0.11559963 0.16298857 -0.08559782 0.07693431 -0.04239755 0.114861086
-0.02720662 -0.14392732 -0.17922546 -0.006784052 0.05337891 -0.10673677 0.14245458 0.085883744

encoder.feature_encoder.atom_embedding_list.1.weight f4 [5, 64]
00000000: 4384 eabd c71c d9bd 164b 413d 618a 2b3e
00000010: 79f0 de3d aa0d 5f3e 51a4 203e a1cf b33d
00000020: b7fc bf3c 87fb 8e3e f42e 513e 1bef c73d
00000030: b369 6fbe 0570 083b 993f 88bd d45a 6abb
00000040: 4fc5 813e 5705 3ebe 34e8 41be d6bf ddbd
00000050: 2924 67bc ad57 45be cf38 933c 08fe acbe
00000060: e58a 96be b9c1 0a3e b0d2 373e a84c d9bd
00000070: 2f56 e5bc b859 153c 0607 81be e823 4fbd
00000080: b35e 223e 4e34 463c 3329 493e 8267 8ebe
00000090: bdef 96be 5e06 5fbe 2698 4dbe a5b3 b1bc
000000a0: a848 ea3d 25de ecbd f91f 78be 5d7b 04be
000000b0: 8686 403e 4ca3 e43d d232 18bc e301 4f3e
000000c0: 6866 cb3d aa18 263e b017 02bd 341a 82be
000000d0: fa30 083d 7712 3c3d 843d 1a3e ff38 11bd
000000e0: 059c e1bd 3d32 8e3d 3f1c 1abe 4314 9b3c
000000f0: 9491 2fbe 7fb7 8dbd b484 2c3e 4324 d63d
00000100: f050 4e3e 0f29 7cbe c103 7cbd 246c 56be
00000110: 341f cdbe 2802 99be 3df9 3fbe 6731 f9bd
00000120: 8164 9f3c 2112 96be 3bbe 063e 9213 9d3c
00000130: 3323 db3d e4d9 603d 927b b3be 0f89 6abe
00000140: 7cea 713e d0cb 553e 4e29 cb3d 11bf 3abe
00000150: ccdc 003e 5bb6 67be 13de b6bc 660a ab3c
00000160: 7df4 943d ca26 28be 7127 7f3e 9efb 1d3e
00000170: 5fdc ccbd 1870 dabe c7c1 3fbe 9a63 7b3d
00000180: 71c5 38bd db18 6b3e 73d5 48be 91f0 513e
00000190: 5e0d 51bd 452d 03be d2db cebe 45dd 7e3e
000001a0: 54ca 72bd 6f4a 8a3a 176f 08be 7800 773c
000001b0: 92d1 b8bd a8fe 45be 5e9e 1e3d 069f 38be
000001c0: 9b29 493e be14 3dbe 4f8c b3bc b2f1 7cbe
000001d0: 445e 8bbd 5ee6 a33d 8bf2 09bd 4d35 6abe
000001e0: 010c 9fbe 8ee5 c53d 5e85 80be 9ae1 173e
000001f0: c623 30be b86c d83d e0a4 a7bc a8c2 f13c
00000200: f0f7 c6bb 6a49 143d 3f31 073c 796f 643e
00000210: 42f4 2cbe 45ba 083e c90b 8b3e c2e1 58be
00000220: e580 6cbe 741a cc3d cc61 d6bd 99e9 d9bb
00000230: 9fd4 8cbe 7770 383e af7b 9fbc 0882 943c
00000240: e0eb d1bd aba3 d13d b073 9ebb d4ad f0bd
00000250: 0503 963d de3a e0bd e01e e03d 1899 90be
00000260: 0eab e9bd 4fe3 4ebe 2876 003e a308 54be
00000270: 3ef4 693e 590a 933d a20e 393e 58f7 44be
00000280: 1449 75be 9e33 46bd 5de8 25be 1c8d ccbd
00000290: 8734 783e 8e62 213e 166d b2bd b15a 373e
000002a0: 2040 4abe 6075 2fbe 46be 053e 8e5b 023e
000002b0: 199c aebd d90d 4ebe 81c7 3c3d f4a3 913e
000002c0: 9f96 943e 8eb8 773e 286f 62be 5b28 483e
000002d0: 1a2f 5d3d 2915 75be 9024 9b3c 15cc 91be
000002e0: b9a3 813d 3f08 26be 8d29 4bbe 6614 6b3c
000002f0: e2a7 4b3e 9a7a 293e 6fdb 3abe 97bf 2b3e
00000300: 51b2 e03d 4f92 49be b0c3 9bbd e7b6 90bd
00000310: b66b 75be 54c2 89be 090b 4dbe 013f 893e
00000320: c574 a0bd 66e0 e73c 06bd 7abe d5c0 4fbd
00000330: a528 e43d e4cd c3bb d0d3 bdbc 04b4 80bb
00000340: 9006 4b3e 8eb6 54be 8b93 87be ab6a 91be
00000350: cf8e f53d 7d32 28be 5b0f 04be f3bf 1fbd
00000360: 0504 313e c7f4 273b e969 6c3d 80a1 a9bd
00000370: 9f54 243e 2fa2 16be 62c0 683e 318c 783e
00000380: a6ce 87be 9737 bfbd c889 11bd 3c97 22be
00000390: 05b3 813c e735 c6bd a6fa 793e 351b bfbc
000003a0: 2fc9 28be 4def 15be bc18 8dbe 1894 39be
000003b0: 397f 6a3d c96a b63d e622 02be ab9e 443b
000003c0: 9e80 173e 42a6 1f3d 5310 083d 1215 46be
000003d0: 98f0 8d3e ed48 b2bd 4d46 c73c dcbc 14bd
000003e0: 832d 033e 031b 7abe 186e 893d 3560 6abe
000003f0: 8055 6e3e 490a eebd 1990 763d 01db 9f3c
-0.11451008 -0.10601192 0.04719075 0.16752006 0.1088571 0.21782556 0.15687682 0.087798364
0.023435934 0.27926275 0.20428067 0.097624026 -0.23380165 0.0020818722 -0.06652755 -0.0035759704
0.25345847 -0.18556724 -0.18936235 -0.108276054 -0.014107742 -0.19271727 0.017971424 -0.3378756
-0.29402843 0.13550462 0.17951465 -0.10610324 -0.027995197 0.009115629 -0.2520067 -0.050571352
0.15856437 0.012097431 0.19644623 -0.27813345 -0.2947978 -0.21779773 -0.20077571 -0.021692107
0.11439639 -0.11565808 -0.24230947 -0.12937684 0.18801317 0.11163959 -0.00928946 0.20215563
0.09931642 0.16220346 -0.03176087 -0.25410616 0.033249833 0.045916047 0.15062529 -0.035454746
-0.110160865 0.06943176 -0.15049838 0.01893056 -0.17145377 -0.06919765 0.16847497 0.10456135
0.20148063 -0.24625038 -0.061527018 -0.2093969 -0.4006287 -0.29884458 -0.1874742 -0.12167626
0.019457104 -0.29310706 0.13158505 0.01917437 0.10700073 0.054895297 -0.35055214 -0.22903846
0.23624605 0.2087853 0.099199876 -0.18236949 0.12584227 -0.22628157 -0.02232269 0.020878982
0.07273195 -0.16421047 0.2491739 0.15428016 -0.1000297 -0.42663646 -0.18726264 0.061374284
-0.04511017 0.229587 -0.19612674 0.20501925 -0.05103814 -0.12810238 -0.40402085 0.24889095
-0.059274986 0.0010550747 -0.13323627 0.015075795 -0.09024347 -0.19335425 0.03872525 -0.18029413
0.19644777 -0.18464944 -0.02191749 -0.24701574 -0.06805089 0.080029234 -0.033678573 -0.22871895
-0.31063846 0.09662925 -0.2510175 0.14832154 -0.17201146 0.105676115 -0.02046436 0.029511765
-0.006072037 0.036202826 0.008251487 0.22308148 -0.16890052 0.13352306 0.2715743 -0.2117987
-0.23096044 0.09965983 -0.10467872 -0.0066501615 -0.27505967 0.18011652 -0.019468157 0.01812841
-0.10250068 0.10236295 -0.0048355684 -0.11751905 0.07324795 -0.10948728 0.10943389 -0.282418
-0.11409579 -0.20203899 0.12545073 -0.2070642 0.22847077 0.07179708 0.18071988 -0.19234979
-0.23953658 -0.04838907 -0.16201921 -0.09987852 0.24238788 0.15760252 -0.08712213 0.1790569
-0.19751024 -0.17134619 0.13060865 0.12730238 -0.08525867 -0.2012247 0.0460887 0.284454
0.29021165 0.24191496 -0.22112715 0.19546644 0.053999998 -0.23933853 0.018938333 -0.28476015
0.06330056 -0.16214083 -0.19840069 0.014348125 0.19888261 0.16550675 -0.1824777 0.16772304
0.10971511 -0.19684719 -0.07605684 -0.07066136 -0.2396687 -0.26906073 -0.20023741 0.2680588
-0.07834772 0.028305244 -0.24486169 -0.05072101 0.11140565 -0.005975472 -0.02317229 -0.0039277095
0.19826722 -0.20772764 -0.26479754 -0.28401694 0.11990129 -0.1642551 -0.12896483 -0.039001416
0.1728669 0.0025628076 0.05771819 -0.08282757 0.16047905 -0.14710306 0.22729638 0.24272229
-0.26524848 -0.09336775 -0.03553179 -0.15878004 0.015832433 -0.0967825 0.24412021 -0.023328403
-0.16482995 -0.14642067 -0.27557933 -0.181229 0.057250235 0.089070864 -0.12708625 0.00300018
0.14795157 0.038976915 0.033218693 -0.19343975 0.2772262 -0.08705316 0.024325514 -0.036312923
0.1281033 -0.24424367 0.06710452 -0.22888263 0.23274803 -0.116230555 0.060196016 0.019513609

encoder.feature_encoder.atom_embedding_list.2.weight f4 [12, 64]
00000000: 73d8 1ebe 93fb 34be c932 92be a4cf b8bd
00000010: e1f8 4c3e 97ac 58be 9b54 493e 0af5 a1be
00000020: fca5 8b3d 1254 bf3e 1695 3dbd 4ef3 b7be
00000030: bf62 85bd 17e2 6dbe c040 85be d0cc bfbe
00000040: 1b2d 6bbd 76c6 8fbd 6ee7 7b3e 1e77 af3d
00000050: 04f6 a4bd c380 00bd 6376 b33d d35c 433e
00000060: 40fe 1d3c 43d9 1e3e 382e 863e 0c66 f83e
00000070: 289a 75be 4875 033e 223f 2dbe e31f 793e
00000080: 2f40 ca3d 50c4 113e 80ec 0aba 94e3 3d3e
00000090: bb49 71be dd35 113d 98c0 ae3d 5b73 673d
000000a0: d4a2 b0bd 4fb6 d03e 5bcf 153e bd7c 283e
000000b0: 8755 dabe 5735 973d d428 7ebc 3de8 2abe
000000c0: f476 2c3e d51b 88be 9636 cf3d 1528 a6bd
000000d0: 01c0 3b3e 2a43 e5be d308 69be c667 1cbe
000000e0: 3e91 cc3d b0d4 82be 058f 12bd d082 313e
000000f0: 825b c43d e1bc 2abd 18da 8c3e 2564 1dbe
00000100: 15c4 9dbd 6921 78bd 34a3 89be aa18 41be
00000110: 57e6 2dbd b625 863c 44f3 07be 6b44 a1be
00000120: 7039 3dbe 4f8f 46bd 51ab 763e 6723 09be
00000130: da94 8dbe 604d 55be e848 153e 7d6b 173e
00000140: 0f52 c1be b66c 7f3e eeb4 a83d fd90 ca3c
00000150: 6bb7 5e3e 92df b93d 33c5 c1bc 5538 15be
00000160: e1c9 3dbe a740 0dbd e445 3c3e 9c0e ce3e
00000170: 2500 ce3d 2e5a aa3d 4ba4 27be 0312 533e
00000180: 5339 1cbe f7ec 0c3e 0c3c 043e 51df afbe
00000190: 9042 9dbe 6612 7a3e 6dd8 a93d f3a5 0cbe
000001a0: 0459 1abd ec53 9c3d ba5d 28be e6a7 b53d
000001b0: 421f ec3c 60bb 64be 309e 7cbe d62c 4fbe
000001c0: f6b6 183e fcfc 32be b504 34be 807b bebe
000001d0: 4ff5 87be 3693 2cbd 360a a6be f1b8 23be
000001e0: 94c6 2c3d 9b67 d43d 6494 993d 71f7 39bd
000001f0: d3ac 793e b51d 70be 6f6e 51be dffd 9dbd
00000200: b3df 84be 268f b23e 9178 8a3e 5d6f 0b3e
00000210: 3e3f c43d ba58 9c3e d453 14bc 1d0d 30bd
00000220: 7405 6fbe c7d7 6e3d bdbc 38be ec76 dc3d
00000230: ae34 29be ca7a 873d d620 a43e d62a f6bd
00000240: 8140 533e cdde a5be bc13 27be 8690 6cbc
00000250: afc5 443e c6de aebd 6bdc e5bd 473d 393e
00000260: 1d68 583e 65b2 383d 252d aabe b528 09be
00000270: 7087 093e a08c db3c 8215 b43e 6db0 8c3e
00000280: 58f6 7e3d bda1 96be a0a5 fcbd d601 d73d
00000290: 559a 46be 0ece 5e3e 1ebf 893e db01 11be
000002a0: 9859 bbbd 990a 88be b835 e53d 9e37 2c3e
000002b0: 1c64 c23e 9d0a ccbd b315 0f3e e224 65be
000002c0: ad7f d93d 48e0 b1bc c424 6abe 2828 303e
000002d0: 40cf 0d3e bee0 7abe 9cd0 60be 7251 15be
000002e0: f0bc c63d 4a86 933e 81a2 8f3e f2f0 8c3c
000002f0: 9472 a9be d291 e8bd 39ea 56be 652b 9dbe
00000300: 38cc 09bc 2732 6cbe 208c 5dbe 9e27 b1bd
00000310: 9d92 563d e088 8e3e dfb3 af3b 2f5f 283e
00000320: 3e37 21bd ea83 b2be 174b df3d e158 80bd
00000330: 2060 62be be3c 33bd 7fa2 553e 1970 9fbd
00000340: 017d 89bd 0698 f5bc a36d 75be 4313 2d3e
00000350: abec 903d 2737 c43d 9ad1 1fbe 77cb d8bd
00000360: 8dfc 8cbe 6013 92be 30aa 5abe 8128 d73d
00000370: 85c2 273e 40a0 a63d 490c 76bd 4d53 b93e
00000380: 360f 10be 666f 11be b104 a13d 9c43 04be
00000390: b8fe 18be 2222 82bc d52c acbe b49b 81be
000003a0: 6c6b 3bbe 1b7d cfbe 69ce ce3d f06a eebd
000003b0: 27a4 eebe baaa 0bbe 907e c23e dd2c de3c
000003c0: 730d 92be 403d 50be 9604 493e 461c 0d3e
000003d0: 46da fabd 9bed 6f3e 3d6b 093e 0260 2a3c
000003e0: f102 8d3e 9528 6b3d fc2f 3dbe f61a 8d3e
000003f0: d882 7e3e ef09 48be e925 3b3e 6fa0 98bd
-0.15512256 -0.17674093 -0.2855437 -0.09023979 0.20016815 -0.21159588 0.1966118 -0.31632262
0.068187684 0.37368828 -0.046284758 -0.35927814 -0.06512975 -0.23230778 -0.26025963 -0.37460947
-0.057416063 -0.07020275 0.24600002 0.08567642 -0.08054736 -0.031372797 0.08762815 0.19078378
0.009643137 0.15512566 0.26207137 0.48515356 -0.23984587 0.12837708 -0.16918615 0.2432857
0.09875523 0.14235044 -0.00052995235 0.18543845 -0.23563282 0.03545176 0.08532828 0.056506496
-0.08624807 0.4076409 0.14629881 0.16453834 -0.42643377 0.07383221 -0.015512664 -0.16690154
0.16842252 -0.26583734 0.10117833 -0.08113114 0.18334962 -0.44777805 -0.22757272 -0.15273961
0.0998864 -0.25552893 -0.035780925 0.17335057 0.09587766 -0.041684035 0.27510142 -0.15370233
-0.07703415 -0.060578737 -0.26882327 -0.18857065 -0.042455997 0.016375404 -0.13276392 -0.3149751
-0.18478942 -0.048476513 0.2408879 -0.13392411 -0.27652627 -0.20830297 0.14578593 0.14787097
-0.37757918 0.24943814 0.082376346 0.024727339 0.21749656 0.09075846 -0.023653602 -0.1457227
-0.18534042 -0.034485485 0.18386036 0.4024552 0.10058621 0.08317982 -0.16371267 0.2061234
-0.15256242 0.1376227 0.12913531 -0.34350064 -0.30714846 0.24421081 0.08293233 -0.1373518
-0.03768255 0.07633194 -0.16442004 0.08869915 0.028823499 -0.22337103 -0.24669719 -0.20231947
0.14913544 -0.17479318 -0.1757992 -0.37203598 -0.26554343 -0.04213258 -0.32429665 -0.15988518
0.042181566 0.10371324 0.074990064 -0.045401994 0.24382333 -0.23448832 -0.20452283 -0.07714438
-0.2595192 0.3487484 0.2704511 0.136167 0.09582375 0.30536443 -0.009053189 -0.042981256
-0.23341924 0.05831125 -0.18040748 0.1076487 -0.16524002 0.06615217 0.32056302 -0.12019889
0.20630075 -0.32396546 -0.16316122 -0.014438754 0.19216035 -0.085385844 -0.11223682 0.18089782
0.21133466 0.045092005 -0.33237568 -0.13394435 0.13430572 0.026800454 0.3517266 0.27478352
0.06224665 -0.29420272 -0.12336278 0.10498397 -0.1939481 0.21758291 0.26903623 -0.14160864
-0.09147948 -0.26570585 0.11191887 0.16818091 0.37967002 -0.09962962 0.13973121 -0.22377351
0.10620055 -0.021713391 -0.22865587 0.17202818 0.13848591 -0.24499795 -0.21954578 -0.1458185
0.09704006 0.28813392 0.28053668 0.017204735 -0.3309523 -0.11355938 -0.20987786 -0.3069717
-0.008410506 -0.23066007 -0.21635485 -0.086501345 0.052385915 0.27838802 0.0053620185 0.1644256
-0.039359324 -0.34866267 0.10902994 -0.06266952 -0.22106981 -0.0437591 0.20862769 -0.07785053
-0.06713296 -0.029979717 -0.23967604 0.16901879 0.07076391 0.09580832 -0.156073 -0.10585683
-0.2753643 -0.28530407 -0.21353984 0.105057724 0.16382797 0.08136034 -0.06007031 0.36196366
-0.14068303 -0.14202651 0.07862223 -0.12916416 -0.14940917 -0.015885416 -0.33627954 -0.25314105
-0.18302697 -0.40525135 0.10097963 -0.116414905 -0.46609613 -0.13639346 0.37987185 0.027121002
-0.28525886 -0.20335865 0.19630656 0.13780317 -0.122486636 0.23430483 0.13419814 0.010398867
0.27541307 0.05741175 -0.18475336 0.27559632 0.248546 -0.1953504 0.1827618 -0.07452475

encoder.feature_encoder.atom_embedding_list.3.weight f4 [12, 64]
00000000: 3eb7 243e eb7d 1b3c b509 0dbe 102b a73e
00000010: 515a d83d ecce 4c3e fb9d c4be 4c0c fdbd
00000020: cde4 1c3e 259d 8b3e d7a5 693e 4cca 09be
00000030: 8066 0fbd a49f 6f3d cea9 45be c60c 47be
00000040: a9eb 8f3e f9dd 09be 0833 9bbe 053e b4bd
00000050: 2dc2 9f3d e100 4fbe 8d0c 983e bb3e e13d
00000060: b5df d23c fac1 8d3e e94a 913e d991 4e3e
00000070: 4855 9ebe 4160 473d 67bb 03be 1d63 edbc
00000080: 1a2f 103b 2fbd 953e 2ca8 e2bd 837c 1fbe
00000090: 9cc5 c6be a41e 9d3d 3269 1f3d ca44 373e
000000a0: 4c1f 403e b91f 303d 09c4 813d d506 063e
000000b0: d5bf 013d 1f83 15be c7bf b3be b578 063d
000000c0: d455 1dbe 4f3d 9dbe d5aa a4be 44dc 123d
000000d0: 81af e73d 3209 c43d 228f f9bd 80f5 8ebe
000000e0: 3a56 67be 2c86 213e 88b0 71be b76c fe3d
000000f0: 8c5d 07be c642 9d3e 57bb 323e f68e 1abe
00000100: 9e9c 963e 0107 583e 8a01 3f3e c1ee 383e
00000110: 8e94 08be c2a4 43be 2b18 83be aecc 6abc
00000120: d821 873d 47f2 4d3d 82dc 8b3d 11ac b2be
00000130: 37f3 96bd 3dea 4dbd 8ec7 c7bd 42f9 c0bd
00000140: c623 0b3e 7ca8 093e b6a8 3bbe 7e96 db3e
00000150: 3f7a 783d 6517 c83e d086 6ebe 590b 40be
00000160: c53e 81be 51de 033e 428f e53e 4bb0 ed3e
00000170: c899 a83e 34a5 8cbe 097b d0bd d431 843e
00000180: 74ff 31be d883 863e 6c9f 74bc d738 2cbe
00000190: 2d46 c5be 53fe 11be d5df e6be f4cb 10be
000001a0: de4b 813d 2a3d be3e d218 1a3d 20e9 db3c
000001b0: 1b16 a9be 0a56 e1be de60 c53c 6b31 36bc
000001c0: 2e80 343e df56 94be b637 23be 0242 ebbd
000001d0: 972c 463e 3cc6 66bb deaf 83be 6f44 5abe
000001e0: d598 393d faf1 1abe 45fb 5fbe 87ba 9d3e
000001f0: c9bb 61be ed6d a63d 10f4 d8bc dc51 1cbe
00000200: cd7d dd3c 11ba 7cbd 70e3 233e 9454 6fbe
00000210: 1fd3 28be eefd 033d 0a16 e1bd 73ff 483e
00000220: b69d 913e feec d53e d95c c93e 6788 6a3e
00000230: 90f6 3c3d efe1 3cbe 8196 4a3e f9d2 1dbe
00000240: 6088 1a3e 0443 24bd 5a6c dabd 4b93 ae3e
00000250: d273 423e a10f 8bbd bc54 aabd cc48 7fbe
00000260: 4e5b 173e effb 52be 6af5 3ebe 319e 683e
00000270: 345d 083e 6214 bf3d e8ad 70be 9c11 22be
00000280: f2e2 f1bd ade7 ad3d 326c 5abe 7a87 abbe
00000290: e17d 00be 2bba 8ebe b86a 7b3e 0a28 e73d
000002a0: b732 42be 63eb a3bd 3b74 a2bc 990d 34be
000002b0: dff2 3cbe 576d 263e 241f bcbd bd27 9b3e
000002c0: 5d7b 58be 0969 d4be 99bb c7bd c4ac 953d
000002d0: f767 43be 4135 24be 8956 a33d 9c7d 17be
000002e0: 02cc 733e c0f5 e5be b489 abbe 0224 793e
000002f0: 12da 1dbe d722 6d3e 4bab 38be 1925 6dbe
00000300: 1e28 df3d 9c53 d83d e700 c83d fc5b 1a3e
00000310: 03e0 a0bd 885e 48be 5ac0 6ebe 1aa4 80bb
00000320: 7155 a2bd 03d4 933d 81b5 20bd 31b6 8b3e
00000330: 3de3 d63d ad25 0e3d 6a02 32be 6ac9 a93e
00000340: d60e a0be b941 143e 2d6b dfbd 3f54 9abe
00000350: dc11 5abe 5bd6 e23d 1c73 903e dfad 85be
00000360: a787 56be b6a2 cc3d 34c2 223d bd69 32be
00000370: 6f36 873d 9f1e debc 880b 7bbe 7fd9 af3d
00000380: cc22 30be 6e53 82bc 9844 e7bd 629c 85bd
00000390: faf0 05be e55c 3abe 5cda 263e e831 57be
000003a0: 224e 423e f951 773e fb38 38bd 7290 a7bc
000003b0: 06ac 32be 107f 02be 4014 c33e 25e5 9ebd
000003c0: 97ab 4d3d 05f7 aebe d23c 2ebe 26bf 6b3e
000003d0: df19 873e 0ca3 82be a12e 07be 9c34 3a3e
000003e0: 8129 033c 6cc3 403e f9e0 8dbe 0fdb 5e3c
000003f0: 68f1 8cbe 3fe5 d13d 6f4c 663d 57c9 fe3c
0.16085526 0.00949047 -0.13773234 0.32650042 0.105641015 0.2000081 -0.3840178 -0.12355861
0.15321656 0.2726833 0.22817169 -0.13456076 -0.03500986 0.058501855 -0.19303057 -0.19438466
0.28109482 -0.13463582 -0.3031237 -0.08800892 0.07800708 -0.20215179 0.29697075 0.10998293
0.025741437 0.27687055 0.28377464 0.20172824 -0.3092444 0.04867578 -0.12864457 -0.028977925
0.002200073 0.29245898 -0.110672325 -0.15574841 -0.3882264 0.0767186 0.03891868 0.17897335
0.18761939 0.042999003 0.06336219 0.13088544 0.031677086 -0.146008 -0.35107252 0.03282996
-0.15364772 -0.30710837 -0.32161584 0.035854593 0.113127716 0.09572066 -0.121855035 -0.27921677
-0.22591487 0.15773839 -0.23602498 0.124230795 -0.13219279 0.30715007 0.17454277 -0.15093598
0.29416364 0.21096422 0.18652931 0.18059827 -0.13337919 -0.19105819 -0.25604376 -0.014331026
0.06598252 0.05027988 0.06829168 -0.348969 -0.07370608 -0.050272215 -0.09754859 -0.09422542
0.13587865 0.13443178 -0.18326077 0.42888254 0.060663458 0.3908035 -0.23293614 -0.18754329
-0.25243202 0.12877776 0.4483586 0.46423563 0.32929826 -0.2746979 -0.10179717 0.25819266
-0.17382604 0.26272464 -0.014930587 -0.16818558 -0.38530102 -0.14257173 -0.45092645 -0.14140302
0.06313299 0.3715604 0.037621327 0.026844561 -0.33024678 -0.44010955 0.024094041 -0.011120181
0.17627022 -0.28972527 -0.15939221 -0.11487199 0.19352947 -0.0035213372 -0.25720114 -0.21315168
0.045311768 -0.15131369 -0.21873195 0.30806372 -0.2204429 0.081264354 -0.026483566 -0.15265602
0.027037526 -0.061700884 0.1600473 -0.23372108 -0.16486786 0.032224588 -0.10990532 0.19628696
0.28440636 0.41782373 0.3932865 0.22903596 0.046133578 -0.18445562 0.19783975 -0.15412511
0.15091085 -0.040102974 -0.10665198 0.3409675 0.18989494 -0.0679009 -0.08316943 -0.24930114
0.14780924 -0.20603918 -0.18648306 0.22716595 0.13316804 0.093300596 -0.2350384 -0.1582703
-0.118108645 0.08491454 -0.21330336 -0.33501798 -0.12548019 -0.2787641 0.24552429 0.11286934
-0.18964659 -0.08003881 -0.019830814 -0.17583312 -0.18452023 0.16252647 -0.09185627 0.30303755
-0.2114081 -0.41486385 -0.09752578 0.07308343 -0.19082628 -0.1603594 0.0797549 -0.1479401
0.23808292 -0.44914055 -0.33503497 0.24330142 -0.15415218 0.23157822 -0.18034093 -0.23158683
0.108963236 0.10562822 0.09765797 0.15074152 -0.07855227 -0.19567311 -0.23315564 -0.0039258124
-0.07926453 0.072181724 -0.039235596 0.2728744 0.10492561 0.0347039 -0.17383733 0.3316148
-0.3126132 0.14478196 -0.10909114 -0.301424 -0.21295875 0.11076041 0.2821282 -0.26109216
-0.20950185 0.09991972 0.039735988 -0.17423148 0.06602179 -0.02711421 -0.24516118 0.08586406
-0.17200774 -0.015908923 -0.1129238 -0.06523968 -0.13080207 -0.18199499 0.16294235 -0.21015131
0.18975118 0.24152364 -0.044976216 -0.02045462 -0.17448434 -0.12743783 0.38101387 -0.077585496
0.05021247 -0.34172836 -0.17015389 0.23022136 0.26386926 -0.2551502 -0.13201381 0.18184131
0.008005501 0.18824548 -0.27710703 0.013602032 -0.27527928 0.10248803 0.056225237 0.031101866

encoder.feature_encoder.atom_embedding_list.4.weight f4 [10, 64]
00000000: ebad 493e 600c 223e 1b00 c13e e0e7 863e
00000010: ef6a 623c 5b8f dd3c c1dc 353e 9ed3 69be
00000020: 7508 df3e 32fb 47be 3376 20be 233c 643e
00000030: e59d 63bd 75aa 443e b723 a3bd 40e3 723e
00000040: a1f8 cc3e de2a 2d3e 9213 5ebe 39c2 823d
00000050: e92e f9bd c393 90bd 4810 d8be f7c3 57be
00000060: 8078 13be ff26 d43d 293e 94be 6842 ffbb
00000070: c840 8ebe 7646 253e 4f12 3fbe 72c5 adbe
00000080: 16a1 3bbd d1b2 9bbe c21f d53d c586 733d
00000090: 355a 813e 5c66 76bc 7556 95be 2860 0fbe
000000a0: 6568 a8bd 2f24 aabd 050d c03e 7d8a dcbe
000000b0: 5b1b 26be 1a42 733d 7e6b e8bc 2a89 823e
000000c0: 8ef2 a83c 0d36 c53d c52e 4f3e bf96 c33c
000000d0: 4417 c6bd 5e49 94bd b82e f43d 04d2 94be
000000e0: cffc 993e bbb0 3b3e 9e66 f9bd b850 483e
000000f0: 842f 5d3e 31fb 393e 757d 473e f355 cebc
00000100: 7d91 c7bc 72f1 c63e e73d 6abe ed3f 103e
00000110: 1e75 843e 94a7 b0be f8e0 073d e58d be3e
00000120: 3afb 37be 94a0 2cbe 8400 b8be 66bc 0fbf
00000130: c462 8a3e 8f3d 453e 35a0 97be 295f b1be
00000140: f749 b8bd f2a2 88bc fa90 113e c148 203e
00000150: ef97 c53d 6eb6 2a3e 8296 8e3e 4db2 823d
00000160: a808 3f3d 0c3a 05be 5335 b53d 2ad7 003e
00000170: 6675 893e 0005 fabd 0746 403d dc20 71bd
00000180: 9f92 4c3e 3750 db3d f89d 153e 32e7 823d
00000190: 219d 7fbe 3248 833e 6145 c13e 4ce6 50be
000001a0: e6f4 42bc 86b3 15be dcfa c2be 1692 b93d
000001b0: 9188 03bf 368f 2f3e 3c9a d0be d93c 95be
000001c0: 0dc8 dcbb 3ccf 103e 7712 fd3d 3130 d5be
000001d0: 3caa 1cbe e72d 05be ab19 d9be b1c1 89be
000001e0: e2c5 b2be b06a 8ebd a9ed 7a3e 520a 2e3e
000001f0: 43bd 643e 2d9d 0cbf 655d 39be 4710 de3d
00000200: 1f54 e7be 1b5e 07be 7efc 81bd 47a3 abbe
00000210: 1d24 bfbe 294b 1abe e2c6 debd 2a36 c9bd
00000220: 616f 04be a433 893e 6682 993e b657 dc3b
00000230: b28d c4bc 2b7a 79be c956 68be cf00 02be
00000240: 5470 67bd b0cb 59be 45f8 f8bd 078b eb3d
00000250: 8a63 d9bd f5a1 593e 4fa1 17bd 5f46 173e
00000260: 1833 23be 3942 643e fafa de3d ea5f 94bc
00000270: bc77 b4be fc54 41be baa9 cf3d e57c e7bd
00000280: 06d8 673c 5ba9 663c 7583 6e3c 7b4c 113e
00000290: 9cac 9fbd f5dc 2b3d f0a8 86bd 331e 82be
000002a0: e6f9 973e cdbe a4be 19ba a2bd 1fdc dabd
000002b0: f69e 323d 6712 a5be 7bfc 22be fc7f d7bd
000002c0: 1884 59be 1f70 e1bd c148 a13e 8c43 a5be
000002d0: 12a4 013d cb84 403e a01f 863d 5968 f93d
000002e0: b4e5 6abe 99e0 64bd ec73 aabd ca33 353e
000002f0: c767 56be e8f8 253e cbf8 483e 8c3c a6be
00000300: b232 9abe e2cc 6abe 34da 9e3d 4052 92be
00000310: 2b54 ffbc 67c6 41be 40c0 bd3d e81a 4f3e
00000320: b2aa 3bbd 59b5 52be 89e9 35be 4717 4b3d
00000330: 528e a03e 7d17 53be cddd 433e db7b cfbe
00000340: 5b0a 88bb a70e e23d 4308 88be 26c2 26bd
00000350: 1610 d63d 8a88 a33d d19f 7c3d 5779 52be
00000360: d1c7 723e de04 dfbd 82f3 ca3e a01e 83be
00000370: 7323 72be fd0a 43be 7eed 5e3e 779a f6bd
00000380: 7287 a83e 7366 c53d 21f7 a6be a079 a83d
00000390: 0044 1cbe 7ba3 a6be 0462 babe 04f8 49bd
000003a0: cd13 52be c968 d53d e5de 153e 029e 0d3e
000003b0: 7220 90be 9f3b ea3c b7ed 0ebe c982 f03d
000003c0: de35 da3b 9d49 e3be 35eb 0cbd b285 2b3e
000003d0: 3183 413d f507 123d 3252 5cbe ce19 dfbd
000003e0: 87e3 20be 3943 4d3d 4c6b 82be 96c3 d73d
000003f0: 47c6 983d 9302 ee3a ade9 5cbe e82e 103f
0.1969525 0.15825033 0.37695393 0.26348782 0.01381944 0.027045896 0.17759992 -0.22834632
0.4356114 -0.19529417 -0.1567009 0.22288565 -0.0555705 0.19205649 -0.079657964 0.23719501
0.4003344 0.16910884 -0.21687153 0.06384701 -0.121671505 -0.07059433 -0.42199922 -0.21070848
-0.14401436 0.103590004 -0.28953674 -0.0077898987 -0.277838 0.1614016 -0.18659328 -0.339397
-0.04580792 -0.30409864 0.10406448 0.059454698 0.25264135 -0.015039053 -0.29167524 -0.14001524
-0.08223037 -0.08307683 0.37509933 -0.43074408 -0.16221373 0.05938921 -0.028371569 0.25495273
0.020623472 0.0962945 0.20232685 0.023875592 -0.09672406 -0.07240556 0.119229734 -0.2906648
0.3007569 0.18329136 -0.12177776 0.19562042 0.21600157 0.18162228 0.19481452 -0.025187468
-0.024361366 0.38856083 -0.22875176 0.14086886 0.25870603 -0.34502852 0.03317353 0.37217632
-0.17966929 -0.1685813 -0.35937893 -0.5614685 0.27028477 0.19261764 -0.29614416 -0.34642914
-0.08998483 -0.01667926 0.1421546 0.15652753 0.0964812 0.16671154 0.27849203 0.063816644
0.046639115 -0.13010424 0.088480614 0.12582079 0.2684738 -0.12207985 0.046941783 -0.058869228
0.19977807 0.10708659 0.14611042 0.06391753 -0.24962284 0.25641018 0.37748244 -0.20400351
-0.011899209 -0.14619264 -0.38082016 0.09061067 -0.5138026 0.17144474 -0.4074267 -0.29147986
-0.006737715 0.14141554 0.123570375 -0.4163833 -0.15299314 -0.13005792 -0.42402396 -0.26905587
-0.34916598 -0.06953943 0.24504723 0.16996124 0.22337823 -0.5492733 -0.18102033 0.108429484
-0.45181367 -0.13219492 -0.06346987 -0.33523008 -0.3733224 -0.15067734 -0.10877778 -0.09824784
-0.12933113 0.2679721 0.299823 0.006724323 -0.023993347 -0.2436301 -0.22689356 -0.12695621
-0.05650361 -0.21269107 -0.12156729 0.11501127 -0.10614689 0.21253188 -0.03701907 0.14772938
-0.1593746 0.22290887 0.10887714 -0.018112142 -0.352476 -0.18880075 0.10139795 -0.113031186
0.014150625 0.014078463 0.014557709 0.14189331 -0.077965945 0.041958768 -0.06575191 -0.25413665
0.29682845 -0.3217682 -0.079456516 -0.10686516 0.04360863 -0.32240602 -0.15916626 -0.10522458
-0.21241796 -0.110077135 0.3150082 -0.32278097 0.03165061 0.18800656 0.06549001 0.12178106
-0.22939187 -0.055878256 -0.083228916 0.17695537 -0.20938025 0.16208231 0.19626157 -0.3246807
-0.30116802 -0.22929719 0.07756463 -0.28578377 -0.031168064 -0.1892334 0.092651844 0.20225108
-0.045817085 -0.20576991 -0.17764868 0.049582746 0.31358582 -0.20614429 0.19127579 -0.40524182
-0.004151625 0.11037951 -0.26568803 -0.040712498 0.10452287 0.07985027 0.06167585 -0.205541
0.23709036 -0.108896 0.39638907 -0.25609303 -0.23646335 -0.1904716 0.21770284 -0.120411806
0.32915837 0.09638681 -0.3261042 0.08226323 -0.15260315 -0.325466 -0.36402905 -0.04930879
-0.20515366 0.10420377 0.14635809 0.13829806 -0.28149754 0.028592883 -0.13957869 0.11743695
0.0066592535 -0.443921 -0.034404 0.1675022 0.047244254 0.03565212 -0.2151573 -0.10893594
-0.15711795 0.050112937 -0.25472486 0.10535352 0.074596934 0.0018158726 -0.21573515 0.56321573

encoder.feature_encoder.atom_embedding_list.5.weight f4 [6, 64]
00000000: e96b 32be 1f6d cf3c bed3 9cbd 787e 263e
00000010: 0d73 46bd bd62 393e 4ef2 55bd 3690 94be
00000020: cade cabc 350f 35be 0415 3abe 862d 153e
00000030: e9d1 8c3e 62fb 1ebe d743 80be ab6e 053e
00000040: 1bd2 4dbe 3f2e cbbd 2149 803d a48b e93d
00000050: a16f 003c a857 dd3d 9672 ecbd 67f6 1ebe
00000060: 4c05 3dbe f589 a3be 30ed 42be 9d92 243d
00000070: 820f fc3c 635e d1bd 3ac9 233e 2d88 22be
00000080: 9e11 b3bb b717 823e c922 cb3d 6ccd 6a3e
00000090: 87c3 46bc fe54 1ebe db88 debd a36f 09bd
000000a0: c447 93be 20df 42bd 4c68 90be 0146 a3be
000000b0: 8554 85be d07d 793e 6f77 573d 7455 523e
000000c0: 03c2 203e 2540 393e 402d dcbd fbd2 5abe
000000d0: 6d88 2dbe d42b 9fbe d766 7a3c f09d 0e3c
000000e0: b966 3a3d 4253 36bd 4e74 543c 76d8 a73d
000000f0: 5000 d63d 9140 983d 304c e8bd bd10 323e
00000100: e5a8 8bbe 6f5c 04bd 9481 343d 397a 4d3e
00000110: 52d9 553d 0543 11bd abd1 d93d b165 c8be
00000120: 8bf7 b0bc 3144 cdbd b2e6 7e3e 12bb 5fbc
00000130: 7696 07be 6a10 a0bd 76e8 7ebe a8dc 2bbe
00000140: 054b a73d df5d 1c3e ea21 30be 1a7a 573d
00000150: ad83 053e 6c04 5fbe 5432 8cbd c8bb a7be
00000160: b1eb 46be f748 883e e001 c53e 2908 22be
00000170: bb2b 9abe 9351 f1bd ad25 09bd eac6 ac3e
00000180: a773 0fbe bed1 9f3e b973 6fbe 4b9a 08be
00000190: 8639 0cbe 4b14 0ebe 8c9b e9bd b993 59be
000001a0: ec44 45be 5f1d eabd 1b05 02be 21f3 783e
000001b0: a7b1 7a3d bfb5 77be aa93 95be 7297 413e
000001c0: 87a1 b8bd da57 b0bd cadd 85be cca8 ae3d
000001d0: b05d bfbd 0503 a2be 3708 b5be b756 81be
000001e0: 111b 9abc 9a24 cbbd 0c6f 11be aa3d 0e3e
000001f0: 3db1 0cbe a1fa a43d 8055 8b3e 85fe d73d
00000200: f2f0 993e 3e5e 933e f8bc 3dbe c13c 9b3e
00000210: aa18 00bd fc8a 00be bd80 393e 2c27 83be
00000220: 12ad ab3e 4bcb 713e 1dc7 c63e 8449 c33c
00000230: daa8 a3bd 72a5 b9bd f7f0 d9bb 3dea b7be
00000240: 2fcc cb3d 8dee 21bd 3ef0 b8bd c2c7 2ebe
00000250: aba7 3d3e 03c8 a53d 5d1f 7b3e 9482 f43d
00000260: 58ff 613e 877b dd3d 8355 4ebe eb8e 04be
00000270: 6f0f 8bbe f866 86be c810 e83d 0ab4 a43c
00000280: 6dca 8a3e 9ba5 243e 1e84 8d3e 5ae0 12be
00000290: 9be5 c9bd 764b 203a 189d 803e de3c 1abe
000002a0: 1fb3 fabd 5dd9 e6bd 4700 ca3d 453a 753e
000002b0: 8f3c 773e ca14 c7bd f370 37bb 3184 81be
000002c0: 9e36 30bc adfb 583d 860d 543e 3824 063e
000002d0: b989 6abe c7e8 7c3e 5036 353e 2911 11be
000002e0: 26ab 49bd 80a7 e9bd d699 5e3e fe9a 36be
000002f0: 2a4f fd3d 0a6e 17be e720 173e 1a90 40bd
00000300: 444c 8f3e 4d2c 5fbe 9704 b3bd f0c1 413e
00000310: 8b67 c73d 3ccb 17be 787b 75be d554 62be
00000320: 337f 7abe 7dab 25be b7a4 35be 760a adbd
00000330: 64df 813e f423 9fbd 524b 39be c78f 123e
00000340: 5171 30be 0e09 16be 7e27 46bd ef98 13bd
00000350: c4de 38be eb6a 6ebe 1150 92be 9f4d febd
00000360: 84e3 173e 9d65 c03c 6ff9 6e3e 6cfa 4f3d
00000370: 19e7 60be daed e13c e69e 99bd d4be 293e
00000380: 1021 a33d 9b61 943e 9e63 86be 1dae 0ebe
00000390: f274 7ebe 1765 d53c 3418 3fbe 19f7 f8bd
000003a0: f114 8f3e 46e1 c8bd a17e 133e c2bd 403e
000003b0: 286b 593e 163b 753e ebec 383e bfa9 ed3c
000003c0: d0f1 7c3e 180e 913e d6cb 4ebe 476a 7a3d
000003d0: 3644 4e3e 80ac 4abe 1d4f eb3d 2c2d 3b3e
000003e0: 88a9 153c 7f54 adbd ba57 c6bc c262 823e
000003f0: 995d 6dbe 62e0 ed3d a645 22be e54e 4a3e
-0.17423977 0.025320588 -0.07657574 0.16259181 -0.048449565 0.18104072 -0.052233033 -0.29016274
-0.024764437 -0.17681582 -0.1817208 0.14568147 0.275039 -0.15525582 -0.25051758 0.13030498
-0.2009968 -0.0992093 0.06263948 0.114035875 0.007839114 0.10807735 -0.11545293 -0.15523683
-0.18459052 -0.3194119 -0.19035792 0.040178884 0.030769113 -0.10223081 0.1599473 -0.1587226
-0.0054647466 0.25408718 0.09918744 0.22929925 -0.012131578 -0.1546211 -0.10865947 -0.03355373
-0.2876569 -0.04757607 -0.28204572 -0.31889346 -0.26041046 0.243644 0.052604135 0.2054041
0.1569901 0.18090875 -0.10750818 -0.21369545 -0.16946574 -0.31088126 0.015283308 0.008704647
0.04550812 -0.044512995 0.012967182 0.081955835 0.10449278 0.0743419 -0.113426566 0.17389198
-0.27277294 -0.032314714 0.044068888 0.20066155 0.052209206 -0.035464305 0.10635694 -0.39140084
-0.021602413 -0.10022772 0.24892691 -0.013655441 -0.1324099 -0.07815631 -0.24893364 -0.16783392
0.08168606 0.15270184 -0.17200437 0.05260668 0.13038512 -0.2177903 -0.06845537 -0.32760453
-0.19425847 0.26618168 0.38477993 -0.15823425 -0.3011149 -0.11783137 -0.033483196 0.3374551
-0.14008962 0.31214708 -0.23383988 -0.13340108 -0.13693818 -0.13874929 -0.11406621 -0.21247758
-0.19264573 -0.11431383 -0.1269726 0.24311496 0.06120458 -0.24190424 -0.2921422 0.18905428
-0.09015184 -0.08610506 -0.26145774 0.08528289 -0.09344041 -0.3164293 -0.3535783 -0.2526147
-0.018811734 -0.099190906 -0.14202517 0.1389071 -0.13739486 0.08055616 0.2721367 0.105465926
0.3006664 0.2878284 -0.18529117 0.3031979 -0.03127352 -0.12553018 0.18115516 -0.25615823
0.3353048 0.23612706 0.38823786 0.023838766 -0.0799119 -0.09064759 -0.0066510397 -0.35920897
0.09951054 -0.03953414 -0.090301976 -0.17068389 0.18520992 0.0809479 0.24523683 0.11938968
0.22070062 0.108145766 -0.20149808 -0.12945144 -0.27160212 -0.26250434 0.11331326 0.02010538
0.27107564 0.16078798 0.2763986 -0.14343396 -0.09858247 0.000611476 0.25119853 -0.15062281
-0.12241196 -0.112719275 0.09863334 0.2394801 0.24144195 -0.09720762 -0.0027990907 -0.25296167
-0.010755209 0.05297439 0.20708284 0.13099754 -0.229041 0.24698173 0.176965 -0.14166702
-0.049235485 -0.11408901 0.21738371 -0.17832562 0.12368615 -0.1478807 0.14758645 -0.047012426
0.27987874 -0.21794243 -0.0874111 0.18921638 0.09736546 -0.14823622 -0.23972881 -0.22102673
-0.24462585 -0.16178699 -0.17738615 -0.08449261 0.25365746 -0.077705294 -0.18095139 0.14312659
-0.17230727 -0.14651892 -0.048377506 -0.03603452 -0.18053728 -0.23282973 -0.2857671 -0.12417149
0.14832884 0.023485953 0.23337339 0.05077593 -0.21963157 0.027579237 -0.075010106 0.16576701
0.079652905 0.28980717 -0.26247877 -0.13933606 -0.24849299 0.02604918 -0.18661577 -0.12156505
0.27945665 -0.098085925 0.14403774 0.18822387 0.21232283 0.23948321 0.18059127 0.029011605
0.24701619 0.28331065 -0.20194945 0.06113651 0.20143208 -0.19792366 0.11489699 0.1827895
0.009134658 -0.08463382 -0.024211753 0.2546597 -0.23180236 0.11615063 -0.15846881 0.19756658

encoder.feature_encoder.atom_embedding_list.6.weight f4 [6, 64]
00000000: df29 c93d 470c 423e 74c7 82be e120 533e
00000010: 4953 0d3e ba54 433e 30c7 9ebd 3f32 6e3d
00000020: 585b 08be a7fc be3d 9b13 e1bc a4b6 dfbd
00000030: ea9d 2e3e 735b 1abd e30e f0be cae7 27be
00000040: f8f2 e03d df88 0b3e 0510 51be 1121 803d
00000050: 2445 1dbe 4233 09be 75a9 ac3e 637d b7be
00000060: 6e5e 83be cabf ae3e 4f2e 933e dc5e ae3e
00000070: ef9f aa3d 3c79 92be 58fa 4d3e c9ef 913e
00000080: 8eb9 b53d 2a1a 5b3e 2cd1 973c 69d6 09be
00000090: 0b15 54be 0aef 7e3d ed21 a53d b165 7abe
000000a0: 70ea 7ebd 3e90 94be 294b 263d bc32 933d
000000b0: b27a b0be a56a fabe 6703 023e fd50 df3e
000000c0: add0 69bd d3bf afba 12f3 d4be d340 373e
000000d0: 9993 6d3e 8a6c 9ebe 5983 c33b 53f9 67bd
000000e0: a842 3e3e 5f1d 5fbe b29c fabe 85a5 4dbe
000000f0: 8dec d93e 6d82 ea3d b5f2 5abe cebc 9fbe
00000100: 974c 153e aefc 35be 5aec 3abe 00ce 3bbe
00000110: 9aa4 6cbe 90b4 0abe 2931 90bd e71e 80bb
00000120: 2596 b53d 8f3e 723e 049a c1be 140b c1bd
00000130: 4270 f7bd 6f75 0cbe 321d e33d 5d88 ccbd
00000140: adaa 82bd ba2f 81be 9dc2 2ebe b7fb bb3c
00000150: 5315 7ebe 7b5a 9ebd 5d9a 49be 1ffe 57bc
00000160: e615 dd3c 462f 2fbe af65 5dbe f24a 50bd
00000170: 2cc8 75be 0f7a dfbd 810e a53d 937b 8cbc
00000180: 8d4b 1a3d da5e 0a3c f664 dabd e21d 2bbe
00000190: ae33 f73c e462 953e bfd8 773d b66c 503e
000001a0: 5c25 08be 49f3 5f3e 3db0 953e 56be 15be
000001b0: 3c56 2f3e 2279 4fbb af3b 393e fe2e 94bd
000001c0: 3525 9dbc 15cb b0be ebb3 f7bd c19f ea3d
000001d0: 98a4 61bc c43c 6a3e 5813 2dbe 3e79 c53d
000001e0: 555e 06bd 4a7f bc3e aef7 c53d aaca 713e
000001f0: 845f 8fbe b4eb 803e 9ddd 5dbe 999f 2ebe
00000200: fa97 313e 3be3 abbc f49f da3d 9e69 643e
00000210: a7ae 603d c170 9cbd 4982 a93c ba70 663e
00000220: 931c c53d 9e6d 733d 6c21 eebd e491 343d
00000230: 277b 503e f55b 823d 1a93 633e fa1d ad3d
00000240: 576d f6bd 7058 27be e565 8cbd b830 8cbe
00000250: e3ff 153c 04b7 d2bd 891f 76be c392 9939
00000260: 00db 893c 2b51 353d edee 543d e075 7cbd
00000270: 8067 85bc 6275 3cbe 7824 89ba 03f2 193e
00000280: 5862 9d3d d93d 7bbd 7aa4 a93e d57f 513e
00000290: 688e 153e c846 b63e ec13 d13e 7e94 be3c
000002a0: c7f7 4fbe 00ef 3dbc 4126 2f3d 8907 373c
000002b0: 5efc 333d 4599 6bbe 66fc 8ebd baa4 ee3d
000002c0: 3946 13be 8694 0dbd 03db 233e 2f5f cdbe
000002d0: c90c e9bd ed10 01be d2b4 533e f880 663c
000002e0: 7972 d8bd d274 933d 63ad 713e 9ded cbbd
000002f0: 3539 3d3e 8219 50bd 3dfa 9e3e a9c2 6cbd
00000300: 4f89 bb3e 4c8b 34be de2d 8439 138b 8b3e
00000310: 4d63 54bd 2f40 05be fca7 8ebe 0b8e 1d3d
00000320: 458c 54be b20f 413e d188 9fbe ae40 20be
00000330: b546 153d 84f7 813d fed9 233e 5511 4bbe
00000340: 1267 9e3d 34ae 82be cfd8 c5bc 20fc a23e
00000350: 1b64 38be dfba 06be 1a05 42be 0662 433e
00000360: 5206 dd3d e0dc f73e bad1 733d f6ff 353e
00000370: 87ee 433d ac38 be3d d56b cb3d cbcf a0be
00000380: 6523 bc3e 484e a6bd 24ed 7fbe 0ea0 16bd
00000390: f0b9 97be 37c7 54be 370f f2be 9c64 9abd
000003a0: 3e1d 7bbc 4463 1dbe ba54 ec3d e951 a6bd
000003b0: 5b62 abbd f083 44be 2869 90bd f313 17be
000003c0: 0ef1 0a3d 5229 e6be ec7f 293e 98c3 b13e
000003d0: 8edf e23e 6440 17be 3523 5b3e b28a 1fbe
000003e0: ca65 ecbd 14ac c33d 0429 aebe 56bf 9fbe
000003f0: 5d20 88be a0f9 423e d45f 953e 7814 d03e
0.098224394 0.18949996 -0.25542796 0.20618011 0.13801302 0.1907529 -0.07752836 0.058153387
-0.13316095 0.09325533 -0.027475169 -0.10923508 0.17052427 -0.03768487 -0.46886358 -0.16397014
0.109838426 0.13626431 -0.20416267 0.06256307 -0.15358406 -0.1339846 0.33723035 -0.3583785
-0.25657982 0.34130698 0.28746268 0.34056747 0.08331286 -0.2860812 0.2011503 0.28503254
0.088732824 0.213967 0.018532358 -0.13460697 -0.20711152 0.062239684 0.080631115 -0.24452855
-0.062235296 -0.29016298 0.040599022 0.07187411 -0.3446861 -0.48909488 0.1269661 0.43616477
-0.057083774 -0.0013408609 -0.41591698 0.17895822 0.23200835 -0.30942184 0.0059665856 -0.05663426
0.18580115 -0.21788548 -0.48947674 -0.20082672 0.42563286 0.11450658 -0.21381648 -0.31198734
0.14579998 -0.17772171 -0.18254223 -0.18340302 -0.23109666 -0.13545442 -0.070406266 -0.003909934
0.088665284 0.23656677 -0.37812817 -0.09425941 -0.12081958 -0.13716672 0.11089553 -0.09986947
-0.0638021 -0.25231725 -0.17066427 0.022947175 -0.24812822 -0.077321015 -0.19687791 -0.013183146
0.026987981 -0.17107877 -0.2162082 -0.050852723 -0.24002141 -0.10911953 0.08059407 -0.017148769
0.037669707 0.008445466 -0.10663788 -0.16710618 0.03017601 0.2917701 0.06050944 0.2035397
-0.13295501 0.2187015 0.29236022 -0.14623389 0.1712274 -0.0031657894 0.18089174 -0.072355255
-0.01918278 -0.3452994 -0.120948635 0.11456252 -0.013772152 0.22874743 -0.1690191 0.09642266
-0.032804806 0.36815864 0.09666382 0.23612466 -0.2800256 0.25179827 -0.2166657 -0.17053069
0.1734313 -0.020982375 0.1067504 0.22305915 0.05485406 -0.076386936 0.020692008 0.2250394
0.09624591 0.05943071 -0.116274685 0.044084445 0.20359479 0.06365196 0.22224084 0.08452983
-0.12032574 -0.1634233 -0.06855372 -0.2738092 0.009155246 -0.10288814 -0.24035467 0.0002929178
0.01682806 0.04426686 0.05198567 -0.06163585 -0.016284704 -0.18404153 -0.0010463139 0.15033726
0.07684773 -0.06133828 0.33133298 0.2045892 0.14605105 0.35600877 0.40835512 0.023264166
-0.20309363 -0.011592627 0.04276109 0.01117123 0.043941848 -0.23007686 -0.06981735 0.11652513
-0.14382257 -0.03456547 0.16001515 -0.40111682 -0.11379392 -0.12604113 0.20674446 0.0140688345
-0.10568709 0.07200016 0.23601298 -0.099574305 0.18478854 -0.050805576 0.31050292 -0.05780283
0.36628196 -0.17631263 0.00025211176 0.27254543 -0.051852513 -0.13012765 -0.27862537 0.03846554
-0.20756634 0.18853644 -0.3115907 -0.15649673 0.036444385 0.06346038 0.16001126 -0.1983083
0.07734503 -0.2552353 -0.024151234 0.3183298 -0.18006937 -0.13157223 -0.18947259 0.19080362
0.10792221 0.48410702 0.059526183 0.17773423 0.0478349 0.09288153 0.09932677 -0.31408533
0.36745754 -0.081204 -0.24992806 -0.036773734 -0.29634047 -0.2077912 -0.47277233 -0.07538721
-0.015326796 -0.15369898 0.11539598 -0.08121092 -0.08368369 -0.19190955 -0.07051307 -0.14753704
0.033921294 -0.449534 0.16552705 0.3471954 0.44311184 -0.14770657 0.21400149 -0.15580252
-0.11542852 0.09554306 -0.34015667 -0.31200665 -0.2658719 0.19040537 0.29174674 0.40640616

encoder.feature_encoder.atom_embedding_list.7.weight f4 [2, 64]
00000000: 7866 9e3e 0d6b 603e fe60 cbbe 8576 96bd
00000010: 5ca4 713e fc2d a5be 9005 933e b29d 143e
00000020: b257 813e 98ab 7ebc 695d da3e c079 7e3d
00000030: dd36 7a3e ef99 933d dea3 183d e70a b1be
00000040: e294 a9be 12d7 343e d768 5f3d 112b 52be
00000050: bcd8 ad3e d949 43be 3aca 3a3e 639e 703e
00000060: e951 5bbe 31f6 043c eaf8 403e 25a9 b4bd
00000070: e357 e73a 26a3 af3d 4bfd cbbd b89b 37be
00000080: 2ace 763e 5dc2 bbbe aa29 98be cda6 0ebd
00000090: fa14 9abe 499f 9d3d b107 4f3d 0e37 64be
000000a0: ba3d 66be 27c0 cb3e 9bcc 6fbe 142d bdbd
000000b0: 8044 aebe f14d 8bbd d0f6 603e c36b 0f3d
000000c0: c63e 37be 6353 283d 8e14 9c3e 8134 973e
000000d0: aa46 adbe d925 b93d 1d32 d6bd f415 89bd
000000e0: a54d ecbe 984f 293d 6681 91be f099 80be
000000f0: 3590 a03d 04cb ec3d 4853 2a3e 4539 523e
00000100: c12a b1be 521c ebbd fe94 193e b8b1 90be
00000110: d5de 83be 40d7 30be ed56 27be 4228 433e
00000120: c9f1 e6bd 4ede 60be 0445 cdbd 2eb9 903c
00000130: 1067 4f3e b2d6 8c3e a127 9ebd de22 773d
00000140: 7537 7b3e 13fc 4d3e 4c5c 073e f8c8 b93e
00000150: 92b9 14bd a55f 62bd 0ce2 43be e9bb 35be
00000160: 7105 713d d557 ca3e 2ecc 1c3e 89b1 2ebe
00000170: 6021 76be c76f ae3e 9cff fbbd 5d91 953b
00000180: fee0 85be 1503 833e 7ff0 5b3e 7894 ff3d
00000190: 6b8b 643e 6686 b03e 5f3b adbe 242a 26be
000001a0: 292b 93be c978 5c3e bedf 993e 8e16 bcbd
000001b0: 3f11 b73e 604f 2ebe af9b 6ebe 4de0 043d
000001c0: 850d 3b3d 496d 573e e4bd 84be ad4f c23d
000001d0: ff09 87bd 3501 9cbc 1299 c63d b98f 603e
000001e0: 1ce8 193c ca3b 8a3c b4f1 383e ab41 aa3e
000001f0: 4f07 24be 492f 8f3d d90b b1bc 36d4 b4be
0.30937552 0.21915837 -0.39722437 -0.073468246 0.23597854 -0.32261646 0.2871518 0.14513281
0.2526222 -0.015543841 0.4264939 0.06212783 0.24434991 0.07207095 0.03726565 -0.3457863
-0.331214 0.17660168 0.054543342 -0.20524241 0.33954418 -0.1907114 0.18241206 0.2349792
-0.21417965 0.008115337 0.18844953 -0.08821324 0.0017650094 0.0857604 -0.09960421 -0.17930496
0.24102083 -0.36671725 -0.29719287 -0.034827042 -0.3009413 0.07696397 0.050544444 -0.22286627
-0.22484484 0.39795038 -0.23417895 -0.092371136 -0.34036636 -0.068019755 0.21969151 0.03501488
-0.1789504 0.04109515 0.30484432 0.29532245 -0.33842975 0.09040422 -0.10458777 -0.0669364
-0.46152988 0.041335672 -0.28419036 -0.25117445 0.07840005 0.1156216 0.16633332 0.20529659
-0.3460293 -0.11480011 0.14998242 -0.2826059 -0.25755945 -0.17269611 -0.16341753 0.19058326
-0.112765856 -0.21959803 -0.10022929 0.017666426 0.20254159 0.2750755 -0.07722402 0.060335986
0.24532874 0.2011569 0.13218802 0.3628614 -0.036309786 -0.055266995 -0.19129199 -0.17747463
0.05884308 0.39520136 0.15312263 -0.17059912 -0.24036169 0.34069654 -0.12304613 0.004564448
-0.26148218 0.2558829 0.2147846 0.1247949 0.22318809 0.34477538 -0.3383436 -0.16227013
-0.28743866 0.21530451 0.30053514 -0.091839895 0.35755345 -0.17022467 -0.23301576 0.032440472
0.04566719 0.21037783 -0.25926125 0.09487853 -0.065937035 -0.019043544 0.096971646 0.21929826
0.009393718 0.016874213 0.18060952 0.33253226 -0.16018413 0.06991441 -0.021612095 -0.35318154

encoder.feature_encoder.atom_embedding_list.8.weight f4 [2, 64]
00000000: 0a65 e6bd 2963 733d 8914 613d 7b9d 463d
00000010: fa6e 373e b7b3 f83d 24a7 df3e 3ec1 cfbd
00000020: 0e51 0dbe 6aed 83be 59d2 54be 6b58 71be
00000030: 64f8 1d3e 58ed 303d adaa 9d3e 3c9c 683e
00000040: 8680 f9bd 3b63 8f3e e07a f3bd eea4 31be
00000050: 5061 6c3e f6a7 cb3d 7150 76bd 84b7 f7bc
00000060: 74c4 343e cafb 603d 4663 e0bc a2a5 723d
00000070: 4715 de3b 17b2 a73e a733 26bd 9c7c 7e3e
00000080: 48a7 6e3c c7e5 1f3e 82bb 0c3d db8a 1abe
00000090: fad2 fc3d 459f 453e 49d9 d23b c73e 9bbe
000000a0: f272 35be 6acf f73d 42df c3be e994 69be
000000b0: ce40 9fbe 0b5c 823c 3452 b5bd eeb5 32be
000000c0: 3fa3 97bd 9b59 ae3d a350 08bd 89e5 203e
000000d0: 48ee 9dbe 99f7 1bbe 71a9 0dbe 8fd1 33be
000000e0: e0ba 45b9 8ee4 00be b8ba a03e 4e1d cf3c
000000f0: 90e8 083c 63ae 39be 36e8 ff3c 128f 89be
00000100: 0b8c 8f3e 189a b53c 2a4e 8b3d 6ad3 4c3e
00000110: d968 86be f713 7bbe 6ec4 a6be 0282 6ebe
00000120: 0b9c 813e 63d3 853e ba11 573e a5cf 853e
00000130: f4b8 85be d775 563a 9ddb 90bc 83e8 22be
00000140: 9bfe 3b3e 2cb6 883e 6c6c aebe 570e 8fbd
00000150: da97 183d 741c 7abe e5a6 ffbc 95f5 ea3d
00000160: d2f2 25bb 8bf2 22be 1088 07be f6e2 2cbc
00000170: 88e8 9a3e 3280 75be 9010 a6bd 355b 003d
00000180: aad5 2e3e 89aa 893e 8cb5 06be 54e7 4cbe
00000190: a6a4 8c3e 66ab 1e3d da57 1ebe e450 533e
000001a0: 8773 2abb d43d 853b 7fe2 893e a42f cabe
000001b0: b242 a93e 7a87 0f3d 2243 bfbd 40d4 483e
000001c0: 9aa9 343d c444 a3be 057c 853e 48b9 90be
000001d0: d3a7 3d3d 5112 c53d bcad 4d3e c32f 9abe
000001e0: 8470 653e 3c98 943e 083a cb3d 1426 2a3e
000001f0: 9f76 a3be 9b26 953e ea03 f03d a239 eb3c
-0.112497404 0.05942074 0.054951224 0.04849003 0.17913428 0.12143653 0.43682206 -0.1014428
-0.13800451 -0.2576707 -0.20783366 -0.23568885 0.15426785 0.0431951 0.30794278 0.22715849
-0.12182717 0.28005394 -0.11888671 -0.17348072 0.23083997 0.099441454 -0.06013531 -0.030238874
0.17653066 0.054927625 -0.027391087 0.05923999 0.006777439 0.3275306 -0.040576603 0.24852222
0.01456625 0.15614997 0.03435851 -0.15092032 0.12344928 0.19299038 0.006434594 -0.30321333
-0.1771963 0.12100108 -0.3825627 -0.22810711 -0.3110413 0.01591303 -0.088535696 -0.17452213
-0.074041836 0.08513185 -0.033280026 0.1571256 -0.30845857 -0.1523117 -0.13834168 -0.17560409
-0.00018857 -0.12587187 0.31392455 0.025282528 0.0083562285 -0.1813293 0.031238656 -0.26866966
0.28036532 0.022168204 0.06802018 0.20002523 -0.26251867 -0.24519335 -0.3257174 -0.23291782
0.25314364 0.26137838 0.21002856 0.26134983 -0.2611767 0.00081810117 -0.017682845 -0.15909009
0.18358843 0.26701486 -0.34067094 -0.06985157 0.037254192 -0.24424917 -0.031207511 0.11472622
-0.0025321734 -0.15912835 -0.13235497 -0.010552159 0.30255532 -0.23974684 -0.08108628 0.03133698
0.17073694 0.2688792 -0.13155192 -0.2001012 0.27469367 0.038737677 -0.154632 0.20636326
-0.00260088 0.0040662084 0.26930615 -0.39489472 0.33058697 0.03504131 -0.093389764 0.19612217
0.044107057 -0.31888402 0.26071182 -0.28266358 0.046302628 0.09622634 0.20085806 -0.30114564
0.22406203 0.29022396 0.09923178 0.16616088 -0.31926438 0.29131016 0.117194965 0.028714005
