checkpoints/tuning_multi/trial_44/best_model.pt (torch, 520320 bytes, 104 tensors)

encoder.feature_encoder.atom_embedding_list.0.weight f4 [119, 64]
000000 3d 6e 10 3e bd 2a 6c 3d 06 a9 3b 3b 54 58 2b 3e
       0.14104553 0.057657946 0.0028634681 0.16732913
000010 ef 7e f3 bd 98 45 2b be cf 1f c6 bd d0 e2 0a 3e
       -0.11889445 -0.16725767 -0.09674036 0.13563085
000020 78 a0 2a 3e 4e 63 98 bd e1 00 f0 bd 4a fd cf bd
       0.16662776 -0.07440816 -0.11718918 -0.10155733
000030 be 87 67 3d 5d 2a 95 3b ff 96 0a 3e 4c 6a 0d be
       0.05652594 0.0045521692 0.13534163 -0.1381008
000040 cf a1 29 3e 32 3e 84 3d 73 22 0b 3e b3 3e c5 3d
       0.16565631 0.06457175 0.1358736 0.096310996
000050 46 0d 31 be ae 86 cb 3c ca 3c dd bd c1 e9 63 bd
       -0.1729022 0.024844494 -0.1080261 -0.055642847
000060 2e c9 33 3e 9e c8 87 bd b3 93 ed 3d eb ed 65 bc
       0.17557213 -0.066300616 0.11600437 -0.014033775
000070 8d 7c e2 bd 91 1c c0 bd 37 3e 34 be 0a 67 7e 3d
       -0.110589124 -0.093804486 -0.17601858 0.062109984
000080 c0 a7 29 bb ed 14 25 3e 65 a8 85 3d 17 52 14 3d
       -0.002588734 0.16121264 0.06526259 0.0362111
000090 99 11 0c 3d e8 1a f5 3d fe ff 55 bd 39 ad 94 3d
       0.03419647 0.119680226 -0.052246086 0.07259602
0000a0 c8 a1 a8 bd e1 de a3 3d a3 5f 4b 3d 34 e5 c3 3d
       -0.08233982 0.08001495 0.049651753 0.095652014
0000b0 e7 58 48 3c 2b 6c 09 3c e2 85 21 3e ed b8 e1 3c
       0.012228227 0.008387606 0.15773728 0.027554
0000c0 8c f3 16 3e 4d 53 24 be ab bd 36 bd 36 a3 34 be
       0.14741343 -0.16047402 -0.044614475 -0.17640385
0000d0 1d 1e 54 3c 53 47 0b 3d 66 17 86 3d f6 d8 9d bd
       0.012946633 0.034003567 0.06547432 -0.07707398
0000e0 40 49 ce 3d a6 08 9c bd 6d 98 ac bd 53 7d 1a 3e
       0.10072565 -0.07618837 -0.084275104 0.1508687
0000f0 3f 3e 04 be 2b 91 df 3d a5 fc 19 be 89 76 3c 3c
       -0.1291437 0.109163605 -0.15037782 0.01150287
000100 ff d4 1a be 1b 0e 2e be 30 99 4e bd 7b 4a 14 3e
       -0.15120314 -0.16997568 -0.05043906 0.14481537
000110 a8 5c bb 3d e7 54 ee 3d a9 c8 2c bd 2a c9 23 3e
       0.09148532 0.116372876 -0.042183552 0.15994707
000120 64 16 a9 bd a1 aa 4f bc 65 43 2a be 9d 77 15 3c
       -0.08256224 -0.012674958 -0.16627271 0.009122756
000130 78 09 2a 3d ca f5 31 be 66 df 1b 3e 19 89 0b 3d
       0.041512936 -0.17378917 0.15221938 0.034066293
000140 71 d3 30 3e 2f a3 9f bd 45 57 0a 3c fd 06 6e bd
       0.17268158 -0.07794797 0.008443658 -0.058112133
000150 e6 c4 1c 3e e4 4c cf bd 11 6e d5 3d c8 33 02 be
       0.15309486 -0.101220876 0.10421384 -0.12715065
000160 3c 55 0b 3e 13 a3 2c be 38 5a b8 bd 8f 5d a7 bd
       0.13606733 -0.16859083 -0.09001583 -0.08172142
000170 48 df fb bc 3b 29 13 bb 05 ad 6f 3d b3 46 26 3e
       -0.030746117 -0.0022454995 0.058514614 0.16237907
000180 b7 74 da 3d 9a cf b2 bd 96 39 2e 3e a1 6e da bc
       0.10666793 -0.08731003 0.17014155 -0.02666408
000190 35 c9 ce bd 15 9d 8a 3d b6 3e 01 bd 7b f3 30 3e
       -0.10096971 0.06768242 -0.031553946 0.1728038
0001a0 67 78 a5 3c 90 6f f5 3d 42 f7 3e 3d 6e 58 f2 bd
       0.020199014 0.119841695 0.046622522 -0.11833273
0001b0 2a 18 1c 3d 3e 99 d6 bd f9 99 46 bd e3 ea 6e bd
       0.038108982 -0.104784474 -0.048486684 -0.058329474
0001c0 db e9 12 be 49 83 8f 3d b5 33 03 3e dc b7 36 be
       -0.14347021 0.070074625 0.12812693 -0.17843574
0001d0 8a da c9 3d 48 65 12 be 6d 75 35 be d2 c5 7f 3d
       0.09856136 -0.14296448 -0.17720576 0.062444516
0001e0 8b 89 83 bb 5d 56 e3 bd c7 03 26 3e ac 12 72 3c
       -0.004014199 -0.11100457 0.16212378 0.01477496
0001f0 b2 98 e8 bd 54 1d aa 3d 60 f9 51 3c cf 6b ed bc
       -0.11357249 0.08306375 0.012815803 -0.028982071
000200 bb fe 03 be 9c e6 83 3c 3d ac ed 3d fb 86 f0 bd
       -0.1289014 0.016101174 0.116051175 -0.117444955
000210 1a 18 e6 3d 1e 37 36 be 61 da 9e bd b9 3c bc bd
       0.11235066 -0.17794463 -0.07756496 -0.091912694
000220 68 37 05 be 06 89 84 3d 40 49 74 bc 1e 9f d6 3d
       -0.13009417 0.06471448 -0.014910042 0.10479568
000230 17 7d 6e 3c 4e 13 fa 3c d4 b1 c5 bd db ce 25 bd
       0.014556191 0.030526783 -0.09653059 -0.040480476
000240 93 0d 34 3d ba 57 50 3e cd bd fd bd 6d 50 fc bd
       0.043958258 0.20345965 -0.12389717 -0.123200275
000250 86 f2 da bc 21 30 05 be 9e 46 c3 bc b3 28 04 be
       -0.026726972 -0.13006641 -0.023837384 -0.1290615
000260 28 70 06 3e f1 eb 05 3e c1 fd 2a be b3 70 04 3e
       0.13128722 0.13078286 -0.16698362 0.12933616
000270 eb 8a 29 3d e0 73 3d bd 01 58 76 3d d6 d9 47 be
       0.041392248 -0.046253085 0.06014252 -0.19516692
000280 6a d6 a5 bd 00 20 c2 bd 7c 95 ba 3c b9 89 20 bd
       -0.08097537 -0.0947876 0.022776358 -0.039193843
000290 04 ac 15 bd 0c d3 ef 3d bf de 52 be 51 79 31 be
       -0.036541 0.11710176 -0.20592783 -0.17331435
0002a0 05 09 e1 bc 5d 40 1e 3e 85 5f 89 3d b7 81 25 3e
       -0.027470121 0.1545424 0.06707672 0.16162764
0002b0 e2 b3 af bd f0 0c 64 3c 40 4c 4e be 82 7c 02 3e
       -0.08579232 0.0139191 -0.20146275 0.12742808
0002c0 4f a9 27 3b 6b f5 23 bd d0 f7 a9 bc 08 01 22 be
       0.0025583094 -0.04002897 -0.020748049 -0.15820706
0002d0 08 88 88 bd 08 29 8c bc 39 ee c4 bd bc fe 9a 3d
       -0.06666571 -0.017109409 -0.0961575 0.07568118
0002e0 fd 9c 5b bd ce 56 d7 bc 3f 95 17 be 4a da 4f 3d
       -0.053616513 -0.026286509 -0.14803027 0.050745286
0002f0 90 c3 2a 3c 1c 1a 0c be 0b 7e 57 bd 52 23 36 be
       0.010422602 -0.13681835 -0.05261044 -0.17786911
000300 5b 86 0d be a3 3d 0a 3e 97 c4 17 3e c2 c9 00 be
       -0.13820784 0.13500075 0.14821087 -0.12576964
000310 db d7 20 3d 20 02 bf bd e6 80 2d 3e 3c 64 e2 3d
       0.039268356 -0.09326577 0.16943702 0.110542744
000320 e0 71 93 3d 84 2b 17 be 68 66 b6 bd 10 de 1b bd
       0.07199454 -0.14762694 -0.08906251 -0.038053572
000330 9e c5 25 be 8c b8 d8 bd 4f 44 43 3d 02 f1 16 be
       -0.16188666 -0.105820745 0.047672566 -0.14740375
000340 38 55 45 3d 43 97 87 bb 97 4d 74 bc 44 a4 58 bd
       0.048176974 -0.004137905 -0.014911077 -0.05289103
000350 9d 4b c7 bd 52 5a 2d be b3 58 fc bd c2 07 0c 3e
       -0.09731219 -0.16928986 -0.123216055 0.13674834
000360 2c e5 5b bc 45 8c 34 3e 63 66 1c 3c f7 d6 ae bc
       -0.013421338 0.17631634 0.009545895 -0.021342738
000370 c8 62 de 3d fe 8f 2e be 28 d9 e5 bd 7e b9 d4 3d
       0.10858685 -0.17047116 -0.1122306 0.10386942
000380 01 6d 41 bd 5c b1 12 3e 8d 72 87 bc 91 3a 04 3e
       -0.047223095 0.1432547 -0.016534114 0.12912966
000390 64 14 10 3c f7 0a 9a 3c 91 9b 1c be 57 27 80 bd
       0.008793924 0.018804057 -0.15293719 -0.062575035
0003a0 03 bf 14 3c 46 6f a9 3d 9f e7 0f 3d c6 06 21 bd
       0.009078744 0.08273177 0.035133 -0.0393131
0003b0 6e 3b a0 3a 4b 63 1f 3e 3d 5e f7 3d b9 11 7d 3d
       0.0012224743 0.15565221 0.120785214 0.06178448
0003c0 b4 9f 05 be 93 60 79 bd 03 c1 ec 3d fd e7 26 3e
       -0.13049203 -0.060883116 0.115602516 0.16299434
0003d0 6c 4f af bd 3f 91 9d 3d 91 aa 2d bd cd 3d eb 3d
       -0.085600704 0.07693719 -0.042398993 0.11486397
0003e0 ee e1 de bc 32 63 13 be 64 88 37 be 44 4e de bb
       -0.027207341 -0.14393309 -0.17923123 -0.0067842323
0003f0 5b a5 5a 3d 52 9a da bd 20 e1 11 3e 54 e5 af 3d
       0.05338035 -0.106739655 0.14246035 0.08588663

encoder.feature_encoder.atom_embedding_list.1.weight f4 [5, 64]
000000 3c 42 f2 bd 2d e8 a4 bc d1 4e 8d 3d f0 a8 29 3e
       -0.118290395 -0.020130241 0.06899799 0.16568351
000010 4e 45 b5 3d ff 25 51 3e 27 81 93 3d 05 6d 18 3e
       0.088511094 0.2042465 0.07202368 0.14885338
000020 d5 56 b9 3c fb 59 90 3e ca 92 61 3e e0 09 d2 3d
       0.022624413 0.2819365 0.22028652 0.1025579
000030 ce 96 7a be b7 1f a2 bd 4f 7c c7 bd 3e c2 53 bd
       -0.2447159 -0.079162054 -0.09740507 -0.051698916
000040 13 0d 4b 3e f0 e5 19 be 80 dd 27 be 1a d2 08 be
       0.19829206 -0.1502912 -0.1639309 -0.13361397
000050 a8 30 50 ba 84 8e 35 be 0f 4e 80 3d 3e 05 60 be
       -0.00079418207 -0.17730147 0.062648885 -0.21877
000060 2e eb 00 be 17 9c 12 3e a5 8d 3f 3e 9c 2f 8b bd
       -0.12589714 0.14317356 0.18706377 -0.0679619
000070 45 3f 9a bb d0 0e d4 3b 94 4c 76 be c3 20 f0 bd
       -0.0047072493 0.0064714924 -0.2405265 -0.11724999
000080 c7 8e 13 3e 97 47 46 bd b2 35 71 3e 40 d9 64 be
       0.14409934 -0.048408117 0.2355564 -0.223485
000090 6b 18 91 be 90 18 7a be bb cc e4 bd 1f be 95 3d
       -0.28338942 -0.24423432 -0.11171862 0.07311653
0000a0 6d d1 22 3e c0 12 91 be 7f 05 4e be 4c c0 ea bd
       0.15900202 -0.28334618 -0.20119284 -0.11462459
0000b0 d1 96 35 3e fd ac d6 3d d6 3c 75 bc c3 4c 6f 3e
       0.17733313 0.10482214 -0.014968118 0.23369126
0000c0 43 58 ba 3d 28 8b 58 3e 55 a7 75 bd 30 05 42 be
       0.09098866 0.21146834 -0.059974033 -0.18947291
0000d0 ee 01 c2 bc 8c c1 01 3e 54 55 2f 3e 52 b7 dd 3c
       -0.02368256 0.12671489 0.17122394 0.027064953
0000e0 ce 04 ff bc 0d e7 76 3d cb 55 92 bd 12 6c cf bb
       -0.03113022 0.06027894 -0.0714527 -0.0063300217
0000f0 26 db 1f be 78 92 2a bd 62 3d 08 3e 6f 00 7c 3d
       -0.15610942 -0.04164359 0.13304666 0.06152385
000100 d3 f7 28 3e 73 1a 49 be 2d c0 b1 bd bb 53 1c be
       0.16500787 -0.19638996 -0.08679233 -0.15266316
000110 7a e5 6a be 25 f1 f7 bd 95 85 9a bc 22 f8 b0 bc
       -0.22939101 -0.121065415 -0.018862525 -0.021602694
000120 1a 44 95 bc 93 bc 3e be 94 e3 a3 bc b3 22 a0 3d
       -0.01822095 -0.18626623 -0.020005979 0.07819118
000130 63 de 58 3e 00 ae 36 3e be 59 7c be ef 5e 40 be
       0.21178584 0.17839813 -0.24643609 -0.18786214
000140 8b 2f 6e 3e 82 f9 4c 3e 87 9d 27 3e a1 bc 1b be
       0.23260324 0.20017055 0.16368686 -0.15208675
000150 72 a5 7e 3e 1d ae 92 be eb 23 70 be e1 33 d8 3c
       0.248678 -0.28648463 -0.23451202 0.026391925
000160 70 6f 0c 3e 8e 4e 8e be 02 cc 31 3d 58 69 91 bb
       0.13714385 -0.27794307 0.043407448 -0.004437607
000170 83 fd 1e bd c6 82 6c be 2e c1 10 be 56 cb 62 3c
       -0.038815986 -0.23096761 -0.14136192 0.013842424
000180 5c 6f 90 3d da 62 3d 3e b3 f2 d5 bd 52 e8 8e 3e
       0.0705249 0.1849474 -0.10446682 0.2791162
000190 91 64 e3 3d 68 27 4d be 36 4f 96 be 97 04 4b 3e
       0.11103166 -0.20034564 -0.29357308 0.1982597
0001a0 d3 90 b6 3c 71 72 f2 bc 77 ed c7 bd 9a f6 0d 3e
       0.022285854 -0.029595586 -0.0976209 0.13863602
0001b0 e7 50 d9 bd 1b eb 5c be 90 b3 51 3e 67 76 01 be
       -0.10611134 -0.2157406 0.20478654 -0.12642823
0001c0 4d dd 2d 3e e9 a6 4f be a9 cf 72 bd 17 77 25 be
       0.16978951 -0.20278515 -0.05928007 -0.1615871
0001d0 3c a4 4d 3c 20 d8 0e bd 0f 2c b4 3d d0 36 6a be
       0.012551364 -0.03487408 0.08797466 -0.22872472
0001e0 62 29 85 be ad 25 70 3e 08 34 67 be 6a a3 cb 3d
       -0.26008135 0.23451872 -0.22578442 0.09943278
0001f0 3d 1f 83 be c9 5e 6b 3d 43 97 cd bb 9d 7c 14 be
       -0.2560977 0.05746344 -0.0062741353 -0.14500661
000200 73 f9 c6 bb ed 4a 14 3d c2 32 07 3c fc 70 64 3e
       -0.006072217 0.036204267 0.008251848 0.22308725
000210 c5 f5 2c be c8 bb 08 3e 4c 0d 8b 3e 45 e3 58 be
       -0.16890629 0.13352883 0.27158582 -0.21180446
000220 68 82 6c be f7 1b cc 3d 4f 63 d6 bd 1c eb d9 bb
       -0.23096621 0.09966271 -0.1046816 -0.0066503417
000230 22 d6 8c be fa 71 38 3e 32 7d 9f bc 8b 83 94 3c
       -0.2750712 0.18012229 -0.019468877 0.01812913
000240 63 ed d1 bd 2e a5 d1 3d 33 75 9e bb 57 af f0 bd
       -0.10250356 0.10236584 -0.0048357486 -0.117521934
000250 88 04 96 3d 61 3c e0 bd 63 20 e0 3d 9b 9a 90 be
       0.07325083 -0.10949016 0.10943677 -0.28242955
000260 91 ac e9 bd d2 e4 4e be ab 77 00 3e 26 0a 54 be
       -0.114098676 -0.20204476 0.1254565 -0.20706996
000270 c1 f5 69 3e dc 0b 93 3d 25 10 39 3e db f8 44 be
       0.22847654 0.07179996 0.18072565 -0.19235556
000280 97 4a 75 be 21 35 46 bd e0 e9 25 be 9f 8e cc bd
       -0.23954235 -0.04839051 -0.16202497 -0.0998814
000290 0a 36 78 3e 11 64 21 3e 99 6e b2 bd 34 5c 37 3e
       0.24239364 0.15760829 -0.08712501 0.17906266
0002a0 a3 41 4a be e3 76 2f be c9 bf 05 3e 11 5d 02 3e
       -0.19751601 -0.17135195 0.13061441 0.12730815
0002b0 9c 9d ae bd 5c 0f 4e be 04 c9 3c 3d 77 a5 91 3e
       -0.08526155 -0.20123047 0.04609014 0.28446552
0002c0 22 98 94 3e 11 ba 77 3e ab 70 62 be de 29 48 3e
       0.29022318 0.24192072 -0.22113292 0.19547221
0002d0 9d 30 5d 3d ac 16 75 be 13 26 9b 3c 98 cd 91 be
       0.05400144 -0.2393443 0.018939054 -0.28477168
0002e0 3c a5 81 3d c2 09 26 be 10 2b 4b be e9 15 6b 3c
       0.06330344 -0.1621466 -0.19840646 0.0143484855
0002f0 65 a9 4b 3e 1d 7c 29 3e f2 dc 3a be 1a c1 2b 3e
       0.19888838 0.16551252 -0.18248346 0.16772881
000300 d4 b3 e0 3d d2 93 49 be 33 c5 9b bd 6a b8 90 bd
       0.109717995 -0.19685295 -0.07605972 -0.07066424
000310 39 6d 75 be d7 c3 89 be 8c 0c 4d be 84 40 89 3e
       -0.23967446 -0.26907226 -0.20024318 0.26807034
000320 48 76 a0 bd e9 e1 e7 3c 89 be 7a be 58 c2 4f bd
       -0.0783506 0.028305965 -0.24486746 -0.05072245
000330 28 2a e4 3d 67 cf c3 bb 53 d5 bd bc 87 b5 80 bb
       0.11140853 -0.005975652 -0.02317301 -0.0039278897
000340 13 08 4b 3e 11 b8 54 be 0e 95 87 be 2e 6c 91 be
       0.19827299 -0.20773341 -0.26480907 -0.28402847
000350 52 90 f5 3d 00 34 28 be de 10 04 be 76 c1 1f bd
       0.119904175 -0.16426086 -0.1289706 -0.039002858
000360 88 05 31 3e 4a f6 27 3b 6c 6b 6c 3d 03 a3 a9 bd
       0.17287266 0.0025628977 0.057719633 -0.08283045
000370 22 56 24 3e b2 a3 16 be e5 c1 68 3e b4 8d 78 3e
       0.16048482 -0.14710882 0.22730215 0.24272805
000380 29 d0 87 be 1a 39 bf bd 4b 8b 11 bd bf 98 22 be
       -0.26526 -0.09337063 -0.03553323 -0.1587858
000390 88 b4 81 3c 6a 37 c6 bd 29 fc 79 3e b8 1c bf bc
       0.015833154 -0.09678538 0.24412598 -0.023329124
0003a0 b2 ca 28 be d0 f0 15 be 3f 1a 8d be 9b 95 39 be
       -0.16483572 -0.14642644 -0.27559087 -0.18123476
0003b0 bc 80 6a 3d 4c 6c b6 3d 69 24 02 be 2e a0 44 3b
       0.057251677 0.08907375 -0.12709202 0.00300027
0003c0 21 82 17 3e c5 a7 1f 3d d6 11 08 3d 95 16 46 be
       0.14795734 0.038978357 0.033220135 -0.19344552
0003d0 1b f2 8d 3e 70 4a b2 bd d0 47 c7 3c 5f be 14 bd
       0.27723774 -0.08705604 0.024326235 -0.036314365
0003e0 06 2f 03 3e 86 1c 7a be 9b 6f 89 3d b8 61 6a be
       0.12810907 -0.24424943 0.0671074 -0.22888839
0003f0 03 57 6e 3e cc 0b ee bd 9c 91 76 3d 84 dc 9f 3c
       0.2327538 -0.11623344 0.060197458 0.01951433

encoder.feature_encoder.atom_embedding_list.2.weight f4 [12, 64]
000000 15 e3 d6 3c 56 d0 a7 bd 2e 1a 95 be 05 9c 5d bd
       0.026231328 -0.08194034 -0.29121536 -0.05410387
000010 ae 83 34 3e 05 fa d4 bd 40 e3 76 3e 74 87 37 be
       0.17628357 -0.1039925 0.24110126 -0.17922765
000020 42 cd 3b 3d b8 99 9c 3e c5 ee ec bd 0e 04 06 be
       0.045850046 0.30586028 -0.11568979 -0.13087484
000030 dd 9f 2d be b1 de 12 be 3f ca 36 be 28 90 49 be
       -0.16955514 -0.14342763 -0.17850588 -0.19683897
000040 ed dd 13 be ce 54 22 be 97 6e 74 3e 0d 67 44 bd
       -0.14440127 -0.15852663 0.23870312 -0.04794984
000050 26 c4 c4 3d ec 93 b4 bd ab bd d6 3c 54 fb 35 3e
       0.09607725 -0.08817276 0.026213488 0.17771655
000060 a3 59 55 3e 01 5c 92 3b 84 8a 40 3c a5 99 71 3e
       0.20834975 0.004466534 0.011751775 0.23593767
000070 34 a0 65 be 63 d0 9f 3e b1 9d 7f bd 6e 2e 6b 3e
       -0.22424394 0.31213674 -0.062406246 0.2296693
000080 fd f6 8e 3e de bd 5b 3c 00 5c 16 3d e9 38 03 3e
       0.27922812 0.013411967 0.03670883 0.12814678
000090 53 64 bd bd 65 8d f9 3d 98 08 b1 3e ee d6 63 bd
       -0.09247651 0.12185172 0.3457687 -0.055624895
0000a0 fc ad ca bd 2c 33 55 3e 9d 38 7b 3e 77 2c 9a 3e
       -0.09896466 0.20820302 0.24533315 0.3011205
0000b0 5f bb 87 be 6f 88 5b 3e 32 72 34 3e d7 1b 82 be
       -0.2651014 0.21438764 0.17621687 -0.25411865
0000c0 2a 83 4e 3e 6d 2c 1a be 2f 2b be 3d cf bc 89 3c
       0.20167223 -0.1505601 0.0928558 0.016813664
0000d0 f9 67 b5 3d 9b e0 0f be 43 63 ad 3d 49 69 1c be
       0.08857722 -0.14050524 0.08466198 -0.15274538
0000e0 d5 4e 15 3e 39 c9 30 be 2a 0c 64 3d e3 49 b3 3d
       0.14580853 -0.1726426 0.055675663 0.08754327
0000f0 97 91 0e 3c c6 44 04 be 3a 61 10 3e 90 e8 70 3c
       0.0087017035 -0.1291686 0.14099589 0.014703885
000100 cf 62 28 be b0 24 d7 bd 28 c4 66 3d d9 a4 11 be
       -0.16443942 -0.105050445 0.056339413 -0.1422304
000110 a5 b1 8a bc 22 ba 59 be ba 8c 93 be 42 0a a2 be
       -0.01693041 -0.2126241 -0.28818303 -0.3164845
000120 43 a6 35 be bc d5 54 be f2 7e 50 3e a8 3e de bc
       -0.17739205 -0.20784658 0.20360926 -0.027129486
000130 7f 9e 1c be 8f 95 7e be e1 c2 f0 3d af be 74 3e
       -0.15294836 -0.2486174 0.1175592 0.23900865
000140 83 a3 81 be 0c 60 86 3e 4d 8d 0b 3e fa 2f 82 3d
       -0.25320062 0.26245153 0.1362812 0.06356807
000150 ef 53 f7 3d 2f df aa 3d 78 89 7b be be d8 42 be
       0.12076556 0.0834335 -0.24564159 -0.19027993
000160 6d a9 21 be c5 fd 94 be 3a 65 af bd f5 53 c1 bb
       -0.15787287 -0.2909986 -0.08564229 -0.005899901
000170 04 ba 9c bc 90 9f f7 3d 13 8e 29 be ca e6 6d 3e
       -0.019131668 0.12090981 -0.16558103 0.2323257
000180 c9 9d d2 bd ed 58 9d 3e b5 d2 4f 3e cd 38 fc bd
       -0.102840014 0.30731907 0.20295222 -0.123155214
000190 6e 9c 96 be ed 2c 69 3e 39 0d 7a 3e 4f 6c f6 bc
       -0.2941622 0.22771044 0.24419107 -0.030080942
0001a0 e1 a7 6e 3d 8d ef ca 3c 9e b5 35 be c0 63 17 3e
       0.05826557 0.02477243 -0.17745063 0.14784145
0001b0 cc b2 ce 3c 22 29 74 be 9b 3f c0 bd 01 d8 78 be
       0.025231741 -0.23843816 -0.09387132 -0.24301149
0001c0 ec e0 22 3e b4 a1 8b be 7a 8b 67 be cd 3a 82 be
       0.15906113 -0.27271807 -0.226118 -0.25435486
0001d0 22 a6 c5 bd 9d e6 bc be 81 84 30 bd 3e 0e 6b bd
       -0.09650828 -0.36894694 -0.043095116 -0.05738663
0001e0 05 7e 36 3e 07 a5 68 3e 8d 1b 1a 3e 7e 10 a2 bd
       0.1782151 0.22719203 0.15049572 -0.07913302
0001f0 42 ae 59 3e 18 94 84 be 64 4b db bd f6 27 f3 bd
       0.2125788 -0.25894237 -0.10707739 -0.11872856
000200 ab 78 9f be c6 60 2b 3e c6 60 43 3e 60 ea c8 3d
       -0.3114675 0.16736135 0.19079885 0.098103285
000210 0e e3 13 3e d2 50 b8 3e e9 97 c8 bb a8 8c 00 3e
       0.14442083 0.3599916 -0.0061216247 0.12553656
000220 0d 3a 73 be a8 4a 1b bd 6f 08 87 be 2d 08 1c 3e
       -0.23752613 -0.037912995 -0.26373622 0.15237494
000230 00 c0 22 be fe f5 0b be 63 29 85 3e 3b 9f b7 bd
       -0.15893555 -0.13668057 0.26008138 -0.08965918
000240 9a f8 86 bd da 18 bb be d4 a2 90 be 1f 32 1f 3e
       -0.06590386 -0.36542398 -0.28249228 0.15546463
000250 16 7f 0c 3e 5d 0e 43 3c 14 52 44 be 8d 10 8f 3e
       0.13720354 0.01190528 -0.19171935 0.27942315
000260 45 13 a3 3e af 08 fd 3d 55 3b ea bd b3 3a 9a 3c
       0.3185064 0.12355172 -0.11437098 0.018826818
000270 7c 63 52 3e 5b 68 80 bd 92 6d 7f 3e 8a a1 31 3e
       0.20545763 -0.06269904 0.24944142 0.17346779
000280 ce 6f 01 3e 47 63 59 be d0 d0 34 3d 86 0c 04 3e
       0.12640306 -0.21229278 0.04414445 0.12895402
000290 97 89 86 bd 76 9e 12 3e 97 b7 47 3e f4 f3 a3 be
       -0.06569212 0.1431826 0.19503628 -0.3202206
0002a0 01 93 d8 bd ef da 5a be 38 e9 04 3e 21 39 2c 3e
       -0.10574914 -0.21372579 0.12979591 0.16818668
0002b0 d4 97 85 3e f0 45 85 bd 84 ad c9 3d 82 91 b6 be
       0.26092398 -0.0650748 0.098475486 -0.3565789
0002c0 18 be a0 bd 89 e4 e4 bd 00 14 0a be ac fc 92 3e
       -0.078487575 -0.11176402 -0.13484192 0.28708398
0002d0 14 0a 18 3e 9b c4 30 be df 1e a2 be cd ee 35 be
       0.14847594 -0.17262499 -0.31664178 -0.17766877
0002e0 da d1 e2 bc 83 98 01 3e da 76 df 3d 7f 7d 7d 3e
       -0.027687956 0.12655835 0.10911341 0.24754904
0002f0 7e 11 17 be db 29 dd 3d 26 fd 9e be 11 b0 d9 bd
       -0.14752766 0.10798999 -0.31052512 -0.10629285
000300 f2 41 cc 3c 01 0b 6f 3d 13 6a 9d be 42 ea 87 bb
       0.024933789 0.058360104 -0.3074499 -0.0041477988
000310 91 90 2a 3e d2 ba 69 3e c7 7a a3 bd 5e fb 19 3e
       0.1665671 0.22825173 -0.07982402 0.15037295
000320 07 06 01 3d 3d 22 14 be ef df 98 3e 1c cf 9e bd
       0.03149989 -0.14466186 0.29858348 -0.07754347
000330 c0 d8 c0 bd e0 87 28 bd c5 0b 7c 3e f7 a6 15 be
       -0.09416342 -0.041145205 0.24613865 -0.14614473
000340 37 d0 81 bd d7 98 56 3d 0c 67 10 be c1 67 f6 3d
       -0.06338542 0.052391853 -0.1410181 0.12031508
000350 26 73 68 3e 65 dc a9 3d 76 cd a7 bd e5 d3 70 bd
       0.22700176 0.0829399 -0.081934854 -0.05879583
000360 27 ae df be 55 75 7a be 9c 69 a4 bd 21 27 48 3e
       -0.43687555 -0.24458821 -0.08027956 0.19546176
000370 fc 19 51 3e 0f 61 f0 3d f4 96 5c bd 6f 23 88 3e
       0.20420069 0.117372625 -0.053854898 0.26589534
000380 c1 66 b6 bd b6 7d 97 be be ea f0 3d 67 1c 77 be
       -0.089063175 -0.29588097 0.117635235 -0.24131928
000390 eb 35 60 be 59 fc 19 bd 9b 2a 1a be c8 fe 3e be
       -0.21895568 -0.037594173 -0.15055315 -0.18651879
0003a0 79 98 1e be a5 bf 1c bd 35 6c 4c 3d 73 6c ee bd
       -0.15487851 -0.038268704 0.04990788 -0.11641779
0003b0 a2 2e 9b be ed a6 b0 bd ab 46 be 3e e8 9f a3 bd
       -0.30309016 -0.086255886 0.3716329 -0.07989484
0003c0 8f 68 2e be a9 7f e8 bd 55 4a 75 3e 2d f6 e6 3c
       -0.17032073 -0.11352474 0.23954137 0.028193558
0003d0 86 55 21 bd 31 7a 93 3e 3e c2 22 3e b0 9b 86 3d
       -0.039388202 0.28804162 0.1589441 0.06572664
0003e0 68 1c 95 3e 06 e9 80 bb 30 7c 11 bd ff a1 04 3e
       0.29123235 -0.0039340286 -0.035518825 0.12952422
0003f0 f8 03 49 3e f4 c5 56 be a0 ee 9e 3e 20 71 42 be
       0.1963042 -0.2097395 0.3104143 -0.18988466

encoder.feature_encoder.atom_embedding_list.3.weight f4 [12, 64]
000000 d3 e5 2e 3e a1 ba 7c bc fc 8e e2 3d 44 76 66 3e
       0.17079858 -0.015425355 0.11062428 0.22506052
000010 ae 2a 42 3e e1 e2 5e 3e 83 23 40 be 9b 37 7a be
       0.18961594 0.21766235 -0.18763547 -0.24435274
000020 05 ef 3c 3e 33 d8 82 3e 0f 33 67 3e 0f 74 9a 3d
       0.18450554 0.25555572 0.22578071 0.07541668
000030 4b 23 85 bd 76 35 84 3d 37 97 0a be b2 4f 80 3d
       -0.06500872 0.06455509 -0.13534246 0.06265201
000040 a0 60 72 3e 74 af 4b be e0 cd 71 be c3 4b b3 bc
       0.23669672 -0.19891149 -0.23613691 -0.021886712
000050 3d f9 30 3e e8 ca 85 be b2 23 37 3e dc 32 4d 3c
       0.17282577 -0.26131368 0.1788471 0.012524333
000060 45 b1 09 3d e5 ad 23 3e e4 8b 09 3e 43 8e 82 bc
       0.033616323 0.15984304 0.1343227 -0.015936976
000070 a2 60 86 be 40 dd 54 3e b8 4c ba bd be d0 1f be
       -0.262456 0.20787525 -0.09096664 -0.15606973
000080 ef 4a be 3d be 60 41 3e 94 e0 23 3d 25 37 3f be
       0.09291636 0.1888456 0.040009096 -0.1867338
000090 0d 62 a4 be 4b 83 fa 3d 18 00 1c 3d 16 a3 1c 3e
       -0.32106057 0.122320734 0.038086027 0.15296587
0000a0 71 09 a6 3e c7 b9 1c be ba bd b2 3d 43 b2 86 3e
       0.32429078 -0.15305243 0.08727594 0.26307878
0000b0 bb a3 21 bd 0d 20 1e be 90 99 60 be 6a 1d 81 bc
       -0.039462786 -0.15441914 -0.2193358 -0.015761096
0000c0 e0 ed a3 bd 41 7b 30 be c4 06 90 be 50 aa e8 3d
       -0.080043554 -0.17234518 -0.28130162 0.113606095
0000d0 c3 02 26 bd ee bd 00 3e 6e aa a1 3d 03 f7 8e be
       -0.040529978 0.12572452 0.07893835 -0.2792283
0000e0 54 07 1f be a5 dc 92 3e ce 4f 46 bd 4f 6b 34 3e
       -0.15530139 0.28683963 -0.04841595 0.1761906
0000f0 50 0a 84 be b9 a7 63 3e b7 51 20 3e 5a df 60 be
       -0.25789118 0.2223195 0.15656172 -0.21960202
000100 9e 26 70 3d 8a ca 54 3e ce 06 50 3e 14 a6 bd 3d
       0.05863058 0.20780388 0.20315096 0.092601925
000110 e8 4f c2 bd 91 20 b4 bd fb c0 98 be 05 61 9e 3e
       -0.09487897 -0.08795274 -0.29834732 0.30933395
000120 1b 66 b8 3b 97 aa c2 bc 94 39 90 bd e8 cd 68 be
       0.0056274063 -0.023762984 -0.07042232 -0.22734797
000130 a8 f4 d5 3b e0 4a 3d 3e f5 2b 92 3e 4c 31 8d bb
       0.0065294094 0.18485594 0.28549162 -0.004308855
000140 e6 9d d4 3d e8 ab 79 bc df fe 04 be e1 f4 5c 3e
       0.10381679 -0.01523874 -0.1298785 0.21577789
000150 ef d6 24 3d 80 39 8d 3e a7 1d 8d be b2 9a 7f bc
       0.04024404 0.27582932 -0.27561685 -0.015600847
000160 1f 0a c5 bd c4 46 59 3e 7b 52 1b 3e 56 fe 3f 3d
       -0.09621071 0.21218401 0.15168183 0.046873413
000170 84 f5 e8 3d e1 0d f8 bd 1b e0 96 bd 00 06 12 3e
       0.113749534 -0.12112022 -0.073669635 0.14260101
000180 d2 57 fd bd 1f 5b 8a 3d f5 1f 90 3d ee 2b 9b bd
       -0.12370266 0.06755661 0.07037345 -0.07576738
000190 f5 89 34 be 0e f1 54 be 8e 27 ab be a7 2d b2 3d
       -0.17630751 -0.2079508 -0.33428615 0.08700114
0001a0 2a 45 20 3e 13 45 d2 3d 6b 76 e3 3d 23 42 10 3d
       0.15651384 0.10267081 0.11106571 0.035219323
0001b0 39 47 22 be c2 04 98 be 93 4e 6f 3e 5b b9 a5 3d
       -0.15847482 -0.2969113 0.23369817 0.080919944
0001c0 34 b3 2e 3e fb 4e 9b be c6 75 f2 bd ed 33 6d bc
       0.17060548 -0.30333695 -0.1183887 -0.014477712
0001d0 54 13 6e 3e 44 61 8a be 02 86 02 be f2 45 5a be
       0.2324956 -0.27027333 -0.12746432 -0.21315745
0001e0 72 02 f2 3d 29 45 26 3d b3 9c 1c be 4f 4a c3 3d
       0.11816873 0.0405933 -0.15294151 0.095356576
0001f0 1f 6f 43 be bb 10 dd 3b ed b8 07 be 08 90 78 bd
       -0.19085358 0.006746379 -0.13254137 -0.060684234
000200 26 bd 79 bd 04 24 88 bd b9 7b 98 3e a4 bf 96 be
       -0.0609714 -0.066474944 0.29781893 -0.29443085
000210 84 78 bc 3c 28 55 af bc e6 8c fe bc 21 ec 95 3e
       0.023006685 -0.02140291 -0.031073045 0.29281715
000220 4f 0a 0f 3e 8a d5 71 3e 8e dc 43 3e 5e 64 4a bd
       0.13968776 0.23616615 0.19127104 -0.049412124
000230 c3 69 7a 3e 53 64 f8 3c 09 52 e0 3d be d7 4c bd
       0.24454407 0.030321276 0.10953147 -0.050010435
000240 2e 84 77 3c 0e b9 0a 3e dd 6d da bd 4b 02 8d 3e
       0.015107198 0.13547155 -0.10665486 0.27540812
000250 27 12 9f 3e 24 11 8b bd 3f 56 aa bd 4f 4a 7f be
       0.31068537 -0.06790379 -0.083172314 -0.2493069
000260 d1 5c 17 3e 9b 50 6b be 8d a1 81 be 4e d5 67 3e
       0.147815 -0.22979967 -0.25318566 0.22639963
000270 ed e8 a2 3d f8 64 a6 3e 6b af 70 be 1f 13 22 be
       0.07954583 0.32498908 -0.23504417 -0.15827607
000280 8f d9 48 be 3f de 31 3e b5 6d 5a be 5e 07 1d be
       -0.19614242 0.17369936 -0.21330912 -0.15334842
000290 d0 0a 64 bd 5d 44 15 be 62 14 62 3e 67 9a 84 3e
       -0.055674374 -0.1457686 0.22078088 0.2589905
0002a0 9b b8 16 be 40 42 0c be f0 13 e8 3b 1c 0f 34 be
       -0.14718859 -0.13697147 0.007082455 -0.17583889
0002b0 60 08 78 be e6 85 93 3e 5d 86 1e be 8c 73 1d 3e
       -0.24221945 0.28813094 -0.15480943 0.15376109
0002c0 33 dd 9e bd de d9 44 be 84 36 1c be ea bf 1e be
       -0.07757034 -0.19223735 -0.15255171 -0.15502897
0002d0 7a 69 43 be 69 9b 23 be db 13 8a bd 1f 7f 17 be
       -0.19083205 -0.15977253 -0.067420684 -0.14794587
0002e0 f8 ab 6a 3e 3f 3c a5 be 84 bb 14 be 47 1f 5f 3e
       0.22917163 -0.32272527 -0.14524657 0.21789275
0002f0 3a 03 f3 bd 97 d2 23 be 87 90 61 be 3a 8d 63 be
       -0.1186585 -0.15998302 -0.22027789 -0.22221842
000300 e2 62 91 3d 9c 76 9b 3d 4a 44 25 bc b3 9f 4f 3e
       0.070989385 0.07590982 -0.010087082 0.20275764
000310 09 ab dc bc 6a 0c 56 be 35 11 97 be 50 74 e8 3d
       -0.026937025 -0.20903173 -0.29505315 0.1135031
000320 87 c6 34 be d3 7f 81 3e 8a 50 9a 3d a7 92 95 3e
       -0.17653857 0.25292835 0.07534893 0.2921345
000330 58 03 44 bd d9 45 0c be a3 82 8e be c4 c2 7f 3e
       -0.04785475 -0.1369852 -0.27834043 0.24976641
000340 ad af 8c be 42 eb 25 3e f8 cd 85 bd e8 f7 38 be
       -0.2747778 0.16203025 -0.06533426 -0.18063319
000350 4b 4e fe bd db 4b 0b 3e 2e 68 36 3e 26 50 4c be
       -0.12417277 0.13603155 0.17813179 -0.19952449
000360 2a 89 56 be 26 61 e2 3d cc d9 2f 3d c9 c4 38 be
       -0.20950761 0.11053686 0.042932317 -0.18043818
000370 f6 7e 13 3e 79 88 4c bc 0b 0d 7b be 4e 73 81 3e
       0.144039 -0.0124837095 -0.24516694 0.25283283
000380 86 a8 51 be f1 54 82 bc 5b 34 09 be 9c ef 17 be
       -0.20474443 -0.015909644 -0.13398878 -0.14837497
000390 e8 4b 28 bd 73 67 80 be 73 15 2c 3e 49 50 1b be
       -0.041088015 -0.25078925 0.16805057 -0.15167345
0003a0 b9 0e 42 3e 8f b7 3c 3b 28 cc ea bc f5 91 a7 bc
       0.18950929 0.0028795933 -0.028661802 -0.02045534
0003b0 2f 96 35 be d3 df be bd 2f db 4a 3e 8f 2b bd bd
       -0.17733072 -0.09320035 0.19810174 -0.09236824
0003c0 38 e1 bd 3d a0 7e 87 be 38 23 e8 bd dd b8 1e 3e
       0.09271473 -0.26463795 -0.113348424 0.15500207
0003d0 3b 78 b2 3d c9 ab 79 be 0b 70 04 be 1f 36 3a 3e
       0.087143384 -0.24381937 -0.12933366 0.18184708
0003e0 5e 4e d1 b9 6f c2 43 3e 7c e2 8d be 96 f5 97 3b
       -0.00039921975 0.1911714 -0.27711856 0.0046374304
0003f0 36 55 4e be 60 51 cc 3d 46 1f c7 bd cc 99 5a bc
       -0.20149693 0.099764585 -0.09722762 -0.013342332

encoder.feature_encoder.atom_embedding_list.4.weight f4 [10, 64]
000000 95 78 4a 3e 13 96 54 3e d2 ae 5f 3d cc f1 8f 3e
       0.19772561 0.20760374 0.05461008 0.28114164
000010 06 3a b6 3d 61 89 0d bd 58 80 0e 3e e9 7c c6 bc
       0.08897786 -0.034554843 0.13916147 -0.024229484
000020 b7 f0 9f 3e 75 50 4c be b0 f2 ec bd e8 ac 31 3e
       0.31238338 -0.19952567 -0.115697265 0.17351115
000030 68 93 83 be c0 eb 20 3e 8f 51 00 be d6 41 c5 3d
       -0.256984 0.15714931 -0.12531112 0.09631698
000040 19 2f 89 3e 53 2b a9 3d c6 3b 84 be 69 a0 b3 3d
       0.26793745 0.082602166 -0.25826854 0.0877083
000050 08 17 06 3d b4 ce 70 bd 0c ea 85 be 26 c5 67 be
       0.032736808 -0.058790877 -0.26155126 -0.226338
000060 8e 4c e8 bd d0 7b 7e 3e fc fa 84 be 19 b6 95 be
       -0.11342727 0.24851918 -0.25972736 -0.29240492
000070 fd d9 12 be a2 f7 ec 3d c2 5d 97 be bd 32 aa be
       -0.14340968 0.1157067 -0.2956372 -0.33241835
000080 0b b5 09 3d 58 f6 8e be 2d 38 8a 3c 7e 33 4e bd
       0.03361992 -0.2792232 0.01687249 -0.050342076
000090 75 08 5f 3e 52 34 b7 bd 09 18 7c be f8 92 d1 bd
       0.2178057 -0.08945526 -0.24618544 -0.1023311
0000a0 0d fc 36 bd 53 c1 17 be 77 f1 9c 3e ef 4e 69 be
       -0.044673968 -0.14819841 0.30652973 -0.22784017
0000b0 21 c0 84 be 88 1e b7 3d 88 43 0d bd 6f 02 5a 3d
       -0.25927833 0.0894137 -0.03448823 0.053224977
0000c0 36 3a 01 3d 0c 4a 88 3d 5e 46 1a 3e 79 7c 29 bd
       0.031549655 0.06654748 0.15065905 -0.041378472
0000d0 aa b5 16 be 02 40 4f bc 7a 59 65 bd 54 46 60 be
       -0.14717737 -0.012649538 -0.055993535 -0.21901828
0000e0 6a 2e 9a 3e 2c fb 25 3e fb 21 09 be 80 f0 1d 3e
       0.30113536 0.16209096 -0.13391869 0.15423775
0000f0 7e e7 6f 3e 81 ff 15 3e 08 51 5e 3e bf ff 8e bd
       0.23428151 0.14648248 0.21710598 -0.069823734
000100 b2 c8 22 bd 2a c5 36 3e ec 98 55 3e ab e9 e6 3d
       -0.03974218 0.1784865 0.20859116 0.112750374
000110 02 be 23 3e 9a 49 94 be 64 e2 da bd ca dd 8d 3e
       0.15990451 -0.28962404 -0.10687712 0.27708274
000120 b7 1c a8 bd 5f 36 03 be 50 a4 36 be 52 32 ac be
       -0.08208602 -0.1281371 -0.17836118 -0.3363214
000130 6e dd 77 3e 3b fc ef 3d 6a ca 3c be 0a d1 29 be
       0.24205562 0.11718031 -0.1843659 -0.16583648
000140 60 d6 38 bd 9a 54 2a 3d 76 07 6a 3e 4a d6 a7 3d
       -0.04512632 0.04158459 0.22854409 0.08195169
000150 d0 a2 bf bc f0 4c 24 3e 83 7a 4c 3e c2 77 79 3e
       -0.023393065 0.16044974 0.1996861 0.2436209
000160 4c 34 8a 3e 31 83 97 be 2f 97 89 3e 8e e6 54 3e
       0.26993024 -0.2959228 0.26873156 0.20791075
000170 54 fc bf 3d 7f 4b a8 bd ee 0c 8e 3d 9d 2b b7 be
       0.093743 -0.08217525 0.0693606 -0.35775462
000180 05 58 12 3e 30 18 ed 3c af 63 34 3e b7 22 88 3e
       0.1429139 0.028942198 0.17616151 0.26588985
000190 f8 14 e8 bd fa 3d 4d 3e 6b 6e 8d 3e 62 01 82 be
       -0.113321245 0.20043173 0.27623305 -0.2539168
0001a0 e6 c8 6a 3c 95 92 3f be ed 30 83 be 35 e7 e0 3d
       0.0143301245 -0.1870826 -0.25623265 0.10981599
0001b0 69 7c 95 be db 45 58 3e eb 90 6a be 83 4c 5b 3c
       -0.2919648 0.21120398 -0.22906844 0.013384941
0001c0 ce 29 b1 bd c7 f9 49 3e a4 e3 8a 3e ce 37 89 be
       -0.08650552 0.19724189 0.271268 -0.26800388
0001d0 84 18 9f bd ce d0 0e be 2d ae 90 be b7 8b 6a be
       -0.07768348 -0.1394684 -0.28257886 -0.2290486
0001e0 a3 95 78 be b5 53 05 be 67 38 96 3e 80 32 75 3d
       -0.24275832 -0.13020213 0.29339907 0.059862614
0001f0 70 c0 db 3d fc 5e 8f be 61 69 88 be bc 80 98 3d
       0.10730064 -0.28002155 -0.26642898 0.07446429
000200 0f af 95 be 7f ec a9 3d a7 c5 e9 bd 27 a2 a6 be
       -0.29235122 0.08297061 -0.11414652 -0.32545587
000210 05 90 b6 be eb c3 3a bd 23 de d4 3d ec 13 b0 bd
       -0.35656753 -0.045597 0.10393932 -0.0859755
000220 95 eb 0e be c4 2c aa 3e 9a 14 07 3d 63 07 d5 bd
       -0.13957055 0.33237278 0.03297863 -0.104017995
000230 bc cb 6c 3e 9b dc 65 bb 73 4d 90 be 1d 8c ad bd
       0.23124593 -0.0035074118 -0.2818409 -0.0847399
000240 d7 71 67 bd 4a a2 36 3d 83 51 10 be 22 b6 4f 3e
       -0.05650505 0.044588365 -0.14093594 0.20284322
000250 bd 3a dc bd 30 63 2f 3e eb 92 93 bc a9 7e cd bb
       -0.10753391 0.17127681 -0.018014392 -0.0062712026
000260 59 68 6c be f3 f1 8e 3d 65 26 8f bc 41 56 cb 3d
       -0.2308668 0.06979742 -0.017474363 0.09928561
000270 b5 aa 13 be 9c db c6 3c d0 38 04 be db de b5 bd
       -0.14420588 0.02427464 -0.12912297 -0.08880397
000280 3a 2d e1 39 06 a7 80 bd 86 6e 1d 3e 0d 5d 1e 3e
       0.0004294904 -0.06281857 0.15374193 0.15465184
000290 c5 4b 01 be 34 4f e7 3d d4 6c 2c 3e b6 1f 82 be
       -0.1262656 0.11294404 0.1683839 -0.2541482
0002a0 04 f5 80 3e c7 f1 67 be 85 15 03 3d a2 dd da bd
       0.25186932 -0.22650824 0.032002944 -0.10686804
0002b0 16 a1 fe bb 7c 66 c3 be 47 83 36 be 65 63 35 be
       -0.007770668 -0.38164127 -0.17823516 -0.17713697
0002c0 c4 11 88 bd 62 ec 64 bd 58 9f 48 3e f3 35 4e be
       -0.066440135 -0.055889495 0.19592035 -0.20137767
0002d0 95 a5 01 3d 39 ba 93 3e 5c 31 3e 3e 2e 7d 7b bd
       0.031652052 0.28853014 0.18573517 -0.061398678
0002e0 ae d3 80 be 90 a0 58 3e 4f 78 05 be ff 06 e2 3d
       -0.251615 0.21155 -0.13034175 0.11036491
0002f0 f8 83 1c 3e 8a 1a 2d 3d 2c 39 4e 3e 9f c3 a8 be
       0.15284717 0.042261638 0.20138997 -0.32961747
000300 95 63 9b be 3a d5 f4 3d 1d 15 98 3e fe 37 27 be
       -0.30349413 0.11954732 0.29703608 -0.16329953
000310 3b 49 42 3c 3d 76 29 be b9 fa 64 bc 8b 71 2f 3d
       0.01185828 -0.1654901 -0.013975793 0.042832892
000320 c6 0a 6b 3e e5 d9 17 be b7 9f 1a be b8 08 4d 3b
       0.22953328 -0.14829214 -0.15099989 0.0031285714
000330 2f a1 31 3e b4 92 00 be bf 2c 10 3d 80 e2 84 be
       0.17346643 -0.12555963 0.035198923 -0.25954056
000340 7b b1 62 3e d9 07 15 3e 4c ce b6 be d3 2e 97 3c
       0.22138016 0.14553775 -0.35704267 0.018454945
000350 c1 11 24 3e 74 99 03 3e dd cd 0f bc 92 dc 05 be
       0.16022398 0.12851506 -0.008777109 -0.13072422
000360 a1 b7 4a 3e 11 66 90 be 56 dc b0 bd 93 3d 1b be
       0.19796611 -0.2820287 -0.08635776 -0.15160207
000370 92 cd aa be b3 8d 01 be 21 ab 7a 3e 68 63 41 bd
       -0.33359963 -0.1265171 0.24479343 -0.04721394
000380 fe 3c 0a 3e 63 06 12 3e ed f1 52 be 19 5e 9e 3d
       0.13499829 0.14260249 -0.206001 0.077327915
000390 53 fe 15 be 4c 2a 89 be a4 2a 34 be 87 f9 49 bd
       -0.14647798 -0.26790082 -0.17594391 -0.049310233
0003a0 50 15 52 be f4 2e 45 bd 0b 57 34 3e 85 9f 0d 3e
       -0.20515943 -0.04814048 0.1761133 0.13830383
0003b0 f5 21 90 be 43 05 1a 3d e6 53 b2 bd c9 9d 27 3e
       -0.28150907 0.037602674 -0.087074086 0.16368784
0003c0 e7 62 d4 3d 57 b7 9b be 22 e7 45 be a5 bc 2d 3e
       0.103704266 -0.30413315 -0.19326451 0.16966493
0003d0 b4 84 41 3d d3 9a c8 3d 10 0c 41 be b8 d5 41 3d
       0.047245696 0.097951554 -0.18852258 0.04732296
0003e0 a2 64 09 be b6 b7 ce 3c a5 1c 0d be f2 13 8a 3e
       -0.13417295 0.025234085 -0.13780458 0.26968342
0003f0 14 fc 99 bd cf 01 45 be 60 92 73 be 4b a4 03 3f
       -0.07518783 -0.19238971 -0.23786306 0.51422566

encoder.feature_encoder.atom_embedding_list.5.weight f4 [6, 64]
000000 47 b0 3a be 09 ea e2 3d e8 2a 9f bd bf eb 32 3e
       -0.18231307 0.11079795 -0.077718556 0.17472742
000010 43 52 74 bd 24 5d 33 3e a7 29 f7 bd af d5 6a be
       -0.059648763 0.17515999 -0.120684914 -0.22933076
000020 90 3c 07 bd 8e 70 0b be 70 28 2e be 94 1a 04 3e
       -0.03301674 -0.13617155 -0.17007613 0.12900764
000030 f6 14 8d 3e 89 3d 74 be 4c d6 93 be ac 92 a6 3d
       0.27555054 -0.23851599 -0.28874433 0.08133444
000040 e6 04 84 be 25 ea 1f bd 15 d3 e3 3d c7 fc b8 3d
       -0.25784987 -0.039041657 0.11124245 0.090325885
000050 f4 a9 b0 3c de 0a ec 3d a1 84 23 be b0 f4 80 bd
       0.021565415 0.1152551 -0.15968563 -0.062966704
000060 a1 c6 90 bd a9 4c a6 be b4 d0 3b be 45 fa 80 3d
       -0.070691355 -0.32480362 -0.18341333 0.06297735
000070 f9 25 6a 3d 63 ea e2 bd 2f ab 2f 3e 3d 7d 58 be
       0.05716512 -0.11079862 0.17155145 -0.21141525
000080 cc 81 63 bc 7f 38 47 3e c0 f9 15 3e 2e 79 96 3e
       -0.013885926 0.19455145 0.14646053 0.29389328
000090 b5 20 e8 3b 2b ca 47 be b7 e6 cb bc 88 03 95 bd
       0.007083977 -0.19510715 -0.024890287 -0.07276064
0000a0 88 61 82 be 59 3d 1b be 4b 43 80 be 2f 74 1d be
       -0.25465035 -0.15160121 -0.2505134 -0.15376352
0000b0 50 40 94 be b1 e3 70 3e b4 ce 7a 3d 85 92 79 3e
       -0.28955317 0.23524357 0.061232284 0.24372299
0000c0 b2 61 1a 3e 55 af 62 3e 99 76 17 be 14 c1 14 be
       0.1507633 0.22137196 -0.14791335 -0.14526778
0000d0 39 97 1a be 80 7a 70 be 10 d0 1d 3d fd de 91 3d
       -0.1509675 -0.2348423 0.038528502 0.0712261
0000e0 9b 9c 00 3e 1f 00 51 bd 32 19 b5 3d 83 4f 3b 3d
       0.1255974 -0.051025506 0.08842696 0.045730125
0000f0 7a 06 bb 3d 55 d5 c1 3d 2a 76 0c be 14 cd 05 3e
       0.09132095 0.09464518 -0.13716951 0.13066512
000100 5b 8a 91 be e0 8d 0d 3d 09 93 1e 3e bb d4 3b 3e
       -0.2842587 0.03455913 0.15485777 0.18342869
000110 bc 21 04 3e d0 32 36 bd be ab 55 3e 4f 1d 8e be
       0.12903494 -0.044482052 0.20866296 -0.27756736
000120 3a ea 7a bd 46 62 e0 bd 80 ed 36 3e f5 bf 83 3e
       -0.061258532 -0.10956244 0.17864037 0.2573239
000130 1e 90 9e bd 5d 52 71 3d a3 51 2d bd 1e 99 aa bd
       -0.07742332 0.05891644 -0.042314183 -0.08329986
000140 09 d6 ef 3d 50 13 8d 3d 5f 2a 10 be 08 de 82 3d
       0.11710746 0.06888449 -0.14078663 0.06390005
000150 5a 64 87 3e bc a7 51 be 20 46 3f bd 8d 0f 85 be
       0.2644375 -0.20474142 -0.046697736 -0.25988427
000160 46 57 97 bd eb c6 8d 3e 36 fc 42 3e e7 63 8d be
       -0.07389693 0.27690825 0.19041523 -0.27615282
000170 5d 3b 86 be 21 c0 40 3c 30 27 09 bd f8 d4 61 3e
       -0.26217166 0.011764557 -0.033484638 0.22053897
000180 19 50 a5 bd 65 5e 63 3e 09 4d 31 be 17 7e 5a bd
       -0.08071918 0.22203977 -0.17314543 -0.053342905
000190 3f 87 cd bb 27 4e 1a be 2b 8c 4b 3c 3d 32 81 bd
       -0.006272226 -0.15068875 0.012423555 -0.0630841
0001a0 7b 3e 0e be 65 f0 6b be 3f cf f7 b9 c3 7f 8b 3e
       -0.13891022 -0.23040922 -0.00047265922 0.27245912
0001b0 0c bc e8 3d 8c 4b 65 be 7d 6f 17 be de e9 44 3e
       0.11363992 -0.223921 -0.14788623 0.19229838
0001c0 6d 7e df bd 21 3d de bc 69 f6 0c be 67 f0 0e 3e
       -0.10912786 -0.027128758 -0.13765873 0.13958894
0001d0 59 c0 4a be eb 13 8e be 42 4a 5c be 3a 58 81 be
       -0.19799937 -0.2774957 -0.21512702 -0.25262624
0001e0 a5 99 e6 3c 03 eb 39 3d 97 c8 bd bd c2 83 f8 3d
       0.028149435 0.04539014 -0.09266775 0.12134506
0001f0 a1 f8 e0 3c 71 e2 90 3d 8c 5a 1c 3e bc 7f 72 3d
       0.027462306 0.0707444 0.15268916 0.05920385
000200 f5 90 ad 3e c4 f7 78 3e a1 19 18 be 37 40 76 3e
       0.33899656 0.24313265 -0.14853527 0.24047934
000210 28 a5 5d 3a a8 73 38 bd 98 44 d3 bc 47 b6 91 be
       0.0008455091 -0.045032173 -0.025789544 -0.2845938
000220 6b b6 60 3e 5c aa 41 3e e4 e4 98 3e b0 37 86 3d
       0.21944587 0.18912643 0.2986213 0.0655359
000230 5d aa a3 bd cd ce b6 bc cb aa f0 bd 5c 6f 9b be
       -0.079914786 -0.022315407 -0.11751326 -0.30358398
000240 b2 cd cb 3d 2c d3 9c 3d c1 f1 b8 bd 45 c9 2e be
       0.09951343 0.07657465 -0.09030486 -0.17068966
000250 9d 0d c4 bd 86 c9 a5 3d 47 50 47 3e cb a9 da 3d
       -0.09572909 0.08095078 0.19464217 0.10676917
000260 db 00 62 3e c5 c9 86 3e b1 8e 21 be 2a a8 c7 bb
       0.22070639 0.26325813 -0.15777089 -0.0060930448
000270 b8 b6 93 be be c6 43 be 4b 12 e8 3d 84 0c cb 3d
       -0.2885034 -0.19118783 0.11331614 0.099144965
000280 23 c0 10 3e 64 17 b5 3e 98 d8 b2 3d dd e1 12 be
       0.14135794 0.35369408 0.08732718 -0.14343973
000290 69 4d c5 bd 0c 5c a4 3d 78 7a 19 3e 61 3e 1a be
       -0.096339054 0.08025369 0.14988124 -0.15062858
0002a0 a2 b4 fa bd 5f 81 e5 3d 6a fa f9 3d 05 5b 9e 3e
       -0.12241484 0.11206316 0.12205966 0.30928817
0002b0 12 3e 77 3e eb 42 e2 bd 36 74 94 3d 0b b7 55 be
       0.24144772 -0.1104792 0.07248728 -0.20870607
0002c0 8e 0f 33 bc 9a f2 80 bc 15 a5 81 3d 9c 99 61 3e
       -0.0109290015 -0.015740681 0.06330315 0.22031254
0002d0 3c 8b 6a be fd a3 97 3e a1 6b f5 3d ac 12 11 be
       -0.22904676 0.296173 0.11983419 -0.14167279
0002e0 93 28 cf bd 02 25 c9 bd dc 89 00 3e 3b 92 eb bd
       -0.10115161 -0.09821512 0.12552589 -0.115025006
0002f0 57 f0 f7 3d 67 c4 14 be b8 02 7d 3e f3 f6 99 bc
       0.12106388 -0.14528047 0.24708068 -0.018794512
000300 c7 4d 8f 3e d0 2d 5f be 1a 06 b3 bd 73 c3 41 3e
       0.27989027 -0.2179482 -0.08741398 0.18922214
000310 0e 69 c7 3d bf cc 17 be fb 7c 75 be 58 56 62 be
       0.097368345 -0.14824198 -0.23973458 -0.2210325
000320 b6 80 7a be 00 ad 25 be 3a a6 35 be f9 0b ad bd
       -0.24463162 -0.16179276 -0.17739192 -0.08449549
000330 e7 e0 81 3e 77 25 9f bd d5 4c 39 be 4a 91 12 3e
       0.253669 -0.07770818 -0.18095715 0.14313236
000340 d4 72 30 be 91 0a 16 be 01 29 46 bd 72 9a 13 bd
       -0.17231303 -0.14652468 -0.048378948 -0.036035962
000350 47 e0 38 be 6e 6c 6e be 94 51 92 be 22 4f fe bd
       -0.18054305 -0.2328355 -0.28577864 -0.12417437
000360 07 e5 17 3e 20 67 c0 3c f2 fa 6e 3e ef fb 4f 3d
       0.14833461 0.023486674 0.23337916 0.050777372
000370 9c e8 60 be 5d ef e1 3c 69 a0 99 bd 57 c0 29 3e
       -0.21963733 0.027579958 -0.07501299 0.16577278
000380 93 22 a3 3d 1e 63 94 3e 21 65 86 be a0 af 0e be
       0.07965579 0.2898187 -0.2624903 -0.13934183
000390 75 76 7e be 9a 66 d5 3c b7 19 3f be 9c f8 f8 bd
       -0.24849875 0.0260499 -0.18662153 -0.121567935
0003a0 74 16 8f 3e c9 e2 c8 bd 24 80 13 3e 45 bf 40 3e
       0.27946818 -0.09808881 0.1440435 0.18822964
0003b0 ab 6c 59 3e 99 3c 75 3e 6e ee 38 3e 42 ab ed 3c
       0.2123286 0.23948897 0.18059704 0.029012326
0003c0 53 f3 7c 3e 9b 0f 91 3e 59 cd 4e be ca 6b 7a 3d
       0.24702196 0.2833222 -0.20195521 0.061137952
0003d0 b9 45 4e 3e 03 ae 4a be a0 50 eb 3d af 2e 3b 3e
       0.20143785 -0.19792943 0.114899874 0.18279527
0003e0 0b ab 15 3c 02 56 ad bd 3d 59 c6 bc 45 64 82 3e
       0.009135018 -0.0846367 -0.024212474 0.25467125
0003f0 1c 5f 6d be e5 e1 ed 3d 29 47 22 be 68 50 4a 3e
       -0.23180813 0.116153516 -0.15847458 0.19757235

encoder.feature_encoder.atom_embedding_list.6.weight f4 [6, 64]
000000 6b 70 57 3d 38 95 9b 3e b7 05 a4 3c 57 44 8d 3e
       0.052597445 0.30387282 0.020022256 0.27591202
000010 c9 89 f9 3d 2f 51 e9 3d 0b 6a 44 ba 12 2f 52 3e
       0.121844836 0.11392438 -0.0007492608 0.20525768
000020 4a 01 5d bd 16 a0 e8 3b 80 87 04 bc c0 b5 cf 3d
       -0.053956307 0.007099162 -0.008088946 0.10142088
000030 7b 71 a2 3e e1 ed c8 3e 55 a7 42 be fb b8 8e bd
       0.31727204 0.39243987 -0.19009145 -0.06968876
000040 dc f2 1d 3e 08 f6 d3 bd a5 b6 42 be fe 4f 17 3c
       0.15424675 -0.10349661 -0.19014986 0.00923538
000050 63 a8 2b be 83 fb 58 be a5 2d 52 3e cc 16 cc be
       -0.16763453 -0.21189694 0.20525225 -0.39861143
000060 98 22 c3 be b6 ab 0b 3e 0c 42 7f bd e8 d3 e9 3d
       -0.3811233 0.13639721 -0.062318847 0.11417371
000070 ef 1c 20 be 01 8d ff bb 4b 39 87 bd 78 71 2a 3d
       -0.15636037 -0.0077987914 -0.06602725 0.04161212
000080 f1 b9 10 3d a5 a5 34 bd 34 c3 31 3e 5f 1a 54 be
       0.035333578 -0.044103283 0.1735962 -0.20713185
000090 5c 36 d7 bd b4 9c 76 3c c1 5f 0f 3e e1 33 d1 bd
       -0.10508415 0.015052009 0.14001371 -0.10214973
0000a0 20 e9 3b 3c 7f 9e 89 be db 1d c6 3e 7f 59 54 3e
       0.011469156 -0.26878735 0.38694653 0.20737265
0000b0 cb fb 78 be 81 b8 96 be 58 ca b4 bc 56 13 8e 3e
       -0.24314801 -0.2943764 -0.022069141 0.27749127
0000c0 6b fd 02 3e d8 64 6d 3e 01 c7 8e be 05 fe 78 3e
       0.12791984 0.23183 -0.27886203 0.24315651
0000d0 26 04 8b 3e ad 54 8a be 21 48 97 3c d6 fa 67 bd
       0.27151603 -0.27017727 0.01846701 -0.0566357
0000e0 0b 3c 4c 3e 6c 6c f0 bd 45 10 96 be 3a f4 35 be
       0.1994478 -0.1173943 -0.29309288 -0.17768946
0000f0 02 73 ba 3e b7 aa 19 3e 50 d1 5b be 1d 5f 09 be
       0.3641587 0.15006529 -0.21466565 -0.13415189
000100 3d 98 3f 3e 50 fb ab bd 0c 16 82 be 46 2e 19 be
       0.18710418 -0.083975434 -0.25407445 -0.14959058
000110 28 59 18 be 9d c6 6b be ee 30 f8 bd b2 cf d0 3c
       -0.1487776 -0.23024984 -0.121187076 0.025489662
000120 85 9a c0 3d 1a 27 8e 3e 7b 0e 9c be 92 e1 d7 bd
       0.09404472 0.27764207 -0.30479798 -0.10541071
000130 aa c9 b5 bd 42 7e 67 be 45 61 f1 3d ef 63 65 be
       -0.08876355 -0.22606757 0.11786131 -0.22401403
000140 12 a8 ea bd 33 12 4f be 70 74 f3 bc 52 b3 4a 3b
       -0.11457838 -0.20221786 -0.029718608 0.0030929637
000150 be 3c 0c be b4 a9 95 bd 94 f2 4d be 3e db 5f 3d
       -0.13695046 -0.07307759 -0.20112067 0.054652445
000160 8b 51 73 bc 8e 00 69 be 97 16 6c bd 1b 2c 2a bb
       -0.014850984 -0.22754118 -0.05763873 -0.002596623
000170 48 48 1e be 9a 12 fc bd 78 98 e4 3d f4 f1 be bd
       -0.1545726 -0.123082355 0.111618936 -0.09323493
000180 a5 49 ef 3d 25 6c 10 bd 1a af d8 bc 80 1d ae be
       0.116839685 -0.035259385 -0.026450682 -0.34006882
000190 2a 90 30 3c 26 a8 60 3e ec d7 77 3e fb 5f 5d 3e
       0.010776559 0.21939144 0.24203461 0.21618645
0001a0 a0 82 dd bd 42 fa 59 bc ea 44 8d 3e 74 83 88 bd
       -0.1081593 -0.013304295 0.2759164 -0.06665698
0001b0 d2 e9 4c 3b b4 f7 e3 3c ff 68 34 3e bc 65 4c be
       0.0031267297 0.027828075 0.17618178 -0.19960684
0001c0 f9 e0 90 3d 9f c1 89 be 01 0f 95 bd 25 36 10 3e
       0.0707416 -0.26905534 -0.072782524 0.14083154
0001d0 38 0a a8 bb 62 ea 8a 3e 33 bd 10 be 4e ac 26 3e
       -0.0051281713 0.27131945 -0.14134674 0.16276667
0001e0 5f 8e 3b bd 30 84 9f 3e a0 1b 44 3e 22 6d 25 3e
       -0.045790073 0.3115554 0.19151163 0.16154912
0001f0 20 cf 7a be eb 4a a4 3e c9 22 f4 bd 15 09 22 be
       -0.24493074 0.32088408 -0.11920697 -0.15823777
000200 7b 57 d2 3d c6 c6 7c bd 0f a0 1a 3e 57 5c 64 3e
       0.10270592 -0.061713003 0.1510012 0.2230085
000210 7b f7 ce bc 01 a6 c4 3d 7a 4f ec bc c0 f4 52 3e
       -0.025264492 0.09601975 -0.028846491 0.20601177
000220 94 54 b7 3d 7f 93 d6 3d b9 57 3f be cb cb 93 3d
       0.08951679 0.104773514 -0.18685807 0.07216605
000230 55 35 40 3e 21 1e 18 bd ef 0a da 3d 5a 98 0b 3e
       0.18770345 -0.03713811 0.10646617 0.13632336
000240 79 85 79 be 4c 66 07 be d3 c0 9c bd dc e4 88 be
       -0.24367322 -0.13222617 -0.07653966 -0.26737106
000250 a1 3c 45 bd 13 05 b5 bd 3a fe 44 be a5 d2 ec 3d
       -0.048153523 -0.088388585 -0.19237605 0.11563615
000260 c5 3c 97 3e ae 27 e0 3d 70 e3 99 bd 6f 21 33 be
       0.2953855 0.10945068 -0.075140834 -0.17493223
000270 02 fc 2f bd a6 d6 5c be b8 db 54 bc 33 28 0b 3e
       -0.042964943 -0.21566257 -0.012991838 0.13589554
000280 1c e6 a7 bb 9c 5a 17 3b db 70 76 3e 37 02 7f 3e
       -0.0051238667 0.002309478 0.24066488 0.24903189
000290 53 06 56 3e b7 71 b5 3e 52 aa 94 3e d2 00 90 3c
       0.2090085 0.3543832 0.29036194 0.017578516
0002a0 ff 05 7e be f0 cf 90 bc 6a 96 5e 3e 0c 09 37 3c
       -0.24806975 -0.017677277 0.21737066 0.011171591
0002b0 be 96 6e 3e f8 05 88 be 78 4f 50 3d bb a3 a2 3e
       0.23299691 -0.26567054 0.050857037 0.3176554
0002c0 c5 7b 9c be 6f dd d2 bd a0 aa 7e 3d 3e d4 b0 be
       -0.3056318 -0.10296141 0.06217444 -0.34536928
0002d0 4c 0e e9 bd 3f 71 43 bd c8 cc 70 3e e0 b4 ec bd
       -0.1137968 -0.04771542 0.23515618 -0.11557937
0002e0 f1 28 6e 3c 8b 55 51 3e 55 d0 24 3e 77 e8 66 bd
       0.014536128 0.20442788 0.16095097 -0.05637404
0002f0 50 80 41 3e 31 87 18 be 60 61 2e 3e 39 01 de bd
       0.18896604 -0.14895321 0.17029333 -0.10840077
000300 9f cb b8 3e 8a 02 21 bd a4 6f 84 3e 5d ea 6c 3e
       0.3609285 -0.039309062 0.25866425 0.23136277
000310 5e a5 b3 bd e9 3b 43 bd a6 3c 37 bd ab 9a 6d 3e
       -0.08771776 -0.047664557 -0.044735573 0.23203532
000320 5f d1 1a be a1 09 3c 3e 70 5d 44 be d1 0b a0 bd
       -0.15118931 0.18363048 -0.19176269 -0.07814754
000330 0a 8b b0 bc 35 0b b0 3e 10 97 ee 3d 53 68 74 3d
       -0.021550674 0.3438355 0.11649907 0.059669804
000340 b5 21 f9 3d f3 e3 8d be aa 64 d5 3c 2f fa 7c 3e
       0.12164632 -0.27712974 0.026048977 0.24704812
000350 d9 0f 8c bd 38 8b 26 be 43 a5 6f 3c 46 e4 e2 3d
       -0.0683896 -0.16264045 0.014626804 0.11078696
000360 04 cb 85 bd a0 64 04 3e 13 c6 28 be 39 9e 5f 3e
       -0.06532863 0.1292901 -0.1648181 0.21837701
000370 65 7e 0f bc 42 a5 89 3e 0a 9a 3f 3e d8 c2 81 be
       -0.008758162 0.26883894 0.18711105 -0.25343966
000380 cb d4 12 3e 22 62 38 be 4d a6 e9 bd cf 7a 44 3d
       0.14338987 -0.18006185 -0.114086725 0.047968682
000390 88 e6 86 be b3 c3 64 bb 87 62 66 be 1f 66 9a bd
       -0.26347756 -0.0034906685 -0.22498523 -0.07539009
0003a0 90 c9 4f bd ef f8 43 bd 81 54 bb 3d 6c 53 a6 bd
       -0.050729334 -0.047844823 0.09146977 -0.0812138
0003b0 b3 92 b0 bc 3a d4 ba bc c8 2b dd bd 2a 77 8f be
       -0.021554327 -0.022806276 -0.10799366 -0.28020602
0003c0 7a 0c 45 3e f3 6f 76 be a4 81 a9 3a 43 2a 25 3e
       0.1924304 -0.24066143 0.0012932313 0.16129403
0003d0 38 2c 81 3e 27 b9 f9 bd d3 fd 5b 3e 35 8c 1f be
       0.2522905 -0.12193518 0.21483545 -0.15580828
0003e0 9f fc de bd a1 77 d9 3c 66 30 fc bd 9b 81 40 be
       -0.108880274 0.026546301 -0.12313919 -0.1879944
0003f0 80 22 a5 3d 9d cd 9d 3e 05 ce 39 3e 99 d0 27 3e
       0.08063221 0.30820933 0.18144996 0.16388167
