checkpoints/tuning/trial_12/final_model.pt (torch, 520443 bytes, 104 tensors)

encoder.feature_encoder.atom_embedding_list.0.weight f4 [119, 64]
000000 98 58 99 be 58 09 28 3e 41 5d 7c 3f ef 96 c9 3e
       -0.29950404 0.16409814 0.98579794 0.39372966
000010 b1 3a e1 bd ac 32 dd be 9a a3 14 bf 47 41 f6 bd
       -0.109975226 -0.43202722 -0.58062136 -0.120241694
000020 6d f6 ea 3e 4c b8 cd bd 38 a9 79 bd d2 de b6 bd
       0.45891133 -0.100449175 -0.060952395 -0.08929218
000030 22 f3 89 be 89 33 d1 3b b8 65 32 3e 4b 13 b2 bc
       -0.26943308 0.0063843173 0.17421615 -0.021737715
000040 3a c7 1f 3f fa 13 b1 3e b9 e6 e5 3d c9 34 83 3d
       0.6241337 0.34585553 0.112256475 0.06406552
000050 3e c2 db be b6 de 33 be fe 08 2f bf ba 97 32 be
       -0.42921633 -0.17565426 -0.68373096 -0.17440692
000060 d5 a5 ff bd eb 08 60 be 73 8d 33 3d 18 75 0f 3e
       -0.12482802 -0.21878402 0.04383607 0.14009511
000070 31 d8 90 be e1 49 f9 3c a4 34 34 be a5 f0 1f 3e
       -0.2828994 0.030430736 -0.17598206 0.15619142
000080 9f 8f b3 bd 7c a0 58 3d 28 e4 89 be 99 4e a3 3d
       -0.08767628 0.052887425 -0.26931882 0.07973976
000090 3e 1b 9b be e8 98 95 be bc b0 f4 bd f6 b6 8f 3a
       -0.30294222 -0.2921822 -0.11947772 0.0010964561
0000a0 aa 73 56 be 4e 82 97 bd 23 ef c0 3e 4f e8 bd ba
       -0.2094256 -0.073979005 0.37682447 -0.0014488789
0000b0 94 1b 18 3e 6f 55 af 3b a8 d2 df 3e ba 86 ae 3d
       0.1485427 0.0053507606 0.43715405 0.08521791
0000c0 53 84 7f 3f c2 ce 90 be ae 65 55 be 7d b2 3d bf
       0.99811286 -0.28282744 -0.20839569 -0.74100477
0000d0 f8 9f 8a 3e c4 9a 21 be 72 d9 4c 3e 15 9c 3a bf
       0.2707517 -0.15781695 0.20004824 -0.7289441
0000e0 53 17 dd 3e c9 90 ef be 7e 3c e6 be af 95 44 3f
       0.43181857 -0.4679015 -0.44968027 0.767909
0000f0 5f 59 db be 98 83 8d bd 19 cb 2f be 1d 6b 7e be
       -0.42841622 -0.06909865 -0.1716732 -0.24845548
000100 bf 97 97 bb 76 d8 bd be 7b 10 dd 3e 4b e8 12 3f
       -0.004626244 -0.3707921 0.43176636 0.573857
000110 1a 36 0a 3c 2d 10 82 bd a6 3f f3 be 42 14 b4 3d
       0.00843575 -0.063507415 -0.47509497 0.08792926
000120 5c a2 4b 3d a6 64 a2 be 51 ad 9f be 61 e4 0a 3f
       0.049715385 -0.31717414 -0.31186917 0.5425473
000130 f8 10 92 3d be 4f a2 be f8 f3 d0 3d 92 90 b6 3b
       0.07132143 -0.31701463 0.10202783 0.0055714333
000140 91 01 df 3e 16 65 7d 3d aa 8b 3d be b0 b6 53 3e
       0.43555883 0.06186398 -0.18510309 0.20675159
000150 19 5d 77 3e 4e f4 aa 3e b4 06 c0 be 08 56 3c be
       0.24156608 0.33389515 -0.37505114 -0.18392193
000160 53 f4 6c 3f 07 3c 48 be 9e 2a 7a 3d 83 77 08 3d
       0.9256031 -0.19554149 0.0610758 0.0333171
000170 04 4c 4e be e3 f5 f7 be 72 a3 6f 3d f4 f8 3a be
       -0.20146185 -0.48429784 0.058505483 -0.1825903
000180 4b c4 25 3f 25 68 f0 bd 43 36 40 be 5a 81 05 3f
       0.64752644 -0.11738614 -0.18770699 0.521505
000190 62 82 29 be 22 c9 1f be a5 62 78 be 83 3f 8f 3c
       -0.16553643 -0.1560407 -0.2425638 0.01748634
0001a0 74 e4 63 3c fc 63 59 3d 5b 86 86 3f 39 85 34 bf
       0.013909448 0.05307387 1.0509752 -0.7051578
0001b0 1e 96 65 3e 7e 32 2f be e1 f5 db bd 51 45 49 3e
       0.22420546 -0.17109105 -0.10740257 0.19655348
0001c0 c1 90 73 bc f0 21 bc bd bc 15 7b 3e 71 7f 63 3f
       -0.014866055 -0.091861606 0.2452001 0.88866335
0001d0 3b 4d 98 3d 6a 3b ac be bd 4a a8 be 49 aa 85 be
       0.074366055 -0.3363908 -0.3286952 -0.2610648
0001e0 be 82 ae 3e db bc 22 be 72 b3 cc 3e 26 04 a0 be
       0.34084123 -0.15892355 0.39980656 -0.31253165
0001f0 17 dc 3f bc 2b 00 06 3f 9c b6 d9 bd dd 0f cd bd
       -0.011710188 0.52344006 -0.10630533 -0.10012791
000200 56 ac 2b bf bf 40 a2 bd 64 a7 3e 3d 32 3c 4c bd
       -0.6705984 -0.079225056 0.046546355 -0.049862094
000210 5b 67 90 3e f8 36 8e be fc 81 26 3e cb 06 05 3b
       0.28203854 -0.27776313 0.16260523 0.0020298238
000220 83 63 2d be 73 7f 84 3d e0 63 88 bd 5d 70 5c 3e
       -0.16932492 0.064696215 -0.06659675 0.21527238
000230 a6 89 93 be ef 90 c7 3d 41 a8 c5 bd 50 c3 3b bd
       -0.28815955 0.09744441 -0.096512325 -0.04584056
000240 00 04 34 3d 14 54 22 3f 91 95 b1 bd a0 1c 08 3e
       0.043949127 0.63409543 -0.08671106 0.1329217
000250 a1 29 28 be 27 c9 9c be c6 36 95 3e 20 1f 04 be
       -0.1642213 -0.30622217 0.2914335 -0.12902498
000260 bd cf 93 bd 15 5c 2a be 74 6c 2e be c8 7d 25 3e
       -0.07217357 -0.16636689 -0.17033559 0.16161263
000270 d7 91 ea bd ec 6e 28 3e 6e 4e 76 3d 4a fc 22 3d
       -0.11453598 0.16448563 0.06013339 0.039791383
000280 a4 07 5f 3e d2 cb 05 be 09 80 38 3d f7 8c f2 bd
       0.21780258 -0.13066033 0.04504398 -0.11843293
000290 b5 ad 8a bd 3e 5c 3b 3e dc 32 35 be be 6f 31 be
       -0.06771413 0.18296906 -0.17695183 -0.17327783
0002a0 72 ff e0 bc ca 36 1e 3e 54 13 8d 3d 24 78 25 3e
       -0.027465556 0.15450588 0.06888452 0.16159111
0002b0 56 6c 69 be 3f bf 76 bc 2e 79 8a bd d9 e8 80 be
       -0.22795233 -0.015060245 -0.067613944 -0.2517765
0002c0 39 2e bf be 37 0f 64 3e fe 98 df bd 77 aa 1f 3d
       -0.37339953 0.22271429 -0.10917853 0.038980927
0002d0 75 7e 88 bd 75 1f 8c bc a8 9d 84 3d 72 fc c9 3e
       -0.06664745 -0.017104844 0.06475383 0.39450413
0002e0 76 92 fd 3d ba c4 c6 be 83 dc 59 be b1 d5 50 3d
       0.12381451 -0.38821965 -0.21275525 0.050985042
0002f0 58 15 98 be 7d e0 40 bd d9 a2 31 3e 76 1e ce bd
       -0.29703784 -0.04708909 0.17347278 -0.10064404
000300 c8 7c 0d be 10 34 0a 3e 04 bb 17 3e 2f c0 00 be
       -0.13817132 0.13496423 0.14817435 -0.12573312
000310 48 ce 20 3d 8d f8 be bd 53 77 2d 3e a9 5a e2 3d
       0.039259225 -0.09324751 0.1694005 0.11052448
000320 4d 68 93 3d f1 21 17 be d5 5c b6 bd 7d d4 1b bd
       0.07197628 -0.14759041 -0.08904425 -0.03804444
000330 0b bc 25 be f9 ae d8 bd bc 3a 43 3d 6f e7 16 be
       -0.16185014 -0.105802484 0.047663435 -0.14736722
000340 a5 4b 45 3d b0 8d 87 bb 04 44 74 bc b1 9a 58 bd
       0.048167843 -0.0041367635 -0.014908794 -0.0528819
000350 0a 42 c7 bd bf 50 2d be 20 4f fc bd 2f fe 0b 3e
       -0.09729393 -0.16925333 -0.123197794 0.13671182
000360 99 db 5b bc b2 82 34 3e d0 5c 1c 3c 64 cd ae bc
       -0.013419055 0.17627981 0.009543613 -0.021338172
000370 35 59 de 3d 6b 86 2e be 95 cf e5 bd eb af d4 3d
       0.10856859 -0.17043464 -0.11221234 0.10385116
000380 6e 63 41 bd c9 a7 12 3e fa 68 87 bc fe 30 04 3e
       -0.047213964 0.14321817 -0.016529549 0.12909314
000390 d1 0a 10 3c 64 01 9a 3c fe 91 1c be c4 1d 80 bd
       0.008791641 0.018799491 -0.15290067 -0.06255677
0003a0 70 b5 14 3c b3 65 a9 3d 0c de 0f 3d 33 fd 20 bd
       0.009076461 0.08271351 0.03512387 -0.03930397
0003b0 db 31 a0 3a b8 59 1f 3e aa 54 f7 3d 26 08 7d 3d
       0.0012221889 0.15561569 0.12076695 0.06177535
0003c0 21 96 05 be 00 57 79 bd 70 b7 ec 3d 6a de 26 3e
       -0.13045551 -0.060873985 0.115584254 0.16295782
0003d0 d9 45 af bd ac 87 9d 3d fe a0 2d bd 3a 34 eb 3d
       -0.08558244 0.07691893 -0.042389862 0.11484571
0003e0 5b d8 de bc 9f 59 13 be d1 7e 37 be b1 44 de bb
       -0.027202776 -0.14389656 -0.1791947 -0.006783091
0003f0 c8 9b 5a 3d bf 90 da bd 8d d7 11 3e c1 db af 3d
       0.05337122 -0.106721394 0.14242382 0.085868366

encoder.feature_encoder.atom_embedding_list.1.weight f4 [5, 64]
000000 36 8a 5c 3d ae 62 01 3f bb 3b b9 3e be a1 18 3f
       0.053842746 0.505412 0.36178383 0.596218
000010 a5 35 e7 bd 3c 5d ec 3d 3a b8 da 3e a6 b2 33 bd
       -0.11289529 0.115412205 0.4271868 -0.043871544
000020 d8 a2 1d bc 83 5b 01 3e 3d 61 89 3d f2 c7 e6 3e
       -0.0096213445 0.12632565 0.06708 0.4507442
000030 c3 2e e9 be 81 2e 87 be a4 04 51 be 96 97 13 be
       -0.4554349 -0.26402667 -0.20411927 -0.14413294
000040 16 8e 1d 3f fc 07 b6 bd 25 03 81 be e6 98 7a bd
       0.6154493 -0.08888242 -0.25197712 -0.06118097
000050 e7 d3 f2 bd a0 dd c8 be 86 ed c4 3e 9b 4f bd be
       -0.118568234 -0.39231586 0.38462466 -0.36974797
000060 c0 cd 48 be ed 54 7c bc 3a e6 3b bd 47 bb 56 bd
       -0.19609737 -0.015401107 -0.045873858 -0.052424695
000070 c7 ae 51 bd bc 11 2a be 7e 54 a5 be 14 d3 fd 3c
       -0.05119207 -0.16608328 -0.32291025 0.030984439
000080 92 be 48 3e 39 74 83 be 45 ea 64 3d 3b 37 f6 3e
       0.19603947 -0.25674608 0.05588748 0.48089013
000090 f8 dc b7 be 26 b7 85 be 17 56 89 be af 6f 3a bd
       -0.35910773 -0.26116294 -0.26823494 -0.045516666
0000a0 e9 66 0a 3d 20 d0 8b be a3 21 2e 3d 74 da 5f be
       0.03378955 -0.27307224 0.042512547 -0.21860677
0000b0 8c 62 05 3f 26 d2 6a bc 31 f2 59 be 9a 6d 5c 3e
       0.52103496 -0.01433233 -0.21283795 0.21526185
0000c0 a1 50 28 3f fd 1b dc 3d 32 8d 3b be 9a 0f 50 3e
       0.6574803 0.10747526 -0.1831558 0.20318452
0000d0 8c 97 10 3e 7e 1c 10 3c a9 fb 42 be 1b b0 6f 3e
       0.1412031 0.008795856 -0.19041313 0.23407023
0000e0 69 72 45 be a3 2b 3f bd 00 be 1c be 63 f4 89 be
       -0.19281925 -0.046672475 -0.15306854 -0.26944265
0000f0 7d 72 37 be 3b f7 0c be 49 e7 ce bd b0 75 72 bd
       -0.17914768 -0.13766186 -0.10102708 -0.059194267
000100 ef 4a 4d bd 16 40 85 be 74 5b 1c 3f 87 e9 e7 bd
       -0.05012029 -0.26025456 0.61077046 -0.11323839
000110 df 7e f0 3d 0d 3f 9e be cc a5 54 be b4 5e 24 be
       0.11742949 -0.3090748 -0.20766371 -0.16051751
000120 a1 72 1a bd 8f 1c 65 3b f4 6d cc be 43 59 e6 3e
       -0.037706975 0.003495965 -0.39927638 0.44989976
000130 93 b7 e1 3d cb b8 31 3e 2b 50 7c be f2 cb cc bd
       0.11021342 0.17355649 -0.24639957 -0.09999837
000140 73 d3 3f 3e 76 a6 c5 3e 46 91 59 3d 74 ed c4 3d
       0.18733005 0.38603562 0.05311706 0.09615603
000150 30 15 41 3e d2 4d 0e be 2f 0b 55 bf 2f 7b ce 3b
       0.18855739 -0.13896874 -0.8322019 0.0063013057
000160 92 d2 1b 3f 0f 98 e3 bd 99 3b 70 3e cc fb 57 be
       0.6086818 -0.11112987 0.23460235 -0.21092147
000170 82 fc db be 27 17 91 be 9b b7 10 be 99 42 dc 3d
       -0.42966086 -0.28337976 -0.1413254 0.1075489
000180 74 ce d8 3e 01 9a 89 3e 40 fe ab be 42 ba 58 bd
       0.4234501 0.26875308 -0.33592415 -0.052912004
000190 ed f2 5b bd 7e fc b0 be c0 5d 07 bf 44 12 eb 3b
       -0.05369847 -0.34567636 -0.52877426 0.0071738083
0001a0 3f da c0 bd 3f d2 72 be fe 02 f6 3e 46 8f 55 be
       -0.09416627 -0.23713015 0.48049158 -0.20855436
0001b0 fc 52 b2 bd be 01 57 be 3a af a2 3e 20 3f 83 3d
       -0.08707234 -0.20996758 0.31774312 0.064085245
0001c0 78 be f3 3e 4b 72 86 be 9d 0f db bd 8c 4d 4d 3d
       0.47606254 -0.26259074 -0.10696337 0.050122783
0001d0 3a 6c 6b be f4 8d 7e be 00 a9 b5 3e 87 95 92 bc
       -0.22990504 -0.24858838 0.354805 -0.017893566
0001e0 99 f1 fa 3d 26 8e 55 be 08 5c d9 be 47 79 27 3e
       0.12253112 -0.20855007 -0.42453027 0.16354857
0001f0 d0 f6 91 be 53 fc 44 3d 81 b3 da 3d e9 c6 b3 be
       -0.28508615 0.048092198 0.10678769 -0.35112694
000200 e0 ef c6 bb 5a 41 14 3d 2f 29 07 3c 69 67 64 3e
       -0.006071076 0.036195137 0.008249565 0.22305073
000210 32 ec 2c be 35 b2 08 3e b9 03 8b 3e b2 d9 58 be
       -0.16886976 0.1334923 0.27151278 -0.21176794
000220 d5 78 6c be 64 12 cc 3d bc 59 d6 bd 89 e1 d9 bb
       -0.23092969 0.09964445 -0.10466334 -0.0066492003
000230 8f cc 8c be 67 68 38 3e 9f 73 9f bc f8 79 94 3c
       -0.27499816 0.18008576 -0.019464312 0.018124565
000240 d0 e3 d1 bd 9b 9b d1 3d a0 6b 9e bb c4 a5 f0 bd
       -0.1024853 0.102347575 -0.0048346072 -0.11750367
000250 f5 fa 95 3d ce 32 e0 bd d0 16 e0 3d 08 91 90 be
       0.07323257 -0.1094719 0.10941851 -0.2823565
000260 fe a2 e9 bd 3f db 4e be 18 6e 00 3e 93 00 54 be
       -0.114080414 -0.20200823 0.12541997 -0.20703344
000270 2e ec 69 3e 49 02 93 3d 92 06 39 3e 48 ef 44 be
       0.22844002 0.0717817 0.18068913 -0.19231904
000280 04 41 75 be 8e 2b 46 bd 4d e0 25 be 0c 85 cc bd
       -0.23950583 -0.04838138 -0.16198845 -0.09986314
000290 77 2c 78 3e 7e 5a 21 3e 06 65 b2 bd a1 52 37 3e
       0.24235712 0.15757176 -0.08710675 0.17902614
0002a0 10 38 4a be 50 6d 2f be 36 b6 05 3e 7e 53 02 3e
       -0.19747949 -0.17131543 0.13057789 0.12727162
0002b0 09 94 ae bd c9 05 4e be 71 bf 3c 3d e4 9b 91 3e
       -0.08524329 -0.20119394 0.04608101 0.28439248
0002c0 8f 8e 94 3e 7e b0 77 3e 18 67 62 be 4b 20 48 3e
       0.29015014 0.2418842 -0.2210964 0.19543569
0002d0 0a 27 5d 3d 19 0d 75 be 80 1c 9b 3c 05 c4 91 be
       0.05399231 -0.23930778 0.018934488 -0.28469864
0002e0 a9 9b 81 3d 2f 00 26 be 7d 21 4b be 56 0c 6b 3c
       0.06328518 -0.16211008 -0.19836994 0.014346203
0002f0 d2 9f 4b 3e 8a 72 29 3e 5f d3 3a be 87 b7 2b 3e
       0.19885185 0.165476 -0.18244694 0.16769229
000300 41 aa e0 3d 3f 8a 49 be a0 bb 9b bd d7 ae 90 bd
       0.10969973 -0.19681643 -0.07604146 -0.07064598
000310 a6 63 75 be 44 ba 89 be f9 02 4d be f1 36 89 3e
       -0.23963794 -0.26899922 -0.20020665 0.2679973
000320 b5 6c a0 bd 56 d8 e7 3c f6 b4 7a be c5 b8 4f bd
       -0.07833234 0.0283014 -0.24483094 -0.05071332
000330 95 20 e4 3d d4 c5 c3 bb c0 cb bd bc f4 ab 80 bb
       0.11139027 -0.0059745107 -0.023168445 -0.0039267484
000340 80 fe 4a 3e 7e ae 54 be 7b 8b 87 be 9b 62 91 be
       0.19823647 -0.20769688 -0.26473603 -0.28395543
000350 bf 86 f5 3d 6d 2a 28 be 4b 07 04 be e3 b7 1f bd
       0.119885914 -0.16422434 -0.12893407 -0.038993727
000360 f5 fb 30 3e b7 ec 27 3b d9 61 6c 3d 70 99 a9 bd
       0.17283614 0.002562327 0.057710502 -0.08281219
000370 8f 4c 24 3e 1f 9a 16 be 52 b8 68 3e 21 84 78 3e
       0.1604483 -0.1470723 0.22726563 0.24269153
000380 96 c6 87 be 87 2f bf bd b8 81 11 bd 2c 8f 22 be
       -0.26518697 -0.09335237 -0.0355241 -0.15874928
000390 f5 aa 81 3c d7 2d c6 bd 96 f2 79 3e 25 13 bf bc
       0.015828589 -0.09676712 0.24408945 -0.023324559
0003a0 1f c1 28 be 3d e7 15 be ac 10 8d be 08 8c 39 be
       -0.1647992 -0.14638992 -0.27551782 -0.18119824
0003b0 29 77 6a 3d b9 62 b6 3d d6 1a 02 be 9b 96 44 3b
       0.057242546 0.089055486 -0.1270555 0.0029996994
0003c0 8e 78 17 3e 32 9e 1f 3d 43 08 08 3d 02 0d 46 be
       0.14792082 0.038969226 0.033211004 -0.193409
0003d0 88 e8 8d 3e dd 40 b2 bd 3d 3e c7 3c cc b4 14 bd
       0.2771647 -0.08703778 0.02432167 -0.036305234
0003e0 73 25 03 3e f3 12 7a be 08 66 89 3d 25 58 6a be
       0.12807254 -0.24421291 0.06708914 -0.22885187
0003f0 70 4d 6e 3e 39 02 ee bd 09 88 76 3d f1 d2 9f 3c
       0.23271728 -0.11621518 0.060188327 0.019509764

encoder.feature_encoder.atom_embedding_list.2.weight f4 [12, 64]
000000 bf 14 9b 3e 32 25 c3 bd d7 f7 e9 3e 57 c6 1e be
       0.30289266 -0.09528579 0.456969 -0.15505348
000010 88 c7 4e be 7b 36 8b be 0e e7 86 be 60 f2 d4 be
       -0.20193303 -0.27190003 -0.26348156 -0.41591167
000020 b2 5b 5c 39 4d 4c 00 3e 74 ac ae bd 76 df 62 3f
       0.00021014994 0.12529106 -0.085289866 0.88622224
000030 87 d3 78 be 6d 2e bd 3d 75 a4 30 be 67 be 76 bf
       -0.24299441 0.09237371 -0.17250235 -0.9638428
000040 f6 38 80 3f f2 1d af 3e 9d 25 61 3e d6 12 6b be
       1.0017383 0.34202534 0.21987005 -0.22956404
000050 ef 92 24 be 3f 52 a2 be b5 9e 42 bf 36 6f 06 be
       -0.16071676 -0.31703374 -0.7602342 -0.13128361
000060 ef 3c b0 3e 0a f3 d5 be b9 62 6f be 3a 7c 40 3e
       0.3442149 -0.41786987 -0.23377503 0.18797389
000070 32 b4 28 bf 72 f4 06 3e 02 ab 1e be c3 b6 a2 be
       -0.65899956 0.13179186 -0.15494922 -0.3178006
000080 23 b4 4b 3e 1e 6c 35 be 83 7d 48 be f6 61 e5 3e
       0.19892935 -0.17717025 -0.19579129 0.448013
000090 65 a3 40 be 8d 19 97 be 21 b7 ab 3d a2 7a 9c bd
       -0.1881233 -0.2951168 0.083845384 -0.07640578
0000a0 78 02 5a be d1 63 33 3d 84 e7 67 3f 6e a4 1d be
       -0.21290004 0.043796364 0.9058764 -0.15394756
0000b0 ac 43 cc bf 56 2a 40 3d c6 59 9a 3e 8b fb 05 be
       -1.5958152 0.046915375 0.30146617 -0.13084237
0000c0 7d ad c7 3e 2c d2 51 be a5 32 cc bc c1 9e b5 be
       0.3899955 -0.2049033 -0.024926493 -0.35472682
0000d0 71 03 29 ba 3b ef 60 be d3 b8 ec 3d 11 9b 86 bf
       -0.0006447351 -0.21966259 0.1155869 -1.0516073
0000e0 41 cc 4e 3f ed 10 bf be 5d be 89 be fc b8 df 3e
       0.80780417 -0.373176 -0.26903048 0.4369582
0000f0 91 61 e9 bd be ed 80 3e 3d f1 d3 bd 2e aa 2d be
       -0.113955624 0.25181383 -0.10348747 -0.1695945
000100 3f be 65 bf b4 36 0e 3e ec 24 41 3e b4 c7 ae 3e
       -0.8974342 0.13888055 0.18861741 0.34136736
000110 53 81 35 3e 2f ff 47 be 61 94 e0 be 5d 6b 83 be
       0.17725115 -0.19530939 -0.43863204 -0.2566785
000120 74 25 83 3e a1 d8 d3 bd 2f 44 8c bd db 3e 53 be
       0.25614512 -0.10344053 -0.068489425 -0.20629446
000130 4e 07 63 be a1 7a 14 bf 9c 46 63 bc 53 00 3c 3e
       -0.22170755 -0.57999617 -0.013871815 0.18359499
000140 80 78 15 bf 12 0e 1f 3e 82 4f 1c 3d 4c 9d 43 3f
       -0.58386993 0.15532711 0.038161762 0.7641189
000150 a6 73 c1 3d cd a4 b6 3e 6c a1 dc be 82 7c 88 be
       0.09445886 0.35672608 -0.43091905 -0.26657492
000160 b0 7e 47 3e fa fd 53 bd 93 e7 7c 3e 12 a6 68 3e
       0.19481921 -0.051755883 0.24697714 0.22719601
000170 06 42 5f be 3a e9 83 3d 80 84 29 be 66 ec f5 3e
       -0.2180253 0.06440969 -0.16554451 0.4803192
000180 a0 69 a3 3e dd b8 15 3e 82 95 2d 3e 9e 69 73 3d
       0.31916523 0.14621301 0.16951564 0.059426896
000190 c5 85 a4 be a6 49 09 bd a1 1a 12 3e ec 1a 8a be
       -0.32133308 -0.033517502 0.1426797 -0.26973665
0001a0 36 3b 56 bd e0 93 79 bd 84 04 04 3f 3f 4b ea 3d
       -0.05230256 -0.06093204 0.5156939 0.11440133
0001b0 17 a2 8e 3f 2d ec 97 be 29 8e 70 bd 9e b8 00 3c
       1.1143216 -0.29672375 -0.058729324 0.007856516
0001c0 46 c1 00 3f e8 d8 1f bf 56 bd a4 3b b6 86 39 3f
       0.5029491 -0.6244035 0.0050274534 0.7247118
0001d0 68 26 cd 3d 8f c2 16 bf a0 20 50 be 35 5e f4 be
       0.10017091 -0.5889062 -0.20324945 -0.47728124
0001e0 47 69 ee 3d 91 cb 7f 3e 94 2b 96 3e 3e 3e 85 be
       0.11641174 0.24979998 0.29330122 -0.2602405
0001f0 21 27 45 3d be bc 05 bf 8b 16 16 bd 55 88 43 be
       0.04813302 -0.5224112 -0.036642592 -0.19094975
000200 9c 6a aa 3e 55 b8 4b 3f 5c f6 13 3e 52 d1 4c 3f
       0.33284461 0.79578143 0.14449447 0.800069
000210 2b 6a 09 3e fb 31 6d 3e 5f e9 14 3f 05 09 d1 3c
       0.13419406 0.23163597 0.58168596 0.025516996
000220 48 c7 92 be 94 f0 5d 3b 84 30 3c be 6e 96 fa 3d
       -0.28667665 0.003386532 -0.18377882 0.122357234
000230 1a 4c a2 be 9e af b6 bd 2e cb 6c 3e e8 54 bf bd
       -0.31698686 -0.08920215 0.23124382 -0.093423665
000240 dc eb d7 be eb 89 a9 be ac 0b 27 be cb e1 8a 3f
       -0.42172134 -0.33113036 -0.16313046 1.0850157
000250 d5 12 4a be 9d 9d b8 be 08 ae 57 be 50 86 7f 3e
       -0.19733746 -0.3605775 -0.21062481 0.2495358
000260 f1 57 40 3e 7e 27 8b be 98 01 a6 be c6 2b 5d be
       0.18783547 -0.27178568 -0.3242309 -0.2159873
000270 8e 86 ad be 90 9e 16 be 06 fc 96 3e d0 4a ad 3f
       -0.3389172 -0.14708924 0.29489154 1.3538456
000280 bd a2 ac 3e e9 b2 8a be 2e 71 e6 bd 2a aa 1b 3f
       0.3371791 -0.27089623 -0.11252056 0.60806525
000290 45 71 9a be de d7 06 3f 90 1d 16 3e 2b 68 aa bd
       -0.30164543 0.5267314 0.14659715 -0.0832065
0002a0 0b 61 af bd 5c d1 5a be b6 f4 ce 3e df 62 21 be
       -0.08563431 -0.21368927 0.40421075 -0.15760373
0002b0 e2 a8 40 3f 10 bd 20 be 81 9c 6b 3e 87 39 ef be
       0.75257695 -0.15697122 0.2300892 -0.46723577
0002c0 52 2d a6 3e cf 76 50 3e be fc 3d bf 45 32 94 3e
       0.32456452 0.20357822 -0.7421378 0.28944603
0002d0 79 dc 9c 3c 78 82 2b be 22 2d d0 be e4 50 72 3d
       0.019148098 -0.16748989 -0.40659434 0.059159175
0002e0 ae 93 55 bd 14 5a 5f 3e 42 89 d6 3e 13 6e 39 3e
       -0.05214279 0.21811706 0.41901594 0.18108396
0002f0 4b 55 13 3f 45 b9 ad 3d 0d 59 07 bc 31 40 59 be
       0.5755202 0.08482603 -0.008260977 -0.21215893
000300 27 15 fc bd fe 61 46 3f e1 5d d5 3c c4 a6 91 3d
       -0.12308722 0.77493274 0.026045742 0.07111886
000310 da 9e 31 3d 08 d0 74 3e 79 bc 16 bd 09 b9 a8 3a
       0.043364383 0.23907483 -0.036800835 0.0012872528
000320 ca d2 a3 be ed 14 9e be c7 e7 0d 3e f9 8b 72 3e
       -0.31996757 -0.3087534 0.13857947 0.23686208
000330 46 1c a4 bd 10 51 0f be f7 c5 24 3e 60 2c 3e be
       -0.08013205 -0.13995767 0.16091143 -0.18571615
000340 bb 2c 4e 3e 62 1c 98 3e 9a 56 3c be 91 66 2c be
       0.20134251 0.29709154 -0.18392411 -0.16836001
000350 13 3b 44 3e 18 24 17 3c f7 e6 3b 3d b5 78 0b be
       0.1916316 0.009224914 0.045874562 -0.13620265
000360 d4 93 eb be 2a e2 2e be 13 3e ab bd 05 89 d8 bd
       -0.4601122 -0.17078462 -0.08361449 -0.105730094
000370 27 19 4b bd e7 84 0c 3d 03 9f 9a bd dc 30 d6 be
       -0.049584534 0.034306433 -0.0754986 -0.41834152
000380 aa 30 bf be 5b 8d a2 be 56 db a5 3d 6e 6f af 3e
       -0.37341815 -0.3174847 0.08098476 0.34264702
000390 a3 e8 6f be ca 76 52 be 07 b8 82 be 7c 74 8c be
       -0.23428588 -0.20553127 -0.25531027 -0.2743262
0003a0 e6 8e 1e be c1 1d 0d bd 64 ca b7 bc e0 62 ee bd
       -0.15484199 -0.034452204 -0.022435375 -0.11639953
0003b0 a5 a5 0c bf de 46 4e bd 7f e1 1f 3e 9c 17 89 be
       -0.54940253 -0.050360553 0.15613364 -0.26775825
0003c0 13 d8 c7 3d 3b a1 9e be 44 e5 b1 3d a5 6e 9a be
       0.0975801 -0.30982384 0.08686307 -0.3016254
0003d0 ba 21 39 be e8 85 35 3e b1 05 c3 3d 28 13 e2 3e
       -0.18079272 0.17726862 0.0952257 0.4415524
0003e0 e4 77 ad 3e 49 74 71 be 2f b2 81 be f1 1c 0e be
       0.33880532 -0.23579516 -0.25331256 -0.13878228
0003f0 25 2e fc be 65 8c a6 be 5c c9 cd 3d 2a 8d 52 3c
       -0.49253955 -0.32528988 0.10048172 0.012851039

encoder.feature_encoder.atom_embedding_list.3.weight f4 [12, 64]
000000 b6 cc 78 3e 36 3c 80 3e d3 20 db 3e ed 68 cb 3e
       0.24296841 0.25045937 0.4279848 0.3972849
000010 25 3a 43 bc ac f5 28 bd f4 00 ff be 94 8b 3f be
       -0.011915718 -0.041249916 -0.49805415 -0.18705589
000020 78 3b 6a 3f fc 99 25 3e f1 82 0c 3e 90 17 c2 3e
       0.9149699 0.16172022 0.13721825 0.37908602
000030 33 91 fd bd 0e e4 d8 bd a4 8d 0a be 7e 04 b6 3d
       -0.1238121 -0.10590373 -0.13530594 0.088875756
000040 16 45 b4 3e 51 b6 fc 3d ec 29 c2 be 00 0b 49 3e
       0.35208958 0.123394616 -0.3792261 0.19633102
000050 e7 0f a7 3e 06 b9 b7 be 88 62 19 bf 62 5e 10 bf
       0.3262932 -0.3588335 -0.5991597 -0.56394017
000060 de 19 df 3e 25 c3 d6 3e 5c a1 ca 3e d7 be b8 3e
       0.43574423 0.41945758 0.39576232 0.360831
000070 dc b4 0c be 47 fc 8d 3c 25 43 ba bd b5 ca 28 bf
       -0.13740867 0.01733221 -0.09094838 -0.65934306
000080 2b a9 c6 3e a0 be 40 be 43 d1 af be de b0 08 3f
       0.3880094 -0.18822718 -0.34339342 0.5339488
000090 89 81 a6 be b2 06 5b be c7 b5 0d be f0 15 48 be
       -0.32520702 -0.21389273 -0.13838874 -0.19539618
0000a0 2c 64 fe 3d 7c d5 60 be a9 29 ad 3e c3 45 07 3e
       0.1242145 -0.21956438 0.33820847 0.13210206
0000b0 54 49 cc 3e 4c 1d 50 3e 3b 5b f6 be 86 aa 37 3f
       0.39899695 0.20323676 -0.48116478 0.71744573
0000c0 dd 57 ae 3e d8 42 05 bf e8 9b 20 be 64 65 90 3f
       0.3405141 -0.5205512 -0.15684474 1.1280942
0000d0 5d 6b 79 3c a5 a6 01 3e ae 5d 1e 3e f5 a1 0e bf
       0.015223351 0.12661226 0.15465423 -0.55715877
0000e0 01 69 4d be e3 39 0f 3f db 77 02 bd 1b a4 03 3d
       -0.20059587 0.55947703 -0.031852584 0.032138925
0000f0 87 cb 5e bd 3c 9e 7c bd db 47 19 3e 11 86 a3 be
       -0.054393318 -0.06167434 0.14968817 -0.31938222
000100 4f bd de 3d 41 e5 09 be 47 33 2e 3f a4 c5 7c 3e
       0.108759515 -0.1346636 0.68046993 0.24684769
000110 69 aa 9c bd 1f 82 9f bd df 20 88 bf 08 d9 83 3e
       -0.07649691 -0.077884905 -1.0635031 0.2575152
000120 b7 6d 65 be c8 27 76 be 26 02 34 3c 40 e5 a7 3d
       -0.22405134 -0.24038613 0.01098684 0.08198023
000130 67 09 55 be 98 fe b6 3e 40 51 18 3e 30 d7 37 be
       -0.20804368 0.35741115 0.14874744 -0.17953181
000140 fc db 41 3f 60 dd fb bc d2 44 28 be a8 0a 0a 3f
       0.75726295 -0.030745208 -0.16432503 0.5392251
000150 ac f3 1a 3c 3a c1 09 3f 4c 1d 17 bf e0 64 70 3e
       0.00945751 0.53810465 -0.5902908 0.23475981
000160 ad fb 87 3e 61 ae 19 be b5 69 2a be a6 e5 92 be
       0.265592 -0.15007927 -0.16641887 -0.28690833
000170 4e 65 58 be 79 4c 39 be 88 d6 96 bd 12 d4 92 3e
       -0.21132395 -0.18095578 -0.07365137 0.28677422
000180 a0 a9 2e bb 01 0e be 3e 6c 8a cf bd 91 ef 77 be
       -0.0026651397 0.3712006 -0.10133824 -0.24212481
000190 44 7e 31 be c2 ef 4d be dd 7f bf be d1 44 16 bd
       -0.17333323 -0.20110992 -0.3740224 -0.036686722
0001a0 fc 58 d9 bc fe d7 87 bd 35 31 89 3f b1 98 07 bf
       -0.026531689 -0.06632994 1.0718142 -0.52967364
0001b0 6a 92 f1 3d bd f8 f0 be 2f e0 71 3e ec cf fc 3c
       0.117955044 -0.47064772 0.23620676 0.030860864
0001c0 bf 2c 35 3f d0 2c 49 be ef 7a 79 be 5c 75 62 be
       0.707714 -0.19646001 -0.24363302 -0.22115082
0001d0 49 a9 90 3e bb 20 30 be 5d 81 25 3e a3 d1 44 bf
       0.28254154 -0.17199986 0.1616263 -0.7688238
0001e0 a8 1e 60 3f d0 d4 ac be c4 96 a3 be 4e cc e7 3e
       0.8754678 -0.33756113 -0.31950963 0.4527306
0001f0 d4 ce 3d bf d0 e7 06 3f c3 99 17 3c f0 e2 db bd
       -0.7414372 0.5269747 0.009252968 -0.10736644
000200 8d ac 03 be f0 5e 16 3f b9 95 ca bd 4c b9 c5 be
       -0.12858792 0.58738613 -0.098918386 -0.38617933
000210 8a 76 db 3d 2f ea 37 be 7b 45 ca 3e ae 12 86 3f
       0.10715969 -0.17960428 0.39506134 1.047445
000220 c0 68 ae bd 2d 6b 5f 3e a1 83 5c 3e 0c c3 7a be
       -0.08516073 0.21818228 0.21534587 -0.24488467
000230 f8 77 69 3f 47 e3 c8 3c 57 a5 4e 3e c7 50 45 be
       0.9119868 0.024522437 0.2018026 -0.19269095
000240 a7 f5 b1 be 6d 89 8c be 4a 64 da bd 92 ba 7b 3e
       -0.3475773 -0.27448598 -0.1066366 0.2458289
000250 40 a2 8b 3e 91 07 8b bd 25 7e 84 bb bc 40 7f be
       0.27272224 -0.067885526 -0.004043358 -0.24927038
000260 1d aa 4a 3e 26 73 b0 be 25 a1 66 be 06 45 22 3f
       0.19791456 -0.3446285 -0.2252241 0.6338657
000270 9f 0a 9e 3d e7 9d 96 3e d8 a5 70 be 48 47 38 be
       0.077168696 0.29417345 -0.23500764 -0.17995942
000280 d2 e3 ad 3e ac d4 31 3e 22 64 5a be e8 b0 7a be
       0.33962876 0.17366284 -0.2132726 -0.24481547
000290 ae 3f f9 bd 09 bb c4 bd 8b 5b 8b 3e 72 bc 12 3e
       -0.12170349 -0.096059866 0.2721828 0.14329699
0002a0 a7 2a 42 be a3 6b 97 bd 03 c9 9a be 89 05 34 be
       -0.18961583 -0.07393577 -0.30231485 -0.17580236
0002b0 10 54 78 bd 32 c6 23 3e 73 9b 8b be 4b ce f2 3e
       -0.060627043 0.15993574 -0.27267036 0.47423014
0002c0 71 5e 07 bf 41 ea e8 be 14 29 ed 3d bd 4a a5 3e
       -0.5287848 -0.45491222 0.11580101 0.32283583
0002d0 ea 6e 75 be ce bf d6 bd c8 a7 bf 3e f6 bd c4 be
       -0.23968092 -0.104858026 0.37432694 -0.3842618
0002e0 9f 71 ec be bb 5c 02 3e 56 59 82 be b8 3a 0f 3e
       -0.46180436 0.12730686 -0.25458783 0.13987243
0002f0 db 61 00 bc a0 6e be be a5 23 c6 be b3 fb 26 3e
       -0.007835831 -0.37193775 -0.3869907 0.16306953
000300 e7 19 d4 bd 19 be b9 3e ea 64 74 bd b6 83 f8 bd
       -0.10356503 0.36277846 -0.05966655 -0.12134497
000310 ad 0b 16 3d 56 22 8d be d8 f3 db 3d d0 a8 02 be
       0.03663223 -0.2756526 0.10739869 -0.1275971
000320 b0 08 9b be ae 2e eb 3e 0b dd 21 be 28 36 11 be
       -0.30280066 0.4593405 -0.15806977 -0.14180815
000330 4a 1b d1 be a8 f1 6e be 10 79 8e be 15 25 30 3e
       -0.40841132 -0.23334372 -0.27826738 0.17201646
000340 c7 27 4b bf f0 47 99 be 1d 63 df bd 4d 0a ce bd
       -0.7935757 -0.29937696 -0.10907576 -0.100605585
000350 71 a6 21 be 1a 01 97 3d 1d d8 0b 3d 05 6f 83 be
       -0.15786149 0.07373257 0.03414165 -0.2567064
000360 9c 75 81 bf 6d 07 15 3e fa 5b 16 3e 5c a7 89 be
       -1.0114017 0.14553614 0.14683524 -0.26885498
000370 87 e7 c0 be 7f cd 26 bd 57 6c b7 be cf a3 36 3e
       -0.3767664 -0.04072332 -0.35824844 0.17835926
000380 24 70 31 bf 5e 4b 82 bc 04 cc f1 bc 35 cf ca be
       -0.6931174 -0.015905079 -0.029516228 -0.3961121
000390 48 5d a9 be a3 4a cd bd c1 a6 7e 3e d8 29 57 be
       -0.3307898 -0.100240014 0.24868299 -0.21012056
0003a0 d1 d8 35 3e b6 6a 33 bd 1c bc 85 be 62 88 a7 bc
       0.1775849 -0.04380294 -0.2612008 -0.020450775
0003b0 13 43 e1 be 60 1b 16 3e 2a e3 3e 3d 5d 70 6b bd
       -0.43996486 0.1465888 0.04660336 -0.057480205
0003c0 ea 2f 10 3f 33 34 38 3e b8 00 c4 be b5 05 9b be
       0.5632311 0.17988662 -0.38281798 -0.30277792
0003d0 d4 d8 5f be 67 d5 8b be c5 54 4d be 12 9b b4 39
       -0.21860057 -0.2731125 -0.20051868 0.00034447812
0003e0 4e fe 12 bf 43 45 25 be 81 9d 02 bf 17 0e 33 be
       -0.5741929 -0.16139702 -0.5102158 -0.17485844
0003f0 e7 d5 d5 bc 75 e9 b9 be 25 a2 9e 3d f1 74 69 be
       -0.026102973 -0.36310926 0.0774577 -0.22798516

encoder.feature_encoder.atom_embedding_list.4.weight f4 [10, 64]
000000 5e 6c bf 3d 2e 55 00 3f db 7b 3e 3f 2a 3d d1 3e
       0.09346841 0.50129974 0.7440774 0.40866977
000010 73 46 ae bc ea a2 58 be a3 28 1d 3e c1 80 fa bd
       -0.021273827 -0.21155897 0.15347533 -0.12231589
000020 d6 60 6c 3e 5c ad 8d be 98 b8 30 be 2d 75 18 3f
       0.23083815 -0.27671325 -0.17257917 0.59553796
000030 ef 97 2d be d7 97 50 3e f4 78 86 be e4 6b f2 bc
       -0.1695249 0.20370422 -0.26264155 -0.029592462
000040 15 62 4d 3f f9 a0 57 3f 03 73 df bd fa f3 1b 3f
       0.80227786 0.8423 -0.109106086 0.60919154
000050 af 83 6f be c3 d2 b9 be 2c 51 9b be 4e 15 11 be
       -0.23390077 -0.3629361 -0.30335367 -0.14168283
000060 ba b0 93 3e 12 52 bd bd 23 41 23 bf 49 a1 31 bf
       0.2884577 -0.09244169 -0.63771266 -0.69386727
000070 73 e3 0c bf b2 fe 11 3e 6e 2e 69 be 12 65 8c bd
       -0.5503456 0.14257315 -0.22771618 -0.06855215
000080 fe 95 31 3e c2 ba ba be bb f3 2b bd a7 78 77 3e
       0.17342374 -0.3647061 -0.041980486 0.24167119
000090 16 81 ef 3d fb 66 3d be f9 cf b4 be 4e b0 74 be
       0.11694543 -0.18496315 -0.3531492 -0.2389538
0000a0 ff 8c 1d be 51 f5 9c be 82 70 66 3f 67 3b 2a bf
       -0.15385817 -0.30655912 0.90015423 -0.6649689
0000b0 77 a8 d0 3d 69 6e 12 be 12 e4 3a bd e2 e5 90 3c
       0.10188382 -0.1429993 -0.04562766 0.017687742
0000c0 63 ca 49 3f a4 1a 4d 3e 2f 90 a1 be e6 ac 80 3e
       0.7882444 0.20029694 -0.31555316 0.2513191
0000d0 de d6 41 be 76 d9 d0 bd c3 08 a2 be 4f 39 a7 3e
       -0.18929622 -0.101977274 -0.3164731 0.3266091
0000e0 3a db 0e 3f e1 37 87 3d d1 73 89 3e 95 fa da bd
       0.55803263 0.06602455 0.26846173 -0.10692326
0000f0 d7 fc 0e 3e aa 07 0b 3e 0a bf c3 3e bb ad d4 bd
       0.13963638 0.13577142 0.3823169 -0.10384699
000100 6e 62 d9 3d f1 f7 16 3f e5 fe a2 3e 26 e4 c8 3e
       0.10614477 0.5897208 0.31835094 0.39236563
000110 d3 b6 60 3e 2e c2 33 be 0b 9c 8c 3e f8 07 48 3d
       0.21944742 -0.17554542 0.274628 0.048835725
000120 17 11 d6 bc d7 b9 67 be 58 31 c8 be fe 18 82 be
       -0.026131196 -0.22629486 -0.39100146 -0.25409693
000130 b7 48 6a bd a6 bb 32 be 31 37 6b be d1 e8 dd 3c
       -0.057198253 -0.17454395 -0.22970273 0.027088555
000140 43 15 02 be b2 42 35 bf 87 9d 92 3c 8a 35 b0 bd
       -0.12703423 -0.70804894 0.01789738 -0.08603962
000150 50 64 b2 bc 41 b8 22 3e 6e bb 89 3e 9d 4e af bd
       -0.021776348 0.158906 0.2690081 -0.08559916
000160 25 a2 81 3d d1 d6 fe be f9 19 a5 3e 79 39 8a 3e
       0.06329755 -0.49773267 0.32246378 0.26996973
000170 df f6 49 3e 07 ca b0 be c1 39 08 3c 0c c3 5e 3e
       0.1972308 -0.34529135 0.008314551 0.21754092
000180 73 33 33 3c a2 2f 51 be ff aa 27 3e 75 37 bf 3e
       0.010937559 -0.20428327 0.16373824 0.37346998
000190 e6 07 6a be 70 19 84 3e a4 f2 9a 3d f3 56 be be
       -0.22854576 0.25800657 0.07565811 -0.37175712
0001a0 d2 75 aa bd 3d e3 42 be 43 cd a1 be 78 21 b7 bd
       -0.08323254 -0.19031997 -0.31601915 -0.089419305
0001b0 f9 5a 38 3b 52 71 99 3e 4a 6c d6 be 10 be 7d 3e
       0.0028130396 0.2996927 -0.41879493 0.24779534
0001c0 c9 09 c2 bc af 31 43 bd a4 b5 b5 3e f3 e0 37 3e
       -0.023686307 -0.047654804 0.35490143 0.17956905
0001d0 b6 f8 fc bc 61 c2 65 be 5e f6 f0 3e a7 d5 10 bf
       -0.030880313 -0.22437431 0.47062963 -0.5657601
0001e0 a1 e0 e9 be 3e 9f 04 bf b9 62 c4 be f4 df ac 3d
       -0.4567919 -0.51805484 -0.3835657 0.08441153
0001f0 a4 65 cb 3d 5e b9 9b be ca 2f ca be dd e0 11 be
       0.09931496 -0.3041486 -0.39489585 -0.14245935
000200 03 fd 80 3e 99 eb 00 be 21 ba 5e be 6d 96 23 be
       0.25193033 -0.12589873 -0.2175069 -0.15975352
000210 56 09 b5 be ed 81 4c be ef 0b a8 3e cb 93 2f bb
       -0.35358685 -0.19971438 0.32821605 -0.0026790972
000220 e3 46 aa be e7 77 89 3d a5 bb e6 3d b9 f5 4a 3e
       -0.33257207 0.06712323 0.11266259 0.19820298
000230 bd 26 98 3d 18 f7 35 be 3c 0b 10 be ac d2 07 be
       0.07429264 -0.1777004 -0.14066786 -0.13263959
000240 6f 38 05 3f 2b 3e 94 3d 35 f0 f8 bd 5f 16 23 be
       0.52039236 0.0723842 -0.12155191 -0.15926503
000250 2a ce 26 bd 9d 94 a0 3d 05 27 6b 3f 9b 28 70 3d
       -0.040723957 0.07840846 0.91856414 0.058632474
000260 f4 0e 6f 3e 3e 9c df 3e fb 29 4b bb 59 fb 02 3f
       0.23345548 0.4367389 -0.0031000364 0.51164776
000270 9f 4d 4b 3d 93 f2 0c be ce 2a 64 be cb cf 86 be
       0.049634572 -0.1376441 -0.22281954 -0.26330408
000280 ea ec f9 3e 18 78 ce bb 40 93 2b bd ce c7 9e 3e
       0.48813564 -0.0063009374 -0.041888475 0.31011814
000290 c0 61 30 be b0 7b de 3d ac a9 ac 3d 23 16 82 be
       -0.17224789 0.10863435 0.084308 -0.25407514
0002a0 3d f2 63 3e c1 ef 66 be d9 91 af be 0f d4 da bd
       0.22260375 -0.22552396 -0.3429096 -0.10684978
0002b0 1b 26 7f be aa 23 a8 be 17 ae d4 bd 2a 1c 8a be
       -0.2491688 -0.3283971 -0.103847675 -0.26974612
0002c0 93 d6 ef be 1b b2 8e be 57 ba e5 3e 32 1e aa 3d
       -0.46843395 -0.2787026 0.4486873 0.083065405
0002d0 fe 84 ca 3c 46 3d 3a 3e 8c 3e e5 3d 8f fc 70 3e
       0.024721619 0.18187436 0.111935705 0.23533843
0002e0 12 73 df bc b1 59 a5 3e 52 eb 95 bd 64 0e ef bc
       -0.02727655 0.32294992 -0.073202744 -0.029181667
0002f0 7b 37 11 bf f5 f8 ec 3d ce 36 09 be 03 4d c2 bd
       -0.5672528 0.11570922 -0.13399813 -0.09487345
000300 21 20 2a bf cf 3a ec be 02 a5 19 3f c2 c5 94 bc
       -0.66455275 -0.46138617 0.60017407 -0.018160705
000310 67 4b 1d be a0 97 e1 3d 4f db 90 3e b6 b8 5f 3e
       -0.15360795 0.11015248 0.2829232 0.21847805
000320 e8 1e bd 3e 9c 4d 13 be 54 c9 b9 be e0 d7 c5 3d
       0.36937642 -0.14385074 -0.36286414 0.096603155
000330 4b 2a b1 3e 21 89 00 be db a7 24 3e d6 2d 96 be
       0.3460258 -0.1255231 0.16079657 -0.29331845
000340 75 d3 d8 bc f9 e6 de 3d 33 00 88 be bc 03 d2 bd
       -0.026468018 0.10883898 -0.26562652 -0.102546185
000350 7c 4d 85 3e 2d f2 59 3d b0 62 0c bf 47 71 52 be
       0.26035678 0.053209472 -0.54838085 -0.20551024
000360 43 3f 31 3f d4 34 3c be 9a a8 bd 3d d0 3c 9a bd
       0.69237155 -0.18379527 0.09260674 -0.0753113
000370 dc af 16 3e e8 ca 80 bc e8 7c 46 3e b5 f9 bd be
       0.14715523 -0.015721753 0.19383585 -0.37104574
000380 9a c7 d2 3d 51 14 74 3e db 51 96 be 7c 22 c1 3e
       0.10291977 0.23835875 -0.29359326 0.37721622
000390 79 fc 18 3e 3f f2 86 bc f5 94 7f be f4 ef 49 bd
       0.1494006 -0.016472934 -0.24959166 -0.049301103
0003a0 bd 0b 52 be ec 7a 17 3c 80 db 0b bd f2 95 0d 3e
       -0.2051229 0.009245615 -0.03414488 0.13826731
0003b0 05 a1 59 3d 52 14 63 3d 15 82 b8 bb 9f 89 49 3e
       0.053132076 0.0554393 -0.0056307414 0.19681405
0003c0 39 be 4b 3f c5 7b fe bd 3e 0e 1a be 45 f4 14 bf
       0.7958713 -0.12425951 -0.15044495 -0.58185226
0003d0 72 8f e3 3a 4e 3c 9a be 86 ff 12 be 14 87 f8 be
       0.0017361476 -0.30124134 -0.14355287 -0.48540556
0003e0 8c 79 de be 65 b7 cb 3b c1 6b 01 bf 5a b7 7a 3e
       -0.43452108 0.0062169307 -0.50555044 0.24484006
0003f0 15 ad 03 3f d1 a6 83 be bc 91 fe be 7b ff f7 3e
       0.5143598 -0.25713208 -0.49720562 0.48437104

encoder.feature_encoder.atom_embedding_list.5.weight f4 [6, 64]
000000 3a 57 c6 bd 56 79 31 3f 18 a5 b6 3d 88 5d ec 3e
       -0.09684606 0.6932577 0.08918208 0.4616511
000010 d2 ad 0c 3e 72 88 ae 3d 5e e2 99 3e 18 0e d6 be
       0.13738182 0.08522119 0.30055517 -0.41807628
000020 87 a8 e6 bd 07 b8 89 be d8 f6 a0 be ad 39 29 3f
       -0.11262613 -0.26898214 -0.31438327 0.6610363
000030 63 13 91 bd 0e 42 ba be 51 b3 c9 be 6c b7 06 3d
       -0.07083776 -0.3637852 -0.3939462 0.03288977
000040 07 63 96 be db cb ea 3d cc ed 1c bd db 9e 5c 3e
       -0.29372427 0.114646636 -0.03831272 0.21544974
000050 b6 a1 5a bd b5 a9 39 be 91 e5 60 3e e4 ae 1c be
       -0.053376876 -0.18131144 0.21962573 -0.1530109
000060 8d 2d bb bd f5 7a c5 be e4 1d f6 be 4a 50 11 bc
       -0.091395475 -0.3857037 -0.4806968 -0.00886924
000070 e4 0e 74 bc a7 0a 22 be 06 6d b6 3d e7 30 65 bd
       -0.014896128 -0.15824376 0.08907513 -0.05595484
000080 90 be 94 3c 6a 2f 21 3e e6 3f a1 bd b4 1d 27 3f
       0.018157274 0.15740743 -0.07873516 0.652797
000090 45 f8 b4 bd d4 3d 3e be 87 15 3b be d0 2a 89 be
       -0.08836416 -0.18578273 -0.18269931 -0.26790476
0000a0 86 6f 8f be 13 75 2b be 5d 37 f2 3d 88 ba 10 bf
       -0.28014773 -0.16743879 0.11826966 -0.56534624
0000b0 c7 5e 5f be be 9d f0 3d 08 98 57 bd e7 ed 80 3e
       -0.21813498 0.11748837 -0.052635223 0.25181505
0000c0 9d 10 df 3e d4 32 3e 3e 89 fd ba be 73 45 f1 3e
       0.43567362 0.18574077 -0.36521557 0.47123298
0000d0 04 26 68 bd 68 bd ad be 08 27 16 bf 37 ba a0 3e
       -0.05667688 -0.33933568 -0.58653307 0.3139207
0000e0 6c e7 a1 3e 9b 2e ae be 04 11 e3 bd ff b4 fd bd
       0.31621873 -0.34019932 -0.1108723 -0.12388038
0000f0 7e d8 09 be fc eb f4 bc 6f ba 56 be ef ad 50 3c
       -0.13461491 -0.029897682 -0.20969556 0.0127367815
000100 77 4b af be 54 a4 57 be c0 06 8a 3f ea ab 25 3f
       -0.34237263 -0.2105878 1.078331 0.64715445
000110 24 3b b9 be 49 2e 12 be e4 5f 00 bd 22 68 b7 be
       -0.36177933 -0.14275469 -0.03134145 -0.35821635
000120 1f cd 6d 3d c7 18 1a be dd 1e d0 3d 4b 99 f1 3e
       0.058056947 -0.15048514 0.10162137 0.47187266
000130 9e c4 e8 bc 0b 06 ad bd a8 fa d7 bd e8 23 c1 be
       -0.028414067 -0.08448418 -0.10545856 -0.37722707
000140 48 c2 65 3f 9d 3a 6a be b5 f9 01 be 3b eb 94 3e
       0.89749575 -0.22873922 -0.12692912 0.29085717
000150 95 cf cc 3d e6 67 f9 be b5 18 e6 be 48 51 10 bf
       0.10000531 -0.4871208 -0.44940725 -0.56374025
000160 a6 e8 b8 3e 69 41 ea 3d 31 ce ce 3e b7 04 63 be
       0.36114997 0.11438257 0.40391687 -0.22169767
000170 ea e3 ff be ca f5 6a be 9d 1d 09 bd 4f 4b a2 3e
       -0.49978572 -0.22945324 -0.033475507 0.3169808
000180 d7 7a 95 3e fd 99 9e 3d a3 52 df bd e7 99 6a 3e
       0.29195282 0.07744215 -0.109044336 0.22910272
000190 86 af 05 be 34 6b ac be ab 15 33 be f1 c7 84 bd
       -0.13055238 -0.3367554 -0.17488734 -0.06483448
0001a0 20 ef 7f be e0 31 e5 be a5 d1 67 3e f3 07 aa 3d
       -0.24993563 -0.44764614 0.22638567 0.083022974
0001b0 4e 8e 18 3f 48 8e 3a be 18 e8 de bd 06 d6 7b 3e
       0.5959214 -0.18218338 -0.10884112 0.24593362
0001c0 67 a8 23 3f 57 de 4d be c9 28 d5 bd 8e bb 5a 3e
       0.63928837 -0.20104347 -0.1040817 0.21360609
0001d0 9c ef 91 be c6 e9 02 bf 0a d8 96 3e 9c ad 37 bf
       -0.2850312 -0.5113796 0.294617 -0.7174928
0001e0 08 b5 37 3e 41 2e 8f 3a f6 7a 13 3e ba 58 19 3d
       0.17940152 0.0010923819 0.14402375 0.037438132
0001f0 1b ba a2 3e ee 0f 64 3e 81 7d 7c bc a1 11 23 bc
       0.31782612 0.22271702 -0.015410782 -0.0099529335
000200 50 5c c6 3e e5 a8 86 3e 2a 67 cc be 27 5b c7 3d
       0.38742304 0.2630073 -0.39922458 0.09734183
000210 bd 08 49 3e 8a 8e be bd 83 e4 07 3f ba c1 97 be
       0.1963224 -0.09304531 0.53083056 -0.2963999
000220 dc 15 bf be 20 f4 44 3e 32 b3 0a 3f 24 61 59 be
       -0.37321365 0.19233751 0.5417968 -0.21228462
000230 f7 ac 40 be 49 2e c1 3d 0d 84 c4 bd 34 53 ae be
       -0.18815981 0.09432656 -0.09595499 -0.34047854
000240 33 e1 0c 3e 18 97 ed bd 2e e8 b8 bd 42 cc 92 be
       0.13757782 -0.116010845 -0.0902866 -0.2867146
000250 d7 40 85 be 3f 48 99 bc 0d 6e 44 3c 84 7a f4 3d
       -0.2602603 -0.018711207 0.011989129 0.119374305
000260 ab eb 32 3f c8 d5 10 3f 2f 68 13 be b2 81 06 be
       0.6989085 0.56576204 -0.14395212 -0.13135412
000270 01 69 dc bd 56 ff aa be b8 08 e8 3d ba a7 89 bd
       -0.107622154 -0.3339793 0.11329788 -0.067214444
000280 19 5e 86 be e7 2a 52 3e 18 4d 6b 3d 96 91 20 be
       -0.26243666 0.20524178 0.05744657 -0.15680537
000290 ae 9d fe bd 12 b4 1b 3e cb c7 18 3e ce 34 1a be
       -0.12432419 0.1520541 0.14919965 -0.15059206
0002a0 0f ab fa bd cc 77 e5 3d e8 47 a1 bc 82 18 8e 3e
       -0.12239658 0.1120449 -0.019687608 0.27753073
0002b0 9a ac 0f 3f 3b 40 88 be ef 27 69 3d 52 a4 c3 be
       0.56122744 -0.26611504 0.05692285 -0.38211304
0002c0 92 00 d4 be 25 db 81 be c0 f6 82 be f5 ac 58 be
       -0.41406685 -0.25362507 -0.2557888 -0.21159728
0002d0 a9 81 6a be 36 7f 63 3e 03 b5 93 3e 1c 8e 38 3d
       -0.22901024 0.22216496 0.28849038 0.0450574
0002e0 24 18 a4 be 62 07 1a be 23 6e ab bd fd d3 74 be
       -0.32049668 -0.15041879 -0.08370616 -0.23908992
0002f0 99 4d f2 3e eb ce ba bd 47 43 86 3e 0a 88 40 bd
       0.47324827 -0.09121498 0.26223204 -0.047004737
000300 34 44 8f 3e 3d 24 5f be 87 fc b2 bd e0 b9 41 3e
       0.27981722 -0.21791168 -0.08739572 0.18918562
000310 7b 5f c7 3d 2c c3 17 be 68 73 75 be c5 4c 62 be
       0.09735008 -0.14820546 -0.23969805 -0.22099598
000320 23 77 7a be 6d a3 25 be a7 9c 35 be 66 02 ad bd
       -0.2445951 -0.16175623 -0.1773554 -0.08447723
000330 54 d7 81 3e e4 1b 9f bd 42 43 39 be b7 87 12 3e
       0.25359595 -0.077689916 -0.18092063 0.14309584
000340 41 69 30 be fe 00 16 be 6e 1f 46 bd df 90 13 bd
       -0.17227651 -0.14648816 -0.048369817 -0.03602683
000350 b4 d6 38 be db 62 6e be 01 48 92 be 8f 45 fe bd
       -0.18050653 -0.23279898 -0.2857056 -0.12415611
000360 74 db 17 3e 8d 5d c0 3c 5f f1 6e 3e 5c f2 4f 3d
       0.14829808 0.023482108 0.23334263 0.05076824
000370 09 df 60 be ca e5 e1 3c d6 96 99 bd c4 b6 29 3e
       -0.21960081 0.027575392 -0.07499473 0.16573626
000380 00 19 a3 3d 8b 59 94 3e 8e 5b 86 be 0d a6 0e be
       0.07963753 0.28974566 -0.26241726 -0.13930531
000390 e2 6c 7e be 07 5d d5 3c 24 10 3f be 09 ef f8 bd
       -0.24846223 0.026045335 -0.18658501 -0.12154967
0003a0 e1 0c 8f 3e 36 d9 c8 bd 91 76 13 3e b2 b5 40 3e
       0.27939513 -0.09807055 0.14400698 0.18819311
0003b0 18 63 59 3e 06 33 75 3e db e4 38 3e af a1 ed 3c
       0.21229208 0.23945245 0.18056051 0.02900776
0003c0 c0 e9 7c 3e 08 06 91 3e c6 c3 4e be 37 62 7a 3d
       0.24698544 0.28324914 -0.20191869 0.06112882
0003d0 26 3c 4e 3e 70 a4 4a be 0d 47 eb 3d 1c 25 3b 3e
       0.20140132 -0.1978929 0.11488161 0.18275875
0003e0 78 a1 15 3c 6f 4c ad bd aa 4f c6 bc b2 5a 82 3e
       0.009132735 -0.08461844 -0.024207909 0.2545982
0003f0 89 55 6d be 52 d8 ed 3d 96 3d 22 be d5 46 4a 3e
       -0.2317716 0.116135255 -0.15843806 0.19753583

encoder.feature_encoder.atom_embedding_list.6.weight f4 [6, 64]
000000 54 e9 5d 3e 99 7c 5f 3e 0c 1a bb 3f 02 6c 81 3e
       0.21671039 0.21824874 1.4617324 0.25277716
000010 c6 6c a1 3e 41 e3 3a 3e a1 0e 2d 3e cb 46 6d 3d
       0.315283 0.18250753 0.16900112 0.05792884
000020 e4 d9 95 3e bc 60 05 bd d7 a9 36 be 2c bf fc 3e
       0.292678 -0.032562956 -0.17838226 0.49364603
000030 a9 ff 43 3d 6b d8 78 3e 5d c3 24 be 5c 60 ea be
       0.04785124 0.24301307 -0.1609015 -0.4577664
000040 01 87 a0 3e 2d ee 1e 3e 29 35 94 be c4 f8 bb 3e
       0.31353 0.15520544 -0.28946808 0.3671323
000050 c9 c2 c9 be 21 40 51 be 8f e6 f0 3d 0a 81 14 bf
       -0.39406422 -0.2043462 0.117627256 -0.580094
000060 76 12 b0 bc c5 16 d2 bd f1 af b9 be 65 57 5b 3e
       -0.021493178 -0.10258249 -0.36267045 0.21420057
000070 84 9b d0 be 1c cd a3 bd 31 a0 cc bd b3 ff cf 3d
       -0.4074365 -0.07998106 -0.099914916 0.10156193
000080 42 7f 27 3f f7 cf 16 be f3 43 c2 be 63 74 85 be
       0.65428555 -0.1472777 -0.37942466 -0.2606536
000090 35 49 11 be f8 2d 67 be 2f 39 fb bd 08 bd 82 be
       -0.14188083 -0.2257613 -0.12266766 -0.25534844
0000a0 2e 6d ef bd af 0d 15 be 6c ca 07 3f eb 99 de 3d
       -0.11690746 -0.14556001 0.53043246 0.10869201
0000b0 75 9e a3 bd 4b 76 07 bf aa 40 1f 3d e3 ca 17 3f
       -0.07989208 -0.52914876 0.038880028 0.59293956
0000c0 7b 0f 32 3f 36 c5 ae 3c ec 30 6b bf 8b 9c 31 3f
       0.6955487 0.021334272 -0.91871524 0.6937949
0000d0 b4 23 2b 3f 7e 65 59 be 4a f3 f4 3e 92 c3 50 bf
       0.66851354 -0.21230122 0.47841865 -0.81548417
0000e0 06 61 b1 3e 25 7b c1 be ac d2 fa bd 0d 5b 80 3f
       0.34644336 -0.37789264 -0.12247214 1.0027786
0000f0 0e 6e 12 3f 23 37 00 3f 20 a5 1c be e7 2e d7 be
       0.5719918 0.5008413 -0.15297365 -0.4202797
000100 e3 5e e6 3d 5c 29 19 3f ba 2e fe be 60 3f 70 3e
       0.11248567 0.59828734 -0.49645025 0.23461676
000110 c7 ac fc be f9 90 6c be 46 2d a1 be c7 8b 94 bd
       -0.4935057 -0.23102178 -0.31479853 -0.07253223
000120 12 25 30 3d f2 f2 0c 3e 48 3e ed be bc 73 90 3e
       0.043004103 0.13764551 -0.4633658 0.28213298
000130 19 f2 b6 3c 6e 9d a7 be fe c7 2a 3d 88 cf d6 be
       0.022332238 -0.32737297 0.041694634 -0.4195521
000140 ae d7 8b 3e 57 6c 02 3e 89 87 fe bd 09 b2 13 3e
       0.27312988 0.12736641 -0.12428195 0.14423384
000150 3d 63 03 be b7 40 6b be f2 c4 a2 be 61 ca 3f bc
       -0.12830825 -0.22973906 -0.31790882 -0.011705966
000160 8b 82 d1 3e ed 36 46 be 22 e2 22 bc b8 bf 6d be
       0.4091991 -0.1935689 -0.00994161 -0.23217666
000170 f7 44 11 bf 65 bb a5 be c7 18 b1 3d bf 89 5b 3d
       -0.56745857 -0.32369533 0.08647304 0.05359816
000180 1e 1d 3b 3e 3c fc 34 be 2c bc e2 bd 14 23 e7 3e
       0.18272826 -0.17674345 -0.11071047 0.4514395
000190 84 ec 47 bd 59 36 c3 bc 54 de 14 3e 43 7e 9c 3d
       -0.048809543 -0.023829626 0.14537936 0.0764127
0001a0 88 b4 53 3d 2f 66 1f be de 27 3a 3f d1 c3 42 bf
       0.05168584 -0.15566324 0.7271708 -0.7608004
0001b0 fe af 52 3e 82 01 2d 3d af 6a 09 3d 81 b9 a6 be
       0.20574948 0.042237766 0.033549007 -0.32563403
0001c0 b7 cc 06 3f 07 f2 e5 be 41 4f 8c be c7 9b 50 3d
       0.5265612 -0.44911215 -0.27404216 0.05092981
0001d0 2d bb ac be c1 3a 05 3e f3 07 0e bf 77 e7 c2 3e
       -0.33736554 0.13010694 -0.5548088 0.3806722
0001e0 36 70 82 3e 67 61 b9 3e ec b0 95 3d 1e 9b d9 be
       0.25476235 0.36207125 0.07309136 -0.42501158
0001f0 46 dd c4 be cd 9e 4c 3e 87 70 9b be d3 35 ea bd
       -0.38450068 0.19982453 -0.3035929 -0.114360474
000200 65 69 d9 3e 32 b2 47 be 93 61 31 bc 19 4b 97 3e
       0.42463222 -0.1950157 -0.010826486 0.29549482
000210 8d 23 e0 3d 85 01 3d bd 3c 98 f8 3e b8 42 17 3e
       0.10944281 -0.046144027 0.48553646 0.14771545
000220 8a 38 bb 3b ba 6b 66 3d bc 8f 32 be cd 55 30 3e
       0.005713527 0.05625508 -0.17437643 0.1722023
000230 85 ac b5 bc 43 8f 4d 3d 87 37 5e 3d 01 1d 45 3e
       -0.02217699 0.050185453 0.054252174 0.19249345
000240 79 d9 99 bd 48 08 f2 be c8 99 00 be 2b b7 46 be
       -0.07512183 -0.47271943 -0.12558663 -0.1940581
000250 7a 35 9f bd b0 89 9f be a8 08 2b 3f 87 94 b6 3c
       -0.07773872 -0.31159735 0.66810083 0.02228762
000260 85 59 05 bf 48 15 28 3e 98 0f bc bd 6f 96 53 3e
       -0.5208972 0.16414368 -0.09182662 0.20662855
000270 5b a2 cb 3e 66 b8 0b be d1 2e 8d bd d4 8b d1 3e
       0.39772305 -0.13644561 -0.06893695 0.40926993
000280 37 89 b4 3d d3 83 a3 3c 74 2f 4b 3e b6 39 39 3e
       0.08815234 0.01996032 0.1984232 0.18088421
000290 61 cf 05 3e 4f 7f 0d 3f e4 10 17 3e e0 88 05 bc
       0.1306739 0.5527238 0.14752537 -0.008150309
0002a0 92 f0 8d be 93 5a 89 bb b6 35 4e be e1 61 c9 3b
       -0.27722603 -0.0041917055 -0.20137677 0.0061457013
0002b0 5e a5 f3 3e 38 c5 0e bf 5e 86 38 3d 49 2a c1 3e
       0.47587103 -0.5576968 0.045050018 0.37727574
0002c0 26 5d 56 be 90 95 80 3d ee c9 9e 3e 77 11 f9 3e
       -0.20933971 0.06278527 0.31013435 0.48646137
0002d0 9f 79 92 be 1a 5e ac bd 0f 6a 55 be 60 2b 88 3e
       -0.28608415 -0.08416386 -0.2084124 0.26595592
0002e0 64 14 2b be ae 6d fb 3d ba bd 2e 3e 1d 1b 2d be
       -0.16706997 0.12276779 0.17064562 -0.16904874
0002f0 7b f5 7b 3d b4 f5 a9 3b 31 0d 3c 3e 89 32 67 be
       0.061513405 0.005186761 0.18364407 -0.22577871
000300 49 bb 16 3f 91 90 ce be 27 8f 23 bd bb 89 be be
       0.58879524 -0.4034467 -0.039931443 -0.37214455
000310 a8 dc 47 3e e1 fc 0b 3e 85 38 f8 be da a1 5f 3e
       0.19517767 0.13670684 -0.4848062 0.21839085
000320 d0 93 7d be 7d 5a f6 3e 39 b5 a2 bd f7 3e 07 3f
       -0.24763417 0.48115912 -0.07944722 0.5283045
000330 3d 4c aa 3d bd 7c e9 3d a5 74 20 3e ef e1 a7 be
       0.083153225 0.11400745 0.15669496 -0.3278956
000340 6a 4b 17 bd 17 c0 f0 be bf d0 c5 bc 25 fb 83 3e
       -0.036937155 -0.47021553 -0.02414739 0.25777546
000350 18 80 8e be d9 32 61 be d9 44 54 bc 37 6a e9 3d
       -0.27832103 -0.21992053 -0.012955868 0.11397212
000360 0f bb f3 3e e1 95 28 3f 44 84 af 3d ae da 94 3d
       0.47603652 0.658537 0.085701495 0.07268272
000370 ca af a7 be 61 43 a4 3e 81 19 18 3e ed 79 7c bf
       -0.32751304 0.32082656 0.14853479 -0.98623544
000380 38 e1 1c be d1 85 47 be 41 63 40 be 68 d1 3d bf
       -0.15320289 -0.1948464 -0.18787862 -0.74147654
000390 e6 d4 95 bd b6 3b 77 be 4c 3e 31 be 8c 5c 9a bd
       -0.07315998 -0.24143872 -0.1730892 -0.07537183
0003a0 dc b4 dd ba 8e 78 0f bd 07 c6 33 be d9 49 a6 bd
       -0.0016914862 -0.03502708 -0.1755601 -0.08119554
0003b0 f5 d9 d8 be aa 01 cc 3e f7 6c 20 be fa 04 09 bf
       -0.42353788 0.3984502 -0.15666567 -0.5352322
0003c0 10 33 38 bf 63 46 3e bf 7a 4c ba 3e 36 40 98 3e
       -0.71952915 -0.7432615 0.36386472 0.2973649
0003d0 61 49 4e 3e 02 e9 cc be c8 88 aa 3f a2 88 13 bf
       0.2014518 -0.4002152 1.3322992 -0.5763036
0003e0 f2 ca ca be a7 55 5c 3e 57 1e b4 be b2 01 13 be
       -0.3960796 0.21517049 -0.35179397 -0.14356115
0003f0 d7 b6 37 3d 82 fe c7 3d f1 59 c8 3d 47 c5 07 3e
       0.044852104 0.097653404 0.0978278 0.13258849
