checkpoints/tuning_multi/trial_34/best_model.pt (torch, 520320 bytes, 104 tensors)

encoder.feature_encoder.atom_embedding_list.0.weight f4 [119, 64]
0	0x3e877284	0.26454556
1	0x3e2258a9	0.15854134
2	0x3b3ba804	0.002863408
3	0x3e5973a8	0.21235526
4	0xbc9b07a9	-0.018924551
5	0xbe2b4496	-0.16725382
6	0x3ceeb38d	0.02913835
7	0x3e0ae1ce	0.135627
8	0x3e93492b	0.2876676
9	0xbd98624c	-0.07440624
10	0xbdefffdf	-0.117187254
11	0xbdc45ed9	-0.09588403
12	0x3dfb470a	0.12269409
13	0xbe253dd6	-0.1613687
14	0x3d746884	0.059669986
15	0xbd831d0f	-0.06402027
16	0x3e29a0cd	0.16565247
17	0x3e486090	0.19568086
18	0x3e4adbc2	0.19810393
19	0x3d7cbfcd	0.061706353
20	0xbddde9fb	-0.10835644
21	0x3ccb85ac	0.024844013
22	0xbddd3bc8	-0.10802418
23	0xbd63e8bf	-0.055641886
24	0xbca3472f	-0.019931404
25	0xbe24149c	-0.16023487
26	0x3e1b90f8	0.1519202
27	0x3d2adf61	0.041716937
28	0xbdafd457	-0.085854225
29	0xbdf5abc0	-0.11995649
30	0xbe343d35	-0.17601474
31	0x3e11d063	0.1423965
32	0xbcd97f4a	-0.026549954
33	0x3df07e31	0.11742819
34	0x3d85a763	0.06526067
35	0x3de3f44b	0.111305796
36	0x3ac19c73	0.0014771357
37	0x3dc52f42	0.09628154
38	0xbdc7861b	-0.097423755
39	0x3d94ac37	0.0725941
40	0xbda8a0c6	-0.0823379
41	0x3d9994ec	0.07499108
42	0x3d4b5ea1	0.049650792
43	0x3dc3e432	0.09565009
44	0x3c4857e5	0.012227987
45	0x3d3c6b66	0.04600086
46	0x3e3aa418	0.1822666
47	0x3db28b73	0.08718004
48	0x3e350a2c	0.17679662
49	0xbe29eafe	-0.16593549
50	0x3d0a6f50	0.033797562
51	0xbdc83e09	-0.09777457
52	0x3c541d1b	0.012946392
53	0x3d0b4651	0.034002606
54	0xbbaf8dc7	-0.0053574773
55	0xbd9dd7f4	-0.077072054
56	0x3e0d81a8	0.13818991
57	0xbd9c07a4	-0.07618645
58	0xbdb27249	-0.087132044
59	0x3d9cd36a	0.076575115
60	0xbe391ec4	-0.18078142
61	0x3e069504	0.13142782
62	0xbdc73b95	-0.09728161
63	0x3e3bbc7e	0.18333623
64	0xbe1ad3fd	-0.1511993
65	0xbe2e0d19	-0.16997184
66	0xbd4e982e	-0.0504381
67	0x3e144979	0.14481153
68	0x3dbb5ba6	0.0914834
69	0x3dee53e5	0.11637095
70	0xbd2cc7a7	-0.04218259
71	0x3e23c828	0.15994322
72	0xbda91562	-0.082560316
73	0xbc4fa99f	-0.012674718
74	0xbe2a4263	-0.16626887
75	0x3c15769b	0.009122516
76	0x3d2a0876	0.041511975
77	0xbe31f4c8	-0.17378533
78	0x3e1bde64	0.15221554
79	0x3d0b8817	0.034065332
80	0x3e30d26f	0.17267774
81	0xbd9fa22d	-0.077946045
82	0x3c0a5643	0.008443418
83	0xbd6e05fb	-0.058111172
84	0x3e1cc3e4	0.15309101
85	0xbdcf4be2	-0.101218954
86	0x3dd56d0f	0.10421192
87	0xbe0232c6	-0.12714681
88	0x3e0b543a	0.13606349
89	0xbe2ca211	-0.16858698
90	0xbdb85936	-0.09001391
91	0xbda75c8d	-0.081719495
92	0xbcfbde46	-0.030745637
93	0xbb132839	-0.0022454394
94	0x3d6fac03	0.058513653
95	0x3e2645b1	0.16237523
96	0x3dda73b5	0.106666006
97	0xbdb2ce98	-0.08730811
98	0x3e2e3894	0.1701377
99	0xbcda6d9f	-0.0266636
100	0xbdcec833	-0.10096779
101	0x3d8a9c13	0.0676805
102	0xbd013db4	-0.031552985
103	0x3e30f279	0.17279996
104	0x3ca57765	0.020198533
105	0x3df56e8e	0.11983977
106	0x3d3ef640	0.04662156
107	0xbdf2576c	-0.11833081
108	0x3d1c1728	0.03810802
109	0xbdd6983c	-0.10478255
110	0xbd4698f7	-0.048485722
111	0xbd6ee9e1	-0.058328513
112	0xbe12e8d9	-0.14346637
113	0x3d8f8247	0.0700727
114	0x3e0332b3	0.12812309
115	0xbe36b6da	-0.1784319
116	0x3dc9d988	0.09855944
117	0xbe126446	-0.14296064
118	0xbe35746b	-0.17720191
119	0x3d7fc4d0	0.062443554
120	0xbb838889	-0.004014079
121	0xbde3555b	-0.11100265
122	0x3e2602c5	0.16211994
123	0x3c7211aa	0.014774719
124	0xbde897b0	-0.11357057
125	0x3daa1c52	0.08306183
126	0x3c51f85e	0.012815563
127	0xbced6acd	-0.02898159
128	0xbd6a4919	-0.057198618
129	0xbe08cbb3	-0.13358955
130	0x3d9330cc	0.07187042
131	0xbdfab97a	-0.12242408
132	0x3e2195a0	0.15779734
133	0xbe36361c	-0.17794079
134	0xbd677862	-0.05651129
135	0xbd6951c9	-0.056962762
136	0xbe231c51	-0.1592877
137	0x3d848804	0.064712554
138	0xbdbce7b8	-0.09223884
139	0x3d1a42a4	0.03766121
140	0x3dd79fb9	0.105285116
141	0xbda03415	-0.07822434
142	0xbd104f42	-0.035231836
143	0xbc323cfd	-0.010878799
144	0x3d340c91	0.043957297
145	0x3e40ba94	0.18821174
146	0xbdb3e95b	-0.087847434
147	0xbda43ae2	-0.080190435
148	0xbce23f80	-0.02761817
149	0xbe052f1f	-0.13006257
150	0xbcc3459c	-0.023836903
151	0xbe0427b1	-0.12905766
152	0x3e511311	0.2041743
153	0x3d9f3852	0.07774414
154	0xbe21ee99	-0.15813674
155	0x3e3ab67b	0.18233673
156	0x3e491c3b	0.19639675
157	0xbdfd5ac5	-0.123708285
158	0x3d7656ff	0.06014156
159	0xbe5d7bb4	-0.2162922
160	0x3e28cf86	0.16485414
161	0xbe3226bc	-0.17397588
162	0xbdd1f43a	-0.10251661
163	0x3d3a667c	0.045507893
164	0x3d883a78	0.06651777
165	0xbde493d4	-0.111610085
166	0xbe80e78b	-0.25176653
167	0xbe31784f	-0.1733105
168	0xbce10803	-0.02746964
169	0x3e1e3f5b	0.15453856
170	0x3d895e83	0.0670748
171	0x3e2580b5	0.16162379
172	0xbdafb2e0	-0.085790396
173	0x3e179dc8	0.14806283
174	0xbe216a63	-0.1576324
175	0x3dc992dd	0.09842465
176	0xbddf4c2f	-0.10903203
177	0x3d8a4a85	0.06752495
178	0x3b57d63d	0.0032934092
179	0xbe438c9b	-0.19096605
180	0xbd888706	-0.06666379
181	0xbc8c2806	-0.017108928
182	0xbdc4ed37	-0.09615558
183	0x3d9afdba	0.07567926
184	0xbdefa14b	-0.11700686
185	0xbd4e49da	-0.0503634
186	0xbe8b2bef	-0.27181956
187	0x3e4b6931	0.19864346
188	0xbe0dc996	-0.1384643
189	0xbe0c191a	-0.1368145
190	0xbdd8dc70	-0.1058892
191	0xbe6850ba	-0.22687045
192	0xbe0d8559	-0.138204
193	0x3e0a3ca1	0.1349969
194	0x3e17c395	0.14820702
195	0xbe00c8c0	-0.1257658
196	0x3d20d6d9	0.039267395
197	0xbdbf011e	-0.09326385
198	0x3e2d7fe4	0.16943318
199	0x3de2633a	0.11054082
200	0x3d9370de	0.07199262
201	0xbe172a82	-0.14762309
202	0xbdb66566	-0.08906059
203	0xbd1bdd0e	-0.03805261
204	0xbe25c49c	-0.16188282
205	0xbdd8b78a	-0.10581882
206	0x3d43434d	0.047671605
207	0xbe16f000	-0.1473999
208	0x3d455436	0.048176013
209	0xbb879641	-0.0041377847
210	0xbc744c95	-0.014910837
211	0xbd58a342	-0.05289007
212	0xbdc74a9b	-0.09731027
213	0xbe2d5950	-0.16928601
214	0xbdfc57b1	-0.12321413
215	0x3e0c06c0	0.1367445
216	0xbc5be42a	-0.013421098
217	0x3e348b43	0.17631249
218	0x3c1c6561	0.009545655
219	0xbcaed5f5	-0.021342257
220	0x3dde61c6	0.108584926
221	0xbe2e8efc	-0.17046732
222	0xbde5d826	-0.11222868
223	0x3dd4b87c	0.1038675
224	0xbd416bff	-0.047222134
225	0x3e12b05a	0.14325085
226	0xbc87718b	-0.016533634
227	0x3e04398f	0.12912582
228	0x3c101362	0.008793684
229	0x3c9a09f5	0.018803576
230	0xbe1c9a8f	-0.15293334
231	0xbd802655	-0.06257311
232	0x3c14be01	0.009078504
233	0x3da96e44	0.082729846
234	0x3d0fe69d	0.03513204
235	0xbd2105c4	-0.03931214
236	0x3aa03a6c	0.0012224442
237	0x3e1f6249	0.15564837
238	0x3df75d3b	0.12078329
239	0x3d7d10b7	0.06178352
240	0xbe059eb2	-0.13048819
241	0xbd795f91	-0.060882155
242	0x3decc001	0.11560059
243	0x3e26e6fb	0.1629905
244	0xbdaf4e6a	-0.08559878
245	0x3d9d903d	0.07693527
246	0xbd2da98f	-0.04239803
247	0x3deb3ccb	0.11486205
248	0xbcdee0ec	-0.02720686
249	0xbe136230	-0.14392924
250	0xbe378762	-0.17922738
251	0xbbde4d42	-0.006784112
252	0x3d5aa459	0.05337939
253	0xbdda9950	-0.10673773
254	0x3e11e01e	0.1424565
255	0x3dafe452	0.085884705

encoder.feature_encoder.atom_embedding_list.1.weight f4 [5, 64]
0	0xbe014235	-0.12622912
1	0xbdb39760	-0.08769107
2	0x3c2f170d	0.010686648
3	0x3e4f91b2	0.20270422
4	0x3e01ab46	0.12662992
5	0x3e8919a3	0.26777372
6	0x3d4d3a52	0.050104447
7	0x3ccd47fb	0.025058737
8	0x3c9fae28	0.019492224
9	0x3e3b5a93	0.1829627
10	0x3e308758	0.1723913
11	0x3dd2c457	0.10291355
12	0xbe745056	-0.2385877
13	0xbda2ef7d	-0.07955835
14	0xbdb077b6	-0.08616583
15	0xbdf1a503	-0.117990516
16	0x3e169eda	0.14709035
17	0xbe28bfd3	-0.16479425
18	0xbdf95b87	-0.121756606
19	0xbd9bf4f6	-0.07615082
20	0x3aadea69	0.0013268712
21	0xbe4f9fba	-0.20275775
22	0x3ced48e6	0.028965425
23	0xbea192c6	-0.31557292
24	0xbdcbf615	-0.09959046
25	0x3dd9d345	0.106359996
26	0x3e23eba3	0.16007857
27	0xbe21d331	-0.1580322
28	0xbdd7d729	-0.105390854
29	0x3c2a6aec	0.010401469
30	0xbe792549	-0.2433063
31	0xbdc44112	-0.09582724
32	0x3df8ddf7	0.121517114
33	0xbd01a761	-0.031653766
34	0x3e7c487d	0.24637027
35	0xbe3e7d0e	-0.18602392
36	0xbe71d3d8	-0.23615968
37	0xbe9dd433	-0.30825958
38	0xbe1606c7	-0.14651023
39	0x3cbbc685	0.02292181
40	0x3e22db7a	0.15904036
41	0xbe8cabcf	-0.2747483
42	0xbe6df51d	-0.23238035
43	0xbe0f1802	-0.13974002
44	0x3e330aa1	0.17484523
45	0x3dd854af	0.10563027
46	0xbd8c083e	-0.068375096
47	0x3e25df58	0.1619848
48	0x3d408e84	0.047010913
49	0x3e6b3718	0.22970235
50	0xbdc94859	-0.09828252
51	0xbe3c523e	-0.18390748
52	0xbcfbfd6e	-0.030760493
53	0x3d0cd028	0.0343782
54	0x3dc72e85	0.0972567
55	0x3d59a7e8	0.053138644
56	0xbd340f0d	-0.043959666
57	0xbbaa3913	-0.005194792
58	0xbdbc9ff5	-0.09210197
59	0x3c9d517c	0.019203894
60	0xbdaf92d7	-0.08572929
61	0xbd82da58	-0.06389302
62	0x3e10e753	0.14150743
63	0x3d683327	0.056689408
64	0x3e28f6d1	0.16500403
65	0xbe491971	-0.19638611
66	0xbdb1bf2b	-0.086790405
67	0xbe1c52b9	-0.15265931
68	0xbe6ae478	-0.22938716
69	0xbdf7f023	-0.12106349
70	0xbc9a8493	-0.018862044
71	0xbcb0f720	-0.021602213
72	0xbc954318	-0.01822047
73	0xbe3ebb91	-0.18626238
74	0xbca3e292	-0.020005498
75	0x3da021b1	0.07818926
76	0x3e58dd61	0.211782
77	0x3e36acfe	0.17839429
78	0xbe7c58bc	-0.24643224
79	0xbe405ded	-0.1878583
80	0x3e6e2e89	0.23259939
81	0x3e4cf880	0.2001667
82	0x3e279c85	0.16368301
83	0xbe1bbb9f	-0.1520829
84	0x3e7ea470	0.24867415
85	0xbe92ad1b	-0.28647694
86	0xbe7022e9	-0.23450817
87	0x3cd832df	0.026391445
88	0x3e0c6e6e	0.13714
89	0xbe8e4d8c	-0.2779354
90	0x3d31cb00	0.043406487
91	0xbb916856	-0.0044374866
92	0xbd1efc81	-0.038815025
93	0xbe6c81c4	-0.23096377
94	0xbe10c02c	-0.14135808
95	0x3c62ca54	0.013842184
96	0x3d906e5a	0.07052298
97	0x3e3d61d8	0.18494356
98	0xbdd5f1b1	-0.104464896
99	0x3e8ee750	0.27910852
100	0x3de3638f	0.11102974
101	0xbe4d2666	-0.20034179
102	0xbe964e34	-0.2935654
103	0x3e4b0395	0.19825585
104	0x3cb68fd1	0.022285374
105	0xbcf2716f	-0.029595105
106	0xbdc7ec75	-0.097618975
107	0x3e0df598	0.13863218
108	0xbdd94fe5	-0.10610942
109	0xbe5cea19	-0.21573676
110	0x3e51b28e	0.2047827
111	0xbe017565	-0.12642439
112	0x3e2ddc4b	0.16978566
113	0xbe4fa5e7	-0.2027813
114	0xbd72cea7	-0.05927911
115	0xbe257615	-0.16158326
116	0x3c4da33a	0.012551123
117	0xbd0ed71e	-0.03487312
118	0x3db42b0d	0.08797274
119	0xbe6a35ce	-0.22872087
120	0xbe852860	-0.26007366
121	0x3e7024ab	0.23451488
122	0xbe673306	-0.22578058
123	0x3dcba268	0.09943086
124	0xbe831e3b	-0.25609002
125	0x3d6b5dc7	0.05746248
126	0xbbcd9641	-0.006274015
127	0xbe147b9b	-0.14500277
128	0xbbc6f871	-0.006072097
129	0x3d1449eb	0.036203306
130	0x3c0731c0	0.008251607
131	0x3e646ffa	0.2230834
132	0xbe2cf4c3	-0.16890244
133	0x3e08bac6	0.13352498
134	0x3e8b0c4a	0.27157813
135	0xbe58e243	-0.21180062
136	0xbe6c8166	-0.23096237
137	0x3dcc1af5	0.09966079
138	0xbdd6624d	-0.10467968
139	0xbbd9ea1a	-0.0066502215
140	0xbe8cd520	-0.2750635
141	0x3e3870f8	0.18011844
142	0xbc9f7c30	-0.019468397
143	0x3c948289	0.01812865
144	0xbdd1ec61	-0.10250164
145	0x3dd1a42c	0.102363914
146	0xbb9e7431	-0.0048356284
147	0xbdf0ae55	-0.11752001
148	0x3d960386	0.07324891
149	0xbde03b5f	-0.10948824
150	0x3de01f61	0.10943485
151	0xbe909999	-0.28242186
152	0xbde9ab8f	-0.11409675
153	0xbe4ee3d0	-0.20204091
154	0x3e0076a9	0.12545265
155	0xbe540924	-0.20706612
156	0x3e69f4bf	0.2284727
157	0x3d930ada	0.07179804
158	0x3e390f23	0.1807218
159	0xbe44f7d9	-0.19235171
160	0xbe754995	-0.2395385
161	0xbd46341f	-0.04838955
162	0xbe25e8de	-0.16202113
163	0xbdcc8d9d	-0.09987948
164	0x3e783508	0.2423898
165	0x3e21630f	0.15760444
166	0xbdb26d97	-0.08712309
167	0x3e375b32	0.17905882
168	0xbe4a40a1	-0.19751216
169	0xbe2f75e1	-0.17134811
170	0x3e05bec7	0.13061057
171	0x3e025c0f	0.1273043
172	0xbdae9c9a	-0.08525963
173	0xbe4e0e5a	-0.20122662
174	0x3d3cc802	0.04608918
175	0x3e91a475	0.28445783
176	0x3e949720	0.2902155
177	0x3e77b90f	0.24191688
178	0xbe626fa9	-0.22112907
179	0x3e4828dc	0.19546837
180	0x3d5d2f9b	0.05400048
181	0xbe7515aa	-0.23934045
182	0x3c9b2511	0.018938573
183	0xbe91cc96	-0.284764
184	0x3d81a43a	0.06330152
185	0xbe2608c0	-0.16214275
186	0xbe4b2a0e	-0.19840261
187	0x3c6b14e7	0.014348245
188	0x3e4ba863	0.19888453
189	0x3e297b1b	0.16550867
190	0xbe3adbf0	-0.18247962
191	0x3e2bc018	0.16772497
192	0x3de0b2d2	0.10971607
193	0xbe4992d0	-0.19684911
194	0xbd9bc431	-0.0760578
195	0xbd90b768	-0.07066232
196	0xbe756c37	-0.23967062
197	0xbe89c2d5	-0.26906458
198	0xbe4d0b8a	-0.20023933
199	0x3e893f82	0.26806265
200	0xbda07546	-0.07834868
201	0x3ce7e0e7	0.028305484
202	0xbe7abd87	-0.24486361
203	0xbd4fc156	-0.05072149
204	0x3de42926	0.11140661
205	0xbbc3ce65	-0.005975532
206	0xbcbdd451	-0.02317253
207	0xbb80b485	-0.0039277696
208	0x3e4b0711	0.19826914
209	0xbe54b70f	-0.20772956
210	0xbe87940c	-0.26480138
211	0xbe916b2c	-0.28402078
212	0x3df58f50	0.11990225
213	0xbe2832fe	-0.16425702
214	0xbe040fdc	-0.12896675
215	0xbd1fc074	-0.039001897
216	0x3e310486	0.17286882
217	0x3b27f548	0.0025628377
218	0x3d6c6a6a	0.05771867
219	0xbda9a201	-0.08282853
220	0x3e245520	0.16048098
221	0xbe16a2b0	-0.14710498
222	0x3e68c0e3	0.2272983
223	0x3e788cb2	0.24272421
224	0xbe87cf27	-0.26525232
225	0xbdbf3818	-0.09336871
226	0xbd118a49	-0.03553227
227	0xbe2297bd	-0.15878196
228	0x3c81b386	0.015832674
229	0xbdc63668	-0.09678346
230	0x3e79fb27	0.24412213
231	0xbcbf1bb6	-0.023328643
232	0xbe28c9b0	-0.16483188
233	0xbe15efce	-0.1464226
234	0xbe8d193d	-0.27558318
235	0xbe399499	-0.18123092
236	0x3d6a7fba	0.057250716
237	0x3db66b4a	0.089071825
238	0xbe022367	-0.12708817
239	0x3b449f2c	0.00300021
240	0x3e17811f	0.1479535
241	0x3d1fa6c3	0.038977396
242	0x3d0810d4	0.033219174
243	0xbe461593	-0.19344167
244	0x3e8df119	0.27723005
245	0xbdb2496e	-0.08705412
246	0x3cc746ce	0.024325754
247	0xbd14bd5d	-0.036313403
248	0x3e032e04	0.12810522
249	0xbe7a1b84	-0.24424559
250	0x3d896e99	0.06710548
251	0xbe6a60b6	-0.22888455
252	0x3e6e5601	0.23274995
253	0xbdee0aca	-0.116231516
254	0x3d76909a	0.060196497
255	0x3c9fdb82	0.01951385

encoder.feature_encoder.atom_embedding_list.2.weight f4 [12, 64]
0	0xbe19d090	-0.15020967
1	0xbddc5743	-0.10758831
2	0xbd4a194c	-0.04934053
3	0xbe126389	-0.14295782
4	0x3e164c98	0.14677656
5	0xbe900440	-0.28128242
6	0x3ea144d9	0.3149784
7	0xbe5d3d52	-0.21605423
8	0xbdbc4dad	-0.09194503
9	0x3e8461ba	0.2585581
10	0xbe5b99ba	-0.21445361
11	0xbdfcd5ca	-0.123454645
12	0xbd99313f	-0.07480096
13	0x3d3d813b	0.046265822
14	0xbe37caec	-0.17948502
15	0xbe79c7b3	-0.24392585
16	0xbe13dceb	-0.14439742
17	0xbddb9653	-0.107220314
18	0x3e9b31f7	0.30311558
19	0xbd4d354a	-0.05009965
20	0xbd2a18ce	-0.04152756
21	0xbdb492ea	-0.08817084
22	0x3dcd84b3	0.10035076
23	0x3e12dc27	0.14341794
24	0x3d7de706	0.0619879
25	0xbc488e4d	-0.012240958
26	0xbe1c056d	-0.15236445
27	0x3e90347b	0.2816504
28	0xbe6e3ad7	-0.23264633
29	0x3ed615e5	0.4181358
30	0xbe4199a0	-0.1890626
31	0x3e6b2bcb	0.22965924
32	0x3e9db13b	0.3079928
33	0xbd31a970	-0.04337448
34	0x3d9cce3a	0.07656522
35	0x3e456a71	0.19278885
36	0x3c48b72a	0.012250701
37	0x3c19c1af	0.009384557
38	0x3e9c756b	0.30558333
39	0xbd63d5ec	-0.055623934
40	0xbdcaacfa	-0.09896274
41	0x3dd77139	0.105196424
42	0x3e93f267	0.28895876
43	0x3e9c6492	0.3054548
44	0xbe87ba5d	-0.2650937
45	0x3dc06a19	0.093952365
46	0x3d952e60	0.07284236
47	0xbd775926	-0.060387753
48	0x3e1ad957	0.15121971
49	0xbe8401e2	-0.25782686
50	0x3e1faff0	0.15594459
51	0xbdaefc8c	-0.08544263
52	0x3db566f7	0.088575296
53	0xbe30e19e	-0.17273566
54	0xbdf55a7b	-0.119801484
55	0xbe1c6847	-0.15274154
56	0x3e84ce3d	0.25938597
57	0xbe65020b	-0.2236406
58	0xbc4c8476	-0.012482753
59	0x3e0408f3	0.12894039
60	0x3caa9e3c	0.020827405
61	0xbe031140	-0.12799549
62	0x3d8f9388	0.07010561
63	0xbdabf7ab	-0.08396848
64	0x3cad68e0	0.021168172
65	0xbd5885c7	-0.052861955
66	0x3de3b6d1	0.11118854
67	0xbcef3030	-0.029197782
68	0xbe6bae5f	-0.23015736
69	0xbe469f23	-0.19396643
70	0xbec3ab6b	-0.3821672
71	0xbe93946d	-0.28824177
72	0xbe606f6b	-0.21917503
73	0xbe8c8da2	-0.27451807
74	0x3e6c1c3e	0.23057649
75	0x3dc60b42	0.09670116
76	0xbe40c2e0	-0.18824339
77	0xbeb4f26a	-0.35341197
78	0x3e403ed8	0.18773973
79	0x3e50c3c8	0.20387185
80	0xbe81a281	-0.25319293
81	0x3eced4ad	0.40396634
82	0x3dfc0026	0.12304716
83	0x3d9bd8ce	0.076097116
84	0x3e580403	0.2109528
85	0x3daade2d	0.08343158
86	0xbe7b8876	-0.24563774
87	0xbd8c6174	-0.06854525
88	0xbeaec410	-0.3413396
89	0xbe7dbe09	-0.24779524
90	0x3d60410b	0.05474953
91	0x3cefc53e	0.029268857
92	0x3cae672a	0.021289427
93	0x3e106904	0.1410256
94	0xbea3d612	-0.3199926
95	0x3db48ff9	0.08816523
96	0xbe715326	-0.23566875
97	0x3e09ddc6	0.13463506
98	0x3d09b38c	0.033618495
99	0xbe6636cc	-0.22481841
100	0xbeca353d	-0.39493743
101	0x3ccbcf95	0.024879256
102	0xbd1500f0	-0.036377847
103	0xbcf66b4d	-0.030080462
104	0xbd3d1fd2	-0.046172924
105	0x3d29a88f	0.041420516
106	0xbdafb1f6	-0.08578865
107	0x3e1762be	0.14783761
108	0x3dfc18f9	0.12309451
109	0xbe78e00a	-0.24304214
110	0xbeb091cb	-0.3448623
111	0xbe57e93a	-0.21085063
112	0x3df3ef97	0.119109325
113	0xbe1effb5	-0.15527232
114	0xbe8e1558	-0.2775066
115	0xbea9afd5	-0.33141962
116	0xbdc5a520	-0.09650636
117	0xbe509ba5	-0.20371874
118	0xbe5f1241	-0.21784307
119	0xbe561db4	-0.20909768
120	0x3eb92ec6	0.36168498
121	0x3e487b81	0.19578363
122	0xbcd339ea	-0.025784452
123	0xbe8026af	-0.25029513
124	0x3e2888f4	0.16458493
125	0xbd669dcd	-0.056302834
126	0xbd648b16	-0.055796705
127	0xbdf04258	-0.11731404
128	0xbf028f5c	-0.51
129	0x3d423fb7	0.047424044
130	0x3dfa332e	0.12216793
131	0xbe029733	-0.1275299
132	0x3db969c3	0.090533756
133	0x3e7f87cc	0.24954146
134	0xbe389162	-0.18024209
135	0x3d61bffd	0.055114735
136	0xbecc754d	-0.39933243
137	0xbe95f56e	-0.2928881
138	0xbe635840	-0.22201633
139	0xbd1eec20	-0.038799405
140	0xbe0bb6d9	-0.1364397
141	0x3d12dda0	0.03585589
142	0x3ec90e35	0.39268652
143	0xbe3bfb59	-0.183576
144	0x3a7cf383	0.0009649323
145	0xbea1d8ab	-0.31610617
146	0xbe8c2f68	-0.27379918
147	0x3ee7ca85	0.45271698
148	0x3ddebd7a	0.108759835
149	0x3c430d5b	0.01190504
150	0xbe3271e1	-0.17426254
151	0x3e14cf0d	0.14532109
152	0x3eb8590f	0.36005446
153	0xbd53682a	-0.05161301
154	0xbe05746c	-0.13032693
155	0x3e06b000	0.13153076
156	0x3e12bae4	0.14329106
157	0xbd258bc4	-0.040416494
158	0x3f14b971	0.5809546
159	0x3e4ba422	0.1988683
160	0x3e80aca0	0.25131702
161	0xbe04c257	-0.1296476
162	0x3dd26461	0.10273052
163	0xbc0a30c3	-0.008434477
164	0x3db92c99	0.090417095
165	0x3e59dffb	0.21276848
166	0x3e4eb52d	0.201863
167	0xbe1b7187	-0.15180026
168	0xbe46231f	-0.19349335
169	0xbe5ad9ed	-0.21372195
170	0x3c36970e	0.011144413
171	0x3e2c381f	0.16818283
172	0x3e9732be	0.295309
173	0xbc8f627b	-0.017503014
174	0x3c6726e8	0.014108397
175	0xbef9c910	-0.4878621
176	0x3cc1eb38	0.023671731
177	0xbdf62e3e	-0.12020539
178	0xbe751a53	-0.23935823
179	0x3e0f860f	0.14015983
180	0x3e10c98d	0.14139386
181	0xbe9d8b45	-0.30770317
182	0xbebb17f8	-0.36541724
183	0xbe879849	-0.26483372
184	0xbd945082	-0.07241918
185	0x3e97b893	0.29633006
186	0x3ed2e3a1	0.41189292
187	0x3e83dde5	0.2575523
188	0xbe45b42f	-0.19307016
189	0xbd801f61	-0.06255985
190	0xbece1974	-0.40253794
191	0xbea9d161	-0.33167556
192	0x3d4277d9	0.047477577
193	0x3e006148	0.1253711
194	0xbe89353d	-0.2679843
195	0x3cfc77dd	0.030818874
196	0x3e5f9c16	0.21836886
197	0x3e8c4c5d	0.2740201
198	0x3d99d164	0.07510641
199	0x3e427ec4	0.1899367
200	0x3c08621a	0.0083241705
201	0xbe84b777	-0.25921223
202	0x3e759fa3	0.23986678
203	0xbdc2a8e0	-0.095048666
204	0xbc40756d	-0.0117467465
205	0xbe866731	-0.26250604
206	0xbc78bb1c	-0.015181329
207	0xbe2e12b2	-0.16999319
208	0xbe0b3234	-0.1359337
209	0x3df764a5	0.12079743
210	0xbe916782	-0.28399283
211	0x3da06edd	0.078336455
212	0x3ebcd36e	0.36880058
213	0x3d80580a	0.06266792
214	0xbdd15b1c	-0.10222456
215	0xbdd578dc	-0.10423443
216	0xbe7677cc	-0.24069136
217	0xbe68aa77	-0.22721277
218	0xbcee5962	-0.029095355
219	0x3d6f0eb7	0.058363643
220	0x3e11c409	0.14234938
221	0x3ce01d5f	0.027357755
222	0xbeee3e64	-0.46531975
223	0x3ef776e6	0.483329
224	0xbcf086ea	-0.029361207
225	0xbe407a2b	-0.18796603
226	0x3e0df7ab	0.13864009
227	0xbe661d98	-0.22472227
228	0xbe8e8b2a	-0.2784055
229	0xbd2990e0	-0.04139793
230	0xbcbd0954	-0.023075737
231	0xbe8421fc	-0.25807178
232	0xbe51aa53	-0.2047513
233	0xbd52c9c9	-0.05146197
234	0x3de16c6b	0.11007007
235	0xbdee6b71	-0.116415866
236	0xbeefe56e	-0.46854728
237	0xbde59933	-0.11210861
238	0x3edc80d5	0.4306704
239	0x38d1de6d	0.00010007327
240	0xbe8a81e3	-0.2705222
241	0xbe11f419	-0.14253272
242	0x3e794294	0.24341804
243	0x3df6673a	0.12031408
244	0xbd215484	-0.03938724
245	0x3e863c5e	0.26217932
246	0xbdf5b1da	-0.11996813
247	0x3e16d8ca	0.14731136
248	0x3e8a47db	0.27007946
249	0xbda8edea	-0.082485035
250	0xbde5612f	-0.11200177
251	0x3e460395	0.19337304
252	0x3e93dd54	0.28879797
253	0xbe46bbf7	-0.1940764
254	0x3ebc8d7b	0.3682669
255	0x3bf4604e	0.0074577695

encoder.feature_encoder.atom_embedding_list.3.weight f4 [12, 64]
0	0x3e3a8cb2	0.18217734
1	0xbe0eb43d	-0.13935943
2	0x3df4b0b1	0.11947764
3	0x3ebe044c	0.37112653
4	0x3ea51f17	0.32250282
5	0x3e5ee1df	0.2176585
6	0xbe59e919	-0.21280326
7	0xbe543a07	-0.2072526
8	0x3e2f7fe2	0.17138627
9	0x3e94d376	0.29067582
10	0x3d8b8d3d	0.068140484
11	0x3d4c1e20	0.049833417
12	0xbd852249	-0.0650068
13	0x3dc98e59	0.09841604
14	0xbe0a9635	-0.13533862
15	0xbc42a5ad	-0.0118803205
16	0x3e1ac23e	0.1511316
17	0xbe5bbee4	-0.21459538
18	0xbe71ccde	-0.23613307
19	0xbbc5ddc5	-0.0060384
20	0x3e1c5362	0.15266183
21	0xbe85c9e6	-0.261306
22	0x3e3722b0	0.17884326
23	0x3c4d31da	0.012524093
24	0x3d09b043	0.033615362
25	0x3db56b51	0.088583596
26	0x3e2d3573	0.1691492
27	0xbc828d41	-0.015936496
28	0xbe9a390d	-0.3012165
29	0x3eac7dda	0.33689767
30	0xbdba4bb6	-0.09096472
31	0xbe1fcfbc	-0.15606588
32	0x3d54a9bd	0.051919688
33	0x3e415fbc	0.18884176
34	0x3d23df92	0.040008135
35	0xbe23b5c0	-0.15987301
36	0xbe9905ca	-0.2988723
37	0x3dfa8249	0.12231881
38	0x3dc96c47	0.098351054
39	0x3e2b039c	0.16700596
40	0x3e86a1b6	0.2629525
41	0xbe1cb8c5	-0.15304859
42	0xbc5a64f8	-0.013329737
43	0x3e7ab435	0.24482806
44	0x3cd23b06	0.02566291
45	0xbe5334db	-0.20625632
46	0xbe60988e	-0.21933195
47	0xbd89db4b	-0.0673128
48	0xbe2d8b44	-0.16947657
49	0xbe22b2fc	-0.1588859
50	0xbe8eab9e	-0.2786531
51	0x3e6263c6	0.22108373
52	0xbd2601c1	-0.040529016
53	0x3d2c6acb	0.042094033
54	0x3e5a3f0a	0.2131311
55	0xbe8ef601	-0.2792206
56	0xbdcaca36	-0.0990185
57	0x3e596091	0.21228243
58	0xbd7c98d3	-0.061669182
59	0x3e3d6f00	0.18499374
60	0xbef32f8a	-0.47497207
61	0x3e0b8e1c	0.13628429
62	0x3c066689	0.008203157
63	0xbe82048f	-0.25394103
64	0x3c8d1acf	0.017224697
65	0x3e8a49cf	0.27009436
66	0x3df8134b	0.12113055
67	0x3cfdc969	0.030979829
68	0xbd3c55b4	-0.04598017
69	0xbdb41f8f	-0.08795082
70	0xbe909315	-0.28237215
71	0x3e643d0f	0.22288917
72	0x3da492c7	0.08035808
73	0xbd401f00	-0.046904564
74	0xbe47197d	-0.19443317
75	0xbe51902e	-0.20465156
76	0xbda372b1	-0.0798086
77	0x3e8008d7	0.25006744
78	0x3e04c8f8	0.12967288
79	0xbce57dfe	-0.02801418
80	0x3e090869	0.13382114
81	0xbda82e4f	-0.08211958
82	0xbd49dae4	-0.049281016
83	0x3e8554f8	0.2604139
84	0xbc1e550d	-0.009663832
85	0x3e8d387e	0.27582163
86	0xbe8d1ca5	-0.27560917
87	0x3cb68a05	0.02228261
88	0xbe6ad6ff	-0.22933577
89	0x3e3e9b58	0.18613946
90	0x3ddbb389	0.10727603
91	0x3d3ffd54	0.046872452
92	0x3e13d878	0.14438045
93	0xbe0376c2	-0.12838271
94	0xbd96df19	-0.07366771
95	0x3d71c1eb	0.059022825
96	0xbe20c078	-0.15698421
97	0x3d8a5a1d	0.06755469
98	0x3d627600	0.055288315
99	0xbe3a9a07	-0.1822282
100	0xbe9bd6b4	-0.30437243
101	0xbe54f00c	-0.20794696
102	0xbeb3d3b5	-0.35122457
103	0xbdcc2b28	-0.09969169
104	0x3e30da4e	0.17270777
105	0x3d81d9dc	0.063403815
106	0x3eaa0e6a	0.33214122
107	0x3d104121	0.03521836
108	0xbe8a42d6	-0.27004117
109	0xbeb1f827	-0.34759638
110	0x3e908c5c	0.28232086
111	0x3e112525	0.14174326
112	0x3ebab748	0.36467957
113	0xbe7782f4	-0.24171048
114	0xbe37e8a6	-0.17959842
115	0x3e03c2a5	0.1286722
116	0x3e6e1252	0.23249176
117	0xbe7a5111	-0.24444987
118	0xbe3149ba	-0.1731328
119	0xbe5a44f0	-0.2131536
120	0x3e0f6da9	0.14006676
121	0x3e2efd63	0.17088847
122	0xbe7858b7	-0.24252592
123	0x3dd6dd70	0.104914546
124	0xbe5fc010	-0.2185061
125	0xbe0464da	-0.12929097
126	0xbdc4d222	-0.09610392
127	0xbe40816d	-0.18799372
128	0x3d556102	0.052094467
129	0x3e2ba2e6	0.1676136
130	0x3e92ee1b	0.28697285
131	0xbe59e27f	-0.21277808
132	0xbd3e3b40	-0.046443224
133	0x3ab5031a	0.0013810128
134	0xbe0ec36e	-0.13941738
135	0x3e55ae4c	0.2086727
136	0x3dd231b6	0.10263388
137	0x3e14b629	0.14522614
138	0x3e14fd81	0.14549829
139	0xbdfd7f77	-0.123778276
140	0x3e92932d	0.2862791
141	0x3d156b24	0.03647913
142	0x3e277121	0.16351749
143	0x3bccbac6	0.006247851
144	0x3c12b351	0.008953885
145	0x3e3577a5	0.17721422
146	0x3d455b74	0.04818292
147	0x3e9faf2c	0.31188333
148	0x3ebc1ae1	0.36739257
149	0xbd8b1022	-0.067901865
150	0xbdaa553d	-0.08317039
151	0xbe7f494d	-0.24930306
152	0x3c0c540d	0.008564961
153	0xbebdea99	-0.37093046
154	0xbe72c64a	-0.23708454
155	0x3e6cc0af	0.23120378
156	0x3e06ce27	0.13164578
157	0x3edc517f	0.43030927
158	0xbe70ae69	-0.23504032
159	0xbe62e07b	-0.22155945
160	0x3d444aae	0.047922783
161	0x3e20dd17	0.15709339
162	0xbe5a6cb3	-0.21330528
163	0xbe8f950a	-0.28043395
164	0xbe01acdf	-0.12663601
165	0xbe592780	-0.21206474
166	0x3eb3a27c	0.35084903
167	0x3e12c503	0.14332967
168	0xbe52437b	-0.20533554
169	0xbe392ebb	-0.18084233
170	0xbd9f8c1a	-0.07790394
171	0xbe340e1a	-0.17583504
172	0xbe8beea3	-0.27330503
173	0x3e9cdd8a	0.3063777
174	0xbd6b4aa1	-0.05744422
175	0x3e331864	0.17489773
176	0xbe1bcced	-0.15214892
177	0xbe0d169f	-0.1377816
178	0xbd95bf53	-0.07311883
179	0xbd783667	-0.060598757
180	0xbe436878	-0.1908282
181	0xbe5cdb47	-0.21568023
182	0x3ccc77c7	0.024959458
183	0xbe177e1d	-0.14794202
184	0x3e8def7f	0.27721784
185	0xbeabbdad	-0.3354315
186	0x3c80dbdd	0.015729839
187	0x3e821374	0.25405467
188	0xbe2dfaec	-0.1699025
189	0x3d579099	0.052628133
190	0xbe478a18	-0.19486272
191	0xbdee8f1b	-0.11648389
192	0x3e15c037	0.14624105
193	0xbdff4c20	-0.124656916
194	0x3da1d55d	0.07902024
195	0x3e747bcf	0.23875354
196	0x3d234adc	0.039866313
197	0xbe757c42	-0.23973182
198	0xbe96b1ae	-0.29432434
199	0x3cb12581	0.021624329
200	0xbd84ae7f	-0.06478595
201	0x3e6a3f22	0.22875646
202	0x3c4112b9	0.011784249
203	0x3e869b76	0.26290482
204	0xbe02e1ba	-0.1278142
205	0x3cb31e25	0.02186496
206	0xbeb0eda1	-0.34556296
207	0x3ea261fa	0.31715375
208	0xbe89df23	-0.26928052
209	0x3e1adbbb	0.15122883
210	0x3d454db7	0.048169818
211	0xbe9df288	-0.308491
212	0xbdec269a	-0.115308
213	0x3e0b4ad9	0.13602771
214	0x3e5b9079	0.2144183
215	0xbe89ac5e	-0.26889318
216	0xbe93a0cc	-0.28833616
217	0x3dd289fe	0.10280226
218	0x3e2666d8	0.1625017
219	0xbe38c3c7	-0.18043433
220	0x3e1c2a9f	0.15250634
221	0xbc60ad44	-0.013713185
222	0xbed576bc	-0.4169215
223	0x3dbb0046	0.091309115
224	0xbdcdb7c3	-0.100448154
225	0xbc8253ef	-0.015909163
226	0xbcd42c61	-0.025900068
227	0x3cc4335d	0.023950273
228	0xbd453070	-0.048141897
229	0xbe806671	-0.25078157
230	0x3ed13921	0.40863898
231	0xbe573269	-0.21015324
232	0x3e110028	0.14160216
233	0xbce5650a	-0.02800228
234	0x3ce101bd	0.02746665
235	0xbca790f3	-0.02045486
236	0xbe4b914c	-0.19879645
237	0x3d88c9b4	0.06679097
238	0x3e5e2a8d	0.2169592
239	0xbe8070f1	-0.25086167
240	0x3e6475f2	0.22310618
241	0xbe645ddd	-0.22301431
242	0xbd948251	-0.072514184
243	0x3e2afdb2	0.1669834
244	0x3dd28992	0.10280146
245	0xbe82a38d	-0.25515404
246	0xbc8d166d	-0.017222608
247	0x3e3a351d	0.18184324
248	0xbdadb5b3	-0.08481922
249	0x3e290132	0.16504362
250	0xbeb45f1c	-0.35228813
251	0x3dc4255a	0.09577437
252	0xbeb1a0a0	-0.3469286
253	0xbc8dff75	-0.017333725
254	0xbe242ee5	-0.16033514
255	0xbdc5d16d	-0.096590854

encoder.feature_encoder.atom_embedding_list.4.weight f4 [10, 64]
0	0x3e7fde4f	0.24987148
1	0x3e9ce730	0.30645132
2	0x3ddb56e6	0.10709934
3	0x3e4c10cc	0.19928282
4	0x3d0ee125	0.034882683
5	0xbd87e3f6	-0.06635277
6	0xbd07ffbb	-0.033202868
7	0xbdaf8bfb	-0.08571621
8	0x3e53242c	0.20619267
9	0xbeb62220	-0.3557291
10	0xbe22a1dc	-0.15882057
11	0x3e6a4fae	0.22881958
12	0xbeb79074	-0.35852396
13	0x3e44f7e6	0.19235191
14	0xbe3151ad	-0.17316313
15	0x3c730773	0.014833319
16	0x3e52cd5b	0.2058615
17	0x3df5aaca	0.11995466
18	0xbedfb403	-0.43692026
19	0x3e8be395	0.2732207
20	0x3dcfc070	0.101441264
21	0xbd70cdb2	-0.058789916
22	0xbe9e7e76	-0.30955857
23	0xbe35715e	-0.17719027
24	0xbe0b03df	-0.13575695
25	0x3e43bd94	0.19115287
26	0xbe4bc717	-0.19900165
27	0xbea8afea	-0.32946712
28	0xbe89169c	-0.26775062
29	0xbce81cef	-0.02833411
30	0xbe852825	-0.2600719
31	0xbe569a9b	-0.20957415
32	0xbd06b4b2	-0.03288717
33	0xbe2d876d	-0.16946192
34	0xbde44305	-0.111455955
35	0xbdeb4df8	-0.11489481
36	0x3e92a720	0.2864313
37	0xbe95539d	-0.29165354
38	0xbead5dea	-0.33860713
39	0xbe522153	-0.20520525
40	0xbda1bc82	-0.07897283
41	0xbde5158d	-0.11185751
42	0x3ea6f8ff	0.32611844
43	0xbe8182c0	-0.25295067
44	0xbea7fcec	-0.32810152
45	0x3e41b30a	0.18915954
46	0xbd9ac163	-0.07556417
47	0x3ea26478	0.31717277
48	0xbd61f31d	-0.05516349
49	0x3c2358cc	0.009969901
50	0x3e416fcc	0.18890303
51	0xbcff0165	-0.031128595
52	0xbe1df42d	-0.15425177
53	0xbd9eabdb	-0.077476226
54	0xbd6d7113	-0.057969164
55	0xbe9edcb6	-0.31027764
56	0x3e820966	0.25397795
57	0x3dade5a7	0.08491068
58	0xbe5fb560	-0.21846533
59	0x3e387c68	0.18016207
60	0x3ea1d890	0.31610537
61	0x3e1713b3	0.14753608
62	0x3ead1ae8	0.3380959
63	0x3e1b25e7	0.15151177
64	0xbe56c57f	-0.20973776
65	0x3dae0cb3	0.08498516
66	0xbd08c1fd	-0.033388127
67	0x3e83094b	0.25593027
68	0x3dadeb9a	0.08492203
69	0xbe59dcbb	-0.21275608
70	0xbd249daf	-0.04018944
71	0x3e475389	0.1946546
72	0xbd43a3fc	-0.04776381
73	0xbeb5c8f1	-0.3550487
74	0xbe40a040	-0.1881113
75	0xbe9e8003	-0.3095704
76	0x3ef6f7cc	0.4823593
77	0x3d94b0f9	0.07260317
78	0xbe016b3a	-0.1263856
79	0xbe82e55f	-0.2556562
80	0xbde3e31c	-0.11127302
81	0x3df35e37	0.118832044
82	0x3ec0c0ae	0.37647003
83	0xbd7fa425	-0.0624124
84	0x3c4c9a79	0.012488001
85	0x3e5a01f4	0.21289808
86	0x3e1b4f62	0.15167001
87	0x3d96f4d7	0.07370918
88	0x3ebde355	0.37087503
89	0xbe5c5814	-0.21517974
90	0x3e0f4816	0.13992342
91	0x3dc53af6	0.096303865
92	0x3db55070	0.08853233
93	0x3df91900	0.121629715
94	0x3db43065	0.08798293
95	0xbe4e2e15	-0.20134766
96	0x3ebbd0be	0.36682695
97	0xbe002a70	-0.12516189
98	0x3ee2d9ef	0.44306895
99	0x3e900427	0.28128168
100	0xbd21d6f3	-0.039511632
101	0x3e929a5f	0.286334
102	0x3eee31d4	0.4652239
103	0xbe1ac51b	-0.15114252
104	0x3cae8485	0.021303425
105	0xbde7ad18	-0.11312312
106	0xbea9301b	-0.33044514
107	0x3de0e633	0.10981407
108	0xbeb1a303	-0.3469468
109	0x3de606f3	0.11231794
110	0xbe91cb86	-0.2847559
111	0xbeaa42f0	-0.33254194
112	0xbd85f456	-0.06540744
113	0x3ee19955	0.44062296
114	0x3e42a4cd	0.19008179
115	0xbe7b023c	-0.24512571
116	0xbd9f1782	-0.07768156
117	0xbdbbce3e	-0.09170197
118	0xbe8841f9	-0.26612833
119	0xbdf4804e	-0.11938535
120	0xbe2bc177	-0.1677302
121	0x3cd02638	0.02540885
122	0x3eeed72c	0.46648538
123	0x3e053975	0.130102
124	0x3cdb6e9c	0.026786141
125	0xbea26e16	-0.31724614
126	0xbea7480b	-0.32672152
127	0xbd934268	-0.071904
128	0x3d9ae37c	0.075629205
129	0xbd11611e	-0.03549301
130	0x3d529614	0.051412657
131	0xbe975d57	-0.295634
132	0xbe1469d3	-0.14493494
133	0xbd89bcaa	-0.06725438
134	0x3e7b2125	0.24524362
135	0xbdba6a22	-0.091022745
136	0xbe4f123e	-0.20221803
137	0x3f0c0eb6	0.5470995
138	0x3c55295d	0.01301035
139	0xbe902b2e	-0.28157943
140	0x3dd808f3	0.10548582
141	0xbe6e8039	-0.232911
142	0xbe1e4446	-0.15455732
143	0xbd0d23c9	-0.034457956
144	0xbd6770d5	-0.05650409
145	0xbd9eada6	-0.077479646
146	0xbe075bd8	-0.1321863
147	0x3d90eb68	0.0707615
148	0xbe784416	-0.24244723
149	0x3dfb1f2a	0.122618034
150	0xbb04094d	-0.0020147145
151	0x3e6a6c37	0.22892843
152	0xbe2d201e	-0.16906783
153	0x3de56c50	0.112022996
154	0x3d589b41	0.052882437
155	0x3d5f1c67	0.054470446
156	0xbe3eef6d	-0.18646021
157	0x3e293f0c	0.16527957
158	0xbe14cdf6	-0.14531693
159	0xbe44b6f1	-0.19210412
160	0xbe598caa	-0.21245065
161	0xbe0ca3c5	-0.13734348
162	0xbd704858	-0.058662742
163	0x3e817977	0.25287983
164	0xbe69147d	-0.22761722
165	0x3e9d4023	0.30712995
166	0x3c0f14e1	0.008733005
167	0xbe821eb4	-0.2541405
168	0x3e607304	0.21918875
169	0xbd8fc963	-0.07020833
170	0xbdef5447	-0.116859965
171	0xbddadca0	-0.10686612
172	0x3e844470	0.25833464
173	0xbef09bfa	-0.46994
174	0xbd0f1f0c	-0.034941718
175	0xbe9b17d7	-0.30291626
176	0xbde82e57	-0.113369636
177	0xbe8b6840	-0.27227974
178	0x3e348371	0.17628266
179	0xbe1c991a	-0.15292779
180	0x3d01a493	0.03165109
181	0x3e2c69ea	0.16837278
182	0x3d8cfdb3	0.06884327
183	0x3b1de953	0.002409537
184	0xbe98dcec	-0.2985605
185	0x3dbba4fc	0.09162328
186	0xbe3a5e32	-0.18199995
187	0x3e1971ea	0.14984861
188	0xbe2ae14f	-0.16687511
189	0x3b8d0cbf	0.004304498
190	0x3dd06faa	0.10177548
191	0xbe9ce67b	-0.30644593
192	0xbe7dfc7f	-0.24803351
193	0x3db8bb24	0.09020069
194	0x3e437add	0.19089837
195	0xbe5b524c	-0.21418113
196	0xbd2cfeb5	-0.042235095
197	0xbe114c8e	-0.1418936
198	0x3df0e556	0.11762492
199	0x3d66e29c	0.056368455
200	0x3ee9a5cc	0.45634305
201	0x3d360f2a	0.044448055
202	0xbe72da3c	-0.23716062
203	0xbd107436	-0.035267077
204	0xbcc63423	-0.024194783
205	0xbe1904db	-0.14943258
206	0xbdc29ecd	-0.09502945
207	0xbe84e17e	-0.25953287
208	0x3e5d9f35	0.21642764
209	0x3e1d8b99	0.15385284
210	0xbe077db0	-0.1323154
211	0x3c0fb249	0.008770534
212	0x3d7f0b29	0.062266503
213	0x3e039872	0.12851122
214	0xbd692d39	-0.056927893
215	0xbe5279d8	-0.20554292
216	0xbe70ea30	-0.23526835
217	0xbe9fe512	-0.31229454
218	0xbcd8c756	-0.026462238
219	0xbe1b3c91	-0.15159823
220	0xbe707908	-0.2348367
221	0xbe7f50dd	-0.2493319
222	0x3e21c856	0.15799078
223	0xbea24da4	-0.3169986
224	0x3e0b593f	0.13608263
225	0x3e5b52ac	0.21418256
226	0xbe7a7250	-0.2445767
227	0x3cc786fb	0.024356356
228	0xbe20a41b	-0.15687601
229	0xbe89294a	-0.26789314
230	0xbf09020f	-0.53518766
231	0xbd49f885	-0.049309272
232	0xbe52144e	-0.20515558
233	0xbd9c4c39	-0.07631726
234	0x3e3d4701	0.18484117
235	0x3e0d9e83	0.13829999
236	0xbe9020f3	-0.28150138
237	0x3ddcb0fd	0.10775945
238	0x3da537b4	0.08067265
239	0x3e66f7f5	0.22555526
240	0x3e232e8b	0.15935723
241	0xbf00f120	-0.5036793
242	0xbe0f3663	-0.1398559
243	0x3e711f8d	0.23547192
244	0x3d4183b2	0.047244735
245	0x3dfba011	0.122863896
246	0xbe4e05d9	-0.20119418
247	0xbda9516a	-0.082674816
248	0xbe4ac396	-0.19801173
249	0xbd88fc32	-0.066887274
250	0xbed48200	-0.41505432
251	0x3e53fd0e	0.20702001
252	0x3db607c0	0.08888197
253	0xbdd737b2	-0.1050867
254	0xbe690596	-0.22756037
255	0x3ed3b14a	0.41346198

encoder.feature_encoder.atom_embedding_list.5.weight f4 [6, 64]
0	0xbe42bfb3	-0.1901844
1	0x3d310350	0.04321605
2	0xbe0b49d1	-0.13602377
3	0x3e58da1a	0.21176949
4	0xbcb06f50	-0.021537453
5	0x3e7470d5	0.23871167
6	0xbe122099	-0.14270248
7	0xbeb4cbb0	-0.3531165
8	0xbd141042	-0.036148317
9	0xbe70a0fa	-0.23498908
10	0xbe5f27b1	-0.21792485
11	0x3e047c57	0.12938057
12	0x3e903648	0.28166413
13	0xbe74a1f2	-0.23889902
14	0xbe8e19db	-0.277541
15	0x3c762175	0.015022625
16	0xbe9e3aa7	-0.30904123
17	0xbd5b438e	-0.053531222
18	0x3e1d17a8	0.15341055
19	0x3e1754df	0.1477847
20	0x3cc1a11a	0.02363639
21	0x3db7e56a	0.08979304
22	0xbe4657c4	-0.19369417
23	0xbe239c58	-0.15977609
24	0xbd35cdf0	-0.04438585
25	0xbeb92819	-0.36163405
26	0xbe57704b	-0.2103893
27	0xbcddf8c1	-0.027096154
28	0xbd3269c4	-0.043557897
29	0xbddad65c	-0.10685417
30	0x3e2cd05c	0.16876358
31	0xbe4296b9	-0.19002809
32	0xbd155383	-0.036456596
33	0x3e586c47	0.21135055
34	0x3e21017f	0.15723227
35	0x3ea9a5d2	0.33134323
36	0x3d5e5724	0.054282323
37	0xbe84aa71	-0.25911286
38	0xbd748c4b	-0.059704106
39	0xbdfbcefb	-0.12295338
40	0xbe825b73	-0.25460395
41	0xbe127071	-0.14300705
42	0xbe903a2c	-0.28169382
43	0xbe3022eb	-0.1720082
44	0xbe95874d	-0.2920479
45	0x3e71bd52	0.23607376
46	0x3bff4524	0.0077902246
47	0x3e301497	0.17195354
48	0x3ddab761	0.10679508
49	0x3e755b68	0.2396065
50	0xbe3eb446	-0.18623456
51	0xbe0f18a3	-0.13974242
52	0xbe21d5bc	-0.1580419
53	0xbea78375	-0.3271748
54	0xbd11291b	-0.03543959
55	0x3dc744a1	0.09729887
56	0x3de6de00	0.11272812
57	0xbdee9aae	-0.116505966
58	0x3d8aaf20	0.06771684
59	0x3d91f220	0.0712626
60	0x3e259c91	0.16173007
61	0x3d943062	0.07235791
62	0xbe03be05	-0.12865455
63	0x3e00d554	0.12581378
64	0xbe918959	-0.284251
65	0x3d0d8cde	0.03455817
66	0x3e1e9207	0.15485393
67	0x3e3bd3b9	0.18342485
68	0x3e0420ba	0.12903109
69	0xbd3631ce	-0.04448109
70	0x3e55aabc	0.20865911
71	0xbe8e1c4d	-0.27755967
72	0xbd7ae938	-0.06125757
73	0xbde06144	-0.10956052
74	0x3e36ec7e	0.17863652
75	0x3e83bef3	0.2573162
76	0xbd9e8f1c	-0.0774214
77	0x3d71515b	0.058915477
78	0xbd2d50a1	-0.04231322
79	0xbdaa981c	-0.08329794
80	0x3defd507	0.117105536
81	0x3d8d124e	0.06888257
82	0xbe10295d	-0.14078279
83	0x3d82dd06	0.06389813
84	0x3e876358	0.2644298
85	0xbe51a6ba	-0.20473757
86	0xbd3f451e	-0.046696775
87	0xbe850e8b	-0.25987658
88	0xbd975644	-0.07389501
89	0x3e8dc5e9	0.27690056
90	0x3e42fb34	0.19041139
91	0xbe8d62e5	-0.27614513
92	0xbe863a5b	-0.26216397
93	0x3c40bf1f	0.011764317
94	0xbd09262e	-0.033483677
95	0x3e61d3f6	0.22053513
96	0xbda54f17	-0.08071726
97	0x3e635d63	0.22203593
98	0xbe314c07	-0.17314158
99	0xbd5a7d15	-0.053341944
100	0xbbcd863d	-0.006272106
101	0xbe1a4d25	-0.15068491
102	0x3c4b8b29	0.012423315
103	0xbd81313b	-0.06308218
104	0xbe0e3d79	-0.13890637
105	0xbe6bef63	-0.23040538
106	0xb9f7ce3d	-0.0004726517
107	0x3e8b7ec1	0.27245143
108	0x3de8bb0a	0.113638
109	0xbe654a8a	-0.22391716
110	0xbe176e7b	-0.14788239
111	0x3e44e8dc	0.19229454
112	0xbddf7d6b	-0.109125935
113	0xbcde3c1f	-0.027128277
114	0xbe0cf567	-0.13765489
115	0x3e0eef65	0.1395851
116	0xbe4abf57	-0.19799553
117	0xbe8e12e9	-0.27748802
118	0xbe5c4940	-0.21512318
119	0xbe815738	-0.25261855
120	0x3ce698a3	0.028148955
121	0x3d39ea01	0.04538918
122	0xbdbdc795	-0.09266583
123	0x3df882c0	0.121343136
124	0x3ce0f79f	0.027461825
125	0x3d90e16f	0.07074248
126	0x3e1c598a	0.15268531
127	0x3d727eba	0.059202887
128	0x3e083180	0.13300133
129	0x3e854ce3	0.26035222
130	0xbe299854	-0.16562015
131	0x3e99188a	0.29901534
132	0xbcf0cc5e	-0.029394325
133	0xbd85d2cb	-0.06534346
134	0x3e002794	0.12515098
135	0xbe8327ad	-0.25616208
136	0x3e818f45	0.25304618
137	0x3ded9d0b	0.11602219
138	0x3e02f44e	0.12788507
139	0x3cd75991	0.026287826
140	0xbda3a95b	-0.07991286
141	0x3d5edef7	0.054411855
142	0x398dba5a	0.00027032458
143	0xbe878b7c	-0.26473606
144	0x3dcbccb0	0.099511504
145	0xbda515e4	-0.08060816
146	0xbe1736c6	-0.14766988
147	0xbe2ec843	-0.17068581
148	0x3d5ae184	0.053437725
149	0x3da5c884	0.08094886
150	0x3e8dbfa6	0.2768528
151	0x3df48315	0.119390644
152	0x3e7fd4a2	0.24983457
153	0x3e9bbcd3	0.304175
154	0xbe338c39	-0.1753396
155	0xbbc7a728	-0.0060929246
156	0xbe7bf6e8	-0.24605906
157	0xbe4c93ae	-0.1997821
158	0x3de81149	0.11331422
159	0x3e2f03d5	0.17091306
160	0x3e05b9e1	0.13059188
161	0x3e112be5	0.141769
162	0x3e1af352	0.15131882
163	0xbe12e0db	-0.14343588
164	0xbd4e71e3	-0.05040158
165	0xbe07f388	-0.13276494
166	0x3e2b10dc	0.1670565
167	0xbe1a3d5f	-0.15062474
168	0xbdfab3a0	-0.12241292
169	0x3de5805d	0.11206124
170	0x3dca00c8	0.0986343
171	0x3ea09320	0.31362247
172	0x3e8c7456	0.27432507
173	0xbe2c6f0b	-0.16839235
174	0x3e223243	0.15839486
175	0xbe76398d	-0.24045391
176	0xbcfb77e5	-0.030696819
177	0xbc171d8d	-0.009223354
178	0x3db1e6a3	0.086865686
179	0x3e9a0c70	0.30087614
180	0xbe6a8a3a	-0.22904292
181	0x3e90956d	0.28239003
182	0x3e512041	0.2042246
183	0xbe1111aa	-0.14166895
184	0x3d861a51	0.06547988
185	0xbe0fbb7c	-0.14036363
186	0x3e75dacd	0.24009247
187	0xbd99eb73	-0.075156115
188	0xbadcf252	-0.0016856885
189	0xbe1973fc	-0.14985651
190	0x3e44a72c	0.19204396
191	0x3c42be27	0.011886156
192	0x3e8f4cc5	0.27988258
193	0xbe5f2cce	-0.21794435
194	0xbdb30518	-0.08741206
195	0x3e41c271	0.1892183
196	0x3dc7680c	0.09736642
197	0xbe17cbbd	-0.14823814
198	0xbe757bf9	-0.23973073
199	0xbe625556	-0.22102866
200	0xbe7a7fb4	-0.24462777
201	0xbe25abfe	-0.16178891
202	0xbe35a538	-0.17738807
203	0xbdad0af7	-0.08449357
204	0x3e81dfe5	0.2536613
205	0xbd9f2475	-0.077706255
206	0xbe394bd3	-0.18095331
207	0x3e129048	0.14312851
208	0xbe3071d2	-0.17230919
209	0xbe16098f	-0.14652084
210	0xbd4627ff	-0.048377987
211	0xbd139970	-0.036035
212	0xbe38df45	-0.1805392
213	0xbe6e6b6c	-0.23283166
214	0xbe925092	-0.28577095
215	0xbdfe4e20	-0.12417245
216	0x3e17e405	0.14833076
217	0x3cc0661e	0.023486193
218	0x3e6ef9f0	0.23337531
219	0x3d4ffaed	0.05077641
220	0xbe60e79a	-0.21963349
221	0x3ce1ee5b	0.027579477
222	0xbd999f67	-0.07501107
223	0x3e29bf55	0.16576894
224	0x3da32191	0.07965387
225	0x3e94621c	0.28981102
226	0xbe86641f	-0.2624826
227	0xbe0eae9e	-0.13933799
228	0xbe7e7573	-0.24849491
229	0x3cd56598	0.02604942
230	0xbe3f18b5	-0.18661769
231	0xbdf8f79a	-0.12156601
232	0x3e8f1572	0.2794605
233	0xbdc8e1c7	-0.098086886
234	0x3e137f22	0.14403966
235	0x3e40be43	0.18822579
236	0x3e596ba9	0.21232475
237	0x3e753b97	0.23948513
238	0x3e38ed6c	0.1805932
239	0x3cedaa40	0.029011846
240	0x3e7cf251	0.24701811
241	0x3e910e99	0.2833145
242	0xbe4ecc57	-0.20195137
243	0x3d7a6ac8	0.06113699
244	0x3e4e44b7	0.201434
245	0xbe4aad01	-0.19792558
246	0x3deb4f9e	0.11489795
247	0x3e3b2dad	0.18279143
248	0x3c15aa09	0.009134778
249	0xbdad5500	-0.08463478
250	0xbcc6583b	-0.024211993
251	0x3e826343	0.25466356
252	0xbe6d5e1a	-0.23180428
253	0x3dede0e3	0.11615159
254	0xbe224627	-0.15847073
255	0x3e4a4f66	0.1975685

encoder.feature_encoder.atom_embedding_list.6.weight f4 [6, 64]
0	0xbe035f28	-0.12829268
1	0x3e125201	0.14289095
2	0x3e811d7c	0.25217807
3	0x3e54a6bd	0.2076673
4	0xbe1ab2bf	-0.15107249
5	0x3eb7725e	0.35829443
6	0xbdb46dc3	-0.08809998
7	0x3e01ee62	0.12688592
8	0xbe1fc028	-0.15600646
9	0xbd4e99f6	-0.050439797
10	0x3e59e615	0.21279176
11	0x3e01744d	0.12642021
12	0x3e2cad9d	0.16863103
13	0x3ef1a0d6	0.4719302
14	0xbcd19f5f	-0.02558869
15	0xbe459c59	-0.19297923
16	0x3d5fb7f4	0.05461879
17	0xbd828871	-0.063736804
18	0xbe5a3968	-0.21310961
19	0x3dbd09b4	0.09230366
20	0xbeb988c1	-0.36237147
21	0xbe58fa81	-0.2118931
22	0x3e8f5fcb	0.28002772
23	0xbe879c51	-0.26486447
24	0xbbf43d8e	-0.007453627
25	0x3c900cbc	0.017584197
26	0xbcb91515	-0.02259306
27	0x3ed779fd	0.42085257
28	0xbd16417a	-0.036683537
29	0xbce8a32f	-0.028398125
30	0x3e8c7d06	0.27439135
31	0x3e112076	0.14172539
32	0x3e664d31	0.22490384
33	0xbdd49925	-0.103807725
34	0x3c37ac29	0.01121048
35	0xbe5084c1	-0.20363142
36	0xba1e3817	-0.000603558
37	0x3e968458	0.29397845
38	0xbe45df60	-0.19323492
39	0xbdd132df	-0.10214781
40	0xbdbe6626	-0.09296827
41	0xbe899d7d	-0.26877967
42	0x3e5ecee1	0.21758606
43	0x3e58ca92	0.21171024
44	0xbe3c0c19	-0.1836399
45	0xbe73f1db	-0.2382273
46	0xbe24e9c7	-0.16104804
47	0x3ed507c0	0.41607475
48	0xbcdd356a	-0.027003009
49	0x3dafc6c4	0.085828334
50	0xbeb062e2	-0.34450442
51	0xbc6c6432	-0.014428185
52	0x3e8b0324	0.27150834
53	0xbe6ff8d9	-0.23434772
54	0x3b330ee5	0.002732211
55	0xbd67f9d4	-0.05663474
56	0x3ebf7877	0.37396595
57	0x3e30c147	0.1726123
58	0xbe82a3af	-0.25515506
59	0xbe9712df	-0.29506585
60	0x3e0a6872	0.13516405
61	0x3e8e37cb	0.27776942
62	0xbe420cc6	-0.18950185
63	0xbea9f9be	-0.3319835
64	0x3e34b33e	0.176465
65	0xbdba66e3	-0.09101655
66	0xbe764916	-0.24051318
67	0xbe18e6b6	-0.14931759
68	0xbdf97693	-0.12180819
69	0xbe5e1090	-0.21686006
70	0xbe2406ce	-0.16018221
71	0x3d1c3c13	0.03814323
72	0x3d2c0600	0.04199791
73	0x3e0e33d9	0.13886966
74	0xbe934b4c	-0.28768384
75	0xbe129442	-0.14314368
76	0xbc5c066c	-0.0134292655
77	0xbef487bd	-0.4775981
78	0xbd4cb3a4	-0.049976006
79	0xbe6e8e62	-0.23296502
80	0xbe2d368a	-0.16915336
81	0xbe220c43	-0.1582499
82	0xbe9592b9	-0.29213503
83	0x3cd80478	0.026369318
84	0xbd2f0cb2	-0.042736717
85	0xbdc2f732	-0.09519805
86	0xbe540c46	-0.20707807
87	0x3c68b380	0.014202952
88	0xbcbb79fe	-0.022885319
89	0xbe36f847	-0.17868148
90	0xbd24e515	-0.040257532
91	0xbe050d2b	-0.12993304
92	0xbe5e0762	-0.21682504
93	0xbe52661c	-0.20546764
94	0x3da7921e	0.081821665
95	0x3d106195	0.03524931
96	0x3de5ce0b	0.1122094
97	0x3d186b6e	0.037211828
98	0xbd2314a5	-0.03981461
99	0xbe9b9d9f	-0.30393693
100	0xbcadb250	-0.02120319
101	0x3e7edcac	0.24888867
102	0x3e426078	0.18982112
103	0x3e29cf11	0.16582896
104	0xbe153128	-0.14569533
105	0xbc928f9a	-0.01789074
106	0x3e8ee64c	0.27910078
107	0xbd888272	-0.066655055
108	0x3dc63626	0.09678297
109	0xbcd84e11	-0.026404412
110	0x3e59f743	0.21285729
111	0xbe180fbe	-0.14849755
112	0x3cb4cebd	0.022071237
113	0xbea0f7ae	-0.31438965
114	0xbdb907f6	-0.090347216
115	0x3e1f2548	0.15541565
116	0xbb7979a9	-0.00380669
117	0x3e7b6d9b	0.2455353
118	0xbe95b0a1	-0.2923632
119	0x3e3906b4	0.18068963
120	0xbd6a7436	-0.057239734
121	0x3e6d3828	0.23165953
122	0x3e4cd72f	0.20003961
123	0x3e6b0b46	0.22953519
124	0xbe4c5813	-0.19955473
125	0x3e9306eb	0.28716215
126	0xbdd70556	-0.104990646
127	0xbdb7bef1	-0.08971966
128	0x3e0539c0	0.13010311
129	0xbd919a5d	-0.071095206
130	0x3d7e8bff	0.06214523
131	0x3e6f73d8	0.23384035
132	0x3c61978a	0.01376904
133	0x3db7eba1	0.089804895
134	0x3d72f0f5	0.059311826
135	0x3dcd1d5d	0.10015366
136	0x3e2446d2	0.16042641
137	0x3e7284bd	0.23683448
138	0xbe6fa772	-0.23403719
139	0x3dea45f3	0.11439123
140	0x3e1a1839	0.15048303
141	0x3e1acae1	0.15116455
142	0x3ea643d7	0.32473633
143	0x3d915d9e	0.07097934
144	0xbe620aba	-0.22074404
145	0xbe4f37d1	-0.20236136
146	0x3d8492c2	0.06473304
147	0xbe3ef4a8	-0.18648016
148	0xbe0ffa8e	-0.14060423
149	0xbd94b526	-0.07261114
150	0xbe7c82e1	-0.24659301
151	0xbcf164fb	-0.029467097
152	0x3e7fd910	0.24985147
153	0x3d9bf8c7	0.0761581
154	0xbdf11cf1	-0.11773098
155	0xbc81d82b	-0.015850147
156	0xbe0eec86	-0.13957414
157	0xbdaf10bc	-0.08548114
158	0xbdd4bf3f	-0.1038804
159	0x3df6475e	0.12025331
160	0xbd80abb6	-0.06282751
161	0xbda0ac15	-0.07845322
162	0x3e9ada97	0.30244896
163	0x3e9bf8eb	0.30463347
164	0x3e969442	0.29409987
165	0x3e1f2c88	0.15544331
166	0x3ead953e	0.33902925
167	0xbc059171	-0.008152352
168	0xbe006907	-0.12540065
169	0x3c67c8d6	0.014147004
170	0x3d351a49	0.04421452
171	0x3c37080a	0.01117135
172	0x3e2e8486	0.17042741
173	0xbe4ac848	-0.19802964
174	0xbd7cd151	-0.061723057
175	0x3e0b708a	0.13617149
176	0xbe918f7d	-0.28429785
177	0xbcb21da8	-0.021742657
178	0x3d9dc161	0.077029
179	0xbe7d1d74	-0.24718267
180	0xbde90d4a	-0.11379488
181	0xbe303c6f	-0.17210554
182	0x3e21cf34	0.15801698
183	0x3d925db6	0.0714678
184	0xbd1926c9	-0.037390504
185	0x3e42c417	0.19020115
186	0x3e0bcbd0	0.13651967
187	0xbe0983a2	-0.1342912
188	0x3e7d468b	0.24733941
189	0xbe2083b1	-0.15675236
190	0x3e53cbe0	0.20683241
191	0xbe012c67	-0.12614594
192	0x3e238ab0	0.15970874
193	0xbe5e2e25	-0.2169729
194	0x3edd7b07	0.43257925
195	0x3e9d4fe6	0.3072502
196	0xbe1d1fb2	-0.15344122
197	0xbd1f5f95	-0.038909514
198	0x3d09a56e	0.03360503
199	0x3e30abef	0.17253087
200	0xbe5cf9dc	-0.21579689
201	0x3e3ccf8c	0.18438548
202	0xbe55e3f8	-0.20887744
203	0xbcb77248	-0.02239336
204	0xbcc7ddf2	-0.024397824
205	0x3e0cde52	0.13756683
206	0xbe30349b	-0.17207567
207	0xbd0ce15e	-0.034394614
208	0x3dea29fb	0.114337884
209	0xbe9caef4	-0.3060223
210	0x3ec7f87a	0.3905676
211	0x3e8c96c3	0.27458772
212	0xbe33d662	-0.1756225
213	0xbe268a36	-0.16263661
214	0xbe0d4333	-0.13795166
215	0x3e39b251	0.18134429
216	0xbd04b8b0	-0.032402694
217	0x3d9aea41	0.07564212
218	0xbe2c1c01	-0.16807558
219	0x3dc271a8	0.094943345
220	0x3dd9312f	0.10605084
221	0x3eb87a3e	0.36030763
222	0x3c7b744a	0.01534755
223	0xbe331e41	-0.1749201
224	0x3e7bb375	0.24580176
225	0xbe8e8a82	-0.27840048
226	0xbe5d9522	-0.21638921
227	0xbe0fe659	-0.14052714
228	0xbd92a2e2	-0.07159974
229	0xbdad8d27	-0.08474188
230	0xbc632e4f	-0.013866021
231	0xbd9a651d	-0.07538817
232	0xbc9f9024	-0.019477911
233	0xbdcc22d2	-0.09967579
234	0x3d9a0697	0.07520788
235	0xbda6526a	-0.08121188
236	0x3f19edbc	0.6012838
237	0xbd2b80de	-0.041870944
238	0xbdea6617	-0.11445253
239	0xbeabb022	-0.33532816
240	0x3e405d4e	0.18785593
241	0xbecfbdc4	-0.40574467
242	0x3df8750d	0.12131701
243	0x3eabe783	0.33575067
244	0x3e892fc9	0.2679427
245	0xbda4b682	-0.08042623
246	0x3e3a0125	0.18164499
247	0xbe1f8b33	-0.15580444
248	0xbe926301	-0.2859116
249	0xbdaea8ea	-0.085283116
250	0xbe251c4d	-0.16124077
251	0xbd87c163	-0.066286825
252	0x3d5f2e69	0.05448762
253	0x3e12ca11	0.14334895
254	0x3d8a2d2b	0.06746896
255	0x3e849407	0.25894186
