checkpoints/tuning_multi/trial_40/best_model.pt (torch, 520320 bytes, 104 tensors)

encoder.feature_encoder.atom_embedding_list.0.weight f4 [119, 64]
0.14104745 0.04813221 0.0028634982 0.16773802 -0.12957089 -0.16725959 -0.09288085 0.13563277
0.18052241 -0.07440912 -0.11719014 -0.15631096 0.08885888 -0.07688649 0.13534355 -0.06402315
0.16565824 0.11177521 0.12324401 0.09139795 -0.15044951 0.024844734 -0.10802706 -0.055643328
0.11215249 -0.09660882 0.10924752 0.0043696687 -0.08088825 -0.08298702 -0.1760205 0.062110465
0.0020261663 0.16121456 0.065263554 0.051266976 -0.014499311 0.0846227 -0.026865086 0.07259698
-0.082340784 0.11943818 0.049652234 0.095652975 0.012228347 0.09090088 0.16857798 0.023476806
0.12331733 -0.17074302 -0.01927198 -0.15243366 0.012946753 0.034004048 0.051130556 -0.07707494
0.089693986 -0.07618933 -0.04109185 0.13084683 -0.16663887 0.031802975 -0.16073087 0.072887346
-0.15120506 -0.1699776 -0.05043954 0.1448173 0.09148628 0.11637384 -0.042184032 0.15994899
-0.0825632 -0.012675079 -0.16627464 0.009122876 0.041513417 -0.1737911 0.1522213 0.034066774
0.1726835 -0.07794893 0.008443778 -0.058112614 0.15309678 -0.10122184 0.1042148 -0.12715258
0.13606925 -0.16859275 -0.09001679 -0.08172238 -0.030746358 -0.0022455296 0.058515094 0.162381
0.10666889 -0.08731099 0.17014347 -0.02666432 -0.10097067 0.067683384 -0.031554427 0.17280573
0.020199254 0.119842656 0.046623003 -0.11833369 0.038109463 -0.104785435 -0.048487164 -0.058329955
-0.14347214 0.07007559 0.12812886 -0.17843767 0.09856232 -0.1429664 -0.17720768 0.062444996
-0.004014259 -0.11100553 0.1621257 0.01477508 -0.113573454 0.08306471 0.012815923 -0.028982311
-0.12890333 -0.030738574 0.11340598 -0.06883095 0.0730415 -0.17794655 -0.07016168 -0.047515493
-0.16545293 0.06471544 -0.12687357 0.11041008 0.040245067 0.0024037936 -0.09653155 -0.06133669
0.04395874 0.17342535 -0.091733456 -0.123201236 -0.0962381 -0.13006833 -0.023837624 -0.12906343
0.13128914 0.12574926 -0.122870296 0.15651017 0.037298836 -0.111496605 0.060143 -0.15256685
-0.08696679 -0.117141016 -0.103393234 -0.039194323 0.045075018 0.03479214 -0.16714641 -0.17331627
-0.027470361 0.15454432 0.06707768 0.16162956 -0.08579328 0.04548009 -0.15763816 0.09583539
-0.01855443 -0.023857811 -0.09634634 -0.15820898 -0.06666667 -0.01710965 -0.09615846 0.07568214
-0.040339503 0.017523855 -0.1588876 0.05854199 -0.08852662 -0.13682027 -0.06966237 -0.15940341
-0.13820976 0.13500267 0.14821279 -0.12577157 0.039268836 -0.09326673 0.16943894 0.110543706
0.071995504 -0.14762886 -0.08906347 -0.038054053 -0.16188858 -0.10582171 0.047673047 -0.14740567
0.048177455 -0.004137965 -0.014911197 -0.05289151 -0.09731315 -0.16929178 -0.12321702 0.13675027
-0.013421458 0.17631826 0.009546015 -0.021342978 0.10858781 -0.17047308 -0.11223156 0.103870384
-0.047223575 0.14325662 -0.016534355 0.12913159 0.008794044 0.018804297 -0.15293911 -0.062575996
0.009078864 0.08273273 0.03513348 -0.03931358 0.0012224893 0.15565413 0.120786175 0.06178496
-0.13049395 -0.060883597 0.11560348 0.16299626 -0.085601665 0.07693815 -0.042399473 0.11486493
-0.027207581 -0.14393501 -0.17923315 -0.0067842924 0.053380832 -0.106740616 0.14246227 0.08588759
00000000: be6e 103e 4826 453d 87a9 3b3b 84c3 2b3e
00000010: 3bae 04be 1946 2bbe 5138 bebd 51e3 0a3e
00000020: deda 383e cf63 98bd 6201 f0bd fb0f 20be
00000030: a5fb b53d aa76 9dbd 8097 0a3e 921e 83bd
00000040: 50a2 293e 67ea e43d 5b67 fc3d d92e bb3d
00000050: 700f 1abe 2f87 cb3c 4b3d ddbd 42ea 63bd
00000060: 34b0 e53d d8da c5bd 2abd df3d 702f 8f3b
00000070: bda8 a5bd 19f5 a9bd b83e 34be 8b67 7e3d
00000080: 6ec9 043b 6e15 253e e6a8 853d 52fd 513d
00000090: 858e 6dbc ab4e ad3d 2b14 dcbc baad 943d
000000a0: 49a2 a8bd 019c f43d 2460 4b3d b5e5 c33d
000000b0: 6859 483c 3e2a ba3d b59f 2c3e 6e52 c03c
000000c0: cc8d fc3d 42d7 2ebe 45e0 9dbc 9217 1cbe
000000d0: 9e1e 543c d447 0b3d 466e 513d 77d9 9dbd
000000e0: 7bb1 b73d 2709 9cbd ed4f 28bd b6fc 053e
000000f0: 61a3 2abe d643 023d a296 24be f645 953d
00000100: 80d5 1abe 9c0e 2ebe b199 4ebd fc4a 143e
00000110: 295d bb3d 6855 ee3d 2ac9 2cbd abc9 233e
00000120: e516 a9bd 22ab 4fbc e643 2abe 1e78 153c
00000130: f909 2a3d 4bf6 31be e7df 1b3e 9a89 0b3d
00000140: f2d3 303e b0a3 9fbd c657 0a3c 7e07 6ebd
00000150: 67c5 1c3e 654d cfbd 926e d53d 4934 02be
00000160: bd55 0b3e 94a3 2cbe b95a b8bd 105e a7bd
00000170: c9df fbbc bc29 13bb 86ad 6f3d 3447 263e
00000180: 3875 da3d 1bd0 b2bd 173a 2e3e 226f dabc
00000190: b6c9 cebd 969d 8a3d 373f 01bd fcf3 303e
000001a0: e878 a53c 1170 f53d c3f7 3e3d ef58 f2bd
000001b0: ab18 1c3d bf99 d6bd 7a9a 46bd 64eb 6ebd
000001c0: 5cea 12be ca83 8f3d 3634 033e 5db8 36be
000001d0: 0bdb c93d c965 12be ee75 35be 53c6 7f3d
000001e0: 0c8a 83bb de56 e3bd 4804 263e 2d13 723c
000001f0: 3399 e8bd d51d aa3d e1f9 513c 506c edbc
00000200: 3cff 03be 76cf fbbc 6541 e83d 3ef7 8cbd
00000210: c896 953d 9f37 36be edb0 8fbd 9b9f 42bd
00000220: 7e6c 29be 8789 843d 25eb 01be ae1e e23d
00000230: 03d8 243d f788 1d3b 55b2 c5bd 2e3c 7bbd
00000240: 140e 343d 6a96 313e c0de bbbd ee50 fcbd
00000250: 7b18 c5bd a230 05be 1f47 c3bc 3429 04be
00000260: a970 063e 6ac4 003e 6ca3 fbbd 3444 203e
00000270: aac6 183d 5558 e4bd 8258 763d 7c3a 1cbe
00000280: a51b b2bd a1e7 efbd d5bf d3bd 3a8a 20bd
00000290: 95a0 383d 3482 0e3d 6e28 2bbe d279 31be
000002a0: 8609 e1bc de40 1e3e 0660 893d 3882 253e
000002b0: 63b4 afbd 5549 3a3d e66b 21be 5845 c43d
000002c0: 76ff 97bc 7571 c3bc 3b51 c5bd 8901 22be
000002d0: 8988 88bd 8929 8cbc baee c4bd 3dff 9a3d
000002e0: 093b 25bd 308e 8f3c 6eb3 22be bac9 6f3d
000002f0: 724d b5bd 9d1a 0cbe 25ab 8ebd a63a 23be
00000300: dc86 0dbe 243e 0a3e 18c5 173e 43ca 00be
00000310: 5cd8 203d a102 bfbd 6781 2d3e bd64 e23d
00000320: 6172 933d 052c 17be e966 b6bd 91de 1bbd
00000330: 1fc6 25be 0db9 d8bd d044 433d 83f1 16be
00000340: b955 453d c497 87bb 184e 74bc c5a4 58bd
00000350: 1e4c c7bd d35a 2dbe 3459 fcbd 4308 0c3e
00000360: ade5 5bbc c68c 343e e466 1c3c 78d7 aebc
00000370: 4963 de3d 7f90 2ebe a9d9 e5bd ffb9 d43d
00000380: 826d 41bd ddb1 123e 0e73 87bc 123b 043e
00000390: e514 103c 780b 9a3c 129c 1cbe d827 80bd
000003a0: 84bf 143c c76f a93d 20e8 0f3d 4707 21bd
000003b0: ef3b a03a cc63 1f3e be5e f73d 3a12 7d3d
000003c0: 35a0 05be 1461 79bd 84c1 ec3d 7ee8 263e
000003d0: ed4f afbd c091 9d3d 12ab 2dbd 4e3e eb3d
000003e0: 6fe2 debc b363 13be e588 37be c54e debb
000003f0: dca5 5a3d d39a dabd a1e1 113e d5e5 af3d

encoder.feature_encoder.atom_embedding_list.1.weight f4 [5, 64]
-0.12138259 -0.049463626 0.093888655 0.229356 0.13413112 0.26872128 0.101242326 0.15098852
0.065141 0.25409302 0.23365685 0.17101635 -0.2543327 -0.027003711 -0.10575452 -0.038137272
0.2040856 -0.1986133 -0.16240004 -0.10977131 0.017705452 -0.16954076 0.05754325 -0.26512575
-0.14997599 0.16664977 0.19800468 -0.082353175 0.017942486 -0.0014959488 -0.19778962 -0.060346346
0.17168695 0.0047859647 0.29298526 -0.23522593 -0.20568562 -0.24893925 -0.17752983 0.071026474
0.1930374 -0.26204538 -0.23233955 -0.113769434 0.18867135 0.1639405 -0.029278588 0.27054313
0.104879454 0.28158063 -0.012769026 -0.1933492 -0.0053949384 0.0797102 0.112516396 -0.010695883
0.017050533 0.06668754 -0.051078383 0.077460244 -0.18135534 -0.05994326 0.1634292 0.08986178
0.1650098 -0.19639188 -0.08679329 -0.15266508 -0.22939293 -0.12106638 -0.018862765 -0.021602934
-0.01822119 -0.18626815 -0.020006219 0.078192145 0.21178776 0.17840005 -0.24643801 -0.18786407
0.23260516 0.20017247 0.16368878 -0.15208867 0.24867992 -0.28648847 -0.23451394 0.026392166
0.13714577 -0.27794692 0.04340793 -0.004437667 -0.038816467 -0.23096953 -0.14136384 0.0138425445
0.07052586 0.18494932 -0.10446778 0.27912006 0.11103262 -0.20034756 -0.29357693 0.19826162
0.022286095 -0.029595826 -0.09762186 0.13863795 -0.1061123 -0.21574253 0.20478846 -0.12643015
0.16979143 -0.20278707 -0.059280552 -0.16158903 0.012551484 -0.034874562 0.08797562 -0.22872664
-0.2600852 0.23452064 -0.22578634 0.09943374 -0.25610155 0.05746392 -0.0062741954 -0.14500853
-0.006072277 0.036204748 0.008251968 0.22308917 -0.16890821 0.13353075 0.27158967 -0.21180639
-0.23096813 0.099663675 -0.104682565 -0.0066504017 -0.27507505 0.18012421 -0.019469118 0.018129371
-0.10250452 0.1023668 -0.0048358086 -0.117522895 0.07325179 -0.109491125 0.109437734 -0.2824334
-0.11409964 -0.20204668 0.12545842 -0.20707189 0.22847846 0.071800925 0.18072757 -0.19235748
-0.23954427 -0.048390992 -0.1620269 -0.099882364 0.24239556 0.15761021 -0.08712597 0.17906459
-0.19751793 -0.17135388 0.13061634 0.12731007 -0.085262515 -0.20123239 0.04609062 0.28446937
0.29022703 0.24192265 -0.22113484 0.19547413 0.05400192 -0.23934622 0.018939294 -0.28477553
0.0633044 -0.16214852 -0.19840838 0.014348606 0.1988903 0.16551444 -0.18248539 0.16773073
0.109718956 -0.19685487 -0.07606068 -0.0706652 -0.23967639 -0.2690761 -0.2002451 0.26807418
-0.078351565 0.028306205 -0.24486938 -0.05072293 0.11140949 -0.005975712 -0.02317325 -0.00392795
0.19827491 -0.20773533 -0.26481292 -0.28403232 0.11990514 -0.16426279 -0.12897252 -0.03900334
0.17287458 0.0025629278 0.057720114 -0.08283141 0.16048674 -0.14711075 0.22730407 0.24272998
-0.26526386 -0.09337159 -0.03553371 -0.15878773 0.015833395 -0.09678634 0.2441279 -0.023329364
-0.16483764 -0.14642836 -0.2755947 -0.18123668 0.057252157 0.08907471 -0.12709394 0.0030003001
0.14795926 0.038978837 0.033220615 -0.19344744 0.2772416 -0.087057 0.024326475 -0.036314845
0.12811099 -0.24425136 0.06710836 -0.22889031 0.23275572 -0.1162344 0.06019794 0.01951457
00000000: 6f97 f8bd 5f9a 4abd b248 c03d 4ddc 6a3e
00000010: ab59 093e d695 893e 2358 cf3d bc9c 1a3e
00000020: a568 853d 7b18 823e be43 6f3e e91e 2f3e
00000030: e537 82be e336 ddbc d395 d8bd d435 1cbd
00000040: d1fb 503e 4961 4bbe 324c 26be c8cf e0bd
00000050: 060b 913c 189c 2dbe 79b2 6b3d 90be 87be
00000060: 4e93 19be 3da6 2a3e bdc1 4a3e c8a8 a8bd
00000070: 1ffc 923c b613 c4ba 5d89 4abe bb2d 77bd
00000080: b4ce 2f3e 95d3 9c3b 2a02 963e 11df 70be
00000090: 409f 52be eee9 7ebe 61ca 35be 5476 913d
000000a0: 99ab 453e d02a 86be 6bea 6dbe f3ff e8bd
000000b0: 1033 413e 05e0 273e a6d9 efbc a184 8a3e
000000c0: 0acb d63d 562b 903e 2d35 51bc 55fd 45be
000000d0: 06c8 b0bb 1a3f a33d ff6e e63d c93d 2fbc
000000e0: 8fad 8b3c 7a93 883d 9137 51bd 7aa3 9e3d
000000f0: 37b5 39be 1087 75bd fc59 273e 7409 b83d
00000100: 54f8 283e f41a 49be aec0 b1bd 3c54 1cbe
00000110: fbe5 6abe a6f1 f7bd 1686 9abc a3f8 b0bc
00000120: 9b44 95bc 14bd 3ebe 15e4 a3bc 3423 a03d
00000130: e4de 583e 81ae 363e 3f5a 7cbe 705f 40be
00000140: 0c30 6e3e 03fa 4c3e 089e 273e 22bd 1bbe
00000150: f3a5 7e3e 9eae 92be 6c24 70be 6234 d83c
00000160: f16f 0c3e 0f4f 8ebe 83cc 313d d969 91bb
00000170: 04fe 1ebd 4783 6cbe afc1 10be d7cb 623c
00000180: dd6f 903d 5b63 3d3e 34f3 d5bd d3e8 8e3e
00000190: 1265 e33d e927 4dbe b74f 96be 1805 4b3e
000001a0: 5491 b63c f272 f2bc f8ed c7bd 1bf7 0d3e
000001b0: 6851 d9bd 9ceb 5cbe 11b4 513e e876 01be
000001c0: cedd 2d3e 6aa7 4fbe 2ad0 72bd 9877 25be
000001d0: bda4 4d3c a1d8 0ebd 902c b43d 5137 6abe
000001e0: e329 85be 2e26 703e 8934 67be eba3 cb3d
000001f0: be1f 83be 4a5f 6b3d c497 cdbb 1e7d 14be
00000200: f4f9 c6bb 6e4b 143d 4333 073c 7d71 643e
00000210: 46f6 2cbe 49bc 083e cd0d 8b3e c6e3 58be
00000220: e982 6cbe 781c cc3d d063 d6bd 9deb d9bb
00000230: a3d6 8cbe 7b72 383e b37d 9fbc 0c84 943c
00000240: e4ed d1bd afa5 d13d b475 9ebb d8af f0bd
00000250: 0905 963d e23c e0bd e420 e03d 1c9b 90be
00000260: 12ad e9bd 53e5 4ebe 2c78 003e a70a 54be
00000270: 42f6 693e 5d0c 933d a610 393e 5cf9 44be
00000280: 184b 75be a235 46bd 61ea 25be 208f ccbd
00000290: 8b36 783e 9264 213e 1a6f b2bd b55c 373e
000002a0: 2442 4abe 6477 2fbe 4ac0 053e 925d 023e
000002b0: 1d9e aebd dd0f 4ebe 85c9 3c3d f8a5 913e
000002c0: a398 943e 92ba 773e 2c71 62be 5f2a 483e
000002d0: 1e31 5d3d 2d17 75be 9426 9b3c 19ce 91be
000002e0: bda5 813d 430a 26be 912b 4bbe 6a16 6b3c
000002f0: e6a9 4b3e 9e7c 293e 73dd 3abe 9bc1 2b3e
00000300: 55b4 e03d 5394 49be b4c5 9bbd ebb8 90bd
00000310: ba6d 75be 58c4 89be 0d0d 4dbe 0541 893e
00000320: c976 a0bd 6ae2 e73c 0abf 7abe d9c2 4fbd
00000330: a92a e43d e8cf c3bb d4d5 bdbc 08b6 80bb
00000340: 9408 4b3e 92b8 54be 8f95 87be af6c 91be
00000350: d390 f53d 8134 28be 5f11 04be f7c1 1fbd
00000360: 0906 313e cbf6 273b ed6b 6c3d 84a3 a9bd
00000370: a356 243e 33a4 16be 66c2 683e 358e 783e
00000380: aad0 87be 9b39 bfbd cc8b 11bd 4099 22be
00000390: 09b5 813c eb37 c6bd aafc 793e 391d bfbc
000003a0: 33cb 28be 51f1 15be c01a 8dbe 1c96 39be
000003b0: 3d81 6a3d cd6c b63d ea24 02be afa0 443b
000003c0: a282 173e 46a8 1f3d 5712 083d 1617 46be
000003d0: 9cf2 8d3e f14a b2bd 5148 c73c e0be 14bd
000003e0: 872f 033e 071d 7abe 1c70 893d 3962 6abe
000003f0: 8457 6e3e 4d0c eebd 1d92 763d 05dd 9f3c

encoder.feature_encoder.atom_embedding_list.2.weight f4 [12, 64]
0.019163825 -0.14958778 -0.15312234 -0.10186976 0.15553375 -0.18350048 0.2710064 -0.17100385
0.08976195 0.28329194 -0.11971578 -0.18985285 -0.14361177 -0.13069785 -0.1725408 -0.2826704
-0.14440319 -0.10284069 0.24401878 -0.052971 0.041684568 -0.088173725 0.04997685 0.12822382
0.049094874 -0.062773824 0.03166715 0.2601098 -0.18531354 0.28043157 -0.056287866 0.21172956
0.20547475 0.008323322 -0.0042242506 0.19969136 -0.048645634 0.086397946 0.28033867 -0.055625375
-0.09896562 0.2201096 0.2564597 0.26269624 -0.26510525 0.19359541 0.13921507 -0.18001083
0.1654745 -0.1545965 0.16216634 0.023374984 0.08857818 -0.17274143 -0.054325707 -0.1527473
0.16034599 -0.2353871 0.01976186 0.109727755 -0.011349626 -0.08246053 0.07436347 0.0318922
-0.14744303 -0.06764002 -0.0516061 -0.14817849 0.013815094 -0.10676888 -0.14802282 -0.22493276
-0.1918818 -0.064796455 0.2210285 -0.038215607 -0.13972023 -0.21111739 0.044569373 0.23470019
-0.25320446 0.22961228 0.23017423 0.057764716 0.14845966 0.07982762 -0.24564351 -0.11922201
-0.065956436 -0.16319121 -0.025250971 0.05639573 0.007677656 0.14967477 -0.16558295 0.24190715
-0.11833235 0.21989436 0.26011086 -0.22473775 -0.28201753 0.20616543 0.22439718 -0.030081183
0.061507396 0.041421957 -0.085791536 0.14784338 0.08907322 -0.26672313 -0.07503393 -0.17668058
0.11448353 -0.27087048 -0.2572173 -0.25409597 -0.09650924 -0.21307133 -0.056007553 -0.15989287
0.18408346 0.25724772 0.12225072 -0.09334432 0.11162125 -0.25596556 -0.14489613 -0.06593548
-0.26019707 0.24628228 0.20107396 0.119507335 0.13478483 0.26891592 -0.117151126 0.0822691
-0.094540924 -0.047951076 -0.23453863 0.17658351 -0.1958877 -0.12936404 0.26119465 -0.14134431
0.03798785 -0.26432768 -0.15459071 0.26604512 0.15179421 0.0119054 -0.13371812 0.20924252
0.2645258 0.077329986 -0.18530086 0.017485201 0.12668477 0.08787612 0.2609459 0.2547431
0.15831915 -0.18463634 -0.013670346 0.078203574 -0.069111995 0.08859452 0.19113834 -0.15604742
-0.08827291 -0.21372771 0.019405846 0.1681886 0.26792374 0.014578069 0.17743754 -0.26315138
-0.01918533 -0.051709536 -0.13405588 0.23860338 0.16676563 -0.220694 -0.25515777 -0.13945885
0.102405906 0.13749799 0.14483291 0.21598919 -0.14232023 0.03178605 -0.11791217 -0.14523394
-0.008153699 -0.024020769 -0.23532811 -0.0011874419 0.14732778 0.25375617 -0.07593597 0.17429297
-0.05307044 -0.19224268 0.24573614 -0.07780116 -0.05910561 -0.044771016 0.24093072 -0.115201935
-0.08022281 0.01890128 -0.18378238 0.114968896 0.24006225 0.09618575 -0.076893665 -0.0638851
-0.2581396 -0.23537731 -0.071805514 0.16533925 0.27482197 -0.023251971 -0.022616096 0.20603573
-0.071663864 -0.19175619 0.15544447 -0.103321694 -0.20374878 0.0038966464 -0.18974657 -0.20762046
-0.15488043 -0.027618503 0.090021886 -0.11641875 -0.25513342 -0.08606053 0.26574177 -0.069863535
-0.1895391 -0.10260856 0.24933432 0.043456662 -0.039388683 0.27146015 0.019495616 0.033493247
0.2826669 -0.02225727 -0.041171104 0.22806674 0.08320481 -0.20720953 0.18569437 -0.12171398
00000000: 74fd 9c3c 8a2d 19be 1acc 1cbe 18a1 d0bd
00000010: 3d44 1f3e 8de7 3bbe 5ac1 8a3e a21b 2fbe
00000020: 1dd5 b73d a40b 913e 8c2d f5bd c968 42be
00000030: f70e 13be a8d5 05be 89ae 30be 2dba 90be
00000040: 6ede 13be 249e d2bd 0fe0 793e 1ff8 58bd
00000050: 70bd 2a3d 6d94 b4bd 87b4 4c3d 1b4d 033e
00000060: b517 493d 908f 80bd 6ab5 013d 1d2d 853e
00000070: d5c2 3dbe ba94 8f3e 1b8e 66bd a2cf 583e
00000080: f967 523e 8b5e 083c 956b 8abb e47b 4c3e
00000090: a540 47bd 68f1 b03d 8d88 8f3e 6fd7 63bd
000000a0: 7dae cabd 6964 613e b04e 833e 1f80 863e
000000b0: e0bb 87be e03d 463e 658e 0e3e c254 38be
000000c0: 2672 293e 8b4e 1ebe ef0e 263e e57c bf3c
000000d0: 7a68 b53d 21e3 30be a284 5ebd ca69 1cbe
000000e0: bd31 243e 5109 71be a0e3 a13c f2b8 e03d
000000f0: c8f3 39bc 11e1 a8bd e04b 983d 65a1 023d
00000100: 4efb 16be da86 8abd eb60 53bd 1abc 17be
00000110: b458 623c a4a9 dabd 4b93 17be c654 66be
00000120: aa7c 44be 01b4 84bd 4c55 623e f887 1cbd
00000130: d212 0fbe 282f 58be 608e 363d 3f55 703e
00000140: 04a4 81be 7b1f 6b3e cbb2 6b3e b29a 6c3d
00000150: cf05 183e aa7c a33d f989 7bbe ab2a f4bd
00000160: 2b14 87bd 991b 27be 20db cebc 35ff 663d
00000170: d994 fb3b 5844 193e 948e 29be 82b6 773e
00000180: 3b58 f2bd fd2b 613e 402d 853e a721 66be
00000190: 9a64 90be 081d 533e 60c8 653e d06c f6bc
000001a0: 2eef 7b3d 12aa 293d 79b3 afbd 4164 173e
000001b0: 056c b63d ef8f 88be 64ab 99bd c1eb 34be
000001c0: 5776 ea3d 89af 8abe fcb1 83be de18 82be
000001d0: a3a6 c5bd 5f2f 5abe 2d68 65bd f5ba 23be
000001e0: 6080 3c3e f9b5 833e 965e fa3d 4f2b bfbd
000001f0: af99 e43d eb0d 83be a75f 14be 2e09 87bd
00000200: 8d38 85be 6c31 7c3e 55e6 4d3e 43c0 f43d
00000210: 0905 0a3e 59af 893e eeec efbd b47c a83d
00000220: ac9e c1bd 5968 44bd e52a 70be 4fd2 343e
00000230: c996 48be 0278 04be 4ebb 853e 90bc 10be
00000240: 2699 1b3d f555 87be 074d 1ebe 1137 883e
00000250: f16f 1b3e de0e 433c 67ed 08be ac43 563e
00000260: ed6f 873e 2f5f 9e3d 82bf 3dbe 203d 8f3c
00000270: a7b9 013e 65f8 b33d b39a 853e b06d 823e
00000280: 6a1e 223e 4f11 3dbe 96f9 5fbc 3229 a03d
00000290: 978a 8dbd 0b71 b53d c5b9 433e e5ca 1fbe
000002a0: 6dc8 b4bd 70db 5abe 02f9 9e3c a239 2c3e
000002b0: 4d2d 893e dad8 6e3c 30b2 353e c7bb 86be
000002c0: 8e2a 9dbc 61cd 53bd f245 09be 7254 743e
000002d0: 9cc4 2a3e 9cfd 61be 0aa4 82be 4dce 0ebe
000002e0: 30ba d13d 46cc 0c3e 144f 143e 452c 5d3e
000002f0: 65bc 11be 1732 023d f07b f1bd 35b8 14be
00000300: 1897 05bc 34c7 c4bc daf9 70be f0a3 9bba
00000310: 18dd 163e 54ec 813e 5184 9bbd db79 323e
00000320: 6460 59bd 44db 44be 41a2 7b3e 3756 9fbd
00000330: b918 72bd d061 37bd 8bb6 763e feee ebbd
00000340: db4b a4bd dbd6 9a3c 7331 3cbe d074 eb3d
00000350: e1d2 753e 09fd c43d 6d7a 9dbd 31d6 82bd
00000360: e02a 84be c006 71be c50e 93bd b14e 293e
00000370: 77b5 8c3e eb7a bebc 6445 b9bc 08fb 523e
00000380: 81c4 92bd bc5b 44be d62c 1f3e 539a d3bd
00000390: 85a3 50be e15e 7f3b ed4c 42be 759a 54be
000003a0: fa98 1ebe 3340 e2bc 655d b83d f46c eebd
000003b0: d9a0 82be 8140 b0bd 4e0f 883e 9d14 8fbd
000003c0: 8a16 42be 7024 d2bd 7f51 7f3e 9dff 313d
000003d0: 0756 21bd d3fc 8a3e 45b5 9f3c 3730 093d
000003e0: b7b9 903e e154 b6bc 08a3 28bd 548a 693e
000003f0: 4967 aa3d bc2e 54be aa26 3e3e 2e45 f9bd

encoder.feature_encoder.atom_embedding_list.3.weight f4 [12, 64]
0.18911205 0.060266726 0.11948052 0.27068564 0.195987 0.21766427 -0.18063574 -0.20725837
0.23256701 0.25026333 0.14994328 0.11019178 -0.06500968 0.09841892 -0.13534439 -0.022176828
0.2622516 -0.1845813 -0.23613884 -0.021886952 0.15470064 -0.26131752 0.17884903 0.012524453
0.033616804 0.17898391 0.14810465 -0.015937217 -0.25897053 0.248146 -0.0909676 -0.15607165
0.085100405 0.18884753 0.040009577 -0.15987878 -0.25359043 0.122321695 0.09835394 0.16863051
0.28536618 -0.15305436 0.0872769 0.2745356 -0.008772252 -0.10297714 -0.21933772 -0.005330214
-0.14502104 -0.19437629 -0.26215357 0.11478692 -0.040530458 0.121801704 0.15617928 -0.27923214
-0.096317865 0.24210939 -0.048416432 0.19013545 -0.24291669 0.24766234 0.11884731 -0.19180936
0.088034146 0.17419262 0.15891184 0.045666803 -0.11295998 -0.0879537 -0.19822834 0.25842968
0.07442369 0.049340848 -0.15517052 -0.22285149 -0.03734932 0.12365377 0.21184935 -0.03514608
0.11318929 -0.055092108 -0.08341832 0.27158847 0.07408629 0.27583316 -0.2756207 0.02228333
-0.09621167 0.20856744 0.14768483 0.046873894 0.17448652 -0.16236375 -0.073670596 0.14260294
-0.17117998 0.06755757 0.08094901 -0.23359895 -0.15297984 -0.20795272 -0.25698745 -0.099229924
0.079296306 0.11225511 0.15974289 0.035219803 -0.19403693 -0.26235938 0.24058655 0.044299904
0.20956215 -0.25902525 -0.15669404 -0.007540159 0.23249753 -0.23679896 -0.13854432 -0.21315937
0.14141314 0.016682407 -0.100466765 0.1956416 -0.20724419 -0.020554315 -0.12503771 -0.07264287
0.006780837 -0.01253598 0.27395526 -0.24976388 -0.10935471 -0.02140315 -0.11291753 0.26575556
0.14811778 0.2192118 0.20258327 -0.021295112 0.17919432 -0.02617437 0.19657785 0.048844773
0.109884255 0.11450556 -0.10665582 0.22242779 0.22494687 -0.06790475 -0.083173275 -0.24930882
0.14781693 -0.21100129 -0.25125986 0.23120955 0.057552207 0.2335461 -0.23504609 -0.15827799
-0.0692212 0.17370129 -0.21331105 -0.24736412 -0.0744562 -0.14577052 0.28282976 0.14493273
-0.18965428 -0.13149261 -0.0067827906 -0.17584081 -0.20451705 0.2461626 -0.17796738 0.16402723
-0.0836215 -0.20813198 -0.12838311 -0.12874325 -0.19083397 -0.17213689 -0.013062164 -0.14794779
0.22653644 -0.2723 -0.04053971 0.17965557 -0.18544966 -0.06711036 -0.231679 -0.27685055
0.12990017 0.06314581 0.035191875 0.21051575 0.000956474 -0.2251301 -0.2697251 0.04931398
-0.17110872 0.27446258 -0.04070297 0.2397651 -0.04886382 -0.1301856 -0.27834427 0.27892002
-0.24624206 0.18945391 -0.109094985 -0.21232851 -0.10051055 0.13603348 0.21442407 -0.2238044
-0.20950954 0.09930097 0.12989306 -0.1804401 0.11491992 -0.040157825 -0.24516886 0.1536999
-0.2289744 -0.015909884 -0.053346537 -0.13371702 -0.052537207 -0.2507931 0.24872144 -0.210159
0.17922884 0.0013690739 -0.0103307795 -0.02045558 -0.12202266 -0.06229545 0.19567314 -0.1282057
0.13061216 -0.23156452 -0.13970156 0.19455095 0.096402496 -0.25516558 -0.20249747 0.181849
-0.016641298 0.26777115 -0.2771224 0.06430397 -0.27787924 0.112333916 -0.101220936 -0.04046425
00000000: 97a6 413e 3eda 763d 34b2 f43d 4f97 8a3e
00000010: d1b0 483e 62e3 5e3e 93f8 38be 8a3b 54be
00000020: 0c26 6e3e 8422 803e bb8a 193e 3aac e13d
00000030: cc23 85bd dc8f c93d b897 0abe 2eac b5bc
00000040: d745 863e e102 3dbe 61ce 71be 444c b3bc
00000050: d869 1e3e 69cb 85be 3324 373e 5d33 4d3c
00000060: c6b1 093d 8f47 373e bfa8 173e c48e 82bc
00000070: c997 84be fc19 7e3e 394d babd 3fd1 1fbe
00000080: 1f49 ae3d 3f61 413e 15e1 233d 43b7 23be
00000090: 9bd6 81be cc83 fa3d ca6d c93d 7aad 2c3e
000000a0: 841b 923e 48ba 1cbe 3bbe b23d ee8f 8c3e
000000b0: 7eb9 0fbc aee5 d2bd 119a 60be 13a9 aebb
000000c0: 6580 14be 940a 47be fe38 86be 6815 eb3d
000000d0: 4403 26bd 2c73 f93d 76ed 1f3e 84f7 8ebe
000000e0: 4d42 c5bd 86eb 773e 4f50 46bd deb2 423e
000000f0: 27bf 78be 329b 7d3e 3866 f33d ac69 44be
00000100: 3f4b b43d 8d5f 323e c9b9 223e 1d0d 3b3d
00000110: 9057 e7bd 1221 b4bd 5ffc 4abe e550 843e
00000120: 736b 983d a119 4a3d 05e5 1ebe 2e33 64be
00000130: 9afb 18bd 303e fd3d 09ef 583e 56f5 0fbd
00000140: c9cf e73d 43a8 61bd 39d7 aabd a50d 8b3e
00000150: 8eba 973d 013a 8d3e 281e 8dbe 888b b63c
00000160: a00a c5bd b492 553e b13a 173e d7fe 3f3d
00000170: 98ac 323e af42 26be 9ce0 96bd 8106 123e
00000180: ce49 2fbe a05b 8a3d 98c8 a53d 9034 6fbe
00000190: bfa6 1cbe 8ff1 54be dc93 83be 0f39 cbbd
000001a0: 1a66 a23d 02e6 e53d a493 233e a442 103d
000001b0: 9eb1 46be f853 86be 525c 763e d173 353d
000001c0: 7697 563e f59e 84be 6774 20be 7013 f7bb
000001d0: d513 6e3e 6d7b 72be 90de 0dbe 7346 5abe
000001e0: 9bce 103e 8ba9 883c 85c1 cdbd 4656 483e
000001f0: d237 54be 8661 a8bc e309 00be c9c5 94bd
00000200: c931 de3b b663 4dbc dd43 8c3e 1ac2 7fbe
00000210: 5df5 dfbd a955 afbc 4e41 e7bd 1d11 883e
00000220: 30ac 173e 0f79 603e fd71 4f3e 1673 aebc
00000230: b77e 373e a26b d6bc b44b 493e 7511 483d
00000240: ff0a e13d e481 ea3d 5e6e dabd 1cc4 633e
00000250: 7958 663e a511 8bbd c056 aabd d04a 7fbe
00000260: 525d 173e b910 58be 22a5 80be 32c2 6c3e
00000270: ddbb 6b3d b526 6f3e ecaf 70be a013 22be
00000280: d8c3 8dbd c0de 313e 366e 5abe 054d 7dbe
00000290: 7e7c 98bd de44 15be 10cf 903e 3f69 143e
000002a0: bb34 42be 00a6 06be 2c42 debb 9d0f 34be
000002b0: eb6c 51be 0c12 7c3e 153d 36be c1f6 273e
000002c0: c041 abbd 8d20 55be dd76 03be 45d5 03be
000002d0: fb69 43be a744 30be b002 56bc a07f 17be
000002e0: 2bf9 673e e86a 8bbe f80c 26bd a1f7 373e
000002f0: 84e6 3dbe 2871 89bd 433d 6dbe 5bbf 8dbe
00000300: 8d04 053e 9752 813d 5b25 103d 7191 573e
00000310: e2bb 7a3a 8188 66be 6919 8abe 75fd 493d
00000320: 2037 2fbe 5c86 8c3e 28b8 26bd fb84 753e
00000330: 6e25 48bd 604f 05be 2483 8ebe 9bce 8e3e
00000340: e126 7cbe 3500 423e 316d dfbd a56c 59be
00000350: 7ad8 cdbd 5c4c 0b3e fc91 5b3e fb2c 65be
00000360: ab89 56be 4f5e cb3d b002 053e 4ac5 38be
00000370: 235b eb3d 887c 24bd 8c0d 7bbe 8263 1d3e
00000380: 4478 6abe 7255 82bc e681 5abd 1ded 08be
00000390: 4131 57bd f467 80be d5b0 7e3e ec33 57be
000003a0: c487 373e 7f72 b33a 6e42 29bc 7692 a7bc
000003b0: 04e7 f9bd 8429 7fbd 8a5e 483e 5b48 03be
000003c0: 32bf 053e 401f 6dbe ed0d 0fbe 5d38 473e
000003d0: ac6e c53d 10a5 82be 7f5b 4fbe a036 3a3e
000003e0: 5553 88bc 4d19 893e fde2 8dbe cdb1 833d
000003f0: 3046 8ebe 530f e63d ec4c cfbd d7bd 25bd

encoder.feature_encoder.atom_embedding_list.4.weight f4 [10, 64]
0.18096495 0.14292458 0.13804846 0.25176525 0.059400085 -0.13470107 0.13600841 -0.035268303
0.2803047 -0.21692583 -0.16710204 0.17536789 -0.1752497 0.15109219 -0.18545938 0.09142209
0.2444785 0.12119421 -0.15930197 0.12402446 0.006914363 -0.06346065 -0.27212438 -0.17921683
-0.0904326 0.20470336 -0.20503266 -0.25847515 -0.20995516 0.09580287 -0.24725057 -0.27328348
0.007015438 -0.26243758 0.05598813 -0.0071913004 0.27141193 -0.10723809 -0.24816795 -0.15716274
-0.019049775 -0.13125013 0.27078575 -0.22698607 -0.25987598 0.13383512 -0.07020644 0.17196755
0.054803085 0.11860458 0.18956836 -0.044607535 -0.12889148 -0.11250251 -0.07662873 -0.26257882
0.2441498 0.1367207 -0.080676295 0.23285396 0.122661665 0.11588024 0.17291063 0.03310276
-0.02976432 0.20968917 0.088327736 0.1974594 0.1624448 -0.18457396 -0.078999534 0.2235267
-0.044835433 -0.11249782 -0.12113947 -0.22740772 0.17016056 0.17616901 -0.16765495 -0.28009027
0.05849957 0.019414285 0.19150218 0.061571054 -0.050195184 0.16978227 0.17615677 0.124751404
0.19222139 -0.27885416 0.11838141 0.16874187 0.18153954 -0.12000281 0.0749464 -0.23169644
0.22921424 0.0065658246 0.19911197 0.0734821 -0.13782716 0.16019993 0.1822154 -0.1455382
0.023379458 -0.15387599 -0.20414881 0.10981695 -0.24556787 0.09845543 -0.20387338 -0.003107534
-0.10484477 0.11947829 0.2728655 -0.22229972 -0.07768444 -0.04287279 -0.25619808 -0.25502375
-0.12921675 -0.06658143 0.24185762 0.09194196 0.244561 -0.23427951 -0.14626719 0.02775888
-0.2238356 0.13261162 0.0031805625 -0.28307757 -0.2727505 0.036595363 0.10276941 -0.011237211
-0.086833976 0.21574134 0.01951962 -0.1382425 0.22663167 -0.0808101 -0.12735547 -0.02070939
-0.05650553 -0.027619984 -0.12157113 0.1734645 0.010390948 0.15363218 0.03853681 0.19766453
-0.20636185 0.14269298 0.11147567 0.114119664 -0.14490046 0.03728745 -0.09690604 -0.099799275
-0.04533106 -0.044655155 0.13499619 0.27884185 -0.07624265 0.27826354 0.13856608 -0.25415203
0.21577615 -0.23242772 -0.1067697 -0.106869005 -0.0026844887 -0.27076653 -0.29454485 -0.2467859
-0.14104748 -0.010631861 0.19365442 -0.23753902 0.031652533 0.20279092 0.08365485 0.03597182
-0.27702484 0.18050066 -0.0833416 0.11418551 -0.19440816 -0.037451167 0.15086046 -0.16102964
-0.22875991 -0.027619373 0.14277333 -0.1942887 0.032219797 -0.12168557 0.040299915 0.05807879
0.18255872 -0.13950276 -0.22854002 0.04179796 0.14882585 -0.13181944 0.1175711 -0.2595444
0.13128927 0.14139391 -0.2657034 -0.07601227 0.11528238 0.12851699 0.093858324 -0.20554869
0.23032999 -0.23805644 -0.008052365 -0.151604 -0.25991356 -0.118127406 0.26241606 -0.23338713
0.19758254 0.2689181 -0.16777873 0.08918251 -0.11330998 -0.26790467 -0.24524198 -0.049310714
-0.20516135 -0.03998437 0.16371165 0.13830575 -0.28151292 0.101536244 -0.015051268 0.11791348
0.16944799 -0.22237165 -0.15248355 0.12808022 0.047246177 -0.08148732 -0.14359131 0.04446968
-0.07926189 0.08840977 -0.13576868 0.2667921 0.035732258 -0.06699925 -0.2196214 0.2767243
00000000: e04e 393e d25a 123e 935c 0d3e 60e7 803e
00000010: 814d 733d 14ef 09be ca45 0b3e 7f75 10bd
00000020: 1984 8f3e ce21 5ebe cc1c 2bbe a493 333e
00000030: a874 33be e9b7 1a3e 10e9 3dbe 813b bb3d
00000040: 9258 7a3e ac34 f83d 0e20 23be 8900 fe3d
00000050: e191 e23b a8f7 81bd e353 8bbe 9e84 37be
00000060: ba34 b9bd c29d 513e 15f4 51be db56 84be
00000070: 7cfe 56be 4c34 c43d 412f 7dbe d0eb 8bbe
00000080: c2e1 e53b 385e 86be cf53 653d 00a5 ebbb
00000090: 81f6 8a3e a59f dbbd bd1f 7ebe 45ef 20be
000000a0: 460e 9cbc 6f66 06be 6ea4 8a3e 096f 68be
000000b0: 770e 85be 130c 093e 65c8 8fbd 4318 303e
000000c0: 3379 603d f5e6 f23d 351e 423e 64b6 36bd
000000d0: 21fc 03be b767 e6bd 86ef 9cbd bb70 86be
000000e0: 6802 7a3e 8300 0c3e 9d39 a5bd 4571 6e3e
000000f0: 0a36 fb3d 9f52 ed3d 7c0f 313e c296 073d
00000100: 4ed4 f3bc c2b8 563e 2ce5 b43d cc32 4a3e
00000110: ee57 263e f500 3dbe 82ca a1bd 2fe4 643e
00000120: 5ca5 37bd 4265 e6bd f817 f8bd 92dd 68be
00000130: 923e 2e3e a665 343e bdad 2bbe fe67 8fbe
00000140: 3f9d 6f3d b50a 9f3c 2619 443e ee31 7c3d
00000150: 7799 4dbd 67db 2d3e 7162 343e aa7d ff3d
00000160: afd5 443e f9c5 8ebe f471 f23d abca 2c3e
00000170: 80e5 393e 09c4 f5bd 807d 993d d541 6dbe
00000180: 23b7 6a3e 2126 d73b 02e4 4b3e c97d 963d
00000190: 9022 0dbe 730b 243e ac96 3a3e f707 15be
000001a0: 4786 bf3c ab91 1dbe 630c 51be b6e7 e03d
000001b0: 2576 7bbe 00a3 c93d 2fc4 50be c5a7 4bbb
000001c0: dbb8 d6bd 09b1 f43d 07b5 8b3e 8aa2 63be
000001d0: 0519 9fbd 619b 2fbd 652c 83be 7992 82be
000001e0: 6551 04be d85b 88bd 86a9 773e 114c bc3d
000001f0: 336e 7a3e f8e6 6fbe 11c7 15be 9766 e33c
00000200: 2935 65be 57cb 073e fc70 503b 8bef 90be
00000210: f4a5 8bbe 05e5 153d c578 d23d 471c 38bc
00000220: 03d6 b1bd 4ceb 5c3e 9ce7 9f3c 718f 0dbe
00000230: 2212 683e c47f a5bd 7969 02be bda6 a9bc
00000240: 5872 67bd 4e43 e2bc 49fa f8bd aea0 313e
00000250: cb3e 2a3c c151 1d3e c6d8 1d3d 9268 4a3e
00000260: 8550 53be 1c1e 123e 5b4d e43d 92b7 e93d
00000270: c960 14be baba 183d ad76 c6bd 9063 ccbd
00000280: 10ad 39bd 53e8 36bd 713c 0a3e 5cc4 8e3e
00000290: 1b25 9cbd 8f78 8e3e 44e4 0d3e 3720 82be
000002a0: 6cf4 5c3e 8801 6ebe 13aa dabd 23de dabd
000002b0: 3fee 2fbb e9a1 8abe 95ce 96be 71b5 7cbe
000002c0: c06e 10be 4231 2ebc 584d 463e 6e3d 73be
000002d0: 16a6 013d 6ca8 4f3e 3c53 ab3d 3057 133d
000002e0: 33d6 8dbe 2ad5 383e 00af aabd 18da e93d
000002f0: ef12 47be 6566 19bd 2a7b 1a3e f4e4 24be
00000300: 0a40 6abe 0642 e2bc 2c33 123e 9ef3 46be
00000310: e8f8 033d 4936 f9bd 8611 253d 06e4 6d3d
00000320: acf0 3a3e d0d9 0ebe 6506 6abe 5634 2b3d
00000330: ce65 183e adfb 06be 1ec9 f03d 01e3 84be
00000340: b270 063e 91c9 103e 470a 88be 52ac 9bbd
00000350: 2b19 ec3d f599 033e cb38 c03d 5b7b 52be
00000360: a0db 6b3e 11c5 73be 11ee 03bc 143e 1bbe
00000370: 6413 85be c8ec f1bd 665b 863e 09fd 6ebe
00000380: 1453 4a3e a2af 893e 30ce 2bbe 52a5 b63d
00000390: 100f e8bd cd2a 89be b720 7bbe 08fa 49bd
000003a0: d115 52be a7c6 23bd 07a4 273e 06a0 0d3e
000003b0: 7622 90be 3cf2 cf3d 9899 76bc 9f7c f13d
000003c0: c683 2d3e 65b5 63be a624 1cbe 7627 033e
000003d0: 3585 413d d3e2 a6bd 9a09 13be d725 363d
000003e0: 0f54 a2bd 2e10 b53d f206 0bbe f998 883e
000003f0: fd5b 123d e736 89bd 6fe4 60be cfae 8d3e

encoder.feature_encoder.atom_embedding_list.5.weight f4 [6, 64]
-0.18539137 0.081492476 -0.052827366 0.23844707 -0.014004454 0.23963016 -0.09149896 -0.22719978
0.009498375 -0.16401081 -0.1566886 0.19747461 0.2659393 -0.18634132 -0.29712552 0.09487998
-0.25206122 -0.08735438 0.11277625 0.1141714 0.040041942 0.123018764 -0.1651682 -0.10932295
-0.09476898 -0.30130273 -0.17247808 0.048587516 0.07977704 -0.1187645 0.21429217 -0.15451582
0.0137022 0.24775854 0.2038453 0.2821585 0.08477007 -0.19980648 -0.09066448 -0.0748524
-0.22061878 -0.13029836 -0.2816569 -0.14231275 -0.27822053 0.2943898 0.04690306 0.2805132
0.16466394 0.29148194 -0.100703545 -0.14914788 -0.13268161 -0.2818453 -0.020183668 0.033465836
0.1737413 -0.044647872 0.10878224 0.1295204 0.06609534 0.07630212 -0.10678278 0.15900436
-0.28426254 0.03455961 0.15485969 0.18343061 0.12903686 -0.044482533 0.20866488 -0.2775712
-0.061259013 -0.1095634 0.17864229 0.25732774 -0.07742428 0.05891692 -0.042314664 -0.08330082
0.11710842 0.06888545 -0.14078856 0.063901015 0.26444134 -0.20474334 -0.046698216 -0.2598881
-0.07389789 0.2769121 0.19041716 -0.27615666 -0.2621755 0.011764677 -0.03348512 0.2205409
-0.08072014 0.2220417 -0.17314735 -0.053343385 -0.006272286 -0.15069067 0.0124236755 -0.063085064
-0.13891214 -0.23041114 -0.00047266297 0.27246296 0.11364088 -0.22392292 -0.14788815 0.1923003
-0.10912882 -0.027128998 -0.13766065 0.13959086 -0.1980013 -0.27749956 -0.21512894 -0.25263008
0.028149676 0.04539062 -0.09266871 0.12134602 0.027462546 0.070745364 0.15269108 0.05920433
0.29764628 0.22752573 -0.16562591 0.21573184 -0.030570908 -0.009192113 0.02787804 -0.2561736
0.19867443 0.19231118 0.284495 0.054107714 -0.07991575 -0.049517244 -0.09956091 -0.2647476
0.09951439 0.035400547 -0.09030582 -0.17069158 -0.06363349 0.08095174 0.2264853 0.11939353
0.22070831 0.2256579 -0.13901931 -0.006093105 -0.24606483 -0.16997284 0.1133171 0.11195475
0.12138384 0.24330539 0.1208054 -0.14344165 -0.065932326 0.01989429 0.15153469 -0.1506305
-0.1224158 0.11206412 0.098637186 0.27086392 0.24144964 -0.14117557 0.1021804 -0.18775627
-0.013742141 -0.023611419 0.05944948 0.2559766 -0.22904868 0.273055 0.20423037 -0.14167471
-0.0691761 -0.06063096 0.18380885 -0.078546874 0.10293223 -0.11597184 0.23483442 -0.04701435
0.2798941 -0.21795012 -0.08741494 0.18922406 0.097369306 -0.1482439 -0.2397365 -0.22103442
-0.24463354 -0.16179468 -0.17739384 -0.08449645 0.25367284 -0.07770914 -0.18095908 0.14313428
-0.17231496 -0.1465266 -0.04837943 -0.036036443 -0.18054497 -0.23283742 -0.2857825 -0.12417533
0.14833653 0.023486914 0.23338108 0.050777853 -0.21963926 0.027580198 -0.07501395 0.1657747
0.07965675 0.28982255 -0.26249415 -0.13934375 -0.24850067 0.026050141 -0.18662345 -0.121568896
0.27947202 -0.09808977 0.14404543 0.18823156 0.21233052 0.2394909 0.18059896 0.029012566
0.24702388 0.28332603 -0.20195714 0.061138432 0.20143977 -0.19793135 0.114900835 0.1827972
0.009135138 -0.084637664 -0.024212714 0.2546751 -0.23181005 0.11615448 -0.1584765 0.19757427
00000000: 3cd7 3dbe 87e5 a63d 8261 58bd 782b 743e
00000010: f072 65bc 9c61 753e cf63 bbbd 0fa7 68be
00000020: 129f 1b3c 73f2 27be fa72 20be c936 4a3e
00000030: 3229 883e 42d0 3ebe d620 98be 6f50 c23d
00000040: 2b0e 81be dae6 b2bd 3cf7 e63d b2d2 e93d
00000050: 0503 243d 43f1 fb3d da21 29be b6e4 dfbd
00000060: 3d16 c2bd 5a44 9abe 189e 30be b403 473d
00000070: 2562 a33d cd3a f3bd 686f 5b3e 6539 1ebe
00000080: 317f 603c 6ab4 7d3e d3bc 503e 1477 903e
00000090: ee9b ad3d 129a 4cbe 4dae b9bd 374c 99bd
000000a0: e4e9 61be ef6c 05be 5535 90be 6fba 11be
000000b0: ec72 8ebe 43ba 963e 6c1d 403d 6d9f 8f3e
000000c0: aa9d 283e 1f3d 953e a93d cebd 39ba 18be
000000d0: b0dd 07be 074e 90be 3858 a5bc 7913 093d
000000e0: 3de9 313e b0e0 36bd 39c9 de3d ffa0 043e
000000f0: fe5c 873d 4944 9c3d eeb0 dabd 0ad2 223e
00000100: dc8a 91be 618e 0d3d 8a93 1e3e 3cd5 3b3e
00000110: 3d22 043e 5133 36bd 3fac 553e d01d 8ebe
00000120: bbea 7abd c762 e0bd 01ee 363e 76c0 833e
00000130: 9f90 9ebd de52 713d 2452 2dbd 9f99 aabd
00000140: 8ad6 ef3d d113 8d3d e02a 10be 89de 823d
00000150: db64 873e 3da8 51be a146 3fbd 0e10 85be
00000160: c757 97bd 6cc7 8d3e b7fc 423e 6864 8dbe
00000170: de3b 86be a2c0 403c b127 09bd 79d5 613e
00000180: 9a50 a5bd e65e 633e 8a4d 31be 987e 5abd
00000190: c087 cdbb a84e 1abe ac8c 4b3c be32 81bd
000001a0: fc3e 0ebe e6f0 6bbe c0cf f7b9 4480 8b3e
000001b0: 8dbc e83d 0d4c 65be fe6f 17be 5fea 443e
000001c0: ee7e dfbd a23d debc eaf6 0cbe e8f0 0e3e
000001d0: dac0 4abe 6c14 8ebe c34a 5cbe bb58 81be
000001e0: 269a e63c 84eb 393d 18c9 bdbd 4384 f83d
000001f0: 22f9 e03c f2e2 903d 0d5b 1c3e 3d80 723d
00000200: 1865 983e 81fc 683e d799 29be cfe8 5c3e
00000210: d76f fabc 849a 16bc 7d60 e43c 3029 83be
00000220: 4f71 4b3e 39ed 443e 54a9 913e 0da0 5d3d
00000230: deaa a3bd 98d2 4abd 97e6 cbbd ff8c 87be
00000240: 33ce cb3d 2a00 113d 42f2 b8bd c6c9 2ebe
00000250: 4652 82bd 07ca a53d c3eb 673e 9884 f43d
00000260: 5c01 623e dd12 673e 145b 0ebe aba8 c7bb
00000270: 6bf8 7bbe 5c0d 2ebe cc12 e83d 8848 e53d
00000280: 1798 f83d 0c25 793e d268 f73d 5ee2 12be
00000290: 8707 87bd 5af9 a23c e92b 1b3e e23e 1abe
000002a0: 23b5 fabd e081 e53d 4b02 ca3d adae 8a3e
000002b0: 933e 773e 5490 10be f543 d13d 2e43 40be
000002c0: b826 61bc bc6c c1bc 4c81 733d 5d0f 833e
000002d0: bd8b 6abe ddcd 8b3e c421 513e 2d13 11be
000002e0: 33ac 8dbd 2b58 78bd 6338 3c3e 2fdd a0bd
000002f0: 22ce d23d a582 edbd 6f78 703e 1e92 40bd
00000300: 484e 8f3e 512e 5fbe 9b06 b3bd f4c3 413e
00000310: 8f69 c73d 40cd 17be 7c7d 75be d956 62be
00000320: 3781 7abe 81ad 25be bba6 35be 7a0c adbd
00000330: 68e1 813e f825 9fbd 564d 39be cb91 123e
00000340: 5573 30be 120b 16be 8229 46bd f39a 13bd
00000350: c8e0 38be ef6c 6ebe 1552 92be a34f febd
00000360: 88e5 173e a167 c03c 73fb 6e3e 70fc 4f3d
00000370: 1de9 60be deef e13c eaa0 99bd d8c0 293e
00000380: 1423 a33d 9f63 943e a265 86be 21b0 0ebe
00000390: f676 7ebe 1b67 d53c 381a 3fbe 1df9 f8bd
000003a0: f516 8f3e 4ae3 c8bd a580 133e c6bf 403e
000003b0: 2c6d 593e 1a3d 753e efee 383e c3ab ed3c
000003c0: d4f3 7c3e 1c10 913e dacd 4ebe 4b6c 7a3d
000003d0: 3a46 4e3e 84ae 4abe 2151 eb3d 302f 3b3e
000003e0: 8cab 153c 8356 adbd be59 c6bc c664 823e
000003f0: 9d5f 6dbe 66e2 ed3d aa47 22be e950 4a3e

encoder.feature_encoder.atom_embedding_list.6.weight f4 [6, 64]
-0.017065365 0.29444906 -0.10847434 0.26136208 0.12017852 0.21240868 0.00034864582 0.1911126
-0.0045073526 0.009789591 -0.037545774 0.099648714 0.2814763 0.23800947 -0.16093995 -0.099489085
0.15373653 -0.11754083 -0.09390471 0.06439976 -0.15624776 -0.21189886 0.24274175 -0.264876
-0.18082312 0.1280939 -0.0331066 0.14320518 -0.035099696 0.012200854 -0.032205384 0.071820505
0.08218789 -0.03734905 0.18627253 -0.18390039 -0.072124556 0.014850534 0.13548018 -0.10215069
0.014710585 -0.2687912 0.14087456 0.1689465 -0.24314994 -0.24741805 0.0086023845 0.24992386
0.10235249 0.21841736 -0.24693343 0.21874712 0.27151987 -0.23435348 0.06695882 -0.05663618
0.2779633 -0.14249618 -0.29090235 -0.22656466 0.23563883 0.082599 -0.27729717 -0.22806689
0.15079585 -0.14990857 -0.20289092 -0.119261555 -0.10281625 -0.18506572 -0.13119002 0.026961608
0.06339693 0.25805002 -0.2809623 -0.0826817 -0.0796997 -0.14743917 0.091019556 -0.13862945
-0.109711304 -0.21746032 -0.12101563 0.024488823 -0.1579574 -0.061806973 -0.18143922 0.036801916
0.10952502 -0.18105304 -0.113311104 -0.03333772 -0.13942924 -0.12147299 0.14395654 -0.043132227
0.10854428 0.0056924964 0.00716239 -0.2041709 0.0139809 0.28202447 0.27872318 0.21437056
-0.09557572 -0.0033729493 0.25581676 -0.06665794 0.08219246 0.039229527 0.19137223 -0.14741997
0.071477875 -0.25422475 -0.07013979 0.1255415 0.02638788 0.26985553 -0.21653724 0.12115177
-0.0033301825 0.28289804 0.26265696 0.27035606 -0.19590235 0.28021687 -0.1777122 -0.14273989
0.15992327 -0.002051324 0.14839935 0.24080445 -0.033151124 0.08291151 0.0147002395 0.21003836
0.14899516 0.010238338 -0.2091675 0.09371807 0.17292751 0.023371898 0.14052214 0.079005
-0.15523627 -0.15923044 -0.059931915 -0.24509512 -0.013240726 -0.07167778 -0.24659878 0.032211084
0.04802404 0.106283456 -0.02605143 -0.10123032 -0.06485132 -0.22498348 0.014680876 0.16373916
0.008584001 0.022905631 0.25539434 0.24401683 0.26819494 0.23465905 0.16064575 -0.01195101
-0.284169 0.018439777 0.1741636 0.011171711 0.16770284 -0.2243182 -0.013062294 0.2924187
-0.28151965 -0.04491193 0.124622874 -0.28612033 -0.11379776 -0.14774625 0.18898402 -0.045672268
0.0030552933 0.2330772 0.07002021 -0.11426928 0.14041378 -0.11168524 0.2540664 -0.08249475
0.25802094 -0.10042147 0.16008732 0.26075122 -0.11054264 -0.027054245 -0.15605164 0.163284
-0.09997441 0.20948681 -0.20318674 -0.100972675 -0.06875847 0.22934021 0.14970344 -0.008280907
0.14969869 -0.25832158 -0.02785357 0.2635188 -0.073165484 -0.16264237 -0.1472393 0.24414451
0.0416639 0.075594015 -0.1321053 0.15274261 -0.0075634434 0.28611022 0.18143141 -0.2534435
0.24574757 -0.19259757 -0.09994112 0.061708696 -0.22819997 -0.014455886 -0.15339117 -0.075391054
-0.0054979175 -0.053110566 0.09934454 -0.08121476 0.03710075 -0.015378261 -0.095388204 -0.25052136
0.13829607 -0.24645327 0.04135171 0.17073308 0.26155236 -0.15431845 0.24235563 -0.1558102
-0.17211936 0.032714657 -0.12231903 -0.1826404 0.075383626 0.23539242 0.16704188 0.10771452
00000000: aacc 8bbc 07c2 963e cb27 debd 40d1 853e
00000010: 2820 f63d a981 593e 73ca b639 05b3 433e
00000020: 6ab2 93bb 8564 203c 99c9 19bd a014 cc3d
00000030: a91d 903e c1b8 733e 71cd 24be efc0 cbbd
00000040: 1c6d 1d3e 3fb9 f0bd 1d51 c0bd 05e4 833d
00000050: 6aff 1fbe 04fc 58be 4b91 783e d49d 87be
00000060: b229 39be 0c2b 033e c99a 07bd 61a4 123e
00000070: b3c4 0fbd 17e6 473c cbe9 03bd a116 933d
00000080: 2052 a83d 51fb 18bd 3abe 3e3e 6250 3cbe
00000090: 0ab6 93bd a74f 733c 51bb 0a3e 6234 d1bd
000000a0: aa04 713c 009f 89be 6c41 103e 5000 2d3e
000000b0: 4cfc 78be 285b 7dbe 04f1 0c3c 0aec 7f3e
000000c0: 2f9e d13d cda8 5f3e 1edc 7cbe 3fff 5f3e
000000d0: a704 8b3e 5cfa 6fbe b521 893d 57fb 67bd
000000e0: 3551 8e3e 85ea 11be 27f1 94be 9100 68be
000000f0: 4e4b 713e aa29 a93d e5f9 8dbe 5e8a 69be
00000100: 3a6a 1a3e a281 19be a3c2 4fbe 673f f4bd
00000110: 5391 d2bd de81 3dbe ad56 06be 97de dc3c
00000120: 40d6 813d 221f 843e 4ada 8fbe 0655 a9bd
00000130: 9939 a3bd 4bfa 16be 7668 ba3d e1f4 0dbe
00000140: 52b0 e0bd ebad 5ebe 0bd7 f7bd c99c c83c
00000150: 96bf 21be 4f29 7dbd 34cb 39be 9bbd 163d
00000160: a74e e03d f865 39be a70f e8bd 228d 08bd
00000170: 8ac6 0ebe d5c6 f8bd 5869 133e 6bab 30bd
00000180: 774c de3d 1f88 ba3b 7bb2 ea3b 2d12 51be
00000190: 2510 653c 8365 903e ceb4 8e3e f583 5b3e
000001a0: 34bd c3bd b30c 5dbb 6afa 823e f583 88bd
000001b0: 8554 a83d 24af 203d 15f7 433e 43f5 16be
000001c0: fe62 923d bf29 82be 73a5 8fbd f38d 003e
000001d0: 652b d83c 812a 8a3e f0bb 5dbe 6b1e f83d
000001e0: 313f 5abb 03d8 903e f97a 863e 1c6c 8a3e
000001f0: a09a 48be 9678 8f3e 30fa 35be 682a 12be
00000200: edc2 233e 816f 06bb 00f6 173e 7195 763e
00000210: 79c9 07bd 82cd a93d 46d9 703c 4c14 573e
00000220: 3092 183e b4be 273c 0130 56be 42ef bf3d
00000230: e913 313e 6c76 bf3c 09e5 0f3e 60cd a13d
00000240: 42f6 1ebe 4e0d 23be 2b7b 75bd 37fa 7abe
00000250: a1ef 58bc cdcb 92bd 6484 7cbe c5ef 033d
00000260: dbb4 443d 24ab d93d cf69 d5bc d851 cfbd
00000270: c5d0 84bd 1262 66be 0f88 703c 3dab 273e
00000280: e9a3 0c3c 97a4 bb3c 0cc3 823e 8cdf 793e
00000290: d950 893e 764a 703e 5280 243e 2bce 43bc
000002a0: 997e 91be 040f 973c f157 323e 8d09 373c
000002b0: 4bba 2b3e acb3 65be 3b03 56bc e7b7 953e
000002c0: 5823 90be 92f5 37bd 473a ff3d 5d7e 92be
000002d0: cd0e e9bd cb4a 17be 0785 413e d812 3bbd
000002e0: 513b 483b caab 6e3e c266 8f3d 0306 eabd
000002f0: a1c8 0f3e 3bbb e4bd fe14 823e 02f3 a8bd
00000300: 521b 843e c6a9 cdbd eeed 233e 2f81 853e
00000310: 2e64 e2bd dda0 ddbc 00cc 1fbe ec33 273e
00000320: 62bf ccbd b683 563e 2f10 50be c3ca cebd
00000330: 3ed1 8cbd 29d8 6a3e dc4b 193e a4ac 07bc
00000340: 9d4a 193e ba42 84be 2c2d e4bc f0eb 863e
00000350: c9d7 95bd b98b 26be e6c5 16be 0501 7a3e
00000360: c4a7 2a3d 09d1 9a3d 9d46 07be 8f68 1c3e
00000370: c3d6 f7bb 0a7d 923e 28c9 393e 59c3 81be
00000380: 40a5 7b3e 4c38 45be eead ccbd 42c2 7c3d
00000390: 41ad 69be 61d8 6cbc 9312 1dbe a066 9abd
000003a0: e027 b4bb 778a 59bd 2675 cb3d ed53 a6bd
000003b0: f5f6 173d 1af5 7bbc e45a c3bd 5644 80be
000003c0: 7c9d 0d3e 3f5e 7cbe 6960 293d a7d4 2e3e
000003d0: 31ea 853e a805 1ebe 132c 783e b68c 1fbe
000003e0: 0f40 30be ceff 053d 6682 fabd 1606 3bbe
000003f0: bb62 9a3d b60a 713e 070d 2b3e 6e99 dc3d

encoder.feature_encoder.atom_embedding_list.7.weight f4 [2, 64]
0.23890439 0.2950766 -0.21745396 -0.06531584 0.23753843 -0.28743082 0.21792679 0.2513664
0.26776996 -0.10097145 0.24915506 0.069590986 0.2384426 0.1255047 0.001283177 -0.28624812
-0.18357667 0.24530245 0.10998165 -0.08714216 0.29726958 -0.2271374 0.20383584 0.2800251
-0.11483346 0.069072984 0.1824217 -0.045027163 0.058745176 0.15945043 -0.07173145 -0.16543438
0.10466021 -0.2676017 -0.25522944 0.010357302 -0.14410171 0.08998662 0.06936042 -0.24837835
-0.17771403 0.2721365 -0.02750789 -0.045834344 -0.124652706 0.121631615 0.107113495 0.11385259
-0.115586266 0.15956718 0.19584608 0.27316552 -0.29364222 0.10026439 -0.11108977 -0.111910336
-0.2217286 0.09436435 -0.23280981 -0.17023544 -0.0067811287 0.108137555 0.13087167 0.18967004
-0.2978068 -0.15132691 0.044804055 -0.21733215 -0.152002 -0.12615779 0.15064271 0.12392839
-0.10065355 -0.15119237 0.065252185 0.08711038 0.27736077 0.22794315 -0.07137182 -0.022143817
0.15752827 0.06368836 0.14638641 0.2866001 0.09876344 -0.020508833 -0.29453117 -0.13919207
0.14495479 0.27940562 0.10424962 -0.21450324 -0.23596351 0.28267878 -0.09632633 -0.0767762
-0.07410867 0.1749076 0.26369745 0.10532809 0.19367513 0.25834274 -0.29431137 -0.10830946
-0.15565908 0.15279327 0.21307184 0.041246552 0.21319355 -0.2887463 -0.04879551 0.03777806
-0.01850659 0.22601709 -0.1265413 0.24356094 -0.08937594 0.013611795 0.043636136 0.24684215
-0.05282507 -0.02180704 0.21570547 0.29506752 -0.16792166 0.093014985 0.0036908763 -0.28443137
00000000: 5aa3 743e 4814 973e 40ac 5ebe 50c4 85bd
00000010: 463d 733e 222a 93be 3328 5f3e 19b3 803e
00000020: 2519 893e 1fca cebd 8122 7f3e b885 8e3d
00000030: 4c2a 743e 4e84 003e 4630 a83a 1d8f 92be
00000040: 86fb 3bbe 9130 7b3e 0f3e e13d 9777 b2bd
00000050: b833 983e b596 68be 58ba 503e 735f 8f3e
00000060: ce2d ebbd 2376 8d3d c1cc 3a3e 676e 38bd
00000070: c89e 703d f946 233e f0e7 92bd a167 29be
00000080: 1858 d63d 1703 89be 6fad 82be acb1 293c
00000090: 668f 13be e84a b83d d60c 8e3d e556 7ebe
000000a0: abfa 35be 7a55 8b3e 3a58 e1bc cbbc 3bbd
000000b0: eb49 ffbd ff19 f93d 525e db3d 8c2b e93d
000000c0: 7eb8 ecbd 9465 233e e08b 483e 5adc 8b3e
000000d0: 4658 96be 6b57 cd3d 0983 e3bd 3f31 e5bd
000000e0: d20c 63be 1942 c13d b265 6ebe 3352 2ebe
000000f0: 3b34 debb 3977 dd3d 3903 063e dd38 423e
00000100: 227a 98be 71f5 1abe 7584 373d 528c 5ebe
00000110: 6aa6 1bbe 822f 01be 1542 1a3e 2bce fd3d
00000120: 7323 cebd 2cd2 1abe f0a2 853d ed66 b23d
00000130: 3b02 8e3e ee69 693e 642b 92bd f366 b5bc
00000140: 174f 213e 0b6f 823d 52e6 153e 40bd 923e
00000150: 7d44 ca3d 2402 a8bc cacc 96be 5e88 0ebe
00000160: 076f 143e 410e 8f3e d380 d53d bda6 5bbe
00000170: 6ba0 71be 46bb 903e bd46 c5bd d73c 9dbd
00000180: 49c6 97bd fa1a 333e 5a03 873e 41b6 d73d
00000190: c652 463e 8045 843e fbaf 96be 5ad1 ddbd
000001a0: 1865 1fbe d775 1c3e 812f 5a3e 25f2 283d
000001b0: 694f 5a3e 8ed6 93be cddd 47bd 2bbd 1a3d
000001c0: 229b 97bc 0671 673e 0b94 01be 0a68 793e
000001d0: bc0a b7bd 0204 5f3c cebb 323d 30c4 7c3e
000001e0: 1a5f 58bd ada4 b2bc e5e1 5c3e 1713 973e
000001f0: a8f3 2bbe a47e be3d a1e2 713b fda0 91be

encoder.feature_encoder.atom_embedding_list.8.weight f4 [2, 64]
-0.12962878 0.094227195 0.11005728 0.052805718 0.22103643 0.025297694 0.2842768 -0.06034368
-0.004696929 -0.12774302 -0.23633847 -0.12633425 0.0617491 0.019883333 0.10354913 0.10527295
-0.3017162 0.2577659 -0.072317734 -0.22022745 0.12476646 0.073351644 -0.16304116 -0.002514077
0.24977595 0.069505915 -0.08315096 -0.05412792 0.077001855 0.29811454 -0.06971487 0.27226964
-0.111310065 0.22462843 0.023122832 -0.12015865 0.2521825 0.22250251 -0.04901898 -0.28709465
-0.1515172 -0.035438493 -0.24359624 -0.23682858 -0.024069864 -0.06046406 0.0050238934 -0.14895861
-0.1698823 0.11768424 0.022892212 0.18892822 -0.16622563 -0.12824115 -0.15079147 -0.22282866
0.17356852 -0.04246606 0.30677775 0.17986204 -0.14120033 -0.08417405 0.14286716 -0.20815752
0.25427178 0.05315158 0.08481347 0.25877574 -0.25075883 -0.1087947 -0.12941766 -0.20000648
0.2036134 0.20396657 0.23092563 0.28157002 -0.14461093 0.0088213775 0.095900156 -0.090704955
0.16407578 0.2844208 -0.31534126 -0.05649095 0.17300877 -0.21412414 -0.05519591 0.18292244
0.07999595 -0.16109347 -0.080683716 0.0021059595 0.30735913 -0.20175356 -0.020344114 -0.06257442
0.29186222 0.21491307 -0.03061168 -0.13465929 0.29650965 -0.034920186 -0.0792573 0.24796663
0.08528218 0.023457272 0.26306298 -0.15561372 0.25324646 0.14013481 -0.18678945 0.27096996
0.116904855 -0.23528472 0.24548566 -0.251759 0.032070506 0.12572902 0.1588696 -0.27347752
0.2597748 0.26738042 0.17939451 0.1031502 -0.1930144 0.23465516 0.009638909 -0.04771795
00000000: 68bd 04be 30fa c03d b665 e13d cf4a 583d
00000010: 6057 623e 1c3d cf3c bb8c 913e ef2a 77bd
00000020: b2e8 99bb 11cf 02be b602 72be c45d 01be
00000030: a0ec 7c3d 5fe2 a23c 9111 d43d 5899 d73d
00000040: 8c7a 9abe e4f9 833e 521b 94bd 4e83 61be
00000050: 8f85 ff3d 6339 963d 43f4 26be 36c3 24bb
00000060: 44c5 7f3e 1e59 8e3d 0d4b aabd 3db5 5dbd
00000070: 26b3 9d3d 78a2 983e abc6 8ebd ed66 8b3e
00000080: 88f6 e3bd ff04 663e 186c bd3c bd15 f6bd
00000090: 111e 813e b3d7 633e 20c8 48bd 12fe 92be
000000a0: 5327 1bbe f427 11bd 4b71 79be 3183 72be
000000b0: 2a2e c5bc 2aa9 77bd 799f a43b 9b88 18be
000000c0: a0f5 2dbe 6f04 f13d 7388 bb3c 6676 413e
000000d0: 0d37 2abe a651 03be 1469 1abe 322d 64be
000000e0: f2bb 313e e4f0 2dbd f911 9d3e c12d 383e
000000f0: d296 10be 7263 acbd c54b 123e 3f27 55be
00000100: e92f 823e 79b5 593d afb2 ad3d 417e 843e
00000110: 7663 80be c1cf debd 1086 04be 80ce 4cbe
00000120: 0880 503e 9ddc 503e c577 6c3e f229 903e
00000130: e314 14be 8a87 103c 4d67 c43d 85c3 b9bd
00000140: 7b03 283e 9a9f 913e 6974 a1be 0e63 67bd
00000150: 3629 313e 5c43 5bbe 1b15 62bd 0550 3b3e
00000160: ebd4 a33d b0f5 24be 813d a5bd 2304 0a3b
00000170: 2d5e 9d3e 7c98 4ebe b3a8 a6bc 0427 80bd
00000180: f76e 953e 2c12 5c3e 59c5 fabc 20e4 09be
00000190: 1dd0 973e 7808 0fbd a751 a2bd f7ea 7d3e
000001a0: 6ca8 ae3d 7729 c03c 31b0 863e 3459 1fbe
000001b0: 85a9 813e 807f 0f3e bc45 3fbe 93bc 8a3e
000001c0: d06b ef3d 7aee 70be 9860 7b3e 8ee6 80be
000001d0: 5d5c 033d 1cbf 003e b6ae 223e 3f05 8cbe
000001e0: 3401 853e 16e6 883e 32b3 373e 6940 d33d
000001f0: 91a5 45be 7149 703e 84ec 1d3c e673 43bd
