checkpoints/tuning_multi/trial_21/final_model.pt (torch, 520443 bytes, 104 tensors)

encoder.feature_encoder.atom_embedding_list.0.weight f4 [119, 64]
0	0x3e1de083	0.15417676
1	0x3d37b0d6	0.04484638
2	0xbc83a869	-0.016071515
3	0x3e214f97	0.15753017
4	0xbe15d843	-0.14633279
5	0xbe3d29b0	-0.18472934
6	0xbdb700c4	-0.08935693
7	0x3df603ad	0.1201242
8	0x3e35a2ee	0.17737934
9	0xbd6881ef	-0.05676454
10	0xbe072e9f	-0.13201378
11	0xbe36e85d	-0.17862077
12	0x3d8b679d	0.06806872
13	0xbd864681	-0.06556416
14	0x3e24615f	0.16052769
15	0xbd8a1adc	-0.06743404
16	0x3e19bcae	0.15013382
17	0x3dec2267	0.11529999
18	0x3e20228d	0.1563818
19	0x3d8fce9e	0.07021831
20	0xbe074505	-0.13209923
21	0x3caae2ce	0.020860102
22	0xbdc15942	-0.09440853
23	0xbd33cc42	-0.043895967
24	0x3dd3e9c0	0.10347319
25	0xbdc05dcf	-0.093928926
26	0x3df1798f	0.117907636
27	0xbbe9d60c	-0.007136112
28	0xbdb4609e	-0.08807491
29	0xbd8a0030	-0.06738317
30	0xbe497c53	-0.19676332
31	0x3db50520	0.08838868
32	0x3d0b7507	0.034047153
33	0x3e2135aa	0.15743127
34	0x3d117b6f	0.035518106
35	0x3d80f15c	0.06296036
36	0xbcbacee3	-0.02280373
37	0x3db7f4a0	0.089822054
38	0xbcad8a03	-0.021183973
39	0x3d896c6e	0.067101344
40	0xbdd59078	-0.10427946
41	0x3e089d95	0.13341363
42	0x3d38240f	0.044956263
43	0x3dcfd49c	0.10147974
44	0x3c974c59	0.018469023
45	0x3da8dddc	0.08245441
46	0x3e199a4a	0.15000263
47	0x3c728514	0.014802236
48	0x3e10763f	0.14107607
49	0xbe2e7ccc	-0.17039794
50	0xbc57f30f	-0.013180508
51	0xbe2e698d	-0.17032452
52	0x3cb64b62	0.022252742
53	0x3babbf06	0.0052412776
54	0x3d8bce93	0.0682651
55	0xbd9dd977	-0.07707494
56	0x3dc9f2e1	0.098607786
57	0xbd655b9a	-0.05599556
58	0xbd7bbf85	-0.061461944
59	0x3de1a32d	0.110174514
60	0xbe2ff34e	-0.17182657
61	0x3cef6126	0.029221129
62	0xbe0ecd9e	-0.13945624
63	0x3d704f52	0.058669396
64	0xbe23b83e	-0.15988252
65	0xbe1c4ef7	-0.15264498
66	0xbd9688e4	-0.073503286
67	0x3e08d029	0.13360657
68	0x3d8b7dcf	0.068111055
69	0x3db9c6fb	0.09071156
70	0xbd245b4e	-0.040126137
71	0x3deaf415	0.11472336
72	0xbd70c5bd	-0.058782328
73	0xbcd53d42	-0.026030187
74	0xbe2c40ef	-0.16821645
75	0x3acae9e7	0.0015481085
76	0x3d05a773	0.032630395
77	0xbe214598	-0.15749204
78	0x3e3cf469	0.1845261
79	0x3c4d3637	0.012525133
80	0x3e418798	0.18899381
81	0xbd4523d2	-0.048129864
82	0x3d265ea7	0.04061761
83	0xbda09631	-0.07841147
84	0x3e334be7	0.17509423
85	0xbdfa9322	-0.122350946
86	0x3dc7e9af	0.097613685
87	0xbe075313	-0.13215284
88	0x3df2f0ab	0.1186231
89	0xbe3141ab	-0.17310207
90	0xbd84091d	-0.06447051
91	0xbd76f7eb	-0.060295027
92	0xbd37176b	-0.044700067
93	0x3be50153	0.0069886832
94	0x3d64e476	0.05588194
95	0x3e37e76a	0.17959371
96	0x3dfaf240	0.12253237
97	0xbdac8c23	-0.084251665
98	0x3e1401da	0.14453831
99	0xbd13ebd5	-0.03611358
100	0xbdefb5d5	-0.117046036
101	0x3d86093f	0.06544732
102	0xbcf51cc5	-0.029920945
103	0x3e316c6e	0.17326519
104	0x3cbaaf72	0.022788737
105	0x3e172115	0.14758714
106	0x3d3511d8	0.04420647
107	0xbde6dee9	-0.112729855
108	0x3d6cdd72	0.057828374
109	0xbd878f0e	-0.066190824
110	0xbd37a472	-0.04483456
111	0xbd886cf1	-0.06661404
112	0xbe0ef13a	-0.13959208
113	0x3d82a7d3	0.06379666
114	0x3e05463f	0.13015078
115	0xbe2b0d32	-0.16704252
116	0x3dc73f7e	0.09728907
117	0xbe16b634	-0.14717942
118	0xbe3e99f2	-0.18613413
119	0x3d7fc653	0.062444996
120	0x3c4b0c65	0.012393092
121	0xbde18eb6	-0.11013548
122	0x3e0f4d35	0.13994296
123	0x3b610f9f	0.0034341586
124	0xbe214ac5	-0.15751179
125	0x3da33b44	0.079702884
126	0x3bf1d026	0.0073795496
127	0xbc927859	-0.017879652
128	0xbe03ff3c	-0.12890333
129	0xbb85d6a9	-0.0040844274
130	0x3ddac031	0.10681189
131	0xbdbcd187	-0.09219652
132	0x3db0fcda	0.086419776
133	0xbe36379f	-0.17794655
134	0xbdaa734f	-0.083227746
135	0xbd60a8f1	-0.054848615
136	0xbe16b8b4	-0.14718896
137	0x3d848987	0.06471544
138	0xbe08a984	-0.13345915
139	0x3dc45005	0.09585575
140	0x3d1bcf8e	0.038039736
141	0x3b1d88f7	0.0024037936
142	0xbdc5b255	-0.09653155
143	0xbd282fd2	-0.04106123
144	0x3d340e14	0.04395874
145	0x3e2383af	0.15968202
146	0xbdb05df2	-0.08611669
147	0xbdfc50ee	-0.123201236
148	0xbdae08b6	-0.08497755
149	0xbe0530a2	-0.13006833
150	0xbcc3471f	-0.023837624
151	0xbe042934	-0.12906343
152	0x3e0670a9	0.13128914
153	0x3e041a75	0.12900718
154	0xbdd2f302	-0.10300256
155	0x3e1a42a2	0.15064481
156	0x3c84163e	0.016123887
157	0xbdcd8ba5	-0.10036401
158	0x3d765882	0.060143
159	0xbe10429c	-0.1408791
160	0xbdd2f6ff	-0.10301017
161	0xbdfc6298	-0.12323493
162	0xbde2e3c6	-0.110786006
163	0xbd208a3a	-0.039194323
164	0x3d70a102	0.0587473
165	0x3cd07d26	0.0254503
166	0xbe3112f8	-0.17292392
167	0xbe3179d2	-0.17331627
168	0xbce10986	-0.027470361
169	0x3e18522c	0.14875096
170	0x3d896006	0.06707768
171	0x3e2d7f8f	0.16943191
172	0xbdafb463	-0.08579328
173	0x3d8089eb	0.06276306
174	0xbe216be6	-0.15763816
175	0x3dde9374	0.10867968
176	0xbc7362b8	-0.014855079
177	0xbc792610	-0.015206829
178	0xbdaf8dad	-0.085719444
179	0xbe220189	-0.15820898
180	0xbd888889	-0.06666667
181	0xbc8c2989	-0.01710965
182	0xbdc4eeba	-0.09615846
183	0x3d9aff3d	0.07568214
184	0xbd38beea	-0.045103945
185	0x3cda0e57	0.026618166
186	0xbe1ee10b	-0.15515535
187	0x3d630bbf	0.055431124
188	0xbdf31df9	-0.11870951
189	0xbe0c1a9d	-0.13682027
190	0xbd7d4aa5	-0.061838765
191	0xbe3697ad	-0.17831297
192	0xbe0d86dc	-0.13820976
193	0x3e0a3e24	0.13500267
194	0x3e17c518	0.14821279
195	0xbe00ca43	-0.12577157
196	0x3d20d85c	0.039268836
197	0xbdbf02a1	-0.09326673
198	0x3e2d8167	0.16943894
199	0x3de264bd	0.110543706
200	0x3d937261	0.071995504
201	0xbe172c05	-0.14762886
202	0xbdb666e9	-0.08906347
203	0xbd1bde91	-0.038054053
204	0xbe25c61f	-0.16188858
205	0xbdd8b90d	-0.10582171
206	0x3d4344d0	0.047673047
207	0xbe16f183	-0.14740567
208	0x3d4555b9	0.048177455
209	0xbb8797c4	-0.004137965
210	0xbc744e18	-0.014911197
211	0xbd58a4c5	-0.05289151
212	0xbdc74c1e	-0.09731315
213	0xbe2d5ad3	-0.16929178
214	0xbdfc5934	-0.12321702
215	0x3e0c0843	0.13675027
216	0xbc5be5ad	-0.013421458
217	0x3e348cc6	0.17631826
218	0x3c1c66e4	0.009546015
219	0xbcaed778	-0.021342978
220	0x3dde6349	0.10858781
221	0xbe2e907f	-0.17047308
222	0xbde5d9a9	-0.11223156
223	0x3dd4b9ff	0.103870384
224	0xbd416d82	-0.047223575
225	0x3e12b1dd	0.14325662
226	0xbc87730e	-0.016534355
227	0x3e043b12	0.12913159
228	0x3c1014e5	0.008794044
229	0x3c9a0b78	0.018804297
230	0xbe1c9c12	-0.15293911
231	0xbd8027d8	-0.062575996
232	0x3c14bf84	0.009078864
233	0x3da96fc7	0.08273273
234	0x3d0fe820	0.03513348
235	0xbd210747	-0.03931358
236	0x3aa03bef	0.0012224893
237	0x3e1f63cc	0.15565413
238	0x3df75ebe	0.120786175
239	0x3d7d123a	0.06178496
240	0xbe05a035	-0.13049395
241	0xbd796114	-0.060883597
242	0x3decc184	0.11560348
243	0x3e26e87e	0.16299626
244	0xbdaf4fed	-0.085601665
245	0x3d9d91c0	0.07693815
246	0xbd2dab12	-0.042399473
247	0x3deb3e4e	0.11486493
248	0xbcdee26f	-0.027207581
249	0xbe1363b3	-0.14393501
250	0xbe3788e5	-0.17923315
251	0xbbde4ec5	-0.0067842924
252	0x3d5aa5dc	0.053380832
253	0xbdda9ad3	-0.106740616
254	0x3e11e1a1	0.14246227
255	0x3dafe5d5	0.08588759

encoder.feature_encoder.atom_embedding_list.1.weight f4 [5, 64]
0	0xbdd97131	-0.10617293
1	0xbd70193e	-0.058617823
2	0x3daaab57	0.08333462
3	0x3e4663a4	0.19373947
4	0x3def14ce	0.1167389
5	0x3e7d5adf	0.24741696
6	0x3dde967d	0.10868547
7	0x3dfa85ee	0.12232576
8	0x3cd4e563	0.025988286
9	0x3e858db6	0.2608468
10	0x3e57fb41	0.2109194
11	0x3e0ef3c6	0.1396018
12	0xbe88d763	-0.26726827
13	0xbcdc7c7e	-0.026914831
14	0xbdad1c75	-0.084526934
15	0xbc4c88be	-0.012483774
16	0x3e6e2c91	0.23259188
17	0xbe4aa92d	-0.19791098
18	0xbe0cec06	-0.13761911
19	0xbe094c61	-0.13408042
20	0xbb2cf514	-0.0026391195
21	0xbe396dd1	-0.18108298
22	0x3da8512b	0.082186066
23	0xbe726402	-0.23670962
24	0xbe03bd95	-0.12865289
25	0x3e2c6332	0.16834715
26	0x3e36ac29	0.17839111
27	0xbd626429	-0.0552713
28	0xbc97a416	-0.01851086
29	0x3c8d1c83	0.01722551
30	0xbe271be9	-0.1631924
31	0xbd3d2fde	-0.046188228
32	0x3e0bc060	0.13647604
33	0x3aaf06ed	0.0013353504
34	0x3e5f44f2	0.21803644
35	0xbe61d40c	-0.22053546
36	0xbe74b098	-0.2389549
37	0xbe763b19	-0.24045981
38	0xbe2873c0	-0.16450405
39	0x3d94535a	0.072424605
40	0x3e4289bd	0.18997855
41	0xbe53427c	-0.2063083
42	0xbe699833	-0.22811966
43	0xbdb3cf6a	-0.087797955
44	0x3e553f76	0.2082499
45	0x3e109763	0.1412025
46	0xbcfb0844	-0.03064359
47	0x3e63671c	0.22207302
48	0x3d9d3b05	0.07677273
49	0x3e6c59f9	0.23081197
50	0xbce9171a	-0.028453398
51	0xbe42294c	-0.18961066
52	0x3b2e2e50	0.0026577897
53	0x3dd6d8c6	0.10490565
54	0x3e0d8178	0.1381892
55	0x3c601391	0.01367654
56	0xbc8994a8	-0.016794518
57	0x3d67c995	0.056588728
58	0xbd5a9fa4	-0.0533749
59	0x3d95d1c5	0.07315401
60	0xbe183f54	-0.14867908
61	0xbd7951c3	-0.06086899
62	0x3e2d1fad	0.16906615
63	0x3dbd9721	0.09257341
64	0x3e2d0db7	0.16899763
65	0xbe38ab63	-0.18034129
66	0xbdbc9099	-0.09207267
67	0xbe283412	-0.16426113
68	0xbe7d3281	-0.24726297
69	0xbe041f83	-0.12902646
70	0xba952e65	-0.0011381624
71	0xbd297a23	-0.041376244
72	0xbb9bef11	-0.0047587235
73	0xbe2f9f73	-0.17150669
74	0xbcc0763c	-0.023493879
75	0x3d6f600d	0.05844121
76	0x3e4b7464	0.19868618
77	0x3e3db3ca	0.18525615
78	0xbe62e24a	-0.22156635
79	0xbe53b519	-0.20674552
80	0x3e7114d7	0.23543106
81	0x3e5eda55	0.21762975
82	0x3e4e1f9f	0.2012925
83	0xbe3366e6	-0.17519721
84	0x3e884ef6	0.26622742
85	0xbe957fe6	-0.2919914
86	0xbe738246	-0.23780164
87	0x3ceadf71	0.028670998
88	0x3df627e3	0.120193265
89	0xbe8cdddb	-0.27513012
90	0x3d80589c	0.06266901
91	0xbc3460e4	-0.011009429
92	0xbd3e9079	-0.0465245
93	0xbe620d9e	-0.22075507
94	0xbe0ec791	-0.13943316
95	0x3d13a675	0.036047418
96	0x3db5c481	0.08875371
97	0x3e37d226	0.17951259
98	0xbdf3ab03	-0.11897852
99	0x3e8f5fd1	0.2800279
100	0x3db88673	0.09010019
101	0xbe48ebf0	-0.19621253
102	0xbe9295af	-0.28629825
103	0x3e45983c	0.19296354
104	0x3c915c84	0.01774431
105	0xbc9d67d6	-0.019214552
106	0xbde11b5f	-0.10991549
107	0x3e0ad2e4	0.13557011
108	0xbdc1ba49	-0.09459359
109	0xbe4316d1	-0.19051673
110	0x3e4e46db	0.20144217
111	0xbe00c0a1	-0.12573482
112	0x3e2f7d6f	0.17137693
113	0xbe5792ff	-0.21052168
114	0xbd426977	-0.04746386
115	0xbe28abf9	-0.16471852
116	0x3c94ad77	0.01814912
117	0xbd593112	-0.053025313
118	0x3dbc9707	0.09208494
119	0xbe6a3751	-0.22872664
120	0xbe7a55a6	-0.24446735
121	0x3e736284	0.2376805
122	0xbe813ee8	-0.25243306
123	0x3daacf26	0.08340292
124	0xbe831fbe	-0.25610155
125	0x3d3b0b3c	0.04566501
126	0x3c1d9cbc	0.009619888
127	0xbe1c7afa	-0.15281287
128	0xbbc6f9f4	-0.006072277
129	0x3d144b6e	0.036204748
130	0x3c073343	0.008251968
131	0x3e64717d	0.22308917
132	0xbe2cf646	-0.16890821
133	0x3e08bc49	0.13353075
134	0x3e8b0dcd	0.27158967
135	0xbe58e3c6	-0.21180639
136	0xbe6c82e9	-0.23096813
137	0x3dcc1c78	0.099663675
138	0xbdd663d0	-0.104682565
139	0xbbd9eb9d	-0.0066504017
140	0xbe8cd6a3	-0.27507505
141	0x3e38727b	0.18012421
142	0xbc9f7db3	-0.019469118
143	0x3c94840c	0.018129371
144	0xbdd1ede4	-0.10250452
145	0x3dd1a5af	0.1023668
146	0xbb9e75b4	-0.0048358086
147	0xbdf0afd8	-0.117522895
148	0x3d960509	0.07325179
149	0xbde03ce2	-0.109491125
150	0x3de020e4	0.109437734
151	0xbe909b1c	-0.2824334
152	0xbde9ad12	-0.11409964
153	0xbe4ee553	-0.20204668
154	0x3e00782c	0.12545842
155	0xbe540aa7	-0.20707189
156	0x3e69f642	0.22847846
157	0x3d930c5d	0.071800925
158	0x3e3910a6	0.18072757
159	0xbe44f95c	-0.19235748
160	0xbe754b18	-0.23954427
161	0xbd4635a2	-0.048390992
162	0xbe25ea61	-0.1620269
163	0xbdcc8f20	-0.099882364
164	0x3e78368b	0.24239556
165	0x3e216492	0.15761021
166	0xbdb26f1a	-0.08712597
167	0x3e375cb5	0.17906459
168	0xbe4a4224	-0.19751793
169	0xbe2f7764	-0.17135388
170	0x3e05c04a	0.13061634
171	0x3e025d92	0.12731007
172	0xbdae9e1d	-0.085262515
173	0xbe4e0fdd	-0.20123239
174	0x3d3cc985	0.04609062
175	0x3e91a5f8	0.28446937
176	0x3e9498a3	0.29022703
177	0x3e77ba92	0.24192265
178	0xbe62712c	-0.22113484
179	0x3e482a5f	0.19547413
180	0x3d5d311e	0.05400192
181	0xbe75172d	-0.23934622
182	0x3c9b2694	0.018939294
183	0xbe91ce19	-0.28477553
184	0x3d81a5bd	0.0633044
185	0xbe260a43	-0.16214852
186	0xbe4b2b91	-0.19840838
187	0x3c6b166a	0.014348606
188	0x3e4ba9e6	0.1988903
189	0x3e297c9e	0.16551444
190	0xbe3add73	-0.18248539
191	0x3e2bc19b	0.16773073
192	0x3de0b455	0.109718956
193	0xbe499453	-0.19685487
194	0xbd9bc5b4	-0.07606068
195	0xbd90b8eb	-0.0706652
196	0xbe756dba	-0.23967639
197	0xbe89c458	-0.2690761
198	0xbe4d0d0d	-0.2002451
199	0x3e894105	0.26807418
200	0xbda076c9	-0.078351565
201	0x3ce7e26a	0.028306205
202	0xbe7abf0a	-0.24486938
203	0xbd4fc2d9	-0.05072293
204	0x3de42aa9	0.11140949
205	0xbbc3cfe8	-0.005975712
206	0xbcbdd5d4	-0.02317325
207	0xbb80b608	-0.00392795
208	0x3e4b0894	0.19827491
209	0xbe54b892	-0.20773533
210	0xbe87958f	-0.26481292
211	0xbe916caf	-0.28403232
212	0x3df590d3	0.11990514
213	0xbe283481	-0.16426279
214	0xbe04115f	-0.12897252
215	0xbd1fc1f7	-0.03900334
216	0x3e310609	0.17287458
217	0x3b27f6cb	0.0025629278
218	0x3d6c6bed	0.057720114
219	0xbda9a384	-0.08283141
220	0x3e2456a3	0.16048674
221	0xbe16a433	-0.14711075
222	0x3e68c266	0.22730407
223	0x3e788e35	0.24272998
224	0xbe87d0aa	-0.26526386
225	0xbdbf399b	-0.09337159
226	0xbd118bcc	-0.03553371
227	0xbe229940	-0.15878773
228	0x3c81b509	0.015833395
229	0xbdc637eb	-0.09678634
230	0x3e79fcaa	0.2441279
231	0xbcbf1d39	-0.023329364
232	0xbe28cb33	-0.16483764
233	0xbe15f151	-0.14642836
234	0xbe8d1ac0	-0.2755947
235	0xbe39961c	-0.18123668
236	0x3d6a813d	0.057252157
237	0x3db66ccd	0.08907471
238	0xbe0224ea	-0.12709394
239	0x3b44a0af	0.0030003001
240	0x3e1782a2	0.14795926
241	0x3d1fa846	0.038978837
242	0x3d081257	0.033220615
243	0xbe461716	-0.19344744
244	0x3e8df29c	0.2772416
245	0xbdb24af1	-0.087057
246	0x3cc74851	0.024326475
247	0xbd14bee0	-0.036314845
248	0x3e032f87	0.12811099
249	0xbe7a1d07	-0.24425136
250	0x3d89701c	0.06710836
251	0xbe6a6239	-0.22889031
252	0x3e6e5784	0.23275572
253	0xbdee0c4d	-0.1162344
254	0x3d76921d	0.06019794
255	0x3c9fdd05	0.01951457

encoder.feature_encoder.atom_embedding_list.2.weight f4 [12, 64]
0	0x3bd48325	0.00648536
1	0xbdfcf69f	-0.12351727
2	0xbe520763	-0.2051063
3	0xbe0f0c52	-0.13969544
4	0x3e04d0d4	0.12970287
5	0xbe62a002	-0.2213135
6	0x3e877e94	0.2646376
7	0xbe507717	-0.20357929
8	0x3dc49a6d	0.09599767
9	0x3e90bacc	0.28267515
10	0xbe05ee08	-0.13079083
11	0xbe47d09a	-0.19513169
12	0xbe2534c0	-0.16133404
13	0xbdeae53f	-0.114695065
14	0xbe22a10e	-0.1588175
15	0xbe961aa3	-0.29317197
16	0xbe17e188	-0.14832127
17	0xbdb22905	-0.0869923
18	0x3e945af1	0.28975633
19	0xbd9e060a	-0.077159956
20	0x3d3cdfb1	0.046111766
21	0xbdd664d7	-0.104684524
22	0x3d3f0727	0.04663768
23	0x3e1ab6d8	0.15108812
24	0x3d2fa16a	0.042878546
25	0xbd3739a4	-0.044732705
26	0x3d0ad254	0.03389199
27	0x3e840f46	0.25792903
28	0xbe43da1f	-0.19126175
29	0x3e8e95bb	0.2784861
30	0xbd9a1022	-0.07522608
31	0x3e6a3e2c	0.22875279
32	0x3e6dd0f3	0.23224239
33	0x3b591a94	0.0033127414
34	0xbcb60c24	-0.022222586
35	0x3e43b137	0.19110571
36	0xbd6addb1	-0.057340328
37	0x3d9d128a	0.07669552
38	0x3e8f2713	0.279595
39	0xbd402eee	-0.046919756
40	0xbdd57506	-0.10422711
41	0x3e799a8d	0.24375363
42	0x3e80f6f3	0.25188407
43	0x3e916b27	0.28402063
44	0xbe840579	-0.25785425
45	0x3e49ac1a	0.19694558
46	0x3e139063	0.14410548
47	0xbe3d12f7	-0.18464266
48	0x3e3a559e	0.18196723
49	0xbe2bfc1d	-0.16795392
50	0x3e14bb9c	0.14524692
51	0x3cdda84b	0.027057787
52	0x3dc5aeac	0.09652457
53	0xbe564cd4	-0.20927745
54	0xbd2cd69e	-0.042196862
55	0xbe1c69ca	-0.1527473
56	0x3e2ac87f	0.16678046
57	0xbe40021d	-0.18750806
58	0x3bf75f4e	0.007549203
59	0x3da0af27	0.07845908
60	0xbba5ef63	-0.0050639375
61	0xbdad07ba	-0.08448739
62	0x3d73ba91	0.059504095
63	0x3af4d76b	0.0018679922
64	0xbe0039ed	-0.12522097
65	0xbd9fd5d6	-0.07804458
66	0xbd5b88b8	-0.053597182
67	0xbe286c72	-0.16447619
68	0xbb3257e4	-0.0027213031
69	0xbdd5c714	-0.10438362
70	0xbe1cff4a	-0.1533176
71	0xbe7ba8bb	-0.24576084
72	0xbe2f7246	-0.17133436
73	0xbd6639c3	-0.05620743
74	0x3e5f9f00	0.21837997
75	0xbd650b95	-0.05591925
76	0xbe2006d0	-0.15627599
77	0xbe58fa60	-0.2118926
78	0x3dca4efe	0.09878348
79	0x3e5ab81e	0.21359298
80	0xbe811872	-0.25213963
81	0x3e7ea7d7	0.24868713
82	0x3e89843e	0.26858705
83	0x3d1f7021	0.038925294
84	0x3e1e273c	0.15444654
85	0x3da1a12d	0.0789207
86	0xbe70ce43	-0.23516183
87	0xbe03e9f3	-0.12882213
88	0xbdd0764c	-0.10178813
89	0xbe43069d	-0.19045492
90	0x3bb8a9d8	0.0056354813
91	0x3d8fd38f	0.070227735
92	0x3b675997	0.0035301202
93	0x3e30b441	0.17256261
94	0xbe2aca80	-0.1667881
95	0x3e892d0e	0.26792186
96	0xbdeb2640	-0.11481905
97	0x3e61d53f	0.22054003
98	0x3e72dc2f	0.23716806
99	0xbe3fbf44	-0.18725306
100	0xbe9dbc5c	-0.3080777
101	0x3e61af24	0.22039467
102	0x3e6dfbd1	0.23240592
103	0xbd2c336d	-0.04204123
104	0x3d5a1ed8	0.05325207
105	0x3d64c6c4	0.05585362
106	0xbdc16066	-0.09442215
107	0x3e15b5af	0.14620088
108	0x3defbd44	0.117060214
109	0xbe80705f	-0.25085732
110	0xbda96780	-0.08271694
111	0xbe25cd29	-0.16191544
112	0x3e099dfb	0.13439171
113	0xbe88f569	-0.26749733
114	0xbe718eba	-0.23589602
115	0xbe8dcc6c	-0.27695024
116	0xbdca64a8	-0.0988248
117	0xbe5efb83	-0.21775632
118	0xbd5e35bd	-0.054250468
119	0xbe23baf5	-0.15989287
120	0x3e406d52	0.18791702
121	0x3e7f796a	0.2494866
122	0x3dc4d7bd	0.09611461
123	0xbdbd0705	-0.092298545
124	0x3e1f550d	0.15559788
125	0xbe8e1dd3	-0.2775713
126	0xbdea148d	-0.11429701
127	0xbd83664f	-0.06415998
128	0xbe813a4c	-0.2523979
129	0x3e90c446	0.28274745
130	0x3e2a4910	0.16629434
131	0x3e06c93f	0.13162707
132	0x3e08972c	0.13338917
133	0x3e848825	0.2588512
134	0xbdbacac5	-0.091207065
135	0x3cd1ba24	0.025601454
136	0xbdfe450e	-0.12415515
137	0xbbee3dcb	-0.00727055
138	0xbe626ff9	-0.22113027
139	0x3e440809	0.1914369
140	0xbe540bbe	-0.20707604
141	0xbddad8d5	-0.10685889
142	0x3e84354a	0.25821906
143	0xbe3f2eb7	-0.18670164
144	0xbc3fb40a	-0.0117006395
145	0xbe885e7b	-0.26634583
146	0xbe643943	-0.22287469
147	0x3e6d1ff0	0.23156714
148	0x3e24179f	0.16024636
149	0x3c430ede	0.0119054
150	0xbe024009	-0.1271974
151	0x3e6c14be	0.23054788
152	0x3e9b45d9	0.30326727
153	0x3db6050b	0.088876806
154	0xbe5e3c3f	-0.2170267
155	0x3c9b6cd9	0.018972801
156	0x3e0b5d2a	0.13609758
157	0x3dc79fcc	0.09747276
158	0x3e51b0bf	0.2047758
159	0x3e6b6d14	0.22990829
160	0x3e0f3f8c	0.13989085
161	0xbe3c58a7	-0.18393193
162	0xbb852448	-0.004063163
163	0x3da0bc2d	0.07848392
164	0xbdb252f7	-0.087072305
165	0x3dbd5c9a	0.09246178
166	0x3e5dec1e	0.21672103
167	0xbe2bff45	-0.16796596
168	0xbdbfafa0	-0.0935967
169	0xbe5f3ebf	-0.2180128
170	0x3d25149b	0.040302854
171	0x3e2461cf	0.16052936
172	0x3e9304be	0.28714556
173	0x3ce78ed5	0.02826635
174	0x3e1ee61c	0.15517467
175	0xbe991089	-0.29895428
176	0xbd79be30	-0.060972393
177	0xbd9cbfd5	-0.076537766
178	0xbde6d0ef	-0.1127032
179	0x3e6a2949	0.22867312
180	0x3e44e425	0.19227655
181	0xbe48f91d	-0.19626279
182	0xbe86abc5	-0.26302925
183	0xbe03c17b	-0.12866776
184	0x3d98b783	0.07456877
185	0x3e15c2e0	0.1462512
186	0x3e2aab4f	0.16666912
187	0x3e5784d6	0.21046767
188	0xbe6c17e4	-0.23055989
189	0x3d96ae5d	0.07357476
190	0xbde46a09	-0.11153037
191	0xbe09dfce	-0.13464281
192	0x3c6c3cb3	0.014418769
193	0xbd1fd50e	-0.039021544
194	0xbe63e3c5	-0.22254856
195	0xbc9eaa81	-0.019368412
196	0x3dd5432b	0.10413202
197	0x3e80a16a	0.2512315
198	0xbd5c4cbc	-0.053784117
199	0x3e35de5d	0.17760606
200	0xbdb6d081	-0.08926488
201	0xbe4d6ff9	-0.20062245
202	0x3e67edeb	0.22649352
203	0xbdc5fd17	-0.09667414
204	0xbd94d36d	-0.07266889
205	0xbd75e03d	-0.060028303
206	0x3e828637	0.25493023
207	0xbdaf785a	-0.08567877
208	0xbd3f983b	-0.046776038
209	0x3c983b3c	0.018582933
210	0xbe352408	-0.17689526
211	0x3de6b7fd	0.11265562
212	0x3e6b4beb	0.22978179
213	0x3dc27f71	0.09496964
214	0xbcd92502	-0.026506905
215	0xbd65dfd9	-0.05612168
216	0xbe9d3463	-0.3070403
217	0xbe568155	-0.20947774
218	0xbdbc5727	-0.091963105
219	0x3e43e0b9	0.19128694
220	0x3e788336	0.24268803
221	0xbad73576	-0.0016419131
222	0xba98b130	-0.0011649486
223	0x3e6ed59e	0.23323676
224	0xbd968589	-0.073496886
225	0xbe572e39	-0.21013726
226	0x3e028823	0.12747245
227	0xbe1d1ca8	-0.15342963
228	0xbe548eea	-0.20757642
229	0x3bd00215	0.0063479044
230	0xbe55ea5b	-0.20890181
231	0xbe4f9635	-0.20272143
232	0xbe1e98fa	-0.15488043
233	0x3b0541a5	0.0020333317
234	0x3dc56271	0.09637917
235	0xbdee6cf4	-0.11641875
236	0xbe807f39	-0.25097063
237	0xbdc03f51	-0.09387077
238	0x3e8f683b	0.2800921
239	0xbde00286	-0.10937981
240	0xbe57467b	-0.2102298
241	0xbe00395c	-0.12521881
242	0x3e7315fa	0.23738852
243	0x3d5f82a4	0.054567948
244	0xbd215607	-0.039388683
245	0x3e93230c	0.28737676
246	0x3c1fab38	0.009745412
247	0x3d6b51a2	0.057450898
248	0x3e89555f	0.26822945
249	0xbcaec966	-0.021336269
250	0xbd4e91f7	-0.05043217
251	0x3e74280d	0.23843403
252	0x3e0f24f8	0.13978946
253	0xbe5cfd0c	-0.21580905
254	0x3e3096b5	0.1724499
255	0xbddb0c5d	-0.106957175

encoder.feature_encoder.atom_embedding_list.3.weight f4 [12, 64]
0	0x3e39d99b	0.18149416
1	0x3d397306	0.04527571
2	0x3ddaeed5	0.10690085
3	0x3e825920	0.25458622
4	0x3e2a63f4	0.16639692
5	0x3e421883	0.18954663
6	0xbe1b7844	-0.15182596
7	0xbe6ad27b	-0.22931854
8	0x3e6739bb	0.22580616
9	0x3e8f9d2f	0.2804961
10	0x3e09a685	0.13442428
11	0x3db90532	0.09034194
12	0xbd94ebe9	-0.07271559
13	0x3de4a0c8	0.11163479
14	0xbe00bc81	-0.12571909
15	0xbcd63fdc	-0.026153497
16	0x3e7ec981	0.24881555
17	0xbe2375f8	-0.1596297
18	0xbe5a87c8	-0.21340859
19	0xbd5a36d4	-0.053274944
20	0x3e118f66	0.14214858
21	0xbe8c39e3	-0.27387914
22	0x3e3ca760	0.18423223
23	0x3c67788f	0.0141278645
24	0x3c30f741	0.010801137
25	0x3e34493c	0.17606062
26	0x3e1e0fe7	0.15435754
27	0xbc3318f7	-0.010931245
28	0xbe8248b7	-0.25446102
29	0x3e81101c	0.25207603
30	0xbdda7a96	-0.10667913
31	0xbe0a5a49	-0.13511004
32	0x3dd94ff3	0.10610952
33	0x3e3768cb	0.17911069
34	0x3cbb2039	0.022842513
35	0xbe2a370c	-0.16622561
36	0xbe8bb7e4	-0.27288735
37	0x3de56000	0.11199951
38	0x3dcd8ff5	0.10037223
39	0x3e23dd52	0.16002396
40	0x3e88b042	0.26696974
41	0xbe11b814	-0.14230376
42	0x3d9d2ef6	0.07674973
43	0x3e91591f	0.28388306
44	0x3bf894a1	0.0075860773
45	0xbdcf1285	-0.10110954
46	0xbe708846	-0.23489484
47	0x3916becd	0.00014376194
48	0xbdfa299c	-0.122149676
49	0xbe51e2d1	-0.2049668
50	0xbe879941	-0.2648411
51	0x3ddfb407	0.10923009
52	0xbcc83348	-0.024438515
53	0x3dafedfb	0.08590313
54	0x3e28d9dd	0.16489358
55	0xbe8ef784	-0.27923214
56	0xbda80a3a	-0.082050756
57	0x3e89d624	0.2692119
58	0xbd8c6dc1	-0.068568714
59	0x3e204d26	0.1565443
60	0xbe8490c5	-0.258917
61	0x3e73adc5	0.23796757
62	0x3e008d8c	0.12553996
63	0xbe4f55b0	-0.20247531
64	0x3d97dab9	0.07414765
65	0x3e45edff	0.1932907
66	0x3dfbb2a2	0.12289931
67	0x3d7532fb	0.059863072
68	0xbe0a9da1	-0.13536693
69	0xbdcc345a	-0.09970923
70	0xbe5fc370	-0.21851897
71	0x3e7a8bf1	0.24467446
72	0x3d93adfb	0.072109185
73	0x3d37529d	0.04475652
74	0xbe2a31e6	-0.16620597
75	0xbe643c97	-0.22288738
76	0xbd39ce33	-0.045362663
77	0x3e274de1	0.16338302
78	0x3e80140b	0.25015292
79	0xbd308dbc	-0.04310392
80	0x3e07164f	0.13192104
81	0xbd2e8904	-0.042611137
82	0xbd253b2c	-0.040339634
83	0x3e837359	0.2567394
84	0x3db2ac20	0.087242365
85	0x3e859943	0.26093492
86	0xbe8f6041	-0.28003123
87	0x3cf3d980	0.029766798
88	0xbdce29d4	-0.10066572
89	0x3e4e373e	0.2013826
90	0x3e1d1c91	0.15342928
91	0x3d4f1082	0.050552852
92	0x3e23ddce	0.1600258
93	0xbe1222c0	-0.14271069
94	0xbd817307	-0.06320768
95	0x3e28f499	0.16499557
96	0xbe13d415	-0.14436372
97	0x3d9d6a88	0.07686335
98	0x3d4be24d	0.049776364
99	0xbe6ab88c	-0.22921962
100	0xbe4ce13d	-0.20007797
101	0xbe404b7d	-0.18778796
102	0xbe777c88	-0.24168599
103	0xbdc0284e	-0.093826875
104	0x3dc804a3	0.097665094
105	0x3e0447d5	0.12918027
106	0x3e21878a	0.1577436
107	0x3d3a3a10	0.04546553
108	0xbe2d0748	-0.16897309
109	0xbe794fbd	-0.24346824
110	0x3e83bf40	0.2573185
111	0x3d4334c4	0.047657743
112	0x3e5df489	0.21675314
113	0xbe8681d3	-0.26270923
114	0xbe231112	-0.1592448
115	0xbac7f8f9	-0.0015256695
116	0x3e6a460c	0.22878283
117	0xbe73ebda	-0.23820439
118	0xbe1fe763	-0.15615611
119	0xbe5a4673	-0.21315937
120	0x3e23fd9e	0.16014716
121	0x3cc8aa10	0.024495155
122	0xbdf9ce6a	-0.121975735
123	0x3e2d61ff	0.16931914
124	0xbe4c0f1d	-0.1992764
125	0xbd03e390	-0.032199442
126	0xbdff5df1	-0.1246909
127	0xbda279fa	-0.079334214
128	0x3b99f4fc	0.004698394
129	0xbbe7e707	-0.007077101
130	0x3e895ca7	0.268285
131	0xbe791796	-0.24325404
132	0xbe008dbc	-0.12554067
133	0xbcaf55a9	-0.02140315
134	0xbdda0aeb	-0.10646614
135	0x3e67c4e1	0.22633697
136	0x3e1af302	0.15131763
137	0x3e5e3552	0.21700028
138	0x3e59d866	0.21273956
139	0xbc673aa4	-0.014113102
140	0x3e48971d	0.19588895
141	0xbc391cc9	-0.011298367
142	0x3e4a46a1	0.19753505
143	0x3c948371	0.018129082
144	0x3dbbdf5b	0.09173461
145	0x3de46fb7	0.111541204
146	0xbdda6e5e	-0.10665582
147	0x3e66bea8	0.22533667
148	0x3e6410d5	0.22272046
149	0xbd8b11a5	-0.06790475
150	0xbdaa56c0	-0.083173275
151	0xbe7f4ad0	-0.24930882
152	0x3e0be0ae	0.13659927
153	0xbe4f05af	-0.20217012
154	0xbe76e3be	-0.24110314
155	0x3e6cc232	0.23120955
156	0x3d9b610c	0.075868696
157	0x3e6f6223	0.2337728
158	0xbe70afec	-0.23504609
159	0xbe2213a0	-0.15827799
160	0xbd7c0f2f	-0.061537918
161	0x3e31dec0	0.17370129
162	0xbe5a6e36	-0.21331105
163	0xbe815a9f	-0.2526445
164	0xbdc92eec	-0.09823403
165	0xbe1544de	-0.14577052
166	0x3e849df4	0.2590176
167	0x3e0a9056	0.13531622
168	0xbe4234bb	-0.18965428
169	0xbdbb09f9	-0.091327615
170	0xbc2d5d0c	-0.010581266
171	0xbe340f9d	-0.17584081
172	0xbe5cac18	-0.21550024
173	0x3e756817	0.23965488
174	0xbe45a931	-0.19302823
175	0x3e25ac63	0.16179042
176	0xbdb70896	-0.089371845
177	0xbe6dca1d	-0.23221631
178	0xbe0dbc2e	-0.13841316
179	0xbe03d545	-0.12874325
180	0xbe4369fb	-0.19083397
181	0xbe1c3e02	-0.15258029
182	0xbb5391a7	-0.003228286
183	0xbe177fa0	-0.14794779
184	0x3e544d2d	0.20732565
185	0xbe8ad134	-0.27112734
186	0xbd655323	-0.05598749
187	0x3e322f76	0.17400917
188	0xbe3bdc76	-0.18345818
189	0xbd767d2f	-0.060177978
190	0xbe74722a	-0.23871675
191	0xbe85d22a	-0.26136905
192	0x3e014ef8	0.1262778
193	0x3d800d91	0.062525876
194	0x3d0a9ad1	0.03383905
195	0x3e5c0dfc	0.2148971
196	0x3c15469e	0.009111075
197	0xbe6611ff	-0.22467802
198	0xbe94c538	-0.29056716
199	0x3d3a5b37	0.045497146
200	0xbe28dc56	-0.16490301
201	0x3e826825	0.2547008
202	0xbd29e7a8	-0.04148069
203	0x3e7cfd70	0.24706054
204	0xbd5ca0ff	-0.053864475
205	0xbe03b876	-0.12863335
206	0xbe8e8324	-0.27834427
207	0x3e927a59	0.2860897
208	0xbe7ebecc	-0.2487747
209	0x3e3fca11	0.18729426
210	0xbddf6d31	-0.109094985
211	0xbe579b32	-0.21055296
212	0xbde10dbb	-0.10988947
213	0x3e0b4c5c	0.13603348
214	0x3e598163	0.21240763
215	0xbe61c7ea	-0.22048917
216	0xbe5689ab	-0.20950954
217	0x3dbed7ba	0.0931849
218	0x3e0bf662	0.13668206
219	0xbe38c54a	-0.1804401
220	0x3dccf906	0.10008435
221	0xbd5f8c98	-0.05457744
222	0xbe7b0d8c	-0.24516886
223	0x3e1be674	0.1522463
224	0xbe682d40	-0.22673512
225	0xbc825572	-0.015909884
226	0xbd953496	-0.072854206
227	0xbdcf1d61	-0.101130255
228	0xbcb53789	-0.022121208
229	0xbe8067f4	-0.2507931
230	0x3e7eb0d5	0.24872144
231	0xbe5733ec	-0.210159
232	0x3e431600	0.19051361
233	0x3c143e29	0.009048023
234	0xbc878cd5	-0.016546646
235	0xbca79276	-0.02045558
236	0xbdd86b38	-0.10567325
237	0xbd82f840	-0.06395006
238	0x3e382680	0.17983437
239	0xbe0ab2e2	-0.13544801
240	0x3df9c50d	0.121957876
241	0xbe63e2b2	-0.22254446
242	0xbe137c3c	-0.1440286
243	0x3e38b7df	0.18038891
244	0x3dd27e18	0.10277957
245	0xbe82a510	-0.25516558
246	0xbe4db451	-0.20088317
247	0x3e3a36a0	0.181849
248	0xbd154944	-0.036446825
249	0x3e839bbf	0.25704762
250	0xbe8de2fd	-0.2771224
251	0x3da49f0e	0.0803815
252	0xbe8e4630	-0.27787924
253	0x3df1b87a	0.11802764
254	0xbdd241d7	-0.10266464
255	0xbd04080c	-0.032234237

encoder.feature_encoder.atom_embedding_list.4.weight f4 [10, 64]
0	0x3e43e9ba	0.19132128
1	0x3e16c6eb	0.14724319
2	0x3dbe80b0	0.09301889
3	0x3e646a80	0.22306252
4	0x3d541a4c	0.05178289
5	0xbe03cb0e	-0.12870428
6	0x3e12adf0	0.14324164
7	0xbd94b323	-0.0726073
8	0x3e8378cc	0.25678098
9	0xbe40fe2d	-0.1884696
10	0xbe494990	-0.19656968
11	0x3e23e740	0.16006184
12	0xbe6eb7ce	-0.23312303
13	0x3e21ff5c	0.15820068
14	0xbe383abf	-0.1799116
15	0x3df9fd7a	0.1220655
16	0x3e8230d9	0.25427893
17	0x3dfa097c	0.1220884
18	0xbe272200	-0.16321564
19	0x3dee200c	0.11627206
20	0xbc470f5f	-0.012149661
21	0xbd81e4b0	-0.06342447
22	0xbe900146	-0.28125972
23	0xbe51f008	-0.20501721
24	0xbdc4aa5c	-0.09602806
25	0x3e545ed4	0.20739299
26	0xbe76b68f	-0.24093078
27	0xbe8fbae0	-0.28072262
28	0xbe714fed	-0.23565646
29	0x3de8c878	0.113663614
30	0xbe79fc24	-0.2441259
31	0xbe8c95f9	-0.2745817
32	0xbce5c793	-0.028049266
33	0xbe8e2074	-0.27759135
34	0x3d7bd195	0.06147917
35	0xbcd23243	-0.025658732
36	0x3e81489f	0.25250718
37	0xbdba278b	-0.090895735
38	0xbe718409	-0.23585524
39	0xbe1b5a3c	-0.1517114
40	0xbc8ac090	-0.016937524
41	0xbd9be048	-0.07611138
42	0x3e91dced	0.28488865
43	0xbe49054f	-0.19630931
44	0xbe740583	-0.23830228
45	0x3e114766	0.14187393
46	0xbd9d930d	-0.07694063
47	0x3e09f433	0.13472061
48	0x3d1b2ef5	0.03788658
49	0x3dabf250	0.08395827
50	0x3e288201	0.16455843
51	0xbd5e9178	-0.05433795
52	0xbdd5bdf9	-0.10436625
53	0xbd6d5201	-0.057939533
54	0xbdb8fdff	-0.09032821
55	0xbe58a78d	-0.21157666
56	0x3e7bf186	0.24603853
57	0x3e16393c	0.1467027
58	0xbd8381b3	-0.064212225
59	0x3e4ec320	0.20191622
60	0x3e30a56b	0.17250602
61	0x3ddbc4a6	0.10730867
62	0x3e26c003	0.16284184
63	0x3cb73e53	0.022368586
64	0xbb7a020c	-0.0038148193
65	0x3e633b07	0.22190486
66	0x3e03714b	0.12836187
67	0x3e4df022	0.20111135
68	0x3e1b6903	0.15176778
69	0xbe531ebc	-0.20617193
70	0xbd7173db	-0.05894838
71	0x3e6986bf	0.22805308
72	0xbd851968	-0.064989865
73	0xbe09800c	-0.13427752
74	0xbe05acb1	-0.13054158
75	0xbe88f90e	-0.26752514
76	0x3e392828	0.18081725
77	0x3e333ef5	0.17504485
78	0xbe00b936	-0.12570652
79	0xbe925390	-0.28579378
80	0x3dae871a	0.08521862
81	0x3b9925d2	0.004673698
82	0x3e657f49	0.22411837
83	0x3cda2016	0.026626628
84	0xbca4ceac	-0.02011808
85	0x3e2024d1	0.15639044
86	0x3e543ddf	0.20726727
87	0x3e3221de	0.17395732
88	0x3e5f8af3	0.21830349
89	0xbe833f87	-0.25634405
90	0x3de8d940	0.11369562
91	0x3e47a825	0.19497736
92	0x3e2ef470	0.17085433
93	0xbdb1c062	-0.08679272
94	0x3dfb75cc	0.12278327
95	0xbe5805e7	-0.21096002
96	0x3e770660	0.24123526
97	0x3c5c564c	0.013448309
98	0x3e1a9cbc	0.15098852
99	0x3dd1bd2e	0.10241161
100	0xbe239ae1	-0.1597705
101	0x3e20dc8f	0.15709136
102	0x3e4e0420	0.20118761
103	0xbe2b8fca	-0.1675407
104	0x3c75642c	0.014977496
105	0xbdeb8eb9	-0.115018316
106	0xbe6aec80	-0.2294178
107	0x3dd74387	0.10510927
108	0xbe707d03	-0.23485188
109	0x3dd06061	0.10174633
110	0xbe51346a	-0.2043015
111	0xbd2d4537	-0.042302337
112	0xbdefc664	-0.11707762
113	0x3e0019b1	0.125098
114	0x3e94e4e5	0.29080883
115	0xbe5d5d9d	-0.21617742
116	0xbdb24dca	-0.08706243
117	0xbd9f29c6	-0.077716395
118	0xbe81d453	-0.25357303
119	0xbe8d7308	-0.27626824
120	0xbe3545cd	-0.17702408
121	0xbd94c79f	-0.07264637
122	0x3e6346b4	0.2219494
123	0x3e01e55c	0.1268515
124	0x3e785401	0.24250795
125	0xbe75790b	-0.23971955
126	0xbe00eb96	-0.12589869
127	0x3d283a4a	0.041071214
128	0xbe84fd7b	-0.2597464
129	0x3dd16f64	0.10226324
130	0xbc5f8eeb	-0.013644914
131	0xbea824f0	-0.3284068
132	0xbe9d025b	-0.3066586
133	0x3aff6a8d	0.0019486711
134	0x3db1c618	0.086803615
135	0xbcc56ebc	-0.024100654
136	0xbd926f7a	-0.07150169
137	0x3e4c54af	0.19954179
138	0x3d5790b7	0.052628245
139	0xbdd582b2	-0.10425319
140	0x3e7489bc	0.23880666
141	0xbd44d789	-0.048057113
142	0xbde94fbf	-0.113921635
143	0xbd36d821	-0.04463971
144	0xbd677258	-0.05650553
145	0xbbbde3d5	-0.005794982
146	0xbe04226e	-0.12903759
147	0x3e29bb53	0.16575365
148	0xbd13c257	-0.03607401
149	0x3e25ab57	0.16178642
150	0x3d10bafa	0.035334565
151	0x3e31c13f	0.17358874
152	0xbe3fc91b	-0.1872906
153	0x3e17aec4	0.14812762
154	0x3e160002	0.1464844
155	0x3dd9032d	0.10596309
156	0xbe2ca248	-0.1685878
157	0x3c766cfc	0.015040632
158	0xbe26403d	-0.16235442
159	0xbda25b25	-0.07927541
160	0xbd5f04fb	-0.05444811
161	0xbd142fd1	-0.036178414
162	0x3d6deb7a	0.058085896
163	0x3e97d963	0.2965804
164	0xbd77e005	-0.060516376
165	0x3e87c468	0.26517034
166	0x3dc1eecc	0.09469375
167	0xbe822037	-0.25415203
168	0x3e66a1ea	0.22522703
169	0xbe85e769	-0.26153114
170	0xbdf50c0d	-0.11965189
171	0xbddade23	-0.106869005
172	0x3c68cc32	0.01420884
173	0xbea756e7	-0.3268349
174	0xbe824040	-0.25439644
175	0xbe50117b	-0.20319168
176	0xbe1c8717	-0.15285908
177	0xbd73f6a1	-0.059561376
178	0x3e3b0bae	0.18266174
179	0xbe75014c	-0.23926276
180	0x3d01a616	0.031652533
181	0x3e52eeb5	0.20598872
182	0x3dfe8571	0.12427796
183	0x3d04ac02	0.032390602
184	0xbe80b38e	-0.2513699
185	0x3e1b5a0b	0.15171067
186	0xbdfdd1e9	-0.12393553
187	0x3d980bac	0.07424101
188	0xbe45178c	-0.19247264
189	0x3c00d193	0.007862466
190	0x3e2be3bb	0.16786091
191	0xbe0f2bad	-0.13981505
192	0xbe5b9cd3	-0.21446542
193	0xbd318d73	-0.043347787
194	0x3e1f71c3	0.1557074
195	0xbe250aad	-0.16117354
196	0x3d797fb0	0.060912788
197	0xbde7688b	-0.11299237
198	0x3d4c639e	0.04989969
199	0x3d8c5f92	0.06854166
200	0x3e2ad851	0.1668408
201	0xbe01f190	-0.12689805
202	0xbe61ea12	-0.22061947
203	0x3bc332e4	0.0059569944
204	0x3e0161c3	0.1263495
205	0xbe0340ab	-0.12817638
206	0x3d9a3aa9	0.0753072
207	0xbe8397a1	-0.2570162
208	0x3e0b1039	0.13580407
209	0x3e0be3ac	0.13661069
210	0xbe880a47	-0.2657034
211	0xbd9e5311	-0.077306874
212	0x3dccc78e	0.099989995
213	0x3e0399f5	0.12851699
214	0x3dc7516c	0.09732327
215	0xbe54a20d	-0.20764942
216	0x3e6327d1	0.22183158
217	0xbe86216a	-0.26197368
218	0xbd453d49	-0.04815415
219	0xbe1b3e14	-0.151604
220	0xbe74b003	-0.23895268
221	0xbd959a18	-0.07304782
222	0x3e93bc28	0.2885449
223	0xbe567310	-0.2094233
224	0x3e2eb402	0.17060855
225	0x3e7a7448	0.2445842
226	0xbe2a66df	-0.16640805
227	0x3d76f3cb	0.060291093
228	0xbe20596f	-0.15659116
229	0xbe892acd	-0.26790467
230	0xbe7f9f09	-0.24963011
231	0xbd49fa08	-0.049310714
232	0xbe5215d1	-0.20516135
233	0xbccf6a39	-0.025319206
234	0x3e2b4b6c	0.1672799
235	0x3e0da006	0.13830575
236	0xbe902276	-0.28151292
237	0x3dce50e8	0.100740254
238	0xbc59cc27	-0.013293303
239	0x3de1713b	0.11007925
240	0x3e24338e	0.16035292
241	0xbe70410b	-0.23462312
242	0xbe31c34a	-0.17359653
243	0x3e222b52	0.15836838
244	0x3d418535	0.047246177
245	0xbd90c945	-0.07069639
246	0xbe13099a	-0.14359131
247	0x3d40348b	0.04692511
248	0xbd746e79	-0.059675667
249	0x3dbc4ea3	0.09194686
250	0xbdcae5e4	-0.099071294
251	0x3e8254cc	0.2545532
252	0xbd049ddc	-0.03237711
253	0xbdabcf06	-0.08389096
254	0xbe62fe61	-0.2216735
255	0x3e8ed8f3	0.27899894

encoder.feature_encoder.atom_embedding_list.5.weight f4 [6, 64]
0	0xbe2d8389	-0.16944708
1	0x3d97be44	0.07409337
2	0xbd70a4cb	-0.05875091
3	0x3e52071f	0.20510529
4	0xbcd33a3c	-0.025784604
5	0x3e5f1763	0.21786265
6	0xbda852d1	-0.08218921
7	0xbe8236e0	-0.2543249
8	0xbd086c0f	-0.033306178
9	0xbe185448	-0.14875901
10	0xbe32adf2	-0.17449167
11	0x3e261ad6	0.16221175
12	0x3e7f572c	0.24935597
13	0xbe4039da	-0.18772069
14	0xbe8ee7dd	-0.27911273
15	0x3df04012	0.117309704
16	0xbe6596a4	-0.22420746
17	0xbda918fd	-0.08256719
18	0x3e0aa7bd	0.1354055
19	0x3db79409	0.08963782
20	0x3ca555cc	0.020182513
21	0x3ddac81f	0.10682701
22	0xbe12a22f	-0.1431968
23	0xbda0902a	-0.07839997
24	0xbd8b4adc	-0.06801388
25	0xbe980af4	-0.29695857
26	0xbe45917e	-0.19293782
27	0x3d99b48a	0.07505138
28	0x3d31d8e4	0.043419734
29	0xbdce5465	-0.10074691
30	0x3e7f0f04	0.24908072
31	0xbe0dadb0	-0.13835788
32	0xbcbb8a5f	-0.022893129
33	0x3e7761e4	0.24158436
34	0x3e08126d	0.13288279
35	0x3e9526fe	0.2913131
36	0x3d4f92a9	0.050676975
37	0xbe452d81	-0.1925564
38	0xbda1550a	-0.07877548
39	0xbd9798d7	-0.07402199
40	0xbe63b514	-0.22237045
41	0xbd98295e	-0.07429765
42	0xbe9010ff	-0.28137967
43	0xbe01e3a4	-0.12684494
44	0xbe842fc6	-0.25817698
45	0x3e8c1f79	0.27367762
46	0x3d355779	0.044272874
47	0x3e6c1291	0.23053958
48	0x3e09fef0	0.13476157
49	0x3e75512e	0.23956749
50	0xbdecb639	-0.11558194
51	0xbe13f4f6	-0.14448914
52	0xbdd74bc0	-0.10512495
53	0xbe83ad1b	-0.25718006
54	0xbb4e0abb	-0.0031439501
55	0x3d6ce7ea	0.057838358
56	0x3e0d8825	0.13821466
57	0xbd6ab71c	-0.057303533
58	0x3dd892a8	0.105748475
59	0x3e00ce67	0.12578736
60	0x3dcaaa4d	0.098957635
61	0x3d994969	0.07484705
62	0xbdcba1df	-0.09942984
63	0x3e240b48	0.16019928
64	0xbe8e0c91	-0.27743962
65	0x3d24c5f1	0.040227834
66	0x3e04bc7d	0.12962528
67	0x3e3173f2	0.17329386
68	0x3dc925d8	0.09821671
69	0xbd582178	-0.052766293
70	0x3e5c58fb	0.21518318
71	0xbe9c6280	-0.305439
72	0xbd1eb9b6	-0.038751327
73	0xbde0957b	-0.10966011
74	0x3e204c23	0.15654044
75	0x3e82625c	0.25465667
76	0xbdb1db77	-0.08684438
77	0x3d951607	0.07279592
78	0xbc288f72	-0.010288106
79	0xbda2b465	-0.07944564
80	0x3df1103b	0.11770674
81	0x3d96e38f	0.07367622
82	0xbddce2ae	-0.10785423
83	0x3d4bda7e	0.049768917
84	0x3e90c332	0.28273922
85	0xbe4d8dda	-0.20073643
86	0xbd2f663b	-0.042822104
87	0xbe88b1ce	-0.26698154
88	0xbdc26bfd	-0.094932534
89	0x3e89b937	0.2689912
90	0x3e4bff3c	0.19921583
91	0xbe91df91	-0.2849088
92	0xbe8fce7f	-0.28087232
93	0x3ccda3c7	0.02510251
94	0xbd338ccf	-0.043835457
95	0x3e7348fa	0.23758307
96	0xbd80a391	-0.06281198
97	0x3e66ec35	0.22551043
98	0xbe54fa4c	-0.20798606
99	0xbcf39e20	-0.029738486
100	0xbd1a7160	-0.03770578
101	0xbe143f14	-0.14477187
102	0x3c8ff693	0.01757363
103	0xbd96efce	-0.07369958
104	0xbe13325c	-0.1437468
105	0xbe5dc0a7	-0.21655522
106	0x3ac94dd1	0.0015358274
107	0x3e8e39da	0.27778512
108	0x3e0154b7	0.12629972
109	0xbe5eb2d2	-0.21747902
110	0xbe1a797c	-0.15085405
111	0x3e471ce8	0.1944462
112	0xbdcc4d04	-0.09975627
113	0xbcf08729	-0.029361324
114	0xbe0829b6	-0.13297161
115	0x3e0e82fd	0.13917156
116	0xbe59516d	-0.21222468
117	0xbe90cf33	-0.2828308
118	0xbe44cf48	-0.19219697
119	0xbe8158bb	-0.25263008
120	0x3d615d25	0.05502047
121	0x3d6d5bec	0.05794899
122	0xbde8717d	-0.11349771
123	0x3dd11a2a	0.102100685
124	0x3d1741f8	0.036928147
125	0x3d6c3887	0.057671096
126	0x3e25c80a	0.1618959
127	0x3d914b49	0.07094438
128	0x3e98f980	0.29877853
129	0x3e610bba	0.2197713
130	0xbe2999d7	-0.16562591
131	0x3e58074f	0.21096538
132	0xbcad684e	-0.0211679
133	0xbc816fb4	-0.015800335
134	0x3d253b11	0.040339533
135	0xbe832930	-0.2561736
136	0x3e3daac9	0.1852218
137	0x3e49f362	0.1972175
138	0x3e8ce47c	0.2751807
139	0x3d696995	0.056985456
140	0xbda3aade	-0.07991575
141	0xbd55a18c	-0.052156016
142	0xbdc0b0ce	-0.09408723
143	0xbe8974c7	-0.26846907
144	0x3dcbce33	0.09951439
145	0x3cf948be	0.030430194
146	0xbdb8f242	-0.09030582
147	0xbe2ec9c6	-0.17069158
148	0xbd9477e8	-0.07249433
149	0x3da5ca07	0.08095174
150	0x3e6472fe	0.22309491
151	0x3df48498	0.11939353
152	0x3e62015c	0.22070831
153	0x3e719d85	0.23595245
154	0xbe11e201	-0.1424637
155	0xbbc7a8ab	-0.006093105
156	0xbe7bf86b	-0.24606483
157	0xbe361e94	-0.17785102
158	0x3de812cc	0.1133171
159	0x3ded0cc3	0.115747
160	0x3dff26f2	0.124586
161	0x3e7f7aa9	0.24949135
162	0x3deefe58	0.11669606
163	0xbe12e25e	-0.14344165
164	0xbd82aaeb	-0.06380256
165	0x3cbd7452	0.023126755
166	0x3e1a5ad9	0.15073718
167	0xbe1a3ee2	-0.1506305
168	0xbdfab523	-0.1224158
169	0x3df2443c	0.11829421
170	0x3dca024b	0.098637186
171	0x3e8e8c79	0.27841547
172	0x3e6230e4	0.22088963
173	0xbe067da4	-0.13133866
174	0x3dcf90fc	0.101350754
175	0xbe41312a	-0.18866411
176	0xbc37689d	-0.011194375
177	0xbcd8f0ba	-0.026481975
178	0x3d475b03	0.04867078
179	0x3e888ec4	0.26671422
180	0xbe6a8bbd	-0.22904868
181	0x3e88be01	0.2670746
182	0x3e5121c4	0.20423037
183	0xbe11132d	-0.14167471
184	0xbd9ff145	-0.078096904
185	0xbd822577	-0.06354802
186	0x3e34b5df	0.17647503
187	0xbd9ae0e3	-0.07562425
188	0x3dd2ce22	0.10293223
189	0xbded82a5	-0.11597184
190	0x3e70d978	0.23520458
191	0xbd40921e	-0.04701435
192	0x3e8f4e48	0.2798941
193	0xbe5f2e51	-0.21795012
194	0xbdb3069b	-0.08741494
195	0x3e41c3f4	0.18922406
196	0x3dc7698f	0.097369306
197	0xbe17cd40	-0.1482439
198	0xbe757d7c	-0.2397365
199	0xbe6256d9	-0.22103442
200	0xbe7a8137	-0.24463354
201	0xbe25ad81	-0.16179468
202	0xbe35a6bb	-0.17739384
203	0xbdad0c7a	-0.08449645
204	0x3e81e168	0.25367284
205	0xbd9f25f8	-0.07770914
206	0xbe394d56	-0.18095908
207	0x3e1291cb	0.14313428
208	0xbe307355	-0.17231496
209	0xbe160b12	-0.1465266
210	0xbd462982	-0.04837943
211	0xbd139af3	-0.036036443
212	0xbe38e0c8	-0.18054497
213	0xbe6e6cef	-0.23283742
214	0xbe925215	-0.2857825
215	0xbdfe4fa3	-0.12417533
216	0x3e17e588	0.14833653
217	0x3cc067a1	0.023486914
218	0x3e6efb73	0.23338108
219	0x3d4ffc70	0.050777853
220	0xbe60e91d	-0.21963926
221	0x3ce1efde	0.027580198
222	0xbd99a0ea	-0.07501395
223	0x3e29c0d8	0.1657747
224	0x3da32314	0.07965675
225	0x3e94639f	0.28982255
226	0xbe8665a2	-0.26249415
227	0xbe0eb021	-0.13934375
228	0xbe7e76f6	-0.24850067
229	0x3cd5671b	0.026050141
230	0xbe3f1a38	-0.18662345
231	0xbdf8f91d	-0.121568896
232	0x3e8f16f5	0.27947202
233	0xbdc8e34a	-0.09808977
234	0x3e1380a5	0.14404543
235	0x3e40bfc6	0.18823156
236	0x3e596d2c	0.21233052
237	0x3e753d1a	0.2394909
238	0x3e38eeef	0.18059896
239	0x3cedabc3	0.029012566
240	0x3e7cf3d4	0.24702388
241	0x3e91101c	0.28332603
242	0xbe4ecdda	-0.20195714
243	0x3d7a6c4b	0.061138432
244	0x3e4e463a	0.20143977
245	0xbe4aae84	-0.19793135
246	0x3deb5121	0.114900835
247	0x3e3b2f30	0.1827972
248	0x3c15ab8c	0.009135138
249	0xbdad5683	-0.084637664
250	0xbcc659be	-0.024212714
251	0x3e8264c6	0.2546751
252	0xbe6d5f9d	-0.23181005
253	0x3dede266	0.11615448
254	0xbe2247aa	-0.1584765
255	0x3e4a50e9	0.19757427

encoder.feature_encoder.atom_embedding_list.6.weight f4 [6, 64]
0	0xbcadf351	-0.021234186
1	0x3e89667f	0.2683601
2	0xbe138c18	-0.1440891
3	0x3e6a9602	0.22908786
4	0x3d96f4fa	0.07370944
5	0x3e4e2953	0.20132951
6	0x3bc3e384	0.0059780497
7	0x3e1f7612	0.15572384
8	0x3bedab9a	0.0072531225
9	0x3c6f9c29	0.014624634
10	0xbd846226	-0.06464033
11	0x3da9d65a	0.082928374
12	0x3e8a3bbe	0.26998705
13	0x3e635a14	0.22202331
14	0xbe06bca5	-0.131579
15	0xbe0a872c	-0.13528126
16	0x3e1a8b36	0.15092167
17	0xbdb6f59d	-0.08933566
18	0xbd4069b3	-0.046975803
19	0x3d288e17	0.041151132
20	0xbe272ea5	-0.16326387
21	0xbe5fd4a3	-0.21858458
22	0x3e7180de	0.23584315
23	0xbe87ab4d	-0.2649788
24	0xbe199257	-0.1499723
25	0x3dfc379a	0.12315293
26	0xbc762b37	-0.015024952
27	0x3e205b97	0.15659939
28	0xbd8a4630	-0.067516685
29	0xbc067236	-0.008205941
30	0xbd92a604	-0.07160571
31	0x3df19d94	0.11797634
32	0x3dbcfb63	0.09227636
33	0xbd4ce9aa	-0.050027527
34	0x3e31bcaa	0.17357126
35	0xbe415ebc	-0.18883795
36	0xbde7a8c4	-0.11311486
37	0x3c809752	0.015697155
38	0x3e07d5c9	0.13265146
39	0xbdc7f854	-0.09764162
40	0x3b9989ad	0.0046856017
41	0xbe822401	-0.25418094
42	0x3e12f219	0.14350165
43	0x3e3c2929	0.18375076
44	0xbe72e81f	-0.2372136
45	0xbe7bfd19	-0.24608268
46	0x3b2b6b49	0.0026156476
47	0x3e72a1e7	0.23694573
48	0x3dc81829	0.09770233
49	0x3e4fd8f2	0.20297602
50	0xbe723e6c	-0.23656625
51	0x3e43f5e4	0.19136769
52	0x3e8ad644	0.27116597
53	0xbe6ffa5c	-0.23435348
54	0x3d9074aa	0.07053502
55	0xbd67fb57	-0.05663618
56	0x3ea0d8be	0.3141536
57	0xbe08853d	-0.13332076
58	0xbe8a22f4	-0.26979792
59	0xbe72bed3	-0.23705606
60	0x3e2d4d22	0.16923955
61	0x3dde1b80	0.10845089
62	0xbe91a5d6	-0.28446835
63	0xbe73af2d	-0.23797293
64	0x3e33aad0	0.17545629
65	0xbe0e647c	-0.13905519
66	0xbe45ac10	-0.19303918
67	0xbe0aa193	-0.13538198
68	0xbe055eae	-0.13024399
69	0xbe43b8fb	-0.19113533
70	0xbdd6dc17	-0.104911976
71	0x3ccf12fc	0.025277607
72	0x3d0d8a05	0.034555454
73	0x3e898367	0.26858065
74	0xbe98da89	-0.2985423
75	0xbdcc807e	-0.099854454
76	0xbdbea3b5	-0.093085684
77	0xbe242afc	-0.16032022
78	0x3dcdaff0	0.10043323
79	0xbdf8470a	-0.121229246
80	0xbda91aae	-0.08257042
81	0xbe5bd933	-0.21469574
82	0xbdbe56d6	-0.092939064
83	0x3b7c47fa	0.003849505
84	0xbe217b1c	-0.15769619
85	0xbd9828db	-0.074296676
86	0xbe0fa248	-0.14026749
87	0x3d6f1ae9	0.058375273
88	0x3d8066eb	0.0626963
89	0xbe1df293	-0.15424566
90	0xbe009567	-0.12556992
91	0xbbb35453	-0.0054726987
92	0xbe346706	-0.17617425
93	0xbdc94857	-0.09828251
94	0x3e2a7cb3	0.16649131
95	0xbcdef34f	-0.027215628
96	0x3dce81c7	0.10083347
97	0xbc379c1c	-0.011206653
98	0xbcc888c9	-0.024479287
99	0xbe537a35	-0.20652087
100	0x3bc55b6b	0.0060228608
101	0x3e940502	0.2891007
102	0x3e921929	0.2853482
103	0x3e529521	0.205647
104	0xbdcfd576	-0.10148136
105	0x3cd2e83b	0.025745502
106	0x3e871174	0.26380503
107	0xbd715dc5	-0.058927316
108	0x3df058d6	0.11735694
109	0x3d1bbea6	0.038023613
110	0x3e4d7e20	0.20067644
111	0xbe3c1824	-0.18368584
112	0x3d39451c	0.045231923
113	0xbe8f8547	-0.2803137
114	0xbd9809c8	-0.074237406
115	0x3e0859bf	0.13315485
116	0x3d1bff97	0.038085546
117	0x3e93e49e	0.2888536
118	0xbe43e95b	-0.19131987
119	0x3e14b2f6	0.14521393
120	0xbcfb0345	-0.030641207
121	0x3e925f2b	0.28588232
122	0x3e786627	0.24257718
123	0x3e82efd7	0.25573608
124	0xbe0edd8a	-0.13951698
125	0x3e8b759f	0.27238175
126	0xbe330abf	-0.17484568
127	0xbe122669	-0.14272465
128	0x3e1ce3bc	0.15321249
129	0xbc3aaa23	-0.011393103
130	0x3e0ba4f4	0.13637143
131	0x3e6c85a9	0.23097862
132	0xbc05d0ff	-0.008167504
133	0x3d8a46ad	0.067517616
134	0x3b986759	0.004650992
135	0x3e41530c	0.18879336
136	0x3e14ada3	0.14519362
137	0x3c17de94	0.009269375
138	0xbe57188f	-0.21005462
139	0x3d9e0ddf	0.077174895
140	0x3e2b46fe	0.167263
141	0x3d2eb0fe	0.04264926
142	0x3e2abdd9	0.16673984
143	0x3dc48382	0.095953956
144	0xbddced67	-0.107874684
145	0xbe24eb4e	-0.16105387
146	0xbd46360e	-0.048391394
147	0xbe864a04	-0.26228344
148	0xbcfcbdf3	-0.030852294
149	0xbd8b473e	-0.06800698
150	0xbe5a57ee	-0.21322605
151	0x3d691fcb	0.056915086
152	0x3e21a51c	0.1578564
153	0x3da455cc	0.08024177
154	0xbd1020b1	-0.035187427
155	0xbde7d4b4	-0.11319867
156	0xbd5ea839	-0.05435965
157	0xbe594072	-0.2121599
158	0x3d38d18e	0.045121722
159	0x3e25b32c	0.1618163
160	0xbcca99b0	-0.024731487
161	0x3d1fa91b	0.03897963
162	0x3e64d9c0	0.2234869
163	0x3e839cba	0.2570551
164	0x3e7d17a5	0.24716051
165	0x3e7a3872	0.24435595
166	0x3e483df8	0.19554889
167	0xbc9dde55	-0.019271055
168	0xbe8ca7b3	-0.27471694
169	0x3d68db49	0.05684975
170	0x3e0cf054	0.13763553
171	0x3c37098d	0.011171711
172	0x3e123ae2	0.14280275
173	0xbe7c1bbd	-0.24619956
174	0xbd438a6c	-0.04773943
175	0x3e938f32	0.28820187
176	0xbe941bab	-0.2892736
177	0xbd855884	-0.06511024
178	0x3ddcf4e4	0.10788897
179	0xbe957a33	-0.29194793
180	0xbde90ecd	-0.11379776
181	0xbe1066fb	-0.14101784
182	0x3e5d8d3f	0.21635912
183	0xbd3b12d8	-0.045672268
184	0xbb2a654d	-0.0026000321
185	0x3e61e7d3	0.2206109
186	0x3dd420ce	0.103578195
187	0xbdb9c66d	-0.0907105
188	0x3e307f72	0.17236117
189	0xbdc1468a	-0.094372824
190	0x3e8773d4	0.26455557
191	0xbd961a9d	-0.07329295
192	0x3e9b4eaa	0.30333453
193	0xbe05af4a	-0.13055149
194	0x3e2b0d2b	0.16704242
195	0x3e91aa94	0.28450453
196	0xbe1497bc	-0.14511007
197	0xbd132531	-0.03592414
198	0xbe1ff675	-0.1562136
199	0x3e14cf28	0.14532149
200	0xbdf339a8	-0.118762314
201	0x3e533a79	0.20627774
202	0xbe41abdf	-0.1891322
203	0xbdd47149	-0.1037317
204	0xbd881b4f	-0.06645834
205	0x3e698dfd	0.2280807
206	0x3e12bd2b	0.14329974
207	0xbc8ee246	-0.01744188
208	0x3e071e9d	0.13195272
209	0xbe8aa4b5	-0.27078786
210	0xbd083c25	-0.033260483
211	0x3e874a3b	0.2642382
212	0xbd933a1d	-0.071888186
213	0xbe268bb9	-0.16264237
214	0xbda39221	-0.07986856
215	0x3e619c5e	0.22032306
216	0xbc2a7120	-0.010402948
217	0x3dbf2369	0.09332926
218	0xbdeb0779	-0.11476035
219	0x3e16c261	0.14722587
220	0x3d3060e7	0.043061163
221	0x3e736cb3	0.23771934
222	0x3e4848a6	0.19558963
223	0xbe81c359	-0.2534435
224	0x3e85d81c	0.2614144
225	0xbe30ae60	-0.17254019
226	0xbdc0d268	-0.09415132
227	0x3d524292	0.051333018
228	0xbe719c5a	-0.235948
229	0xbc6cd861	-0.014455886
230	0xbe4da487	-0.20082293
231	0xbd9a66a0	-0.075391054
232	0xbc016345	-0.007897203
233	0xbd5d2160	-0.053986907
234	0x3dd4ddb1	0.10393847
235	0xbda653ed	-0.08121476
236	0x3d05accd	0.0326355
237	0xbaeb7637	-0.0017964308
238	0xbd9e6a81	-0.07735158
239	0xbe8a674a	-0.27031928
240	0x3e0e283f	0.1388254
241	0xbe96c282	-0.29445273
242	0x3d06015e	0.032716148
243	0x3e3b9b2b	0.1832091
244	0x3e87bbad	0.26510373
245	0xbe20a12b	-0.1568648
246	0x3e79e6dc	0.24404472
247	0xbe1f8cb6	-0.1558102
248	0xbe3eecdc	-0.18645042
249	0x3bc60bba	0.0060438784
250	0xbe23658a	-0.15956703
251	0xbe4276a6	-0.18990573
252	0x3db94eff	0.090482704
253	0x3e742e64	0.23845822
254	0x3e090a0c	0.13382739
255	0x3e129673	0.14315204
