checkpoints/tuning_multi/trial_41/best_model.pt (torch, 520320 bytes, 104 tensors)

encoder.feature_encoder.atom_embedding_list.0.weight f4 [119, 64]
0.14104745 0.04712984 0.0028634982 0.17393792 -0.12863715 -0.16725959 -0.0940488 0.13563277
0.17431471 -0.07440912 -0.11719014 -0.15716068 0.08573754 -0.07269924 0.13534355 -0.06402315
0.16565824 0.11728761 0.11782866 0.09819751 -0.1469025 0.024844734 -0.10802706 -0.055643328
0.11215249 -0.091815986 0.11205162 0.005468835 -0.08153017 -0.087761626 -0.1760205 0.062110465
0.010875528 0.16121456 0.06658984 0.05173877 -0.005779376 0.0846227 -0.026865086 0.07259698
-0.082340784 0.11707101 0.049652234 0.095652975 0.012228347 0.086935475 0.15960346 0.024435239
0.12994869 -0.1688771 -0.01986614 -0.1585623 0.012946753 0.034004048 0.051130556 -0.07707494
0.08498212 -0.07618933 -0.04550542 0.13109109 -0.16663887 0.034340832 -0.15724681 0.07999107
-0.15120506 -0.1699776 -0.05043954 0.1448173 0.09148628 0.11637384 -0.042184032 0.15994899
-0.0825632 -0.012675079 -0.16627464 0.009122876 0.041513417 -0.1737911 0.1522213 0.034066774
0.1726835 -0.07794893 0.008443778 -0.058112614 0.15309678 -0.10122184 0.1042148 -0.12715258
0.13606925 -0.16859275 -0.09001679 -0.08172238 -0.030746358 -0.0022455296 0.058515094 0.162381
0.10666889 -0.08731099 0.17014347 -0.02666432 -0.10097067 0.067683384 -0.031554427 0.17280573
0.020199254 0.119842656 0.046623003 -0.11833369 0.038109463 -0.104785435 -0.048487164 -0.058329955
-0.14347214 0.07007559 0.12812886 -0.17843767 0.09856232 -0.1429664 -0.17720768 0.062444996
-0.004014259 -0.11100553 0.1621257 0.01477508 -0.113573454 0.08306471 0.012815923 -0.028982311
-0.12890333 -0.011422274 0.095535465 -0.086707845 0.0886956 -0.17794655 -0.07154042 -0.057475522
-0.15451835 0.06471544 -0.14109835 0.1005493 0.041619953 0.0024037936 -0.09653155 -0.06601456
0.04395874 0.1707066 -0.08788642 -0.123201236 -0.073459014 -0.13006833 -0.023837624 -0.12906343
0.13128914 0.12594828 -0.11401151 0.15366206 0.041193727 -0.11136707 0.060143 -0.1643365
-0.10062041 -0.13629524 -0.10386203 -0.039194323 0.037115905 0.03455264 -0.17187192 -0.17331627
-0.027470361 0.15380658 0.06707768 0.16162956 -0.08579328 0.05262179 -0.15763816 0.0889873
-0.003977741 -0.0104964925 -0.093100436 -0.15820898 -0.06666667 -0.01710965 -0.09615846 0.07568214
-0.031814054 0.015855419 -0.16291875 0.057280734 -0.08852662 -0.13682027 -0.075396195 -0.16192266
-0.13820976 0.13500267 0.14821279 -0.12577157 0.039268836 -0.09326673 0.16943894 0.110543706
0.071995504 -0.14762886 -0.08906347 -0.038054053 -0.16188858 -0.10582171 0.047673047 -0.14740567
0.048177455 -0.004137965 -0.014911197 -0.05289151 -0.09731315 -0.16929178 -0.12321702 0.13675027
-0.013421458 0.17631826 0.009546015 -0.021342978 0.10858781 -0.17047308 -0.11223156 0.103870384
-0.047223575 0.14325662 -0.016534355 0.12913159 0.008794044 0.018804297 -0.15293911 -0.062575996
0.009078864 0.08273273 0.03513348 -0.03931358 0.0012224893 0.15565413 0.120786175 0.06178496
-0.13049395 -0.060883597 0.11560348 0.16299626 -0.085601665 0.07693815 -0.042399473 0.11486493
-0.027207581 -0.14393501 -0.17923315 -0.0067842924 0.053380832 -0.106740616 0.14246227 0.08588759
00000000: be6e 103e 380b 413d 87a9 3b3b c81c 323e
00000010: 75b9 03be 1946 2bbe a89c c0bd 51e3 0a3e
00000020: 8e7f 323e cf63 98bd 6201 f0bd bbee 20be
00000030: 2a97 af3d 57e3 94bd 8097 0a3e 921e 83bd
00000040: 50a2 293e 7d34 f03d 2750 f13d c71b c93d
00000050: 9c6d 16be 2f87 cb3c 4b3d ddbd 42ea 63bd
00000060: 34b0 e53d 050a bcbd 527b e53d ea33 b33b
00000070: 4af9 a6bd 5ebc b3bd b83e 34be 8b67 7e3d
00000080: 452f 323c 6e15 253e 4160 883d 08ec 533d
00000090: eb60 bdbb ab4e ad3d 2b14 dcbc baad 943d
000000a0: 49a2 a8bd edc2 ef3d 2460 4b3d b5e5 c33d
000000b0: 6859 483c 3a0b b23d 176f 233e 692c c83c
000000c0: 4511 053e 1eee 2cbe 51be a2bc 285e 22be
000000d0: 9e1e 543c d447 0b3d 466e 513d 77d9 9dbd
000000e0: 1b0b ae3d 2709 9cbd e463 3abd be3c 063e
000000f0: 61a3 2abe f9a8 0c3d 4f05 21be 5cd2 a33d
00000100: 80d5 1abe 9c0e 2ebe b199 4ebd fc4a 143e
00000110: 295d bb3d 6855 ee3d 2ac9 2cbd abc9 233e
00000120: e516 a9bd 22ab 4fbc e643 2abe 1e78 153c
00000130: f909 2a3d 4bf6 31be e7df 1b3e 9a89 0b3d
00000140: f2d3 303e b0a3 9fbd c657 0a3c 7e07 6ebd
00000150: 67c5 1c3e 654d cfbd 926e d53d 4934 02be
00000160: bd55 0b3e 94a3 2cbe b95a b8bd 105e a7bd
00000170: c9df fbbc bc29 13bb 86ad 6f3d 3447 263e
00000180: 3875 da3d 1bd0 b2bd 173a 2e3e 226f dabc
00000190: b6c9 cebd 969d 8a3d 373f 01bd fcf3 303e
000001a0: e878 a53c 1170 f53d c3f7 3e3d ef58 f2bd
000001b0: ab18 1c3d bf99 d6bd 7a9a 46bd 64eb 6ebd
000001c0: 5cea 12be ca83 8f3d 3634 033e 5db8 36be
000001d0: 0bdb c93d c965 12be ee75 35be 53c6 7f3d
000001e0: 0c8a 83bb de56 e3bd 4804 263e 2d13 723c
000001f0: 3399 e8bd d51d aa3d e1f9 513c 506c edbc
00000200: 3cff 03be 7d24 3bbc 19a8 c33d e293 b1bd
00000210: 0aa6 b53d 9f37 36be c983 92bd 746b 6bbd
00000220: 0f3a 1ebe 8789 843d 167c 10be cbec cd3d
00000230: af79 2a3d f788 1d3b 55b2 c5bd a432 87bd
00000240: 140e 343d b6cd 2e3e ccfd b3bd ee50 fcbd
00000250: ae71 96bd a230 05be 1f47 c3bc 3429 04be
00000260: a970 063e 96f8 003e de7e e9bd 9659 1d3e
00000270: c1ba 283d 6b14 e4bd 8258 763d d447 28be
00000280: 1312 cebd fb90 0bbe 9eb5 d4bd 3a8a 20bd
00000290: d906 183d 1287 0d3d 31ff 2fbe d279 31be
000002a0: 8609 e1bc 797f 1d3e 0660 893d 3882 253e
000002b0: 63b4 afbd f289 573d e66b 21be f93e b63d
000002c0: b657 82bb 7bf9 2bbc 71ab bebd 8901 22be
000002d0: 8988 88bd 8929 8cbc baee c4bd 3dff 9a3d
000002e0: 744f 02bd 39e3 813c 2cd4 26be 349f 6a3d
000002f0: 724d b5bd 9d1a 0cbe 5269 9abd 0ecf 25be
00000300: dc86 0dbe 243e 0a3e 18c5 173e 43ca 00be
00000310: 5cd8 203d a102 bfbd 6781 2d3e bd64 e23d
00000320: 6172 933d 052c 17be e966 b6bd 91de 1bbd
00000330: 1fc6 25be 0db9 d8bd d044 433d 83f1 16be
00000340: b955 453d c497 87bb 184e 74bc c5a4 58bd
00000350: 1e4c c7bd d35a 2dbe 3459 fcbd 4308 0c3e
00000360: ade5 5bbc c68c 343e e466 1c3c 78d7 aebc
00000370: 4963 de3d 7f90 2ebe a9d9 e5bd ffb9 d43d
00000380: 826d 41bd ddb1 123e 0e73 87bc 123b 043e
00000390: e514 103c 780b 9a3c 129c 1cbe d827 80bd
000003a0: 84bf 143c c76f a93d 20e8 0f3d 4707 21bd
000003b0: ef3b a03a cc63 1f3e be5e f73d 3a12 7d3d
000003c0: 35a0 05be 1461 79bd 84c1 ec3d 7ee8 263e
000003d0: ed4f afbd c091 9d3d 12ab 2dbd 4e3e eb3d
000003e0: 6fe2 debc b363 13be e588 37be c54e debb
000003f0: dca5 5a3d d39a dabd a1e1 113e d5e5 af3d

encoder.feature_encoder.atom_embedding_list.1.weight f4 [5, 64]
-0.11544409 -0.043345295 0.08690952 0.23739101 0.12402317 0.27351823 0.101721056 0.14775069
0.06327047 0.24713323 0.22813317 0.18023004 -0.24830249 -0.027211718 -0.09539621 -0.04182953
0.20877734 -0.19174336 -0.15219851 -0.121025905 0.02410424 -0.16675903 0.056285508 -0.24983901
-0.14634712 0.17755961 0.20343642 -0.08516976 0.020641245 -0.0114443125 -0.20630388 -0.061394162
0.17568095 0.0053075072 0.27803877 -0.23523961 -0.20823428 -0.25547633 -0.18148497 0.0596221
0.19637452 -0.24570262 -0.22998641 -0.10579572 0.1739946 0.15891011 -0.029796407 0.26767385
0.108584926 0.27968568 -0.005604427 -0.1866897 -0.00094220694 0.09053817 0.11674655 -0.0022652599
0.00930023 0.05847675 -0.05664811 0.06908469 -0.17943145 -0.06714828 0.16366185 0.08947573
0.1650098 -0.19639188 -0.08679329 -0.15266508 -0.22939293 -0.12106638 -0.018862765 -0.021602934
-0.01822119 -0.18626815 -0.020006219 0.078192145 0.21178776 0.17840005 -0.24643801 -0.18786407
0.23260516 0.20017247 0.16368878 -0.15208867 0.24867992 -0.28648847 -0.23451394 0.026392166
0.13714577 -0.27794692 0.04340793 -0.004437667 -0.038816467 -0.23096953 -0.14136384 0.0138425445
0.07052586 0.18494932 -0.10446778 0.27912006 0.11103262 -0.20034756 -0.29357693 0.19826162
0.022286095 -0.029595826 -0.09762186 0.13863795 -0.1061123 -0.21574253 0.20478846 -0.12643015
0.16979143 -0.20278707 -0.059280552 -0.16158903 0.012551484 -0.034874562 0.08797562 -0.22872664
-0.2600852 0.23452064 -0.22578634 0.09943374 -0.25610155 0.05746392 -0.0062741954 -0.14500853
-0.006072277 0.036204748 0.008251968 0.22308917 -0.16890821 0.13353075 0.27158967 -0.21180639
-0.23096813 0.099663675 -0.104682565 -0.0066504017 -0.27507505 0.18012421 -0.019469118 0.018129371
-0.10250452 0.1023668 -0.0048358086 -0.117522895 0.07325179 -0.109491125 0.109437734 -0.2824334
-0.11409964 -0.20204668 0.12545842 -0.20707189 0.22847846 0.071800925 0.18072757 -0.19235748
-0.23954427 -0.048390992 -0.1620269 -0.099882364 0.24239556 0.15761021 -0.08712597 0.17906459
-0.19751793 -0.17135388 0.13061634 0.12731007 -0.085262515 -0.20123239 0.04609062 0.28446937
0.29022703 0.24192265 -0.22113484 0.19547413 0.05400192 -0.23934622 0.018939294 -0.28477553
0.0633044 -0.16214852 -0.19840838 0.014348606 0.1988903 0.16551444 -0.18248539 0.16773073
0.109718956 -0.19685487 -0.07606068 -0.0706652 -0.23967639 -0.2690761 -0.2002451 0.26807418
-0.078351565 0.028306205 -0.24486938 -0.05072293 0.11140949 -0.005975712 -0.02317325 -0.00392795
0.19827491 -0.20773533 -0.26481292 -0.28403232 0.11990514 -0.16426279 -0.12897252 -0.03900334
0.17287458 0.0025629278 0.057720114 -0.08283141 0.16048674 -0.14711075 0.22730407 0.24272998
-0.26526386 -0.09337159 -0.03553371 -0.15878773 0.015833395 -0.09678634 0.2441279 -0.023329364
-0.16483764 -0.14642836 -0.2755947 -0.18123668 0.057252157 0.08907471 -0.12709394 0.0030003001
0.14795926 0.038978837 0.033220615 -0.19344744 0.2772416 -0.087057 0.024326475 -0.036314845
0.12811099 -0.24425136 0.06710836 -0.22889031 0.23275572 -0.1162344 0.06019794 0.01951457
00000000: f36d ecbd d68a 31bd 9efd b13d a116 733e
00000010: dcff fd3d 950a 8c3e 2153 d03d f54b 173e
00000020: f393 813d 7e10 7d3e be9b 693e 398e 383e
00000030: 0243 7ebe 1ceb debc 175f c3bd 7155 2bbd
00000040: bac9 553e 5f58 44be edd9 1bbe 6edc f7bd
00000050: 4176 c53c e1c2 2abe a28b 663d ccd5 7fbe
00000060: 05dc 15be 30d2 353e a351 503e 7c6d aebd
00000070: d417 a93c ed80 3bbc 5341 53be 7278 7bbd
00000080: b5e5 333e 99ea ad3b 195b 8e3e a7e2 70be
00000090: 5e3b 55be cbcd 82be 32d7 39be 4e36 743d
000000a0: 6716 493e 7899 7bbe 8f81 6bbe 6dab d8bd
000000b0: a42b 323e 55b9 223e 9817 f4bc 8c0c 893e
000000c0: c661 de3d f632 8f3e 57a5 b7bb 962b 3fbe
000000d0: 70fe 76ba 136c b93d d118 ef3d c174 14bb
000000e0: fe5f 183c 5185 6f3d d907 68bd 467c 8d3d
000000f0: e1bc 37be 0a85 89bd f996 273e 0d3f b73d
00000100: 54f8 283e f41a 49be aec0 b1bd 3c54 1cbe
00000110: fbe5 6abe a6f1 f7bd 1686 9abc a3f8 b0bc
00000120: 9b44 95bc 14bd 3ebe 15e4 a3bc 3423 a03d
00000130: e4de 583e 81ae 363e 3f5a 7cbe 705f 40be
00000140: 0c30 6e3e 03fa 4c3e 089e 273e 22bd 1bbe
00000150: f3a5 7e3e 9eae 92be 6c24 70be 6234 d83c
00000160: f16f 0c3e 0f4f 8ebe 83cc 313d d969 91bb
00000170: 04fe 1ebd 4783 6cbe afc1 10be d7cb 623c
00000180: dd6f 903d 5b63 3d3e 34f3 d5bd d3e8 8e3e
00000190: 1265 e33d e927 4dbe b74f 96be 1805 4b3e
000001a0: 5491 b63c f272 f2bc f8ed c7bd 1bf7 0d3e
000001b0: 6851 d9bd 9ceb 5cbe 11b4 513e e876 01be
000001c0: cedd 2d3e 6aa7 4fbe 2ad0 72bd 9877 25be
000001d0: bda4 4d3c a1d8 0ebd 902c b43d 5137 6abe
000001e0: e329 85be 2e26 703e 8934 67be eba3 cb3d
000001f0: be1f 83be 4a5f 6b3d c497 cdbb 1e7d 14be
00000200: f4f9 c6bb 6e4b 143d 4333 073c 7d71 643e
00000210: 46f6 2cbe 49bc 083e cd0d 8b3e c6e3 58be
00000220: e982 6cbe 781c cc3d d063 d6bd 9deb d9bb
00000230: a3d6 8cbe 7b72 383e b37d 9fbc 0c84 943c
00000240: e4ed d1bd afa5 d13d b475 9ebb d8af f0bd
00000250: 0905 963d e23c e0bd e420 e03d 1c9b 90be
00000260: 12ad e9bd 53e5 4ebe 2c78 003e a70a 54be
00000270: 42f6 693e 5d0c 933d a610 393e 5cf9 44be
00000280: 184b 75be a235 46bd 61ea 25be 208f ccbd
00000290: 8b36 783e 9264 213e 1a6f b2bd b55c 373e
000002a0: 2442 4abe 6477 2fbe 4ac0 053e 925d 023e
000002b0: 1d9e aebd dd0f 4ebe 85c9 3c3d f8a5 913e
000002c0: a398 943e 92ba 773e 2c71 62be 5f2a 483e
000002d0: 1e31 5d3d 2d17 75be 9426 9b3c 19ce 91be
000002e0: bda5 813d 430a 26be 912b 4bbe 6a16 6b3c
000002f0: e6a9 4b3e 9e7c 293e 73dd 3abe 9bc1 2b3e
00000300: 55b4 e03d 5394 49be b4c5 9bbd ebb8 90bd
00000310: ba6d 75be 58c4 89be 0d0d 4dbe 0541 893e
00000320: c976 a0bd 6ae2 e73c 0abf 7abe d9c2 4fbd
00000330: a92a e43d e8cf c3bb d4d5 bdbc 08b6 80bb
00000340: 9408 4b3e 92b8 54be 8f95 87be af6c 91be
00000350: d390 f53d 8134 28be 5f11 04be f7c1 1fbd
00000360: 0906 313e cbf6 273b ed6b 6c3d 84a3 a9bd
00000370: a356 243e 33a4 16be 66c2 683e 358e 783e
00000380: aad0 87be 9b39 bfbd cc8b 11bd 4099 22be
00000390: 09b5 813c eb37 c6bd aafc 793e 391d bfbc
000003a0: 33cb 28be 51f1 15be c01a 8dbe 1c96 39be
000003b0: 3d81 6a3d cd6c b63d ea24 02be afa0 443b
000003c0: a282 173e 46a8 1f3d 5712 083d 1617 46be
000003d0: 9cf2 8d3e f14a b2bd 5148 c73c e0be 14bd
000003e0: 872f 033e 071d 7abe 1c70 893d 3962 6abe
000003f0: 8457 6e3e 4d0c eebd 1d92 763d 05dd 9f3c

encoder.feature_encoder.atom_embedding_list.2.weight f4 [12, 64]
0.009284854 -0.13220073 -0.15161186 -0.10420724 0.14205776 -0.18813711 0.2543076 -0.17692083
0.08183691 0.2827297 -0.119537175 -0.19646728 -0.13897306 -0.11617881 -0.1725408 -0.28174797
-0.14440319 -0.09424813 0.2359944 -0.045567337 0.019741694 -0.088173725 0.04916922 0.14012486
0.049094874 -0.03695945 0.028128697 0.2624952 -0.18198861 0.27894855 -0.05939054 0.2021875
0.21698444 0.009361514 0.0044036233 0.1908667 -0.033267993 0.06968023 0.26549938 -0.055625375
-0.09896562 0.22340494 0.25226513 0.2650554 -0.26510525 0.18810748 0.1477822 -0.16780521
0.18504977 -0.1566973 0.15473075 0.021626519 0.08857818 -0.17274143 -0.054325707 -0.1527473
0.15014863 -0.21959797 0.025731739 0.11641278 -0.0036397555 -0.084866084 0.065471396 0.02490105
-0.15519534 -0.07293991 -0.06049389 -0.1571001 0.006221913 -0.09179886 -0.15259606 -0.22562219
-0.18514176 -0.059142176 0.22296505 -0.025519088 -0.14487231 -0.21489386 0.048117653 0.23739848
-0.25320446 0.21767935 0.24074714 0.061435767 0.13606633 0.085058086 -0.24564351 -0.1085066
-0.059621584 -0.17439803 -0.007355297 0.05403282 0.018409802 0.14556414 -0.16558295 0.24004778
-0.11125134 0.22989479 0.24807708 -0.22940917 -0.26968965 0.2058311 0.21736513 -0.030081183
0.05716101 0.040684227 -0.085791536 0.14784338 0.090536185 -0.2631491 -0.08316303 -0.16871633
0.120015964 -0.28335708 -0.23902927 -0.25392744 -0.09650924 -0.21327476 -0.056007553 -0.15989287
0.17674479 0.24224064 0.11487624 -0.102451004 0.121143274 -0.24881844 -0.14041187 -0.05953261
-0.2645033 0.2601274 0.17995627 0.12640649 0.13731816 0.28151354 -0.10814366 0.06346149
-0.087009676 -0.048100233 -0.2371039 0.1655319 -0.19277826 -0.11972289 0.25998712 -0.16447464
0.04069491 -0.2498377 -0.16423054 0.25900108 0.15588784 0.0119054 -0.14275168 0.21272497
0.2701212 0.056576155 -0.17859752 0.021276142 0.13567008 0.07480496 0.2550474 0.25432253
0.13860558 -0.19710508 -0.005840482 0.069833964 -0.09809318 0.08140512 0.19596033 -0.16577594
-0.09086957 -0.21372771 0.03556646 0.1681886 0.2516889 0.015130828 0.18832092 -0.27866912
-0.0083880825 -0.050553307 -0.12909517 0.260889 0.1712185 -0.23367882 -0.25515777 -0.131502
0.110707976 0.13996458 0.14904185 0.21412182 -0.18126512 0.016356705 -0.12672634 -0.13813649
0.0007141147 -0.026993053 -0.2278118 -0.0034281819 0.13822128 0.25137386 -0.070924744 0.18884929
-0.06539627 -0.20300965 0.24408567 -0.06838235 -0.063585415 -0.045321856 0.25248232 -0.11923821
-0.07662106 0.01617168 -0.17646976 0.1074713 0.23852842 0.09814723 -0.07075474 -0.05286756
-0.27616107 -0.22211662 -0.07483905 0.16198651 0.2637421 -0.020972826 -0.028732177 0.19571686
-0.05765672 -0.19370382 0.15571666 -0.11796854 -0.19394572 0.004219161 -0.19416769 -0.22021724
-0.15488043 -0.026822794 0.09019729 -0.11641875 -0.26403448 -0.0947295 0.2622486 -0.06498833
-0.20646986 -0.10416875 0.24791774 0.036472037 -0.039388683 0.2722122 0.024613837 0.041619185
0.27199617 -0.025941629 -0.048209094 0.22513765 0.09443069 -0.19743799 0.1841621 -0.11649062
00000000: 801f 183c a15f 07be 2440 1bbe 9b6a d5bd
00000010: 9777 113e 04a7 40be 9b34 823e bc2a 35be
00000020: 1c9a a73d f2c1 903e e8cf f4bd b82e 49be
00000030: f44e 0ebe 28ef edbd 89ae 30be 4541 90be
00000040: 6ede 13be 2a05 c1bd 84a8 713e d1a4 3abd
00000050: 55b9 a13c 6d94 b4bd aa65 493d e47c 0f3e
00000060: b517 493d cb62 17bd 276e e63c c565 863e
00000070: 395b 3abe 58d2 8e3e 7f43 73bd 3d0a 4f3e
00000080: 2b31 5e3e 0961 193c 454c 903b 8f72 433e
00000090: 0544 08bd 82b4 8e3d 89ef 873e 6fd7 63bd
000000a0: 7dae cabd 44c4 643e e528 813e 57b5 873e
000000b0: e0bb 87be 3f9f 403e 3854 173e 21d5 2bbe
000000c0: b07d 3d3e 4275 20be bd71 1e3e 192a b13c
000000d0: 7a68 b53d 21e3 30be a284 5ebd ca69 1cbe
000000e0: 90c0 193e 4ade 60be 5ecb d23c d369 ee3d
000000f0: f788 6ebb 45ce adbd de15 863d 49fd cb3c
00000100: 87eb 1ebe 8561 95bd 71c8 77bd d9de 20be
00000110: 30e1 cb3b 0a01 bcbd 2442 1cbe 8109 67be
00000120: cd95 3dbe 113f 72bd f350 643e 680d d1bc
00000130: 6859 14be 230d 5cbe 0417 453d 9618 733e
00000140: 04a4 81be 56e7 5e3e 6b86 763e 12a4 7b3d
00000150: f954 0b3e ef32 ae3d f989 7bbe b538 debd
00000160: c335 74bd 6695 32be b404 f1bb 8551 5d3d
00000170: 27d0 963c c40e 153e 948e 29be 16cf 753e
00000180: bed7 e3bd 8a69 6b3e eb07 7e3e 3dea 6abe
00000190: c314 8abe 63c5 523e f794 5e3e d06c f6bc
000001a0: aa21 6a3d 81a4 263d 79b3 afbd 4164 173e
000001b0: 096b b93d 7bbb 86be 6151 aabd f9c3 2cbe
000001c0: eeca f53d 2e14 91be 17c4 74be c702 82be
000001d0: a3a6 c5bd b364 5abe 2d68 65bd f5ba 23be
000001e0: 96fc 343e ee0d 783e 3c44 eb3d d5d1 d1bd
000001f0: f719 f83d 43ca 7ebe 21c8 0fbe 77d8 73bd
00000200: fa6c 87be 6b2f 853e 7546 383e b470 013e
00000210: 229d 0c3e 8b22 903e 6c7a ddbd 19f8 813d
00000220: 2132 b2bd c004 45bd 5dcb 72be 3281 293e
00000230: aa67 45be 4631 f5bd 081d 853e 0a6c 28be
00000240: b5af 263d 74d5 7fbe 0d2c 28be ca9b 843e
00000250: 10a1 1f3e de0e 433c 7f2d 12be 93d4 593e
00000260: 534d 8a3e 66bc 673d 45e2 36be 4e4b ae3c
00000270: 19ed 0a3e 5833 993d 9395 823e 9036 823e
00000280: 9fee 0d3e ead5 49be 8461 bfbb 1c05 8f3d
00000290: 14e5 c8bd bab7 a63d d3a9 483e 2bc1 29be
000002a0: d319 babd 70db 5abe 23ae 113d a239 2c3e
000002b0: 5edd 803e 4be7 773c 33d7 403e b8ad 8ebe
000002c0: 2b6e 09bc fc10 4fbd 8631 04be 3e93 853e
000002d0: e753 2f3e 8049 6fbe 0aa4 82be 76a8 06be
000002e0: ddba e23d e052 0f3e 6d9e 183e c042 5b3e
000002f0: 909d 39be 7ffe 853c 8dc4 01be a773 0dbe
00000300: 6d33 3b3a 8920 ddbc 7f47 69be 59ab 60bb
00000310: e189 0d3e 13b4 803e fe40 91bd b561 413e
00000320: 7bee 85bd c3e1 4fbe 98f1 793e 0c0c 8cbd
00000330: 1239 82bd 69a3 39bd 5d45 813e 2a33 f4bd
00000340: 81eb 9cbd 797a 843c 7db4 34be ea19 dc3d
00000350: cb40 743e 6a01 c93d dce7 90bd a88b 58bd
00000360: fc64 8dbe 8a72 63be 3745 99bd cbdf 253e
00000370: 3409 873e 34cf abbc be5f ebbc 006a 483e
00000380: 7429 6cbd 4b5a 46be 3074 1f3e 7d99 f1bd
00000390: b599 46be e340 8a3b e5d3 46be a180 61be
000003a0: fa98 1ebe 7abb dbbc 5bb9 b83d f46c eebd
000003b0: 872f 87be 8a01 c2bd 7345 863e 9a18 85bd
000003c0: d66c 53be 6d56 d5bd 26de 7d3e b463 153d
000003d0: 0756 21bd 665f 8b3e f5a2 c93c e178 2a3d
000003e0: 1543 8b3e 8a83 d4bc e676 45bd 7c8a 663e
000003f0: e164 c13d 2f2d 4abe fd94 3c3e a292 eebd

encoder.feature_encoder.atom_embedding_list.3.weight f4 [12, 64]
0.18370853 0.048239842 0.11948052 0.27808878 0.19236562 0.21766427 -0.17755085 -0.20725837
0.22571875 0.26133585 0.14303072 0.11118179 -0.06500968 0.09841892 -0.13534439 -0.013938974
0.26371324 -0.174083 -0.23613884 -0.021886952 0.14424358 -0.26131752 0.17884903 0.012524453
0.033616804 0.1718505 0.13640441 -0.015937217 -0.2665081 0.24115653 -0.0909676 -0.15607165
0.093428016 0.18884753 0.040009577 -0.15987878 -0.25739104 0.122321695 0.09835394 0.16544433
0.28084046 -0.15305436 0.0872769 0.282301 -0.008772252 -0.10616257 -0.21933772 0.003837813
-0.14107645 -0.1916996 -0.27200598 0.11472092 -0.040530458 0.11578807 0.14944012 -0.27923214
-0.10183721 0.25472805 -0.048416432 0.1847049 -0.24291669 0.25272733 0.11812829 -0.19676879
0.062053666 0.18013172 0.15528435 0.050807443 -0.108643904 -0.0879537 -0.20530415 0.27340478
0.050247055 0.061675433 -0.15796655 -0.21677268 -0.03704659 0.14709087 0.21635845 -0.025583107
0.11389839 -0.051901978 -0.08341832 0.27577877 0.06839682 0.27583316 -0.2756207 0.01858988
-0.09621167 0.21475476 0.13705483 0.046873894 0.17756839 -0.16625036 -0.073670596 0.14260294
-0.16440831 0.06755757 0.087742366 -0.23359895 -0.15951505 -0.20795272 -0.25698745 -0.09969457
0.08831469 0.103296556 0.15873922 0.035219803 -0.17984346 -0.26817223 0.24040414 0.058425594
0.22029123 -0.26545182 -0.1461236 -0.01001522 0.23249753 -0.23421581 -0.14799912 -0.21315937
0.13933523 0.017066484 -0.10885543 0.1815114 -0.20871194 -0.026918355 -0.13303868 -0.06660392
0.008614505 -0.0009983368 0.27708626 -0.25184682 -0.11545879 -0.01491177 -0.11154069 0.2577692
0.14629903 0.21406771 0.2056512 -0.019047225 0.18517503 -0.025456425 0.20044617 0.040739708
0.11500174 0.11218592 -0.10665582 0.23908548 0.22879049 -0.06790475 -0.083173275 -0.24930882
0.14781693 -0.21751928 -0.26025793 0.23120955 0.06744044 0.24142693 -0.23504609 -0.15827799
-0.076007746 0.17370129 -0.21331105 -0.24765043 -0.079536274 -0.14577052 0.27540153 0.1376315
-0.18965428 -0.119159065 -0.011055749 -0.17584081 -0.21189997 0.2541317 -0.18823177 0.15713708
-0.07564841 -0.2146807 -0.13102973 -0.12874325 -0.19083397 -0.17328902 -0.015285458 -0.14794779
0.23016495 -0.26583615 -0.049101077 0.18261597 -0.18544966 -0.06660866 -0.22918226 -0.2684258
0.13364774 0.06961194 0.03039908 0.22169015 -0.004332901 -0.23669304 -0.27381715 0.042016353
-0.17056973 0.2596763 -0.03761259 0.24131767 -0.050610088 -0.13151671 -0.27834427 0.2684931
-0.2445981 0.19750212 -0.109094985 -0.20525517 -0.097331256 0.13603348 0.21442407 -0.23534591
-0.20950954 0.096287064 0.13144179 -0.1804401 0.11431951 -0.039066788 -0.24516886 0.15460496
-0.2349897 -0.015909884 -0.06259677 -0.13186885 -0.04651567 -0.2507931 0.24872144 -0.210159
0.18115193 0.009508166 -0.013057863 -0.02045558 -0.11852364 -0.050828956 0.19852602 -0.13210878
0.12941293 -0.22466226 -0.13826877 0.19628288 0.09977409 -0.25516558 -0.19687903 0.181849
-0.022516444 0.25794077 -0.2771224 0.07355441 -0.27787924 0.11708596 -0.09465941 -0.030010937
00000000: 171e 3c3e 2497 453d 34b2 f43d a761 8e3e
00000010: 7efb 443e 62e3 5e3e e4cf 35be 8a3b 54be
00000020: d122 673e d0cd 853e a576 123e 47b3 e33d
00000030: cc23 85bd dc8f c93d b897 0abe 4b60 64bc
00000040: 6c05 873e d042 32be 61ce 71be 444c b3bc
00000050: 97b4 133e 69cb 85be 3324 373e 5d33 4d3c
00000060: c6b1 093d 94f9 2f3e 99ad 0b3e c48e 82bc
00000070: c073 88be bdf1 763e 394d babd 3fd1 1fbe
00000080: 3057 bf3d 3f61 413e 15e1 233d 43b7 23be
00000090: c2c8 83be cc83 fa3d ca6d c93d 3d6a 293e
000000a0: 52ca 8f3e 48ba 1cbe 3bbe b23d c289 903e
000000b0: 7eb9 0fbc c36b d9bd 119a 60be d183 7b3b
000000c0: 5876 10be e64c 44be 5e44 8bbe cdf2 ea3d
000000d0: 4403 26bd 4c22 ed3d d506 193e 84f7 8ebe
000000e0: 0790 d0bd b76b 823e 4f50 46bd 4823 3d3e
000000f0: 27bf 78be 7a65 813e 3fed f13d c27d 49be
00000100: fc2b 7e3d 7374 383e dc02 1f3e 771b 503d
00000110: b280 debd 1221 b4bd 403b 52be b6fb 8b3e
00000120: dbcf 4d3d 619f 7c3d fcc1 21be a8f9 5dbe
00000130: 2abe 17bd fd9e 163e 128d 5d3e aa93 d1bc
00000140: 8f43 e93d 2b97 54bd 39d7 aabd e032 8d3e
00000150: a213 8c3d 013a 8d3e 281e 8dbe ce49 983c
00000160: a00a c5bd ace8 5b3e 1a58 0c3e d7fe 3f3d
00000170: 7dd4 353e 893d 2abe 9ce0 96bd 8106 123e
00000180: a75a 28be a05b 8a3d 45b2 b33d 9034 6fbe
00000190: ea57 23be 8ff1 54be dc93 83be ab2c ccbd
000001a0: 55de b43d 258d d33d 898c 223e a442 103d
000001b0: e228 38be df4d 89be 812c 763e ad4f 6f3d
000001c0: 0694 613e 4de9 87be 6da1 15be e116 24bc
000001d0: d513 6e3e 45d6 6fbe 158d 17be 7346 5abe
000001e0: e5ad 0e3e 03cf 8b3c 98ef debd 20de 393e
000001f0: 95b8 55be e283 dcbc 4b3b 08be a367 88bd
00000200: da23 0d3c a0da 82ba 40de 8d3e 11f2 80be
00000210: a875 ecbd 7f50 74bc 726f e4bd 53fa 833e
00000220: 6acf 153e 9134 5b3e 3a96 523e ed08 9cbc
00000230: 869e 3d3e fe89 d0bc c341 4d3e aede 263d
00000240: 0886 eb3d bbc1 e53d 5e6e dabd d3d2 743e
00000250: 0e48 6a3e a511 8bbd c056 aabd d04a 7fbe
00000260: 525d 173e 60bd 5ebe 8740 85be 32c2 6c3e
00000270: 371e 8a3d 9f38 773e ecaf 70be a013 22be
00000280: f3a9 9bbd c0de 313e 366e 5abe 1398 7dbe
00000290: eae3 a2bd de44 15be 6e01 8d3e 46ef 0c3e
000002a0: bb34 42be ab09 f4bd 2c23 35bc 9d0f 34be
000002b0: 4efc 58be 8d1d 823e d4bf 40be 8be8 203e
000002c0: 8eed 9abd 42d5 5bbe a82c 06be 45d5 03be
000002d0: fb69 43be ad72 31be dc6f 7abc a07f 17be
000002e0: 5cb0 6b3e ad1b 88be 361e 49bd aeff 3a3e
000002f0: 84e6 3dbe 1f6a 88bd c1ae 6abe 1b6f 89be
00000300: f4da 083e b490 8e3d 7e07 f93c be02 633e
00000310: 02fb 8dbb a95f 72be c331 8cbe 5719 2c3d
00000320: d5a9 2ebe 4bf4 843e a90f 1abd fb1b 773e
00000330: 864c 4fbd 51ac 06be 2483 8ebe ed77 893e
00000340: ed77 7abe ff3d 4a3e 316d dfbd 692e 52be
00000350: 9c55 c7bd 5c4c 0b3e fc91 5b3e 85fe 70be
00000360: ab89 56be 2732 c53d ad98 063e 4ac5 38be
00000370: 5920 ea3d 7f04 20bd 8c0d 7bbe c350 1e3e
00000380: 24a1 70be 7255 82bc bc32 80bd a108 07be
00000390: 3787 3ebd f467 80be d5b0 7e3e ec33 57be
000003a0: e47f 393e 24c8 1b3c a6f0 55bc 7692 a7bc
000003b0: 86bc f2bd 0632 50bd 684a 4b3e 8647 07be
000003c0: d384 043e dd0d 66be 5496 0dbe 61fe 483e
000003d0: 5c56 cc3d 10a5 82be a89a 49be a036 3a3e
000003e0: 6874 b8bc d010 843e fde2 8dbe b2a3 963d
000003f0: 3046 8ebe c4ca ef3d cbdc c1bd 7fd9 f5bc

encoder.feature_encoder.atom_embedding_list.4.weight f4 [10, 64]
0.18572165 0.14715646 0.123528756 0.25912043 0.052711435 -0.12647294 0.13629597 -0.02957092
0.2799364 -0.21592315 -0.16401336 0.18543488 -0.18307549 0.16072598 -0.18593639 0.0872587
0.24948435 0.11935039 -0.17624018 0.113717675 -0.0015620198 -0.061520208 -0.27874148 -0.18325518
-0.09412905 0.21142091 -0.19625677 -0.25771445 -0.20452489 0.08782611 -0.2470176 -0.27732983
0.011317917 -0.27045122 0.059407882 -0.02817073 0.26160845 -0.1068522 -0.25364712 -0.16851474
-0.015185151 -0.11895323 0.27486506 -0.21901244 -0.27488747 0.1262792 -0.06973846 0.17552504
0.04795264 0.10136479 0.19842067 -0.043761794 -0.12443872 -0.107554324 -0.070343435 -0.25126913
0.23792048 0.12843332 -0.09460987 0.22617862 0.119971566 0.116000436 0.17321286 0.042258926
-0.023071362 0.20916444 0.093707904 0.18697235 0.16107105 -0.18845646 -0.06386426 0.21783791
-0.048698615 -0.12475574 -0.12776317 -0.22718957 0.17009665 0.16621141 -0.15244426 -0.28476232
0.06166783 0.015722007 0.20246355 0.058282424 -0.039121397 0.17010978 0.18439324 0.14112642
0.20059773 -0.26553047 0.11973092 0.16511904 0.1761351 -0.123199955 0.068394266 -0.23663242
0.2239977 0.014639169 0.19730549 0.08644857 -0.1308981 0.15154791 0.18148813 -0.150437
0.024116658 -0.15025668 -0.206031 0.10981695 -0.23921889 0.11307999 -0.21045609 -0.013738069
-0.1053348 0.13770834 0.26459995 -0.21730492 -0.07768444 -0.046415262 -0.2539503 -0.25624272
-0.13125636 -0.056581058 0.24999975 0.08857722 0.25389498 -0.23425257 -0.147478 0.034993935
-0.23132852 0.13224547 0.0015695338 -0.27387872 -0.2739879 0.028342484 0.088659465 -0.0065730126
-0.089493185 0.18486615 0.016048986 -0.143441 0.23467048 -0.074781574 -0.08715241 -0.02349692
-0.05650553 -0.018107938 -0.12157113 0.17447335 0.010609866 0.16410801 0.029503146 0.1925714
-0.1926166 0.15172933 0.107624054 0.12540501 -0.15993257 0.03264955 -0.10735446 -0.099207744
-0.043853156 -0.04248948 0.12552121 0.28277785 -0.07469166 0.27641368 0.14986895 -0.25415203
0.21660875 -0.21888258 -0.11428169 -0.106869005 0.0028546555 -0.28421214 -0.2797287 -0.22923635
-0.13763493 -0.0010380005 0.19300607 -0.24827965 0.031652533 0.22287978 0.08795777 0.051033203
-0.25986916 0.1749425 -0.056946035 0.10940013 -0.18675962 -0.04687346 0.16432512 -0.18235753
-0.22062138 -0.027118923 0.14817907 -0.19514376 0.028206898 -0.117163315 0.04277237 0.044058558
0.19377337 -0.14388919 -0.2503868 0.040373903 0.15652606 -0.12529899 0.09895998 -0.2595444
0.14163063 0.1451857 -0.2657034 -0.06409153 0.11886763 0.12851699 0.08152459 -0.20554869
0.24291821 -0.24527523 -0.0028843852 -0.151604 -0.23543848 -0.12910241 0.25774235 -0.2417727
0.19684164 0.2591538 -0.16636056 0.08094292 -0.10871559 -0.26790467 -0.24963011 -0.049310714
-0.20516135 -0.039821707 0.16427468 0.13830575 -0.28151292 0.09801119 0.0015028194 0.10066863
0.19027728 -0.24487509 -0.14911869 0.13312177 0.047246177 -0.074820355 -0.14359131 0.04496469
-0.08224852 0.08152435 -0.12869915 0.2663586 0.035732258 -0.07849038 -0.24079975 0.27507436
00000000: d12d 3e3e 2fb0 163e a5fc fc3d 6fab 843e
00000010: f2e7 573d 1f82 01be 2c91 0b3e b73e f2bc
00000020: d353 8f3e f51a 5dbe 1ef3 27be a4e2 3d3e
00000030: 2478 3bbe 5a95 243e 1c66 3ebe b0b4 b23d
00000040: d378 7f3e fa6d f43d 4e78 34be d0e4 e83d
00000050: b0bc ccba 9dfc 7bbd 34b7 8ebe 3fa7 3bbe
00000060: bbc6 c0bd b97e 583e 89f7 48be 26f3 83be
00000070: f96e 51be 2dde b33d 2ff2 7cbe 2dfe 8dbe
00000080: c96e 393c 9578 8abe ae55 733d 4ec6 e6bc
00000090: 8bf1 853e 54d5 dabd 09de 81be 218f 2cbe
000000a0: 24cb 78bc c09d f3bd 1dbb 8c3e cc44 60be
000000b0: 0dbe 8cbe 564f 013e 0ad3 8ebd d6bc 333e
000000c0: fd69 443d 5898 cf3d ca2e 4b3e 913f 33bd
000000d0: bad9 febd 7145 dcbd 3810 90bd 59a6 80be
000000e0: 6da1 733e 0684 033e d2c2 c1bd 5e9b 673e
000000f0: a7b3 f53d a391 ed3d b65e 313e b217 2d3d
00000100: 2700 bdbc 342f 563e eee9 bf3d ae75 3f3e
00000110: cfef 243e bbfa 40be 44cb 82bd e710 5f3e
00000120: 3378 47bd f07f ffbd 59d4 02be 62a4 68be
00000130: d12d 2e3e 5333 2a3e 591a 1cbe 5ecc 91be
00000140: 6897 7c3d 70cb 803c 9b52 4f3e 8db9 6e3d
00000150: c23d 20bd 4231 2e3e 95d1 3c3e 7283 103e
00000160: 7e69 4d3e 9cf3 87be 7c35 f53d f714 293e
00000170: c25c 343e 4250 fcbd 4b12 8c3d c54f 72be
00000180: a75f 653e 20d9 6f3c 730a 4a3e f30b b13d
00000190: 270a 06be 602f 1b3e 06d8 393e 280c 1abe
000001a0: 4c90 c53c e3dc 19be caf9 52be b6e7 e03d
000001b0: ccf5 74be 7b96 e73d cd81 57be a315 61bc
000001c0: c6b9 d7bd 6a03 0d3e a579 873e 2e85 5ebe
000001d0: 0519 9fbd ee1d 3ebd c605 82be 3f32 83be
000001e0: 1168 06be 8ac1 67bd efff 7f3e f967 b53d
000001f0: 86fe 813e e8df 6fbe 7904 17be cd55 0f3d
00000200: 62e1 6cbe 5b6b 073e d1b8 cd3a d539 8cbe
00000210: 2448 8cbe 7f2e e83c 1893 b53d 6d62 d7bb
00000220: 3448 b7bd 8d4d 3d3e 2a79 833c 33e2 12be
00000230: 754d 703e 1527 99bd f67c b2bd 9d7c c0bc
00000240: 5872 67bd 1957 94bc 49fa f8bd 24a9 323e
00000250: 01d5 2d3c ee0b 283e 95b0 f13c 7031 453e
00000260: 493d 45be ef5e 1b3e 006a dc3d 2c6a 003e
00000270: 5dc5 23be 89bb 053d a8dc dbbd 6e2d cbbd
00000280: 5e9f 33bd 7309 2ebd a288 003e 42c8 903e
00000290: f1f7 98bd 1886 8d3e 3f77 193e 3720 82be
000002a0: afce 5d3e c122 60be 850c eabd 23de dabd
000002b0: 2c15 3b3b 4184 91be 9a38 8fbe efbc 6abe
000002c0: 2cf0 0cbe 840d 88ba 62a3 453e 053d 7ebe
000002d0: 16a6 013d 993a 643e 3423 b43d 3108 513d
000002e0: 920d 85be 2024 333e 3f40 69bd 2d0d e03d
000002f0: ea3d 3fbe 63fe 3fbd d844 283e efbb 3abe
00000300: 92ea 61be 8128 debc 41bc 173e c4d3 47be
00000310: 2712 e73c 52f3 efbd 1532 2f3d bf76 343d
00000320: 876c 463e b057 13be b332 80be 1b5f 253d
00000330: 5e48 203e 614e 00be 88ab ca3d 01e3 84be
00000340: 9f07 113e 8fab 143e 470a 88be 6c42 83bd
00000350: df70 f33d f599 033e 5df6 a63d 5b7b 52be
00000360: 8dbf 783e 6e29 7bbe f407 3dbb 143e 1bbe
00000370: c916 71be 6c33 04be cef6 833e 4393 77be
00000380: db90 493e cfaf 843e 6c5a 2abe 67c5 a53d
00000390: 47a6 debd cd2a 89be 099f 7fbe 08fa 49bd
000003a0: d115 52be 161c 23bd 9f37 283e 06a0 0d3e
000003b0: 7622 90be 17ba c83d 40fa c43a 5b2b ce3d
000003c0: 0cd8 423e 89c0 7abe 92b2 18be 1351 083e
000003d0: 3585 413d 6a3b 99bd 9a09 13be e52c 383d
000003e0: e971 a8bd 3df6 a63d b6c9 03be 2860 883e
000003f0: fd5b 123d 90bf a0bd 3694 76be 8cd6 8c3e

encoder.feature_encoder.atom_embedding_list.5.weight f4 [6, 64]
-0.17945169 0.08760915 -0.05980645 0.2464846 -0.024112029 0.24442786 -0.09102318 -0.2304376
0.007627733 -0.17097877 -0.16221428 0.20668654 0.27196968 -0.18655153 -0.28676876 0.09118774
-0.24736948 -0.08048394 0.122977756 0.10291681 0.046443693 0.12580045 -0.16636275 -0.09403653
-0.091140345 -0.29039612 -0.16704461 0.045770958 0.08247619 -0.12871465 0.20577791 -0.15556489
0.017692046 0.24827787 0.18889913 0.28214437 0.08222106 -0.20634691 -0.09462254 -0.086256795
-0.21728167 -0.113955624 -0.27930358 -0.13454716 -0.29289734 0.2893552 0.046383947 0.27764246
0.16836815 0.2895911 -0.09354138 -0.1424894 -0.12822871 -0.27101687 -0.015953602 0.04189644
0.16599376 -0.052858166 0.10321175 0.12114696 0.06801906 0.06909704 -0.1065498 0.15861829
-0.28426254 0.03455961 0.15485969 0.18343061 0.12903686 -0.044482533 0.20866488 -0.2775712
-0.061259013 -0.1095634 0.17864229 0.25732774 -0.07742428 0.05891692 -0.042314664 -0.08330082
0.11710842 0.06888545 -0.14078856 0.063901015 0.26444134 -0.20474334 -0.046698216 -0.2598881
-0.07389789 0.2769121 0.19041716 -0.27615666 -0.2621755 0.011764677 -0.03348512 0.2205409
-0.08072014 0.2220417 -0.17314735 -0.053343385 -0.006272286 -0.15069067 0.0124236755 -0.063085064
-0.13891214 -0.23041114 -0.00047266297 0.27246296 0.11364088 -0.22392292 -0.14788815 0.1923003
-0.10912882 -0.027128998 -0.13766065 0.13959086 -0.1980013 -0.27749956 -0.21512894 -0.25263008
0.028149676 0.04539062 -0.09266871 0.12134602 0.027462546 0.070745364 0.15269108 0.05920433
0.2931213 0.21897876 -0.16562591 0.21559921 -0.034059245 -0.010173069 0.028919706 -0.2561736
0.19344303 0.19712053 0.28903726 0.055040546 -0.07991575 -0.048228975 -0.09420679 -0.2647476
0.09951439 0.040298373 -0.09030582 -0.17069158 -0.067738555 0.08095174 0.22567765 0.11939353
0.22070831 0.23311287 -0.14464656 -0.006093105 -0.24818696 -0.16555242 0.1133171 0.115350574
0.13140589 0.252055 0.118861176 -0.14344165 -0.06241923 0.025785256 0.15443794 -0.1506305
-0.1224158 0.11206412 0.098637186 0.27322307 0.24144964 -0.13565518 0.10429012 -0.17771281
-0.012974627 -0.028115105 0.070333585 0.25984576 -0.22904868 0.27285144 0.20423037 -0.14167471
-0.07258791 -0.06408594 0.18596607 -0.07924433 0.10293223 -0.11597184 0.23282912 -0.04701435
0.2798941 -0.21795012 -0.08741494 0.18922406 0.097369306 -0.1482439 -0.2397365 -0.22103442
-0.24463354 -0.16179468 -0.17739384 -0.08449645 0.25367284 -0.07770914 -0.18095908 0.14313428
-0.17231496 -0.1465266 -0.04837943 -0.036036443 -0.18054497 -0.23283742 -0.2857825 -0.12417533
0.14833653 0.023486914 0.23338108 0.050777853 -0.21963926 0.027580198 -0.07501395 0.1657747
0.07965675 0.28982255 -0.26249415 -0.13934375 -0.24850067 0.026050141 -0.18662345 -0.121568896
0.27947202 -0.09808977 0.14404543 0.18823156 0.21233052 0.2394909 0.18059896 0.029012566
0.24702388 0.28332603 -0.20195714 0.061138432 0.20143977 -0.19793135 0.114900835 0.1827972
0.009135138 -0.084637664 -0.024212714 0.2546751 -0.23181005 0.11615448 -0.1584765 0.19757427
00000000: 2fc2 37be 6d6c b33d 9cf7 74bd 7566 7c3e
00000010: 9786 c5bc 4c4b 7a3e 5c6a babd d6f7 6bbe
00000020: 10f2 f93b 0f15 2fbe 801b 26be a3a5 533e
00000030: 9c3f 8b3e 5d07 3fbe 5bd3 92be a3c0 ba3d
00000040: 6d4e 7dbe c4d4 a4bd c3db fb3d 0cc6 d23d
00000050: be3b 3e3d d5d1 003e ff5a 2abe 3996 c0bd
00000060: caa7 babd cdae 94be be0d 2bbe 547a 3b3d
00000070: 47e9 a83d c6cd 03be 72b7 523e 674c 1fbe
00000080: e9ee 903c 8e3c 7e3e c66e 413e 3a75 903e
00000090: 8463 a83d 9b4c 53be 76c9 c1bd 67a7 b0bd
000000a0: 167f 5ebe 9161 e9bd e100 8fbe bbc6 09be
000000b0: a4f6 95be 5d26 943e 18fd 3d3d 2727 8e3e
000000c0: b368 2c3e 4945 943e 9f92 bfbd bee8 11be
000000d0: 634e 03be b9c2 8abe 21b1 82bc 9a9b 2b3d
000000e0: 45fa 293e ce81 58bd af60 d33d e61b f83d
000000f0: 944d 8b3d c082 8d3d c836 dabd d56c 223e
00000100: dc8a 91be 618e 0d3d 8a93 1e3e 3cd5 3b3e
00000110: 3d22 043e 5133 36bd 3fac 553e d01d 8ebe
00000120: bbea 7abd c762 e0bd 01ee 363e 76c0 833e
00000130: 9f90 9ebd de52 713d 2452 2dbd 9f99 aabd
00000140: 8ad6 ef3d d113 8d3d e02a 10be 89de 823d
00000150: db64 873e 3da8 51be a146 3fbd 0e10 85be
00000160: c757 97bd 6cc7 8d3e b7fc 423e 6864 8dbe
00000170: de3b 86be a2c0 403c b127 09bd 79d5 613e
00000180: 9a50 a5bd e65e 633e 8a4d 31be 987e 5abd
00000190: c087 cdbb a84e 1abe ac8c 4b3c be32 81bd
000001a0: fc3e 0ebe e6f0 6bbe c0cf f7b9 4480 8b3e
000001b0: 8dbc e83d 0d4c 65be fe6f 17be 5fea 443e
000001c0: ee7e dfbd a23d debc eaf6 0cbe e8f0 0e3e
000001d0: dac0 4abe 6c14 8ebe c34a 5cbe bb58 81be
000001e0: 269a e63c 84eb 393d 18c9 bdbd 4384 f83d
000001f0: 22f9 e03c f2e2 903d 0d5b 1c3e 3d80 723d
00000200: ff13 963e f83b 603e d799 29be 0ac6 5c3e
00000210: b581 0bbd f2ac 26bc 05e9 ec3c 3029 83be
00000220: ee15 463e f7d9 493e b1fc 933e 3272 613d
00000230: deaa a3bd bf8b 45bd 7def c0bd ff8c 87be
00000240: 33ce cb3d e80f 253d 42f2 b8bd c6c9 2ebe
00000250: 83ba 8abd 07ca a53d 0b18 673e 9884 f43d
00000260: 5c01 623e 24b5 6e3e 3a1e 14be aba8 c7bb
00000270: b924 7ebe 9386 29be cc12 e83d ec3c ec3d
00000280: 448f 063e 5a0d 813e 7d6d f33d 5ee2 12be
00000290: 4eab 7fbd 9a3b d33c fb24 1e3e e23e 1abe
000002a0: 23b5 fabd e081 e53d 4b02 ca3d e5e3 8b3e
000002b0: 933e 773e 31e9 0abe 0f96 d53d 59fa 35be
000002c0: 8893 54bc a651 e6bc 0e0b 903d 810a 853e
000002d0: bd8b 6abe 2fb3 8b3e c421 513e 2d13 11be
000002e0: f8a8 94bd 7d3f 83bd e46d 3e3e da4a a2bd
000002f0: 22ce d23d a582 edbd c26a 6e3e 1e92 40bd
00000300: 484e 8f3e 512e 5fbe 9b06 b3bd f4c3 413e
00000310: 8f69 c73d 40cd 17be 7c7d 75be d956 62be
00000320: 3781 7abe 81ad 25be bba6 35be 7a0c adbd
00000330: 68e1 813e f825 9fbd 564d 39be cb91 123e
00000340: 5573 30be 120b 16be 8229 46bd f39a 13bd
00000350: c8e0 38be ef6c 6ebe 1552 92be a34f febd
00000360: 88e5 173e a167 c03c 73fb 6e3e 70fc 4f3d
00000370: 1de9 60be deef e13c eaa0 99bd d8c0 293e
00000380: 1423 a33d 9f63 943e a265 86be 21b0 0ebe
00000390: f676 7ebe 1b67 d53c 381a 3fbe 1df9 f8bd
000003a0: f516 8f3e 4ae3 c8bd a580 133e c6bf 403e
000003b0: 2c6d 593e 1a3d 753e efee 383e c3ab ed3c
000003c0: d4f3 7c3e 1c10 913e dacd 4ebe 4b6c 7a3d
000003d0: 3a46 4e3e 84ae 4abe 2151 eb3d 302f 3b3e
000003e0: 8cab 153c 8356 adbd be59 c6bc c664 823e
000003f0: 9d5f 6dbe 66e2 ed3d aa47 22be e950 4a3e

encoder.feature_encoder.atom_embedding_list.6.weight f4 [6, 64]
-0.018553827 0.28813103 -0.12147012 0.243324 0.12651877 0.22604245 0.006426745 0.18635075
0.012613285 0.008366265 -0.04814171 0.07824812 0.28745654 0.23008448 -0.16212492 -0.12582897
0.16524732 -0.109774105 -0.09351546 0.07183756 -0.16409436 -0.21189886 0.23748033 -0.264876
-0.18950038 0.12391771 -0.02972329 0.16460551 -0.030716322 -0.003594384 -0.04353195 0.08598987
0.07394447 -0.040306706 0.19753268 -0.18545808 -0.07481202 0.01501677 0.13692896 -0.10215069
0.010364268 -0.2687912 0.14061438 0.17130543 -0.24314994 -0.23608431 0.023144398 0.25554714
0.11056937 0.22628379 -0.23746535 0.21127255 0.27151987 -0.23435348 0.06695882 -0.05663618
0.29246184 -0.14910777 -0.28815338 -0.23108123 0.20661455 0.07583482 -0.27609476 -0.22608736
0.15401281 -0.15389691 -0.20091414 -0.12527035 -0.11118143 -0.1799928 -0.12441855 0.038672697
0.05932763 0.25007692 -0.2769214 -0.069345646 -0.08648312 -0.16181655 0.09912729 -0.13962394
-0.104939364 -0.22715883 -0.1167512 0.012223745 -0.1617663 -0.06092033 -0.17543063 0.052544307
0.10365802 -0.17443183 -0.12122838 -0.036329977 -0.15351932 -0.13056888 0.13967502 -0.038446262
0.116254866 0.0035491358 0.0114322 -0.21260528 0.024763852 0.27356458 0.27635425 0.20238893
-0.096602425 -0.0032894113 0.25959203 -0.06665794 0.07682113 0.027779281 0.18912461 -0.14528728
0.05185962 -0.25851303 -0.073849306 0.122525126 0.027914267 0.2674143 -0.20743468 0.12951265
-0.017396834 0.27580097 0.2562296 0.25838104 -0.19037503 0.28846896 -0.17993242 -0.1412549
0.16857632 0.0042257356 0.14225307 0.2529077 -0.035802465 0.079054624 0.008843926 0.19681232
0.15012443 0.016220685 -0.2183539 0.085915595 0.18067941 0.028291471 0.14682768 0.075040065
-0.14432514 -0.14799239 -0.04986426 -0.25036475 -0.0060028513 -0.069316015 -0.24659878 0.039477766
0.06597505 0.11459507 -0.012794957 -0.10732895 -0.049433965 -0.23042667 0.008572617 0.15940379
0.004433344 0.026371513 0.24561045 0.24367836 0.25919455 0.23490544 0.16256957 -0.006384998
-0.2833363 0.03200079 0.16604824 0.011171711 0.1438 -0.22332996 -0.013377939 0.28990096
-0.26178196 -0.04299836 0.13069592 -0.27083102 -0.11379776 -0.1226172 0.19604023 -0.045672268
0.011196931 0.23667444 0.07459329 -0.106096014 0.15373269 -0.11999994 0.25350916 -0.08513889
0.26114196 -0.08956912 0.16629043 0.26031548 -0.1038667 -0.024931803 -0.15253398 0.15029933
-0.102329016 0.2222648 -0.18685353 -0.099728726 -0.07038625 0.24537046 0.15676284 -0.012670747
0.1437603 -0.25525904 -0.023113009 0.259516 -0.069247924 -0.16264237 -0.13374884 0.22769287
0.046168957 0.07549579 -0.13602504 0.1460162 -0.0045444365 0.29147568 0.18925618 -0.2534435
0.23971224 -0.19188948 -0.098090865 0.043123923 -0.23231262 -0.014455886 -0.15538375 -0.075391054
-0.0023736376 -0.05036085 0.10074401 -0.08121476 0.03877955 -0.011020858 -0.100344114 -0.26207975
0.14662388 -0.24920706 0.03603024 0.18241544 0.26492333 -0.15142636 0.24804547 -0.1558102
-0.17449263 0.043898124 -0.12387223 -0.18451104 0.07832391 0.24378698 0.17447877 0.10278754
00000000: 32fe 97bc e985 933e 54c5 f8bd ed29 793e
00000010: 238e 013e ac77 673e 7297 d23b bbd2 3e3e
00000020: f4a7 4e3c a912 093c 3e30 45bd 8d40 a03d
00000030: 812d 933e 449b 6b3e 1304 26be 4fd9 00be
00000040: 9836 293e 3fd1 e0bd 0985 bfbd 921f 933d
00000050: 5a08 28be 04fc 58be 0b2e 733e d49d 87be
00000060: 630c 42be 91c8 fd3d 427e f3bc 598e 283e
00000070: cca0 fbbc c28f 6bbb 8f4e 32bd 751b b03d
00000080: 3370 973d a518 25bd 0246 4a3e b9e8 3dbe
00000090: 0b37 99bd e608 763c 1b37 0c3e 6234 d1bd
000000a0: e4ce 293c 009f 89be 37fd 0f3e b16a 2f3e
000000b0: 4cfc 78be 16c0 71be 5299 bd3c 13d7 823e
000000c0: 3272 e23d f0b6 673e 1e2a 73be d557 583e
000000d0: a704 8b3e 5cfa 6fbe b521 893d 57fb 67bd
000000e0: 8fbd 953e b5af 18be d788 93be 8fa0 6cbe
000000f0: c492 533e 494f 9b3d 4b5c 8dbe 7283 67be
00000100: 89b5 1d3e 2797 1dbe 70bc 4dbe df46 00be
00000110: 17b3 e3bd 0850 38be 27cf febd 4367 1e3d
00000120: 8701 733d 150a 803e a4c8 8dbe 1705 8ebd
00000130: 101e b1bd 3db3 25be 4003 cb3d 94f9 0ebe
00000140: 73ea d6bd 539c 68be 411b efbd 1a46 483c
00000150: 11a6 25be 9987 79bd 16a4 33be b338 573d
00000160: a84a d43d 429e 32be 9646 f8bd bece 14bd
00000170: 2b34 1dbe d9b3 05be f806 0f3e d479 1dbd
00000180: 0817 ee3d 9e98 683b 1f4e 3b3c 33b5 59be
00000190: 90dd ca3c a810 8c3e 4e7e 8d3e 0b3f 4f3e
000001a0: 7ed7 c5bd 2a93 57bb 3fe9 843e f583 88bd
000001b0: 6654 9d3d 6091 e33c e2a9 413e 30c6 14be
000001c0: c16a 543d d25b 84be 4e3e 97bd 74ee fa3d
000001d0: 76ac e43c 87ea 883e c269 54be f79e 043e
000001e0: ce83 8ebc c935 8d3e 8730 833e 854a 843e
000001f0: acf1 42be 34b2 933e 3440 38be 20a5 10be
00000200: 459f 2c3e 0a78 8a3b caaa 113e 1e7d 813e
00000210: 9ba5 12bd 64e7 a13d 1de6 103c 2b89 493e
00000220: 38ba 193e 3ee1 843c 2a98 5fbe 84f4 af3d
00000230: 0604 393e 84c3 e73c ff59 163e 9bae 993d
00000240: f8c9 13be 518b 17be 773e 4cbd cf2f 80be
00000250: 91b3 c4bb 8ef5 8dbd 6484 7cbe 70b3 213d
00000260: ed1d 873d d2b0 ea3d f0a1 51bc 48cf dbbd
00000270: 457b 4abd f8f4 6bbe 2974 0c3c bf3a 233e
00000280: 9645 913b 1209 d83c 4e81 7b3e d286 793e
00000290: 26b5 843e 0d8b 703e a378 263e 3f39 d1bb
000002a0: 7511 91be 4313 033d 8d08 2a3e 8d09 373c
000002b0: 4f40 133e 9cb0 64be 252f 5bbc e66d 943e
000002c0: 4908 86be 0c1f 30bd 27d5 053e 5daa 8abe
000002d0: cd0e e9bd ba1e fbbd c5be 483e d812 3bbd
000002e0: 5573 373c c95a 723e 5ec4 983d de48 d9bd
000002f0: 1a6c 1d3e 87c2 f5bd f4cb 813e 4c5d aebd
00000300: 66b4 853e 0470 b7bd 0a48 2a3e 1248 853e
00000310: 10b8 d4bd c83d ccbc de31 1cbe 11e8 193e
00000320: e091 d1bd 6299 633e 8856 3fbe 933e ccbd
00000330: ab26 90bd 6542 7b3e 7086 203e f798 4fbc
00000340: e635 133e 50b1 82be 7e57 bdbc 48df 843e
00000350: dbd1 8dbd b98b 26be 75f5 08be 5228 693e
00000360: a91b 3d3d 899d 9a3d 264a 0bbe 4585 153e
00000370: 7fe9 94bb 4d3c 953e 5fcc 413e 59c3 81be
00000380: 2077 753e ad7e 44be dde3 c8bd b6a2 303d
00000390: 5ce3 6dbe 61d8 6cbc eb1c 1fbe a066 9abd
000003a0: 088f 1bbb 2e47 4ebd e052 ce3d ed53 a6bd
000003b0: 4ed7 1e3d d490 34bc 3781 cdbd 512f 86be
000003c0: 9224 163e 2330 7fbe 7294 133d 1dcb 3a3e
000003d0: 08a4 873e 830f 1bbe a2ff 7d3e b68c 1fbe
000003e0: 32ae 32be 85ce 333d b9b0 fdbd 76f0 3cbe
000003f0: 4968 a03d 4ba3 793e 90aa 323e 4682 d23d

encoder.feature_encoder.atom_embedding_list.7.weight f4 [2, 64]
0.24418887 0.29902786 -0.22902983 -0.061472964 0.23059763 -0.28735456 0.21840563 0.24148953
0.28081998 -0.11241718 0.24739543 0.072774984 0.24879089 0.12687114 0.014309363 -0.29356351
-0.18581818 0.25248948 0.12018316 -0.09151893 0.29599896 -0.22435568 0.20257814 0.2953119
-0.106224515 0.08516164 0.19105236 -0.066787995 0.07119315 0.14620565 -0.08324259 -0.16648223
0.09269334 -0.2640459 -0.26729047 0.010343458 -0.15315391 0.08289376 0.06540409 -0.24449743
-0.1744645 0.2884791 -0.023232775 -0.0378607 -0.14526008 0.11892117 0.11196257 0.11300131
-0.10610709 0.1521419 0.1941415 0.28119904 -0.29027125 0.11237922 -0.10690692 -0.09621676
-0.21902773 0.087357774 -0.23314169 -0.1740637 -0.0048573627 0.10493759 0.13168393 0.18928394
-0.2853769 -0.15062167 0.051153276 -0.21602161 -0.15620692 -0.12311108 0.15064271 0.13183549
-0.116085865 -0.14840451 0.062007118 0.08649731 0.26909158 0.22048293 -0.082296945 -0.022395162
0.16230251 0.059236344 0.14638641 0.2781743 0.102016725 -0.020508833 -0.29453117 -0.13919207
0.14103739 0.2739565 0.099514425 -0.2057753 -0.24687572 0.29226515 -0.09095146 -0.0767762
-0.058509346 0.17129114 0.27026793 0.10532809 0.20162989 0.26234856 -0.29070088 -0.12258918
-0.15146215 0.15279327 0.21104059 0.041246552 0.20947066 -0.2885686 -0.05444565 0.036955386
-0.028460706 0.23279029 -0.12224362 0.24233398 -0.08784956 0.012480738 0.052739035 0.2541214
-0.06158356 -0.01905799 0.21453635 0.29060867 -0.16792166 0.088806085 0.0025298453 -0.28443137
00000000: a60c 7a3e 2e1a 993e cc86 6abe 13cb 7bbd
00000010: c921 6c3e 2320 93be baa5 5f3e 0849 773e
00000020: a3c7 8f3e fa3a e6bd 3a55 7d3e 0d0b 953d
00000030: 0ac3 7e3e 82ea 013e d271 6a3c f54d 96be
00000040: 1f47 3ebe 4d46 813e 9722 f63d 476e bbbd
00000050: 2d8d 973e 7fbd 65be a570 4f3e 1f33 973e
00000060: 3d8c d9bd 3a69 ae3d 3ba3 433e 25c8 88bd
00000070: b7cd 913d efb6 153e 177b aabd 517a 2abe
00000080: 01d6 bd3d 0631 87be 4cda 88be 9b77 293c
00000090: 61d4 1cbe 34c4 a93d 94f2 853d 895d 7abe
000000a0: d2a6 32be 88b3 933e a952 bebc d213 1bbd
000000b0: 0fbf 14be f18c f33d a24c e53d 3b6d e73d
000000c0: ad4e d9bd 16cb 1b3e 08cd 463e 52f9 8f3e
000000d0: 6f9e 94be 1427 e63d 04f2 dabd 4b0d c5bd
000000e0: ce48 60be a2e8 b23d b2bc 6ebe c13d 32be
000000f0: 832a 9fbb 85e9 d63d 27d8 063e a6d3 413e
00000100: ec1c 92be 913c 1abe 1986 513d c534 5dbe
00000110: b5f4 1fbe a921 fcbd 1542 1a3e e2ff 063e
00000120: 6dbe edbd 5af7 17be 2dfb 7d3d 8025 b13d
00000130: 5fc6 893e 47c6 613e 4d8b a8bd 0f76 b7bc
00000140: a132 263e cfa1 723d 52e6 153e dd6c 8e3e
00000150: 25ee d03d 2402 a8bc cacc 96be 5e88 0ebe
00000160: 1b6c 103e 0744 8c3e 38ce cb3d c3b6 52be
00000170: fdcc 7cbe c7a3 953e c244 babd d73c 9dbd
00000180: 7fa7 6fbd f266 2f3e 8f60 8a3e 41b6 d73d
00000190: 1178 4e3e 8d52 863e bfd6 94be 0910 fbbd
000001a0: e518 1bbe d775 1c3e 061b 583e 25f2 283d
000001b0: 7a7f 563e 43bf 93be 6702 5fbd 885e 173d
000001c0: 6d26 e9bc 9460 6e3e dd5a fabd 6626 783e
000001d0: 78ea b3bd 027c 4c3c e304 583d 331c 823e
000001e0: 0b3f 7cbd 801f 9cbc 6baf 5b3e a9ca 943e
000001f0: a8f3 2bbe f7df b53d c3cb 253b fda0 91be

encoder.feature_encoder.atom_embedding_list.8.weight f4 [2, 64]
-0.1352823 0.09791556 0.09184351 0.050044842 0.21435547 0.032793347 0.28464106 -0.063673005
0.0059135472 -0.15193565 -0.23827696 -0.12454487 0.073579706 0.016307129 0.12795782 0.09837637
-0.29047 0.2558957 -0.08802007 -0.22318172 0.11419065 0.076133355 -0.16865061 0.0013157869
0.26277646 0.077946454 -0.08038899 -0.069681115 0.09687884 0.28585672 -0.08083604 0.27122194
-0.11761098 0.21730047 0.024464436 -0.12645043 0.25183147 0.21571125 -0.051106468 -0.28709465
-0.15586336 -0.020586956 -0.25698674 -0.23446965 -0.025343819 -0.070038065 0.009734896 -0.15468341
-0.1502584 0.09921893 0.016507396 0.19774623 -0.16622563 -0.13066743 -0.13991691 -0.20844351
0.16614172 -0.049724188 0.30511403 0.17723124 -0.1396543 -0.09063514 0.13520472 -0.21048792
0.26046902 0.053473126 0.09112741 0.26474732 -0.2569693 -0.11154737 -0.13398585 -0.19824916
0.19323629 0.1999241 0.22641458 0.28436363 -0.14789453 0.012831058 0.08121271 -0.09157367
0.16868141 0.29143363 -0.29336277 -0.065818556 0.18290159 -0.21412414 -0.056354765 0.19721948
0.07220115 -0.15764263 -0.07951147 0.005390479 0.2881722 -0.19677508 -0.021515077 -0.06257442
0.29750776 0.2206724 -0.04042806 -0.12959285 0.2969039 -0.03217781 -0.086292475 0.23656219
0.0887323 0.0317564 0.26642767 -0.14784813 0.2385305 0.1475275 -0.19180778 0.27470642
0.10438661 -0.2191728 0.25388473 -0.2530889 0.036523215 0.13551837 0.16206552 -0.26611084
0.26189882 0.26695493 0.17992431 0.09791652 -0.19053468 0.2323236 0.019254848 -0.046113882
00000000: 7187 0abe f487 c83d 7318 bc3d d2fb 4c3d
00000010: 0080 5b3e 5152 063d 79bc 913e fe66 82bd
00000020: 6ec6 c13b 0595 1bbe e0fe 73be 6111 ffbd
00000030: f5b0 963d 8796 853c 6007 033e 8d79 c93d
00000040: 7cb8 94be c304 833e de43 b4bd c089 64be
00000050: cadc e93d ceeb 9b3d bfb2 2cbe 7b76 ac3a
00000060: a38a 863e 64a2 9f3d fca2 a4bd f9b4 8ebd
00000070: 6a68 c63d d05b 923e 5e8d a5bd 9add 8a3e
00000080: 07de f0bd 0484 5e3e a469 c83c 397c 01be
00000090: 0ef0 803e 69e3 5c3e 0455 51bd 12fe 92be
000000a0: a59a 1fbe faa5 a8bc c493 83be d018 70be
000000b0: d79d cfbc 1e70 8fbd 1d7f 1f3c 5465 1ebe
000000c0: 57dd 19be 4b33 cb3d 853a 873c fd7d 4a3e
000000d0: 0d37 2abe afcd 05be 6146 0fbe 3772 55be
000000e0: 0e21 2a3e 97ab 4bbd e837 9c3e 1b7c 353e
000000f0: 8901 0fbe eb9e b9bd 1b73 0a3e 258a 57be
00000100: 325c 853e a306 5b3d 02a1 ba3d f68c 873e
00000110: 7b91 83be f372 e4bd 9633 09be d401 4bbe
00000120: bcdf 453e e7b8 4c3e 39d9 673e 1c98 913e
00000130: aa71 17be 5c39 523c d952 a63d fa8a bbbd
00000140: d2ba 2c3e ca36 953e a533 96be e1cb 86bd
00000150: 8e4a 3b3e 5c43 5bbe 41d4 66bd e7f3 493e
00000160: 32de 933d 126d 21be e9d6 a2bd 9ea2 b03b
00000170: 4e8b 933e 687f 49be 6340 b0bc 0427 80bd
00000180: f052 983e f2f7 613e e597 25bd fdb3 04be
00000190: ca03 983e e1cc 03bd 1cba b0bd 5c3d 723e
000001a0: 48b9 b53d 0013 023d 3569 883e 8065 17be
000001b0: 5741 743e 7311 173e 4269 44be 52a6 8c3e
000001c0: a6c8 d53d d66e 60be 2efd 813e de94 81be
000001d0: 5e99 153d 54c5 0a3e 81f4 253e ae3f 88be
000001e0: 9a17 863e 51ae 883e 143e 383e 7588 c83d
000001f0: 861b 43be 3de6 6d3e 58bc 9d3c e9e1 3cbd
