checkpoints/tuning_multi/trial_19/best_model.pt (torch, 520320 bytes, 104 tensors)

encoder.feature_encoder.atom_embedding_list.0.weight f4 [119, 64]
0	0x3e0baf0b	0.13640992
1	0x3d1f4e36	0.038892947
2	0xbb9f8097	-0.004867624
3	0x3e28df13	0.16491346
4	0xbdfddb8c	-0.12395391
5	0xbe2c8f0d	-0.16851445
6	0xbdca584f	-0.09880125
7	0x3e09217c	0.1339168
8	0x3e3620d4	0.1778596
9	0xbd8d1917	-0.06889551
10	0xbdde2276	-0.10846417
11	0xbe242543	-0.16029839
12	0x3daf002b	0.08544954
13	0xbd8ddd54	-0.069269806
14	0x3e0ea389	0.13929571
15	0xbd853987	-0.06505113
16	0x3e304de7	0.17217217
17	0x3dfb7d82	0.12279798
18	0x3ddd1082	0.10794164
19	0x3db91596	0.0903732
20	0xbe178053	-0.14795046
21	0x3ccbe2d3	0.024888432
22	0xbdd2c626	-0.102917
23	0xbd3663aa	-0.04452864
24	0x3dd9672a	0.1061538
25	0xbdc151cb	-0.09439429
26	0x3de90db2	0.11379565
27	0x3be350c3	0.006937118
28	0xbdb301b0	-0.08740556
29	0xbdb2862c	-0.087169975
30	0xbe343eb8	-0.1760205
31	0x3d75a126	0.059968136
32	0x3ae51dd0	0.0017480198
33	0x3e236bad	0.15959044
34	0x3d8d2cd2	0.068933144
35	0x3d526f71	0.05137581
36	0xbc224808	-0.009904869
37	0x3db6401d	0.088989474
38	0xbcbf4933	-0.023350334
39	0x3d968dcc	0.07351264
40	0xbda5d780	-0.08097744
41	0x3de8e56d	0.113718845
42	0x3d299cb0	0.041409194
43	0x3dcba3a6	0.09943323
44	0x3c141ce0	0.009040087
45	0x3dad60a9	0.08465702
46	0x3e2d98a0	0.16952753
47	0x3cdea860	0.027179897
48	0x3e06a51e	0.13148925
49	0xbe2e99f9	-0.17050923
50	0xbcbb7ebb	-0.022887578
51	0xbe24a236	-0.16077504
52	0x3c97d08b	0.018532058
53	0x3cfbcb1d	0.0307365
54	0x3d46996f	0.04848617
55	0xbd9dd977	-0.07707494
56	0x3db42683	0.08796408
57	0xbda7a0d1	-0.0818497
58	0xbd4e86bf	-0.050421473
59	0x3e0a284f	0.13491939
60	0xbe2aa361	-0.16663887
61	0x3d0fff64	0.03515567
62	0xbe204185	-0.15649994
63	0x3d9f7fac	0.07788023
64	0xbe1d0a9f	-0.15336083
65	0xbe2b07b3	-0.16702156
66	0xbd6a22af	-0.057161983
67	0x3e13f1c0	0.14447689
68	0x3db64d4b	0.08901461
69	0x3de71af2	0.11284436
70	0xbd3b0369	-0.04565755
71	0x3e21f3f5	0.15815718
72	0xbda3dade	-0.0800073
73	0xbbfa971e	-0.007647409
74	0xbe268422	-0.16261342
75	0x3c91f84c	0.017818592
76	0x3d36d5f7	0.044637647
77	0xbe2ca907	-0.16861354
78	0x3e188dab	0.14897792
79	0x3d1a5db5	0.037687022
80	0x3e3a5108	0.18194973
81	0xbd9b69fa	-0.07588573
82	0x3c282d42	0.010264697
83	0xbd8229b8	-0.063556135
84	0x3e1f24ab	0.15541331
85	0xbdd481a8	-0.103762925
86	0x3dd8c4f3	0.1058444
87	0xbe01a95d	-0.12662263
88	0x3e0305e6	0.12795219
89	0xbe2ffd00	-0.17186356
90	0xbdad5d20	-0.08465028
91	0xbdaa3995	-0.08311764
92	0xbcdaa907	-0.026691927
93	0x3b3fbdb9	0.002925737
94	0x3d633107	0.055466678
95	0x3e1cf0b6	0.15326199
96	0x3dd404f5	0.10352508
97	0xbda59446	-0.080849215
98	0x3e2a0289	0.1660253
99	0xbcd1cc3e	-0.025610086
100	0xbdcecbc4	-0.10097459
101	0x3d8ff45f	0.07029032
102	0xbcde4294	-0.027131356
103	0x3e30d9ca	0.1727058
104	0x3cbbe680	0.02293706
105	0x3e0061d9	0.12537326
106	0x3d2af01b	0.04173289
107	0xbdf7c396	-0.12097852
108	0x3d32c9ad	0.043649364
109	0xbdd4c88d	-0.103898145
110	0xbd3aa4be	-0.045567267
111	0xbd5c4ab6	-0.053782187
112	0xbe0dd8b1	-0.13852192
113	0x3d8dcd0d	0.06923876
114	0x3e036eba	0.12835208
115	0xbe339b40	-0.17539692
116	0x3dd5057e	0.10401438
117	0xbe11f229	-0.14252533
118	0xbe329206	-0.17438516
119	0x3d7fc653	0.062444996
120	0xbbad4806	-0.005288127
121	0xbdeba496	-0.11506002
122	0x3e20860b	0.15676133
123	0x3c5a66f2	0.013330208
124	0xbde89933	-0.113573454
125	0x3da7d1ca	0.08194311
126	0x3caa8138	0.02081357
127	0xbce9d86d	-0.028545583
128	0xbe03ff3c	-0.12890333
129	0xbc7798ba	-0.015112096
130	0x3dcefb69	0.101065464
131	0xbdb708fb	-0.0893726
132	0x3db6e0e5	0.08929614
133	0xbe36379f	-0.17794655
134	0xbd8fb19a	-0.07016297
135	0xbd78560f	-0.060628947
136	0xbe1cca81	-0.15311624
137	0x3d848987	0.06471544
138	0xbe114127	-0.1418501
139	0x3dd1070b	0.102064215
140	0x3d256032	0.040374942
141	0x3b1d88f7	0.0024037936
142	0xbdc5b255	-0.09653155
143	0xbd80263b	-0.06257292
144	0x3d340e14	0.04395874
145	0x3e30f562	0.17281106
146	0xbdb19566	-0.086710736
147	0xbdfc50ee	-0.123201236
148	0xbda23564	-0.0792034
149	0xbe0530a2	-0.13006833
150	0xbcc3471f	-0.023837624
151	0xbe042934	-0.12906343
152	0x3e0670a9	0.13128914
153	0x3dfad8de	0.122483954
154	0xbdf30d24	-0.11867741
155	0x3e235bd2	0.15952995
156	0x3d1da597	0.038487997
157	0xbdeddcf9	-0.11614413
158	0x3d765882	0.060143
159	0xbe2847d4	-0.1643365
160	0xbdc209ec	-0.09474549
161	0xbe0adf52	-0.13561752
162	0xbdce187a	-0.10063262
163	0xbd208a3a	-0.039194323
164	0x3d290a6e	0.041269712
165	0x3d0d8712	0.03455264
166	0xbe3399c6	-0.17539129
167	0xbe3179d2	-0.17331627
168	0xbce10986	-0.027470361
169	0x3e2081d2	0.15674523
170	0x3d896006	0.06707768
171	0x3e258238	0.16162956
172	0xbdafb463	-0.08579328
173	0x3d57f7d0	0.052726567
174	0xbe216be6	-0.15763816
175	0x3dbe0e2f	0.09280049
176	0xbbee2642	-0.0072677443
177	0xbc09e5a1	-0.008416564
178	0xbdc06703	-0.09394648
179	0xbe220189	-0.15820898
180	0xbd888889	-0.06666667
181	0xbc8c2989	-0.01710965
182	0xbdc4eeba	-0.09615846
183	0x3d9aff3d	0.07568214
184	0xbd089cce	-0.033352666
185	0x3ca83af0	0.020535916
186	0xbe2e5df4	-0.17028028
187	0x3d5769d3	0.052591156
188	0xbdb54d72	-0.08852662
189	0xbe0c1a9d	-0.13682027
190	0xbd8fe3ec	-0.070258945
191	0xbe295df7	-0.16539751
192	0xbe0d86dc	-0.13820976
193	0x3e0a3e24	0.13500267
194	0x3e17c518	0.14821279
195	0xbe00ca43	-0.12577157
196	0x3d20d85c	0.039268836
197	0xbdbf02a1	-0.09326673
198	0x3e2d8167	0.16943894
199	0x3de264bd	0.110543706
200	0x3d937261	0.071995504
201	0xbe172c05	-0.14762886
202	0xbdb666e9	-0.08906347
203	0xbd1bde91	-0.038054053
204	0xbe25c61f	-0.16188858
205	0xbdd8b90d	-0.10582171
206	0x3d4344d0	0.047673047
207	0xbe16f183	-0.14740567
208	0x3d4555b9	0.048177455
209	0xbb8797c4	-0.004137965
210	0xbc744e18	-0.014911197
211	0xbd58a4c5	-0.05289151
212	0xbdc74c1e	-0.09731315
213	0xbe2d5ad3	-0.16929178
214	0xbdfc5934	-0.12321702
215	0x3e0c0843	0.13675027
216	0xbc5be5ad	-0.013421458
217	0x3e348cc6	0.17631826
218	0x3c1c66e4	0.009546015
219	0xbcaed778	-0.021342978
220	0x3dde6349	0.10858781
221	0xbe2e907f	-0.17047308
222	0xbde5d9a9	-0.11223156
223	0x3dd4b9ff	0.103870384
224	0xbd416d82	-0.047223575
225	0x3e12b1dd	0.14325662
226	0xbc87730e	-0.016534355
227	0x3e043b12	0.12913159
228	0x3c1014e5	0.008794044
229	0x3c9a0b78	0.018804297
230	0xbe1c9c12	-0.15293911
231	0xbd8027d8	-0.062575996
232	0x3c14bf84	0.009078864
233	0x3da96fc7	0.08273273
234	0x3d0fe820	0.03513348
235	0xbd210747	-0.03931358
236	0x3aa03bef	0.0012224893
237	0x3e1f63cc	0.15565413
238	0x3df75ebe	0.120786175
239	0x3d7d123a	0.06178496
240	0xbe05a035	-0.13049395
241	0xbd796114	-0.060883597
242	0x3decc184	0.11560348
243	0x3e26e87e	0.16299626
244	0xbdaf4fed	-0.085601665
245	0x3d9d91c0	0.07693815
246	0xbd2dab12	-0.042399473
247	0x3deb3e4e	0.11486493
248	0xbcdee26f	-0.027207581
249	0xbe1363b3	-0.14393501
250	0xbe3788e5	-0.17923315
251	0xbbde4ec5	-0.0067842924
252	0x3d5aa5dc	0.053380832
253	0xbdda9ad3	-0.106740616
254	0x3e11e1a1	0.14246227
255	0x3dafe5d5	0.08588759

encoder.feature_encoder.atom_embedding_list.1.weight f4 [5, 64]
0	0xbdf2c5c6	-0.118541285
1	0xbd50c383	-0.050967705
2	0x3db7c5c6	0.08973269
3	0x3e6ce36c	0.2313363
4	0x3df46a8d	0.119343854
5	0x3e8a76c2	0.2704373
6	0x3dc7eb09	0.09761626
7	0x3e16c34e	0.1472294
8	0x3d5abcf0	0.05340284
9	0x3e76fd67	0.24120103
10	0x3e67cc0c	0.22636431
11	0x3e28a0e7	0.1646763
12	0xbe819e4d	-0.25316086
13	0xbd1108cb	-0.035408776
14	0xbdc70c52	-0.09719147
15	0xbd2ae703	-0.041724216
16	0x3e58dd40	0.2117815
17	0xbe43d788	-0.19125187
18	0xbe22fc97	-0.15916668
19	0xbdefc96a	-0.117083386
20	0x3c9e566e	0.019328322
21	0xbe2ab469	-0.16670384
22	0x3d8d45ab	0.06898054
23	0xbe777a4b	-0.24167745
24	0xbe1271cd	-0.14301224
25	0x3e2fcec7	0.17168723
26	0x3e4dd6b4	0.20101434
27	0xbd957b39	-0.072988935
28	0x3c1ebb0a	0.009688148
29	0xbc939b75	-0.018018464
30	0xbe4e7e2a	-0.20165315
31	0xbd8b686e	-0.06807028
32	0x3e2cb0d5	0.16864331
33	0x3bcb88fd	0.0062113986
34	0x3e8d4a7a	0.27595884
35	0xbe6e5647	-0.232751
36	0xbe59b68b	-0.21261041
37	0xbe814f72	-0.25255924
38	0xbe3addc2	-0.18248656
39	0x3d827c68	0.06371385
40	0x3e4c260f	0.19936393
41	0xbe792ed0	-0.24334264
42	0xbe6b1889	-0.22958578
43	0xbddefc8c	-0.10888013
44	0x3e393b41	0.1808901
45	0x3e1edd0c	0.1551401
46	0xbcec3395	-0.02883319
47	0x3e870588	0.26371408
48	0x3dd0688e	0.10176192
49	0x3e8ce43e	0.27517885
50	0xbb17bc4a	-0.0023153
51	0xbe3c5a95	-0.1839393
52	0x39a3b961	0.000312279
53	0x3dc902cc	0.098149866
54	0x3e016782	0.12637141
55	0x3c13f33e	0.009030161
56	0x3b9b2f00	0.0047358274
57	0x3d6e73d9	0.05821595
58	0xbd86207a	-0.06549163
59	0x3d91541e	0.07096122
60	0xbe3d1cb2	-0.18467978
61	0xbd7b167b	-0.061300736
62	0x3e254ad9	0.16141833
63	0x3dbcdc5a	0.09221716
64	0x3e27fbb9	0.16404618
65	0xbe4c02ac	-0.19922894
66	0xbdbb99c5	-0.091601886
67	0xbe21dfb9	-0.15808
68	0xbe6fd196	-0.23419794
69	0xbdfd3d0b	-0.12365159
70	0xbc7bc994	-0.015367884
71	0xbcd4be63	-0.02596969
72	0xbc9e6ac8	-0.019338027
73	0xbe3863a3	-0.18006758
74	0xbc805623	-0.015666073
75	0x3dad192f	0.08452069
76	0x3e5d441b	0.21608011
77	0x3e3ac354	0.18238574
78	0xbe791140	-0.24322987
79	0xbe40dfdc	-0.18835396
80	0x3e73ffa6	0.23827991
81	0x3e4f191a	0.20224419
82	0x3e2462c5	0.16053303
83	0xbe245fce	-0.16052172
84	0x3e7bb414	0.24580413
85	0xbe923384	-0.28554928
86	0xbe72b80c	-0.23703021
87	0x3d07eff4	0.03318782
88	0x3e026ef8	0.12737644
89	0xbe917fd9	-0.28417853
90	0x3d38820e	0.045045905
91	0xbbba60d7	-0.0056878137
92	0xbd083572	-0.033254094
93	0xbe6b4372	-0.22974947
94	0xbe15ae52	-0.14617279
95	0x3c1a20fc	0.009407278
96	0x3d8954ed	0.067056514
97	0x3e3eae47	0.18621169
98	0xbdd2b487	-0.10288339
99	0x3e8db254	0.27675116
100	0x3ddff222	0.10934855
101	0xbe4be77b	-0.19912522
102	0xbe958fb8	-0.2921121
103	0x3e490d00	0.19633865
104	0x3ceaf0ee	0.028679337
105	0xbccb7080	-0.024833918
106	0xbdd4a83e	-0.10383652
107	0x3e0e5f5c	0.13903564
108	0xbddf71f8	-0.1091041
109	0xbe5d6150	-0.21619153
110	0x3e569596	0.209555
111	0xbe04262e	-0.1290519
112	0x3e365004	0.17803961
113	0xbe51449f	-0.20436333
114	0xbd6b3833	-0.057426643
115	0xbe26e6a0	-0.16298914
116	0x3c910734	0.01770363
117	0xbd25204b	-0.040314
118	0x3db9a973	0.09065523
119	0xbe6a3751	-0.22872664
120	0xbe847e59	-0.25877646
121	0x3e6c4b6b	0.23075645
122	0xbe68c7cd	-0.22732468
123	0x3dcb0380	0.09912777
124	0xbe831fbe	-0.25610155
125	0x3d61cdcd	0.055127908
126	0xbb66e304	-0.0035230527
127	0xbe15ad55	-0.14616902
128	0xbbc6f9f4	-0.006072277
129	0x3d144b6e	0.036204748
130	0x3c073343	0.008251968
131	0x3e64717d	0.22308917
132	0xbe2cf646	-0.16890821
133	0x3e08bc49	0.13353075
134	0x3e8b0dcd	0.27158967
135	0xbe58e3c6	-0.21180639
136	0xbe6c82e9	-0.23096813
137	0x3dcc1c78	0.099663675
138	0xbdd663d0	-0.104682565
139	0xbbd9eb9d	-0.0066504017
140	0xbe8cd6a3	-0.27507505
141	0x3e38727b	0.18012421
142	0xbc9f7db3	-0.019469118
143	0x3c94840c	0.018129371
144	0xbdd1ede4	-0.10250452
145	0x3dd1a5af	0.1023668
146	0xbb9e75b4	-0.0048358086
147	0xbdf0afd8	-0.117522895
148	0x3d960509	0.07325179
149	0xbde03ce2	-0.109491125
150	0x3de020e4	0.109437734
151	0xbe909b1c	-0.2824334
152	0xbde9ad12	-0.11409964
153	0xbe4ee553	-0.20204668
154	0x3e00782c	0.12545842
155	0xbe540aa7	-0.20707189
156	0x3e69f642	0.22847846
157	0x3d930c5d	0.071800925
158	0x3e3910a6	0.18072757
159	0xbe44f95c	-0.19235748
160	0xbe754b18	-0.23954427
161	0xbd4635a2	-0.048390992
162	0xbe25ea61	-0.1620269
163	0xbdcc8f20	-0.099882364
164	0x3e78368b	0.24239556
165	0x3e216492	0.15761021
166	0xbdb26f1a	-0.08712597
167	0x3e375cb5	0.17906459
168	0xbe4a4224	-0.19751793
169	0xbe2f7764	-0.17135388
170	0x3e05c04a	0.13061634
171	0x3e025d92	0.12731007
172	0xbdae9e1d	-0.085262515
173	0xbe4e0fdd	-0.20123239
174	0x3d3cc985	0.04609062
175	0x3e91a5f8	0.28446937
176	0x3e9498a3	0.29022703
177	0x3e77ba92	0.24192265
178	0xbe62712c	-0.22113484
179	0x3e482a5f	0.19547413
180	0x3d5d311e	0.05400192
181	0xbe75172d	-0.23934622
182	0x3c9b2694	0.018939294
183	0xbe91ce19	-0.28477553
184	0x3d81a5bd	0.0633044
185	0xbe260a43	-0.16214852
186	0xbe4b2b91	-0.19840838
187	0x3c6b166a	0.014348606
188	0x3e4ba9e6	0.1988903
189	0x3e297c9e	0.16551444
190	0xbe3add73	-0.18248539
191	0x3e2bc19b	0.16773073
192	0x3de0b455	0.109718956
193	0xbe499453	-0.19685487
194	0xbd9bc5b4	-0.07606068
195	0xbd90b8eb	-0.0706652
196	0xbe756dba	-0.23967639
197	0xbe89c458	-0.2690761
198	0xbe4d0d0d	-0.2002451
199	0x3e894105	0.26807418
200	0xbda076c9	-0.078351565
201	0x3ce7e26a	0.028306205
202	0xbe7abf0a	-0.24486938
203	0xbd4fc2d9	-0.05072293
204	0x3de42aa9	0.11140949
205	0xbbc3cfe8	-0.005975712
206	0xbcbdd5d4	-0.02317325
207	0xbb80b608	-0.00392795
208	0x3e4b0894	0.19827491
209	0xbe54b892	-0.20773533
210	0xbe87958f	-0.26481292
211	0xbe916caf	-0.28403232
212	0x3df590d3	0.11990514
213	0xbe283481	-0.16426279
214	0xbe04115f	-0.12897252
215	0xbd1fc1f7	-0.03900334
216	0x3e310609	0.17287458
217	0x3b27f6cb	0.0025629278
218	0x3d6c6bed	0.057720114
219	0xbda9a384	-0.08283141
220	0x3e2456a3	0.16048674
221	0xbe16a433	-0.14711075
222	0x3e68c266	0.22730407
223	0x3e788e35	0.24272998
224	0xbe87d0aa	-0.26526386
225	0xbdbf399b	-0.09337159
226	0xbd118bcc	-0.03553371
227	0xbe229940	-0.15878773
228	0x3c81b509	0.015833395
229	0xbdc637eb	-0.09678634
230	0x3e79fcaa	0.2441279
231	0xbcbf1d39	-0.023329364
232	0xbe28cb33	-0.16483764
233	0xbe15f151	-0.14642836
234	0xbe8d1ac0	-0.2755947
235	0xbe39961c	-0.18123668
236	0x3d6a813d	0.057252157
237	0x3db66ccd	0.08907471
238	0xbe0224ea	-0.12709394
239	0x3b44a0af	0.0030003001
240	0x3e1782a2	0.14795926
241	0x3d1fa846	0.038978837
242	0x3d081257	0.033220615
243	0xbe461716	-0.19344744
244	0x3e8df29c	0.2772416
245	0xbdb24af1	-0.087057
246	0x3cc74851	0.024326475
247	0xbd14bee0	-0.036314845
248	0x3e032f87	0.12811099
249	0xbe7a1d07	-0.24425136
250	0x3d89701c	0.06710836
251	0xbe6a6239	-0.22889031
252	0x3e6e5784	0.23275572
253	0xbdee0c4d	-0.1162344
254	0x3d76921d	0.06019794
255	0x3c9fdd05	0.01951457

encoder.feature_encoder.atom_embedding_list.2.weight f4 [12, 64]
0	0x3b9eb842	0.0048437426
1	0xbe03bacc	-0.12864226
2	0xbe206ebd	-0.15667243
3	0xbdd82fa9	-0.105559655
4	0x3e11f938	0.14255226
5	0xbe4d6b14	-0.20060378
6	0x3e81de97	0.25365135
7	0xbe389bc8	-0.18028176
8	0x3da6309e	0.08114742
9	0x3e934508	0.28763604
10	0xbded8683	-0.11597922
11	0xbe3d6eb0	-0.18499255
12	0xbe16d228	-0.14728606
13	0xbdec03c6	-0.11524157
14	0xbe336a01	-0.17520906
15	0xbe8e1955	-0.27753702
16	0xbe0ad47f	-0.13557623
17	0xbdcc509a	-0.09976311
18	0x3e75d002	0.2400513
19	0xbd4c14ca	-0.049824513
20	0x3ce90b88	0.028447881
21	0xbdb77740	-0.08958292
22	0x3d48310d	0.048874903
23	0x3e0a93e5	0.1353298
24	0x3d2ef869	0.04271737
25	0xbd314230	-0.043276012
26	0x3d012411	0.031528536
27	0x3e874d09	0.2642596
28	0xbe392c7d	-0.18083377
29	0x3e8d12fa	0.2755354
30	0xbd85d104	-0.06534007
31	0x3e43b8f2	0.1911352
32	0x3e5a38a6	0.21310672
33	0x3c6e8995	0.014559169
34	0x3ba93b5b	0.0051645464
35	0x3e44e6e3	0.19228701
36	0xbd351e9a	-0.044218637
37	0x3d96cadb	0.0736291
38	0x3e8cd1e6	0.2750389
39	0xbd718fee	-0.058975153
40	0xbdc71140	-0.09720087
41	0x3e68598e	0.22690412
42	0x3e7ab915	0.24484666
43	0x3e8b0119	0.27149275
44	0xbe85bd35	-0.26120916
45	0x3e3fb238	0.18720329
46	0x3e15625b	0.14588301
47	0xbe329731	-0.17440487
48	0x3e3f0047	0.1865245
49	0xbe1f4a7e	-0.1555576
50	0x3e18b51c	0.14912838
51	0x3cfa867b	0.030581703
52	0x3dc1b087	0.09457498
53	0xbe32cc46	-0.17460737
54	0xbd64369d	-0.055716146
55	0xbe1c69ca	-0.1527473
56	0x3e1841b5	0.14868815
57	0xbe62f406	-0.221634
58	0x3c9d6929	0.019215183
59	0x3deb7423	0.11496761
60	0xbc4466c5	-0.011987393
61	0xbdab83ba	-0.08374734
62	0x3d8a7b41	0.0676179
63	0x3c9a17ea	0.018810231
64	0xbe1e6461	-0.15467979
65	0xbd98ee4b	-0.07467326
66	0xbd687e65	-0.056761164
67	0xbe2761dd	-0.16345926
68	0x3c85cd9f	0.0163334
69	0xbdc9ea66	-0.09859161
70	0xbe2527d1	-0.1612847
71	0xbe67fa01	-0.22653963
72	0xbe3c81e3	-0.18408923
73	0xbd6411fa	-0.055681206
74	0x3e7708a7	0.24124394
75	0xbd10b4aa	-0.035328545
76	0xbe17081b	-0.14749186
77	0xbe5135a3	-0.20430617
78	0x3d7b9005	0.061416645
79	0x3e781a9c	0.242289
80	0xbe7b838b	-0.24561898
81	0x3e63984c	0.22226065
82	0x3e80cac2	0.25154692
83	0x3d61982e	0.05507677
84	0x3e0e0968	0.13870776
85	0x3db246d5	0.087049164
86	0xbe797a78	-0.24363124
87	0xbddcf173	-0.1078824
88	0xbda692a0	-0.08133435
89	0xbe33c782	-0.17556575
90	0xbc6eb60f	-0.014569773
91	0x3d5b77de	0.05358111
92	0x3c477a59	0.012175166
93	0x3e1be4f5	0.15224059
94	0xbe2a2455	-0.16615422
95	0x3e732e02	0.2374802
96	0xbdfb8239	-0.122806974
97	0x3e66a8c6	0.2252532
98	0x3e8317b9	0.25604036
99	0xbe6dbd37	-0.23216711
100	0xbe87e3e1	-0.26541045
101	0x3e573b21	0.2101865
102	0x3e5c3f9e	0.21508643
103	0xbcd6ca6f	-0.026219575
104	0x3d832a99	0.06404609
105	0x3d352dea	0.04423324
106	0xbdbdd1f0	-0.09268558
107	0x3e158595	0.14601739
108	0x3dc01f70	0.09380996
109	0xbe890139	-0.26758745
110	0xbd9cae26	-0.07650404
111	0xbe2b5af5	-0.16733916
112	0x3ded573c	0.11588904
113	0xbe9053d6	-0.28188962
114	0xbe7616b0	-0.24032092
115	0xbe7fe491	-0.24989535
116	0xbdbb60da	-0.09149332
117	0xbe5f0763	-0.21780162
118	0xbd65bdb3	-0.056089114
119	0xbe23baf5	-0.15989287
120	0x3e3e5415	0.18586762
121	0x3e7c01ef	0.24610113
122	0x3dea0990	0.11427605
123	0xbdd06c9b	-0.10176965
124	0x3de9cb2a	0.114157036
125	0xbe80a11e	-0.25122923
126	0xbe0e2867	-0.138826
127	0xbd707748	-0.058707505
128	0xbe898a60	-0.26863384
129	0x3e85a033	0.26098785
130	0x3e39f9b7	0.18161665
131	0x3e0398cc	0.12851256
132	0x3e0556cd	0.13021393
133	0x3e90071f	0.28130433
134	0xbdd89576	-0.105753824
135	0x3d890394	0.066901356
136	0xbdd1ceaa	-0.10244496
137	0xbd3dd552	-0.046346016
138	0xbe697705	-0.22799309
139	0x3e2bc9a4	0.16776139
140	0xbe4e0f8a	-0.20123115
141	0xbe05898f	-0.13040756
142	0x3e828e16	0.25499028
143	0xbe286a3b	-0.16446774
144	0x3cead319	0.028665112
145	0xbe83d6bd	-0.2574977
146	0xbe26ddf5	-0.16295607
147	0x3e7ff91b	0.2499737
148	0x3e1a282e	0.1505439
149	0x3c430ede	0.0119054
150	0xbe0adffb	-0.13562004
151	0x3e65d64b	0.22445028
152	0x3e8c962f	0.2745833
153	0x3d82c268	0.06384736
154	0xbe38783c	-0.18014616
155	0x3c58945d	0.013218966
156	0x3e0d42d9	0.13795032
157	0x3da78848	0.081802905
158	0x3e7acc67	0.24492036
159	0x3e81bde0	0.25340176
160	0x3e0b2a04	0.13590246
161	0xbe49be8b	-0.19701593
162	0xbb9a95fd	-0.004717587
163	0x3d7d25ed	0.061803747
164	0xbdbf205b	-0.09332343
165	0x3da0b67e	0.078473076
166	0x3e477a6a	0.19480291
167	0xbe1cda79	-0.15317716
168	0xbdac05f0	-0.0839957
169	0xbe5adb70	-0.21372771
170	0x3d1186cf	0.035528954
171	0x3e2c39a2	0.1681886
172	0x3e84c4e8	0.25931478
173	0x3c986b77	0.01860593
174	0x3e4533d5	0.19258054
175	0xbe8af3d0	-0.2713914
176	0xbbe3ab34	-0.0069478992
177	0xbd4d1685	-0.050070304
178	0xbe0844ca	-0.13307491
179	0x3e829b57	0.2550914
180	0x3e2a8f09	0.16656126
181	0xbe6ee169	-0.23328175
182	0xbe8478fe	-0.2587356
183	0xbe02d5ce	-0.12776873
184	0x3dc21098	0.09475821
185	0x3e0b48c8	0.13601983
186	0x3e179fc7	0.14807044
187	0x3e5b265a	0.21401349
188	0xbe33e48a	-0.1756765
189	0x3d049f0c	0.03237824
190	0xbe08111d	-0.13287778
191	0xbe0960a5	-0.13415773
192	0x3b06dade	0.0020577232
193	0xbd0398be	-0.03212809
194	0xbe6bebe9	-0.23039211
195	0xbb3cd7a0	-0.0028815046
196	0x3e0c98bb	0.13730137
197	0x3e80f598	0.25187373
198	0xbd8de0bd	-0.06927631
199	0x3e40b98f	0.18820785
200	0xbd869d23	-0.0657294
201	0xbe5bf514	-0.21480209
202	0x3e72dce3	0.23717074
203	0xbda07e75	-0.0783662
204	0xbd8f6c8d	-0.07003126
205	0xbd331170	-0.0437178
206	0x3e7d9c1d	0.24766584
207	0xbdf467ef	-0.11933886
208	0xbd95bb7f	-0.07311153
209	0x3c6afdec	0.014342766
210	0xbe3821ca	-0.1798164
211	0x3deaeb05	0.11470608
212	0x3e7606f4	0.2402609
213	0x3dcbf535	0.09958879
214	0xbd8387cf	-0.06422388
215	0xbd6d3068	-0.057907492
216	0xbe8d42b7	-0.27589962
217	0xbe65ca04	-0.22440344
218	0xbdadabb9	-0.08480019
219	0x3e32be54	0.17455417
220	0x3e876aaf	0.2644858
221	0xbd03dbbb	-0.032191973
222	0xbcbb9176	-0.02289651
223	0x3e4a7642	0.19771674
224	0xbd797ec3	-0.060911905
225	0xbe496439	-0.19667138
226	0x3e1eed63	0.15520243
227	0xbdf35f8e	-0.1188346
228	0xbe52a516	-0.20570788
229	0x3bde0c23	0.006776349
230	0xbe44d4f2	-0.19221857
231	0xbe5fe4bb	-0.21864597
232	0xbe1d8a8c	-0.15384883
233	0xbcd105a7	-0.02551539
234	0x3dbdd30b	0.09268769
235	0xbdee6cf4	-0.11641875
236	0xbe8b4ad0	-0.27205515
237	0xbdc8a4db	-0.09797069
238	0x3e8418bc	0.2580012
239	0xbd8e4a2b	-0.0694774
240	0xbe532398	-0.20619047
241	0xbdde0622	-0.108410135
242	0x3e7c3b84	0.24632078
243	0x3d3402df	0.04394805
244	0xbd215607	-0.039388683
245	0x3e8f53b4	0.27993548
246	0x3ccf8fbb	0.02533709
247	0x3d573615	0.05254181
248	0x3e8cf5e5	0.27531353
249	0xbcb9d9ac	-0.022686802
250	0xbd5a3ee8	-0.05328265
251	0x3e6637cb	0.22482221
252	0x3dbea617	0.09309023
253	0xbe4cfc89	-0.2001821
254	0x3e3e59a5	0.18588884
255	0xbdeb103d	-0.114777066

encoder.feature_encoder.atom_embedding_list.3.weight f4 [12, 64]
0	0x3e3942c5	0.18091877
1	0x3d525c2c	0.051357433
2	0x3de91abd	0.11382053
3	0x3e8f3c71	0.279758
4	0x3e419a59	0.18906535
5	0x3e5b3617	0.21407352
6	0xbe33c3f0	-0.17555213
7	0xbe56cfce	-0.20977709
8	0x3e613523	0.21992926
9	0x3e894f4d	0.26818314
10	0x3e1930c8	0.14960015
11	0x3df4fec5	0.11962656
12	0xbd753c72	-0.0598721
13	0x3dceb348	0.10092789
14	0xbe0c3864	-0.13693386
15	0xbc317b4b	-0.010832618
16	0x3e8c0f9e	0.27355665
17	0xbe323c7f	-0.1740589
18	0xbe72ce81	-0.23711587
19	0xbce00aab	-0.027348837
20	0x3e18a673	0.14907245
21	0xbe85cb69	-0.26131752
22	0x3e3af5ca	0.18257824
23	0x3c87957e	0.016550776
24	0x3ce2d9f0	0.027691811
25	0x3e29ce7b	0.16582672
26	0x3e14c2d8	0.14527452
27	0xbc9e1286	-0.019295942
28	0xbe884718	-0.2661674
29	0x3e7c3334	0.24628907
30	0xbdbae7df	-0.09126257
31	0xbe26f19c	-0.16303104
32	0x3db9093f	0.09034967
33	0x3e403924	0.18771797
34	0x3d2d2260	0.04226911
35	0xbe23afe3	-0.15985064
36	0xbe8406f0	-0.25786543
37	0x3e01c1f5	0.12671645
38	0x3dd1f455	0.10251681
39	0x3e2ba90a	0.16763702
40	0x3e91bae7	0.28462908
41	0xbe1a832d	-0.15089102
42	0x3dab7d64	0.08373526
43	0x3e8e8864	0.27838433
44	0xbbee95a1	-0.0072810207
45	0xbdce8bb9	-0.10085244
46	0xbe5ecae2	-0.21757081
47	0x3bbcc3aa	0.0057606297
48	0xbe09853e	-0.13429734
49	0xbe48c10d	-0.19604893
50	0xbe894cf6	-0.2681653
51	0x3df943b7	0.12171119
52	0xbd1b9154	-0.037980393
53	0x3df24d7e	0.11831187
54	0x3e189ae9	0.14902844
55	0xbe8ef784	-0.27923214
56	0xbdd36add	-0.10323117
57	0x3e7d6666	0.24746093
58	0xbd552934	-0.052041247
59	0x3e418e88	0.18902028
60	0xbe78bf27	-0.24291669
61	0x3e83306d	0.25622883
62	0x3e0325e7	0.12807427
63	0xbe4cb78e	-0.19991896
64	0x3d803f7b	0.06262108
65	0x3e3dbd97	0.18529354
66	0x3e1144c5	0.1418639
67	0x3d438889	0.047737632
68	0xbdec1173	-0.11526766
69	0xbdb5675a	-0.08857603
70	0xbe509901	-0.20370866
71	0x3e8e73a8	0.27822614
72	0x3d62a518	0.055333227
73	0x3d7bd065	0.061478037
74	0xbe2004f7	-0.15626894
75	0xbe57e45a	-0.21083203
76	0xbccfe478	-0.025377497
77	0x3e195680	0.14974403
78	0x3e5676db	0.20943777
79	0xbcc5cdbd	-0.024145955
80	0x3dfb5691	0.122723706
81	0xbd3074b2	-0.04308004
82	0xbdb81942	-0.089891925
83	0x3e8b2b17	0.27181312
84	0x3d8a0ca7	0.067406945
85	0x3e8ccae9	0.27498558
86	0xbe8b7c5f	-0.27243325
87	0x3ced8871	0.028995724
88	0xbdd5327d	-0.104100205
89	0x3e5d7d0d	0.21629734
90	0x3e1a4d9e	0.15068671
91	0x3d3fbdea	0.046811976
92	0x3e347f73	0.17626743
93	0xbe261bc8	-0.16221535
94	0xbd9c8404	-0.076423675
95	0x3e0cdefe	0.1375694
96	0xbe25d164	-0.16193157
97	0x3d94238e	0.07233344
98	0x3dac1967	0.084032826
99	0xbe73b9b3	-0.23801307
100	0xbe28c0ca	-0.16479793
101	0xbe52c67d	-0.2058353
102	0xbe82b6cf	-0.25530097
103	0xbdce3e23	-0.100704454
104	0x3db97d13	0.09057059
105	0x3de26d0f	0.110559575
106	0x3e152d2c	0.14568013
107	0x3d1b245b	0.03787647
108	0xbe360a0f	-0.17777275
109	0xbe877975	-0.26459852
110	0x3e800203	0.25001535
111	0x3d4e6def	0.05039781
112	0x3e5f4e66	0.2180725
113	0xbe8420e2	-0.25806338
114	0xbe1c9992	-0.15292957
115	0xbc10d61f	-0.008840113
116	0x3e75859b	0.23976748
117	0xbe6c0223	-0.2304769
118	0xbe16d43d	-0.147294
119	0xbe5a4673	-0.21315937
120	0x3e155b33	0.14585571
121	0x3c6e1499	0.014531278
122	0xbde0afcd	-0.10971031
123	0x3e3f7190	0.18695664
124	0xbe575f17	-0.21032368
125	0xbcd06b57	-0.025441809
126	0xbe005cce	-0.12535402
127	0xbd83fad2	-0.064443246
128	0x3aa0f735	0.0012280705
129	0xbbe3a178	-0.006946739
130	0x3e8feaa2	0.28108698
131	0xbe7e3b03	-0.24827199
132	0xbdf5e564	-0.120066434
133	0xbcbddabb	-0.023175588
134	0xbdec29ec	-0.115314335
135	0x3e848c05	0.25888076
136	0x3e14b175	0.1452082
137	0x3e56e995	0.20987542
138	0x3e54285a	0.20718518
139	0xbc891d85	-0.016737709
140	0x3e418a7b	0.18900482
141	0xbcabc7d7	-0.020969315
142	0x3e4dc7ee	0.20095798
143	0x3d279d40	0.04092145
144	0x3de6c0c0	0.11267233
145	0x3df71477	0.1206445
146	0xbdda6e5e	-0.10665582
147	0x3e78ddc6	0.2430335
148	0x3e733859	0.23751964
149	0xbd8b11a5	-0.06790475
150	0xbdaa56c0	-0.083173275
151	0xbe7f4ad0	-0.24930882
152	0x3e175d52	0.14781693
153	0xbe5f3b4c	-0.21799964
154	0xbe863570	-0.26212645
155	0x3e6cc232	0.23120955
156	0x3d833e93	0.064084195
157	0x3e7af1fa	0.24506369
158	0xbe70afec	-0.23504609
159	0xbe2213a0	-0.15827799
160	0xbd9b5bf3	-0.07585897
161	0x3e31dec0	0.17370129
162	0xbe5a6e36	-0.21331105
163	0xbe7643f5	-0.24049361
164	0xbda5631c	-0.08075544
165	0xbe1544de	-0.14577052
166	0x3e8c358f	0.27384612
167	0x3e12c8bb	0.14334385
168	0xbe4234bb	-0.18965428
169	0xbdfc7863	-0.123276494
170	0xbc2fbe3a	-0.010726506
171	0xbe340f9d	-0.17584081
172	0xbe5cd95b	-0.2156729
173	0x3e838f68	0.25695348
174	0xbe401c94	-0.18760902
175	0x3e2312a1	0.15925075
176	0xbda9ee95	-0.08297459
177	0xbe5598bb	-0.20859043
178	0xbe01cc23	-0.12675528
179	0xbe03d545	-0.12874325
180	0xbe4369fb	-0.19083397
181	0xbe33278e	-0.17495558
182	0xbc4dd682	-0.01256335
183	0xbe177fa0	-0.14794779
184	0x3e6b572e	0.22982475
185	0xbe8b7c38	-0.2724321
186	0xbd2c83ce	-0.042117886
187	0x3e4270c5	0.1898833
188	0xbe3de684	-0.18544966
189	0xbd880584	-0.06641677
190	0xbe6621b6	-0.22473797
191	0xbe8a66e2	-0.27031618
192	0x3e0a773e	0.1352205
193	0x3d96e7c1	0.07368422
194	0x3cd4345a	0.02590387
195	0x3e66b6df	0.22530697
196	0xbc04cf33	-0.008106041
197	0xbe7210b8	-0.2363919
198	0xbe8afe1c	-0.27146995
199	0x3d1e73a7	0.038684513
200	0xbe29a345	-0.16566189
201	0x3e837422	0.2567454
202	0xbd1e8bef	-0.03870767
203	0x3e775095	0.24151833
204	0xbd2ae995	-0.041726667
205	0xbe052a8c	-0.13004512
206	0xbe8e8324	-0.27834427
207	0x3e8b523e	0.27211183
208	0xbe7a6f83	-0.24456601
209	0x3e530584	0.20607573
210	0xbddf6d31	-0.109094985
211	0xbe54c288	-0.20777333
212	0xbdcb4f82	-0.09927274
213	0x3e0b4c5c	0.13603348
214	0x3e5b91fc	0.21442407
215	0xbe6f856f	-0.23390745
216	0xbe5689ab	-0.20950954
217	0x3dc2aa10	0.09505093
218	0x3e0b6e30	0.13616252
219	0xbe38c54a	-0.1804401
220	0x3df2bfb6	0.11852972
221	0xbd1e64c1	-0.038670305
222	0xbe7b0d8c	-0.24516886
223	0x3e21a3c8	0.15785134
224	0xbe6e715f	-0.23285435
225	0xbc825572	-0.015909884
226	0xbd78f753	-0.06078274
227	0xbe03c05a	-0.12866345
228	0xbd27504f	-0.040848073
229	0xbe8067f4	-0.2507931
230	0x3e7eb0d5	0.24872144
231	0xbe5733ec	-0.210159
232	0x3e341d2d	0.17589255
233	0x3c1214d4	0.008916099
234	0xbc607cd4	-0.013701636
235	0xbca79276	-0.02045558
236	0xbdf77a8e	-0.12083922
237	0xbd572534	-0.052525714
238	0x3e4d7e8a	0.20067802
239	0xbe0849f8	-0.13309467
240	0x3e04b0f4	0.12958127
241	0xbe65fb65	-0.2245918
242	0xbe13e247	-0.14441787
243	0x3e48052a	0.1953322
244	0x3dc5c8d8	0.096574485
245	0xbe82a510	-0.25516558
246	0xbe4d1d44	-0.20030695
247	0x3e3a36a0	0.181849
248	0xbc87c7e8	-0.016574815
249	0x3e86a34a	0.26296455
250	0xbe8de2fd	-0.2771224
251	0x3d9a991d	0.07548735
252	0xbe8e4630	-0.27787924
253	0x3de66f55	0.11251704
254	0xbdbe7a10	-0.09300625
255	0xbcc8a142	-0.024490956

encoder.feature_encoder.atom_embedding_list.4.weight f4 [10, 64]
0	0x3e39b368	0.18134844
1	0x3e150193	0.14551382
2	0x3dee2787	0.11628633
3	0x3e84462b	0.25834784
4	0x3d5b95dc	0.053609714
5	0xbe09b19e	-0.13446662
6	0x3e06b43e	0.13154694
7	0xbd22324b	-0.039598744
8	0x3e8ae65f	0.27128884
9	0xbe659794	-0.22421104
10	0xbe29cd5c	-0.16582245
11	0x3e3848a4	0.1799646
12	0xbe3e1fd8	-0.18566835
13	0x3e269f3f	0.16271685
14	0xbe3e4fd5	-0.18585141
15	0x3db8add5	0.09017531
16	0x3e7c5461	0.24641563
17	0x3de938d9	0.11387796
18	0xbe2ca2cb	-0.16858976
19	0x3dfcc627	0.12342482
20	0xba69023e	-0.0008888579
21	0xbd7a6369	-0.06112996
22	0xbe8e7bf2	-0.27828938
23	0xbe3f894b	-0.18704717
24	0xbdcd8a68	-0.100361645
25	0x3e57862b	0.21047275
26	0xbe49bab0	-0.19700122
27	0xbe871082	-0.26379782
28	0xbe564056	-0.2092298
29	0x3dafcabe	0.08583592
30	0xbe80f3f4	-0.2518612
31	0xbe910653	-0.28325137
32	0x3ad7df25	0.00164697
33	0xbe89389e	-0.26801008
34	0x3d7bdf5e	0.061492316
35	0xbd05ef2e	-0.032698803
36	0x3e85f07b	0.26160035
37	0xbdd9ec7d	-0.1064081
38	0xbe84eeb8	-0.25963378
39	0xbe2b8ff5	-0.16754134
40	0xbc3d7837	-0.011564306
41	0xbdeb3b2c	-0.114858955
42	0x3e8c06e2	0.27349
43	0xbe60ecca	-0.21965328
44	0xbe88df08	-0.2673266
45	0x3e067a12	0.13132504
46	0xbd891088	-0.06692606
47	0x3e31b24f	0.17353176
48	0x3d2fd9cf	0.042932328
49	0x3dc71f30	0.097227454
50	0x3e4a3df9	0.19750203
51	0xbd17241a	-0.036899664
52	0xbdf7326e	-0.120701656
53	0xbdc1d977	-0.09465306
54	0xbd95ae03	-0.07308581
55	0xbe75aaed	-0.23990984
56	0x3e78a232	0.24280623
57	0x3e0dbeb3	0.13842277
58	0xbdcfa6fc	-0.101392716
59	0x3e64c2cb	0.22339933
60	0x3ded9853	0.11601319
61	0x3df3bafa	0.11900897
62	0x3e2e035c	0.16993469
63	0x3d4418dc	0.04787527
64	0xbcb702d5	-0.022340218
65	0x3e581472	0.2110155
66	0x3dd512fe	0.10404013
67	0x3e419303	0.18903737
68	0x3e25397a	0.16135207
69	0xbe3216ec	-0.17391557
70	0xbd8bf3bb	-0.06833597
71	0x3e6bb608	0.23018658
72	0xbd43895a	-0.04773841
73	0xbdf5c075	-0.11999599
74	0xbe013353	-0.12617235
75	0xbe76a0af	-0.24084733
76	0x3e2531ce	0.1613228
77	0x3e1f4c75	0.1555651
78	0xbe1cc1d8	-0.1530832
79	0xbe900985	-0.28132263
80	0x3d8aed55	0.06783549
81	0x3c3c3a40	0.011488497
82	0x3e472928	0.19449294
83	0x3d4887eb	0.048957746
84	0xbd424557	-0.04742941
85	0x3e3037d2	0.17208794
86	0x3e46a815	0.19400056
87	0x3e1e337f	0.15449332
88	0x3e542f52	0.20721176
89	0xbe865f41	-0.26244548
90	0x3de55991	0.11198724
91	0x3e34edc4	0.17668825
92	0x3e34df2e	0.17663261
93	0xbdfc82fc	-0.12329671
94	0x3d9b050f	0.07569324
95	0xbe6f06a1	-0.23342372
96	0x3e68dba3	0.22740035
97	0x3c719c57	0.014746747
98	0x3e498ee7	0.19683419
99	0x3da9af38	0.082853734
100	0xbe0b94d7	-0.13630997
101	0x3e1f9e44	0.15587717
102	0x3e3fcae2	0.18729737
103	0xbe15ca5b	-0.14627974
104	0x3cf0fc73	0.029417252
105	0xbe1632a7	-0.1466776
106	0xbe528813	-0.2055972
107	0x3ddec665	0.108776845
108	0xbe742e10	-0.23845696
109	0x3dd29291	0.102818616
110	0xbe5b23ea	-0.21400419
111	0xbc81e312	-0.015855346
112	0xbdcdbef4	-0.10046187
113	0x3e0486d9	0.12942065
114	0x3e8778e0	0.26459408
115	0xbe5efcec	-0.2177617
116	0xbd9757c3	-0.07389786
117	0xbd454817	-0.048164453
118	0xbe81e41a	-0.2536934
119	0xbe819964	-0.2531234
120	0xbe14e55b	-0.14540617
121	0xbd902412	-0.0703813
122	0x3e7f1937	0.24911962
123	0x3db8b6e5	0.09019259
124	0x3e8070ef	0.25086161
125	0xbe71978e	-0.2359297
126	0xbe25b375	-0.16181739
127	0x3d046a8f	0.032328185
128	0xbe68891d	-0.22708555
129	0x3e03cd3c	0.1287126
130	0x3b0bbfe5	0.0021324095
131	0xbe9138dc	-0.28363693
132	0xbe9391e5	-0.28822246
133	0x3ca6f4b3	0.020380354
134	0x3db56618	0.088573635
135	0xbc253ff0	-0.010086045
136	0xbdaefcd2	-0.085443154
137	0x3e3f8985	0.18704803
138	0x3c4cb4c0	0.012494266
139	0xbe08a79d	-0.1334519
140	0x3e765d71	0.24059083
141	0xbd935e02	-0.07195665
142	0xbdc2e155	-0.09515635
143	0xbce94272	-0.028474066
144	0xbd677258	-0.05650553
145	0xbc19cbc1	-0.009386958
146	0xbdf8fa49	-0.12157113
147	0x3e2e71cf	0.17035602
148	0x3c7612c9	0.015019127
149	0x3e2750a1	0.16339351
150	0x3d15aac5	0.03653981
151	0x3e436492	0.19081333
152	0xbe4388ce	-0.19095156
153	0x3e156f7a	0.14593306
154	0x3def364c	0.11680278
155	0x3e05f824	0.1308294
156	0xbe2761ce	-0.16345903
157	0x3cc87740	0.024470925
158	0xbddf5287	-0.10904413
159	0xbdd80fc9	-0.10549886
160	0xbd2da969	-0.04239789
161	0xbd31d999	-0.043420408
162	0x3de7bbd5	0.11315123
163	0x3e9514ea	0.2911752
164	0xbd9317d8	-0.07182282
165	0x3e8bcc74	0.27304423
166	0x3e1b30b1	0.15155293
167	0xbe822037	-0.25415203
168	0x3e664b84	0.22489744
169	0xbe655921	-0.22397281
170	0xbdeb387a	-0.114853814
171	0xbddade23	-0.106869005
172	0xbb924404	-0.0044636745
173	0xbe936c1a	-0.28793412
174	0xbe89708f	-0.26843688
175	0xbe6cfa9c	-0.23142475
176	0xbe17db94	-0.14829856
177	0x3bc9a86c	0.0061541107
178	0x3e498c5e	0.19682452
179	0xbe830a25	-0.25593677
180	0x3d01a616	0.031652533
181	0x3e5e0040	0.21679783
182	0x3dcb6c71	0.09932793
183	0x3d84e5d0	0.06489146
184	0xbe85c953	-0.2613016
185	0x3e32df83	0.17468075
186	0xbd8c7f14	-0.06860176
187	0x3de072d5	0.109594025
188	0xbe44073e	-0.19143388
189	0xbd19179f	-0.037376042
190	0x3e34067f	0.17580603
191	0xbe3c3c27	-0.18382321
192	0xbe639116	-0.22223315
193	0xbd0edb14	-0.034876898
194	0x3e1bbe95	0.1520942
195	0xbe4883fc	-0.19581598
196	0x3cf863a1	0.030320944
197	0xbdfff657	-0.124981575
198	0x3d3eab43	0.046550047
199	0x3d2e0da0	0.042493463
200	0x3e3ff660	0.18746328
201	0xbe1357b0	-0.14388919
202	0xbe802049	-0.25024632
203	0x3d0a7d5c	0.03381096
204	0x3e1f379e	0.1554856
205	0xbe009335	-0.12556155
206	0x3dabcbf4	0.0838851
207	0xbe84e301	-0.2595444
208	0x3e11cd81	0.1423855
209	0x3e1a3474	0.15059072
210	0xbe880a47	-0.2657034
211	0xbd8aaf80	-0.06771755
212	0x3df93d9e	0.12169956
213	0x3e0399f5	0.12851699
214	0x3daf6890	0.085648656
215	0xbe527b5b	-0.20554869
216	0x3e74e540	0.23915577
217	0xbe80e963	-0.2517806
218	0xbc17b44c	-0.009259295
219	0xbe1b3e14	-0.151604
220	0xbe715612	-0.2356799
221	0xbdf86865	-0.12129287
222	0x3e819043	0.25305375
223	0xbe7f8cfb	-0.24956124
224	0x3e45197e	0.19248006
225	0x3e8314c0	0.25601768
226	0xbe291f6a	-0.1651589
227	0x3db19a9f	0.0867207
228	0xbdeac04b	-0.11462458
229	0xbe892acd	-0.26790467
230	0xbe7f9f09	-0.24963011
231	0xbd49fa08	-0.049310714
232	0xbe5215d1	-0.20516135
233	0xbd202865	-0.039101023
234	0x3e2859a3	0.16440444
235	0x3e0da006	0.13830575
236	0xbe902276	-0.28151292
237	0x3de64395	0.11243359
238	0xbb9a3f93	-0.0047072857
239	0x3dca89f9	0.098895974
240	0x3e42606d	0.18982096
241	0xbe6fa2bb	-0.2340192
242	0xbe1545aa	-0.14577356
243	0x3e0141cb	0.12622754
244	0x3d418535	0.047246177
245	0xbda7add7	-0.08187454
246	0xbe13099a	-0.14359131
247	0x3d3614f4	0.044453576
248	0xbd9f1503	-0.077676795
249	0x3d9f49cf	0.0777775
250	0xbe031942	-0.12802604
251	0x3e8b61b9	0.27222994
252	0x3d125bfd	0.035732258
253	0xbda102c6	-0.07861857
254	0xbe6e9f3e	-0.23302934
255	0x3e8d68e0	0.27619076

encoder.feature_encoder.atom_embedding_list.5.weight f4 [6, 64]
0	0xbe3a58e8	-0.18197978
1	0x3da4531e	0.08023666
2	0xbd658bf5	-0.056041677
3	0x3e76319c	0.24042362
4	0xbcf11239	-0.029427635
5	0x3e771ef5	0.24132903
6	0xbdc28eb3	-0.09499874
7	0xbe6cdb91	-0.23130633
8	0xbb33ca68	-0.0027433876
9	0xbe35fc05	-0.17771919
10	0xbe281c4d	-0.16417046
11	0x3e43bd8e	0.19115278
12	0x3e88f3ce	0.26748508
13	0xbe471f6a	-0.19445577
14	0xbe93bc55	-0.28854623
15	0x3dbaaf78	0.09115499
16	0xbe7aa101	-0.2447548
17	0xbda331aa	-0.07968457
18	0x3decee4c	0.11568889
19	0x3dda3375	0.10654346
20	0x3d280e73	0.041029405
21	0x3e013df3	0.12621288
22	0xbe1e3cbf	-0.1545286
23	0xbdaddbd8	-0.084891975
24	0xbdb72874	-0.08943263
25	0xbe97a418	-0.2961738
26	0xbe2db635	-0.16964038
27	0x3d6b44a8	0.057438523
28	0x3d9310b7	0.071809225
29	0xbe0a7ef2	-0.13524988
30	0x3e5752d7	0.21027695
31	0xbe25809d	-0.16162343
32	0x3c2e6be9	0.010645845
33	0x3e7ef28d	0.24897213
34	0x3e3ed4c2	0.18635848
35	0x3e918d4d	0.28428116
36	0x3d9f59fa	0.077808335
37	0xbe4fde01	-0.20299532
38	0xbdc481ae	-0.09595047
39	0xbdae6727	-0.085157685
40	0xbe59f652	-0.2128537
41	0xbde4d29a	-0.111729816
42	0xbe8e9181	-0.27845386
43	0xbe0c10ee	-0.13678333
44	0xbe92d0c9	-0.28674915
45	0x3e924245	0.28566185
46	0x3d444f88	0.04792741
47	0x3e8be9b4	0.2732674
48	0x3e25e301	0.16199876
49	0x3e91de8a	0.28490096
50	0xbdb7ec65	-0.089806356
51	0xbe0f8b14	-0.14017898
52	0xbe005015	-0.12530549
53	0xbe86de9b	-0.2634171
54	0xbbb9195a	-0.005648774
55	0x3d59dfbf	0.053191897
56	0x3e25216c	0.1612603
57	0xbd5a8d1b	-0.053357225
58	0x3dc27f38	0.09496921
59	0x3dfc8f48	0.12332016
60	0x3d808e16	0.06277101
61	0x3d9860e8	0.074403584
62	0xbddfe210	-0.1093179
63	0x3e25891e	0.16165587
64	0xbe940e6b	-0.2891725
65	0x3d017767	0.03160801
66	0x3e14bff9	0.14526357
67	0x3e376ee5	0.17913397
68	0x3e044fca	0.12921062
69	0xbd455c4a	-0.048183717
70	0x3e57d449	0.21077074
71	0xbe8ea7a7	-0.27862284
72	0xbd7072cc	-0.05870323
73	0xbdd1639f	-0.10224079
74	0x3e3c54e7	0.18391763
75	0x3e878f15	0.2647635
76	0xbd99484d	-0.074844934
77	0x3d7ec509	0.062199626
78	0xbd2231b9	-0.0395982
79	0xbda172fb	-0.07883259
80	0x3e00e53a	0.12587443
81	0x3d91ea2a	0.071247414
82	0xbe12f78c	-0.14352244
83	0x3d67350b	0.05644707
84	0x3e87937e	0.26479715
85	0xbe53b8ac	-0.20675915
86	0xbd3c6957	-0.045998897
87	0xbe82ef08	-0.2557299
88	0xbda4cd68	-0.08046991
89	0x3e8c0969	0.2735093
90	0x3e45000e	0.19238302
91	0xbe8b214f	-0.2717385
92	0xbe848810	-0.25885057
93	0x3c44e91e	0.01201847
94	0xbd0927b1	-0.03348512
95	0x3e5ca8f7	0.2154883
96	0xbdb01ee3	-0.08599641
97	0x3e64aa32	0.2233055
98	0xbe2ca790	-0.16860795
99	0xbd4ec023	-0.050476205
100	0xbc088d81	-0.008334518
101	0xbe188c5c	-0.14897293
102	0x3c76abf0	0.0150556415
103	0xbd7c3a76	-0.06157919
104	0xbe0b9bff	-0.13633727
105	0xbe65a7a5	-0.22427233
106	0xbc1766db	-0.009240831
107	0x3e8b7902	0.2724076
108	0x3dec7916	0.11546533
109	0xbe68e287	-0.22742663
110	0xbe16b691	-0.14718081
111	0x3e459184	0.19293791
112	0xbdd535ae	-0.10410629
113	0xbcd023f3	-0.025407767
114	0xbe0f0557	-0.1396688
115	0x3e0fa498	0.14027631
116	0xbe44800d	-0.19189472
117	0xbe90496b	-0.28181013
118	0xbe5eb3a2	-0.21748212
119	0xbe8158bb	-0.25263008
120	0x3cf1668a	0.02946784
121	0x3d34f310	0.044177115
122	0xbdc87294	-0.09787479
123	0x3df4f339	0.119604535
124	0x3ce0f922	0.027462546
125	0x3d8da8fa	0.06916995
126	0x3e20c768	0.15701067
127	0x3d55c485	0.05218937
128	0x3e961104	0.29309857
129	0x3e60ab5a	0.21940365
130	0xbe2999d7	-0.16562591
131	0x3e5f9635	0.21834643
132	0xbce60429	-0.028078156
133	0xbc78dd1e	-0.015189437
134	0x3cd0670c	0.025439762
135	0xbe832930	-0.2561736
136	0x3e4140e6	0.18872413
137	0x3e471e04	0.19445044
138	0x3e924fb0	0.28576422
139	0x3d60ed38	0.05491373
140	0xbda3aade	-0.07991575
141	0xbd333076	-0.043747388
142	0xbdc49d12	-0.09600271
143	0xbe878cff	-0.2647476
144	0x3dcbce33	0.09951439
145	0x3d268143	0.040650617
146	0xbdb8f242	-0.09030582
147	0xbe2ec9c6	-0.17069158
148	0xbd8f97c5	-0.070113696
149	0x3da5ca07	0.08095174
150	0x3e632c2d	0.2218482
151	0x3df48498	0.11939353
152	0x3e62015c	0.22070831
153	0x3e749273	0.23883991
154	0xbe0f79af	-0.14011262
155	0xbbc7a8ab	-0.006093105
156	0xbe7bf86b	-0.24606483
157	0xbe2c283e	-0.16812226
158	0x3de812cc	0.1133171
159	0x3de1b7d5	0.11021391
160	0x3e035fa6	0.12829456
161	0x3e7ed72f	0.24886774
162	0x3deb0034	0.11474648
163	0xbe12e25e	-0.14344165
164	0xbd6f9f0b	-0.058501285
165	0x3c9c8f96	0.019111436
166	0x3e1c33f1	0.15254189
167	0xbe1a3ee2	-0.1506305
168	0xbdfab523	-0.1224158
169	0x3de581e0	0.11206412
170	0x3dca024b	0.098637186
171	0x3e8e3a82	0.27779013
172	0x3e773e93	0.24144964
173	0xbe0be56e	-0.13661739
174	0x3dd07471	0.101784594
175	0xbe36fcd6	-0.17869887
176	0xbc6f01d5	-0.014587839
177	0xbcca65c3	-0.024706727
178	0x3d8b62c0	0.068059444
179	0x3e85b172	0.26111943
180	0xbe6a8bbd	-0.22904868
181	0x3e8b78f2	0.2724071
182	0x3e5121c4	0.20423037
183	0xbe11132d	-0.14167471
184	0xbd9c72fc	-0.07639119
185	0xbd893a63	-0.067005895
186	0x3e3cd30a	0.1843988
187	0xbd925f92	-0.07147135
188	0x3dd2ce22	0.10293223
189	0xbded82a5	-0.11597184
190	0x3e71a562	0.23598245
191	0xbd40921e	-0.04701435
192	0x3e8f4e48	0.2798941
193	0xbe5f2e51	-0.21795012
194	0xbdb3069b	-0.08741494
195	0x3e41c3f4	0.18922406
196	0x3dc7698f	0.097369306
197	0xbe17cd40	-0.1482439
198	0xbe757d7c	-0.2397365
199	0xbe6256d9	-0.22103442
200	0xbe7a8137	-0.24463354
201	0xbe25ad81	-0.16179468
202	0xbe35a6bb	-0.17739384
203	0xbdad0c7a	-0.08449645
204	0x3e81e168	0.25367284
205	0xbd9f25f8	-0.07770914
206	0xbe394d56	-0.18095908
207	0x3e1291cb	0.14313428
208	0xbe307355	-0.17231496
209	0xbe160b12	-0.1465266
210	0xbd462982	-0.04837943
211	0xbd139af3	-0.036036443
212	0xbe38e0c8	-0.18054497
213	0xbe6e6cef	-0.23283742
214	0xbe925215	-0.2857825
215	0xbdfe4fa3	-0.12417533
216	0x3e17e588	0.14833653
217	0x3cc067a1	0.023486914
218	0x3e6efb73	0.23338108
219	0x3d4ffc70	0.050777853
220	0xbe60e91d	-0.21963926
221	0x3ce1efde	0.027580198
222	0xbd99a0ea	-0.07501395
223	0x3e29c0d8	0.1657747
224	0x3da32314	0.07965675
225	0x3e94639f	0.28982255
226	0xbe8665a2	-0.26249415
227	0xbe0eb021	-0.13934375
228	0xbe7e76f6	-0.24850067
229	0x3cd5671b	0.026050141
230	0xbe3f1a38	-0.18662345
231	0xbdf8f91d	-0.121568896
232	0x3e8f16f5	0.27947202
233	0xbdc8e34a	-0.09808977
234	0x3e1380a5	0.14404543
235	0x3e40bfc6	0.18823156
236	0x3e596d2c	0.21233052
237	0x3e753d1a	0.2394909
238	0x3e38eeef	0.18059896
239	0x3cedabc3	0.029012566
240	0x3e7cf3d4	0.24702388
241	0x3e91101c	0.28332603
242	0xbe4ecdda	-0.20195714
243	0x3d7a6c4b	0.061138432
244	0x3e4e463a	0.20143977
245	0xbe4aae84	-0.19793135
246	0x3deb5121	0.114900835
247	0x3e3b2f30	0.1827972
248	0x3c15ab8c	0.009135138
249	0xbdad5683	-0.084637664
250	0xbcc659be	-0.024212714
251	0x3e8264c6	0.2546751
252	0xbe6d5f9d	-0.23181005
253	0x3dede266	0.11615448
254	0xbe2247aa	-0.1584765
255	0x3e4a50e9	0.19757427

encoder.feature_encoder.atom_embedding_list.6.weight f4 [6, 64]
0	0xbcc1175f	-0.023570715
1	0x3e91afea	0.28454524
2	0xbe04905f	-0.12945698
3	0x3e7f19d4	0.24912196
4	0x3dee267d	0.11628435
5	0x3e5dcea0	0.21660852
6	0x3b917fa7	0.004440266
7	0x3e3e5b0b	0.18589418
8	0x3c1ae6bb	0.0094544245
9	0x3c3c92b0	0.011509582
10	0xbd3209bc	-0.043466315
11	0x3db22137	0.086977415
12	0x3e93050f	0.28714797
13	0x3e7916f5	0.24325164
14	0xbe212329	-0.15736069
15	0xbe0524da	-0.13002339
16	0x3e292e33	0.1652153
17	0xbddb06d1	-0.106946595
18	0xbdcef0ba	-0.10104509
19	0x3d64d9c2	0.055871733
20	0xbe2b71e5	-0.16742666
21	0xbe56b9d8	-0.20969331
22	0x3e78ea1f	0.2430806
23	0xbe857e64	-0.2607299
24	0xbe34f203	-0.17670445
25	0x3e041ee2	0.12902406
26	0xbd0969d3	-0.033548187
27	0x3e1b70be	0.15179726
28	0xbd1df603	-0.038564693
29	0x3ba7e3ed	0.0051236064
30	0xbd5d0355	-0.053958256
31	0x3da74a46	0.081684634
32	0x3d8949c3	0.06703522
33	0xbcfe7042	-0.031059388
34	0x3e45c6dc	0.1931414
35	0xbe362584	-0.17787749
36	0xbd9bce00	-0.07607651
37	0x3cfa9742	0.030589703
38	0x3e1312d6	0.14362654
39	0xbdd35b23	-0.10320117
40	0x3c92b972	0.017910693
41	0xbe89735e	-0.2684583
42	0x3e0ae9ba	0.13565722
43	0x3e32af35	0.17449649
44	0xbe788e99	-0.24273147
45	0xbe72ed4e	-0.23723337
46	0x3c8a28f4	0.016865231
47	0x3e7e7d1b	0.24852411
48	0x3def4539	0.11683125
49	0x3e6509e7	0.22367059
50	0xbe73ab4a	-0.2379581
51	0x3e56d3ef	0.20979284
52	0x3e8e7ec1	0.2783108
53	0xbe6ffa5c	-0.23435348
54	0x3d87d600	0.06632614
55	0xbd67fb57	-0.05663618
56	0x3e92eae1	0.28694823
57	0xbe1e474d	-0.15456887
58	0xbe8af2b9	-0.27138308
59	0xbe74a3d3	-0.23890619
60	0x3e56dd0c	0.2098276
61	0x3db1395f	0.08653521
62	0xbe895a26	-0.2682659
63	0xbe701512	-0.23445538
64	0x3e1caecd	0.15301056
65	0xbe1d0395	-0.15333398
66	0xbe4e716c	-0.20160455
67	0xbdfce955	-0.12349192
68	0xbddd0793	-0.1079246
69	0xbe3785e2	-0.17922166
70	0xbdfcaafe	-0.12337302
71	0x3d23afbc	0.039962515
72	0x3d5cb85c	0.053886756
73	0x3e7b14f2	0.24519709
74	0xbe91158b	-0.28336748
75	0xbda674e0	-0.08127761
76	0xbdb942d3	-0.09045949
77	0xbe24c763	-0.16091685
78	0x3dcc0197	0.09961241
79	0xbe0e7e42	-0.13915351
80	0xbdd0c91c	-0.101946086
81	0xbe6bb2b4	-0.23017389
82	0xbddb4f42	-0.107084766
83	0x3c8b07e6	0.01697154
84	0xbe236450	-0.15956235
85	0xbd768737	-0.060187545
86	0xbe2d1ae3	-0.16904788
87	0x3d710bd3	0.058849167
88	0x3dcc52c5	0.099767245
89	0xbe331cc6	-0.17491445
90	0xbe02d595	-0.12776788
91	0xbcc98355	-0.024598757
92	0xbe1b5cd4	-0.1517213
93	0xbe0b6cdd	-0.13615747
94	0x3e136345	0.14393337
95	0xbd620ffc	-0.055191025
96	0x3de2014a	0.11035402
97	0xba4dd22a	-0.0007851446
98	0x3c58f938	0.013243012
99	0xbe516a1c	-0.20450634
100	0x3c851f19	0.01625018
101	0x3e8d9bdf	0.27657983
102	0x3e8c830a	0.27443725
103	0x3e5188bf	0.2046232
104	0xbdb80f15	-0.08987252
105	0x3b8b7034	0.004255319
106	0x3e852191	0.26002172
107	0xbd853c8a	-0.065056875
108	0x3da087fb	0.07838436
109	0x3ccb8117	0.024841828
110	0x3e4043d7	0.18775879
111	0xbe16dd67	-0.14732896
112	0x3d598683	0.053106796
113	0xbe86403d	-0.26220885
114	0xbd9cc917	-0.07655542
115	0x3e04b12a	0.12958208
116	0x3cf4f1b0	0.029900402
117	0x3e8d24cc	0.27567136
118	0xbe527eb2	-0.20556143
119	0x3e101a99	0.14072646
120	0xbc5b4946	-0.013384169
121	0x3e8f884e	0.2803368
122	0x3e802b92	0.25033242
123	0x3e85aefd	0.26110068
124	0xbe44520e	-0.19171926
125	0x3e940780	0.28911972
126	0xbe36436b	-0.17799155
127	0xbe0933af	-0.13398622
128	0x3e278642	0.16359809
129	0xba59e2ae	-0.0008311671
130	0x3e168ad3	0.14701395
131	0x3e7b65e4	0.24550587
132	0xbd2cc279	-0.04217765
133	0x3d9ca834	0.0764927
134	0x3b934cfa	0.0044952603
135	0x3e457915	0.1928447
136	0x3e170870	0.14749312
137	0x3c84e13e	0.016220685
138	0xbe5a8975	-0.21341498
139	0x3db22681	0.0869875
140	0x3e36ab27	0.17838727
141	0x3c8de739	0.01732217
142	0x3e0fa2a2	0.14026883
143	0x3d973614	0.073833615
144	0xbe13a2c8	-0.14417565
145	0xbe16a65b	-0.14711897
146	0xbd668450	-0.056278527
147	0xbe81f0c2	-0.25378996
148	0xbc337b6b	-0.010954718
149	0xbd8b85f7	-0.06812661
150	0xbe7c8464	-0.24659878
151	0x3d3d9a7a	0.0462899
152	0x3d8f3cf1	0.069940455
153	0x3ddbbed6	0.107297584
154	0xbc2f5609	-0.010701665
155	0xbdd1fb19	-0.10252971
156	0xbd6bfede	-0.057616107
157	0xbe7123f2	-0.23548868
158	0x3c425a0f	0.011862292
159	0x3e1f7476	0.1557177
160	0x3b8a9971	0.0042297174
161	0x3cf8f76c	0.030391417
162	0x3e756afd	0.23966594
163	0x3e7bfa07	0.24607097
164	0x3e88418e	0.26612514
165	0x3e6e7506	0.23286828
166	0x3e26b949	0.16281618
167	0xbbd95d75	-0.0066334554
168	0xbe8cd306	-0.27504748
169	0x3d02fc59	0.03197894
170	0x3e29ad80	0.16570091
171	0x3c37098d	0.011171711
172	0x3e1f67ca	0.15566936
173	0xbe641f0e	-0.22277471
174	0xbb880ed5	-0.0041521587
175	0x3e93ae0d	0.28843728
176	0xbe8a0bda	-0.26962167
177	0xbd2b1200	-0.041765213
178	0x3e09c3bd	0.13453574
179	0xbe8e88d4	-0.27838767
180	0xbde90ecd	-0.11379776
181	0xbe0306bf	-0.12795542
182	0x3e52c927	0.20584546
183	0xbd3b12d8	-0.045672268
184	0x3af36b90	0.0018571485
185	0x3e6cdafa	0.23130408
186	0x3d9362e7	0.071965985
187	0xbddaaf76	-0.10677998
188	0x3e16c4ca	0.14723507
189	0xbdec15d8	-0.11527604
190	0x3e7e2b6a	0.24821249
191	0xbdb1f6e0	-0.08689666
192	0x3e84c64d	0.2593254
193	0xbdc7921c	-0.09744665
194	0x3e26167b	0.16219513
195	0x3e853bb3	0.2602211
196	0xbddc3a55	-0.107533135
197	0xbcbae7b4	-0.022815563
198	0xbe118917	-0.14212452
199	0x3e15b84c	0.14621085
200	0xbdd1b566	-0.10239677
201	0x3e5e6620	0.21718645
202	0xbe42da34	-0.1902855
203	0xbdcaf940	-0.09910822
204	0xbd930b79	-0.071799226
205	0x3e753ee8	0.23949778
206	0x3e1d5fc6	0.15368566
207	0xbc61d8d9	-0.013784611
208	0x3e12910a	0.1431314
209	0xbe836ab4	-0.25667346
210	0xbce26483	-0.027635818
211	0x3e860444	0.2617513
212	0xbd81968b	-0.06327542
213	0xbe268bb9	-0.16264237
214	0xbe091bb7	-0.13389479
215	0x3e6c9bab	0.23106258
216	0x3d2585f8	0.040410966
217	0x3d91ec70	0.07125175
218	0xbe0ae7c0	-0.13564968
219	0x3e152a43	0.14566903
220	0xbb4c4c8b	-0.0031173553
221	0x3e964ca9	0.29355362
222	0x3e3e27da	0.1856989
223	0xbe81c359	-0.2534435
224	0x3e78fb3b	0.24314587
225	0xbe473bdd	-0.1945643
226	0xbdcf4f4c	-0.101225466
227	0x3d4316a2	0.047629006
228	0xbe6f4143	-0.23364739
229	0xbc6cd861	-0.014455886
230	0xbe20eee6	-0.15716133
231	0xbd9a66a0	-0.075391054
232	0xbb85b1c2	-0.0040800283
233	0xbd3d9ecf	-0.04629403
234	0x3dc86066	0.097840115
235	0xbda653ed	-0.08121476
236	0x3d1e8cf2	0.038708635
237	0xbbbe2d77	-0.0058037597
238	0xbdcfad12	-0.101404324
239	0xbe8675c2	-0.26261717
240	0x3e16dc68	0.14732516
241	0xbe7cf655	-0.24703343
242	0x3d0b1070	0.033951223
243	0x3e368adf	0.17826413
244	0x3e8600ce	0.2617249
245	0xbe1cfc7c	-0.1533069
246	0x3e7fd9da	0.24985448
247	0xbe1fc80c	-0.15603656
248	0xbe3117a7	-0.17294179
249	0x3d2cd412	0.042194434
250	0xbdee2799	-0.116286464
251	0xbe3befe3	-0.18353228
252	0x3da95567	0.08268242
253	0x3e76d58b	0.24104898
254	0x3e369c1e	0.17832991
255	0x3dcf1e34	0.10113183
