checkpoints/spurious_motif_stabilized/best_model.pt (torch, 475897 bytes, 98 tensors)

encoder.input_proj.weight f4 [64, 10]
0.26278886 0.28378075 -0.053847305 0.31022653 -0.045103908 0.087617286 -0.13145307 0.21001525
0.3014528 -0.20751435 0.2669985 0.051614016 0.2274475 0.03616144 0.14499447 -0.051594995
0.2334961 0.040970244 -0.15436172 0.073135406 -0.14569771 -0.037084933 -0.12843855 0.20977631
-0.24962077 -0.14578427 -0.08929473 -0.19013904 0.029846564 -0.31233156 0.2793321 -0.27487013
0.23697871 0.045665737 -0.11093078 0.1865425 0.04408589 0.24992606 0.029224385 -0.10704688
0.09757782 -0.07399604 0.14326085 0.2920856 0.19403534 -0.12987044 0.19347225 0.06438607
0.17469119 -0.18015455 -0.31043565 -0.11871154 -0.23966917 0.26160845 0.096002795 0.13394345
0.103723995 -0.00084666576 0.25047824 -0.22228873 0.019910878 -0.21583815 0.09750946 -0.10890324
0.096897334 -0.06588336 0.26227674 -0.1874288 -0.1885976 -0.18860899 0.29723126 0.116244756
0.31740063 -0.24763855 -0.30334443 -0.2394115 -0.20137 0.14470689 0.12159227 0.27161345
-0.16330804 -0.2155762 0.16778354 -0.12782069 0.19192617 -0.07504105 0.1808968 -0.24569885
-0.15958427 0.09641039 0.066852935 -0.080625035 0.18849371 0.21497455 -0.22931994 -0.16882394
0.28955773 -0.106705524 -0.112107925 -0.3059803 -0.18109423 0.078994855 -0.041739907 -0.2295453
0.0074176574 -0.21600933 -0.2682866 -0.17413482 -0.27676636 -0.20135425 0.31610408 0.059727505
0.097448654 -0.29494068 -0.2076901 -0.10525825 0.04944889 -0.27825555 -0.13625401 -0.18931563
0.0008763488 -0.11766937 -0.021913245 -0.21428533 -0.21705721 -0.18448785 -0.10824395 -0.24959253
0.26514745 -0.06275984 0.27208135 0.0985309 -0.26778072 0.21884075 -0.08700843 -0.12121834
-0.26249135 -0.3143812 0.090476125 -0.06907801 0.12678888 -0.25242206 0.23991571 -0.22719435
-0.048002645 0.07170239 0.16592024 0.26068887 0.29404452 -0.24249567 0.09577066 -0.11946011
-0.017770613 -0.22153577 0.30566812 -0.21264604 0.18349853 0.12799157 0.12149262 -0.15228048
0.29519236 0.07669303 0.050931737 -0.27200663 0.14199588 -0.039890155 -0.1380985 0.28024697
0.07677961 -0.169087 -0.16005518 -0.015101684 0.17656934 -0.08080689 -0.18043162 -0.10828994
-0.23624581 0.11277709 0.24477302 -0.29770958 0.097581975 0.1900619 0.07779026 -0.0903375
0.18908337 0.187942 0.14410593 -0.032757338 -0.0567367 0.057817265 -0.050847076 -0.09062864
0.20547414 0.27428192 -0.026485369 -0.06822693 0.009628882 -0.018144919 0.07971712 0.09354863
-0.287216 -0.11669998 0.26630473 0.1231881 -0.015728401 -0.19065554 -0.19346975 -0.28326634
-0.103078365 0.10679144 0.20644696 0.15499166 -0.27244264 -0.18454345 -0.03983841 0.31359172
0.054052897 -0.07592059 0.1376736 -0.11134161 -0.2046802 0.23081061 -0.14378932 -0.06339315
-0.31458473 0.21164195 0.2395851 0.115248635 -0.22049746 -0.3120978 -0.25181368 0.24204752
0.15879443 0.26802522 0.17181721 0.08434405 5.8600875e-05 -0.23114729 -0.26324943 -0.29086462
0.12945162 -0.1552577 -0.06364165 -0.18199074 -0.05762415 -0.22257213 -0.20662817 0.10489617
-0.09398175 0.19522105 -0.10144864 -0.23197433 -0.055794887 -0.15329058 -0.09674722 -0.30104744
00000000: 438c 863e b64b 913e fe8e 5cbd 03d6 9e3e
00000010: e0be 38bd b170 b33d a29b 06be 3d0e 573e
00000020: 0558 9a3e a47e 54be 07b4 883e 3869 533d
00000030: ffe7 683e 051e 143d 6e79 143e 4655 53bd
00000040: 9a19 6f3e 6ad0 273d 0011 1ebe 04c8 953d
00000050: c831 15be 5fe6 17bd 6585 03be 9acf 563e
00000060: 969c 7fbe 7948 15be 28e0 b6bd cfb3 42be
00000070: c880 f43c ece9 9fbe 9e04 8f3e c7bb 8cbe
00000080: 8caa 723e ff0b 3b3d ad2f e3bd ff04 3f3e
00000090: 6893 343d 9eec 7f3e fa67 ef3c 653b dbbd
000000a0: e1d6 c73d 3c8b 97bd f9b2 123e 3e8c 953e
000000b0: 33b1 463e c2fc 04be 971d 463e d8dc 833d
000000c0: 3fe2 323e 6f7a 38be 6cf1 9ebe 091f f3bd
000000d0: d66b 75be 8bf1 853e 1d9d c43d 7928 093e
000000e0: 3f6d d43d c7f2 5dba af3e 803e a89f 63be
000000f0: 231c a33c ad04 5dbe 0ab3 c73d a908 dfbd
00000100: 1c72 c63d dbed 86bd 2349 863e 56ed 3fbe
00000110: bb1f 41be b722 41be b22e 983e bb11 ee3d
00000120: 5682 a23e f694 7dbe f64f 9bbe 4a28 75be
00000130: f033 4ebe 0b2e 143e 5e05 f93d eb10 8b3e
00000140: 393a 27be 02c0 5cbe 73cf 2b3e 6de3 02be
00000150: 4b88 443e 1faf 99bd 033d 393e 7b98 7bbe
00000160: 0f6a 23be d072 c53d 31ea 883d bd1e a5bd
00000170: 7f04 413e 4a22 5c3e d9d2 6abe 2fe0 2cbe
00000180: e940 943e 6d88 dabd d798 e5bd 73a9 9cbe
00000190: c470 39be 0ec8 a13d 77f7 2abd ec0d 6bbe
000001a0: d20f f33b 8d31 5dbe dc5c 89be 6650 32be
000001b0: 52b4 8dbe cf2f 4ebe 65d8 a13e d4a4 743d
000001c0: 2993 c73d 7702 97be b7ac 54be a391 d7bd
000001d0: eb8a 4a3d 8377 8ebe 2c86 0bbe f5db 41be
000001e0: c6ba 653a a3fc f0bd 6883 b3bc 9d6d 5bbe
000001f0: 3f44 5ebe 62ea 3cbe 01af ddbd 2f95 7fbe
00000200: 68c1 873e 3b88 80bd 3f4e 8b3e 92ca c93d
00000210: 8e1a 89be ca17 603e 7a31 b2bd 5241 f8bd
00000220: 4465 86be 93f6 a0be 8c4b b93d c678 8dbd
00000230: f2d4 013e 773d 81be 77ac 753e a3a5 68be
00000240: 6c9e 44bd b4d8 923d ffe6 293e 0379 853e
00000250: 018d 963e c950 78be 6823 c43d 81a7 f4bd
00000260: ad93 91bc 46da 62be 8880 9c3e e2bf 59be
00000270: 0ae7 3b3e 3910 033e 1fd1 f83d 6aef 1bbe
00000280: 7423 973e 3c11 9d3d cc9d 503d 7444 8bbe
00000290: 5e67 113e dc63 23bd b169 0dbe 887c 8f3e
000002a0: a13e 9d3d 2425 2dbe 81e5 23be 0e6d 77bc
000002b0: 98ce 343e 157e a5bd 11c3 38be 1ec7 ddbd
000002c0: 6cea 71be adf7 e63d c7a5 7a3e 646d 98be
000002d0: 0fd9 c73d 969f 423e 8050 9f3d de02 b9bd
000002e0: 129f 413e de73 403e 8190 133e 8f2c 06bd
000002f0: be64 68bd ccd1 6c3d 0645 50bd 829b b9bd
00000300: d067 523e ae6e 8c3e d8f7 d8bc 90ba 8bbd
00000310: 75c2 1d3c a7a4 94bc bb42 a33d 6d96 bf3d
00000320: fa0d 93be 6600 efbd 1859 883e 0b4a fc3d
00000330: d9d8 80bc 353b 43be ef1c 46be 4908 91be
00000340: c01a d3bd 78b5 da3d d566 533e 22b6 1e3e
00000350: 9a7d 8bbe f5f8 3cbe 9a2d 23bd 188f a03e
00000360: 9266 5d3d 417c 9bbd 4ffa 0c3e 1207 e4bd
00000370: b097 51be 9e59 6c3e 823d 13be 45d4 81bd
00000380: 4011 a1be abb8 583e cc55 753e 7a07 ec3d
00000390: 16ca 61be 48cb 9fbe b9ed 80be 4edb 773e
000003a0: 029b 223e 9a3a 893e daf0 2f3e 93bc ac3d
000003b0: 36ca 7538 e0b1 6cbe a1c8 86be 35ec 94be
000003c0: f78e 043e e0fb 1ebe 8e56 82bd c85b 3abe
000003d0: 4d07 6cbd f3e9 63be 5696 53be ced3 d63d
000003e0: 8179 c0bd 07e8 473e 4ec4 cfbd ae8a 6dbe
000003f0: 2e89 64bd 35f8 1cbe 6823 c6bd e422 9abe

encoder.input_proj.bias f4 [64]
0.088016905 -0.30401257 0.27610272 0.19222398 -0.29798123 -0.1470382 0.103139326 -0.051950034
-0.03446139 -0.1427818 0.25400034 -0.17677076 0.26224035 0.020403732 0.068396315 0.26408345
-0.044681147 -0.18004216 -0.02531516 0.26080087 -0.234637 0.079730034 -0.31078592 0.17178054
0.11683596 0.013405608 0.1440233 -0.009422082 0.17498553 -0.2503324 -0.046438836 0.11170817
0.31490493 0.15588157 -0.22995274 0.22074029 -0.07051824 -0.057920374 -0.29341748 -0.049778778
0.22367637 0.04010369 -0.18418811 0.12540667 -0.100929484 0.2842457 -0.27987587 -0.09785338
-0.3157861 -0.11800301 0.13398138 0.30440548 0.074616194 0.3059866 0.05192715 0.18808979
0.25350785 0.26434216 -0.15305327 0.3073464 0.19155985 -0.1411815 -0.15090495 -0.26523483
00000000: 3542 b43d 89a7 9bbe 565d 8d3e 5dd6 443e
00000010: ff90 98be 2f91 16be b63a d33d 8fc9 54bd
00000020: 6327 0dbd 6435 12be 550c 823e 6503 35be
00000030: 5e44 863e ba25 a73c 5e13 8c3d f235 873e
00000040: 9403 37bd f95c 38be bd61 cfbc b187 853e
00000050: af44 70be 8049 a33d 551f 9fbe 3de7 2f3e
00000060: b147 ef3d 32a3 5b3c d87a 133e 145f 1abc
00000070: 682f 333e 912b 80be a636 3ebd 41c7 e43d
00000080: 383b a13e 6b9f 1f3e bb78 6bbe be09 623e
00000090: de6b 90bd ea3d 6dbd d13a 96be d5e4 4bbd
000000a0: 6b0b 653e c443 243d cf9b 3cbe 9b6a 003e
000000b0: 1eb4 cebd a788 913e e44b 8fbe 5a67 c8bd
000000c0: b7ae a1be 90ab f1bd 6a32 093e 09db 9b3e
000000d0: 60d0 983d 47aa 9c3e 90b1 543d 9c9a 403e
000000e0: c8cb 813e db57 873e ffb9 1cbe 825c 9d3e
000000f0: 4428 443e e291 10be d486 1abe dccc 87be

encoder.convs.0.nn.0.weight f4 [64, 64]
-0.014665893 0.1254646 -0.0813577 0.107396856 0.13007335 0.05228839 -0.053606093 -0.08249633
-0.006870568 0.10621694 0.005778268 -0.031463623 -0.06216474 0.009340644 0.087542936 0.039967343
0.024761442 -0.08650021 0.06254777 0.032333784 -0.12285864 0.132194 0.079494014 0.014437306
-0.02469036 0.11227259 0.15635988 0.03884965 0.116035685 0.052843884 0.059654027 0.015665203
-0.009130478 0.085152514 -0.054750174 -0.06903796 0.07804729 -0.02799374 0.092471845 -0.020769492
-0.07615009 -0.005620734 -0.0144114345 0.054595985 -0.06862528 -0.09667284 0.011863088 0.13884929
-0.07304447 -0.046005674 0.008734005 0.093610406 0.101316445 -0.03143168 0.016759723 -0.06664792
0.12208523 0.07594313 0.07168946 -0.09948236 0.070659444 -0.046490315 0.005202219 0.059975967
-0.010927928 -0.08308172 0.08443177 0.062989205 -0.009344748 -0.11420856 -0.06475547 -0.12975267
-0.06690204 -0.11165458 -0.011030078 -0.088773355 0.07118802 -0.10114741 -0.0908055 -0.11029861
-0.06110628 0.04891765 0.06825503 0.100215256 -0.029812008 0.019842867 0.00880079 0.0277212
0.05874087 0.0734956 0.06464054 0.0855539 0.006385982 0.087505385 -0.0702375 -0.052206017
-0.034922466 -0.042621393 0.007157773 -0.12832175 -0.07084645 -0.029725326 0.0043980977 0.08856484
-0.08582525 0.027232066 0.05768597 -0.07629235 -0.0032758473 -0.07293549 -0.008608258 -0.07391295
-0.05008896 -0.06711795 0.06499611 0.030169055 -0.1336992 -0.0009604554 0.050052807 -0.0859885
-0.07475172 -0.024543837 -0.12627801 -0.060606126 0.015354916 -0.10039271 -0.118726715 -0.07431428
-0.11097456 -0.0012952463 0.045177788 0.06118593 0.1015011 0.09689464 -0.05643502 -0.018883865
-0.06419149 0.07512897 0.041674808 0.057616606 -0.08398172 0.09744555 -0.12246891 0.051726345
-0.11935564 0.095715016 -0.11070133 -0.11512348 0.06254165 0.0767519 -0.009091139 0.05925117
0.114366546 -0.10158312 0.02418187 0.025832059 -0.07112351 0.07422964 0.11134495 0.08842724
-0.08981983 0.1053226 0.10514344 0.03388687 -0.017142043 0.09377965 -0.08993856 -0.07594557
0.06874369 0.081265815 -0.012619704 0.10940358 0.052244406 0.042912047 0.09596385 0.13241251
0.09860161 0.085703395 0.032836773 0.09796713 0.06912811 -0.069421045 0.05775925 -0.005023437
-0.043148637 0.093772575 0.011989907 0.10264308 0.026949733 0.020571584 0.07505679 -0.031166762
0.073404 -0.056855977 -0.017707735 0.016680472 0.0806021 0.07117208 0.12060487 -0.069621086
-0.009886056 -0.010421917 0.10187112 0.1180065 0.031548604 -0.1010177 -0.10353072 0.028463537
-0.10645669 -0.043600768 -0.116698295 0.06327737 -0.017155677 -0.09677146 0.08167952 -0.102423094
-0.012219995 0.12035383 0.08470163 -0.117414 0.01348722 -0.018608019 0.055662498 0.118927665
0.106540054 -0.01664381 0.0575909 -0.102824874 0.098478675 0.07488207 -0.08257526 -0.036153123
-0.048596993 -0.06853622 0.051506415 -0.016413283 0.07837242 -0.035745587 0.09885707 -0.03883165
-0.011492623 -0.041518964 0.01842648 -0.046063483 -0.09236517 -0.10869726 0.07041455 0.052248754
-0.080352485 0.06476672 0.025555888 -0.033936806 -0.008190677 0.021244707 0.089558706 -0.11489603
00000000: 3749 70bc cb79 003e de9e a6bd e2f2 db3d
00000010: f331 053e 5a2c 563d 1092 5bbd d6f3 a8bd
00000020: 8022 e1bb 4488 d93d a057 bd3b 00e0 00bd
00000030: 74a0 7ebd 8009 193c b649 b33d ccb4 233d
00000040: 82d8 ca3c 0627 b1bd 0c19 803d 6e70 043d
00000050: 509d fbbd dd5d 073e c2cd a23d 738a 6c3c
00000060: 7043 cabc 2cef e53d ce1c 203e d020 1f3d
00000070: 1ea4 ed3d d472 583d c857 743d 5054 803c
00000080: 0098 15bc 7164 ae3d b841 60bd c663 8dbd
00000090: 42d7 9f3d 2153 e5bc e161 bd3d c824 aabc
000000a0: 94f4 9bbd 222e b8bb f01d 6cbc 0aa0 5f3d
000000b0: 698b 8cbd 69fc c5bd 665d 423c 822e 0e3e
000000c0: 5798 95bd 7270 3cbd 1219 0f3c d0b6 bf3d
000000d0: ff7e cf3d 81be 00bd b04b 893c b47e 88bd
000000e0: d207 fa3d 1288 9b3d ecd1 923d 68bd cbbd
000000f0: e6b5 903d a16c 3ebd 6077 aa3b 5ca9 753d
00000100: 0d0b 33bc c026 aabd 90ea ac3d 7c00 813d
00000110: b71a 19bc 2de6 e9bd 849e 84bd e2dd 04be
00000120: f003 89bd 28ab e4bd 80b7 34bc cece b5bd
00000130: 06cb 913d 6026 cfbd 3cf8 b9bd 3de4 e1bd
00000140: 944a 7abd e05d 483d 4bc9 8b3d a83d cd3d
00000150: 5038 f4bc 828d a23c 3031 103c 9217 e33c
00000160: 449a 703d dc84 963d 4262 843d e236 af3d
00000170: 8041 d13b 0636 b33d aed8 8fbd fad5 55bd
00000180: dc0a 0fbd c593 2ebd c08b ea3b c766 03be
00000190: f217 91bd 8782 f3bc eb1d 903b 7c61 b53d
000001a0: 26c5 afbd c815 df3c 2048 6c3d 2a3f 9cbd
000001b0: 99af 56bb 345f 95bd a709 0dbc ac5f 97bd
000001c0: 152a 4dbd 2375 89bd ae1c 853d 1825 f73c
000001d0: 71e8 08be 12c7 7bba 2c04 4d3d bd1a b0bd
000001e0: 6e17 99bd 2810 c9bc 064f 01be 213e 78bd
000001f0: 3093 7b3c b19a cdbd fe26 f3bd 1632 98bd
00000200: a146 e3bd 41c5 a9ba 580c 393d 199e 7a3d
00000210: cfdf cf3d b270 c63d 6828 67bd 56b2 9abc
00000220: d476 83bd 38dd 993d 34b3 2a3d 64ff 6b3d
00000230: 9cfe abbd 8891 c73d fbd0 fabd 01df 533d
00000240: bb70 f4bd 3c06 c43d 61b7 e2bd dcc5 ebbd
00000250: d615 803d 1a30 9d3d 00f3 14bc 5bb1 723d
00000260: 0239 ea3d d00a d0bd 0f19 c63c c19d d33c
00000270: 34a9 91bd b605 983d d208 e43d 5719 b53d
00000280: 76f3 b7bd 60b3 d73d 7255 d73d f5cc 0a3d
00000290: 786d 8cbc 8c0f c03d b531 b8bd 5a89 9bbd
000002a0: 7ec9 8c3d b16e a63d e0c2 4ebc fc0e e03d
000002b0: 3bfe 553d 8bc4 2f3d b288 c43d 2597 073e
000002c0: a4ef c93d 4385 af3d da7f 063d fea2 c83d
000002d0: 0a93 8d3d 9f2c 8ebd f794 6c3d a59b a4bb
000002e0: a0bc 30bd d60b c03d 5171 443c 8936 d23d
000002f0: b0c5 dc3c bd85 a83c 60b7 993d 7051 ffbc
00000300: d654 963d d0e1 68bd d00f 91bc 7ca5 883c
00000310: b712 a53d abc2 913d b0ff f63d 8095 8ebd
00000320: 20f9 21bc b0c0 2abc cea1 d03d 64ad f13d
00000330: 1c39 013d 5ee2 cebd ea07 d4bd 5d2c e93c
00000340: f705 dabd b896 32bd 84ff eebd 9197 813d
00000350: 108a 8cbc 1d30 c6bd 9847 a73d 33c3 d1bd
00000360: 6036 48bc 127c f63d 0c78 ad3d c076 f0bd
00000370: 80f9 5c3c d86f 98bc 5cfe 633d 5990 f33d
00000380: ac31 da3d 9958 88bc 70e4 6b3d d995 d2bd
00000390: 30af c93d c55b 993d 381d a9bd 4c15 14bd
000003a0: a40d 47bd b85c 8cbd 64f8 523d 2675 86bc
000003b0: b881 a03d f769 12bd 9375 ca3d f00d 1fbd
000003c0: 8e4b 3cbc ca0f 2abd 21f3 963c 10ad 3cbd
000003d0: f329 bdbd ab9c debd 8135 903d ca02 563d
000003e0: d88f a4bd 6aa4 843d 955a d13c 5201 0bbd
000003f0: 3032 06bc 6109 ae3c 8e6a b73d 9c4e ebbd

encoder.convs.0.nn.0.bias f4 [64]
-0.0026292908 0.12067355 0.07675077 0.028314508 -0.11303968 -0.05887981 0.050949384 -0.07959752
0.0368811 0.03244647 -0.08067066 0.02496974 -0.014541471 0.09205571 -0.026965909 0.10824402
0.10671397 -0.040576406 0.021118179 -0.033668183 0.10247818 0.058230314 -0.0033903064 0.07641473
-0.10043914 -0.032880995 0.025579546 -0.11558449 0.109067366 0.008828651 0.11050617 -0.036747977
0.008904358 -0.034214783 -0.05515937 -0.04553167 0.08490316 0.11045343 0.035094395 0.066869885
0.0527712 -0.0003134493 -0.094019175 0.033925425 -0.04286173 0.04803438 -0.081533566 -0.0052709375
-0.049266923 -0.11579595 -0.115192674 0.11464549 8.126532e-05 -0.107750975 0.019521644 -0.0091761155
0.10398642 0.11852863 -0.033406895 -0.074734315 -0.0696419 -0.032865614 -0.06769254 0.11324588
00000000: 2e50 2cbb b223 f73d 822f 9d3d d4f3 e73c
00000010: 5981 e7bd f52b 71bd 4db0 503d 0604 a3bd
00000020: a310 173d 97e6 043d a936 a5bd 578d cc3c
00000030: 5a3f 6ebc b487 bc3d 9ce7 dcbc 0aaf dd3d
00000040: db8c da3d 7233 26bd 0800 ad3c a6e7 09bd
00000050: 14e0 d13d e982 6e3d e72f 5ebb 537f 9c3d
00000060: 09b3 cdbd 39ae 06bd 328c d13c 90b7 ecbd
00000070: b65e df3d 0ca6 103c 0f51 e23d 0c85 16bd
00000080: 96e3 113c cd24 0cbd cbee 61bd 6b7f 3abd
00000090: b5e1 ad3d 6835 e23d 24bf 0f3d 14f3 883d
000000a0: 9d26 583d 7456 a4b9 208d c0bd 63f5 0a3d
000000b0: c88f 2fbd b3bf 443d 12fb a6bd d4b7 acbb
000000c0: 1dcc 49bd 6d26 edbd 23ea ebbd 41cb ea3d
000000d0: fd6c aa38 8bac dcbd dbeb 9f3c 6b57 16bc
000000e0: d5f6 d43d 23bf f23d abd5 08bd 4e0e 99bd
000000f0: 6aa0 8ebd 189e 06bd 63a2 8abd 75ed e73d

encoder.convs.0.nn.1.weight f4 [64]
1.0151534 0.98477453 0.9737215 0.97188294 1.0028898 1.0000956 1.0075132 1.0299557
1.0104922 1.0065767 1.0307759 0.98687154 1.0275924 0.9931287 1.004611 1.0044109
0.98840684 1.010668 0.98886836 0.99819785 0.98925376 1.012564 0.9926264 1.0080991
1.0108644 0.98963755 0.9797241 0.99746066 0.9846769 0.9883774 1.0318722 1.0058348
0.9995249 0.99775535 1.0153241 0.97356063 1.0036528 0.9967943 0.9904015 1.0110682
0.9961308 1.0091823 0.9830652 0.969768 0.98691434 1.0043384 1.0121944 0.9866496
0.9725918 1.0043633 1.024618 1.0010557 0.98084146 1.0195761 1.0068967 1.013093
1.0122908 1.0121379 1.0146136 0.9966345 1.0153369 0.9874816 0.9934614 0.97304523
00000000: 8cf0 813f 2f1a 7c3f d045 793f 52cd 783f
00000010: b15e 803f 2203 803f 31f6 803f 97d5 833f
00000020: cf57 813f 81d7 803f 77f0 833f 9da3 7c3f
00000030: 2688 833f af3d 7e3f 1897 803f 8990 803f
00000040: 3b08 7d3f 925d 813f 7a26 7d3f e589 7f3f
00000050: bc3f 7d3f b29b 813f c41c 7e3f 6409 813f
00000060: 0164 813f e358 7d3f 33cf 7a3f 9559 7f3f
00000070: c913 7c3f 4d06 7d3f 6314 843f 32bf 803f
00000080: dde0 7f3f e56c 7f3f 24f6 813f 453b 793f
00000090: b277 803f e92d 7f3f f48a 7d3f af6a 813f
000000a0: 6e02 7f3f e32c 813f 29aa 7b3f b742 783f
000000b0: 6ba6 7c3f 298e 803f 968f 813f 1195 7c3f
000000c0: c7fb 783f fa8e 803f af26 833f 9822 803f
000000d0: 6d18 7b3f 7881 823f fee1 803f 08ad 813f
000000e0: bf92 813f bc8d 813f dcde 813f 7023 7f3f
000000f0: 8ff6 813f 98cb 7c3f 7c53 7e3f 7e19 793f

encoder.convs.0.nn.1.bias f4 [64]
0.0062035415 0.018696621 -0.013904046 -0.023252651 -0.018579805 0.00026566416 0.0012105231 0.014994076
-0.0017884721 0.007542068 0.03172645 -0.0021752198 0.018073374 -0.0017845412 0.005245518 -0.006916888
-0.014543301 0.034031738 0.005373332 0.005922477 -0.006928905 0.025966838 0.0077489302 0.00017549163
-0.0058068386 -0.010180867 -0.010804649 0.0010034309 -0.005044869 -0.0010073496 0.029801223 0.00034934824
0.009844042 0.002851585 0.015740763 -0.016324256 0.0006594404 0.008605759 -0.0119072115 0.017570594
-0.0051531824 0.0052938205 -0.006764942 -0.02221023 0.009564714 0.002428272 -0.020195482 -0.022784298
-0.022946667 0.0011979771 0.0041717254 -0.0006705394 -0.013719391 0.019992338 0.020543747 -0.0028558234
0.018756757 0.012322661 0.023658806 0.007381514 0.005253269 -0.019809393 0.0002632413 0.00071118685
00000000: 1447 cb3b a829 993c cccd 63bc 587c bebc
00000010: ad34 98bc d748 8b39 6aaa 9e3a b7a9 753c
00000020: 2a6b eaba 7423 f73b 98f3 013d 228e 0ebb
00000030: 9d0e 943c 44e7 e9ba 98e2 ab3b 10a7 e2bb
00000040: 0747 6ebc dd64 0b3d c712 b03b 5711 c23b
00000050: de0b e3bb 68b8 d43c bdea fd3b 2d04 3839
00000060: 4b47 bebb a7cd 26bc fc05 31bc 8e85 833a
00000070: 6e4f a5bb 0b09 84ba b221 f43c ba28 b739
00000080: e848 213c a8e1 3a3b c6f2 803c 72ba 85bc
00000090: 4cde 2c3a 2bff 0c3c 7716 43bc 35f0 8f3c
000000a0: 07dc a8bb c977 ad3b 72ac ddbb 3af2 b5bc
000000b0: 51b5 1c3c a523 1f3b ff70 a5bc 23a6 babc
000000c0: a6fa bbbc 7105 9d3a f8b2 883b 23c7 2fba
000000d0: 4cc7 60bc f9c6 a33c 5c4b a83c c428 3bbb
000000e0: c5a7 993c fce4 493c 1dd0 c13c a1e0 f13b
000000f0: 9d23 ac3b 4f47 a2bc a603 8a39 f16e 3a3a

encoder.convs.0.nn.1.running_mean f4 [64]
1.5722584 -1.4620963 0.5151072 0.09842553 -0.06811693 0.9193598 -0.20491761 1.015482
0.99639285 1.1558232 -2.1794043 0.4883454 1.1328666 0.076023676 -1.1679231 -0.5555708
-0.19627525 -2.3548412 -1.0019305 -2.265358 -0.7031171 -1.1367673 1.311057 0.9991265
0.15286982 -0.9932035 1.2137123 0.14701375 -0.7861568 -0.6794079 0.85311085 1.421911
-1.7068782 -0.98798907 -1.3131435 -0.55271745 -0.06238341 1.2526667 -1.4650247 0.021573408
-0.3511 -1.5679908 0.79627484 -1.2316724 -0.15352333 -1.9719481 1.2789602 -0.46835616
0.6535075 0.6136776 -2.2317188 -2.0853977 0.21314166 1.3625488 -1.9744095 -0.36007172
1.1798277 -1.7969291 1.4125829 -1.4985411 0.6890512 0.35801664 0.7760594 -0.044488065
00000000: c33f c93f f925 bbbf 11de 033f 5393 c93d
00000010: e480 8bbd 2a5b 6b3f ecd5 51be 50fb 813f
00000020: 9a13 7f3f 04f2 933f 5c7b 0bc0 6908 fa3e
00000030: c601 913f 4db2 9b3d 817e 95bf e339 0ebf
00000040: 61fc 48be b8b5 16c0 423f 80bf a0fb 10c0
00000050: 7bff 33bf 9781 91bf b7d0 a73f c1c6 7f3f
00000060: e889 1c3e 9642 7ebf ed5a 9b3f c68a 163e
00000070: 9241 49bf aded 2dbf 7965 5a3f 2e01 b63f
00000080: fc7a dabf daec 7cbf 1615 a8bf e47e 0dbf
00000090: bf85 7fbd 6257 a03f ee85 bbbf b7ba b03c
000000a0: 61c3 b3be ecb3 c8bf abd8 4b3f 71a7 9dbf
000000b0: 3835 1dbe cc68 fcbf f8b4 a33f 61cc efbe
000000c0: 444c 273f fa19 1d3f 7bd4 0ec0 2877 05c0
000000d0: cf41 5a3e 0068 ae3f 73b9 fcbf 525b b8be
000000e0: 9804 973f c601 e6bf 84cf b43f 32d0 bfbf
000000f0: a965 303f f54d b73e d4ab 463f 1e39 36bd

encoder.convs.0.nn.1.running_var f4 [64]
0.59520966 0.64189917 0.26895574 0.23075663 0.27998063 0.2573461 0.16518436 0.40489972
0.3203381 0.39810464 0.9981769 0.18623658 0.4255596 0.14298971 0.38086587 0.23848902
0.2432531 1.1936227 0.3227843 1.0573804 0.27782372 0.4801529 0.46534878 0.34731779
0.22238025 0.330573 0.39771065 0.1536069 0.27695283 0.31202948 0.24818365 0.56107265
0.7058651 0.3436941 0.5034541 0.15494214 0.17971112 0.3746314 0.58645064 0.2341143
0.17018892 0.56399935 0.36243147 0.50385195 0.21513997 0.8732098 0.4441202 0.2205963
0.26052016 0.21579097 0.9047266 0.9548076 0.17147776 0.6770599 0.84073406 0.22089656
0.43721288 0.81580687 0.5515352 0.5144435 0.18774045 0.22604042 0.32067204 0.17758371
00000000: a95f 183f 8153 243f 91b4 893e 774b 6c3e
00000010: 9f59 8f3e dec2 833e 1726 293e 044f cf3e
00000020: 5b03 a43e 5fd4 cb3e 8588 7f3f cdb4 3e3e
00000030: f3e2 d93e e56b 123e da00 c33e 7736 743e
00000040: 5717 793e a1c8 983f fc43 a53e 3e58 873f
00000050: e93e 8e3e 9ad6 f53e 3242 ee3e a3d3 b13e
00000060: a6b7 633e dd40 a93e bba0 cb3e 214b 1d3e
00000070: c3cc 8d3e 54c2 9f3e db23 7e3e 75a2 0f3f
00000080: 93b3 343f acf8 af3e 5ee2 003f 27a9 1e3e
00000090: 3106 383e b0cf bf3e a121 163f a9bb 6f3e
000000a0: 0146 2e3e 4362 103f 9e90 b93e 71fc 003f
000000b0: a74d 5c3e ad8a 5f3f b963 e33e ffe3 613e
000000c0: e662 853e 4ff8 5c3e 2a9c 673f 456e 743f
000000d0: de97 2f3e cc53 2d3f 593a 573f b532 623e
000000e0: 5eda df3e b8d8 503f 6931 0d3f 92b2 033f
000000f0: 083f 403e 2477 673e 202f a43e 81d8 353e

encoder.convs.0.nn.3.weight f4 [64, 64]
-0.057759017 0.06636676 0.053485647 -0.005965056 0.047931373 0.094957046 0.058527585 0.04359092
-0.12774733 -0.027907794 0.029283674 0.0978574 0.05338127 0.096528664 0.09160948 -0.05398213
0.02295549 0.11184259 0.020892704 0.056228634 0.057992823 -0.033238564 0.011029006 -0.095668234
0.10024336 7.588892e-05 0.072353005 -0.09095068 -0.083798856 0.00088204123 -0.030130932 -0.06498294
0.09329851 -0.08084523 0.119907096 -0.12105819 0.043240935 -0.09300051 0.036592387 0.12747721
-0.030548632 0.049568325 -0.04935555 -0.05672249 -0.100920066 0.07439603 -0.010941503 0.05967722
-0.09782484 -0.11288633 -0.093413614 -0.049645253 -0.02743088 -0.041980807 0.065443195 -0.070728734
0.1343645 -0.035457436 -0.1195943 0.12188691 -0.09841237 0.012345314 -0.017711958 -0.03985808
0.010102516 -0.11698423 0.114822835 -0.08593197 0.10176547 -0.06228345 -0.037771627 0.00871174
-0.051441748 -0.048639096 -0.11779036 -0.072739884 0.0053137136 -0.037745524 -0.014684976 0.030882215
-0.025566116 -0.11728482 -0.042131227 0.040831584 0.044719443 0.06320883 0.023389723 0.09924239
-0.09881799 -0.12339809 -0.021240441 0.009790881 0.08646591 -0.068667494 -0.07123002 0.006658758
0.026882464 -0.11571701 -0.06970527 -0.07624842 0.029878449 0.022136364 -0.114438675 -0.08376543
0.028455727 -0.045883145 -0.08707938 -0.044152837 -0.1186399 -0.03321019 0.009475197 0.0033800057
0.024405846 -0.0025828686 0.08827952 -0.064287126 0.0600186 0.039444014 -0.049073182 -0.10438355
-0.09184477 0.031756416 0.04173282 0.06576073 -0.048428115 0.09890318 0.12658831 -0.017019926
-0.02901539 -0.06467701 -0.06985805 0.07757328 0.026705023 0.05999807 0.05316044 -0.025378313
0.004465989 0.13046622 -0.11177088 0.117832065 0.09988856 -0.03109324 -0.090681955 0.07298463
0.046005093 -0.0783506 0.058049727 0.016661301 0.10912674 0.05064189 0.03234999 -0.10697455
0.10479403 0.09188098 -0.027278362 -0.015991535 -0.032500792 -0.032196887 0.08463912 0.049668774
-0.12837102 0.041257117 -0.095449574 0.022156026 0.06678992 -0.03921611 0.07668188 -0.00091347354
-0.05949151 0.0940443 0.08206612 0.081082396 -0.0727226 -0.12490071 -0.09318569 0.08300858
0.092148416 -0.07112061 0.037265927 -0.0066413144 -0.036778655 0.004668377 -0.10225838 -0.042151477
0.041993666 0.011412034 -0.08940777 0.03548584 -0.037347667 -0.09905344 -0.113050334 0.0012644174
-0.115306556 -0.030012764 0.021232268 0.034409862 -0.06917628 0.0051626754 0.051401455 -0.057265833
-0.075712405 0.0073993877 0.04211917 0.01899338 0.0740773 -0.013150433 0.055132717 -0.08904522
-0.00860945 0.102760576 -0.08142192 -0.042246625 -0.09283314 0.09506377 -0.016914768 0.11486509
-0.0870832 -0.016110536 0.06808393 -0.14561975 -0.10651603 -0.051289182 -0.021486137 -0.12738003
0.058420964 0.12675172 -0.0114886565 -0.011052448 -0.11967315 -0.03906915 0.03787451 0.039554648
-0.04527278 -0.052646425 -0.07846437 0.08375518 -0.067839034 0.022195602 -0.040314462 -0.06468822
-0.0031116244 0.08849903 0.12996523 -0.007286666 -0.028021365 -0.098416224 -0.020630557 -0.03357177
0.08159243 0.041349467 -0.12295838 -0.013015576 -0.11877809 0.08822815 -0.00082007755 -0.010177883
00000000: b894 6cbd 4ceb 873d c413 5b3d 8476 c3bb
00000010: b053 443d d778 c23d 9fba 6f3d 648c 323d
00000020: 32d0 02be e39e e4bc 51e4 ef3c 7669 c83d
00000030: 52a6 5a3d d2b0 c53d c09d bb3d 5e1c 5dbd
00000040: 270d bc3c ba0d e53d 2d27 ab3c ff4f 663d
00000050: e289 6d3d 2925 08bd 01b3 343c b5ed c3bd
00000060: 644c cd3d 8e26 9f38 d02d 943d 5a44 babd
00000070: bc9e abbd c938 673a 25d5 f6bc c715 85bd
00000080: 4a13 bf3d 2f92 a5bd da91 f53d 5bed f7bd
00000090: 681d 313d 0d77 bebd e6e1 153d 6389 023e
000000a0: 2041 fabc 2808 4b3d 0c29 4abd d755 68bd
000000b0: 2eaf cebd f25c 983d fd43 33bc 1a70 743d
000000c0: 6458 c8bd f330 e7bd a34f bfbd d258 4bbd
000000d0: bab6 e0bc 11f4 2bbd 1507 863d 3ada 90bd
000000e0: d996 093e d13b 11bd dbed f4bd d89f f93d
000000f0: 6d8c c9bd 0044 4a3c ab18 91bc 3a42 23bd
00000100: 0685 253c 6e95 efbd 3c28 eb3d 1afd afbd
00000110: 6a6a d03d ee1c 7fbd 6cb6 1abd b0bb 0e3c
00000120: 95b4 52bd ca39 47bd 123c f1bd a6f8 94bd
00000130: a91e ae3b 0d9b 1abd 4199 70bc b3fc fc3c
00000140: 0870 d1bc 0633 f0bd cb91 2cbd 053f 273d
00000150: bc2b 373d a273 813d ce9b bf3c 983f cb3d
00000160: 1661 cabd 23b8 fcbd 6f00 aebc ee69 203c
00000170: 0a15 b13d 8ba1 8cbd 0be1 91bd b631 da3b
00000180: 9d38 dc3c 0afd ecbd a3c1 8ebd 2228 9cbd
00000190: a6c3 f43c 5257 b53c d35e eabd 368d abbd
000001a0: fc1b e93c f7ef 3bbd ad56 b2bd 9bd9 34bd
000001b0: 7af9 f2bd 6807 08bd db3d 1b3c 1683 5d3b
000001c0: c5ee c73c 5845 29bb e5cb b43d f8a8 83bd
000001d0: 10d6 753d 0c90 213d f600 49bd 0bc7 d5bd
000001e0: 1c19 bcbd 0413 023d 09f0 2a3d 90ad 863d
000001f0: 8f5c 46bd c08d ca3d 5ea0 013e 5f6d 8bbc
00000200: afb1 edbc 6175 84bd bd11 8fbd bdde 9e3d
00000210: 7ec4 da3c 89c0 753d c3be 593d 2ee6 cfbc
00000220: 6e57 923b f098 053e 22e8 e4bd f051 f13d
00000230: 6092 cc3d 40b7 febc 76b7 b9bd f778 953d
00000240: d66f 3c3d 4876 a0bd 8dc5 6d3d 487d 883c
00000250: d77d df3d df6d 4f3d 6c81 043d 7915 dbbd
00000260: 419e d63d 182c bc3d df76 dfbc ae00 83bc
00000270: 8d1f 05bd e2e0 03bd 4657 ad3d 7c71 4b3d
00000280: b173 03be 39fd 283d 117b c3bd 8e80 b53c
00000290: 27c9 883d 12a1 20bd 640b 9d3d 2c76 6fba
000002a0: 5fad 73bd 4c9a c03d 4812 a83d 870e a63d
000002b0: 96ef 94bd f2cb ffbd 24d8 bebd 6700 aa3d
000002c0: 4fb8 bc3d afa7 91bd 28a4 183d 629f d9bb
000002d0: 37a5 16bd 2ff9 983b d76c d1bd 07a7 2cbd
000002e0: 8d01 2c3d 8af9 3a3c 6c1b b7bd 9a59 113d
000002f0: def9 18bd 88dc cabd ef86 e7bd cfba a53a
00000300: d825 ecbd 54dd f5bc 4bef ad3c 5bf1 0c3d
00000310: 4bac 8dbd a92b a93b 558a 523d 948f 6abd
00000320: 1b0f 9bbd 9076 f23b 2785 2c3d 0198 9b3c
00000330: d7b5 973d ea74 57bc d8d2 613d 575d b6bd
00000340: a70e 0dbc 2374 d23d 89c0 a6bd cc0a 2dbd
00000350: 4d1f bebd cbb0 c23d d790 8abc 633e eb3d
00000360: ad58 b2bd 3efa 83bc 966f 8b3d 581d 15be
00000370: 1425 dabd 9b14 52bd b203 b0bc e96f 02be
00000380: d24a 6f3d 34cb 013e eb3a 3cbc 5415 35bc
00000390: 3217 f5bd f906 20bd 4d22 1b3d 0e04 223d
000003a0: f36f 39bd c7a3 57bd edb1 a0bd d687 ab3d
000003b0: 31ef 8abd 8dd3 b53c c720 25bd 427b 84bd
000003c0: 65ec 4bbb fb3e b53d 9b15 053e fcc4 eebb
000003d0: 108d e5bc 728e c9bd 6a01 a9bc 8d82 09bd
000003e0: ef19 a73d 0f5e 293d 9ad1 fbbd 483f 55bc
000003f0: ed41 f3bd f6b0 b43d 79fa 56ba 23c1 26bc

encoder.convs.0.nn.3.bias f4 [64]
0.062419686 0.106960185 0.076375835 -0.1143179 0.003917136 0.110607326 0.08658413 0.049837735
-0.059670966 -0.10605528 0.12269825 -0.04155791 0.04488769 -0.034472045 -0.04015843 0.041828368
0.115147695 -0.02683456 0.05471119 0.050025165 -0.019796016 0.025759675 0.041228525 0.11113924
-0.048847236 0.09645552 -0.0076903976 0.050685674 -0.10339433 0.08358033 0.10451472 0.029647222
0.0020186135 0.03207079 -0.101082265 -0.10864424 0.09504946 -0.11432369 -0.028853932 -0.07452637
-0.11691918 -0.049372446 0.0005728372 -0.10208076 -0.09706216 -0.099971466 -0.0026150835 -0.032358557
0.0930233 -0.1204616 -0.10930811 -0.039034262 0.1277071 0.11284088 -0.017438715 -0.035235304
0.019582164 0.0046332013 0.0142083615 -0.05287321 -0.0043222676 0.022709835 0.075185135 -0.08023783
00000000: c9ab 7f3d f10d db3d ef6a 9c3d 811f eabd
00000010: 525b 803b 1886 e23d 0553 b13d a722 4c3d
00000020: 8b69 74bd 8333 d9bd 3849 fb3d a138 2abd
00000030: 28dc 373d 8f32 0dbd 2a7d 24bd 3954 2b3d
00000040: 8ed2 eb3d 27d4 dbbc d718 603d 30e7 4c3d
00000050: 412b a2bc f405 d33c 3edf 283d f89c e33d
00000060: 0a14 48bd 798a c53d bbff fbbb c89b 4f3d
00000070: 68c0 d3bd 2a2c ab3d d00b d63d bbde f23c
00000080: b74a 043b a95c 033d 3804 cfbd df80 debd
00000090: 4ba9 c23d 8a22 eabd 155f ecbc 48a1 98bd
000000a0: 5373 efbd c33a 4abd 742a 163a b80f d1bd
000000b0: 87c8 c6bd d7bd ccbd d261 2bbb 688a 04bd
000000c0: 0083 be3d 92b4 f6bd eedc dfbd 64e2 1fbd
000000d0: a6c5 023e 1f19 e73d a3db 8ebc e552 10bd
000000e0: c66a a03c 1cd2 973b 30ca 683c 9491 58bd
000000f0: cfa1 8dbb fa09 ba3c aafa 993d bb53 a4bd

encoder.convs.0.nn.4.weight f4 [64]
1.0290933 1.0141572 0.9908758 1.0044683 0.9754861 1.0142244 1.0089384 1.0035145
1.009001 1.0104792 1.0006158 1.0029912 1.0126766 1.0245286 0.98018557 0.9852767
0.9990937 1.019486 1.0001353 1.0010343 1.0209146 1.0214527 0.9930831 0.992818
1.0122951 0.9819527 1.0102893 1.0020213 0.9914722 0.9794465 1.0214158 0.9898816
1.0041785 0.99303216 0.9871869 1.0166022 0.9868007 0.985335 1.0091436 0.98766774
0.9972749 1.016326 0.99078095 0.9881126 1.0000767 0.99078465 1.0114111 1.008285
0.99767476 0.9984534 1.0051693 0.9964402 1.0013225 1.0116993 1.0247821 0.98811567
1.0014865 1.0141015 1.0147467 0.9937188 1.0202409 1.0181352 0.9844052 1.0362552
00000000: 54b9 833f e7cf 813f 09aa 7d3f 6b92 803f
00000010: 75b9 793f 1bd2 813f e524 813f 2a73 803f
00000020: f226 813f 6257 813f 2e14 803f 0462 803f
00000030: 639f 813f c123 833f 71ed 7a3f 183b 7c3f
00000040: 9bc4 7f3f 847e 823f 6f04 803f e421 803f
00000050: 54ad 823f f6be 823f b23a 7e3f 5229 7e3f
00000060: e392 813f 4161 7b3f 2951 813f 3c42 803f
00000070: 1fd1 7d3f 01bd 7a3f c1bd 823f e168 7d3f
00000080: ec88 803f 5b37 7e3f 48b8 7c3f 0520 823f
00000090: f89e 7c3f ea3e 7c3f 9e2b 813f cbd7 7c3f
000000a0: 684d 7f3f f816 823f d2a3 7d3f f3f4 7c3f
000000b0: 8302 803f 10a4 7d3f eb75 813f 7c0f 813f
000000c0: 9d67 7f3f a49a 7f3f 63a9 803f b416 7f3f
000000d0: 562b 803f 5d7f 813f 0f2c 833f 26f5 7c3f
000000e0: b630 803f 14ce 813f 38e3 813f 5b64 7e3f
000000f0: 4197 823f 4152 823f fb01 7c3f 03a4 843f

encoder.convs.0.nn.4.bias f4 [64]
-0.0030181932 0.0008697782 0.01438682 -0.009843496 0.0296067 -0.006418761 -0.009051447 0.01211783
0.0059475643 -0.0052367225 -0.0050470266 -0.007940197 -0.0054455334 -0.0054950365 0.02453912 -0.02021305
0.012043261 0.001153703 0.011437062 0.013965537 0.0076234546 0.009112306 0.0093407035 0.015191384
0.0010370617 0.025829379 1.5362274e-06 -0.008273376 0.016654076 -0.024684645 -0.005310252 -0.017200377
-0.0075562824 0.01349192 0.017721813 -0.003619248 -0.019163556 0.018294267 0.0058706305 0.0176584
0.015380288 -0.004386714 -0.021734111 0.01018103 0.013476033 -0.009232899 -0.005706516 -0.009022598
0.00819994 -0.01874107 -0.014055004 0.016642088 -0.016418276 0.009080022 0.0029522427 0.020082155
0.00992793 0.0064484114 0.0037967828 0.014949822 -0.006930774 -0.011224073 -0.03327233 -0.0013880611
00000000: e1cc 45bb d401 643a b2b6 6b3c 9d46 21bc
00000010: c089 f23c 7854 d2bb 854c 14bc dd89 463c
00000020: c9e3 c23b d098 abbb 8761 a5bb 9a17 02bc
00000030: 7270 b2bb b50f b4bb 4406 c93c d795 a5bc
00000040: 1951 453c d937 973a 8462 3b3c b5cf 643c
00000050: 2cce f93b c84b 153c c009 193c 48e5 783c
00000060: 04ee 873a 2298 d33c 5f30 ce35 0e8d 07bc
00000070: 216e 883c 7437 cabc 9f01 aebb cee7 8cbc
00000080: b19a f7bb 370d 5d3c 562d 913c e830 6dbb
00000090: e4fc 9cbc dcdd 953c 6b5e c03b 59a8 903c
000000a0: 9afd 7b3c 6dbe 8fbb bc0b b2bc 56ce 263c
000000b0: 94ca 5c3c 9645 17bc bafd babb 85d3 13bc
000000c0: 0b59 063c df86 99bc f646 66bc fd54 883c
000000d0: 9f7f 86bc 5fc4 143c 6a7a 413b 5583 a43c
000000e0: c2a8 223c 324d d33b 72d3 783b 19f0 743c
000000f0: 8c1b e3bb 2de5 37bc 9148 08bd 9aef b5ba

encoder.convs.0.nn.4.running_mean f4 [64]
0.11155194 -0.2891548 0.11637355 -0.40102804 0.20780198 -0.04062709 -0.16712868 0.08792347
-0.058969576 -0.024585517 0.14816761 0.2910654 0.21332477 -0.0362662 0.048725426 0.29094014
0.12548651 -0.12209542 0.050267797 0.28786862 -0.04283174 -0.43265185 -0.03135218 0.13670063
-0.26166564 -0.24753642 0.06649363 0.115140416 0.009059859 0.15727162 0.1501367 -0.27422333
0.20692874 0.31860116 -0.21463099 -0.60471195 0.38607788 -0.030319892 -0.5354642 -0.40130916
-0.48586878 -0.043903753 0.48185655 -0.12886925 0.14311354 0.21445486 0.20855995 -0.018204438
-0.02676145 0.16797757 0.011804634 -0.2900035 0.62268305 -0.119064555 -0.030742265 -0.33109766
0.16841047 -0.006438862 -0.10645366 -0.043349784 0.26456055 0.43272862 0.10846834 -0.21092421
00000000: 5875 e43d 190c 94be 4155 ee3d 8c53 cdbe
00000010: 0bca 543e 9768 26bd c823 2bbe 3811 b43d
00000020: 158a 71bd 9167 c9bc 40b9 173e 8606 953e
00000030: cf71 5a3e de8b 14bd 5094 473d 1bf6 943e
00000040: 897f 003e 2a0d fabd 9be5 4d3d 8463 933e
00000050: 5670 2fbd 8b84 ddbe 256b 00bd 40fb 0b3e
00000060: 0af9 85be 307a 7dbe d02d 883d bdce eb3d
00000070: ce6f 143c d00b 213e 6fbd 193e 0067 8cbe
00000080: 21e5 533e b11f a33e 3ac8 5bbe 67ce 1abf
00000090: 00ac c53e 6c61 f8bc 2f14 09bf 6578 cdbe
000000a0: cbc3 f8be 6cd4 33bd e7b5 f63e 4df6 03be
000000b0: 5b8c 123e 0e9a 5b3e bd90 553e 7921 95bc
000000c0: d43a dbbc 5002 2c3e 3968 413c 577b 94be
000000d0: 2868 1f3f 1ed8 f3bd 34d7 fbbc a285 a9be
000000e0: cb73 2c3e 17fd d2bb 6004 dabd 8b8f 31bd
000000f0: 7b74 873e 9b8e dd3e a624 de3d 84fc 57be

encoder.convs.0.nn.4.running_var f4 [64]
0.21115567 0.11310809 0.06257538 0.1877323 0.1678421 0.43607968 0.13772938 0.16373348
0.27746943 0.23998752 0.113523 0.22243492 0.047828346 0.26687142 0.08209419 0.097254425
0.09253091 0.08034809 0.19822748 0.16839467 0.11000927 0.6518106 0.10967134 0.17048706
0.07587242 0.14167365 0.15516445 0.2601391 0.1504143 0.2119647 0.17231409 0.47263348
0.31278205 0.214021 0.11102334 0.11630773 0.23833407 0.11417135 0.15174696 0.11210759
0.15854128 0.068113275 0.22239451 0.20738573 0.07627829 0.74366564 0.22656672 0.36445662
0.069526464 0.084699504 0.07900911 0.41856936 0.14098935 0.29946095 0.11712313 0.412304
0.15379192 0.20640151 0.08799189 0.11090416 0.14148173 0.22769257 0.2770672 0.10598322
00000000: 3139 583e 37a5 e73d 8527 803d e53c 403e
00000010: cdde 2b3e d645 df3e ee08 0d3e c0a9 273e
00000020: 7910 8e3e 4abf 753e bf7e e83d fbc5 633e
00000030: a8e7 433d 5fa3 883e 0021 a83d 542d c73d
00000040: d980 bd3d 8a8d a43d 25fc 4a3e a76f 2c3e
00000050: 8a4c e13d 0fdd 263f 5e9b e03d 2994 2e3e
00000060: 0063 9b3d e612 113e 6ee3 1e3e f430 853e
00000070: 3506 1a3e 460d 593e 1b73 303e 04fd f13e
00000080: f824 a03e 5228 5b3e 3460 e33d bf32 ee3d
00000090: d90d 743e abd2 e93d 8e63 1b3e aa98 e53d
000000a0: a558 223e f97e 8b3d 63bb 633e ed5c 543e
000000b0: cb37 9c3d df60 3e3f 1b01 683e 0f9a ba3e
000000c0: e463 8e3d ef76 ad3d 87cf a13d b94e d63e
000000d0: 835f 103e f252 993e 40de ef3d 8319 d33e
000000e0: a17b 1d3e eb5a 533e 1835 b43d b821 e33d
000000f0: 96e0 103e 3e28 693e c1db 8d3e bb0d d93d

encoder.convs.1.nn.0.weight f4 [64, 64]
0.021435572 -0.08037146 0.09202337 0.012345791 0.096263185 -0.005780661 -0.078409195 0.01953105
-0.041153975 -0.06584874 0.0057953927 0.04693623 -0.070264526 -0.053137206 -0.04653069 0.09900084
0.03201028 -0.023544036 -0.033344988 -0.04432714 -0.014147245 0.025978478 -0.042115986 -0.04570985
-0.087649524 0.10444339 -0.03548852 0.13829702 0.0070711207 -0.0050954395 -0.050050564 0.013857239
0.009697093 0.029920943 -0.061984967 0.10691385 0.024643086 -0.008592643 -0.06693578 0.018089704
0.0055114883 -0.0277052 -0.10558984 0.038186584 0.025390483 0.086002715 -0.056455445 0.08599331
0.09221645 0.040338658 0.10124894 -0.11876213 0.09819298 -0.021471124 0.04428857 0.10379881
0.04668344 -0.011031531 0.063009396 0.14842147 -0.08970583 0.12787023 0.026699267 0.07975371
-0.010575489 -0.0071090297 -0.0060782046 -0.012141098 -0.12964253 0.08551027 0.060319267 -0.12747782
0.075506866 -0.088616684 -0.04524513 0.101983055 -0.02202726 0.06694142 0.07670463 0.01983636
-0.120139 0.08196703 -0.06541593 -0.08799898 -0.01846192 0.08802308 -0.026751133 0.047461193
0.043560673 -0.095543824 0.0015990052 0.12622635 0.098680004 0.0049313614 0.008678674 0.08020356
-0.042074446 -0.03012283 0.05543968 0.078404315 0.016268557 -0.023463948 -0.111203276 -0.0010330552
-0.056450807 -0.021826563 -0.024712946 0.034407087 0.10045651 -0.00041859792 0.028059995 -0.038220253
-0.08855186 -0.111791454 0.01475739 0.025811054 0.12815394 0.089634895 -0.0027326997 -0.0412706
0.09076259 -0.10716202 -0.00456053 0.04983745 -0.12273107 0.079229616 -0.035392214 0.1327265
-0.029841244 -0.068588786 0.044447996 -0.08883394 -0.09904446 -0.02897624 0.08369502 0.047282543
0.081929505 -0.055594433 -0.014306283 -0.03519526 0.12545808 0.018293861 -0.12987098 0.00511858
-0.08694495 0.008048421 0.0509515 -0.05606402 -0.11915567 0.0009929037 -0.08346677 0.12577
-0.040830992 -0.03321054 0.07428833 -0.038838282 -0.002821046 -0.13654737 0.050160073 0.082520425
-0.14246732 0.08268698 0.0754367 0.049440086 -0.009930145 -0.006172846 0.120067626 0.05751691
-0.094171956 -0.07492378 0.093892254 -0.05371829 -0.045166556 -0.07929018 0.042953536 -0.0337135
0.10815716 -0.05992024 0.038302988 -0.06877982 -0.10379127 -0.14010067 -0.011829147 0.012717972
0.046766397 0.13670184 0.05247386 -0.004896415 0.092984475 -0.13586256 0.114560686 -0.10311428
0.057798523 -0.068616785 0.12009983 0.053880766 0.056087743 0.033274766 -0.049154907 0.015385932
0.052914087 0.07291917 0.032400426 0.108304575 -0.015420709 -0.06090937 0.052429963 0.10271161
0.0936309 -0.09856582 0.01745497 0.060478587 -0.02643136 0.07269264 -0.11337894 0.06528783
-0.029250734 0.025495093 -0.009739106 -0.08998807 0.065620124 0.03165428 -0.015313377 0.10404005
0.09956079 -0.03915522 -0.03368276 -0.048909903 -0.074082166 -0.11405502 -0.057440806 -0.046236068
-0.018824087 0.0011059007 0.09883822 0.008940358 0.07433329 -0.106915005 -0.014147611 0.013638721
0.032820605 0.09442718 0.094911516 0.013081541 0.06524436 0.088074416 0.12782265 0.07141545
-0.043833558 0.0886942 0.039830055 0.07613869 0.054825336 0.046857253 0.044919778 0.09945809
00000000: a799 af3c cb99 a4bd c076 bc3d 0046 4a3c
00000010: a225 c53d b36b bdbb 0095 a0bd 95ff 9f3c
00000020: 1291 28bd b4db 86bd 47e7 bd3b 3440 403d
00000030: d9e6 8fbd 66a6 59bd f796 3ebd f4c0 ca3d
00000040: 361d 033d 6cdf c0bc c194 08bd 6090 35bd
00000050: d9c9 67bc d1d0 d43c d081 2cbd 403a 3bbd
00000060: 9881 b3bd 6be6 d53d 695c 11bd bc9d 0d3e
00000070: dcb4 e73b a5f7 a6bb d201 4dbd 7909 633c
00000080: 8ee0 1e3c c41c f53c f3e3 7dbd a6f5 da3d
00000090: 4ce0 c93c 28c8 0cbc a015 89bd dc30 943c
000000a0: b799 b43b 04f6 e2bc 7c3f d8bd 8969 1c3d
000000b0: b4ff cf3c 3122 b03d d33d 67bd 431d b03d
000000c0: fadb bc3d 263a 253d 9b5b cf3d 8f39 f3bd
000000d0: 6719 c93d 36e4 afbc ee67 353d 7894 d43d
000000e0: 2337 3f3d 98bd 34bc 120b 813d ccfb 173e
000000f0: b1b7 b7bd 6af0 023e 6cb8 da3c ea55 a33d
00000100: d144 2dbc ddf2 e8bb ad2b c7bb 75eb 46bc
00000110: 03c1 04be 0220 af3d 5611 773d 8c89 02be
00000120: 58a3 9a3d aa7c b5bd f552 39bd 7edc d03d
00000130: 8372 b4bc 9518 893d 5117 9d3d dd7f a23c
00000140: 700b f6bd 55de a73d c9f8 85bd cf38 b4bd
00000150: 743d 97bc 7245 b43d 3125 dbbc ab66 423d
00000160: ad6c 323d 7bac c3bd b695 d13a 7b41 013e
00000170: be18 ca3d 4297 a13b ff30 0e3c c441 a43d
00000180: 4156 2cbd 27c4 f6bc b814 633d 7192 a03d
00000190: a345 853c 7737 c0bc 8bbe e3bd 9567 87ba
000001a0: f638 67bd 9fcd b2bc ce72 cabc 72ee 0c3d
000001b0: 25bc cd3d 4377 dbb9 13de e53c d78c 1cbd
000001c0: ad5a b5bd ebf2 e4bd fbc8 713c b471 d33c
000001d0: c93a 033e 8092 b73d 1817 33bb 5c0b 29bd
000001e0: bde1 b93d c377 dbbd 8070 95bb 5b22 4c3d
000001f0: 6d5a fbbd 2343 a23d 6df7 10bd 75e9 073e
00000200: a075 f4bc 4778 8cbd 1a0f 363d 92ee b5bd
00000210: d2d7 cabd 945f edbc 4b68 ab3d 57ab 413d
00000220: a8ca a73d fdb6 63bd e664 6abc e828 10bd
00000230: 1578 003e 02dd 953c e6fc 04be c3b9 a73b
00000240: 3210 b2bd 86dd 033c 85b2 503d 63a3 65bd
00000250: e307 f4bd 5224 823a a0f0 aabd dac9 003e
00000260: 663e 27bd c607 08bd 7b24 983d e414 1fbd
00000270: 4ce1 38bb 13d3 0bbe a674 4d3d 7800 a93d
00000280: f4e2 11be cb57 a93d 8e7e 9a3d b081 4a3d
00000290: 0cb2 22bc 9645 cabb 04e6 f53d da96 6b3d
000002a0: 3add c0bd a471 99bd 954a c03d b607 5cbd
000002b0: 9100 39bd e462 a2bd 0cf0 2f3d 2b17 0abd
000002c0: 8081 dd3d ed6e 75bd 98e3 1c3d 6fdc 8cbd
000002d0: 8490 d4bd 8d76 0fbe 0acf 41bc 0a5f 503c
000002e0: 1f8e 3f3d 91fb 0b3e d5ee 563d 1b72 a0bb
000002f0: a56e be3d 8e1f 0bbe cb9e ea3d 942d d3bd
00000300: 25be 6c3d f586 8cbd e6f6 f53d 14b2 5c3d
00000310: 43bc 653d 1f4b 083d a856 49bd 4715 7c3c
00000320: 71bc 583d a556 953d 4fb6 043d cace dd3d
00000330: 24a7 7cbc 1b7c 79bd cdc0 563d 775a d23d
00000340: 8fc1 bf3d e0dc c9bd bafd 8e3c 65b8 773d
00000350: 9486 d8bc e1df 943d 3833 e8bd a0b5 853d
00000360: 3c9f efbc 16db d03c c590 1fbc aa4b b8bd
00000370: d863 863d eba7 013d f5e4 7abc f312 d53d
00000380: 87e6 cb3d 3961 20bd eff6 09bd c055 48bd
00000390: 64b8 97bd ae95 e9bd 0d47 6bbd 0862 3dbd
000003a0: f934 9abc dff3 903a b16b ca3d 947a 123c
000003b0: 0d3c 983d 41f6 dabd 62cb 67bc f174 5f3c
000003c0: e66e 063d 0a63 c13d f860 c23d f653 563c
000003d0: d69e 853d 5c60 b43d f1e3 023e 4342 923d
000003e0: d18a 33bd 4ea5 b53d d724 233d 9aee 9b3d
000003f0: 8890 603d 64ed 3f3d cdfd 373d afb0 cb3d

encoder.convs.1.nn.0.bias f4 [64]
0.030477665 -0.097942136 -0.05807732 -0.105557494 -0.054641817 0.09110764 -0.010286046 -0.124089554
-0.0052957265 -0.0096441405 0.066477254 0.097629614 0.115928605 -0.029647438 -0.05296928 -0.029202335
-0.0400452 -0.09414959 0.03924925 0.10553096 -0.071349114 0.0068996674 0.07021636 0.11446733
0.06738303 -0.042493217 -0.016818417 -0.04738119 -0.044130012 -0.08185328 0.01545828 0.071212076
0.01773893 -0.02339384 0.12330028 -0.106452845 0.119776115 -0.0431701 -0.045763895 -0.12426804
-0.09325682 0.05009903 -0.10207899 -0.10593911 0.04732102 0.039358113 0.0009918602 0.08851344
-0.08370522 -0.0018765245 -0.10353254 0.058523513 0.087392904 0.01588742 0.044890095 0.12440327
-0.03517484 -0.11089405 0.0608933 -0.033519145 0.10928483 -0.035056885 -0.06569351 -0.0069662873
00000000: 4cac f93c e395 c8bd 7ce2 6dbd 872e d8bd
00000010: 19d0 5fbd a496 ba3d ce86 28bc aa22 febd
00000020: c687 adbb 7502 1ebc 3a25 883d 09f2 c73d
00000030: fa6b ed3d 2fdf f2bc 51f6 58bd bc39 efbc
00000040: 7006 24bd 80d1 c0bd d2c3 203d 9e20 d83d
00000050: 7c1f 92bd 9b16 e23b 98cd 8f3d d96d ea3d
00000060: 1d00 8a3d 5e0d 2ebd c7c6 89bc c712 42bd
00000070: acc1 34bd b1a2 a7bd ba44 7d3c a3d7 913d
00000080: 3c51 913c 70a4 bfbc db84 fc3d f303 dabd
00000090: 2e4d f53d 21d3 30bd ec72 3bbd 3e80 febd
000000a0: 6ffd bebd a434 4d3d ca0e d1bd 9bf6 d8bd
000000b0: b0d3 413d f935 213d 4e01 823a 8946 b53d
000000c0: a46d abbd b7f5 f5ba de08 d4bd 5ab6 6f3d
000000d0: 0dfb b23d 5626 823c adde 373d 24c7 fe3d
000000e0: 7e13 10bd 6b1c e3bd 416b 793d 5f4b 09bd
000000f0: bad0 df3d cf97 0fbd 528a 86bd 7445 e4bb

encoder.convs.1.nn.1.weight f4 [64]
0.9900948 0.99789345 1.0049198 1.0123862 0.981002 0.97691244 0.9926718 0.971545
1.0093727 0.99700433 0.9894288 1.0120143 0.98752767 1.0285804 0.9822181 1.0058218
1.0053391 0.9993755 0.9959977 0.99199426 0.97316366 1.004187 1.0245308 1.0340971
0.9635744 1.0090324 1.0091887 0.9789275 1.0118426 0.9884688 1.0106494 0.9895657
1.0260311 1.0067053 0.9798339 0.9761423 0.9992926 1.0225343 1.0021898 1.0000538
1.010267 1.0148218 0.9900738 1.0013956 1.0313455 0.99202627 0.97191226 0.9921223
0.981153 0.98049307 1.0235853 0.9949162 1.0173478 1.0256711 0.99662626 0.9990976
1.0126358 0.99910957 1.0005507 1.0056149 0.99565494 1.015552 0.9889403 1.0070387
00000000: da76 7d3f f275 7f3f 36a1 803f df95 813f
00000010: f222 7b3f ef16 7a3f bd1f 7e3f 2cb7 783f
00000020: 2033 813f ad3b 7f3f 354b 7d3f af89 813f
00000030: 9dce 7c3f 86a8 833f a572 7b3f c5be 803f
00000040: f4ae 803f 13d7 7f3f b5f9 7e3f 56f3 7d3f
00000050: 4121 793f 3389 803f d323 833f 4b5d 843f
00000060: d0ac 763f f927 813f 182d 813f fe9a 7a3f
00000070: 0f84 813f 4b0c 7d3f f65c 813f 2d54 7d3f
00000080: fd54 833f b8db 803f 65d6 7a3f 76e4 793f
00000090: a4d1 7f3f 67e2 823f c147 803f c301 803f
000000a0: 6e50 813f aee5 813f 7a75 7d3f bb2d 803f
000000b0: 2103 843f 6ff5 7d3f 3ecf 783f bafb 7d3f
000000c0: d82c 7b3f 9801 7b3f d804 833f d4b2 7e3f
000000d0: 7438 823f 3149 833f e622 7f3f dcc4 7f3f
000000e0: 0d9e 813f a5c5 7f3f 0c12 803f fdb7 803f
000000f0: 3ee3 7e3f 9cfd 813f 312b 7d3f a5e6 803f

encoder.convs.1.nn.1.bias f4 [64]
-0.012952725 0.024093345 0.0028778927 -0.018761406 -0.002586212 -0.025776839 -0.0037456718 -0.026011806
0.003817069 0.0016245248 -0.009323555 0.01932546 -0.0016514992 0.030069409 -0.017512696 0.006407746
0.0024941894 -0.010966885 -0.0037855194 0.0022845287 -0.008363319 0.00254955 -0.013342718 0.030918697
-0.024534795 0.032117113 -0.036258444 -0.028086692 0.026371997 0.004976122 -0.0029153363 -0.0003160726
0.015644599 0.023454621 -0.009636895 -0.025269026 -0.015662536 0.034008127 -0.0230724 -0.00404223
-0.008371146 0.0041675866 0.0046145553 0.0045290934 0.012610446 -4.8223897e-05 -0.02617772 0.011927672
-0.006589325 -0.039217606 0.038852487 -0.0029227205 0.017116182 0.01256249 0.01836636 -0.0077236113
0.005317767 -0.015081452 0.00396704 -0.004617953 -0.0040767607 0.012969301 -0.0042012343 0.0062943436
00000000: ab37 54bc 685f c53c 079b 3c3b 85b1 99bc
00000010: 707d 29bb f329 d3bc f279 75bb b616 d5bc
00000020: cb27 7a3b 02ee d43a d3c1 18bc 6d50 9e3c
00000030: 1e77 d8ba 1f54 f63c c976 8fbc 12f8 d13b
00000040: 8e75 233b 73ae 33bc 7a16 78bb 08b8 153b
00000050: 4d06 09bc 5a16 273b 6a9b 5abc 3549 fd3c
00000060: 32fd c8bc 3c8d 033d bc83 14bd 1016 e6bc
00000070: 160a d83c bd0e a33b 3a0f 3fbb 8cb6 a5b9
00000080: 1a29 803c e823 c03c 11e4 1dbc fd00 cfbc
00000090: b84e 80bc 1b4c 0b3d 5402 bdbc af74 84bb
000000a0: 2227 09bc 4090 883b b235 973b ca68 943b
000000b0: 0b9c 4e3c 0444 4ab8 a872 d6bc 486c 433c
000000c0: 44eb d7bb a4a2 20bd c923 1f3d 1d8b 3fbb
000000d0: 3c37 8c3c e7d2 4d3c 0c75 963c 5916 fdbb
000000e0: aa40 ae3b 3218 77bc f2fd 813b 3352 97bb
000000f0: 5996 85bb 317d 543c 82aa 89bb c840 ce3b

encoder.convs.1.nn.1.running_mean f4 [64]
1.388375 0.77447736 -0.43502778 2.223583 -1.0999843 -2.7511008 -0.10663854 1.2533474
1.050861 0.2569701 1.0523096 -0.58001256 1.1392449 1.1635281 -0.73886925 3.361553
0.08838979 -0.07478054 0.98149276 1.7045019 1.0122325 -1.0763127 2.2961752 2.4512696
-0.3637921 1.8493199 1.3184581 -0.10040927 -0.120263904 -0.21601447 -0.88583505 -0.5866563
0.9336664 -0.147533 3.0452175 0.8003408 1.0289851 -0.3932677 -0.7304486 -1.3064059
-0.30036244 -2.0650036 -0.43267372 -1.2897346 3.2903018 -0.33409274 -0.8951667 -0.86318344
-0.7036307 0.46949252 -2.3244367 -1.4409844 -0.367922 1.4181465 0.9374287 -0.26355636
-0.6483005 2.0235991 1.4657922 -0.12132431 -1.3931261 0.0691943 0.24259539 1.7464184
00000000: 46b6 b13f 2644 463f f6bb debe 2f4f 0e40
00000010: 49cc 8cbf 0912 30c0 4f65 dabd b06d a03f
00000020: 9d82 863f 9691 833e 15b2 863f b47b 14bf
00000030: c7d2 913f 7dee 943f 8926 3dbf af23 5740
00000040: b505 b53d 8a26 99bd 1c43 7b3f 1e2d da3f
00000050: d690 813f 9dc4 89bf 89f4 1240 9ae1 1c40
00000060: f542 babe 84b6 ec3f 3cc3 a83f 60a3 cdbd
00000070: ec4c f6bd e632 5dbe 16c6 62bf 1b2f 16bf
00000080: c304 6f3f e412 17be d8e4 4240 22e3 4c3f
00000090: c9b5 833f 625a c9be aefe 3abf 4f38 a7bf
000000a0: 1bc9 99be 0529 04c0 6987 ddbe 0616 a5bf
000000b0: 4e94 5240 340e abbe a529 65bf 97f9 5cbf
000000c0: 2421 34bf 5361 f03e 92c3 14c0 2d72 b8bf
000000d0: 4660 bcbe d385 b53f 54fb 6f3f dcf0 86be
000000e0: 06f7 25bf a682 0140 149f bb3f e178 f8bd
000000f0: f551 b2bf beb5 8d3d ed6a 783e a38a df3f

encoder.convs.1.nn.1.running_var f4 [64]
3.5167074 3.729765 3.950026 5.972864 4.3271875 5.3505707 2.8751051 8.1657295
4.4670534 4.0868564 4.931909 3.197682 4.450414 4.2557397 2.5393345 7.2740283
3.1066666 2.698266 4.6627016 2.9893527 3.0706658 5.483923 4.1574817 4.2247777
2.664265 5.973208 4.10467 2.2928145 4.787632 2.7190604 3.5941684 4.751762
3.8176365 3.5242515 6.93578 4.809965 2.752225 3.2464488 4.279525 3.7251952
2.7086527 7.4085236 3.33269 3.4678204 5.8151903 2.9036028 3.144457 3.115177
3.342501 3.9064708 12.123011 3.7259715 2.9708052 4.141872 3.9614372 2.528837
2.874803 5.258474 5.134816 3.4703658 7.1171737 3.7368748 3.371397 3.5729766
00000000: bc11 6140 78b4 6e40 3acd 7c40 b421 bf40
00000010: 5278 8a40 e037 ab40 b901 3840 d4a6 0241
00000020: 1af2 8e40 87c7 8240 33d2 9d40 d2a6 4c40
00000030: cb69 8e40 052f 8840 7584 2240 d7c4 e840
00000040: a0d3 4640 64b0 2c40 da34 9540 8e51 3f40
00000050: ca85 4440 4c7c af40 170a 8540 6131 8740
00000060: 5183 2a40 8524 bf40 7559 8340 79bd 1240
00000070: 4834 9940 1605 2e40 db06 6640 6f0e 9840
00000080: 2854 7440 568d 6140 e9f1 dd40 3ceb 9940
00000090: 7424 3040 d1c5 4f40 def1 8840 9969 6e40
000000a0: 915a 2d40 a012 ed40 cb4a 5540 c5f0 5d40
000000b0: 0a16 ba40 a1d4 3940 c93e 4940 0f5f 4740
000000c0: 89eb 5540 9e03 7a40 daf7 4141 5176 6e40
000000d0: ac21 3e40 378a 8440 3088 7d40 77d8 2140
000000e0: c6fc 3740 6b45 a840 6a50 a440 791a 5e40
000000f0: e3bf e340 f528 6f40 f8c4 5740 a6ab 6440
