checkpoints/tuning_multi/trial_31/best_model.pt (torch, 520320 bytes, 104 tensors)

encoder.feature_encoder.atom_embedding_list.0.weight f4 [119, 64]
00000000: 3b6d 103e f560 03bc b139 5abd bc9c 8d3e
00000010: e2ca d9bd b8be 5cbe 3897 4abe 9cf3 383e
00000020: 82a0 373e 4c62 98bd dfff efbd cdc6 51be
00000030: 1c3f 413d f8d5 eabd fd95 0a3e 402f b9bc
00000040: cda0 293e 6ba6 ab3d a0a3 743d f7b0 883c
00000050: 341c 22be ac85 cb3c c83b ddbd bfe8 63bd
00000060: b1ae e53d d6cd dabd 8a1d 723d cacf 883c
00000070: 57d4 afbd ac11 c6bd 353d 34be 0866 7e3d
00000080: 2e49 b2bd eb13 253e 63a7 853d 6740 c23d
00000090: 3f8a 88bd 05dc 783c a812 dcbc 37ac 943d
000000a0: c6a0 a8bd 32e1 463e a15e 4b3d 32e4 c33d
000000b0: e557 483c 5e40 e33d 1d90 273e 2016 01bd
000000c0: 801f ca3d 4485 0abe 5c28 92bd 5946 3abe
000000d0: 1b1d 543c 5146 0b3d c36c 513d f4d7 9dbd
000000e0: 0755 8a3d 05b7 cbbd 8800 2abd 1673 c03d
000000f0: 1d88 d6bd d00b 59bc 42eb 42be a5a6 2c3c
00000100: fdd3 1abe 190d 2ebe 2e98 4ebd 7949 143e
00000110: a65b bb3d e553 ee3d a7c7 2cbd 28c8 233e
00000120: 6215 a9bd 9fa9 4fbc 6342 2abe 9b76 153c
00000130: 7608 2a3d c8f4 31be 64de 1b3e 1788 0b3d
00000140: 6fd2 303e 2da2 9fbd 4356 0a3c fb05 6ebd
00000150: e4c3 1c3e e24b cfbd 0f6d d53d c632 02be
00000160: 3a54 0b3e 11a2 2cbe 3659 b8bd 8d5c a7bd
00000170: 46de fbbc 3928 13bb 03ac 6f3d b145 263e
00000180: b573 da3d 98ce b2bd 9438 2e3e 9f6d dabc
00000190: 33c8 cebd 139c 8a3d b43d 01bd 79f2 303e
000001a0: 6577 a53c 8e6e f53d 40f6 3e3d 6c57 f2bd
000001b0: 2817 1c3d 3c98 d6bd f798 46bd e1e9 6ebd
000001c0: d9e8 12be 4782 8f3d b332 033e dab6 36be
000001d0: 88d9 c93d 4664 12be 6b74 35be d0c4 7f3d
000001e0: 8988 83bb 5b55 e3bd c502 263e aa11 723c
000001f0: b097 e8bd 521c aa3d 5ef8 513c cd6a edbc
00000200: b9fd 03be faab ccbc cd8f b83c 4594 d7bd
00000210: 598c 0b3e b9e7 95be 5ec1 14be 5c36 4bbe
00000220: 79d0 66be 0488 843d 5a29 ccbd b910 103e
00000230: 3ea9 ee3d 5e17 6f3c d2b0 c5bd c44f d3bd
00000240: 910c 343d e50e 033e 229e b1bd 6b4f fcbd
00000250: 83fb 01be 1f2f 05be 7a36 a7bd b127 04be
00000260: 266f 063e c414 853e 8b39 8bbe be29 3f3e
00000270: e21a 843d 1a14 04be ff56 763d 5146 28be
00000280: a93a c73d b776 0abe 8bb3 c4bd b788 20bd
00000290: ea1f c1bc cc50 b73d 06c0 64be 4f78 31be
000002a0: 0308 e1bc 3de8 643e 835e 893d b580 253e
000002b0: e0b2 afbd b5bd 4e3d 636a 21be adc1 afbc
000002c0: 7686 49bc 8daf 1d3d 02f4 ef3d c1c9 edbd
000002d0: 0687 88bd 0628 8cbc 37ed c4bd bafd 9a3d
000002e0: 8f17 603d 130c 923c a5fa 87be fe40 193e
000002f0: b466 80bd 1a19 0cbe 9ef3 353a 7143 30be
00000300: 5985 0dbe a13c 0a3e 95c3 173e c0c8 00be
00000310: d9d6 203d 1e01 bfbd e47f 2d3e 3a63 e23d
00000320: de70 933d 822a 17be 6665 b6bd 0edd 1bbd
00000330: 9cc4 25be 8ab7 d8bd 4d43 433d 00f0 16be
00000340: 3654 453d 4196 87bb 954c 74bc 42a3 58bd
00000350: 9b4a c7bd 5059 2dbe b157 fcbd c006 0c3e
00000360: 2ae4 5bbc 438b 343e 6165 1c3c f5d5 aebc
00000370: c661 de3d fc8e 2ebe 26d8 e5bd 7cb8 d43d
00000380: ff6b 41bd 5ab0 123e 8b71 87bc 8f39 043e
00000390: 6213 103c f509 9a3c 8f9a 1cbe 5526 80bd
000003a0: 01be 143c 446e a93d 9de6 0f3d c405 21bd
000003b0: 6c3a a03a 4962 1f3e 3b5d f73d b710 7d3d
000003c0: b29e 05be 915f 79bd 01c0 ec3d fbe6 263e
000003d0: 6a4e afbd 3d90 9d3d 8fa9 2dbd cb3c eb3d
000003e0: ece0 debc 3062 13be 6287 37be 424d debb
000003f0: 59a4 5a3d 5099 dabd 1ee0 113e 52e4 af3d
0.14104168 -0.008018722 -0.053277675 0.2765864 -0.106344 -0.21557128 -0.19784248 0.1806168
0.17932323 -0.07440624 -0.117187254 -0.20485993 0.047179326 -0.114665926 0.13533778 -0.022605538
0.16565247 0.08381351 0.059726357 0.016685946 -0.15831071 0.024844013 -0.10802418 -0.055641886
0.1121496 -0.10683791 0.059110202 0.016700644 -0.085854225 -0.096713394 -0.17601474 0.062109023
-0.08705364 0.1612088 0.06526067 0.0948494 -0.06666993 0.0151891755 -0.026864365 0.0725941
-0.0823379 0.19421843 0.049650792 0.09565009 0.012227987 0.110962614 0.16363569 -0.03151524
0.098692894 -0.135274 -0.07136604 -0.18190898 0.012946392 0.034002606 0.051129114 -0.077072054
0.06754499 -0.099470176 -0.041504413 0.09396951 -0.1047518 -0.013247445 -0.19035056 0.010537778
-0.1511993 -0.16997184 -0.0504381 0.14481153 0.0914834 0.11637095 -0.04218259 0.15994322
-0.082560316 -0.012674718 -0.16626887 0.009122516 0.041511975 -0.17378533 0.15221554 0.034065332
0.17267774 -0.077946045 0.008443418 -0.058111172 0.15309101 -0.101218954 0.10421192 -0.12714681
0.13606349 -0.16858698 -0.09001391 -0.081719495 -0.030745637 -0.0022454394 0.058513653 0.16237523
0.106666006 -0.08730811 0.1701377 -0.0266636 -0.10096779 0.0676805 -0.031552985 0.17279996
0.020198533 0.11983977 0.04662156 -0.11833081 0.03810802 -0.10478255 -0.048485722 -0.058328513
-0.14346637 0.0700727 0.12812309 -0.1784319 0.09855944 -0.14296064 -0.17720191 0.062443554
-0.004014079 -0.11100265 0.16211994 0.014774719 -0.11357057 0.08306183 0.012815563 -0.02898159
-0.12889756 -0.024984349 0.022529507 -0.10526327 0.13627757 -0.29278353 -0.14526889 -0.19844955
-0.22540464 0.064712554 -0.09968825 0.14068879 0.11653374 0.0145929735 -0.096528664 -0.103179485
0.043957297 0.1279865 -0.086727396 -0.12319835 -0.126936 -0.13006257 -0.081646875 -0.12905766
0.13128337 0.25992405 -0.2719234 0.18668267 0.0645044 -0.12898293 0.06014156 -0.16433074
0.097279854 -0.13521849 -0.096045576 -0.03919288 -0.023574788 0.08950958 -0.22338876 -0.1733105
-0.02746964 0.22354217 0.0670748 0.16162379 -0.085790396 0.050473887 -0.1576324 -0.021454656
-0.012300124 0.038497496 0.11716463 -0.11610747 -0.06666379 -0.017108928 -0.09615558 0.07567926
0.054709967 0.017828023 -0.26558414 0.14966199 -0.06269589 -0.1368145 0.0006940904 -0.17213227
-0.138204 0.1349969 0.14820702 -0.1257658 0.039267395 -0.09326385 0.16943318 0.11054082
0.07199262 -0.14762309 -0.08906059 -0.03805261 -0.16188282 -0.10581882 0.047671605 -0.1473999
0.048176013 -0.0041377847 -0.014910837 -0.05289007 -0.09731027 -0.16928601 -0.12321413 0.1367445
-0.013421098 0.17631249 0.009545655 -0.021342257 0.108584926 -0.17046732 -0.11222868 0.1038675
-0.047222134 0.14325085 -0.016533634 0.12912582 0.008793684 0.018803576 -0.15293334 -0.06257311
0.009078504 0.082729846 0.03513204 -0.03931214 0.0012224442 0.15564837 0.12078329 0.06178352
-0.13048819 -0.060882155 0.11560059 0.1629905 -0.08559878 0.07693527 -0.04239803 0.11486205
-0.02720686 -0.14392924 -0.17922738 -0.006784112 0.05337939 -0.10673773 0.1424565 0.085884705

encoder.feature_encoder.atom_embedding_list.1.weight f4 [5, 64]
00000000: 410a 25be 6ae1 30be 73cb 96ba 8087 573e
00000010: 14f6 d73d 2ea9 9b3e d556 053d ba77 fd3d
00000020: 95e3 ac3c 4823 333e 0e26 433e afac fb3d
00000030: 5f80 39be 7a94 88bb a419 21be 5613 79bc
00000040: 5957 253e 23ca 29be 5ee9 68be 2b9e 2bbe
00000050: d9f4 93ba 66dd 4ebe 3756 1e3e 761f 9bbe
00000060: 7be2 66be 59b7 523e 3355 3c3e ed7f febd
00000070: e36c 27bd 93e4 1d3b c53a 68be bc6a 00be
00000080: 44ec ab3d cdcc d9bd 356e 4e3e 4dd6 7dbe
00000090: 9d3a 5ebe bc1d 73be 4a15 91be e6ea 153e
000000a0: a45c 303e 4b2f 6fbe ca56 6fbe 714d 1abe
000000b0: 49a3 393e 0f6b 513d 7201 ddbd 0d5a 633e
000000c0: 8a47 a03d 4e46 793e 4566 78bd db16 75be
000000d0: 46cc 82bd 2d37 b23d 18d8 c43d 929d ce3d
000000e0: dd59 553d 112c 8a3d 0145 fdbc 714e 623d
000000f0: 55aa 33be f396 1bbe 2567 073e c457 7d3d
00000100: d1f6 283e 7119 49be 2bbf b1bd b952 1cbe
00000110: 78e4 6abe 23f0 f7bd 9384 9abc 20f7 b0bc
00000120: 1843 95bc 91bb 3ebe 92e2 a3bc b121 a03d
00000130: 61dd 583e feac 363e bc58 7cbe ed5d 40be
00000140: 892e 6e3e 80f8 4c3e 859c 273e 9fbb 1bbe
00000150: 70a4 7e3e 1bad 92be e922 70be df32 d83c
00000160: 6e6e 0c3e 8c4d 8ebe 00cb 313d 5668 91bb
00000170: 81fc 1ebd c481 6cbe 2cc0 10be 54ca 623c
00000180: 5a6e 903d d861 3d3e b1f1 d5bd 50e7 8e3e
00000190: 8f63 e33d 6626 4dbe 344e 96be 9503 4b3e
000001a0: d18f b63c 6f71 f2bc 75ec c7bd 98f5 0d3e
000001b0: e54f d9bd 19ea 5cbe 8eb2 513e 6575 01be
000001c0: 4bdc 2d3e e7a5 4fbe a7ce 72bd 1576 25be
000001d0: 3aa3 4d3c 1ed7 0ebd 0d2b b43d ce35 6abe
000001e0: 6028 85be ab24 703e 0633 67be 68a2 cb3d
000001f0: 3b1e 83be c75d 6b3d 4196 cdbb 9b7b 14be
00000200: 71f8 c6bb eb49 143d c031 073c fa6f 643e
00000210: c3f4 2cbe c6ba 083e 4a0c 8b3e 43e2 58be
00000220: 6681 6cbe f51a cc3d 4d62 d6bd 1aea d9bb
00000230: 20d5 8cbe f870 383e 307c 9fbc 8982 943c
00000240: 61ec d1bd 2ca4 d13d 3174 9ebb 55ae f0bd
00000250: 8603 963d 5f3b e0bd 611f e03d 9999 90be
00000260: 8fab e9bd d0e3 4ebe a976 003e 2409 54be
00000270: bff4 693e da0a 933d 230f 393e d9f7 44be
00000280: 9549 75be 1f34 46bd dee8 25be 9d8d ccbd
00000290: 0835 783e 0f63 213e 976d b2bd 325b 373e
000002a0: a140 4abe e175 2fbe c7be 053e 0f5c 023e
000002b0: 9a9c aebd 5a0e 4ebe 02c8 3c3d 75a4 913e
000002c0: 2097 943e 0fb9 773e a96f 62be dc28 483e
000002d0: 9b2f 5d3d aa15 75be 1125 9b3c 96cc 91be
000002e0: 3aa4 813d c008 26be 0e2a 4bbe e714 6b3c
000002f0: 63a8 4b3e 1b7b 293e f0db 3abe 18c0 2b3e
00000300: d2b2 e03d d092 49be 31c4 9bbd 68b7 90bd
00000310: 376c 75be d5c2 89be 8a0b 4dbe 823f 893e
00000320: 4675 a0bd e7e0 e73c 87bd 7abe 56c1 4fbd
00000330: 2629 e43d 65ce c3bb 51d4 bdbc 85b4 80bb
00000340: 1107 4b3e 0fb7 54be 0c94 87be 2c6b 91be
00000350: 508f f53d fe32 28be dc0f 04be 74c0 1fbd
00000360: 8604 313e 48f5 273b 6a6a 6c3d 01a2 a9bd
00000370: 2055 243e b0a2 16be e3c0 683e b28c 783e
00000380: 27cf 87be 1838 bfbd 498a 11bd bd97 22be
00000390: 86b3 813c 6836 c6bd 27fb 793e b61b bfbc
000003a0: b0c9 28be ceef 15be 3d19 8dbe 9994 39be
000003b0: ba7f 6a3d 4a6b b63d 6723 02be 2c9f 443b
000003c0: 1f81 173e c3a6 1f3d d410 083d 9315 46be
000003d0: 19f1 8d3e 6e49 b2bd ce46 c73c 5dbd 14bd
000003e0: 042e 033e 841b 7abe 996e 893d b660 6abe
000003f0: 0156 6e3e ca0a eebd 9a90 763d 82db 9f3c
-0.16117193 -0.17273489 -0.0011504724 0.21047783 0.105449826 0.3040251 0.032553513 0.12376352
0.021104613 0.17493927 0.19057485 0.12288796 -0.18115376 -0.0041680904 -0.15732437 -0.015202364
0.16146602 -0.16581015 -0.22745273 -0.16759555 -0.001128818 -0.20201644 0.15462576 -0.3029744
-0.22547333 0.20577754 0.18391876 -0.12426744 -0.040875327 0.002409254 -0.22678669 -0.12540716
0.083946735 -0.10634766 0.20159228 -0.2478878 -0.21702047 -0.23741812 -0.28336555 0.14640388
0.1722284 -0.23357885 -0.23372951 -0.15068604 0.18128695 0.05112749 -0.10791291 0.2220232
0.07826145 0.24343225 -0.060644407 -0.239345 -0.06386618 0.0870193 0.09611529 0.10088648
0.052087653 0.06746686 -0.030916693 0.05525059 -0.17545445 -0.15194301 0.1322294 0.061851278
0.16500403 -0.19638611 -0.086790405 -0.15265931 -0.22938716 -0.12106349 -0.018862044 -0.021602213
-0.01822047 -0.18626238 -0.020005498 0.07818926 0.211782 0.17839429 -0.24643224 -0.1878583
0.23259939 0.2001667 0.16368301 -0.1520829 0.24867415 -0.28647694 -0.23450817 0.026391445
0.13714 -0.2779354 0.043406487 -0.0044374866 -0.038815025 -0.23096377 -0.14135808 0.013842184
0.07052298 0.18494356 -0.104464896 0.27910852 0.11102974 -0.20034179 -0.2935654 0.19825585
0.022285374 -0.029595105 -0.097618975 0.13863218 -0.10610942 -0.21573676 0.2047827 -0.12642439
0.16978566 -0.2027813 -0.05927911 -0.16158326 0.012551123 -0.03487312 0.08797274 -0.22872087
-0.26007366 0.23451488 -0.22578058 0.09943086 -0.25609002 0.05746248 -0.006274015 -0.14500277
-0.006072097 0.036203306 0.008251607 0.2230834 -0.16890244 0.13352498 0.27157813 -0.21180062
-0.23096237 0.09966079 -0.10467968 -0.0066502215 -0.2750635 0.18011844 -0.019468397 0.01812865
-0.10250164 0.102363914 -0.0048356284 -0.11752001 0.07324891 -0.10948824 0.10943485 -0.28242186
-0.11409675 -0.20204091 0.12545265 -0.20706612 0.2284727 0.07179804 0.1807218 -0.19235171
-0.2395385 -0.04838955 -0.16202113 -0.09987948 0.2423898 0.15760444 -0.08712309 0.17905882
-0.19751216 -0.17134811 0.13061057 0.1273043 -0.08525963 -0.20122662 0.04608918 0.28445783
0.2902155 0.24191688 -0.22112907 0.19546837 0.05400048 -0.23934045 0.018938573 -0.284764
0.06330152 -0.16214275 -0.19840261 0.014348245 0.19888453 0.16550867 -0.18247962 0.16772497
0.10971607 -0.19684911 -0.0760578 -0.07066232 -0.23967062 -0.26906458 -0.20023933 0.26806265
-0.07834868 0.028305484 -0.24486361 -0.05072149 0.11140661 -0.005975532 -0.02317253 -0.0039277696
0.19826914 -0.20772956 -0.26480138 -0.28402078 0.11990225 -0.16425702 -0.12896675 -0.039001897
0.17286882 0.0025628377 0.05771867 -0.08282853 0.16048098 -0.14710498 0.2272983 0.24272421
-0.26525232 -0.09336871 -0.03553227 -0.15878196 0.015832674 -0.09678346 0.24412213 -0.023328643
-0.16483188 -0.1464226 -0.27558318 -0.18123092 0.057250716 0.089071825 -0.12708817 0.00300021
0.1479535 0.038977396 0.033219174 -0.19344167 0.27723005 -0.08705412 0.024325754 -0.036313403
0.12810522 -0.24424559 0.06710548 -0.22888455 0.23274995 -0.116231516 0.060196497 0.01951385

encoder.feature_encoder.atom_embedding_list.2.weight f4 [12, 64]
00000000: 3a4c 3d3d 5430 cfbd dca3 8fbe 2822 3cbe
00000010: 9c4a 073c ea75 7abe cdc1 8e3e f152 9ebe
00000020: 6baa 363e 2e72 903e cd32 c5bd 0b34 d0bd
00000030: 1d6b 6abe 68f1 b9bc 726d c2bd 2ed3 b4be
00000040: ebdc 13be 4ef8 d93d 2b51 8b3e fab2 36be
00000050: eaea b9bd ea92 b4bd 0039 59bd caf7 153e
00000060: 3216 493d b26e debd 2c04 a13c a862 b03e
00000070: 32e7 88be 382c 963e af9c 7fbd 581a 783e
00000080: 5b2a 2d3e 13c5 7d3c fa74 23bd cf9f 803e
00000090: 5fe7 b2bd d4fb c53e 246f 7c3e ecd5 63bd
000000a0: f3e9 7ebe 9ae6 5b3d 6ac2 903e e4bb 583e
000000b0: 5dba 87be 33d1 053e 25a4 243e 7c03 32bd
000000c0: 1dc4 393e 79ca 91be 55aa 173e 29ce f1bb
000000d0: f766 b53d 12ed d5bd 1f83 5ebd c08c 50be
000000e0: 5f29 4a3e 55d5 6fbe fa62 17be 00e7 b1bd
000000f0: 892a 06be 0dca 0abe e444 5e3c d4c1 0ebe
00000100: d371 09be 3884 79be 13d3 babc 5c9c 73be
00000110: d9d3 70bd a19e 55bd e5c2 23bd dcb2 8fbe
00000120: adaa 52be 86e9 ccbd 5cff 473e df93 403e
00000130: 5f42 86be 9b01 6bbe 43fb 99bd 28a8 e93e
00000140: 81a2 81be 8c7e 9a3e d499 623e 6dd0 7fbe
00000150: c965 d2bd 2df3 e53b a70c aabe f66e d8bd
00000160: cb9c e3bd 0ac9 81bc ad79 263e c162 e9bc
00000170: fee5 eabd 82df 4c3e 118d 29be 23b3 603e
00000180: 7d77 89be 98ae 8f3e 48d0 363e 2176 93be
00000190: f809 a2be d84f 8d3e b3df 413e 38f9 5abe
000001a0: fff2 64bc bef5 ef3d f6b1 afbd be62 173e
000001b0: 3678 443e bd28 7cbe e79e febd 92fd a7be
000001c0: e615 c33d 8270 8dbe 9db4 d0be 6c0a 16be
000001d0: 20a5 c5bd fa6d 7bbe aa66 65bd 716f 05be
000001e0: 11c1 e83d 5c85 b43c 9f92 d03d 29f4 95bb
000001f0: b109 233e 7215 82be b112 27be 86bd 76be
00000200: 1731 a7be 06c5 543e 836e b03e 10a9 e23d
00000210: 1d95 063b 0d60 c03e 98ca 68be f408 393e
00000220: 8a17 97bd ab90 16be 1c09 92be 3cf1 453d
00000230: ea42 a2be 2e87 2dbe beea 043f 34a3 acbe
00000240: afc1 d93d 2a23 7dbe 3d14 27be 8a69 743e
00000250: f692 653e c7d0 d43c a045 b43d 2b4e 253e
00000260: d0e0 413e a361 50be b72a a03d 9a23 dabc
00000270: 1d4a 133e 7aa5 dbbd 52c4 823e 8d54 413e
00000280: b6be 8f3e 6c4d 4cbe f352 143e e39a 8e3e
00000290: 6d1d 89bc 58a9 d33d 3200 093e 4a8f adbd
000002a0: 2055 a73d 1e3e 54be ba05 f13c 1f38 2c3e
000002b0: 36b8 cc3e ded6 f43c 3255 3d3e f189 dbbe
000002c0: e897 933c af46 dfbd 1e1b 493e 4aac 15bd
000002d0: c734 bf3d 1af4 ffbd 6de2 9dbe aa98 a53d
000002e0: 9724 aa3d ac02 8d3e 9c27 9a3e 1838 363e
000002f0: 75ba c5be 44ad c43c bf1a 0ebe 34e8 9fbd
00000300: e371 c0bc 2166 043e 9e22 a4be 2509 c43d
00000310: 3914 843e 65ae 6d3e e012 e3bd efdd bc3d
00000320: 1df7 e1bc b37f 5bbe a205 973e 07a0 e43c
00000330: 9acf 53bc 5db3 733d b5a8 773d d3eb 15be
00000340: bbde 1ebe 6da7 d1bd 2b5f 3cbe 84e0 893d
00000350: 6d31 933e 63d9 753d c6bd a9bd 433e c7bd
00000360: 0efd 8cbe 6fec adbd 4a7a a8be 3a73 083e
00000370: eadf 6e3e f8a5 443e f1ad 37bd f78e 253e
00000380: 41bb 19be 0fc9 85be 8155 cf3d baf1 17be
00000390: 944a 96be 3f17 18bd 35e5 60be 6f9d 12be
000003a0: 468d 79be 1b61 1ebd 2434 0b3e 716b eebd
000003b0: 0669 ebbe c904 1dbe 15ac 3f3e b6c8 9bbd
000003c0: 6359 80be 2c0c eabd 7653 453e 04a3 b03d
000003d0: 2a09 b83d 161f 4b3e 49ca 2f3c 57f2 d83d
000003e0: ab62 bb3e bd8f 03bd 765f 3ebd 8e0e 4c3e
000003f0: e13e d23e 106a 87be f1d2 a03e 15a4 eebd
0.046215273 -0.1011664 -0.28054702 -0.18372405 0.008257534 -0.24459043 0.27882233 -0.30922654
0.17838447 0.28212112 -0.0962883 -0.101661764 -0.22892423 -0.02269812 -0.09493531 -0.35317367
-0.14439742 0.106430635 0.27210364 -0.17841712 -0.090780094 -0.08817084 -0.053032875 0.14645305
0.049093433 -0.10860957 0.01965531 0.3445027 -0.26738888 0.2933061 -0.062405284 0.242288
0.16910689 0.015488881 -0.03990648 0.25121924 -0.08735537 0.38668692 0.24651772 -0.055623934
-0.24893932 0.053686716 0.28273326 0.21165425 -0.2650937 0.13068084 0.16078241 -0.043460354
0.18141218 -0.28474787 0.1481107 -0.0073793125 0.088575296 -0.10445608 -0.054324266 -0.20366192
0.19742344 -0.23421223 -0.1478385 -0.08686638 -0.13102163 -0.13553639 0.0135662295 -0.13941127
-0.13422327 -0.24366844 -0.022805726 -0.23790115 -0.058795784 -0.052153233 -0.039980788 -0.28066146
-0.2057292 -0.100054786 0.19531006 0.18806408 -0.26222512 -0.22949831 -0.075186275 0.45636106
-0.25319293 0.30174673 0.22128993 -0.24981852 -0.1027332 0.007017514 -0.33212778 -0.10568039
-0.1111389 -0.015842933 0.16257353 -0.028489472 -0.11469649 0.20007136 -0.16557719 0.21943335
-0.26848975 0.28062892 0.1785289 -0.28801063 -0.3164823 0.27599978 0.1893299 -0.21384132
-0.01397395 0.117167935 -0.08578865 0.14783761 0.19186482 -0.24624915 -0.12432652 -0.32810646
0.09525661 -0.276249 -0.40762797 -0.14652413 -0.09650636 -0.24553671 -0.05600611 -0.13030793
0.113649495 0.022036247 0.10184216 -0.0045762253 0.15921666 -0.25406986 -0.16315724 -0.24095735
-0.3265464 0.20778283 0.34459314 0.11067402 0.0020535656 0.3757328 -0.22733533 0.18069822
-0.073775366 -0.14703624 -0.28522575 0.048325762 -0.31691676 -0.16946098 0.5192069 -0.33718264
0.10632645 -0.24720445 -0.16316314 0.23868385 0.22419342 0.025978459 0.088023424 0.161431
0.18933415 -0.20349745 0.07820647 -0.026628304 0.1438374 -0.107249215 0.25540406 0.1887991
0.28075188 -0.19951409 0.14484768 0.27852544 -0.016737664 0.10335034 0.13378981 -0.08474596
0.08170533 -0.20726821 0.029421676 0.16818283 0.39984292 0.029887613 0.1848953 -0.42878678
0.01801677 -0.10902154 0.1963925 -0.03654126 0.09336238 -0.124977306 -0.30836812 0.08085759
0.0830776 0.275411 0.30108345 0.17794836 -0.38618818 0.0240084 -0.1387739 -0.07807961
-0.023491805 0.12929584 -0.3205766 0.09572057 0.2579668 0.23211057 -0.110875845 0.09222018
-0.027583653 -0.21435432 0.29496485 0.027908338 -0.012927914 0.059497226 0.060463626 -0.14640741
-0.15514652 -0.10237012 -0.18395679 0.06732276 0.28748646 0.06002177 -0.082881495 -0.09728672
-0.27536815 -0.08492362 -0.329058 0.13325205 0.23327604 0.19203937 -0.044843618 0.16167818
-0.15012838 -0.26129958 0.101237305 -0.14838305 -0.29353774 -0.037131544 -0.21962436 -0.14317869
-0.24370298 -0.038666826 0.13594109 -0.116415866 -0.45978564 -0.15333857 0.18717988 -0.07606642
-0.25068197 -0.11428103 0.19270119 0.08624843 0.08986123 0.19836077 0.010729381 0.10593098
0.36598715 -0.0321195 -0.046477757 0.19927427 0.41063598 -0.26448107 0.31410936 -0.1165239

encoder.feature_encoder.atom_embedding_list.3.weight f4 [12, 64]
00000000: 904f 5c3e 2b18 b63e b1b0 f43d da84 4abd
00000010: df0f 4c3e dfe1 5e3e b1e9 17be 9ea5 22be
00000020: 2eaa 223e fb70 0d3e 950f d33d 63b4 9c3c
00000030: 4922 85bd 8388 1a3e 3596 0abe 7af1 533c
00000040: 3276 803e 613e ffbd decc 71be c14a b3bc
00000050: 4ee6 1b3e e6c9 85be b022 373e da31 4d3c
00000060: 43b0 093d 01b1 923e cbd7 a93e 418d 82bc
00000070: a39e 5cbe 66c8 823e b64b babd bccf 1fbe
00000080: a33d 463e bc5f 413e 25b0 b43d c0b5 23be
00000090: 36a9 0bbe 4982 fa3d 476c c93d 1361 0a3d
000000a0: a003 763e 68f6 22be b8bc b23d 23c1 743e
000000b0: 7fd5 10be be4f c7be 8e98 60be 7752 093e
000000c0: 880a 8ebe 480c 09be cd0d 5bbe acb7 043e
000000d0: c101 26bd 3743 5b3d 883a 0b3e 01f6 8ebe
000000e0: 05e3 43be 1f0c 053e a0f7 3dbe 8019 efbd
000000f0: 7b4c 87be 5097 d13d 6976 563e 2b11 60bd
00000100: f943 76bc 2d28 833e 2584 f53d 1a44 91bc
00000110: e5e2 cabd 8f1f b4bd 95cb 5cbc 76cf b23e
00000120: 20fb babd 0b28 693c 178b 86bd 9187 7ebe
00000130: 8d52 733d 0aea 9f3d df61 bd3e 26f0 d4bd
00000140: 6a4a 483e 6f37 d4bd b6d5 aabd 3ffa 9f3e
00000150: bb04 b93d 7e38 8d3e a51c 8dbe 1ab1 803d
00000160: 1d09 c5bd 89b7 d03e f39f 133e 54fd 3f3d
00000170: c378 633e 1139 39be 19df 96bd fe04 123e
00000180: 2f2b 2cbe 1d5a 8a3d fce1 373d a16f b0be
00000190: db95 08be 0cf0 54be 5992 83be 5703 35bc
000001a0: b713 e03b ea53 5f3e 2931 f03d 2141 103d
000001b0: 4dab 2bbe a99b b2be d52b a43e a589 d43d
000001c0: 58ec f03d abc5 a5be 1c66 45be c9c6 213d
000001d0: 5212 6e3e df53 43be b5e2 1bbe f044 5abe
000001e0: 1fc6 febc 6d45 20bc 6b2c 29be 61af 123e
000001f0: 1208 acbc 8a02 e8bd 893f b1bd 0874 94bd
00000200: 81a0 8ebd 6006 cdbd 96d1 cc3e 055a d2be
00000210: df7c 46be f2eb d9bd a3cf 50be 7f27 d43d
00000220: cc2e 1a3e 27f5 9b3e 28db 0d3e fb4c dabd
00000230: 8ddb 763d b2c1 63bd f623 093e d375 8d3d
00000240: 70d3 0a3e 828d 2d3e db6c dabd b83f a53e
00000250: 7ae4 b33d 2210 8bbd d801 10be 4d49 7fbe
00000260: cf5b 173e 588a 9bbe 5dd2 bdbe b5f2 8f3e
00000270: 6961 82bd 0494 b13e 69ae 70be 1d12 22be
00000280: afd8 5fbe 3ddd 313e f7a2 12be 6860 13be
00000290: f0f9 cfbd 7ffa 58be 7941 6d3e f905 803e
000002a0: d63e 87be 4e2a c7bd e807 f83c 1a0e 34be
000002b0: b956 32be 0fb2 4b3e b5d1 8bbe a24e 2e3e
000002c0: 2a75 13bd f884 1abe 77c2 70be b030 ab3c
000002d0: 7868 43be f5fe 1ebe a32f 09bd 1d7e 17be
000002e0: f074 0e3e b2b0 a4be d33a 5f3c 369f 283e
000002f0: cc5c 86be 05f0 1abe 0f9e 4cbe 45d2 a3be
00000300: 49f4 073e 8980 25bd 4252 e13c 08cb 1f3e
00000310: 0838 543d 67c1 78be 95e0 50bc cf2b 04be
00000320: b485 4bbe 2426 6c3e 6455 e1bd 4efe 8e3e
00000330: 08ca 29be 280c d2bd 46ac c7be eebf a13e
00000340: c6ea 61be 2927 193d ae6b dfbd 712a f8bd
00000350: 8715 66be d94a 0b3e 9685 f73d 44fd 47be
00000360: 2888 56be a66a 633e cee3 92bd c7c3 38be
00000370: ff0a fd3c 7196 ff3c 090c 7bbe 5c27 213e
00000380: b508 d3be ef53 82bc ed82 47bd 48e3 8ebd
00000390: a624 21be 7166 80be 52af 7e3e 0fd5 c5be
000003a0: a432 0a3e 910d 903c 9071 05bd f390 a7bc
000003b0: 2bec 92bd 915b 43be 505a 253e 7948 8fbe
000003c0: 2dee 443d 18a3 60be 44aa 81be ee0a c03e
000003d0: 328a 0f3e bcd9 8fbc 7bc2 55be 2c8b 523e
000003e0: 4c77 d93d 8362 b73e 43f9 29be 7ab2 a43d
000003f0: 177b b73e 223b 863e fc64 0bbe ebfb 57be
0.21514726 0.35565314 0.11947764 -0.049443103 0.1992793 0.2176585 -0.1483524 -0.1588349
0.15885231 0.1381263 0.103057064 0.019128984 -0.0650068 0.15091138 -0.13533862 0.0129359905
0.25090176 -0.1246307 -0.23613307 -0.021886231 0.15224573 -0.261306 0.17884326 0.012524093
0.033615362 0.28650668 0.3317245 -0.015936496 -0.2154489 0.25543517 -0.09096472 -0.15606588
0.1935945 0.18884176 0.088226594 -0.15987301 -0.13638768 0.12231881 0.098351054 0.033783983
0.2402482 -0.15914309 0.087274015 0.23901801 -0.14143942 -0.38928026 -0.21933195 0.13410364
-0.2774241 -0.13383591 -0.21391983 0.1296069 -0.040529016 0.053530898 0.13596547 -0.2792206
-0.1912957 0.12992905 -0.18551493 -0.116747856 -0.26425537 0.10233939 0.20943607 -0.054703873
-0.015030854 0.2561659 0.11988095 -0.017732669 -0.09906558 -0.08795082 -0.013476272 0.34923905
-0.091299295 0.014230738 -0.06569498 -0.24856402 0.0594049 0.07808311 0.36988732 -0.10397367
0.19559637 -0.103621356 -0.083415434 0.3124561 0.090341054 0.27582163 -0.27560917 0.062837794
-0.09620879 0.40765026 0.14416485 0.046872452 0.22214036 -0.18088175 -0.07366771 0.14259717
-0.16813348 0.06755469 0.04489325 -0.34460166 -0.13338415 -0.20794696 -0.25697592 -0.01104816
0.0068382877 0.21809354 0.117281266 0.03521836 -0.16764565 -0.34884384 0.3206469 0.10377816
0.11763829 -0.3237737 -0.19277233 0.039496217 0.23249176 -0.19074963 -0.152232 -0.2131536
-0.03110033 -0.009782177 -0.1652085 0.14324714 -0.020999942 -0.11328609 -0.086546965 -0.07248694
-0.069642074 -0.100109816 0.4000365 -0.41084304 -0.19383572 -0.10640706 -0.20391707 0.10359096
0.15056914 0.30460474 0.13853133 -0.10659214 0.060267974 -0.055604644 0.13392624 0.06907239
0.1355722 0.16948512 -0.10665294 0.32275176 0.08783813 -0.067901865 -0.14063203 -0.24930306
0.14781116 -0.30378985 -0.37074557 0.28114858 -0.06366236 0.3468324 -0.23504032 -0.15827222
-0.21860002 0.17369552 -0.14319979 -0.14392245 -0.10155094 -0.21189307 0.23169507 0.25004557
-0.26415128 -0.09724866 0.030277207 -0.17583504 -0.17415895 0.19892143 -0.2730843 0.17022184
-0.03600041 -0.15089786 -0.23511682 0.02089724 -0.1908282 -0.15526946 -0.033492696 -0.14794202
0.13911796 -0.32166058 0.013624865 0.16466984 -0.26242673 -0.15130623 -0.1998217 -0.3199636
0.13276781 -0.040405784 0.027505044 0.15604794 0.051811248 -0.24292527 -0.012748857 -0.12907337
-0.19875222 0.23061424 -0.11002615 0.27928394 -0.16580975 -0.10256225 -0.38998622 0.31591743
-0.22062215 0.03739086 -0.1090921 -0.1211747 -0.2246915 0.13602771 0.12086026 -0.19530207
-0.20950377 0.22208652 -0.071723565 -0.18043433 0.030889032 0.031199666 -0.2451631 0.1573767
-0.4121758 -0.015909163 -0.048708845 -0.06976944 -0.15736637 -0.25078157 0.24871567 -0.38639113
0.1349588 0.017584594 -0.032579005 -0.02045486 -0.07173952 -0.19077899 0.16147733 -0.2798498
0.048078705 -0.21937215 -0.25325215 0.3750834 0.14017561 -0.017559879 -0.2087497 0.20560902
0.10618457 0.35817346 -0.16598992 0.08041854 0.35836098 0.2621699 -0.13612741 -0.21092193

encoder.feature_encoder.atom_embedding_list.4.weight f4 [10, 64]
00000000: d009 0b3e 9840 263d cc9c c43d d38a ba3e
00000010: ab79 673d f388 a0bd 3ba8 ef3d 32a8 ddbd
00000020: d75b b33e 3352 a3be 2e83 33be 726e 6d3e
00000030: e727 b3be 947a b43e a426 66be a9aa 8e3d
00000040: 36d4 493e 336a 863d 9935 09be 7c54 f13d
00000050: df94 0abd 268d 0fbe 1d1a f2be d36e 7dbe
00000060: 8516 24be 8f5f df3d 45c8 2cbe 1177 97be
00000070: c3e4 97be 38f1 273e db7d 91be 281b b1be
00000080: 5459 51bb cbe7 7ebe 9beb ef3c 2451 163d
00000090: 1e80 e03d af12 d7bc 49de b6be 064e 363d
000000a0: 1642 11bd 62de 1dbe cba9 c43e 821d 87be
000000b0: 1981 56be 28ef 6f3e e886 1abe c036 d83c
000000c0: 1209 c13d 0bc9 e13d 5f03 813e 0336 15bd
000000d0: 30aa 2bbe ebbe 3a3c e74d 0ebe b147 b0bc
000000e0: 8347 cd3e b731 253e 119f bd3c 4c76 9d3e
000000f0: 5be4 5c3e d65e 53bc c3a5 2d3e d870 893d
00000100: f40c 04bd d257 cf3e 0bc4 a73d 519b 0a3d
00000110: fd81 9f3e dd72 4bbe bec0 e5bd 1f4e e03e
00000120: dd3e e1bb 8bb9 0ebe 598d 0ebe 6b0e c9be
00000130: b50d a53e 8aec a63d 7061 ccbd d913 edbd
00000140: 85de ac3c ee2d ea3d 85c2 013e 3e04 00bd
00000150: cf4c c93d f5e5 433e 1cc6 e03e cf6a ce3d
00000160: b540 1b3e 59c4 b5be 6051 633e 8ba5 023e
00000170: 7714 1c3e 589d 44bd c26d 513d 2901 87be
00000180: a0ee 603e 8b0c 46bd a7b5 9b3e 97d6 0b3e
00000190: cd4a 6c3d 2656 fe3d 010f 1c3e 9fe5 5cbe
000001a0: 9758 2fbe 952a 8cbe 94c1 d2be 33e6 e03d
000001b0: bff5 03bf cc3d bcbd e624 7fbe 6153 7e3d
000001c0: 8576 76be 5190 6c3e 20a7 c33e 4dc0 b9be
000001d0: d6a2 15be 2c79 b0be de82 a2be 1a73 9cbe
000001e0: 5abb 8abe 9cec f7bc 6e7e 583e ac2e 26bc
000001f0: 66fc 4b3d 2daa e2be 8e7e 94bd 6e80 c73d
00000200: 8788 67be 572d 53bd 31d4 a7bd 9e72 a4be
00000210: e8b8 f9be 2f63 8ebd 02e2 7dbc 3485 40be
00000220: bd9f 56be a710 963e ac1a 1d3c 9dba 6f3c
00000230: 9dda 453e 499b 54be 40d3 80be 538f f8bc
00000240: d570 67bd 6555 bcbc c6f8 f8bd b119 263e
00000250: ed69 31bd 2ce7 e73d 619b 4cbe 6c75 803e
00000260: 30c8 43be c592 813e f76f 65bc 2c85 903d
00000270: bf74 3fbd 3142 fa3a f4fb 06be d11b 18be
00000280: f60e 3cbe 7dfb f5bd 08f2 bebd 3c8b 563e
00000290: 07f8 b8bd 186b 9f3e e4c5 4d3e 9689 11bf
000002a0: 3460 b13e 660a dbbd 4754 efbd a0dc dabd
000002b0: d039 763e 6b9e b5be 9f5f a3be 21b5 90be
000002c0: afca 82bd c50b 2dbe 8955 cbbd 5912 2dbe
000002d0: 637f 13bd 0aab d53e 378b 973d 0f03 9cbd
000002e0: 5af5 96be 8fec f53d 56b7 05be 37c9 913d
000002f0: 0542 d13d 33ef 9f3e e32a 563d a752 f1be
00000300: 5da6 6fbe ecd8 42bb 7297 9f3d 0beb 21be
00000310: ed2c 373d 8827 033d cdb7 0d3d fda6 0b3e
00000320: 207d 433e 2d56 13be 2b9e 93be 9fc7 86bd
00000330: 413d 5a3e b025 3bbe 87ff a33d 7663 c9be
00000340: daaf 023e 1670 713e c408 88be ace8 18be
00000350: 6469 8c3d 6dad 2e3e 1c6b 093e d879 52be
00000360: 52c8 723e 2f7e bd3d 131f 01be 913c 1bbe
00000370: f695 a4be 0e31 82be 7038 7e3e b48e 7dbe
00000380: 9c61 a43e 1b4f 863e f536 76be caa7 893d
00000390: 0ea0 f6bd 4a29 89be 869d 7fbe e2bc c9bd
000003a0: 7c69 68be 76b5 c23e 00eb 8d3d 839e 0d3e
000003b0: f320 90be fb58 6d3d 1afa 8f3d db73 c63e
000003c0: dbb5 fb3d b557 2cbe ce51 3ebe 0fd4 c03d
000003d0: b283 413d 2009 5abe 1708 13be d1b4 afbd
000003e0: e602 f1bd e9b7 0dbb e98b 1fbe 5948 693e
000003f0: 1c64 2fbd 9d7a a0bd 85ee 01be 47f7 e23e
0.13577962 0.040588945 0.09600219 0.3643404 0.056512516 -0.07838621 0.11702009 -0.10823096
0.35031006 -0.3189865 -0.1753051 0.23186663 -0.3499138 0.3524977 -0.22475678 0.069661446
0.19709858 0.06563225 -0.13399352 0.11783692 -0.03383338 -0.14018688 -0.47285548 -0.24749307
-0.16024216 0.10906898 -0.16873272 -0.29583028 -0.2966672 0.16400611 -0.28416333 -0.3459103
-0.0031944113 -0.2489311 0.02928715 0.036698475 0.109619364 -0.026254026 -0.35716465 0.044508003
-0.035463415 -0.15416864 0.38410792 -0.263897 -0.20947684 0.23431075 -0.15090525 0.026393294
0.09425558 0.11024674 0.25197884 -0.036428463 -0.1676414 0.011398057 -0.13896905 -0.02151856
0.40093622 0.16132246 0.023147138 0.30754316 0.21571486 -0.012901029 0.16957764 0.06710976
-0.032238916 0.4049669 0.08191689 0.033839528 0.3115386 -0.19868036 -0.11218403 0.43809602
-0.006873949 -0.13937967 -0.13921107 -0.39268813 0.3223702 0.08150585 -0.09979522 -0.11576051
0.0211022 0.11434542 0.1267186 -0.031254046 0.09829103 0.1913069 0.43901145 0.10078966
0.15161403 -0.35501364 0.22199011 0.12758462 0.15242182 -0.048001617 0.051130064 -0.26368073
0.21966028 -0.048351806 0.30412027 0.13656078 0.057688523 0.12418775 0.15240099 -0.21571968
-0.17123638 -0.27376238 -0.41163313 0.10981407 -0.51546854 -0.09191474 -0.2491642 0.062091235
-0.24068649 0.23101927 0.38213444 -0.36279526 -0.14612898 -0.34467447 -0.3174047 -0.30556566
-0.27096063 -0.030264191 0.21141979 -0.010142963 0.049801253 -0.4427046 -0.07250701 0.09741293
-0.22610675 -0.05155691 -0.08194769 -0.32118696 -0.48773885 -0.069525115 -0.015495779 -0.18800813
-0.20959373 0.2930958 0.009588879 0.014631894 0.19321676 -0.20762362 -0.2516117 -0.03034178
-0.05650409 -0.022989938 -0.12156825 0.16220738 -0.04331391 0.113233894 -0.19981147 0.25089586
-0.19119334 0.2530729 -0.014003745 0.070566505 -0.046742197 0.0019093213 -0.1318205 -0.14854361
-0.18365082 -0.12010858 -0.093235075 0.20951551 -0.090316825 0.31136394 0.2009502 -0.56850564
0.3464371 -0.10695343 -0.116859965 -0.10686612 0.24045491 -0.35472426 -0.3190889 -0.2826319
-0.06386315 -0.16899021 -0.09928424 -0.1690153 -0.036010157 0.41732055 0.073996 -0.07617771
-0.29484063 0.120080106 -0.13058218 0.07118457 0.1021767 0.31237182 0.052286994 -0.4713337
-0.23403306 -0.0029731346 0.07792558 -0.15812318 0.04472058 0.03202012 0.034599114 0.1363792
0.190907 -0.14388342 -0.2883161 -0.065810435 0.21312429 -0.18276095 0.08007722 -0.39333695
0.12762395 0.23577914 -0.26569188 -0.14932507 0.06856039 0.17058344 0.13419765 -0.20554292
0.23709229 0.09252583 -0.1260951 -0.15159823 -0.3214566 -0.2542805 0.24826217 -0.24761468
0.3210572 0.26232228 -0.24044402 0.06721456 -0.12042247 -0.26789314 -0.24962434 -0.0985048
-0.22696489 0.3802907 0.06929588 0.13829999 -0.28150138 0.057946187 0.07030125 0.38760266
0.122905456 -0.16830333 -0.18585894 0.09415447 0.047244735 -0.21292543 -0.14358555 -0.0857941
-0.11768131 -0.0021624512 -0.15580715 0.22781505 -0.04282008 -0.078358866 -0.12688644 0.44329283

encoder.feature_encoder.atom_embedding_list.5.weight f4 [6, 64]
00000000: afb6 66be 7972 2bbd d368 17be e5cf 603e
00000010: 20cf 2ebd e8c5 8c3e 0b18 24be 4342 82be
00000020: 716b 0dbd 47da 78be 4290 4cbe 571d 193e
00000030: 6c9e ad3e 7b6d 27be b589 b2be 3149 f13d
00000040: 27de 96be 5279 5fbd 4472 433d e5c4 663d
00000050: e1eb ad3c ef69 b93d c04f 8bbd b0b5 16be
00000060: 565a 2ebe 003d 86be 2c02 3fbe 6d88 da3b
00000070: 34ae ab3c a337 ebbd faba 3d3e 1201 61be
00000080: ac99 97bd caee 0b3e a9fb e53d 04f9 893e
00000090: 9d52 963d 0dcd 40be 850f 49be 830c 0b3a
000000a0: c535 77be 1996 d0bd eeea 90be 0616 36be
000000b0: a138 92be 56ed 393e 5384 02bd 888b 6d3e
000000c0: 3e71 0d3e e1bb 813e 1034 18be 7cd2 47be
000000d0: a5bc 43be 9d8b 8cbe 62d5 15bd 1f87 143e
000000e0: 08ca 553e a30d 34bd 76e0 033e 2ec6 db3d
000000f0: b968 933d a4df 7fbc f209 0dbe 8622 063e
00000100: 5989 91be de8c 0d3d 0792 1e3e b9d3 3b3e
00000110: ba20 043e ce31 36bd bcaa 553e 4d1c 8ebe
00000120: 38e9 7abd 4461 e0bd 7eec 363e f3be 833e
00000130: 1c8f 9ebd 5b51 713d a150 2dbd 1c98 aabd
00000140: 07d5 ef3d 4e12 8d3d 5d29 10be 06dd 823d
00000150: 5863 873e baa6 51be 1e45 3fbd 8b0e 85be
00000160: 4456 97bd e9c5 8d3e 34fb 423e e562 8dbe
00000170: 5b3a 86be 1fbf 403c 2e26 09bd f6d3 613e
00000180: 174f a5bd 635d 633e 074c 31be 157d 5abd
00000190: 3d86 cdbb 254d 1abe 298b 4b3c 3b31 81bd
000001a0: 793d 0ebe 63ef 6bbe 3dce f7b9 c17e 8b3e
000001b0: 0abb e83d 8a4a 65be 7b6e 17be dce8 443e
000001c0: 6b7d dfbd 1f3c debc 67f5 0cbe 65ef 0e3e
000001d0: 57bf 4abe e912 8ebe 4049 5cbe 3857 81be
000001e0: a398 e63c 01ea 393d 95c7 bdbd c082 f83d
000001f0: 9ff7 e03c 6fe1 903d 8a59 1c3e ba7e 723d
00000200: c792 a73e 778e 783e 5498 29be c1a0 7a3e
00000210: 8be5 cfbb 4788 3fbd 1e34 9c3d ad27 83be
00000220: 0062 003e 56fd 123e 868a b13e 8acc 973c
00000230: 5ba9 a3bd bdd4 73bd 77ad 6abd d3f1 65be
00000240: b0cc cb3d ee05 473d bff0 b8bd 43c8 2ebe
00000250: 7525 07be 84c8 a53d 0f66 773e 1583 f43d
00000260: d9ff 613e 17c2 793e abbd 9ebe 28a7 c7bb
00000270: e8f6 7bbe 22b4 65be 4911 e83d a141 223e
00000280: b28d cb3d cbe9 5b3e eb38 1a3e dbe0 12be
00000290: 3d9a 14bd 2443 fdbd 29ae 403e 5f3d 1abe
000002a0: a0b3 fabd 035c 603e c800 ca3d ff18 613e
000002b0: 103d 773e f51f 0bbe 1ce0 0e3e be7e 2fbe
000002c0: 053d 48bd 033f 9abd be3d af3d 9331 6b3e
000002d0: 3a8a 6abe 6459 763e 4120 513e aa11 11be
000002e0: ce81 4bbd be0b 2bbc 9061 693e e627 3abe
000002f0: bb45 2b3e 6398 1ebe 2d39 443e 9b90 40bd
00000300: c54c 8f3e ce2c 5fbe 1805 b3bd 71c2 413e
00000310: 0c68 c73d bdcb 17be f97b 75be 5655 62be
00000320: b47f 7abe feab 25be 38a5 35be f70a adbd
00000330: e5df 813e 7524 9fbd d34b 39be 4890 123e
00000340: d271 30be 8f09 16be ff27 46bd 7099 13bd
00000350: 45df 38be 6c6b 6ebe 9250 92be 204e febd
00000360: 05e4 173e 1e66 c03c f0f9 6e3e edfa 4f3d
00000370: 9ae7 60be 5bee e13c 679f 99bd 55bf 293e
00000380: 9121 a33d 1c62 943e 1f64 86be 9eae 0ebe
00000390: 7375 7ebe 9865 d53c b518 3fbe 9af7 f8bd
000003a0: 7215 8f3e c7e1 c8bd 227f 133e 43be 403e
000003b0: a96b 593e 973b 753e 6ced 383e 40aa ed3c
000003c0: 51f2 7c3e 990e 913e 57cc 4ebe c86a 7a3d
000003d0: b744 4e3e 01ad 4abe 9e4f eb3d ad2d 3b3e
000003e0: 09aa 153c 0055 adbd 3b58 c6bc 4363 823e
000003f0: 1a5e 6dbe e3e0 ed3d 2746 22be 664f 4a3e
-0.22530626 -0.041857217 -0.14786081 0.21954305 -0.042678 0.2749474 -0.16024797 -0.2544118
-0.034526292 -0.24302016 -0.19976905 0.14952599 0.3390993 -0.16350357 -0.34870687 0.11781538
-0.29466364 -0.05455906 0.047716394 0.056340117 0.02123064 0.09053408 -0.068023205 -0.14717746
-0.17026648 -0.26218414 -0.18653172 0.0066690953 0.02095709 -0.11485221 0.18528357 -0.21973065
-0.074023575 0.1366531 0.11229641 0.26947796 0.07339976 -0.1882822 -0.19634826 0.00053042936
-0.24141605 -0.10184879 -0.28304237 -0.17781839 -0.2855883 0.18156943 -0.031864475 0.23197758
0.1381273 0.25338653 -0.1486361 -0.19513887 -0.19114931 -0.27450266 -0.03658045 0.1450467
0.2087785 -0.043958317 0.12878594 0.10731159 0.07197709 -0.015617285 -0.13773325 0.13099107
-0.284251 0.03455817 0.15485393 0.18342485 0.12903109 -0.04448109 0.20865911 -0.27755967
-0.06125757 -0.10956052 0.17863652 0.2573162 -0.0774214 0.058915477 -0.04231322 -0.08329794
0.117105536 0.06888257 -0.14078279 0.06389813 0.2644298 -0.20473757 -0.046696775 -0.25987658
-0.07389501 0.27690056 0.19041139 -0.27614513 -0.26216397 0.011764317 -0.033483677 0.22053513
-0.08071726 0.22203593 -0.17314158 -0.053341944 -0.006272106 -0.15068491 0.012423315 -0.06308218
-0.13890637 -0.23040538 -0.0004726517 0.27245143 0.113638 -0.22391716 -0.14788239 0.19229454
-0.109125935 -0.027128277 -0.13765489 0.1395851 -0.19799553 -0.27748802 -0.21512318 -0.25261855
0.028148955 0.04538918 -0.09266583 0.121343136 0.027461825 0.07074248 0.15268531 0.059202887
0.3272917 0.24273096 -0.16562015 0.24475385 -0.0063445023 -0.046760824 0.07627128 -0.25616208
0.12537384 0.14354452 0.34675997 0.018530149 -0.07991286 -0.059529055 -0.057294335 -0.2245553
0.099511504 0.04858964 -0.09030294 -0.17068581 -0.13197882 0.08094886 0.24160026 0.119390644
0.22070254 0.24390446 -0.3100408 -0.0060929246 -0.24605906 -0.22431996 0.11331422 0.15845348
0.099391356 0.21475904 0.15060775 -0.14343588 -0.036279906 -0.12366322 0.18816437 -0.15062474
-0.12241292 0.219101 0.0986343 0.21982192 0.24144387 -0.1358641 0.13952678 -0.17138192
-0.048886318 -0.0753155 0.08556698 0.2296813 -0.22904292 0.24057537 0.2042246 -0.14166895
-0.04968434 -0.010439811 0.22791123 -0.18179283 0.16725819 -0.15487818 0.19162436 -0.047012907
0.27988258 -0.21794435 -0.08741206 0.1892183 0.09736642 -0.14823814 -0.23973073 -0.22102866
-0.24462777 -0.16178891 -0.17738807 -0.08449357 0.2536613 -0.077706255 -0.18095331 0.14312851
-0.17230919 -0.14652084 -0.048377987 -0.036035 -0.1805392 -0.23283166 -0.28577095 -0.12417245
0.14833076 0.023486193 0.23337531 0.05077641 -0.21963349 0.027579477 -0.07501107 0.16576894
0.07965387 0.28981102 -0.2624826 -0.13933799 -0.24849491 0.02604942 -0.18661769 -0.12156601
0.2794605 -0.098086886 0.14403966 0.18822579 0.21232475 0.23948513 0.1805932 0.029011846
0.24701811 0.2833145 -0.20195137 0.06113699 0.201434 -0.19792558 0.11489795 0.18279143
0.009134778 -0.08463478 -0.024211993 0.25466356 -0.23180428 0.11615159 -0.15847073 0.1975685

encoder.feature_encoder.atom_embedding_list.6.weight f4 [6, 64]
00000000: 56d5 acbc 86b3 533e 47fe 98be 505d 623e
00000010: 9d45 10bc 6158 8d3e a61b d13d 868c d43d
00000020: 9434 423e 9985 94bd d993 31be ef6a ff3d
00000030: f7aa da3e b8fb 623e b2a1 a6bd c9d5 abbe
00000040: f94f 4cbc 7820 44be 44da bfbd e3c6 a93e
00000050: 59e5 b5be 3c44 94be 65ef d23e 519c 87be
00000060: 8b9c 63be df27 9c3e ab1b 00be 788f 733d
00000070: 9ddc c5bd e6d2 febd e73a b6bd 3968 db3d
00000080: 1810 55bc 522b 9bbd 6bbc 433d 2472 bfbe
00000090: c455 40be 7502 423e c6d4 243e d85c c7be
000000a0: 1c54 83bb d7d6 423e 1443 113e 8779 f13d
000000b0: 30e3 99bd 5f39 4fbe d3a5 5d3a 1fc3 893e
000000c0: c8a3 d6bd 39c0 463e 4cf7 e9be a38b 303e
000000d0: 3917 6b3e d9f8 6fbe 3220 893d e9f5 9fbe
000000e0: fad6 523e 0dc4 e63d e51b 35bd 8287 8ebe
000000f0: 504a 403e 8204 6d3e 00cf abbe 6ed0 d03d
00000100: c49d 003e 0087 27be f06c cdbe 4c29 02bd
00000110: 7e76 79bd ec9e 77be 983e 1fbe 9e3e a4bc
00000120: 38be 2a3d ba31 453e 6363 80be 5d34 6abd
00000130: fac9 16bc 610b 1fbe aa1a a6bd 0a1e ecbd
00000140: 5ea3 2bbe bdd6 68be cecc eabd b86f 81bd
00000150: ee28 1fbe dbf0 dcbd f06c a3bd 566e adba
00000160: 8056 d83d 26a9 59be 0d3c 81be 665a 85bd
00000170: 56d2 24be 3299 42bd ef11 023e beae cdbd
00000180: b1b2 4bbc 45f0 42bd 8227 c8bd 7bc7 c7be
00000190: 6ffc 5abd d034 903e 6c77 433e b6e9 913e
000001a0: 3871 44bd 8224 32be 2f70 993e 7282 88bd
000001b0: a3a4 3f3e 927a 4c3d 52c2 043e 4925 91be
000001c0: 6f24 1d3d 8a9a 9abe 2d41 36bd 0348 883d
000001d0: 80da 67bc 64d6 3e3e 8dd9 55be d695 e73d
000001e0: 1ee5 993b aac2 353e cf43 4b3e 7171 263e
000001f0: aa5b a3be 6602 513e 7776 d5bd 700f 42be
00000200: c6c4 6f3d 0856 20bd 2ad8 4c3e 2fd5 fe3d
00000210: a3b4 d9bc 0c67 1a3e dbb9 97bd 8ef7 8b3e
00000220: 9e87 2a3e ef99 a0bd 910e 7bbe 2597 593d
00000230: 2e84 1d3e 46b3 b63c da6b 843e d804 c83d
00000240: 57ce 5cbe c1d4 debd 684b 00be eb22 8bbe
00000250: ff3d 18bc 3120 72bd 289b 7cbe 961c 803c
00000260: dd95 d3bc ae92 1e3e fc24 b03d fd1a 44be
00000270: 5039 a9bd 4f62 84be 5b47 1ebc e37e c43d
00000280: 0ced a33d 1a05 dcbb 21f6 a23e 4444 6d3e
00000290: 7e61 a93e 0d76 863e 02da 1d3e 8f58 c73c
000002a0: 9b9d edbe 7c74 313e 0e49 c23d 0a08 373c
000002b0: bdcf cd3d 293e a3be 27dc 11bd 9266 cf3e
000002c0: 949c 66be 8629 90bd 53fb 783d 5e18 52be
000002d0: 99cf 39be 5c08 ebbc 39b1 323e 222b 493e
000002e0: 6fad 393d bb1d 8d3e 99b3 013e 99ee fc3c
000002f0: 52ac 853e 04c4 0cbe 15a8 353e d8aa 9abd
00000300: 6c3b 8b3e 3dcf bfbe 7b95 003d dc0a 9f3e
00000310: 5291 e0be 439b d33c e00b 85be cbc5 403e
00000320: 5996 0bbe 78fd 1d3e 1049 9bbe 9714 f1bd
00000330: 2847 313c 9d46 a53c ecbc f73c dbcc 9e3d
00000340: 50b8 0e3e 62fe 01bf 50d9 c5bc 555f 203e
00000350: e313 31be 368a 26be 5514 c1be 45a9 8f3e
00000360: 5748 7e3d cf4f 683e 6f0e e7be 8d84 823e
00000370: c9c6 533b 9c80 84bd 0899 3f3e d6c1 81be
00000380: 116d 7b3e 1eb4 41be 1d7e 26be 5c47 a6bd
00000390: 40ef c1bd e3e7 f1bd cc44 67be 97c6 17be
000003a0: 96e0 9fbd cbbe fe3e 209d aa3d 6a52 a6bd
000003b0: 756d d53e 7d10 05be b2e0 1bbe 6133 153c
000003c0: f7ef e03d 3688 b5be 9fcf 16be c5d6 f63d
000003d0: 84ab db3e 6de3 3fbe 01f4 b13e 8f44 6cbe
000003e0: 9ee2 78be d15d 92bd f479 aebe 0e47 82be
000003f0: 90b2 9e3d db57 9e3e 9c1b 85bc 2b0c c33d
-0.02109782 0.20673952 -0.29881498 0.22105908 -0.00880566 0.2760649 0.10210352 0.10378365
0.1896537 -0.07252044 -0.17341556 0.12471568 0.4270856 0.22166336 -0.0813631 -0.33561543
-0.012470239 -0.19153011 -0.09367803 0.3315955 -0.3552654 -0.2895831 0.4119827 -0.26486447
-0.22227685 0.3049917 -0.12510554 0.059462994 -0.09661219 -0.124425694 -0.088979535 0.10713238
-0.013004325 -0.07576622 0.04778711 -0.3739177 -0.18782717 0.1894625 0.16096792 -0.38938022
-0.0040078294 0.19027267 0.14185745 0.117907576 -0.07514036 -0.20236729 0.00084551907 0.26906678
-0.104804575 0.19409265 -0.45696485 0.17240767 0.22958077 -0.23434772 0.06695594 -0.31242302
0.2058982 0.112678625 -0.044216055 -0.2783776 0.18778348 0.23146251 -0.33556366 0.10196005
0.12560183 -0.16360092 -0.40122175 -0.031777665 -0.06090402 -0.24181718 -0.15551221 -0.02004939
0.041685313 0.1925725 -0.25075826 -0.057178844 -0.009203428 -0.15531684 -0.081105545 -0.11529167
-0.16761538 -0.22738166 -0.11464845 -0.06320137 -0.15542957 -0.10788127 -0.079797626 -0.0013231735
0.105633736 -0.21255931 -0.25241128 -0.06511383 -0.16095862 -0.04750938 0.12702154 -0.10043095
-0.01243274 -0.04759242 -0.097731605 -0.3901938 -0.053463396 0.28165293 0.19088525 0.2849862
-0.047959536 -0.17396739 0.29968402 -0.066655055 0.18715148 0.04992158 0.12964752 -0.2834876
0.038364824 -0.3019603 -0.04449575 0.0665436 -0.014151216 0.18636471 -0.2088377 0.11307876
0.0046965024 0.1775004 0.19850086 0.16254212 -0.31905872 0.20411071 -0.10422986 -0.18951201
0.058537267 -0.039144546 0.20004335 0.12443005 -0.026575392 0.15078372 -0.07408496 0.27337307
0.16653296 -0.078418605 -0.24517275 0.05312266 0.15382454 0.022302281 0.25863534 0.09766549
-0.21563087 -0.10880423 -0.12528765 -0.27175078 -0.009292125 -0.05911273 -0.24668562 0.01563863
-0.025828296 0.15485641 0.08600804 -0.1915092 -0.082628846 -0.25856254 -0.009660567 0.09594514
0.080041975 -0.0067144753 0.31828406 0.23170573 0.33082193 0.2626194 0.15415195 0.02433422
-0.46409306 0.17329592 0.0948659 0.01117135 0.100493886 -0.31883362 -0.035610344 0.40507942
-0.22520667 -0.0703917 0.060786556 -0.20517108 -0.18145598 -0.02869051 0.17450418 0.1964536
0.045331415 0.27561745 0.12666167 0.030875491 0.26108032 -0.13746649 0.177399 -0.07552117
0.27193773 -0.37462798 0.031392556 0.31062973 -0.4386087 0.02583087 -0.25985622 0.18825452
-0.13631572 0.15428722 -0.3032918 -0.11771505 0.010820188 0.020175273 0.030241452 0.07753917
0.13937497 -0.5077878 -0.024151474 0.15661366 -0.17292742 -0.16263661 -0.37710825 0.2805883
0.062080707 0.22686695 -0.451282 0.25491753 0.003231453 -0.06469843 0.1871072 -0.25343198
0.24553324 -0.18916366 -0.16259046 -0.081190795 -0.094694614 -0.11811807 -0.22584838 -0.1482185
-0.07806508 0.49754938 0.083307505 -0.08121188 0.41685072 -0.12994571 -0.15222433 0.009106488
0.1098327 -0.35455483 -0.14727639 0.12052683 0.42904294 -0.187391 0.34756473 -0.23073028
-0.24305198 -0.071468 -0.34077418 -0.25444835 0.07748902 0.30926403 -0.016248517 0.09523805

encoder.feature_encoder.atom_embedding_list.7.weight f4 [2, 64]
00000000: 1c8f 4c3e 0515 6d3e d2f8 77be 43bd 71bd
00000010: cba5 6b3e d52e a3be b5d0 183e 6ea2 8c3e
00000020: 5508 8a3e a202 55be 34ac 943e 009e de3d
00000030: 969a 8a3e ff0b 073e 72cb 363d 5bc1 58be
00000040: 831b c2bd bf97 933e eeff 373d fa82 41bc
00000050: f934 903e e937 a3be e7a3 873e 84f8 773e
00000060: 177f 1fbe 69f6 253e 0db4 5e3e 4643 4ebd
00000070: 4b7c b93d 8b8e 273e 33a2 d3bd d006 6cbe
00000080: f63a 903d 1652 99be a41c acbe 5abc d5ba
00000090: 8990 86bd a596 c23d af72 15bd db45 44be
000000a0: 4ec7 1ebe 2ddf b53e 9c4e cabe d97a a9bd
000000b0: 8196 45be 15a9 823d 6cd7 543d 0bab 4b3e
000000c0: 2736 18be 6791 283d 1058 6b3e e83e a83e
000000d0: 0d9e 7bbe c89e 3f3e 4890 02be 3d4b 17bd
000000e0: 61e5 79be 0f91 6f3d d64e 94be 3d93 52be
000000f0: c686 a93c 64f9 063e ac4b bb3d 4fee 6e3e
00000100: 987b 97be 2ab6 2fbe 52fc a3bd 84ec 86be
00000110: af8a fcbd 94eb cdbd 9240 1a3e 7cd9 7a3d
00000120: fa0d cabd 4944 1fbe 99f0 24bc ddd7 da3b
00000130: a294 a83e 9db4 653e 9309 68be 9b7e c6bd
00000140: 33f2 c53d 4e88 663d cfe4 153e dcb2 343e
00000150: 8dfc d73d b77e ec3c 5e21 32be db86 0ebe
00000160: 29c5 8b3d 66db 033e f576 ccbc e717 92be
00000170: 7725 a7be c26c a23e f1b2 09be 543b 9dbd
00000180: f8b7 e2bd 58bb c93d 202a 9d3e 15cb 0e3c
00000190: 5fa3 b53d dae4 993e 3cd5 94be d63b 32bd
000001a0: 463b 74be baef 8abe 6ad8 c73e a2f0 283d
000001b0: bcfa ab3e 28ef 9bbe 1cbb dabd 8af5 d4bd
000001c0: 4195 d3bc c3ad a83e 88c0 6abe 11c1 113e
000001d0: 80c3 1fbe df34 d7bc ce3d 523d 347b b23e
000001e0: fc5e f0bc 9964 813d 4a02 a83e 9c10 a93e
000001f0: 54f4 b4be cd82 3abd a167 8d3d bd37 cebe
0.19976467 0.2315255 -0.24216011 -0.059018385 0.23012464 -0.31871668 0.14923365 0.27467674
0.26959482 -0.20801786 0.2903763 0.1086998 0.27071065 0.1318817 0.044627614 -0.2116751
-0.09477904 0.2882671 0.044921808 -0.011811012 0.28165415 -0.31878594 0.26492235 0.24215895
-0.15575825 0.1620728 0.21748371 -0.050357126 0.0905691 0.1636297 -0.103336714 -0.23049474
0.07042496 -0.2994544 -0.336156 -0.0016306743 -0.06570537 0.095013894 -0.036486324 -0.19167273
-0.15505716 0.35521832 -0.395131 -0.082753845 -0.19295694 0.06379906 0.051963255 0.19889466
-0.14864407 0.04115429 0.22982812 0.32860494 -0.2457201 0.18712914 -0.12750351 -0.036936987
-0.24403907 0.058487948 -0.28966397 -0.2056398 0.020694148 0.13181072 0.09145293 0.23333095
-0.29586482 -0.17159334 -0.08007111 -0.26352322 -0.12331139 -0.100546986 0.15063694 0.061242566
-0.09865947 -0.15553392 -0.010067129 0.006678565 0.32925898 0.2243218 -0.22659902 -0.09692117
0.096653365 0.056282334 0.14638065 0.17646354 0.10546217 0.028869016 -0.17395541 -0.13918631
0.06824715 0.12876663 -0.024959067 -0.2853386 -0.3264577 0.317236 -0.13447167 -0.076773316
-0.110702455 0.09850186 0.306962 0.008715411 0.08869051 0.30057412 -0.29068935 -0.043514095
-0.23850736 -0.27136022 0.39032298 0.04124511 0.33589733 -0.304559 -0.106802195 -0.10398395
-0.025828006 0.3294507 -0.22925007 0.14233805 -0.15601921 -0.026270328 0.051328473 0.34859622
-0.029342167 0.063180156 0.32814246 0.33020484 -0.35342658 -0.045534898 0.06904531 -0.402769

encoder.feature_encoder.atom_embedding_list.8.weight f4 [2, 64]
00000000: 4242 3abe 8bbf 463e b50b 093e 446d 0b3b
00000010: 79f1 9d3e b8c3 8a3d c951 5e3e b8b3 743c
00000020: 5965 823d 9ba9 f9bd 3a32 00bc 68a3 f83b
00000030: 238a 083e c500 493d 3b2e 273d c987 733e
00000040: 4b7e f7bd 6a3a a43e 47f9 e7bd 913a 07be
00000050: 6b25 203e 1d04 a3bb d247 0cbe 1a35 0abd
00000060: 7bb1 563e 4c6e 523d 6295 7dbd 7b54 2dbe
00000070: c02e e3bd ada2 f73e a6a1 e7bd a32b 543e
00000080: 54c6 7bbe bb5e 703e 9b02 c1bd 82a3 dfbd
00000090: 1c31 4f3e b612 843e 8967 f1bd df3d c8be
000000a0: 0882 63be 6fa2 45bd 5aaa b7be 8261 93be
000000b0: b2e6 a9be d111 6ebe 83e8 29bd 5c04 ecbc
000000c0: a6b8 9abe 8ca5 423d 83a7 933d a17e a03e
000000d0: f26c 6dbe b7ac 8abe 6e00 41be ed3d 4fbe
000000e0: 4413 683e b83b 42be 0e43 863e 7520 733e
000000f0: 84fb 59bd 8742 19be 63bb ad3e 0b7d d0be
00000100: e737 5d3e 69b6 00be ef0c 85bb 43b6 903e
00000110: a7ed adbe 3886 07be dee9 27be 28a4 98be
00000120: 0c14 033e 37cf 0e3e c20f cd3d 568d c13d
00000130: 4f26 27be 1591 abbc 5221 073e 2049 4bbe
00000140: 46ae fd3d e82e 863e f356 b9be 8a8d 00be
00000150: 59e2 0d3e c574 42be 745e ab3d 9232 153e
00000160: 7cf5 423b b6fb c7bd be7a b4bd 652e 0d3d
00000170: e220 d33e 6ce0 a7be e263 10bd 8125 80bd
00000180: dcbb aa3e 45be ca3d d29a 0b3d e7a6 24be
00000190: 68cd b03e c7cb 19bd 00e8 07be 322d ad3e
000001a0: 4a9b bc3d 054a cf3d 6714 893e cbb4 43be
000001b0: 77b7 ba3e 2338 6d3e c7ab 8dbe 4fc2 f83d
000001c0: c568 233e 3c3c 4bbe fad8 283e 29ff d9be
000001d0: 7cd5 6d3d a711 6d3e e079 113e 6ac2 01be
000001e0: 0c6e 713e 75d9 d73e de15 803e 4955 603d
000001f0: cfaf a5be 276a 573e 27ef 45be 339c 863d
-0.18189338 0.19409005 0.13383372 0.0021274844 0.30848292 0.06775612 0.21710886 0.014935426
0.06366987 -0.12190553 -0.007824475 0.007587839 0.13333945 0.049073 0.040815573 0.23782267
-0.12084635 0.32075816 -0.11326843 -0.13205935 0.15639274 -0.0049748556 -0.13699272 -0.033742048
0.20966141 0.05137472 -0.06191004 -0.16926758 -0.11092901 0.483663 -0.11310129 0.20719771
-0.24587375 0.23473637 -0.09424325 -0.109198585 0.20233577 0.25795525 -0.11787326 -0.39109704
-0.22217572 -0.048250612 -0.35872155 -0.2878533 -0.3318382 -0.23248984 -0.041481506 -0.028810672
-0.30219 0.04752116 0.07209685 0.3134661 -0.2318609 -0.27084896 -0.1884782 -0.20238467
0.22663599 -0.18968093 0.26223034 0.2374285 -0.05321838 -0.14966784 0.33932027 -0.407204
0.21603356 -0.12569584 -0.0040603797 0.28264055 -0.33970377 -0.13234794 -0.16397807 -0.2981274
0.12800616 0.13946234 0.10012771 0.09450786 -0.16323207 -0.020943204 0.13196304 -0.19852114
0.12386756 0.26207662 -0.3619915 -0.12553993 0.13855876 -0.18989857 0.08367625 0.14570072
0.002974837 -0.09764807 -0.08812474 0.034468073 0.41236025 -0.32788408 -0.035251506 -0.06257153
0.3334645 0.09899572 0.034083195 -0.16079293 0.34531713 -0.037547853 -0.13272095 0.33823544
0.092093065 0.1012154 0.26773378 -0.19111936 0.36468098 0.23165946 -0.27670118 0.121464364
0.15957935 -0.19847196 0.1648902 -0.42577484 0.058064923 0.23151265 0.14206648 -0.1267182
0.23577136 0.42158094 0.25016683 0.054768834 -0.32360694 0.21036588 -0.1932951 0.065727614
