checkpoints/tuning_multi/trial_31/final_model.pt (torch, 520443 bytes, 104 tensors)

encoder.feature_encoder.atom_embedding_list.0.weight f4 [119, 64]
000000 1f 67 1e 3f e9 b9 e6 be 93 fc d4 bd 37 2f 9f 3e
       0.618761 -0.45063713 -0.10399737 0.3109071
000010 06 00 e5 be 90 50 9b be 9f a5 bb 3e bb bd 22 be
       -0.4472658 -0.30334902 0.36649796 -0.15892689
000020 25 88 c9 37 67 52 e2 bd d1 a3 a8 3d 6b 50 cf be
       2.4024464e-05 -0.11050873 0.082343705 -0.40491042
000030 4b 7c af 3e b3 21 2f 3e 77 2c 3d 3e 85 a9 7e 3d
       0.34274516 0.17102699 0.18473993 0.062173385
000040 8a 78 98 3d bb 76 02 3e 8e fe c9 bd 41 a7 d3 3e
       0.07444866 0.12740605 -0.098630056 0.41338542
000050 17 32 62 be 38 4e ce bd ab f4 11 3c 87 91 08 be
       -0.2208942 -0.10073513 0.008908431 -0.13336764
000060 8a fa ef bd 07 5f 92 3e 2a 31 0c 3e 46 2e 7a bd
       -0.117177084 0.28588125 0.1369063 -0.061079286
000070 23 62 3d 3e 24 c5 a6 3d bf 2c 70 bd b5 cc 68 bd
       0.18494467 0.0814307 -0.058636423 -0.05683585
000080 9c 56 d6 bd de d8 47 3d 40 25 31 3e f7 7d fc 3d
       -0.10465738 0.048790805 0.17299366 0.123287134
000090 d6 a2 86 3d 24 6f 2d be a2 67 6c be 91 ba 22 3f
       0.06574027 -0.16936928 -0.23086408 0.6356593
0000a0 31 96 a8 bd 7e 80 0c be d9 11 22 3f 27 5d f4 3d
       -0.08231772 -0.13720891 0.63308483 0.1193183
0000b0 5d da 6b be 8a 25 08 3e 16 a8 29 3e 8c 2d ec be
       -0.23032518 0.1329557 0.16568026 -0.461285
0000c0 f6 a7 31 3f f7 11 93 3e 50 10 60 3e e7 71 a0 bb
       0.69396913 0.28724644 0.21881223 -0.0048963907
0000d0 71 8b 34 bc 3c 65 ad be 9a cf ad 3e 4c 8a 38 be
       -0.011019574 -0.33866298 0.3394745 -0.18021506
0000e0 9c fa 85 3e 43 14 08 bf d0 1f 93 3e e2 e1 98 be
       0.26167762 -0.53155917 0.2873521 -0.29859835
0000f0 b8 3f 5e be 03 5e 49 3e e7 7a 4d bd cc 4f 97 be
       -0.21703994 0.19664769 -0.050166037 -0.29553068
000100 6f 06 bb be 63 e5 55 3e 62 9d 95 be 22 b6 93 3e
       -0.36528346 0.20888285 -0.29221636 0.28849894
000110 1b 37 02 3d 5f 19 f8 3e 1d 8a 47 3d b8 cd 7e be
       0.031790834 0.48456857 0.0487157 -0.24883163
000120 21 1b 18 3f 12 ab cb bd 90 2d d3 be 72 8a cb bd
       0.59416395 -0.099447384 -0.412457 -0.09938516
000130 a7 4b 15 bf 22 39 9c bd ca 03 f8 3e b5 e2 78 be
       -0.5831856 -0.07628085 0.4844039 -0.24305232
000140 5d 54 0e be cf 75 83 b8 66 61 13 3d 3a d8 ef be
       -0.1389937 -6.26851e-05 0.03598156 -0.46844655
000150 bf e4 27 be 62 8c a9 3b ef 01 8f 3e 9b 3e aa be
       -0.16395853 0.0051742056 0.27931163 -0.3325089
000160 49 e7 22 3e 01 5a e5 3d fd 4d 8a be 6b 96 64 be
       0.15908541 0.111988075 -0.27012625 -0.22323005
000170 90 0a dd be 3a ca 0e 3f b3 49 ed 3d f3 0a c4 3c
       -0.4317212 0.55777323 0.11586323 0.023931002
000180 56 10 c1 be 85 07 f0 be 8e fb a3 bd e3 a0 87 be
       -0.37707776 -0.46880737 -0.080069646 -0.26489934
000190 98 da 05 bf e9 2f c1 bd b6 01 33 be 0c 37 79 3e
       -0.5228667 -0.09432966 -0.17481121 0.24337405
0001a0 eb 1a d8 bd d7 59 6a bc 4b 65 a5 3d 2c ee d4 be
       -0.10552009 -0.014303646 0.08075961 -0.4158796
0001b0 76 c6 30 be f2 81 74 be 83 ef 14 bf 1c 17 ee be
       -0.17263207 -0.23877695 -0.58177966 -0.46502006
0001c0 43 96 1e 3c e6 1e c0 be 8e a5 50 be 4a 84 c5 be
       0.00967938 -0.37523574 -0.20375654 -0.3857749
0001d0 0a 6c fa bb 47 e0 ce 3d 68 be 33 be 32 e4 ec be
       -0.007642274 0.10101371 -0.17553103 -0.4626785
0001e0 23 2e df 3d be ee 04 bf e3 59 0b 3f 93 90 a7 3e
       0.10897472 -0.5192679 0.5443403 0.3272749
0001f0 f9 8b 12 bf a8 f2 0c 3e 17 34 e8 3e 9f 4c cf be
       -0.5724483 0.13764441 0.4535224 -0.40488145
000200 24 f3 03 be 2f 86 78 bd c6 8e 95 3d b0 89 d7 bd
       -0.1288572 -0.060674842 0.073026225 -0.10524309
000210 83 4c 69 be b1 58 10 bf 1f d7 07 bf d1 98 c5 3e
       -0.22783093 -0.5638533 -0.53062624 0.38593152
000220 e4 c5 66 be 6f 7d 84 3d 03 6e 13 3d 7a 6a 5f 3e
       -0.22536427 0.06469237 0.035993587 0.21817961
000230 f2 fc 38 3e cd 36 a8 3d 94 4f e0 39 7b 15 dd 3e
       0.18065241 0.082135774 0.000427839 0.4318045
000240 fc 01 34 3d 31 d4 97 3e 20 af 17 be cb 9d b4 bd
       0.043947205 0.29654077 -0.14812899 -0.08819159
000250 1a 0a 03 be 8a 24 05 be 48 4e 12 be 1c 1d 04 be
       -0.12796822 -0.1300222 -0.14287674 -0.1290173
000260 91 64 06 3e 64 e0 6d 3e 5e cc 27 bf 3e 65 2a 3e
       0.131243 0.2323013 -0.65546215 0.16640183
000270 c8 dc b4 3d 41 b7 d3 be 6a 4c 76 3d bc 3b 28 be
       0.08831173 -0.4135075 0.060131468 -0.16429037
000280 c0 34 c2 bd 22 6c 0a be 73 18 8a 3e dd ec 6c 3e
       -0.094827175 -0.13517812 0.26971778 0.23137231
000290 1d e2 8f be e8 97 fa bd 0e dd a0 be ba 6d 31 be
       -0.28102198 -0.12236005 -0.3141865 -0.17327014
0002a0 6e fd e0 bc 0b af d9 be ee 53 89 3d 20 76 25 3e
       -0.027464595 -0.4251636 0.067054614 0.16158342
0002b0 4b a8 af bd 20 b3 4e 3d ce 5f 21 be 29 76 05 3e
       -0.08577021 0.050463796 -0.15759203 0.13033356
0002c0 99 9a 1e 3f 80 f7 f8 be b6 43 58 be 4b 65 f5 3d
       0.6195465 -0.48626328 -0.2111958 0.11982211
0002d0 71 7c 88 bd 71 1d 8c bc a2 e2 c4 bd 25 f3 9a 3d
       -0.0666436 -0.017103883 -0.09613539 0.075659074
0002e0 05 94 bf be 6f ec 2e bc 4a 11 dd be b7 02 13 be
       -0.37417617 -0.010676487 -0.43177253 -0.14356504
0002f0 e8 d6 db bd 85 0e 0c be 62 07 08 3f d4 5e 4c be
       -0.107343495 -0.13677414 0.53136265 -0.19958049
000300 c4 7a 0d be 0c 32 0a 3e 00 b9 17 3e 2b be 00 be
       -0.13816363 0.13495654 0.14816666 -0.12572543
000310 44 cc 20 3d 89 f6 be bd 4f 75 2d 3e a5 58 e2 3d
       0.039257303 -0.093243666 0.16939281 0.11052064
000320 49 66 93 3d ed 1f 17 be d1 5a b6 bd 79 d2 1b bd
       0.07197244 -0.14758272 -0.089040406 -0.03804252
000330 07 ba 25 be f5 ac d8 bd b8 38 43 3d 6b e5 16 be
       -0.16184245 -0.10579864 0.047661513 -0.14735954
000340 a1 49 45 3d ac 8b 87 bb 00 42 74 bc ad 98 58 bd
       0.04816592 -0.004136523 -0.014908314 -0.052879978
000350 06 40 c7 bd bb 4e 2d be 1c 4d fc bd 2b fc 0b 3e
       -0.097290084 -0.16924565 -0.12319395 0.13670413
000360 95 d9 5b bc ae 80 34 3e cc 5a 1c 3c 60 cb ae bc
       -0.013418575 0.17627212 0.009543132 -0.021337211
000370 31 57 de 3d 67 84 2e be 91 cd e5 bd e7 ad d4 3d
       0.10856474 -0.17042695 -0.11220849 0.10384732
000380 6a 61 41 bd c5 a5 12 3e f6 66 87 bc fa 2e 04 3e
       -0.047212042 0.14321049 -0.016528588 0.12908545
000390 cd 08 10 3c 60 ff 99 3c fa 8f 1c be c0 1b 80 bd
       0.008791161 0.01879853 -0.15289298 -0.06255293
0003a0 6c b3 14 3c af 63 a9 3d 08 dc 0f 3d 2f fb 20 bd
       0.009075981 0.08270966 0.035121948 -0.039302047
0003b0 d7 2f a0 3a b4 57 1f 3e a6 52 f7 3d 22 06 7d 3d
       0.0012221289 0.155608 0.12076311 0.061773427
0003c0 1d 94 05 be fc 54 79 bd 6c b5 ec 3d 66 dc 26 3e
       -0.13044782 -0.060872063 0.11558041 0.16295013
0003d0 d5 43 af bd a8 85 9d 3d fa 9e 2d bd 36 32 eb 3d
       -0.0855786 0.076915085 -0.04238794 0.11484186
0003e0 57 d6 de bc 9b 57 13 be cd 7c 37 be ad 42 de bb
       -0.027201815 -0.14388888 -0.17918701 -0.0067828507
0003f0 c4 99 5a 3d bb 8e da bd 89 d5 11 3e bd d9 af 3d
       0.0533693 -0.10671755 0.14241613 0.08586452

encoder.feature_encoder.atom_embedding_list.1.weight f4 [5, 64]
000000 e7 a6 18 3e a2 b0 c3 be 66 1f 18 be 44 05 f8 be
       0.14907418 -0.38220698 -0.14855728 -0.48441517
000010 c9 78 89 3d 93 ad 42 3d c1 a8 72 bd c5 db ef 3d
       0.06712491 0.047528815 -0.059242968 0.117118396
000020 0f b2 98 bd d5 d6 ff 3d 89 73 5d 3e 0d b5 8f bd
       -0.07455837 0.12492148 0.21626104 -0.070169546
000030 4b 85 d4 be bf 19 54 bd 1e e6 76 be b3 05 e4 bd
       -0.41507944 -0.051782366 -0.2411122 -0.111338995
000040 50 a3 13 bd 37 0d b1 be a2 dd 5c be 0d cd 0f be
       -0.03604442 -0.34580395 -0.21568921 -0.14043064
000050 20 96 29 be b1 7a 61 be 84 28 07 bc 89 8f e7 be
       -0.16561174 -0.2201946 -0.008249406 -0.45226696
000060 f4 f8 54 be 13 69 06 3e 48 06 6d 3e 95 cf b4 be
       -0.20798093 0.1312602 0.23146927 -0.35314623
000070 75 57 9a be ca ba 06 be 20 45 bd be e3 3e 24 be
       -0.3014485 -0.13157192 -0.369668 -0.16039614
000080 d3 35 02 3d a8 f4 48 be a1 af 86 3e 84 92 77 be
       0.031789612 -0.19624579 0.2630587 -0.24176985
000090 87 8b c6 bd 30 5e c0 be 0f 71 98 be b9 66 d1 3e
       -0.096945815 -0.3757186 -0.29773757 0.40898684
0000a0 44 2c e8 3d d7 9d da bd df f7 85 be 53 d8 13 be
       0.11336568 -0.10674637 -0.26165673 -0.1443799
0000b0 71 70 ed 3d d3 e2 0f 3d 20 39 97 be 09 8a 09 3e
       0.11593712 0.035128426 -0.2953577 0.13431562
0000c0 6b 1f 32 be fa ed 8a 3e 17 72 f9 bd a4 fd 4b be
       -0.17394798 0.27134687 -0.12179964 -0.19920975
0000d0 d2 e0 0e be f1 7d 2b 3d a9 99 13 3d ab d7 36 3d
       -0.1395295 0.041868154 0.036035214 0.04463927
0000e0 78 bc 3c 3d cd c2 c6 3d f2 c7 62 bc 6e 3b e2 bd
       0.046078175 0.09705124 -0.013841616 -0.110464916
0000f0 05 f9 90 bd 15 cb b8 bd 2d aa 87 3e 51 40 9e 3b
       -0.07078747 -0.0902311 0.2649702 0.0048294445
000100 ea cc 10 be 36 52 d0 3e 34 7d 55 be cb 66 96 3e
       -0.14140669 0.40687722 -0.20848542 0.293753
000110 75 54 15 bf 58 08 75 bd c4 b5 b1 3e ae 4f 72 be
       -0.58331996 -0.05982241 0.3470899 -0.23663208
000120 68 ce 9c 3e df af 81 be 85 fb 56 be bf c2 9b bd
       0.30626225 -0.25329491 -0.20994385 -0.07605504
000130 1c a4 58 3e 47 46 e6 3e 96 fa 87 3e 7d d6 93 be
       0.21156353 0.44975492 0.2655837 -0.2887458
000140 cf cd 9c 3d 41 5a bc 3e 34 cc d8 bd 63 eb f0 be
       0.076564424 0.36787608 -0.10585824 -0.47054586
000150 c7 c3 f0 3d fc f6 78 be 60 56 59 3e 23 e3 2c be
       0.117560916 -0.24312967 0.21224356 -0.16883521
000160 24 74 8f bd 42 d3 b2 3e d3 8d 25 be 38 28 c8 bd
       -0.07004574 0.34926802 -0.16167383 -0.09773296
000170 76 bd c2 3d 9e 3b 15 3e d6 3a c1 bc 02 15 aa bd
       0.09508793 0.14573523 -0.023587625 -0.08304788
000180 b8 a5 15 3c 6a 08 94 bc 91 1d 01 bf 77 ef 90 be
       0.009133749 -0.018070418 -0.5043574 -0.28307697
000190 9f 7b 7b be b3 67 da be 13 3e de be 0e 42 45 3e
       -0.24558876 -0.4265724 -0.43406734 0.19263479
0001a0 3c 85 b6 3c cd be f0 be f5 fa b3 3e 18 0b 10 be
       0.022280328 -0.4702057 0.35152403 -0.14066732
0001b0 a8 e9 a3 be 00 2b c5 be 25 c0 12 3e 5f f1 19 bf
       -0.32014203 -0.3850937 0.1433111 -0.6013393
0001c0 7c 56 87 3f 0e e3 3b bf 86 f5 46 3e 02 ed 86 be
       1.0573268 -0.7339333 0.19429597 -0.26352698
0001d0 58 ad 34 bd a8 65 30 be 8f ae 4b 3e 39 2b 6a be
       -0.044110626 -0.17226279 0.19890808 -0.2286805
0001e0 f6 94 ec be 8f 9e 30 be fc 4c 10 bd 26 a7 3e 3e
       -0.46207398 -0.17247985 -0.035229668 0.1861845
0001f0 be 2f 41 be fe 89 29 3e f4 42 9e 3e b3 3a df be
       -0.18865868 0.16556546 0.30910456 -0.4359947
000200 dc ed c6 bb 56 3f 14 3d 2b 27 07 3c 65 65 64 3e
       -0.0060708355 0.036193214 0.008249084 0.22304304
000210 2e ea 2c be 31 b0 08 3e b5 01 8b 3e ae d7 58 be
       -0.16886207 0.13348462 0.2714974 -0.21176025
000220 d1 76 6c be 60 10 cc 3d b8 57 d6 bd 85 df d9 bb
       -0.230922 0.09964061 -0.1046595 -0.00664896
000230 8b ca 8c be 63 66 38 3e 9b 71 9f bc f4 77 94 3c
       -0.27498278 0.18007807 -0.019463351 0.018123604
000240 cc e1 d1 bd 97 99 d1 3d 9c 69 9e bb c0 a3 f0 bd
       -0.102481455 0.10234373 -0.004834367 -0.11749983
000250 f1 f8 95 3d ca 30 e0 bd cc 14 e0 3d 04 8f 90 be
       0.073228724 -0.10946806 0.10941467 -0.28234112
000260 fa a0 e9 bd 3b d9 4e be 14 6c 00 3e 8f fe 53 be
       -0.11407657 -0.20200054 0.12541229 -0.20702575
000270 2a ea 69 3e 45 00 93 3d 8e 04 39 3e 44 ed 44 be
       0.22843233 0.07177786 0.18068144 -0.19231135
000280 00 3f 75 be 8a 29 46 bd 49 de 25 be 08 83 cc bd
       -0.23949814 -0.04837946 -0.16198076 -0.0998593
000290 73 2a 78 3e 7a 58 21 3e 02 63 b2 bd 9d 50 37 3e
       0.24234943 0.15756407 -0.087102905 0.17901845
0002a0 0c 36 4a be 4c 6b 2f be 32 b4 05 3e 7a 51 02 3e
       -0.1974718 -0.17130774 0.1305702 0.12726393
0002b0 05 92 ae bd c5 03 4e be 6d bd 3c 3d e0 99 91 3e
       -0.08523945 -0.20118625 0.046079088 0.2843771
0002c0 8b 8c 94 3e 7a ae 77 3e 14 65 62 be 47 1e 48 3e
       0.29013476 0.24187651 -0.2210887 0.195428
0002d0 06 25 5d 3d 15 0b 75 be 7c 1a 9b 3c 01 c2 91 be
       0.053990386 -0.23930009 0.018933527 -0.28468326
0002e0 a5 99 81 3d 2b fe 25 be 79 1f 4b be 52 0a 6b 3c
       0.063281335 -0.16210239 -0.19836225 0.014345722
0002f0 ce 9d 4b 3e 86 70 29 3e 5b d1 3a be 83 b5 2b 3e
       0.19884416 0.1654683 -0.18243925 0.1676846
000300 3d a8 e0 3d 3b 88 49 be 9c b9 9b bd d3 ac 90 bd
       0.10969589 -0.19680874 -0.076037616 -0.070642136
000310 a2 61 75 be 40 b8 89 be f5 00 4d be ed 34 89 3e
       -0.23963025 -0.26898384 -0.20019896 0.26798192
000320 b1 6a a0 bd 52 d6 e7 3c f2 b2 7a be c1 b6 4f bd
       -0.0783285 0.028300438 -0.24482325 -0.050711397
000330 91 1e e4 3d d0 c3 c3 bb bc c9 bd bc f0 a9 80 bb
       0.111386426 -0.0059742704 -0.023167484 -0.003926508
000340 7c fc 4a 3e 7a ac 54 be 77 89 87 be 97 60 91 be
       0.19822878 -0.2076892 -0.26472065 -0.28394005
000350 bb 84 f5 3d 69 28 28 be 47 05 04 be df b5 1f bd
       0.11988207 -0.16421665 -0.12892638 -0.038991805
000360 f1 f9 30 3e b3 ea 27 3b d5 5f 6c 3d 6c 97 a9 bd
       0.17282845 0.002562207 0.05770858 -0.082808346
000370 8b 4a 24 3e 1b 98 16 be 4e b6 68 3e 1d 82 78 3e
       0.16044061 -0.14706461 0.22725794 0.24268384
000380 92 c4 87 be 83 2d bf bd b4 7f 11 bd 28 8d 22 be
       -0.2651716 -0.093348525 -0.035522178 -0.1587416
000390 f1 a8 81 3c d3 2b c6 bd 92 f0 79 3e 21 11 bf bc
       0.015827628 -0.096763276 0.24408177 -0.023323597
0003a0 1b bf 28 be 39 e5 15 be a8 0e 8d be 04 8a 39 be
       -0.16479151 -0.14638223 -0.27550244 -0.18119055
0003b0 25 75 6a 3d b5 60 b6 3d d2 18 02 be 97 94 44 3b
       0.057240624 0.08905164 -0.1270478 0.0029995793
0003c0 8a 76 17 3e 2e 9c 1f 3d 3f 06 08 3d fe 0a 46 be
       0.14791313 0.038967304 0.03320908 -0.1934013
0003d0 84 e6 8d 3e d9 3e b2 bd 39 3c c7 3c c8 b2 14 bd
       0.27714932 -0.087033935 0.024320709 -0.03630331
0003e0 6f 23 03 3e ef 10 7a be 04 64 89 3d 21 56 6a be
       0.12806486 -0.24420522 0.067085296 -0.22884418
0003f0 6c 4b 6e 3e 35 00 ee bd 05 86 76 3d ed d0 9f 3c
       0.23270959 -0.11621133 0.060186405 0.019508803

encoder.feature_encoder.atom_embedding_list.2.weight f4 [12, 64]
000000 bd b2 df 3d fd 14 27 bc 43 01 fb be 07 43 14 3f
       0.109227635 -0.010197875 -0.490244 0.57914776
000010 79 cc e3 3c e7 6d 7b 3e 59 f3 c9 be 54 dc e8 be
       0.027807461 0.24553643 -0.39443472 -0.45480597
000020 5b fe 8e 3f 05 d7 6e 3e 3b 0f 92 3d 6a c6 57 bd
       1.1171373 0.23324211 0.07131811 -0.052679457
000030 97 b7 2f be 6d 2d 8d 3f 95 f1 62 3e 9a b5 14 be
       -0.17159878 1.1029488 0.22162469 -0.145224
000040 30 2a ba be 94 2a c6 be 06 81 ae 3d 21 64 be bd
       -0.36360312 -0.3870436 0.08520703 -0.09296442
000050 2f de 6b be 52 96 c3 bd 04 a2 15 3f 4e a2 9e bd
       -0.23033975 -0.09550156 0.5845034 -0.07745801
000060 43 6f 28 be 2b cd f1 be 80 0c 98 be 69 97 c5 3e
       -0.16448693 -0.47226843 -0.29697037 0.3859208
000070 1c 48 3f be ed ef 8f 3f 09 e7 54 3d e1 1b c6 3d
       -0.18679851 1.1245095 0.051978145 0.09673286
000080 84 93 64 3d 50 44 3a bf e9 7d 43 bf 76 d2 60 3d
       0.055804744 -0.72760487 -0.76364 0.05488821
000090 4a 0b ee be 58 7b c3 3e 1f 05 80 3d ed 27 d5 3e
       -0.46492988 0.3818004 0.06250977 0.41632023
0000a0 5e df 7e be 37 26 16 bf c9 10 9a 3e e3 8c d0 3d
       -0.24889895 -0.5865206 0.3009093 0.10183122
0000b0 66 32 ea be 08 70 5f 3e 2c 55 d9 3d 2d a5 ab be
       -0.45741576 0.2182008 0.10611948 -0.33524457
0000c0 31 f2 68 3f 14 b7 d4 bd 4c a7 d3 3e d6 3a 94 be
       0.90994555 -0.10386482 0.41338575 -0.28951138
0000d0 2e 8f 31 3d 0a fa 0b bf 6c b2 b0 3e 8a c3 31 bf
       0.043349437 -0.54678404 0.34511125 -0.69438994
0000e0 f0 36 14 3f 98 82 1d bf 8a 9b 40 bf 00 b9 1c be
       0.5789633 -0.61527395 -0.75237334 -0.15304947
0000f0 43 b4 c9 be 98 a4 f4 bd ce 94 0e 3f 2f e6 ee be
       -0.3939534 -0.11945456 0.5569581 -0.4665999
000100 68 29 e9 3d 87 81 8a be b1 da 2c be 97 e5 6e bf
       0.11384851 -0.27051947 -0.16880299 -0.93319076
000110 95 f7 86 be 24 5e c7 be 78 81 95 3f 66 fc 4b bf
       -0.26360765 -0.3893901 1.1680136 -0.79682004
000120 79 dc 34 bf 6d e5 72 be 69 82 53 be d2 86 24 bd
       -0.70648915 -0.23720331 -0.20655216 -0.040167637
000130 16 f8 30 bf 50 7e 36 bf c0 70 08 be 55 e8 5f 3e
       -0.6912855 -0.7128649 -0.1332426 0.21865971
000140 c9 8f be be 94 37 46 3f 02 91 8b 3e 37 74 b7 bd
       -0.37219074 0.77428555 0.2725907 -0.08957713
000150 ab 55 98 be d7 1b 8c bd 8f aa ed be c6 84 e4 bd
       -0.2975286 -0.068412475 -0.46419188 -0.11158137
000160 21 ce 33 be ec 84 34 3f 4a 3b 89 3e 51 93 ae be
       -0.175591 0.7051532 0.26803046 -0.34096768
000170 2a af ca be 88 4e 94 3d 14 2a 10 bf 07 b2 12 3e
       -0.39586765 0.07241541 -0.56314206 0.14325725
000180 8a 18 39 bf d1 23 a4 3e cd c2 aa bc 74 4e 49 bf
       -0.7230307 0.32058576 -0.020844841 -0.78635335
000190 31 e9 66 be d1 65 cd 3b 7b e3 4b 3e f5 d2 79 be
       -0.22549893 0.006268241 0.19910996 -0.2439688
0001a0 df 49 5b bd 3b 47 e8 3d c8 ec c1 3e 82 64 cb bd
       -0.053537246 0.11341711 0.37875962 -0.0993128
0001b0 ad 18 88 be 65 14 51 be 9e 53 70 be 74 02 cd be
       -0.26581326 -0.20417936 -0.23469397 -0.40040934
0001c0 2e c6 21 bd 39 83 02 bf e6 91 21 bf 28 57 12 3e
       -0.03949564 -0.5098148 -0.6311325 0.1429106
0001d0 ed 3e 5e be 6c fe 80 be 04 f3 b3 be b5 36 58 bf
       -0.21703692 -0.25194108 -0.35146344 -0.84458476
0001e0 4a e6 10 be 40 52 c5 be c5 80 2b 3f 93 7e 5a be
       -0.14150348 -0.38539314 0.6699336 -0.21337347
0001f0 0b fe 29 3e f8 40 0b be cb f3 37 be b2 22 3c bf
       0.16600816 -0.13599002 -0.17964093 -0.7349044
000200 b9 7c 91 be c9 0f 7b 3e 92 0b dd 3e 6a e5 4a 3e
       -0.28415468 0.2451774 0.4317289 0.19814077
000210 ca ff 6e bd 53 b9 f7 3e b0 15 98 be dd 49 00 be
       -0.05834941 0.4838358 -0.29704046 -0.12528177
000220 cb c5 ad be 16 86 16 be 17 0d 1f bf c0 fa 5b 3e
       -0.33939967 -0.14699587 -0.6212935 0.21482372
000230 08 cc 1e bf f3 4b 23 bf 26 8f 37 3f a9 d7 1b bf
       -0.62030077 -0.63787764 0.717028 -0.60875946
000240 c0 7f 81 3d c6 6c 4e bf a8 09 27 be 59 cf 27 3f
       0.063231945 -0.80634725 -0.16312277 0.6555076
000250 a3 b2 9e 3e 32 c6 d4 3c 9c 99 ad 3e 0e ee 13 3e
       0.30995664 0.025973413 0.33906257 0.1444628
000260 2e b8 41 3e 91 7d f3 3e ca aa d9 3e dc e6 5b be
       0.18917915 0.47556737 0.42513114 -0.21474785
000270 4d 55 6c 3e df 31 a7 be 9b b1 0e 3e f8 49 41 3e
       0.23079415 -0.32655236 0.13934939 0.18875873
000280 ec bb 46 3f c5 88 89 be 22 59 4c 3f de a8 50 3e
       0.77630496 -0.2686216 0.79823506 0.20376918
000290 33 ad 99 3e 9a 77 a2 3d 51 04 06 3e e8 0f 13 3f
       0.30014953 0.079329684 0.13087584 0.57446146
0002a0 40 60 42 3d 1c 4f d4 be e4 64 c7 3e 8a 2d 2c 3e
       0.047455072 -0.41466606 0.3894416 0.16814247
0002b0 ea ad 7c 3e fa d7 d5 3d e1 04 7d 3e ea 8f 69 bf
       0.24675718 0.10441585 0.24708892 -0.9123522
0002c0 89 35 28 3e 7b 75 d0 3e 9b 53 8e 3e 0e 80 4a bf
       0.16426672 0.4071463 0.2779816 -0.79101646
0002d0 9a cd a7 3d ff 4d 1f 3e 6e 89 1c bf 99 5e 08 3f
       0.08193512 0.15557097 -0.611472 0.53269345
0002e0 20 15 c4 3d b5 f0 0e 3f 4d 52 54 3f 5c fd 20 3f
       0.09574342 0.5583604 0.8293808 0.62886596
0002f0 98 66 b4 bf ab c1 21 bd f7 15 70 bf 6c b6 a7 bd
       -1.4093809 -0.039491337 -0.93783516 -0.08189091
000300 9f 0f 62 be 26 40 ec 3d 0c 4e 3a bf 8f 4f 9f be
       -0.22076271 0.11535673 -0.7277534 -0.31115386
000310 ba a2 96 3e 8b c9 2a be 96 72 f2 be 74 57 12 3e
       0.29421026 -0.16678445 -0.47353047 0.14291173
000320 89 af 37 3e 1e 75 5b be a8 9f 4b 3f ce cb 5c be
       0.17938055 -0.21431395 0.7954049 -0.2156212
000330 b6 ba 28 be 94 5f 87 3e 47 89 fe bd 0a c6 8d 3d
       -0.16477475 0.26440108 -0.12428527 0.069225386
000340 4e 15 26 be 6e 95 ef be 96 54 3c be ce 80 21 bf
       -0.16219065 -0.46793693 -0.18391642 -0.63087165
000350 35 55 8b 3e ce ce 75 3d 4a fb 27 bf ee 0a 79 bd
       0.27213445 0.060011677 -0.6561781 -0.06080144
000360 79 f2 8c be 41 2e 04 bf d0 52 46 bf 7b d0 00 3e
       -0.27528742 -0.5163308 -0.7747011 0.12579529
000370 db 61 b7 bd 55 0b 38 3e 89 f1 b7 bd 62 84 25 3e
       -0.08954211 0.17973073 -0.08981616 0.16163781
000380 75 cd ae be 12 b0 85 be ba b6 a8 3e 4f 64 0b bf
       -0.34141126 -0.26110893 0.3295191 -0.54449934
000390 9d 76 be be 08 92 58 bd a0 da 60 be 4c c9 b6 be
       -0.3719987 -0.05287364 -0.21958399 -0.35700452
0003a0 bb a9 78 be 63 21 82 bd 2b 2a c1 bd dc 60 ee bd
       -0.24283497 -0.06354024 -0.09431871 -0.11639568
0003b0 32 76 54 bf 64 65 44 be f0 7f f7 3d 13 fe ff bd
       -0.8299285 -0.19179302 0.12084949 -0.12499633
0003c0 7a b9 d3 be 77 f4 08 bf 3b 55 6e 3c e4 09 02 3e
       -0.41352445 -0.53498024 0.014546688 0.12699085
0003d0 dd 46 2c 3d 80 9d 8b 3d be ed 14 bf e4 c3 1d 3d
       0.042059768 0.0681715 -0.58175266 0.038516894
0003e0 03 a5 21 3f 77 58 8d bd cf 52 85 be 12 82 91 3d
       0.6314241 -0.06901639 -0.2603974 0.07104887
0003f0 7b 4c 53 3f a9 84 93 be 72 05 c9 3e 5b 90 95 be
       0.82538575 -0.2881215 0.39261967 -0.29211697

encoder.feature_encoder.atom_embedding_list.3.weight f4 [12, 64]
000000 37 f4 63 3f ce 68 d7 3b 38 8a d2 3c db da e9 3e
       0.8904452 0.006573773 0.025700673 0.45674786
000010 33 dc a9 bd d6 d6 39 3f 05 d1 aa bc 3e bc 10 bf
       -0.08293953 0.7259344 -0.020851621 -0.56537235
000020 ac fc 82 3e 25 af 1b bd 14 43 14 be d3 ec af 3d
       0.25583398 -0.038008828 -0.14478713 0.085900925
000030 2d 7b 61 3e e9 94 ed 3e 79 c3 3e 3e 3b 70 72 3d
       0.22019644 0.46402672 0.18629254 0.059189063
000040 30 a2 28 bd 80 3a 91 3e 6d 1b 8b be 5f 05 48 3e
       -0.0411703 0.28364944 -0.27169362 0.19533299
000050 3a 69 d1 bb df 92 3b be b7 9a 89 3f 3f f2 f7 bd
       -0.006390718 -0.18317746 1.075034 -0.12106752
000060 6d 37 a2 bd f3 e1 ba 3e dc b4 7f 3e a1 5f 16 bc
       -0.07920728 0.3650051 0.24971336 -0.009178073
000070 cb e8 0e 3d 2e 39 17 3f f7 6f 98 be 36 43 86 be
       0.034889977 0.59071624 -0.29772922 -0.26223153
000080 84 96 14 3e 33 98 50 be 8e 21 4c be ea e7 07 bf
       0.14510542 -0.2037056 -0.19934675 -0.5308825
000090 cc dd 20 be 75 e8 d2 bd e4 18 97 bd 57 16 17 3f
       -0.15709609 -0.10298244 -0.073777944 0.5901846
0000a0 c8 dc fb 3d 98 23 74 3e 3c 1b f4 3e b7 8f de 3c
       0.1229797 0.23841703 0.47677028 0.027168138
0000b0 96 20 b7 be 8c 82 4f bf fc 3e c5 be 0e 1f d4 be
       -0.3576705 -0.81058574 -0.38524616 -0.41429943
0000c0 62 b3 ef 3e 44 49 a7 3d 30 88 75 be cd 7c c9 3d
       0.46816546 0.08168271 -0.23977733 0.09838257
0000d0 2c f7 25 bd ad c1 52 bd ed 60 98 3e c6 d3 35 bf
       -0.040518925 -0.051454235 0.29761449 -0.71026266
0000e0 4d fa d3 bd 0b 3e 78 be fe 57 a2 bd b3 32 6a be
       -0.103504755 -0.24242418 -0.079269394 -0.22870903
0000f0 64 1a 33 bf f7 56 c4 3e ac d5 c6 3e 6b 8f b1 be
       -0.69962144 0.383476 0.38834894 -0.34679732
000100 b9 f3 06 bf 82 96 0e 3f 61 82 03 3d 5f 99 a9 be
       -0.5271564 0.55698407 0.03210676 -0.33124825
000110 c8 73 3a bd b8 52 31 bf d3 b5 ca 3e b6 28 96 3d
       -0.045520574 -0.69266844 0.39591846 0.07331984
000120 17 ca 91 3e ae 7b 82 3c 8a e1 d2 3d 3c fb 21 bf
       0.28474495 0.015928116 0.102969244 -0.6327398
000130 60 29 41 bf 35 39 4d 3e f1 c7 a3 3e d7 8f e3 be
       -0.7545376 0.20041354 0.3198848 -0.4444568
000140 24 58 85 3e 0e 18 e4 be 26 91 72 be e9 bd a8 3e
       0.26043808 -0.44549602 -0.23688182 0.3295739
000150 ae 6b a0 bd 1e e2 2a 3e 57 7e 5c bf b2 50 3b bd
       -0.07833038 0.1668782 -0.8613028 -0.045731254
000160 00 95 b6 be 52 74 94 3f ff f2 4b bb a6 51 20 be
       -0.35660553 1.1597998 -0.0031120179 -0.15656146
000170 9b e7 e2 bc ac 6d 64 3e f1 82 7d bb a0 75 96 3b
       -0.027698329 0.22307462 -0.0038682783 0.0045916587
000180 2d 48 56 bf 83 54 78 3d 17 7c 6a 3e d1 2e bd 3c
       -0.8370388 0.06062747 0.22898899 0.023093613
000190 90 76 c9 be c4 be 9f be c4 87 83 be 70 c5 60 3c
       -0.39348269 -0.3120023 -0.25689518 0.013718948
0001a0 22 09 e0 3b e5 70 99 bc 44 a6 b2 3e 1f 19 a8 bc
       0.006837026 -0.01873059 0.34892476 -0.020519791
0001b0 6d 97 06 bf a2 38 a3 bc c7 3d 12 3e cb fd 20 be
       -0.5257481 -0.019924466 0.14281379 -0.15721814
0001c0 b5 c1 56 3e 12 82 42 bf 4f 81 2b be 61 85 46 3e
       0.20972331 -0.7597972 -0.16748546 0.19386818
0001d0 72 63 13 3e 8d 5a b2 be 11 e2 83 be b4 ab 2e bf
       0.14393404 -0.3483471 -0.25758412 -0.6823075
0001e0 7b 26 b8 3e 10 00 e6 be a4 c1 ec 3e 61 65 7d 3e
       0.35966858 -0.44921923 0.46241486 0.24745704
0001f0 0c 02 b5 bd ac 26 dd bd ce 33 d0 3e e7 96 9e be
       -0.08838281 -0.10798392 0.40664524 -0.30974504
000200 8f a0 a7 3e 8b 4b d8 3d 23 6c 8c 3e 63 98 c9 be
       0.32739684 0.10561284 0.27426252 -0.39374074
000210 21 e3 d6 be 8f 5f dc be 66 64 4b be ed e0 93 bd
       -0.4197016 -0.43041655 -0.19862518 -0.072206356
000220 9e e1 bb be 92 ea 9b 3e 95 4d b2 bd 06 12 5e bd
       -0.3669557 0.304524 -0.08706204 -0.054216407
000230 73 19 08 3f 23 a8 91 be 4c ac a4 3e 1c 46 5d be
       0.5316383 -0.2844859 0.32162702 -0.21608776
000240 4f fc 68 3e 17 de a9 bc 46 62 da bd df 36 0f 3d
       0.22752498 -0.020735784 -0.106632754 0.03496444
000250 33 79 f7 3d 8d 05 8b bd 8f dd 47 be b8 3e 7f be
       0.12083664 -0.06788168 -0.19518112 -0.24926269
000260 3a 51 17 3e f1 44 1b 3f 93 80 2a bf 70 b9 dc 3e
       0.14777079 0.6065207 -0.6660244 0.43110228
000270 53 e0 89 bd 79 f4 2d 3d d4 a3 70 be 88 07 22 be
       -0.067322396 0.042469475 -0.23499995 -0.15823185
000280 ba 52 00 3d a8 d2 31 3e d4 c0 b7 3a 15 da ae 3e
       0.031328894 0.17365515 0.0014019259 0.34150758
000290 71 d3 c1 3d 58 9b 22 be e4 36 6d 3e 11 46 09 3f
       0.094641574 -0.15879571 0.2316547 0.5362254
0002a0 41 34 87 be 0c a4 2e 3e af 8b 41 bd 85 03 34 be
       -0.26407054 0.17054766 -0.047252353 -0.17579468
0002b0 cb 52 8e 3d 38 07 67 3f 20 c7 8b be d6 5e 01 3f
       0.06949385 0.9024539 -0.27300358 0.50535333
0002c0 e8 52 93 bd 70 c2 04 3e ed b8 5f 3e 2d 40 4f 3e
       -0.071935475 0.12964797 0.21847887 0.20239325
0002d0 e3 5d 43 be 84 f3 0e bf 34 b3 c3 3e 42 8b 88 be
       -0.19078784 -0.55840325 0.3822266 -0.26668745
0002e0 f2 b6 bf be 45 a6 b9 be 94 ef 73 be 8e 34 84 be
       -0.37444264 -0.36259666 -0.2382186 -0.25821346
0002f0 9b 38 6e bd 1a 55 71 be fb 4f 62 bd 14 56 6d 3e
       -0.058159452 -0.2356762 -0.055252057 0.23177367
000300 b1 1e d6 3e 90 ff 2e 3e e1 f4 f5 be f1 92 63 3d
       0.4182029 0.17089677 -0.4803839 0.055560056
000310 6c d4 c9 3d 51 be 37 3f 65 a4 f4 bc b7 61 58 be
       0.098549694 0.71774775 -0.029863546 -0.21131025
000320 2e b8 53 be 8f 1b 6c 3e e1 60 d3 be 82 86 75 3c
       -0.20675728 0.23057388 -0.4128485 0.014985682
000330 c0 73 20 be af 6b ab 3d 03 fb 9f 3d 42 12 1d 3f
       -0.15669155 0.083701484 0.078115486 0.61355984
000340 a2 ed 6d be f5 4c a7 be 19 61 df bd c1 3e 11 3e
       -0.23235181 -0.326759 -0.10907192 0.14184095
000350 e9 90 be 3d 44 40 0b 3e e7 2d 50 3f af f2 47 be
       0.09304983 0.13598734 0.8132004 -0.1952617
000360 93 7d 56 be d2 ec 30 3c c9 63 48 3f 32 b9 38 be
       -0.2094634 0.01079865 0.7827726 -0.18039396
000370 97 15 0b be 1c bc c8 be 74 01 7b be c7 1c 21 3e
       -0.13582455 -0.39206016 -0.24512273 0.15733634
000380 e6 71 a0 be 5a 49 82 bc 08 a3 ed 3d 85 07 44 3e
       -0.31336898 -0.015904117 0.11603361 0.19143493
000390 34 f5 00 bf ea aa 9b be bd a4 7e 3e b2 b0 d8 3d
       -0.5037415 -0.30403835 0.2486753 0.10580577
0003a0 0f 28 0a 3e 2b 4f 1b 3e 91 21 46 bd 5e 86 a7 bc
       0.13491844 0.15166919 -0.048371855 -0.020449813
0003b0 6f 16 f2 bc da 95 b8 3d 87 c5 bc 3d 12 43 6a 3c
       -0.029551713 0.09012957 0.09217363 0.014298217
0003c0 03 81 bc be 11 09 01 3f 25 40 88 be a1 6b c5 3e
       -0.36817178 0.5040446 -0.26611438 0.38558677
0003d0 06 42 cb bb 47 76 09 be d0 a8 3a 3f 13 12 dd 3e
       -0.006202939 -0.13424025 0.7291384 0.43177852
0003e0 c2 df 94 be d1 1c 28 3e e8 85 d8 be 24 96 95 be
       -0.29076964 0.16417243 -0.42289662 -0.2921611
0003f0 b5 56 2f 3e f2 05 6b 3e 3b 65 23 bd 55 e5 af be
       0.1712292 0.22951487 -0.039891463 -0.34354654

encoder.feature_encoder.atom_embedding_list.4.weight f4 [10, 64]
000000 49 38 45 be 4e 45 90 3e 73 33 0c bf 8b a3 65 3e
       -0.19259752 0.28177875 -0.54766005 0.22425668
000010 db 47 b0 be f9 aa e0 bd 02 05 14 bf 62 c5 12 bf
       -0.3442982 -0.109701104 -0.5782014 -0.5733243
000020 6e 4a 8e 3f eb 22 e6 be 03 a2 ca 3e f7 f8 94 3c
       1.1116464 -0.44948515 0.3957673 0.018185122
000030 24 9e 8c be 19 88 8b 3f 51 6c 86 be 68 d9 2f 3e
       -0.27464402 1.0900909 -0.26254514 0.17172778
000040 31 7d f2 bc fa 72 1f be a5 67 cb be 28 eb 96 3b
       -0.029600712 -0.15571204 -0.39727512 0.0046056695
000050 17 cd e1 3c 14 a1 0a be 70 e8 e3 be 15 a2 7a be
       0.027563615 -0.13538009 -0.44513273 -0.24475892
000060 63 4b 6c be 01 84 1d bd 11 f8 0d bf 5c 4e b8 be
       -0.23075633 -0.038455967 -0.55456644 -0.35997283
000070 72 9b 10 bf f6 a7 1e 3f 23 92 17 bf 8d 1a d2 be
       -0.5648719 0.6197504 -0.5920736 -0.41035882
000080 1d 37 aa 3c d0 9c 3b bf f4 52 0c 3f 86 a7 d7 be
       0.020778233 -0.7328615 0.54814076 -0.42119998
000090 1a a5 7e bd e3 7d 34 be 09 b7 be be dc 18 78 3e
       -0.062169172 -0.17626147 -0.3724902 0.24228233
0000a0 2f eb b9 bd ad b7 9a be 17 c9 be 3e 90 01 ca be
       -0.09078061 -0.30218259 0.37262794 -0.39454317
0000b0 12 64 e6 be e8 37 6c 3e cc 63 a4 be dd 2d 1b 3d
       -0.44998223 0.23068202 -0.3210739 0.037885536
0000c0 29 11 9a 3e bc 6a 75 bd c5 d3 27 3f 0c 0f f4 3d
       0.30091217 -0.059916243 0.6555751 0.119169325
0000d0 76 be 5f be 3b ea 86 3e c6 f8 c9 be 7c 03 da 3d
       -0.21849999 0.2635058 -0.39447612 0.10645196
0000e0 dd 09 70 3f c2 2d e1 3e bd 7c 98 be 47 12 56 3f
       0.9376505 0.43980223 -0.29782668 0.8362164
0000f0 9f 0f f1 3e 5c bb 68 be c7 aa a8 3e 39 0a 0e 3e
       0.4708223 -0.22727722 0.32942793 0.13871087
000100 58 11 14 3f 88 ad 1e 3e 46 1f 74 3f 19 cd a1 be
       0.57838964 0.15495884 0.9536022 -0.3160179
000110 36 40 42 3f 01 e8 d9 be 69 96 4a 3f 1e f4 80 3f
       0.7587923 -0.42559817 0.7913576 1.0074499
000120 06 32 43 bf 1c 30 b8 bd 90 14 5e bf e4 39 32 bf
       -0.76248205 -0.08993551 -0.86750126 -0.69619584
000130 82 7f 81 3d 5f 7e 73 bf 2b dd a9 3e e3 c5 06 bf
       0.06323148 -0.951147 0.3317655 -0.526457
000140 cb b7 f7 bd b9 8a 26 bb 4b 5e f6 3d f6 35 7c be
       -0.120956026 -0.0025412275 0.12029704 -0.2462996
000150 53 57 46 3c 02 60 28 3e fc 59 25 3f e3 6c 19 3d
       0.012105781 0.16442874 0.6459043 0.037457358
000160 ec c8 48 3d b9 c0 31 be d0 ff 48 3f 80 bf 02 3c
       0.04901974 -0.17358674 0.7851534 0.0079802275
000170 27 2e 7e 3e 83 a4 cd be 4b f4 3e bd 67 ae af be
       0.24822293 -0.40164575 -0.046619695 -0.34312746
000180 62 01 07 3f 1e 09 a5 3c d5 59 bc be e8 87 13 3f
       0.52736485 0.020145949 -0.36787286 0.5762925
000190 c8 c6 01 3f 62 a6 3a 3d 09 a0 0a 3e 63 70 02 be
       0.5069394 0.04556883 0.13537611 -0.12738185
0001a0 92 4e 2f be 16 b7 9e be 14 3b 9c be 3a 3d a1 bd
       -0.17119816 -0.30999058 -0.30513823 -0.07873006
0001b0 35 94 91 bf 49 95 1e be c7 62 a7 be 17 b7 c2 be
       -1.1373354 -0.15486635 -0.3269255 -0.3803031
0001c0 c2 f7 08 bf c5 d4 1c 3f e2 02 01 bd d1 a7 82 bf
       -0.5350305 0.6126216 -0.03149689 -1.0207464
0001d0 79 6a 68 be d7 f2 67 bf c0 8d 6e be fd fb 17 bf
       -0.22696866 -0.9060492 -0.23296261 -0.5936888
0001e0 0e b1 68 bf 2f 5a 0a be 99 34 13 3f 01 f6 6d bf
       -0.90895164 -0.13510965 0.5750213 -0.929535
0001f0 8f 7b 54 bd f3 d7 54 be dc 52 db bd fd 4d f5 bd
       -0.051875647 -0.20785503 -0.107091635 -0.11977766
000200 6a 6d 7b be 55 87 0a 3e 83 f9 f6 bd 50 10 b0 be
       -0.24553457 0.13528188 -0.12059309 -0.34387445
000210 94 8b 25 bf fa e4 d2 bd 62 d2 11 3c a1 63 94 be
       -0.64666104 -0.1029758 0.008900257 -0.2898226
000220 99 08 16 bf 12 06 96 3e 0f a9 62 be 46 1f f0 bc
       -0.5860687 0.29301506 -0.22134803 -0.029311787
000230 58 62 16 3d 04 18 33 bf c8 a7 2a be e9 42 1d be
       0.03671488 -0.6995852 -0.16665566 -0.15357555
000240 40 66 67 bd 7c 17 cf 3e 31 ee f8 bd d7 6c 80 3f
       -0.056493998 0.40447605 -0.121548064 1.0033215
000250 ea f1 06 be 97 dc e7 3d e9 2d bf be bc 87 03 3f
       -0.1317822 0.11321371 -0.37339714 0.5137899
000260 9b bd 43 be 7a 7d 43 3f cf 3e d4 bd b3 9e 14 bd
       -0.19115297 0.7636334 -0.10363542 -0.03628416
000270 14 70 a3 be 90 a1 03 bf 1f c4 77 be 3c 11 18 be
       -0.31921446 -0.514184 -0.24195908 -0.14850324
000280 2d 76 6c bf e8 f0 f5 bd cd 88 85 be d0 42 86 3d
       -0.9236782 -0.1200884 -0.26080933 0.06555712
000290 66 58 b0 be 3e eb 4d 3e 4f bb 4d 3e 66 fd b4 bf
       -0.34442443 0.20109269 0.20090984 -1.4139831
0002a0 00 d7 a3 3e 2f dd 81 bd a7 88 b3 bd 0b d2 da bd
       0.3199997 -0.063410155 -0.08766299 -0.10684594
0002b0 54 81 46 3f 29 06 24 bf 0a 55 a3 be 7d fd 99 be
       0.7754109 -0.640719 -0.31900817 -0.3007621
0002c0 d5 38 0d be 6b d4 ce be 0d 43 61 be 5c 94 29 be
       -0.13791211 -0.40396437 -0.21998234 -0.16560501
0002d0 ce 74 13 bd b8 fa 96 3e 95 64 79 3e 69 4b 93 be
       -0.036000066 0.29488158 0.24354775 -0.2876847
0002e0 99 ab cc be 1f e5 1c bf 59 a0 4f be 00 5b 30 be
       -0.3997467 -0.6128711 -0.20276012 -0.17222214
0002f0 c8 a5 9a be 69 d6 9a 3e ac 2d d8 3d 00 74 65 bf
       -0.30204606 0.30241707 0.10555586 -0.89630127
000300 ff 20 21 bf ae c4 b1 3e 47 8d 20 3e 7d 60 15 be
       -0.62940973 0.34720367 0.15678893 -0.14587589
000310 a4 3b a7 bc cb b5 e4 3c 52 6b 2c 3c 2a dd a6 bc
       -0.020414181 0.027918717 0.010523634 -0.020369131
000320 5d 7e b6 3e 98 4b 13 be 3a 85 a0 be be ec 7a bd
       0.35643283 -0.14384305 -0.31351644 -0.06126093
000330 e0 2f b2 3e e3 7f 5b be 03 4a 39 bd c7 26 d3 be
       0.3480215 -0.21435504 -0.0452366 -0.41240522
000340 c4 c2 1d 3e c2 62 03 3f 2f fe 87 be f5 8b 14 be
       0.15406328 0.5132257 -0.26561114 -0.14506514
000350 e9 1f 9c bd d8 a2 2e 3e 9f 68 77 bd 43 6f 52 be
       -0.07623274 0.17054307 -0.06040251 -0.20550255
000360 bd bd 72 3e 86 62 43 3e 73 98 b6 be fc 31 1b be
       0.23705192 0.19080552 -0.35663185 -0.15155786
000370 a2 cc bb be cb 0b 2c 3d 7a 9b 77 3e 1f 84 7d be
       -0.3667956 0.042003434 0.24180403 -0.24757431
000380 43 92 94 3c 0e 64 86 3e 44 61 a3 be 2f de 0c 3d
       0.01813615 0.2624821 -0.31910145 0.03439158
000390 5b 78 6f be 01 d4 d7 be f1 92 7f be 74 bc 07 bf
       -0.23385756 -0.42153934 -0.24958397 -0.5302193
0003a0 e7 5e 68 be a7 44 ab 3f 2e fb 4a bd ee 93 0d 3e
       -0.22692452 1.3380326 -0.04955595 0.13825962
0003b0 50 45 be be 47 cc 22 3e 44 93 82 3d cc d7 0b 3f
       -0.37162256 0.15898238 0.06375745 0.54626155
0003c0 c7 3e 0f 3e 28 c3 03 bf 05 4d 10 3f 78 d6 17 3f
       0.13988791 -0.5146966 0.5636752 0.5931163
0003d0 1d 79 41 3d af d0 96 3e e1 c6 93 3e b5 d9 96 bd
       0.047234643 0.29456088 0.2886267 -0.07365743
0003e0 ed 1a b3 3c ec 62 82 be 62 2c 25 be db 44 4d 3e
       0.021863425 -0.25466096 -0.16130212 0.20045798
0003f0 73 57 ff bc 03 08 94 bd 7c 42 98 3e e8 78 40 3f
       -0.031169629 -0.072280906 0.29738224 0.7518449

encoder.feature_encoder.atom_embedding_list.5.weight f4 [6, 64]
000000 9b 89 dd be 6f 52 90 3e 14 d2 8d be e8 d0 a3 bd
       -0.43269047 0.28187892 -0.2769934 -0.0799883
000010 b0 32 ba bd ae 44 06 3e 5c 26 8c be 89 0d 80 be
       -0.09091699 0.13112137 -0.27373016 -0.25010327
000020 b0 15 df 3d 70 bf 7a be f5 e9 a3 bd 5f 0f 88 bd
       0.108928084 -0.2448709 -0.08003608 -0.06643557
000030 86 aa 52 3d ca 17 f8 bd e6 36 a6 be cf fe 34 3d
       0.051432155 -0.121139124 -0.3246376 0.044188317
000040 28 4b db be 38 25 18 bf 95 a8 3d 3d 08 98 39 bd
       -0.42830777 -0.5943179 0.04630335 -0.045311004
000050 56 c6 e7 bd 70 c3 95 3d 9b 21 d9 bc b0 92 93 be
       -0.113171265 0.07312667 -0.026505282 -0.2882285
000060 d3 46 6f be be ee d7 be 57 bd fd 3c 9b dc 35 be
       -0.23366861 -0.42174333 0.030974073 -0.17759936
000070 b0 1e 61 be e4 e3 b1 bc 93 25 0d 3c 82 0e 69 be
       -0.21984363 -0.021715112 0.008614915 -0.2275944
000080 69 a5 c0 bd 8e ce 99 be 63 89 0e 3e 25 7a 23 3e
       -0.094065495 -0.300404 0.13919596 0.15964563
000090 b5 06 86 3d 50 f7 a0 be f8 d0 4a be 86 10 ea bd
       0.06544248 -0.31438684 -0.19806278 -0.11428933
0000a0 8a 6b 98 be 09 55 5e bd b8 37 f4 be 31 07 1b be
       -0.29769546 -0.054280315 -0.4769876 -0.15139462
0000b0 56 29 a8 be 43 0e 16 3e e1 7b 4b be 7c 9f 34 3e
       -0.32844037 0.14653878 -0.19871475 0.17638963
0000c0 80 af 0d bd e5 8f 19 3e b6 88 b3 bd e3 de 2a be
       -0.034591198 0.14996298 -0.0876631 -0.16686587
0000d0 8b b6 8e be 73 f8 a6 be 57 a1 49 3d 82 d7 b5 3d
       -0.27873644 -0.32611427 0.04922613 0.088789955
0000e0 d2 b7 46 3e eb bc 00 be f1 bc fd 3c 22 34 0b 3d
       0.1940606 -0.12572066 0.030973883 0.033985265
0000f0 bb 3f 5f 3e db f3 71 be 4a f5 6c 3e 2f 80 83 3c
       0.21801655 -0.2362818 0.23140445 0.016052334
000100 c4 05 58 3e 77 b7 a6 be a4 90 3a bd b1 9a 14 be
       0.2109595 -0.32561848 -0.045548096 -0.14512135
000110 1c ab 69 be 39 dd af bd 29 2b 2c 3f 1a 0b f8 be
       -0.2281918 -0.08587117 0.6725336 -0.4844597
000120 9d 44 68 bd 6a 58 75 be de 52 e9 bd 9b 23 0c 3e
       -0.05670606 -0.23959509 -0.11392759 0.13685457
000130 74 bf 09 3f df f2 5b bd 73 42 c7 3e 52 a0 95 be
       0.5380776 -0.053698417 0.38917884 -0.29223877
000140 e8 3c dc bd 3f 1d 48 3f 88 e7 cc be ca 30 ea 3e
       -0.107538044 0.78169626 -0.40020394 0.45740348
000150 15 8b 81 bd 2a 9b a2 be 73 83 dd bc 70 ec 1a bf
       -0.06325356 -0.31759006 -0.027040219 -0.60517025
000160 35 db 81 be bc e7 87 3f 11 62 28 bf f1 0b 94 be
       -0.25362554 1.0617595 -0.6577464 -0.2891536
000170 27 62 db bd aa d3 7d 3d ec 7e 36 be 5c 8a 6e 3d
       -0.107120804 0.061969437 -0.17821854 0.05823742
000180 73 0b 8f be 46 c2 9b 3e c0 97 9e be 0a 3e 44 3e
       -0.27938423 0.30421656 -0.3097515 0.19164291
000190 06 f7 37 be 99 9d c2 be 75 d8 20 be 94 98 3d 3f
       -0.17965326 -0.38010862 -0.15707572 0.7406094
0001a0 1c 75 87 be f3 7b a2 3d 11 1a 3d 3f 79 1a 16 3d
       -0.26456535 0.07933798 0.738679 0.03664634
0001b0 6e 1e bc bd f4 0f 08 bf dc 7b 3f be 81 93 c7 be
       -0.091854915 -0.5314934 -0.18699592 -0.38979724
0001c0 a5 db f7 3e 50 41 0d 3d 2b 5c 27 bd 38 55 02 3e
       0.48409763 0.034486115 -0.040859383 0.12727821
0001d0 03 ee 4c be ee 19 ac be 81 8f 12 bf a3 4c 81 be
       -0.2001267 -0.33613533 -0.5725022 -0.25253782
0001e0 72 20 21 bd 7a d1 bb be 8f b5 b9 3e 45 36 af ba
       -0.039337583 -0.36683255 0.3627133 -0.0013367614
0001f0 ab 09 9b be fb e3 e0 3e 2f ee 5f bd 5b 64 bf 3d
       -0.30280814 0.43923935 -0.05467051 0.09345313
000200 5f 3f e3 3d 2c 43 1c 3e bf 8d 29 be 6c fd 98 3e
       0.110960715 0.15259999 -0.16557978 0.29880846
000210 a9 e0 06 3d a7 a9 e2 3b fd 60 f2 3d 7d c3 11 be
       0.032929096 0.006917197 0.11834905 -0.14234729
000220 44 ce 5f be c1 f2 12 3e 49 ee 0d 3f a7 55 2a 3d
       -0.21856028 0.14350416 0.5544172 0.04158559
000230 de 79 91 be 54 cc cb be 8f 0f b6 3e 1e f5 33 be
       -0.2841329 -0.39804327 0.35558745 -0.17573974
000240 1b c2 cb 3d f3 70 ca 3d 2a e6 b8 bd 45 aa fe bc
       0.09949132 0.098848246 -0.09028275 -0.03108705
000250 e0 1a 07 be ef bd a5 3d 98 74 07 3e 80 78 f4 3d
       -0.13193846 0.080928676 0.1322807 0.11937046
000260 44 f5 61 3e 9e 78 88 3e 4e 58 8b be 7a c9 af bd
       0.22066218 0.26654524 -0.2721581 -0.085833505
000270 53 ec 7b be c0 5d 8e be b4 06 e8 3d 7a c0 1e 3e
       -0.2460187 -0.278059 0.113294035 0.15503111
000280 88 82 b5 3d 49 30 42 3e 93 f7 da 3c 46 d6 12 be
       0.088627875 0.18963732 0.02672938 -0.14339551
000290 77 41 47 be 0d e0 ee bd 94 a3 40 3e 99 68 c5 be
       -0.19458567 -0.11663828 0.188124 -0.38556364
0002a0 0b a9 fa bd 7a 1b 14 bd 54 1d 3f bc 6a 0e 61 3e
       -0.12239274 -0.036159016 -0.011664707 0.21978155
0002b0 7b 32 77 3e 60 15 0b be f3 c1 0e 3e 66 09 4b 3d
       0.2414035 -0.13582373 0.13941173 0.04956951
0002c0 56 d9 b9 bd 70 df 88 bd 72 2f 28 3e a9 b0 d7 3e
       -0.09074657 -0.06683242 0.16424349 0.42126969
0002d0 a5 7f 6a be 9f c6 b4 3e 26 72 ad bd 15 07 11 be
       -0.22900255 0.35307786 -0.08469038 -0.14162858
0002e0 5a 92 85 bd 1e 2a 3e be 21 d1 7e 3e 82 54 83 be
       -0.06522055 -0.18570754 0.24884464 -0.25650412
0002f0 c3 25 6c 3e ce 8d 1e be 59 c5 4b 3e 75 47 6f be
       0.2306128 -0.15483782 0.19899501 -0.23367102
000300 30 42 8f 3e 39 22 5f be 83 fa b2 bd dc b7 41 3e
       0.27980185 -0.21790399 -0.087391876 0.18917793
000310 77 5d c7 3d 28 c1 17 be 64 71 75 be c1 4a 62 be
       0.09734624 -0.14819777 -0.23969036 -0.22098829
000320 1f 75 7a be 69 a1 25 be a3 9a 35 be 62 00 ad bd
       -0.2445874 -0.16174854 -0.1773477 -0.08447339
000330 50 d5 81 3e e0 19 9f bd 3e 41 39 be b3 85 12 3e
       0.25358057 -0.07768607 -0.18091294 0.14308815
000340 3d 67 30 be fa fe 15 be 6a 1d 46 bd db 8e 13 bd
       -0.17226882 -0.14648047 -0.048367895 -0.03602491
000350 b0 d4 38 be d7 60 6e be fd 45 92 be 8b 43 fe bd
       -0.18049884 -0.23279129 -0.28569022 -0.124152265
000360 70 d9 17 3e 89 5b c0 3c 5b ef 6e 3e 58 f0 4f 3d
       0.1482904 0.023481147 0.23333494 0.05076632
000370 05 dd 60 be c6 e3 e1 3c d2 94 99 bd c0 b4 29 3e
       -0.21959312 0.027574431 -0.07499088 0.16572857
000380 fc 16 a3 3d 87 57 94 3e 8a 59 86 be 09 a4 0e be
       0.07963368 0.28973028 -0.26240188 -0.13929762
000390 de 6a 7e be 03 5b d5 3c 20 0e 3f be 05 ed f8 bd
       -0.24845454 0.026044374 -0.18657732 -0.12154583
0003a0 dd 0a 8f 3e 32 d7 c8 bd 8d 74 13 3e ae b3 40 3e
       0.27937976 -0.0980667 0.1439993 0.18818542
0003b0 14 61 59 3e 02 31 75 3e d7 e2 38 3e ab 9f ed 3c
       0.21228439 0.23944476 0.18055283 0.0290068
0003c0 bc e7 7c 3e 04 04 91 3e c2 c1 4e be 33 60 7a 3d
       0.24697775 0.28323376 -0.201911 0.0611269
0003d0 22 3a 4e 3e 6c a2 4a be 09 45 eb 3d 18 23 3b 3e
       0.20139363 -0.19788522 0.11487777 0.18275106
0003e0 74 9f 15 3c 6b 4a ad bd a6 4d c6 bc ae 58 82 3e
       0.009132255 -0.0846146 -0.024206948 0.25458282
0003f0 85 53 6d be 4e d6 ed 3d 92 3b 22 be d1 44 4a 3e
       -0.23176391 0.11613141 -0.15843037 0.19752814

encoder.feature_encoder.atom_embedding_list.6.weight f4 [6, 64]
000000 cb a9 a6 be 0b 1a 28 3f ad 86 56 bf 7f 52 75 bd
       -0.32551417 0.6566474 -0.8379925 -0.059893128
000010 0b 65 30 be d7 4b 07 3f dc 82 69 3e 2f 59 34 be
       -0.17226045 0.528501 0.22803825 -0.17612146
000020 5a d4 cd 3e 21 f3 37 bb 3f 2c 56 bf ea 71 f8 3d
       0.40201074 -0.00280685 -0.83661264 0.121311024
000030 fd 1c 5e 3e 71 fe a5 3e 66 c9 3f 3d 01 75 27 bf
       0.21690746 0.32420686 0.046822928 -0.6541291
000040 b7 a3 57 be 46 3a 74 be c0 01 57 be 52 23 a1 3f
       -0.21058546 -0.23850355 -0.20996761 1.2588904
000050 1b 9a fb be bc 98 fd be 28 80 3c 3f f9 e7 b7 be
       -0.4914101 -0.4953059 0.7363305 -0.3591917
000060 26 a4 8b be 6d 0d 7e 3f cf 43 de 3b 89 b4 03 3e
       -0.27273673 0.99239236 0.0067829858 0.12861837
000070 55 da ed be ea fd 03 3d 5c 1f 9a 3e 5a 42 00 be
       -0.46455637 0.032224573 0.3010205 -0.12525311
000080 6f 93 8d 3d 25 16 18 be 6a fb 31 3f ce d4 8b bf
       0.06912886 -0.14852197 0.6952425 -1.0924318
000090 54 e4 8a 3d cd 9d 38 3d 99 f0 f7 3d 50 fc f8 bd
       0.067818314 0.045072366 0.12106437 -0.121575
0000a0 61 1a 08 bd 6c 57 2a bf 03 26 cc 3c a5 31 24 3e
       -0.033228282 -0.66539645 0.02492047 0.16034563
0000b0 7a 61 f4 bc ea fa 24 bf 84 85 b6 bb 70 5d 6f be
       -0.029831637 -0.64445364 -0.0055701155 -0.23375487
0000c0 ff b7 aa be 88 08 15 3e d8 19 f0 be 77 da d2 be
       -0.33343503 0.14554036 -0.46894717 -0.411823
0000d0 a6 9c 30 3e a0 ae 8e bf fc 42 20 bf b2 de 2f 3f
       0.17247257 -1.1147041 -0.6260221 0.6869918
0000e0 10 32 ae 3e a7 b5 01 3e 41 0d e9 3e cb d1 8a 3e
       0.3402257 0.12666951 0.45517924 0.27113184
0000f0 93 60 f0 be 1d ee 97 bc 86 46 44 bf 06 e9 92 be
       -0.4694868 -0.018546158 -0.7667011 -0.28693408
000100 2a 93 d0 3e 77 22 20 bf ab 06 7c bf ab 3d 0a be
       0.40737277 -0.6255259 -0.98447675 -0.13500087
000110 d2 fc 85 be 09 87 fe be da b5 d1 3c df c0 81 be
       -0.2616945 -0.497124 0.025599409 -0.2534246
000120 6d b5 65 3e 9b 82 e2 3d f1 58 3c 3e b5 ec b2 be
       0.2243249 0.11060067 0.18393303 -0.34946218
000130 81 e0 86 be 65 3a 25 be a4 f3 cb bd d3 03 18 be
       -0.26343158 -0.16135557 -0.0995858 -0.14845209
000140 93 30 a0 be 20 a2 c6 be 12 c6 16 be 09 55 35 bf
       -0.3128706 -0.38795567 -0.14723995 -0.7083288
000150 c4 97 31 be b5 30 f6 bd da 2e 28 be 07 d5 e7 bc
       -0.1734305 -0.12021009 -0.16424122 -0.028299822
000160 0f 55 44 bd 21 09 f1 be a0 08 80 be 15 9d 4c be
       -0.04793268 -0.47077277 -0.2500658 -0.19981797
000170 95 44 c9 be 32 90 81 bc 73 c2 89 be 36 e2 76 bd
       -0.39310136 -0.015815828 -0.26906165 -0.060274325
000180 31 ae 34 be 89 78 c5 be 12 1d 8b bd c0 60 31 be
       -0.17644574 -0.38568524 -0.06792654 -0.17322063
000190 9c 66 98 bd ab 5a 4c 3e da 96 28 3e e8 77 87 3e
       -0.07441446 0.19956462 0.16463795 0.2645867
0001a0 04 c1 ca bd 43 ad 85 be 61 4e f5 3e cf b1 90 be
       -0.09900096 -0.2610875 0.4791136 -0.28260657
0001b0 7a 28 f1 3c 6f bc 03 3e a8 0c 2f 3d 3d 1a 9f be
       0.029438246 0.1286485 0.04273668 -0.31074706
0001c0 00 bd 9c 3e 9b 2b cd be 09 39 2a be f9 58 83 3e
       0.30612946 -0.4007233 -0.1662332 0.25653818
0001d0 eb cf 67 bc a7 4e b1 3d 43 3d a7 3e fc 1d f9 3c
       -0.014148693 0.0865758 0.32663926 0.030409805
0001e0 10 34 9b 3d 1c 34 39 3e f5 fc 49 3e 18 ac b0 3c
       0.075782895 0.18086284 0.19725402 0.021566436
0001f0 06 56 f3 bd b2 00 dc 3e f3 3b 04 3e 8f d9 ca be
       -0.11881642 0.4296928 0.12913494 -0.3961911
000200 d8 19 8d 3e cf db d1 3e 35 bf 98 3e d2 57 9e 3d
       0.2755878 0.40988013 0.2983338 0.07731594
000210 a3 c5 85 3e bc a6 50 3d 4d bf 11 bf 42 dd 1d 3f
       0.26127347 0.05094026 -0.56932527 0.6166574
000220 f8 d0 8b be 5a 8f a0 bd c5 cc 4e bf 8f b9 27 be
       -0.27307868 -0.07839842 -0.80781204 -0.16379379
000230 d2 8c b4 3e 51 45 32 be ee 4f df 3e 14 70 55 3e
       0.35263687 -0.17409255 0.4361567 0.20843536
000240 16 88 11 be b2 b2 a4 3e 29 c3 00 be ff a2 15 be
       -0.14212069 0.32167584 -0.12574448 -0.1461296
000250 b3 e7 d9 bd 9c 15 72 bd 8f bf c8 3d ff 61 0d be
       -0.10639896 -0.05910264 0.09802162 -0.13806914
000260 e8 96 d4 bc 87 d6 a6 3d 6a e2 1f 3e ce cc 88 be
       -0.025950864 0.081463866 0.15613714 -0.26718754
000270 62 2b 9a 3b 24 13 23 be 28 35 50 bd 4e 74 c4 3d
       0.0047048787 -0.1592527 -0.050831944 0.09592496
000280 a8 a5 29 3e 47 5b 99 bd d2 d9 59 be 76 72 9e 3d
       0.16567099 -0.07488113 -0.21274498 0.077366754
000290 53 d0 a4 3e c9 65 14 3e 33 a2 1d 3e 2f 0d 85 3e
       0.3219019 0.14491953 0.15393905 0.2598662
0002a0 bb 6e f0 be ec 58 1c 3f 20 b1 56 be 75 fd 36 3c
       -0.4695948 0.61073184 -0.20966005 0.011168827
0002b0 72 55 42 3e 0c 11 1b bf 1f af ee bc b4 01 dd 3e
       0.18977907 -0.60572886 -0.029136239 0.43165362
0002c0 f9 44 22 bf b2 2e 69 3d 00 0e f8 3e 0e a8 be bd
       -0.63386494 0.056929298 0.4844818 -0.09309398
0002d0 04 c5 39 be a7 92 e5 3d 53 2c a7 bd dc cc f4 3d
       -0.18141562 0.11209612 -0.08162751 0.11953136
0002e0 e6 a1 32 be 8c f1 87 3e d7 21 e5 be 7b 22 b2 be
       -0.17444572 0.26551473 -0.4475238 -0.34791932
0002f0 88 c5 d1 3e ac b0 3c be a4 61 eb 3e 9a 14 f1 3d
       0.40971017 -0.1842677 0.4597293 0.117715076
000300 7f ae 7a 3e 3e 08 2c bf 70 ce 20 be 4a 35 36 3f
       0.24480627 -0.67200077 -0.1570375 0.7117506
000310 1a 9e 8b bf 9f ab 6c be ed 2e 6a 3d 2b 7b 7b be
       -1.0907624 -0.23112343 0.05717366 -0.24558704
000320 ef b5 9c be e3 f2 1d 3e c1 40 98 be 77 9e b1 be
       -0.30607554 0.15424685 -0.29736903 -0.34691212
000330 c2 0c de bd 20 2f 5e 3d e1 70 4a 3e ad 7d a8 be
       -0.10842277 0.05424416 0.19769622 -0.32908383
000340 ec 85 ca 3d 54 69 91 be bb ce c5 bc 11 7b 29 bf
       0.09888825 -0.2840067 -0.024146428 -0.6620341
000350 2d 7f 68 bd a1 7f 26 be 69 a5 1e bf 39 3f 9c 3e
       -0.05676191 -0.16259624 -0.61971146 0.30516985
000360 c2 3d 7e 3d 35 e6 96 3d fc 43 96 bf cd 50 c9 3e
       0.062070616 0.07368127 -1.1739497 0.3931946
000370 ce a5 34 be 65 5b 1e bf 73 8e 3f 3e 41 b7 81 be
       -0.17641374 -0.61858207 0.18706684 -0.25335124
000380 a5 87 d6 3e 89 a9 41 be 8f 7a 37 be 13 6d 2d be
       0.41900364 -0.18912329 -0.17917846 -0.1693614
000390 f2 ed a7 be 2a ae 5d be 37 3a 67 be 06 a9 c0 3e
       -0.32798725 -0.2164847 -0.22580801 0.37628955
0003a0 db 19 39 bd d8 54 81 3f b6 02 9e bd d5 47 a6 bd
       -0.045190673 1.0104017 -0.07715361 -0.081191696
0003b0 c6 71 11 3f 78 f2 03 3f 3f 9a 1b be f6 34 5f 3e
       0.5681423 0.5154185 -0.15195559 0.21797547
0003c0 ed b7 33 3f 46 b0 02 bf 72 65 4c bd d2 2a 82 3e
       0.70202523 -0.5105022 -0.049901433 0.25423294
0003d0 f8 b5 74 3e 7e 47 c6 be 3f 2e bd 3d 8f 20 8d bf
       0.2389754 -0.3872642 0.09237336 -1.1025561
0003e0 c4 08 1e bf 28 5a 02 3e 2a 40 28 bf de e6 50 bf
       -0.61732125 0.12729704 -0.65722907 -0.81602275
0003f0 13 7a 65 3d 11 58 14 3e 50 f2 8f 3d 0e 61 01 3f
       0.056024622 0.1448672 0.07028639 0.5053872
