checkpoints/tuning_multi/trial_15/final_model.pt (torch, 520443 bytes, 104 tensors)

encoder.feature_encoder.atom_embedding_list.0.weight f4 [119, 64]
000000 fc e2 0a 3e c7 fa bb 3c 79 f1 0f 3c f6 1c 35 3e
       0.1356315 0.022946728 0.008785599 0.17686829
000010 ce 65 21 be e6 5f 43 be 36 39 b2 bd 66 fb f5 3d
       -0.15761492 -0.19079551 -0.08702318 0.12010841
000020 dd e2 28 3e 52 fb a0 bd b9 84 e5 bd 8f 07 26 be
       0.16492791 -0.078604355 -0.112069555 -0.16213821
000030 17 5e b4 3d 93 b9 8b bd ec 8a 05 3e 94 ee 80 bd
       0.08807009 -0.06822505 0.13041276 -0.06295505
000040 96 4b 33 3e 6e 56 0a 3e 12 63 03 3e e6 44 b2 3d
       0.17509302 0.13509533 0.12830761 0.087045476
000050 35 a1 fa bd 85 65 aa 3b 69 5a ed bd 50 d4 8d bd
       -0.12237779 0.0052000904 -0.1158951 -0.06925261
000060 61 5a 04 3e 64 0a c0 bd 92 47 fe 3d 05 42 b3 3b
       0.12925102 -0.09376982 0.12415995 0.0054705166
000070 d1 e7 a6 bd a1 6d b1 bd b8 3e 34 be c1 7b a1 3d
       -0.08149684 -0.08663488 -0.1760205 0.07884932
000080 89 a7 8d 3c 51 45 25 3e e5 16 4b 3d 61 51 18 3d
       0.017291801 0.16139723 0.04958238 0.037186984
000090 50 a7 07 bd 6c c5 ab 3d ed 46 c2 bc cb a0 94 3d
       -0.033118546 0.083872646 -0.02371546 0.07257231
0000a0 b6 55 8f bd f7 f0 01 3e 97 50 1e 3d bc f9 f0 3d
       -0.0699877 0.12689577 0.038651075 0.11766383
0000b0 f0 3e 68 3c f3 30 a8 3d ba 0e 1e 3e c4 fb 82 3c
       0.014175162 0.08212461 0.15435305 0.015989192
0000c0 f7 74 fc 3d 78 09 38 be e2 76 0f bd 6f ac 27 be
       0.12326997 -0.17972362 -0.035025485 -0.16374372
0000d0 f6 ad ca 3c 4f d2 f2 3c 2f 9b 44 3d 77 d9 9d bd
       0.024741154 0.029641299 0.047999557 -0.07707494
0000e0 c4 94 ba 3d b8 a7 99 bd 07 c8 45 bd 14 35 03 3e
       0.09110406 -0.07502693 -0.048286464 0.12813216
0000f0 8e ce 22 be 2b f6 24 3d 2e 11 26 be be 1c 86 3d
       -0.15899107 0.040273827 -0.16217491 0.06548451
000100 88 c4 fe bd 7d 93 28 be a5 08 41 bd a3 ca 29 3e
       -0.12439829 -0.16462512 -0.047127385 0.16581206
000110 17 54 74 3d 7d f3 a8 3d 07 00 82 bc fa be 0e 3e
       0.059650507 0.08249567 -0.015869154 0.1394004
000120 25 c6 a9 bd 02 81 d8 bb 77 68 2f be 7a 00 bc 3b
       -0.08289746 -0.006607176 -0.17129694 0.0057373615
000130 a0 26 6b 3d 9a a8 32 be 0d 9a 19 3e b7 ce ed 3c
       0.057409883 -0.17447129 0.15000172 0.029029233
000140 92 21 3a 3e da aa 21 bd 1c 05 2d 3d ee 7b 73 bd
       0.18176869 -0.039469577 0.0422412 -0.05944436
000150 4d d8 02 3e b5 d1 db bd b1 f0 ad 3d a6 84 07 be
       0.12777825 -0.10733358 0.08493174 -0.13234195
000160 ac 08 ff 3d dd c5 2f be 55 96 4c bd a0 94 83 bd
       0.12452826 -0.17165323 -0.049948055 -0.06424832
000170 ea 50 38 bd 9d b8 54 3c f3 8f 61 3d 6b 32 43 3e
       -0.04499904 0.012983468 0.05506892 0.19062202
000180 2b 45 a7 3d 84 ab 68 bd f0 69 0c 3e 34 26 09 bd
       0.081674896 -0.056804195 0.13712287 -0.0334837
000190 d5 10 ed bd 48 15 ad 3d 7f 89 04 bd 6b 85 27 3e
       -0.11575476 0.08451325 -0.03235769 0.16359489
0001a0 da 2f b4 3c 2f 8e 10 3e 67 19 43 3d f2 92 bb bd
       0.021995474 0.14116739 0.047631647 -0.09158887
0001b0 44 99 5c 3d f7 05 cb bd 24 5c 48 bd 60 a0 27 bd
       0.053857103 -0.09913247 -0.048915997 -0.04092443
0001c0 d8 c9 0f be 69 13 03 3d c9 02 f2 3d 01 34 39 be
       -0.14041841 0.032000933 0.118169375 -0.18086244
0001d0 d6 f4 d3 3d bd c5 02 be 4b 92 37 be 53 c6 7f 3d
       0.10349433 -0.12770744 -0.179269 0.062444996
0001e0 1e fa 2d bb 57 27 04 be dc 51 1d 3e 44 8c 5c 3c
       -0.0026546787 -0.12905632 0.15363258 0.013461176
0001f0 8b fa 0c be ad 3a bb 3d 2f fd 17 bc 80 c2 dd bc
       -0.1376745 0.09142051 -0.009276672 -0.027070284
000200 3c ff 03 be a6 a2 96 bc 04 1f ec 3d ab a1 c6 bd
       -0.12890333 -0.018388104 0.11529353 -0.096988045
000210 9f 4a c3 3d 7b 0c 36 be a7 63 a3 bd f4 43 23 bd
       0.09535717 -0.17778198 -0.079779916 -0.039859727
000220 a5 81 15 be 87 89 84 3d cc 3f 0e be c2 8f b6 3d
       -0.14600237 0.06471544 -0.13891524 0.089141384
000230 44 ef fc 3c f7 88 1d 3b 55 b2 c5 bd db 87 84 bd
       0.03087581 0.0024037936 -0.09653155 -0.06471225
000240 14 0e 34 3d c6 16 2e 3e 07 3a b2 bd ee 50 fc bd
       0.04395874 0.17000875 -0.08702474 -0.123201236
000250 44 d6 8b bd a2 30 05 be 1f 47 c3 bc 34 29 04 be
       -0.06827977 -0.13006833 -0.023837624 -0.12906343
000260 a9 70 06 3e fb 32 fc 3d 56 29 e0 bd 78 40 13 3e
       0.13128914 0.12314411 -0.10945384 0.14380062
000270 62 d7 29 3d 08 ef d2 bd 82 58 76 3d 97 80 2a be
       0.04146517 -0.10299498 0.060143 -0.16650616
000280 82 c4 d2 bd 65 91 00 be dc fd ed bd 3a 8a 20 bd
       -0.10291387 -0.12555464 -0.116206855 -0.039194323
000290 86 d3 15 3d 12 87 0d 3d c2 a3 2c be d2 79 31 be
       0.036578678 0.03455264 -0.16859344 -0.17331627
0002a0 86 09 e1 bc 57 3c 14 3e 06 60 89 3d 88 c0 28 3e
       -0.027470361 0.14476143 0.06707768 0.16479695
0002b0 63 b4 af bd a2 86 67 3d e6 6b 21 be 18 2e a9 3d
       -0.08579328 0.05652488 -0.15763816 0.08260745
0002c0 b5 b3 82 3b 8b 6d 86 3b d3 ae b4 bd 89 01 22 be
       0.003988708 0.004102414 -0.088224076 -0.15820898
0002d0 89 88 88 bd 89 29 8c bc ba ee c4 bd 3d ff 9a 3d
       -0.06666667 -0.01710965 -0.09615846 0.07568214
0002e0 06 e4 11 bd 0f ae d7 3b 9c 3b 13 be 8c ef 6d 3d
       -0.03561785 0.0065820287 -0.14378208 0.058089778
0002f0 72 4d b5 bd 9d 1a 0c be db 09 72 bd a5 97 2c be
       -0.08852662 -0.13682027 -0.05909143 -0.16854723
000300 dc 86 0d be 24 3e 0a 3e 18 c5 17 3e 43 ca 00 be
       -0.13820976 0.13500267 0.14821279 -0.12577157
000310 5c d8 20 3d a1 02 bf bd 67 81 2d 3e bd 64 e2 3d
       0.039268836 -0.09326673 0.16943894 0.110543706
000320 61 72 93 3d 05 2c 17 be e9 66 b6 bd 91 de 1b bd
       0.071995504 -0.14762886 -0.08906347 -0.038054053
000330 1f c6 25 be 0d b9 d8 bd d0 44 43 3d 83 f1 16 be
       -0.16188858 -0.10582171 0.047673047 -0.14740567
000340 b9 55 45 3d c4 97 87 bb 18 4e 74 bc c5 a4 58 bd
       0.048177455 -0.004137965 -0.014911197 -0.05289151
000350 1e 4c c7 bd d3 5a 2d be 34 59 fc bd 43 08 0c 3e
       -0.09731315 -0.16929178 -0.12321702 0.13675027
000360 ad e5 5b bc c6 8c 34 3e e4 66 1c 3c 78 d7 ae bc
       -0.013421458 0.17631826 0.009546015 -0.021342978
000370 49 63 de 3d 7f 90 2e be a9 d9 e5 bd ff b9 d4 3d
       0.10858781 -0.17047308 -0.11223156 0.103870384
000380 82 6d 41 bd dd b1 12 3e 0e 73 87 bc 12 3b 04 3e
       -0.047223575 0.14325662 -0.016534355 0.12913159
000390 e5 14 10 3c 78 0b 9a 3c 12 9c 1c be d8 27 80 bd
       0.008794044 0.018804297 -0.15293911 -0.062575996
0003a0 84 bf 14 3c c7 6f a9 3d 20 e8 0f 3d 47 07 21 bd
       0.009078864 0.08273273 0.03513348 -0.03931358
0003b0 ef 3b a0 3a cc 63 1f 3e be 5e f7 3d 3a 12 7d 3d
       0.0012224893 0.15565413 0.120786175 0.06178496
0003c0 35 a0 05 be 14 61 79 bd 84 c1 ec 3d 7e e8 26 3e
       -0.13049395 -0.060883597 0.11560348 0.16299626
0003d0 ed 4f af bd c0 91 9d 3d 12 ab 2d bd 4e 3e eb 3d
       -0.085601665 0.07693815 -0.042399473 0.11486493
0003e0 6f e2 de bc b3 63 13 be e5 88 37 be c5 4e de bb
       -0.027207581 -0.14393501 -0.17923315 -0.0067842924
0003f0 dc a5 5a 3d d3 9a da bd a1 e1 11 3e d5 e5 af 3d
       0.053380832 -0.106740616 0.14246227 0.08588759

encoder.feature_encoder.atom_embedding_list.1.weight f4 [5, 64]
000000 78 ec ec bd bc fb 1b bd a9 64 ac 3d 30 26 76 3e
       -0.1156854 -0.03808187 0.08417637 0.24038005
000010 b6 35 06 3e 1e 9b 93 3e 01 62 f2 3d 23 71 13 3e
       0.13106427 0.28829283 0.11835099 0.14398627
000020 cf 2e 8b 3d 0b 67 6d 3e 8f 6c 69 3e a3 ec 2c 3e
       0.067960374 0.23183839 0.22795318 0.16887145
000030 0c 11 7a be 65 30 e4 bc 99 90 c7 bd 20 d8 35 bd
       -0.24420565 -0.027855108 -0.09744377 -0.044395566
000040 e5 0f 59 3e ef 14 40 be e0 db 1c be 71 36 ee bd
       0.2119747 -0.18757986 -0.1531825 -0.116314776
000050 dc 3d b1 3c 20 1d 3f be 6d 08 33 3d 57 91 74 be
       0.021635942 -0.18663454 0.043709207 -0.23883568
000060 24 0b 16 be 6c db 2f 3e 49 ee 54 3e 1d da b7 bd
       -0.14652687 0.17173547 0.20794024 -0.08977149
000070 f5 49 8f 3c d9 ee 8a bb 15 b1 59 be da c7 77 bd
       0.01749132 -0.0042398986 -0.21258958 -0.060493328
000080 07 03 34 3e 9b 84 25 3c a0 2c 8d 3e 48 bb 6d be
       0.1757928 0.010102416 0.2757311 -0.23215973
000090 ba 09 53 be 55 d9 89 be 12 46 3a be ce 29 6c 3d
       -0.20609179 -0.26923624 -0.18190792 0.057657056
0000a0 eb 7f 56 3e b5 ad 7c be e8 94 65 be 8f e6 89 bd
       0.20947234 -0.24675639 -0.22420084 -0.06733429
0000b0 c0 12 32 3e 5f 4c 1e 3e a7 00 9d bc a8 16 8b 3e
       0.17389965 0.15458821 -0.01916535 0.27165723
0000c0 d9 22 e3 3d 36 f1 91 3e 80 1d 9a bc e1 f2 33 be
       0.11090631 0.28504342 -0.018812895 -0.1757312
0000d0 c3 e8 73 3c 77 f1 be 3d 78 62 05 3e 37 12 fa 3b
       0.014887038 0.093233995 0.13025844 0.007631566
0000e0 2a be a1 3c 0a 0c 6e 3d 0a e1 6f bd ca 4a 93 3d
       0.019743998 0.05811695 -0.058564223 0.07191999
0000f0 35 ee 29 be 91 1c 7c bd 6d 6d 22 3e f2 35 c5 3d
       -0.16594775 -0.06155068 0.15862055 0.0962943
000100 31 db 2b 3e 0c da 41 be 77 42 97 bd 1b b8 18 be
       0.16782834 -0.18930835 -0.07385724 -0.1491398
000110 c7 dc 81 be ea 88 fc bd 5a c2 2f bc be 9e de bc
       -0.25363752 -0.12330802 -0.010727489 -0.027175304
000120 04 56 94 bc 3e b6 2b be 3b 2a e9 bb 7c 29 96 3d
       -0.018107422 -0.16768739 -0.00711563 0.07332131
000130 db dc 5c 3e 3d ca 32 3e 10 85 7d be 77 a3 40 be
       0.21568625 0.1745996 -0.2475779 -0.18812357
000140 5b 9c 73 3e f0 3a 54 3e 45 7d 39 3e a3 bb 19 be
       0.23790114 0.20725608 0.18114193 -0.15012984
000150 36 1c 7f 3e 0e eb 95 be eb e1 78 be aa 2e 89 3c
       0.24913105 -0.29280895 -0.24304931 0.016745884
000160 44 88 11 3e 94 35 8e be 9e f8 81 3d ec fb 54 3a
       0.14212137 -0.27775252 0.06346248 0.00081246975
000170 2e db 30 bd 4e 9d 68 be e5 a8 15 be 10 15 05 3d
       -0.043177776 -0.22716257 -0.1461521 0.03249079
000180 e8 41 95 3d 36 7c 46 3e de 0c ef bd 3d 58 87 3e
       0.07287961 0.1938332 -0.11672376 0.26434508
000190 48 57 c4 3d 5d 23 47 be 9e b7 8e be e0 3a 44 3e
       0.0958696 -0.19447084 -0.27874464 0.19163084
0001a0 10 ba 72 3c e1 c1 49 bc 9a e5 d8 bd 97 2d 19 3e
       0.014814869 -0.012314291 -0.10590668 0.14958797
0001b0 32 4d da bd 05 4c 54 be 81 f7 4c 3e f6 57 06 be
       -0.10659255 -0.20732124 0.2001629 -0.13119492
0001c0 30 2d 2f 3e 6f 4d 57 be f9 4d 9e bd 9a dd 28 be
       0.17107081 -0.21025632 -0.07729716 -0.16490784
0001d0 83 4e 7e 3c 92 f6 1a bd a2 46 a4 3d 51 37 6a be
       0.015521648 -0.037832804 0.08021285 -0.22872664
0001e0 c0 a3 7a be 83 3d 6f 3e 1e f5 68 be 45 59 cc 3d
       -0.24476528 0.23363309 -0.22749755 0.09977964
0001f0 be 1f 83 be ec 12 62 3d 8f 22 1a bc 37 f6 17 be
       -0.25610155 0.055193827 -0.0094076535 -0.14840017
000200 f4 f9 c6 bb 6e 4b 14 3d 43 33 07 3c 7d 71 64 3e
       -0.006072277 0.036204748 0.008251968 0.22308917
000210 46 f6 2c be 49 bc 08 3e cd 0d 8b 3e c6 e3 58 be
       -0.16890821 0.13353075 0.27158967 -0.21180639
000220 e9 82 6c be 78 1c cc 3d d0 63 d6 bd 9d eb d9 bb
       -0.23096813 0.099663675 -0.104682565 -0.0066504017
000230 a3 d6 8c be 7b 72 38 3e b3 7d 9f bc 0c 84 94 3c
       -0.27507505 0.18012421 -0.019469118 0.018129371
000240 e4 ed d1 bd af a5 d1 3d b4 75 9e bb d8 af f0 bd
       -0.10250452 0.1023668 -0.0048358086 -0.117522895
000250 09 05 96 3d e2 3c e0 bd e4 20 e0 3d 1c 9b 90 be
       0.07325179 -0.109491125 0.109437734 -0.2824334
000260 12 ad e9 bd 53 e5 4e be 2c 78 00 3e a7 0a 54 be
       -0.11409964 -0.20204668 0.12545842 -0.20707189
000270 42 f6 69 3e 5d 0c 93 3d a6 10 39 3e 5c f9 44 be
       0.22847846 0.071800925 0.18072757 -0.19235748
000280 18 4b 75 be a2 35 46 bd 61 ea 25 be 20 8f cc bd
       -0.23954427 -0.048390992 -0.1620269 -0.099882364
000290 8b 36 78 3e 92 64 21 3e 1a 6f b2 bd b5 5c 37 3e
       0.24239556 0.15761021 -0.08712597 0.17906459
0002a0 24 42 4a be 64 77 2f be 4a c0 05 3e 92 5d 02 3e
       -0.19751793 -0.17135388 0.13061634 0.12731007
0002b0 1d 9e ae bd dd 0f 4e be 85 c9 3c 3d f8 a5 91 3e
       -0.085262515 -0.20123239 0.04609062 0.28446937
0002c0 a3 98 94 3e 92 ba 77 3e 2c 71 62 be 5f 2a 48 3e
       0.29022703 0.24192265 -0.22113484 0.19547413
0002d0 1e 31 5d 3d 2d 17 75 be 94 26 9b 3c 19 ce 91 be
       0.05400192 -0.23934622 0.018939294 -0.28477553
0002e0 bd a5 81 3d 43 0a 26 be 91 2b 4b be 6a 16 6b 3c
       0.0633044 -0.16214852 -0.19840838 0.014348606
0002f0 e6 a9 4b 3e 9e 7c 29 3e 73 dd 3a be 9b c1 2b 3e
       0.1988903 0.16551444 -0.18248539 0.16773073
000300 55 b4 e0 3d 53 94 49 be b4 c5 9b bd eb b8 90 bd
       0.109718956 -0.19685487 -0.07606068 -0.0706652
000310 ba 6d 75 be 58 c4 89 be 0d 0d 4d be 05 41 89 3e
       -0.23967639 -0.2690761 -0.2002451 0.26807418
000320 c9 76 a0 bd 6a e2 e7 3c 0a bf 7a be d9 c2 4f bd
       -0.078351565 0.028306205 -0.24486938 -0.05072293
000330 a9 2a e4 3d e8 cf c3 bb d4 d5 bd bc 08 b6 80 bb
       0.11140949 -0.005975712 -0.02317325 -0.00392795
000340 94 08 4b 3e 92 b8 54 be 8f 95 87 be af 6c 91 be
       0.19827491 -0.20773533 -0.26481292 -0.28403232
000350 d3 90 f5 3d 81 34 28 be 5f 11 04 be f7 c1 1f bd
       0.11990514 -0.16426279 -0.12897252 -0.03900334
000360 09 06 31 3e cb f6 27 3b ed 6b 6c 3d 84 a3 a9 bd
       0.17287458 0.0025629278 0.057720114 -0.08283141
000370 a3 56 24 3e 33 a4 16 be 66 c2 68 3e 35 8e 78 3e
       0.16048674 -0.14711075 0.22730407 0.24272998
000380 aa d0 87 be 9b 39 bf bd cc 8b 11 bd 40 99 22 be
       -0.26526386 -0.09337159 -0.03553371 -0.15878773
000390 09 b5 81 3c eb 37 c6 bd aa fc 79 3e 39 1d bf bc
       0.015833395 -0.09678634 0.2441279 -0.023329364
0003a0 33 cb 28 be 51 f1 15 be c0 1a 8d be 1c 96 39 be
       -0.16483764 -0.14642836 -0.2755947 -0.18123668
0003b0 3d 81 6a 3d cd 6c b6 3d ea 24 02 be af a0 44 3b
       0.057252157 0.08907471 -0.12709394 0.0030003001
0003c0 a2 82 17 3e 46 a8 1f 3d 57 12 08 3d 16 17 46 be
       0.14795926 0.038978837 0.033220615 -0.19344744
0003d0 9c f2 8d 3e f1 4a b2 bd 51 48 c7 3c e0 be 14 bd
       0.2772416 -0.087057 0.024326475 -0.036314845
0003e0 87 2f 03 3e 07 1d 7a be 1c 70 89 3d 39 62 6a be
       0.12811099 -0.24425136 0.06710836 -0.22889031
0003f0 84 57 6e 3e 4d 0c ee bd 1d 92 76 3d 05 dd 9f 3c
       0.23275572 -0.1162344 0.06019794 0.01951457

encoder.feature_encoder.atom_embedding_list.2.weight f4 [12, 64]
000000 c9 7c a7 3c f4 35 12 be 2a f2 1e be a2 89 af bd
       0.020445244 -0.14278394 -0.15522066 -0.08571173
000010 c2 f1 d5 3d cd 42 5b be 49 9e 8d 3e c3 eb 4a be
       0.10446502 -0.21412201 0.27659824 -0.19816498
000020 19 48 8e 3d 59 47 8f 3e fb c5 fc bd 26 2b 43 be
       0.06947345 0.2798412 -0.12342449 -0.19059429
000030 64 a7 ed bd de 2a f3 bd 4b c4 31 be 8f f0 91 be
       -0.11604193 -0.11873411 -0.17360036 -0.28503844
000040 13 e2 0b be c1 8f 86 bd 65 3a 84 3e c8 49 6e bd
       -0.13660459 -0.06570388 0.25825801 -0.058175832
000050 7d cf d3 3c 44 4b c7 bd bc 09 de 3c c8 a6 ff 3d
       0.025855774 -0.09731153 0.027104251 0.12482983
000060 c2 65 6d 3d 8d 92 37 bd 95 12 4b 3d 0d 07 87 3e
       0.057958372 -0.044817496 0.049578268 0.26372567
000070 ac d4 49 be e8 fe 92 3e 00 d2 83 bd 94 b0 63 3e
       -0.19710034 0.28710103 -0.06436539 0.22235328
000080 da b8 53 3e 37 ab 94 3c 65 97 12 bc d3 c4 33 3e
       0.20675984 0.018148048 -0.008947228 0.17555551
000090 ef c9 76 bd b5 83 a3 3d 18 9b 87 3e fa 95 4b bd
       -0.060251173 0.079841055 0.26485515 -0.049703576
0000a0 56 a8 a6 bd ba 19 70 3e 40 26 7d 3e 81 de 93 3e
       -0.08137576 0.23447314 0.24721622 0.28880695
0000b0 55 b6 85 be 31 37 39 3e d7 9d 14 3e 8c 13 23 be
       -0.2611567 0.1808746 0.14513336 -0.15925425
0000c0 1b a9 30 3e 75 4e 46 be 6a 29 06 3e 7f 3c 75 3c
       0.17252009 -0.19365866 0.13101736 0.014968037
0000d0 22 7e b7 3d c2 28 30 be 8c 71 58 bd ca 69 1c be
       0.08959605 -0.17203048 -0.05284266 -0.1527473
0000e0 74 4e 21 3e cc 91 55 be ae 85 5b 3c c4 fe da 3d
       0.15752584 -0.20856398 0.013398571 0.10693124
0000f0 33 56 b2 ba 54 26 a5 bd d0 af 48 3d 90 0c de 3c
       -0.0013606012 -0.08063951 0.048995793 0.0271056
000100 37 15 0f be 80 f3 90 bd ca 9e 69 bd a7 c3 20 be
       -0.13972937 -0.07077694 -0.0570362 -0.15699635
000110 54 27 9a 3b 00 c0 db bd c5 40 16 be b6 9e 7b be
       0.0047043953 -0.107299805 -0.14673145 -0.24572262
000120 a9 54 39 be f4 cb 55 bd 66 56 61 3e db 32 ff bc
       -0.18098702 -0.052196458 0.22005615 -0.03115218
000130 d3 8b 1c be 70 d8 49 be 23 eb 49 3d c4 c9 58 3e
       -0.15287714 -0.1971147 0.04929651 0.21170717
000140 4b db 78 be c4 d9 6d 3e 8d 1b 89 3e 72 16 76 3d
       -0.24302404 0.23227602 0.26778832 0.06008
000150 cb 67 0d 3e 47 b3 84 3d d9 8b 81 be dc 5d f0 bd
       0.13809125 0.06479507 -0.25302008 -0.11736652
000160 c0 3a 88 bd fb c8 39 be fb ea 18 3c 32 57 96 3d
       -0.06651831 -0.18143074 0.009333367 0.0734085
000170 11 d4 79 3c b0 78 12 3e 94 8e 29 be 7a fe 81 3e
       0.0152483145 0.14303851 -0.16558295 0.25389463
000180 2e 79 fd bd 26 cd 73 3e c1 8d 6d 3e cd aa 63 be
       -0.12376629 0.23808727 0.23198606 -0.22233124
000190 9a 30 8f be 84 36 46 3e 31 ce 74 3e 01 ba 40 bd
       -0.27966768 0.19356734 0.23906781 -0.047052387
0001a0 9a 96 72 3d 8b c5 69 3d be fc b9 bd 93 3b 33 3e
       0.059225656 0.057073157 -0.0908141 0.17503195
0001b0 d5 bb d2 3d 26 e8 81 be 54 a1 8f bd 16 6c 38 be
       0.10289732 -0.25372428 -0.07013193 -0.18009982
0001c0 18 42 f3 3d 04 47 89 be e3 6c 88 be c6 07 82 be
       0.11877841 -0.26811993 -0.26645574 -0.25396556
0001d0 73 a8 95 bd 67 67 5a be 75 b0 7f bd f5 ba 23 be
       -0.0730752 -0.21328507 -0.062424142 -0.15989287
0001e0 a2 8a 3c 3e a7 f2 68 3e 92 45 02 3e f9 23 bf bd
       0.18412259 0.22748815 0.12721851 -0.09333033
0001f0 70 30 ed 3d bd 82 76 be 12 f3 12 be 5a f2 84 bd
       0.11581504 -0.2407331 -0.14350536 -0.064915374
000200 6f 3d 8b be 74 79 82 3e 30 c8 35 3e 4e 96 f8 3d
       -0.27195308 0.25483286 0.17752147 0.12138043
000210 b9 2e 05 3e 5e d9 9b 3e 50 0f d6 bd 89 00 99 3d
       0.13006105 0.30439276 -0.104521394 0.07470805
000220 80 d8 92 bd e4 df 87 bd f5 53 64 be 07 00 1e 3e
       -0.071702 -0.066345006 -0.22297652 0.15429698
000230 92 9a 49 be da 6b 01 be 61 6a 80 3e 0a 76 23 be
       -0.1968787 -0.12638798 0.2508116 -0.15962997
000240 a3 4c 27 3d 2c 89 80 be b0 56 2a be 53 43 81 3e
       0.04084457 -0.25104654 -0.16634631 0.25246677
000250 7d 91 26 3e de 0e 43 3c 3e 9f 13 be e6 5f 73 3e
       0.16266437 0.0119054 -0.14416215 0.23767051
000260 85 b8 86 3e 2c ac 2e 3d 38 9f 39 be ab 5e 86 3c
       0.26312652 0.042644665 -0.18127143 0.016402563
000270 df d7 0c 3e 55 8b 96 3d 66 01 84 3e d9 49 79 3e
       0.13754223 0.07350794 0.25782317 0.24344577
000280 da 30 0e 3e 2f 4b 5a be e9 bf 2a 3c 72 f8 a9 3d
       0.13885823 -0.21317743 0.0104217315 0.0829934
000290 cd e4 c6 bd 21 f2 96 3d e9 85 40 3e 1d 2f 2b be
       -0.09711609 0.07370401 0.18801083 -0.16717191
0002a0 aa f1 ae bd 70 db 5a be a2 86 c3 3c 95 d2 34 3e
       -0.085421875 -0.21372771 0.023867909 0.17658456
0002b0 e3 f5 7a 3e 9d 1d 99 3c 53 81 4b 3e 03 1e 88 be
       0.24507861 0.018690879 0.19873552 -0.26585397
0002c0 1d 8c 81 bc c8 65 43 bd a0 7c 03 be e8 eb 87 3e
       -0.015813882 -0.047704488 -0.1284051 0.2654717
0002d0 d3 ef 2c 3e bf 0d 4e be 76 38 85 be 8d 23 1b be
       0.1688836 -0.20122431 -0.2601964 -0.1515028
0002e0 da 40 0c 3e 35 06 0d 3e 94 f3 0e 3e c8 91 6d 3e
       0.13696614 0.13771899 0.13960105 0.23200142
0002f0 ef 86 20 be 46 4f 2a 3c fa a7 e8 bd 67 84 04 be
       -0.15676473 0.010394877 -0.11360164 -0.12941132
000300 6d 31 1a bc af 91 3c bc 89 56 67 be 8e 40 77 bb
       -0.009411198 -0.011509343 -0.22591604 -0.0037727687
000310 1f d6 19 3e f4 f7 83 3e 8a 03 8c bd a8 76 45 3e
       0.15023087 0.2577511 -0.068366125 0.19283545
000320 90 3c 6b bd ce 9b 55 be b8 9e 79 3e ec 51 8d bd
       -0.057430804 -0.20860216 0.24376953 -0.06900391
000330 d8 d3 81 bd c2 f4 50 bd 35 ae 84 3e 81 19 f5 bd
       -0.06339234 -0.05101467 0.2591416 -0.11967755
000340 c6 07 9e bd a1 77 78 b9 f1 9d 2d be cc 70 f4 3d
       -0.077163264 -0.00023695688 -0.16954781 0.11935577
000350 6b 95 72 3e 1a d6 c9 3d 53 6a 88 bd 35 e7 88 bd
       0.23689811 0.0985529 -0.06660905 -0.06684724
000360 d9 98 86 be d5 4a 6a be 07 0a a1 bd de c9 18 3e
       -0.26288489 -0.22880109 -0.07863241 0.14920756
000370 13 ee 83 3e 2c 14 28 bc 75 0f 19 bd a5 b7 44 3e
       0.25767574 -0.010258716 -0.037368257 0.1921068
000380 27 6d 54 bd a0 73 40 be 05 72 1c 3e d3 c0 e7 bd
       -0.05186191 -0.18794107 0.1527787 -0.11316075
000390 ac 55 3b be fd 49 b7 3a 05 f3 4b be 3a bb 66 be
       -0.182944 0.0013983842 -0.19916923 -0.22532359
0003a0 7a 6c 2d be 13 3c 45 bd 44 e0 c7 3d f4 6c ee bd
       -0.16935912 -0.048152994 0.09759572 -0.11641875
0003b0 8a 6b 89 be 14 2e bf bd 6a e4 88 3e 95 53 8b bd
       -0.26839858 -0.093349606 0.26736766 -0.068030514
0003c0 a7 cd 4b be b6 68 cb bd 7a aa 77 3e 0e 1b 5b 3d
       -0.19902669 -0.099320814 0.24186125 0.0534926
0003d0 07 56 21 bd a9 43 8d 3e a0 a0 79 3c 4d ff 59 3d
       -0.039388683 0.27590683 0.01523605 0.05322199
0003e0 dc 6b 8b 3e bd 8b d5 bc 2f 0f 48 bd 10 7e 62 3e
       0.27230728 -0.026067609 -0.048842605 0.22118402
0003f0 52 6a e1 3d fc c7 48 be b5 3a 36 3e 6f 97 c8 bd
       0.11006607 -0.19607538 0.17795832 -0.09794509

encoder.feature_encoder.atom_embedding_list.3.weight f4 [12, 64]
000000 48 07 47 3e 6c 4b 20 3d 73 fd f8 3d 0e 01 93 3e
       0.19436371 0.039134428 0.121577166 0.28711742
000010 d0 79 20 3e 34 51 40 3e 88 1e 1e be 44 02 55 be
       0.15671468 0.18780977 -0.15441334 -0.20801646
000020 27 06 5b 3e 70 58 86 3e a8 19 12 3e 60 58 d7 3d
       0.21389066 0.26239347 0.142676 0.10514903
000030 18 7c 76 bd 10 2c cc 3d 04 b7 09 be 2a e4 a1 bc
       -0.06017694 0.09969342 -0.13448721 -0.019762117
000040 20 9b 8a 3e d6 d4 11 be 3b 8f 63 be 7e d8 ee bc
       0.27071476 -0.14241347 -0.22222607 -0.029155966
000050 81 ad 0d 3e 69 cb 85 be e3 6b 23 3e 7b 8d 55 3c
       0.13835718 -0.26131752 0.15959124 0.01303422
000060 19 13 95 3c 5d f7 2f 3e 25 f2 2b 3e 16 1f 8a bc
       0.018197583 0.17184205 0.1679159 -0.016860526
000070 3a fd 85 be 09 a5 79 3e c6 a0 b8 bd 08 2e fa bd
       -0.2616976 0.24379362 -0.0901504 -0.12215811
000080 39 33 b9 3d 27 b6 54 3e 81 ce b3 3c 36 f8 26 be
       0.09042973 0.2077261 0.021949055 -0.16305622
000090 17 b7 8c be b1 90 f9 3d ba 44 cb 3d 03 58 1c 3e
       -0.27483436 0.12185801 0.09925218 0.15267949
0000a0 51 6f 8f 3e d0 6e 09 be 6a f2 ae 3d 1b 89 9f 3e
       0.28014615 -0.13421178 0.085423306 0.3115929
0000b0 f6 8d 8e 3a 19 38 de bd 07 94 5c be 80 08 07 3c
       0.0010876048 -0.108505435 -0.21540843 0.008241773
0000c0 67 50 06 be 9c 12 60 be 82 c5 90 be 2d 22 cf 3d
       -0.13116609 -0.21882099 -0.28275687 0.101139404
0000d0 43 7b 06 bd 44 41 f3 3d 2d cc 14 3e 84 f7 8e be
       -0.032832395 0.11877683 0.14531012 -0.27923214
0000e0 6b d8 a8 bd 30 64 75 3e b6 0d 5a bd 43 d1 3b 3e
       -0.082444035 0.23964 -0.053235732 0.18341546
0000f0 2b d3 83 be b4 1c 89 3e bf a3 c5 3d cc 6b 46 be
       -0.25747046 0.2677971 0.09650373 -0.19377059
000100 df 84 94 3d f1 45 2d 3e 44 d6 24 3e 31 c1 97 3d
       0.07251906 0.16921212 0.16097361 0.07409895
000110 f0 66 0e be 51 4d f8 bd b8 4f 45 be 18 ae 7b 3e
       -0.13906455 -0.12124122 -0.19268692 0.2457813
000120 c6 97 50 3d 0c 21 88 3d 8c fc 1d be 85 f7 5c be
       0.050925992 0.06646928 -0.1542837 -0.21578796
000130 a9 53 b1 bc 25 f5 1a 3e 0c 8b 54 3e cc 6a 8f bc
       -0.021646338 0.15132578 0.20756167 -0.01750698
000140 c3 be fa 3d f3 5d dd bc 9a 64 69 bd 91 e6 8a 3e
       0.12243416 -0.027022338 -0.056980707 0.27129033
000150 b0 23 91 3d 4d f8 82 3e 1b 35 91 be 02 b7 2f 3b
       0.07086885 0.25580063 -0.2836083 0.0026811962
000160 4d 80 90 bd 98 db 5d 3e 28 80 1e 3e d7 97 7b 3d
       -0.070557214 0.216658 0.15478575 0.061424103
000170 3a 91 2c 3e 4b a7 19 be 9b 98 a0 bd e3 4e 20 3e
       0.16852275 -0.15005223 -0.07841607 0.15655093
000180 6b b1 39 be 83 31 a4 3d 76 60 80 3d 3d e7 81 be
       -0.18134086 0.08017256 0.062683985 -0.25371733
000190 8e 2d 3e be 72 bf 42 be c3 e8 82 be d1 15 c3 bd
       -0.18572065 -0.19018343 -0.25568208 -0.095256455
0001a0 99 cd d7 3d 98 c1 f2 3d 73 bb 18 3e 3c 55 5c 3d
       0.105372615 0.11853331 0.14915256 0.053792223
0001b0 08 a9 30 be ca 68 87 be 09 5f 6c 3e 96 97 78 3d
       -0.1725198 -0.26447135 0.23083128 0.06069144
0001c0 29 e0 5a 3e de 26 97 be b9 4e 2a be 01 77 0f bc
       0.21374573 -0.2952184 -0.16631593 -0.0087564
0001d0 b0 a4 77 3e 9e 16 72 be 20 7b 19 be 73 46 5a be
       0.24183917 -0.2364144 -0.14988375 -0.21315937
0001e0 79 96 02 3e 21 69 77 3c 81 7f eb bd e1 0e 33 3e
       0.12752713 0.015100748 -0.11498929 0.17486145
0001f0 e3 35 64 be c6 04 e9 bc dc e1 0d be 64 06 9f bd
       -0.22286181 -0.028444659 -0.1385569 -0.07764891
000200 e1 2d 6a 3c dc 55 e2 bb c9 11 8e 3e e5 44 7a be
       0.014293165 -0.006907208 0.27747944 -0.24440344
000210 aa cb 05 be 78 39 39 bc 90 01 e8 bd 51 9c 81 3e
       -0.13065973 -0.0113052055 -0.11328423 0.25314572
000220 13 5b 15 3e b5 51 5e 3e 7e 33 4c 3e b9 54 83 bc
       0.14585523 0.21710856 0.19941518 -0.01603161
000230 bb 05 40 3e 5d 87 b0 bc 86 39 46 3e d4 dc 3a 3d
       0.18752186 -0.021548921 0.19357881 0.045620754
000240 1b 48 df 3d 15 2b dd 3d 5e 6e da bd 15 64 65 3e
       0.10902425 0.10799233 -0.10665582 0.2240146
000250 b3 69 75 3e a5 11 8b bd c0 56 aa bd d0 4a 7f be
       0.23966102 -0.06790475 -0.083173275 -0.24930882
000260 ee 56 1d 3e a0 20 57 be ae be 7d be 32 c2 6c 3e
       0.15365192 -0.21008539 -0.2477977 0.23120955
000270 d1 e4 9a 3d 82 c1 72 3e ec af 70 be a0 13 22 be
       0.075631745 0.2370663 -0.23504609 -0.15827799
000280 4a 32 85 bd c0 de 31 3e 36 6e 5a be 67 af 7c be
       -0.065037325 0.17370129 -0.21331105 -0.24676286
000290 9c 1c a3 bd de 44 15 be 54 83 8a 3e 88 e1 08 3e
       -0.07964441 -0.14577052 0.2705332 0.13367283
0002a0 bb 34 42 be 92 9a e0 bd d1 9f 95 bc 9d 0f 34 be
       -0.18965428 -0.10966982 -0.018264683 -0.17584081
0002b0 43 ed 51 be bc 45 82 3e 7e 19 43 be 51 3a 1e 3e
       -0.20500664 0.25443828 -0.19052693 0.15451933
0002c0 75 7a a4 bd f1 50 6b be 52 65 02 be 45 d5 03 be
       -0.08031169 -0.22980095 -0.12733963 -0.12874325
0002d0 fb 69 43 be 1c 38 35 be a4 13 42 bc a0 7f 17 be
       -0.19083397 -0.17697185 -0.011845503 -0.14794779
0002e0 22 ab 6a 3e e5 52 8d be 0b 1b 53 bd d5 7d 34 3e
       0.22916844 -0.27602306 -0.051539462 0.17626126
0002f0 84 e6 3d be cc 1d 70 bd fc 91 70 be d8 cf 89 be
       -0.18544966 -0.058622167 -0.23493189 -0.26916385
000300 8a 72 06 3e 7b b8 92 3d 66 64 f4 3c 3b 68 59 3e
       0.1312963 0.07164093 0.02983303 0.21231167
000310 5a c9 87 bb 74 79 74 be ff f6 8d be 0f 38 15 3d
       -0.004143876 -0.23874456 -0.27727506 0.036430415
000320 9b b4 21 be 1a 2f 87 3e d8 5d fa bc aa e1 7c 3e
       -0.15791552 0.26403123 -0.030562326 0.24695459
000330 82 a4 8b bd f0 e3 0c be 24 83 8e be 50 5d 93 3e
       -0.06818487 -0.13758826 -0.27834427 0.2878213
000340 34 01 73 be bc f2 34 3e 31 6d df bd a3 29 57 be
       -0.23730928 0.17670721 -0.109094985 -0.21011977
000350 7c 5b a3 bd 5c 4c 0b 3e fc 91 5b 3e a0 44 6c be
       -0.07976434 0.13603348 0.21442407 -0.23073053
000360 ab 89 56 be b9 29 ba 3d 16 aa 07 3e 4a c5 38 be
       -0.20950954 0.09089989 0.13248476 -0.1804401
000370 36 99 e8 3d 78 d7 b1 bc 8c 0d 7b be a6 c4 1c 3e
       0.11357348 -0.021709189 -0.24516886 0.1530939
000380 5d ae 71 be 72 55 82 bc 56 bd 6b bd 3a 0c 06 be
       -0.2360167 -0.015909884 -0.05755361 -0.13090602
000390 b7 9a 02 bd f4 67 80 be d5 b0 7e 3e ec 33 57 be
       -0.03188583 -0.2507931 0.24872144 -0.210159
0003a0 0a 02 2d 3e 47 9d 25 bc b9 f7 1f bc 76 92 a7 bc
       0.16895309 -0.010108299 -0.0097636515 -0.02045558
0003b0 82 ca f5 bd 39 18 18 bd 01 d6 43 3e c7 be 17 be
       -0.12001516 -0.037132476 0.19124605 -0.1481887
0003c0 bf 1d 02 3e 0b c2 5a be 80 fd 0f be f0 7d 4b 3e
       0.1270666 -0.21363084 -0.14061546 0.1987226
0003d0 6c 57 c8 3d 10 a5 82 be eb 4a 44 be a0 36 3a 3e
       0.097822994 -0.25516558 -0.19169204 0.181849
0003e0 6b a8 d7 bc 70 b8 81 3e fd e2 8d be 35 43 86 3d
       -0.026325425 0.25336027 -0.2771224 0.065557875
0003f0 30 46 8e be 24 7b cc 3d fd 13 cf bd 7e 44 8b bc
       -0.27787924 0.09984425 -0.10111234 -0.017000433

encoder.feature_encoder.atom_embedding_list.4.weight f4 [10, 64]
000000 06 35 33 3e 41 af 1d 3e 44 6a f0 3d a9 de 82 3e
       0.17500696 0.15398885 0.117390186 0.255605
000010 de f1 76 3d d0 ed e9 bd 19 0d 21 3e 5f 4a e8 bc
       0.060289256 -0.11422312 0.15727653 -0.028355775
000020 13 0f 8f 3e 43 c9 69 be e8 68 27 be 1d 29 33 3e
       0.27941188 -0.22830682 -0.16348612 0.17496152
000030 a0 36 36 be 59 f5 1a 3e 6d 8b 4e be ad 29 9b 3d
       -0.17794275 0.15132655 -0.20170374 0.075763084
000040 5d 31 81 3e eb 83 05 3e 14 d5 16 be a2 1b fc 3d
       0.25232974 0.13038604 -0.1472972 0.12309958
000050 11 98 16 bc 17 4b 92 bd da 1f 8b be 44 ed 31 be
       -0.009191529 -0.071432285 -0.27172738 -0.17375666
000060 b7 2a b5 bd d2 d3 49 3e 63 0a 50 be e9 a4 85 be
       -0.08846038 0.1970971 -0.20316462 -0.2610238
000070 a1 3c 58 be 4e 77 af 3d 64 ea 7b be 72 a8 8e be
       -0.21116878 0.085676774 -0.24601132 -0.2786289
000080 a8 79 80 3c f5 38 8c be 7a 1e 77 3d fe 2d 47 bd
       0.01568301 -0.27387205 0.0603318 -0.048627846
000090 dc 5b 83 3e e5 09 f8 bd 53 6e 78 be a5 3d 2c be
       0.2565602 -0.12111262 -0.24260835 -0.1682039
0000a0 b5 80 22 bb c0 98 bf bd fd 55 8f 3e 11 cc 32 be
       -0.0024795954 -0.093553066 0.2799529 -0.17460658
0000b0 14 9b 8c be 04 c0 ed 3d 6b a5 7f bd 5e c7 39 3e
       -0.27462065 0.1160889 -0.062413614 0.18142459
0000c0 41 76 48 3d 41 78 de 3d 54 82 4d 3e d5 1e fc bc
       0.0489409 0.1086278 0.20069247 -0.03077642
0000d0 4c cd e6 bd ce 1e de bd e5 d6 92 bd 49 52 7a be
       -0.11269626 -0.10845719 -0.07169894 -0.24445452
0000e0 b5 c8 7d 3e 51 88 01 3e c6 05 af bd a3 dd 6c 3e
       0.24783595 0.12649657 -0.08546023 0.23131423
0000f0 62 b4 00 3e 3a 6a f1 3d 9b 83 27 3e 98 66 28 3d
       0.1256881 0.11787839 0.16358797 0.041113466
000100 cd 0a 3e 3b ca 4c 4f 3e 4b 24 a3 3d a4 a6 44 3e
       0.0028998137 0.20244136 0.07965907 0.19204193
000110 7f 68 13 3e 1c 04 44 be e7 cb 65 bd c7 f5 57 3e
       0.14395331 -0.19142193 -0.05610266 0.2108985
000120 36 a8 36 bd 58 53 00 be 83 fe 09 be 1e 05 68 be
       -0.044594012 -0.12531793 -0.13475995 -0.22658202
000130 78 d6 2f 3e f6 2a 33 3e 11 03 05 be 71 6e 9b be
       0.17171657 0.17496857 -0.12989451 -0.30357698
000140 7b ee 81 3d b5 38 51 3c d5 6f 4d 3e 8b 02 69 3d
       0.06344315 0.012769868 0.20062192 0.05688719
000150 ba 28 c1 bc e4 d8 1c 3e e6 10 28 3e 5f a5 0d 3e
       -0.02357899 0.15317112 0.16412696 0.13832615
000160 07 1d 4d 3e 72 c5 8a be 92 03 fe 3d 5a 97 28 3e
       0.20030604 -0.27103764 0.12403025 0.16463986
000170 1c 6a 41 3e e8 f1 ef bd aa bb 8a 3d 9e f5 5f be
       0.18888134 -0.11716062 0.06774075 -0.2187104
000180 90 aa 68 3e 0e fa d7 3c 55 10 46 3e 74 86 ab 3d
       0.22721314 0.026364353 0.19342168 0.08375254
000190 0f 13 0a be cc 7a 1c 3e ed 02 35 3e c8 fb 25 be
       -0.13483833 0.15281218 0.17676897 -0.16209328
0001a0 c4 8f ca 3c d7 fd 24 be a5 75 58 be 63 77 f0 3d
       0.024726756 -0.16112457 -0.21138628 0.11741521
0001b0 57 cc 72 be 09 5a f1 3d b7 49 52 be 35 3d 80 bc
       -0.23710762 0.11784751 -0.20535932 -0.015654186
0001c0 a0 96 c0 bd 68 8e 09 3e 6a f4 82 3e c9 1f 64 be
       -0.094037294 0.1343323 0.25577098 -0.2227775
0001d0 1a f9 8e bd dd c8 17 bd 74 e3 85 be 65 c4 7d be
       -0.06981106 -0.037056793 -0.26150095 -0.2478195
0001e0 39 0b eb bd dd db 61 bd 1e 31 73 3e 25 dc bc 3d
       -0.1147675 -0.05514132 0.23749205 0.09221677
0001f0 f6 41 8a 3e f8 45 69 be ff 86 04 be b5 d4 29 3d
       0.2700345 -0.22780597 -0.12942122 0.04146262
000200 1b dd 7a be 08 56 0d 3e 57 ec 6f 3c 12 dc 89 be
       -0.24498408 0.1380235 0.01464375 -0.26925713
000210 3b 5a 87 be be 7c c1 3c 85 eb a9 3d 14 5b 0a bb
       -0.26436028 0.023619052 0.08296875 -0.0021111416
000220 bf 40 9d bd 9f 74 3b 3e 47 2b 02 3d 0d 2b 00 be
       -0.07678365 0.18306206 0.031779554 -0.12516423
000230 42 5f 6c 3e 76 b4 98 bd 09 f1 83 bd 84 f9 09 bc
       0.23083213 -0.07456295 -0.06442458 -0.008421306
000240 58 72 67 bd fa da a3 bc 49 fa f8 bd 52 03 2f 3e
       -0.05650553 -0.020001877 -0.12157113 0.1709111
000250 c2 5c 5b bb 7b 59 26 3e 9c 22 e6 3c 0e e3 61 3e
       -0.0033472036 0.16245072 0.028092675 0.2205927
000260 6c a3 4a be 3e 3c 27 3e 6c f9 f7 3d a4 88 02 3e
       -0.19788903 0.16331574 0.1210812 0.12747437
000270 bb 53 29 be 41 0e 36 3d e3 bb d5 bd 41 ef ca bd
       -0.16535847 0.044447187 -0.10436227 -0.09908915
000280 cd d8 36 bd f2 df 15 bd 93 95 eb 3d 30 68 96 3e
       -0.04464035 -0.036590524 0.115031384 0.29376364
000290 4f 2b 8b bd ad 83 8d 3e dd e3 14 3e 37 20 82 be
       -0.0679537 0.27639523 0.14540048 -0.25415203
0002a0 a6 77 60 3e c2 0f 61 be 5b 47 e9 bd 23 de da bd
       0.21920642 -0.21978667 -0.11390563 -0.106869005
0002b0 ad 65 a5 bc eb 9a 8d be 63 c5 8c be b2 79 6d be
       -0.020190084 -0.27657256 -0.27494344 -0.23190954
0002c0 42 2c 15 be 55 d7 27 bc 36 1c 41 3e 5c e5 7e be
       -0.14567664 -0.01024421 0.18858418 -0.24892181
0002d0 16 a6 01 3d 26 64 59 3e 17 1f d3 3d 4c 6d 2c 3d
       0.031652533 0.2122961 0.10308664 0.04209642
0002e0 68 29 8b be 99 74 2c 3e 50 41 73 bd bb 38 a9 3d
       -0.27180028 0.16841353 -0.05938846 0.082627736
0002f0 f3 b5 4c be ac 54 38 bd ba 06 1d 3e ed 26 3b be
       -0.19991283 -0.045002624 0.15334597 -0.18276568
000300 86 b1 6c be c0 39 94 bc 82 57 28 3e 75 70 4b be
       -0.23114595 -0.018093944 0.16439632 -0.19867118
000310 ed 41 28 3d 06 e6 db bd e4 8b 4d 3d b9 75 30 3d
       0.041078497 -0.10737233 0.05018224 0.04308102
000320 39 f7 31 3e b0 57 13 be 20 97 79 be 25 94 b7 3b
       0.17379464 -0.14388919 -0.24374056 0.005602377
000330 84 cf 25 3e 6e 99 f8 bd a9 09 b4 3d 01 e3 84 be
       0.16192442 -0.121386394 0.08790905 -0.2595444
000340 61 9e 0b 3e c8 4e 14 3e 47 0a 88 be a2 51 91 bd
       0.13634636 0.14483178 -0.2657034 -0.07095648
000350 85 0c fb 3d f5 99 03 3e d7 6f ab 3d 0a 76 53 be
       0.12258247 0.12851699 0.08370941 -0.20650497
000360 6b 9f 7a 3e ff ca 76 be f4 de 5d bb 14 3e 1b be
       0.24474876 -0.24100874 -0.0033854814 -0.151604
000370 83 ba 7a be 48 4b d9 bd 0c 8c 7b 3e ce 12 78 be
       -0.24485211 -0.10610062 0.24565142 -0.24225923
000380 79 6d 3b 3e 34 45 80 3e 11 02 1f be 93 8e b8 3d
       0.18303479 0.25052798 -0.15528132 0.09011569
000390 95 42 de bd cd 2a 89 be 09 9f 7f be 08 fa 49 bd
       -0.10852543 -0.26790467 -0.24963011 -0.049310714
0003a0 d1 15 52 be 3b 05 21 bd bf 63 1b 3e 6d 26 08 3e
       -0.20516135 -0.03931163 0.15174769 0.13295908
0003b0 76 22 90 be 93 3e c4 3d 1d 69 5c 3c 1e 2d cd 3d
       -0.28151292 0.095822476 0.013452795 0.10018371
0003c0 17 a7 37 3e 61 7d 6c be 93 1e 1d be 26 ca 10 3e
       0.17934833 -0.23094703 -0.15343694 0.14139614
0003d0 35 85 41 3d 4a 0b 8c bd 9a 09 13 be 11 20 15 3d
       0.047246177 -0.06838091 -0.14359131 0.036407534
0003e0 16 ef b0 bd 5a 1d bc 3d 09 92 06 be 95 a3 87 3e
       -0.08639352 0.09185286 -0.13141645 0.2649199
0003f0 44 6e 90 3d 88 ee 79 bd 1c dc 6e be 52 92 93 3e
       0.070522815 -0.061018497 -0.23326153 0.2882257

encoder.feature_encoder.atom_embedding_list.5.weight f4 [6, 64]
000000 65 54 3a be c6 1c ca 3d 8d 9c 80 bd f0 a4 80 3e
       -0.18196256 0.09868769 -0.0627986 0.25125837
000010 32 d3 0f bc 94 75 84 3e a2 5a 91 bd f0 b2 6f be
       -0.00877838 0.25870955 -0.07097365 -0.23408103
000020 af 3b 9c 3c aa f0 32 be 50 53 23 be 74 87 48 3e
       0.019071428 -0.17474619 -0.1594975 0.19582921
000030 38 df 8b 3e f6 96 3d be 6b 41 93 be 42 17 b7 3d
       0.2731874 -0.18514618 -0.28760847 0.08939983
000040 48 0d 78 be 88 a2 a3 bd 5a 34 04 3e a2 4f db 3d
       -0.24223816 -0.07989985 0.12910596 0.10708548
000050 02 32 3e 3d 0b 45 dc 3d 08 c7 38 be 42 8b b4 bd
       0.04643441 0.107553564 -0.18044674 -0.08815624
000060 4b 07 ac bd a8 f1 94 be 21 a6 25 be c0 64 40 3d
       -0.083998285 -0.2909062 -0.16176654 0.046971083
000070 85 93 a3 3d cd ca ff bd 31 28 4c 3e 4f 76 1e be
       0.079871215 -0.12489853 0.19937207 -0.15474819
000080 3f ab 5c 3c 8d 46 7f 3e ef 1d 38 3e c8 e7 8f 3e
       0.013468563 0.24929257 0.17980169 0.28106523
000090 83 2a 9c 3d 39 31 61 be 43 51 bf bd 11 4b af bd
       0.07625296 -0.21991433 -0.09341671 -0.0855924
0000a0 8c 51 45 be 30 53 d0 bd 8d 7e 8b be a8 d3 ce bd
       -0.19269389 -0.10172117 -0.27244988 -0.10098964
0000b0 2f ce 96 be 4f a6 91 3e 50 d4 5e 3d aa 74 91 3e
       -0.2945418 0.28447196 0.054401696 0.2840932
0000c0 ba 47 2f 3e f3 eb 94 3e 16 29 e1 bd 69 1c 04 be
       0.17117205 0.29086265 -0.10994165 -0.12901463
0000d0 77 c9 d9 bd 40 8b 89 be 0f 9f 9d bb 29 25 54 3d
       -0.106341295 -0.26864052 -0.004810221 0.05179325
0000e0 36 82 31 3e fa a8 52 bd 0a b1 ca 3d 0e 70 f8 3d
       0.17334828 -0.05143068 0.09897049 0.12130748
0000f0 28 4b a7 3d 03 55 94 3d e3 cb df bd 03 9c 29 3e
       0.08168632 0.07242777 -0.1092756 0.1656342
000100 75 59 8d be 85 bd ec 3c 19 21 27 3e fe 39 3a 3e
       -0.27607313 0.028898964 0.1632122 0.18186185
000110 8f 5c ad 3d 6b fb 2c bd 55 6a 57 3e 94 42 90 be
       0.0846492 -0.04223196 0.21036656 -0.28175795
000120 87 1c 8e bd 3c e9 f3 bd a6 00 35 3e 47 e6 81 3e
       -0.06939035 -0.1190972 0.17676029 0.25371
000130 c7 6e 87 bd 7a 42 53 3d 6a f0 40 bd 57 bd bf bd
       -0.06612926 0.05157707 -0.047104277 -0.093622856
000140 ee 8f ed 3d 88 57 ae 3d 6e f4 0d be 85 ac 89 3d
       0.11599718 0.08512789 -0.13862774 0.067223586
000150 63 55 85 3e b2 68 55 be d9 17 67 bd f4 fa 86 be
       0.26041707 -0.2084072 -0.056419227 -0.26363337
000160 b7 46 a3 bd f4 e1 86 3e 0c 9a 52 3e 3b d3 90 be
       -0.07972472 0.26344264 0.20566577 -0.28286156
000170 c8 4b 8c be 49 a1 d7 3c b1 27 09 bd c4 f3 73 3e
       -0.27401567 0.026322024 -0.03348512 0.23823458
000180 c0 99 95 bd 63 5e 73 3e 96 16 31 be 17 a8 54 bd
       -0.07304716 0.23766474 -0.17293772 -0.051918115
000190 0d 49 78 bb fe 30 14 be fd 47 8b 3c 86 1b 92 bd
       -0.0037885339 -0.14471814 0.0170021 -0.07134156
0001a0 88 11 18 be 0a b8 65 be 6a dc 30 bc 6a 14 93 3e
       -0.14850438 -0.22433487 -0.010794738 0.28726512
0001b0 08 2f f1 3d 3c b4 5a be 41 22 12 be d8 33 3d 3e
       0.117765486 -0.21357816 -0.1427088 0.18476808
0001c0 73 41 dd bd 7a 80 a0 bc 0b fe 11 be a4 86 02 3e
       -0.10803499 -0.019592512 -0.14257066 0.12746674
0001d0 7a 37 50 be c8 03 8c be 54 57 56 be bb 58 81 be
       -0.20333663 -0.27346635 -0.2093175 -0.25263008
0001e0 6a 77 42 3d 4d 00 22 3d fb f8 b4 bd 0e 8a 02 3e
       0.047477163 0.039551068 -0.08836552 0.12747976
0001f0 b8 47 cd 3c 31 de 9b 3d 3c ed 0d 3e 53 7b 51 3d
       0.025058612 0.07610739 0.13860029 0.051143
000200 67 55 95 3e 4e 05 58 3e d7 99 29 be a3 49 5b 3e
       0.2916672 0.21095774 -0.16562591 0.21414809
000210 f2 32 1a bd 09 44 73 bc ad 17 e8 3c 30 29 83 be
       -0.03764624 -0.014847764 0.028331602 -0.2561736
000220 37 09 46 3e b9 57 47 3e 90 74 92 3e 66 2b 4f 3d
       0.19339453 0.19467057 0.28604555 0.050578497
000230 de aa a3 bd ea 56 50 bd 4c 6a b8 bd ff 8c 87 be
       -0.07991575 -0.050864138 -0.090046495 -0.2647476
000240 33 ce cb 3d 3b 43 25 3d 42 f2 b8 bd c6 c9 2e be
       0.09951439 0.04034732 -0.09030582 -0.17069158
000250 ff 40 76 bd 07 ca a5 3d 7c 79 63 3e 98 84 f4 3d
       -0.06012058 0.08095174 0.22214311 0.11939353
000260 5c 01 62 3e 35 dd 76 3e 9d eb 17 be ab a8 c7 bb
       0.22070831 0.24107821 -0.14835973 -0.006093105
000270 f8 42 7a be 5b 7b 27 be cc 12 e8 3d f4 38 ed 3d
       -0.24439609 -0.1635565 0.1133171 0.115831286
000280 fb 0f 07 3e 37 ab 80 3e df 2c fe 3d 5e e2 12 be
       0.1318969 0.25130627 0.12410902 -0.14344165
000290 04 bf 77 bd 84 67 cb 3c 02 f6 1c 3e e2 3e 1a be
       -0.0604849 0.024829634 0.1532822 -0.1506305
0002a0 23 b5 fa bd 68 6d da 3d 4b 02 ca 3d 43 2d 8d 3e
       -0.1224158 0.10665399 0.098637186 0.27573594
0002b0 93 3e 77 3e 6b d9 0e be 99 cd c5 3d 82 07 3b be
       0.24144964 -0.13950126 0.09658355 -0.18264583
0002c0 a9 84 22 bb 87 36 dc bc 14 b7 7b 3d 1d 3d 80 3e
       -0.002479831 -0.02688147 0.061453894 0.25046626
0002d0 bd 8b 6a be 4d 2c 88 3e c4 21 51 3e 2d 13 11 be
       -0.22904868 0.265963 0.20423037 -0.14167471
0002e0 39 9c 89 bd 52 2d 7e bd a4 30 41 3e 73 07 a6 bd
       -0.0671925 -0.06205494 0.18866211 -0.081068896
0002f0 22 ce d2 3d a5 82 ed bd 1f 9a 6f 3e 1e 92 40 bd
       0.10293223 -0.11597184 0.23398636 -0.04701435
000300 48 4e 8f 3e 51 2e 5f be 9b 06 b3 bd f4 c3 41 3e
       0.2798941 -0.21795012 -0.08741494 0.18922406
000310 8f 69 c7 3d 40 cd 17 be 7c 7d 75 be d9 56 62 be
       0.097369306 -0.1482439 -0.2397365 -0.22103442
000320 37 81 7a be 81 ad 25 be bb a6 35 be 7a 0c ad bd
       -0.24463354 -0.16179468 -0.17739384 -0.08449645
000330 68 e1 81 3e f8 25 9f bd 56 4d 39 be cb 91 12 3e
       0.25367284 -0.07770914 -0.18095908 0.14313428
000340 55 73 30 be 12 0b 16 be 82 29 46 bd f3 9a 13 bd
       -0.17231496 -0.1465266 -0.04837943 -0.036036443
000350 c8 e0 38 be ef 6c 6e be 15 52 92 be a3 4f fe bd
       -0.18054497 -0.23283742 -0.2857825 -0.12417533
000360 88 e5 17 3e a1 67 c0 3c 73 fb 6e 3e 70 fc 4f 3d
       0.14833653 0.023486914 0.23338108 0.050777853
000370 1d e9 60 be de ef e1 3c ea a0 99 bd d8 c0 29 3e
       -0.21963926 0.027580198 -0.07501395 0.1657747
000380 14 23 a3 3d 9f 63 94 3e a2 65 86 be 21 b0 0e be
       0.07965675 0.28982255 -0.26249415 -0.13934375
000390 f6 76 7e be 1b 67 d5 3c 38 1a 3f be 1d f9 f8 bd
       -0.24850067 0.026050141 -0.18662345 -0.121568896
0003a0 f5 16 8f 3e 4a e3 c8 bd a5 80 13 3e c6 bf 40 3e
       0.27947202 -0.09808977 0.14404543 0.18823156
0003b0 2c 6d 59 3e 1a 3d 75 3e ef ee 38 3e c3 ab ed 3c
       0.21233052 0.2394909 0.18059896 0.029012566
0003c0 d4 f3 7c 3e 1c 10 91 3e da cd 4e be 4b 6c 7a 3d
       0.24702388 0.28332603 -0.20195714 0.061138432
0003d0 3a 46 4e 3e 84 ae 4a be 21 51 eb 3d 30 2f 3b 3e
       0.20143977 -0.19793135 0.114900835 0.1827972
0003e0 8c ab 15 3c 83 56 ad bd be 59 c6 bc c6 64 82 3e
       0.009135138 -0.084637664 -0.024212714 0.2546751
0003f0 9d 5f 6d be 66 e2 ed 3d aa 47 22 be e9 50 4a 3e
       -0.23181005 0.11615448 -0.1584765 0.19757427

encoder.feature_encoder.atom_embedding_list.6.weight f4 [6, 64]
000000 24 58 34 bc 63 2e 91 3e 61 9e fe bd 52 ab 80 3e
       -0.0110073425 0.28355703 -0.12432552 0.25130707
000010 3c 92 c2 3d 8b df 44 3e 40 f2 5e 3b 6e 45 2f 3e
       0.09500548 0.192259 0.0034018904 0.17116329
000020 d3 6b 18 3c 98 17 cb 3b 9a 8b 69 bd 6d da 93 3d
       0.009303051 0.006197881 -0.0570179 0.07219396
000030 71 7c 91 3e af ac 68 3e d5 3e 25 be 43 8b 05 be
       0.28415254 0.22722124 -0.1613725 -0.13041405
000040 ef 31 2d 3e ce 65 c5 bd b3 fc 8f bd 25 1a 92 3d
       0.1691358 -0.09638558 -0.070306204 0.07133893
000050 7d 02 1d be 67 e6 62 be e6 d8 5d 3e 38 ad 87 be
       -0.1533298 -0.22158204 0.21664771 -0.26499343
000060 08 4d 3f be ce b9 da 3d 1a 3f e2 ba 36 d1 2f 3e
       -0.18681729 0.10679971 -0.0017261237 0.17169651
000070 15 66 66 bd a2 9c 35 3c b2 b3 d6 bc 4c 15 d3 3d
       -0.056249697 0.011084707 -0.026208732 0.103067964
000080 bf a7 a8 3d 83 60 ab bc 3d 70 38 3e 77 a8 40 be
       0.0823512 -0.020920044 0.18011566 -0.18814264
000090 b7 30 9d bd 66 85 21 3c 1b 00 05 3e 14 ff cb bd
       -0.07675307 0.009858465 0.12988321 -0.09960762
0000a0 50 92 d6 3c 5b 37 83 be b0 1c 12 3e dd 23 48 3e
       0.026192814 -0.2562817 0.14268756 0.19544931
0000b0 5e 76 72 be 4b ee 67 be 6f 19 91 3c 8e 66 81 3e
       -0.23677966 -0.22649495 0.017712323 0.25273556
0000c0 ff a5 cf 3d 39 49 56 3e 94 61 76 be 32 fa 52 3e
       0.10139083 0.2092637 -0.2406066 0.20603254
0000d0 6c e2 8b 3e 5c fa 6f be 32 0c 77 3d 57 fb 67 bd
       0.27321184 -0.23435348 0.060314365 -0.05663618
0000e0 43 6d 9b 3e 94 d4 13 be b2 69 95 be be b1 60 be
       0.30356798 -0.14436561 -0.29182202 -0.21942803
0000f0 c1 31 5d 3e 4b de a6 3d fa 91 8f be 21 dd 70 be
       0.21601011 0.08147868 -0.2804106 -0.23521854
000100 63 84 19 3e 5f 4c 10 be 21 71 4d be 5a c3 f2 bd
       0.14991908 -0.14091633 -0.20062687 -0.118536666
000110 01 b7 d3 bd c4 43 2a be 8c 5e e0 bd 5c 92 16 3d
       -0.103376396 -0.16627413 -0.109555334 0.036760673
000120 80 d9 7f 3d 7e ef 74 3e cc 80 8d be b0 e6 92 bd
       0.062463284 0.23919484 -0.27637327 -0.071729064
000130 9a d9 a6 bd 4a 6d 26 be 4c da c7 3d a7 fd 17 be
       -0.08146973 -0.16252628 0.09758434 -0.14842854
000140 fd 69 d0 bd 09 46 66 be f2 f8 c4 bd 01 8c 9d 3c
       -0.10176466 -0.22487654 -0.09617795 0.019231798
000150 db 94 27 be 24 aa 9a bd ef 17 3b be b3 96 22 3d
       -0.16365378 -0.07551983 -0.18270849 0.0396945
000160 c7 2b cf 3d 20 4b 3b be 39 96 ee bd 0d 58 37 bd
       0.10115772 -0.18290377 -0.116497464 -0.044761706
000170 e3 2b 1e be e4 51 04 be a0 39 07 3e 02 15 8c bc
       -0.15446429 -0.12921864 0.13205576 -0.017099861
000180 c0 4e e2 3d f5 dc 92 3b 5e dd 38 3c 44 00 69 be
       0.110501766 0.0044819065 0.011283247 -0.22754008
000190 ed 9f e8 3c 89 c1 8b 3e 5a fc 90 3e 73 0e 49 3e
       0.028396571 0.27296093 0.2831753 0.19634418
0001a0 2a dd ce bd f8 b7 85 3c c4 22 83 3e f4 5b 25 bd
       -0.101007774 0.016323075 0.25612462 -0.040370896
0001b0 35 9e 85 3d f0 32 d9 3c d7 2e 4f 3e f0 53 11 be
       0.06524316 0.026513547 0.20232712 -0.14192176
0001c0 f7 76 76 3d 9f 10 83 be 90 02 ac bd 31 92 0e 3e
       0.060172047 -0.25598618 -0.08398926 0.13922955
0001d0 ef 18 52 3d 31 ce 8c 3e 0c cf 49 be cd b6 0e 3e
       0.05129331 0.27501062 -0.19707888 0.1393692
0001e0 3d b3 bd bb d8 89 8b 3e 48 77 81 3e f8 57 84 3e
       -0.005789189 0.27253604 0.25286317 0.25848365
0001f0 87 1f 44 be 26 df 93 3e 94 ad 41 be ee d7 f7 bd
       -0.19152652 0.28881186 -0.18913871 -0.12101732
000200 29 8f 32 3e f5 93 75 3b 13 44 11 3e d8 61 7e 3e
       0.17437424 0.0037472222 0.14186125 0.24842012
000210 08 56 00 bd 8d 32 ae 3d 6b 9a 9f 3c 73 b9 4e 3e
       -0.031332046 0.085057355 0.019482812 0.20187931
000220 fb 4d 19 3e 3e e1 84 3c 43 6d 5c be 88 d2 a9 3d
       0.14971153 0.016220685 -0.21526055 0.08292109
000230 76 b4 3b 3e 1e f9 06 3d c2 12 15 3e cb d3 a9 3d
       0.18330559 0.03295242 0.14557937 0.082923494
000240 e7 e2 0b be 97 18 16 be e3 4b 76 bd 87 79 80 be
       -0.13660775 -0.14657818 -0.060130965 -0.25092718
000250 86 ff f2 bb a5 72 9a bd 64 84 7c be 3c d0 8a 3d
       -0.0074157147 -0.07541398 -0.24659878 0.06777999
000260 56 52 9b 3d 9e c5 f9 3d 11 60 8f bc 0c 62 cd bd
       0.07584064 0.121958956 -0.017501863 -0.100284666
000270 1b 37 32 bd 24 88 68 be 5a da 53 3b 65 b8 19 3e
       -0.043509584 -0.22708184 0.0032326193 0.15011747
000280 53 bb f4 3b ac 5f cf 3c 32 fa 7d 3e e9 ba 7c 3e
       0.00746862 0.025314175 0.24802473 0.24680676
000290 b5 51 81 3e fe d3 62 3e b9 05 24 3e 0a 9e b7 bb
       0.2525765 0.22151181 0.16017808 -0.0056035565
0002a0 99 da 8b be 1f b7 b3 3c 0c 9c 38 3e 8d 09 37 3c
       -0.27315214 0.021937905 0.18028277 0.011171711
0002b0 b5 96 22 3e cb 3b 65 be 5e 74 92 bc 8c f1 93 3e
       0.15877803 -0.2238609 -0.017877754 0.28895223
0002c0 07 2e 88 be 08 b8 18 bd 24 5a 06 3e 8d fb 8e be
       -0.26597616 -0.03728488 0.13120323 -0.27926293
0002d0 cd 0e e9 bd ec 4c 07 be 13 b7 55 3e d8 12 3b bd
       -0.11379776 -0.13212937 0.20870619 -0.045672268
0002e0 dc d2 40 3c d5 81 76 3e 7b 9c a0 3d 29 1f d5 bd
       0.011769023 0.24072964 0.07842346 -0.10406334
0002f0 33 92 2a 3e ac 6d ea bd 1e 92 85 3e 52 05 b9 bd
       0.16657333 -0.114466995 0.2608804 -0.09034218
000300 3e a5 87 3e e5 c6 af bd 53 40 1a 3e af 64 83 3e
       0.26493257 -0.08582858 0.150636 0.25662753
000310 d5 3c cb bd 1f ea 1a bd 50 b3 1e be 6c 6c 21 3e
       -0.09923712 -0.03782093 -0.1549809 0.15764016
000320 0c c8 b7 bd 04 8b 5c 3e 61 ad 3a be 8a c1 c7 bd
       -0.08973703 0.21537405 -0.18230201 -0.097537115
000330 c5 a7 8e bd 52 d7 7a 3e 88 9a 21 3e 6c bd 1d bc
       -0.06965593 0.244962 0.15781605 -0.009627681
000340 8a 27 19 3e 70 34 88 be 54 1c 0a bd 9f d3 85 3e
       0.14956489 -0.26602507 -0.033718422 0.26138017
000350 5c 65 8a bd b9 8b 26 be f1 55 0f be 79 e8 6d 3e
       -0.06757614 -0.16264237 -0.13997628 0.23233213
000360 b3 80 3f 3d 93 cd 9d 3d 2b ae 09 be f0 94 12 3e
       0.046753597 0.07705226 -0.13445346 0.14314628
000370 c8 b4 9d bc 14 c3 95 3e 68 78 39 3e 59 c3 81 be
       -0.019251242 0.29250395 0.18112338 -0.2534435
000380 91 6e 7f 3e 58 c0 48 be 3f d8 e1 bd 7d ae 16 3d
       0.24944521 -0.19604623 -0.11027574 0.0367875
000390 90 b7 6f be 61 d8 6c bc f7 11 28 be a0 66 9a bd
       -0.23409867 -0.014455886 -0.16413103 -0.075391054
0003a0 0b 81 0d bc 50 7e 48 bd 13 7c d7 3d ed 53 a6 bd
       -0.008636723 -0.048948586 0.10521712 -0.08121476
0003b0 3f 7f 1f 3d 67 31 c8 bc ef e5 f7 bd ff 3f 7c be
       0.03893971 -0.02443762 -0.12104403 -0.24633788
0003c0 b4 5e 20 3e ad 0c 81 be c6 12 3b 3d 93 d8 3e 3e
       0.15661126 -0.25204983 0.0456722 0.18637304
0003d0 25 29 86 3e 1a 03 24 be f2 71 7b 3e 98 b7 21 be
       0.26203266 -0.16016808 0.24555185 -0.15792692
0003e0 fc 73 2d be ad 2c 3f 3d da 6f 03 be 1e 81 44 be
       -0.16938776 0.046673466 -0.12835637 -0.1918988
0003f0 c7 54 a4 3d 4f dc 76 3e 72 87 36 3e 32 88 aa 3d
       0.080239825 0.24107479 0.17825106 0.083267584
