checkpoints/tuning_multi/trial_45/final_model.pt (torch, 520443 bytes, 104 tensors)

encoder.feature_encoder.atom_embedding_list.0.weight f4 [119, 64]
00000000: a0f0 02be 1e0c c5bd a68a 9f3d e6c0 50be
00000010: 2e7a 8a3e 3839 eabd 0734 dbbe efde 4b3e
00000020: fbcc 68bd bf09 fdbd 09df e3be 173e debe
00000030: 08f2 e03c 5db2 d83d 3e8d dc3e 8079 85be
00000040: e7d1 c5be f979 103d add8 f9bc 4079 733d
00000050: b815 63bd 7cc5 96bd 8081 33be 1576 423d
00000060: f8da 0a3f 2d2a 00be 10f6 7f3e 25eb 53be
00000070: a691 abbe 908e 943e 96fa 21be cf9d c43e
00000080: 17dd 763a bd1c 253f f185 933e 7ff9 3b3e
00000090: c70f 013d 5f64 efbd 922f 4e3d 01be 8f3f
000000a0: 1c77 55bd 3b40 e43d abd1 34be bbab 443e
000000b0: 94aa 03be 61eb 25be 77e2 6cbe bfac 93be
000000c0: d963 05bd 9b60 cfbc 2b0b 0bbf a1a0 c9be
000000d0: b2fd d0bd db45 753e 0e31 8b3c ebd3 b83c
000000e0: d628 ec3d 5977 4cbc 156a a0bd 2c9e 133e
000000f0: ce99 2abe dfa8 8dbe 6bba 18be 4b63 3abe
00000100: 1187 f0be c572 ecbe 69d8 8fbe 248c cb3e
00000110: 8d40 143f 525f 123f 1dd4 073d 0396 afbd
00000120: d835 183f a369 58be 872d 1e3e 819b d53c
00000130: 7e3d b13d ac8f 9bbe 7a79 3c3e 53c9 fbbc
00000140: c202 583f ce73 8bbd f73b b53e 1621 bcbd
00000150: 17d2 1e3f 6d3f c6bd c2c9 f73c af5f 373c
00000160: d05f 34be df75 89be 2253 eebe 4eba c5bd
00000170: c1c1 11be 1a3a d33d 2cc4 e1bc 4baf 613d
00000180: 3de9 60be 47f7 06bd 6ca7 4cbe fba4 98bc
00000190: e278 bdbe ae24 b33e 955f 883e d1af d7bd
000001a0: e2ad b6bd df0c b7bb 1421 a4bd 297d b73e
000001b0: 285c 1ebe 3e96 16bd a585 b0be f87a 4f3e
000001c0: cffc eb3d dd58 5b3f 997a 153e f33d e23e
000001d0: 8710 b3bc b1b8 e9bd 4efd a93d 470d 8cbe
000001e0: 431b dd3e 98a7 2e3d 6fe9 203e 389f a33e
000001f0: a08f e8bd ba8f ba3e 37ce 293e d967 71be
00000200: a9f5 03be 3bd3 10bf 9e0a 2e3e e2d4 803e
00000210: 6df1 97be accb 12bf ac5d 16bf 5f0d 26bd
00000220: c2f1 a13e f47f 843d 9cb6 4e3e ac38 293e
00000230: 1cbd 14be abbf bb3e e49f fa3e c23a 9dbe
00000240: 8104 343d 7327 3e3d b117 c2be 5b47 fcbd
00000250: db26 febe 0f27 05be 8c3d c3bc 3f41 b7be
00000260: 83bb 10bf d6e3 743e a976 db3d fea3 6a3e
00000270: 08a6 723e 25ca 54be 5e5a 8f3c a79e 0bbf
00000280: 554d 65be afb9 fabe 9648 d3be a780 20bd
00000290: 659b 123f 9550 493d 5709 55be 78ad 21bf
000002a0: f3ff e0bc 4b37 1e3e 7356 893d ea8d f4bd
000002b0: d0aa afbd 4b86 56be 04ec 6b3e 9f91 dd3e
000002c0: 4ab0 f9bc 1bb3 cd3e dcff da3e 35a4 54bd
000002d0: f67e 88bd 7d36 0a3e d87c 17be c007 34bc
000002e0: 5e09 c03d 9295 853e e6c3 3cbe a409 03bf
000002f0: df43 b5bd 4aa9 a13e a136 3f3e cd07 8e3c
00000300: 497d 0dbe 9134 0a3e 85bb 173e b0c0 00be
00000310: c9ce 203d 0ef9 bebd d477 2d3e 2a5b e23d
00000320: ce68 933d 7222 17be 565d b6bd fed4 1bbd
00000330: 8cbc 25be 7aaf d8bd 3d3b 433d f0e7 16be
00000340: 264c 453d 318e 87bb 8544 74bc 329b 58bd
00000350: 8b42 c7bd 4051 2dbe a14f fcbd b0fe 0b3e
00000360: 1adc 5bbc 3383 343e 515d 1c3c e5cd aebc
00000370: b659 de3d ec86 2ebe 16d0 e5bd 6cb0 d43d
00000380: ef63 41bd 4aa8 123e 7b69 87bc 7f31 043e
00000390: 520b 103c e501 9a3c 7f92 1cbe 451e 80bd
000003a0: f1b5 143c 3466 a93d 8dde 0f3d b4fd 20bd
000003b0: 5c32 a03a 395a 1f3e 2b55 f73d a708 7d3d
000003c0: a296 05be 8157 79bd f1b7 ec3d ebde 263e
000003d0: 5a46 afbd 2d88 9d3d 7fa1 2dbd bb34 eb3d
000003e0: dcd8 debc 205a 13be 527f 37be 3245 debb
000003f0: 499c 5a3d 4091 dabd 0ed8 113e 42dc af3d
-0.12787104 -0.09621452 0.07790117 -0.20386085 0.2704634 -0.11436695 -0.4281313 0.19909261
-0.05683611 -0.123553745 -0.445061 -0.43406746 0.02745916 0.10580895 0.4307651 -0.2606926
-0.38636705 0.035272572 -0.030498827 0.059441805 -0.055440634 -0.07361886 -0.17529869 0.047475893
0.5424037 -0.12516089 0.24996209 -0.2069517 -0.33509558 0.29015017 -0.15818247 0.38401648
0.00094171 0.64496976 0.28813127 0.18356894 0.031509187 -0.11689066 0.050338335 1.122986
-0.052115545 0.111450635 -0.17658107 0.19206135 -0.12858039 -0.16203071 -0.23133264 -0.28842732
-0.032565925 -0.02531462 -0.54313916 -0.39380363 -0.102046385 0.23952429 0.016991165 0.022561988
0.11531226 -0.012479627 -0.078327335 0.14415807 -0.16660234 -0.276679 -0.14914863 -0.1820194
-0.46978047 -0.46181312 -0.28094795 0.39755356 0.57910997 0.571767 0.03316127 -0.08573534
0.5945716 -0.21134047 0.15447055 0.026075127 0.08654307 -0.3038305 0.18405715 -0.030735647
0.8437921 -0.06809197 0.35397312 -0.09185998 0.6203932 -0.09680066 0.030247573 0.011192246
-0.17614675 -0.2684774 -0.465478 -0.096546754 -0.14234067 0.10313816 -0.027559362 0.055098813
-0.21963973 -0.032950666 -0.19985741 -0.018633356 -0.3700629 0.34988922 0.26635423 -0.10531581
-0.08919884 -0.005586251 -0.08014122 0.35837677 -0.15464842 -0.036764376 -0.34476963 0.20261753
0.11522829 0.8568247 0.14597549 0.44187889 -0.021858467 -0.1141218 0.08300267 -0.2735388
0.43184862 0.0426403 0.15714048 0.31957412 -0.11355519 0.3643778 0.16582571 -0.23574771
-0.1288668 -0.5657231 0.16996238 0.25162417 -0.2967638 -0.5734203 -0.5873668 -0.040540095
0.3162976 0.064697176 0.20186847 0.16525525 -0.14525265 0.3666967 0.48950112 -0.3070889
0.043949608 0.04642434 -0.379087 -0.123182975 -0.4963902 -0.13003181 -0.023833059 -0.35791966
-0.5653612 0.23915038 0.10715992 0.2291412 0.23696148 -0.20780237 0.017499145 -0.5453896
-0.22392781 -0.4896979 -0.41266316 -0.039185192 0.57268363 0.049149115 -0.20804344 -0.6315532
-0.027465796 0.1545078 0.06705942 -0.119411305 -0.08577502 -0.20949666 0.23039252 0.43275163
-0.030479569 0.4017571 0.4277333 -0.051914413 -0.06664841 0.13497348 -0.14793718 -0.010988176
0.09376787 0.26090676 -0.18434104 -0.51186585 -0.08850836 0.3157447 0.18673183 0.017337704
-0.13817324 0.13496615 0.14817627 -0.12573504 0.039259706 -0.09324847 0.16940242 0.110525444
0.07197724 -0.14759234 -0.08904521 -0.038044922 -0.16185206 -0.105803445 0.047663916 -0.14736915
0.048168324 -0.0041368236 -0.014908914 -0.05288238 -0.09729489 -0.16925526 -0.123198755 0.13671374
-0.0134191755 0.17628174 0.009543733 -0.021338413 0.10856955 -0.17043656 -0.1122133 0.10385212
-0.047214445 0.1432201 -0.01652979 0.12909506 0.0087917615 0.018799732 -0.15290259 -0.062557735
0.009076581 0.08271447 0.03512435 -0.03930445 0.001222204 0.15561761 0.120767914 0.06177583
-0.13045743 -0.060874466 0.115585215 0.16295974 -0.0855834 0.07691989 -0.042390343 0.11484667
-0.027203016 -0.14389849 -0.17919663 -0.006783151 0.0533717 -0.106722355 0.14242575 0.08586933

encoder.feature_encoder.atom_embedding_list.1.weight f4 [5, 64]
00000000: 3fd4 3c3c cc7a 84bd 7a16 d1bd a25f 233c
00000010: ba48 d73d fbbb c93e a6e0 633e d3a9 0c3e
00000020: fabf a73c 4c1f e63d 82e7 303e 2ef6 ce3c
00000030: 70f3 33be 6275 e83d 43ff c13d db60 00be
00000040: 84f0 463d 3bcd 6cbe 5d35 ff3d 982c 2bbe
00000050: b55e fcbb 56dd a6be e307 9ebd 51eb 14be
00000060: 558a 883d 1e62 813c 195f 8c3e e4f5 05be
00000070: 9342 07bd 76cc c33e 57ec 89be c513 3c3e
00000080: 48a3 c23d b555 af3d 95fa 693e c564 a7be
00000090: 243c b7bd 6de4 86be c5a8 cabd 2e01 76bd
000000a0: e291 0a3e c7f9 a2be a2cd 86be ded8 e93d
000000b0: 105b b83e 2ada dc3c 9064 f53d e57a d53e
000000c0: f32f 34bd 5c18 e63e 7c02 92bd e044 80be
000000d0: a85e e5bd 5bbf fa3d 3645 fe3d 1c3b 403c
000000e0: 53c9 f4bc 17c1 113e 59fa 3fbe e2a3 6f3c
000000f0: 10b5 80be c8ac e93d 16f3 463d 1874 ce3d
00000100: 9430 73be a20d 0cbf 812c ad3e 95a5 58be
00000110: 1d5d 1b3d dc43 b63e e162 33be ac2f acbe
00000120: 8600 673e 2ed0 91be f05c eb3d 73d1 8bbe
00000130: 71cd 5ebd aaa7 ebbd 349c 79be 42cf adbe
00000140: 70a0 c53e 25fa 183e 2d37 2a3e 0f67 8d37
00000150: 208c a93e 27b6 aebe c1af 34be 847d d03c
00000160: a5c9 1b3d 74d8 e9be 459b 13bd 0278 19be
00000170: eedb 66be ee1f 97be 5576 96be 7e76 493a
00000180: 1ea8 5dbe 9732 173f 0f6f f9bd f3b0 803e
00000190: a115 27bd 8c5c a2be 7a12 0abf 7554 443f
000001a0: 2074 80bd c005 d2bd 1a53 e8be f879 743d
000001b0: bf33 b3be 5a25 41be 32bc 83be 15e8 d1be
000001c0: 950d 843e 4dba 56be 9466 53be eaea 843c
000001d0: 8407 bdbd 625c 7fbe 3567 cebe f9e3 a6be
000001e0: 2dc2 d5be 154d 873e f4d4 35be 0377 b53e
000001f0: 2b16 83be c105 05be f13e a03d 2eab bebe
00000200: 61f0 c6bb db41 143d b029 073c ea67 643e
00000210: b3ec 2cbe b6b2 083e 3a04 8b3e 33da 58be
00000220: 5679 6cbe e512 cc3d 3d5a d6bd 0ae2 d9bb
00000230: 10cd 8cbe e868 383e 2074 9fbc 797a 943c
00000240: 51e4 d1bd 1c9c d13d 216c 9ebb 45a6 f0bd
00000250: 76fb 953d 4f33 e0bd 5117 e03d 8991 90be
00000260: 7fa3 e9bd c0db 4ebe 996e 003e 1401 54be
00000270: afec 693e ca02 933d 1307 393e c9ef 44be
00000280: 8541 75be 0f2c 46bd cee0 25be 8d85 ccbd
00000290: f82c 783e ff5a 213e 8765 b2bd 2253 373e
000002a0: 9138 4abe d16d 2fbe b7b6 053e ff53 023e
000002b0: 8a94 aebd 4a06 4ebe f2bf 3c3d 659c 913e
000002c0: 108f 943e ffb0 773e 9967 62be cc20 483e
000002d0: 8b27 5d3d 9a0d 75be 011d 9b3c 86c4 91be
000002e0: 2a9c 813d b000 26be fe21 4bbe d70c 6b3c
000002f0: 53a0 4b3e 0b73 293e e0d3 3abe 08b8 2b3e
00000300: c2aa e03d c08a 49be 21bc 9bbd 58af 90bd
00000310: 2764 75be c5ba 89be 7a03 4dbe 7237 893e
00000320: 366d a0bd d7d8 e73c 77b5 7abe 46b9 4fbd
00000330: 1621 e43d 55c6 c3bb 41cc bdbc 75ac 80bb
00000340: 01ff 4a3e ffae 54be fc8b 87be 1c63 91be
00000350: 4087 f53d ee2a 28be cc07 04be 64b8 1fbd
00000360: 76fc 303e 38ed 273b 5a62 6c3d f199 a9bd
00000370: 104d 243e a09a 16be d3b8 683e a284 783e
00000380: 17c7 87be 0830 bfbd 3982 11bd ad8f 22be
00000390: 76ab 813c 582e c6bd 17f3 793e a613 bfbc
000003a0: a0c1 28be bee7 15be 2d11 8dbe 898c 39be
000003b0: aa77 6a3d 3a63 b63d 571b 02be 1c97 443b
000003c0: 0f79 173e b39e 1f3d c408 083d 830d 46be
000003d0: 09e9 8d3e 5e41 b2bd be3e c73c 4db5 14bd
000003e0: f425 033e 7413 7abe 8966 893d a658 6abe
000003f0: f14d 6e3e ba02 eebd 8a88 763d 72d3 9f3c
0.011525213 -0.06468734 -0.10209365 0.009971531 0.10511918 0.3940123 0.22253665 0.13736658
0.020477284 0.11236438 0.17275813 0.025263872 -0.17573333 0.11350514 0.094725154 -0.12536947
0.048569217 -0.23125164 0.1246135 -0.1671623 -0.0077017196 -0.3259074 -0.07716348 -0.14542891
0.0666701 0.015793856 0.27416304 -0.13082081 -0.033022474 0.3824193 -0.26938125 0.18366916
0.095038 0.08561269 0.22849496 -0.3269407 -0.08947018 -0.2634615 -0.098954715 -0.06005972
0.13532212 -0.3183119 -0.2632876 0.11418317 0.36006975 0.026959497 0.119820714 0.41695324
-0.04399104 0.4494046 -0.0712938 -0.25052547 -0.11199695 0.122435294 0.12415545 0.011732843
-0.029881155 0.14233814 -0.18747844 0.014626475 -0.2513814 0.114099085 0.04857167 0.10080737
-0.23749 -0.547083 0.33823016 -0.21156915 0.037930597 0.35598648 -0.17518188 -0.3363012
0.22558793 -0.2847914 0.11492336 -0.27308235 -0.054395143 -0.11506589 -0.24375993 -0.33947188
0.38598967 0.14939173 0.1662261 1.68565e-05 0.3311472 -0.34123346 -0.1764517 0.025450476
0.0380341 -0.45672953 -0.03603675 -0.14987186 -0.22544834 -0.29516548 -0.29387155 0.0007685198
-0.21646163 0.5906157 -0.12179386 0.25135002 -0.04079211 -0.31711233 -0.53934443 0.7669137
-0.06272149 -0.10255003 -0.453759 0.05968663 -0.35000417 -0.18861905 -0.2572952 -0.40997377
0.25791612 -0.20969506 -0.20644599 0.016225297 -0.09229949 -0.24937585 -0.40313116 -0.32595804
-0.41749707 0.26425996 -0.17757016 0.3544236 -0.2560285 -0.12990476 0.07824505 -0.37239975
-0.006071136 0.036195617 0.008249685 0.22305265 -0.16887169 0.13349423 0.27151662 -0.21176986
-0.23093161 0.09964541 -0.1046643 -0.0066492604 -0.275002 0.18008769 -0.019464552 0.018124806
-0.10248626 0.102348536 -0.0048346673 -0.117504634 0.07323353 -0.10947286 0.10941947 -0.28236035
-0.114081375 -0.20201015 0.1254219 -0.20703536 0.22844194 0.07178266 0.18069105 -0.19232096
-0.23950775 -0.04838186 -0.16199037 -0.0998641 0.24235904 0.15757369 -0.08710771 0.17902806
-0.19748141 -0.17131735 0.13057981 0.12727354 -0.08524425 -0.20119587 0.04608149 0.28439632
0.29015398 0.24188612 -0.22109832 0.19543761 0.05399279 -0.2393097 0.018934729 -0.28470248
0.06328614 -0.162112 -0.19837186 0.014346323 0.19885378 0.16547792 -0.18244886 0.16769421
0.109700695 -0.19681835 -0.07604242 -0.07064694 -0.23963986 -0.26900306 -0.20020857 0.26800114
-0.0783333 0.02830164 -0.24483286 -0.0507138 0.11139123 -0.0059745708 -0.023168685 -0.0039268085
0.19823839 -0.2076988 -0.26473987 -0.28395927 0.119886875 -0.16422626 -0.128936 -0.038994208
0.17283806 0.002562357 0.057710983 -0.08281315 0.16045022 -0.14707422 0.22726755 0.24269345
-0.2651908 -0.09335333 -0.03552458 -0.1587512 0.01582883 -0.09676808 0.24409138 -0.023324799
-0.16480112 -0.14639184 -0.27552167 -0.18120016 0.057243027 0.08905645 -0.12705742 0.0029997295
0.14792274 0.038969707 0.033211485 -0.19341092 0.27716854 -0.08703874 0.02432191 -0.036305714
0.12807447 -0.24421483 0.0670901 -0.22885379 0.2327192 -0.11621614 0.060188808 0.019510005

encoder.feature_encoder.atom_embedding_list.2.weight f4 [12, 64]
00000000: 16ee ebbe dddf 60be 24b3 b5bd da00 f2bd
00000010: ae1f f33e 3649 6bbd f290 8d3d 47e1 12bd
00000020: de5d f03e a2ff 1f3e 9310 5a3d 1879 9abe
00000030: edfe 98bd dfa0 3bbe 71e6 2cbe b2fa 29be
00000040: 21f0 96be 0fe2 77be 1328 b23e c291 0cbe
00000050: 821a be3e 100e 43be 0324 09be fd93 a83e
00000060: 1d48 50be 093a dbbd 9232 ec3d 0fdd d13d
00000070: f70b 10be 4da2 f73e 48b6 1bbe 0525 d53e
00000080: 92b0 dd3d a119 d73e 3d7f 85be 1534 8f3e
00000090: c727 81be bc9a c33d 5c26 bf3e cfa4 a43d
000000a0: 7f1b 2dbe 5c00 a73d 489f 103e d277 f73e
000000b0: 52ad 9bbe 8998 723d 0f2f 66be cef2 1ebf
000000c0: f28d 803e 2a4e 003f abed 893d 3169 f73e
000000d0: 216e 56bc f039 debe 9fc1 05be 94f4 78be
000000e0: be5c 293f 2768 08be f4fd bcbc 851d 543d
000000f0: c263 573c 6c70 243e 8065 bbbd d975 3fbe
00000100: a3f4 abbe ecdb b8bd 8838 623d 7254 96be
00000110: a178 d33e 3d4a babe 51ed 3d3d c9a4 2ebf
00000120: df4d 23be 351d fcbd 7ac1 0a3e e339 13be
00000130: 95a1 ffbe 2b8f dfbb 886d 613d 3101 663e
00000140: 765d 9f3c ce60 893e 88aa 9d3e b9cc 79b9
00000150: 3cdb ae3e 5687 ad3c 54d8 2fbe 2d31 cebd
00000160: 706b 943e e427 cbbd 053f e8bd 3206 fe3c
00000170: a8d7 a1bd 0980 de3e a8df a8be 51c1 df3d
00000180: 14e4 ecbe f8d2 b53e 9260 f03d e574 4bbe
00000190: bfb8 d53c 5e45 153e a504 783e 01a0 f33e
000001a0: a245 0ebd 8983 bdbb 0074 cabe 25b8 943e
000001b0: e408 edbd 27e9 56be 2917 d73d a869 013e
000001c0: a533 e9bd ddc6 1bbe 037b cdbe e4a6 cbbe
000001d0: 20dc 48be 4254 c63d ea9a 463e 687d 9c3d
000001e0: a5c4 813e 0b1c 4b3e 387c a8bd 6153 7c3e
000001f0: d645 aa3d 518a ddbe f21c 703e 6650 86be
00000200: e157 abbe 986b dc3e 2c7c 753e 4917 a13e
00000210: 8c15 60bd 63b0 0c3f e4ea c6be 0cfa e3be
00000220: cabf cfbe e6dd 7abd e556 3bbf b222 a1bc
00000230: 4334 de3e d417 34be a577 253f 66d2 9cbe
00000240: 37e9 edbd 841f 11bf 9f53 913e 7d9c 03bd
00000250: b6fd 3b3e 4b05 433c e268 0fbe 731d a03e
00000260: 230a bd3d f7b7 70be 44f9 e8be b34c a33c
00000270: be1f 4d3d bc0f d0bd 59e6 9dbd 169e 513e
00000280: e2fe e83e f672 c83d 569d cb3e a86a 43be
00000290: 43a7 10be d11e 143f f8cc c63e 01fa 98be
000002a0: 8c61 afbd ddd1 5abe 1bae d9be 986e db3d
000002b0: 63d7 053f 9ef7 73bd b6c1 67be 2e21 21bf
000002c0: a26b 2f3d da9a cabe 3862 37be 9002 dc3d
000002d0: 1cef 0e3e 6015 25bf 80bd 7bbe 1e7a 25bf
000002e0: 30d7 e8be 1963 eebd 605a b23d 7ca7 a83e
000002f0: abd3 46be c41f 6abe 2b1a 3abf 3ee4 d93c
00000300: a45b 543e 3ed7 e9be d11f 86bc c859 90be
00000310: 8267 40bd 6fb4 173e c4ef cbbd 797f cd3d
00000320: 37d9 85bd 2c23 83be b87a 253f 4aed d2bd
00000330: 394d 00bf 7c76 9e3d 58fc b9be edf8 01be
00000340: e6c7 16be 0e39 5c3d c078 46bf 247f 923e
00000350: 9a81 063e 294e 903d 488f 56be b21b 193d
00000360: 9e33 96be 7c66 c2be 60d7 b03c b6dc 963d
00000370: 6c1e ab3e c89b 973d 0aff 3d3c 372a 2a3e
00000380: 8f24 25be e556 80be fec6 053e 05cb 90be
00000390: 53da 153e dd49 adbe a30e 86be c34b d0be
000003a0: 678f 1ebe 8e4c 78bd 71a5 923e dc39 94bd
000003b0: 41d8 40be 533a 3dbe 3048 1f3f 92c7 fc3d
000003c0: 54cc 69be f1a0 30be 60ba e73e 251c 39be
000003d0: 744c 21bd 3d33 0c3f 02d7 d6bd 2750 bf3d
000003e0: a939 833e 5f73 fe3d 36f2 9e3d adb9 043e
000003f0: 4726 973c 0b72 693d 06a1 153f 1ec1 60be
-0.46080083 -0.21960397 -0.08872059 -0.11816569 0.47485107 -0.057442866 0.06912412 -0.035859372
0.46946615 0.1562486 0.053238463 -0.30170512 -0.07470498 -0.18323086 -0.16884781 -0.16599539
-0.2948008 -0.24207328 0.347962 -0.13727477 0.371296 -0.19048333 -0.13392644 0.32925406
-0.20340009 -0.10704429 0.11533083 0.10247242 -0.14067064 0.48366013 -0.15206254 0.41629806
0.10824694 0.4201174 -0.26073638 0.27969423 -0.2522566 0.095509976 0.37333953 0.08039247
-0.1690502 0.081543654 0.14123261 0.48333603 -0.3040567 0.0592275 -0.22478889 -0.6208924
0.25108296 0.5011927 0.06734785 0.48322442 -0.01308778 -0.43403578 -0.13062142 -0.24312049
0.6615714 -0.13320981 -0.023070313 0.051785965 0.013146343 0.1605851 -0.09150219 -0.18697299
-0.3358508 -0.09026322 0.055229694 -0.29361302 0.4130297 -0.36384764 0.0463689 -0.6822019
-0.15947674 -0.12310258 0.13550368 -0.14377551 -0.49927965 -0.006822487 0.055036098 0.22461392
0.019453745 0.2683167 0.30794168 -0.00023822756 0.34151638 0.021182697 -0.17172366 -0.10067973
0.28988218 -0.09919718 -0.11340145 0.031008814 -0.07902461 0.43457058 -0.32983136 0.10925544
-0.4626776 0.3551252 0.11737169 -0.1986881 0.02608907 0.14577243 0.24220522 0.4758301
-0.034734376 -0.0057835025 -0.39541626 0.2904674 -0.115739614 -0.20987378 0.10502464 0.12637961
-0.113868035 -0.15212579 -0.40132913 -0.39775765 -0.19615221 0.0968404 0.19395033 0.07641107
0.2534534 0.19834916 -0.08226818 0.24641182 0.083141014 -0.4326959 0.23448542 -0.26233214
-0.33465484 0.43050838 0.23973149 0.31463078 -0.05470805 0.54956645 -0.38851082 -0.44526708
-0.4057601 -0.061246775 -0.73179466 -0.019669864 0.43399248 -0.17587215 0.6463569 -0.3062927
-0.11616748 -0.56688714 0.2838411 -0.03213166 0.18358502 0.011903117 -0.14004853 0.31272468
0.09230449 -0.23507677 -0.45502675 0.019934034 0.0500791 -0.10159251 -0.07709951 0.20470461
0.4550696 0.09787552 0.39768475 -0.19083655 -0.14126305 0.5785952 0.38828254 -0.29878238
-0.085635275 -0.21369119 -0.42515644 0.107144535 0.5228178 -0.059562318 -0.22632489 -0.62941253
0.042827256 -0.39571267 -0.17908561 0.10742676 0.139584 -0.6448574 -0.24584007 -0.6463946
-0.45476675 -0.11639995 0.08708644 0.3294028 -0.19416682 -0.2286368 -0.7269618 0.026598092
0.20738083 -0.4567203 -0.016372593 -0.28193498 -0.046973713 0.14814924 -0.09957841 0.10034079
-0.06535571 -0.25612772 0.6464038 -0.102991655 -0.5011783 0.07737443 -0.36325336 -0.12692614
-0.14724693 0.05376535 -0.77528 0.28612626 0.13135377 0.07046158 -0.20953095 0.037379928
-0.29336256 -0.37968814 0.021587074 0.07366316 0.33421648 0.0740276 0.011596451 0.16617666
-0.16127227 -0.25066295 0.13064191 -0.28279892 0.14634065 -0.33845416 -0.26183042 -0.40682802
-0.15484391 -0.060619883 0.28641847 -0.07237598 -0.18832494 -0.1847928 0.62219524 0.123427525
-0.22831851 -0.17248894 0.4525938 -0.18077143 -0.039379552 0.54765683 -0.10490228 0.0934146
0.2562993 0.12424349 0.07761042 0.12961455 0.01845087 0.056993525 0.5844883 -0.21948668

encoder.feature_encoder.atom_embedding_list.3.weight f4 [12, 64]
00000000: ffb0 783c 7218 57be a06b cabd d1dc d13e
00000010: 1fdb 173f 806a f63e b08c 063d a382 563d
00000020: 44e6 e53e e9b4 c73d 8f1c a13e 4ee3 26bd
00000030: 6090 00be 8412 863e 57f9 f9be 3156 02be
00000040: a38f 853e 78e0 173e ed56 d9be 7b7a b0bd
00000050: 046d f43e d6c1 85be e4d4 0a3e 30c6 603e
00000060: c768 043e 7a10 503e 2adc 7fbd 569e 47be
00000070: 820f 09bf eb4d 383f 9fd8 44bd 727f 27bd
00000080: 808a 44be 5774 b5bd ce50 b1be 93f0 3a3b
00000090: d09e cabe ee6c de3d c107 643e de27 683f
000000a0: 4137 503e ad68 a1be 46e5 29be fcc2 e53e
000000b0: 8e58 f4bd 1d4a 23be 8d61 10bf 56dc a2bc
000000c0: 1122 30be 708a a93e 850b 62bf 5205 b53e
000000d0: 1b9d 6b3c bbc6 823e f6d9 883e 4804 0abf
000000e0: 384a 333e 23f3 da3e 571d df3d 4a41 eb3e
000000f0: 94b5 78be 3f98 c73e 49f3 cf3e 656e 14bf
00000100: 65f3 d1be b975 293c 0fb5 743e e37e d8bd
00000110: b2b7 b23e f142 6b3d f58b 19bf 8d9a 203d
00000120: 42da 7e3e ff9b 23be 49ad 4fbd 1e97 cbbe
00000130: 0645 79bc faaa 6c3e 59ef 153f a9e8 17be
00000140: 4093 9d3e 341d a2be 170b b23e c94b b83e
00000150: 24b5 d13e f1a7 3f3e 1939 e8be 1b22 193e
00000160: bace edbd 14b9 01bc b4c7 013e c3d8 593d
00000170: bcde 00bd 8a51 debe fd10 5abe ee46 6f3e
00000180: 7a60 b3be 2c4b 4d3f 93da 843e 3a93 2dbe
00000190: 22e7 b7be 409c a23d ec08 90bd d748 84bd
000001a0: 5f37 c0bd e87a 23bb 52a9 ce3d 5d17 833e
000001b0: 0e33 0cbf 3f04 99be 196c a2bd bf11 1e3d
000001c0: 007d b43e f512 aa3e aaa4 84bd e111 023e
000001d0: 57e2 ed3d ef25 36bd fac4 533b c00b 6dbe
000001e0: 7b37 a93e ee11 fa3b 66a2 9abe 34e7 7a3e
000001f0: e8e4 7dbe 267e 0dbe de39 85be 6fae eebd
00000200: 61e6 72be 64ae 27be 1665 2b3e 9618 85be
00000210: e4cc 2ebe d649 923e 4a6f 5fbc 790d ed3e
00000220: 53c4 9e3b f298 593e 9f83 ccbc 680f 4dbd
00000230: c9b0 d73d f14d a3be 8e77 123f b70f 5d3e
00000240: bc77 0cbd 0636 5d3c 2398 b23e 81e0 583e
00000250: 8488 643e 1208 8bbd 2d4d aabd ec1d d0be
00000260: bb46 343f 69c8 99be 071e df3c 9fb8 6c3e
00000270: 261f a73d 922f 6b3e 59a6 70be b973 dabe
00000280: 5689 423e 1302 5c3e dd7c f5be 3bdf 77be
00000290: 45ab 8dbe 48ca 4dbe 1042 f33d 8994 153f
000002a0: 282b 42be 8ca8 2cbe 208e ffbd 547a c6be
000002b0: 7b6d 82be a3af 183e 0843 b0be 4837 46be
000002c0: fef2 51be ae62 30bf 7ae2 96be 99bf 99be
000002d0: 6860 43be 7947 6bbe 1975 6bbd 26c6 97be
000002e0: c6e0 09be e9e5 f1be 6131 ddbd fd41 603e
000002f0: f1dc 3dbe 3c64 84be 9cb4 1abf b3e2 e5bd
00000300: 9e7f 843e f98c 0b3f 4717 9bbe 8913 2a3f
00000310: 2e69 8b3e 8852 7b3b 77df 933e fdbb a23e
00000320: 018f c73d 2394 953e d8c4 cabe 12f5 a63e
00000330: 0d05 47be edef 94be 7ef8 f2be 7152 d23e
00000340: 10ef a7be 3d3a 723e 4d20 0d3d b403 cdbe
00000350: 9a3d 7a3e c942 0b3e 9f1e 953e 8e24 bbbd
00000360: 0086 fabc 16fd a03e 23ae 633e b7bb 38be
00000370: 3b85 3a3e 5f5b 583d f903 7bbe 0de6 cd3d
00000380: 1536 8fbe 4083 b3bd 434a 17bf 018d 7bbe
00000390: 6772 63bc 0b56 7bbe c360 943e d4ef 883d
000003a0: d3ce 153e 8174 6cbc 872d f7bb e2fb 8bbe
000003b0: d3f5 a4be a5b7 6f3e ef96 5c3e 18e5 0fbe
000003c0: f2f2 b0bd 002e e0bd 3f61 62be 51bc 8a3e
000003d0: 8281 d23d ae84 a4be c59d 4b3c 61d2 bf3e
000003e0: b356 06be 4161 323e 6ad9 8dbe 79dd 063f
000003f0: 9d3c 8ebe b71b 6a3e 4dfc d13d 770d 9b3c
0.015178918 -0.21005419 -0.09883809 0.40988782 0.5931873 0.48128128 0.032849014 0.05237068
0.4490224 0.09751303 0.314671 -0.04074412 -0.12555075 0.26186 -0.48823044 -0.12728192
0.2608615 0.14831722 -0.42449132 -0.08617111 0.47739422 -0.26124448 0.13557774 0.21950603
0.12930594 0.20318785 -0.062465824 -0.19493994 -0.5353929 0.71993893 -0.04805815 -0.040893026
-0.19193459 -0.08860081 -0.34631962 0.002852474 -0.3957429 0.108606204 0.22268583 0.9068583
0.20333578 -0.31525174 -0.16591367 0.44875324 -0.11930953 -0.1594624 -0.5639885 -0.019880455
-0.17200495 0.33113432 -0.8829883 0.35355622 0.014380719 0.25542244 0.2672879 -0.5391278
0.17508781 0.42763624 0.10894268 0.4594825 -0.24288017 0.38983342 0.406153 -0.5798095
-0.41006008 0.010343009 0.23897193 -0.10571077 0.34905773 0.057436887 -0.5997918 0.03920989
0.24887946 -0.15977477 -0.050702367 -0.3976373 -0.01521421 0.23112097 0.5856834 -0.14834847
0.30776405 -0.31662905 0.34774086 0.3599532 0.40958512 0.18716408 -0.45356062 0.14954416
-0.116116956 -0.007917661 0.12673837 0.053185236 -0.031462416 -0.43421584 -0.21295543 0.23366901
-0.35034543 0.8019283 0.2594801 -0.16950694 -0.35918528 0.079399586 -0.07032952 -0.064592056
-0.09385561 -0.0024945084 0.10090889 0.25603762 -0.54765403 -0.29886052 -0.07930774 0.038591143
0.35251617 0.33217588 -0.0647672 0.12702133 0.116154365 -0.04446977 0.0032313452 -0.23149014
0.3305014 0.007631532 -0.30202025 0.2450226 -0.24794352 -0.13817653 -0.26020712 -0.11654364
-0.23720695 -0.16375118 0.1673778 -0.2599532 -0.17070347 0.28571957 -0.013637373 0.4629934
0.004845181 0.2124975 -0.024965106 -0.05006352 0.10531766 -0.31895402 0.57213676 0.21588026
-0.034293875 0.01350165 0.34881696 0.21179391 0.22317702 -0.06788649 -0.08315501 -0.4064783
0.70420426 -0.30035713 0.027235998 0.23117302 0.08160238 0.22967365 -0.23500957 -0.42666414
0.18997702 0.21485166 -0.47946826 -0.2420625 -0.2766973 -0.20096695 0.11877835 0.5842977
-0.18961775 -0.1686117 -0.1247828 -0.38765204 -0.25474152 0.1491075 -0.3442614 -0.19357026
-0.2050285 -0.68900573 -0.29469663 -0.3002899 -0.19079745 -0.22976483 -0.05748472 -0.29643363
-0.1346465 -0.4724572 -0.10800434 0.21900173 -0.18541314 -0.25857723 -0.6043184 -0.1122488
0.25878614 0.5451198 -0.30291197 0.6643606 0.27228683 0.0038348753 0.28881428 0.3178405
0.09744073 0.29214582 -0.39603305 0.3260885 -0.1943552 -0.290893 -0.4745521 0.41078523
-0.32799578 0.23655029 0.034454633 -0.40041888 0.24437562 0.13599695 0.29124925 -0.09137832
-0.030581474 0.3144309 0.22234397 -0.18040358 0.18214886 0.052821513 -0.24513234 0.10053644
-0.2797095 -0.08765268 -0.5909769 -0.24565507 -0.013882256 -0.24544542 0.28980073 0.066863686
0.14629678 -0.014432074 -0.007543269 -0.2734061 -0.322188 0.23409899 0.21541952 -0.14052236
-0.08640088 -0.10946274 -0.22107409 0.270968 0.10278608 -0.32132477 0.012427752 0.37465194
-0.1311901 0.17419912 -0.27704936 0.5268169 -0.2778062 0.22862135 0.10253201 0.018927319

encoder.feature_encoder.atom_embedding_list.4.weight f4 [10, 64]
00000000: 71aa 043f de61 fe3c 5315 a93e c3b4 8b3e
00000010: 4f45 ba3c 8945 6abe 5862 e63e 5bfc 10bf
00000020: 0d3a ab3e 9faf abbe 722d 1c3e bcc8 3fbd
00000030: e85f debe d4e7 033f d4b9 cbbe d2a3 153c
00000040: d476 803d 82b0 973d f95a 613e 11ed 963e
00000050: 905f 68be a209 3abe 931d 6fbe 8abc febe
00000060: 54b6 a8be e368 723c ae93 81be a092 b8be
00000070: b8e7 6b3c 11f4 423e a71f 03bf 9558 14bf
00000080: 50d1 723d a98e 03bd 5a24 7ebe a731 5ebe
00000090: 7104 2f3f 2a3a 38be 7d9f 32bf 71d3 f4bd
000000a0: b7c1 30be 31f2 48be 0209 a33e 0fa7 cfbd
000000b0: bae8 e4bd 8aee 843d 2b24 983e 1b2e 1e3f
000000c0: 9547 093e d2fe c73e 946a bc3e 7984 d3be
000000d0: f013 80be dedf dc3d b99a e8bc c7ab d3bd
000000e0: 74e6 cb3e 5528 c93e f228 a5be 54b2 943e
000000f0: be33 493d e93c aa3e 0a7c d43e 9e73 5cbb
00000100: 3b8c d9be a528 d43e 98ff 0d3c 9aae 81bd
00000110: bec0 5e3e 229a 933e b122 d9be c9e9 293f
00000120: 1dd4 963c 2671 8ebe 9c1b ecbe f63c dcbe
00000130: d220 133f e0b9 2bbe 8539 733e 0c02 66be
00000140: 6458 5a3e a10d 2cbd 037e 123f 835e eabd
00000150: 608e b53e bcc0 f33d 1d35 183c 792e 0b3f
00000160: 9663 453f 7e4b cdbe c667 473e 7b9c a33c
00000170: 938f 00be 2421 293e e7ec 233e 17d3 903e
00000180: b884 7cbe dc42 553d 4bbe 3b3f 687c dc3e
00000190: 04b1 f4be fc36 683e e314 2d3f dfe0 843e
000001a0: 2c07 d0bc 72a1 51be 661e 28bf 132e 483e
000001b0: 2266 16bf ac2a a53c e3f6 28bf 6ba3 35bf
000001c0: 45c0 b7be 7cd4 873d 7078 54be cc78 b23d
000001d0: e470 a2bd 5a79 f2bd b809 1cbf 9972 c9be
000001e0: 9e67 8cbe fd82 ebbe be65 cc3e e710 a43d
000001f0: 587f 553e 583f 21bf 1200 e3be 447c 04be
00000200: 13a4 15be b3de 11be 7c5d 9cbe 2a16 a4be
00000210: 3205 49be 1b25 453d 73af 693e 08da b5bd
00000220: ae45 4dbd d208 513e 5bf5 e9bd bf2a bfbd
00000230: f4e5 273d 972a 51be 1fdb 353e ba1e 0dbd
00000240: c568 67bd 768b 7e3d ed37 f1be fd54 393d
00000250: 3189 603c ccd0 f83d fdba 033d 49dd 1e3e
00000260: 4aa1 babd a2f6 dc3e 4915 d23d ac13 fe3d
00000270: 5c99 a6be de59 8f3e 1667 8abd fab0 813e
00000280: 1bdc 803d dc68 90be 8354 1bbe 5ca7 3bbb
00000290: 9a0f cabe f009 d23e 2d65 eebd 8194 b2be
000002a0: 3d6c 303e a0e1 70be deb7 16be 5e53 0e3e
000002b0: 13d7 933e 0725 adbe 94ad e33d cb2d bebd
000002c0: e0f6 7abe cfa3 95bd ca05 fd3e 5c57 85be
000002d0: 839c 013d 92eb 1abe ced5 0c3e d135 a8bc
000002e0: 5f38 13be 3056 a93e 808e 3dbe 3775 103e
000002f0: 5f5c 41be 4249 983e d98a a0bd c748 24be
00000300: b3c2 9ebe 960f bfbc 61cb 103c b3ea 56be
00000310: 2d27 03bd bbcc aebe 824c e63c e61e 0f3e
00000320: 891c 333e 1d4e 13be 9961 a2be e887 293e
00000330: d816 113e 51ee 70bd 0970 0fbd 94b0 75be
00000340: e28c 6e3d 5e6e a23e 24c4 1fbe fa01 aabe
00000350: ee29 373e 6290 033e ccfc 463e c09d d5be
00000360: 813c 0e3e 13fa 06bf 19e9 123e 8134 1bbe
00000370: 1771 59be 0b21 cbbc 7bfb c73e 9e16 6abd
00000380: 96aa f43e 2f52 013f b76c b7be d48e 2f3d
00000390: fee0 75be a121 03bf ceeb bdbe 202b ed3d
000003a0: 3e0c 52be de42 8cbd a33e 7b3a 046c 52be
000003b0: 50b2 68be b782 473e e614 b8bd 1d30 0d3e
000003c0: cc4e 503e 3aa7 f0be fec2 a1be 6e0e ba3e
000003d0: a27b 413d 9056 423d 255b c6bd f9bb 4c3e
000003e0: b4e6 12bf 382d d43d 04aa f8bd 8c0b c43e
000003f0: 6a52 123d b86c a8be 5cfd a1be 75ac fc3e
0.5182257 0.031052526 0.33024082 0.27286348 0.022738127 -0.22878088 0.44996905 -0.56635064
0.33442727 -0.33532426 0.15251711 -0.046822295 -0.43432546 0.51525617 -0.39790213 0.009133296
0.06272665 0.07406713 0.2200736 0.29477742 -0.22692704 -0.18167737 -0.23351125 -0.4975322
-0.32951605 0.014795515 -0.25307983 -0.36049366 0.014398508 0.19038416 -0.5122017 -0.57947665
0.059281647 -0.032118473 -0.24818555 -0.21698628 0.6836615 -0.17990938 -0.6977461 -0.11954392
-0.17261396 -0.19623639 0.3184281 -0.10139286 -0.111772016 0.0649081 0.29715094 0.617891
0.13406213 0.390616 0.36800063 -0.41312006 -0.2501521 0.10784887 -0.02839409 -0.10335498
0.3982426 0.39288583 -0.322578 0.29042304 0.04912161 0.33249596 0.41500884 -0.003363825
-0.424898 0.4143726 0.008666895 -0.06332131 0.21753213 0.28828532 -0.4240928 0.6637235
0.01841169 -0.278207 -0.46114814 -0.4301526 0.57471955 -0.16770124 0.2375241 -0.22461718
0.21322781 -0.042005185 0.5722353 -0.11443808 0.35460186 0.119019955 0.009290007 0.54367787
0.7710508 -0.40096658 0.1947318 0.019972077 -0.12554769 0.16516548 0.1600834 0.2828605
-0.24660003 0.052065715 0.7333724 0.43063664 -0.47791302 0.22677225 0.67609996 0.25952813
-0.025394045 -0.20471743 -0.65671384 0.19548826 -0.5874959 0.02016195 -0.6600172 -0.7095248
-0.35888878 0.06632325 -0.20749068 0.087144464 -0.079316884 -0.11839552 -0.6095233 -0.39345244
-0.27422804 -0.45998374 0.39921373 0.08011036 0.20849359 -0.6298728 -0.4433599 -0.12938029
-0.1461337 -0.1424511 -0.30540073 -0.3204816 -0.19630888 0.04813109 0.22820835 -0.08879477
-0.05011528 0.20413521 -0.11423751 -0.09334325 0.040990785 -0.20426403 0.1775937 -0.03445313
-0.0564964 0.06214472 -0.4711298 0.045247067 0.013704584 0.121492 0.032160748 0.15514101
-0.09112795 0.43156916 0.10257966 0.12406096 -0.3253888 0.2799825 -0.06757943 0.25330335
0.06291982 -0.28205 -0.15168957 -0.002863369 -0.39465028 0.41023207 -0.116403915 -0.34878924
0.1722879 -0.23523569 -0.14718577 0.1389899 0.28875026 -0.33817312 0.11117092 -0.09286078
-0.24508238 -0.07306635 0.4941848 -0.26043212 0.0316434 -0.15128925 0.13753435 -0.020533474
-0.14376973 0.33073568 -0.1851139 0.14107214 -0.18882893 0.2974339 -0.07838983 -0.16043387
-0.3100792 -0.023322862 0.008837552 -0.20987968 -0.032019783 -0.34140572 0.028112654 0.1397663
0.17491354 -0.14385267 -0.31715086 0.1655575 0.1416887 -0.058821026 -0.035018954 -0.2399314
0.058239825 0.31724828 -0.15602165 -0.33204633 0.17887089 0.12848046 0.19432372 -0.41721916
0.13890268 -0.5272533 0.14346732 -0.15156747 -0.21234547 -0.02479603 0.39059052 -0.057150476
0.47786397 0.5051603 -0.3582513 0.04286082 -0.24011609 -0.5122319 -0.37093967 0.11580491
-0.20512483 -0.068486914 0.0009584224 -0.20549017 -0.22724271 0.19483458 -0.08988361 0.13787885
0.20342559 -0.47002584 -0.3159408 0.36339134 0.047237046 0.047445834 -0.09685353 0.19993581
-0.57383275 0.10360187 -0.12141803 0.3829006 0.035723127 -0.32895446 -0.3163861 0.49350324

encoder.feature_encoder.atom_embedding_list.5.weight f4 [6, 64]
00000000: d27d 24be 71e3 913d 15c4 49bd 9588 e93d
00000010: 35f8 28be 3f53 9a3e 10ee 54bc 935d 8cbe
00000020: ec4d b5bd 1178 84be e4a0 29be 65a2 cdbc
00000030: 27cd 383e 77ef 5ebe e79f 98be 2c28 9d3b
00000040: a470 0fbf 8ab1 6dbd b026 463e 6a7d ea3d
00000050: 4e1a 88bd 4041 89bb c88a 2bbe 7af6 4d3e
00000060: c68b 883d b934 e9be 0690 15be 5e83 cfbd
00000070: 4299 a43c e164 3c3e 2448 103e 35bb 2e3e
00000080: dfcc 14be c7cd b53e a4ec 513e 3534 823d
00000090: 3bbc 3d3e d957 6fbe 7792 14be 022a 833e
000000a0: 1663 b2be ad17 83be ebbe aabe f4e8 94bd
000000b0: d9ee d3bd f6ca 203e f809 2b3e c203 e63e
000000c0: 26f6 c7bd b7f0 6c3e df1f 0bbe cf0b 16bf
000000d0: b51f 86be 2d43 57be aada d33b 2fa9 883d
000000e0: f364 2e3c 065f aa3c 9756 9c3d 0faa f63d
000000f0: 729b 82bb 6007 833d f7bd 38be 9b15 2c3e
00000100: ca12 c7be 434d a3be b631 2c3d fa91 f3bd
00000110: 89ac 583f 9a16 333f 17c7 913e cbcf c8be
00000120: 3ce0 923e 43b0 a2be 3ca7 523e bbf6 313e
00000130: de9c f03c dd73 973e 5bd8 8f3e c9e1 a8bd
00000140: 4fe1 e23e 04ca 43be 0899 3c3e 694e 023d
00000150: d39d 183f 7512 e4bd 0fa5 3fbe 150e f9be
00000160: d7fd 28bd e0cf 403d e4e3 903e 478c b9be
00000170: f615 84be dd9d 293e 39df 83bd bef7 073d
00000180: 3988 ddbd f933 ff3e a243 94be 837e 093e
00000190: df70 20be 3dee 6ebe 6be7 4a3e 8460 57be
000001a0: af06 49be 7ff9 7bbe 923e 70be 7771 bf3e
000001b0: eb68 b3bc 6e72 4cbe 78e2 39bf 6cc5 41be
000001c0: de13 9e3e bd3a 283f 22fa 70be 723f 4e3f
000001d0: 2e7d 6fbe 2614 e5be 31d6 b6be b0a8 19bf
000001e0: 295a ba3e 353c 983d 9661 adbe 8465 a73e
000001f0: 8fef e03c 82e0 973e e9f2 363e f762 b0be
00000200: 356c 5cbd a314 6f3d ef9a 073d ea86 903e
00000210: 972a da3d cf2a 49be c9f9 9a3e 9d1f 83be
00000220: 3fac 0bbd 48fb 293e 70d9 7c3e 6f81 ee3d
00000230: 3e66 24bb 7b5c 0fbd 9e60 1a3e 6c83 87be
00000240: 3274 4bbc 17f3 f43b 59be 70be 33c0 2ebe
00000250: ce58 4e3e 74c0 a53d 3598 503e aca2 843e
00000260: 935d 063f a026 8b3e 8275 b2be 189f c7bb
00000270: 7a29 c5bc 1e1d adbe 3909 e83d e966 743e
00000280: 8260 7fbd 79c7 b43e 03a4 e9bb cbd8 12be
00000290: 2d11 d3be f842 613e 6da5 593f 49e0 10be
000002a0: 90ab fabd 4d78 e53d b8f8 c93d 5931 203f
000002b0: bb76 223e 296a 2dbe 4f03 c33c 19e0 4abe
000002c0: 1430 6e3d d798 98bd 1ee8 4f3d 4c87 703e
000002d0: 2a82 6abe 16de a13e 4097 0c3e 9a09 11be
000002e0: fb0f 32be bfa6 e8be 0a6f 5c3e 986e 3dbe
000002f0: 8fc4 d23d d80c 37be a280 593e b081 8d3c
00000300: b544 8f3e be24 5fbe 08fd b2bd 61ba 413e
00000310: fc5f c73d adc3 17be e973 75be 464d 62be
00000320: a477 7abe eea3 25be 289d 35be e702 adbd
00000330: d5d7 813e 651c 9fbd c343 39be 3888 123e
00000340: c269 30be 7f01 16be ef1f 46bd 6091 13bd
00000350: 35d7 38be 5c63 6ebe 8248 92be 1046 febd
00000360: f5db 173e 0e5e c03c e0f1 6e3e ddf2 4f3d
00000370: 8adf 60be 4be6 e13c 5797 99bd 45b7 293e
00000380: 8119 a33d 0c5a 943e 0f5c 86be 8ea6 0ebe
00000390: 636d 7ebe 885d d53c a510 3fbe 8aef f8bd
000003a0: 620d 8f3e b7d9 c8bd 1277 133e 33b6 403e
000003b0: 9963 593e 8733 753e 5ce5 383e 30a2 ed3c
000003c0: 41ea 7c3e 8906 913e 47c4 4ebe b862 7a3d
000003d0: a73c 4e3e f1a4 4abe 8e47 eb3d 9d25 3b3e
000003e0: f9a1 153c f04c adbd 2b50 c6bc 335b 823e
000003f0: 0a56 6dbe d3d8 ed3d 173e 22be 5647 4a3e
-0.16063622 0.07123459 -0.049259264 0.11403004 -0.16500933 0.30141637 -0.012996212 -0.2741514
-0.08852753 -0.25872853 -0.16565281 -0.02510185 0.1804701 -0.21771036 -0.29809496 0.0047960486
-0.5603125 -0.058030643 0.19350696 0.11449702 -0.06645642 -0.0041886866 -0.1675216 0.20113555
0.06667285 -0.45548037 -0.14605722 -0.10132478 0.02009261 0.18397857 0.1409002 0.17063601
-0.14531277 0.35508558 0.20500427 0.06357614 0.18528835 -0.23373355 -0.14508997 0.25617987
-0.34841222 -0.25604 -0.33348784 -0.07270995 -0.10348291 0.15702423 0.16703022 0.44924742
-0.09763746 0.231387 -0.13586377 -0.5861177 -0.26196066 -0.2102172 0.006465276 0.06672894
0.010644185 0.020797264 0.07633703 0.12044155 -0.0039858157 0.06397891 -0.18041216 0.16805117
-0.38881522 -0.31894884 0.042039596 -0.11893077 0.8463827 0.6995636 0.28472206 -0.39221033
0.28686702 -0.31775102 0.20571607 0.17379276 0.029371675 0.29580584 0.28094754 -0.0824619
0.44312522 -0.19120032 0.18417752 0.03181306 0.5961582 -0.11136333 -0.18715309 -0.48643556
-0.041257706 0.047073245 0.28298867 -0.36239836 -0.25798005 0.16564126 -0.06439061 0.03319525
-0.10816998 0.4984434 -0.2895785 0.13427167 -0.15668057 -0.23333068 0.19814841 -0.21032912
-0.19631456 -0.24606894 -0.23461369 0.37391254 -0.021900615 -0.19965526 -0.7261119 -0.18922967
0.30874532 0.6571463 -0.23532918 0.8056556 -0.23387596 -0.44741935 -0.3571029 -0.6002302
0.36396912 0.074333586 -0.33863515 0.32694638 0.02745798 0.29663473 0.178661 -0.34450504
-0.05381413 0.05836929 0.03310674 0.2822793 0.106526546 -0.19645236 0.30268696 -0.25610057
-0.034099814 0.16599762 0.24692321 0.11645781 -0.0025085355 -0.035000306 0.15075919 -0.26467454
-0.01241784 0.0074752676 -0.23510112 -0.17065506 0.20151064 0.08093348 0.20370562 0.2590536
0.5248653 0.27177906 -0.34855276 -0.0060919635 -0.02406763 -0.33811277 0.11329884 0.23867382
-0.062347896 0.35308436 -0.0071301474 -0.14340512 -0.41224042 0.21998203 0.85018045 -0.14148058
-0.12239754 0.11204586 0.098618925 0.625753 0.15865605 -0.16935028 0.023805289 -0.19812049
0.05815132 -0.07451027 0.050758474 0.23489112 -0.22901216 0.3161475 0.13729572 -0.14163819
-0.17388909 -0.45439717 0.21526733 -0.1849922 0.10291397 -0.17875993 0.21240476 0.017273754
0.27982107 -0.2179136 -0.08739668 0.18918754 0.097351044 -0.14820738 -0.23969997 -0.2209979
-0.24459702 -0.16175815 -0.17735732 -0.08447819 0.2535998 -0.07769088 -0.18092255 0.14309776
-0.17227843 -0.14649008 -0.048370298 -0.036027312 -0.18050845 -0.2328009 -0.28570944 -0.12415707
0.1483 0.023482349 0.23334455 0.05076872 -0.21960273 0.027575633 -0.07499569 0.16573818
0.07963849 0.2897495 -0.2624211 -0.13930723 -0.24846415 0.026045576 -0.18658693 -0.121550635
0.27939898 -0.09807151 0.1440089 0.18819503 0.212294 0.23945437 0.18056244 0.029008001
0.24698736 0.28325298 -0.20192061 0.0611293 0.20140325 -0.19789483 0.11488257 0.18276067
0.009132856 -0.0846194 -0.024208149 0.25460204 -0.23177353 0.116136216 -0.15843998 0.19753775

encoder.feature_encoder.atom_embedding_list.6.weight f4 [6, 64]
00000000: f682 8f3e efdd a83d 30e2 7cbe bce5 233f
00000010: bfd9 953e 29bf 5a3d 1288 70be d090 873c
00000020: 2705 1f3f fc84 993d cec3 843e 8352 493e
00000030: 537a 7a3e fe96 8a3e 4ea1 d2bd b0dd 86be
00000040: 7cb5 b73e 5582 3cbe 074e 1b3e 5b83 823d
00000050: d9c3 3dbe a728 9fbe c695 093e 2cb9 92be
00000060: a739 09bf c3ff 03bc 5b57 08be 1ae1 ec3d
00000070: f3ef 20be 74d3 653d 33a1 82bd 19ba d53d
00000080: 6efe b1bd aae1 20bd fc65 edbe 7080 a83c
00000090: a789 89be cd7a 023f cac4 bc3d fe13 10be
000000a0: 31a8 47bc 14c5 97be bee4 95be ea6a 0d3f
000000b0: bda7 0abe a8b3 e6be 0813 bb3d ae01 dabc
000000c0: fd80 cb3e 181d 7e3f 177b 25bf c3a7 663f
000000d0: ff9f 1e3e 5b42 bebd b51d 503d 4ac3 b9be
000000e0: 22b2 ee3e 9f29 c9bd 8ab1 e4be b860 32be
000000f0: c9dc 293e a718 d33e 6cb2 9cbd b648 64be
00000100: 8060 6e3e 9f28 e8be 8f01 82bd 74d6 c3be
00000110: bcb0 f6bd a524 8fbe 9675 6ebe 8303 88bd
00000120: 6e6b 9c3c 0af7 a03d 6cdc 12be 609d 40be
00000130: d12d d6be 3b5b 32bc 57e8 41be a6e8 34be
00000140: 9946 6ebe 8475 3bbe 4c8f c7be ccd0 493d
00000150: 0e5c 54be f65a 16be c1a0 67be e063 873e
00000160: dac3 c53d d729 b3be 0679 b5be 0772 29be
00000170: 5695 b3bd d6bc e33c 38cc 93bd bb0c 663d
00000180: 7e87 173e 98f3 013e 2ec4 bc3d 8281 b3be
00000190: d19b 9e3e 65d5 c7bd 7649 453e 4737 023f
000001a0: d948 38be 1219 17be c5f8 8b3e 24d6 17be
000001b0: e188 8e3e 8cbc 2bbe 1b31 c23e dc71 cc3d
000001c0: 5749 ddbc 8f17 09bf 54b8 d93d b306 6dbe
000001d0: ec7f 073d a9c6 c83e 2f7f f8bd 5fea 2d3e
000001e0: b04a 62be 5d1d d13e 7821 653e a2e6 273e
000001f0: 1d63 24be a4c4 a43e 4903 25bd 542d 4fbd
00000200: df44 86bc 6e61 a73e eecb 90bd 3f48 0b3e
00000210: 2591 e1bc 218f 093f 0c9b c13e 521f b13e
00000220: 6af3 983c abd7 843c 6373 08bf 06f3 85bd
00000230: 9e13 0d3f 71fd 633c be8b 103f b643 03bb
00000240: 668b 39be 70c0 3abe 20df 913e 7940 82be
00000250: 86a2 043e 16ad 94bd 855d 8bbe fb1f 933e
00000260: f658 fd3e dd5e fd3b 3a3b bf3e 3a6b 27bb
00000270: cfcb 63be 998f 273e e37a cf3b 97f0 1a3f
00000280: 9f93 64be 3c99 293d d126 df3e 10b5 cc3d
00000290: d626 24be 0132 e13e ba61 cc3e f662 5abe
000002a0: 54b4 a7be ccc7 d63c f2d5 08bd a635 913e
000002b0: cd85 303e b346 29be 1bc3 44be 7c54 c03e
000002c0: a5f3 c8be 3ac6 3c3e 7b51 343c 8d1f bfbe
000002d0: 3a05 e9bd 0f19 c3be 4271 953d b941 4c3d
000002e0: ec46 7e3e fbd0 5e3e 1558 c63c 7f00 5b3e
000002f0: d1a7 b63d e420 30be aa2d 1f3c b33f 5bbd
00000300: 5a5c 213f 92bb 503d 16e2 313e bd32 a03e
00000310: 3c10 f5be b8bc 833e e19b 20be 731e 3c3e
00000320: 3d9a a63d c776 863e 5e42 eebe c6d6 54bd
00000330: a878 7abe 0117 ef3d 7763 24bf 1e49 6c3d
00000340: fdf9 553e e1af 733d 613c dd3d a298 413d
00000350: 8e8c e4be 2682 26be 233b 0dbe ee0c 493d
00000360: c522 a03d 4298 7d3e 00e3 603e a728 d63d
00000370: 1238 4e3e e263 853d b79f f5bd 2f10 fabc
00000380: 53bd 913e 189b d1be e438 62be 0001 7abe
00000390: ab9d 6fbe d0d1 88be 0702 06bf e2ab 57bc
000003a0: 5db5 ddba ddef 43bd 5685 19be 8fd6 acbe
000003b0: c375 613f e20f 58be 4fad a3be f4af 2fbe
000003c0: dc80 d23c 5838 13bf 22c6 afbd de61 143e
000003d0: b927 893e e722 c3bd ea93 9c3d 1bf1 5dbd
000003e0: 4c91 8ebe c390 5f3e 76ad 67be 957b 2bbe
000003f0: be40 a63d 4afb 073f 1c6c 64be 3952 863d
0.28029603 0.082454555 -0.24695659 0.6402242 0.2926769 0.05340496 -0.23489407 0.016548544
0.62117237 0.07496068 0.25930637 0.19660382 0.24460725 0.27068323 -0.10284673 -0.2634101
0.3588065 -0.18409093 0.15166484 0.0637271 -0.18531741 -0.31085703 0.1343604 -0.286569
-0.53603595 -0.008056584 -0.13314573 0.11566372 -0.15716533 0.05610986 -0.063784026 0.10435886
-0.08691107 -0.03927771 -0.4636687 0.020569056 -0.26862833 0.5096863 0.09217222 -0.14070126
-0.012186096 -0.29642546 -0.2927608 0.5524126 -0.1354055 -0.45058942 0.09134489 -0.026612129
0.39746848 0.99263144 -0.64640945 0.90099734 0.15490721 -0.0929 0.05080958 -0.36281806
0.4662028 -0.09822392 -0.44666702 -0.17419708 0.16588129 0.41229746 -0.07651219 -0.22293362
0.23279 -0.4534349 -0.063479535 -0.38249552 -0.12045428 -0.27957645 -0.23287043 -0.06641295
0.019094195 0.07859619 -0.14341897 -0.18810034 -0.4183183 -0.010886009 -0.18936287 -0.17666873
-0.23269118 -0.18306547 -0.38976514 0.04927139 -0.20738241 -0.14683136 -0.22619916 0.26443386
0.09656496 -0.3499286 -0.35443896 -0.16547404 -0.08768718 0.027800005 -0.07216686 0.056164484
0.1479778 0.1269058 0.09217106 -0.35059744 0.30978253 -0.09757499 0.19266304 0.50865597
-0.17996539 -0.14755657 0.27338234 -0.14827782 0.27838805 -0.16771144 0.3792809 0.099826545
-0.02701251 -0.5355157 0.10630861 -0.23147087 0.03308098 0.39214066 -0.12133633 0.16983937
-0.22098804 0.40842715 0.22376049 0.16396573 -0.16053434 0.32181275 -0.040286336 -0.050580338
-0.016390262 0.3269152 -0.070701465 0.13601778 -0.02753503 0.5373402 0.37813604 0.34594208
0.018670756 0.01621612 -0.53301066 -0.06540494 0.5510806 0.013915406 0.5646323 -0.0020029373
-0.18119583 -0.18237472 0.28490543 -0.25439814 0.12952623 -0.07259576 -0.27219787 0.28735337
0.49481934 0.007732256 0.37349874 -0.002554609 -0.22245716 0.16363372 0.006331788 0.6052336
-0.22321938 0.0414059 0.43584302 0.099954724 -0.1603044 0.43983462 0.3991831 -0.21326813
-0.32754767 0.026218317 -0.03340716 0.28361243 0.17238541 -0.16530876 -0.19215052 0.37564456
-0.39248386 0.18434992 0.011005755 -0.3732876 -0.1137795 -0.38105056 0.07296993 0.049867366
0.24831742 0.21759407 0.024211923 0.21386908 0.08918727 -0.17200047 0.009715477 -0.053527545
0.6303154 0.05096013 0.17371401 0.3128871 -0.47863948 0.25729918 -0.15684463 0.1837099
0.08134887 0.26262495 -0.4653501 -0.051962636 -0.24460089 0.116743095 -0.6421427 0.057686917
0.20896144 0.059493903 0.10802532 0.047264703 -0.44638485 -0.16260585 -0.1379209 0.049084596
0.07819132 0.24765113 0.21961594 0.104569726 0.20138577 0.06513192 -0.11993354 -0.030525295
0.28464755 -0.4093864 -0.22092015 -0.24414444 -0.2339999 -0.26722574 -0.52346843 -0.013163539
-0.0016915012 -0.047836173 -0.1499227 -0.33757445 0.88070315 -0.21099809 -0.3196816 -0.17156965
0.02569621 -0.5750785 -0.08582713 0.14490458 0.26788118 -0.095281415 0.076454 -0.054185014
-0.27845228 0.21832566 -0.22624764 -0.16746362 0.08117817 0.5311781 -0.22306865 0.065586515

encoder.feature_encoder.atom_embedding_list.7.weight f4 [2, 64]
00000000: 87f2 0b3f c11f 983e 1e15 a6be 441c 12be
00000010: 587f 683d b1d2 0c3e 6560 e53e 94f1 243e
00000020: cb81 d03e 136c 79be 4e27 dc3d bae1 26bd
00000030: f8a8 a33e d687 003c cef7 343e 5eb5 b6be
00000040: f1ad 34be cb7a 8fbd 9915 683e a415 4fbe
00000050: 63e8 1f3e c85b 1abe 13bc e93d d0f6 593e
00000060: b096 35bd 5182 5fbd 5cc3 c23e d243 45be
00000070: e73b d23c 0a3a b13e 03b8 fdbd 8dda e0bd
00000080: 8cbc 393e ee9c 9dbe 32eb fcbe 0292 16be
00000090: 52fc bfbe c5c5 973e 2924 a4bc b066 37bd
000000a0: cfb3 95be 0e97 123e f3e7 eebe 841d 1abd
000000b0: 34af eabd 760b 043d 2abc 883e 34f1 2c3e
000000c0: d193 8ebe a2a5 503e 091a c93e 0e37 7c3e
000000d0: 3e7d cabe 1b2f ae3d d7dd 1fbf ae2e e6be
000000e0: d915 f6be 89f2 7d3e 53d0 0cbf 9c88 0dbf
000000f0: 9760 9dbd 0aac be3e 3f46 6cbd 1d99 de3e
00000100: c5b6 1dbf 1569 ddbe d06f 133e 8a88 a1be
00000110: dc63 363e 40b5 6abe a8fb 19be 27f9 303e
00000120: c19d e9bd ea60 85be 9335 3b3e e453 cebd
00000130: 5068 f03d b423 d53e 07f4 9dbe 6ad5 4fbd
00000140: 3ffa 563e 53a4 a13e 82d0 3b3e 7d7a d53e
00000150: a561 693e ce67 f7bd cf12 c8be cb3b 973e
00000160: b6c0 763e 976b 013c 6837 7ebd a8ee 49be
00000170: 8c28 9ebe b01b eb3e bdea f7be 0976 343e
00000180: 8aa5 bcbe 8da4 e83e 573d ef3e f7cb 413e
00000190: c6fd f63e 513f 54bc edb8 d5bd e7a3 21bd
000001a0: e2e0 53be 1aa7 0b3e 30a4 a63e bc43 313e
000001b0: fb72 dc3e 2993 b9be 28df afbd 8fc1 503c
000001c0: 819c 423d 1365 b73e bf7e d1be 6368 813e
000001d0: 9c93 5bbe ccc0 bf3d 743d b13e 048f f43e
000001e0: 8265 be3d d8c7 d9bd 18a5 ca3e 0900 313f
000001f0: 15ea 2bbe 5642 16bd c910 123e 645b 1dbf
0.5466694 0.29711726 -0.32437986 -0.14268595 0.05676207 0.13752247 0.44800106 0.1610778
0.40724024 -0.24357633 0.10749684 -0.040742613 0.3196485 0.007844886 0.17672655 -0.35685247
-0.17644478 -0.07005843 0.22664489 -0.20223099 0.15615992 -0.15074074 0.114128254 0.21285558
-0.04433316 -0.05456764 0.38039672 -0.19264153 0.02566333 0.34614593 -0.12388613 -0.10979185
0.18138331 -0.3078379 -0.4939819 -0.14704135 -0.37497193 0.29643074 -0.020036774 -0.044775665
-0.29238746 0.14315435 -0.46661338 -0.037625805 -0.114591986 0.032237493 0.26706058 0.16888887
-0.2784715 0.20375684 0.39277676 0.24630377 -0.39548677 0.085050784 -0.62447876 -0.4495749
-0.48063543 0.24799551 -0.5500538 -0.55286574 -0.07684439 0.3724063 -0.05768418 0.4347619
-0.6160701 -0.43244234 0.14398122 -0.31549484 0.17811531 -0.22920704 -0.15037405 0.17282544
-0.11407042 -0.26050502 0.18282156 -0.100745946 0.11738646 0.41628802 -0.3085024 -0.050740637
0.20993899 0.31570682 0.18341258 0.41695014 0.22791155 -0.12080346 -0.3907685 0.29537806
0.24096951 0.007899187 -0.06206456 -0.19719946 -0.3089031 0.4591956 -0.4842128 0.17623152
-0.36845046 0.45438042 0.46726486 0.18925463 0.4824049 -0.012954549 -0.104356624 -0.03946295
-0.20691255 0.13637963 0.3254714 0.17310995 0.43056473 -0.36245087 -0.085874856 0.01274146
0.047512535 0.358193 -0.40917012 0.25274953 -0.21443027 0.09362945 0.34617198 0.47765362
0.09296705 -0.1063382 0.39579082 0.6914068 -0.16788514 -0.036684357 0.14264216 -0.61467576

encoder.feature_encoder.atom_embedding_list.8.weight f4 [2, 64]
00000000: c7c0 fbbe 157b 453e ee5f 303d d6aa ffbd
00000010: 64ad ce3e 8912 843e e333 1f3f 87e4 3bbe
00000020: 998d f23d 0f1a 7ebe b254 4dbe 4bf4 c0bd
00000030: 23ff 68bd f1e7 593d 96c5 a33e 48b0 1f3d
00000040: 9ff4 6d3c b694 6b3e 8903 10be bde3 31be
00000050: d30c 643e 6c65 51bd e25f d5be e28a ab3e
00000060: e7a3 063f 6d63 e8bc e6cf 723d dbb3 22be
00000070: 46cf eabc 09d1 173f 5173 c3b9 dc06 9e3e
00000080: 8ea9 b9bc f6aa e03e 37c8 0e3b 874e f6be
00000090: 8ebb 553e 7c1b 8c3e abde dfbb 6c0f 8dbe
000000a0: ae41 93be 94d0 e7bd 2333 94be 0e22 01be
000000b0: 5673 ccbe 675c b93d 3e35 863e a85e fbbd
000000c0: 517c abbe 6731 913e 634f c7bd b3b7 223e
000000d0: 6386 02be 5e37 583e 97b6 b6be 97b0 16be
000000e0: dcbc 793e e3fc 42bd f4e4 4d3e 4f0a b03e
000000f0: 7ce0 51be 85da 903d 8b21 0d3e 4d82 a6be
00000100: 2157 ca3e 02d0 dcbd 978d e93d ba8a 813e
00000110: 1282 b2be 25e2 0fbe deb7 a9be 3bb4 5ebe
00000120: 3f93 543e 7e06 863d 5e87 5c3e 45c7 0fbd
00000130: df17 bcbd 0eda 8c3d 5602 463d e3d7 14be
00000140: 9294 abbd fa3a 823e ba21 833d 9860 92bd
00000150: 6773 133e aa92 99be f2c8 b4bd cc88 723e
00000160: f04e 183d 83b7 b6be 2d25 25be d54d e2bd
00000170: fbcc a23e 23c3 02be e73c 04be f7d6 3d3e
00000180: 8c30 a43d a0f9 9c3e b297 89bd 02be 023d
00000190: aee9 d23e dfdf a1bd ca78 ecbd 66ce 033f
000001a0: 926c 8ebc a6b7 5bbd e00d 183e d2f2 e7bd
000001b0: adb2 0d3f bd3b 01be db81 91be e7a0 8a3e
000001c0: 0645 023e b142 52be 1da6 943e f24b 71be
000001d0: 546e d2bd 9093 22bd 72fe 273e 351d 8bbe
000001e0: 4dc8 363e 8e71 9b3e d16f 093e edea 823d
000001f0: d146 7ebe 54fc 613e 45c4 c6bc be60 8c3c
-0.49170515 0.19285233 0.043060236 -0.12483756 0.40366662 0.2579539 0.6218855 -0.18348895
0.11843414 -0.24814628 -0.2005184 -0.09421595 -0.056883942 0.053199712 0.31986684 0.038986474
0.014523654 0.23005947 -0.14063849 -0.17372032 0.22270517 -0.051122114 -0.41674715 0.33504397
0.52593845 -0.028367722 0.0592803 -0.15888922 -0.028663289 0.5930334 -0.00037279216 0.30864608
-0.022663858 0.43880433 0.0021786818 -0.48106787 0.20872328 0.2736472 -0.006831964 -0.27550828
-0.28761047 -0.1131908 -0.28945264 -0.12610647 -0.39931744 0.090508275 0.26212496 -0.122739136
-0.33493283 0.28358003 -0.09731939 0.15890388 -0.12746577 0.21114871 -0.3568618 -0.14715801
0.2438845 -0.047604453 0.2010687 0.34382865 -0.2049579 0.07072929 0.13782327 -0.32521287
0.395196 -0.10781862 0.11403959 0.25301152 -0.3486486 -0.14051111 -0.33148092 -0.2174844
0.20759295 0.06544207 0.21536013 -0.035102148 -0.091842405 0.06877528 0.04834207 -0.14535479
-0.08377947 0.2543562 0.06402917 -0.0714733 0.14399491 -0.29994708 -0.0882739 0.23684996
0.037184656 -0.35686883 -0.16127463 -0.110500015 0.31797013 -0.12769751 -0.12913857 0.18539034
0.08017072 0.306592 -0.06718387 0.031919487 0.41193908 -0.07904028 -0.11546476 0.51486814
-0.017385755 -0.053641938 0.14849043 -0.11325611 0.5535076 -0.12620445 -0.28419384 0.27075884
0.12721643 -0.20533253 0.29032984 -0.23564127 -0.1027495 -0.039691508 0.16405657 -0.2717072
0.17849846 0.30360073 0.13421561 0.06392465 -0.24831702 0.22068912 -0.02426351 0.017135974
